data/cmd_td3_pytorch_use/cmd_td3_pytorch_use_s10/pyt_save/model.pt (torch_old, 988677 bytes, 16 tensors)

weight f4 [256, 44]
000000 69 62 31 bf b3 81 62 bf bc 0b b6 bf 6a 27 56 3f
       -0.69290787 -0.88479155 -1.4222331 0.8365389
000010 6c 5b ad 3e 63 2f 16 3d 72 51 bb bd ee 97 f0 be
       0.33858812 0.036666285 -0.09146394 -0.46990913
000020 f8 74 50 3f b3 69 87 be 79 05 68 bf 0f b3 bb bd
       0.8142848 -0.2644783 -0.9063335 -0.09165012
000030 b6 d5 0b 3f 47 91 98 3e c9 53 ef be 4d 2a e2 3e
       0.5462297 0.29798338 -0.4674361 0.44172898
000040 1d 6c 03 3f 03 05 40 be f5 78 75 be 0e c0 6e 3d
       0.5133684 -0.18751912 -0.23971923 0.058288626
000050 e8 4e 22 bf 81 f5 b3 3e 77 4b a4 be ef d2 83 3e
       -0.6340165 0.35148242 -0.32088825 0.25746867
000060 ce a0 d1 3c 0b 66 16 3e 48 67 a2 3d 60 14 e0 bd
       0.025589373 0.14687364 0.079298556 -0.10941386
000070 c0 7d 00 bf 97 15 6b 3d 4d b2 42 be c3 0a 24 3f
       -0.5019188 0.057393637 -0.19013329 0.6407892
000080 7c 03 c6 bc 6d 68 2c 3f e5 90 ad be a4 a8 74 3d
       -0.024171583 0.6734684 -0.33899608 0.05973114
000090 ea b0 7c be 9b b0 35 bf 10 fb 00 bd 9a 36 1b 3d
       -0.24676862 -0.70972604 -0.03148943 0.03789387
0000a0 1f d1 1f bd e9 53 82 3d 33 26 22 be 6e 5d 6b bf
       -0.039017793 0.06363661 -0.15834884 -0.9193944
0000b0 a4 6e 7c bf 9c 06 04 c0 0e fa 61 be b7 86 99 3d
       -0.98606324 -2.0629034 -0.22068045 0.07496398
0000c0 02 73 90 bd fe 7b 7f 3e 22 e3 bd 3d 78 99 aa 3e
       -0.07053186 0.24949643 0.09271838 0.33320212
0000d0 48 46 ca 3e e8 fb a2 be df 7e 32 bf 8c 57 8b bd
       0.39506745 -0.31832814 -0.6972484 -0.068038076
0000e0 32 60 2d bf f9 4f 4c 3e 8c ce 55 3e 30 01 c4 bd
       -0.6772491 0.19952382 0.20879573 -0.09570539
0000f0 6c f9 a2 be db d9 03 3c d6 b1 92 3d c7 ab be be
       -0.3183092 0.008047546 0.07162826 -0.3724043
000100 30 b1 c1 3e c9 d6 1b 3d 81 dd 5e 3e 6a 45 e8 bd
       0.37830496 0.038046632 0.21764185 -0.11341365
000110 92 0a a6 be 41 4c a8 3e 70 79 d3 be ec fe a4 be
       -0.3242994 0.32870677 -0.41303587 -0.3222574
000120 38 54 06 3d 84 23 87 3d 3d 8d f5 3e a4 74 51 3e
       0.03279516 0.06598571 0.4795932 0.20454651
000130 37 df 9f be 6d 8b 57 bd 76 b8 b8 be 02 ff f0 bd
       -0.31224987 -0.0526232 -0.36078233 -0.11767389
000140 b5 58 86 3f 03 cd d0 3e 00 88 93 be 80 14 01 be
       1.0495821 0.40781412 -0.28814697 -0.12605476
000150 18 61 ce 3e ea 66 7f 3c 24 6a 83 3d 0e 97 13 3e
       0.40308452 0.0155885015 0.06416729 0.14413092
000160 e5 e7 f9 be 28 38 9d be 34 0c 11 bf b5 43 c0 3e
       -0.48809734 -0.30706906 -0.56659245 0.37551656
000170 b7 30 df 3e 26 15 c4 3d 4b 3c 90 3d fc 6f f0 be
       0.43591854 0.09574346 0.0704275 -0.46960437
000180 67 cb 71 be de 4f 9a 3e 5e 62 36 bf 22 73 ec 3e
       -0.23612748 0.3013906 -0.71243846 0.4618159
000190 3d 44 d0 bd 12 aa 1c 3e 90 96 a9 be 5a 0b d3 be
       -0.101692654 0.15299252 -0.33122683 -0.41219598
0001a0 c1 ed d1 be 84 bb 5a be ca 72 be bd 24 e8 ed 3d
       -0.41001704 -0.21360594 -0.09299238 0.11616543
0001b0 d6 9c a4 be 4c 8e b8 be 36 38 8d be 77 9f 5e be
       -0.32150906 -0.36046064 -0.27581948 -0.21740519
0001c0 b0 5e 41 be 2d 9c c4 be 41 a9 03 3d d1 bb dd 3e
       -0.18883777 -0.38400403 0.032143835 0.43307355
0001d0 1a ad cd be ec f5 47 3e 0e 21 94 be c3 10 17 3f
       -0.4017113 0.19527406 -0.2893147 0.5900995
0001e0 f7 f4 86 3e 78 d1 88 3d 4e ff c4 3d 66 1b 63 3e
       0.26358768 0.06680578 0.09619008 0.2217842
0001f0 c2 a4 ae bc 99 3f 50 be cc 8f 80 3f 02 dd ed be
       -0.021318797 -0.2033676 1.0043883 -0.46457678
000200 5c cd b9 be 81 13 7d 3e 10 58 8f bf 97 10 e0 bf
       -0.3628949 0.24714471 -1.119875 -1.7505063
000210 d5 de d0 be 7a 30 55 3f d6 88 22 3f 64 46 38 3e
       -0.40795007 0.83277094 0.63490045 0.17995602
000220 51 b0 3d 3d 76 fd 31 3f a6 03 84 bc dd bc 30 bf
       0.046310727 0.69527376 -0.016115021 -0.6903818
000230 b7 25 ab 3e c8 54 5c ba f0 be d1 3d 68 19 9e be
       0.33427212 -0.00084049674 0.102414966 -0.30878758
000240 18 fd fe 3c 88 ad 91 3d 7a 55 d1 bc c9 cc 84 be
       0.031126544 0.071131766 -0.025553454 -0.2593749
000250 fa 02 9d be 15 f5 d9 bd 0f 46 4a 3e 12 83 39 3e
       -0.30666333 -0.10642449 0.19753288 0.18116406
000260 9c 72 34 be 9c 5d 17 3e 5a a4 5f bd ca 2c 38 be
       -0.17621845 0.14781803 -0.054600097 -0.17985836
000270 7e 0a 12 bf a1 6a ff bd 66 93 5c 3e 9a 73 67 3d
       -0.5704726 -0.1247151 0.21540603 0.05650673
000280 18 52 40 bd f7 53 bb 3c 39 6a b1 bd 61 35 20 3e
       -0.04695329 0.022867186 -0.086628385 0.15645362
000290 12 08 5e be a8 d0 aa 3e ea 04 0a be 92 40 c5 3d
       -0.21682766 0.33362317 -0.13478437 0.096314564
0002a0 45 df 93 3e 26 a8 63 3d bf 12 4b 3d 20 5f 5b be
       0.2888128 0.05558028 0.049578425 -0.21423006
0002b0 91 b8 08 bf 84 e8 b1 bd a1 69 b6 3e e5 d9 18 bf
       -0.53406626 -0.08686927 0.35627463 -0.5970748
0002c0 7a 5c de bf 25 f2 e6 3f a2 15 0f 3f d5 f8 0b be
       -1.7371972 1.8042647 0.55892384 -0.1366914
0002d0 65 96 7c be 2f 49 df be aa 1c 19 3e 3b 72 1d bf
       -0.24666746 -0.43610522 0.1495234 -0.61502427
0002e0 92 4a 14 bf 5e 3a 4c be ac bb c2 3e 77 58 19 3f
       -0.57926285 -0.1994414 0.38033807 0.5990061
0002f0 ec e4 66 3e 36 c6 87 be 00 db 56 bd 4f 8f 51 3d
       0.22548264 -0.2651841 -0.05245495 0.05116206
000300 16 9b 95 bb 93 6f 07 3d 60 b2 83 3a bd 2a 93 bc
       -0.004565607 0.03306539 0.0010047667 -0.017964715
000310 0d 16 d0 be 5c e5 a7 be 0f 6a 24 be 77 c3 2d 3e
       -0.40641823 -0.32792175 -0.16056083 0.16969095
000320 74 9a 4e 3e e5 1c 10 3e 64 b5 5a 3f d9 7c 4e 3f
       0.20176107 0.14073522 0.8543303 0.8065925
000330 88 67 bb 3d a4 45 c4 be 48 73 5a bf 2e 7e 82 be
       0.091506064 -0.38334382 -0.85332155 -0.25486892
000340 59 18 ef bd 19 68 67 bd a3 18 61 3e 90 08 3d be
       -0.11674566 -0.05649576 0.21982054 -0.18460298
000350 90 a0 49 bf d9 0c f9 3d 1a 10 06 bf 1d d5 f1 3d
       -0.78760624 0.121606536 -0.5236832 0.11808226
000360 64 93 b5 3e e1 6d 94 3c e0 88 06 3f 42 f2 01 3e
       0.35464013 0.0181188 0.52552605 0.1269007
000370 db 88 f0 be 2c b7 96 3f 1e 5d f1 3e bd 67 af bd
       -0.46979412 1.177465 0.47141355 -0.085647084
000380 f1 11 f9 3d e2 86 e3 bd 43 02 3c bd 65 19 06 bf
       0.12161625 -0.11109711 -0.045900594 -0.523825
000390 50 65 4f 3e 52 a7 11 3f 8e df 2c bf 84 56 36 bd
       0.20253491 0.56895936 -0.6752862 -0.0445161
0003a0 3b 9f 4b 3f 78 0a e1 bd c2 61 14 be 44 5b c5 bd
       0.7953984 -0.10988325 -0.14490417 -0.09636548
0003b0 a2 d1 54 bd 5f e2 3c 3e 19 f3 51 3e b1 0f e5 3e
       -0.051957734 0.18445729 0.2050289 0.44738534
0003c0 70 75 91 3d 09 35 c9 3e fb c4 d5 3d 3b 8b d7 bd
       0.071024776 0.39298275 0.10437962 -0.10524603
0003d0 7b 0b 0e bd 5b b9 94 b9 6a 47 87 3e 73 07 1a 3e
       -0.034678917 -0.0002836686 0.26421672 0.15041904
0003e0 85 45 66 3e e2 e6 5a 3e 43 61 45 bd a5 a5 f1 3d
       0.22487457 0.21377137 -0.04818846 0.11799172
0003f0 87 34 01 bd 64 40 5c 3e d2 72 6b be 58 c5 4e be
       -0.031544235 0.21508938 -0.22993019 -0.20192468

bias f4 [256]
000000 3e cd 13 bf 7f c8 a9 3e 19 ea a3 bf d7 b2 ed be
       -0.5773505 0.3316078 -1.2805816 -0.46425506
000010 d7 bc 2c 3f 39 01 29 be 12 69 82 3d d3 42 f9 3e
       0.67475647 -0.16504373 0.06367697 0.48683795
000020 af d0 ae 3e 2d 5d c0 3e 62 26 6c 3e b4 bc 97 bd
       0.34143588 0.37571087 0.23061517 -0.07409039
000030 3c 87 a4 bf 32 75 b5 3d db d3 33 bf d3 8e 53 bf
       -1.285377 0.08860244 -0.7024514 -0.8263981
000040 7b 32 23 bf 05 de 8e bf fb 14 3e 3e f4 bb bb be
       -0.637489 -1.1161505 0.18562691 -0.36666834
000050 61 17 25 bd 60 8e 20 bf be 8b b3 bf 4f 61 d2 bc
       -0.0403055 -0.62717247 -1.4027021 -0.025681166
000060 e5 f5 9c bf 94 f2 ac be a8 6c ae be 44 28 8b bc
       -1.2262541 -0.33778822 -0.34067273 -0.016986974
000070 7f 83 ba 3e cc ec cf be 3a c1 70 bf 1d 1d cc be
       0.3642845 -0.4061035 -0.9404484 -0.39865962
000080 d4 a8 9a bf 1d 1d 52 bf 82 5d 0f bf 41 2b 22 bf
       -1.2082772 -0.82075673 -0.56002057 -0.6334725
000090 23 76 5a bf 9d ff a9 be c6 b0 61 bf 50 a0 18 be
       -0.8533651 -0.3320283 -0.8816036 -0.14904904
0000a0 24 37 50 bf 52 e0 9b 3e 57 ff 55 bf c7 17 b0 bd
       -0.8133414 0.3044458 -0.8359274 -0.08598285
0000b0 ab 68 4b bf 2c f6 94 3f ab e9 96 bf 09 dd 5a bf
       -0.79456586 1.1637626 -1.179006 -0.8549352
0000c0 47 59 9e bc f7 23 ba 3e 75 5b a6 be c9 6e 8f be
       -0.01932968 0.36355564 -0.3249165 -0.2801421
0000d0 a5 8c ac be 3b 38 3f be 0f b6 6b bf 10 6c 9e 3f
       -0.33701053 -0.18673794 -0.92074674 1.2376728
0000e0 9e fd 60 bf 8e 20 cc be 60 59 2e bf d5 24 38 3f
       -0.8788699 -0.39868587 -0.68105125 0.719312
0000f0 c1 28 c7 be 8c ef b1 bd 47 f7 13 bf c8 55 92 bf
       -0.3889828 -0.08688268 -0.5779919 -1.1432428
000100 85 90 22 3e aa 6c ae 3f 38 4d ff be b9 6f 71 bf
       0.15875442 1.3626912 -0.498636 -0.943111
000110 af 0d 17 3d 8e b9 a1 be 34 73 9e bf d9 66 88 3f
       0.036878284 -0.3158688 -1.2378907 1.0656387
000120 9d 2c 07 3f ea 3f e4 be fe c3 a7 be 24 a5 d5 bf
       0.5280245 -0.44580013 -0.32766718 -1.6691022
000130 42 bf 38 bf e8 89 e7 be 4c 87 b3 be b4 01 06 be
       -0.72166836 -0.45222402 -0.3506416 -0.13086587
000140 92 03 3f bf 2c 8c bc bf 08 72 81 bf e4 6e dc be
       -0.7461482 -1.4730277 -1.0112925 -0.43053353
000150 cb 2f bc 3f 09 c4 ca be cb 0c ee bd 6c 2a 18 be
       1.4702085 -0.39602688 -0.11623534 -0.14859933
000160 50 ce 71 bf a2 31 d0 3c 84 fa 5c bf f1 f9 a3 be
       -0.9445543 0.025414292 -0.86319757 -0.32026628
000170 fd 33 c0 be 3d cd e8 be 90 98 4a 3e 9f 76 42 bf
       -0.37539664 -0.45469084 0.1978476 -0.7596225
000180 08 63 29 be 77 e4 c4 be bd 4d 2a bf d0 4d b9 bf
       -0.16541684 -0.38455555 -0.6652487 -1.4476871
000190 2a 52 5e 3c 1e 7f 47 bf ac f2 ae be 9a 20 07 bf
       0.013569394 -0.7792834 -0.3416952 -0.5278412
0001a0 03 dd 78 bf 86 59 78 bf 72 d3 84 bf af e6 2a bf
       -0.9721224 -0.970116 -1.0377028 -0.66758245
0001b0 5a 8d 92 bf 71 27 18 bf a3 17 47 bf 7e 16 4e 3e
       -1.1449387 -0.5943518 -0.7777044 0.20125768
0001c0 43 09 ad be ef 97 aa be af 4b e1 bd 78 e5 ce 3c
       -0.3379613 -0.3331904 -0.110007636 0.025255904
0001d0 9a b2 f0 be 8c 28 76 bf 34 3a 41 bf e0 e6 75 bf
       -0.47011262 -0.9615562 -0.75479436 -0.9605541
0001e0 a1 12 15 3d 82 f1 90 bf 34 79 d1 be 6f 66 6d bf
       0.03639472 -1.1323702 -0.40912783 -0.92734426
0001f0 98 37 16 bf 96 4a 26 bf 4a 84 f3 be c7 46 a7 be
       -0.5867858 -0.6495756 -0.47561866 -0.32671186
000200 10 6e b9 be f0 16 3f 3f 03 e5 05 be 16 6d 8f bf
       -0.36216784 0.74644375 -0.13075642 -1.1205165
000210 90 9c 80 bf 1c e6 33 bf 12 0f 2a bf 78 49 07 3e
       -1.0047779 -0.70272994 -0.66429245 0.1321162
000220 cb 04 87 bf 8e a8 40 3e 0d e1 ab bf f4 72 d5 3d
       -1.0548338 0.18814299 -1.3428055 0.10422316
000230 7c 65 90 be 48 fd 85 bf b6 db 32 be 72 19 f5 be
       -0.28202426 -1.046792 -0.17466626 -0.47870976
000240 ac 7a 45 bf a6 72 6b bf c2 ef 17 bf 12 fc ba bd
       -0.7714031 -0.91971815 -0.59350216 -0.0913011
000250 92 69 84 bf c4 84 5c bf 4d 09 af bd cc af f6 be
       -1.0344718 -0.86140084 -0.08546696 -0.48180997
000260 5d 32 97 3d c5 0b f3 bc f0 84 96 bf 8a 96 66 bf
       0.07382653 -0.029668698 -1.1759319 -0.90073454
000270 e1 0f 9f bf 27 41 51 3d 75 be ba be e3 b9 65 bd
       -1.2426721 0.051087525 -0.36473432 -0.05608548
000280 2e 73 1c bf aa f4 93 bf 60 fc 04 bf 95 56 8a bf
       -0.6111325 -1.155904 -0.51947594 -1.0807673
000290 59 d9 09 bf 15 3d 9a be a6 b7 48 bf 46 46 8d bf
       -0.5384727 -0.30124727 -0.78405225 -1.1037071
0002a0 93 e2 11 bf 97 9c 79 be 85 1c 12 bf 37 cf c7 be
       -0.5698635 -0.2437614 -0.5707477 -0.3902528
0002b0 64 52 8d bf f8 a7 81 bf dd a8 75 bb e8 58 a4 bf
       -1.1040769 -1.0129385 -0.0037484684 -1.2839632
0002c0 7b a0 84 bf d4 f3 8e be eb 52 64 bf b4 31 2e be
       -1.0361475 -0.279204 -0.8918902 -0.17011148
0002d0 42 62 84 3e 25 06 49 bf 12 ec 4e bf dd 6f 07 bf
       0.25856215 -0.78525 -0.80828965 -0.52905065
0002e0 40 02 68 bf 6a cf 89 bf 5d 40 bf bf 3f 7c 57 bf
       -0.90628433 -1.0766423 -1.4941517 -0.8417396
0002f0 b3 87 3e bf 43 86 85 bf 09 f4 09 bf 23 ff 94 be
       -0.7442581 -1.0431598 -0.53887993 -0.29100904
000300 fd 5c e8 be 99 e2 e0 be 8c 8b 3c bf f9 0f c0 bf
       -0.45383444 -0.4392288 -0.7365043 -1.5004874
000310 e8 a4 12 bf 6d 0e 11 be e4 88 85 be bf f9 8a bf
       -0.57282877 -0.14165659 -0.26081002 -1.0857466
000320 42 ed be 3f a5 0d 57 bf b0 75 a8 be 72 08 15 bf
       1.4916155 -0.84005195 -0.32902288 -0.5821601
000330 ad 4f 13 bf 49 97 9e 3e 5c f4 77 3e 1e 9e f2 be
       -0.5754345 0.30974796 0.2421431 -0.4738626
000340 f4 83 d8 3e 53 10 99 bd a8 2a 74 bf 8d e0 a3 bf
       0.42288172 -0.07473817 -0.9537759 -1.2802902
000350 3b 20 16 3f 63 6e 3f bf dc ed e0 be 86 b6 1b 3f
       0.5864293 -0.7477781 -0.43931472 0.60825384
000360 dd c0 bb 3f 23 bc af bf a9 cb b4 bf 71 d1 a6 bf
       1.4668232 -1.372929 -1.4124652 -1.3032666
000370 1f e7 03 bf ef 17 47 3e 73 28 3d 3e 02 7d 6c be
       -0.5152454 0.19442724 0.18472461 -0.23094562
000380 3d bc 0e bf 07 02 fc be 70 42 2b 3f 0c ba 99 bf
       -0.5575598 -0.49220297 0.6689825 -1.2009902
000390 c1 32 6b bf 59 99 bd be 07 63 03 3f 85 3b 92 bf
       -0.9187432 -0.37031057 0.5132298 -1.1424414
0003a0 10 ff c2 3e 24 22 a7 be e9 92 88 bf 8f 8a 1a bf
       0.38085222 -0.32643235 -1.0669833 -0.60367674
0003b0 8a 17 10 bf 11 5c 0f bf 1c 1c 6a 3e a5 a1 50 3e
       -0.5628592 -0.5599986 0.22862285 0.20374162
0003c0 09 96 e9 be b7 5c a3 be af 1c 9a be 59 15 81 be
       -0.4562228 -0.31906673 -0.3010001 -0.252116
0003d0 5d 73 91 be d5 8a b1 3e 63 a4 33 be 6d d5 61 bf
       -0.28408328 0.34676233 -0.17543177 -0.88216287
0003e0 2f 85 4d bf 92 94 22 bf 7e f0 3c bf 51 a9 63 bf
       -0.8028135 -0.6350795 -0.7380446 -0.8893023
0003f0 08 29 23 3e 4f b4 6b bf 41 43 b5 be ca 7e e2 be
       0.15933621 -0.92072004 -0.35402873 -0.44237357

weight f4 [256, 256]
000000 7f 50 57 be 2a 90 e9 3d b5 00 39 3e a1 0e 65 3e
       -0.210268 0.1140445 0.18066676 0.22368862
000010 7f f0 b7 bd 92 e7 4c 3e ab 71 8c 3e 10 f2 29 be
       -0.08981418 0.20010212 0.27430472 -0.16596246
000020 62 74 a5 3e 5b 9c c1 3c 4d 6c b2 3d 79 a3 59 bc
       0.32315356 0.023634126 0.08712063 -0.013283604
000030 de 35 ac be c8 8d 4b bf ea cd ba 3d 3b 18 68 bd
       -0.33634847 -0.79513216 0.09121306 -0.056663733
000040 b8 19 0b 3f 42 2d aa 3f 5c c5 a9 be 77 e8 95 3e
       0.5433612 1.3295062 -0.33158386 0.2927892
000050 67 a1 9f be 8a 0a 27 3e 4e 87 18 3f 2b ea 58 be
       -0.31177828 0.16312614 0.5958146 -0.21183078
000060 76 a5 ca bc 73 5e bb bd ca 4a c7 3e 68 50 9d 3c
       -0.024737101 -0.09148874 0.38924247 0.01920338
000070 79 a5 3d bd b7 09 ff 3d 1f 7f c4 3e 6d c0 7c bd
       -0.046300385 0.12453025 0.38378236 -0.06170695
000080 76 ea e2 bd 1d 36 00 3e d9 b3 61 3e 18 90 96 be
       -0.11079876 0.12520643 0.22041263 -0.2940681
000090 45 74 39 bf 2f f7 40 3e 8f 41 87 3c 60 a5 19 3e
       -0.7244304 0.18844293 0.016510753 0.15004492
0000a0 02 17 a5 be ea 64 ce bd 12 bb f6 be 92 be 24 3d
       -0.32244116 -0.100778416 -0.48189598 0.040220805
0000b0 85 11 c9 be e3 c3 04 bf e7 5b 91 bd 2a a0 29 3e
       -0.3927118 -0.518614 -0.07097607 0.16565004
0000c0 e3 1f b1 3e 94 e6 e2 bc 69 b5 ef be d7 ea 73 bd
       0.3459464 -0.027697839 -0.46818092 -0.059550133
0000d0 14 71 7d 3e f5 26 23 bd 4b f5 68 3e 18 e8 32 bc
       0.24750167 -0.039832074 0.22749822 -0.010919593
0000e0 ee b3 1f be aa fd 5a be a4 6c 51 3e ca 56 0c be
       -0.15595981 -0.21385828 0.204516 -0.13704982
0000f0 b4 00 f0 3c c8 e8 c3 3e a0 6b fa bc 7c cf 97 3e
       0.02929721 0.38263535 -0.030568898 0.29650486
000100 11 75 a4 3e 08 8a 8c 3d 39 43 0a 3d b4 c4 28 be
       0.32120565 0.06862265 0.033755515 -0.16481286
000110 ea 56 ec 3c 60 88 fd 3e cf 40 a9 3e 0e c3 a6 be
       0.028850038 0.49518108 0.33057258 -0.3257069
000120 11 bf 5a 3e 59 04 0f 3e ad 24 db be ce ba 32 bf
       0.21361949 0.13966502 -0.4280142 -0.6981629
000130 3d 88 4f bf 48 e4 f1 bd c6 37 e7 bd ae cc 15 be
       -0.8106726 -0.11811119 -0.11289935 -0.1462886
000140 19 b2 66 3e b5 2e 85 be e8 c3 dc 3d dd f5 04 bf
       0.22528876 -0.26012197 0.10779554 -0.5193766
000150 ce f0 4e 3e 92 ca cd 3e 79 6e 5a bd 23 f4 61 be
       0.20209047 0.4019361 -0.05332801 -0.22065787
000160 7a 7a 3d bb 34 56 8b be f7 39 05 3e 1f ff 1f 3d
       -0.0028912113 -0.27214205 0.13010393 0.03906166
000170 d1 96 ee 3d 53 7d d9 3d 97 f8 9a 3d 46 23 cb 3e
       0.1164986 0.10619607 0.07566946 0.3967535
000180 5e 25 47 3e cb 41 80 bc 40 b0 e7 bc 7c 72 3a be
       0.19447848 -0.015656373 -0.028282285 -0.18207735
000190 34 dd c8 3d 19 21 29 3f bc 7b 44 3e 0d 08 df 3e
       0.09807816 0.6606613 0.19187826 0.4356083
0001a0 24 b4 93 be ef e3 d1 3c ea 7f 2b 3e 2b 6a 6d be
       -0.28848374 0.025621383 0.16748014 -0.23185031
0001b0 ff 88 6c 3e a7 62 c6 bc b7 ae 15 3e 81 f6 10 be
       0.23099135 -0.024216963 0.1461743 -0.14156534
0001c0 5d 27 26 3d b7 02 8f 3e e2 b2 3f 3e 4c 5f d9 3e
       0.040564884 0.2793176 0.18720582 0.42455518
0001d0 4c b1 de 3d e4 6c 0c 3d 31 53 09 3d 02 12 59 3d
       0.108736604 0.034283534 0.033526603 0.05299569
0001e0 82 df 60 3e 68 f9 4e 3d 48 fa 04 3e 4d 10 c4 3e
       0.21960261 0.05053082 0.129861 0.38293687
0001f0 c9 30 80 3e 01 7a a0 3d eb 81 ea bc 27 b7 1d bf
       0.2503722 0.078357704 -0.028626403 -0.61607593
000200 3f 9e 5d 3e 3b f9 d9 bd 6b 9e f4 3d 36 55 a0 3e
       0.21642397 -0.1064324 0.11944278 0.3131501
000210 6e 8b f6 3e de 83 d3 3c ce c4 32 3f dd c4 8b 3e
       0.4815325 0.025819715 0.6983155 0.27298632
000220 87 b7 d4 3d 01 42 10 3d e1 1d 4c 3e 52 68 f2 3d
       0.103865676 0.035219196 0.19933273 0.11836304
000230 58 f3 cb bd 23 49 a3 3e 59 3c 7c 3e 6f 03 ff bd
       -0.099585235 0.31891736 0.24632396 -0.12451827
000240 c3 03 4e bf 98 41 0e 3d 5f 49 21 3e 57 6e d6 3e
       -0.8047449 0.034730524 0.15750645 0.41881058
000250 f2 62 47 3d b6 42 71 3e 77 5e 5e 3e 2a 53 9a 3d
       0.048678346 0.23560604 0.21715723 0.075353935
000260 bf 70 f0 3e 58 44 81 3e 3c 15 fc 3d a3 4e 2c bd
       0.46961018 0.25247455 0.12308738 -0.04206718
000270 ae e6 68 bc df 1f a5 3e 88 8a 46 bc b6 f2 8d 39
       -0.014215155 0.32250878 -0.012117989 0.0002707445
000280 49 e2 e0 3e 99 66 2b 3f 92 d9 ca 3d 19 ac 4a 3f
       0.43922642 0.66953427 0.099047795 0.7916885
000290 30 59 5e bf 90 6c b9 3e 90 e9 ff 3c 59 11 1d 3e
       -0.8685484 0.3621564 0.031239301 0.15338649
0002a0 7d af 26 be d7 ff 88 bc d7 5a 8f bd 96 21 cb be
       -0.16277881 -0.016723556 -0.06999748 -0.39674062
0002b0 0a 29 ac be 3d 6d 81 3e bc 2c de be 4f 25 e9 3e
       -0.3362506 0.25278655 -0.43393505 0.45536277
0002c0 e1 3f ce 3e 88 f3 e0 3c 80 87 41 be 47 d3 86 be
       0.4028311 0.027459875 -0.18899345 -0.26333067
0002d0 6c 41 82 be 86 49 57 3e 91 f8 40 bc d0 a9 62 3e
       -0.25440538 0.2102414 -0.011778013 0.22135091
0002e0 54 4d ea be 8e e2 6d bd 1f fa 34 3e b7 9a d8 bd
       -0.45762122 -0.058077388 0.17673539 -0.105763845
0002f0 93 b4 6c 3e 4a 53 38 3f 77 4b 84 be 8b d2 c5 3c
       0.23115759 0.7200209 -0.25838825 0.024148246
000300 04 56 f2 bd 6e b8 4d 3e 76 7b 85 3e 80 ab 8e bd
       -0.118328124 0.20089886 0.26070756 -0.06966305
000310 10 45 37 3d 26 b8 7f 3d 7e f8 06 bd f6 8a 8b be
       0.044743598 0.062431477 -0.032951824 -0.27254456
000320 54 21 10 bf 6c 0c af 3e 50 f0 99 3d 0d 37 06 3e
       -0.56300855 0.34189165 0.07516539 0.13106938
000330 bd 8f c2 3d 5d 43 20 be 6a d3 df bc 85 d4 1f be
       0.09500072 -0.15650697 -0.02732249 -0.15608414
000340 78 ce 82 3e f4 86 5c 3e c1 48 b2 3d 93 c0 58 3f
       0.25548148 0.21535856 0.08705283 0.84668845
000350 48 6b 03 3e ce 8c 78 3e 31 e1 6b 3e 67 54 1e bf
       0.12833893 0.24272463 0.23035122 -0.6184754
000360 7e 81 70 bd d5 72 25 3f 2b cc cf 3e d5 ba 75 be
       -0.058717243 0.64628345 0.40585455 -0.23997052
000370 cc 9f 79 be d9 0d a7 bd 1c e6 fd bd da 88 c4 bc
       -0.24377364 -0.08156938 -0.123974055 -0.023991037
000380 65 75 ea be 23 e5 49 3d 9e 08 52 bc 7e a4 0e bf
       -0.4579269 0.049290787 -0.012819437 -0.55719745
000390 e3 20 ed be 82 6a 83 3e 4e 50 7d be ae da 4f 3e
       -0.46314153 0.25667197 -0.24737665 0.20298263
0003a0 ad 22 76 3e bd 02 55 3d 8b d8 25 bd f7 54 03 3d
       0.24036665 0.052004565 -0.040489715 0.03206345
0003b0 91 0b 24 be 8e b8 05 be cc d9 f5 bd 47 16 26 bd
       -0.16020037 -0.13058683 -0.12004432 -0.04054859
0003c0 62 51 7f 3e 26 f4 55 3f cb 91 20 3e a9 45 9d be
       0.24933389 0.83575666 0.15680616 -0.3071721
0003d0 fd bb d1 3e c5 64 b9 3e 36 2a b0 3d 1f f3 ee be
       0.40963736 0.36209694 0.08601801 -0.46669862
0003e0 07 a9 8e 3e af 9d fe be 2b a4 8b 3e 87 5e 04 be
       0.27863333 -0.49729678 0.27273688 -0.12926684
0003f0 4a 04 8e 3e eb 16 ba be 00 0d 8d 3e 32 cd 9d 3b
       0.27737647 -0.3634561 0.2754898 0.004815721

bias f4 [256]
000000 e5 db ba 3e 70 5d 39 bf d9 92 a5 be 53 71 0c bf
       0.3649589 -0.724082 -0.32338598 -0.5486042
000010 2d 3e 27 3d da f9 54 be 32 74 4b bf 87 91 9c bc
       0.04083078 -0.20798436 -0.79474175 -0.019112362
000020 8e b4 b4 bd 37 b6 8c 3e 7b 94 5f 3e ee fc bf bd
       -0.088235006 0.2748277 0.21833985 -0.093744144
000030 36 d4 18 bf f1 e8 3f bf 03 88 c5 be 27 4a 41 bd
       -0.5969881 -0.74964815 -0.3858033 -0.047189858
000040 55 1b 07 bf cd 50 ca be 8f 74 1d bf 28 e9 0c be
       -0.5277608 -0.3951477 -0.6150598 -0.13760817
000050 eb cb 8a be e5 77 6c 3d 96 61 72 bd ae b3 8a 3d
       -0.27108702 0.057731528 -0.059175096 0.067725524
000060 a2 65 a6 bd 32 73 eb bd af dd 67 be e4 8b 19 be
       -0.08124854 -0.11496581 -0.2264316 -0.1499477
000070 83 9f 39 be c6 a1 4b 3e 4c 1c e7 be de af 2e bd
       -0.18127255 0.1988593 -0.45138776 -0.04264819
000080 fe 69 4c be 00 b0 90 be 0a 04 7c be 42 63 2d be
       -0.19962308 -0.28259277 -0.24610916 -0.16932395
000090 79 9a 17 bf 77 a3 35 bf b9 b0 45 3e 50 a6 02 be
       -0.5922008 -0.7095255 0.19305696 -0.12758756
0000a0 52 e9 31 bf ce 36 ef 3e 9a ca 08 bf 75 16 88 bf
       -0.69496644 0.467215 -0.53434145 -1.0631853
0000b0 6b 83 85 bf bb 74 2b bf db ee 32 3e 2f 8f 10 bf
       -1.043073 -0.6697499 0.17473929 -0.5646848
0000c0 d6 84 41 bf 22 b2 63 bf f2 21 29 bf 7d 05 9e bc
       -0.75593317 -0.88943684 -0.6606742 -0.019289726
0000d0 fe 11 a1 bc 32 a8 ee be eb 43 f1 3e 8b 06 31 3d
       -0.0196619 -0.46612698 0.4712213 0.04321913
0000e0 71 1e 56 bf d8 42 62 be f0 66 da bd 07 dc 3c be
       -0.836402 -0.22095811 -0.10664165 -0.18443309
0000f0 8c aa 0d be fa f5 ea be 60 80 a5 3e c8 05 ef bc
       -0.1383459 -0.4589079 0.32324505 -0.029177561
000100 a8 2e 90 bd 60 b0 17 3e a0 ec da be 90 bd 6e be
       -0.07040149 0.14813375 -0.42758656 -0.233145
000110 46 04 e4 3d 4b d3 c0 be 7f be ce be 0d 91 e3 bd
       0.111336276 -0.37661204 -0.40379712 -0.111116506
000120 cf b8 84 bf 72 86 6d be fc 7e a2 bd 5e d7 2f bf
       -1.0368899 -0.23195818 -0.079343766 -0.68688
000130 ba 6a ff be c3 53 ee bd c6 2a e0 be b9 42 55 be
       -0.49886113 -0.1163707 -0.43782634 -0.20826234
000140 c7 67 e1 be 9c d5 26 bf 4c d8 58 bf 22 e8 c5 bc
       -0.44024488 -0.6516969 -0.8470504 -0.024158541
000150 3b db 67 be 8b bb e9 be 6e 89 b9 bd 8c 6b 33 bf
       -0.22642224 -0.45650896 -0.09059416 -0.7008598
000160 c2 54 37 be a7 01 16 3f 90 2a fa be 5d 15 06 bf
       -0.17903426 0.5859627 -0.48860598 -0.5237635
000170 a4 d0 96 bf 29 23 1c bf 9f be ea be 2e 5a 27 be
       -1.1782422 -0.6099115 -0.45848557 -0.16342995
000180 3e 9d 09 be 63 46 47 bf a8 53 77 be 15 a2 18 bf
       -0.1343889 -0.77841777 -0.24153006 -0.5962232
000190 90 49 8f bd 8a 8f 20 bd 6d 6e e6 bc ce af b8 3e
       -0.06996453 -0.03919939 -0.028128827 0.36071628
0001a0 09 17 a9 be e1 5c 15 be 97 da 71 bf e2 85 82 bf
       -0.33025387 -0.14586212 -0.94474167 -1.0197108
0001b0 5e 9f 91 3d 0a 69 d3 bd 44 d6 74 3a ec 51 81 3e
       0.07110475 -0.10322769 0.00093397894 0.25257814
0001c0 c3 e8 7f bd 1c 57 99 3d cc fe 79 bd c3 13 d9 be
       -0.06247784 0.07487318 -0.06103401 -0.4239789
0001d0 25 5f 9e bd be 82 c5 bd 02 56 3c be 5f 81 2a bf
       -0.07732991 -0.09644078 -0.18392184 -0.66603655
0001e0 8e 45 5a 3d 18 fe f9 be e8 22 aa be e5 60 c7 be
       0.05328899 -0.4882667 -0.33229756 -0.38941112
0001f0 9c 3e 07 3e c7 21 e7 be 4b cc 48 3c 09 c6 85 bf
       0.13207477 -0.45142958 0.0122557385 -1.045106
000200 e5 20 09 3e 15 ac e0 be be 80 da 3c 92 69 b4 be
       0.13391455 -0.43881288 0.026672717 -0.35236794
000210 8e 72 d3 be 30 2b 51 be 2a 5a 3a bf de 93 ef be
       -0.41298336 -0.20426631 -0.7279383 -0.467925
000220 12 58 15 bf 7a dd 97 bc 58 ec cb bd 08 a1 df be
       -0.5833751 -0.018538225 -0.09957188 -0.43677545
000230 fe a7 00 bf 85 a4 b0 be 1c 4a ce be 66 e3 04 be
       -0.50256336 -0.34500518 -0.40290916 -0.1297737
000240 e9 32 a7 be 22 bf 75 3d d3 30 2b bf 47 9c 95 be
       -0.3265603 0.05999673 -0.66871375 -0.29220793
000250 1d 46 97 3e e4 5c a0 bd 7a bb f0 be 6e 8e 20 bf
       0.2954568 -0.078302175 -0.47018033 -0.6271733
000260 76 69 fa be ba 0d aa be 95 ed f9 be f5 c0 9f bf
       -0.48908585 -0.33213598 -0.48814073 -1.2480761
000270 44 12 b1 be 98 d7 bd be 21 e9 00 bf e1 48 ae 3e
       -0.34584248 -0.37078547 -0.50355726 0.34039977
000280 15 68 80 bd 27 f2 1d bf f6 ca 21 3d d4 b0 a2 bb
       -0.06269852 -0.6169762 0.0395002 -0.004964927
000290 9e 3a 63 bd 54 3d ff bd 00 54 df be 74 48 24 be
       -0.055475824 -0.12462869 -0.43618774 -0.16043264
0002a0 b9 d9 19 bf 1d 22 90 bd df 71 73 3c 6a 81 3e 3c
       -0.60097843 -0.070377566 0.014858692 0.011627534
0002b0 5e ce af bf 4b 97 c9 3e 75 4b b6 bd 0a d0 5d bf
       -1.3734853 0.3937324 -0.08901111 -0.8664557
0002c0 da 02 d7 bd 75 f4 a9 be 40 ab 5f 3e 5d 65 aa be
       -0.10498591 -0.33194318 0.2184267 -0.3328046
0002d0 a3 57 0f be a4 e7 a4 bc 3a 4b 6a be 43 c3 31 3d
       -0.13998275 -0.020129986 -0.22880259 0.043399107
0002e0 36 1a 75 be 9a a2 af be d4 8b 74 bf 5d f9 b2 3d
       -0.2393578 -0.34303743 -0.9552586 0.087389685
0002f0 6a dd de be 75 c6 97 bd c6 98 12 be 77 bb aa 3d
       -0.435283 -0.074108995 -0.14316091 0.08336537
000300 1d 92 e0 be ed 3f a5 bf cc 9e 7b bf b3 72 65 bd
       -0.43861476 -1.2910134 -0.9828918 -0.05601759
000310 55 bd a8 bd b4 4b 6c be 66 49 b5 be 01 a9 94 bf
       -0.08239237 -0.23075753 -0.3540756 -1.1614076
000320 17 c6 f8 3a 57 23 83 3e c4 f6 da bd 74 91 ae 3d
       0.0018979934 0.256129 -0.10691598 0.08523837
000330 a2 68 4c bf 7d 60 c2 bd 97 7a 27 bf c9 6d 5a bd
       -0.79847157 -0.0949106 -0.6542143 -0.053327356
000340 45 20 9e be 2a 7d 34 bc 5f 8a a5 3e be 7a d1 bb
       -0.30883995 -0.01101617 0.3233213 -0.006392806
000350 65 be 03 3f 51 ed 2b be 3b f5 93 bd bf e4 12 bf
       0.51462394 -0.16789748 -0.072245084 -0.5738029
000360 80 15 86 be 3f e0 e7 bc 3d 6c e3 bc f9 4a f5 bd
       -0.26188278 -0.028305171 -0.027761573 -0.119771905
000370 99 1f e0 3a 1b 13 19 bf 5b a7 25 bd 84 e4 ee be
       0.0017099261 -0.5979478 -0.040442806 -0.4665872
000380 34 ec 9e 3e 3c e1 13 bf eb 26 c3 bd ad bf cc bd
       0.31039584 -0.57765555 -0.095289074 -0.09997497
000390 c2 21 db be c5 90 e0 3e 3c 83 b3 be 21 72 b7 3e
       -0.42799193 0.4386045 -0.3506106 0.3582926
0003a0 fb f2 a8 bc e9 84 27 bd cb eb 8c bd 53 81 6f 3e
       -0.020623675 -0.040898237 -0.068809114 0.23389177
0003b0 ea 95 36 bd e7 db 41 bf b5 a6 3b bf c6 91 9e be
       -0.044576563 -0.7572617 -0.7330125 -0.3097059
0003c0 e0 0e 71 be ae 74 17 3c 19 a5 0e bf dd 20 01 bd
       -0.2354083 0.009244127 -0.5572067 -0.03152548
0003d0 13 06 aa be 6d 9a 26 bf e1 61 18 be 89 54 2e be
       -0.3320776 -0.65079385 -0.14881088 -0.17024435
0003e0 b6 ed 62 bd a7 bb bc 3e e5 35 5d 3e d4 f9 89 bd
       -0.05540248 0.36861917 0.2160259 -0.06737104
0003f0 b5 5e b5 bd 97 f8 d0 3e b2 6e 27 3e 44 19 e4 bd
       -0.088559546 0.4081466 0.1635082 -0.111376315

weight f4 [17, 256]
000000 f4 7d 3e 3d 00 b9 45 be 98 79 0c 3f 1b 55 f9 3d
       0.046506837 -0.19308853 0.5487304 0.12174436
000010 71 0e 85 be 22 88 d2 3c 63 27 d6 be 8c 3e 59 3e
       -0.2598758 0.025699679 -0.41826925 0.21215266
000020 61 59 71 b8 ab 6a 0e be a8 a7 2d 3d 20 72 db bc
       -5.7542118e-05 -0.13907878 0.042396218 -0.026787817
000030 60 3d 84 bd 8a fa ef 3e 6e 99 db 3e 45 f6 6e bd
       -0.06457019 0.46870834 0.42890495 -0.05834033
000040 70 18 f9 3d cc a1 88 3d 4e ac 97 be 3b cb 2d bf
       0.12162864 0.06671485 -0.29623646 -0.6788823
000050 cc 0e 42 be 1b 26 37 3e f2 44 f6 bc 94 0d 18 3e
       -0.18950957 0.1788563 -0.030062173 0.1484893
000060 df bf 4d 3e 1e 8b d5 3d ae e5 12 bf 9f 52 67 3f
       0.20092724 0.10426925 -0.57381713 0.90360445
000070 09 f0 cf bb 84 68 6f 3f eb 2f 0d 3e ab 13 ee bb
       -0.006345753 0.93518853 0.1378781 -0.007265528
000080 61 d8 bd be 32 cb 7b be b5 9a 2d be d2 c9 79 bd
       -0.37079147 -0.24589232 -0.16953547 -0.060983486
000090 41 7b b0 bc 4e fb 1d 3e ea a8 de 3c 17 6d b9 be
       -0.021543147 0.15427896 0.027180154 -0.3621604
0000a0 82 49 b3 be 52 b4 fd 3e 7e e3 bd 3d d8 f1 18 3e
       -0.3501702 0.49551636 0.09271906 0.14936006
0000b0 26 90 25 3d 5c 52 31 be 19 17 d2 be b8 d7 06 be
       0.040420674 -0.17316574 -0.41033247 -0.13168228
0000c0 b1 3a 97 be 28 49 17 be 1d 6f 74 3d 8d eb dd bc
       -0.29536965 -0.14774 0.05967628 -0.027089858
0000d0 48 9f 9c 3d f9 f3 e0 bd d2 37 fa 3d fd a3 f3 3e
       0.07647568 -0.10984034 0.12217678 0.4758605
0000e0 85 b3 7f 3c 9c c7 2a 3e 92 61 fe bb eb 73 33 be
       0.015606766 0.16677707 -0.007763096 -0.17524688
0000f0 3c 89 41 be f2 3b 60 bd aa 8a a4 3e 55 80 0d 3e
       -0.18900007 -0.05474467 0.32137042 0.13818486
000100 86 b2 eb bc df 8e d1 be 8c 8f b1 be b5 c4 d8 bd
       -0.02877165 -0.40929314 -0.3467983 -0.10584394
000110 f3 b0 df bc 53 f4 11 3d 3e f0 31 3e b3 4f 23 3d
       -0.027306056 0.035633396 0.17376801 0.03987093
000120 32 a5 05 be ea 4c 8b 3e 1a ef d1 3c df 29 b7 be
       -0.13051298 0.27207118 0.025626708 -0.35774133
000130 8e da bf 3d 94 bc 61 3b 28 20 57 be 69 30 4b 3c
       0.09367858 0.0034444677 -0.2100836 0.012401679
000140 69 29 1e bd 51 0c 23 bf 93 7d 46 be 0b 3e 8c 3d
       -0.03861371 -0.6369067 -0.1938384 0.06847771
000150 c3 29 ed 3d d8 6a 64 bf 55 18 ed 3c e1 97 6b be
       0.11580231 -0.8922553 0.028942266 -0.23007156
000160 d5 03 f4 3d 7d e0 13 3e 81 ed ac 3b e9 6f 5a 3e
       0.119147934 0.14441104 0.005277336 0.21331753
000170 bd c6 9c be ef 57 df be b0 0c 07 3e 6b 93 77 be
       -0.30620375 -0.43621776 0.13188434 -0.24177329
000180 9b e1 9c bb 50 45 54 be eb fd de 3e 91 1a 31 bc
       -0.0047876365 -0.20729566 0.435531 -0.010809557
000190 0c 22 a1 3d 68 cc 39 bd f6 24 fe 3c 91 e2 2b 3f
       0.07867822 -0.045360953 0.031023484 0.6714259
0001a0 71 63 4a be ca 4b d8 3d 8a 3c 2b be 30 37 1e 3d
       -0.19764496 0.105613306 -0.16722313 0.03862685
0001b0 2b d3 73 be 65 1e 3d 3c b3 be c1 3c 3f 32 b8 3e
       -0.23811023 0.011542891 0.023650503 0.35975835
0001c0 a3 60 99 3b 02 05 47 3e 13 80 85 3d 0a b6 b3 be
       0.0046807094 0.19435504 0.06518569 -0.35099822
0001d0 76 6d 74 bd 4a 47 41 bd 1b 10 44 bd 7a 2f ef be
       -0.059674703 -0.047187127 -0.047866922 -0.4671591
0001e0 eb ea 51 be 1f e6 bd be 4d d5 c6 be bd b3 79 3e
       -0.2049977 -0.3708963 -0.3883461 0.24384971
0001f0 78 34 21 bd 79 54 c2 be fb 04 ec bb d9 2a b4 bd
       -0.03935668 -0.37955073 -0.007202742 -0.08797235
000200 af a1 78 3e f6 63 ff be 63 5a 70 be 68 f1 7c be
       0.24280427 -0.49880952 -0.2347198 -0.24701464
000210 57 1f 3d 3e 74 b9 b1 be ed f7 b6 bd 47 64 3b 3e
       0.18468986 -0.34711802 -0.08934007 0.18299972
000220 15 f3 78 3d 5c e8 e7 bc 08 3f 1a 3d 1d dd 85 be
       0.060778696 -0.02830904 0.037657768 -0.2614526
000230 63 74 d8 bd 91 b6 9b 3e 44 75 73 bd bb 75 07 3e
       -0.10569074 0.30412725 -0.059438005 0.13228504
000240 f0 79 35 3f e0 6f 77 3c 25 1a d1 3d c7 bd e1 bd
       0.70889187 0.015102357 0.10210065 -0.11022525
000250 4c b2 ec 3e 94 7d 64 3e 6e 17 de bc 43 89 fa bd
       0.4622978 0.22313529 -0.027110782 -0.12233212
000260 bb af b2 b9 b0 75 8e 3d 43 f6 6d be 24 a2 91 3e
       -0.00034081735 0.06956041 -0.23238473 0.28444016
000270 00 02 da be 5a e8 aa 3e 0f 08 e1 3d ab 7f 50 be
       -0.4257965 0.33380395 0.10987865 -0.20361201
000280 ea 2d 12 3b 94 28 80 3d ea 13 9d 3e 4a 68 c6 bb
       0.00223052 0.0625774 0.30679256 -0.0060549127
000290 12 e8 9f 3d 3e 99 50 be 4c b6 2e bf 03 93 b3 be
       0.07807936 -0.20370957 -0.6824691 -0.350731
0002a0 c3 d4 cd 3c a5 74 84 3e 14 ae 21 3d 90 24 31 be
       0.025125867 0.25870243 0.039472654 -0.17299104
0002b0 0f fc 6d 3c 0e a7 a3 3e 53 40 95 be 21 21 2f 3c
       0.0145254275 0.3196339 -0.29150638 0.010689051
0002c0 38 b6 d2 3c 32 4e f2 3d b6 5d 99 3d 16 5a 2d bd
       0.025721654 0.11831321 0.07488577 -0.04232224
0002d0 db e2 54 3e 62 70 aa bc 88 27 cd be d8 fd 21 be
       0.20789663 -0.020805541 -0.40069222 -0.1581949
0002e0 64 0e f1 be 42 16 7d bd 9a 13 00 3e 42 00 0a be
       -0.47081292 -0.061788805 0.12507477 -0.13476661
0002f0 69 99 9d bf fb 2b 5b bd 14 13 08 be 9a 48 38 be
       -1.2312442 -0.05350874 -0.13288528 -0.17996445
000300 57 de 3d 3b bb d2 15 3e 9a 86 e8 3e a2 a5 27 3c
       0.0028971636 0.14631169 0.45415193 0.010232361
000310 eb 55 08 3b b6 30 2f 3d a6 5c 9e 3d cf 91 71 3e
       0.0020803164 0.042771064 0.07732515 0.23590778
000320 61 20 ba 3c 06 c0 0e 3f 3f 2d 6c 3d 44 0a 33 3f
       0.022720518 0.55761755 0.057660338 0.6993754
000330 61 d2 9e be 63 d4 11 bf 95 8d 2a bd a8 09 97 3d
       -0.3101988 -0.569647 -0.04163893 0.07374889
000340 e5 5c 1c bd 8e 11 f2 bd a9 f3 1d bf f9 2c 09 bd
       -0.03817453 -0.118197545 -0.6169992 -0.033490155
000350 0c b0 d1 bd a1 40 9e 3d 4c 1a 7b be 9a b4 42 3f
       -0.102386564 0.07727171 -0.2452175 0.76056826
000360 aa 49 b3 bd dc 96 99 3a e6 5c 4c 3d 6a 5b 49 3d
       -0.08754285 0.0011717933 0.049893282 0.049159445
000370 6f 5c 91 3e cc 2b 11 3d fc 17 ba be 70 a6 53 3d
       0.28390834 0.03544216 -0.36346424 0.0516724
000380 1e 0f 44 3b c5 c9 aa bd 05 a1 3f 3e d8 ff 17 3e
       0.0029916237 -0.08339266 0.18713768 0.1484369
000390 28 de 70 bf 7c 5f 11 3e dd fc a0 be 64 b8 b2 3e
       -0.94088984 0.1419658 -0.3144292 0.34906304
0003a0 01 f1 7c bc 97 17 f1 bc d7 00 38 3d b5 e3 04 3f
       -0.015438319 -0.029430194 0.044922676 0.51909953
0003b0 fa 7c 96 3c c6 d3 d4 be 3c b5 01 bd af 1e ea 3d
       0.01837014 -0.4156782 -0.03166698 0.11431634
0003c0 e5 a3 6e 3e 40 95 b9 be 7c b7 4c be 2d 8d b2 be
       0.23304708 -0.3624668 -0.19991869 -0.34873334
0003d0 37 bd 85 3d d2 5d f9 bd f8 e0 4f 3e 92 72 2b bc
       0.065302305 -0.12176098 0.20300663 -0.010464327
0003e0 15 48 ca bd 68 05 fb 3d 1c 50 8c 3c 97 3d 57 bf
       -0.0987703 0.122568905 0.017128043 -0.84078354
0003f0 51 09 44 bc b4 67 a7 3c 4b ed 1d 3f 90 85 80 bc
       -0.011965112 0.020435192 0.61690205 -0.015688688

bias f4 [17]
000000 3c 8a d1 3e 16 72 98 3e e6 b3 90 be b4 51 83 3d
       0.40925777 0.2977454 -0.28262252 0.06412068
000010 a1 ff b8 bd 61 17 33 3e 4f 71 62 bd c0 4a fd 3d
       -0.09033132 0.17489387 -0.05528384 0.12367773
000020 4e 00 00 be fb e7 a9 ba bd ab 2a 3e d5 07 82 3d
       -0.12500116 -0.0012962812 0.16667075 0.0634915
000030 3c f5 26 3d 83 de 30 bb 30 0d c0 3d 77 27 8d be
       0.040761217 -0.0026988096 0.09377515 -0.27569172
000040 7f c0 e7 bd
       -0.113160126

weight f4 [256, 61]
000000 71 80 69 bf fb 39 13 3e 56 02 80 bc ef 62 f0 3d
       -0.9121161 0.14377587 -0.015626114 0.1173762
000010 f1 f3 a1 3e 59 5e eb bd 28 39 92 3e 82 dd 76 bf
       0.31631425 -0.11492605 0.28559232 -0.96431744
000020 98 45 c6 3e a1 e7 ab bd 12 c6 6d 3e cd 40 42 be
       0.3872497 -0.08393789 0.23220089 -0.18970032
000030 b2 79 01 bf 30 39 34 bf 9a 1c a9 3c 5d e6 21 be
       -0.5057632 -0.7039976 0.020643521 -0.15810533
000040 dd b6 8f be 13 a8 61 3e 7b 84 f6 bd 96 d3 33 be
       -0.280692 0.22036771 -0.120369874 -0.17561182
000050 c2 29 0f bf af a2 17 3f 37 af 8a bf 0e 05 ed be
       -0.5592309 0.5923261 -1.0834721 -0.4629292
000060 0c 8a e7 bf b3 9e 0e be 50 13 ae bf 8f f3 8b be
       -1.8089004 -0.13927726 -1.3599644 -0.27334258
000070 f2 19 64 be 4a 80 2a bf 52 74 82 3e eb 2f 80 bf
       -0.22275522 -0.66602004 0.2547937 -1.0014623
000080 ac 6e b4 bf 34 4c 41 3f bb ba fb bc e1 13 c2 be
       -1.4096274 0.755069 -0.030728688 -0.3790579
000090 6c 83 b3 be 6c 0f b9 3e 39 12 32 be 93 f8 c1 bf
       -0.35061204 0.36144578 -0.17389764 -1.5153984
0000a0 44 3f ad 3e 45 41 99 3e c2 d7 a2 bf da 6f 8e be
       0.3383733 0.2993261 -1.2722094 -0.2781971
0000b0 e9 3e 9c bf 39 d0 48 bf f2 4f 50 3e 71 af 56 bf
       -1.2206699 -0.7844272 0.20342997 -0.8386145
0000c0 c6 5e ab bf 42 a5 c5 3e 18 76 3b bd da f7 22 be
       -1.3388298 0.38602644 -0.04576692 -0.1591486
0000d0 63 20 a7 be c9 12 21 bf 3c 28 8f bf 11 de 7e 3f
       -0.32641897 -0.6291929 -1.1184154 0.99557596
0000e0 ba 0e c1 3e 54 34 0b 3d 86 0e 26 bf 5d 6f f2 be
       0.37706548 0.03398545 -0.6486591 -0.47350588
0000f0 e9 a5 92 3e d7 e1 8b bf f3 b9 2f bf 0e 31 2a 3f
       0.28642204 -1.0928296 -0.6864311 0.664811
000100 ba 86 25 be bc 91 9a 3f c2 23 c6 be 05 19 3c bd
       -0.16164675 1.2075725 -0.38699156 -0.045922298
000110 1c e1 60 bf 36 fe 90 3e 79 52 4f be 97 b1 9a bf
       -0.8784349 0.28318948 -0.20246305 -1.2085446
000120 7c b0 9e be 07 fa 52 3f 84 df 36 bf ae 77 5c be
       -0.30994022 0.8241276 -0.7143481 -0.21530029
000130 1f ee 41 3f bf 5d d6 3e 72 64 fb be b0 b1 fc 3e
       0.7575397 0.41868398 -0.4910007 0.49354315
000140 a6 e4 68 be 68 b9 28 be 9d fc 49 bf 47 f7 31 bf
       -0.22743472 -0.16476977 -0.7890108 -0.6951794
000150 d9 b4 2c 3d f3 0d 61 3f 05 20 f3 3e 47 e1 92 3f
       0.042164657 0.8791191 0.47485366 1.1474999
000160 e9 34 16 bf 28 20 d8 3c 92 4b 1d 3f 1b c8 1d 40
       -0.58674484 0.02638252 0.61443436 2.4653385
000170 3b 7f 1d 3f 2c 74 41 3e 83 81 3b bc ee 44 cf 3e
       0.61522263 0.18891972 -0.011444452 0.40482277
000180 5b 6d da 3e 0c bd 77 bf 94 d1 b8 3f ff 16 3a bf
       0.42661557 -0.9677284 1.4438958 -0.7269134
000190 11 ba 10 bf 08 d7 27 be 1a 41 68 3e 8d 10 23 be
       -0.56533915 -0.16390622 0.22681084 -0.15924282
0001a0 79 e6 a0 bd 5b 48 85 3e e2 bb 9a bf 4e 80 17 3f
       -0.07856459 0.26031765 -1.2088587 0.5918015
0001b0 ac e8 22 be 81 d5 83 bf 7e 1f 58 3e 16 3d 15 bb
       -0.1590907 -1.0299531 0.21105763 -0.0022772006
0001c0 c7 8b 90 3f da e0 9f 3e 8a c3 0b 3e 6f 86 9c 3f
       1.1292657 0.31226236 0.13648811 1.2228526
0001d0 c1 3c fc 3e a5 04 02 bf 23 48 66 3f ce 31 4a be
       0.49265102 -0.50788337 0.8995382 -0.19745561
0001e0 f4 a8 cf 3d 2e 1a 00 bf ae ce ad be 89 13 1d 40
       0.10139647 -0.5003995 -0.33946747 2.4543173
0001f0 90 a1 ec 3f 1e cb c0 bf 9c 7b 86 bf 8d 25 24 bf
       1.8486805 -1.5061986 -1.0506473 -0.641198
000200 1b 05 10 3f 60 e2 5c bd 45 81 60 3f 84 07 7c 3e
       0.5625779 -0.053926826 0.8769725 0.24612242
000210 4c 50 26 bf 41 9c d1 ba 4a c3 f1 3e b7 ce a8 be
       -0.64966273 -0.0015992002 0.47219306 -0.3297021
000220 ee 31 64 be f3 e5 3e 3c 08 fa 44 3c 31 c3 7a 3e
       -0.22284672 0.011651504 0.012022503 0.24488522
000230 9d 7d ec bf 21 5b 99 be 8d 14 36 be 81 b0 08 be
       -1.8475834 -0.29952338 -0.17781277 -0.13348581
000240 63 31 46 bd 56 1a 02 be e2 df 4c 3f da 3f d6 3b
       -0.048386943 -0.12705359 0.8002912 0.0065383734
000250 9c 31 4a 3f 64 1e cb 3d d4 8f da bc 10 81 93 be
       0.7898195 0.09917906 -0.02667991 -0.28809404
000260 a9 24 c0 be e0 ed 2a 3e 02 06 33 bf 57 79 b0 be
       -0.3752797 0.16692305 -0.6993104 -0.34467575
000270 fc b8 33 3e 82 f2 7e be 05 d2 a5 bf 9c 24 4c bf
       0.17551035 -0.24897197 -1.2954718 -0.7974336
000280 15 6e 2f bc c8 f2 ae 3e f6 72 69 3f 52 d0 3d be
       -0.010707398 0.34169602 0.9119104 -0.18536499
000290 84 d1 e7 3e 00 84 2b 3f b8 d7 8a 3d 0f fa 63 bd
       0.45277035 0.6699829 0.06779426 -0.055658396
0002a0 d9 38 06 bf 8c 16 29 be 23 e4 2a 3e 5c 07 1c be
       -0.5243049 -0.16512507 0.1668859 -0.15237182
0002b0 9e c1 6e bd 5c f5 6d 3f 08 17 09 be a5 0c 32 bf
       -0.058290116 0.92952514 -0.13387692 -0.69550544
0002c0 00 13 37 bf 9e 65 ab bd f6 e4 b8 3d 76 83 2a bc
       -0.71513367 -0.08368991 0.09028046 -0.010407319
0002d0 75 5b 03 3f 21 79 07 3e 43 df 1f 3f ea da 3f bf
       0.5131143 0.13229801 0.62450045 -0.7494341
0002e0 19 f7 f2 3e a6 d8 47 c0 b0 f6 ce 3f 7d c7 2b 3f
       0.47454146 -3.1225982 1.6169033 0.6710127
0002f0 b7 f7 19 bf 6b ff 36 3e b5 6a c9 be 47 8c 4b bf
       -0.6014361 0.17870872 -0.39339224 -0.7951092
000300 b1 31 19 bf 58 a5 06 3e f5 9c 64 3e 58 f5 60 3c
       -0.5984145 0.13149011 0.223255 0.0137303695
000310 af 4a b4 bf 00 23 ce 3e 55 c6 b4 be be 94 57 bf
       -1.4085292 0.40261078 -0.35307565 -0.8421134
000320 5e 3d 39 3f 03 67 08 3f 25 01 42 be 03 13 19 3c
       0.72359264 0.53282183 -0.18945749 0.009342912
000330 b7 4d 8b 3d 14 ea 60 3f e1 42 2a 3e f2 08 fe 3c
       0.06801932 0.87857175 0.16627075 0.031010125
000340 02 5f ee be 91 ee 18 bf 49 5d 19 3e ee 23 91 3c
       -0.4655686 -0.59739023 0.14976992 0.017717328
000350 58 9e 3d 3e 18 1a a3 3e a4 2b 3c bf 09 e8 d7 bd
       0.18517435 0.31855845 -0.7350409 -0.10542304
000360 0f 50 ec 3e 77 9e 28 bc 33 12 2e 3e 66 62 28 3e
       0.4615483 -0.010291687 0.1699913 0.16443786
000370 31 66 11 be f1 bf 41 bd 15 b7 8c 3e 9d 45 72 3f
       -0.14199139 -0.04730219 0.2748343 0.9463747
000380 d9 04 ec bd 54 38 83 3e 33 7b 03 bf 20 1c 10 bf
       -0.11524362 0.25628912 -0.5135986 -0.56292915
000390 80 76 73 3a ae 54 d9 be 60 a1 e2 be a0 56 0d 3f
       0.0009287372 -0.42447418 -0.44263744 0.55210304
0003a0 f6 78 a1 bd fa 80 57 be e4 8e 86 bf 6a d8 e0 3e
       -0.078843996 -0.21045294 -1.0512357 0.4391511
0003b0 ba e1 ef be 9b 0e 9e 3d 82 eb 94 be 6f c5 06 bf
       -0.46851903 0.077176295 -0.29085928 -0.5264501
0003c0 c5 d4 9e 3d c5 6b c5 3e b3 ed bf 3e b3 83 cf 3e
       0.07755426 0.38558784 0.37486038 0.40530166
0003d0 38 41 8a 3f 67 d0 b3 3f 7a 04 b1 bf d5 6c 0a 3d
       1.0801153 1.4047974 -1.3829491 0.033795197
0003e0 89 f3 65 3e 4c 51 12 3e d9 66 6e 3d 16 2f c5 3f
       0.22456183 0.14288825 0.058203552 1.5404994
0003f0 63 79 3c be ca 77 a8 3e 99 d3 8b bf 4b e9 b9 be
       -0.1840568 0.32903892 -1.092395 -0.363108

bias f4 [256]
000000 99 ee 9a bf 4d 34 9c be 46 cb 8d bd 8f 88 3a bf
       -1.2104064 -0.30508652 -0.06923537 -0.7286462
000010 f6 5b bc bd 2c 75 fa 3f d7 6d cb be 00 97 e0 3c
       -0.09197228 1.9567008 -0.3973224 0.027415752
000020 6a 38 30 bf 4c 47 7a 3f 5e 08 4e bf 10 7b 62 be
       -0.6883608 0.9776504 -0.8048152 -0.22117257
000030 1c 6f 8d 3d 4d fa 68 bd c2 ce 68 bf 10 fe 08 bf
       0.06905958 -0.05687933 -0.9094049 -0.5351267
000040 d0 6e cf be 9c 43 1a be bd 8f 72 3f d4 be 8b bf
       -0.4051423 -0.15064853 0.9475058 -1.0917611
000050 f5 85 d0 bf de 0b 25 bf d8 be 0b bf 56 9a 19 bf
       -1.629088 -0.6447123 -0.5458808 -0.6000112
000060 b4 72 c2 be 30 49 0c be 2b 34 af bf f8 39 5f bf
       -0.37978137 -0.13699794 -1.3687795 -0.8719783
000070 1d 6a d4 be bc f9 8d be f5 e5 a8 be ee 92 84 3e
       -0.41487208 -0.27729595 -0.32987943 0.25893348
000080 52 f4 30 bf 36 52 09 3e f1 c7 92 3d 9f 8e 9f bf
       -0.69122803 0.13410267 0.07167042 -1.24654
000090 e4 9c c9 be 02 bd ec be 75 8c 68 bf eb 30 80 bf
       -0.3937751 -0.46237952 -0.9083932 -1.0014929
0000a0 a0 a0 1c bf f1 d8 52 bd 7d 06 6c bf 3c 6b 69 3e
       -0.61182594 -0.051476423 -0.921974 0.22794813
0000b0 75 d1 3c bf 16 7c 85 bf 68 11 96 bf da bd 83 bf
       -0.73757106 -1.0428493 -1.1724062 -1.0292313
0000c0 ad cf 87 bf 86 29 77 bf 49 db 75 bf 1a 97 bb be
       -1.0610253 -0.96547735 -0.9603773 -0.3663872
0000d0 f1 a0 61 bf 52 5d c6 bf 2a 7d 8e bf 17 e1 7e be
       -0.881362 -1.5497229 -1.1131947 -0.24890552
0000e0 aa 32 b1 bf c1 39 44 3e 7c 24 19 be 61 71 b3 bf
       -1.3843586 0.19162656 -0.14955324 -1.4018975
0000f0 dc ee 95 bf 34 fc d4 be b8 dd 1a bd 25 9a 75 bf
       -1.1713519 -0.41598666 -0.037809104 -0.9593833
000100 72 b1 de bd 7d ea 5a bf da 2b 56 40 f5 5f 28 be
       -0.10873689 -0.8551405 3.3464265 -0.16442855
000110 dc ac 1d 3e 70 94 83 3d b0 30 cf bf a4 a9 02 3f
       0.15397972 0.064247966 -1.6186733 0.510401
000120 b2 82 52 3c 93 74 c9 be 32 52 5e bf 25 28 22 bf
       0.012848543 -0.39346752 -0.8684417 -0.63342506
000130 7e 65 9e bf 07 90 91 bf 90 bf 1f bf d3 06 5e bf
       -1.2374723 -1.1372079 -0.62401676 -0.8672916
000140 28 79 26 be 00 84 01 bd ef 39 8d bf 58 64 4f bf
       -0.16257155 -0.031620026 -1.1033305 -0.8101249
000150 7b 86 83 3e 4c b5 a0 bd e5 74 71 be 55 83 0f be
       0.25688538 -0.0784708 -0.23579748 -0.14014943
000160 0d 23 98 bf 15 09 94 3f aa 32 38 be d9 49 38 3f
       -1.1885697 1.1565272 -0.17988077 0.7198768
000170 6c 86 6d bf 84 1e 8b bf dd 79 5d bf 86 07 d0 be
       -0.92783237 -1.0868688 -0.86514074 -0.4063074
000180 2e da 4e bf cb 8b 00 bf fd ea 03 bf 5d f4 42 bf
       -0.80801666 -0.5021331 -0.5153044 -0.7615412
000190 ad fd 98 bf f7 ca 73 bf a7 83 5b bd 22 f8 26 bd
       -1.1952416 -0.95231575 -0.05359235 -0.04076398
0001a0 87 fe 01 bf 0b 50 e2 be 9e f7 6b 3f cf a2 1d be
       -0.50779 -0.44201693 0.9217471 -0.15394138
0001b0 85 ef 91 bf c3 e1 63 3e 72 6f 47 bf 3c f2 34 bf
       -1.140122 0.2225409 -0.7790443 -0.7068212
0001c0 05 82 c5 be 2b 7c 6b bf 36 ce f6 3e c4 c8 c2 be
       -0.3857576 -0.9198634 0.482042 -0.38043797
0001d0 b3 0b a4 bf f5 ea 88 3f 11 ef 02 bf 3f 77 ac be
       -1.281607 1.0696703 -0.51146036 -0.33684728
0001e0 b8 91 ab bf 4a 4b 8c bf 5c e9 b2 bf 0c e1 82 bf
       -1.3403845 -1.0960476 -1.3977466 -1.0224929
0001f0 11 d7 10 bf 7c 06 0a bf 01 17 8c bf 95 84 e5 be
       -0.56578165 -0.53916144 -1.094452 -0.44827715
000200 15 ef c4 be 9b da 11 bf 72 54 0c 40 8e 49 23 bf
       -0.38463655 -0.5697419 2.1926541 -0.6378411
000210 6f ec 3f bf f8 93 cc be 1c 22 94 3f 68 72 c7 be
       -0.74970144 -0.3995664 1.1572909 -0.38954473
000220 81 c6 96 bf 8f 2e 91 be fa 6e da be 1e 47 9e bf
       -1.1779329 -0.28355834 -0.42662793 -1.2365453
000230 4e 2a 6f bf 20 98 e6 be 1b e0 14 bf 10 da 6f bf
       -0.93423927 -0.45037937 -0.5815446 -0.9369211
000240 c0 96 1c bf d6 45 99 bf 0b 73 07 be 8c 77 08 bf
       -0.61167526 -1.1974437 -0.13227479 -0.53307414
000250 fb 40 5a bf 2a bd 0d 3f 56 3c 81 bf 03 00 7f bf
       -0.852554 0.55366766 -1.0096538 -0.9960939
000260 ea 31 96 bf a8 de 83 bf bc ac 0a bf 13 b5 98 be
       -1.1733983 -1.0302324 -0.5416982 -0.2982565
000270 10 0b c9 3f 7a 8a cb be 38 86 52 bf 74 22 6a be
       1.5706501 -0.39754087 -0.8223605 -0.22864705
000280 73 98 d8 bd d7 ec d8 be c0 a7 e1 be d1 38 91 bd
       -0.105759524 -0.42368194 -0.44073296 -0.07090915
000290 ba bf cb bd d8 03 6c bf f8 ba b6 3e 70 09 b3 bf
       -0.09948678 -0.92193365 0.3568952 -1.3987255
0002a0 60 27 49 bf be 26 0a 3f c1 a8 c4 be d4 5f 35 40
       -0.78575706 0.53965366 -0.3841 2.833974
0002b0 33 6b 07 3f 9a 3f 1a 3f 49 38 3a 40 43 ce 90 be
       0.5289795 0.602533 2.9096854 -0.28282365
0002c0 f9 64 b5 3f 4e 3c 6a 3f 88 d4 cb be ea ef 38 bf
       1.417144 0.9149827 -0.39810586 -0.7224108
0002d0 5a f3 c9 be 93 30 c2 be ad d6 f3 bd bb 49 8b 3f
       -0.39443475 -0.37927684 -0.119061805 1.0881876
0002e0 14 70 68 bf 3a b6 9b bf d0 25 d3 3f 44 34 3d 3d
       -0.9079602 -1.2164986 1.6495914 0.046192423
0002f0 2a 94 d0 3f af e6 d0 bf 39 7f 85 40 2c 52 49 bc
       1.6295216 -1.6320399 4.17178 -0.012287658
000300 dc 0c 7d bf 28 59 6b bf bd b0 7d bf 97 9f a1 be
       -0.98847747 -0.91932917 -0.99097806 -0.3156707
000310 cf 00 87 bf a2 c7 e4 be 8f 4c 62 bf a9 21 4d 3f
       -1.0547122 -0.44683558 -0.8839807 0.80129486
000320 c5 2a 3c 3f 42 32 72 bd 29 51 a7 bf 60 85 8a be
       0.7350276 -0.05912996 -1.3071643 -0.27054882
000330 48 e0 51 be ed 86 17 bf ab 71 3b bf 80 f5 f9 be
       -0.20495713 -0.59190255 -0.7322032 -0.48820114
000340 33 ce 98 bf 59 51 4a 3e a5 20 a1 be e9 79 a0 bf
       -1.1937927 0.19757594 -0.31470218 -1.2537204
000350 91 ad 4e bf 2c eb c2 be d8 5b 32 bf 69 6b 38 bf
       -0.8073359 -0.38070047 -0.6967139 -0.72038895
000360 3d c5 a3 bf 92 08 27 40 01 cb b7 3e ee 95 ef 3d
       -1.2794567 2.609898 0.35897067 0.11698519
000370 9f 6f fa 3d 6a 6e 60 bf 8e fa 25 bf 86 bc 91 bf
       0.12228321 -0.8766848 -0.6483544 -1.1385658
000380 f4 10 a5 bf 38 05 0f bf a6 09 88 bf 8e 1f c4 bf
       -1.2895799 -0.5586734 -1.0627944 -1.532213
000390 a8 fe 80 3d 51 25 38 bf 56 4a 1e 3f 36 01 43 3f
       0.06298572 -0.7193194 0.6183218 0.7617372
0003a0 4b f0 56 bf 48 e4 25 be 45 25 30 3f 5d ac 1b bf
       -0.8396041 -0.16200364 0.6880687 -0.6080988
0003b0 20 61 53 3e 1e 1f 4a bf 56 0e 08 40 dc a0 4f bf
       0.20642519 -0.7895373 2.125875 -0.81104827
0003c0 0d 74 b7 be e8 56 06 bf 61 17 2b 3f db 7f 91 bf
       -0.35830727 -0.5247636 0.6683255 -1.1367143
0003d0 0d ee 88 bf e8 a2 55 bf 11 3c 96 bf ee 25 76 bf
       -1.0697647 -0.834517 -1.1737081 -0.96151626
0003e0 c0 bc 3f 3d d6 fc cb be b1 d8 9d bf e6 7a 36 bf
       0.046810865 -0.39841336 -1.2331754 -0.7128128
0003f0 22 bf 26 bf 06 89 75 bf 42 8f 45 bf c3 ed 41 bf
       -0.65135396 -0.95912206 -0.7717172 -0.7575342
