data/HopperPyBulletEnv-v0_sac_grad_True/HopperPyBulletEnv-v0_sac_grad_True_s7/pyt_save/model.pt (torch_old, 859878 bytes, 18 tensors)

weight f4 [256, 15]
000000 3b 01 7b 3f 30 45 1f be d5 51 a6 be 35 5b ab bf
       0.9804875 -0.15553737 -0.32484308 -1.3387209
000010 39 50 0d be 01 f8 30 be ef e3 1a be aa 5b 48 40
       -0.13800134 -0.17282106 -0.15126012 3.1305947
000020 98 14 8d 3d ac d4 75 3e ce 38 e5 bd 25 fd 74 3f
       0.068886936 0.24006909 -0.11192475 0.9569877
000030 e7 79 a1 bf 62 5c 9d 3e 2f 75 22 3e 8c f3 d0 be
       -1.2615327 0.30734545 0.15865014 -0.40810812
000040 0c 12 e9 3d 49 20 12 bf 94 84 4d 3f 2a 66 4f be
       0.11380395 -0.57080513 0.80280423 -0.20253816
000050 d7 f0 70 3f 70 a7 37 bd a6 e9 95 3e f8 4f b2 bf
       0.9411749 -0.044837415 0.29279822 -1.3930655
000060 5a 4b d8 3c ee ac 38 be 11 7d 8f 3e 4b de cc 3e
       0.026403118 -0.18034717 0.28025106 0.40013346
000070 80 0f b5 3e 41 e3 23 bf e3 f4 f2 bd 60 fe b5 3d
       0.35363388 -0.64018637 -0.11863115 0.08886409
000080 ed af da be 31 27 27 3e 3e e2 00 3e 3b e0 f0 3e
       -0.42712346 0.16323544 0.12586305 0.47046074
000090 40 54 6b bd 6b c2 a2 3f 9e 7f 0e c0 6c 50 90 be
       -0.057453394 1.2715582 -2.2265391 -0.28186357
0000a0 c0 1f 8d 3e 75 b2 46 bd 3a 2a 0b bd 73 ec 8f 3e
       0.27563286 -0.048510034 -0.033975817 0.28110084
0000b0 b3 de 86 3d 34 49 41 40 44 22 37 bd 77 0d 86 bd
       0.06585445 3.020093 -0.044710413 -0.06545537
0000c0 1b 8b 34 bf 1a e3 76 be 0b c2 77 3d 8c 33 53 3e
       -0.7052476 -0.2411007 0.06048779 0.20625132
0000d0 d8 40 39 3f 1e 86 05 c0 f1 e8 9f be 39 6b 89 bf
       0.7236457 -2.0863109 -0.31232408 -1.0735847
0000e0 aa 8d 9f be 45 71 ca be 93 58 f0 be 7d be 10 bf
       -0.3116277 -0.39539543 -0.46942577 -0.5654066
0000f0 45 e2 74 3f f0 de e8 3c 84 3f dc be a8 c9 0b bf
       0.9565776 0.028426617 -0.4301721 -0.5460458
000100 f4 47 b3 bd a8 a1 10 3e da dd 16 be 16 75 5e 3f
       -0.08753958 0.14124167 -0.14733067 0.8689741
000110 22 bb 2d 3f b1 6c 96 3d 13 33 65 be 34 15 75 3e
       0.67863667 0.0734495 -0.22382765 0.2393387
000120 bd c4 20 3e 89 e0 09 3f 08 88 aa 3e f4 07 a9 3f
       0.1570005 0.5385824 0.3330691 1.3205552
000130 18 c7 42 3d 53 b5 94 3d 94 d9 12 40 aa f2 80 bd
       0.04755315 0.07261147 2.29453 -0.062962845
000140 f8 df 16 3e 3d a5 57 be ff 38 ce bf 46 4d 89 bf
       0.14733875 -0.21059127 -1.6111144 -1.0726707
000150 9a e7 da be ca f7 9e bf 0b 3c 86 be ab 4b a0 3e
       -0.42754823 -1.2419369 -0.26217684 0.3130773
000160 d2 36 e8 be d3 19 b8 3f aa 31 bf 3e a8 a8 1d be
       -0.45354325 1.4382881 0.37342578 -0.15396369
000170 09 f5 c0 3e a6 3d fe bb d5 f0 70 be 35 0e 70 bf
       0.37686947 -0.007758814 -0.2352937 -0.9377168
000180 b2 f4 20 be 58 65 8c 3f dc 6c f4 be 0b 6d 1c bf
       -0.15718344 1.0968428 -0.47739303 -0.61103886
000190 79 08 64 bf e3 0e ce 3d 01 5a b6 bf 23 63 dd 3d
       -0.8907543 0.10061433 -1.4246217 0.108099245
0001a0 cc 1b 0c bf 20 74 c9 be 26 79 40 3e e5 d6 6f 3d
       -0.54729915 -0.3934641 0.18796214 0.05855455
0001b0 4d d5 ef 3f 54 42 f4 3d 4d dc 99 3d 4c 8e 28 3e
       1.8736969 0.119267136 0.07512722 0.16460532
0001c0 0e 3b 89 3e 87 23 41 be 50 0d 19 bf 3a 22 01 c0
       0.26802868 -0.18861209 -0.5978594 -2.017714
0001d0 f7 79 3f bf a0 e5 cb be d9 bd 61 be 9a 3c 15 c0
       -0.7479548 -0.39823627 -0.22045077 -2.3318238
0001e0 fe eb 6d c0 ba b5 db bd 47 66 74 bf 3d 94 25 3f
       -3.7175288 -0.10728021 -0.9546856 0.6467932
0001f0 28 84 55 3d 04 5a cf be 14 58 65 be 69 99 04 be
       0.052127987 -0.40498364 -0.2239688 -0.12949146
000200 4e 4d 84 3f 5f 87 23 be b5 ad 3c 3f ca d7 81 be
       1.0336092 -0.15969609 0.73702556 -0.25359946
000210 de 6d 89 3e 10 b0 0e 3c bf 4c d3 bf 8c 1d bf bd
       0.26841635 0.008708969 -1.6507796 -0.093318075
000220 30 98 23 be ff e1 a3 be fd a4 9a be a0 5d 58 bd
       -0.15976024 -0.3200836 -0.30204 -0.052823663
000230 dd 5f 32 bc 44 06 b7 3d 28 27 cb be 90 7d 65 bf
       -0.010887113 0.08936742 -0.3967831 -0.8964472
000240 dc 48 ab bd cb fd 24 bf 20 64 b9 bd 78 3e 0f 3b
       -0.08363506 -0.6444976 -0.090523005 0.0021857303
000250 d8 8f a4 bc 6a 94 e6 bd 6a 66 84 bf 72 2b 81 be
       -0.020088121 -0.112587765 -1.0343754 -0.2522846
000260 66 df c8 bd 3b c8 3c 3d 6e 7f 6b 3e f7 8f ce be
       -0.09808235 0.046089392 0.2299783 -0.4034421
000270 36 51 6c be 31 cf 96 3e 15 30 62 bf f8 e7 8e be
       -0.23077855 0.2945495 -0.8835462 -0.27911353
000280 c6 e6 49 bd 68 f1 70 bd 3c cf eb be 65 0a 87 3e
       -0.04929235 -0.058823973 -0.46056545 0.26375118
000290 6c f5 04 3f 46 97 63 3e 0a bb 84 bd dd 1a f7 be
       0.51936984 0.22225675 -0.06480987 -0.48262683
0002a0 4d 28 36 be 00 33 4c 3d bd 72 fe 3e 62 0a 33 be
       -0.17788811 0.049853325 0.49696913 -0.1748443
0002b0 8b 0c 44 3f af 68 c2 bd 04 2c 64 be 93 c9 f7 bd
       0.7658164 -0.09492623 -0.22282416 -0.12098994
0002c0 37 02 e4 bd d6 c7 e7 bd 73 47 4d 3e cc 48 45 bd
       -0.11133235 -0.113174126 0.20046787 -0.048165128
0002d0 ad 88 ea 3f 20 74 a1 3d 83 8e 13 bd c5 4c 84 bf
       1.832296 0.07883477 -0.03602458 -1.0335928
0002e0 58 d5 42 bd c6 72 b6 be ac 76 2d be 06 57 48 ba
       -0.04756674 -0.3563444 -0.16939801 -0.0007642362
0002f0 bc c9 82 bf 74 62 8d 3e ae db 90 be d6 fc d7 3e
       -1.0217814 0.27614176 -0.28292602 0.42185086
000300 93 57 63 bd e3 52 95 3d b5 9c ce bc 26 d1 2d bf
       -0.05550344 0.072912 -0.025221208 -0.6789726
000310 f0 8d b3 3d 84 73 65 bf a9 2a a9 3f f5 44 73 be
       0.08767307 -0.8962939 1.3216144 -0.23756774
000320 d1 b3 ab 3c 7a 03 7e 3e e9 ea b4 be e7 88 69 bf
       0.020959767 0.24806014 -0.35335472 -0.9122452
000330 a9 c2 77 bf c7 0b 65 bf 0e da cf bf 66 2e 65 be
       -0.967814 -0.89471096 -1.623842 -0.22380981
000340 bb 82 cb 3e a2 6b 79 3e 8f e9 05 bf 80 e7 96 3d
       0.39748177 0.24357465 -0.5230951 0.07368374
000350 7f c9 0e bf 62 90 e7 3f 70 eb ca 3d a6 78 1b bf
       -0.5577621 1.8090937 0.099081874 -0.6073097
000360 72 cd 2d 3e e1 37 73 be f0 06 f3 be 1a a5 0c be
       0.16972902 -0.23751785 -0.4746623 -0.13734856
000370 c0 16 c5 bf fc 80 13 bf 99 b1 bb bf 69 ff 0f bf
       -1.5397568 -0.5761869 -1.4663574 -0.562491
000380 97 6e d0 3d ce 27 92 3e 88 e9 3c 3d 03 6a 73 bf
       0.10177343 0.28545994 0.04612115 -0.95083636
000390 26 22 cc 3e f8 57 1e be 61 0d 25 bf d0 c1 74 3d
       0.39869803 -0.15463245 -0.6447354 0.059755147
0003a0 97 c7 aa 3e e5 f9 c9 bd de e2 83 3d cc 05 8b be
       0.333554 -0.09862117 0.06439756 -0.2715286
0003b0 f5 e6 22 bd ad 08 e8 3f a4 28 32 3f 29 12 b6 3e
       -0.03977104 1.8127648 0.6959326 0.3556073
0003c0 26 e2 f8 be ce fc af bd 90 b6 30 bf 67 11 be be
       -0.48610038 -0.085931405 -0.6902857 -0.37122652
0003d0 24 97 57 bd 7b ba 07 3f 5f b6 03 be 23 65 a2 be
       -0.052634373 0.5301892 -0.12862538 -0.31717786
0003e0 d2 7e e8 bd 73 a1 80 3e 92 51 43 be a7 cd 05 3f
       -0.11352314 0.25123176 -0.19074085 0.52266926
0003f0 32 e0 8a be c9 b1 b6 3e 7b 1d 91 be 0e 0e 3d c0
       -0.27124172 0.35682514 -0.28342804 -2.9539828

bias f4 [256]
000000 76 e3 41 be 5b d3 f7 be 84 4f 8f be 6c 8b af 3d
       -0.18934426 -0.4840344 -0.27990353 0.085715145
000010 0e 22 39 bf 5a 94 78 3d cf ae d1 3e 15 9b 1f 3e
       -0.7231759 0.060688354 0.4095368 0.15586503
000020 08 ba 68 bf fb 0c 24 bf 24 0b b1 3e 2e 0c d7 be
       -0.9090886 -0.64082307 0.34578812 -0.4200148
000030 b5 c7 43 3d c2 bc 75 bf 0a b8 ae be 84 d3 31 bf
       0.047797877 -0.95991147 -0.34124786 -0.6946337
000040 f8 aa ea be a8 ff ff be 10 2f 32 bf 29 a9 c7 bf
       -0.45833564 -0.49999738 -0.6960306 -1.5598499
000050 c4 04 81 bf 56 4b 74 3f c8 54 6d bf 8b a3 42 3f
       -1.0079579 0.95427454 -0.9270749 0.76030797
000060 d7 37 89 be ff cd 3e be 0c c2 e2 be d1 ec 85 be
       -0.26800415 -0.18633269 -0.4428867 -0.2615724
000070 f8 1d 2d 3f 78 6c 8b bf 02 ca 89 3c 91 2d 1d bf
       0.67623854 -1.0892477 0.016819958 -0.61397654
000080 01 6b 2e 3e 05 1e bd be e5 10 12 bf 15 86 4f be
       0.17033006 -0.36936966 -0.5705703 -0.20265992
000090 d8 cc be 3d b7 96 97 bf 52 a6 cb bd 39 94 9a bf
       0.093164146 -1.184287 -0.099438325 -1.2076484
0000a0 88 f5 f5 bd 7e d8 b4 be ca 9e b8 3e ac 71 f4 be
       -0.12009722 -0.3532142 0.36058646 -0.47742975
0000b0 db 88 66 bf f2 f6 82 3e 92 54 2a bf cb 15 e5 be
       -0.90052575 0.2557903 -0.66535294 -0.4474319
0000c0 fb 4e 97 bd 31 f2 2b be f0 1e da 3e b4 91 32 bf
       -0.07388111 -0.16791607 0.42601728 -0.69753575
0000d0 7f be f0 be 8a 7f 59 bf 4c 87 c3 3e a1 ad 96 3f
       -0.47020337 -0.84960234 0.3818916 1.1771737
0000e0 ae 23 11 3f f1 69 64 bf 67 f2 9e bf 90 dd b7 3e
       0.5669507 -0.89224154 -1.2417725 0.35911226
0000f0 c0 70 e8 bd 92 2a bd 3d d4 7d 9c bd 4e 35 4d 3f
       -0.1134963 0.09236635 -0.07641187 0.8015946
000100 d7 de d1 be 63 29 e5 be a3 c1 bd 3e 23 15 19 be
       -0.40990326 -0.44758138 0.37061796 -0.1494947
000110 35 78 69 bf 04 da 8f 3e ad 81 39 bf c0 f1 bd be
       -0.91199046 0.2809602 -0.72463495 -0.37098503
000120 24 60 7c bf d2 40 31 bf f9 81 3c be 05 12 d2 bd
       -0.985842 -0.6923953 -0.18408956 -0.10257343
000130 3e 1c 03 be d1 e4 59 3e 06 da b4 be 34 a1 95 be
       -0.12803742 0.21278693 -0.3532259 -0.2922455
000140 16 12 16 bf c5 f7 8f be 66 e1 a6 bf db fa de be
       -0.58621347 -0.2811872 -1.3037536 -0.43550763
000150 c5 12 fa 3e 81 a6 d5 be 3e a4 6d be 67 34 3d bf
       0.48842445 -0.41728595 -0.23207185 -0.73908085
000160 9c 2f e1 bd 5f 47 8c be 47 3c fa be 40 ee 07 bf
       -0.10995409 -0.27398202 -0.48874113 -0.53097916
000170 2a cc 7a be 19 4f 21 bf b0 67 08 bf d0 58 c8 be
       -0.24491945 -0.6301132 -0.53283215 -0.3913026
000180 15 f6 d0 be 54 69 ea be bc e5 a5 be 8d 4b 81 bc
       -0.40812746 -0.45783484 -0.32401836 -0.015783096
000190 2d 6a d2 bc 9a b6 e6 bf 2b 2b 35 bf ca ea 90 be
       -0.025685394 -1.8024476 -0.70768994 -0.2830413
0001a0 bd c5 da 3e f3 11 2a bf 79 62 b7 be d5 16 29 3d
       0.42728987 -0.6643364 -0.35817316 0.04128154
0001b0 1f 6f a5 be 29 2e 0f bf 49 d6 b1 be e3 be 32 be
       -0.3231134 -0.5592981 -0.347338 -0.1745563
0001c0 c2 5b df be 8d 85 f5 bd 93 75 9c 3e 5b d1 42 bf
       -0.43624693 -0.119883634 0.30558452 -0.761007
0001d0 b7 39 8f be 1b c1 23 be b8 02 66 be 96 f5 c2 3d
       -0.2797372 -0.15991633 -0.22461975 0.09519498
0001e0 2f ba da be bc 93 2a bf e6 f2 9a bc ff fb 72 3d
       -0.42720172 -0.66631675 -0.018914651 0.059322353
0001f0 67 35 d8 be dc a1 80 bf 38 44 d1 be 35 87 c8 be
       -0.42228243 -1.0049396 -0.4087236 -0.39165655
000200 58 05 34 be 3e 36 4b bf 00 65 92 be 6c 3f 86 be
       -0.17580163 -0.7937964 -0.28592682 -0.26220262
000210 4f 83 f5 bc f3 16 6c bf 3b d4 f4 bd d5 96 65 bf
       -0.02996984 -0.9222252 -0.11954542 -0.89683276
000220 1e dc 13 3f 36 9e dd be 07 41 5b bd 56 01 06 bf
       0.5775775 -0.43284768 -0.05352881 -0.5234579
000230 24 93 73 3e 63 2f bf bc c7 d6 f9 be 7a a5 72 bf
       0.23786598 -0.023338025 -0.48796675 -0.9478375
000240 1a b7 63 bf 06 36 0c bf d5 20 1b bf 6e 7d 4b bf
       -0.88951266 -0.54769933 -0.6059697 -0.79488266
000250 f4 ae 92 be 8a 5a 80 bf d3 b2 55 bf 95 64 ea bf
       -0.28649104 -1.002763 -0.8347599 -1.8311945
000260 e4 29 b1 bf ad 38 f2 3e 13 a6 ed be 2c 92 58 3f
       -1.3840909 0.47308865 -0.46415767 0.8459804
000270 72 49 8f bf 26 4b af bf 49 61 fb be 10 88 0e 3f
       -1.1194289 -1.3694808 -0.4909766 0.55676365
000280 a8 6d 09 bf 8f b7 e6 bf 45 8d aa be 6c d7 34 bf
       -0.5368295 -1.8024768 -0.33310905 -0.7064121
000290 1c 56 52 bf e8 1a b9 be bc ba 0b bf 8c 36 ab 3e
       -0.8216264 -0.3615334 -0.5458181 0.33440053
0002a0 5a d7 88 be 86 02 d5 be 4f 85 eb be f6 15 5e bf
       -0.267268 -0.41603488 -0.46000144 -0.8675226
0002b0 96 f7 2e bf d1 54 93 bf e8 12 c7 bf 31 72 3f bf
       -0.68346536 -1.1510259 -1.5552645 -0.7478362
0002c0 30 2f 39 3f bb ab 8f be 8e 35 c0 be a5 04 98 bf
       0.7233763 -0.28060707 -0.3754086 -1.1876417
0002d0 e6 06 3c be ad 4b 9e be ec 74 fb be ca fc 16 3f
       -0.18362007 -0.3091711 -0.49112642 0.58979475
0002e0 37 63 b2 be 01 c2 8d 3e b1 5d 0f be a4 c7 32 bf
       -0.3484132 0.27687076 -0.14000584 -0.6983588
0002f0 ff 17 c9 3a 0f a0 44 bf 60 5a 90 be d7 84 2c bf
       0.0015342234 -0.7680673 -0.2819395 -0.673902
000300 af 8d 7b 3e dd 61 11 bf 5c f3 55 bf f8 60 be be
       0.24565767 -0.5678995 -0.8357446 -0.37183356
000310 5e 9c aa be e2 0d 1b 3f af 8a 23 bf b8 8a a3 bd
       -0.33322424 0.6056806 -0.6388349 -0.07985443
000320 69 27 4d be dd 90 5c be 90 b0 a0 be 10 6c fc be
       -0.20034565 -0.21539636 -0.31384706 -0.49301195
000330 6f 12 1b bf c8 a9 72 bd 46 62 8b 3c 71 df 99 3f
       -0.60575 -0.059243947 0.017014634 1.2021314
000340 14 24 21 bf ed 73 8e 3e 7b cd a9 be fa 98 9c be
       -0.62945676 0.2782282 -0.33164582 -0.30585462
000350 1c 90 d4 be 93 24 44 be a2 87 fd be 13 cc ea 3e
       -0.41516197 -0.19154577 -0.49517542 0.4585882
000360 b7 0e 45 3c 52 00 e4 be 8e 99 55 3c be fe 50 be
       0.012027434 -0.44531494 0.013037099 -0.20409676
000370 c4 18 a8 be c1 28 05 bf 16 cd 54 bf 7f 4e 35 bf
       -0.32831395 -0.5201531 -0.83125436 -0.708229
000380 d5 be f0 be 94 09 74 bd ec 04 b5 bd 10 eb 4b bf
       -0.47020593 -0.059579447 -0.088388294 -0.7965555
000390 b7 6c b5 be f9 cb f0 3d a7 10 b3 3d 4f 15 63 3e
       -0.35434505 0.11757655 0.087434106 0.22176097
0003a0 1a 18 19 be fd a8 8a be de 3d f7 bd 8e a7 bd bd
       -0.149506 -0.27082053 -0.12072347 -0.09260474
0003b0 82 a0 c1 be f3 53 62 be be 52 b3 be 8d 98 5b 3e
       -0.3781777 -0.22102337 -0.35024065 0.21444912
0003c0 41 5e 2f bf a2 09 c8 be 49 fd 09 bf db ee 54 bf
       -0.68503195 -0.3906985 -0.5390211 -0.83176965
0003d0 b1 c4 4a 3e 2d 65 15 bf 28 df 0f be 73 b7 d1 bd
       0.19801594 -0.58357507 -0.14049971 -0.10240068
0003e0 7e 06 bd be 35 cb ff bf b1 ed 14 bf 75 ca 51 be
       -0.36919016 -1.9983889 -0.5817519 -0.20487387
0003f0 ec a3 dd 3c d6 40 d2 3e d2 84 37 3f 15 ce e5 be
       0.027055703 0.4106509 0.7168704 -0.4488379

weight f4 [256, 256]
000000 84 48 64 be 8e ab 13 bf e4 d0 e9 be 25 87 7d bf
       -0.22293288 -0.57683647 -0.45667183 -0.9903434
000010 c0 2e c3 be 67 54 86 bd 57 f4 d9 3d d2 7b 69 3e
       -0.38121605 -0.06559067 0.10642307 0.2280114
000020 3e 35 4c bf b2 cb 5b 3c 91 49 95 bd 59 3d f2 3d
       -0.7976874 0.013415264 -0.07289422 0.118281074
000030 a4 07 13 3f 96 25 80 3e b9 bf 47 bf 52 25 fd be
       0.57433534 0.25028676 -0.7802692 -0.49442536
000040 d0 0f 82 be 67 da de be f4 78 01 3f 27 54 89 bf
       -0.2540269 -0.43526003 0.50575185 -1.0728806
000050 50 4f 58 bf 7b aa 16 3e cf ca 13 be 5c 73 be bf
       -0.8449602 0.1471347 -0.14432834 -1.4878955
000060 a0 d9 ac 3e f1 38 97 be 85 5a ed be 6f b6 73 be
       0.33759785 -0.2953563 -0.46358123 -0.23800062
000070 a0 74 4a be 96 6b f5 bf 66 2b 1b bf 37 02 6c 3f
       -0.19771051 -1.9173458 -0.60613096 0.9219088
000080 42 ad 73 bf 6f 22 bf 3e 20 2e ef 3d 38 b0 3f bf
       -0.95186245 0.37330958 0.116787195 -0.74878263
000090 86 96 a1 3c ca 6b 19 be fc e0 96 bb 6a d9 7d be
       0.019725095 -0.14982525 -0.004604457 -0.24789968
0000a0 92 32 c1 bd 1d 46 3b bf 6c cc c6 be 0c c4 71 be
       -0.09433474 -0.7315386 -0.38827837 -0.23609942
0000b0 24 b3 2d bd cc e6 07 bd a6 3c 1e bf 48 cb 46 3e
       -0.04240717 -0.03317909 -0.6181129 0.19413483
0000c0 84 1c 07 be 30 a0 5b bf d3 61 ce bd c8 e3 40 bf
       -0.13194472 -0.857913 -0.10077252 -0.75347567
0000d0 0a 3a 37 3c ef 27 cd 3d 93 59 12 bf 13 80 95 3d
       0.011183271 0.10017382 -0.5716793 0.07299819
0000e0 1e 2f 75 bf e7 42 9e 3e 6c e5 0a bf 46 87 11 3f
       -0.9577502 0.30910417 -0.5425632 0.56847036
0000f0 07 db ef 3e f9 fb f0 be 1e b1 1f be 41 75 fb 3e
       0.46846792 -0.4706724 -0.15594909 0.49112895
000100 83 5e c7 be 74 92 93 3e ea 53 0b bf c1 a5 19 bf
       -0.38939294 0.28822672 -0.5442492 -0.60018545
000110 5a 0d dd bb b8 83 ba 3e cd a8 20 be 5e d7 53 bf
       -0.0067459764 0.36428618 -0.15689392 -0.827505
000120 74 db 32 bf 8f ed ef 3d 84 29 2f bf 2a 75 09 bf
       -0.6986611 0.117152326 -0.6842272 -0.53694403
000130 ea 9a cc be d7 df 18 bf eb 85 bf 3e 49 3e bb bd
       -0.3996194 -0.5971655 0.3740686 -0.09142739
000140 a3 bf 13 bf 34 1d f5 be 60 c3 0f bf 21 e8 42 bf
       -0.5771429 -0.47873843 -0.56157494 -0.7613545
000150 21 86 d9 3e e1 ed cb 3c fb 9d 33 bf 75 87 21 bf
       0.42485145 0.024893703 -0.70162934 -0.63097316
000160 27 19 9e bf 81 91 39 bf 50 41 bf bd bc 06 0a bf
       -1.2351426 -0.72487646 -0.09338629 -0.53916526
000170 75 ca 8b be e5 33 5e 3d 77 52 61 3c 53 2d af be
       -0.273029 0.05424871 0.013752571 -0.34214267
000180 d5 8b db 3b e4 83 48 3e 82 56 29 be 0c 53 0d 3f
       0.006700019 0.19581562 -0.16536906 0.55204844
000190 1d ac fe bf 33 2e db be f2 54 3a be 4b 58 c0 3b
       -1.9896275 -0.42808685 -0.18196467 0.0058699003
0001a0 00 8b 84 3e f4 1d 36 3f 36 27 0b 3f f0 32 72 bf
       0.258873 0.71139455 0.54356706 -0.94608974
0001b0 9a 9c 12 3a 2c ac b6 3e 42 e6 7c bf 50 1a 64 3e
       0.00055927935 0.35678232 -0.98788846 0.22275662
0001c0 bb ad 58 3e 58 6d fb 3d 1f 9b df be 3d a6 e0 bd
       0.21160023 0.12276715 -0.43673036 -0.109692074
0001d0 f1 59 d2 3d 51 0e 0a bf df 20 44 be 77 ce 05 be
       0.10271061 -0.53928095 -0.19153164 -0.13067041
0001e0 92 da 80 bf 11 fc a1 be 2f 36 bb 3e b8 26 10 be
       -1.0066702 -0.31637624 0.36564776 -0.1407727
0001f0 0d 02 dc 3d 8e 10 06 bf 66 9f 3a 3f f2 c3 df bc
       0.10742579 -0.5236901 0.7289947 -0.027315114
000200 0a 4b 5d 3d 24 55 95 be 44 8c 23 3d 8c 15 9b 3d
       0.05402664 -0.2916652 0.03992869 0.07572469
000210 b4 66 8e be aa 5e fd 3e 25 5b c5 be ed d0 9d bf
       -0.2781273 0.49486285 -0.385461 -1.2329384
000220 27 d7 f3 bd a7 2e 10 be ff de 01 bf de 5b 52 3f
       -0.119062714 -0.14080296 -0.5073089 0.8217143
000230 88 fd 27 bf 2f 28 2f 3e cf 51 5f bd 72 a6 26 3f
       -0.65621233 0.17105173 -0.054521378 0.65097725
000240 35 12 2f bf 9a 96 91 3e 5e a3 3b 3e 0a 2e e5 bd
       -0.68387157 0.28435212 0.18324038 -0.11190422
000250 d9 b7 08 3d a0 d1 4c bf b8 be 35 bf f3 11 31 bf
       0.033378456 -0.8000736 -0.7099414 -0.69168013
000260 8a 12 77 be c1 42 15 bf bb e9 66 be b8 30 24 bd
       -0.24128166 -0.58304983 -0.22550099 -0.040085524
000270 4f 3d a3 3d d0 6b 28 bf 71 43 b4 3d 99 f4 17 bf
       0.07970678 -0.6578951 0.08801926 -0.593576
000280 14 0b 84 be a3 c2 8f bf 79 33 ae bd 33 55 1c bf
       -0.25789702 -1.1231273 -0.085059114 -0.61067504
000290 4e e9 42 be 7d 2a 05 bd 9e 2e 8e 3e 55 a1 42 bf
       -0.19034311 -0.032511223 0.2776994 -0.76027423
0002a0 42 24 62 be 49 43 5a 3e f8 37 0c bd 38 df 44 bf
       -0.22084144 0.2131473 -0.034233063 -0.76903105
0002b0 73 4f 74 be 5e 01 81 be 4a 26 53 bf 10 bc 53 bd
       -0.23858432 -0.25196356 -0.824803 -0.051693022
0002c0 0d 87 60 bd d8 79 7d 3c b5 8c d0 be 6d 3a c3 bd
       -0.054816294 0.015470944 -0.4073235 -0.09532628
0002d0 fa 99 46 be c2 59 e0 3d 8a c9 c2 bd 0a d9 9e be
       -0.19394675 0.1095462 -0.09511097 -0.31024963
0002e0 fe 55 eb be 41 45 c1 be fd 27 20 3f 53 76 a1 3e
       -0.45964044 -0.3774815 0.6256102 0.31535587
0002f0 f0 09 21 bd 20 82 4e bf b2 7d 40 3e f3 5d 18 3f
       -0.039316118 -0.80667305 0.18797949 0.59518355
000300 4f 12 04 bf ba 1c 05 3e cc 7b e8 be b2 35 37 3e
       -0.51590437 0.1299924 -0.4540695 0.17891577
000310 af 53 15 bf 41 92 af 3e b0 ec 41 3e 46 3b a9 3e
       -0.58330816 0.3429127 0.18937945 0.33053035
000320 3a 6f fe 3d d4 f8 ca be 30 3c 69 bf 75 6a 42 bf
       0.124235585 -0.39642966 -0.91107464 -0.7594369
000330 f7 54 3c 3e 7f d4 18 bf 8c 38 02 3d 72 ae b7 3d
       0.18391787 -0.59699243 0.03179221 0.0896882
000340 f5 05 b4 bd 0c f7 1a 3e 4f 91 6a bf aa db 79 bd
       -0.08790199 0.15133303 -0.91627973 -0.061000504
000350 76 ea 27 3f 56 33 8b 3e 79 d4 42 bf fe 1e 2d bf
       0.65592134 0.27187604 -0.7610546 -0.67625415
000360 2e 4b c8 be 51 d4 97 3e 52 da 08 3f c6 c7 aa bd
       -0.39119858 0.29654172 0.5345813 -0.08338885
000370 db 97 5e bd aa b0 0c 3f 94 fa 68 bf b2 b8 32 3e
       -0.05434404 0.5495707 -0.9100735 0.17453268
000380 0b 6b a2 bd 10 70 47 3f 05 bc eb 3c 31 99 1b 3e
       -0.07930573 0.7790537 0.028776178 0.15195157
000390 c8 15 24 bf 12 23 07 be 8e 81 43 bf 1c 7f 18 bf
       -0.64095736 -0.13196972 -0.7636956 -0.59568954
0003a0 05 55 61 be 34 e3 20 bd 6f 77 7a 3e c7 05 36 3d
       -0.22005089 -0.039279178 0.24459623 0.044439103
0003b0 8f 32 e4 3e 18 43 9a be 8d 97 2e 3e e7 cd 3d 3e
       0.44569823 -0.30129313 0.1705 0.18535577
0003c0 fe 57 b6 be b0 d5 31 bf ea 64 cf 3d 28 9a c7 be
       -0.35614008 -0.69466686 0.1012667 -0.389848
0003d0 21 c0 9b bf 13 9a 64 3f 6a f0 86 3e ae 66 3c bf
       -1.2168008 0.892976 0.26355296 -0.73594177
0003e0 47 be 01 bf fd f2 24 bd d3 d1 91 be af 25 4b bf
       -0.50680965 -0.040270794 -0.28480396 -0.79354376
0003f0 ad af 0c 3e a5 f1 c8 be 4d 0e 81 be 57 7c 61 bf
       0.1373889 -0.3924686 -0.25206223 -0.8808035

bias f4 [256]
000000 a6 40 19 bf 23 8c 7e be eb d1 bf bf 76 84 ab 3f
       -0.5986427 -0.24858145 -1.4985937 1.3399799
000010 f1 46 ce 3e b4 71 0a 3e 82 dd f1 bd 1a 70 0e be
       0.402885 0.13519937 -0.118098274 -0.13909951
000020 a6 a1 bf 3f 27 8a a2 3d 29 61 12 be 58 8d 10 bf
       1.4971206 0.07936507 -0.14294876 -0.56465673
000030 ea b0 2f 3f 8c c6 9c bd d6 ef 40 be 54 1a fc bd
       0.68629324 -0.07655057 -0.1884149 -0.12309709
000040 d5 53 f0 be cd e9 36 bf f9 48 a1 bd e6 39 a0 bd
       -0.4693896 -0.714505 -0.078752466 -0.07823543
000050 0e 9a ea be 3b 50 cf bf 9f d7 0d 3e 49 b6 55 3e
       -0.4582066 -1.6196359 0.13851784 0.20870318
000060 10 a2 05 be 21 81 f0 bd 7a 5f 27 be 24 bb a8 be
       -0.13050103 -0.117433794 -0.16345015 -0.32955277
000070 05 56 03 be 0a f8 d6 bd 3e f3 f5 bd 25 59 a6 3f
       -0.12825783 -0.104965284 -0.120092854 1.2995955
000080 c4 e5 19 be de 45 42 3f de d3 0a be ba 53 f7 3e
       -0.15029055 0.7588786 -0.13557383 0.48306066
000090 ab 99 b6 3f 61 5a 79 be 26 30 84 3e 9f 9b fb 3f
       1.4265646 -0.24350883 0.25817984 1.9656867
0000a0 2b 14 69 be 71 30 15 be 5b 5a 70 3f c1 25 dc bd
       -0.227616 -0.1456926 0.9388787 -0.107493885
0000b0 b8 6c ff bd db 70 f1 bf 40 30 f2 3c 15 de 2d bc
       -0.12471908 -1.8862566 0.029564023 -0.0106120305
0000c0 53 f7 4a be 02 98 8b 3e 03 a5 f1 3e ca 51 98 bd
       -0.19820909 0.2726441 0.47196206 -0.07437475
0000d0 60 af ce 3e f8 11 b3 be 13 da c2 be b7 5f a9 bd
       0.40368176 -0.34974647 -0.38057002 -0.08270209
0000e0 3a 38 12 3f f4 4a 93 bd 1a 88 dc be 52 fb 93 be
       0.57117045 -0.071920305 -0.43072587 -0.2890268
0000f0 97 89 43 bf 81 13 d4 be d6 33 07 3f a2 8d 27 3f
       -0.7638182 -0.4142113 0.5281347 0.6545049
000100 0b ce 78 bf 93 93 03 bf 64 91 82 be b5 3c 71 be
       -0.97189397 -0.51397055 -0.2550155 -0.23558314
000110 ec 64 1a bd 76 ee 42 3f 8d 72 97 3e 71 58 2a 3f
       -0.037693903 0.7614511 0.29579583 0.665412
000120 0d 56 34 bf e5 3f 43 bf f3 ad 7b 3d 6e 2a ce bd
       -0.70443803 -0.7626937 0.061445188 -0.100666866
000130 f9 4b 07 be 27 7f 8f be e6 04 53 bf b7 42 8e be
       -0.13212575 -0.28026697 -0.8242935 -0.27785274
000140 e9 ab 11 bf 97 11 b2 3e 3d ce e7 be 62 97 56 bf
       -0.5690294 0.34779045 -0.45274535 -0.8382474
000150 d7 e2 38 3f c4 3c 11 be b5 27 18 bf 50 d8 da bd
       0.7222113 -0.14183336 -0.5943559 -0.106857896
000160 e2 a8 ef be e0 e0 f7 bd d4 66 13 be 6d 3a 1b 3f
       -0.46808535 -0.121034384 -0.14394695 0.60636026
000170 83 11 0a 3e cd 3c 29 3d 9e 74 19 3f 31 6e 11 be
       0.13483243 0.04131775 0.5994357 -0.14202191
000180 9c f4 c0 be ef bb 41 3f 6d 1f e5 be a7 78 ca bd
       -0.37686622 0.7567739 -0.44750538 -0.09886294
000190 53 8b bd bd 50 de ce 3d d3 31 65 be f7 c1 b2 bd
       -0.092550896 0.101009965 -0.22382288 -0.08728402
0001a0 5a e0 5a be 67 dd 25 3f d2 4e 52 bd 3c 79 2d bf
       -0.21374646 0.6479096 -0.0513447 -0.67763114
0001b0 92 8b 59 be e0 88 33 3f aa 85 11 3f 4a 57 44 3f
       -0.21244648 0.7013073 0.5684458 0.7669569
0001c0 ee 47 bc bd c4 80 ac be e2 40 8e bf 3c 1e ea 3f
       -0.09193407 -0.3369199 -1.1113551 1.8290477
0001d0 2a 55 e9 bd c6 34 8c bf 0b 72 37 be 66 d6 13 be
       -0.11393197 -1.0953605 -0.17914598 -0.14437255
0001e0 ad f3 b5 be 40 d7 a3 bf e0 b8 19 be d2 a5 e0 be
       -0.35537472 -1.2800064 -0.1501193 -0.4387651
0001f0 ef f9 95 bf 57 6f e4 be 73 df 4a 3f a4 11 44 bf
       -1.1716899 -0.44616196 0.79247206 -0.7658942
000200 f0 22 f7 bd 17 0b f7 bd a3 e5 29 3e 58 e9 01 be
       -0.12067211 -0.12062662 0.16591506 -0.1268667
000210 3f c9 1b be d7 e8 20 be 32 ab 78 3e bf c2 05 be
       -0.15213488 -0.15713821 0.24284056 -0.13062571
000220 e4 6a de 3f 59 9d 0c be 1c e9 0b be cf bb 28 bf
       1.737637 -0.13731898 -0.13663143 -0.65911573
000230 e3 c1 a2 3e 49 a4 4b 3f 08 c7 cb be cf 23 ca be
       0.3178855 0.79547554 -0.39800286 -0.39480445
000240 f7 0e 0c 3f a6 6e 32 be 70 b7 8f bd 02 48 ad be
       0.54710335 -0.17425022 -0.0701741 -0.33844
000250 2e f6 05 bf fe 05 b9 bd 27 fa be bd 38 0a 11 be
       -0.52328765 -0.09034346 -0.093250565 -0.14164054
000260 3a e6 27 bf 2f 23 bd bd 03 1a f0 be fa bc 0c bf
       -0.6558567 -0.09235226 -0.46894845 -0.54975855
000270 f9 78 15 bf 98 7d 98 be 7e 55 ee bd d0 06 9b be
       -0.58387715 -0.2978332 -0.116374 -0.30278635
000280 d3 83 89 be 27 05 54 bd 66 f1 89 3d 35 34 4e be
       -0.26858386 -0.051762726 0.06735496 -0.20137103
000290 2e 23 1e be f4 71 9f 3e 4b 39 c2 bd fd ba 14 be
       -0.15443107 0.31141627 -0.09483584 -0.14524455
0002a0 19 ea 3b be 23 c0 93 bd 0b e6 c4 be 50 dd 68 be
       -0.1835102 -0.072143815 -0.3845676 -0.22740674
0002b0 ce a5 93 bd 19 4a e3 3d e3 04 8c 3f 0d fb cc bd
       -0.07209359 0.110981174 1.0938991 -0.10008822
0002c0 23 93 f0 be be 04 82 be de 01 5b bd 5d 87 9a 3e
       -0.46987256 -0.25394243 -0.053468578 0.301814
0002d0 c5 79 0c be b0 33 b2 be 34 67 c7 3c c0 59 32 be
       -0.13718326 -0.3480506 0.024341203 -0.1741705
0002e0 89 96 05 bf 43 91 2c bf 0a cd 28 bf f0 83 ce 3d
       -0.52182823 -0.6740915 -0.65937865 0.10083759
0002f0 7e 5f 67 3e 07 3a 9a be 78 8c d5 bd 1f 7d 47 3d
       0.22595021 -0.30122396 -0.10427183 0.04870331
000300 bf a2 f4 bd 6b 3f a5 bf ef c2 c9 3f e4 f0 27 3f
       -0.11945104 -1.2909979 1.5762614 0.65601945
000310 03 51 01 3e fd a5 d5 bd aa 84 90 bd 47 08 6c 3e
       0.1262856 -0.104320504 -0.07056554 0.23050033
000320 27 b1 dc bd 88 aa 15 3f 60 34 48 3f 22 88 b6 be
       -0.10775977 0.58463335 0.7820492 -0.35650736
000330 f2 61 1a be 58 da 98 bd 74 cd 45 bf 46 ce c7 bd
       -0.15076426 -0.07463521 -0.7726662 -0.097561404
000340 de d3 04 bf 69 92 d6 bd cb 81 fa bd cb 05 86 bd
       -0.51885784 -0.10477144 -0.12231787 -0.06544074
000350 e4 c3 07 be 68 d5 6c bf 50 8c a9 3f 7d 00 d8 3e
       -0.1325832 -0.9251313 1.3245945 0.42187873
000360 6b 3d 15 bf fe f2 24 3f 19 10 b3 be 02 be 13 bf
       -0.5829684 0.64433277 -0.3497322 -0.57711804
000370 e8 44 a9 bd b9 68 28 bf d3 c2 1b be 24 d7 88 bf
       -0.08265096 -0.65784794 -0.15211038 -1.0690656
000380 f0 5d e0 bd 72 ee 1a be 8b df 3d 3f 75 6d e7 be
       -0.10955417 -0.15130022 0.74169225 -0.45200697
000390 06 14 cd be ec b6 82 be 14 2e 09 bf 41 18 a4 bd
       -0.4005434 -0.25530183 -0.53585935 -0.080124386
0003a0 7a 73 82 bd e3 90 a7 be 7c 24 62 be 18 f4 08 bf
       -0.06369682 -0.32727727 -0.2208423 -0.5349746
0003b0 fa db b2 bd 19 8c 9d be f2 52 9d 3f 82 9d d9 3c
       -0.087333634 -0.3077095 1.2290938 0.026564363
0003c0 5c c5 0f 3f da 6c 8f 3e 16 1c 13 be fc 53 06 bf
       0.5616052 0.28012735 -0.14366183 -0.524719
0003d0 19 65 ee bd f1 6a f3 bd 58 a4 dc bd 34 4b ad bd
       -0.116403766 -0.11885632 -0.107735336 -0.084616095
0003e0 4c c4 af 3d 2d 6b 4a 3f d7 f2 86 be 28 f6 67 bf
       0.085823625 0.7906979 -0.26357147 -0.9060998
0003f0 84 2e 28 bf 96 c7 02 3f 53 9e 11 be e9 ea 0b be
       -0.6569598 0.51085794 -0.14220552 -0.1366383

weight f4 [3, 256]
000000 7d 65 07 3d 70 1d c3 bd c9 0f 09 be 6e 24 b3 3d
       0.03305577 -0.09527099 -0.13384928 0.08747183
000010 8b 42 dd bc df 8a 95 bd a2 e9 4d bd 74 c1 a4 3c
       -0.02700927 -0.07301878 -0.050271638 0.020111777
000020 ba bc 0c be e7 84 13 bd ad d5 5a bd 04 3e 35 3e
       -0.13743868 -0.036015417 -0.053426433 0.17699438
000030 48 2e e0 be 6a ad 9e 3c 9b 91 e8 3c 86 9e 85 bc
       -0.4378531 0.0193698 0.028389743 -0.016310941
000040 0a c7 64 3c 21 ef 8b 3e 94 a9 c4 3b c3 75 ca 3d
       0.01396347 0.27330878 0.0060016606 0.098857425
000050 b5 fb d9 be 18 fd 13 3e 4a f8 3a 3d 01 9e c0 bc
       -0.4257485 0.14452016 0.045646943 -0.023512842
000060 c1 68 9a bd 91 e8 2f 3d 44 00 d9 3d 73 17 74 bc
       -0.075395115 0.042946402 0.10595754 -0.014898169
000070 56 f0 81 3c cc 68 a8 be a3 59 8d bc db 92 ee 3c
       0.015861671 -0.32892454 -0.017254656 0.02912276
000080 df 55 f7 bc a2 6c 8d 3d ef 36 ce 3c f2 1e 0d 3e
       -0.030192314 0.06905486 0.025172679 0.13781336
000090 97 2b c5 be e4 3a a0 bd 87 92 9c be dc 19 bc 3d
       -0.3850982 -0.078237325 -0.30580541 0.0918462
0000a0 78 09 31 3c 73 c1 34 3c 05 6c 37 be 85 a2 30 3d
       0.01080548 0.01103245 -0.179123 0.04312374
0000b0 ce bb 9e 3c c6 c5 a4 3e 12 4b 92 be 36 c9 17 3e
       0.019376662 0.3218214 -0.285729 0.1482285
0000c0 3e 5d ea bb 7f a7 82 bd c0 de c7 bd 26 35 d7 3c
       -0.0071522286 -0.063796036 -0.09759283 0.02627046
0000d0 17 46 14 be 06 fc fb 3e 38 5c b4 3e d4 3d 89 3c
       -0.14479862 0.49215716 0.35226607 0.016753115
0000e0 8e 5f 7c 3e 2a 9e 88 bc 6d 33 0b 3f 46 6c ae bd
       0.24645826 -0.016676981 0.54375345 -0.08516745
0000f0 c3 85 ff bd 86 a7 f7 3d 5e 0c 28 be 08 2f e2 be
       -0.12476685 0.120924994 -0.16410968 -0.44176507
000100 9a 69 db 3d 00 a0 dd bb 9c bd 36 3d 58 65 8c be
       0.10713501 -0.0067634583 0.04461442 -0.2742107
000110 f9 c2 79 3d 52 e2 1d 3d 0d a2 95 3e eb 8d 1d 3e
       0.060976956 0.038545914 0.29225197 0.15386169
000120 e4 18 87 3e b4 7b 12 bd 3b 40 01 3f cd 9f 4b 3b
       0.26386178 -0.035762504 0.5048863 0.003107059
000130 94 5f 9d bc 39 f9 69 3e 4d 91 18 3f 47 ed fe 3c
       -0.019210614 0.22848977 0.5959671 0.031119002
000140 1f 38 c9 3d b6 0d 95 bd 11 fc 0c 3c 72 65 ea bd
       0.098251574 -0.07278006 0.008605019 -0.114451304
000150 1f e8 3c 3f 43 cc d9 bd 66 56 eb 3e b9 b6 0b bd
       0.7379169 -0.10634663 0.45964354 -0.034109805
000160 59 b1 2f be 7f ee 0d be 50 80 45 3c e7 73 07 bc
       -0.17157497 -0.1386051 0.012054518 -0.008267379
000170 a6 49 29 be 8b d1 d5 bd 37 73 c7 3e 49 45 04 bd
       -0.16532001 -0.10440358 0.3895509 -0.032292638
000180 1d 18 86 be 91 60 54 be ea 76 9a 3d 52 0a a5 bc
       -0.26190272 -0.20739962 0.07542212 -0.020146523
000190 dd 03 40 bd c8 a4 1b 3d 3e 7c 7e 3d 9d 0a ae bc
       -0.046878684 0.037998945 0.062130205 -0.021245295
0001a0 56 fd 39 3f 5b a8 87 3d be 1b cd bd 2c 92 ad bf
       0.72652185 0.06623908 -0.10015057 -1.3560233
0001b0 b7 af ae bd cc f8 98 bd af f2 45 3d 94 e6 5d be
       -0.08529609 -0.07469329 0.048327144 -0.2166999
0001c0 d6 89 87 3c fe 84 8a 3c 63 87 3c 3e 24 91 a4 bd
       0.016545217 0.016909119 0.18411021 -0.08035496
0001d0 d8 3b df bc 4f 47 ba bd 22 9e 24 be 1d d2 cf 3d
       -0.027250215 -0.09095632 -0.16075948 0.10147498
0001e0 ea e1 cd be 88 e0 60 bc a0 43 17 3c c5 af 77 3e
       -0.4021142 -0.013725407 0.009232432 0.24188145
0001f0 2b 90 08 bf 04 89 a8 be ae 41 df bd b7 57 f8 be
       -0.5334498 -0.32917035 -0.10901199 -0.4850442
000200 99 aa dc bc 82 a2 19 bd 3c bc b6 3e 0f 4e 3b 3c
       -0.026936816 -0.037508495 0.35690486 0.011432185
000210 3d 3c bc bb 0d f6 2d 3d f8 88 b3 bf 69 09 c9 3b
       -0.0057444857 0.04247098 -1.4026175 0.006135155
000220 c9 ad 11 be fc 50 9c bc c5 fd f9 bc 43 c5 2a 3d
       -0.1422645 -0.019081585 -0.030516515 0.04169203
000230 bf f4 8f bd ec fd 99 bd 82 e0 41 3f c9 1f 68 3e
       -0.070291035 -0.07519135 0.75733197 0.22668375
000240 bd ba 0e 3e fd e9 e3 3c 39 16 8c 3c a1 20 1c be
       0.13938423 0.027821535 0.01710044 -0.15246822
000250 b8 90 a2 ba 91 47 04 bc d9 91 2e 3d 94 92 a0 3d
       -0.0012402749 -0.008073703 0.04261956 0.078404576
000260 7b 00 69 be 7b 5f a4 3b 91 5c 81 3e f0 bf cf 3d
       -0.2275409 0.005016265 0.25265935 0.10144031
000270 fb 36 63 be 83 e0 0f be 66 ea 3f bd aa 8d 39 bd
       -0.22188942 -0.14050488 -0.0468544 -0.045301117
000280 56 7b 02 3f 48 21 b2 3d 1b b5 c1 be c4 3e e1 3e
       0.50969446 0.08697754 -0.37833485 0.439932
000290 c1 cf 57 3d 70 96 a4 be c7 57 8c bc 78 29 e6 3c
       0.052688364 -0.32146025 -0.0171317 0.028095946
0002a0 c9 2d 9b 3d a2 d5 d4 bc f1 0b c4 be 6a 67 15 be
       0.07577092 -0.025980774 -0.3829036 -0.1459023
0002b0 ae b2 17 bd 5f 67 bc 3e 35 56 c7 be 93 f3 0a bd
       -0.037035637 0.36797616 -0.38932958 -0.033923697
0002c0 a3 ff 52 3e cf d3 9a 3e 7f 0b 19 3d b3 b0 f6 bd
       0.2060533 0.30239722 0.03736448 -0.120454215
0002d0 60 17 bb 3c 2e ad dc 3e 55 96 11 3e 96 07 96 bc
       0.022838295 0.43100876 0.14217503 -0.018314164
0002e0 d2 70 be 3d 2f 0e 50 3e 5f ae d5 be 4c 69 d8 3d
       0.092988625 0.2031791 -0.41734597 0.10566959
0002f0 f1 14 11 3e 4b ef 0a 3f d7 72 06 3d 7e 7f 53 be
       0.14168145 0.5427138 0.032824364 -0.20654103
000300 f6 7e 84 3c 31 74 02 3e d9 43 05 bd 6b 2f 5d bd
       0.016173821 0.12739636 -0.032535408 -0.0540003
000310 98 b9 e1 3d 6f 6c 61 bd 84 f5 14 bd 18 27 62 be
       0.11021727 -0.05503505 -0.036366954 -0.22085226
000320 28 1b fa 3d be 8c 3e be f7 ac 24 3e 4a ac 6c 3d
       0.12212211 -0.18608376 0.16081606 0.057781495
000330 77 10 5a 3e 21 ff 2e bd 74 0b dd 3e 7d 26 a8 bd
       0.21295343 -0.04272378 0.431728 -0.08210466
000340 92 4d 35 3f 60 07 45 3d 4b ca c3 bd 86 2a ef bc
       0.7082149 0.048102736 -0.09560069 -0.029195081
000350 6a 3e 3a bc 21 84 1f bd 74 83 ce 3c 64 6c 09 be
       -0.01136742 -0.038944367 0.025209166 -0.13420254
000360 1a b7 b9 bd 06 68 2d bd e7 8f 3a bf 3b d4 bb be
       -0.09068127 -0.042335533 -0.7287583 -0.36685356
000370 13 d9 41 bb 49 2e b6 3e 57 23 33 3c 2a 28 99 3e
       -0.002957885 0.35582188 0.010933719 0.29913455
000380 93 83 9e b9 54 e5 1a bc 11 9d 42 3f 5a 28 56 3e
       -0.0003023414 -0.00945409 0.76020914 0.2091383
000390 f8 28 16 3e 04 4a bc 3b 6a e1 83 be 1c b4 72 bd
       0.14664066 0.005746128 -0.25757915 -0.059253797
0003a0 a0 1a 96 bd a8 58 f1 3e 85 6e a8 3e 4c 4a 5d be
       -0.07329297 0.47137952 0.3289682 -0.21610373
0003b0 8e 64 a0 3d b6 58 8d be 0e df 1c bc dc bb 4b be
       0.07831679 -0.27606744 -0.009574665 -0.19895881
0003c0 90 e6 f7 3d 79 31 09 3b 89 90 2e 3e 20 f5 3d 3e
       0.12104523 0.002093403 0.17047323 0.18550539
0003d0 d8 16 d0 3c 11 c1 66 3c e8 eb d1 bc ee 68 cb bd
       0.025401518 0.014084117 -0.025625184 -0.09932123
0003e0 9c 14 38 3d 1c cf 07 3e 8d 75 52 3e 2c 1e 94 be
       0.04494153 0.132626 0.20552655 -0.2892927
0003f0 ee 06 32 3d 9f e8 1e 3e 80 d7 9e 3c 47 d0 8a ba
       0.04346364 0.15518425 0.019389868 -0.0010590636

bias f4 [3]
000000 c0 54 a2 3b 61 c5 a7 be d5 c0 09 3e
       0.0049539506 -0.32767776 0.13452466

weight f4 [3, 256]
000000 8f e5 05 3f a7 7f 52 3b 7a f6 88 3e d6 ef af 3b
       0.52303404 0.0032119544 0.26750547 0.005369167
000010 77 f6 ec 3d 72 f6 4f bc a2 94 0a 3d 08 db 8a 3d
       0.11570447 -0.0126930345 0.033833154 0.06780058
000020 61 bb c4 3d d9 f6 3b 3d 7a 8f 88 bc 96 1e c5 3e
       0.09606052 0.04588971 -0.016669977 0.38499898
000030 1e bf f1 3e 8f 2b cf 3c fd fd 42 3e cd 12 97 bc
       0.47216123 0.025289325 0.19042201 -0.018441582
000040 78 9b 73 3e 19 a2 47 3e 2f 93 c8 3c 8c 80 2b be
       0.23789775 0.19495429 0.024484245 -0.16748255
000050 8a dc 9f 3e a4 90 63 3f b9 d8 5f 3d ab 56 8c bc
       0.31222945 0.8889258 0.054650042 -0.01713117
000060 36 be 95 3c 41 a0 11 3d 11 2a 13 3f 55 b2 4c 3e
       0.018279176 0.03555322 0.57486063 0.19989903
000070 df 52 06 3e 98 a4 86 3e a1 2e 98 bd 93 83 0f 3e
       0.1311755 0.2629745 -0.07430769 0.14015035
000080 8e f4 8a 3d d9 bd 0d be 5f 8f d2 3d 0c c3 a6 3c
       0.06784926 -0.13841952 0.10281252 0.020356677
000090 22 11 07 3e 88 06 3e 3f 5a 2d 50 3e b6 3c 76 3b
       0.1319013 0.74228716 0.203298 0.0037572808
0000a0 12 0a 1a 3f 38 71 ff bc 4b 82 48 3d 64 36 de 3d
       0.60171616 -0.031181917 0.048952382 0.10850218
0000b0 80 ee e2 3c 41 b5 c0 3e 81 06 df 3e 61 41 21 3e
       0.027701616 0.37638286 0.4355965 0.15747596
0000c0 b2 cd b9 3c b2 a0 ec 3c 02 22 c6 bc 30 73 ad 3d
       0.022681091 0.02888522 -0.024186138 0.08469236
0000d0 17 8b 76 3d 03 00 02 3f af 7e 00 3f 86 b7 8e bc
       0.06019124 0.5078127 0.50193304 -0.017421495
0000e0 17 a2 ef 3d c6 e1 ab 3c 63 04 27 3e 96 14 20 3e
       0.11700838 0.02098168 0.16310267 0.15632853
0000f0 56 e1 0a 3f 5b fb bb 3d 76 aa 26 3e 98 08 88 3e
       0.54250085 0.091788016 0.16275963 0.26569057
000100 d9 24 21 3f c4 31 18 3e f4 e9 f2 bc b3 98 be 3d
       0.6294685 0.14862734 -0.029652573 0.09306469
000110 c5 c3 6b 3e f0 99 c4 bc f0 5c 03 bc 2c 97 c3 3e
       0.23023899 -0.023999184 -0.0080177635 0.38201272
000120 1f c5 f8 3e 2f 51 e7 3e c1 39 c8 3e d7 1e 0a 3c
       0.4858789 0.45179126 0.39106563 0.008430204
000130 bd 3f 0d 3d a3 97 a6 3d 26 6b 96 bd 7f 48 9b 3d
       0.034484614 0.08134391 -0.07344656 0.07582187
000140 5d 92 bd 3e c8 00 0e 3e f7 cc af bb 49 0a be 3d
       0.3702573 0.13867486 -0.00536501 0.092793055
000150 62 3f 96 3f ba 99 c2 3c 23 70 e7 3e 92 ab 03 3e
       1.1738093 0.023754943 0.4520274 0.12858418
000160 d7 14 cb 3e ec 38 64 3d de 92 fc 3c 1a e1 26 3d
       0.39664337 0.055718347 0.03083175 0.040742017
000170 07 5d 50 3f fe fc f8 3d 05 8f c9 3e 88 6a 1b 3f
       0.8139195 0.121576294 0.39366928 0.6070943
000180 c9 5d c1 3e 1a b3 e2 3d 33 1c 02 3f 79 7f 06 3d
       0.37766865 0.11069317 0.5082428 0.03283641
000190 c0 c7 9a 3d 48 ae 09 be 7e f1 89 bd 91 5a 99 3d
       0.075576305 -0.1344539 -0.06735514 0.07487977
0001a0 5a 81 81 3f 08 ae 3e 3d d6 1f 7f 3d cf 8f 78 3f
       1.01176 0.046552688 0.06228622 0.97094434
0001b0 d7 fe b9 3e 83 5d 1c 3e 48 38 ba bd 80 0a a8 3e
       0.3632724 0.15270047 -0.09092766 0.3282051
0001c0 27 fe c5 bc 84 f0 f6 3e dd 34 71 3f 32 5e 15 3e
       -0.02416904 0.48230374 0.9422129 0.14586714
0001d0 b8 0a ae 3b 21 c4 6b 3e c3 1f e7 bd 5a 6f 49 3d
       0.0053113364 0.23024036 -0.11285355 0.04917846
0001e0 ac 39 34 3d 41 e0 97 3e 1d ca 94 bd a7 2b 4f 3d
       0.044000313 0.2966328 -0.072651125 0.05057874
0001f0 71 49 5b 3f 5a 7d e1 3e 44 3d 0d 3f 20 5d 08 3f
       0.8565894 0.44040948 0.5517161 0.532671
000200 41 51 b1 3d b9 69 31 bd 2e 70 34 3f 1f 59 2a bd
       0.08658076 -0.043313716 0.7048367 -0.0415889
000210 dc 6a 39 3d b2 85 b5 bc 93 0e d5 3f ef 1d aa bd
       0.045267925 -0.022158477 1.6645073 -0.08306491
000220 b7 31 47 3e 18 b2 02 3d 73 d5 b1 3d 5f b8 11 3e
       0.19452558 0.031908125 0.0868329 0.14230488
000230 6d 57 0e 3d f9 e6 82 3a 40 1d 0f 3f dc 42 70 3e
       0.034751344 0.0009987048 0.55904007 0.23463005
000240 8f 8c 88 bd 72 8e 19 3d f9 56 df bd 5e 55 82 3e
       -0.066674344 0.037489362 -0.109052606 0.25455755
000250 cf ae eb bd b0 10 f6 3d 1d 7f 7f 3d 92 b1 af 3d
       -0.115079515 0.12014902 0.062377084 0.08578791
000260 a8 e6 3e 3e 62 66 83 bc 2d eb 72 3e f7 95 a6 3d
       0.18642676 -0.01604003 0.23722525 0.08134072
000270 bc 65 5d 3d 80 95 93 3d 47 90 47 3d 1b 85 43 3d
       0.0540521 0.07206249 0.048721578 0.04773436
000280 9e 95 43 3d f4 c3 b1 3d 17 fd 12 3f f2 55 c9 bb
       0.047750108 0.08679953 0.57417434 -0.0061442787
000290 b0 49 92 bd d7 c3 83 3e 88 54 05 3c e1 71 b7 bb
       -0.07142961 0.2573535 0.00813783 -0.005598292
0002a0 81 44 14 3e 03 36 2e bd 6f da 53 3f ea 40 e0 3d
       0.14479257 -0.04253198 0.8275518 0.109498814
0002b0 44 38 4a bc bc 62 0d 3f ed 44 8b 3e 98 8a 21 bc
       -0.012342516 0.5522878 0.27201024 -0.0098597035
0002c0 f3 cf 2a bc 67 0e cd 3e b4 33 c8 bc e6 e6 5f 3f
       -0.0104255555 0.4005005 -0.024438716 0.874617
0002d0 06 7f a1 3d 04 26 4e 3e d1 e9 33 bc 63 79 3d 3d
       0.07885556 0.2013169 -0.010981039 0.04625834
0002e0 98 f7 14 bd 5c 9e e2 3e 23 90 0e 3f fd 37 8f 3e
       -0.036368936 0.44261444 0.55688685 0.27972403
0002f0 08 23 3d 3f 55 ad 91 3d c7 42 ee 3d 58 92 e5 3d
       0.7388158 0.071131386 0.116338305 0.112095535
000300 c4 8a 33 3d 45 42 02 3f 40 63 06 3e bc 32 55 3d
       0.04383351 0.5088237 0.13123798 0.052050337
000310 5b e4 e2 bc 2d ad 13 3d c2 e8 2c 3e 1d f6 80 bd
       -0.027696779 0.036053825 0.16885665 -0.062969424
000320 3b 20 d4 b9 05 95 14 3e 1f aa c5 3d f4 27 15 3f
       -0.00040459805 0.14509971 0.09651589 0.5826409
000330 36 a2 e0 3d cf 53 ab bd 0f b5 88 3e a6 1a eb 3d
       0.10968439 -0.083655946 0.26700637 0.11479692
000340 38 35 54 3f bb ab f2 3b 27 98 13 3e 93 e2 18 bc
       0.82893705 0.007405726 0.1441351 -0.009331363
000350 9b c1 cc 3b b7 1e f3 3c ec 19 d3 bc f4 a9 4b 3e
       0.0062486655 0.029677732 -0.025769196 0.1988905
000360 9e 1e 4e 3e 05 0e 80 3d a2 fc b0 3f 92 73 de 3e
       0.20128867 0.06252674 1.3827097 0.43447548
000370 37 cb 35 bc 61 f5 20 3f 70 0a 0b 3d c4 c2 01 3f
       -0.0110958135 0.6287442 0.0339455 0.50687814
000380 28 c8 1f bd a7 09 31 3d f7 dc 11 3f 8d 7d db 3e
       -0.039009243 0.043222096 0.5697779 0.42869225
000390 b8 3d b9 3d 0d 35 08 3e cc 54 47 3f e9 58 84 3c
       0.09044975 0.13301487 0.77863765 0.016155677
0003a0 b9 93 45 3b d6 7c 86 3e 28 39 20 3e ea 45 80 3e
       0.0030147864 0.26267117 0.15646803 0.2505334
0003b0 57 d0 d8 bd f6 f1 28 3f 04 d2 14 3d e5 6d d9 3d
       -0.10586613 0.65994203 0.0363331 0.10616664
0003c0 20 b4 66 bd fe ba a7 3a 72 5c 12 3f d1 c7 c6 3e
       -0.056324124 0.0012796817 0.5717231 0.38824323
0003d0 59 97 f0 3c 71 c7 aa 3d c8 40 cf bb 0f c0 16 3e
       0.029369043 0.08338822 -0.006324861 0.14721702
0003e0 0f d6 0f 3d 6c 95 5c bc e2 09 1c be 8d 8f 47 3e
       0.03511625 -0.013463359 -0.15238145 0.19488354
0003f0 92 15 8a 3e 11 e5 0d 3d b2 93 ed bc fe 15 a3 3c
       0.26969582 0.034642283 -0.02900109 0.019907948

bias f4 [3]
000000 77 97 88 c0 b8 ea 0e c0 c4 82 29 c0
       -4.2684894 -2.233076 -2.6486063

weight f4 [256, 18]
000000 8d 17 19 c0 73 95 52 3e 82 0d 0f c0 08 61 44 40
       -2.3920624 0.20564823 -2.2351995 3.0684223
000010 6c ba 3e be c6 48 96 40 f6 56 d5 3d 96 a1 9e 40
       -0.18625802 4.6963835 0.10416977 4.957225
000020 7e 27 56 c0 e0 f0 74 bf 91 fa 47 c0 4f 07 3d be
       -3.3461604 -0.95680046 -3.1246684 -0.1845982
000030 9b 2d fc be 82 8c 95 3f 71 b7 67 c0 f0 6f 39 bf
       -0.49253544 1.1683505 -3.6205714 -0.7243643
000040 f5 8c 85 3f 7c 76 ae 3f 26 14 96 40 73 99 65 3e
       1.0433642 1.3629909 4.6899595 0.22421817
000050 90 d4 4c 41 6f 79 1a c1 d3 d7 2a 3e 1c b4 6f c0
       12.801895 -9.654647 0.16683893 -3.745368
000060 ce b8 f3 3d 4a 4b ca c0 82 e7 2b 41 74 d4 83 c0
       0.11900483 -6.3216906 10.74402 -4.119684
000070 2f ec c1 40 e6 93 36 c0 10 e9 4a 40 33 cc a7 3f
       6.060081 -2.852777 3.170475 1.3109192
000080 a5 80 02 41 b6 8b 4c c0 0c b7 94 c0 26 75 d7 bf
       8.156407 -3.1960273 -4.6473446 -1.6832626
000090 8b c6 bc 40 58 49 e8 3c 2d a3 08 bf 9b 06 f6 c0
       5.899236 0.028355286 -0.53373986 -7.6883063
0000a0 71 f7 6e 3e 14 33 32 bf 2f aa 31 be e1 b1 1a 41
       0.23336579 -0.6960919 -0.17350076 9.668427
0000b0 6a fa 87 c0 2f 2b 0e 41 b9 ad 68 bf 93 20 48 40
       -4.249318 8.885543 -0.9089008 3.1269882
0000c0 14 98 8b bf d7 4f 28 c0 43 cf 60 c1 75 b3 22 c0
       -1.0905786 -2.629873 -14.050601 -2.5422032
0000d0 f6 be 8a be 98 61 30 40 bd f2 34 40 2f 2f 50 3e
       -0.27098817 2.7559566 2.8273156 0.20330499
0000e0 11 6e 40 41 ca ff ab c1 13 5d 16 be 95 61 7a 3f
       12.026872 -21.499897 -0.14683942 0.9780515
0000f0 74 1b 02 3d 2e 1f 29 c1 d8 0a ec 40 4c 26 ec c0
       0.031764463 -10.570112 7.3763237 -7.379675
000100 91 ed c4 40 d1 c2 ff 3f 17 b2 4f 41 bc ca eb 40
       6.154 1.9981328 12.980979 7.368498
000110 d8 7a bf 40 67 26 a7 c0 a4 12 fe be 4e 6b 3d 40
       5.9837456 -5.223438 -0.49623597 2.9596744
000120 44 29 2c 40 99 c1 19 3e 2b 90 19 40 4b 53 06 3f
       2.6900187 0.15015258 2.3994243 0.52470845
000130 48 f9 5f bd ee d6 e5 40 24 15 49 bd 01 00 4c 40
       -0.054681093 7.1824865 -0.049092427 3.1875002
000140 67 ed 44 bf ea c5 30 3f 7a 6d 28 3f c1 7d 95 3f
       -0.7692475 0.6905199 0.6579205 1.1679002
000150 cb 97 21 40 e7 a7 e6 3f 17 40 0f 40 28 7f f0 40
       2.5248897 1.801999 2.2382867 7.515522
000160 a7 f6 9b bf 09 48 bd be be 96 f9 41 f1 42 37 3e
       -1.2184647 -0.3696902 31.198605 0.1789663
000170 5d c2 a5 40 02 37 d3 c0 7c 8e 16 be 78 b6 9f 41
       5.179976 -6.600465 -0.14702791 19.964096
000180 da c0 99 3d 48 42 e2 bf a8 bd 67 c0 ae 64 93 40
       0.07507487 -1.7676477 -3.6209507 4.60604
000190 7c 7a c4 40 b0 ca 15 41 f5 88 31 c1 6e af f6 3e
       6.1399517 9.361984 -11.095937 0.48180717
0001a0 de b1 7b 3f 94 c2 5a bf f7 75 71 3f 28 e0 7a 3f
       0.9831828 -0.8545315 0.94320625 0.97998285
0001b0 76 e5 0a 40 b2 5b c5 3d b9 bf b0 bc 5c 64 36 be
       2.1702552 0.0963663 -0.021575795 -0.17811722
0001c0 1a 8b ad 3d e5 bd 33 3f 62 86 48 be f9 e9 12 3f
       0.08473797 0.7021163 -0.19582513 0.57388264
0001d0 4f d4 a2 bf 79 f9 01 3f 56 b2 ab bf c7 23 91 3e
       -1.2721041 0.5077129 -1.3413799 0.28347608
0001e0 63 28 ff 3e a4 aa 03 3e 99 d1 77 be a4 88 52 3e
       0.498355 0.12858063 -0.24201049 0.20559937
0001f0 e1 c9 b3 3d fb 81 50 bf 0e e6 a0 40 f6 16 0d be
       0.0877874 -0.81448334 5.028083 -0.1377829
000200 56 ce 21 41 21 04 00 c1 be 22 8d bd 6c 30 9e 3e
       10.112875 -8.001008 -0.06891392 0.30896318
000210 70 ba 20 3c 3d d0 1f c1 b3 59 44 41 27 e8 bc bf
       0.009810075 -9.988339 12.271899 -1.4758347
000220 ec 1f 90 40 a7 76 8f 3e 86 14 0b 41 63 19 28 40
       4.5038967 0.28020212 8.692511 2.6265495
000230 cd eb c8 40 52 68 b8 c0 25 40 69 be b7 d5 fe 40
       6.2787843 -5.7627344 -0.22778375 7.963588
000240 40 d3 2f 42 4c fc 27 3d 00 9e ba c1 c6 3b 71 40
       43.9563 0.041012093 -23.327148 3.7692733
000250 1b 05 1d be 6b f5 2f 41 22 b3 4c be 47 4b d4 c0
       -0.15333979 10.9974165 -0.19990209 -6.634189
000260 7d 24 a6 41 9c db 89 bf 14 b1 9e c0 34 8d b1 3f
       20.767817 -1.0770144 -4.959116 1.3871217
000270 76 bf f3 c0 26 e7 be 40 4a 89 b8 41 40 65 a6 c0
       -7.6171217 5.9657164 23.067036 -5.1998596
000280 45 1d c2 bf 46 ff 36 40 28 44 bd c0 fe be dc 3d
       -1.5165182 2.8593307 -5.91457 0.10778616
000290 4e d8 09 42 a3 62 fd bf d5 41 fa bd a4 73 85 c1
       34.461235 -1.9795727 -0.12219588 -16.681465
0002a0 58 40 0d bd 8e 9b e1 c1 b5 03 de 41 46 b3 79 c1
       -0.03448519 -28.200954 27.75181 -15.606268
0002b0 98 27 05 42 24 d7 60 c1 af e1 a4 41 8f 62 a1 41
       33.288666 -14.052525 20.610197 20.173124
0002c0 ab 13 07 42 db c9 58 c1 f6 d5 12 40 66 51 62 41
       33.769207 -13.549281 2.2943091 14.144873
0002d0 18 a0 8f 42 7f 94 0a 3e 7a 7e db 40 dc 01 0d c1
       71.81268 0.1353321 6.859189 -8.812954
0002e0 ea ff 80 3d 66 c6 bf 41 8c dc 21 bd 9a c3 d0 41
       0.06298812 23.971874 -0.03951697 26.095509
0002f0 c6 00 02 c1 bc aa 82 40 08 b3 0d c2 25 47 81 3f
       -8.125189 4.0833416 -35.424835 1.0099837
000300 33 53 a5 40 53 5f 6c 3f e4 2f 04 c1 a3 f6 1a bf
       5.166406 0.92332953 -8.261692 -0.6053259
000310 c3 66 48 bf ec c4 6e 40 97 34 ce 40 f4 42 bd bd
       -0.782818 3.7307692 6.4439197 -0.09241286
000320 54 1d 02 c0 54 2d e0 3f 80 1a e5 bb 5c da 5e c0
       -2.03304 1.7513833 -0.0069916844 -3.4820776
000330 4a f8 f3 3d 00 f9 c1 40 9a c9 f4 c0 31 2c 4a be
       0.11912592 6.0616455 -7.6496096 -0.1974342
000340 d2 ee dd c0 c3 1e b9 bf f2 13 3c 40 c6 e0 3c 3f
       -6.935403 -1.4462513 2.9387174 0.7378048
000350 9c 75 a5 bf 72 e5 cc be 0a ef 52 3f 89 cb 37 3e
       -1.2926517 -0.40018803 0.82395995 0.17948736
000360 6c 90 79 41 a2 79 bd 3d 7a 80 ad 41 7c 7e 0b c1
       15.597759 0.09251715 21.687733 -8.71838
000370 9d d8 39 be c6 b4 90 c1 c9 19 39 3e c0 66 8d c1
       -0.18149038 -18.088268 0.18076243 -17.67517
000380 4f 00 42 41 25 cc 5e c1 61 dc b8 41 68 56 dc c0
       12.125075 -13.92484 23.107607 -6.8855476
000390 6e 96 24 41 07 0f e9 40 ac 63 97 41 74 c0 f2 3f
       10.286726 7.2830844 18.923668 1.8964982
0003a0 b5 10 ee 3e 85 52 8a c0 40 cd 2a c0 49 4a 5c 3e
       0.4649712 -4.322573 -2.6687775 0.21512713
0003b0 fd 16 ea 41 b5 32 4a bf 38 cc e1 bc 7e cd b6 c1
       29.261225 -0.7898362 -0.0275632 -22.850338
0003c0 7f 89 3a 3e 4b 89 c6 c1 bc 62 b1 41 66 b0 ad c1
       0.18216513 -24.817038 22.17321 -21.711132
0003d0 6b e7 c5 41 8d 39 85 c1 50 b6 8c 41 69 83 36 41
       24.737997 -16.653101 17.58902 11.407083
0003e0 13 d0 c8 41 bc 8e a1 c0 ee df 9d 40 8f 34 ec 3f
       25.101599 -5.0486736 4.933585 1.845354
0003f0 5c 4e c2 3f d5 8b 6a 3e e4 6b 23 bd 63 58 c8 bf
       1.5180163 0.22904904 -0.039897814 -1.5651973
