data/HopperPyBulletEnv-v0_sac_grad_False/HopperPyBulletEnv-v0_sac_grad_False_s0/pyt_save/model.pt (torch_old, 859870 bytes, 18 tensors)

weight f4 [256, 15]
0	0x3cf405f2	0.029787991
1	0x3e0dd556	0.13850912
2	0xbe7a1ee7	-0.24425851
3	0xbe630faf	-0.22173952
4	0xbdcbaa92	-0.09944643
5	0x3dce8c2a	0.10085328
6	0xbba7a200	-0.0051157475
7	0x3e72222a	0.23645845
8	0xbd5fca44	-0.054636255
9	0x3dccc03f	0.099976055
10	0xbd3eecb2	-0.04661245
11	0xbda7cd14	-0.081934124
12	0xbe5c147e	-0.21492192
13	0xbe0e9500	-0.13924026
14	0xbdd9fae2	-0.10643555
15	0x3eb3af37	0.35094616
16	0x3dd10cc0	0.1020751
17	0xbe09447d	-0.13405032
18	0xbff2a650	-1.8957005
19	0xbde644da	-0.11243601
20	0x3f7a445d	0.97760564
21	0x3e5b8d0c	0.21440524
22	0xbef39967	-0.47577974
23	0x3f86d639	1.0534126
24	0xbda703d1	-0.08155025
25	0xbe4d842b	-0.2006995
26	0x3ebbf0af	0.36707065
27	0xbf15ebbc	-0.5856283
28	0x3ec6cb9a	0.3882721
29	0x3e937e9e	0.2880754
30	0xbf5f92ff	-0.87333673
31	0x3e647024	0.22308403
32	0xbe63d899	-0.22250594
33	0x3ee1965f	0.44060037
34	0xbe38b7ae	-0.18038818
35	0xbf543eac	-0.8290813
36	0xbe1a56a4	-0.15072113
37	0xbd30f806	-0.043205284
38	0xbecf6c21	-0.40512183
39	0xbdb0ce0c	-0.0863305
40	0xc0063f8f	-2.0976293
41	0xbf04909e	-0.5178317
42	0xbe8b2cae	-0.27182525
43	0xbe539803	-0.20663457
44	0xbe94e93f	-0.29084203
45	0xbe9e9d31	-0.30979303
46	0x3e26d138	0.16290748
47	0x3e876fd4	0.26452506
48	0xbf27a28a	-0.6548239
49	0xbc18a3f0	-0.0093164295
50	0xbe005b44	-0.12534815
51	0x3e836c17	0.25668404
52	0x3f859d85	1.0438696
53	0x3e1fc7af	0.15603517
54	0x3f77f5fd	0.96859723
55	0x3dab7249	0.083714075
56	0x3f3acaeb	0.7296588
57	0x3e15f465	0.1464401
58	0xbdb76f73	-0.08956804
59	0xbe9843af	-0.29739138
60	0x3f60f66e	0.8787602
61	0x3dd4a8b0	0.10383737
62	0xbf02c4cd	-0.51081544
63	0xbe51074a	-0.20412937
64	0x3e112554	0.14174396
65	0xbf17b9c7	-0.5926785
66	0x3c218540	0.009858429
67	0x3f97e31a	1.1866181
68	0x3ebb355a	0.36564142
69	0x3f9add87	1.2098855
70	0xbfe4e4bb	-1.7882303
71	0xbce63128	-0.028099611
72	0x3e3345ed	0.17507143
73	0x3d3da9b8	0.046304435
74	0xbeaa5180	-0.33265305
75	0x3e9fe316	0.3122794
76	0x3d527970	0.051385343
77	0xbe9f226d	-0.31080952
78	0xbd15cd65	-0.036572833
79	0xbe256848	-0.16153061
80	0xbe279e30	-0.16368937
81	0x3e6ae9de	0.22940776
82	0x3e901551	0.28141263
83	0xbe8978a9	-0.2684987
84	0x3d2d5bbe	0.04232382
85	0xbe0a12b3	-0.13483696
86	0x3c021b20	0.007941037
87	0xbe0dfcaf	-0.13865922
88	0x3d2241e8	0.039613634
89	0xbe0fd6d5	-0.14046796
90	0x3f68c0d7	0.9091925
91	0x3e05b500	0.13057327
92	0x3c8aae45	0.016928801
93	0x3e94e759	0.29082754
94	0xbe82d742	-0.25554854
95	0x3f3ab909	0.7293859
96	0x3e040448	0.12892258
97	0x3f3f085f	0.7462215
98	0xc05f779c	-3.4916754
99	0xbedae368	-0.42751622
100	0x3f224c92	0.6339809
101	0xbf0c45a9	-0.5479379
102	0xbe44b150	-0.19208264
103	0xbee27129	-0.4422696
104	0xbdebd6c8	-0.11515576
105	0x3ff80e47	1.9379357
106	0xbe471b02	-0.19443896
107	0xbed6f5ef	-0.41984507
108	0x3e762ec4	0.24041277
109	0x3d1eca70	0.03876728
110	0x3e9eb0e1	0.30994323
111	0x3e1ce2f0	0.15320945
112	0x3ed1fcb3	0.41013107
113	0x3f8cf4bd	1.1012188
114	0x3f589bb9	0.84612614
115	0x3d05c1f5	0.032655675
116	0x3e6f10f4	0.23346311
117	0xbf533fec	-0.8251941
118	0xbef99120	-0.48743534
119	0xbf6dccac	-0.9289043
120	0xbf2c3156	-0.6726278
121	0x3c7d65c0	0.015466154
122	0xbf1f6912	-0.622697
123	0xbf32dc05	-0.69866973
124	0xbe7d9f0a	-0.247677
125	0xbf535574	-0.82552266
126	0xbd845f4c	-0.06463489
127	0xbf8c1f93	-1.0947136
128	0xbf2770c8	-0.65406466
129	0xbf29ba0e	-0.6629952
130	0xbf28b3e6	-0.65899503
131	0xbe9276f5	-0.28606382
132	0xbf0afa78	-0.54288435
133	0xbde99b5c	-0.114065856
134	0xbd176fd3	-0.03697188
135	0x3f187478	0.5955272
136	0x3beb2400	0.0071759224
137	0xbf02febe	-0.51169956
138	0xbf764c97	-0.96210617
139	0x3e281cfa	0.16417304
140	0x3ece4667	0.40288088
141	0x3e27e7f2	0.16397074
142	0x3e4125a4	0.18862015
143	0xbf4cbc45	-0.79974777
144	0xbe1f5eae	-0.15563461
145	0x3e172806	0.14761361
146	0x3cbcd7ba	0.023052085
147	0xbed28158	-0.41114306
148	0xbf59636a	-0.8491732
149	0xbf857bf5	-1.0428454
150	0xbf49110c	-0.78541636
151	0xbe5f26f0	-0.21792197
152	0xbf165c39	-0.5873447
153	0xbf55f81b	-0.83581704
154	0x3e0ef172	0.13959292
155	0xbf2e9c43	-0.68207186
156	0x3e24ecde	0.16105983
157	0xbf1ee613	-0.62069815
158	0xbf9120d1	-1.133814
159	0xbe0fbde7	-0.14037286
160	0xbdd25538	-0.102701604
161	0xbf322680	-0.69589996
162	0xbf89069a	-1.070514
163	0x3e93bf46	0.28856868
164	0x3e3f7baa	0.18699518
165	0x3e369726	0.17831096
166	0xbdf03774	-0.11729327
167	0x3d184883	0.037178528
168	0xbfa64b89	-1.2991802
169	0xbc8ebf28	-0.017425135
170	0x3f91076f	1.1330394
171	0xbdd7b094	-0.105317265
172	0x4026b81d	2.6049874
173	0x3d9a5e14	0.07537475
174	0xbec8e542	-0.3923741
175	0x3efc6492	0.4929548
176	0xbe16d4c9	-0.14729609
177	0xbf5cb0e3	-0.8620741
178	0x3ea6b3ee	0.3255915
179	0xbf9bbc2f	-1.2166804
180	0x3f878fa3	1.059071
181	0xbd5d6cb8	-0.05405876
182	0x3eaf9217	0.34291145
183	0xbf954ee9	-1.1664706
184	0x3dfe1648	0.124065936
185	0x3ee47944	0.44623768
186	0xbd7e5268	-0.062090307
187	0x3f80d3fc	1.0064692
188	0xbf69c138	-0.91310453
189	0x3e1aace4	0.15105015
190	0x3f448ace	0.767743
191	0x3ed158a0	0.40887928
192	0x3ee5d297	0.4488723
193	0x3d847be4	0.06468943
194	0x3e490a42	0.1963282
195	0xbf8df419	-1.1090118
196	0xbe1a1097	-0.15045391
197	0xbe2e5905	-0.17026146
198	0x3f179f72	0.5922767
199	0xbbb89680	-0.0056331754
200	0x3fdc8040	1.7226639
201	0x3e2a6f80	0.16644096
202	0x3f0fc1ce	0.561551
203	0xc0180f4e	-2.3759341
204	0xbf570284	-0.83988214
205	0x3e408292	0.18799809
206	0xbe9e78f4	-0.30951655
207	0x3dba048d	0.09082899
208	0x3e9415d8	0.28922915
209	0xbf4c977f	-0.79918665
210	0x3fd8820d	1.6914688
211	0xbd511088	-0.051041156
212	0xbe6f619c	-0.23377079
213	0xc019e866	-2.4048095
214	0xbaedcb00	-0.0018142164
215	0x3e9d8d26	0.3077175
216	0xbe4ecfc7	-0.20196448
217	0xbf42f52c	-0.7615535
218	0x3f452ca9	0.7702127
219	0x3eaf003c	0.34179866
220	0x3eb5b216	0.3548743
221	0x3f6270e0	0.88453484
222	0xbeacf845	-0.33783165
223	0x3e76033a	0.24024668
224	0xbd93d22d	-0.07217822
225	0x3d953e1f	0.07287239
226	0xbe3c52ee	-0.1839101
227	0xbdfdca86	-0.12392144
228	0xbfadb7b9	-1.3571693
229	0xbd1c9d58	-0.038235992
230	0x3e3a5e75	0.18200095
231	0x3e5a1356	0.21296439
232	0x3da57527	0.08078986
233	0x3f3cbdcb	0.737271
234	0x3f17eddf	0.5934734
235	0xbfe217bf	-1.7663497
236	0x3c401224	0.011723075
237	0xbbc30fae	-0.005952797
238	0xbdeff654	-0.11716905
239	0x3ecde3eb	0.4021295
240	0xbc5e887e	-0.013582347
241	0x3e465b66	0.19370803
242	0xbf207914	-0.6268475
243	0xbd3daf78	-0.04630992
244	0x3e081dfc	0.13292688
245	0xbeac4e9d	-0.33653727
246	0x3e3f2726	0.18667278
247	0xbfaa1bf6	-1.3289783
248	0xc0018052	-2.023457
249	0xbef61b80	-0.48067856
250	0xbf100ceb	-0.5626971
251	0xbeae3646	-0.34025782
252	0xbe8e74fd	-0.2782363
253	0xbea15c20	-0.31515598
254	0x3d941a8f	0.07231628
255	0xbfca7e95	-1.581988

bias f4 [256]
0	0xbe85e72e	-0.2615294
1	0xbf038171	-0.51369387
2	0xbde26117	-0.11053675
3	0x3e9ec623	0.3101054
4	0xbe8fbeb3	-0.2807518
5	0xbd19fda1	-0.037595395
6	0xbe7203a0	-0.23634195
7	0x3c6aafe7	0.014324165
8	0xbefd0c13	-0.49423274
9	0xbecdf2b8	-0.40224242
10	0xbf07e728	-0.5308709
11	0xbca22f94	-0.019798078
12	0x3e7a7f85	0.24462707
13	0xbd773eeb	-0.060362738
14	0xbdf0bbac	-0.117545456
15	0xbc900b58	-0.017583534
16	0xbee18a7e	-0.44050974
17	0xbe3a57a5	-0.18197496
18	0x3dfa3dfe	0.12218855
19	0xbef265e6	-0.47343367
20	0xbd21aad0	-0.03946954
21	0xbcc4e659	-0.02403562
22	0x3e17e875	0.14834769
23	0xbef98bf9	-0.48739603
24	0xbe58864a	-0.21144977
25	0x3ec2ea37	0.38069317
26	0xbf04154a	-0.51594985
27	0x3f307c96	0.68940103
28	0xbe6c7e67	-0.23095094
29	0xbe933c79	-0.28757074
30	0x3f839179	1.027877
31	0xbdf7c974	-0.12098971
32	0xbd3a65df	-0.045507308
33	0x3f197690	0.59946537
34	0xbe825595	-0.2545592
35	0xbe992728	-0.29912686
36	0x3eab6260	0.33473492
37	0xbf42b862	-0.76062596
38	0xbf1413da	-0.5784279
39	0xbf69847f	-0.912178
40	0xbf0dbb92	-0.55364335
41	0xbe042144	-0.12903315
42	0xbe37fc50	-0.17967343
43	0xbe4188a0	-0.18899775
44	0xbf02ccfe	-0.51094043
45	0xbeb14268	-0.34620976
46	0x3d81cccd	0.06337891
47	0xbf23afb7	-0.63939995
48	0xbf4e2153	-0.805196
49	0x3ec72235	0.38893285
50	0xbe62171b	-0.22079127
51	0xbcc5e267	-0.024155809
52	0xbefe15db	-0.4962605
53	0x3e0f6689	0.14003958
54	0xbe60d9f9	-0.2195815
55	0xbe94e4e4	-0.2908088
56	0x3f22049c	0.63288283
57	0x3eb39c54	0.35080206
58	0xbef1b26a	-0.47206432
59	0xbee59704	-0.44841778
60	0x3e80c97d	0.25153723
61	0xbefd70b0	-0.49500036
62	0xbe65be0e	-0.22435781
63	0xbe5d8455	-0.21632512
64	0x3e678595	0.22609551
65	0x3e631567	0.22176133
66	0xbd8252ee	-0.06363474
67	0xbee71af6	-0.45137757
68	0xbe7c80be	-0.24658486
69	0xbe6f519b	-0.23370974
70	0xbe67cccb	-0.22636716
71	0xbefa37bd	-0.4887065
72	0xbecf4fb3	-0.40490493
73	0xbe291d2f	-0.16515039
74	0xbf2b1d33	-0.6684143
75	0xbe983bd6	-0.2973315
76	0xbf3b174d	-0.7308243
77	0xbeed954d	-0.4640297
78	0xbf4b45c5	-0.79403335
79	0xbd880adc	-0.06642696
80	0xbe8b8439	-0.27249315
81	0xbf061a5f	-0.5238399
82	0xbe6166e8	-0.22011912
83	0xbe88c17f	-0.26710126
84	0x3f3a439f	0.7275943
85	0xbf37ad2a	-0.717486
86	0xbf08f0f5	-0.5349267
87	0xbeba31c1	-0.36366084
88	0xbe7713e0	-0.24128675
89	0xbe09aaa2	-0.13443998
90	0x3c892a32	0.016743753
91	0xbf87feb4	-1.0624604
92	0xbe5b7f28	-0.21435225
93	0xbede74b6	-0.43448418
94	0xbf0dd455	-0.5540212
95	0xbf34e7e8	-0.7066636
96	0xbf6aa0f3	-0.9165184
97	0xbed60883	-0.4180337
98	0xbf1aae6e	-0.6042241
99	0xbf01f9e0	-0.50771904
100	0xbef39471	-0.4757419
101	0xbe82dd9a	-0.25559694
102	0xbf466c8f	-0.775094
103	0xbed86513	-0.42264614
104	0xbef4ed47	-0.47837278
105	0xbeb22d2b	-0.34800085
106	0xbf0e32c0	-0.5554619
107	0xbf0d39eb	-0.551665
108	0x3cd790af	0.026314108
109	0xbf072fa5	-0.52807075
110	0xbdcc6a44	-0.09981206
111	0x3f233c39	0.6376377
112	0xbe94f257	-0.2909114
113	0xbeba9d19	-0.3644798
114	0x3d397b51	0.04528362
115	0xbecd0359	-0.40041617
116	0xbe2879a9	-0.1645266
117	0xbe8d24dd	-0.27567187
118	0xbe9bc0f3	-0.30420646
119	0xbe39d0c8	-0.1814605
120	0xbea333f8	-0.31875587
121	0xbd765af5	-0.060145337
122	0xbdcbc1c2	-0.09949066
123	0x3ccf1aa6	0.025281262
124	0x3f1b0cf8	0.60566664
125	0x3d85a4d7	0.06525581
126	0xbec45fc0	-0.383543
127	0xbf15778b	-0.58385533
128	0x3e842958	0.25812793
129	0xbe1f56f9	-0.15560521
130	0x3e29795b	0.165502
131	0xbf4b4ba2	-0.7941228
132	0xbf3a3220	-0.72732735
133	0xbf2060b9	-0.6264759
134	0x3f56abf6	0.8385614
135	0xbf06f2c2	-0.5271417
136	0x3f127095	0.57203037
137	0xbe9167bc	-0.28399456
138	0xbed01fcf	-0.40649268
139	0xbd333433	-0.043750953
140	0xbeeada72	-0.45869786
141	0xbdbe14b1	-0.0928129
142	0xbe8ef91c	-0.2792443
143	0xbc097040	-0.008388579
144	0xbf0cd64a	-0.5501448
145	0x3e0de03f	0.13855074
146	0xbf79cc2f	-0.97577184
147	0xbe7894c5	-0.24275501
148	0xbeea9342	-0.45815474
149	0xbf00dbe5	-0.5033553
150	0x3d80dc66	0.06292038
151	0xbec4931d	-0.3839349
152	0xbd1117ae	-0.035422973
153	0x3c65a89f	0.014017253
154	0xbf415876	-0.75525606
155	0x3f46b915	0.7762616
156	0xbe58a1d8	-0.21155488
157	0xbee8c43d	-0.45462218
158	0xbf18e144	-0.5971873
159	0xbed03b76	-0.40670365
160	0xbeb8f4b2	-0.36124188
161	0xbe8f50ac	-0.27991235
162	0x3e846b60	0.2586317
163	0xbea4b863	-0.32171926
164	0x3e9e134f	0.30874106
165	0xbebb778e	-0.3661465
166	0x3aee5293	0.0018182568
167	0xbebab6dc	-0.36467636
168	0xbe0b944b	-0.13630788
169	0x3d75fb9c	0.060054407
170	0xbe6f1da1	-0.23351146
171	0xbeb827a6	-0.3596775
172	0x3e912318	0.28347087
173	0x3d8fe259	0.07025594
174	0xbf3c5581	-0.7356797
175	0xbe3545cb	-0.17702405
176	0x3e4dbabe	0.20090768
177	0xbe8d42ed	-0.27590123
178	0xbdd32b57	-0.10311001
179	0xbf2ed079	-0.68286854
180	0xbcb79606	-0.022410404
181	0xbdf7ff46	-0.121092364
182	0xbf0a8ea6	-0.54123914
183	0xbefaf196	-0.4901244
184	0x3e9c0fa1	0.30480674
185	0xbe2959ac	-0.16538113
186	0xbe745b04	-0.23862845
187	0x3bb9e883	0.0056734695
188	0xbf09c15f	-0.53810686
189	0xbf8aaac0	-1.0833359
190	0xbf0b1b20	-0.54338264
191	0xbf261c08	-0.6488652
192	0xbf28b561	-0.6590176
193	0xbeb73ec7	-0.35790083
194	0x3f2711d6	0.6526159
195	0x3cfca6a7	0.030841185
196	0x3c91642b	0.01774796
197	0x3e9794e8	0.29605794
198	0xbed20e88	-0.4102671
199	0xbe4dcda6	-0.2009798
200	0xbf013b54	-0.5048115
201	0xbec16b23	-0.3777705
202	0xbf29cdc1	-0.6632958
203	0xbb943f40	-0.0045241416
204	0xbe85a4af	-0.26102206
205	0xbea87d5e	-0.32908148
206	0x3eecfdce	0.46287388
207	0xbddb145c	-0.106972426
208	0xbf13aa76	-0.5768198
209	0xbe9c39bc	-0.30512798
210	0x3d02f4cf	0.03197175
211	0xbe3d62b5	-0.18494685
212	0xbe8d23fe	-0.27566522
213	0xbf465ba4	-0.7748358
214	0x3f1131cb	0.56716603
215	0xbe5fddfe	-0.21862027
216	0xbeb609b0	-0.35554266
217	0xbef66188	-0.48121285
218	0xbf1a3a30	-0.6024504
219	0x3df69909	0.12040908
220	0xbecb58d6	-0.39716214
221	0xbdb8cdf1	-0.09023655
222	0xbea8879b	-0.3291596
223	0xbe49f61c	-0.1972279
224	0xbf2dc6ba	-0.6788136
225	0x3ed2d822	0.4118052
226	0xbf29db0b	-0.6634986
227	0xbf938c33	-1.152716
228	0x3e50c058	0.20385873
229	0xbef6b0fe	-0.4818191
230	0xbf4b7f2b	-0.7949092
231	0xbea20bdb	-0.3164967
232	0xbe276ba0	-0.1634965
233	0xbe383336	-0.17988285
234	0xbe91bb67	-0.2846329
235	0xbe856f6f	-0.2606158
236	0x3e63ab7d	0.22233386
237	0xbeef869b	-0.46782383
238	0xbf3b9de3	-0.7328779
239	0xbe653b20	-0.22385836
240	0xbe54cafa	-0.20780554
241	0x3ed4398a	0.4145015
242	0xbec4af55	-0.38415018
243	0xbe2f5a08	-0.17124188
244	0x3f282927	0.65687793
245	0x3eb013c4	0.3439008
246	0x3d44c6c9	0.04804114
247	0x3f1de109	0.616715
248	0xbed1a383	-0.40945062
249	0x3d69161b	0.056905847
250	0xbe3a32c2	-0.18183425
251	0xbf0e5199	-0.5559326
252	0xbe00d11a	-0.12579766
253	0xbeb09510	-0.34488726
254	0xbeae7567	-0.34073946
255	0xbf31e366	-0.6948761

weight f4 [256, 256]
0	0x3d3a3a08	0.0454655
1	0xbbd8c050	-0.0066147223
2	0xbd373d78	-0.044736356
3	0x3be3bafe	0.0069497814
4	0x3c411733	0.011785316
5	0xbce3c21c	-0.02780252
6	0x3bd893b0	0.0066094026
7	0xbd857a82	-0.06517507
8	0x3d0a45b3	0.033757877
9	0x3d606220	0.05478108
10	0xbaab6c2f	-0.0013078506
11	0x3cd24dbb	0.02567183
12	0xbd8f8c13	-0.07009139
13	0xbd50ddb4	-0.050992683
14	0xbda1a664	-0.078930646
15	0xbcd9cab0	-0.026585907
16	0xbdacb188	-0.08432299
17	0x3ce81b8b	0.028333446
18	0x3b9773ae	0.0046219444
19	0x3c48f6f8	0.012265913
20	0xbd5afae7	-0.053461935
21	0x3d2352c9	0.039873872
22	0xbd246fb5	-0.040145595
23	0xbd97a8a4	-0.074052125
24	0x3d09d6b6	0.03365203
25	0x3af9b8d0	0.0019052271
26	0xbd4fdf5e	-0.05075013
27	0x3c209cb8	0.00980299
28	0xbd1c0600	-0.03809166
29	0xbcbcd835	-0.023052314
30	0xbdfa0c12	-0.122093335
31	0xbd2e1197	-0.042497244
32	0xbcfd65a8	-0.030932263
33	0xbd478770	-0.048713148
34	0xbcd5c5fc	-0.026095383
35	0xbd68f238	-0.056871623
36	0xbd05f455	-0.032703716
37	0xbd41affc	-0.047286972
38	0x3ced7897	0.028988166
39	0xba8b9b53	-0.0010651149
40	0xbdac7e43	-0.0842252
41	0x3c56cd50	0.013110474
42	0xbc8b2c37	-0.016988857
43	0x3b168280	0.0022965968
44	0x3cad7a6b	0.021176537
45	0xbc4b03aa	-0.01239101
46	0xbb817870	-0.003951125
47	0xbd547016	-0.051864706
48	0xbd84bd0e	-0.06481372
49	0x3c7816e1	0.0151421735
50	0xbd3692e4	-0.04457368
51	0x3d160a27	0.036630776
52	0x3cf5bded	0.02999779
53	0xbd6a16d2	-0.05715067
54	0xbcc2b1b5	-0.023766378
55	0x3d5a76bc	0.05333589
56	0xbb77ac40	-0.0037791878
57	0xbc5a5f75	-0.013328423
58	0x3b404d21	0.0029342847
59	0x3c930ce0	0.017950475
60	0xbd1374b1	-0.035999957
61	0xbc29826f	-0.010346039
62	0x3d0fb5ef	0.035085615
63	0xbc97a128	-0.018509462
64	0xbdab0771	-0.08351029
65	0xbc1d6040	-0.009605467
66	0xbd353077	-0.044235673
67	0xbd34bd5a	-0.044125892
68	0x3d058356	0.032595955
69	0x3c3375a8	0.010953344
70	0xbd51acd2	-0.051190205
71	0xbcbb1785	-0.022838363
72	0xbc7e0171	-0.015503273
73	0xbcaf9f5e	-0.021438297
74	0xbd3864bf	-0.045017954
75	0xbd986835	-0.07441751
76	0x3ced2347	0.028947486
77	0x3bfcbfb2	0.0077132815
78	0xbc47f834	-0.012205172
79	0x3c05fcfc	0.008177992
80	0xbc36666c	-0.011132818
81	0x3d194ae6	0.037424944
82	0xbc2b33cf	-0.010449364
83	0xbcb5a48f	-0.022173194
84	0xbd865ba6	-0.06560449
85	0x3b176474	0.0023100646
86	0xbd986369	-0.07440836
87	0x3c3de317	0.011589787
88	0xbdab21f3	-0.08356085
89	0xbd3a1b83	-0.045436393
90	0xbbb35fdf	-0.005474075
91	0xbd8fb8e0	-0.07017684
92	0x3ccf2f2f	0.025291054
93	0xbd849da8	-0.06475383
94	0x3cdf4992	0.02725676
95	0x3c9dcdf8	0.019263253
96	0xbd782a2c	-0.060587093
97	0x3c047272	0.0080839265
98	0xbdbc7f9c	-0.09204027
99	0xbd222c74	-0.039593175
100	0xbd2062f4	-0.03915687
101	0x3a353c2b	0.0006913568
102	0xbc00b37a	-0.007855291
103	0xbd5c2ffc	-0.0537567
104	0x3ce7e51e	0.028307494
105	0xbbe6cae9	-0.0070432317
106	0xbd08b402	-0.033374794
107	0xbcd1ba9a	-0.025601674
108	0xbcdbc718	-0.026828334
109	0x3c3f8d16	0.011691352
110	0x3cd31fbb	0.025771966
111	0xbd2c1d42	-0.04202009
112	0x3b6eca00	0.003643632
113	0x3cfe08a0	0.031009972
114	0xbd45f342	-0.04832769
115	0xbc02013e	-0.0079348665
116	0xbd0a7213	-0.033800196
117	0xbd85fa04	-0.06541827
118	0xbca70431	-0.02038774
119	0x3b1689e0	0.0022970363
120	0xbd4ec74e	-0.05048304
121	0xbc884eb3	-0.01663909
122	0x3d28857a	0.04114292
123	0x3c09d6d7	0.008413038
124	0xbd2c9172	-0.042130895
125	0x3d6a5578	0.057210416
126	0xbd7033eb	-0.058643263
127	0xbcc707aa	-0.024295647
128	0x3d0a4f40	0.033766985
129	0x3cd6dbde	0.026227888
130	0x3d52f26e	0.05150073
131	0x3cefaf2d	0.029258335
132	0xbd582f5d	-0.052779544
133	0xbce95f90	-0.02848795
134	0xbd82b76f	-0.063826434
135	0xbb975133	-0.004617834
136	0x3c9ee769	0.019397454
137	0x3cb6b760	0.022304237
138	0xbdb21c79	-0.08696837
139	0xbcdc59cc	-0.026898287
140	0xbd7aab9d	-0.06119882
141	0x3cb52674	0.022113062
142	0xbd208c66	-0.039196394
143	0xbd3b2452	-0.045688935
144	0xbd35a9b8	-0.04435131
145	0x3c62971e	0.013829974
146	0xbd0bde12	-0.03414733
147	0x3d7034e8	0.058644205
148	0xbcb6c03c	-0.022308461
149	0x3c38e977	0.011286131
150	0xbd8d9a79	-0.06914229
151	0x3aa1a6ed	0.0012333073
152	0xbd187165	-0.037217516
153	0x3ce96f3a	0.02849542
154	0x3adac7b4	0.0016691596
155	0xbd9a5c2e	-0.07537113
156	0xbd77c695	-0.060492117
157	0xbd889d1e	-0.06670593
158	0xbd7dc313	-0.061953615
159	0xbd3f615b	-0.046723705
160	0x3d70d60c	0.05879788
161	0xbd190816	-0.037361227
162	0x3cc82ff0	0.02443692
163	0x3d1ab1ce	0.037767224
164	0xbdb3118d	-0.08743582
165	0xbd9c3fb9	-0.07629342
166	0x3cc20148	0.023682252
167	0x3ceea5e0	0.02913183
168	0xbd598434	-0.053104594
169	0xbcb6db36	-0.022321325
170	0xbd7aa704	-0.061194435
171	0x3bc0f637	0.005888726
172	0x3c7b0178	0.015320174
173	0x3a1b1580	0.00059159845
174	0xbce70056	-0.028198402
175	0xbcd1b21a	-0.02559762
176	0xbd284bfa	-0.041088082
177	0x3d1fdc69	0.03902856
178	0xbd6083b2	-0.054813094
179	0xbd124d9e	-0.035718553
180	0xbd3d1ff0	-0.046173036
181	0xbda8cba1	-0.08241964
182	0x3c7273d4	0.014798123
183	0xbcc2a459	-0.023760008
184	0xbd320168	-0.043458372
185	0xbc9b6dca	-0.01897325
186	0xbd41db84	-0.047328487
187	0xbcd5c299	-0.026093768
188	0x3b914c84	0.00443417
189	0xbca461e7	-0.020066215
190	0x3bd8e951	0.0066196104
191	0xbc40b144	-0.011761013
192	0xbd657f4b	-0.0560296
193	0x3c498aa8	0.012301125
194	0x394fc9f7	0.00019816296
195	0xbc6d6228	-0.014488734
196	0xbcc00555	-0.023440043
197	0x3b52bdc3	0.0032156564
198	0x3bb01ca0	0.005374506
199	0x3c851804	0.016246803
200	0xbd5cc49c	-0.05389844
201	0x3d423b2a	0.047419704
202	0xb71c5a03	-9.319282e-06
203	0xbcfc8761	-0.030826272
204	0xbceb689b	-0.028736403
205	0xbdb3b1fa	-0.08774181
206	0xbd904a80	-0.0704546
207	0xbcfb44b5	-0.03067241
208	0xbc1ef88f	-0.009702816
209	0xbd70dc14	-0.058803633
210	0xbab7ac1f	-0.0014013088
211	0xbc9ee5e4	-0.01939673
212	0x3d1977eb	0.03746788
213	0xbd801137	-0.062532835
214	0x3bd61550	0.0065333024
215	0x3d2d704a	0.042343415
216	0xbd2d94bb	-0.04237817
217	0x3b7f65b3	0.003897053
218	0x3b951fbf	0.0045509036
219	0x3d0237b7	0.031791415
220	0x3c5aa6c2	0.013345422
221	0x3ccef800	0.02526474
222	0xbd8ee53f	-0.06977319
223	0x3cca3f85	0.024688492
224	0xbc89c644	-0.016818173
225	0x3b0d73b6	0.0021583862
226	0x3c628778	0.013826244
227	0xbd367b86	-0.044551395
228	0x3cdb4f0c	0.02677109
229	0x3ce69bd8	0.028150484
230	0x3d7c85d0	0.06165105
231	0xbda8b389	-0.082373686
232	0xbcd60cbd	-0.026129121
233	0xbd582b6c	-0.052775785
234	0x3c32fc1f	0.010924368
235	0x3cc1cff8	0.023658738
236	0xbd210e2f	-0.039320167
237	0x3a8e6d3d	0.0010866296
238	0x3c98cb2b	0.018651566
239	0x3c89b8ca	0.016811747
240	0xbd407a86	-0.046991847
241	0x3c8ed931	0.01743755
242	0xbc920d57	-0.017828627
243	0xbd99f6f8	-0.07517809
244	0x3bd375b7	0.0064532417
245	0x3cad703a	0.021171678
246	0xbaabb759	-0.0013100907
247	0xbd4ce924	-0.050027028
248	0xbd4dc9c5	-0.05024125
249	0xbd2c0110	-0.0419932
250	0x3d2d3cbd	0.042294253
251	0xbda853fe	-0.08219145
252	0xbcd00cf0	-0.025396794
253	0xbd121eb8	-0.035673827
254	0xbb12621c	-0.002233631
255	0xbc49df59	-0.012321317

bias f4 [256]
0	0xbdbebeb7	-0.0931372
1	0xbf02d746	-0.5110973
2	0xbdc26147	-0.094912104
3	0xbd6f1187	-0.058366325
4	0xbfa5900a	-1.2934582
5	0xbdeba07d	-0.1150522
6	0xbcd39d3b	-0.02583181
7	0xbf7320df	-0.9497203
8	0x3f6164df	0.8804454
9	0x3c36429b	0.011124278
10	0xbd871e91	-0.06597627
11	0xbdc2dcaf	-0.09514748
12	0xbe0cbf00	-0.13744736
13	0xbe1b43c4	-0.1516257
14	0xbd1e64cd	-0.03867035
15	0xbdaf26ba	-0.085523084
16	0xbdb328cc	-0.08748016
17	0x3e772fb3	0.2413929
18	0xbde3355f	-0.11094164
19	0xbd8f160e	-0.069866285
20	0xbddb4e15	-0.10708252
21	0xbe555849	-0.2083446
22	0xbd2a856f	-0.04163116
23	0xbe1c420c	-0.1525957
24	0xbd8dcf6c	-0.06924328
25	0xbedb404f	-0.428225
26	0xbfbf514e	-1.4946687
27	0x3ef8904c	0.4854759
28	0xbda1aa68	-0.078938305
29	0xbd67171b	-0.05641852
30	0xbeb209a9	-0.34772995
31	0xbf1dd18d	-0.61647874
32	0xbdc889d0	-0.09791911
33	0x3ebebc48	0.37253022
34	0x3f3f8932	0.7481872
35	0xbe5dec8d	-0.21672268
36	0x3ea20604	0.31645215
37	0xbd910ad5	-0.07082144
38	0xbd882fdc	-0.066497535
39	0xbc8849a0	-0.01663667
40	0xbe8e509a	-0.2779587
41	0xbd459880	-0.04824114
42	0xbd5e5149	-0.05427674
43	0xbf792c37	-0.9733309
44	0x3e884ef8	0.26622748
45	0x3e9dbd2e	0.30808395
46	0xbe25d8c5	-0.16195972
47	0xbdec3ecb	-0.11535414
48	0xbd8ed62b	-0.06974443
49	0x3f30123e	0.68777835
50	0xbd8fa544	-0.07013944
51	0xbf2e519f	-0.68093294
52	0xbec69bbb	-0.38790688
53	0x3df6c6e9	0.12049658
54	0xbf30645d	-0.6890314
55	0xbdd99b25	-0.106252946
56	0xbcdf7aff	-0.027280329
57	0xbce43fd5	-0.027862469
58	0x3eaa0f51	0.3321481
59	0xbf30474e	-0.688588
60	0xbdab04df	-0.083505385
61	0xbde1eea4	-0.11031845
62	0xbe64b6a0	-0.22335291
63	0xbf5643e9	-0.8369737
64	0xbdceb51b	-0.10093137
65	0xbdca673a	-0.0988297
66	0x3f328869	0.69739395
67	0xbe57b74b	-0.21066014
68	0xbd244c45	-0.0401118
69	0xbccea2fa	-0.025224198
70	0xbcfad52c	-0.030619226
71	0xbd94e791	-0.0727073
72	0xbd4c42a8	-0.049868256
73	0xbd798f95	-0.060927946
74	0x3de285bc	0.11060664
75	0xbdf26769	-0.1183613
76	0xbc9fabc7	-0.01949109
77	0xbdbc407c	-0.09191987
78	0xbd71ef8a	-0.059066333
79	0xbf14a6be	-0.5806693
80	0x3ecf147c	0.40445316
81	0xbd3889cf	-0.0450533
82	0xbedc9e08	-0.43089318
83	0x3f292f2e	0.66087615
84	0xbf9acd30	-1.2093868
85	0xbd640229	-0.055666123
86	0x3c11b775	0.008893837
87	0x3f25bbab	0.64739484
88	0xbe37c761	-0.17947151
89	0xbe86adb6	-0.26304406
90	0xbd99a66f	-0.07502448
91	0xbd209843	-0.039207708
92	0xbe037c1f	-0.12840317
93	0x3eacd031	0.33752587
94	0xbd9a011f	-0.07519745
95	0x3d3c3552	0.045949288
96	0xbec20c4f	-0.37900016
97	0xbdceb884	-0.10093787
98	0x3d6b2849	0.057411466
99	0xbe849bbc	-0.25900066
100	0xbf5907d8	-0.84777594
101	0xbcb82fd3	-0.022483742
102	0x3d23e2e0	0.040011287
103	0xbcd8339e	-0.0263918
104	0xbdb693ae	-0.089148864
105	0xbd7998ad	-0.06093662
106	0xbdbfc4df	-0.09363722
107	0xbe88f412	-0.2674871
108	0xbda9e52f	-0.082956664
109	0xbd108538	-0.035283297
110	0xbe8dcd03	-0.27695474
111	0xbdee628e	-0.116398916
112	0x3e84be48	0.25926423
113	0xbef6351a	-0.48087388
114	0xbcda1705	-0.026622305
115	0xbddff566	-0.10935478
116	0xbe8fc2ea	-0.28078395
117	0xbf31c363	-0.6943876
118	0xbd8e3fb6	-0.06945746
119	0xbe2105ed	-0.15724917
120	0xbe85f662	-0.26164538
121	0xbdec26d5	-0.11530844
122	0xbf09793f	-0.5370063
123	0xbdab86ac	-0.08375296
124	0x3f4a0121	0.7890797
125	0x3ea541d5	0.32276788
126	0x3ecc31ea	0.3988183
127	0xbcabd83a	-0.020977128
128	0xbe3a29d7	-0.18180023
129	0xbcb520d4	-0.02211038
130	0x3e4b119a	0.19830933
131	0x3eaa553f	0.33268163
132	0xbef6cf63	-0.48205099
133	0xbc4e009d	-0.012573388
134	0xbbce3bdf	-0.0062937583
135	0xbdc114a5	-0.09427766
136	0xbdf573c9	-0.11984975
137	0xbdb74b93	-0.089499615
138	0xbdef9559	-0.11698408
139	0xbf411832	-0.75427544
140	0xbcba2aa2	-0.022725407
141	0x3f849caf	1.0360316
142	0xbfab17ca	-1.3366635
143	0xbdbcc7a8	-0.09217769
144	0xbd8faec7	-0.07015758
145	0xbdcd0c88	-0.10012156
146	0xbee65003	-0.4498292
147	0xbe821051	-0.25403073
148	0xbdb04848	-0.086075366
149	0xbf133878	-0.5750804
150	0xbd008705	-0.031378765
151	0xbfb3c09e	-1.4043157
152	0xbd480aa4	-0.048838273
153	0x3f3f695e	0.7477015
154	0x3e70d8cc	0.23520201
155	0xbc1ac373	-0.009446013
156	0x3e947738	0.28997207
157	0xbd20943c	-0.039203867
158	0x3f3b8065	0.7324279
159	0xbd97b62e	-0.07407795
160	0x3eaca6e2	0.3372107
161	0x3ead1df5	0.33811918
162	0xbcbf6642	-0.02336419
163	0xbd21327e	-0.039354794
164	0xbf507388	-0.81426287
165	0xbec46a09	-0.38362148
166	0xbd55735b	-0.052111965
167	0xbf8e3193	-1.1108879
168	0xbf2ff060	-0.6872616
169	0xbddca9bd	-0.107745625
170	0xbd181cc3	-0.037136804
171	0xbe162a68	-0.14664614
172	0x3f6f3997	0.9344725
173	0xbe16629e	-0.14686057
174	0xbdc95203	-0.098300956
175	0xbced2968	-0.028950408
176	0xbda7a0d2	-0.08184971
177	0xbdbeb144	-0.093111545
178	0xbda69214	-0.08133331
179	0xbe0d365e	-0.1379027
180	0xbdfae0e0	-0.12249923
181	0xbd5d2fbc	-0.0540006
182	0xbdc532cf	-0.096288316
183	0xbd53473a	-0.0515816
184	0xbdee9412	-0.11649336
185	0xbd67eca8	-0.056622177
186	0xbea4c581	-0.32181934
187	0xbc2b7f4a	-0.01046736
188	0x3e868df9	0.26280192
189	0x3d52d60d	0.051473666
190	0xbde3a7a0	-0.11115956
191	0xbc6cf99d	-0.014463809
192	0xbdce4762	-0.10072209
193	0xbbbbd027	-0.005731601
194	0xbd8608ee	-0.06544672
195	0xbcf43a4d	-0.029812956
196	0xbde82e91	-0.11337007
197	0x3e0d589d	0.13803335
198	0xbd54fb27	-0.05199733
199	0xbdb88429	-0.090095825
200	0xbd22c602	-0.039739616
201	0xbd18eb7a	-0.037333943
202	0x3eacb367	0.33730623
203	0xbe026d68	-0.12737048
204	0xbdad8d39	-0.08474202
205	0xbe812694	-0.25224745
206	0xbdd0cef6	-0.10195725
207	0xbd8faf00	-0.070158005
208	0xbdc75c17	-0.097343616
209	0xbdb4c811	-0.08827222
210	0xbd342067	-0.043976214
211	0x386ea066	5.6893005e-05
212	0xbed6552f	-0.41861865
213	0xbcf922bc	-0.03041207
214	0xbdbeddcb	-0.093196474
215	0xbd154a70	-0.036447942
216	0x3f15b4e1	0.58479124
217	0xbd93a45d	-0.07209084
218	0x3edafc6f	0.42770717
219	0xbd811939	-0.06303639
220	0xbde1566f	-0.11002814
221	0xbd4502b6	-0.04809829
222	0xbc847de2	-0.016173307
223	0xbe493124	-0.19647652
224	0xbe579aae	-0.210551
225	0xbf9d9677	-1.2311543
226	0xbf3fae6a	-0.7487551
227	0xbdbfcb24	-0.09364918
228	0xbdbc346e	-0.09189688
229	0x3e8c24b7	0.2737176
230	0xbd7cfbaf	-0.06176346
231	0xbda13306	-0.0787106
232	0xbdb258ee	-0.08708368
233	0xbd44846a	-0.047977842
234	0xbc0d34c8	-0.008618541
235	0xbfa43714	-1.2829309
236	0xbf8be6f4	-1.0929856
237	0xbdaff320	-0.08591294
238	0xbf2b4ad0	-0.6691103
239	0xbd682c2c	-0.05668275
240	0x3d46b837	0.048515525
241	0xbdc270db	-0.09494182
242	0xbf141a7d	-0.5785292
243	0xbe0a0cb1	-0.13481404
244	0xbeb863bb	-0.36013588
245	0xbdad829a	-0.08472176
246	0xbdae6a8c	-0.08516416
247	0xbd5e79d8	-0.054315418
248	0xbf05a42c	-0.5220363
249	0x3edd759b	0.43253788
250	0xbd919e4e	-0.07110272
251	0xbebfaea4	-0.37437928
252	0x3de63162	0.11239888
253	0x3e63536d	0.22199793
254	0xbae68251	-0.0017586445
255	0xbd2913eb	-0.04127876

weight f4 [3, 256]
0	0x3ce75e2e	0.02824315
1	0xbe02cf2a	-0.1277434
2	0x3cca7923	0.024715966
3	0xbb6f96db	-0.0036558423
4	0x3edd004b	0.43164286
5	0xbd07ae96	-0.033125482
6	0xbe17ab12	-0.14811352
7	0xbdd28b26	-0.10280447
8	0xbd72b9a3	-0.05925907
9	0xbe376378	-0.17909038
10	0x3cb5a0ad	0.022171343
11	0xbd9b0fad	-0.07571349
12	0xbcd4b1a5	-0.025963614
13	0xbb7ca872	-0.003855255
14	0x3e1ef36e	0.15522549
15	0xbd98f316	-0.0746824
16	0x3ce1d819	0.027568864
17	0x3dad1856	0.08451907
18	0xbd5b05b9	-0.053472254
19	0x3b85e50c	0.0040861424
20	0xbcfed4f3	-0.031107401
21	0xbc1d7ffd	-0.009613034
22	0xbd81db2c	-0.06340632
23	0xbdc1fea2	-0.094723955
24	0x3c1cc660	0.009568781
25	0x3e85488c	0.2603191
26	0xbe00d0d4	-0.12579662
27	0x3dcb5510	0.09928334
28	0xbcc9a5db	-0.024615219
29	0x3a5fa124	0.0008530787
30	0xbd770e52	-0.06031639
31	0x3d54b9c3	0.05193497
32	0x3c872f0e	0.01650193
33	0xbd718c51	-0.058971707
34	0x3d1a7c56	0.037716232
35	0x3c3b6994	0.011438746
36	0x3e183993	0.14865713
37	0xbc8e1328	-0.017343119
38	0x3d18b4e9	0.037281904
39	0x3c96d4e8	0.018412068
40	0xbe1179d2	-0.14206627
41	0x3ce94711	0.02847627
42	0xbbb6db6c	-0.0055803563
43	0xbeb21cf3	-0.34787712
44	0xbdc9122f	-0.09817921
45	0x3d995bd1	0.07488216
46	0x3dcc1517	0.0996496
47	0xbbcc0fcc	-0.006227469
48	0x3cad9d13	0.021193063
49	0x3ba994ef	0.005175225
50	0xbb3ece7f	-0.002911478
51	0xbdad5c13	-0.084648274
52	0x3e3a5b8d	0.18198986
53	0x3d92aefe	0.07162283
54	0xbe29f518	-0.16597402
55	0x3d13ab4a	0.036052026
56	0xbd08c28a	-0.033388652
57	0xbcf018e6	-0.029308748
58	0x3c717363	0.014736983
59	0xbe86ef4f	-0.26354453
60	0x3d0e745c	0.034778938
61	0x3ba97729	0.0051716757
62	0xbe0cf38f	-0.13764785
63	0x3d33cfeb	0.043899458
64	0x3d5b0570	0.053471982
65	0x3c88f1ef	0.016716925
66	0xbe8c32c8	-0.27382493
67	0xbcb2d4bc	-0.021829955
68	0x3cc389c0	0.023869395
69	0xbc4bd94a	-0.0124419425
70	0xbcc1e8b7	-0.023670537
71	0xbca96ad8	-0.02068083
72	0xbbad9244	-0.0052969772
73	0xba473ac1	-0.00076000026
74	0xbcd142ce	-0.02554455
75	0x3d217bef	0.039424833
76	0xbbe5897a	-0.007004914
77	0xbccfc4ad	-0.025362337
78	0xbc8054d0	-0.015665442
79	0xbd9ab65f	-0.07554316
80	0x3f8ce96e	1.1008737
81	0x3d3625b5	0.044469554
82	0xbe87b64e	-0.26506275
83	0xbdc393e3	-0.095496915
84	0x3e6d3d96	0.23168024
85	0x3d18a58a	0.037267245
86	0x3d3e86f1	0.04651541
87	0x3e8d67b7	0.2761819
88	0xbe124b62	-0.14286569
89	0xbee681e3	-0.4502097
90	0x3d1abacc	0.0377758
91	0x3bd74433	0.0065694093
92	0xbd1b38a9	-0.037895832
93	0x3dbcd242	0.09219791
94	0x3d03261d	0.03201877
95	0xbe53c4f2	-0.20680597
96	0xbe07057c	-0.13185686
97	0xbc0ecd42	-0.008715929
98	0xbe24fdfd	-0.16112514
99	0x3d2ce0ff	0.04220676
100	0x3f0cf427	0.55060047
101	0x3d2212fb	0.039568882
102	0x3da5e44f	0.08100187
103	0xbbbb7c49	-0.005721603
104	0xbd5592ae	-0.052141838
105	0xbc072eb6	-0.008250883
106	0xbce30516	-0.027712386
107	0xbe14046a	-0.14454809
108	0x3dd2e5c2	0.10297729
109	0xbaf4c5b9	-0.0018674649
110	0xbc1361df	-0.008995502
111	0x3e47039c	0.1943497
112	0x3d4dc467	0.050236132
113	0x3f1b3631	0.60629565
114	0xbd45caea	-0.048289217
115	0x3c77f855	0.015134891
116	0xbf253e53	-0.64548224
117	0x3d85c1bb	0.06531092
118	0x3c8d8d7a	0.017279375
119	0x3d76ac6b	0.060223024
120	0xbf85eedf	-1.0463523
121	0x3d43fffd	0.04785155
122	0x3ccefb61	0.025266351
123	0xbd70b828	-0.058769375
124	0xbd4824df	-0.048863288
125	0x3eea3890	0.4574628
126	0x3d09d46c	0.033649847
127	0x3d2e548d	0.042561103
128	0x3e903acc	0.28169858
129	0xbd053790	-0.03252369
130	0x3deb16c7	0.11478954
131	0xbd150dae	-0.03639
132	0x3ecb6268	0.39723516
133	0x3d91a1a0	0.07110906
134	0x3c960dea	0.018317182
135	0x3d2f83c6	0.04285028
136	0xbd4d41f8	-0.05011174
137	0x3b993542	0.0046755383
138	0xbc8e32af	-0.017358152
139	0x3d871e25	0.065975465
140	0xbc487de4	-0.012237046
141	0xbbff1894	-0.0077849124
142	0xbe22bfaa	-0.15893427
143	0x3dc4c69d	0.09608195
144	0xbd066f3f	-0.032820936
145	0xbdc1f629	-0.094707794
146	0x3bd983d4	0.0066380296
147	0xbe68d4bb	-0.227374
148	0xbccd703d	-0.025077933
149	0x3ca085cd	0.019595051
150	0xbe486fb3	-0.1957386
151	0x3e79e3c7	0.24403296
152	0x3d785eb0	0.060637176
153	0x3e42a60b	0.19008653
154	0xbde993db	-0.11405154
155	0xbd135dbf	-0.035978075
156	0xbbb84e16	-0.005624543
157	0x3d27c1d2	0.040956326
158	0xbe26d89d	-0.16293569
159	0xbcffe8d2	-0.031238947
160	0x3e05b5ab	0.13057582
161	0xbe208d61	-0.15678932
162	0xba863a42	-0.0010240751
163	0xbcaab782	-0.020839456
164	0xbd03b9c8	-0.032159597
165	0xbdedb440	-0.116066456
166	0x3c1a3b53	0.009413558
167	0xbcc651ef	-0.02420899
168	0x3e0cbc56	0.1374372
169	0x3d2073ef	0.039173063
170	0x3d0c9eb8	0.034331053
171	0xbd947898	-0.07249564
172	0xbcf2b4d9	-0.02962725
173	0x3ce5f7c1	0.02807224
174	0xbc660cb3	-0.014041114
175	0x3b6203ca	0.0034487122
176	0x3cd5238b	0.026017925
177	0xbc3e6b36	-0.011622241
178	0x3c9ff95e	0.019528087
179	0xbe4a1cc4	-0.19737536
180	0x3ca79492	0.020456586
181	0x3da293ec	0.0793837
182	0xbaec1dc9	-0.0018014248
183	0x3da9e2c5	0.08295206
184	0x3d874f93	0.066069745
185	0x3b4d8e8c	0.0031365482
186	0xbda1022f	-0.078617446
187	0xbd18ea05	-0.037332553
188	0xbe437c97	-0.19090496
189	0x3da5fea6	0.08105211
190	0xbb30eb48	-0.0026995707
191	0x3e352d75	0.17693122
192	0xbacc9122	-0.0015607218
193	0xbe9d8945	-0.3076879
194	0x3c4c3f91	0.012466327
195	0xbbb68d4f	-0.0055710445
196	0xbce50fa3	-0.027961558
197	0xbcb07ee9	-0.02154489
198	0xbd3d2610	-0.046178877
199	0xbbda4521	-0.006661073
200	0xbcb14369	-0.021638589
201	0x3cb006be	0.02148759
202	0xbd0217af	-0.031760868
203	0x3be9f6ed	0.0071400316
204	0xbc680e49	-0.014163562
205	0xbd023707	-0.03179076
206	0x3e9aa9a0	0.3020754
207	0xbd74f1dc	-0.059800968
208	0xbd617156	-0.055039726
209	0xbcecca5b	-0.028905084
210	0x3c18211f	0.00928524
211	0xbc905f09	-0.017623441
212	0x3de3d68e	0.111249074
213	0x3bfd6b6e	0.007733754
214	0xbcab3428	-0.020898893
215	0x3e1b48c8	0.15164483
216	0xbe0733bf	-0.13203333
217	0xbd35767c	-0.04430245
218	0xbcaf146c	-0.021372043
219	0xbca63455	-0.020288626
220	0xbb98913c	-0.004655985
221	0x3d8f22e8	0.0698908
222	0x3ca8a057	0.020584268
223	0xbb35d55b	-0.0027745578
224	0xbdc7cfe3	-0.09756448
225	0xbd44dd8b	-0.048062842
226	0x3dc9a110	0.09845173
227	0x3d24488a	0.04010824
228	0x3d579b37	0.05263826
229	0xbe34b918	-0.17648733
230	0xbd8f5a82	-0.06999685
231	0x3c83eaba	0.016103137
232	0xbaebeefb	-0.0018000299
233	0x3d4e119f	0.050309774
234	0x3d19f682	0.037588604
235	0x3f121fe4	0.5707991
236	0xbaa1af63	-0.0012335595
237	0x3d08504c	0.033279702
238	0xbd9ca5a0	-0.07648778
239	0x3aeaf3fd	0.0017925497
240	0xbe2d6640	-0.16933537
241	0x3cbc4708	0.02298309
242	0x3cab49ae	0.020909157
243	0x3c9dd9bc	0.019268863
244	0xbe36663f	-0.17812441
245	0xbad7fcdd	-0.0016478557
246	0xbcc3a549	-0.023882525
247	0x3bfb36fd	0.007666467
248	0x3e79f87d	0.24411197
249	0x3da2e054	0.079529434
250	0x3d1251b0	0.035722435
251	0x3e08a785	0.13345154
252	0xbe212b07	-0.1573907
253	0x3e1afaa9	0.15134682
254	0xbd40c633	-0.047064018
255	0xbcf550f1	-0.029945822

bias f4 [3]
0	0x3c0fcf83	0.008777502
1	0x3cf90fb6	0.030403
2	0xbdb41998	-0.08793944

weight f4 [3, 256]
0	0xbbb76f15	-0.005597959
1	0xbc80e86b	-0.015735826
2	0x3c8a3704	0.016871937
3	0xbd068e79	-0.032850716
4	0x3e956986	0.2918207
5	0x3d27d3bd	0.040973414
6	0x3cf80da7	0.030279947
7	0x3d65546c	0.055988714
8	0x3c9be522	0.019030157
9	0xbc4d961d	-0.012547997
10	0xbc2492bb	-0.010044749
11	0x3d5c0a1e	0.053720586
12	0x3d769733	0.06020279
13	0xbd7be70e	-0.061499648
14	0x3dd2c767	0.10291939
15	0x3d44af3e	0.048018686
16	0xbc9eb3da	-0.01937287
17	0xbd0f9f58	-0.03506407
18	0xbdb14945	-0.08656553
19	0x3d2ecb89	0.042674575
20	0x3d0786de	0.033087604
21	0x3e15ef51	0.14642073
22	0x3d92ccec	0.07167992
23	0x3e2b97a0	0.16757059
24	0x3d55b45c	0.052173957
25	0x3e63708c	0.22210902
26	0x3d11d8b7	0.035607066
27	0x3dee2f6f	0.11630141
28	0x3cf69d2b	0.03010424
29	0xbcaefc19	-0.021360444
30	0xbbf218de	-0.0073882183
31	0xbda005c8	-0.07813603
32	0x3b2132ab	0.002459685
33	0x3cb8bf4f	0.02255216
34	0xbe816253	-0.25270328
35	0xbc991ea4	-0.018691368
36	0xbbaac1c7	-0.0052110883
37	0xbc5b8b89	-0.013399967
38	0x3d8505b5	0.06495229
39	0x3d380424	0.044925824
40	0x3dff0e0d	0.12453852
41	0x3c2f49cf	0.01069875
42	0x3cd3f8a8	0.025875404
43	0xbd85e3d0	-0.065375924
44	0x3d964513	0.073373936
45	0xbce2306e	-0.027610984
46	0x3e5ba264	0.21448666
47	0x3c527066	0.012844181
48	0x3b596ef4	0.0033177705
49	0x3cf6f3b0	0.030145496
50	0x3d654a6e	0.055979185
51	0x3e14f145	0.14545162
52	0x3ee7cfc6	0.45275706
53	0xbc9fa4a3	-0.019487685
54	0xbea1faa8	-0.31636548
55	0xbbcf6eee	-0.0063303625
56	0xbc6bb065	-0.014385317
57	0x3e454e31	0.19268109
58	0xbd7ce74d	-0.061744023
59	0xbd82329e	-0.06357311
60	0x3dc65e72	0.09685983
61	0x3c8f10f3	0.017464137
62	0x3e0a8d31	0.13530423
63	0x3da8ca2c	0.08241686
64	0x3d1a4a9c	0.03766881
65	0xbd00380e	-0.031303458
66	0x3d41ec3f	0.047344442
67	0x3c33889b	0.010957862
68	0xbc39da5a	-0.011343563
69	0x3d50fb01	0.051020626
70	0xbc9bf760	-0.019038856
71	0x3d0820a7	0.033234265
72	0x3c399b06	0.011328464
73	0x3ca67cf8	0.020323262
74	0x3df90bb6	0.12160437
75	0xbc2a3592	-0.010388749
76	0x3daa32ff	0.08310508
77	0xbcead5bf	-0.028666375
78	0x3d8dbbb8	0.0692057
79	0xbdf79353	-0.12088647
80	0x3f1fcc9f	0.624216
81	0x3b9ddea5	0.004817801
82	0x3e995215	0.29945436
83	0xbe02ce25	-0.1277395
84	0x3e8af648	0.27141023
85	0xbdac7ae0	-0.08421874
86	0xbd0fdef1	-0.035124723
87	0x3dfd2eff	0.123624794
88	0x3e7e93a8	0.24861014
89	0x3e779fed	0.241821
90	0xbd9ae8a0	-0.07563901
91	0x3cc57065	0.024101445
92	0x3bf4d601	0.0074718003
93	0xbd39b442	-0.045337923
94	0xbca70fb8	-0.020393237
95	0x3e849928	0.258981
96	0x3ca04d7d	0.0195682
97	0xbdaf5b0b	-0.08562287
98	0x3ea206c7	0.31645796
99	0x3c5de0e1	0.013542385
100	0x3e776926	0.24161205
101	0xbd7447bc	-0.059638724
102	0x3dcb8535	0.099375166
103	0x3c8f3053	0.017479097
104	0xbd2409b5	-0.04004832
105	0x3d8867fe	0.0666046
106	0xbda017ab	-0.07817014
107	0xbda69f89	-0.08135898
108	0x3c912a3c	0.017720334
109	0x3b8162ab	0.0039485297
110	0x3be7e144	0.0070764143
111	0x3dc87389	0.097876616
112	0xbda04ccb	-0.07827147
113	0x3ecbb210	0.39784288
114	0x3c640a85	0.013918524
115	0xbd574810	-0.05255896
116	0x3f1e5531	0.6184874
117	0xbd574ce4	-0.052563563
118	0x3cad9336	0.02118836
119	0xbb94ad6d	-0.0045372755
120	0x3f5172d0	0.81815815
121	0x3d689e2d	0.056791473
122	0x3b663bbb	0.0035130817
123	0x3e354e65	0.17705686
124	0x3cb843aa	0.022493202
125	0x3d0692f4	0.03285499
126	0x3c877def	0.016539542
127	0x3d498ff4	0.04920955
128	0x3e9bae28	0.30406308
129	0xbba75d7d	-0.00510758
130	0x3dedc1da	0.1160924
131	0xbd9b6245	-0.07587103
132	0x3e125e10	0.14293694
133	0x3d5d81e6	0.05407896
134	0xbd5cfb92	-0.053950854
135	0x3ab924b9	0.0014125324
136	0x3cc7dcb1	0.024397226
137	0xbca4c3a7	-0.020112826
138	0x3c5043b9	0.012711459
139	0x3de2b1c3	0.110690616
140	0x3d10fecc	0.035399243
141	0xbd9f32de	-0.07773374
142	0x3e22a70a	0.15884033
143	0x3d42f3e7	0.047595885
144	0x3c9220b8	0.017837867
145	0x3c3a7d85	0.011382465
146	0x3d5edba9	0.054408703
147	0x3cf14602	0.029452328
148	0xbd88ea79	-0.06685347
149	0xbb0806ff	-0.0020756123
150	0x3dfd70f9	0.123750634
151	0x3e8b6e45	0.27232566
152	0xbba17824	-0.004927652
153	0xbde00db9	-0.109401174
154	0x3d4fcd39	0.050732825
155	0x3e8c015a	0.2734478
156	0x3b9d840f	0.0048070024
157	0x3d37b262	0.044847853
158	0x3e81ed1f	0.25376222
159	0x3c2e6399	0.010643863
160	0xbd1835bd	-0.037160624
161	0x3d18fb9b	0.037349325
162	0x3d818ccb	0.06325682
163	0x3d9d7eeb	0.07690223
164	0x3caf5f25	0.021407673
165	0x3e2c4c4b	0.16825978
166	0xbc3eccf2	-0.011645542
167	0x3bbbefb8	0.005735364
168	0x3df9c1c3	0.1219516
169	0x3cb4258f	0.021990566
170	0xbcba5865	-0.022747228
171	0xbd8295c5	-0.063762225
172	0x3b9874af	0.0046525816
173	0x3d9dcfbc	0.07705638
174	0x3d15aa02	0.036539085
175	0x3cf55884	0.029949434
176	0x3d8c8060	0.06860423
177	0xbcb2e2c3	-0.021836644
178	0x3cd80edc	0.026374273
179	0xbe34e335	-0.17664798
180	0x3dfa7d2e	0.122309074
181	0x3ca1583d	0.019695396
182	0x3d2c6c30	0.042095363
183	0x3ce4a58a	0.027910966
184	0x3cf17d4c	0.029478692
185	0xbcf36f43	-0.02971614
186	0xbded51be	-0.11587857
187	0x3c7b338d	0.015332115
188	0xbe1035cb	-0.1408302
189	0xbb50fd6c	-0.0031889332
190	0x3cb3b1c5	0.021935353
191	0x3ead917e	0.33900064
192	0xb9a750b4	-0.0003191285
193	0x3d8285ac	0.06373152
194	0x3bb919c4	0.0056488235
195	0xbc09a333	-0.008400726
196	0x3d05907c	0.032608494
197	0xbd321349	-0.043475423
198	0x3b4b228e	0.0030995938
199	0x3b194710	0.0023388304
200	0xbd6bcf14	-0.057570532
201	0x3cf54835	0.029941658
202	0xbeb55964	-0.35419762
203	0x3db9e854	0.09077516
204	0x3d38da0c	0.04512982
205	0x3d178748	0.03699425
206	0x3e1dd709	0.1541406
207	0xbc1f2882	-0.009714248
208	0x3cbaaeb4	0.022788383
209	0x3e168f4c	0.14703101
210	0x3bbd2de5	0.0057732933
211	0xbc986980	-0.018604994
212	0x3b817fd4	0.003952006
213	0x3d4a056b	0.049321573
214	0x3c05952f	0.008153244
215	0x3d619e80	0.055082798
216	0x3d1b7bd8	0.037959903
217	0x3ceca5a5	0.02888758
218	0x3d2e3da5	0.042539258
219	0x3db4d795	0.088301815
220	0xbcd3e4b4	-0.02586589
221	0xbd926dad	-0.07149825
222	0xbc8c3ca0	-0.017118752
223	0x3de0ca96	0.1097614
224	0xbd368ec2	-0.04456974
225	0x3c2e5000	0.010639191
226	0x3c2f5183	0.010700586
227	0x3e62f881	0.22165109
228	0x3d247096	0.040146433
229	0xbe006308	-0.12537777
230	0x3cef1cca	0.029188532
231	0xbc6c8658	-0.014436327
232	0x3c4795a4	0.012181673
233	0x3cb28ad4	0.021794714
234	0x3c03ac68	0.00803671
235	0x3e86ea14	0.26350462
236	0x3cda9694	0.02668313
237	0x3c5b88ec	0.013399344
238	0x3dd8ee71	0.10592354
239	0x3dd8edf4	0.10592261
240	0xbda84ef1	-0.08218182
241	0xbcb59dd7	-0.02216999
242	0x3b940358	0.004517
243	0x3d18b147	0.03727844
244	0xbe8a2f95	-0.26989427
245	0x3d12053c	0.035649523
246	0xbd35aeb3	-0.04435606
247	0x3d39d9a8	0.04537359
248	0x3d84e3f8	0.06488794
249	0x3c651166	0.013981199
250	0x3cd51d09	0.026014822
251	0x3e0300aa	0.12793222
252	0x3e0b6416	0.13612399
253	0x3df15438	0.117836416
254	0x3d7d0c7a	0.061779477
255	0x3d14b545	0.036305685

bias f4 [3]
0	0xbfe663c9	-1.7999202
1	0xbfaf9cb8	-1.3719702
2	0xbfa0f5fa	-1.2575066

weight f4 [256, 18]
0	0xbf0ca2a7	-0.5493569
1	0x3e0effa1	0.13964702
2	0xbf4f43b4	-0.8096268
3	0xbfbcae3e	-1.4740674
4	0xbde709d8	-0.112811744
5	0xbf2ba71d	-0.6705187
6	0x3df9e286	0.12201409
7	0xbfab90ed	-1.3403603
8	0xbf16e3f0	-0.58941555
9	0xbf320092	-0.6953212
10	0xbf348ab4	-0.70524144
11	0xbe3e734f	-0.18598674
12	0xbe2a3edf	-0.16625546
13	0xbcc8329e	-0.024438199
14	0x3e15a973	0.14615421
15	0xbf9c96f9	-1.2233573
16	0xbb8c90e8	-0.004289735
17	0xbdcf40bb	-0.10119768
18	0x3feca3f9	1.848754
19	0x3e334199	0.17505492
20	0x3e5063fc	0.20350641
21	0x3f50a1ed	0.8149708
22	0xbd628b48	-0.05530861
23	0xbf620fad	-0.8830517
24	0xbd3754bc	-0.044758543
25	0x3f0b480d	0.54406816
26	0xbeb7984b	-0.35858378
27	0x3f23f710	0.6404886
28	0xbf3842b1	-0.71976763
29	0x3e9120d9	0.28345373
30	0x3e42869f	0.18996666
31	0xbde1425d	-0.10998986
32	0xbe2be81c	-0.16787761
33	0x3e9f8e47	0.31163236
34	0xbde9ab2a	-0.114096
35	0xbcaed460	-0.021341503
36	0x3fbba324	1.4659162
37	0xbe1bde82	-0.15221599
38	0x3f83f83e	1.0310133
39	0xbeaed608	-0.34147668
40	0xbe46d95a	-0.1941885
41	0x3eb5b10d	0.35486642
42	0x3d281dcc	0.04104404
43	0x3faaa401	1.33313
44	0xbfb30f54	-1.3989053
45	0x3e0ffa5c	0.14060348
46	0xbee7787f	-0.4520912
47	0x3e572b43	0.21012597
48	0x3ebfb794	0.37444746
49	0x3da5c5b0	0.080943465
50	0x3e19c61d	0.1501698
51	0x3d94a9ad	0.072589256
52	0x3da0ef70	0.07858169
53	0x3b7ca15a	0.0038548321
54	0xbfec538a	-1.8462994
55	0x3e552ab1	0.20817067
56	0xbf5424e4	-0.8286879
57	0x3e1e82a3	0.15479521
58	0x3e4ce8e5	0.20010717
59	0xbe6b887b	-0.23001282
60	0x3e44c499	0.19215621
61	0xbe8b6d14	-0.27231658
62	0xbda18e02	-0.07888414
63	0xbd707776	-0.058707677
64	0xc07cf585	-3.9524853
65	0xbf32dfe1	-0.6987286
66	0x3eb0358b	0.3441585
67	0xbfb65c25	-1.424687
68	0xbf145137	-0.57936424
69	0x3ea63ebb	0.32469735
70	0xbe9e9553	-0.309733
71	0xbe0b8769	-0.13625874
72	0xc0481860	-3.1264877
73	0xbe0c2900	-0.13687515
74	0xbf7b3685	-0.98130065
75	0x3f602ad4	0.8756535
76	0xbc0aa390	-0.008461848
77	0x3fc173a5	1.5113417
78	0x3e094b63	0.13407664
79	0xbf2f5e25	-0.6850303
80	0xbf1539ce	-0.5829133
81	0xbf43244f	-0.7622728
82	0x3e5821cc	0.21106642
83	0xbf0886d7	-0.5333075
84	0xbe65ab86	-0.22428712
85	0x3f03e379	0.5151897
86	0x3e5d98cb	0.21640317
87	0x3dcaf2e0	0.09909606
88	0xbd8a7152	-0.067598954
89	0x3d146819	0.036232088
90	0xc0196dd6	-2.3973289
91	0x3e666e05	0.22502907
92	0xbeccad01	-0.39975742
93	0xbfdf074a	-1.74241
94	0xbe50b831	-0.20382763
95	0x3f73a68d	0.9517601
96	0x3e3d5331	0.18488766
97	0xbe91a132	-0.28443295
98	0x3ee5bcf4	0.44870722
99	0xbeaedb48	-0.34151673
100	0x3ed805c3	0.42191896
101	0x3ecedd66	0.4040329
102	0xbf5ed92a	-0.87050116
103	0x3ea132b0	0.31483984
104	0x3e43a88a	0.19107261
105	0x3e31ff8c	0.1738264
106	0x3de1174f	0.10990774
107	0x3d8e324a	0.069431856
108	0x3f5aae8a	0.85422575
109	0xbdd2ca50	-0.10292494
110	0xbebf268c	-0.37334096
111	0xbf2972c1	-0.66190726
112	0xbe6dc068	-0.23217928
113	0x3f3b4ad2	0.7316104
114	0xbdf9c809	-0.12196357
115	0xbf807618	-1.0036039
116	0x3f5b5071	0.8566962
117	0xbe47e676	-0.19521508
118	0x3e653b5f	0.2238593
119	0x3d9ffcfa	0.07811923
120	0x3ea7f409	0.32803372
121	0x3e362730	0.17788386
122	0xbda3320a	-0.079685286
123	0xbd8d4ea7	-0.06899767
124	0x3d406a29	0.046976242
125	0xbad4d3af	-0.0016237403
126	0x3f09be0d	0.5380562
127	0xbdefcc4d	-0.11708889
128	0x3f38d6f4	0.7220299
129	0x3fa449e8	1.2835054
130	0x3d2ab96c	0.04168074
131	0xbdb0b2cd	-0.086278535
132	0xbe017c36	-0.12645039
133	0x3fb5eec6	1.4213493
134	0xbfe07d96	-1.7538326
135	0xbc5850e6	-0.013202881
136	0xbf301969	-0.6878877
137	0xbde23c93	-0.1104671
138	0x3dcd4b22	0.10024096
139	0x3d5ec868	0.05439034
140	0x3e14c17c	0.14526933
141	0x3dbe771b	0.09300061
142	0x3db93555	0.090433754
143	0x3d503d56	0.050839745
144	0xbf319a8b	-0.6937644
145	0x3e3fcdb9	0.1873082
146	0xbf52c07d	-0.82324964
147	0x3dab663d	0.0836911
148	0x3de699de	0.112598166
149	0xbfd6a1fc	-1.6768184
150	0xbd91ca74	-0.07118693
151	0xbef04271	-0.4692569
152	0xbc322966	-0.010874128
153	0xbe9922cc	-0.2990936
154	0xbea2aed9	-0.31774023
155	0xbe4b8a45	-0.19876964
156	0x3f294bef	0.6613149
157	0x3e59d65e	0.21273181
158	0x3e8e19db	0.277541
159	0x3e3917c3	0.1807547
160	0xbea49999	-0.32148436
161	0x3ecc7f7c	0.39941013
162	0x3fbc6e09	1.472108
163	0x3dea94aa	0.11454137
164	0xbf22f4f6	-0.6365503
165	0x3e8eccc8	0.2789061
166	0xbd94385e	-0.07237314
167	0x3da2d2df	0.07950377
168	0x3e19a105	0.1500283
169	0xbf9efe9b	-1.242145
170	0x3fabd1d8	1.3423414
171	0xbd99db1f	-0.07512497
172	0x3e09f549	0.13472475
173	0xbea31f9c	-0.31860054
174	0xbe277309	-0.16352476
175	0xbd8e8e28	-0.06960708
176	0x3b93f94a	0.0045158016
177	0x3d5ed311	0.054400507
178	0x3d052b1d	0.03251182
179	0xbcf3547c	-0.029703371
180	0x3fd96405	1.6983649
181	0x3d820506	0.063486144
182	0x3f0485aa	0.51766455
183	0xbefa2fdf	-0.48864648
184	0x3c7d67d0	0.015466645
185	0x3f0c06af	0.546977
186	0x3dc3af5a	0.0955493
187	0x3f7ee321	0.9956532
188	0x3e9088f9	0.28229502
189	0x3e371981	0.17880823
190	0xbe428edc	-0.18999809
191	0xbde27e62	-0.11059262
192	0x3bda5c3f	0.0066638286
193	0xbe0f9c0d	-0.14024372
194	0x3ec9fb2d	0.39449444
195	0xbec5ca17	-0.38630745
196	0xbecb52cc	-0.39711607
197	0xbe0d3d89	-0.13793005
198	0xbff0ef3f	-1.8823012
199	0xbe1e484a	-0.15457264
200	0xbe5dbc86	-0.21653947
201	0xbeba862a	-0.36430484
202	0x3cd8e358	0.026475593
203	0xbc4756b0	-0.012166664
204	0xbe4f8034	-0.2026375
205	0xbedde989	-0.43342236
206	0x3f15803c	0.58398795
207	0xbd88c2e7	-0.066778
208	0xbea52121	-0.32251838
209	0x3e2830f8	0.1642493
210	0xbf1c4da8	-0.61055994
211	0x3e5bb551	0.21455885
212	0xbe20455a	-0.15651456
213	0xbe024c79	-0.12724485
214	0xbdba91c4	-0.09109834
215	0x3dc08b7d	0.09401605
216	0xbf919956	-1.137492
217	0x3e07cb79	0.13261212
218	0xbf883825	-1.0642134
219	0xbec1a503	-0.37821206
220	0x3e3057ed	0.17221041
221	0xbe6a34a2	-0.2287164
222	0x3d46c034	0.048523143
223	0xbfcb0fe5	-1.5864226
224	0xbeb557a2	-0.3541842
225	0xbef5d10e	-0.4801106
226	0x3e1342ab	0.143809
227	0xbe9514a9	-0.29117325
228	0x3c88ea1c	0.016713195
229	0xbe40fa23	-0.1884542
230	0x3e13647c	0.143938
231	0xbe82628a	-0.25465804
232	0x3da24d52	0.07924904
233	0xbd596b60	-0.053080916
234	0xbf4a438d	-0.79009324
235	0x3dc95dd2	0.09832348
236	0x3f328053	0.6972706
237	0x3f9b52eb	1.213468
238	0x3dc51e3e	0.09624909
239	0x3f45c349	0.77251107
240	0x3e2fbc63	0.17161708
241	0xbfb6b44b	-1.4273771
242	0xbd477d81	-0.048703674
243	0xbebd46ea	-0.36968166
244	0x3f1abf71	0.60448366
245	0x3f2cd920	0.67518806
246	0xbe3a6c55	-0.18205388
247	0xbf4818bd	-0.7816275
248	0x3f579306	0.84208715
249	0x3f4845ae	0.7823132
250	0x3f51451a	0.81746066
251	0xbec5f8b8	-0.3866632
252	0xbfdc364a	-1.7204068
253	0xbe5f0c18	-0.21781957
254	0xbe299f89	-0.16564764
255	0x3f3304b5	0.6992906
