data/HopperPyBulletEnv-v0_sac_grad_False/HopperPyBulletEnv-v0_sac_grad_False_s0/pyt_save/model.pt (torch_old, 859874 bytes, 18 tensors)

weight f4 [256, 15]
0.07209927 0.13850912 -0.28638208 -0.17997219 -0.09944643 0.08018975 -0.0051157475 0.2785652
-0.09680238 0.068340585 -0.06730141 -0.040755957 -0.17275317 -0.09707364 -0.10643555 -1.47396
0.1020751 -0.6625641 -1.2183741 -0.11243601 0.21778017 0.21440524 0.0065430687 0.03424903
0.114986956 -0.2944952 0.49714157 -0.31113634 0.4036364 -0.6957947 -0.3945425 0.22308403
-0.3426174 0.32932615 -0.18038818 -0.3676801 -0.15072113 1.6290367 0.2376879 0.5893137
-0.40975142 0.041773472 0.5486427 0.14976487 0.51850003 1.0529367 0.16290748 0.337168
-1.7771804 -0.0093164295 0.99247503 0.25668404 -0.04593118 0.22066943 0.35514787 0.08393182
0.015483091 -0.06556733 -0.39068148 0.6241089 1.5858355 0.10383737 -0.6723715 -0.16689454
0.14174396 0.3909609 0.009858429 1.3029345 -0.42191857 0.30773333 -0.097694084 0.46741584
0.31751442 0.052350145 0.31902644 0.04022662 0.051385343 -0.063106015 0.50175184 -0.16153061
-0.46252605 0.22940776 0.31349242 -0.22323087 0.25851345 0.1971606 -0.21670185 0.11243993
0.6967674 -0.18569916 1.2439474 0.13057327 -0.198481 -0.1357391 -0.25554854 -0.08551517
0.12892258 0.22279064 -0.56851214 0.15881695 0.36593395 0.3016946 -0.16412286 0.13241412
-0.23891796 -0.6329853 -0.19443896 -0.8263174 -0.76880693 0.03876728 0.18500979 0.15320945
-0.53632265 -0.48432285 0.14644553 0.6390689 0.2674433 1.2355887 0.658004 -1.0220525
1.779667 0.015466154 -0.33567083 -2.452513 -0.247677 -0.325651 -0.06463489 0.091134034
-0.009899542 -0.6965595 0.47617716 0.76026773 0.0032789512 -0.19624922 -0.010730347 3.6034598
0.0071759224 0.17184484 1.7633662 0.16417304 0.492515 0.16397074 0.21401416 -0.5555624
-0.58108574 -0.2759548 -0.47389618 0.19770092 0.4603574 0.04711657 -3.181477 -0.21792197
0.87181544 0.7329146 0.13959292 -0.15950622 0.16105983 -0.53093725 0.22786851 0.44287634
-0.79208916 -0.06325986 0.269544 0.35395196 0.6323574 0.58387053 -0.11729327 0.052749686
0.0638706 -0.017425135 0.794707 -0.105317265 2.2210934 0.855349 0.3806957 0.5671951
0.627981 0.009284383 -0.29739043 0.7997779 2.0770388 -0.05405876 1.8303882 -0.07214377
0.124065936 0.8674803 -0.062090307 1.4608487 -1.2034787 -0.21585934 -1.5095997 0.19345188
-1.080392 -0.31259295 -0.17078763 0.7089319 -0.15045391 -0.3342445 -0.59558976 -0.0056331754
0.236744 0.16644096 -0.043435298 -1.2342986 0.12456462 0.2920802 0.12300951 0.12963212
0.15355222 -0.14679259 0.68121743 -0.051041156 -0.33795238 -0.12570591 -0.0018142164 0.20329733
-0.20196448 -0.30086786 -0.31520486 -0.10586518 -0.25679868 0.10755277 0.074204214 0.06116383
-0.83738804 2.455968 -0.1839101 -0.27379197 -0.98251015 -0.038235992 1.826332 0.21296439
-0.70534045 -0.31817156 -0.6765426 -0.24516043 0.31128815 -0.20292619 0.7244293 -0.01569797
-0.2814819 0.19370803 -0.94465524 -0.3311454 0.13292688 -0.18649594 0.18667278 -0.7106416
-1.076288 0.031230884 -1.0442706 0.03512038 -0.37168872 -0.018202802 -0.08412159 -0.3209451
00000000: c8a8 933d 56d5 0d3e aca0 92be a14a 38be
00000010: 92aa cbbd 863a a43d 00a2 a7bb 19a0 8e3e
00000020: 5440 c6bd 26f6 8b3d 52d5 89bd b8ef 26bd
00000030: 35e6 30be 8bce c6bd e2fa d9bd b9aa bcbf
00000040: c00c d13d cd9d 29bf aff3 9bbf da44 e6bd
00000050: c401 5f3e 0c8d 5b3e 3d67 d63b b648 0c3d
00000060: 487e eb3d 13c8 96be 5789 fe3e 434d 9fbe
00000070: 6ea9 ce3e 9a1f 32bf 7901 cabe 2470 643e
00000080: 8c6b afbe 709d a83e aeb7 38be 9140 bcbe
00000090: a456 1abe 4684 d03f 7564 733e 43dd 163f
000000a0: f0ca d1be a91a 2b3d d973 0c3f f65b 193e
000000b0: 6bbc 043f a1c6 863f 38d1 263e 49a1 ac3e
000000c0: a67a e3bf f0a3 18bc d812 7e3f 176c 833e
000000d0: 5522 3cbd 2bf7 613e f1d5 b53e 72e4 ab3d
000000e0: caac 7d3c 2a48 86bd 6707 c8be 9ac5 1f3f
000000f0: a8fc ca3f b0a8 d43d 8a20 2cbf 67e6 2abe
00000100: 5425 113e 072c c83e 4085 213c 8fc6 a63f
00000110: b605 d8be 398f 9d3e d613 c8bd 2151 ef3e
00000120: 4091 a23e 1b6d 563d 6f57 a33e abc4 243d
00000130: 7079 523d ba3d 81bd cf72 003f 4868 25be
00000140: 37d0 ecbe dee9 6a3e 1482 a03e a296 64be
00000150: e05b 843e 78e4 493e 17e7 5dbe e846 e63d
00000160: 595f 323f ec27 3ebe ab39 9f3f 00b5 053e
00000170: 9a3e 4bbe 31ff 0abe 42d7 82be 9422 afbd
00000180: 4804 043e 3b23 643e 038a 11bf e9a0 223e
00000190: b25b bb3e b777 9a3e d30f 28be 9197 073e
000001a0: e9a6 74be 530b 22bf 021b 47be 8a89 53bf
000001b0: 88d0 44bf 70ca 1e3d 3573 3d3e f0e2 1c3e
000001c0: 714c 09bf 2af9 f7be d1f5 153e 059a 233f
000001d0: 54ee 883e c527 9e3f f372 283f 9ed2 82bf
000001e0: 21cc e33f c065 7d3c 0cdd abbe f9f5 1cc0
000001f0: 0a9f 7dbe babb a6be 4c5f 84bd 7ba4 ba3d
00000200: b031 22bc b951 32bf 7ecd f33e e8a0 423f
00000210: ace3 563b 8ef5 48be 56ce 2fbc 169f 6640
00000220: 0024 eb3b 18f8 2f3e fcb5 e13f fa1c 283e
00000230: ed2a fc3e f2e7 273e 8726 5b3e 5639 0ebf
00000240: 09c2 14bf f349 8dbe 85a2 f2be 1c72 4a3e
00000250: f7b3 eb3e 4efd 403d 529d 4bc0 f026 5fbe
00000260: 4c2f 5f3f 4ba0 3b3f 72f1 0e3e 9955 23be
00000270: deec 243e 81eb 07bf 5d56 693e b0c0 e23e
00000280: 5bc6 4abf 638e 81bd ac01 8a3e 3139 b53e
00000290: 2de2 213f 8a78 153f 7437 f0bd 0e10 583d
000002a0: 97ce 823d 28bf 8ebc eb71 4b3f 94b0 d7bd
000002b0: 6526 0e40 27f8 5a3f 8cea c23e b333 113f
000002c0: 5dc3 203f 861d 183c 8f43 98be 3fbe 4c3f
000002d0: 34ee 0440 b86c 5dbd 294a ea3f 1dc0 93bd
000002e0: 4816 fe3d 3013 5e3f 6852 7ebd 17fd ba3f
000002f0: 970b 9abf 3b0a 5dbe 903a c1bf 4018 463e
00000300: 494a 8abf 2f0c a0be f4e2 2ebe 907c 353f
00000310: 9710 1abe 1822 abbe 9278 18bf 8096 b8bb
00000320: 056d 723e 806f 2a3e 36e9 31bd 7ffd 9dbf
00000330: bc1b ff3d 898b 953e 69ec fb3d 48be 043e
00000340: cb3c 1d3e cc50 16be 4464 2e3f 8810 51bd
00000350: 1808 adbe 0db9 00be 00cb edba 2d2d 503e
00000360: c7cf 4ebe 5a0b 9abe 8862 a1be d8cf d8bd
00000370: 1e7b 83be a044 dc3d 61f8 973d ed86 7a3d
00000380: 105f 56bf 942e 1d40 ee52 3cbe 762e 8cbe
00000390: c985 7bbf 589d 1cbd 3fc5 e93f 5613 5a3e
000003a0: 3191 34bf 62e7 a2be e531 2dbf 560b 7bbe
000003b0: 2961 9f3e e2cb 4fbe 3374 393f 0799 80bc
000003c0: 651e 90be 665b 463e edd4 71bf e48b a9be
000003d0: fc1d 083e cbf8 3ebe 2627 3f3e 9cec 35bf
000003e0: cec3 89bf e9d7 ff3c a9aa 85bf 63da 0f3d
000003f0: fc4d bebe 0b1e 95bc f147 acbd eb52 a4be

bias f4 [256]
-0.3036529 -1.0422084 -0.23065063 0.3827504 -0.44231856 0.21010749 -0.45174873 -0.39215398
-0.20722479 0.28130046 0.92829645 -0.0042224806 1.7321006 -0.224346 -0.22172737 -0.1674542
-0.75830686 -0.4695819 0.52389044 -0.6820965 0.43522677 -0.96996605 -1.0724648 -0.66958857
-0.58520234 -0.22955154 -0.07156624 0.6455322 -0.26596686 -0.6282324 0.40119544 0.4725067
-0.1114807 0.025201827 -0.38990414 -0.07978769 -0.2531832 -0.31003407 -0.45283478 -0.8077622
-0.3338394 0.07958969 -0.2716458 -0.36073515 0.031079775 -0.16035119 0.31123132 0.115201555
-0.635378 0.0032669662 0.35836262 -0.5187214 -0.25943315 -0.338058 -0.35518372 -0.68253875
-0.30120096 0.66260093 0.3964267 -0.8003861 -0.032474987 -0.42031386 -0.68410254 -0.66534966
-0.017307973 1.1765548 -0.06729044 -0.30278525 0.10280944 -0.3444996 -0.056252174 -0.56931823
-0.0029847417 -0.7034231 0.07240796 0.07018274 -0.78797984 0.5907774 -0.16606314 0.26939446
-0.916183 -0.38506272 -0.09658134 -0.023329038 0.07166706 0.80732465 -0.2881924 -0.25154
-0.35119566 -0.0834447 0.011306332 -1.1952055 0.009134951 -0.1889772 -0.4797706 -0.6867222
-0.37033612 -0.63204926 -0.6810314 -0.5011406 -0.7101126 -0.33771864 -0.07254523 0.049729005
0.8968859 -0.48436233 -0.65904367 -0.15249227 0.20424254 -0.25380594 -0.08180873 -0.31739223
-0.07123055 0.8759446 -0.3593947 -1.0690066 -0.46572086 0.17770176 -0.3549769 -0.21265486
-0.22435604 -0.3663491 0.7213314 -0.26757023 0.24893852 0.42530206 -0.18899743 -0.37431416
0.38508806 0.17181237 -0.48698702 -0.40570536 -0.5488967 -0.41413262 -0.14313947 -0.6473368
-0.1002523 0.53548527 -1.1159369 -0.60148114 -0.79678863 -0.17299388 0.07895813 0.6148566
-0.56581384 0.5601338 -0.75783914 -0.99484646 -0.39203492 -0.21553627 0.028142154 -0.6261903
-0.32167354 0.11157388 -0.6386474 -0.010133177 0.67898595 -0.21491869 -0.31808203 0.23340286
-1.1305519 -0.5649609 1.4851457 -0.7042412 0.81939113 0.18355167 0.14592378 -0.08941369
-0.044189747 0.09080857 -0.07106034 -0.1473002 0.2934931 -0.043985922 -0.33836874 -0.41907668
0.2842383 0.18888532 -0.081149384 -1.7403953 -0.6017145 -0.8559693 -0.38710698 -0.35354626
-0.071711764 -0.17903566 -0.3216286 -0.29332095 -0.6420453 -0.40698162 -0.6550366 0.10045167
-1.3212246 -0.29877165 0.18932262 -0.40326577 -0.3150307 0.8128364 -1.1133603 0.6517036
-0.525637 -0.029292373 -0.47975063 -0.50109935 -0.17372817 -0.9984241 1.6748108 0.0237029
0.008817586 -0.30552375 0.086136304 -0.46474162 0.05399653 -0.77636784 -1.0824202 0.09481782
-0.8670499 0.22163251 0.6513198 0.32876912 -0.9462317 -0.31382084 -0.8310661 0.33506694
-0.7483859 -0.4546897 -0.6491954 -0.6832527 0.52686554 -0.14169307 -1.8464456 -0.88163465
-1.0025095 -0.38472462 -1.2575961 -0.5982818 0.49881998 0.5565285 -0.36171052 0.989983
-0.20780554 -1.1354872 -1.104336 -0.4017786 0.006019407 0.27025983 -0.13602787 0.36811388
-0.5293596 -0.006249401 -0.4764485 -0.13935332 -0.2745156 -0.2193727 -1.0596957 -1.5231998
00000000: 6578 9bbe 1667 85bf ae2f 6cbe dcf7 c33e
00000010: 9477 e2be 6b26 573e 9c4b e7be 68c8 c8be
00000020: bc32 54be 9d06 903e d6a4 6d3f bc5c 8abb
00000030: 79b5 dd3f f5ba 65be 800c 63be 1d79 2bbe
00000040: 6620 42bf 0a6d f0be af1d 063f e09d 2ebf
00000050: 0bd6 de3e b24f 78bf 8746 89bf 286a 2bbf
00000060: d2cf 15bf 8f0f 6bbe 5291 92bd 9941 253f
00000070: cf2c 88be d7d3 20bf 7d69 cd3e 66ec f13e
00000080: fe4f e4bd 1074 ce3c 84a1 c7be ba67 a3bd
00000090: 3aa1 81be c9bc 9ebe f6d9 e7be 81c9 4ebf
000000a0: ffec aabe ebff a23d 2915 8bbe 47b2 b8be
000000b0: 039b fe3c 1a33 24be b659 9f3e cbee eb3d
000000c0: 22a8 22bf 991a 563b 4e7b b73e edca 04bf
000000d0: 6cd4 84be f015 adbe a4da b5be dcba 2ebf
000000e0: 0337 9abe 37a0 293f 71f8 ca3e 1ae6 4cbf
000000f0: 7e04 05bd 6133 d7be 5821 2fbf 5b54 2abf
00000100: 73c9 8dbc 5999 963f 92cf 89bd ab06 9bbe
00000110: c18d d23d 4062 b0be ae68 66bd d7be 11bf
00000120: a89b 43bb 8913 34bf a04a 943d f8bb 8f3d
00000130: 0cb9 49bf 303d 173f 750c 2abe 12ee 893e
00000140: f88a 6abf f126 c5be 70cc c5bd 8a1c bfbc
00000150: 2ec6 923d d4ac 4e3f f48d 93be dac9 80be
00000160: ebcf b3be 0ee5 aabd 323e 393c 7efc 98bf
00000170: c3aa 153c 3d83 41be 7ea4 f5be 07cd 2fbf
00000180: b29c bdbe fbcd 21bf 1358 2ebf c04a 00bf
00000190: f0c9 35bf 75e9 acbe 9892 94bd a4b0 4b3d
000001a0: 509a 653f 57fe f7be 16b7 28bf ef26 1cbe
000001b0: f524 513e daf2 81be 568b a7bd 3c81 a2be
000001c0: 53e1 91bd e83d 603f 9502 b8be 35d5 88bf
000001d0: f772 eebe 73f7 353e 88bf b5be 32c2 59be
000001e0: 97bd 65be 1c92 bbbe 2da9 383f f7fe 88be
000001f0: bde9 7e3e 31c1 d93e 8b88 41be 1ba6 bfbe
00000200: 432a c53e 95ef 2f3e 5d56 f9be 9db8 cfbe
00000210: 7e84 0cbf 3109 d4be 2793 12be ddb7 25bf
00000220: 1451 cdbd 9015 093f 05d7 8ebf abfa 19bf
00000230: 57fa 4bbf 4f25 31be cdb4 a13d 3e67 1d3f
00000240: 2dd9 10bf ee64 0f3f bf01 42bf 42ae 7ebf
00000250: cdb8 c8be 8ab5 5cbe 608a e63c 024e 20bf
00000260: 65b2 a4be d980 e43d 657e 23bf a005 26bc
00000270: 06d2 2d3f a513 5cbe a6db a2be 2901 6f3e
00000280: edb5 90bf 47a1 10bf 4119 be3f 2749 34bf
00000290: 9ec3 513f f8f4 3b3e 0b6d 153e 861e b7bd
000002a0: 4f00 35bd d8f9 b93d 1588 91bd ddd5 16be
000002b0: ba44 963e 952a 34bd ab3e adbe 3891 d6be
000002c0: af87 913e 276b 413e a631 a6bd 46c5 debf
000002d0: f609 1abf ce20 5bbf e332 c6be 0404 b5be
000002e0: 9edd 92bd 2055 37be 81ac a4be 2a2e 96be
000002f0: 155d 24bf e55f d0be 7bb0 27bf 9bb9 cd3d
00000300: e31d a9bf 99f8 98be cadd 413e da78 cebe
00000310: b44b a1be 0c16 503f 9782 8ebf 0cd6 263f
00000320: 2590 06bf 8ff6 efbc e0a1 f5be 0c48 00bf
00000330: cce5 31be b998 7fbf 3360 d63f 962c c23c
00000340: a377 103c 9c6d 9cbe 3b68 b03d 9df2 edbe
00000350: 772b 5d3d 0bc0 46bf bf8c 8abf d82f c23d
00000360: fbf6 5dbf a2f3 623e e5bc 263f 6d54 a83e
00000370: 3e3c 72bf 20ad a0be bfc0 54bf e58d ab3e
00000380: 3896 3fbf 17cd e8be ab31 26bf a6e9 2ebf
00000390: a9e0 063f fd17 11be 5458 ecbf cfb2 61bf
000003a0: 3b52 80bf a0fa c4be e9f8 a0bf ff28 19bf
000003b0: 5565 ff3e a778 0e3f 1f32 b9be 876f 7d3f
000003c0: faca 54be a557 91bf e25a 8dbf edb5 cdbe
000003d0: 723e c53b 7f5f 8a3e e44a 0bbe 6c79 bc3e
000003e0: 1c84 07bf c6c7 ccbb 0ff1 f3be a3b2 0ebe
000003f0: 4f8d 8cbe 3da3 60be 1ca4 87bf 36f8 c2bf

weight f4 [256, 256]
0.015869215 0.53773046 -0.065241024 0.20432949 -0.15642723 -0.15194915 -0.15499057 -0.16819294
-1.2455403 1.5347195 -0.25750265 -0.61969 -0.76911616 0.25298247 -0.071233876 -0.43503377
-1.819081 -0.3400721 -0.19110484 0.09872257 -0.06596966 -0.7781145 -1.163102 0.6059506
-0.50491095 -0.12618509 0.25158125 -1.0962807 -0.16237739 -0.49521497 -0.49921876 0.14382017
0.13887358 -0.68278056 -0.07461717 0.41552386 0.054245055 -1.0256191 0.9244626 -1.6714417
-0.22238842 1.2105812 -0.08600666 -0.27973545 -0.29306945 -1.1677017 -0.65619546 -0.6392885
-0.14980933 0.13840851 -1.5491967 -0.31609032 -0.13907516 -0.19670053 -0.22760707 0.8416795
0.5992906 -0.7471431 0.0014876529 -0.41943842 0.04158029 0.12795813 0.057571772 0.18773511
0.03641292 -0.9966806 -0.2400442 0.011999434 -1.4191998 0.1444009 -0.14188498 -2.1462328
0.076341964 0.24033844 0.4551069 0.34937358 -0.13966513 -1.4521858 -0.09465109 0.48513982
0.5028741 -0.18952025 0.01507452 0.4223605 -1.4442481 -0.53761804 -0.16138738 0.15057565
-0.30459362 0.59804523 0.88915837 1.2506863 -0.15886886 0.09052822 -0.12675817 0.16966099
1.0792959 0.2701501 -0.2920917 -0.41622493 -0.3311017 -0.0940474 0.2720788 -0.8354432
-0.61957896 -0.21947241 -0.5208432 -1.4988626 -0.6358691 -0.025677508 -0.6155161 0.1817128
-0.0028851063 0.1779211 -0.13928795 0.09462944 0.41569698 -0.98602754 1.5253203 0.0022970363
0.21453388 0.1658508 -0.6237641 -0.004205532 -0.25928175 -0.4854263 -0.01727968 -0.031223122
0.23408106 0.20461853 0.016775737 -0.12730005 -0.16600949 -0.14213541 -0.32702082 0.098313816
0.29961753 -1.1723065 -1.0578089 -0.11514645 0.7818456 0.36639643 -1.3813182 -0.0050196415
1.3060682 -0.6885578 0.49865043 -0.26660556 0.26404747 -0.37462217 0.08370034 0.41910037
0.036762424 -0.10213789 -0.22099063 0.043061588 -0.9226628 -0.18813865 0.5285109 0.1484136
0.2775374 0.08694391 -1.6337434 -0.22239192 -0.64020455 -0.46995497 0.62572247 -1.0937552
-1.016276 0.119796604 -0.06349653 -0.5416403 0.5710149 -0.4779614 -0.4607226 0.19264844
-0.991283 -0.24615866 0.012067972 0.93451214 0.09806911 0.6845315 0.3729052 -0.2329046
-0.9004003 0.062248845 -0.10021439 -0.23559566 -0.39292622 -0.31795514 2.269617 -0.08844164
-0.7430292 0.012301125 0.010743721 0.35361713 0.21343924 1.3802923 0.25516188 0.3171262
-0.24342111 0.047419704 -0.07768692 0.9145628 0.091035955 -0.059561625 -0.790842 -0.9331233
0.05398813 0.15021873 -1.0952978 -0.45661017 0.039284658 -0.12923065 -1.4548856 -0.67299163
-1.2559001 0.42535698 -0.877259 -0.12559909 -0.6758022 0.109228574 -0.1609889 -0.54687434
0.17139837 0.1156363 -0.26012203 0.20474447 0.04974625 -0.38273746 0.6615911 0.062261693
-0.39296165 0.20587029 0.41663226 -0.27329367 -0.26172432 -0.72296894 -0.16204542 -1.1875786
-0.046991847 1.017565 -0.2250114 -0.6730926 0.03153903 0.41314477 -0.28340608 -1.0345198
0.015791599 -1.1296543 -0.21885632 -0.89106214 0.8327645 0.02369445 1.1510886 0.32700798
00000000: 2800 823c b4a8 093f 169d 85bd c03b 513e
00000010: 762e 20be 8f98 1bbe d9b5 1ebe c53a 2cbe
00000020: dd6d 9fbf b071 c43f 63d7 83be 01a4 1ebf
00000030: cce4 44bf eb86 813e 11e3 91bd bfbc debe
00000040: a5d7 e8bf ee1d aebe fdb0 43be 0f2f ca3d
00000050: 1a1b 87bd 8332 47bf 87e0 94bf 941f 1b3f
00000060: d841 01bf aa36 01be 42cf 803e ed52 8cbf
00000070: 4246 26be d18c fdbe 9a99 ffbe 9845 133e
00000080: e034 0e3e b5ca 2ebf e3d0 98bd 8bbf d43e
00000090: 1030 5e3d 7d47 83bf 95a9 6c3f cdf1 d5bf
000000a0: cab9 63be 53f4 9a3f 4224 b0bd 7c39 8fbe
000000b0: 330d 96be 4077 95bf 6dfc 27bf 69a8 23bf
000000c0: 9e67 19be f6ba 0d3e 144c c6bf 97d6 a1be
000000d0: b869 0ebe dd6b 49be d411 69be 4f78 573f
000000e0: 1c6b 193f c544 3fbf 59fd c23a a2c0 d6be
000000f0: 1850 2a3d 7507 033e 61d0 6b3d a23d 403e
00000100: b725 153d 7626 7fbf 26ce 75be 4699 443c
00000110: 57a8 b5bf d4dd 133e 4c4a 11be e15b 09c0
00000120: 2d59 9c3d 481b 763e c603 e93e 18e1 b23e
00000130: 6004 0fbe 39e1 b9bf 6ed8 c1bd 3f64 f83e
00000140: 5bbc 003f 9911 42be 1ffb 763c a33f d83e
00000150: 1fdd b8bf 56a1 09bf bc42 25be 8130 1a3e
00000160: b2f3 9bbe 7e19 193f e29f 633f 7d16 a03f
00000170: 85ae 22be dc66 b93d e5cc 01be 9cbb 2d3e
00000180: 5e26 8a3f 1d51 8a3e 0b8d 95be 6f1b d5be
00000190: 2986 a9be ec9b c0bd ea4d 8b3e 9bdf 55bf
000001a0: ba9c 1ebf 60bd 60be fb55 05bf bbda bfbf
000001b0: 51c8 22bf a359 d2bc 7792 1dbf ec12 3a3e
000001c0: 0d14 3dbb f330 363e 80a1 0ebe 14cd c13d
000001d0: 3cd6 d43e 4d6c 7cbf b23d c33f e089 163b
000001e0: c5ae 5b3e cbd4 293e 01af 1fbf 8fce 89bb
000001f0: 94c0 84be cc89 f8be 1e8e 8dbc a2c7 ffbc
00000200: f2b2 6f3e 8587 513e 456d 893c f25a 02be
00000210: 64fe 29be f28b 11be 466f a7be c158 c93d
00000220: 7867 993e 240e 96bf 4866 87bf e7d1 ebbd
00000230: 0927 483f 5098 bb3e 09cf b0bf ce7b a4bb
00000240: 3e2d a73f 5345 30bf 1c4f ff3e 8680 88be
00000250: 3b31 873e 7ace bfbe 156b ab3d 5394 d63e
00000260: 3294 163d ac2d d1bd 5e4b 62be 5961 303d
00000270: a133 6cbf 6ba7 40be 7e4c 073f bcf9 173e
00000280: 6219 8e3e a60f b23d 811e d1bf b5ba 63be
00000290: 72e4 23bf f09d f0be 592f 203f 2c00 8cbf
000002a0: 5515 82bf ec57 f53d 780a 82bd f0a8 0abf
000002b0: 082e 123f 5bb7 f4be d5e3 ebbe a245 453e
000002c0: b9c4 7dbf 0411 7cbe beb8 453c 303c 6f3f
000002d0: 75d8 c83d 753d 2f3f 6eed be3e 8b7e 6ebe
000002e0: a280 66bf a5f8 7e3d 343d cdbd fd3f 71be
000002f0: a02d c9be 04cb a2be 6841 1140 e420 b5bd
00000300: 2937 3ebf a88a 493c 6f06 303c 4e0d b53e
00000310: d18f 5a3e 6bad b03f 94a4 823e 5e5e a23e
00000320: 6243 79be 2a3b 423d 521a 9fbd ca20 6a3f
00000330: 0f71 ba3d e4f6 73bd 9f74 4abf 2be1 6ebf
00000340: a822 5d3d f0d2 193e b832 8cbf cfc8 e9be
00000350: f3e8 203d 0a55 04be b139 babf 2e49 2cbf
00000360: 56c1 a0bf 64c8 d93e 0c94 60bf 0c9d 00be
00000370: 5f01 2dbf 3bb3 df3d 46da 24be f5ff 0bbf
00000380: 0e83 2f3e b9d2 ec3d b72e 85be 89a8 513e
00000390: b9c2 4b3d 2af6 c3be 095e 293f 1e06 7f3d
000003a0: 4532 c9be a9cf 523e d350 d53e 26ed 8bbe
000003b0: bb00 86be 7e14 39bf 3cef 25be 9302 98bf
000003c0: 867a 40bd 923f 823f 6369 66be cc4f 2cbf
000003d0: 122f 013d b687 d33e 9a1a 91be 256b 84bf
000003e0: 625d 813c 8398 90bf df1b 60be a61c 64bf
000003f0: 0e30 553f dd1a c23c df56 933f 976d a73e

bias f4 [256]
-0.22151376 -0.114119776 0.07027774 -0.29290637 -0.16697316 -0.116936505 1.0939637 -0.12725702
0.9630408 -0.2741565 -0.090465076 -0.12910682 0.17900787 -0.14173271 0.27082753 1.3906791
-0.0835114 -0.16670813 -0.5588477 -0.56048334 -1.1585193 -0.09295016 -0.092759274 -0.11412436
0.38290995 -0.22576554 -0.14562762 -0.6360733 -0.1331106 -0.323281 -0.23636422 -0.15878026
-0.13960896 -0.6225637 -0.04862834 -0.49883735 -0.16736943 -0.5104777 0.25852245 -0.18255852
-0.15488483 -0.0672425 -0.041763764 1.535756 0.3860892 0.4706712 0.18740556 -0.13711387
-0.4832032 -0.15534458 0.09239788 -0.052483488 0.11289485 -0.6508141 -0.24542008 0.21684635
-0.29895863 1.0178777 -0.10406293 -0.23333174 -0.35092354 -0.12998156 -0.5906844 0.8450011
-0.14649509 -0.13809702 1.0222074 -0.057905473 -0.9485512 -0.08916934 -0.25293466 -0.31228077
0.29899326 -0.17139319 0.42210534 0.9037992 1.5872957 0.7972946 -0.16193806 0.37274033
0.55296934 0.62235236 -0.023158563 -0.307938 0.908082 -0.09709373 -0.48582372 -0.05865951
0.17053874 -0.18438558 -0.31963375 -0.061404765 -0.120623976 0.77242666 -0.10442612 0.38321865
-0.0713684 -0.099448085 -0.23820062 -0.14371869 -0.137247 0.31213477 -0.06184937 -0.14784971
1.6230426 -0.10404357 -0.102776006 0.07938977 -0.06565935 -0.09999455 1.3375182 -0.06898872
1.3276178 -0.089924544 -0.24833634 0.23569837 -0.16530845 -0.07953546 0.42545298 -0.05815869
0.22195587 0.27183133 0.08698996 1.4704778 0.32951123 -0.06920259 -0.08321036 -0.59737885
-0.091452934 0.25317958 -0.23634793 -0.33581528 -0.041075427 0.41559824 -0.055994403 0.21722144
-0.9484363 -0.18734515 -0.10415766 0.52354133 0.38935086 -0.35561082 -0.15316097 0.9177029
-0.113006726 -0.12826008 -0.4839968 -0.12968607 -0.30475655 -0.11663726 -0.1696321 -0.24739498
-0.14036228 -0.07293711 -0.10752503 0.8626047 0.43517572 -0.12832905 0.76096493 -0.6636594
0.66780794 0.012972294 0.0086631635 -0.12318521 0.25639954 0.32433298 0.49822503 -0.3949367
-0.077744745 -0.3367772 0.77893174 -0.108628444 -0.12520136 -0.14201096 -0.04693067 -0.07255009
-0.2382966 -0.119217046 -0.098615356 -0.12525432 -0.27140695 -0.5615848 -0.46494213 0.63997155
-0.1532184 -0.11401235 -0.093881056 0.07713244 0.07227224 0.3693916 -0.36631125 -0.10745921
-0.13070782 0.6819264 0.7849456 -0.24539524 -0.37166935 1.0700955 -0.10993839 -1.0857279
0.80639887 -0.73483676 -0.7578994 -0.19476905 0.05421228 0.03168875 -0.002607264 -0.08930707
1.1939505 0.4650834 0.89217275 -0.15718739 -0.3273132 -0.037621707 -0.110021085 -0.09962413
0.8802237 -0.22193363 0.83179504 -0.089680016 -0.12046206 -0.7674073 0.2611647 -0.056206144
-1.0089885 -0.501843 -0.1095668 1.6383939 -0.21870649 -0.099459566 -0.23367743 1.1222061
-0.05566527 -0.18126978 -0.03861431 0.35101718 0.1476304 -1.2958574 -0.076599784 -0.07747525
-0.103865415 -0.09599175 0.24598339 -0.17094211 0.057631135 -0.3250678 -0.377128 -0.37776208
-0.60967374 1.4191667 0.8759546 0.84316415 0.26516128 0.4423666 -0.3199138 -0.67395717
00000000: 81d4 62be a1b7 e9bd c7ed 8f3d d3f7 95be
00000010: 03fb 2abe 687c efbd 0107 8c3f aa4f 02be
00000020: d889 763f 3e5e 8cbe c145 b9bd 9434 04be
00000030: d74d 373e 6122 11be e8a9 8a3e c601 b23f
00000040: 0608 abbd 89b5 2abe a510 0fbf d67b 0fbf
00000050: 5c4a 94bf a75c bebd 93f8 bdbd 08ba e9bd
00000060: c60c c43e 152f 67be 681f 15be b3d5 22bf
00000070: 254e 08be 1685 a5be 7609 72be 4b97 22be
00000080: a7f5 0ebe 5660 1fbf 832e 47bd 9c67 ffbe
00000090: e462 2bbe abae 02bf 0e5d 843e 9ff0 3abe
000000a0: 219a 1ebe 70b6 89bd 7b10 2bbd a793 c43f
000000b0: 7cad c53e d1fb f03e 3ee7 3f3e 9467 0cbe
000000c0: 6966 f7be a612 1fbe 1a3b bd3d edf8 56bd
000000d0: 6a35 e73d c19b 26bf 674f 7bbe f80c 5e3e
000000e0: 1b11 99be d149 823f f21e d5bd 84ee 6ebe
000000f0: 40ac b3be e319 05be 1837 17bf fe51 583f
00000100: cf02 16be 4e69 0dbe b1d7 823f 4a2e 6dbd
00000110: 40d4 72bf 6a9e b6bd a780 81be 44e3 9fbe
00000120: a515 993e b281 2fbe 311e d83e 625f 673f
00000130: 812c cb3f 801b 4c3f 17d3 25be d2d7 be3e
00000140: 668f 0d3f 7c52 1f3f 07b7 bdbc 0daa 9dbe
00000150: 1078 683f 14d9 c6bd e3bd f8be f444 70bd
00000160: b5a1 2e3e 93cf 3cbe 09a7 a3be 9083 7bbd
00000170: b409 f7bd c1bd 453f 5ddd d5bd 3c35 c43e
00000180: 9829 92bd 70ab cbbd ddea 73be fe2a 13be
00000190: 7a8a 0cbe 21d0 9f3e c455 7dbd ea65 17be
000001a0: dcbf cf3f cc14 d5bd 3a7c d2bd 1b97 a23d
000001b0: 6978 86bd f1c9 ccbd cc33 ab3f f549 8dbd
000001c0: 61ef a93f 5c2a b8bd e24b 7ebe ea5a 713e
000001d0: 9e46 29be 7de3 a2bd f9d4 d93e ce37 6ebd
000001e0: 6648 633e 7a2d 8b3e cb27 b23d 9e38 bc3f
000001f0: b2b5 a83e 16ba 8dbd 316a aabd d2ed 18bf
00000200: ad4b bbbd c1a0 813e 3105 72be fbef abbe
00000210: b53e 28bd 4bc9 d43e 635a 65bd 4c6f 5e3e
00000220: b9cc 72bf 68d7 3fbe 9c50 d5bd ce06 063f
00000230: ff58 c73e 9f12 b6be 3bd6 1cbe 94ee 6a3f
00000240: 1270 e7bd 9c56 03be 6ece f7be 6dcc 04be
00000250: 0d09 9cbe 84df eebd 0ab4 2dbe 1c55 7dbe
00000260: 21bb 0fbe 0d60 95bd 1536 dcbd a9d3 5c3f
00000270: 5acf de3e b168 03be 99ce 423f 95e5 29bf
00000280: 76f5 2a3f bf89 543c f1ef 0d3c 8748 fcbd
00000290: cd46 833e f90e a63e 5a17 ff3e 2535 cabe
000002a0: a338 9fbd 106e acbe 1268 473f 9778 debd
000002b0: c934 00be 526b 11be 603a 40bd 2495 94bd
000002c0: 0604 74be 1128 f4bd d9f6 c9bd ab42 00be
000002d0: daf5 8abe 05c4 0fbf e50c eebe 2dd5 233f
000002e0: 49e5 1cbe 4f7f e9bd b644 c0bd 9df7 9d3d
000002f0: 7803 943d e520 bd3e 268d bbbe 9313 dcbd
00000300: 45d8 05be bb92 2e3f 32f2 483f e448 7bbe
00000310: 724b bebe e4f8 883f 6127 e1bd 22f9 8abf
00000320: 2870 4e3f 431e 3cbf b205 42bf 8a71 47be
00000330: b20d 5e3d 10cc 013d a2de 2abb a0e6 b6bd
00000340: 5fd3 983f 691f ee3e 6f65 643f bbf5 20be
00000350: 9995 a7be 3819 1abd bc52 e1bd bc07 ccbd
00000360: 5756 613f 9242 63be 85f0 543f 28aa b7bd
00000370: d0b4 f6bd ce74 44bf 61b7 853e 6a38 66bd
00000380: 8926 81bf c878 00bf 8f64 e0bd e4b6 d13f
00000390: 98f4 5fbe 75b1 cbbd 2349 6fbe 73a4 8f3f
000003a0: 4401 64bd c99e 39be 0a2a 1ebd 86b8 b33e
000003b0: 6c2c 173e a8de a5bf 59e0 9cbd 58ab 9ebd
000003c0: 64b7 d4bd 5397 c4bd 12e3 7b3e 730b 2fbe
000003d0: a00e 6c3d 496f a6be ec16 c1be 086a c1be
000003e0: 9413 1cbf 41a7 b53f 903e 603f 9bd9 573f
000003f0: 38c3 873e e07d e23e becb a3be 7588 2cbf

weight f4 [3, 256]
-0.013831054 -0.042305652 0.13577135 0.4017664 -0.041072562 -0.019058397 -0.24295159 1.42676845e-05
-0.03453307 -0.10478939 0.07724206 -0.062655896 0.09324933 0.046153754 1.0853348 0.02847797
0.27706227 -0.032997835 -0.059146862 -0.0314606 0.16960695 0.06108695 0.09462557 -0.014831871
0.70636976 0.068855114 0.932231 0.14656223 0.013805345 0.11886339 0.16687366 0.049547903
0.0032667571 0.9054275 -0.00798996 0.19682539 -0.056658126 0.13005649 0.05474529 0.34652102
0.070906796 0.0027863402 0.029535897 -0.10950088 0.7132082 -0.24418615 -0.14477658 0.016519442
0.12675805 0.00944711 -0.028579934 0.04551042 -0.040590376 0.014453247 0.24759397 0.018217592
0.36844823 0.53327775 0.47164714 0.054875996 1.037995 -0.03116945 -0.07807559 0.32665032
-0.05130247 0.019623775 -0.4786882 -0.075246364 -0.046388067 -0.004121991 -0.0055903387 -0.19025849
-0.11997223 -0.0673502 -0.61379516 0.5094322 -0.057848357 0.17510846 -0.020149997 0.13872375
0.27663395 0.31931838 -0.20640263 0.52523756 0.011451201 0.0771788 0.41370672 0.2727328
0.76048064 0.02043991 -0.5405548 -0.008562868 -0.013024366 -0.33045006 -0.044552077 0.28479663
-0.037431594 -0.024163814 -0.23836061 -0.03359036 -0.100811064 -0.89622086 -0.023369726 -0.3242564
0.2665512 0.04105336 0.0018548042 2.6219878 0.11231145 -0.0054344437 -0.74625796 0.04603087
-0.22361657 0.01532147 0.06265652 0.23564355 0.25455678 0.06661485 -0.3938532 0.022475518
-0.038821757 -0.10588011 0.20922866 0.7253294 0.14050658 -0.12800579 -0.21635178 0.043479513
0.027427934 -0.6312072 0.19474114 0.021551168 0.26128855 0.15374912 -0.03167527 0.42124766
-0.04366933 -0.040579036 -0.06561648 0.2909729 -0.3843891 0.8364279 -0.11537371 -0.1310417
0.0460927 -0.03742645 0.04722493 -0.004791132 0.04228794 -0.050485875 0.038688194 0.1652202
0.032145463 0.03363993 -0.037295923 0.37628195 -0.073344804 0.049938675 0.24522701 0.22093417
0.32385737 -0.4301061 -0.2057968 -0.011424107 -0.0070246 0.2221846 0.25868976 -0.189198
-0.08557523 -0.07838433 0.13603725 0.0081821745 0.020971334 0.033592436 -0.0975979 -0.0044774236
0.26740912 0.050956447 -0.0023012972 -0.005573527 0.1115132 0.18186964 0.21444516 0.36879185
0.011759689 0.042520814 -0.0066946656 -0.228134 -0.21999653 -0.17802195 0.2937589 -0.006763481
0.020852288 -0.4643718 -0.18761167 0.15049648 0.11546696 -0.100745045 0.0021043483 -0.30308124
-0.20357996 0.07610369 0.08274146 -0.012917983 0.16499507 0.19537416 0.031228608 0.02793987
0.19535457 0.33134702 0.7739851 -0.035054885 0.1358547 -0.007713672 0.074760996 0.104448386
-0.28174323 0.14102888 -0.1983016 -0.024050519 0.02902398 -0.82605016 -0.115543574 0.1662698
0.16438635 0.07936403 -0.00849454 0.15831421 -0.02892035 -0.058604483 0.12782098 -0.10133778
-0.12221437 0.03443157 0.032895897 -0.24125966 0.40999752 -0.39379162 -0.018423555 -0.008382802
-0.1221715 0.11617134 0.26155564 -0.034740098 0.41205114 0.19638446 0.43199039 -0.1599524
0.016535217 -0.39598036 0.1650245 -0.15768442 0.030143557 -0.21091431 0.27492324 0.02600527
00000000: a59b 62bc b148 2dbd a507 0b3e 53b4 cd3e
00000010: b43b 28bd 5b20 9cbc 4dc8 78be 3d5f 6f37
00000020: 8c72 0dbd d29b d6bd 1631 9e3d bc51 80bd
00000030: 81f9 be3d b80b 3d3d 40ec 8a3f a24a e93c
00000040: 1bdb 8d3e bd28 07bd fb43 72bd d5dc 00bd
00000050: 72ad 2d3e 4f36 7a3d 0dcb c13d 6001 73bc
00000060: a6d4 343f e903 8d3d b1a6 6e3f 6914 163e
00000070: d02f 623c a66e f33d eee0 2a3e bef2 4a3d
00000080: 1717 563b 19ca 673f 52e8 02bc 988c 493e
00000090: 5a12 68bd 872d 053e 993c 603d 346b b13e
000000a0: 9537 913d 089b 363b 44f5 f13c ff41 e0bd
000000b0: d094 363f ef0b 7abe 5040 14be c853 873c
000000c0: ddcc 013e 0dc8 1a3c 7720 eabc 2269 3a3d
000000d0: 1842 26bd 50cd 6c3c 4689 7d3e 0f3d 953c
000000e0: 3fa5 bc3e e484 083f bc7b f13e a7c5 603d
000000f0: 05dd 843f 1357 ffbc 18e6 9fbd b63e a73e
00000100: 8a22 52bd 0ac2 a03c 9f16 f5be c41a 9abd
00000110: 6a01 3ebd c411 87bb 292f b7bb 1fd3 42be
00000120: 00b4 f5bd e7ee 89bd ae21 1dbf 266a 023f
00000130: 66f2 6cbd a24f 333e 9b11 a5bc 990d 0e3e
00000140: f7a2 8d3e b37d a33e 365b 53be f875 063f
00000150: d19d 3b3c eb0f 9e3d 5ed1 d33e a2a3 8b3e
00000160: dcae 423f 9971 a73c cd61 0abf 464b 0cbc
00000170: 2764 55bc c030 a9be 3d7c 36bd ddd0 913e
00000180: df51 19bd 31f3 c5bc ce14 74be 0c96 09bd
00000190: 0876 cebd bb6e 65bf de71 bfbc ef04 a6be
000001a0: 6679 883e 9127 283d e71c f33a a6ce 2740
000001b0: 8c03 e63d 6b13 b2bb c30a 3fbf de8a 3c3d
000001c0: befb 64be e706 7b3c 1052 803d 8b4c 713e
000001d0: 4455 823e 5e6d 883d 20a7 c9be 941e b83c
000001e0: 9003 1fbd acd7 d8bd 0a40 563e 30af 393f
000001f0: f5e0 0f3e f313 03be 528b 5dbe 9317 323d
00000200: 8cb0 e03c cc96 21bf 396a 473e 138c b03c
00000210: 9dc7 853e 6970 1d3e eebd 01bd c6ad d73e
00000220: 9dde 32bd 3436 26bd ef61 86bd 66fa 943e
00000230: a6ce c4be 2420 563f 0d49 ecbd cc2f 06be
00000240: b3cb 3c3d 7a4c 19bd ee6e 413d eefe 9cbb
00000250: 1e36 2d3d 47ca 4ebd 8377 1e3d 7c2f 293e
00000260: f6aa 033d 06ca 093d 9cc3 18bd 07a8 c03e
00000270: cd35 96bd 7f8c 4c3d ca1c 7b3e 913c 623e
00000280: a2d0 a53e de36 dcbe 65bc 52be 2d2c 3bbc
00000290: 9e2e e6bb 5c84 633e fc72 843e 1fbd 41be
000002a0: 1142 afbd f787 a0bd 594d 0b3e 870e 063c
000002b0: 13cc ab3c 3998 093d 68e1 c7bd 5ab7 92bb
000002c0: d9e9 883e b5b7 503d 5cd1 16bb 22a2 b6bb
000002d0: 0861 e43d 093c 3a3e 8397 5b3e 49d2 bc3e
000002e0: b6ab 403c 4e2a 2e3d ed5e dbbb f69b 69be
000002f0: c546 61be 634b 36be 9167 963e 31a0 ddbb
00000300: 6bd2 aa3c 24c2 edbe 461d 40be c01b 1a3e
00000310: f179 ec3d 6b53 cebd 1be9 093b 772d 9bbe
00000320: 4477 50be 40dc 9b3d 5b74 a93d f3a5 53bc
00000330: 78f4 283e 2a10 483e 23d3 ff3c 27e2 e43c
00000340: 070b 483e 51a6 a93e e323 463f b695 0fbd
00000350: 7f1d 0b3e f8c2 fcbb 4b1c 993d 09e9 d53d
00000360: a640 90be e069 103e 930f 4bbe 9805 c5bc
00000370: b3c3 ed3c 0678 53bf 1ca2 ecbd a142 2a3e
00000380: e554 283e 9c89 a23d af2c 0bbc 1f1d 223e
00000390: 5fea ecbc 410b 70bd 81e3 023e 2f8a cfbd
000003a0: 874b fabd 1e08 0d3d d9bd 063d c60c 77be
000003b0: 32eb d13e 0e9f c9be ffec 96bc 0558 09bc
000003c0: 0d35 fabd 3deb ed3d 9fea 853e a24b 0ebd
000003d0: 5ef8 d23e 0219 493e d82d dd3e 90ca 23be
000003e0: dd74 873c f0bd cabe 2ffc 283e 0678 21be
000003f0: 9fef f63c ecf9 57be bdc2 8c3e 0109 d53c

bias f4 [3]
-1.2367897 -4.175053 -1.452124
00000000: 204f 9ebf 099a 85c0 33df b9bf

weight f4 [3, 256]
0.5472924 0.015534286 0.098078996 0.055781014 -0.022542106 -0.014830719 0.09383276 0.1293418
0.36634478 0.243841 0.014859188 0.09712936 -0.11267937 -0.005066336 0.1351291 0.11340189
0.17230931 -0.026608376 0.28939304 0.20737496 0.3158251 0.07012162 0.1670067 0.07041662
0.2435435 0.15972973 0.47868937 0.19046004 0.07432607 -0.007566465 -0.1767833 0.0005872048
0.020986045 0.6436528 0.058368795 0.3207851 0.033873945 0.1447289 0.24014862 0.27195275
0.072051845 0.103931166 0.046249893 0.14091858 -0.04831741 0.6954732 0.4310872 0.0013001863
-0.16423357 0.07096372 0.03791624 0.01508709 0.3023345 0.00393155 0.06852285 0.12271731
-0.02866364 0.281385 0.18687585 -0.031181047 0.209404 0.053729955 0.21430576 0.4740949
0.02594059 0.029026454 0.41796216 0.10430966 0.10049406 0.0017971667 0.6452724 0.177056
0.43988588 0.17171179 0.54091424 0.26006258 0.09800789 -0.09623389 -0.03360785 0.36027914
0.15640147 -0.02695336 0.107776806 0.3609962 0.14231345 0.016550088 0.07003825 0.2770117
0.13221215 0.070832714 0.15040466 0.01996711 0.010947597 0.2279573 -0.010966941 0.061619665
-0.071286865 -0.043766953 0.53668857 0.0992485 0.026948752 0.711029 -0.12221049 0.12169179
0.0024351187 0.08960451 0.02610647 0.93293446 0.005550027 -0.11072385 0.35613537 -0.0241352
0.14412493 0.011377657 0.15870722 -0.013417612 0.29899177 0.022011839 0.309279 0.013248021
0.5829087 0.31812158 0.110111795 -0.118032776 0.008316005 0.16766706 0.22453292 0.3934576
0.067331865 0.30312124 -0.042478476 -0.038307115 0.12679195 0.25244758 -0.027625011 0.17858393
0.02817233 0.034744926 0.01456791 0.48748595 0.37674767 0.19057997 0.21648844 0.52786726
0.12362519 -0.046159532 0.09440163 0.0909131 0.20145622 -0.09391913 0.19150278 0.22689998
-0.026098678 0.00270359 0.038990203 0.073701166 -0.03940428 0.01653003 0.029591406 0.43566853
0.26162484 0.2201553 0.042661842 0.07450554 0.22884482 0.3532461 0.081547014 0.038784765
0.045706008 -0.112494215 0.24383202 -0.012544986 -0.049946856 0.083076954 0.1877 0.11138024
-0.02606354 0.061057217 -0.0032314996 0.022897508 0.34915346 -0.1891945 0.3090466 0.39142555
-0.037899505 -0.010945146 0.018301886 0.2303313 0.4077108 0.2612226 -0.016274063 0.028484222
-0.02964447 0.5975481 0.3847405 0.31262422 0.39175555 -0.056383174 -0.032767687 0.5500556
0.9047685 0.4111524 -0.03299878 0.015769815 0.14233075 0.02245002 0.21204807 -0.0017712945
0.08671106 -0.17260924 0.55180407 0.02736952 0.16456547 0.18878497 0.08342371 0.06817951
-0.016895384 0.40035182 0.2413573 0.041356836 0.017312711 0.43231487 0.42618686 0.07989093
0.21765403 0.4374929 0.09000203 0.19785662 0.048833285 -0.07942843 -0.004600272 0.1439713
0.23017271 -0.19720854 -0.042685572 0.48408866 -0.019191626 0.40664548 0.04315266 0.02677686
0.09560753 -0.16364563 0.34273025 0.09005528 0.31552285 0.3679315 -0.036141578 0.0041783024
0.080817506 0.20196861 0.11327127 0.19620612 0.16289425 0.41646698 -0.08584128 -0.027951198
00000000: 5b1b 0c3f 8583 7e3c a4dd c83d a27a 643d
00000010: 39aa b8bc 8bfc 72bc 642b c03d 2d72 043e
00000020: 8b91 bb3e 75b1 793e f473 733c c2eb c63d
00000030: 71c4 e6bd 8203 a6bb 485f 0a3e 403f e83d
00000040: da71 303e cff9 d9bc 532b 943e 1a5a 543e
00000050: d4b3 a13e ed9b 8f3d ce03 2b3e 9736 903d
00000060: 7863 793e 3190 233e c616 f53e f507 433e
00000070: 4438 983d 1cf0 f7bb ae06 35be a6ee 193a
00000080: edea ab3c 6ec6 243f 1e14 6f3d f23d a43e
00000090: 68bf 0a3d d033 143e 85e9 753e 643d 8b3e
000000a0: eb8f 933d ddd9 d43d 8770 3d3d f64c 103e
000000b0: 7ae8 45bd 880a 323f 76b7 dc3e 036b aa3a
000000c0: d82c 28be 6d55 913d 0f4e 1b3d d82f 773c
000000d0: 96cb 9a3e 3bd4 803b b555 8c3d 3753 fb3d
000000e0: 03d0 eabc b211 903e 625c 3f3e 656f ffbc
000000f0: 016e 563e f113 5c3d f872 5b3e 91bc f23e
00000100: 5c81 d43c e3c8 ed3c 23ff d53e 4ea0 d53d
00000110: d4cf cd3d e88e eb3a 9230 253f 2b4e 353e
00000120: b938 e13e 37d5 2f3e 5b79 0a3f ec26 853e
00000130: 5cb8 c83d 4616 c5bd 63a8 09bd 8276 b83e
00000140: b527 203e 4bcd dcbc 16ba dc3d 7ed4 b83e
00000150: 9eba 113e 0d94 873c 3770 8f3d 7ad4 8d3e
00000160: 9f62 073e be10 913d ae03 1a3e 1192 a33c
00000170: 8d5d 333c a36d 693e afae 33bc e764 7c3d
00000180: d9fe 91bd fa44 33bd 6c64 093f cc42 cb3d
00000190: a1c3 dc3c ff05 363f 7e49 fabd 8c39 f93d
000001a0: 8396 1f3b 9282 b73d 3cdd d53c cbd4 6e3f
000001b0: 00dd b53b 30c3 e2bd 6057 b63e 2fb7 c5bc
000001c0: 7c95 133e 5a69 3a3c 2584 223e 8bd5 5bbc
000001d0: 7315 993e 2c52 b43c d159 9e3e 3a0e 593c
000001e0: 8139 153f d5e0 a23e 4b82 e13d 2bbb f1bd
000001f0: da3f 083c eab0 2b3e f5eb 653e 4673 c93e
00000200: 4ae5 893d b532 9b3e e9fd 2dbd ece7 1cbd
00000210: c0d5 013e cf40 813e d94d e2bc b5de 363e
00000220: a9c9 e63c b250 0e3d 3eae 6e3c c297 f93e
00000230: 12e5 c03e 6527 433e 25af 5d3e 4f22 073f
00000240: 342f fd3d c711 3dbd a455 c13d a630 ba3d
00000250: 8a4a 4e3e ac58 c0bd 4e19 443e 7858 683e
00000260: e5cc d5bc b72e 313b 31b4 1f3d a3f0 963d
00000270: 6266 21bd fc69 873c ad69 f23c f20f df3e
00000280: b1f3 853e 6470 613e 2fbe 2e3d 5c96 983d
00000290: 4c56 6a3e acdc b43e 1f02 a73d c6dc 1e3d
000002a0: 3936 3b3d 5e63 e6bd 1aaf 793e 7c89 4dbc
000002b0: 1395 4cbd 4024 aa3d 6e34 403e 531b e43d
000002c0: 3483 d5bc 2217 7a3d 91c7 53bb 8e93 bb3c
000002d0: 3ec4 b23e 34bc 41be 5b3b 9e3e ee68 c83e
000002e0: 833c 1bbd 4553 33bc d6ed 953c f8db 6b3e
000002f0: 78bf d03e f8be 853e 2f51 85bc be57 e93c
00000300: f6d8 f2bc eaf8 183f b5fc c43e 4810 a03e
00000310: 2f94 c83e 0bf2 66bd 6937 06bd 72d0 0c3f
00000320: e99e 673f 9182 d23e bb29 07bd b32f 813c
00000330: 27bf 113e 1be9 b73c 2123 593e c82a e8ba
00000340: 9195 b13d 7ac0 30be 0843 0d3f 0b36 e03c
00000350: da83 283e d950 413e 0dda aa3d b3a1 8b3d
00000360: 3068 8abc eafa cc3e 5e26 773e c965 293d
00000370: 63d3 8d3c 6058 dd3e 2a35 da3e db9d a33d
00000380: b3e0 5e3e 12ff df3e fc52 b83d ed9a 4a3e
00000390: 6905 483d 5fab a2bd e1bd 96bb 366d 133e
000003a0: 65b2 6b3e 09f1 49be 11d7 2ebd 78da f73e
000003b0: c237 9dbc d633 d03e d8c0 303d 255b db3c
000003c0: e1cd c33d b892 27be 577a af3e e76e b83d
000003d0: 368c a13e 8461 bc3e 3109 14bd 24ea 883b
000003e0: a683 a53d dcd0 4e3e c5fa e73d 42ea 483e
000003f0: c0cd 263e 293b d53e 8ecd afbd e9f9 e4bc

bias f4 [3]
-4.958736 -2.6325521 -2.5492353
00000000: f7ad 9ec0 bc7b 28c0 ac26 23c0

weight f4 [256, 18]
12.51682 0.13964702 2.8371572 5.52964 -0.112811744 4.1716375 0.12201409 1.2641819
-6.085627 -1.3899388 -26.691544 -1.3291999 -3.7310138 3.458304 5.2811885 -7.317713
-1.8146108 1.6981457 -0.3321532 0.17505492 -0.7931422 -0.21626477 -0.05530861 0.60490435
-0.044758543 0.24594751 -0.17428759 0.48073635 -0.3539089 0.6903321 -0.107509755 0.11584682
-0.30376065 0.00010983783 -0.20290737 -0.13007161 0.67798066 -0.15221599 -0.32775456 -0.06700451
-0.1941885 0.5689432 0.04104404 0.9421926 -0.5664607 -0.117009364 -0.5533305 0.19552448
-0.029182594 0.53264314 -0.121241786 0.45065334 0.24285652 -0.004898332 3.4415324 0.20817067
-6.766327 7.3674006 0.20010717 -1.1037496 0.19215621 2.9638524 0.6468252 0.77240616
-3.5911639 -1.9253807 -3.8323512 -1.9556199 -6.163191 -0.30239198 -1.5201911 -0.82010853
1.7364774 -0.13687515 -0.37410748 -0.41311505 -0.008461848 0.49186006 0.13407664 0.86552066
-0.6807259 0.061886914 0.2874659 0.36685392 -0.5158841 0.3037562 -0.2147271 -0.12261042
-0.071808115 0.121607445 -1.0036507 0.22502907 -0.30520085 -1.2392702 -0.20382763 -0.525035
0.18488766 2.4964073 -2.350324 0.2964441 0.23434716 2.3207974 0.02317359 2.6331222
-1.4200295 0.6909665 0.14087552 1.0117317 -17.886377 -0.10292494 -10.00941 11.942589
-0.23217928 -0.87815565 -0.12196357 -1.2724893 7.0579314 -2.0972905 -2.9617538 -3.427838
-7.2906265 -1.957429 1.4958009 1.045616 2.7543516 0.861959 1.269832 -0.11708889
-0.51955104 -0.6724077 0.04168074 0.7257206 -0.12645039 0.80595976 0.18169108 0.6244912
-0.80142945 0.7802765 -0.006953435 -0.20538832 -0.47771385 0.20920801 -0.27059987 0.055223223
0.16705859 0.1873082 -0.6240217 -0.18682306 0.112598166 0.45462355 -0.07118693 0.13161764
-0.40554738 0.06569875 0.4157948 0.14310588 0.21663336 0.09672195 -0.07264886 0.4177452
0.0022817636 0.09654191 1.0448289 0.11454137 -0.8325842 -0.7632956 -0.07237314 1.9429351
0.1500283 -0.77917886 -1.3907518 0.2790465 -0.6642696 0.25059527 -0.3026683 0.29074174
-0.30657092 0.27727044 -0.26134628 0.04996396 20.435827 0.063486144 11.283153 21.64731
0.015466645 -1.0734915 0.0955493 4.533309 -16.879778 -5.1527157 -10.813728 -0.72108495
-7.145493 -5.996315 -2.3890758 5.550833 -1.3599342 -4.008536 -4.163108 -0.15457264
12.009871 -13.35223 0.026475593 -15.919326 -0.2026375 -11.147993 9.687226 -20.144714
18.147413 -9.1364565 6.556543 8.381222 7.3229237 -9.2215 -2.3743625 1.3009332
1.3763239 0.13261212 0.42420864 -0.8690015 0.17221041 0.46200538 0.048523143 1.4941182
-0.76182896 3.1372466 -0.09639571 3.8705497 1.3870987 1.0810394 0.12582706 -0.6390603
-0.94140154 -0.9418085 0.8934927 0.09832348 -0.35319614 -1.1570818 0.09624909 1.0899843
0.17161708 0.4585559 -0.9506064 0.6757231 -0.22768605 0.92169315 0.042134326 0.029728472
-0.41981703 0.124465235 -0.22207996 0.22345118 27.67496 -0.21781957 9.522791 -0.66398823
00000000: e544 4841 a1ff 0e3e fc93 3540 d0f2 b040
00000010: d809 e7bd 0e7e 8540 86e2 f93d b6d0 a13f
00000020: 75bd c2c0 84e9 b1bf 4888 d5c1 3923 aabf
00000030: eec8 6ec0 da54 5d40 7fff a840 b42a eac0
00000040: 2b45 e8bf d75c d93f fc0f aabe 9941 333e
00000050: 5e0b 4bbf 8374 5dbe 488b 62bd 03db 1a3f
00000060: bc54 37bd aad9 7b3e 7278 32be 1323 f63e
00000070: 8c33 b5be 9bb9 303f 132e dcbd 1941 ed3d
00000080: 8486 9bbe bc58 e638 f3c6 4fbe 7e31 05be
00000090: 2490 2d3f 82de 1bbe 72cf a7be a939 89bd
000000a0: 5ad9 46be 43a6 113f cc1d 283d 8933 713f
000000b0: 9203 11bf 9ba2 efbd 11a7 0dbf 9237 483e
000000c0: 5610 efbc 4d5b 083f 9d4d f8bd 09bc e63e
000000d0: 61af 783e 3082 a0bb 1142 5c40 b12a 553e
000000e0: c085 d8c0 bfc1 eb40 e5e8 4c3e ab47 8dbf
000000f0: 99c4 443e c2af 3d40 5696 253f 69bc 453f
00000100: a1d5 65c0 e072 f6bf 3e45 75c0 c151 fabf
00000110: dc38 c5c0 1fd3 9abe 9f95 c2bf a2f2 51bf
00000120: e444 de3f 0029 0cbe 048b bfbe d183 d3be
00000130: 90a3 0abc 15d5 fb3e 634b 093e c392 5d3f
00000140: 0d44 2ebf 227d 7d3d bb2e 933e 47d4 bb3e
00000150: fb10 04bf ef85 9b3e 6ce1 5bbe 2c1b fbbd
00000160: 2210 93bd 530d f93d a077 80bf 056e 663e
00000170: 4943 9cbe 68a0 9ebf 31b8 50be b268 06bf
00000180: 3153 3d3e 23c5 1f40 b56b 16c0 85c7 973e
00000190: b4f8 6f3e f287 1440 8ad6 bd3c 1385 2840
000001a0: 87c3 b5bf 2ee3 303f ac41 103e 6d80 813f
000001b0: 4d17 8fc1 50ca d2bd 8b26 20c1 d814 3f41
000001c0: 68c0 6dbe cfce 60bf 09c8 f9bd eee0 a2bf
000001d0: 93da e140 023a 06c0 608d 3dc0 b361 5bc0
000001e0: d04c e9c0 098d fabf 6776 bf3f bfd6 853f
000001f0: 4c47 3040 58a9 5c3f db89 a23f 4dcc efbd
00000200: 4c01 05bf e922 2cbf 6cb9 2a3d d3c8 393f
00000210: 367c 01be 6153 4e3f 3a0d 3a3e a8de 1f3f
00000220: 7b2a 4dbf 33c0 473f a4d9 e3bb 5151 52be
00000230: e996 f4be a03a 563e 118c 8abe bf31 623d
00000240: 6811 2b3e b9cd 3f3e e3bf 1fbf 8b4e 3fbe
00000250: de99 e63d 6bc4 e83e 74ca 91bd c6c6 063e
00000260: e8a3 cfbe 118d 863d 0ee3 d43e 598a 123e
00000270: 23d5 5d3e 2816 c63d edc8 94bd b3e2 d53e
00000280: a489 153b c4b7 c53d f4bc 853f aa94 ea3d
00000290: 3d24 55bf 5767 43bf 5e38 94bd 19b2 f83f
000002a0: 05a1 193e 4478 47bf 2804 b2bf 2fdf 8e3e
000002b0: 930d 2abf 064e 803e 57f7 9abe 1adc 943e
000002c0: ddf6 9cbe 64f6 8d3e 2ecf 85be 02a7 4c3d
000002d0: 937c a341 0605 823d cb87 3441 b12d ad41
000002e0: d067 7d3c 2b68 89bf 5aaf c33d de10 9140
000002f0: c909 87c1 0ce3 a4c0 0805 2dc1 0699 38bf
00000300: e1a7 e4c0 d0e1 bfc0 9ee6 18c0 6da0 b140
00000310: 5312 aebf ed45 80c0 2e38 85c0 4a48 1ebe
00000320: 6e28 4041 bca2 55c1 58e3 d83c 8fb5 7ec1
00000330: 3480 4fbe 2e5e 32c1 e1fe 1a41 6028 a1c1
00000340: e72d 9141 ed2e 12c1 33cf d140 7c19 0641
00000350: 6455 ea40 448b 13c1 8ef5 17c0 fb84 a63f
00000360: 622b b03f 79cb 073e e031 d93e e276 5ebf
00000370: ed57 303e f88b ec3e 34c0 463d 443f bf3f
00000380: 3907 43bf a6c8 4840 1d6b c5bd 16b7 7740
00000390: 738c b13f 805f 8a3f cfd8 003e 7599 23bf
000003a0: b1ff 70bf 5d1a 71bf f0bb 643f d25d c93d
000003b0: 20d6 b4be 421b 94bf 3e1e c53d 9b84 8b3f
000003c0: 63bc 2f3e d7c7 ea3e f15a 73bf 30fc 2c3f
000003d0: 8826 69be 15f4 6b3f 0b95 2c3d 2089 f33c
000003e0: 42f2 d6be a1e7 fe3d ee68 63be 63d0 643e
000003f0: 5166 dd41 180c 5fbe 5a5d 1841 22fb 29bf

bias f4 [256]
2.6456752 -0.49454474 -0.5604779 -6.98607 -0.4362166 -0.5660559 -10.034829 -0.6481253
-0.5423389 -1.0154561 11.632261 12.014512 0.5478451 -0.43526983 9.251036 1.3922346
35.893433 -2.5145404 7.2431936 9.226578 19.166151 -1.1214347 -0.5437174 0.13419947
4.1041555 -0.3709021 14.245872 16.565924 -0.17547363 -0.37182063 23.334587 -0.53274494
-0.22196603 -1.168911 -0.42610666 -0.6050543 12.92037 4.5880313 -0.5683654 -0.0063114334
18.799782 -0.45393717 -0.75479543 5.4105077 3.1248138 1.8142263 -2.7274656 -0.29161733
15.469683 -0.55350596 -0.06579644 -0.08347362 -0.5437001 19.324167 -0.20180717 0.06814462
2.1692631 18.551668 5.1919346 21.172438 29.124947 0.004196748 -0.4020726 -0.41968286
-1.2855449 -1.2640163 -0.43029776 0.090685755 -0.7722788 -0.35547188 2.666698 -0.7983029
38.52283 13.027969 -2.0044672 5.7763143 35.087605 -0.74044687 -0.47490755 -0.50759244
-0.36572385 32.499195 13.249447 -6.5197916 0.29216033 -0.2829341 -0.7961122 -0.8426817
-0.2941204 -0.533035 10.762447 -0.3924697 -0.5614819 1.3440304 -0.6168237 -0.3026975
17.105053 -0.16843712 -0.91256905 -0.7605487 -0.29884645 18.882463 21.524305 -1.9418253
6.231237 -1.0279171 0.68427557 -0.47413075 -0.37636188 -0.3829905 11.634011 14.120258
-0.3721151 3.1667051 41.30868 4.6919317 10.886613 13.6925125 -12.925436 0.3499272
-0.53529966 -0.41431853 3.2623475 -0.45288697 -0.21558262 40.345997 18.21782 -0.24867378
16.224722 -0.34005916 21.428934 -0.009213862 5.55957 -0.43555865 13.140209 25.62208
-0.35849077 -1.2361338 -0.45317265 -0.7698707 17.914377 24.022064 -0.52804726 2.1563044
1.5860093 -0.62819445 16.450752 -9.602284 23.880863 -2.2234225 -0.55131066 28.55012
0.89841026 -9.806262 -0.5102243 0.11771191 -0.19343899 0.169684 12.179198 20.154074
-1.9779382 3.6781738 7.7341065 1.5486639 -0.08669008 -0.09563176 -0.3465419 0.37860876
-0.35081452 -3.7002668 -0.7045467 15.849217 -3.4691079 10.844046 -0.40243015 -0.14303774
6.094483 2.8181634 -0.45332387 -3.0459993 -0.8403274 0.98050845 4.9862924 12.194428
-0.41200405 9.706424 11.205567 25.96015 9.432657 5.335755 32.278973 -0.4116768
1.0675285 -0.35334426 39.65981 14.54787 -0.39890328 -3.4186974 -0.6859893 16.02589
7.89233 22.296272 -1.4751058 6.545088 -0.86852103 -0.8229989 22.536442 -4.203933
-0.28720835 9.212059 -0.3642272 19.041332 1.9683001 0.7873948 4.8942156 -2.7621303
-0.8491904 -0.57749754 -0.15167421 -0.5526977 16.83154 10.582371 -0.39543372 19.149822
-0.50579906 -5.3579173 -0.54681915 19.005335 14.98369 -0.44263765 13.706267 -2.8903453
9.459837 -0.4965417 0.3631429 -0.26613492 -0.4167254 26.022692 20.270939 -0.42529503
-8.910499 -0.8632332 3.096661 4.3587065 -6.067213 2.1321535 5.2103233 -0.48723418
-1.497904 -0.8193972 0.51788586 -11.080641 -0.07283306 -0.34078214 -0.7345444 -0.5249405
00000000: be52 2940 f834 fdbe 7b7b 0fbf e38d dfc0
00000010: c857 dfbe 0ae9 10bf a98e 20c1 8aeb 25bf
00000020: b9d6 0abf 77fa 81bf be1d 3a41 713b 4041
00000030: 943f 0c3f b0db debe 3e04 1441 be34 b23f
00000040: e092 0f42 3bee 20c0 3ec8 e740 10a0 1341
00000050: 4754 9941 2c8b 8fbf 1031 0bbf 966b 093e
00000060: 3e55 8340 e1e6 bdbe 17ef 6341 0387 8441
00000070: 5caf 33be 465f bebe 3cad ba41 f961 08bf
00000080: 104b 63be e09e 95bf a72a dabe d7e4 1abf
00000090: d6b9 4e41 27d1 9240 6580 11bf 24d0 cebb
000000a0: f465 9641 746a e8be 463a 41bf e122 ad40
000000b0: f3fc 4740 9138 e83f cc8e 2ec0 de4e 95be
000000c0: d283 7741 91b2 0dbf 49c0 86bd 38f4 aabd
000000d0: ee2f 0bbf e597 9a41 8aa6 4ebe 688f 8b3d
000000e0: 35d5 0a40 d169 9441 5424 a640 2761 a941
000000f0: e4ff e841 e084 893b 76dc cdbe ace0 d6be
00000100: bc8c a4bf 49cb a1bf fd4f dcbe 74b9 b93d
00000110: 10b4 45bf 6900 b6be 2eab 2a40 945d 4cbf
00000120: 6117 1a42 9072 5041 3149 00c0 91d7 b840
00000130: b559 0c42 ed8d 3dbf 1527 f3be 94f1 01bf
00000140: 2840 bbbe 2dff 0142 bcfd 5341 22a2 d0c0
00000150: 0a96 953e bddc 90be 02ce 4bbf fdb9 57bf
00000160: f396 96be fb74 08bf fc32 2c41 caf1 c8be
00000170: 47bd 0fbf 3009 ac3f 28e8 1dbf 2bfb 9abe
00000180: 26d7 8841 c87a 2cbe 209e 69bf 52b3 42bf
00000190: 6702 99be 490f 9741 c731 ac41 bb8d f8bf
000001a0: 4b66 c740 ca92 83bf af2c 2f3f 44c1 f2be
000001b0: 81b2 c0be 5517 c4be e924 3a41 94ec 6141
000001c0: df85 bebe 4cab 4a40 173c 2542 4e24 9640
000001d0: 912f 2e41 8814 5b41 96ce 4ec1 a829 b33e
000001e0: 6609 09bf 8f21 d4be 4dca 5040 cde0 e7be
000001f0: b1c1 5cbe 4d62 2142 18be 9141 57a4 7ebe
00000200: 3bcc 8141 3c1c aebe 756e ab41 bdf5 16bc
00000210: ffe7 b140 8b01 dfbe 4c3e 5241 05fa cc41
00000220: 1a8c b7be a239 9ebf 3f06 e8be 3f16 45bf
00000230: a550 8f41 302d c041 1b2e 07bf e400 0a40
00000240: 5a02 cb3f 5ad1 20bf 249b 8341 f5a2 19c1
00000250: 020c bf41 8e4c 0ec0 b222 0dbf a566 e441
00000260: 37fe 653f 73e6 1cc1 0f9e 02bf f112 f13d
00000270: df14 46be a4c1 2d3e ffdd 4241 8b3b a141
00000280: 142d fdbf 3367 6b40 cd7d f740 9e3a c63f
00000290: 928a b1bd 96da c3bd f16d b1be 02d9 c13e
000002a0: f69d b3be 2cd1 6cc0 2c5d 34bf 6596 7d41
000002b0: dd05 5ec0 3681 2d41 530b cebe 7c78 12be
000002c0: 0106 c340 ca5c 3440 111a e8be a7f1 42c0
000002d0: b21f 57bf 9a02 7b3f b58f 9f40 611c 4341
000002e0: 32f2 d2be 834d 1b41 014a 3341 63ae cf41
000002f0: 2aec 1641 81be aa40 ab1d 0142 4dc7 d2be
00000300: c6a4 883f 8ae9 b4be a5a3 1e42 13c4 6841
00000310: 0d3d ccbe f0cb 5ac0 ff9c 2fbf 0635 8041
00000320: f88d fc40 c45e b241 44d0 bcbf 5c71 d140
00000330: 6557 5ebf 0eb0 52bf a24a b441 9e86 86c0
00000340: f90c 93be 9864 1341 fd7b babe a654 9841
00000350: 42f1 fb3f b592 493f 6a9d 9c40 bec6 30c0
00000360: 8b64 59bf e1d6 13bf 7c50 1bbe 997d 0dbf
00000370: fea6 8641 6451 2941 4a76 cabe d632 9941
00000380: 0c7c 01bf 0f74 abc0 57fc 0bbf ed0a 9841
00000390: 32bd 6f41 67a1 e2be df4c 5b41 6bfb 38c0
000003a0: 7e5b 1741 b73a febe deed b93e d642 88be
000003b0: 085d d5be 792e d041 e22a a241 45c0 d9be
000003c0: 6791 0ec1 dafc 5cbf b22f 4640 867a 8b40
000003d0: 9c26 c2c0 3475 0840 f8ba a640 c276 f9be
000003e0: 51bb bfbf 04c4 51bf 2b94 043f 4e4a 31c1
000003f0: 8029 95bd ff7a aebe 1a0b 3cbf 8062 06bf
