data/HopperPyBulletEnv-v0_sac_grad_False/HopperPyBulletEnv-v0_sac_grad_False_s1/pyt_save/model.pt (torch_old, 859910 bytes, 18 tensors)

weight f4 [256, 15]
0	0xbed3f467	-0.41397402
1	0xbde965a0	-0.113963366
2	0xbfb72e08	-1.4310923
3	0x3fa9558f	1.3229235
4	0xbe78e96e	-0.24307796
5	0x3e92c1ef	0.28663585
6	0xbd599250	-0.05311805
7	0xbf8e6154	-1.1123452
8	0x3f8bc8c5	1.0920645
9	0x3f37c5f4	0.7178643
10	0xbeaa07b5	-0.33209005
11	0x3e5f5f84	0.2181378
12	0xbf40352d	-0.7508114
13	0xbfad8fed	-1.3559548
14	0xbe0cdd58	-0.13756311
15	0x3f696db1	0.91183
16	0x3d194a48	0.037424356
17	0x3f3beb3a	0.734058
18	0xbf391239	-0.7229343
19	0x3da48dfc	0.08034894
20	0x3fecf7c5	1.8513113
21	0xbe1faf4c	-0.15594214
22	0x3f330e57	0.69943756
23	0xbee32b81	-0.44369128
24	0x3f716db1	0.94308
25	0xbebd0f0b	-0.3692554
26	0x3f7953db	0.9739358
27	0xbf7fb102	-0.9987947
28	0xbed62f14	-0.41832793
29	0x3dac3f99	0.08410568
30	0x3f9b3e72	1.2128432
31	0x3e7acb42	0.24491599
32	0xbed434d2	-0.4144655
33	0xbeeb177f	-0.45916364
34	0xbe7b63be	-0.24549767
35	0xbd835981	-0.06413556
36	0x3e682b3e	0.22672746
37	0x3ed28755	0.41118875
38	0xbebe33b6	-0.37148827
39	0xbcffc270	-0.031220645
40	0xbdb6e98e	-0.08931266
41	0x3e11060b	0.14162461
42	0xbf319a55	-0.69376117
43	0x3e174e7f	0.14776038
44	0xbf544222	-0.8291341
45	0xbf363bc1	-0.7118493
46	0xbe0c58b7	-0.13705717
47	0xbdd9eb06	-0.1064053
48	0xbf2e1e1e	-0.68014705
49	0xbce7e518	-0.028307483
50	0x3da0ac9b	0.07845422
51	0xbdfc1e38	-0.12310451
52	0x3f86270e	1.0480669
53	0xbfa72c4d	-1.3060395
54	0x3e342792	0.1759322
55	0x3e35a10a	0.17737213
56	0x3e1b9399	0.15193023
57	0x3dd40acc	0.10353622
58	0xbd70a323	-0.05874933
59	0x3e4c20fe	0.1993446
60	0xc00ccfcb	-2.2001827
61	0x3e2bbc9e	0.1677117
62	0x3eda3a8a	0.42622787
63	0xbdf15fc0	-0.11785841
64	0xbe1435a4	-0.14473587
65	0xbdfc98df	-0.12333845
66	0xbba3e600	-0.0050017834
67	0x3fabe885	1.3430334
68	0xbf960985	-1.1721655
69	0x3f32e487	0.69879955
70	0x3f016c2f	0.505557
71	0x3f48c2a5	0.78422004
72	0x3f0f3dd6	0.5595373
73	0x3e3fad0d	0.18718357
74	0x3f65147d	0.8948439
75	0x3feb6eea	1.8393223
76	0x3dc044a8	0.09388095
77	0xbe4a5a66	-0.19761047
78	0x3f5b2ed1	0.8561831
79	0x3e05157e	0.1299648
80	0xbd5a1bce	-0.053249173
81	0xbe477d28	-0.19481337
82	0xbe7b33de	-0.24531505
83	0xbf14acd7	-0.5807623
84	0xbfe17fea	-1.7617161
85	0xbf553a3c	-0.83291984
86	0xbfa56ef5	-1.2924486
87	0xbcdb0b49	-0.02673878
88	0x3eab5fc8	0.33471513
89	0xbe5bf94c	-0.21481818
90	0x401a8647	2.4144456
91	0xbe464387	-0.19361697
92	0xbf19b758	-0.60045385
93	0x3fa5453d	1.2911755
94	0xbe310745	-0.1728793
95	0xbe393c8a	-0.180895
96	0x3db44e10	0.08803952
97	0x3f41590a	0.7552649
98	0xbfb8a7fd	-1.4426266
99	0xbd8979a2	-0.06712653
100	0xbf96ea6f	-1.1790293
101	0xbf15f774	-0.5858071
102	0x3f4887b6	0.7833208
103	0xbe989b9f	-0.2980623
104	0x3f07af8b	0.5300223
105	0xbf5d98fa	-0.8656155
106	0x3e7dca5a	0.24784222
107	0xbe9dd521	-0.30826667
108	0x3ffbbaf4	1.9666429
109	0x3d5b2a10	0.05350691
110	0x3edd155e	0.43180364
111	0x3e457e1c	0.19286388
112	0x3f99a2bb	1.2002786
113	0x3e950fce	0.2911362
114	0x3f6d6df8	0.92745924
115	0x3f2fa45e	0.6861018
116	0x3eef34d7	0.4672
117	0x3db9ba01	0.090686806
118	0x3e8fdd7e	0.28098673
119	0x3e999af1	0.30001023
120	0x3f1889cf	0.5958528
121	0x3d04dcc0	0.032437086
122	0xbeecb5bb	-0.462324
123	0xbf2912d7	-0.6604437
124	0x3e0ce432	0.13758925
125	0x3e3f6b2c	0.18693227
126	0xbe7896c6	-0.24276266
127	0x3f227c07	0.634705
128	0xbecc092c	-0.39850748
129	0x3f008011	0.50195414
130	0xbf55d12d	-0.835223
131	0x3eab073b	0.33403954
132	0xbde3c16b	-0.11120876
133	0xbe6f6a43	-0.2338038
134	0xbe98f93c	-0.2987765
135	0x4057ab52	3.3698316
136	0x3e273c0e	0.16331503
137	0xbf2973eb	-0.661925
138	0xc0235cc9	-2.5525382
139	0xbe5e074c	-0.21682471
140	0xbf52a46f	-0.82282156
141	0xbcf64d68	-0.030066207
142	0x3eaac33a	0.3335207
143	0xbee1466f	-0.4399905
144	0xbd1ef3f2	-0.038806863
145	0xbfb20a98	-1.3909483
146	0x3f53cf26	0.8273796
147	0x3edd6133	0.4323822
148	0x3d791038	0.060806483
149	0x3debc19a	0.11511536
150	0x3ecc0982	0.39851004
151	0x3e812921	0.2522669
152	0xbedd4358	-0.43215442
153	0x3ecbc5b5	0.39799276
154	0xbe798ecc	-0.24370879
155	0xbd397ca5	-0.045284886
156	0xbe1a75fc	-0.1508407
157	0xbc115c1f	-0.008872061
158	0xbd9027be	-0.0703883
159	0xbd23230c	-0.039828345
160	0xbf0654cc	-0.5247314
161	0x3e6427f0	0.2228086
162	0x3db01cb4	0.08599225
163	0x3de08c20	0.10964227
164	0xbf84548e	-1.0338304
165	0x3f03a62a	0.5142542
166	0xbdc081be	-0.09399746
167	0xbed07184	-0.40711606
168	0xbf361938	-0.7113223
169	0xbdf100a0	-0.11767697
170	0x3f0ccc1b	0.5499894
171	0x3de2213c	0.11041495
172	0xbe9b365c	-0.3031491
173	0x3d969153	0.07351937
174	0xbd74e1df	-0.05978572
175	0xbf001a32	-0.5003997
176	0x3de54ad4	0.11195913
177	0x3c339527	0.010960854
178	0x3eb0b124	0.34510148
179	0xbf88421c	-1.0645175
180	0xc05b4da3	-3.4266136
181	0xbcab0058	-0.020874187
182	0xbf196099	-0.5991302
183	0xbd922e02	-0.071376815
184	0xbe2a8830	-0.16653514
185	0xbe0b5058	-0.13604867
186	0xbe64935b	-0.22321837
187	0xbfa6f666	-1.3043945
188	0x3f8ad905	1.0847479
189	0xbe7384a1	-0.23781063
190	0x3ee0582f	0.4381728
191	0xbf2c8555	-0.6739095
192	0xbe177027	-0.14788876
193	0xbedc92c7	-0.43080732
194	0x3e5f6572	0.21816042
195	0x3d28998a	0.04116205
196	0x3df852e0	0.12125182
197	0x3db231a5	0.08700875
198	0xbf8be837	-1.0930241
199	0xbe390f06	-0.18072137
200	0xbfba3f55	-1.4550577
201	0xbe438052	-0.19091919
202	0x3e94212c	0.28931558
203	0xc006f61d	-2.1087716
204	0xbfcd0730	-1.6017818
205	0xbf97920d	-1.1841446
206	0xbe0ca933	-0.1373642
207	0xbe08697c	-0.13321489
208	0x3f81bc1f	1.0135535
209	0xbe119f78	-0.14220989
210	0x3f23bfab	0.6396434
211	0x3da14f74	0.078764826
212	0xbf150652	-0.5821277
213	0x3cfc4b5e	0.030797657
214	0x3e66845e	0.22511432
215	0x3f640ec9	0.8908506
216	0x3e437280	0.19086647
217	0xbc3f6f03	-0.011684182
218	0xbf25a1d5	-0.6470006
219	0x3edf497b	0.4361075
220	0xbea4df8e	-0.3220181
221	0x3e7ea72a	0.24868456
222	0xbeab5207	-0.3346102
223	0xbd3191f7	-0.043352094
224	0xbe18a0fd	-0.14905162
225	0x40687903	3.632386
226	0xbd724afc	-0.059153542
227	0x3fc9b9d8	1.575984
228	0xbf98d3f2	-1.193968
229	0x3e7a0dbe	0.24419305
230	0x3f28427b	0.6572644
231	0xbe4d811f	-0.20068787
232	0x3fc636b4	1.5485444
233	0xc005d1fc	-2.0909414
234	0x3e64f41e	0.22358748
235	0xbfec43cf	-1.8458194
236	0x3ebc132e	0.36733383
237	0xbd5808ca	-0.052742757
238	0xbe2ad1d3	-0.16681604
239	0xbd068d3b	-0.03284953
240	0x3ed4b756	0.41546124
241	0xbcb947e8	-0.022617295
242	0x3f1ed3ac	0.62041736
243	0xbfcc32e3	-1.5953029
244	0xbe0611b1	-0.13092686
245	0xbf4de49d	-0.8042696
246	0xbe788396	-0.24268946
247	0x3eecf31b	0.46279225
248	0x3e130f8a	0.14361396
249	0xbe69d9b7	-0.22836958
250	0xbd5e33f7	-0.054248776
251	0x3cd89fb0	0.026443332
252	0xbf8cce13	-1.1000389
253	0xbf2fb439	-0.6863437
254	0xbe2a1137	-0.1660813
255	0xbee0f386	-0.43935794

bias f4 [256]
0	0xbfc9b34e	-1.5757844
1	0x3f2e03d9	0.6797462
2	0xbef75654	-0.4830805
3	0xbee02c94	-0.4378401
4	0x3e01efb4	0.12689096
5	0xbf083480	-0.5320511
6	0xbf34ac7b	-0.70575684
7	0xbee246eb	-0.4419473
8	0xbf147273	-0.57987136
9	0xbf3a5874	-0.7279122
10	0xbedf248f	-0.4358258
11	0xbf13276d	-0.57482034
12	0xbebd104b	-0.36926493
13	0xbea893e9	-0.32925346
14	0xbf14d185	-0.581322
15	0x3fbf315d	1.493694
16	0x3e82a24d	0.2551445
17	0xbf1ec6fe	-0.6202239
18	0xbf86072a	-1.0470936
19	0xbf1851eb	-0.59499997
20	0xbf16f253	-0.5896351
21	0xbead31da	-0.33827096
22	0xbeddadc3	-0.43296632
23	0xbf185ea8	-0.59519434
24	0xbef122b4	-0.4709679
25	0xbeb884a3	-0.36038694
26	0xbec51aa6	-0.38496894
27	0x3f744b3b	0.9542729
28	0xbfb431e1	-1.4077722
29	0xbeefe798	-0.4685638
30	0xbf0f9d6e	-0.56099594
31	0xbf3df0c5	-0.7419551
32	0xbe5e5ce8	-0.21715128
33	0xbebc9ffd	-0.3684081
34	0xbf541bc5	-0.8285487
35	0xbf1f359e	-0.6219119
36	0xbe93f15c	-0.2889508
37	0x3dce7285	0.100804366
38	0xbec509e0	-0.38484097
39	0x3df36d9a	0.11886139
40	0x3e97ef57	0.2967479
41	0xbe844948	-0.2583716
42	0xbedcc46a	-0.43118602
43	0xbef18d07	-0.47177908
44	0x3ef38efb	0.47570023
45	0xbd2522be	-0.040316336
46	0x3e880ebf	0.2657375
47	0x3eed9b36	0.4640748
48	0xbe978ca4	-0.29599488
49	0xbedee299	-0.43532255
50	0xbdea814b	-0.11450442
51	0xbf5d1b80	-0.86370087
52	0xbf0a0707	-0.5391697
53	0xbf229895	-0.6351407
54	0xbf20d432	-0.62823784
55	0x3f78fe8e	0.9726342
56	0xbf675428	-0.9036279
57	0xbefec77d	-0.49761572
58	0x3f94820f	1.1602191
59	0xbe67a503	-0.2262154
60	0xbf27b8dc	-0.6551645
61	0xbf2001e3	-0.6250288
62	0xbeee41c9	-0.46534565
63	0xbf20d9fd	-0.62832624
64	0xbf123f41	-0.5712777
65	0x3e3c5ed3	0.18395548
66	0xbe47e161	-0.19519569
67	0x3ef15833	0.47137603
68	0x3dc6a395	0.096991695
69	0xbebb72c5	-0.36611
70	0x3c935bf1	0.017988177
71	0xbe937cb1	-0.2880607
72	0xbf86ee36	-1.0541446
73	0xbf45d115	-0.7727216
74	0xbcc05d35	-0.023481945
75	0xbf17542e	-0.59112823
76	0xbf0b67c7	-0.54455227
77	0xbee1ea1f	-0.44123933
78	0x3de7c472	0.11316766
79	0x3e3cdc77	0.18443476
80	0xbf3977d3	-0.7244846
81	0xbfc40f33	-1.5317138
82	0xbea09f65	-0.31371608
83	0xbee78c2b	-0.45224127
84	0xbe8d1b02	-0.27559668
85	0xbea2c6d7	-0.31792328
86	0x3efdb74e	0.49553913
87	0xbed7fcef	-0.4218516
88	0x3d977db8	0.07397026
89	0xbf65cf6d	-0.8976963
90	0x3f436e5a	0.7634026
91	0xbf056360	-0.5210476
92	0xbec358e3	-0.38153753
93	0xbfac6da9	-1.3470966
94	0xbdecbec9	-0.11559827
95	0xbf130fd3	-0.5744602
96	0xbe9cfb42	-0.30660444
97	0x3ec3326d	0.3812441
98	0x3dc20863	0.09474256
99	0xbf53651e	-0.8257617
100	0xbea7571e	-0.32683653
101	0xbf04f7cd	-0.51940614
102	0xbef7f788	-0.4843104
103	0xbf97ec64	-1.1869016
104	0xbea047cc	-0.31304777
105	0xbea6f344	-0.32607472
106	0x3eb379cd	0.35053864
107	0xbe6a58b5	-0.22885402
108	0xbeea86a9	-0.45805863
109	0x3df01202	0.11722185
110	0xbf28b9bb	-0.659084
111	0x3e8825d9	0.26591375
112	0xbf993e1e	-1.1972082
113	0xbf08f485	-0.5349811
114	0xbf6116c7	-0.8792538
115	0x3eb748d2	0.35797745
116	0x3e1f416d	0.15552302
117	0xbe72355c	-0.23653167
118	0xbf0b39af	-0.54384893
119	0xbf0e1866	-0.5550598
120	0xbe8c3a52	-0.27388245
121	0x3ef0dd16	0.47043675
122	0xbf1adf19	-0.6049667
123	0xbe8b052d	-0.27152386
124	0xbeff0421	-0.49807838
125	0x3f59b187	0.8503651
126	0xbe062bb1	-0.13102604
127	0xbec6dc07	-0.38839743
128	0x3dad5e47	0.084652476
129	0xbf82af18	-1.0209684
130	0xbe9de400	-0.30838013
131	0xbeefa03d	-0.4680194
132	0xbfa2b1cf	-1.2710513
133	0xbf2a2b46	-0.6647228
134	0xbeb4ab39	-0.35286883
135	0x3e140b64	0.1445747
136	0xbf0fc1a0	-0.56154823
137	0xbf94975a	-1.1608689
138	0xbd628b40	-0.05530858
139	0xbd526c90	-0.051373065
140	0xbf4e5ce7	-0.8061051
141	0xbf197965	-0.5995086
142	0xbe8cdcbd	-0.2751216
143	0xbeed97d8	-0.4640491
144	0xbeeca123	-0.46216688
145	0xbd4131cf	-0.04716664
146	0xbf158309	-0.5840307
147	0x3f98d94b	1.1941313
148	0xbfc1df58	-1.5146284
149	0xbe3c87a0	-0.18411112
150	0xbe12803f	-0.14306735
151	0xbf089be6	-0.5336288
152	0xbed144e4	-0.40872872
153	0x3ef7d603	0.48405465
154	0xbff79bfe	-1.934448
155	0xbf3c9cac	-0.7367656
156	0x3f12a500	0.5728302
157	0xbf00a3ea	-0.50250113
158	0x3eb79665	0.3585693
159	0xbf4ea7c6	-0.8072475
160	0x3e09894f	0.13431285
161	0xbf540c5a	-0.82831347
162	0xbf5ef06a	-0.8708559
163	0xbf2357e6	-0.63806
164	0xbecab29b	-0.3958939
165	0xbf447b57	-0.767507
166	0xbe229e31	-0.15880658
167	0xbf204b09	-0.62614495
168	0xbf061367	-0.52373356
169	0xbeb8acd5	-0.3606936
170	0xbf046f91	-0.51732737
171	0x3f6eee52	0.933324
172	0xbf027c3d	-0.5097082
173	0xbebbc214	-0.36671507
174	0xbf1f546a	-0.6223818
175	0xbe039000	-0.128479
176	0xbe7dfc6d	-0.24803324
177	0x3ee55e1e	0.44798368
178	0xbf14520d	-0.579377
179	0x3c08780f	0.008329405
180	0xbf7ba1a7	-0.98293537
181	0xbe0e917f	-0.1392269
182	0xbfaef70d	-1.3669144
183	0xbebc7e54	-0.3681513
184	0x3d0f1623	0.03493322
185	0x3d62c981	0.05536795
186	0xbf4d4c47	-0.80194515
187	0xbea7cd6d	-0.32773915
188	0x3d9a6cf1	0.0754031
189	0xbf8a0247	-1.0781945
190	0xbf62c989	-0.8858877
191	0xbedb9fad	-0.4289526
192	0x3f672977	0.90297645
193	0x3d950577	0.07276433
194	0xbf0f5e99	-0.5600372
195	0x3c36a5ba	0.011147911
196	0x3da7f336	0.08200686
197	0xbeb90cb4	-0.36142504
198	0xbf217843	-0.6307413
199	0xbf01b421	-0.5066548
200	0x3e7410a2	0.2383447
201	0xbec898bb	-0.39179024
202	0x3ef535b8	0.47892547
203	0xbea70cc5	-0.3262693
204	0x3d53bcac	0.051693603
205	0x3f4f2315	0.80912906
206	0xbf92b920	-1.1462746
207	0xbeca08fc	-0.3945998
208	0x3d7bff27	0.06152263
209	0xbf878437	-1.0587224
210	0xbfc36526	-1.5265243
211	0xbd9ffc49	-0.078117914
212	0xbe1f8721	-0.15578891
213	0xbf20e671	-0.62851626
214	0xbfab5e07	-1.338807
215	0xbeaf0714	-0.34185088
216	0xbea88afd	-0.3291854
217	0xbe9de46e	-0.3083834
218	0xbeed05ad	-0.46293393
219	0xbf71eac6	-0.9449886
220	0x3efa7779	0.48919275
221	0x3f888fe0	1.0668907
222	0x3f860409	1.0469981
223	0x3e9a8901	0.3018265
224	0x3e011e98	0.12609327
225	0xbe719664	-0.23592526
226	0xbed72ed8	-0.42027926
227	0xbedf435a	-0.43606073
228	0xbe921c85	-0.28537384
229	0xbf124eb4	-0.5715134
230	0xbe671659	-0.22567119
231	0xbe91883d	-0.28424254
232	0xbd386775	-0.04502054
233	0x3f3f8d8c	0.7482536
234	0x3edbb3f4	0.4291073
235	0xbe2e6e97	-0.17034374
236	0x3e979415	0.29605165
237	0xbe90feae	-0.28319305
238	0xbf94083c	-1.1565013
239	0xbf97640c	-1.1827407
240	0x3f08d78b	0.5345389
241	0xbeaccec8	-0.33751512
242	0xbf253971	-0.64540774
243	0x3eee87ba	0.46587926
244	0x3f4e4a7c	0.80582404
245	0xbe47686c	-0.19473428
246	0xbee38d22	-0.44443613
247	0xbd5ef11e	-0.054429166
248	0xbf1521d0	-0.5825472
249	0xbf337ab9	-0.70109135
250	0xbebbaf11	-0.36657003
251	0xbf0e3a75	-0.5555795
252	0xbe6157fa	-0.22006217
253	0x3df36a9c	0.118855685
254	0xbdadfa9e	-0.08495067
255	0xbedd0ae5	-0.43172374

weight f4 [256, 256]
0	0xbae36b5e	-0.0017350724
1	0xbd5ff796	-0.054679476
2	0xbd999bce	-0.075004205
3	0x3d7ba7d4	0.06143935
4	0xbd68e944	-0.056863084
5	0x3d50a9c9	0.05094317
6	0xbce7683d	-0.028247947
7	0x3d25c6a8	0.040472656
8	0xbc3daad8	-0.011576377
9	0xbd2f27bc	-0.042762503
10	0x3c68c36e	0.01420675
11	0xbc89cb4b	-0.01682057
12	0xbd15ff70	-0.036620557
13	0xbc665ad0	-0.014059737
14	0x3ce83dac	0.02834972
15	0xbce6d8cb	-0.028179547
16	0xbda4f84a	-0.0805517
17	0xbd924a1d	-0.07143042
18	0xbc535932	-0.012899684
19	0xbcc5d240	-0.024148107
20	0xbd1da4e9	-0.03848735
21	0xbc8eebec	-0.01744648
22	0x3d2dc28d	0.042421866
23	0x3cfd3d32	0.03091297
24	0xbd738ee9	-0.05946246
25	0x3b876c52	0.004132786
26	0x3b9ce5d9	0.004788142
27	0xbc6942f4	-0.014237154
28	0x3d5c04f4	0.05371566
29	0xbdd0fdd5	-0.102046646
30	0xbcac66d0	-0.021045119
31	0xbb90ab3a	-0.004414943
32	0xbd819915	-0.06328026
33	0xbbc724de	-0.006077393
34	0xbd3b30ef	-0.045700964
35	0x3d0c7452	0.03429062
36	0xbd349560	-0.044087768
37	0xbcd31751	-0.025767954
38	0xbbca5af0	-0.0061753914
39	0x3c7628d1	0.01502438
40	0x3d39f9f7	0.0454044
41	0x3bab4ab4	0.005227411
42	0x3c74c9ea	0.014940718
43	0xbd906fe1	-0.07052589
44	0xbca975c5	-0.02068604
45	0xbd74d14a	-0.059769906
46	0xbc46f42c	-0.012143176
47	0xbd16b29b	-0.036791425
48	0xbdd705e2	-0.10499169
49	0xbdbfd96e	-0.09367643
50	0xbd697cac	-0.057003662
51	0xbd9f3ba2	-0.07775046
52	0xbcc6fbdc	-0.024290018
53	0xbd36c2f8	-0.04461953
54	0x3b9c3eed	0.0047682435
55	0x39e212a8	0.0004311998
56	0xbd40225e	-0.046907775
57	0xbd360fd7	-0.0444487
58	0xbcd7e8cc	-0.026356123
59	0xbd6dba59	-0.058039043
60	0x3a972bc4	0.0011533429
61	0xbcc11ee3	-0.023574298
62	0xbda9f3bc	-0.08298442
63	0xbd087c4f	-0.033321675
64	0xbdcab819	-0.09898395
65	0xbd9b799b	-0.07591554
66	0xbcc3c555	-0.023897806
67	0x3c9c7730	0.019099802
68	0xbc584ea3	-0.013202342
69	0xbbfd0a4d	-0.007722175
70	0xbda21927	-0.07914954
71	0xbdae2668	-0.08503419
72	0xbb54b23c	-0.0032454869
73	0xbd53cdb6	-0.051709853
74	0xbd513c6a	-0.051083006
75	0x3c7d69ca	0.015467117
76	0xbd11da7c	-0.035608754
77	0x3cbb82c8	0.02288951
78	0xbd564b00	-0.05231762
79	0xbcdd4bf3	-0.027013754
80	0x3c1a9810	0.009435669
81	0xbd2fc042	-0.04290796
82	0xbd989112	-0.07449545
83	0xb9e67555	-0.00043956438
84	0x3d631b14	0.055445746
85	0xbca84760	-0.020541847
86	0xbcaaa40d	-0.020830179
87	0x3cbce028	0.023056105
88	0x3c679a94	0.014135975
89	0xbbca90a3	-0.006181793
90	0xbcdfec43	-0.027334338
91	0x3c6244f4	0.013810385
92	0xbd73b69e	-0.05950033
93	0xbbd3bd2d	-0.0064617605
94	0x3ca6a72e	0.02034339
95	0xbd022734	-0.03177567
96	0x3c9cf901	0.019161703
97	0xbda89e63	-0.08233335
98	0xbd5742fd	-0.05255412
99	0xbbeace2d	-0.0071656913
100	0xbcbe73ce	-0.02324858
101	0xbd3ddfa6	-0.046355866
102	0xbcba8190	-0.022766858
103	0x3d1f5254	0.038896874
104	0xbd3fc03b	-0.046814185
105	0xbd2d7d8c	-0.04235606
106	0xbc740392	-0.014893429
107	0xbd36feda	-0.04467664
108	0xbdb945f1	-0.090465434
109	0xbc559df9	-0.013038152
110	0xbc85d1a6	-0.01633532
111	0xbd85f2d4	-0.065404564
112	0xbd3a457d	-0.045476425
113	0xbd06fb92	-0.03295476
114	0xbbf08f1d	-0.007341279
115	0xbd30180e	-0.04299169
116	0x3ce90740	0.02844584
117	0xbda9d99a	-0.08293457
118	0x3d4a5e6f	0.049406465
119	0xbd4f8490	-0.05066353
120	0x3b21d7cd	0.0024695278
121	0x3ccc5afc	0.024945728
122	0xbdb35a08	-0.087574065
123	0xbdae27d3	-0.085036896
124	0x3c72994f	0.014807059
125	0xbd3b81bd	-0.045778025
126	0xbce54858	-0.027988598
127	0xbc011d16	-0.00788047
128	0xbd91762a	-0.07102616
129	0x3cd5bca8	0.026090935
130	0xbd8edc6d	-0.06975637
131	0xbd603896	-0.054741465
132	0x3d2a12e9	0.04152194
133	0x3ae154f4	0.0017191456
134	0xbd2752de	-0.040850513
135	0xbd74e4e8	-0.059788615
136	0x3c5fc304	0.013657335
137	0x3cd3b35a	0.025842357
138	0xbcf6ce00	-0.030127525
139	0x3d0c1593	0.034200262
140	0xbdd7f86e	-0.10545431
141	0x3c61190c	0.013738882
142	0xba02cafe	-0.00049893546
143	0xbd85a0e1	-0.06524826
144	0xbd09cc64	-0.033642188
145	0xbceb10d9	-0.028694557
146	0xbc5363a6	-0.012902176
147	0xbb3d3bb6	-0.0028874702
148	0xbda46390	-0.080268025
149	0x3b5327be	0.0032219733
150	0x3ccf2847	0.02528776
151	0xbd381fd2	-0.04495222
152	0x3cead168	0.028664306
153	0xbdbeaa88	-0.0930987
154	0x3bc736f0	0.006079547
155	0xbd87b9cb	-0.06627234
156	0xbb0da4fd	-0.0021613233
157	0xbd12e8a3	-0.03586639
158	0xbda7c1d2	-0.08191265
159	0xbd209b18	-0.03921041
160	0xbdd09fee	-0.10186754
161	0xbd94f0fa	-0.07272525
162	0xbd84fb0f	-0.06493198
163	0x3d1f481b	0.038887125
164	0xbd001218	-0.031267256
165	0xbd01a085	-0.031647224
166	0xbc9266b4	-0.017871238
167	0xbc3f5578	-0.011678092
168	0xbacd2b69	-0.0015653196
169	0xbd3c6ba2	-0.046001084
170	0xbd41c084	-0.047302738
171	0xbcf6709b	-0.030082991
172	0x3b1ccfc0	0.002392754
173	0xbc043ef1	-0.008071647
174	0x3c31622d	0.01082663
175	0xbcccee97	-0.025016112
176	0xbd8f780f	-0.07005321
177	0xbd7dc19a	-0.06195221
178	0xbd8a3c7c	-0.06749818
179	0xbda0c264	-0.07849577
180	0xbc415b1a	-0.011801505
181	0xbd9eae4f	-0.077480905
182	0xbd74d24b	-0.059770864
183	0xbc02fda7	-0.007995046
184	0xbba65ae2	-0.005076752
185	0xbb74a8bc	-0.003733202
186	0x3d4fb7f2	0.050712533
187	0xbd697c5e	-0.05700337
188	0xbd473e9a	-0.048643686
189	0x3c893a1c	0.016751342
190	0x3d0de57e	0.03464269
191	0xbc61e1b3	-0.013786721
192	0xbd5d0f94	-0.053969935
193	0xbc82a0d1	-0.015945824
194	0x3b281d90	0.0025652386
195	0xbd7b7956	-0.06139501
196	0xbd7e6e3e	-0.062116854
197	0xbc872575	-0.016497353
198	0x3bcdd4cf	0.0062814723
199	0xbc2d9101	-0.010593654
200	0x3ce09f39	0.027419673
201	0x3d12e66f	0.03586429
202	0xbcc674bd	-0.024225587
203	0xbd8ddd03	-0.0692692
204	0xbd9615a4	-0.07328346
205	0xbd9d7221	-0.07687784
206	0xbc91fafd	-0.017819876
207	0xbd1d412a	-0.038392223
208	0xbd0f64ea	-0.03500835
209	0xbd0d73fc	-0.03453444
210	0xbd9f1274	-0.077671915
211	0xbc5cb1fe	-0.013470171
212	0xbdc62d80	-0.09676647
213	0xbd27e2e4	-0.040987864
214	0xbcc729f9	-0.024312006
215	0x3c549750	0.012975529
216	0xbcb8dbc0	-0.022565722
217	0x3b793211	0.0038024227
218	0xbd86117e	-0.06546305
219	0xbd6d994a	-0.058007516
220	0xbca23c2f	-0.019804088
221	0xbdae14b8	-0.085000455
222	0x3c2b5f69	0.010459759
223	0xbd9aa176	-0.075503275
224	0xbc83ff5c	-0.016112976
225	0xbd3ac613	-0.045599055
226	0xbdd62527	-0.10456305
227	0xbd74e8e7	-0.059792425
228	0x3c50c30c	0.012741815
229	0xbb1626df	-0.0022911353
230	0xbd265862	-0.040611632
231	0x3bf6f5c1	0.0075366204
232	0xbcb6c83c	-0.022312276
233	0xbd9f7c75	-0.0778741
234	0xbd78677b	-0.06064556
235	0x3c106bb0	0.008814737
236	0xbd3d063f	-0.046148535
237	0xbcf4001b	-0.029785207
238	0xbd87ab1e	-0.06624435
239	0xbd114094	-0.035461977
240	0xbda4aeb3	-0.08041134
241	0xbdb169aa	-0.08662732
242	0xbd8fa133	-0.07013168
243	0xbcd23910	-0.025661975
244	0xbcd2bbb2	-0.025724266
245	0x3acb52a9	0.0015512306
246	0xbdbf6b5e	-0.093466505
247	0x3d34a953	0.044106793
248	0xbd619b52	-0.055079766
249	0xbd8d0204	-0.0688515
250	0xbdb1002c	-0.08642611
251	0xbc9970b2	-0.018730495
252	0x3b1e7e5f	0.002418421
253	0x3c07f33f	0.0082977405
254	0xbdb17752	-0.08665337
255	0xbd808af4	-0.06276503

bias f4 [256]
0	0xbde3b19e	-0.11117862
1	0x3fbc4ff5	1.4711901
2	0xbea75cbd	-0.3268794
3	0x3e5465eb	0.20742004
4	0xbf09c84f	-0.5382127
5	0xbed187a1	-0.4092379
6	0xbe9d2728	-0.30693936
7	0xbdcb1c89	-0.09917552
8	0xbec9e460	-0.3943205
9	0x3f5d588b	0.8646323
10	0xbd047491	-0.03233773
11	0x3ec62939	0.38703325
12	0xbd7d56ac	-0.061850235
13	0x3f62699d	0.88442403
14	0x3e0070be	0.12543008
15	0x3eef925c	0.4679135
16	0x3f9ff626	1.2496994
17	0xbe172d0e	-0.14763281
18	0x3f91970c	1.1374221
19	0xbdc672a9	-0.096898384
20	0xbe1fe8ee	-0.156162
21	0xbe800ce9	-0.2500985
22	0x3f4c3908	0.7977452
23	0xbddd4f36	-0.10806124
24	0xbda73d21	-0.08165956
25	0xbec340a7	-0.38135263
26	0x3f010456	0.5039724
27	0x3f9b6643	1.2140583
28	0xbe3fc12f	-0.18726037
29	0xbd4719e6	-0.048608683
30	0x3ea2356a	0.31681377
31	0xbef6614e	-0.48121113
32	0xbfb756a4	-1.4323316
33	0x3f1f480c	0.6221931
34	0xbe039bf9	-0.12852468
35	0xbef3fa96	-0.4765212
36	0xbfb5a990	-1.4192371
37	0x3e678045	0.22607525
38	0xbe116ca6	-0.14201602
39	0xbe062751	-0.13100936
40	0xbe108a5a	-0.14115277
41	0x3f04a55f	0.51814836
42	0xbe9a7ef0	-0.3017497
43	0xbe24fb57	-0.16111504
44	0xbe319feb	-0.1734616
45	0x3d151bf5	0.036403615
46	0xbe2b8966	-0.16751632
47	0x3e83b83d	0.257265
48	0x3d1b82c5	0.03796651
49	0xbf1dbe25	-0.6161826
50	0xbd9e02d8	-0.07715386
51	0xbdf36116	-0.11883752
52	0xbdf6cf7b	-0.120512925
53	0xbe117083	-0.14203076
54	0x3e111eeb	0.1417195
55	0x3e14259d	0.14467473
56	0xbdb9cf35	-0.09072725
57	0x3fcc5036	1.5961978
58	0xbdd65008	-0.104644835
59	0x3d80a87d	0.062821366
60	0xbdb81072	-0.08987512
61	0x3de874b0	0.113503814
62	0xbd6b3be9	-0.05743018
63	0xbdb08a38	-0.08620113
64	0xbe0540b5	-0.13012965
65	0x3e0ae8bf	0.13565348
66	0x3f9e9e7e	1.2392118
67	0xbe2df179	-0.16986646
68	0xbde08b21	-0.10964037
69	0xbee0b24d	-0.43886033
70	0xbd6fb15d	-0.058518756
71	0x3d807476	0.06272213
72	0xbeec96e9	-0.46208885
73	0xbdd1a7f1	-0.102371104
74	0x3b4c49d1	0.0031171928
75	0x3c306834	0.010767031
76	0xbe1c3cce	-0.1525757
77	0x3fcad235	1.58454
78	0x3f048bc6	0.5177578
79	0xbca252f2	-0.019814942
80	0x3d1d2d4f	0.038373288
81	0xbe038db4	-0.12847024
82	0xbdb24b84	-0.0870581
83	0xbdfbc5c6	-0.12293582
84	0x3f25d006	0.64770544
85	0x3fb084d3	1.3790535
86	0x3e1c9904	0.15292746
87	0xbdb04442	-0.08606769
88	0x3ecc21a4	0.39869416
89	0xbed81043	-0.42199907
90	0xbe19286d	-0.14956827
91	0xbf1c34d1	-0.6101809
92	0xbdd75da1	-0.10515905
93	0x3e35066a	0.17678228
94	0x3e7b8f82	0.24566463
95	0xbf2ff060	-0.6872616
96	0xbeae7f70	-0.34081602
97	0xbe061212	-0.13092831
98	0xbe1ad9d9	-0.15122165
99	0xbe4dfe35	-0.20116504
100	0x3e6b21d5	0.22962125
101	0xbf10d3cc	-0.56573176
102	0x3ec2a6d7	0.38017914
103	0xbf37b314	-0.71757627
104	0xbd9aa83f	-0.07551622
105	0x3fd86e02	1.6908572
106	0xbdb7f62b	-0.089825
107	0xbe8cbf9b	-0.27489933
108	0xbf4df40a	-0.804505
109	0xbf0f8328	-0.56059504
110	0x3d2ed278	0.042681187
111	0x3d461015	0.04835518
112	0xbdb2d55c	-0.08732101
113	0x3e9468f5	0.28986326
114	0xbe5fc61f	-0.21852921
115	0xbe9c9813	-0.30584773
116	0x3e515331	0.20441891
117	0xbddd3a38	-0.1080212
118	0x3eac6c0e	0.3367619
119	0xbef4c08a	-0.47803146
120	0x3fcdcdfb	1.6078485
121	0xbf5cd5a3	-0.86263484
122	0x3f33b513	0.7019817
123	0xbd1c1c40	-0.03811288
124	0xbdfb322c	-0.12265429
125	0xbe019ddc	-0.12657875
126	0xbf623cd1	-0.8837405
127	0x3f5fb0a2	0.87378895
128	0xbe86ae69	-0.2630494
129	0xbe4973a5	-0.19673021
130	0xbe770f07	-0.24126826
131	0x3cb929e5	0.022602985
132	0xbe0bc8a9	-0.13650765
133	0x3de48f03	0.1116009
134	0xbf18985d	-0.5960749
135	0x3fab51f7	1.3384389
136	0xbbd647c5	-0.0065393173
137	0x3fbb0992	1.4612296
138	0xbe4d71a4	-0.20062882
139	0xbe5fa0f2	-0.2183874
140	0x3ee59d2d	0.44846478
141	0x3e2ff3dc	0.17182869
142	0xbe20b5db	-0.15694372
143	0x3f13888c	0.5763023
144	0x3e63bff2	0.2224119
145	0x3f691fbf	0.91064066
146	0xbe3e78e6	-0.18600807
147	0xbe02121c	-0.1270222
148	0x3f0617bd	0.5237997
149	0xbdcba5e1	-0.09943748
150	0xbdef614b	-0.11688479
151	0xbd6ce04d	-0.057831097
152	0xbdc1a4ef	-0.09455287
153	0xbef26e82	-0.47349936
154	0x3f94a592	1.1613028
155	0x3e27e94f	0.16397594
156	0xbeb4bb80	-0.352993
157	0xbf43b711	-0.7645121
158	0x3f3be9c7	0.7340359
159	0x3f54c10f	0.83107084
160	0xbe27cfa1	-0.16387798
161	0x3e9dc4d1	0.30814222
162	0xbea88a30	-0.3291793
163	0xbe7d5318	-0.24738729
164	0x3dc1334d	0.09433613
165	0x3fbec089	1.4902507
166	0xbdbfad88	-0.0935927
167	0xbe664226	-0.22486171
168	0x3f87322d	1.0562187
169	0x3e301583	0.17195706
170	0xbdeea9f7	-0.11653512
171	0xbeaf7750	-0.34270716
172	0xbd93cc58	-0.0721671
173	0x3ee94848	0.4556296
174	0x3eb9804e	0.362307
175	0xbcbb154b	-0.022837302
176	0xbe217d26	-0.15770397
177	0xbe6253d0	-0.22102284
178	0xbeaf1fbb	-0.34203896
179	0xbe243995	-0.16037591
180	0x3f892f96	1.0717647
181	0x3f56a94d	0.8385208
182	0xbdc3f31b	-0.09567853
183	0x3f00c982	0.50307477
184	0xbe838b70	-0.2569232
185	0xbdd19f88	-0.10235506
186	0x3c9d0b3d	0.019170398
187	0xbf946750	-1.1594028
188	0xbf231066	-0.636969
189	0x3e9dc185	0.30811706
190	0xbd930310	-0.071783185
191	0xbe2088d3	-0.15677194
192	0xbdb96219	-0.09051914
193	0xbf888e68	-1.0668459
194	0xbe0ceb2c	-0.13761586
195	0xbd64dc88	-0.055874377
196	0xbde4216e	-0.11139189
197	0xbea8fb15	-0.3300406
198	0xbe161331	-0.14655758
199	0xbe011f09	-0.12609495
200	0xbe819209	-0.25306728
201	0x3fb0e305	1.3819281
202	0xbef3ea3a	-0.47639638
203	0xbe2654fc	-0.16243356
204	0xbdf3d175	-0.11905185
205	0xbdf69536	-0.120401785
206	0x3ecd6051	0.40112546
207	0xbdbc803f	-0.092041485
208	0x3e8f6969	0.2801011
209	0xbdd633bd	-0.10459087
210	0x3e024c9f	0.12724541
211	0xbe42f9de	-0.1904063
212	0x3e7ffcd9	0.24998797
213	0xbf049f79	-0.51805836
214	0xbe4f729c	-0.20258564
215	0xbdc0f7b6	-0.09422247
216	0x3fa30366	1.2735412
217	0xbdbf2239	-0.09332699
218	0x3f861a59	1.0476791
219	0x3ed65c7b	0.41867432
220	0xbf45d0cb	-0.7727172
221	0x3f9c9b37	1.2234868
222	0xbdc7864a	-0.097424105
223	0x3ef9b117	0.4876792
224	0xbdcdf637	-0.100567274
225	0x3eb395fd	0.3507537
226	0xbe4d8e86	-0.200739
227	0x3ec6595e	0.38740057
228	0xbec21dd6	-0.37913388
229	0xbde2a13f	-0.110659115
230	0xbddb3add	-0.10704587
231	0xbe35ccef	-0.17753957
232	0xba37432d	-0.0006990906
233	0x3f8593b0	1.0435696
234	0xbee39617	-0.44450447
235	0x3e980233	0.29689178
236	0xbf3156c7	-0.69273037
237	0x3c8ec057	0.0174257
238	0xbe1efc43	-0.15525918
239	0xbf32553b	-0.696613
240	0xbe087903	-0.13327412
241	0xbe6dbcc1	-0.23216535
242	0x3f697129	0.91188294
243	0xbdb05a71	-0.08611
244	0x3f95929a	1.1685364
245	0xbe06eda4	-0.1317659
246	0xbe1ad9d0	-0.15122151
247	0xbe160b98	-0.1465286
248	0xbeae84eb	-0.34085783
249	0xbed26976	-0.41096085
250	0x3efb902e	0.49133438
251	0xbfacaba9	-1.3489887
252	0xbec09ec0	-0.37621117
253	0xbd9ee0d4	-0.07757726
254	0xbf5a740d	-0.8533333
255	0x3f6df765	0.9295562

weight f4 [3, 256]
0	0xbc789065	-0.015171145
1	0xbd8d5cdc	-0.06902477
2	0x3e929331	0.28627923
3	0xbd8fed4f	-0.07027685
4	0x3ee22e77	0.44176075
5	0xbe53c5cb	-0.20680921
6	0x3eab2682	0.33427817
7	0xbd23e913	-0.0400172
8	0xbd4edc21	-0.0505029
9	0x3ea671da	0.32508737
10	0xbe45cfb8	-0.1931752
11	0xbe86d849	-0.26336887
12	0x3d9430d3	0.07235875
13	0xbd8d087f	-0.06886386
14	0x3b835d69	0.004008938
15	0x3e8db366	0.27675933
16	0xbdc28c2b	-0.09499391
17	0x3da88e5f	0.0823028
18	0xbdfa29da	-0.12215014
19	0xbc68eca0	-0.014216572
20	0xbd4f3acc	-0.050593182
21	0x3e464919	0.19363822
22	0x3f0571f4	0.52127004
23	0x3d907a9e	0.07054637
24	0x3d112978	0.03543994
25	0x3e1fe9a4	0.1561647
26	0x3d47832b	0.048709076
27	0xbdd6c61c	-0.10487005
28	0xbc53f0a0	-0.012935787
29	0x3d0203ec	0.03174202
30	0x3d47a9da	0.048745967
31	0xbb94e751	-0.0045441766
32	0xbd674b0a	-0.056468047
33	0xbdb8c3ac	-0.090216964
34	0xbafb2715	-0.0019161428
35	0xbf101786	-0.56285894
36	0xbca6dcb8	-0.020368919
37	0x3e4cf602	0.2001572
38	0xbbeedbf4	-0.007289404
39	0xbb4e7923	-0.0031505309
40	0x3bb9264f	0.0056503187
41	0xbebdc311	-0.37062886
42	0xbdbac13d	-0.091188885
43	0x3e832a82	0.25618368
44	0xbdaa9891	-0.08329881
45	0x3edef2f6	0.4354474
46	0xbdd54c6e	-0.104149684
47	0xbea1b38d	-0.315823
48	0x3e323469	0.17402805
49	0x3e8154f4	0.25260127
50	0x3d432e37	0.047651496
51	0x3bf61870	0.0075102374
52	0xbd5e808e	-0.054321818
53	0xbc19c31e	-0.0093848985
54	0x3e997ca9	0.2997792
55	0xbe455047	-0.19268905
56	0xbcee6598	-0.029101178
57	0x3ead73ef	0.33877513
58	0xbd6928fd	-0.056923855
59	0xbe317b6d	-0.1733224
60	0x3d464eea	0.048415102
61	0x3e3d7ebc	0.18505377
62	0xbd24f105	-0.040268917
63	0x3bfd4a3a	0.0077297958
64	0xbc97aa63	-0.018513864
65	0xbed8307f	-0.422245
66	0xbd4fcbb3	-0.050731372
67	0x3d1d4625	0.038396973
68	0xbc99d96a	-0.018780429
69	0xbecda1a3	-0.40162382
70	0xbd849d13	-0.06475272
71	0xbe269195	-0.16266473
72	0x3f2fe6cb	0.6871154
73	0x3d0789ac	0.03309028
74	0xbf061a1a	-0.5238358
75	0xbdfd935f	-0.123816244
76	0x3e8891c0	0.26673698
77	0x3c832d3c	0.01601278
78	0xbebbd8cc	-0.3668884
79	0xbce36a6b	-0.027760705
80	0xbec16fd9	-0.37780645
81	0xbc4967e2	-0.012292834
82	0xbda15c80	-0.07878971
83	0x3cf589a5	0.02997286
84	0x3d69d6d6	0.05708965
85	0xbe03bd41	-0.12865163
86	0x3b815a38	0.0039475225
87	0xbce75efa	-0.02824353
88	0xbec33f2e	-0.3813414
89	0x3d25be98	0.040464967
90	0x3bec40dd	0.0072098807
91	0xbe08c448	-0.13356125
92	0x3c320d44	0.010867421
93	0xbe0b3ff2	-0.13598612
94	0x3e7b8079	0.24560727
95	0x3f079ea0	0.5297642
96	0xbd795cc8	-0.0608795
97	0x3a424604	0.0007410946
98	0x3dd019c3	0.10161164
99	0xbe0ce856	-0.13760504
100	0x3c262e2f	0.010142847
101	0xbdf093d4	-0.11746946
102	0x3e0f1a84	0.13974959
103	0x3a84ff1f	0.0010146833
104	0xb73316b6	-1.0674519e-05
105	0x3def5b72	0.11687364
106	0x3e6cdac0	0.23130322
107	0xbeb9bb27	-0.36275598
108	0x3edc9525	0.43082538
109	0x3b04e74f	0.0020279472
110	0x3e538f30	0.2066009
111	0x3e3b3f93	0.1828597
112	0xbb467251	-0.003028054
113	0xbddc43f6	-0.1075515
114	0x3dc01e42	0.09380771
115	0x3daf214d	0.085512735
116	0xbee5f66f	-0.44914576
117	0xbc5fc0e1	-0.013656826
118	0x3e1d50ac	0.15362805
119	0x3f102a1b	0.5631425
120	0xbda41a20	-0.080127954
121	0x3dbc7aa1	0.09203077
122	0x3e8638eb	0.262153
123	0xbcc790a1	-0.024360957
124	0x3c0c70bc	0.0085718
125	0xbcbe62e9	-0.023240523
126	0xbd18de52	-0.037321396
127	0x3d348d42	0.044080026
128	0x3d69815a	0.057008125
129	0x3d651327	0.05592647
130	0x3dac6861	0.08418346
131	0xbe2049da	-0.15653172
132	0x3d6ddbfa	0.058071114
133	0xbe151a5c	-0.14560837
134	0xbd1ce0e6	-0.038300417
135	0xbd3afc42	-0.045650728
136	0xbe5d14eb	-0.21590011
137	0xbe13d84d	-0.14437981
138	0xbe75df9f	-0.24011086
139	0xbcb18383	-0.021669155
140	0xbd67c911	-0.056588236
141	0x3d25615b	0.04037605
142	0x3dad0002	0.08447267
143	0x3eb82cdc	0.35971725
144	0xbdc0bfe1	-0.09411598
145	0x3bb69757	0.0055722403
146	0xbd206bab	-0.03916518
147	0x3db62c22	0.088951364
148	0x3d674704	0.05646421
149	0x3cad4248	0.02114977
150	0x3dd37192	0.10324396
151	0x3ca84fe4	0.020545907
152	0xbc205f76	-0.009788385
153	0x3d3d369d	0.04619466
154	0xbd769bcf	-0.060207184
155	0xbd0c9c89	-0.03432897
156	0x3e0205c5	0.12697513
157	0x3dedf1da	0.11618395
158	0x3e756fee	0.23968479
159	0xbdf2363e	-0.11826752
160	0xbd403d0b	-0.046933215
161	0x3ddfda6c	0.109303325
162	0x3e52278f	0.20522903
163	0xbde4b084	-0.1116648
164	0xbe166efd	-0.14690776
165	0xbe26c77b	-0.16287033
166	0xb95ddb08	-0.00021157798
167	0xbee7e279	-0.45289972
168	0x3e54c6c8	0.20778954
169	0x3ed8df98	0.42358088
170	0x3dd2fab7	0.10301726
171	0x3ef03abf	0.4691982
172	0xbd9679c1	-0.073474415
173	0xbe53064e	-0.20607874
174	0xbe381ae6	-0.17979011
175	0x3e785601	0.24251558
176	0x3aa8972a	0.0012862433
177	0x3bbe8c22	0.005815045
178	0x3d9bde0d	0.07610712
179	0x3e2c585a	0.16830578
180	0x3da9f369	0.0829838
181	0xbec98c5b	-0.39364895
182	0x3cb28d4c	0.021795891
183	0x3e67a0db	0.22619955
184	0x3dfc9e0b	0.12334832
185	0xbcaa42ff	-0.0207839
186	0x3edcb663	0.431079
187	0xbf010872	-0.5040351
188	0x3dcd35f5	0.10020057
189	0xbe7f2106	-0.24914941
190	0xbe920ff7	-0.28527805
191	0xbd1b0615	-0.037847597
192	0x3e00a0b3	0.12561302
193	0xbe65961a	-0.2242054
194	0x3da37f7b	0.07983299
195	0xbd2e74aa	-0.04259173
196	0x3c9c0407	0.01904489
197	0xbd875378	-0.06607717
198	0xba4bd3e6	-0.0007775411
199	0x3abc259d	0.0014354471
200	0xbb967fec	-0.004592886
201	0xbe2df026	-0.1698614
202	0x3d301808	0.042991668
203	0xbe3a94a6	-0.18220767
204	0xbd022fa4	-0.031783715
205	0xbcf36516	-0.029711287
206	0x3d56159f	0.052266713
207	0xbd30c292	-0.043154307
208	0x3e27729f	0.16352318
209	0xbd9b6f64	-0.075896055
210	0x3e51d622	0.20491841
211	0xbdc923c7	-0.09821277
212	0x3e47f48d	0.19526882
213	0x3e208707	0.15676509
214	0xbd2360ee	-0.03988736
215	0x3c9b2cbb	0.018942228
216	0xbb8da47b	-0.004322586
217	0x3d821cdb	0.0635316
218	0x3ebe267d	0.3713874
219	0x3df61f4a	0.12017687
220	0xbe2ab462	-0.16670373
221	0x3d0fc7f3	0.035102796
222	0xba712cd9	-0.0009200103
223	0x3e0363d9	0.12831058
224	0x3d7a5afc	0.061121926
225	0x3d97db7d	0.07414911
226	0x3c71c7a1	0.014757068
227	0x3eb1507f	0.34631726
228	0xbd8c1a64	-0.06840971
229	0x3c0aaa5b	0.0084634675
230	0x3d3e583d	0.04647087
231	0xbd72655a	-0.059178688
232	0xbe369631	-0.17830731
233	0xbdc194df	-0.09452223
234	0x3e6fc4ab	0.23414867
235	0xbe9e12af	-0.3087363
236	0xbdacab6a	-0.08431132
237	0x3ea5178f	0.32244536
238	0x3e5fd81e	0.21859786
239	0xbe6374b5	-0.22212489
240	0xbcd80e27	-0.026373936
241	0x3ead2891	0.33820012
242	0xbe6bc80d	-0.23025532
243	0xbd30c7d3	-0.043159317
244	0xbe6fde3b	-0.23424618
245	0xbd6c68b6	-0.057717048
246	0x3dae5fbc	0.08514354
247	0x3c18b22f	0.009319826
248	0x3c123d38	0.0089257285
249	0xbe609d02	-0.21934894
250	0x3e87394d	0.26410905
251	0xbcac557b	-0.021036854
252	0x3ec93723	0.39299878
253	0x3d960cc3	0.07326653
254	0xbf0ba860	-0.54553795
255	0xbd89bb4f	-0.067251794

bias f4 [3]
0	0xbfcfda1e	-1.6238439
1	0xbfa953e5	-1.3228728
2	0x3f096c92	0.5368129

weight f4 [3, 256]
0	0x3d92ae8a	0.07162197
1	0xbd25aa7d	-0.040445793
2	0x3e285de4	0.16442066
3	0xbd800708	-0.06251341
4	0x3e951ff1	0.29125932
5	0x3f23a737	0.63927025
6	0x3e9fee89	0.31236675
7	0xbb1e3557	-0.002414068
8	0x3f27873c	0.65440726
9	0x3e0b261f	0.13588761
10	0x3e4ae499	0.19813766
11	0x3ee9dd0a	0.45676452
12	0x38bb2951	8.924551e-05
13	0x3e587daa	0.21141687
14	0x3e23186f	0.1592729
15	0x3e87ec4b	0.26547465
16	0x3ddd3e59	0.108029075
17	0x3e0d17b2	0.1377857
18	0x3eca000b	0.39453158
19	0x3d674201	0.05645943
20	0xbdc5679c	-0.096389025
21	0x3e8b85df	0.27250573
22	0x3f3bbaf7	0.7333216
23	0xbd52bc5c	-0.051449165
24	0x3d877102	0.066133514
25	0x3caa5db7	0.02079664
26	0x3d662505	0.05618765
27	0xbe8863a6	-0.26638526
28	0x3e8c7b35	0.2743775
29	0xbd8638b2	-0.065537825
30	0x3e124eb2	0.14287832
31	0x3ee7f87e	0.45306772
32	0x3dfd23bc	0.123603314
33	0xbc13691a	-0.008997226
34	0x3e0f4e21	0.13994648
35	0x3f4df67b	0.80454224
36	0x3de97cd1	0.1140076
37	0xbd08b729	-0.0333778
38	0x3c40b6fa	0.011762375
39	0x3d865d14	0.06560722
40	0x3c8efd00	0.017454624
41	0x3ee63ff5	0.4497067
42	0x3d498a70	0.04920429
43	0xbc37484e	-0.011186672
44	0x3db1c30a	0.08679779
45	0x3d004640	0.031316996
46	0xbcbcae55	-0.023032347
47	0x3df5259f	0.11970066
48	0xbe4de3bc	-0.20106405
49	0x3e6b7a01	0.2299576
50	0x3e6572a9	0.2240702
51	0xbd5accfc	-0.053418145
52	0x3d3b3085	0.04570057
53	0x3dc11641	0.09428073
54	0xbeb0c663	-0.34526357
55	0x3f1e6571	0.6187354
56	0xbd8af290	-0.067845464
57	0x3e02ff08	0.12792599
58	0x3def2710	0.116773725
59	0x3e4d87a5	0.20071276
60	0x3c93ed8f	0.018057613
61	0x3eccf58a	0.4003108
62	0x3d9efe79	0.077633806
63	0x3dbbe952	0.09175362
64	0x3d660ac5	0.056162614
65	0x3f019e57	0.5063223
66	0xbc5bf98f	-0.013426199
67	0xbb509064	-0.0031824345
68	0x3d6be73a	0.05759356
69	0x3effdf84	0.49975216
70	0xbddef5f9	-0.10886759
71	0x3ef6c3d0	0.48196268
72	0x3e783428	0.24238646
73	0x3d2537c2	0.040336378
74	0x3f181c29	0.5941797
75	0x3eb28653	0.34868106
76	0x3c8aa508	0.016924396
77	0x3e64d7de	0.22347972
78	0x3f6d4169	0.9267793
79	0xbd4f74c9	-0.050648484
80	0x3efc0e40	0.49229622
81	0x3d932990	0.07185662
82	0x3e4f9ceb	0.20274703
83	0x3e16996e	0.14706966
84	0x3eef5b5a	0.46749383
85	0x3eb924e2	0.36160952
86	0xbcc77322	-0.024346892
87	0x3cc19c4f	0.023634104
88	0x3ec56ca4	0.3855945
89	0x3eccbd5c	0.3998822
90	0x3d108a6c	0.03528826
91	0x3e20854e	0.15675852
92	0x3d61cf69	0.055129442
93	0x3e8cfb9d	0.27535716
94	0xbdca7ee5	-0.098874845
95	0x3e5480c4	0.20752245
96	0x3e82bd14	0.2553488
97	0xbc1000c6	-0.008789247
98	0x3e2ff339	0.17182626
99	0x3ec12d1a	0.37729722
100	0xbd7d245e	-0.06180226
101	0x3e6eb481	0.23311044
102	0x3b9d68f0	0.0048037693
103	0xbda8cc26	-0.08242063
104	0x3c875ec0	0.016524673
105	0x3e9f1655	0.31071725
106	0x3dc6c79a	0.0970604
107	0x3f0b8327	0.54497
108	0x3e26bf41	0.16283895
109	0x3e128ded	0.14311953
110	0x3ebb5354	0.36587012
111	0x3e29ec44	0.16594034
112	0x3dac320a	0.08407982
113	0xbcc68901	-0.02423525
114	0x3e91c47a	0.28470212
115	0x3d3217ea	0.043479837
116	0x3f54b88f	0.83094114
117	0x3dbb6d89	0.091517515
118	0x3d7d90f2	0.06190581
119	0xbe2f8843	-0.17141823
120	0x3d4176b7	0.047232356
121	0x3e800acf	0.25008246
122	0x3e661f7d	0.2247295
123	0xbd015676	-0.031576596
124	0x3dda4b91	0.106589444
125	0xbdaf8482	-0.08570196
126	0x3cdbe74d	0.026843691
127	0xbc89294e	-0.016743328
128	0x3eec242d	0.4612135
129	0x3d574af4	0.052561715
130	0x3d97e48e	0.0741664
131	0x3e9fd4e2	0.31217104
132	0x3deac8fb	0.11464115
133	0x3d237971	0.039910737
134	0x3e56ad89	0.20964636
135	0x3daea9a1	0.08528448
136	0x3ded7f98	0.11596602
137	0x3e87b280	0.26503372
138	0x3e3bb602	0.18331149
139	0x3dd49d42	0.10381557
140	0x3e3aa5ff	0.18227385
141	0x3dcbae9d	0.09945414
142	0xbd11294c	-0.035439774
143	0x3d0157b9	0.0315778
144	0x3dd2d94c	0.10295352
145	0xbe00e5d6	-0.12587675
146	0x3c706e4e	0.014674736
147	0x3be97842	0.0071249316
148	0x3eb10260	0.34572124
149	0x3cbfdb52	0.02342001
150	0xbda463f0	-0.08026874
151	0xbd2a48f4	-0.04157348
152	0x3da787f5	0.081802286
153	0xbdc465e0	-0.095897436
154	0x3d5bf127	0.053696778
155	0x3eb2cdae	0.34922546
156	0x3e69ed9e	0.2284455
157	0x3e36148e	0.17781278
158	0x3dd9172f	0.10600125
159	0x3dfdf8d2	0.12400974
160	0x3cee08d6	0.029056948
161	0xbded0066	-0.115723416
162	0x3e6e831f	0.23292206
163	0x3ebbd51e	0.36686033
164	0x3e985a51	0.29756406
165	0x3ed03382	0.40664297
166	0x3dc23aaa	0.094838455
167	0x3ee88242	0.4541188
168	0xbcd480c9	-0.025940316
169	0x3e07f4a9	0.13276924
170	0x3e73bfa8	0.2380358
171	0x3edda708	0.43291497
172	0x3d51fc5f	0.05126607
173	0x3f0f7d39	0.5605045
174	0x3db1f67a	0.0868959
175	0xbda88446	-0.08228354
176	0x3ca04ebb	0.019568792
177	0x3e9550e3	0.29163274
178	0x3ecb41ce	0.39698642
179	0x3e4f9353	0.20271043
180	0xbce5c8f7	-0.028049929
181	0x3f4180d4	0.755872
182	0xbdb2976a	-0.08720286
183	0xbd1f0f7f	-0.038833138
184	0x3ddbe43f	0.10736894
185	0xbd26324c	-0.04057531
186	0x3d6674a5	0.056263585
187	0x3f1f971c	0.6233995
188	0x3e84239e	0.25808424
189	0x3e31754b	0.173299
190	0x3f6aa053	0.91650885
191	0x3d768d06	0.060193084
192	0x3de72a33	0.11287346
193	0xbc820e3c	-0.015875928
194	0x3d7fd835	0.06246205
195	0xbe1292b3	-0.14313774
196	0x3d365cf1	0.04452223
197	0x3e581e1d	0.21105237
198	0xbd033412	-0.03203208
199	0x3dd3ce85	0.10342125
200	0x3e1edfe7	0.155151
201	0x3dc27278	0.094944894
202	0x3eaac820	0.33355808
203	0x3dd237d0	0.10264552
204	0xbc4b2708	-0.0123994425
205	0x3d775c69	0.060390864
206	0x3da94ec9	0.0826698
207	0x3d556ba3	0.052104603
208	0x3d30ee75	0.04319616
209	0x3b83130b	0.004000073
210	0xbe07775f	-0.1322913
211	0xbd126526	-0.035740994
212	0xbd90cdee	-0.07070528
213	0xbcf75dc8	-0.030196086
214	0x3e49e504	0.19716269
215	0x3d1fe645	0.03903796
216	0x3cd90fb8	0.026496753
217	0x3aac1b4e	0.0013130696
218	0x3f0bf9ed	0.5467823
219	0xbaefe1f7	-0.0018301596
220	0x3df33120	0.11874604
221	0xbc624cd9	-0.013812267
222	0x3c145be4	0.009055112
223	0x3cd9743f	0.026544688
224	0x3d88d2c2	0.06680824
225	0x3d72da6d	0.05929034
226	0x3d1f6a7b	0.038919907
227	0x3b8d7c0d	0.0043177665
228	0x3e8808a1	0.26569083
229	0x3d5a0ac0	0.05323291
230	0xbcb1f15d	-0.021721536
231	0x3d26580f	0.040611323
232	0x3e1c703e	0.15277192
233	0xbab28612	-0.0013620278
234	0x3efc2c48	0.49252534
235	0x3e0c2ba4	0.13688523
236	0x3dd721b3	0.105044745
237	0x3ed6db94	0.419644
238	0x3da501f4	0.08057013
239	0x3f538a22	0.8263265
240	0xbc6393d1	-0.013890223
241	0xbe3e76ca	-0.18600002
242	0x3e380ceb	0.17973678
243	0xbdbff9e3	-0.09373834
244	0x3e7e02e2	0.24805787
245	0x3d869f24	0.065733224
246	0xbc06e9b1	-0.008234427
247	0x3cecab5a	0.0288903
248	0x3e950633	0.29106292
249	0x3e3a1df9	0.18175496
250	0xbe18b28d	-0.14911862
251	0x3e33b6b9	0.17550172
252	0x3e62a5f3	0.22133617
253	0x3c47878d	0.012178314
254	0x3e6bf74f	0.2304356
255	0x3db3e897	0.08784597

bias f4 [3]
0	0xc0230429	-2.547129
1	0xbff413b5	-1.9068514
2	0xc03bad90	-2.9324684

weight f4 [256, 18]
0	0xc13c4a5e	-11.768156
1	0xbe60c4cb	-0.2195007
2	0xbf110f60	-0.56664085
3	0xbe984c1e	-0.29745573
4	0xbe26c013	-0.16284208
5	0x40eb9b2e	7.362693
6	0xbcb57140	-0.022148728
7	0xbf930858	-1.1486921
8	0x40b15030	5.5410385
9	0xc0115eee	-2.271419
10	0x40d28bf0	6.579582
11	0xc0020830	-2.0317497
12	0xbebf9b59	-0.37423208
13	0xc00e36c1	-2.222092
14	0x40aa9cd2	5.331643
15	0x40142a15	2.3150685
16	0x40d7cc42	6.743684
17	0xbf389ce0	-0.7211437
18	0x41421cb6	12.1320095
19	0x3e244c1b	0.16044657
20	0x413c227e	11.758421
21	0xc10126d7	-8.071982
22	0x3e05ad41	0.13054372
23	0x3e50d70b	0.20394532
24	0xbdcaf356	-0.09909694
25	0x402f0e28	2.735239
26	0xc0a86654	-5.262491
27	0x3f85e134	1.0459352
28	0xc11bef2f	-9.745894
29	0xbfb5c454	-1.420054
30	0x408fbb75	4.491633
31	0xbec2a6df	-0.38017938
32	0x3ff8ec32	1.9447081
33	0x3fffa21e	1.9971349
34	0x40a99586	5.2995024
35	0x3e207bd1	0.15672232
36	0x403de248	2.966936
37	0x3d01fc14	0.03173454
38	0x40a7db56	5.2455244
39	0x40dfdcf0	6.99572
40	0x3e42e59b	0.190329
41	0x41aa4904	21.285652
42	0x3e130349	0.14356722
43	0x403a034a	2.9064507
44	0x4164aba7	14.291907
45	0x4178fca5	15.561681
46	0x4161451d	14.079373
47	0x413cba5e	11.7955
48	0xbfd1b434	-1.6383119
49	0xc09520ee	-4.6602697
50	0xc0c33d51	-6.101235
51	0x410e2fb5	8.886647
52	0xc07e5bd7	-3.9743555
53	0xc10c347c	-8.762814
54	0x40b6bd61	5.7106175
55	0xbe69a282	-0.22815898
56	0xbf0cdecd	-0.55027467
57	0xbe383636	-0.1798943
58	0xbe121b74	-0.14268285
59	0x3e140d77	0.14458261
60	0xbdbc1a50	-0.09184706
61	0xc0a6aa54	-5.208292
62	0xbfc3a564	-1.5284848
63	0x3f568045	0.83789474
64	0xc08568e5	-4.1690545
65	0x3da7e0d8	0.081971824
66	0x3d7b158c	0.061299846
67	0xbe044be7	-0.1291958
68	0xc0947cb0	-4.6402206
69	0xbf33ebc3	-0.7028162
70	0xbfb7001c	-1.4296908
71	0xbe6fc206	-0.23413858
72	0x3d6a2c3e	0.0571711
73	0x3e29f4d3	0.165973
74	0xbf1c603b	-0.61084336
75	0xc000c907	-2.0122697
76	0xbc8441a0	-0.016144574
77	0x3f2d3c84	0.67670465
78	0x3e404831	0.18777539
79	0xbe0cdca9	-0.1375605
80	0xbe6214f4	-0.22078305
81	0x3d9c8eff	0.07644462
82	0xbeeefe0f	-0.46678206
83	0x3ece1e12	0.40257317
84	0xbe94388f	-0.289494
85	0x3de283c2	0.11060287
86	0xbf0ffb6c	-0.56243014
87	0xbe33b04c	-0.1754772
88	0xbdf8494d	-0.12123356
89	0xbd21b4cf	-0.039479073
90	0x3f40ac0f	0.7526254
91	0x3d0b9a54	0.034082726
92	0xbf2d2189	-0.67629296
93	0xbe9d8d6d	-0.30771962
94	0xbe66d073	-0.22540455
95	0x3ea25778	0.31707358
96	0x3d8da672	0.069165125
97	0x3ef1f79b	0.4725922
98	0x3ef7c5ee	0.48393196
99	0x3e25243d	0.16127105
100	0xbf30bfc0	-0.6904259
101	0x3f00c1a1	0.50295454
102	0xbe0fdf38	-0.14049995
103	0x3e0879fe	0.13327786
104	0xbea7c83c	-0.32769954
105	0xbddde407	-0.108345084
106	0xbd54fe0e	-0.052000098
107	0x3c33816d	0.0109561505
108	0xc075f041	-3.842789
109	0xbdc7cc68	-0.09755784
110	0x402ae32e	2.670116
111	0xc0ba4ef9	-5.82214
112	0x3cc23b48	0.023709908
113	0xc09cfe81	-4.9060674
114	0x3e5d9c09	0.21641554
115	0x40878ceb	4.235952
116	0xc008efae	-2.139629
117	0xc0aed299	-5.4632077
118	0x3fc2142c	1.5162406
119	0xc022605b	-2.537131
120	0x3e5eb011	0.21746852
121	0x40a630b3	5.1934447
122	0x3f6c03e2	0.92193425
123	0xc0fbe162	-7.8712626
124	0xc0b6ab50	-5.708412
125	0x40d28075	6.578181
126	0xbf890877	-1.0705708
127	0xbe53f68d	-0.2069952
128	0xc00c43ad	-2.1916306
129	0xc04eb5ef	-3.2298543
130	0xbe712564	-0.2354942
131	0x3fba9759	1.4577438
132	0xbdedc907	-0.116106085
133	0xbf8028c5	-1.0012442
134	0x3f36ef05	0.71458465
135	0x3fc62371	1.5479566
136	0x3eb87e23	0.36033735
137	0x3ff7f093	1.9370292
138	0x3f3ad46c	0.7298038
139	0x3f7547d3	0.9581272
140	0xbfa5625b	-1.2920641
141	0xbee3b8f2	-0.4447704
142	0xbe9c97f1	-0.30584672
143	0xbeb9c487	-0.3628275
144	0x3fd68814	1.6760278
145	0xbb82ab60	-0.0039877146
146	0xbf1de553	-0.61678046
147	0xbcea044b	-0.0285665
148	0xbddf8478	-0.10913938
149	0x3f2ee35a	0.6831566
150	0xbd801ecc	-0.06255874
151	0x3e276b0c	0.16349429
152	0xbee02848	-0.43780732
153	0x3e2c740a	0.1684114
154	0x3cb526ee	0.02211329
155	0x3dd07018	0.1017763
156	0x3e3584c4	0.17726427
157	0x3dbb6832	0.09150733
158	0x3ddcb297	0.10776251
159	0x3dc1e846	0.09468131
160	0xbe6607f1	-0.22463967
161	0xbd032809	-0.032020602
162	0xc11149ef	-9.08055
163	0x3d4fd324	0.05073847
164	0x403f7d27	2.9920137
165	0x40fa2507	7.81702
166	0xbe0bf386	-0.13667116
167	0xbf9317c4	-1.1491628
168	0x3e4e577b	0.20150559
169	0x40edf7bc	7.436491
170	0xc104d220	-8.3013
171	0x4011d084	2.2783518
172	0xc13823b5	-11.508718
173	0x3d7ed5ab	0.06221549
174	0xc094f3cb	-4.65476
175	0x3f7aeb9b	0.98015755
176	0xc0608706	-3.5082412
177	0xbe196cff	-0.14982985
178	0xbf85b185	-1.04448
179	0x3f36d731	0.71422106
180	0x41c4e954	24.61393
181	0x3e62ca9f	0.22147606
182	0x41fb5169	31.414751
183	0xc1213eaa	-10.077799
184	0xbdd6d574	-0.10489932
185	0x42028442	32.629158
186	0xbdf4502b	-0.11929353
187	0x413eb183	11.918338
188	0xc0d2fa75	-6.5930734
189	0x413e67eb	11.900371
190	0x41675e58	14.460533
191	0x4157507f	13.457152
192	0x4153d1e9	13.238748
193	0x3f84095b	1.0315355
194	0xbfa637dd	-1.2985798
195	0x3f372b9e	0.7155093
196	0xc0fe0244	-7.9377766
197	0xc001addd	-2.0262368
198	0xc13c8ddd	-11.784635
199	0xbe2ae106	-0.16687402
200	0x41d3a4f2	26.45554
201	0x40fa5825	7.82326
202	0xbdec2207	-0.11529928
203	0x40c173e0	6.045395
204	0x3e26d5e9	0.16292538
205	0xc032c4e9	-2.7932684
206	0x415269e6	13.150854
207	0x3fc091f9	1.5044547
208	0x41040774	8.25182
209	0xc0c64b79	-6.196713
210	0x4155f4fa	13.372309
211	0x40f41ebc	7.6287518
212	0x41a37ca0	20.435852
213	0xc0b3f9d1	-5.624245
214	0x3f483432	0.78204644
215	0x414dede6	12.870581
216	0xc08fcc39	-4.4936795
217	0xbe0a2962	-0.13492349
218	0xc0b193d3	-5.549295
219	0xc106da60	-8.428314
220	0x3d32b69c	0.04363118
221	0x40665778	3.5990887
222	0x3e04b857	0.12960945
223	0xc08866ea	-4.2625628
224	0x40015e8f	2.0213964
225	0xbf587d7b	-0.8456647
226	0xc09e426b	-4.9456077
227	0xbecba782	-0.39776236
228	0x40c5fef2	6.1873713
229	0xbf8b6a71	-1.0891858
230	0xc0b0edc0	-5.529022
231	0xc0191323	-2.391793
232	0xbfa26c3c	-1.268928
233	0xbef0d0a0	-0.47034168
234	0x4100c5fb	8.048335
235	0xbdce18b6	-0.10063307
236	0x41798564	15.595066
237	0xbf5c67be	-0.860958
238	0xbd771114	-0.06031902
239	0x410198ca	8.099802
240	0x3d8705c2	0.06592895
241	0x409f7091	4.982491
242	0x4100bd75	8.046254
243	0x414fd2e8	12.988991
244	0xbfe1fc31	-1.7655088
245	0x409df0dd	4.9356523
246	0x3fe8c0b9	1.8183814
247	0xc0188ba8	-2.383524
248	0x4000a045	2.009782
249	0x40b6936d	5.7054963
250	0x4047de4f	3.1229436
251	0x3fb00650	1.3751926
252	0x3e938801	0.288147
253	0x3e1c7193	0.152777
254	0xbf9936ac	-1.196981
255	0x3deddbd2	0.11614193
