data/HopperPyBulletEnv-v0_sac_grad_False/HopperPyBulletEnv-v0_sac_grad_False_s1/pyt_save/model.pt (torch_old, 859870 bytes, 18 tensors)

weight f4 [256, 15]
000000 7f c6 f1 3d a0 65 e9 bd a1 30 9a bd 60 40 c8 3d
       0.11805438 -0.113963366 -0.075288065 0.097779036
000010 6e e9 78 be ae a2 06 3e 50 92 59 bd 4b 51 e0 3d
       -0.24307796 0.13147995 -0.05311805 0.109530054
000020 20 cb 2e 3c 60 f7 d0 bb 31 fd 3d 3d bb 00 4d bc
       0.010668546 -0.0063771456 0.04638404 -0.012512381
000030 12 ce f1 3d 98 69 9a bd d0 36 9a bc 35 89 1c 3e
       0.11806883 -0.07539672 -0.018824965 0.15286715
000040 48 4a 19 3d 95 bb f6 bd e2 9f cf 3d fc 8d a4 3d
       0.037424356 -0.12047497 0.10137917 0.08034894
000050 bd 10 b3 3c 4c af 1f be 9c bd bc be 4e 93 06 bf
       0.021858567 -0.15594214 -0.3686341 -0.5256852
000060 77 03 e0 bc a0 6d bf bd d4 55 7e 3d 6c 8b c6 3d
       -0.027345402 -0.09347081 0.06209357 0.09694561
000070 d9 22 de be 46 a8 e9 3b 1b 93 40 3e 42 cb 7a 3e
       -0.43385962 0.0071306555 0.18806116 0.24491599
000080 b4 bb 91 bc 61 cb 78 be be 63 7b be d7 6b e7 bd
       -0.0177897 -0.24296333 -0.24549767 -0.11299866
000090 3e 2b 68 3e 46 6b 95 3e 96 ce 5c be a5 25 a3 bd
       0.22672746 0.29183406 -0.21563181 -0.079661645
0000a0 01 d3 47 3e e5 6e 69 bd 8c 34 0d be 1e 3b f8 bd
       0.19514085 -0.056990523 -0.13789576 -0.12120651
0000b0 c8 db d9 be 83 7e 0f 3f b7 58 0c be 6f 0a 90 3d
       -0.42550492 0.56052417 -0.13705717 0.0703324
0000c0 f0 43 cc be 18 e5 e7 bc 81 49 aa be 38 1e fc bd
       -0.39895582 -0.028307483 -0.33259204 -0.12310451
0000d0 eb aa 81 3f db a0 53 3e 57 61 96 3e 87 bc 9d 3e
       1.0130285 0.2066683 0.2937114 0.30807897
0000e0 d7 d4 0a 3d 3e 5f d1 be 9a 4c 7b 3e 83 4a ac 3b
       0.033894386 -0.40892977 0.2454094 0.005257906
0000f0 fd a6 e6 be 9e bc 2b 3e 5b c5 05 bd 66 5a f4 3e
       -0.45049277 0.1677117 -0.032658916 0.4772522
000100 a4 35 14 be 34 58 14 be 00 e6 a3 bb 5c 6b 08 be
       -0.14473587 -0.14486772 -0.0050017834 -0.13322204
000110 0b 8b 0f bf 18 63 8c be 3d 8d 2d be b2 16 20 be
       -0.5607154 -0.27419353 -0.1694841 -0.15633658
000120 0d 0f 68 3d c7 6d a8 3c a6 28 a4 bc 60 bb b1 bd
       0.05665498 0.020560158 -0.020038914 -0.08678317
000130 a8 44 c0 3d 09 ad 90 3c 23 c8 ad be 7e 15 05 3e
       0.09388095 0.017660635 -0.33941755 0.1299648
000140 5f 5b c4 bd 28 7d 47 be db 66 01 3f a3 ca 8e bc
       -0.0958774 -0.19481337 0.5054757 -0.01743061
000150 86 b9 71 3e dc fd 22 bf 90 33 b2 bd fc 3e c4 3e
       0.23605928 -0.6366861 -0.08701241 0.38329303
000160 22 eb 9b 3d 28 64 49 3e 2c 6e ad be 87 43 46 be
       0.076132074 0.19667113 -0.33873117 -0.19361697
000170 9e c9 6c be 1b 58 30 3e 45 07 31 be d5 a3 be be
       -0.23123786 0.1722111 -0.1728793 -0.3723437
000180 10 4e b4 3d f2 50 fc be 34 db 09 bf 7a 10 11 be
       0.08803952 -0.49280506 -0.538501 -0.14166442
000190 95 69 d7 be 5e d8 d4 bd c8 e4 3a be 32 d8 84 bd
       -0.4207274 -0.10392831 -0.18251336 -0.064865485
0001a0 67 e4 72 3d 87 3c 42 bf 5a ca 7d 3e 6f 44 35 3e
       0.059299853 -0.7587361 0.24784222 0.17701887
0001b0 ce 3c 84 3f 10 2a 5b 3d 30 34 53 3e 1c 7e 45 3e
       1.0331056 0.05350691 0.20625377 0.19286388
0001c0 43 a1 02 3f 30 bc d9 be 52 cb 16 3e ff 23 73 3d
       0.51027316 -0.42526388 0.14725998 0.0593605
0001d0 b8 02 94 be 1e 38 9f 3e 05 a5 70 be 90 0c da 3d
       -0.28908324 0.31097502 -0.2350045 0.10646927
0001e0 69 bd b5 bd c0 dc 04 3d 2d 17 85 3c ad 2f a2 bf
       -0.08874018 0.032437086 0.016246403 -1.26708
0001f0 32 e4 0c 3e 72 e1 a2 3e c6 96 78 be 58 fb b4 3d
       0.13758925 0.31812626 -0.24276266 0.088370025
000200 ae ee 1f 3d ff 89 6c 3e 8a 3a 48 bf 27 ce 3b 3f
       0.039045982 0.23099516 -0.78214324 0.7336144
000210 f0 59 6e 3e ad c0 90 be d2 6e 4b bd 04 2e 7a 3f
       0.23276496 -0.28272 -0.049666233 0.97726464
000220 0e 3c 27 3e 67 54 b0 bd d6 1f b3 be 4c 07 5e be
       0.16331503 -0.086098485 -0.34985226 -0.21682471
000230 2d 0f 96 3e 68 4d f6 bc 2c 72 65 be f1 7c 03 3e
       0.29308453 -0.030066207 -0.22406834 0.1284063
000240 cf 10 fe 3e 25 32 c7 bd de 6b dd 3e 52 32 35 be
       0.496222 -0.09726361 0.4324636 -0.17694977
000250 46 c0 f5 bd 7c 5c 9e 3d a8 af 19 bd 21 29 81 3e
       -0.11999564 0.07732484 -0.037521034 0.2522669
000260 2d ce c0 bd a3 07 04 3f cc 8e 79 be ff f0 48 bd
       -0.09414325 0.5157415 -0.24370879 -0.049057957
000270 fc 75 1a be c1 0d c5 bc 7f 6d 9d 3e 45 24 6e bc
       -0.1508407 -0.02405441 0.307476 -0.0145350145
000280 97 cf d4 be dd 79 8c 3e d2 64 56 be 44 84 b0 3e
       -0.41564628 0.27436724 -0.20936897 0.3447591
000290 e5 7b 5b be d5 3c 9c 3e be 81 c0 bd 76 46 07 bd
       -0.21433981 0.3051516 -0.09399746 -0.03302618
0002a0 09 2b 7f 3e a0 00 f1 bd c0 7f 5c 3f 3c 21 e2 3d
       0.2491876 -0.11767697 0.8613243 0.11041495
0002b0 57 ba 13 3f ac 11 97 3e cd fd 23 3f 01 49 d8 3e
       0.5770621 0.2950567 0.64059144 0.42243198
0002c0 e8 03 07 3f 04 df 57 3e e2 c5 cf bd 08 11 eb 3c
       0.52740335 0.21081167 -0.10145165 0.028694645
0002d0 e2 d8 0a be 58 00 ab bc 21 48 9a be a4 ce b0 3d
       -0.13559297 -0.020874187 -0.30133155 0.086331636
0002e0 30 88 2a be b5 b7 8a 3d 5b 93 64 be fb 21 47 bf
       -0.16653514 0.067733206 -0.22321837 -0.77786225
0002f0 d5 a9 32 be ad 99 6f be 3a 6e ae 3d f9 05 29 be
       -0.17447598 -0.23398466 0.08517118 -0.16506185
000300 c8 ff b8 bd 54 4d aa bc 07 10 86 3c fd 97 8e be
       -0.090331614 -0.020788826 0.016365064 -0.27850333
000310 e0 52 f8 3d 27 e2 7a 3e 9a ea 34 3f 06 0f 39 be
       0.12125182 0.24500333 0.70670474 -0.18072137
000320 cd 2f 82 bc 52 80 43 be 5e 00 b2 3f d2 68 5c 3d
       -0.015891934 -0.19091919 1.3906362 0.053810902
000330 a2 50 4b 3e f7 04 a7 3e fa fe 2b 3e 6c 5e 9e be
       0.19854978 0.32620975 0.16796485 -0.30931413
000340 ef ed 4f 3e 18 73 23 be 0f 35 39 3e 74 4f a1 3d
       0.20305608 -0.15961874 0.18086646 0.078764826
000350 f2 af 9d be 73 19 e4 3d 5e 84 66 3e 65 21 c1 3e
       -0.30798298 0.111376666 0.22511432 0.3772079
000360 80 72 43 3e ae 36 f5 bd c3 e6 46 bb d3 f2 f8 3e
       0.19086647 -0.1197332 -0.0030349947 0.4862276
000370 22 31 be be e2 f6 57 3e bf 53 e7 be 79 89 c0 be
       -0.3714686 0.21090272 -0.4518108 -0.37604883
000380 45 11 37 3d bf 22 0b bf fc 4a 72 bd 05 0f 41 3e
       0.044694204 -0.54349893 -0.059153542 0.18853386
000390 c1 cd 32 3f be 0d 7a 3e 31 a0 86 bd 1f 81 4d be
       0.69845206 0.24419305 -0.06573523 -0.20068787
0003a0 56 95 c9 3e 42 c0 e8 be bb af 2e be b9 cc 05 3e
       0.39371747 -0.4545918 -0.17059223 0.13066377
0003b0 a3 92 4d be b3 e1 84 3e e6 00 6b 3d 34 1e 4a bf
       -0.20075469 0.25953445 0.057373904 -0.78952336
0003c0 2d 86 0c bf e8 47 b9 bc 45 60 71 3d 9d 80 1d 3f
       -0.54892236 -0.022617295 0.0589297 0.61524373
0003d0 b1 11 06 be 9b 43 dc bd 96 83 78 be a7 61 e2 be
       -0.13092686 -0.10755082 -0.24268946 -0.44215128
0003e0 3c cc 1c bf c5 66 29 3e 92 32 2a be 63 1a 50 be
       -0.61249137 0.1654311 -0.16620854 -0.20322566
0003f0 38 92 10 3e 23 77 27 be 81 27 8f bc 4e a7 33 3d
       0.14118278 -0.16354041 -0.017474892 0.043860726

bias f4 [256]
000000 f8 41 61 be 78 fa 32 be b7 f4 b0 bd a3 af 85 be
       -0.21997821 -0.17478359 -0.08640426 -0.26110563
000010 45 fc a9 be 0a 2f a2 be 92 4f ac be b2 8d 31 3d
       -0.3320028 -0.31676513 -0.33654457 0.04334802
000020 b0 77 cf bd 59 bd 1b be ca 52 c8 bd 6c 88 4d be
       -0.101302505 -0.15208949 -0.09781416 -0.20071572
000030 e2 58 92 bd 25 5f 2f be 5d 46 9d be 6e 93 d9 3d
       -0.07145859 -0.17126139 -0.30717745 0.10623823
000040 96 d9 9c be 44 3b 37 bd 65 c9 7b bd 17 0e 67 be
       -0.30634755 -0.044734254 -0.06147136 -0.22563969
000050 45 41 91 3d 33 bc b8 be 64 48 40 bc 58 f2 5d be
       0.07092527 -0.36081085 -0.011736009 -0.21674478
000060 bc b6 ab be 67 0e 4c be 1e d4 31 3d f9 71 9e 3d
       -0.33537853 -0.19927369 0.04341518 0.07736582
000070 3e 3d c5 bd 3d 4d 93 be 6d 70 92 be a2 b8 6a 3d
       -0.09630822 -0.28769866 -0.286014 0.057304986
000080 fa 0d a9 bd 6a 3e 69 be b6 5c a7 be b8 5f 16 be
       -0.08254619 -0.22777715 -0.3268792 -0.14684951
000090 93 a8 5d 3e 97 87 c3 bc ae 64 8e be 5d df f4 3d
       0.21646337 -0.023868365 -0.27811188 0.11956666
0000a0 76 74 78 3e a6 e3 35 3e d6 12 2c be 0f e7 25 be
       0.24263176 0.17762622 -0.1680406 -0.16201423
0000b0 5d a8 70 bd c9 32 a4 3e 7d 74 17 be 3f 9f 43 be
       -0.058754314 0.32069996 -0.1479053 -0.19103716
0000c0 0d d6 60 be b8 44 69 be 02 81 e2 3d c6 0b 73 be
       -0.21956654 -0.2278012 0.110597625 -0.2373496
0000d0 86 b6 67 be 7f 95 58 be aa ae 5f be cf aa 91 bd
       -0.22628221 -0.21150778 -0.21843973 -0.07112657
0000e0 46 e0 96 be 78 32 c3 3c 42 4e 37 3e e1 7c 23 3d
       -0.29467982 0.023827776 0.17900947 0.039914016
0000f0 e0 16 75 bd ae fa 1d be 16 78 ad bd 7d 22 e0 3c
       -0.05983627 -0.15427658 -0.0847017 0.027360195
000100 df 66 1e 3d ad b8 ed bd 3f 03 87 bd b1 df 71 be
       0.038672324 -0.1160749 -0.06592416 -0.23620488
000110 98 0a 42 be 3a 78 a6 b7 eb c9 2c 3e 0f b9 df 3d
       -0.18949354 -1.9844727e-05 0.168739 0.10923969
000120 ff a1 ae be 90 ca 1d be 44 f8 3f bc c0 6a 12 bd
       -0.34107968 -0.15409303 -0.011716906 -0.035746336
000130 b1 c2 31 be 53 87 87 be fe 64 5c be 2c 9a 5d bd
       -0.17359425 -0.26470432 -0.215229 -0.054102108
000140 a4 e3 e5 3d 80 ef 5a be eb c2 19 bd 5a 60 01 bd
       0.1122506 -0.21380424 -0.037539404 -0.03158603
000150 f0 45 73 be b7 3d ba bd 04 dc 1b 3e ff d0 d4 bc
       -0.23757148 -0.090938024 0.15220648 -0.025978563
000160 ba 3c 45 be 92 f5 d9 3d eb 00 18 3e e3 ea 4b 3d
       -0.19261447 0.10642542 0.148441 0.049784552
000170 0a 84 fa bd 15 71 ae bd 8f 50 28 be 04 13 f3 bd
       -0.12232216 -0.085176624 -0.1643698 -0.11868861
000180 8b 73 20 3e 81 02 f2 bd b4 e0 3c be 37 ab 74 3d
       0.15669076 -0.11816884 -0.18445092 0.059733596
000190 3e 64 05 be 4f 70 9f be 8d 95 97 3d 3c 3f 7e be
       -0.1302652 -0.31140372 0.074015714 -0.2482881
0001a0 a7 66 34 be e3 05 6f bd 39 a5 ce 3c 29 09 39 bd
       -0.17617284 -0.058355223 0.025225269 -0.04517475
0001b0 ee 50 cb 3d 8f c1 00 3d a4 f6 6e be 29 d5 2e 3e
       0.099275455 0.03143459 -0.23336273 0.17073502
0001c0 18 55 1e be 76 64 e8 be 87 22 da 3d f9 0e 51 be
       -0.15462148 -0.45389146 0.10651117 -0.20415868
0001d0 59 0e 34 3e 6d 20 cf 3d 9f bd 0f be 20 11 69 be
       0.17583598 0.101136066 -0.14037178 -0.22760439
0001e0 02 75 c7 3d 13 87 34 bd 28 45 3a 3c 81 09 2b 3d
       0.09739114 -0.04407413 0.011369027 0.04175711
0001f0 9d 68 00 bc 1d 1a 1c 3e 30 26 ba bc 22 09 80 be
       -0.007837442 0.15244336 -0.022723287 -0.25006968
000200 92 4c f0 bd 96 1c 48 be 63 51 df 3d d1 33 0a bf
       -0.11733355 -0.19542155 0.10904195 -0.53985316
000210 b5 c3 e0 be a5 68 6e be 76 e6 19 be 4d 7f d2 3d
       -0.43899313 -0.23282106 -0.1502932 0.10278187
000220 ed c4 9e be a7 f1 43 be fa 3e b0 3d 13 4c 97 3d
       -0.31009617 -0.19135152 0.08605762 0.07387557
000230 69 2a 97 be b3 21 2e 3d f0 76 ea bc 08 f1 92 be
       -0.29524544 0.042512607 -0.028621167 -0.28699517
000240 73 a0 77 3e 1f b0 ea bd 34 6e a7 bd 51 97 34 be
       0.241823 -0.11459374 -0.081753165 -0.17635848
000250 22 36 15 3e 09 b9 6a 3d 0c fc cc bd 4e a7 47 be
       0.14571431 0.05730537 -0.100090116 -0.19497415
000260 77 a5 92 be 15 8e 1e 3d 3a 81 21 be af ce 61 be
       -0.28641865 0.03870972 -0.15771952 -0.220515
000270 23 ca 12 3e aa c5 5c bc 97 30 62 be 1a 27 df bd
       0.14334922 -0.013474861 -0.22088848 -0.1089613
000280 4d bf a7 bd 18 0b 8c be aa 62 8c be 9e da 85 be
       -0.081907846 -0.27352214 -0.27419025 -0.26143354
000290 44 80 6c bd 00 ff 95 be 18 c4 8f bd 34 ca 70 be
       -0.05773951 -0.29296112 -0.07019824 -0.23514634
0002a0 ea 6c 8b 3c 23 86 99 be 5e 1b c7 bc e6 f8 98 3b
       0.017019708 -0.2998515 -0.024305042 0.004668343
0002b0 68 1f 6f be 30 01 35 3e 8e 4d 9d be 41 ff 63 be
       -0.23351824 0.17676234 -0.30723232 -0.2226534
0002c0 e4 06 17 be 31 71 24 bd 27 aa b4 be ca 72 68 3b
       -0.14748722 -0.04014701 -0.35286066 0.003546881
0002d0 bb d1 b7 be 2c 2d e0 3d 53 3b 82 be a2 cc 80 be
       -0.359022 0.10946116 -0.25435886 -0.25156122
0002e0 ca 95 58 be 35 1f cf bd 96 61 4e be 91 f5 83 3d
       -0.2115089 -0.10113374 -0.20154414 0.064433224
0002f0 fe 55 80 be 5e 3f 8e be e6 a5 b0 3d 22 ad ce 3d
       -0.25065607 -0.2778272 0.086253926 0.10091616
000300 e1 d9 04 3c 82 86 cd 3c d6 37 e5 be ca 95 b9 be
       0.008108587 0.025088552 -0.44769162 -0.36247092
000310 59 7b 76 be 9f d8 aa 3d fc 2b b9 3b db 0b d1 bd
       -0.24070491 0.083420984 0.0056509953 -0.102073394
000320 08 b3 07 be 87 13 64 bd 40 f2 0a 3d 02 54 e9 3c
       -0.13251889 -0.055682685 0.033922434 0.02848244
000330 79 15 c4 3d fb 88 b4 bd 96 e9 5f 3c 03 ff ae be
       0.09574408 -0.088151895 0.013666531 -0.34178934
000340 ef a2 33 be e3 7c 33 3e 2d de 99 be d9 4f 37 3d
       -0.17542623 0.17528109 -0.3005232 0.044753883
000350 cb f5 29 3e 6f ee 5c 3e f0 7d a3 be 09 61 00 3d
       0.16597669 0.2157533 -0.3193202 0.03134254
000360 28 b0 44 bd 5e 40 99 be f0 b8 df 3d 35 0b a3 be
       -0.04801956 -0.2993192 0.10923946 -0.31844488
000370 54 da 56 3d 0a aa 50 bd 0b 07 0a 3e 23 51 68 be
       0.052454308 -0.050943412 0.13479249 -0.22687201
000380 84 27 03 be 96 aa e3 3d 2d 8d 98 be c4 43 7c be
       -0.12808043 0.11116521 -0.2979521 -0.24635226
000390 d8 c5 cb bd be dc 1c be 99 60 be 3b 40 b5 96 3c
       -0.09949845 -0.15318581 0.005809855 0.018396974
0003a0 b8 a3 ed 3d 3c e8 7f be 42 c4 5b 3d 48 ac d0 bd
       0.116034925 -0.24990934 0.053653963 -0.1018911
0003b0 78 ba 4c ba e5 17 59 bd f8 7f 85 be 55 a1 cd be
       -0.00078097684 -0.053001303 -0.26074195 -0.4016215
0003c0 9c ec 61 bd ac 77 e7 3d ad 7e c0 be f9 1a f5 bc
       -0.05515729 0.113021225 -0.37596646 -0.029920088
0003d0 e2 68 be 3d f6 f5 8c 3d cb ad 92 3c 85 46 48 3e
       0.092973486 0.06882851 0.017905137 0.19558151
0003e0 62 a0 c7 3c 38 f6 99 be de 4f e5 bd 35 2e 00 be
       0.024368469 -0.30070662 -0.11196874 -0.12517627
0003f0 45 3b 24 3d 13 88 c2 be 7e ce 0e bd 7b 05 99 be
       0.040095586 -0.3799444 -0.034864895 -0.29886994

weight f4 [256, 256]
000000 8f 54 89 3d ac 94 c3 be 7e 8b 83 be 31 94 73 be
       0.067055814 -0.38199365 -0.25692362 -0.23787
000010 17 b3 8e be 43 16 87 3e ce e7 01 3e 11 3a 8d 3e
       -0.2787101 0.26384172 0.12686083 0.27583364
000020 d1 b5 4f 3e 4b 82 40 be 23 b1 40 be 7b 90 05 bf
       0.20284201 -0.18799703 -0.18817572 -0.52173585
000030 88 fa 23 bf ed 48 d3 be 8e 4d 80 3e 9e 10 f8 3c
       -0.64054155 -0.41266575 0.2505917 0.030281361
000040 3c 77 86 3e af 96 53 bd 2b 71 4b 3d 98 8d 06 3e
       0.26262844 -0.051657375 0.049668472 0.13139951
000050 f6 93 6b 3e 88 a5 4e 3e c2 4f e3 3d 66 3f 4f 3d
       0.23005661 0.20180333 0.11099197 0.05059757
000060 34 8e ad 3e 45 87 1f be 8e a7 06 bf 0a 2e 25 3f
       0.33897555 -0.15578945 -0.5259942 0.64523375
000070 e8 85 0d 3e 20 80 32 bd 05 7a 59 be b7 e2 0f be
       0.13820612 -0.04357922 -0.21237953 -0.14051329
000080 cc e9 ed 3d e5 16 93 bc 76 a2 9f 3d 8e 93 51 3e
       0.11616859 -0.017955253 0.07794659 0.20466444
000090 13 8e 44 bd e8 ed ba 3e fc e9 b5 3e a0 b0 dc 3d
       -0.047987055 0.36509633 0.35530078 0.10775876
0000a0 21 aa da 3e 9f f4 1e be b4 a1 12 bf 4d 39 c2 be
       0.42707923 -0.15523003 -0.5727799 -0.37934342
0000b0 73 94 d6 be 24 69 9a 3e be 77 95 3e 00 11 66 3e
       -0.41910133 0.3015834 0.2919292 0.22467422
0000c0 e6 1c 37 be 5f c1 d4 bd 76 75 99 3d 94 bd ee bb
       -0.17882118 -0.10388445 0.07493107 -0.007285783
0000d0 e0 cf 28 3d db 16 41 3e c4 b9 26 bd 05 da e3 3e
       0.04121387 0.18856375 -0.040704504 0.44502273
0000e0 6b 9e 08 3d ea 73 b0 be 0d 76 84 3e 22 76 83 3e
       0.033354204 -0.34463435 0.25871316 0.25676066
0000f0 2f e9 c0 bd 51 31 34 3e 38 79 d2 b9 90 9f c0 be
       -0.09419476 0.17596938 -0.00040144636 -0.37621737
000100 b1 fc 50 bf e4 79 f7 3d 65 f2 11 bc 8d f4 27 3e
       -0.81635576 0.12083796 -0.008907889 0.16401882
000110 c0 61 6b 3e 4c b3 59 bf d0 2d 51 3e 6b ef 79 be
       0.22986507 -0.8503921 0.20427632 -0.24407737
000120 38 1f 75 3c 64 ec af 3d 5e 0c 2b bd df 2e e5 be
       0.014961056 0.0859001 -0.04175984 -0.44762322
000130 67 e3 cd bc 2e 7d e7 bc 68 d2 74 be 0c ea 52 bd
       -0.025132848 -0.028257933 -0.23908389 -0.051492736
000140 e4 74 47 3d 17 7d 21 be 55 7a 05 bd 8e 07 44 3e
       0.04869546 -0.15770374 -0.032587368 0.19143507
000150 14 1b 63 3d c3 97 d0 3e 85 bc bd be d4 25 f5 3e
       0.055445746 0.40740785 -0.3705789 0.47880423
000160 c7 e0 3d be 58 ea 3e bf 61 97 cd 3d da f3 5b 3e
       -0.18542777 -0.7457633 0.10038639 0.2147974
000170 94 90 ad be 50 2a d4 be be 29 70 3e 78 31 e8 3d
       -0.33899367 -0.41438532 0.23453423 0.113375604
000180 14 c7 af be af 07 c9 be 7b 5c 17 3e 14 ae cf 3e
       -0.34331572 -0.39263675 0.14781372 0.405625
000190 5c 40 60 3e 86 91 b2 3e 4e 20 be be c7 1d b2 be
       0.21899551 0.3487665 -0.37134022 -0.34788343
0001a0 b7 e5 70 3e e9 e7 00 be 47 14 56 bd 28 bf ac 3e
       0.2352513 -0.12588467 -0.05226543 0.3373959
0001b0 f6 ff 83 be 02 d2 5f 3e 99 9b 47 3d bd 9a f3 3d
       -0.2578122 0.21857455 0.048732374 0.11894748
0001c0 1d 3d 5d 3e 45 01 30 3e 6b 4e 5b bf 0e 18 30 bd
       0.21605344 0.17187984 -0.8566653 -0.04299169
0001d0 98 65 e6 3d a7 34 1d bf 64 5c 34 be c8 ba 4d be
       0.11249846 -0.61408466 -0.17613369 -0.20090783
0001e0 38 59 c1 bd 58 84 4c 3e c7 66 72 be 61 bf 36 3e
       -0.09440845 0.1997236 -0.23672019 0.17846443
0001f0 ca 80 40 bd 37 43 90 3e 8b fd 73 be 35 bf 41 3d
       -0.046997823 0.2817628 -0.23827188 0.04730149
000200 48 f1 4c 3a 81 dd 8a 3e 13 da 16 bf 85 e9 bd 3d
       0.0007817936 0.2712212 -0.58926505 0.09273056
000210 ae eb 84 be 0d c5 8c be b2 78 22 3e a0 40 06 bd
       -0.2596106 -0.27494088 0.15866354 -0.032776475
000220 3c b0 10 bd 99 12 c7 bd 01 c4 c3 3c 6e a8 81 be
       -0.03532432 -0.09720344 0.023897173 -0.25323814
000230 b4 7b ef 3d fe 95 cd 3d f8 54 9c be d7 ad a4 be
       0.116935164 0.10038374 -0.30533576 -0.3216388
000240 37 a3 9f be c8 78 47 3d d4 91 10 3e 6b b3 3f bd
       -0.3117921 0.04869917 0.14118129 -0.046801966
000250 30 65 a1 bd 99 3c b0 be 7e a5 8c 3e b2 8f 79 bd
       -0.07880628 -0.34421232 0.2747001 -0.060928054
000260 9c 53 b9 be 89 4e a6 bb d4 16 36 bf c6 2b 76 be
       -0.361966 -0.00507528 -0.7112858 -0.24040136
000270 3a eb 4f 3e f3 56 49 3e 91 94 f2 3d e4 0f 45 bd
       0.20304576 0.19662075 0.11844743 -0.048110858
000280 85 5f ab 3d 46 16 ec be c7 b8 99 3d 1c fa a8 3b
       0.08367828 -0.46110743 0.075059466 0.0051567685
000290 d8 65 7c 3d 2f 3f 1a 3e b4 66 92 bc d1 d3 96 be
       0.061620563 0.15063165 -0.017871238 -0.29458478
0002a0 e5 9c ed bd d5 70 e4 bd fb 0b aa be 2a 57 4c 3d
       -0.11602191 -0.111543335 -0.33212265 0.049887814
0002b0 a6 b6 b4 3d 00 cb b4 3e d6 ad fe bd 45 0b fb 3d
       0.088239 0.35311127 -0.124355 0.12258009
0002c0 0b 6e 62 3e 23 79 02 bd 38 c4 c5 bc 64 41 79 bc
       0.2211229 -0.031853806 -0.024141416 -0.015213344
0002d0 f0 42 1d be 2b 76 1a bf a9 73 7c bd f7 ec 75 3d
       -0.15357566 -0.6033656 -0.06163374 0.06004044
0002e0 35 03 73 be 41 f0 15 3e 76 d5 40 be 0e 5b dd bb
       -0.23731692 0.14642431 -0.18831429 -0.0067552393
0002f0 e8 9f 9a 3e 44 35 ae be 6c 5c e6 3d 0e 73 53 be
       0.30200124 -0.34025013 0.11248097 -0.20649359
000300 0f c0 48 be 0d 3a 22 be a6 37 08 3e aa 4c 80 be
       -0.19604515 -0.15842457 0.13302478 -0.2505849
000310 53 a3 85 be 2b 44 41 3e 06 8a 05 3e 8f b0 65 bc
       -0.2610117 0.1887366 0.13040933 -0.014019146
000320 33 45 57 3e 86 34 21 3d 70 47 d1 bd 4f fe f4 bc
       0.21022491 0.03935673 -0.10218704 -0.02990642
000330 c7 fe 1c 3e 8a f0 9b 3c 37 a4 2c 3e 80 e8 11 3d
       0.15331565 0.019035596 0.16859518 0.03562212
000340 d5 df 33 3e c3 59 ae 3e 18 be af 3e 88 93 07 3e
       0.17565854 0.34052858 0.34324718 0.13239872
000350 af 87 64 be 7c 38 5f 3e c9 7b a5 bd 06 24 6c be
       -0.22317384 0.21798891 -0.08080251 -0.23060617
000360 4b d9 e5 bc f7 a5 38 be 87 59 78 be a1 c6 66 be
       -0.028057715 -0.1803206 -0.24252902 -0.22536708
000370 f6 66 79 3e 67 e6 78 be d4 e7 b7 3e 57 19 41 3e
       0.24355683 -0.24306642 0.35919058 0.18857323
000380 e8 f2 38 be bc 2d d9 be fc 8e 6d bf 51 e9 cb bc
       -0.18061411 -0.42417705 -0.927963 -0.024891527
000390 8c 9a 65 3d 7c 5f 05 be a7 b7 c5 bc 1e a6 e3 3d
       0.05605559 -0.13024706 -0.024135424 0.11115669
0003a0 16 24 06 bd 55 34 a9 be 2a 56 48 3e 02 85 26 3e
       -0.032749258 -0.3304774 0.19564119 0.16261676
0003b0 01 17 38 bd f4 a9 30 bd 9d 84 79 be c6 77 81 be
       -0.044943813 -0.04313083 -0.24366994 -0.25286692
0003c0 05 94 b7 bd 7e 40 37 be f6 10 5f bc f3 db 70 3e
       -0.08963779 -0.17895696 -0.013614884 0.23521404
0003d0 cd 2f 4a bd db 76 20 be 39 04 a9 3d 10 cd 0c 3d
       -0.049361993 -0.1567034 0.082527585 0.03437525
0003e0 62 f9 04 3e 25 12 a3 be 71 08 b1 be 29 08 f9 3d
       0.12985757 -0.3184978 -0.34576753 0.121597596
0003f0 d6 40 85 3d 8a b2 79 3e 41 f5 bb 3d 90 fb a0 be
       0.06506507 0.24384513 0.09177638 -0.31441927

bias f4 [256]
000000 82 29 9d be c4 6f 68 3e 19 24 0b be 25 2f 38 bd
       -0.3069573 0.22698885 -0.13587989 -0.044966836
000010 18 0d 55 bd 91 b9 54 3e ed 9a a5 3d 06 38 65 3d
       -0.05201444 0.20773913 0.080861904 0.05596163
000020 b1 2e 87 3e a8 c3 90 bd fb d7 9a bd b4 c2 ad bd
       0.2640281 -0.070685685 -0.07560726 -0.08484402
000030 bc 09 a2 3d 24 21 bc 3d 2a 32 01 3e a6 ee 67 bb
       0.07912013 0.091860086 0.12616792 -0.0035390048
000040 22 1f 91 bd 6f a7 9b bd 14 14 74 bd ea ef ff bc
       -0.07086016 -0.07600295 -0.05958946 -0.03124233
000050 4b 92 a4 3e f6 4d a0 3d 95 96 4e 3e 76 6e ae bc
       0.32142863 0.0782737 0.2017463 -0.021292906
000060 67 17 09 bd 57 c6 65 be 78 ab 98 bd 61 46 ec bd
       -0.033469584 -0.22438942 -0.0745458 -0.11536861
000070 a2 42 07 be 54 a4 56 3e 49 60 34 3e ba 9e e0 3d
       -0.13209012 0.20961124 0.17614855 0.10967775
000080 e3 90 83 3c a4 a6 87 be ef 3b 38 bd f2 82 33 3e
       0.016060298 -0.26494324 -0.044979032 0.1753042
000090 69 24 0a be 40 e3 d7 bb 7a 1a 4f bd 19 d1 81 bd
       -0.13490452 -0.0065883696 -0.05056236 -0.0633871
0000a0 7a 53 c7 bd 1e 62 97 3e 0e ce 02 3e f7 f5 5d bd
       -0.09732719 0.29567045 0.12773916 -0.05418965
0000b0 05 96 55 be 0f 58 11 bd 7e f8 d7 bd 20 bc d0 bc
       -0.20858009 -0.03548437 -0.10545443 -0.02548033
0000c0 43 b4 b1 be 02 16 95 bc e1 68 78 ba 39 d7 f8 bc
       -0.3470784 -0.01819897 -0.00094760774 -0.030376064
0000d0 c1 f9 44 be 67 59 04 be 7a ec fa bb 99 57 25 bd
       -0.19235899 -0.1292473 -0.0076575847 -0.040366743
0000e0 99 76 6d bd 26 6e 14 bd 42 a1 35 3e 50 0b 5c bc
       -0.05797443 -0.03623786 0.17737296 -0.0134304315
0000f0 cb 64 83 bc cd ea b5 3d de 39 47 bc a8 51 b1 bb
       -0.016039273 0.08882675 -0.012159793 -0.0054113455
000100 67 b5 f5 bc 8f 24 70 bd 64 85 2e 3d 02 a7 ae bd
       -0.029993726 -0.058628615 0.04260768 -0.08527948
000110 97 ef ec bc 9b a1 94 bd e4 99 2a bd fe 8f e7 bc
       -0.02892284 -0.07257386 -0.041650668 -0.028266903
000120 3e 6a 0e 3d 15 82 16 bd 10 9e 5d bd 2c f7 2a 3e
       0.03476929 -0.03674515 -0.05410582 0.16695851
000130 3e 64 b9 bd b0 36 90 3e f4 34 88 3e 4e a4 a7 3d
       -0.09052323 0.28166723 0.266029 0.081856355
000140 4b 95 c9 bd c5 4c 92 bd 49 6b e6 bc 4c 42 f1 bd
       -0.098429285 -0.07143549 -0.02812733 -0.11780223
000150 21 5e 3d bd d5 73 e7 bd 12 fc 8e bb eb 5e 1c bd
       -0.046232346 -0.1130139 -0.004363545 -0.03817646
000160 e7 ca 2c 3e fe 27 0f 3e 35 82 94 bd 68 3c a6 bd
       0.16874276 0.139801 -0.072513975 -0.0811699
000170 71 a4 92 bd 73 38 d4 3d ba ea fa bc 62 08 3c bc
       -0.07160271 0.10362329 -0.030629504 -0.011476608
000180 56 90 ac bd 52 88 ce be 0a 74 3b bd ba 6e 1c be
       -0.084259674 -0.4033838 -0.04576496 -0.15276614
000190 da ff bc bd f7 6c 2c 3c 4e 08 fd bc 7d d7 62 be
       -0.09228487 0.010524026 -0.030887749 -0.22152515
0001a0 f5 11 99 bd 35 f6 d6 3d 30 bc 8a bc 6d e9 82 be
       -0.07474128 0.10496179 -0.016935438 -0.25568715
0001b0 32 ad 04 be 73 80 00 3e 71 f5 e8 bc ae 39 57 3e
       -0.12956694 0.12549 -0.028437348 0.21018097
0001c0 9e 76 da b8 53 c3 57 be 7f 2e a6 bd 91 ea 85 bd
       -0.00010417144 -0.21070604 -0.08114337 -0.065388806
0001d0 27 3d 15 be 1f fe c9 bd 24 79 90 3e 4c 66 9d bc
       -0.14574109 -0.09862923 0.28217423 -0.019213818
0001e0 8d 69 14 bd 9d a4 de bc 77 4c 4b bd 37 87 ce bc
       -0.036233474 -0.027178103 -0.04963347 -0.02521096
0001f0 76 3c ec bd 40 92 8b bd 8b 49 b6 bd 54 2c 98 bd
       -0.115349695 -0.06815004 -0.08900746 -0.0743033
000200 ff 6e 10 bd 4b c0 c1 bd e6 3e a5 bd 23 eb ba bd
       -0.035262104 -0.09460505 -0.080686375 -0.0912688
000210 1b a9 cf bc aa 50 3e be 06 4d c4 bc 13 73 42 3e
       -0.02534919 -0.18585458 -0.023962509 0.1898921
000220 f0 0e ab bd 7b eb 73 bd 94 6c d7 bd 95 65 c8 bb
       -0.083524585 -0.059550744 -0.105187565 -0.006115625
000230 23 83 c8 3d 4b a1 3e be dd 69 04 be 0d 84 e7 bc
       0.09790637 -0.18616216 -0.12931009 -0.028261209
000240 01 ed a5 bc ef f2 ad bd 72 ad e0 3d 5e 99 82 bc
       -0.020254614 -0.084936015 0.10970582 -0.015942272
000250 bd 32 5e bd ab ba 79 bd a1 48 62 3e 34 c9 a0 3e
       -0.054247607 -0.060969036 0.22098018 0.31403506
000260 7c 29 1f be 3f 93 bd bd f0 4a 2d 3d b6 06 97 3c
       -0.15543169 -0.092566006 0.042307794 0.018435817
000270 52 12 13 be 2e 22 09 bf 3c 8c 41 bd 15 33 71 bd
       -0.14362457 -0.5356778 -0.04725288 -0.058886606
000280 e4 b7 b9 bd d0 cb 11 bd f7 7b bd bd c1 38 06 3e
       -0.090682775 -0.03559476 -0.0925216 0.13107587
000290 4f 3a 61 be da f8 f0 bd 57 84 65 3e 28 b4 c2 bd
       -0.21994899 -0.11766215 0.22413765 -0.09507018
0002a0 e0 0d 4d bd 22 6b a9 bd 34 5c fb bd 9a 2a cc bd
       -0.05006206 -0.08272387 -0.12273446 -0.09969063
0002b0 80 75 ae bb 55 85 8b be 49 9c 0e 3e 7f f8 37 bd
       -0.0053240657 -0.27250162 0.13926806 -0.04491472
0002c0 8d ac 6e bc 4f bf 43 3a 0f b7 19 be 39 88 a8 bd
       -0.0145675065 0.0007467167 -0.15011238 -0.082291074
0002d0 87 46 f5 3c 56 cf ba 3c 84 1d 22 3e 68 f5 08 3c
       0.029940857 0.022803944 0.15831572 0.008359291
0002e0 5f 7b b3 3d 13 b6 80 bd 42 39 80 bd b1 0a 14 bd
       0.087637655 -0.06284728 -0.06260921 -0.03614301
0002f0 9a 67 c1 bb 75 9f da bd 03 27 83 be 2b 78 5c bd
       -0.005902243 -0.10674945 -0.256157 -0.05382554
000300 4b a6 da bd 1b dc 68 bd 98 a5 b5 bd fb f6 3e be
       -0.10676249 -0.056850534 -0.08869475 -0.18648903
000310 a2 ae 6b be df a2 b5 bd 0d c4 b2 bd ef a0 35 bd
       -0.23015836 -0.08868956 -0.087288 -0.04434293
000320 b5 a6 33 bd ee b5 4b 3e 09 c0 e8 be e0 17 e8 bd
       -0.043860156 0.1989362 -0.4545901 -0.11332679
000330 a5 d3 3f bd 02 8e a8 bd 84 4f 16 3e fc e8 36 3d
       -0.0468327 -0.08230211 0.1467877 0.044655785
000340 f0 e9 be bd de ac 6a bd 1f 56 39 bd dc e7 0c be
       -0.09321964 -0.057293765 -0.045248147 -0.13760322
000350 01 0c de bd 6b ba d1 bc 40 3b 2d 3b ad 41 07 be
       -0.10842133 -0.025601586 0.002643302 -0.13208647
000360 e7 e9 26 be 81 5e 27 be 83 70 a1 be bc d7 8d bd
       -0.16300164 -0.16344644 -0.31531152 -0.06925914
000370 84 e3 85 bd 72 5a b1 bc d3 b1 84 bd c4 47 f3 bc
       -0.06537536 -0.021649573 -0.0647923 -0.029697306
000380 91 31 54 bd 02 1d 57 3e 26 5b c4 bd bd bc 64 3e
       -0.051805083 0.2100716 -0.09587698 0.22337623
000390 2d 3b cb bc 78 e6 ab bc e2 28 5a be 03 c3 c4 bd
       -0.02480849 -0.02098392 -0.21304658 -0.09607508
0003a0 e4 5a b4 bc 84 cc cc bd 6a d3 93 bd 46 d0 2f 3e
       -0.022015996 -0.09999946 -0.072180584 0.17169294
0003b0 8a 01 87 bc a4 cb 8c bd fb bc 0e 3e 6f aa 89 bc
       -0.016480226 -0.06874779 0.13939278 -0.016804902
0003c0 0b 9c 85 bd a1 41 5e 3e 7a 27 8a bd 94 5d f9 bc
       -0.065239035 0.21704723 -0.06745811 -0.03044013
0003d0 b2 f1 0f bd fb e0 80 bb bb f4 7c bd d0 82 9a bd
       -0.035142608 -0.0039330698 -0.06175683 -0.07544482
0003e0 1e f3 56 bd e3 d2 8b 3e e0 21 e9 bc 36 c8 6a 3d
       -0.05247795 0.2730933 -0.028458536 0.057319842
0003f0 7d 63 2d bd c3 bb ce 3d ab a4 37 bd 1d bc 7f be
       -0.042331208 0.100944065 -0.044834774 -0.24974103

weight f4 [3, 256]
000000 3c 3a fc be 4e e7 0b be 40 ac 60 3c 72 62 25 3c
       -0.4926318 -0.13662454 0.013712943 0.010094272
000010 6d 1c ca b9 dc 4c 1f 3e 86 a7 02 3e 0b bc f2 bd
       -0.0003854962 0.15556663 0.12759218 -0.118522726
000020 a7 56 a7 3b 94 38 a2 3b af 1d b3 bc 52 46 5f bd
       0.0051067653 0.0049505923 -0.02186474 -0.054510422
000030 e9 c6 dd 3e 48 36 57 bc 16 fa 88 3f 86 af 1b 3d
       0.4331582 -0.0131355 1.070132 0.03800919
000040 31 9d 1f 3d 4c 36 47 3d be 89 90 be 7f a1 12 3d
       0.03896827 0.048635766 -0.2823009 0.035798546
000050 35 c1 1a 3e d2 3f 00 3e 49 f8 1f be 17 f3 cd 3c
       0.15112765 0.12524346 -0.15622057 0.025140328
000060 0f 13 c2 3d fb ae cf 3c 7b 60 84 3c 49 79 8f be
       0.094762914 0.025351992 0.016159287 -0.2802222
000070 7e 9b a5 3c 77 52 c0 3e a9 b4 b4 be 29 c6 9d 3d
       0.020215746 0.37562916 -0.35294083 0.07703812
000080 42 1d cb bd 6a b3 61 bc 3a ce b0 3a 46 ad fb 3c
       -0.0991769 -0.013775686 0.0013489195 0.030722272
000090 f7 a5 0c be 48 8a 5b bc 57 2f 40 bb 93 62 eb bb
       -0.13735186 -0.013399668 -0.0029325092 -0.007183382
0000a0 14 c3 91 3d 2b bf 8f 3d 72 32 da 3c 1a 1f 7c bc
       0.07117286 0.07018884 0.026635382 -0.015388275
0000b0 2a 61 83 3e 1b 68 a8 3d 4d 36 33 bb cd 31 d3 bc
       0.25660068 0.082229815 -0.0027345598 -0.025780583
0000c0 d1 00 23 3f 7d 80 f1 3b f7 2f 75 3d 88 2f ab bc
       0.6367312 0.0073700533 0.059860196 -0.020896688
0000d0 bd 4d 09 3d cc 5e 76 bc f7 c9 0e bd 6f 9b 28 bd
       0.033521403 -0.01503725 -0.034860577 -0.041163858
0000e0 81 16 2e bb 73 40 1e 3b ba 19 c6 bc 08 e0 67 bc
       -0.0026563706 0.0024147301 -0.02418219 -0.014152534
0000f0 8b fe 6f 3d 2a b9 35 be 86 79 3f 3d ce 08 06 bd
       0.05859236 -0.17746416 0.046746753 -0.03272324
000100 bb 36 2e bc 07 8f bc 3c 51 d0 f9 bd 9c d9 1e bd
       -0.010633166 0.02301742 -0.12197936 -0.038781747
000110 7f 6c 31 38 55 96 14 bd f6 5a e8 3b b4 e9 7e bc
       4.2301133e-05 -0.03627618 0.0070909215 -0.015558649
000120 21 d8 6e 3e 54 6b 63 bd 9c c1 8e bc 94 64 39 be
       0.23324634 -0.055522278 -0.017426305 -0.18104774
000130 db 1a a1 bd ae 12 a3 3e 3d fe 79 bd 88 ba 2d 3f
       -0.078664504 0.3185019 -0.061033476 0.6786275
000140 5e da cc bc d4 fa 03 bc 97 cc 57 bd f9 78 3d be
       -0.02500647 -0.008055408 -0.052685346 -0.18503179
000150 34 79 29 bc 3b 12 17 bc f9 4d 95 3e d8 af 1e 3c
       -0.0103438385 -0.009220655 0.2916105 0.009685479
000160 a7 39 a0 3d 2c 76 81 bd b5 e8 58 bc e4 59 22 3d
       0.07823496 -0.063213676 -0.013239075 0.039636508
000170 ae 3e 87 3b c2 32 85 3c 69 39 72 be 18 64 54 bd
       0.004127345 0.016259555 -0.23654713 -0.05185327
000180 8c c0 44 bd 1d 99 db be d5 7c 49 bd 9d 49 07 3f
       -0.04803519 -0.42890254 -0.049191315 0.528467
000190 38 4d 44 3d b4 24 9a bb 46 19 16 3d 7f d1 89 be
       0.047925204 -0.0047040824 0.036645196 -0.26917645
0001a0 34 13 63 3d 26 35 0c 3e 06 be a1 be 64 b1 16 3f
       0.055438235 0.1369215 -0.3159029 0.58864427
0001b0 af 43 9a bd 61 a8 6b bd c6 00 f9 3c 8f 5b 59 bd
       -0.07532441 -0.057533626 0.030395877 -0.053065833
0001c0 2d a8 81 bd c1 71 02 be b7 7f da 3c 68 42 35 3d
       -0.06330905 -0.12738706 0.026672227 0.044252783
0001d0 19 57 8a 3e 77 cb 38 bc 57 64 9c 3d 24 92 90 be
       0.27019575 -0.011278979 0.07636326 -0.28236496
0001e0 88 7d 85 bc 60 88 a8 be 75 f1 fb bc 23 23 b9 3e
       -0.01629521 -0.32916546 -0.030754784 0.3615962
0001f0 be 5d 07 3e 62 39 48 bd 89 81 c8 3c d7 3f f3 bb
       0.13219354 -0.04888285 0.02447583 -0.007423382
000200 c3 d8 17 bd fc 23 bd 3c a6 ec 39 3c 58 5b fb 3c
       -0.037071954 0.023088448 0.011347925 0.030683205
000210 fa 39 cf 3c 7d ca 23 be a3 2e d5 bb 99 1c 84 bd
       0.0252962 -0.15995212 -0.0065058037 -0.06450767
000220 43 a6 25 bd 19 3f 0e bd b4 3e c4 3a 37 7c 58 3d
       -0.040441763 -0.034728143 0.00149723 0.052852836
000230 17 7f b8 be 6a 69 06 3e 2a e3 67 3e 35 9a 6a 3c
       -0.36034462 0.1312615 0.2264525 0.014318992
000240 dc ac a7 3c b7 e4 cd 3c 75 68 a8 3c 3f 93 82 3d
       0.020468168 0.025133474 0.020557621 0.06375741
000250 b7 96 9c ba b9 8c e8 bd cf 41 3e 3e 0b 4a bc 3d
       -0.0011946772 -0.11354966 0.18579791 0.0919381
000260 6b a6 46 bd 1d 0f 47 bc 70 8e 17 3e 16 1a a4 be
       -0.048498552 -0.012149599 0.1480043 -0.32051152
000270 7d 84 55 ba 75 17 9d be 9d 3f 39 bb 6f 09 57 bd
       -0.00081450475 -0.3068196 -0.0028266676 -0.05249923
000280 49 1c 8a bd da 7a cb 3d 29 8d 56 bc 82 96 c2 bd
       -0.06743676 0.099355415 -0.013095179 -0.09501363
000290 ab f6 64 be 62 76 97 3e da ee 99 3d 7c c4 36 3a
       -0.22359721 0.29582506 0.075162604 0.00069720275
0002a0 64 62 0f bd 96 12 fb 3c b7 75 10 3e fb f9 f9 3c
       -0.035005942 0.03064851 0.14107405 0.030514708
0002b0 be a0 54 3f ee 16 1d 3f 97 ff 50 3e df 98 2b 3d
       0.83057773 0.6136311 0.2041 0.041893836
0002c0 4c e4 37 3d 6a 5d 4a bc 3e a5 80 3e 85 3a bd 3c
       0.044895455 -0.012351373 0.2512607 0.023099193
0002d0 e0 d0 df 3d 2c 99 08 be 7b 33 e7 bd a5 df 19 bd
       0.109285116 -0.1333968 -0.11289116 -0.0375668
0002e0 a6 e2 82 bc 8f d5 ae 3a 6a a0 3d bd b2 c1 6b bd
       -0.015977215 0.0013338792 -0.04629556 -0.05755777
0002f0 86 ff a9 bd 2b 83 f7 3c b5 d7 c2 3e 84 0b 17 3d
       -0.0830069 0.030213913 0.38055196 0.036876217
000300 67 2b dc bc f0 b6 2e 3c 08 56 6f 3c c6 40 9d 3c
       -0.026876165 0.010663733 0.014607914 0.019195925
000310 63 51 23 be 39 3c 56 3d 0f 05 80 bc d5 95 48 bc
       -0.15949015 0.052303527 -0.015627412 -0.012242754
000320 9f f3 16 bd 93 6b 30 3e b2 36 12 bf 87 00 c8 3c
       -0.03685343 0.17228536 -0.5711471 0.024414314
000330 af 71 35 bd f4 d6 60 be 27 71 9c 3d d8 f7 04 3e
       -0.04429787 -0.21956998 0.076387696 0.1298517
000340 21 e7 b9 bc 84 2b 56 bc a1 dc 0e bb 9b e0 86 3e
       -0.022693219 -0.013071898 -0.0021798986 0.26343235
000350 cf c8 7b 3d c3 68 09 3c cf f6 62 3d c7 1e 96 3e
       0.061470803 0.008386794 0.055411156 0.29320356
000360 da 84 40 bd 72 a6 44 be ba e6 84 be 2c 83 ce 3b
       -0.047001697 -0.19204119 -0.2595728 0.006302258
000370 ef c5 76 3c 16 42 57 3d 5a 85 bd bc 27 bf 5d 3d
       0.0150618395 0.05255326 -0.023134876 0.054137375
000380 92 ad e7 3c 42 a1 80 3e 8c e0 c2 bc 69 0f 05 3d
       0.028281007 0.2512303 -0.023788713 0.0324854
000390 e3 f0 53 3c 2b ce bb 3c 3a 82 41 3e 19 1c f2 bc
       0.01293585 0.022925457 0.18897334 -0.029554414
0003a0 a5 e7 95 bc 4b 94 cc 3c aa 68 3f bc 40 fa 97 be
       -0.018298933 0.024973055 -0.011682669 -0.29683113
0003b0 55 c9 36 bd 1b 5c 3c bd 71 08 72 be 10 95 09 bd
       -0.0446256 -0.045986276 -0.23636033 -0.033589423
0003c0 8a 77 af 3d db a1 32 be f3 e8 92 bc b3 94 ec b9
       0.08567722 -0.17444555 -0.017933344 -0.00045124217
0003d0 0f 31 bb 3b f5 78 78 3e bc 68 8c 3b 29 fc 3b 3d
       0.0057126353 0.24264891 0.0042849462 0.045894776
0003e0 71 ae e9 3b 89 68 8a 3d ba 52 8a be 07 b9 94 3c
       0.0071313907 0.0675822 -0.2701624 0.018154634
0003f0 58 c2 52 bd c0 df d1 3d b3 b5 81 bb ce 90 b2 3c
       -0.051454872 0.10247755 -0.003958428 0.021797564

bias f4 [3]
000000 30 8f fb 3d 4d e1 2a 3e ee 2e d0 3d
       0.1228317 0.16687508 0.10165201

weight f4 [3, 256]
000000 21 3d 19 3e e1 c7 da be e2 9b 95 bd b2 16 08 bd
       0.14964725 -0.4273062 -0.07305123 -0.03322477
000010 6a d5 83 3d d2 a6 11 3c 17 16 1b bf 24 28 42 bd
       0.0643719 0.008889871 -0.6058058 -0.047401562
000020 0b a3 dc bd 56 cd 4c 3d d5 d7 f2 ba 84 5f 92 3d
       -0.107732855 0.05000051 -0.0018527458 0.071471244
000030 fc 9e 8d 3e 3f 8c 45 3e 45 26 9d 3e 66 80 35 bc
       0.27660358 0.19291781 0.3069326 -0.011077976
000040 d1 67 30 3c 66 c9 bb bb ef 92 57 bc aa cb 29 bd
       0.010766939 -0.0057307957 -0.01315759 -0.041453995
000050 74 1b 9d be cb a3 36 bd 29 04 70 bd 6c 00 01 3d
       -0.30685008 -0.0445898 -0.058597717 0.031494543
000060 68 e2 0c 3d c4 0d ef bc 36 d5 0c 3c ac 20 af bd
       0.034395605 -0.029181369 0.008595755 -0.085511535
000070 9f c9 06 3e 87 9f 09 3e 3e 4d d7 be be 46 77 be
       0.1316285 0.13439761 -0.4205112 -0.2414808
000080 30 e1 8d bd ce 45 ae bd 87 e1 2f 3d f3 f2 a5 be
       -0.06927717 -0.08509408 0.04293969 -0.32411918
000090 86 4e 11 3e 54 0b 53 3d c8 62 7b 3c 28 67 c4 bb
       0.1419011 0.051524475 0.0153433755 -0.0059937425
0000a0 b2 aa 01 3d a3 bb 05 bd 03 fe 28 3d 9b 9d f3 bb
       0.03165693 -0.032649647 0.04125787 -0.0074345595
0000b0 47 1c 63 3e 55 29 4d be a6 09 c6 3d 70 e8 1d 3d
       0.22178756 -0.20035298 0.09669809 0.038551748
0000c0 0a 43 0b be 74 12 ac b9 b9 fd d4 bc a3 cf 31 bd
       -0.13599792 -0.00032820145 -0.02599989 -0.04341091
0000d0 90 3e 42 bd 1f 92 04 3d ab 17 8f 3d 23 89 b5 3d
       -0.047422945 0.032365914 0.06986936 0.088640474
0000e0 12 17 8e bd 58 7a 1e 3d d1 b1 0b be cd 12 95 3d
       -0.06937994 0.038690895 -0.1364205 0.072789766
0000f0 28 87 50 bc 56 6f 1a bc e6 8a 06 3d 76 32 65 3a
       -0.012727536 -0.009425959 0.032847308 0.0008743176
000100 38 22 07 bd 72 97 33 3b c4 c8 68 3e 10 d2 9b bc
       -0.032991618 0.00274035 0.22732836 -0.019021064
000110 e0 40 a2 bc 77 96 88 3c 8d 42 da 3c 4a 90 9e 3d
       -0.019806325 0.01667331 0.026643062 0.07742365
000120 60 d9 51 3e 01 3b 1d bd 2b 0c 4a bc 16 3f 14 be
       0.20493078 -0.03838635 -0.012332003 -0.1447719
000130 26 fa 6a bd dd 7b 19 3e 38 02 bc bd ce 4b b9 3e
       -0.057367466 0.14988656 -0.09180111 0.36190647
000140 e9 bb 9b 3d ec 68 32 3c 34 2d 4a 3d dd 57 ac bd
       0.076042004 0.010889273 0.049359515 -0.08415196
000150 55 8e cc bc fc 17 8e 3d b5 38 4d bd a4 77 32 3d
       -0.024970213 0.069381684 -0.05010291 0.04357113
000160 9b 5b 2f bd 33 c1 81 bd 30 1f b1 bc 75 74 41 bd
       -0.04281197 -0.06335678 -0.021621317 -0.047230203
000170 d9 77 53 3d 7d 44 1f be da 0b 50 be cb 53 41 3d
       0.051627968 -0.1555347 -0.20317021 0.04719905
000180 60 f0 f8 3c 99 0d 66 be ad 3b a5 3d c0 cb 1b 3d
       0.030388057 -0.22466125 0.08068023 0.038036108
000190 48 9e 32 bc 5a 3b 5a 3d 97 24 01 39 9b a1 06 be
       -0.010901995 0.05327926 0.0001231603 -0.13147585
0001a0 b9 92 18 3d 5d e4 de bd 2e 60 19 3f 93 03 81 3e
       0.0372493 -0.108834006 0.59912384 0.2519804
0001b0 4c 73 a0 3d 87 96 1d be 48 5e 5f 3d 74 1e 94 be
       0.07834491 -0.15389453 0.054533273 -0.28929484
0001c0 c8 56 b9 bc 1a 27 df 3c 2a 57 0c 3c 23 de 1a bd
       -0.022624388 0.027240325 0.008565703 -0.037809502
0001d0 14 da 84 3e e5 27 35 3d 1c 6b f3 bd 0d fd b9 3d
       0.2594763 0.0442275 -0.11885664 0.09081469
0001e0 0c ce 03 3b 3b 1c cb 3e 9c 3e a3 3d 15 f3 37 3d
       0.0020111827 0.39669976 0.07970926 0.044909555
0001f0 c5 1b 9b 3d 4c 3f f6 3c 7c 81 5b 3d 5b 48 10 bd
       0.07573656 0.03005948 0.053590283 -0.035225254
000200 f6 94 45 3b 69 ea 0d bd 5c af fd 3d a5 ff da 3d
       0.0030148602 -0.03464738 0.12386963 0.106932916
000210 0a ce e9 ba c0 f7 9e bd ad 25 8d bc 99 61 39 3c
       -0.0017837894 -0.07762098 -0.01722988 0.011314773
000220 c3 08 47 bd 33 fd 83 bb 4c 7c a3 3d 6b 30 e2 ba
       -0.04859234 -0.0040279864 0.07982692 -0.0017256861
000230 d9 aa e3 be bc 06 ed 3c 58 ee 6a 3d 91 bd 06 bd
       -0.44466284 0.028933875 0.05735621 -0.03289563
000240 c9 c7 d5 3c a8 c5 53 bb bd ec 34 be 8f d2 c9 3b
       0.026096242 -0.0032313857 -0.17668433 0.0061591337
000250 c0 bd b6 bb b8 ed 4e bc ea f4 fe 3d b5 d8 49 bc
       -0.005576819 -0.012629919 0.124490574 -0.012319733
000260 1d 26 dc 3d f9 de 7b bc b9 1b 16 be c4 d1 48 be
       0.10749457 -0.015372985 -0.14659013 -0.19611269
000270 72 df 8e 3c e2 e3 3f 3e 95 63 80 3d f9 f6 3b 3d
       0.017440531 0.18739274 0.06268994 0.04588983
000280 7a 91 83 be aa bc dc bc 9a 5a 66 bd a4 63 e5 bc
       -0.25696927 -0.02694543 -0.056238748 -0.028001614
000290 fe 95 b8 3e 1a 4c f9 3d fe 6e bf bd 0f 4a 91 bc
       0.36051935 0.12172718 -0.09347342 -0.01773551
0002a0 ca 04 68 bd c7 56 95 bd 05 33 10 3d 7f d7 27 3d
       -0.056645192 -0.07291942 0.035204906 0.040976997
0002b0 e6 f1 d0 3e 6b 31 a0 3e 02 73 a0 3d 34 b2 19 3a
       0.40809554 0.31287703 0.07834436 0.0005863041
0002c0 9a 27 53 3d ef cd 8b bc 47 64 73 3e 96 55 12 3d
       0.05155144 -0.01706597 0.23768722 0.035726152
0002d0 81 49 05 3e d4 a0 b1 3d f9 2b 0c bd 3a 9f 31 bd
       0.13016321 0.08673254 -0.034221623 -0.04336474
0002e0 c9 6e 31 bc aa 99 5f 3d 0a 97 4b bc c1 69 a9 bb
       -0.010829636 0.054589905 -0.012426147 -0.0051700776
0002f0 cf 44 5e 3d b3 7c 2a bd b3 26 2c 3b 02 01 ee 3d
       0.05426484 -0.04162283 0.0026268184 0.11621286
000300 11 1c fe 3c 24 84 5b bd ac 11 65 3d 41 17 e2 bd
       0.031019242 -0.053592816 0.055925056 -0.110395916
000310 59 ea 27 bd d0 a8 e3 bb bb e7 08 3d f3 00 2e 3c
       -0.040994976 -0.0069476143 0.03342412 0.0106203435
000320 fa 64 28 3d 45 a2 d7 3d 41 e8 63 3e c9 4f a6 3c
       0.041111924 0.10528997 0.22256567 0.020301716
000330 82 09 84 bb 44 73 80 3d 61 97 1d 3c 3f ef 0a 3e
       -0.0040294537 0.06271985 0.009618611 0.13567828
000340 e7 0d 88 bd 4a c5 82 bd 25 24 b5 bc 08 82 8a 3e
       -0.06643277 -0.06385286 -0.022111962 0.2705233
000350 53 1f 9b 3d d5 63 af 3d a0 89 d0 bd ad 69 9a 3e
       0.07574334 0.08563963 -0.101825 0.3015875
000360 23 19 92 3d e6 f0 fd 3b 3f 13 25 3e 0a 90 b5 3c
       0.07133701 0.0077496646 0.16120623 0.02216341
000370 31 11 99 3d f5 c1 63 3d d4 3c f6 3c a9 8f 91 3d
       0.07473982 0.055604894 0.030058302 0.07107479
000380 6d 48 33 3d a9 2d 52 3e bd 52 92 bc 24 6a e9 bb
       0.043770242 0.2052523 -0.017861718 -0.0071232487
000390 4b 98 e8 3c 28 a8 79 3a ad 25 38 bd 37 16 b8 3c
       0.028392931 0.00095236534 -0.044957805 0.02247153
0003a0 53 68 8e 3c 96 31 5f 3c 7c 2d aa 3d f6 7e 97 be
       0.01738373 0.013622662 0.08309457 -0.2958905
0003b0 90 9e 04 3d ae 4e 45 3d a5 11 00 be f5 fe 43 3d
       0.03237778 0.048170738 -0.12506731 0.047850568
0003c0 3d 5e c3 3d aa c8 8a bd b8 7d 18 bd eb bb af bb
       0.09539459 -0.06776555 -0.03722927 -0.0053629777
0003d0 d1 a5 2b 34 98 82 3e bd 57 0d dd 3d 18 0f ad 3b
       1.598594e-07 -0.046511263 0.1079356 0.0052813403
0003e0 25 8a 64 3d 3b 30 0d 3c f6 5e 81 3e cb c4 52 be
       0.055795807 0.008617456 0.25267762 -0.20582883
0003f0 6d 10 57 3d f6 65 45 3e 42 db ca 3d 0d cd f0 bd
       0.0525059 0.19277176 0.09905101 -0.1175786

bias f4 [3]
000000 b9 4b 6d bf 1d 26 57 bf a5 8b 26 bf
       -0.9269367 -0.8404253 -0.6505683

weight f4 [256, 18]
000000 7e 91 64 be cb c4 60 be 2f ea e6 be 64 5b 52 bf
       -0.22321126 -0.2195007 -0.45100543 -0.821707
000010 13 c0 26 be 37 d2 a8 be 40 71 b5 bc 8d c3 97 3e
       -0.16284208 -0.3297288 -0.022148728 0.2964138
000020 98 df 65 bf b0 d7 f7 bd 51 b1 c8 bd c6 ea 22 bc
       -0.897943 -0.12101686 -0.097994454 -0.00994367
000030 aa 85 af 3e b0 b4 96 be 82 be 81 bd 41 23 91 3e
       0.34281665 -0.2943473 -0.063351646 0.2834721
000040 72 8e 89 be 41 9f 99 be 47 d3 8d bb 1b 4c 24 3e
       -0.2686649 -0.30004314 -0.0043281647 0.16044657
000050 67 a6 8b 3d e4 80 ff 3d 41 ad 05 3e 15 bb a1 bd
       0.06818848 0.12475756 0.13054372 -0.07897011
000060 56 f3 ca bd 4e a4 9a 3d cc 0d be 3d f8 98 da 3d
       -0.09909694 0.0755087 0.09279975 0.10673708
000070 b9 7c d5 3e ab dd 7f 3e 8a 0c 9c 3d 39 72 dd bd
       0.41696718 0.24986903 0.07619579 -0.10812802
000080 37 fb 29 be 13 4b a1 be d8 5e 0d 3e 6c 49 94 3e
       -0.16599737 -0.3150259 0.13805711 0.28962266
000090 ac ad 83 3e 14 fc 01 3d 2d 0a 3a 3e ca a4 31 be
       0.2571844 0.03173454 0.18167944 -0.17348018
0000a0 9b e5 42 3e 9d f6 fb bd 49 03 13 3e 76 c0 ee 3d
       0.190329 -0.12302897 0.14356722 0.11657803
0000b0 c6 34 9b be 05 39 17 bf 3f 0d e8 3d f5 b6 e9 3d
       -0.303137 -0.5907138 0.113306515 0.114118494
0000c0 87 dc c1 be 78 5f 0a 3f ad e8 00 be cc 49 b7 be
       -0.37863562 0.54051924 -0.12588759 -0.3579849
0000d0 f2 20 bc 3e 2a cc 02 be 31 60 9b 3e 82 a2 69 be
       0.36743885 -0.12773195 0.30346826 -0.22815898
0000e0 97 75 65 3d 05 2c 6e 3d 74 1b 12 be 81 e5 71 3e
       0.056020346 0.05814745 -0.14268285 0.23622705
0000f0 50 1a bc bd 59 bc fd bb 9a 7a ef bd 85 82 30 ba
       -0.09184706 -0.0077434 -0.11693306 -0.0006733316
000100 e5 d5 4d 3e 0b 4e 58 be 3d 8b 45 3e 37 c1 0d be
       0.20101126 -0.21123521 0.19291396 -0.13843237
000110 1e a2 22 3e c5 72 c3 3d f8 24 07 be 86 a0 4a bb
       0.15882155 0.09543375 -0.13197696 -0.0030918433
000120 8d 83 ed bd d3 f4 29 3e b2 39 bd 3d 31 f2 81 3f
       -0.11597357 0.165973 0.0923952 1.0152036
000130 a0 41 84 bc a0 06 0d 3f 31 48 40 3e 8d be b0 be
       -0.016144574 0.55088234 0.18777539 -0.3452038
000140 c9 9d 06 bf aa c3 c2 bd 4e da f7 3d aa aa 71 be
       -0.5258451 -0.09509976 0.12102185 -0.2360026
000150 47 46 33 3e 2d 61 a9 bd 91 82 10 be 2c 35 8c bd
       0.17507277 -0.08270488 -0.14112307 -0.06846079
000160 dc e9 fa 3c e1 06 bc be 4d 99 48 bd 54 9a 0b 3d
       0.030629091 -0.36723998 -0.048974324 0.034082726
000170 14 4d 10 be 09 3f 54 3e 73 d0 66 be d1 1f 12 be
       -0.14091903 0.20727171 -0.22540455 -0.1426995
000180 72 a6 8d 3d 39 de ab 3e be 69 9b 3e 5b 40 8b bc
       0.069165125 0.3356798 0.30354112 -0.01699846
000190 3c 88 f4 3d 89 7e 44 bb 98 d8 e5 3d c3 b2 91 bd
       0.11940047 -0.0029982647 0.112229526 -0.07114174
0001a0 1b 16 af bc dd bd ff 3c 30 ec 01 bd a0 bb 85 3d
       -0.021372845 0.031218464 -0.031719387 0.06529927
0001b0 a0 6a 08 3f 68 cc c7 bd 3f bd 11 be a7 c0 0d bf
       0.53287697 -0.09755784 -0.14232348 -0.5537209
0001c0 48 3b c2 3c 32 a2 4a 3e 09 9c 5d 3e 00 bb ab be
       0.023709908 0.19788435 0.21641554 -0.33541107
0001d0 a3 df a8 bd d2 71 90 be 27 10 82 be 8a b3 4c bd
       -0.0824578 -0.28211838 -0.25402948 -0.04997591
0001e0 1f 11 97 be 0c 64 49 3a 9e 56 c7 bd 68 be 1a bf
       -0.2950525 0.00076824497 -0.09733318 -0.60446787
0001f0 b2 4a ed 3d 16 7a c6 3d 0c 91 69 bd 8d f6 53 be
       0.115865126 0.09691255 -0.057023093 -0.2069952
000200 78 08 10 be 19 cc 05 bf 64 25 71 be 82 e1 f7 3d
       -0.1406573 -0.52264553 -0.2354942 0.12103559
000210 07 c9 ed bd f9 71 15 bf c2 a1 8b 3e fd 55 d6 3d
       -0.116106085 -0.58377033 0.2727185 0.1046562
000220 b6 91 8f 3e f9 33 26 3c ca fc 4b be 96 41 35 3d
       0.28040856 0.010144227 -0.1992065 0.044252
000230 f2 a7 fe bd f2 82 fb 3c 98 94 18 3c 0d 58 f9 bc
       -0.12434377 0.030702088 0.009312771 -0.030437494
000240 a3 fa 67 bd 60 ab 82 bb d4 d6 38 be 5c e4 78 3e
       -0.05663551 -0.0039877146 -0.180507 0.24305862
000250 78 84 df bd a0 da 09 3f cc 1e 80 bd a8 b9 c9 3e
       -0.10913938 0.5384922 -0.06255874 0.39399457
000260 2a d6 cf be 11 9f 6e bb 24 98 93 3d 4f ce a0 be
       -0.40593082 -0.003641073 0.07206753 -0.314074
000270 bb 0f aa 3e ea ea 1f be 9e 7a 83 3e c0 ea 08 3f
       0.33215126 -0.15616956 0.25679487 0.534832
000280 e8 a2 c2 bd ce 26 bb be ac 75 cc be 24 d3 4f 3d
       -0.09503728 -0.36553043 -0.39933527 0.05073847
000290 a6 45 93 be 8e 07 2a 3e 86 f3 0b be 20 b2 2c 3e
       -0.28764075 0.16604444 -0.13667116 0.16864824
0002a0 7b 57 4e 3e 77 f3 ea be f4 4c 5d 3d 50 fb c6 bd
       0.20150559 -0.45888874 0.054028466 -0.09715903
0002b0 6c 85 84 be cf ef 56 be 67 94 bb bd e7 ca e5 bd
       -0.25883043 -0.20989917 -0.09159165 -0.11220341
0002c0 c3 48 92 3d 9c 87 b7 bd 7b 52 8d 3d 1c 7d 27 3d
       0.071427844 -0.08961412 0.069004975 0.040890798
0002d0 5e 07 6b be 9f ca 62 3e 11 45 11 be f1 c7 de 3e
       -0.22952029 0.22147606 -0.14186503 0.43511918
0002e0 74 d5 d6 bd 97 97 11 3e 2b 50 f4 bd 35 30 b0 3d
       -0.10489932 0.14217983 -0.11929353 0.08602945
0002f0 14 f7 42 bf ad a1 53 3e 96 6f 3f 3e 3f 2c 55 be
       -0.7615826 0.20667143 0.1869491 -0.2081766
000300 79 e7 a2 3e 94 ea 19 3d b9 ff 81 bd de 54 8a 3d
       0.31817225 0.037577227 -0.06347603 0.067544684
000310 78 2c 8a 3e 97 a3 f3 3e fe e1 34 be 06 e1 2a be
       0.26987052 0.47585747 -0.17664334 -0.16687402
000320 0c 95 24 be 3d 47 1e be 07 22 ec bd 4c 03 2f be
       -0.16072482 -0.15456863 -0.11529928 -0.17091101
000330 e9 d5 26 3e fe 17 93 be 54 05 ff be 8e dd 06 bf
       0.16292538 -0.28729242 -0.49808753 -0.52681816
000340 29 f6 09 bf 34 a7 8f be 58 f3 5c be 94 2a f2 3c
       -0.53891236 -0.28057253 -0.21577203 0.029561318
000350 61 30 65 bc 6e 62 42 bf 40 55 33 3e a8 75 be 3d
       -0.013988585 -0.7593144 0.17512989 0.09299785
000360 30 3d 48 3e 62 29 0a be e3 be 2f be a8 3a b9 bd
       0.19554591 -0.13492349 -0.17162661 -0.09044391
000370 9c b6 32 3d 1c 7d d1 3d 57 b8 04 3e 93 23 0b bf
       0.04363118 0.10228941 0.12960945 -0.54351157
000380 c1 f0 76 be 5b a8 13 3e 52 ad 83 3e 07 38 08 be
       -0.24115278 0.14419691 0.2571817 -0.13302623
000390 13 31 6f be a1 6e 40 be 33 5e a7 3e da 96 bd 3e
       -0.23358564 -0.18792202 0.32689056 0.37029153
0003a0 cc 1e 22 3e 2d 0e 3e 3e 11 bb af be b6 18 ce bd
       0.1583206 0.18560095 -0.34322408 -0.10063307
0003b0 c1 f7 a4 3d 27 11 a0 3d 14 11 77 bd e6 b8 e8 3e
       0.08055068 0.078157715 -0.06031902 0.45453566
0003c0 c2 05 87 3d 5e b5 2f bf 2f 2b 9e 3c 86 a7 42 3e
       0.06592895 -0.6863612 0.0193077 0.19009218
0003d0 54 95 55 bc 15 3d d8 bd 79 29 d1 3d 37 a1 4e bd
       -0.013036091 -0.105585255 0.102129884 -0.050446715
0003e0 0f 9e f7 bd 97 ce 94 bd 7e bf fc bc eb 3c c6 3d
       -0.12090694 -0.072659664 -0.03085303 0.09679588
0003f0 78 38 d2 3f 93 71 1c 3e a9 b0 9c bd e1 2f 0e be
       1.6423483 0.152777 -0.07650883 -0.13885452
