data/HalfCheetahPyBulletEnv-v0_sac_grad_False/HalfCheetahPyBulletEnv-v0_sac_grad_False_s1/pyt_save/model.pt (torch_old, 906014 bytes, 18 tensors)

weight f4 [256, 26]
000000 72 fb 41 40 1a 47 b1 bd 3e 7a 01 3f 76 01 a5 bf
       3.030972 -0.0865614 0.5057715 -1.2891071
000010 e6 0f 3d be b8 41 b8 3f e8 41 25 bd dd 69 70 bf
       -0.18463096 1.4395056 -0.040346056 -0.93911535
000020 07 96 e0 3d f4 f3 c1 3e a9 e3 48 3e ad 14 8d 3e
       0.109661154 0.37881434 0.19618095 0.27554837
000030 6c 72 5e be 1e ea 83 3e 70 41 63 bf a9 fb 03 be
       -0.21723336 0.25764555 -0.88771725 -0.1288897
000040 76 fb 5f bf 22 8f 82 3c c0 bb 93 be 54 c2 66 be
       -0.87493074 0.015937392 -0.2885418 -0.22535068
000050 27 17 8c bf 1d 94 f2 bd f0 a4 06 bd f7 63 4b bc
       -1.0944566 -0.118446566 -0.03287214 -0.01241397
000060 f2 b4 80 bd 00 da 19 3c 9d af e0 3e 2a 4f da 3d
       -0.062845126 0.009390354 0.43883982 0.106596306
000070 67 51 89 bf f3 34 b1 3e 24 69 60 3d 1a f5 50 3e
       -1.0727967 0.3461071 0.05478777 0.20405999
000080 1d 8e 04 3e 58 2a 29 3e 29 b6 41 bf 3a 09 78 bd
       0.12944837 0.16520059 -0.7566858 -0.060555674
000090 17 1f 34 3f 6a 46 6a bf 48 9d c8 3e 1c 7c ef be
       0.7035994 -0.91513693 0.39182496 -0.46774375
0000a0 7c 2f b6 3e 5e 52 85 3e 4a 7e af bf 13 ff 21 3f
       0.35583103 0.26039404 -1.3710415 0.6327984
0000b0 e5 42 97 be 2e e9 54 3f 99 92 97 bf 7c 40 6c 3d
       -0.29543224 0.83168304 -1.1841613 0.057678685
0000c0 cc f4 67 bd 0d f5 c6 bf 9b 11 41 be 56 7f bf bd
       -0.05662994 -1.5543534 -0.18854372 -0.09350459
0000d0 13 f0 b5 40 10 43 43 bd d0 5c d3 3e 3d bb 8a bf
       5.685556 -0.047671378 0.41281748 -1.083839
0000e0 c0 73 16 bc 1e 18 27 3e 4e 96 f4 3d e0 55 7a c0
       -0.00918287 0.16317794 0.11942731 -3.9114914
0000f0 a0 84 30 3d 26 b3 78 3e b5 4c 55 3d b7 a3 ff bd
       0.04309523 0.2428709 0.052075107 -0.12482398
000100 2b 1d 3a 3c 2d fc af 3d 9a e3 fa be f2 3e da bd
       0.011359493 0.085930206 -0.4900177 -0.10656537
000110 cb ee ee bf fa ec 06 be ac ea 66 bd 6a 3e 0c be
       -1.8666624 -0.13176337 -0.056376144 -0.13695684
000120 10 30 ca 3e b0 2e 37 3c da e0 83 3d 39 0a 33 bf
       0.39489794 0.011180565 0.064393714 -0.69937474
000130 c6 09 92 3d a2 19 c7 3d 85 dd 6b bf 46 2b ca 3d
       0.071307704 0.09721686 -0.92134887 0.09871535
000140 5e c6 9b bf 81 28 d5 be 20 68 43 3c f2 c3 cb 3c
       -1.2169912 -0.41632465 0.011926681 0.024873707
000150 72 e5 eb 3d 6e d2 f9 3e 1f 76 9c be ee 5b 1e 3e
       0.115183726 0.48793358 -0.3055887 0.15464756
000160 4d 84 7f bd 54 ec 14 3f 98 27 2c 3e 3a a1 cd 3d
       -0.06238203 0.5817311 0.16811979 0.10040517
000170 ec 29 89 3e 8e 8c 90 3e 3f 20 01 c0 40 d3 fd 3e
       0.26789796 0.28232235 -2.0175931 0.49575233
000180 52 41 a8 bf c1 21 60 be 9a 81 f6 bd 50 2b 73 bd
       -1.3144934 -0.21887876 -0.12036438 -0.059367478
000190 25 ee 37 3e b8 14 dc be ce 71 e2 3d f6 e9 ad 3d
       0.17961939 -0.42984557 0.11056863 0.0849189
0001a0 95 3b 5a 40 26 c9 2a be e5 7b 16 3f f7 a9 f8 3d
       3.4098866 -0.16678295 0.587828 0.12141793
0001b0 db a7 09 3e 16 38 97 3f ae 2d 81 3d 33 73 9f be
       0.13442938 1.1813991 0.06307541 -0.31142578
0001c0 5b 9e 85 3f ff 53 41 3f 8e 23 47 3f 4a 4f e3 3e
       1.0438951 0.7551879 0.7778863 0.4439643
0001d0 fd fb 31 3d 69 a5 15 3e 2d 78 91 bf 9f 8f 57 bf
       0.043453205 0.1461388 -1.13648 -0.84203523
0001e0 34 74 a4 be 66 89 77 be f2 ee 8f 3d eb 7e 22 3e
       -0.32119906 -0.24173507 0.07027997 0.15868728
0001f0 43 c9 9d bc 64 4e de bd 1e d1 3c be 12 da 88 bc
       -0.019261008 -0.108547956 -0.18439147 -0.016705547
000200 aa 6a e7 3d 5f 70 3a 3e 3e 0c 5a 40 c4 52 2e 3d
       0.112996414 0.18206929 3.4069972 0.0425594
000210 2c d0 72 be 28 0f 5f bf a2 50 fa 3d 03 a2 a0 3f
       -0.23712224 -0.871325 0.12222411 1.2549442
000220 2e 0c fe 3d a6 52 2d bf 28 e0 d6 3d 64 99 3e be
       0.12404667 -0.67704237 0.10491973 -0.18613201
000230 70 02 32 bd 08 5f 6c 3e d3 34 07 be 48 9e 04 be
       -0.043459356 0.23083127 -0.13203745 -0.12951005
000240 14 3d 08 bf b1 93 5e be a6 2a 8c be bb 26 5a be
       -0.532182 -0.21736027 -0.27376288 -0.21303837
000250 29 9c 17 be 62 ee 5b 3e 13 3d 6c bf 8b 35 44 3e
       -0.14805664 0.21477655 -0.9228069 0.1916105
000260 c8 bb b9 bc 81 f4 01 bf 81 8d 3d be bd 40 01 be
       -0.022672549 -0.5076371 -0.1851101 -0.12622352
000270 37 38 cd be 0b cb ab bd 34 19 69 bf f6 f8 0b 3e
       -0.4008195 -0.08388337 -0.9105408 0.1366919
000280 3a 12 16 be 32 0c f5 3f 42 98 80 3d e4 5d 8b 3f
       -0.1465539 1.9144347 0.06279041 1.0888028
000290 77 4a 05 bd 0b 19 8b 3f e5 79 69 bf 96 b3 1e 3e
       -0.03254172 1.0867018 -0.9120162 0.15498194
0002a0 3d e2 cd 3e 78 a5 9c bd 59 04 ae bf 4b 2a 0f 3f
       0.4021167 -0.07648748 -1.3595077 0.5592391
0002b0 a5 32 16 bf 8a 73 6a 3e ca a3 6d be 96 d9 93 bd
       -0.5867103 0.22895637 -0.23207012 -0.072192356
0002c0 c5 5e f2 3e 20 a3 cc 3b 76 ed 0a be cd a5 9b bf
       0.47337928 0.006245032 -0.13567147 -1.2159973
0002d0 b4 df 48 bd 80 e2 81 bc 50 29 0a 3e 50 ac 1e bd
       -0.049041465 -0.015855074 0.13492322 -0.03873855
0002e0 26 69 44 bf 1b 01 93 3e 9a 9d 2d be 78 34 09 bf
       -0.76722944 0.2871178 -0.16954651 -0.53595686
0002f0 e0 36 da bb 1d 0b f7 be ea d4 c6 be 0b 43 d4 be
       -0.0066593736 -0.48250666 -0.38834316 -0.414574
000300 a0 27 54 3f 10 84 ba 3e 5b 93 d6 be a7 56 a9 bc
       0.8287296 0.3642888 -0.41909298 -0.020671202
000310 57 f0 b4 3f 78 02 f7 3c 01 40 33 3e d5 c9 45 3e
       1.4135846 0.030152544 0.17504884 0.19315274
000320 aa 9c 3e bf e3 54 3a 3e 91 41 5c 3e 0c cd 9b bd
       -0.744578 0.18196444 0.21509387 -0.07607469
000330 b6 ee f1 3d 60 a0 58 bd 00 40 7a bc e0 0c cd bb
       0.118131086 -0.05288732 -0.015274048 -0.0062576383
000340 c2 f5 cd bc 92 55 bd 3d 02 18 61 bf c9 ce 93 bf
       -0.0251416 0.09244837 -0.8792726 -1.1547481
000350 2a a5 34 be 75 d6 ad 3f 1b 17 2f 3e e6 e8 64 3e
       -0.1764113 1.3581072 0.17098658 0.22354469
000360 7d 11 10 bf ed 0c 70 be 41 80 43 3e de eb 57 3f
       -0.56276685 -0.23442431 0.19091894 0.8434428
000370 92 15 6e bf 82 6d 80 be d6 8a 7d bf 99 50 32 3f
       -0.93001664 -0.25083548 -0.9903997 0.6965423
000380 d1 e1 46 bf e3 63 da be 6f 6c 12 c0 dc a4 7b bf
       -0.7768832 -0.42654333 -2.2878683 -0.9829843
000390 05 80 12 3f ef ed 3d 3e 7c 00 23 bd b9 b3 a3 3e
       0.5722659 0.18547796 -0.039795384 0.31973055
0003a0 81 bb 45 3e 44 1f 2b bd 1b 93 5b 3f 4c d2 43 3d
       0.19309808 -0.041777864 0.8577134 0.047807977
0003b0 0d 90 9b bf 14 c5 f4 3d 7e b9 fb 3d f8 ea 01 3e
       -1.2153336 0.11951652 0.12291239 0.1268729
0003c0 4e f3 24 be 1c 73 cc be b7 e1 dc be e4 0e 1b 3e
       -0.16108438 -0.3993157 -0.43140957 0.15142399
0003d0 d3 b9 32 bf ec 9f 3b 3f 43 9a 6c be 70 22 5c 3d
       -0.69814795 0.73290896 -0.23105721 0.05374378
0003e0 ad 5d 16 bf c5 7c 2b 3f ae 6b ca be b8 a5 57 3e
       -0.5873669 0.6698726 -0.39535278 0.2105931
0003f0 41 3d 10 bf f9 fb d6 3d 1f 7b 96 bf 0c 20 c9 bd
       -0.56343466 0.10497279 -1.1756324 -0.098205656

bias f4 [256]
000000 0a 50 2f 3f e2 98 56 bf 82 23 60 3e a4 e2 97 bf
       0.68481505 -0.8382703 0.21888545 -1.186604
000010 73 3f da 3e e2 d0 07 bf a3 e1 9e bf c1 8f 35 bf
       0.42626533 -0.53053105 -1.2412609 -0.70922476
000020 79 64 5c bf 20 cf 9f bf 22 30 45 bf 77 56 f4 be
       -0.8609081 -1.2485085 -0.7702657 -0.47722217
000030 f8 b3 22 bf 4c c8 48 bf 52 5e 98 bf ad bd 57 bf
       -0.6355586 -0.7843063 -1.1903784 -0.842738
000040 24 23 74 bf 44 48 f3 be d1 4b 40 bf 14 83 3a bf
       -0.9536612 -0.47516072 -0.75115687 -0.7285626
000050 a8 cd 45 bf 2f a8 5b bf 43 74 a1 bf da 03 9d bf
       -0.7726693 -0.858035 -1.2613605 -1.22668
000060 a2 34 cb be 75 b4 b5 bf 9e 19 6d bf 7b 3a 1e bf
       -0.39688593 -1.4195696 -0.92617214 -0.61807984
000070 04 e0 5d bf d9 e5 8a bf 19 7f c3 bf 03 66 a8 bf
       -0.86669946 -1.0851394 -1.5273162 -1.3156132
000080 24 3f 8a bf 8c 85 83 bd 47 15 0c bf 0f 7f d9 be
       -1.0800519 -0.064219564 -0.54719967 -0.4247975
000090 5b 0e 9f bf 6b ae 68 bf b9 b2 db 3e 75 4a 23 bf
       -1.2426256 -0.9089114 0.42909792 -0.6378549
0000a0 0b 31 0d bf 4f 6b 55 bf 73 fb 72 bf ae 25 8a bf
       -0.5515296 -0.83366865 -0.9491493 -1.0792749
0000b0 89 1c 3d bf 2d 1f 7b be c9 38 55 bf bc ed 87 bf
       -0.73871666 -0.24523611 -0.8328977 -1.0619426
0000c0 1a 1a cd be 4c 27 84 be 90 ce 2b be ce 28 71 bf
       -0.40058976 -0.2581123 -0.16778016 -0.9420289
0000d0 eb ae 43 be 24 ea 9e bf 5f 1c 8c be b7 fe 23 bf
       -0.19109695 -1.2415204 -0.27365395 -0.6406054
0000e0 fd db 65 bf 6b cb c7 3d 12 d7 40 bf 15 de 4f bf
       -0.897888 0.09755596 -0.7532817 -0.81198245
0000f0 af e5 af bf 99 70 98 be 19 b3 94 bf 6b 0c 3b bb
       -1.3741969 -0.29773405 -1.1617156 -0.0028541337
000100 6e 28 97 be 31 33 a8 be 04 fe 56 bf 69 c5 3a bf
       -0.29523033 -0.32851556 -0.8398135 -0.72957474
000110 47 27 5d bf 4d 61 3b bf 76 8e 47 bf 47 e3 a7 bf
       -0.8638806 -0.73195344 -0.77951753 -1.3116235
000120 3e e1 17 bf cb cf 4a bf 5d 8c 60 bd 17 4b 9c bf
       -0.5932807 -0.79223317 -0.05482136 -1.2210416
000130 22 2b be be 52 cf 2b be 73 eb 41 3f ea 2e 05 bf
       -0.37142283 -0.16778305 0.7574989 -0.5202471
000140 e5 ff 23 bf 85 90 1f bf af 33 76 bf f6 f1 81 bd
       -0.6406234 -0.62329894 -0.9617261 -0.063449785
000150 0b f4 5b bf 02 83 86 bf 1f c9 c8 bd 98 61 50 bf
       -0.85919255 -1.050873 -0.09803986 -0.81398916
000160 93 34 0f be 3b e5 55 bf fa d0 5b bf c6 4d 0e bf
       -0.13984899 -0.835529 -0.8586575 -0.5558742
000170 f7 40 9b be 92 b9 92 bf c4 41 b2 bf ed 02 81 bf
       -0.30323002 -1.1462882 -1.392632 -1.0079018
000180 b5 e3 fa be 5d e1 c5 be 04 62 2a be de 44 61 3e
       -0.49001852 -0.386485 -0.16638952 0.21998927
000190 2b 4b 1d bf 63 2e 75 bf 14 4c 2f bf d7 06 69 bf
       -0.6144282 -0.95773906 -0.6847546 -0.9102606
0001a0 f1 24 58 bf f1 ff 79 bf a6 8d c2 bf 2b 72 83 bf
       -0.8443137 -0.9765616 -1.5199478 -1.0269216
0001b0 50 4b 07 be f3 6f 3f bf d1 9c 21 bf 12 5d 34 bf
       -0.13212323 -0.74780196 -0.6312991 -0.70454514
0001c0 d7 d4 0f bf a4 5d 98 be 66 2a ac bd 42 35 0b bf
       -0.5618414 -0.29758942 -0.08406524 -0.5437814
0001d0 4b 73 51 bf 59 50 a7 bf 4e fb 65 bf 40 36 1c bf
       -0.8181655 -1.3071395 -0.89836586 -0.6102028
0001e0 2c 01 2e bf c5 19 49 bf 3a aa 54 be 1e 49 aa be
       -0.6797054 -0.78554946 -0.20768061 -0.3325891
0001f0 38 b4 62 bf fd f2 34 bf cf fc 7c bf 35 4a d2 be
       -0.8855624 -0.7068327 -0.98823255 -0.4107224
000200 80 5e 88 bf 8a e5 d5 be e3 0a 3e be cd 2b 9a be
       -1.0653839 -0.41776687 -0.1855884 -0.30111542
000210 c4 c8 ec be ee aa c5 be 7b ef ce be 3d 4b 3e bf
       -0.46246922 -0.38606972 -0.40417084 -0.74333555
000220 02 07 38 bf 16 06 18 bf a8 f5 98 bc 3c d0 02 bf
       -0.71885693 -0.59384286 -0.018671826 -0.5109899
000230 e8 cd c5 3d 1b 52 41 be 21 27 05 3c 03 e0 14 bf
       0.09658414 -0.18878977 0.008127005 -0.58154315
000240 9e 06 93 bf f7 c8 56 bf bc c2 36 bf 9f 57 1f bf
       -1.1486394 -0.839004 -0.7139089 -0.62243074
000250 fc aa 16 bf 87 88 34 bf ef 01 c1 bf ca f5 1d be
       -0.5885465 -0.70520824 -1.5078715 -0.15425792
000260 76 b6 08 bf ab 02 aa bf 59 e5 4c bf d6 74 0b bf
       -0.53403413 -1.3282064 -0.80037457 -0.5447515
000270 32 77 65 bf c9 05 93 bf 20 c0 59 bf b3 34 42 bf
       -0.89635 -1.148614 -0.85058784 -0.7586166
000280 15 90 0a be bb c5 6a bf 79 7a 92 bf a7 85 2e bf
       -0.13531525 -0.9170796 -1.1443626 -0.6817269
000290 65 84 2b bf 8b 9d b7 be d6 8b 82 bf 26 7f 8f be
       -0.66998893 -0.35862383 -1.0198925 -0.28026694
0002a0 a4 44 09 bf 68 c6 42 bf 37 f2 2f bf 58 64 d5 be
       -0.5362036 -0.76083994 -0.68728966 -0.4167812
0002b0 fb f1 21 be ca 02 e9 bd b8 31 6d bf 34 b1 ff bd
       -0.15814964 -0.11377485 -0.9265399 -0.12484971
0002c0 b7 17 c3 bc 3e 45 e6 be 4a 76 20 bf ca db 29 bf
       -0.023815019 -0.44974703 -0.62680495 -0.66350996
0002d0 98 9b f9 be 8e 51 1b bf 5c 54 0c bf 2c 18 7a be
       -0.4875152 -0.6067132 -0.5481622 -0.24423283
0002e0 ac 06 07 bf 03 48 1c bf 92 16 e9 be 84 5b 27 bf
       -0.52744555 -0.6104738 -0.45525032 -0.65374017
0002f0 39 1a 28 bf 08 ef b0 bf da 83 7c 3d 5c e2 fb be
       -0.6566501 -1.3822947 0.06164918 -0.49196136
000300 dc 91 6c 3e ca d7 fb be e5 b3 9c bf 05 d5 39 3f
       0.23102516 -0.4918807 -1.22424 0.72590667
000310 6e 0a b2 bf f1 b8 8a 3e 43 d9 70 bf ec 14 2f bf
       -1.3909433 0.27094224 -0.94081515 -0.683913
000320 65 03 6d bf 1f 31 43 bf b8 da 34 bf d3 4a 80 3e
       -0.92583305 -0.7624683 -0.7064624 0.25057086
000330 76 87 9e bf 1e af 40 bf 35 d9 86 3e cd 8b 38 bf
       -1.2385089 -0.7526721 0.2633759 -0.7208832
000340 17 23 10 bf cc b2 54 bf d3 1b 9d 3e a1 9e 27 bf
       -0.5630354 -0.8308532 0.3068529 -0.65476424
000350 2d b9 a7 be 6a 43 ec be f5 b7 75 bf ec 6d 67 bf
       -0.32758465 -0.46145183 -0.9598382 -0.904021
000360 26 47 b7 bf 8c 13 fe be 9d 29 35 bf a4 b8 3c bf
       -1.4318588 -0.49624288 -0.7076662 -0.7371924
000370 58 69 7d bf 70 31 21 bf 4d 9f 3a be 37 73 67 3c
       -0.98988867 -0.6296606 -0.18224831 0.01412659
000380 81 fa 23 bf f3 95 84 bf 1c 8f c7 bd 78 05 b6 be
       -0.64054114 -1.0358261 -0.09744093 -0.35551047
000390 b6 83 8b bd 5b 26 7c bf 2a 63 3e bd fc dd 0d bf
       -0.06812231 -0.98496026 -0.04648129 -0.55416846
0003a0 ad 01 18 bf 1a ed 81 bf ac f6 1d bf f7 4b 40 bf
       -0.5937756 -1.0150483 -0.61704516 -0.75115913
0003b0 30 d8 2a be 7e ed 8b 3d ad a5 4d bf de 12 5a bf
       -0.16684031 0.068324074 -0.80330926 -0.8518504
0003c0 c1 6a 0c 3f 77 b9 d7 be c8 82 79 bf a4 63 9f bf
       0.54850394 -0.42133686 -0.9746518 -1.2452283
0003d0 6f 40 43 bc de bb 3e bf 27 cb 32 bf f0 fb 9d bf
       -0.011917218 -0.7450541 -0.69841236 -1.234251
0003e0 d2 8c bf be e8 1e 2c bf 0f cc 5d bf 9c 0f 81 bf
       -0.37412125 -0.6723466 -0.86639494 -1.0082889
0003f0 73 12 4e 3e 08 e9 44 3e c4 df 8a bf 89 b8 22 3f
       0.20124225 0.1922952 -1.0849538 0.6356283

weight f4 [256, 256]
000000 4e 3d 8e 3e cc 51 90 3e 54 28 8d bf 3a 17 51 3e
       0.27781147 0.28187406 -1.1027932 0.20419016
000010 19 89 01 3f d6 d7 1f bf d4 98 ba 3d e6 ee 19 3f
       0.5059982 -0.62438715 0.09111181 0.60130155
000020 9c c3 5a 3e aa 28 07 3f 8d 7e 0c 3f 1f fc d8 be
       0.21363682 0.52796423 0.548806 -0.42379853
000030 1c 6d 9d 3e 85 04 96 3e e1 50 bc bc d5 e5 b1 3e
       0.30747306 0.29300323 -0.022987785 0.3474566
000040 f4 58 56 bf a9 a3 46 bf 44 4a 3a be 00 d2 88 bf
       -0.8372948 -0.77593476 -0.18192393 -1.0689087
000050 89 54 88 3e df f6 9e be b9 1d 99 bd e0 9b e0 3e
       0.26626995 -0.31047723 -0.07476372 0.43868923
000060 8f c9 01 bf 4b 8f 8b bf 88 73 13 3f b0 2f a2 3e
       -0.5069818 -1.0903105 0.5759816 0.31677008
000070 c7 26 fb be c7 0d 07 be 6b 49 aa be 19 64 23 c0
       -0.49053022 -0.1318885 -0.33259138 -2.5529845
000080 d3 68 7a 3e 9d 23 0b 3f 58 d7 df 3d 1a 69 8a bf
       0.2445405 0.54351217 0.109297454 -1.0813324
000090 d9 d2 21 bf 0e 45 98 3d a5 08 95 3e e6 15 19 c0
       -0.63212353 0.07435046 0.29108158 -2.3919616
0000a0 0a 2a 0d be fc f7 30 be c4 ae 52 bf 38 dd f4 bd
       -0.13785568 -0.17282099 -0.8229792 -0.11956257
0000b0 44 07 5a 3f b7 db 0f c0 c4 4d 4f 3e 0a c9 8b bf
       0.85167336 -2.2477853 0.20244509 -1.0920727
0000c0 7d f3 c0 be dd 24 4a 3d 1e 78 0a 3f 4c 90 9c be
       -0.37685767 0.04935156 0.54089534 -0.3057884
0000d0 e3 4a 12 bf 61 01 59 3e 2b 21 cd 3e 2f 73 d3 bb
       -0.5714552 0.21191932 0.40064368 -0.00645294
0000e0 b4 7a 07 c0 11 09 1f 3f c4 66 56 bf 21 6b b4 bd
       -2.1168642 0.6212321 -0.8375056 -0.08809496
0000f0 87 64 92 bf a8 4f 8b bf e5 67 8c bf 84 f9 48 3f
       -1.1436929 -1.0883684 -1.0969206 0.7850573
000100 a2 00 30 bf ee 6e 84 3e b3 96 00 3e de bf 58 3f
       -0.68750966 0.25865883 0.12557487 0.84667766
000110 07 5b d8 be 72 d4 9a bf eb 41 a4 bf 96 89 8e be
       -0.42256948 -1.2096083 -1.2832617 -0.27839345
000120 be db ba 3f f1 e8 e3 bd 6e 13 6a bf f0 66 64 bf
       1.459831 -0.111284144 -0.914359 -0.8921957
000130 0b 36 73 bf 77 a5 d8 3d dd 27 e3 3e 08 cc bf bc
       -0.9500434 0.10578435 0.4436635 -0.02341272
000140 82 50 3e 3f 3d 37 06 c0 6d 48 73 be 01 3c 0f bf
       0.74341595 -2.0971215 -0.23758097 -0.55950934
000150 70 f0 10 bf b4 9b 36 3f 08 aa 89 be 2a e6 29 bf
       -0.5661688 0.71331334 -0.26887536 -0.6636683
000160 73 24 64 3e c9 7e d3 3e 77 3c 18 3f da 05 87 bf
       0.2227953 0.41307667 0.5946726 -1.0548661
000170 b6 f8 b7 bf 79 d8 bc be b8 aa f5 bf b0 82 0c bf
       -1.4372776 -0.36883906 -1.9192724 -0.54886913
000180 b0 7f 13 bf eb 58 ec be 75 22 00 bf 83 64 20 bf
       -0.5761671 -0.4616159 -0.5005258 -0.6265337
000190 db 59 a3 bd 61 3d 8d be 3c 9f 24 bf 02 f6 4c 3e
       -0.07976123 -0.2758589 -0.6430547 0.2001572
0001a0 67 78 be bf b0 3b be bf 8b 9d d8 3e b6 0c f9 be
       -1.4880494 -1.4861965 0.42307696 -0.4864251
0001b0 4d 13 82 be 84 29 b7 bd 13 16 47 3f 80 25 31 3f
       -0.2540535 -0.08943465 0.7776806 0.69197845
0001c0 40 32 78 3f d7 08 90 3f 41 f0 7d 3f 16 46 47 be
       0.96951675 1.1252698 0.99194723 -0.1946033
0001d0 3d 11 c6 bc f6 59 ab 3e 89 78 68 3f 58 92 c0 bf
       -0.024178142 0.33467072 0.9080892 -1.504466
0001e0 f4 7c a0 3e 3c 05 80 3e 4c 52 33 3e 11 3d 65 3d
       0.31345332 0.25003994 0.17511863 0.05596644
0001f0 14 d3 10 3e 40 9b a3 be c7 a9 71 3e 1b 64 01 3f
       0.1414302 -0.31954384 0.23599921 0.50543374
000200 53 e5 1a be f8 b1 84 bf 57 27 3d 3f 44 8b 11 bf
       -0.15126543 -1.0366812 0.7388815 -0.5685313
000210 4c fc 56 3f ea ed 95 be 9f 8f 7f 3e c3 2a 13 bf
       0.83978724 -0.29283077 0.24957131 -0.57487124
000220 94 c3 23 bf 0f 79 2c 3f 22 95 60 3e 5f cf 69 3f
       -0.63970304 0.6737222 0.2193189 0.9133205
000230 92 12 78 be 63 54 1c 3f 49 e3 3c bf fa 70 33 bf
       -0.24225834 0.61066264 -0.7378431 -0.70094264
000240 81 17 75 bf 1c e9 fb 3e 37 7a 2a 3d d3 ee f6 bf
       -0.9573899 0.49201286 0.04162046 -1.9291633
000250 06 ff 01 be 59 96 04 3f b3 b3 57 bf 12 79 61 bd
       -0.1269494 0.5179191 -0.84258574 -0.055047102
000260 69 59 4e be 64 5d 24 bf 99 a6 95 bc 3a 49 b7 3e
       -0.20151295 -0.64205 -0.018267917 0.35798055
000270 f2 7f a6 bf 31 af 87 bd 86 99 80 be 42 78 c6 bd
       -1.3007796 -0.06625212 -0.2511713 -0.09690906
000280 88 4d 7d bf 03 87 20 bf bf 5a 4a bf 78 92 07 c0
       -0.9894643 -0.6270601 -0.7904472 -2.1183147
000290 b4 f1 68 bf a6 7a 88 3f 1c dc ab bf 9e 1c b6 be
       -0.9099381 1.0662429 -1.3426547 -0.35568708
0002a0 2c 83 31 be 4b 84 e0 bd 74 9d d1 be d0 71 73 3f
       -0.17335194 -0.10962733 -0.4094044 0.9509554
0002b0 eb 8f e5 3b 2c 5c a5 bf a0 16 58 3e 2e 6b 98 3e
       0.0070056817 -1.2918754 0.21102381 0.29769272
0002c0 00 2c 9d 3e 73 da aa 3f b7 fa 1d be c2 c3 cf 3e
       0.30697632 1.3347915 -0.15427671 0.4057904
0002d0 50 14 ad be 4e e5 35 bf 93 6b a8 be 4c 28 d1 3d
       -0.3380456 -0.71053016 -0.32894573 0.10212764
0002e0 cc 19 80 3e 9e 02 85 3f 8e b1 b0 3e e0 71 54 bf
       0.2501968 1.0391424 0.34510463 -0.8298626
0002f0 e1 76 f1 be e7 8b c8 3e fe 9d cb 3e 99 41 af 3e
       -0.4716101 0.39169237 0.39768976 0.34229735
000300 71 2f 14 3f 61 b7 36 be 0f f9 24 bf 57 be e2 bd
       0.5788489 -0.17843391 -0.64442533 -0.11071461
000310 32 95 a8 3d e3 f3 41 be cc 1f 00 bf b3 a6 10 be
       0.08231582 -0.18940692 -0.5004852 -0.1412609
000320 ce ef ad 3f 84 f0 bb 3e 3c d2 05 3f 16 5f 83 3e
       1.3588808 0.36706936 0.5227392 0.25658482
000330 04 2e 09 be 84 fc a8 be 83 27 8f bf b2 40 ed bf
       -0.1339646 -0.33005154 -1.1183933 -1.8535368
000340 07 11 08 bf 62 45 a5 3d 88 de 3a bf b7 68 83 bf
       -0.5315098 0.08069874 -0.72995806 -1.0266331
000350 4c 1c dd 3e ec c5 cf 3e e1 6a 71 be 69 2c b8 3d
       0.4318565 0.4058069 -0.23575927 0.089928456
000360 a1 33 11 bf 38 1f 98 bf 60 de 3e 3f 23 77 c5 be
       -0.56719404 -1.1884527 0.7455807 -0.38567457
000370 13 80 87 bf 61 bb 2c 3d 67 23 98 be 14 ea 88 3e
       -1.058596 0.042170886 -0.2971451 0.26741087
000380 86 3a 22 3f be f5 54 c0 14 12 29 3e 73 de 55 3e
       0.6337055 -3.327499 0.16510803 0.20885639
000390 fd 20 25 be 6f cd cb bf 76 85 43 3f 2f c7 51 bf
       -0.16125865 -1.5922068 0.7637552 -0.81944555
0003a0 21 8c e3 bd b4 e6 52 bf 8f 75 97 3d c9 db a9 be
       -0.11110712 -0.82383275 0.073954694 -0.33175495
0003b0 df f3 31 3f 89 95 79 3e 13 13 4d bf 5b 3f 6a 3e
       0.6951274 0.2437345 -0.8010723 0.2287573
0003c0 69 81 81 3f 14 43 4b bf 3d f3 cb bc ae c1 74 bf
       1.0117618 -0.7939923 -0.024896258 -0.9560803
0003d0 21 8a 87 3e cf 4e b4 bb 7f e3 39 3e b5 b9 59 be
       0.26472571 -0.005502559 0.18153189 -0.21262248
0003e0 a0 d0 f0 3e f9 c1 dc 3e f1 dc 8f be 4e 1c 1f be
       0.47034168 0.4311674 -0.28098252 -0.15538141
0003f0 51 51 19 3e d9 77 5f be f5 78 1a bf e9 f0 04 be
       0.14972426 -0.21823062 -0.60340816 -0.12982525

bias f4 [256]
000000 73 7b cc bf f8 0f 9b be 0a f8 2c 3f 43 1c ce bf
       -1.5975174 -0.3028562 0.6756598 -1.6102375
000010 5f bf cb bd 42 ff be bd 2c cd 82 be 6a b0 a4 bf
       -0.099486105 -0.0932603 -0.2554716 -1.2866337
000020 43 71 fa bd 94 bd 2d bf 76 b2 cc bf ee e1 9b bf
       -0.12228634 -0.678674 -1.5991962 -1.2178323
000030 ae 73 a7 bf 61 f6 90 bd b0 93 48 bf ea a2 02 be
       -1.3082178 -0.07078243 -0.78350353 -0.1275746
000040 e3 80 fb be 70 ac 90 bf e9 50 9b 3e fa 05 27 be
       -0.4912177 -1.1302624 0.30335167 -0.16310874
000050 a2 05 14 be 5e 15 de be e2 e7 57 bf 53 47 2c c0
       -0.14455274 -0.43375677 -0.843382 -2.6918533
000060 31 5c 3b bf 07 e9 97 bd bf 5a 3f be 03 fd c2 bd
       -0.7318755 -0.07417493 -0.1868696 -0.095209144
000070 ef 78 42 bf 12 71 d7 bf e7 90 ab bd 93 1e 7a bf
       -0.7596578 -1.6831381 -0.08377247 -0.977029
000080 29 a7 59 bf 73 21 0b 3f c9 87 81 be 29 43 bb be
       -0.8502069 0.54347914 -0.25298908 -0.36574677
000090 b2 8c 84 3d 23 7e 43 be 92 c8 25 3f 9f 19 e3 be
       0.06472148 -0.19091086 0.6475917 -0.44355485
0000a0 a1 b6 86 bf 57 e3 09 3f 57 93 11 be 89 36 98 bd
       -1.0524484 0.5386252 -0.14216362 -0.07432277
0000b0 2d f7 05 bf 0e c5 cc bd e5 b6 09 bf 45 b5 7f 3d
       -0.52330285 -0.09998523 -0.537947 0.06242873
0000c0 cf a2 f5 bd 7b 66 b6 be f2 93 80 bd 81 5e 45 bf
       -0.11993944 -0.3562506 -0.06278218 -0.77097327
0000d0 b6 84 00 c0 7a 0d c6 bd 9e 3e 06 be 96 d8 2f bf
       -2.0081 -0.09670539 -0.13109824 -0.6868986
0000e0 73 e4 1e bd 95 79 b2 be b7 e3 0c c0 0a a0 01 be
       -0.038792085 -0.34858385 -2.2013986 -0.12658706
0000f0 c9 0b 19 be ed 2f 29 3e 12 ed ed be 47 f7 f0 bd
       -0.14945902 0.16522188 -0.46469933 -0.117659144
000100 80 ed 06 c0 3f 40 f0 bf c6 0a 70 bf 66 77 5d 3e
       -2.1082458 -1.8769606 -0.9376644 0.21627578
000110 92 e5 8f bf 59 7a e0 bd 48 0d 13 bf ce 12 0d c0
       -1.1241934 -0.10960836 -0.5744214 -2.2042727
000120 af a0 43 bf a1 c5 c3 be ef fd 87 bf 91 a6 93 bf
       -0.7641706 -0.38236716 -1.0624369 -1.1535207
000130 c3 3e c8 bf 00 30 10 be ab 36 1f bf 0e fa 79 bf
       -1.5644153 -0.1408081 -0.6219279 -0.9764718
000140 d7 b2 91 bf 81 c5 b6 bd ba 1c 2b be 1e 11 45 bf
       -1.1382703 -0.0892439 -0.16710177 -0.76979244
000150 5d ee 45 bf 99 79 17 be 69 d2 7e bd 54 3e d8 bb
       -0.7731684 -0.1479248 -0.06221238 -0.006599227
000160 f9 78 23 be b4 ce 97 be ec 73 8e bf 2e 91 74 bd
       -0.15964116 -0.2964989 -1.1129127 -0.059708767
000170 33 1a 22 3f bf c4 47 bd b4 89 03 be bc dd a0 bd
       0.63321227 -0.048771616 -0.12845498 -0.078547925
000180 e0 30 00 bf fe fb 8e bf 0d 5f 68 be 5d e5 d2 bf
       -0.5007458 -1.1170652 -0.22692509 -1.6476246
000190 d2 24 20 bf 1e d3 8e be e0 c6 5e bf e6 14 75 bf
       -0.62556183 -0.27895445 -0.8702221 -0.95735013
0001a0 d4 10 a2 bf a5 14 05 be c3 d8 cd bf 9a f0 7a bf
       -1.2661386 -0.12996157 -1.6081775 -0.9802338
0001b0 a5 ff 8f bf 27 1b 95 3d 83 6c 2d bf f1 39 87 bf
       -1.1249892 0.072805695 -0.677437 -1.0564557
0001c0 9b d4 af bd 08 da 30 bf 54 61 7a bf 42 be 89 be
       -0.08585473 -0.6908269 -0.9780476 -0.26902968
0001d0 47 b5 43 bf 19 bb d2 bd c6 ae 9e bd 48 b0 3e be
       -0.7644848 -0.10289592 -0.07748179 -0.18621933
0001e0 8e ea 4c 3e b6 9b df be 7d 78 ab bf c8 15 87 bf
       0.2001135 -0.43673486 -1.3396145 -1.0553522
0001f0 98 8c f8 bd 8e 16 3f bf dc 8d 65 bf 86 76 57 3e
       -0.12136191 -0.7464379 -0.89669585 0.21041307
000200 4e 8f e9 bd 19 7a 8f bd 66 a8 29 be 79 c0 78 bf
       -0.11404286 -0.0700571 -0.16568145 -0.9716869
000210 da ce a9 bd 89 ee da bd eb 9b fd bf b4 51 52 bf
       -0.08291407 -0.10690028 -1.9813207 -0.8215592
000220 f0 d0 c5 bf a1 bd e2 bd 97 d0 62 bf b9 90 d3 bf
       -1.5454388 -0.11071325 -0.8859953 -1.6528541
000230 f3 1c cc bf 4f 6c 8a bf bf 6a b3 bc 78 2d bd bf
       -1.5946335 -1.0814303 -0.021901486 -1.4779501
000240 24 f8 12 bf a4 06 01 3f 9d 00 53 bf 21 55 07 be
       -0.5740988 0.5040076 -0.8242281 -0.13216068
000250 e4 ad 36 be d4 ac db bd 0b 31 4d 3e 3d ad 38 be
       -0.17839772 -0.10726324 0.2003824 -0.18034835
000260 24 ba d1 bf 5b 65 85 be 95 ea 57 bf 5b 39 0b bf
       -1.6384931 -0.2605389 -0.8434232 -0.5438439
000270 31 7b d9 bd a5 2d c7 bc ac ee 2a 3f c6 49 15 be
       -0.106192 -0.024313757 0.66770434 -0.14578924
000280 fc a3 1d bf ae e4 15 be 9b 52 9b bf 31 8d 8d bf
       -0.61578345 -0.14638016 -1.2134584 -1.1058713
000290 e2 88 89 bf a5 47 68 bf ea 5c f5 bc 7f 3a ad be
       -1.0744898 -0.9073432 -0.029951531 -0.3383369
0002a0 71 7d 24 bf c6 d3 cf 3e 70 8f cb bf ab a1 5f be
       -0.6425391 0.40591258 -1.5903149 -0.21839015
0002b0 1b 30 f6 3d a8 cb be be a0 93 28 3f 4d 3c b4 bd
       0.12020894 -0.37264752 0.6585026 -0.08800564
0002c0 a0 19 27 bf 9b 80 6f bf f6 a9 8b bf 86 12 ac 3e
       -0.65273476 -0.9355561 -1.0911243 0.33607882
0002d0 eb 2e 8a bf 3e c2 1b bf dc 49 89 bf d3 62 33 3e
       -1.0795568 -0.60843265 -1.0725665 0.17518167
0002e0 ab d2 05 c0 fc 15 a9 bf 06 57 bb be 6a ef 41 3e
       -2.0909832 -1.3209834 -0.3658983 0.18938985
0002f0 da 6f a4 bf a0 a3 85 3e 8a 25 0a be 88 e5 d8 bf
       -1.2846634 0.26101398 -0.13490883 -1.6945047
000300 2e fb 95 bd 3d 30 00 be 29 d5 9d bf e3 16 ed bd
       -0.07323299 -0.12518401 -1.2330676 -0.11576631
000310 dd a5 be bf ed b5 0a be 09 ea 2d bf 88 5f 92 bf
       -1.4894367 -0.13545962 -0.67935234 -1.1435404
000320 02 55 a7 bd 9c 5c 43 be 86 42 0a be a4 c7 c1 bf
       -0.08170511 -0.19078296 -0.13501939 -1.513905
000330 ce 52 91 bf 11 86 7a bf 70 57 a4 bf 74 07 a2 bf
       -1.1353395 -0.9786082 -1.2839184 -1.2658525
000340 7a ba 02 bf be 9d 37 bd dd f1 09 be 81 d3 50 bf
       -0.5106579 -0.04482817 -0.1347117 -0.8157273
000350 a8 43 c2 be ca df c0 bf 23 7a 18 be b2 c7 89 bd
       -0.37942243 -1.5068295 -0.14890341 -0.06727542
000360 80 5c 83 bf f8 54 e3 be 1a 3d b3 be b0 73 5e bf
       -1.0262604 -0.44400764 -0.35007554 -0.86895275
000370 90 ee ed bd 6e 16 19 bf f8 82 6d be 0f 51 c1 bd
       -0.11617768 -0.5979985 -0.23194492 -0.09439289
000380 23 84 cf bd c9 5d b1 be 0e 97 73 bf 13 a9 d8 be
       -0.10132625 -0.34641865 -0.95152366 -0.42316493
000390 b8 cd 43 bf 05 1d 04 be cd e1 b1 bf a9 61 57 3e
       -0.76485777 -0.12901695 -1.3897034 0.21033348
0003a0 7b 1f f4 bd 9c e4 41 bf a7 df c0 be b9 27 bc 3e
       -0.11920067 -0.75739455 -0.37670633 0.36749056
0003b0 72 ba cc bf c8 22 08 be ad c8 69 bf e9 42 4c 3e
       -1.5994399 -0.13294518 -0.9132183 0.19947399
0003c0 c1 0b 90 bd fe f2 8b 3d 52 b3 af bf 41 f2 22 3f
       -0.07033492 0.068334565 -1.3726599 0.636509
0003d0 54 ea 27 bf 20 45 00 3f 1c 30 cf 3e 2a 2c 59 bf
       -0.6559193 0.50105476 0.40466392 -0.84833014
0003e0 68 f4 d8 bf d5 97 17 be 4d 75 ed bd e2 aa cd be
       -1.6949587 -0.14804013 -0.11594639 -0.40169436
0003f0 e3 ca 4e bf 1e e4 9a bf ed 69 0a be 86 77 a7 3e
       -0.8077833 -1.2100866 -0.1351697 0.32708377

weight f4 [6, 256]
000000 bc 6c 4e 3d 1e b9 cf 3d b8 fa 72 bd 01 11 b4 3e
       0.050396666 0.1014273 -0.059321135 0.35169223
000010 6f 26 91 3c 54 9e 1a bc 5c 4f 39 bd 61 6f cd 3d
       0.017718522 -0.009437162 -0.0452417 0.100310095
000020 f9 63 9c bc c9 c8 13 be ab ce 69 be 5e ba a4 3e
       -0.01909064 -0.14432062 -0.22832744 0.32173437
000030 37 a8 85 be 9d b5 80 3d 50 d7 41 3f f5 cb b2 3c
       -0.261049 0.0628464 0.75719166 0.02182577
000040 52 f0 b9 3d 5d f6 07 bf 3d f4 86 3e 40 f0 19 bf
       0.090790406 -0.53110296 0.26358214 -0.6013222
000050 76 16 32 bc c8 fc 9d 3d 90 f4 87 be 34 b5 14 be
       -0.010869613 0.0771423 -0.26553774 -0.14522249
000060 68 2e 2c 3e 1b dc de 3c 96 b9 60 bc 4e e9 cc bd
       0.16814578 0.027204564 -0.013716122 -0.10005437
000070 f5 bd 0a 3e 19 87 8c be ed 08 02 3d 45 1a bf bd
       0.13549025 -0.2744682 0.031746794 -0.093311824
000080 c7 db 1f 3d 70 13 06 3f d6 ed 67 3e 5f 82 9b bd
       0.039027955 0.5237341 0.22649321 -0.07593226
000090 e6 91 d8 3d 50 40 62 3e ef b7 14 3e 87 61 cd be
       0.10574703 0.22094846 0.1452329 -0.4011347
0000a0 79 7b 38 3d 9f cb 06 3e e8 1e 39 3c 8b 9a 0e bd
       0.045039628 0.13163613 0.0112988725 -0.034815352
0000b0 34 56 2e 3e fc 68 9d 3c bf 39 e6 3e b4 6f 88 3e
       0.17025071 0.0192151 0.44965932 0.26647723
0000c0 b8 07 98 3d cc 7f aa 3d 4c 89 14 bd d3 8d 51 be
       0.07423347 0.083251566 -0.03626375 -0.20464258
0000d0 fa 91 38 3e 40 6f 1f bb 74 51 9f bd 8f 5e e9 3e
       0.18024436 -0.0024327785 -0.07779208 0.45579955
0000e0 3d 91 82 bb 88 83 45 bd 38 87 55 be 84 20 ba bd
       -0.003984599 -0.04822114 -0.20852363 -0.09088233
0000f0 e7 d4 83 3b be e3 88 bd 13 05 38 be aa 38 d8 bd
       0.0040231827 -0.066840634 -0.17970686 -0.10557683
000100 1b bf 4a be 89 b9 25 3d be 59 8d be 96 50 ad 3e
       -0.19799463 0.040460143 -0.2760753 0.33850545
000110 62 db 0f be a8 f3 e4 bc 1d 89 56 3e 4b a6 d5 bc
       -0.14048532 -0.027948216 0.20950742 -0.026080271
000120 8c 05 87 be 25 01 0b be 8d b6 6c 3d a7 a1 6f 3e
       -0.2637142 -0.13574655 0.05779128 0.23401509
000130 54 8e 9e be 7a 9d 49 bc 89 37 f4 be e6 f4 ec 3d
       -0.30967963 -0.012305612 -0.4769862 0.11570148
000140 0b e0 f2 be f5 fe ee 3b fb 79 e9 bc 24 7a f4 3e
       -0.47436556 0.007293577 -0.028500548 0.47749436
000150 74 d4 3f 3f a3 3e cf 3c 05 63 e5 3d 6c c9 40 bf
       0.7493355 0.025298422 0.11200527 -0.75307345
000160 d9 f9 b0 bc 59 3f 32 bc 13 b3 f2 bd 25 0e 9f bc
       -0.021603512 -0.010879361 -0.11850562 -0.019415924
000170 e5 aa f1 3c df a3 07 3d 4a ec a4 3d fd 09 90 bc
       0.029500434 0.033115264 0.08052881 -0.017582888
000180 2d 70 07 3e 6f 27 0d be 39 31 a1 3d b5 3a 90 be
       0.13226385 -0.13784574 0.078707166 -0.2816979
000190 7b 2a 8e be af 6f f0 bd ba c0 b1 be b6 41 bc be
       -0.27766785 -0.11740052 -0.3471735 -0.36768883
0001a0 23 91 30 bf d7 d3 5b 3d fb b8 a3 3d 4a 88 f8 be
       -0.6897146 0.053668823 0.079942666 -0.4854148
0001b0 0a be 8a 3e a3 c9 b7 bc 0f da 7a be 50 7b a9 3e
       0.27098113 -0.022435015 -0.24497245 0.33101892
0001c0 8c 84 e3 bd 90 b7 cf 3e e6 96 53 bf e7 55 da 3c
       -0.11109266 0.40569735 -0.8265213 0.02665229
0001d0 28 54 b5 bd ce 57 88 3c 94 8e ef 3b fb c8 43 3e
       -0.08853942 0.016643431 0.007310698 0.19119637
0001e0 fb 2b 43 be 7a 89 07 3e 44 97 18 3c 08 3d 4b bd
       -0.19059746 0.13236037 0.009313408 -0.04961875
0001f0 c5 18 57 bb 05 a9 1f bc f2 1e 1a 3e 99 b3 0c be
       -0.003282116 -0.009744887 0.15050867 -0.13740386
000200 bd 33 3a 3d 1f e4 21 bd 86 c9 ec 3d b0 20 02 be
       0.045459498 -0.039524194 0.11561875 -0.12707782
000210 ab 17 8b 3d 98 45 9a 3d 07 11 48 3e 81 aa c4 3e
       0.06791624 0.07532805 0.19537745 0.38411334
000220 a9 8c 3f be 13 cf e5 39 eb b2 17 3d aa 7d d1 3d
       -0.18706001 0.00043832566 0.037035864 0.10229047
000230 7b 71 01 3f 19 87 03 3e 31 e8 57 bd f9 f6 fd bd
       0.5056378 0.12844504 -0.05271167 -0.12400622
000240 66 1d 84 3e 5b 29 9c bd 6e 7d d5 3c 68 19 81 3d
       0.2580368 -0.076250754 0.026060786 0.06303674
000250 ae 49 b7 3d 86 d7 9e 3d 3e f2 27 3d 9a b3 28 3e
       0.089496 0.077559516 0.041002505 0.16474763
000260 5f e2 84 bd 8f 4d 49 3d fb 47 c2 3e 88 f6 bb 3e
       -0.06488489 0.04914623 0.37945542 0.36711526
000270 ab 94 e6 bc 69 76 02 bd 04 55 74 3d e8 25 a5 3d
       -0.028147062 -0.031851206 0.05965139 0.08063871
000280 d6 09 10 be 48 ff c6 3d be 11 7f 3e 4b 80 4b 3e
       -0.14066252 0.0971666 0.24909112 0.19873159
000290 cd 70 53 be 65 56 70 be af 39 8f 3c b9 a9 00 3c
       -0.20648499 -0.23470457 0.01748356 0.007852965
0002a0 b1 46 5d bd a8 12 b8 be 3a 40 89 3e ca 29 42 3e
       -0.054022495 -0.35951734 0.26806813 0.18961254
0002b0 6f 0b e5 3d 56 e4 7d be df a5 aa be aa 9c 41 3d
       0.111838214 -0.24794134 -0.33329675 0.047268547
0002c0 13 6f f3 3e 41 a0 9b be 26 3f 22 3e 76 de 11 be
       0.4754568 -0.30395702 0.15844402 -0.14245018
0002d0 b2 91 22 3d e4 74 f9 3d 75 11 25 be 3d 6e 4b bd
       0.039689727 0.12180498 -0.1611994 -0.04966568
0002e0 d9 68 d3 be 38 0a 6d bd ef a0 ed be 1c e7 1f be
       -0.4129093 -0.057871073 -0.46411845 -0.15615505
0002f0 ac f8 ac 3e 3e 60 4e 3e c5 51 34 3d a4 57 82 be
       0.33783472 0.20153901 0.044023294 -0.2545749
000300 2d 86 4a bd 15 ca 5a bd 6b fe 84 3e 57 50 86 3d
       -0.049444366 -0.053415377 0.25975356 0.06558292
000310 1b a8 78 bd 0f be 17 3b 89 be b1 be c3 69 69 3f
       -0.060707193 0.0023154055 -0.3471568 0.91177005
000320 ee ab ab 3b fa 91 a1 3d 14 26 7c bd c3 e2 d2 bd
       0.0052390015 0.07889171 -0.06155975 -0.102971576
000330 25 22 8f bd 54 42 92 bf 10 e5 46 bd 7a 09 68 3d
       -0.069889344 -1.1426492 -0.048558295 0.056649663
000340 40 30 2b bd b4 eb 98 bd 7e 4f 25 bd 9b 4c 0b 3e
       -0.04179406 -0.07466832 -0.040359013 0.13603441
000350 e2 a8 46 3d f3 28 ae 3d 61 ca 3f 3d 84 95 20 3d
       0.048500903 0.08503904 0.046823863 0.03920509
000360 ba 3e ff bb 83 15 fe be 9f 7f 11 be 26 06 54 bc
       -0.00778946 -0.49625787 -0.1420884 -0.012940919
000370 f0 27 03 bd 8f 30 84 be b0 32 b5 bd 46 87 c4 3c
       -0.03202051 -0.25818297 -0.088475585 0.023990285
000380 7b ce 5e bd f8 46 f1 bb 9c 03 4b be a4 15 2a 3f
       -0.054396134 -0.0073631965 -0.19825596 0.6643927
000390 0a b4 80 bd 4c 4f 57 3c e2 69 91 be 35 36 96 3e
       -0.0628434 0.013141464 -0.28401095 0.29338232
0003a0 ee 44 02 3d c2 74 0d bf bd 8d 9a 3e 62 8f 26 3e
       0.031804018 -0.55256283 0.30186263 0.16265634
0003b0 27 98 9a 3d a3 51 58 3d 4e 9f 1f be 48 eb b8 3e
       0.07548552 0.05281223 -0.15588114 0.36117005
0003c0 42 ce 55 3c 09 5a 11 bd 12 ea f6 bc 26 e2 cc be
       0.013049664 -0.035486255 -0.03014091 -0.40016288
0003d0 94 48 41 bd 7f 39 9f 3c 75 06 05 be c8 6b 23 3f
       -0.047188357 0.019436596 -0.12990744 0.63836336
0003e0 f1 ac c5 3e ca c9 d5 bc 56 12 9f 3c 82 47 6b 3c
       0.38608506 -0.026097197 0.019417923 0.0143603105
0003f0 a0 48 08 bc 93 bb 5f be e2 ce cf 3a c4 6a fc bd
       -0.008318096 -0.21848898 0.0015854503 -0.123250514

bias f4 [6]
000000 0a bf 50 3d a8 73 46 3c ef a4 c9 3d 37 9a c0 be
       0.05096344 0.012112536 0.09845912 -0.37617657
000010 74 88 9c 3e 8f bf 17 bc
       0.30572855 -0.00926198

weight f4 [6, 256]
000000 e8 7c 06 bd 25 ce f9 3d 72 2d ef 3a 26 33 20 3f
       -0.032833964 0.12197522 0.0018247797 0.62578046
000010 87 21 74 3d 04 17 4e bd 24 18 42 be ad 85 78 3d
       0.059602287 -0.05031492 -0.18954521 0.06067436
000020 58 7b ad 3d 75 7c c4 3e 18 2d d3 3e 63 7b 3d 3f
       0.084707916 0.38376203 0.4124534 0.740164
000030 65 89 17 3f e4 94 6d 3d d3 5e 8a 3f c0 59 12 bd
       0.5919402 0.05800332 1.0810188 -0.035730124
000040 1f ed 05 3f 48 53 d1 3e 6c b4 59 bc d1 26 0a 3f
       0.52314943 0.4088385 -0.013287645 0.5396548
000050 e9 3c 56 3d d0 ae 43 3e 00 b9 10 3f 58 c5 92 bd
       0.052304182 0.19109654 0.5653229 -0.071665466
000060 cb 19 d1 be be 8d 04 3d 10 5b 45 3d 1c d9 43 bd
       -0.4083999 0.03236174 0.048182547 -0.047814474
000070 a2 34 5b 3f 84 ff 74 3f c2 2b 7f bd 76 7d 5d bd
       0.85627186 0.95702386 -0.06229759 -0.054074727
000080 df 5e e0 3d ae 01 53 bc 79 30 be bd 47 42 31 bd
       0.10955595 -0.012878818 -0.09286589 -0.043276098
000090 a9 92 fd bc 67 67 59 3c 38 53 9a 3d 09 90 eb 3e
       -0.030953722 0.013269282 0.07535404 0.46008328
0000a0 1f b6 8c 3d c2 da 03 bd f3 e0 f7 bc c9 98 a7 bd
       0.06870674 -0.032191046 -0.030258631 -0.08183438
0000b0 68 b0 f1 3d 6d ba 21 3d 5c 7f 27 3f 75 8c 0f bd
       0.11801225 0.03948443 0.6542871 -0.03504606
0000c0 f1 5f 39 3e bb 4e d4 3e 75 5f ec 3c 18 fa a8 3c
       0.18103005 0.41466317 0.028854111 0.020627066
0000d0 4a 34 aa 3e 74 f5 95 3c 24 dc 5c 3b af 9a fa 3c
       0.33243018 0.018305518 0.003370055 0.030591337
0000e0 4e 76 de 3d 4e 0d 1c 3f 8f d9 7d 3f f8 e1 54 bc
       0.108624086 0.609578 0.99160093 -0.012993328
0000f0 6f 99 be 3c 08 49 32 3c 79 19 0d 3e a5 cb 83 3d
       0.023266522 0.01088167 0.13779248 0.064353265
000100 09 2d 01 3f 46 93 a4 3e 77 9b 13 3f 76 2d ad bd
       0.50459343 0.3214361 0.57659096 -0.084559366
000110 6f c9 25 3c e5 3f 58 3d 2b 0b 27 be 73 64 1a bd
       0.010118826 0.05279531 -0.16312854 -0.037693452
000120 93 49 d9 3e b1 85 ca 3e 43 56 44 3f b8 dc 53 3f
       0.42438945 0.39555123 0.76694125 0.82758665
000130 ea c5 fc 3e 45 d1 ec 3d 37 05 47 3e 9b 73 18 3d
       0.49369746 0.115633525 0.19435583 0.037219625
000140 2d 48 63 3e 13 60 1a 3d 05 59 00 3d 92 5c 84 3e
       0.22195502 0.03768928 0.031334896 0.25851876
000150 26 7c 83 bc 36 06 83 3c 4a c8 19 bd 4c 42 d4 bc
       -0.01605041 0.015994173 -0.037544526 -0.025910519
000160 ae 42 22 3e 90 56 85 3d 4b 6a 66 bc 07 46 43 3d
       0.15845749 0.06510651 -0.014063428 0.047674205
000170 aa d0 0b be eb 6f 91 3b 16 b1 dd bc 3d 1a c5 bc
       -0.13653818 0.0044383905 -0.02706198 -0.024060363
000180 a4 0a 0f 3e de ef e8 3d 6e 14 7a bc e7 ba 0f 3f
       0.13968903 0.11373876 -0.01526366 0.56144565
000190 fe 26 26 3e 00 64 24 bd 57 0b bc 3e 12 21 b5 3c
       0.16225812 -0.04013443 0.36727402 0.022110496
0001a0 d0 72 26 3f 68 1a 2a 3d f5 dd 8f 3c eb b3 66 3e
       0.6501894 0.04152909 0.017561892 0.22529571
0001b0 99 b3 19 3f d6 a1 19 3c 95 27 0e 3e 33 1d a4 3d
       0.6003967 0.009376964 0.13882287 0.08013382
0001c0 ce 09 84 bd 8d c1 91 3e fa db a7 3e a5 b7 d2 bc
       -0.064471826 0.2846798 0.32785016 -0.025722334
0001d0 fe e9 8d bd aa af 70 3d ae 56 2b bc 87 b3 11 3e
       -0.06929396 0.058761276 -0.010457678 0.1422864
0001e0 67 87 29 be c5 f3 20 3c a3 87 c0 3e c0 a9 b2 bd
       -0.16555558 0.009823744 0.37603483 -0.087237835
0001f0 5f 00 1d 3e 87 82 05 3f f3 2a a9 3d cf 5e 3f bd
       0.15332173 0.52152294 0.08260145 -0.046721276
000200 27 cb ac 3a e6 47 3d bc 60 4b 10 3e eb a2 29 3f
       0.0013183103 -0.011552786 0.14091253 0.6626422
000210 57 92 3e 3d c8 28 74 3d 0f da d0 3d 22 b6 cd 3e
       0.04652628 0.059609205 0.101978414 0.4017802
000220 d6 85 00 3e cd e9 a8 3d df a6 a0 3f ef ae eb bc
       0.12551054 0.08247719 1.2550925 -0.028769938
000230 d0 9d a4 3e 84 e0 f7 3e 9d f5 aa bc fb fd ef 3e
       0.3215165 0.4841348 -0.02086907 0.4687346
000240 8f 08 21 bc a9 70 c1 bd 0e b4 16 3f 8f 43 c4 3c
       -0.009828701 -0.09445316 0.5886849 0.023957996
000250 25 43 a3 bd 3d 66 2d 3d ff 9a 94 bc 8a 75 c3 3d
       -0.07971791 0.04233383 -0.018140314 0.09543903
000260 38 f7 a8 3e ae b8 b2 bc 51 be 06 3f 5f 58 e9 3e
       0.33001113 -0.021816578 0.5263415 0.45575234
000270 2a 85 e0 3c 89 39 48 3d 51 c6 65 bc 72 52 8f 3d
       0.027407248 0.048882995 -0.014024333 0.06998147
000280 1b fa 17 3f 5f ae a2 bc cb 9e 90 3d 00 59 bf 3e
       0.59366006 -0.019858537 0.07061537 0.3737259
000290 49 19 3b 3e 80 96 29 3f 94 de e7 bc b5 4f 2f bd
       0.18271364 0.6624527 -0.028304376 -0.042800624
0002a0 da b4 9e 3b 74 1c a8 bc 42 2c 90 3e a9 00 42 bc
       0.0048433365 -0.02052138 0.28158766 -0.011840978
0002b0 91 ee 83 bd 36 4d 0f bd 4d 2d 5a bd 40 b9 05 bd
       -0.06441987 -0.034985743 -0.05326586 -0.03264737
0002c0 c8 e1 1c 3f 3a 32 0e 3e a5 cc 0b 3f 4b ff c0 3a
       0.61282015 0.13886347 0.5460914 0.0014724521
0002d0 ad 64 ff bd e6 de 6e 3c b5 9a 56 3f 6b ad 03 3d
       -0.12470374 0.01457951 0.83829814 0.032147806
0002e0 8a db 07 3e 86 2b 3f bb 1f b9 be 3e 0b ab ba bd
       0.13267341 -0.002917023 0.3725061 -0.09114655
0002f0 e4 fe 10 3d 95 b0 28 be b9 b7 71 3d 61 dd 32 3e
       0.035399333 -0.1647361 0.059013102 0.17467262
000300 ed d3 93 3d 53 05 f8 bc 0a 6b 9d bd ec 5e a3 3d
       0.07218156 -0.030275976 -0.07686432 0.07977089
000310 27 cd db 3e 58 3c ba 3c 84 f0 7a 3f d6 bc f7 3e
       0.42929956 0.022733852 0.9802325 0.48386258
000320 0c e9 b4 bc ba 3c 08 3d f7 79 01 bd fb d9 99 3e
       -0.022083782 0.03326104 -0.031610455 0.30049118
000330 75 01 1a 3c 03 84 19 3f 82 02 5c 3f b0 6c df 3d
       0.009399761 0.5996706 0.85941327 0.10909402
000340 b8 6d 47 3e 0c 21 f6 3d 06 fa b7 3c 36 1f c4 3e
       0.19475448 0.12018022 0.022458088 0.38305062
000350 09 5c 21 3f 9a 79 09 be a6 09 a2 3c 96 1a b4 3c
       0.6303106 -0.13425294 0.019779991 0.021985333
000360 15 12 78 3f 96 90 12 3e ea 18 f7 3e 1b d1 0d 3f
       0.9690259 0.14312968 0.48261195 0.55397195
000370 47 5d 95 bc 13 b5 07 3e f3 d7 64 3d 08 b1 30 3e
       -0.018232955 0.13252668 0.055870008 0.17255032
000380 31 14 b2 3d d6 88 16 bd f2 37 ba 3e 76 4e 06 3e
       0.086952575 -0.03675159 0.36370808 0.13115868
000390 b9 40 17 be c9 07 20 3c eb d1 cd 3b 50 e9 86 bc
       -0.14770783 0.009767481 0.0062811277 -0.016468674
0003a0 02 43 f2 bc a3 a1 0b 3e 58 92 80 3d fd 34 66 3e
       -0.029572967 0.13635878 0.06277913 0.22481151
0003b0 dc 0f 47 3e 64 f9 ba 3d 94 09 a0 3e 9f 32 ab bb
       0.19439644 0.09129599 0.31257308 -0.0052245404
0003c0 bf 0c b5 bc 80 b0 99 bc 09 b1 53 be 6b 0f 32 bd
       -0.022100804 -0.01876092 -0.20673002 -0.043471735
0003d0 09 80 3f ba 67 49 9c bd 42 2d fa 3c 9a 8d 37 3f
       -0.00073051505 -0.07631188 0.030539159 0.7170044
0003e0 5a e9 a6 3e d1 f0 b2 3d 9c b3 a6 bd c0 05 85 bd
       0.32599908 0.08737338 -0.081397265 -0.06495237
0003f0 65 ca b2 3d 6b 8a 14 3e e3 97 3f bc 76 7d 31 3d
       0.0873001 0.14505927 -0.011693927 0.04333254

bias f4 [6]
000000 09 48 5e be 89 1d 88 be ca 36 31 be 7b 88 0e bf
       -0.21707167 -0.26585034 -0.17306057 -0.55677
000010 f9 30 dd be 04 2e 64 be
       -0.43201426 -0.22283179

weight f4 [256, 32]
000000 0e 27 88 40 50 2a 56 bc be 8d 1a be 78 2c 2f bf
       4.2547674 -0.0130716115 -0.15093133 -0.6842723
000010 a0 de 8a bb 3a 5c df be 76 06 09 be 96 97 01 40
       -0.0042379647 -0.4362505 -0.13381371 2.024877
000020 03 7e 94 3e d8 cd a6 3f d5 3b 0b be 62 bb 31 be
       0.2900239 1.3031569 -0.13597043 -0.17356637
000030 6e a3 c0 bd b5 a2 2e bd 10 3a 61 c0 17 73 a3 3f
       -0.09406172 -0.04263564 -3.5191689 1.2769498
000040 9a 7f ba bf f3 89 93 3e 0c d8 8c 3f 9c 4c ed be
       -1.4570191 0.28816184 1.1003432 -0.4634751
000050 8a cf 96 3e 46 62 c8 3d 30 e1 30 3c d8 b9 fb 3d
       0.29455215 0.09784369 0.010795876 0.12291306
000060 16 05 b7 3d a2 69 97 3d d9 09 15 3e bd ee 5c ba
       0.08936517 0.07393195 0.14554538 -0.0008427909
000070 97 52 3e be ec 4d 75 bd d5 da b0 3d 27 8b 8f bd
       -0.18586193 -0.059888765 0.08635489 -0.07008963
000080 b1 ba ce bf 10 42 35 bd 8d 38 24 be 6b 0b 0a 3f
       -1.6150724 -0.044252455 -0.16037197 0.5392367
000090 b8 43 c1 bd 7b 1b 7b be 77 3c 2a be c6 83 f7 3f
       -0.094367445 -0.24522202 -0.16624628 1.9337089
0000a0 dc 9a 9a 3f 52 c6 76 bf eb a0 e3 bd 69 eb 4f bf
       1.2078509 -0.9639636 -0.11114677 -0.8121858
0000b0 47 a2 f2 bd bf 20 32 3e 66 15 1c 40 f3 83 47 3f
       -0.11847358 0.17395304 2.438806 0.77935714
0000c0 52 e6 ed 3f 84 7b bc 3e c0 4e 25 be 49 e7 52 be
       1.8585913 0.36812985 -0.16143322 -0.20596041
0000d0 a5 0b 82 3e 48 14 cc 3c e6 67 b0 3d 32 51 47 3f
       0.2539951 0.024912015 0.08613567 0.7785827
0000e0 cb 4e e6 bd 58 fc bc bc d6 3e a7 3d ff 16 80 be
       -0.11245497 -0.023069546 0.08166282 -0.25017545
0000f0 e4 e2 38 3e 35 ea 41 bf ae 34 2d 3f 5a 67 21 3e
       0.18055302 -0.75747997 0.6765851 0.15762082
000100 32 e5 35 c0 be f5 a9 3d 43 22 3d bf f2 3e 38 c0
       -2.842114 0.08298825 -0.73880404 -2.8788419
000110 97 cf 09 3e 5a aa 1d 40 6f fb 09 3e 31 a2 80 bf
       0.13458095 2.4635224 0.1347482 -1.0049497
000120 b8 1d d8 be b6 6a 96 3f d4 17 61 bf c7 06 d2 3f
       -0.42210174 1.1751316 -0.87926984 1.6408318
000130 4a e8 10 be 08 0a 2b 3f a6 83 ac bf a3 29 81 bf
       -0.14151111 0.6681218 -1.3477676 -1.0090832
000140 1f 7c 96 bf f4 91 1e be 71 46 05 bf 33 a4 7f 3c
       -1.1756629 -0.15485364 -0.5206061 0.015603113
000150 f8 9d 4f 3f aa bd b4 3d 1c c4 3b bd 41 a9 c8 3e
       0.81100416 0.08825238 -0.04584132 0.3919163
000160 a0 19 87 bb e0 84 0b be 92 0a 58 bf ed 16 e1 3f
       -0.004122928 -0.13624907 -0.8439113 1.7585121
000170 0c 13 ef be 8e c1 89 3f 55 9a d7 be f9 37 5b 3f
       -0.4669422 1.0762193 -0.42109933 0.8563228
000180 f1 7b ce 40 c4 a7 0d be e0 04 3d bf 5a aa 5d 3e
       6.4526296 -0.13833529 -0.73835564 0.21647015
000190 ef b7 a0 bd c9 4b 51 3f e8 03 d2 bc 7e 81 59 c0
       -0.078475825 0.81756264 -0.025636628 -3.3985286
0001a0 01 28 9e 3d 32 e5 05 bf 6b 5c af be e1 02 94 bc
       0.07722474 -0.5230285 -0.34250197 -0.018067779
0001b0 79 96 90 3e 40 8f af bd 67 50 5b 40 5d 6f d5 3f
       0.28239802 -0.08572245 3.4267824 1.667461
0001c0 2e ba 93 3f f1 e9 20 3f 2f 2f 0e 3f fb 9e 31 3d
       1.1541193 0.62856966 0.55540746 0.043364506
0001d0 1e c2 09 c0 44 5d 26 be 4d eb 29 be cd 51 1a 3c
       -2.152473 -0.16246516 -0.16593666 0.009418917
0001e0 9c 88 49 3d e1 7f aa bd bd fc ed 3c 14 6a 1c bd
       0.049202546 -0.08325172 0.029051179 -0.0381871
0001f0 71 4e 0a be 77 24 8f 3e ab 15 88 bd 3a 32 41 3c
       -0.13506486 0.27957508 -0.06644758 0.01179176
000200 71 e1 1a 40 56 ce b1 3d 31 90 0c 3f 65 18 19 c0
       2.4200099 0.086819336 0.5490752 -2.392114
000210 00 5c b4 b9 26 dc 26 bf ac c4 0e be 97 29 dd bf
       -0.0003440082 -0.6517967 -0.13942212 -1.7278317
000220 43 a3 93 3e 88 cb 6e 3e fe b9 0f 3f 3c 79 f1 3e
       0.28835496 0.23319829 0.56143177 0.47162807
000230 43 ef 4c bd 41 35 2b bd a7 19 32 bf 9b 50 93 bf
       -0.050032865 -0.041798834 -0.6957039 -1.1508974
000240 62 93 53 c0 1b c0 fd be ef 8d bf bf e2 94 8a bf
       -3.3058705 -0.49560627 -1.496519 -1.0826685
000250 9a 53 67 c0 b8 1e b0 bc a0 5d 08 3c 5e 91 22 bf
       -3.6144776 -0.021499023 0.008323103 -0.6350306
000260 ba 06 f3 3d 1e 90 30 be 87 f9 45 3e cf 21 e3 3e
       0.11866517 -0.17242476 0.19333468 0.4436173
000270 42 4b b9 be c8 43 61 be 65 67 f6 3e dc ff f2 be
       -0.3619023 -0.21998513 0.4812576 -0.4746083
000280 7f 5f 9d c0 f8 71 7f 3d 37 8c 16 be 74 c7 1b 40
       -4.917907 0.06236455 -0.14701925 2.4340487
000290 d8 19 93 3d 7a a1 b4 3f c5 1a 0c be 38 52 3a 40
       0.07182664 1.4111779 -0.13682087 2.9112682
0002a0 e8 66 98 be 6e 91 a2 3e c0 ad c8 be 83 e0 98 3e
       -0.2976601 0.3175158 -0.3919506 0.2985879
0002b0 70 e3 f6 bc b8 bd 1e 3e 37 eb 53 3f 26 25 e2 3f
       -0.030137748 0.1550206 0.82780784 1.7667587
0002c0 a1 3b 6c bd 18 ed d9 3f d1 93 79 bf cd c6 69 3f
       -0.057674054 1.702548 -0.97491175 0.9131897
0002d0 8b 7d 11 3e ce b2 9e 3d c0 85 e0 bc 4e e9 4e 3d
       0.14208047 0.07748948 -0.027407527 0.050515465
0002e0 bd f0 a4 bd 30 f6 6b bd 6e 80 ea 3d ff f8 3e be
       -0.0805373 -0.05760783 0.11450277 -0.18649672
0002f0 a9 d3 6a 3e 8c fe aa bd 08 69 a9 3e 34 30 85 bd
       0.22932304 -0.08349332 0.33087945 -0.06503335
000300 3d 0b 7c c0 a6 e0 e1 3d 94 de c9 bf c5 33 f4 bf
       -3.938186 0.110291764 -1.577105 -1.9078299
000310 50 82 78 3d 94 f0 e2 bf c4 b6 0f be 7a 1e 30 c0
       0.06067115 -1.7729669 -0.14034563 -2.7518601
000320 2c 2b c2 bf 3e 92 e8 bf 14 e2 a5 bf 71 ef 2d bf
       -1.5169425 -1.816963 -1.2959619 -0.67943484
000330 42 c6 46 bf e5 05 22 bf 09 1f 0e c0 07 1d 65 bf
       -0.7764627 -0.63290244 -2.2206442 -0.8949742
000340 c6 52 af bf 29 c4 34 be 6c 56 e3 bf f8 99 01 3f
       -1.3697135 -0.17652954 -1.7760749 0.5062556
000350 16 10 bb be 98 73 30 3d 68 10 b1 bc e6 0b 44 3e
       -0.3653571 0.04307899 -0.021614268 0.19145164
000360 0b 96 06 be c0 af 0c 3b 51 93 a5 3f 41 c0 2f bf
       -0.13143174 0.002146706 1.2935582 -0.6865273
000370 0b b3 7c 3f 88 4e 7b 3e a3 70 1c 3e c9 20 f6 3e
       0.987107 0.24541676 0.15277342 0.48071888
000380 e2 e5 9a 40 74 71 a1 bd 6b 4d 2f 3f 74 d1 8b be
       4.840562 -0.078829676 0.68477505 -0.27308238
000390 e0 b8 2d 3c 84 88 ee bd ff cd 0d 3e 40 52 a2 bf
       0.01060316 -0.11647132 0.13848113 -1.2681351
0003a0 10 e0 33 bf dc bc 9e be b6 b4 a8 3e 7c ad 39 bf
       -0.7026377 -0.31003463 0.32950372 -0.7253034
0003b0 21 0a 6b bf 6e d8 5e bd 10 42 52 bf 57 d4 ee 3e
       -0.9181233 -0.054405622 -0.82132053 0.46646377
0003c0 4a 62 14 c0 70 b3 31 3d 9a e3 d2 3d 95 12 8f 3e
       -2.318499 0.043384016 0.10297318 0.27943864
0003d0 3e 8d 02 3e 22 f3 99 3d 0e 55 d0 bd af 06 30 be
       0.12749192 0.07517077 -0.10172473 -0.1719005
0003e0 a8 29 72 3d 1e 40 fa bd f3 ea cc 3d 8c 5f 0a be
       0.059121758 -0.12219261 0.100057505 -0.1351301
0003f0 3c ec 05 3e 7d a8 b1 be 76 ed 55 3e 28 67 81 3c
       0.13078398 -0.3469886 0.20891365 0.015796259
