data/HalfCheetahPyBulletEnv-v0_sac_grad_False/HalfCheetahPyBulletEnv-v0_sac_grad_False_s1/pyt_save/model.pt (torch_old, 905974 bytes, 18 tensors)

weight f4 [256, 26]
00000000: c70d 9c40 1a47 b1bd 693e a73e ed8e 92bf
00000010: e60f 3dbe 5d5d 7f3f e841 25bd 79aa bcbf
00000020: 3ceb 19be e797 2c3f a3db 6c3e 52f7 ca3e
00000030: 8297 d6be bd56 913c 6a3b ab3d 4abc 82be
00000040: 64b4 be3d ca2c 1bbe 2f76 1e3f 71f4 f8be
00000050: 5bd8 3ac0 1d94 f2bd f0a4 06bd 7766 b9be
00000060: f2b4 80bd 00da 193c 8ea6 1cc0 2a4f da3d
00000070: 261a e0be e392 9b3f 2469 603d ae46 9b3f
00000080: 1d8e 043e edb1 1240 5c89 0d3f 6907 87bf
00000090: a2fb b23f 1aac 02be eae2 e93f 4565 08be
000000a0: 4f24 8e3e b96b da3e 139a 55be b1d5 003f
000000b0: 9e6b 8cbf a157 883d ccf1 3a3f 7c40 6c3d
000000c0: ccf4 67bd 26ea f63e 9b11 41be 567f bfbd
000000d0: 7e0c 0ac0 1043 43bd ae31 c63c 4a99 43bf
000000e0: c073 16bc f515 a5bf 4e96 f43d f4e1 7ebe
000000f0: 9ffa 0140 8739 1c3f 8089 f53e 369e b43e
00000100: 7524 ba3f 74ff e13e 72ea b8bf 4ca1 8ebf
00000110: 6ac5 693d b351 cebe 1929 853e 0d97 e4be
00000120: e0d6 99bd b02e 373c dae0 833d bf70 37bf
00000130: c609 923d a219 c73d 0ee9 fabf 462b ca3d
00000140: 4431 93be 9b04 3c3f 2068 433c 2de9 bdbe
00000150: 72e5 eb3d fc94 fdbe 1cd7 b23f d070 c43e
00000160: 139a 1c3f 802d 193f f8d5 0240 2012 e43e
00000170: 981e 02c0 c753 67bf cdeb e7be 1bab 91be
00000180: 577b 893f 8552 05be 203e 473f 502b 73bd
00000190: 25ee 373e cc9b 523f ce71 e23d f6e9 ad3d
000001a0: 9534 6840 26c9 2abe 7b5c be3e e3bf a73d
000001b0: dba7 093e 2733 733f ae2d 813d 952d 49c0
000001c0: 8ec8 11bf 033c 3c3f fc7a 92bc 5aa6 123f
000001d0: 7b72 94bc 029d 9bbd 9015 cbbf 1145 d8bf
000001e0: f492 34bf 4adc 69bf c5f6 b9be 3893 a93e
000001f0: 8242 0f3e 644e debd 1ed1 3cbe 139c 903e
00000200: aa6a e73d 5f70 3a3e 6603 a23f c452 2e3d
00000210: 3de3 89bf 7e89 053f a250 fa3d 928a 1f40
00000220: 2e0c fe3d d1a2 49c0 e30a 83be eea6 8fbd
00000230: 818d 953c c31d 5b3f d4c9 b2be 52a5 5cbe
00000240: db97 b03d 8e16 10bc 7528 6dbf ce76 acbe
00000250: 1998 94bf 869a 7c3e d03a 503c 8b35 443e
00000260: c8bb b9bc cde4 5ebd 818d 3dbe bd40 01be
00000270: 49c2 8e3f 0bcb abbd 5a59 34bf ef69 46bf
00000280: 3a12 16be 3bcb c63f 4298 803d 07bb 3e3f
00000290: 6510 99be 36f7 3fbe 93e9 1a3e 20fb 3b3e
000002a0: 5e3a 893e a920 bfbd e6c0 e6be 474a 61be
000002b0: aeed cfbe ff5f 7f3c 9ac5 413e b987 2a3f
000002c0: 05fb 7ebe 20a3 cc3b 76ed 0abe cf8b 6fbe
000002d0: b4df 48bd 80e2 81bc acec e53e 50ac 1ebd
000002e0: 39bc b5bf 6224 8a3f 9a9d 2dbe d9d3 a33f
000002f0: e036 dabb 5427 6b40 1bb9 7d3f c08c 54be
00000300: 197d 95bf 5c07 e0be 495c 793e 2985 2dbf
00000310: 548f 4bbf cff4 a2be e59c c73e a8df d63e
00000320: 9196 73be 39cb 943e 24e8 a3bd 0ccd 9bbd
00000330: b6ee f13d 2276 75bf 0040 7abc e00c cdbb
00000340: 2d9d 5cbe 9255 bd3d 3d0c c93d ea33 123e
00000350: 2aa5 34be d6ca 0fbf 1b17 2f3e fc0f 4640
00000360: 3cc2 34bf 1023 edbd 75e3 04bf a8de aabe
00000370: ac90 dfbe f9b3 9ebd a93e cebf 2b8f 47be
00000380: ac43 ccbd eff9 c4be 1bdf 96bf c65f 38bf
00000390: 73a5 5c3f efed 3d3e 7c00 23bd 0d8e 0a3f
000003a0: 81bb 453e 441f 2bbd 4893 81bf 4cd2 433d
000003b0: f235 87bf 5ec8 e8bf 7eb9 fb3d b968 0540
000003c0: 4ef3 24be 22d6 93c0 d61e b1bf 4bb5 5dbd
000003d0: a716 96bf 9a59 9ebe d20a f8be 262a bfbe
000003e0: eae8 51bf ff19 fd3e 3bcf 29be aa14 e13e
000003f0: fec9 c03e 5421 9bbc e781 f6be 0c20 c9bd
4.876682 -0.0865614 0.32664803 -1.1449867 -0.18463096 0.99751836 -0.040346056 -1.4739524
-0.15031141 0.67419285 0.2313066 0.39641815 -0.41912466 0.017741555 0.08360942 -0.25534278
0.093117505 -0.15153804 0.61899084 -0.48623994 -2.9194553 -0.118446566 -0.03287214 -0.36210987
-0.062845126 0.009390354 -2.4476657 0.106596306 -0.4376995 1.2154201 0.05478777 1.2130945
0.12944837 2.2921097 0.5528772 -1.0549136 1.3983042 -0.12760964 1.8272374 -0.13319881
0.27762076 0.4266031 -0.20859556 0.5032607 -1.0970342 0.06657339 0.730252 0.057678685
-0.05662994 0.48225516 -0.18854372 -0.09350459 -2.1570125 -0.047671378 0.024193611 -0.76405776
-0.00918287 -1.2897326 0.11942731 -0.24890882 2.0309217 0.6102528 0.47956467 0.35276955
1.4542376 0.44140208 -1.4446547 -1.1142974 0.057073034 -0.40296707 0.26007918 -0.44646493
-0.07511687 0.011180565 0.064393714 -0.7165641 0.071307704 0.09721686 -1.9602373 0.09871535
-0.28748524 0.7344453 0.011926681 -0.37091962 0.115183726 -0.4952773 1.3971896 0.3836732
0.611726 0.5983505 2.0443096 0.44545078 -2.0331173 -0.9036221 -0.4529709 -0.28450856
1.0740765 -0.1301976 0.7782917 -0.059367478 0.17961939 0.8226898 0.11056863 0.0849189
3.6282094 -0.16678295 0.37179932 0.08190896 0.13442938 0.9499993 0.06307541 -3.143407
-0.5694665 0.7352907 -0.01788091 0.5728508 -0.018120995 -0.07598306 -1.5865955 -1.6896077
-0.7053673 -0.9135176 -0.36321083 0.33120131 0.13990214 -0.108547956 -0.18439147 0.28244075
0.112996414 0.18206929 1.2657287 0.0425594 -1.0772473 0.5216292 0.12222411 2.4928327
0.12404667 -3.1505625 -0.25594243 -0.07014261 0.01825595 0.8559229 -0.34919608 -0.2154744
0.08622714 -0.00879444 -0.9263986 -0.3368439 -1.1608917 0.24668321 0.0127093345 0.1916105
-0.022672549 -0.05441742 -0.1851101 -0.12622352 1.1153041 -0.08388337 -0.7044884 -0.7750539
-0.1465539 1.5530771 0.06279041 0.7450413 -0.2989532 -0.18746647 0.15128164 0.18357515
0.26802343 -0.09332401 -0.45069045 -0.22000991 -0.40611023 0.015586852 0.18923035 0.66613346
-0.24900444 0.006245032 -0.13567147 -0.23393176 -0.049041465 -0.015855074 0.4490713 -0.03873855
-1.4198066 1.0792353 -0.16954651 1.2799026 -0.0066593736 3.6742754 0.99110574 -0.20756817
-1.1678802 -0.43755615 0.2435161 -0.6778131 -0.79515576 -0.318274 0.3898689 0.4196751
-0.23787905 0.29061297 -0.08003262 -0.07607469 0.118131086 -0.9588338 -0.015274048 -0.0062576383
-0.21544333 0.09244837 0.098167874 0.14277616 -0.1764113 -0.5616888 0.17098658 3.0947256
-0.7060888 -0.11578953 -0.5190957 -0.33372998 -0.43665063 -0.07749171 -1.6112872 -0.19488208
-0.09973845 -0.38471934 -1.1786836 -0.7202114 0.86189955 0.18547796 -0.039795384 0.54123
0.19309808 -0.041777864 -1.0123072 0.047807977 -1.0563338 -1.8186147 0.12291239 2.0845168
-0.16108438 -4.6198893 -1.3837535 -0.054127973 -1.1725663 -0.30927736 -0.48445755 -0.37336844
-0.81996024 0.49433896 -0.16582958 0.43961078 0.37654108 -0.01893679 -0.48145983 -0.098205656

bias f4 [256]
00000000: 7875 013f 0705 50be 38d3 2dbe 98a2 83be
00000010: f045 573e 6871 afbf 5282 84bf 7f4f aebf
00000020: 90a9 ee3d ed74 8bbf 6e11 863e 4071 bbbf
00000030: ceea acbe 5d0b 10bf 9fd9 69bf ab39 86bf
00000040: 9587 d9be 9348 5dbf 9385 09bf 0e38 673f
00000050: b2f9 bebf 3c23 b2bf 91d5 94bf 89b0 0dbf
00000060: 0816 67bf c079 17bf f039 a4bf b10d 26bf
00000070: 0853 8bbe f1d3 2d3f d6d5 39bf 80d1 563e
00000080: 5c3d 19bf 9cf7 10bf ddad 7b3d 392b 66bf
00000090: a15f 0fbf 0242 473e 4c9b 7cbf 3303 f8bc
000000a0: 0139 01bf 5901 e5be 6e3e 50bf 3376 173f
000000b0: b2a9 fcbe 8473 05bf 6322 16bf cff9 303e
000000c0: 747d 59bf e605 77be 607d 23bf 3675 18bf
000000d0: 93f6 29bc 7a09 313f e5a4 3bbf 7305 1fbf
000000e0: dab4 16be 598a 4a3e 2001 983e 4e67 27bf
000000f0: d9b1 b2bf f104 65bf 92b4 1ebf 7199 bebe
00000100: 1b2e 52bf cd86 05bf e438 fdbe 5662 7fbe
00000110: c4cf f8be 21bb c93d fee3 143f 0a50 b4be
00000120: bee1 e0be af17 95bf 8c7a 0cbf fb3f 9fbf
00000130: aac8 8abf 3498 6abf b6c1 9fbf f3c0 86bf
00000140: 5093 9c3e b9cd 96bf e146 0dbf 242e 40bf
00000150: eb88 48bf 25a9 ffbe e5f5 5fbf 1fe7 3cbf
00000160: 03f6 a9bf 4cc6 17bf 4a11 f03e ddb7 863f
00000170: 74a0 853e 05ee b2bd 4e07 0cbd 205d f5be
00000180: 2c44 16bf 14d0 f1be a3d5 4dbf 500c 8c3e
00000190: 4649 3ebf 46fd 3d3e 6c9c 41bf 09bb 1fbf
000001a0: 9454 c8be ec89 d73e 3784 5cbe badd 103f
000001b0: 75d1 9fbf a856 88bf 3497 1fbf 42ed bbbe
000001c0: 61c6 f53e 21d0 29bf 0b8c 39bf e67f 0abf
000001d0: 9b26 b0bf 824e a1be 6e9d 1cbf 5166 63bf
000001e0: 2dae 76be 6583 31be 5ec0 5cbf 649d 1a3f
000001f0: 3a96 07bf 0001 a7be f349 96bf 7f90 96be
00000200: 68a3 64bf 2550 0bbf 7e6d efbd 3de3 56be
00000210: c147 97be c785 b03e e2b0 1ebe 6b30 be3d
00000220: e8fe a5bf 8147 37bf ed17 39bf 5dcb 4a3f
00000230: 3ae0 c33e 4c50 a4bf 4aee 2fbf 10ce 973c
00000240: fa08 a8be 58cf b5bf e178 3fbf 5657 95be
00000250: b040 383f 002c 5bbf 183c babe 0cef 30bf
00000260: 8f08 3d3e cf20 21bf b79f 4ebf 3421 e1be
00000270: c541 06bf 33ab 4c3e 3b77 4bbf 2f4b c03f
00000280: 1f4d 81bf 6bea ddbe e033 b03e b7de a4be
00000290: eacd 8ebf 9c71 2fbf 5feb 5fbe 47ff 45bf
000002a0: 5520 f43d bd12 c8bf e536 b2bf 01af 82bf
000002b0: e481 56bf 3db2 7c3f 6a91 d13e 9994 19bf
000002c0: 435a 9abe 4828 cbbf 8eff 443f 27fb 94bf
000002d0: 6051 06be 018f 00c0 8252 c3be 53d4 ce3c
000002e0: 681d 0dbf d82f 22bf 6b38 73bf f6fb 0cbf
000002f0: 1ae4 8abe 7c61 263e 188f 5dba ac2e 04bf
00000300: e96d debe 0aff 8cbe eecc 86bf 8d09 173f
00000310: 8a39 53bf ecf2 58bf d001 a0bf 46b1 13bf
00000320: e19d 5cbf f343 22bf 303d 5ebf a9ef 69bd
00000330: a3d6 8bbf ba42 3fbf 9db7 61bf 5832 8cbf
00000340: 2cc7 73bd 5f18 05be ff0d dbbf e9ed b13e
00000350: cdc1 c73c f615 b3bf 1b04 0dbf dede ecbd
00000360: f8ee 83bf 5ef8 48bf b279 babf 08ab a2bf
00000370: b5b7 5dbe 5ad3 d4bc bfa1 a7bf 6134 5cbe
00000380: 5f93 a8bf 4478 88bf 89bf 0c3e 0e4d 5abe
00000390: ba6a a8bf 98f7 cabd 1583 52bf 5349 f9be
000003a0: 19aa 6fbf bbf1 e23d 3d86 ffbe 6429 87bf
000003b0: eb37 d0bf 6986 09be 38ab 90bf 1234 c63e
000003c0: 4869 773e 1229 853e 516c b0bc 2483 22bf
000003d0: bdfe 37bf 12da 83bf d15b 2ebf 0a99 5fbf
000003e0: 8f48 98bd db95 4ebe b3d3 28bf 6ce3 39bf
000003f0: 4bf7 5ebf 2e7a 22bf 7c94 dcbe b9b3 69bf
0.5056987 -0.20314418 -0.16975105 -0.25709987 0.21022773 -1.3706484 -1.0352271 -1.361801
0.11653435 -1.0895058 0.26185173 -1.4643936 -0.33772892 -0.5626734 -0.9134769 -1.0486349
-0.42486253 -0.86438864 -0.53719443 0.9031991 -1.4919951 -1.3917003 -1.1627675 -0.55347496
-0.9026799 -0.5917015 -1.2830181 -0.6486464 -0.27211785 0.6790152 -0.7259191 0.20978355
-0.5985925 -0.5662782 0.061445106 -0.899097 -0.56005293 0.19458774 -0.98674464 -0.030274963
-0.50477606 -0.4472759 -0.8134526 0.5916473 -0.49348217 -0.5212939 -0.5864622 0.17282794
-0.8495705 -0.24123344 -0.6386318 -0.5955385 -0.010373729 0.69155085 -0.73298484 -0.6211769
-0.14717427 0.19779338 0.29688358 -0.65392005 -1.3960525 -0.89460665 -0.6199428 -0.37226442
-0.821016 -0.52158815 -0.49457467 -0.24939856 -0.48596013 0.09850145 0.5816039 -0.35217315
-0.43922228 -1.1647853 -0.5487449 -1.24414 -1.0842488 -0.91638494 -1.2480991 -1.0527633
0.3058114 -1.1781532 -0.5518628 -0.75070405 -0.7833392 -0.49933735 -0.8748458 -0.7379016
-1.3278202 -0.5928695 0.4688819 1.0524861 0.2609898 -0.08736805 -0.034186654 -0.4792261
-0.5869777 -0.47229064 -0.8040411 0.27353144 -0.74330556 0.18553647 -0.75629306 -0.6239477
-0.39127028 0.42097414 -0.21534811 0.5658833 -1.2485796 -1.0651445 -0.6234009 -0.3670445
0.48002914 -0.66333205 -0.72479314 -0.5410141 -1.3761781 -0.3150521 -0.6117772 -0.88828
-0.2408988 -0.1733528 -0.8623103 0.6039641 -0.529636 -0.3261795 -1.1741318 -0.29407117
-0.8931184 -0.54419166 -0.11690806 -0.20985122 -0.2954693 0.34477064 -0.15497163 0.09286579
-1.2968416 -0.7159348 -0.7230213 0.7921656 0.3825701 -1.2837005 -0.68722975 0.018530875
-0.3281935 -1.4203901 -0.7479382 -0.29168195 0.71973705 -0.85614014 -0.36373973 -0.69114757
0.18460296 -0.62940687 -0.80712456 -0.43970644 -0.52444106 0.19987182 -0.79478806 1.5022944
-1.010166 -0.4334291 0.34414577 -0.32201168 -1.115659 -0.6853273 -0.2186713 -0.7734265
0.11920229 -1.5630718 -1.3923002 -1.0209657 -0.8379195 0.9870947 0.40931255 -0.5999237
-0.3014699 -1.5871668 0.76952446 -1.1639146 -0.1311698 -2.0087283 -0.38148886 0.025247728
-0.55122995 -0.63354254 -0.9500796 -0.5507196 -0.27127153 0.16248125 -0.00084518036 -0.51633716
-0.4344323 -0.2753833 -1.053129 0.5899895 -0.8250967 -0.8474567 -1.2500553 -0.5769237
-0.86178404 -0.6338493 -0.86812115 -0.057113323 -1.0924877 -0.7471119 -0.88170797 -1.0952864
-0.059516117 -0.12997578 -1.7113646 0.34751824 0.024384404 -1.3991077 -0.5508439 -0.11565946
-1.0307302 -0.7850398 -1.4568388 -1.2708445 -0.2165211 -0.025979687 -1.3096236 -0.21504356
-1.3169974 -1.0661702 0.1374494 -0.21318457 -1.315757 -0.09910506 -0.82231265 -0.48688754
-0.93618923 0.11081263 -0.49907103 -1.0559506 -1.6267065 -0.1343018 -1.1302252 0.38711601
0.24161255 0.26007897 -0.021536024 -0.63481355 -0.71873075 -1.0300925 -0.6810885 -0.87342894
-0.074357145 -0.20174353 -0.6594803 -0.72612643 -0.8709609 -0.6346768 -0.43082035 -0.9128986

weight f4 [256, 256]
00000000: 6ad6 e9bf 82d3 bebe 9f0e 23bf 803a 7ebf
00000010: 073f 72bf 8622 32bf 2167 323e 16c1 c6be
00000020: 952e 5d3e 5fb2 09bf c4a3 46bf 8d74 393f
00000030: 66cc bc3d 14ad dcbe a5cc bd3e 1beb b93f
00000040: bd4f a6bf 4306 873d 3e44 9abc 6680 283f
00000050: 59ec 6abe b731 c5be ce38 84bd 42f0 e93e
00000060: 8615 6abe 5af5 2bbf 011a 16bf 98cf 90bf
00000070: c375 c6be 844d a3bf bfef e63d 9acd aabf
00000080: 33e4 3fbf c3bb c73f a97e a2be 7fd9 6a3e
00000090: 073f 89bf d097 38bf 2b5a 64be 7c1f 7cbf
000000a0: a83b 9b3e 542e f3bd 24eb f9be 0632 29be
000000b0: b360 95bf 7117 2fbe ca2f 1fbf da09 01bf
000000c0: 6a3a dabe a276 93bf f250 83bf 3b97 93bf
000000d0: dcbd 71bf 5767 81bf 48c1 223f 3d51 96bf
000000e0: d117 00c0 1118 c23d bad1 80bf 4e98 3cbe
000000f0: 664d dbbe e4a0 f3be 4b4b 753e 5e73 96bf
00000100: 939b aebe d892 bcbe e621 9a3d 827b 3bbf
00000110: 286e 8b3d 083a 40be 54ed d5bf f039 65bf
00000120: e240 82be fcb9 df3e 475d 86bf 609b eebd
00000130: 0f3e 143f ada1 8cbf 76b4 a63e e8d0 85bf
00000140: 5e06 05bf ec46 d8be b19c 2c3e 9719 5cbf
00000150: eb25 283f abd5 ccbe 869f 863e dc78 ff3e
00000160: 2b13 a4be 8fbc 7abf 69e3 3b3e dd93 73bd
00000170: 8aba 8cbf 5471 74be 121b 8cbf f673 ba3e
00000180: 8099 dcb8 5697 623e e730 26bf 14e4 cabf
00000190: b4cb fdbe 3660 013d bb07 4cbe a4aa 093e
000001a0: c387 64bd bb60 23bf db31 38bf ac5a 883f
000001b0: 0626 48bf 48e0 a0bd e8a5 e3bf 049e 2dbf
000001c0: 248c 53be a1f8 a53f 94b2 2e3d a183 5abe
000001d0: ba2e 48be d484 b5be 1b30 3a3e 9545 82bf
000001e0: 7c7c 69bf ff45 6dbf 76cd 063e 9cc5 76bf
000001f0: cddb 46bf 2749 abbe 1034 43bf e8b2 d7be
00000200: c693 4a3e 31d0 8cbe 751e ffbd 5270 263e
00000210: 2b20 43bf db14 07bf 4639 503e ae4c 08bf
00000220: 1e5b c73e f8b8 d6bd 3e5d 95bf 9331 803e
00000230: 3dca 0fbf 8bec 9cbe e07b d5bf cbf3 e7bd
00000240: dea0 a0bd 7383 30be aae2 083f 1661 4abf
00000250: 1dd7 34bf c97d 54bf 795e dbbe 0a45 36bf
00000260: 8b95 32bf 88be 31bf d7a4 56bf b3e1 263e
00000270: 03d6 ae3d a8da 8c3e 3e05 95bf c236 e3bf
00000280: 29f7 54be e3dd 563e 1465 85bf 9f70 64be
00000290: 0d6b e4be 35e0 c9be bb4a d63e 1144 87bd
000002a0: 42da 03be d06f 19bf 4eca 5b3f f419 d2be
000002b0: 845c 533e d36c 56bf 4386 19bd 96fa 523d
000002c0: 84af dcbe 0b44 453e 65d9 1abf 0b0e 1dbf
000002d0: 1d43 5fbf 00a8 e3bf 77c6 f4bc 913a ae3e
000002e0: 8480 dfbf adcd 933e ba71 d93e 6c97 81be
000002f0: d757 45bf fe78 b2bf 342e 88be a445 1ebd
00000300: bc8f efbe 2337 ec3d 29d9 26bd fa6d f53e
00000310: 0da5 ed3a c00a 8dbe dc99 b7bf daed 07bd
00000320: f312 9abf ad05 bf3e 9bf0 1fbf c603 1cbf
00000330: f868 c0be 9af8 9f3f 7b05 5fbf 443e 873e
00000340: 0120 d53e c7fc 24bf 3ec7 1bbf 2398 e7bd
00000350: 7d7a 38bf 07dc 77bf d9de d1be 3939 28bf
00000360: 0bbe 9d3e 5693 543e 1fe2 143f 2b8b 16bf
00000370: 0015 a13c a9a0 83bf 66e3 8ebf 37cb 993c
00000380: fde7 a93e f954 77bf 4d2f 483f ad83 bbbe
00000390: ad3c 43be 0211 77bf 5c55 1fbf 7359 e3be
000003a0: 31ca 33bf 32de b0bf a9d4 f1be 79e9 dcbf
000003b0: a27c 8ebf 57ca 96bf 11d4 d6bf a3bd 7dbf
000003c0: 3d90 acbe e475 6abf 8307 20bf 9b5b 2a3f
000003d0: 7b44 cebf c759 fc3d 3581 1bbe a632 9abf
000003e0: 650b 1fc0 b145 e43e bf62 bdbf 8bd7 153e
000003f0: fd92 b43f 3784 13be 6194 67bf f752 60be
-1.8268559 -0.37270743 -0.63694185 -0.99308014 -0.9462742 -0.6958393 0.17422153 -0.38819188
0.21599801 -0.537878 -0.77593637 0.7244347 0.092186734 -0.43100798 0.37070194 1.4524873
-1.2993084 0.06592991 -0.018831369 0.6582092 -0.22941722 -0.38514492 -0.06456147 0.45691115
-0.22859773 -0.6717125 -0.5863343 -1.1313353 -0.3876172 -1.2758031 0.11276197 -1.3343995
-0.7495758 1.5604175 -0.3173726 0.2293453 -1.072236 -0.7210665 -0.22300021 -0.9848554
0.30318952 -0.11874071 -0.4881221 -0.16522989 -1.1670135 -0.17098786 -0.62182295 -0.5040566
-0.4262269 -1.1520579 -1.0259078 -1.1530527 -0.9443033 -1.0109662 0.63576174 -1.1743542
-2.0014536 0.094772466 -1.0064003 -0.18417475 -0.42832488 -0.47583687 0.23954503 -1.1753957
-0.3410307 -0.36830783 0.07525997 -0.7323533 0.0680812 -0.18772137 -1.6713052 -0.8954153
-0.25440127 0.43696582 -1.0497216 -0.11650729 0.57907194 -1.098684 0.32559556 -1.0454378
-0.5196284 -0.4224161 0.16856648 -0.85976547 0.6568286 -0.40006766 0.26293582 0.49896896
-0.32045874 -0.9794397 0.18348469 -0.059467185 -1.0994427 -0.23871356 -1.0945761 0.36416596
-0.00010519009 0.22128043 -0.6491837 -1.5850854 -0.49569476 0.031585895 -0.19924824 0.13444
-0.055793535 -0.63819474 -0.71951073 1.0652671 -0.7818302 -0.07855278 -1.7785006 -0.6781924
-0.20658928 1.29665 0.042650774 -0.21339275 -0.19549075 -0.35452902 0.18182413 -1.0177485
-0.91205573 -0.9268493 0.13164315 -0.9639528 -0.7767914 -0.33454248 -0.76251316 -0.42128682
0.19782934 -0.27502587 -0.12456981 0.16253784 -0.7622096 -0.527662 0.20334348 -0.53242004
0.38936704 -0.10484499 -1.166908 0.25037822 -0.56167966 -0.30649218 -1.6678429 -0.11325797
-0.07843183 -0.17237644 0.5347086 -0.7905439 -0.70640737 -0.8300443 -0.42845514 -0.71199095
-0.69759434 -0.6943135 -0.83845276 0.16297035 0.08536913 0.2751057 -1.1642225 -1.7751086
-0.20797409 0.2098308 -1.0421472 -0.22308587 -0.44612923 -0.3942887 0.4185389 -0.066047795
-0.12876227 -0.5993624 0.8585557 -0.41035426 0.2064076 -0.837598 -0.037481558 0.05150851
-0.43102658 0.19264238 -0.6048797 -0.6134955 -0.8721178 -1.7785645 -0.029879792 0.34029058
-1.7461095 0.28867856 0.4246958 -0.25310838 -0.7708716 -1.3943174 -0.2659775 -0.038640633
-0.46789348 0.11533954 -0.040734444 0.47935468 0.0018130854 -0.27547264 -1.4343829 -0.033185817
-1.2037033 0.37309018 -0.6247651 -0.6094326 -0.37580085 1.2497742 -0.8711774 0.26414692
0.4162598 -0.6444821 -0.60850894 -0.11308315 -0.720619 -0.9682011 -0.40990332 -0.65712315
0.30809054 0.20759329 0.58157533 -0.58806103 0.019663334 -1.0283405 -1.1163146 0.018773658
0.33184806 -0.96614033 0.78197175 -0.36623898 -0.19066115 -0.96510327 -0.62239623 -0.44404182
-0.70230395 -1.3817809 -0.4723256 -1.725875 -1.1131785 -1.1780499 -1.6783468 -0.9911749
-0.33703795 -0.91586137 -0.6251146 0.6654603 -1.6114649 0.12321811 -0.15186007 -1.2046707
-2.4850705 0.4458442 -1.479576 0.14633004 1.4107357 -0.14405905 -0.90460783 -0.21906649

bias f4 [256]
00000000: a356 3c3e 8267 03bf 7bfc 96bd d2cb 20be
00000010: 5b32 c3bd 12dc 063f 09f6 d2bd 40e5 aabf
00000020: 72de 5cbe d955 e5be 1e0f c7bc ba9c 4dbe
00000030: 2c38 c2be d777 e93d 6a9f 22be b83a 813f
00000040: e83e aebd 4941 b13f 2e54 3cbe f579 72be
00000050: f9dc 423f 3c3d 973d 9e65 1dbe 2742 92bf
00000060: a73a 6fbe 4808 48bf 6c7a 14be da99 a9bd
00000070: c7e5 7bbe 4bea 783f 9684 37bd c94a 89be
00000080: c2d9 1bbd 0d4b 9fbf b835 06bf 4154 cfbd
00000090: 35e4 87be 0e3a d2bd 8530 073f cbd8 75bd
000000a0: d660 f53b 02cd 01bf e92f 32bf 5d3f f3bd
000000b0: fcac b7bd 5ad3 c6bd 9a3b a53d 24cc 12be
000000c0: f203 e6be b3ab 2b3f 2c40 88bd d4e6 183e
000000d0: fffa d13e 690e 78bc 4e4c 0abf 1b18 dc3d
000000e0: 49b3 b5bf 6205 15bf 63b1 93bf 9172 25be
000000f0: 6976 b8bf 17b5 d2be 391d 91bc bc7a b53e
00000100: 7dbd 6dbf 0059 14be e381 bcbd f325 bcbf
00000110: 7796 96bf 6035 92bd 20a7 ecbd dff7 663f
00000120: 74df 5bbf f424 c6be f227 e53d cf8c 8d3f
00000130: e65f a1be 454a debd d229 31bf 4200 11bf
00000140: 5d20 ecbd e2ee 3cbf 04b1 36bf f78a 9fbe
00000150: d7f9 383e 12a7 21be 8e85 1dbe df73 3fbf
00000160: 4b45 a43e 6a35 7a3e 2aa6 84bf 67b2 0a3f
00000170: c623 e6be 916f 43bd 1491 523e ba49 0c3f
00000180: 716a 02be a77c d5bd 2470 a2bf ab1d 1dbe
00000190: 3e99 a3bf d523 543f 5205 0c3f ed03 933e
000001a0: 12a3 003e d8b3 18be 3210 b63f 176f 773f
000001b0: 36cd fdbd d27c 3fbf 7cbe 10bf 615a 4abd
000001c0: f7b8 df3d 6319 0bbf a6fd 623f 2130 d2bd
000001d0: 8271 1abd 725c 25bf 7f61 a8bd 0886 b33d
000001e0: 93c5 263f c4f2 a8bd 6b6c a7bf 20b7 d8be
000001f0: ba3e 003e fb48 8c3d f70d 27bf 92b9 8bbe
00000200: c63c bebd 50f8 89bd 85e5 bcbf ab6b 153f
00000210: e29b ebbd 3ca1 80bf 70e6 f6bd cc34 8bbf
00000220: fffc 29bd 800c debe 4ac1 f7bd d8fb e93e
00000230: 08e8 66bf d73f 413f 5a67 f5bd e8f5 60bf
00000240: a775 bebd edb7 813e 6cd9 95be 78d3 88bf
00000250: 5b18 07be 2357 3cbe 452c f0bd 3d24 b8bc
00000260: c47a dd3f 2c21 0f3d 68a0 3c3f f76e 0dbf
00000270: 6ae4 1dbe d09c 4dbf 656c ae3e 486e c4bd
00000280: def8 753f f7dc e3bd db85 773e 6bfe 1b3d
00000290: 3385 acbd de64 11bf f9ff 2fbf 3a90 283f
000002a0: fec7 48bf 3023 f6be 5691 1cbe eca6 c9bd
000002b0: 3a41 3c3f f241 343f c9a5 d1bd 2c91 7cbf
000002c0: e04c 3fc0 8e26 ebbe c975 343e e379 2bbd
000002d0: 7f16 9cbe 422d c63c fbe9 963e eb6d 42be
000002e0: 1fc5 c2bf 1416 2e3f 3c8b 843e 831f b7bd
000002f0: 4a00 e6bd 9005 ecbd b347 2dbf 4c56 b9bc
00000300: 00cb 3abf f47d 053e 6e37 52bf a29a 90be
00000310: 3025 86be 6f1c 12be d229 16bd 209f 113f
00000320: 99e9 8fbd 659f c2be 28d3 8d3f 01e5 0cbf
00000330: 9af2 e0bd 1f2e e7bd 4445 3bbf 2b4d 7abd
00000340: 3da3 debd fb58 87bd 3e03 47bf c866 fa3d
00000350: 1126 32bf c8c2 47be 0ca7 9e3f 9eee dbbe
00000360: c0f1 c9bd 9647 55bf c23b 1fbd 22fc 0bbf
00000370: 0876 80bf 8021 95bf 3906 4b3f 24d8 6d3e
00000380: 0dc0 a4be 8cb6 9f3d 3629 1f3f ef74 35bf
00000390: 1313 393e 6e56 0ebe 2478 e8bd f608 e4be
000003a0: 91a0 943e 3eb2 8fbf c694 d7bf 0498 7ebf
000003b0: d6eb acbe 6e9a dfbf a616 3d3f db66 f43e
000003c0: edad 153f b813 8cbe 15d4 9dbf 1e5d 94bf
000003d0: 9c51 b2bd 3a4e 953f b72a 43bd 12ad e33e
000003e0: 1bb7 ccbf 95fc 773e 72c4 613f 5e70 8cbd
000003f0: 935b efbd 761f 36bf f65e b8be 2d34 27be
0.18392424 -0.51329815 -0.073723756 -0.15702751 -0.09531089 0.5267955 -0.10300834 -1.3351212
-0.21569231 -0.4479206 -0.0242992 -0.20079318 -0.3793348 0.11399811 -0.15881124 1.0096045
-0.08508092 1.3848048 -0.18391487 -0.23679335 0.7611843 0.073847264 -0.15370795 -1.1426438
-0.23362218 -0.78137636 -0.14499825 -0.08281298 -0.24599372 0.972325 -0.04480418 -0.2681487
-0.038049467 -1.2444779 -0.5242572 -0.10123492 -0.26541296 -0.10264979 0.5280841 -0.060021203
0.0074883504 -0.5070344 -0.69604355 -0.1187732 -0.08968541 -0.09708281 0.08068009 -0.14335686
-0.44924885 0.6705887 -0.06652865 0.14931804 0.41011807 -0.015140154 -0.5402268 0.10746785
-1.4195338 -0.5821134 -1.1538509 -0.16156985 -1.4411136 -0.41153786 -0.01771413 0.354452
-0.9286726 -0.14487076 -0.092044614 -1.4699081 -1.1764668 -0.07139087 -0.11555314 0.9022197
-0.8588784 -0.38700068 0.111892596 1.1058596 -0.31518477 -0.108540095 -0.6920444 -0.5664102
-0.1152961 -0.73802006 -0.71363854 -0.3116071 0.18064056 -0.15786389 -0.15382978 -0.7478618
0.32084116 0.24434438 -1.0363209 0.5417847 -0.44949168 -0.04771382 0.20563155 0.548
-0.12735917 -0.10424166 -1.2690473 -0.15343349 -1.2781141 0.82867175 0.5469562 0.28713933
0.12562206 -0.14912355 1.4223692 0.96653885 -0.123926565 -0.74799836 -0.56540656 -0.0494026
0.10923951 -0.5433561 0.88668287 -0.10263086 -0.037705906 -0.64594185 -0.08221721 0.08765799
0.65145224 -0.08249429 -1.3079962 -0.42327213 0.12523928 0.068498574 -0.65255684 -0.27290016
-0.09288935 -0.06736815 -1.4757544 0.58367413 -0.11504342 -1.0049205 -0.12055671 -1.0875487
-0.04150104 -0.43368912 -0.12097414 0.45699954 -0.901978 0.75488037 -0.11982603 -0.87875223
-0.09299784 0.25335637 -0.29267442 -1.0689535 -0.13192885 -0.18392615 -0.11727194 -0.022478217
1.730309 0.034943745 0.7368226 -0.55247444 -0.15419164 -0.803174 0.34067073 -0.09591347
0.96082866 -0.1112613 0.24172156 0.03808443 -0.08423843 -0.56794536 -0.6874996 0.6584507
-0.78430164 -0.4807372 -0.15289816 -0.09846291 0.7353703 0.70413125 -0.10236699 -0.98659015
-2.989067 -0.45927852 0.17623056 -0.041864287 -0.30485913 0.024191502 0.29475388 -0.18987243
-1.5216407 0.6800244 0.25887477 -0.08941557 -0.11230524 -0.115244985 -0.6768753 -0.022624157
-0.72966003 0.13036329 -0.8211583 -0.28242975 -0.26200247 -0.14268659 -0.036660977 0.5688343
-0.07026977 -0.38012233 1.1080065 -0.5503693 -0.109837726 -0.11288094 -0.73152566 -0.06110875
-0.10870979 -0.066087686 -0.7773932 0.12226635 -0.69589335 -0.19507897 1.2394729 -0.42955488
-0.09860563 -0.83312356 -0.03887535 -0.546816 -1.003602 -1.1650848 0.7930637 0.23226982
-0.32177773 0.0779849 0.6217226 -0.7088155 0.18073682 -0.13900158 -0.1135104 -0.44538087
0.29028752 -1.122627 -1.6842277 -0.9945071 -0.3377368 -1.7469003 0.73862684 0.47734722
0.58468515 -0.27358794 -1.2330347 -1.1590917 -0.08706972 1.1664498 -0.047648158 0.4446798
-1.5993379 0.24217446 0.88190377 -0.0685737 -0.11687388 -0.71141756 -0.3600995 -0.16328497

weight f4 [6, 256]
00000000: 3637 cc3e 7fe7 17be b832 4cbd 0ddc d8be
00000010: 79fd 11bd 71ba b7be d4b1 e8bc 4b47 fd3d
00000020: 7993 4ebe ab72 edbd 7849 d83c 46e0 c53c
00000030: dfeb 43be ff37 823e c3b6 70be f3f5 c23e
00000040: 33dc a8bb 5b57 64bf 112d 213e 8162 b3be
00000050: cc8a a73e 2f7c 7b3e 637e 8c3d a73b 2dbe
00000060: 6cee 853e 1094 79ba a051 203c 9e03 6e3e
00000070: fa56 9e3b 7222 4f3d 91d3 843c b1ee d6bd
00000080: 7365 153c 083c 9a3e 955c 37be faab 903c
00000090: 9e5e 9ebe 8c59 8b3b 19f1 573e d59c 053d
000000a0: 7c2c d9be 365e a33d 5969 73bd e803 b23c
000000b0: d011 8e3d b775 cbb9 f192 2b3e df96 a83c
000000c0: 0a04 a43e a671 20bf 0591 473c e510 373e
000000d0: b005 a5be 9670 b53e ebdd 133e 5168 56be
000000e0: feb3 5cbf 9ca7 0f3e 358d 953e b908 b7bd
000000f0: 0bb1 0b3f 0f0a 853f e09c fabe 8bfb 0c3f
00000100: a96c a3bf 7353 98bc 0452 8dbe 0f43 e2bc
00000110: d08d d23e 87d4 bebb d609 4a3c 7b23 70bc
00000120: 56f3 563e 0db1 5bbc 5573 69bf 4b28 823e
00000130: 80a6 863e 2867 253d b079 ce3e 112f 263e
00000140: 3f9d 52bd fef4 513d 2a60 693d e873 e53c
00000150: a683 973e c323 5ebd fa10 0d3e 0935 443d
00000160: ee37 74bd 9dfe 30be 98ad 5f3c 9ab2 f93d
00000170: 2811 8f3e 922e 043e 3330 213f 798d 9b3f
00000180: ba91 90bd 9c5b 0abf bded ba3e 5079 293f
00000190: cd21 2f3e 5f85 073e 07b9 11bd 82b9 e9be
000001a0: 95b3 12bf c0d2 ac3d daec b1be 00a0 493f
000001b0: 76cc 4b3d 6427 c0be 567b 623f 5fb8 9abd
000001c0: 242e 143f 71b8 32bf 0fd3 bc3d adf7 933d
000001d0: e2bc 9bbc 5e0c 5b3d 152b 793c 3731 213f
000001e0: d030 2fbe 3735 83bd 59bf 7b3f b8a3 52bb
000001f0: 8d14 7dbf 4331 1dbd 818e 8cbe a9c3 023f
00000200: 68db 79bd 5474 843d 61f6 c9bd 6b0a 2abf
00000210: 6728 be3c 024f 153f ad23 a1bc 06f3 d4be
00000220: 29af fb3c 18f8 8fbc d552 c4bc ccee 853e
00000230: c2a6 c33e de3a 34be 185e d8bd 442a 093f
00000240: 0cc0 f63c 8ba3 babe 6f65 c03e f4a0 b63d
00000250: ea52 cabc 125c fe3d d4be 533d 1eeb 313d
00000260: f0c5 84be 1a4d 813d df55 963e 9c33 573e
00000270: d753 c0bb 81ad e23d 4e09 43bd 322a 6fbd
00000280: 7fb0 d63d 42c7 0c3d b2f9 37be 9a9c 763e
00000290: 9296 0ebd f5a8 fcbe cf96 713e ec18 53bc
000002a0: e225 e9be 4c89 2b3e 8381 103d 4850 2ebd
000002b0: f95c b1bd 4544 2cbf d738 353c 31f1 343e
000002c0: ada6 80be d22c 99be 1915 ebbe 9659 913d
000002d0: cbcc 1f3e 97f9 8bbd a9dd 8dbe b02d 04bf
000002e0: b649 493f 62a4 0b3f f068 a53e b183 233d
000002f0: b3cf 723d b47f 70bd 3779 2d3e a0ec c7bd
00000300: fe1d 0d3e 0606 22be 8916 abbe 7ded 4b3e
00000310: 6bdd 9b3e 8f81 96bb eb1f f73c 0bbc fd3e
00000320: bd50 85bc 4147 e33d ea37 c83d e82b a03e
00000330: f664 6d3d 3082 98bd a7dc 4d3d 21eb 18bb
00000340: 7bd7 443f 2641 46bc 8ca8 ccbe b88a 8ebe
00000350: 0c1f e83e c5bd 4ebd 9723 053f ab77 7bbd
00000360: 8ed9 54b8 34c6 393f c6da ad3c cbd1 aebe
00000370: beea 983e b6e6 97be d6c7 643f 7378 8a3e
00000380: b961 e0be 2b8d a8be f594 9e3f 77c7 e63d
00000390: a0ed 45be 9086 cfbc 05d1 d13d 65a0 4ebf
000003a0: a459 5a3f aeab 06bc fc24 403e 2be9 2abe
000003b0: 4a39 5dbd dc6b 013c 5892 b63e 4f40 b5bd
000003c0: e885 aebe 740f b6bd 9308 313e 9fec ea3d
000003d0: 7e34 2fbe 415b f0bc d4d9 6d3c 74ab 673f
000003e0: 1c60 46be eed7 533f 17c2 a4bd 8472 60bc
000003f0: 3fbe f2bc da7c af3d 0d12 6a3c d98d 553e
0.39885873 -0.14834403 -0.049853057 -0.42355385 -0.03564212 -0.3588443 -0.028405108 0.12367114
-0.20173444 -0.11594137 0.02640222 0.024154793 -0.19132946 0.25433347 -0.23507218 0.3807827
-0.005153203 -0.89195794 0.15739848 -0.3503609 0.3272308 0.24559091 0.06860044 -0.16917287
0.26158464 -0.0009520659 0.009785086 0.23243567 0.0048321458 0.05056996 0.016214164 -0.104947455
0.009118426 0.30123925 -0.17906411 0.01766013 -0.30931562 0.004252618 0.21088065 0.03262027
-0.4241675 0.07976954 -0.05942664 0.021730378 0.06936991 -0.00038806882 0.16755272 0.020579753
0.32034332 -0.62673414 0.012180571 0.17877539 -0.32230902 0.3543746 0.14440124 -0.20938231
-0.86212146 0.14028782 0.29209295 -0.089372106 0.5456702 1.0393695 -0.4894781 0.55071324
-1.2767535 -0.01859448 -0.27601635 -0.027619867 0.4112382 -0.005823675 0.012331447 -0.014656897
0.20991263 -0.013408911 -0.9119161 0.25421366 0.26298904 0.04038158 0.40327215 0.16228892
-0.051419493 0.051259033 0.056976475 0.02800937 0.29592627 -0.054233324 0.13776007 0.04790214
-0.05962365 -0.17284627 0.013652228 0.12192269 0.27942777 0.1290839 0.6296417 1.2152549
-0.07059045 -0.54046035 0.36509505 0.66200733 0.17102738 0.13234471 -0.035576846 -0.45649344
-0.5730527 0.08438635 -0.34751016 0.78759766 0.049755536 -0.37530053 0.88469446 -0.07554697
0.57882905 -0.69812685 0.09219944 0.07224975 -0.019010965 0.05347859 0.015208025 0.6296572
-0.17108464 -0.06406634 0.9833885 -0.003214104 -0.98859483 -0.038377058 -0.27452472 0.51079804
-0.061000258 0.064675 -0.09861446 -0.66422147 0.023212625 0.5832368 -0.019670332 -0.41591662
0.030723171 -0.017574355 -0.023965279 0.2615875 0.38213164 -0.17600581 -0.10564822 0.5358012
0.030120872 -0.36452898 0.37577388 0.08917418 -0.02469774 0.12419905 0.05169566 0.043437116
-0.25932264 0.06313534 0.2936239 0.21015781 -0.0058693695 0.110682495 -0.047616296 -0.05838985
0.10482883 0.034369715 -0.17966345 0.24083176 -0.034811564 -0.49347654 0.23592685 -0.01288436
-0.45536715 0.16751593 0.035279762 -0.04255703 -0.08660311 -0.6729167 0.011060915 0.17670132
-0.25127164 -0.29917008 -0.45914534 0.07097165 0.15605466 -0.06834715 -0.27708176 -0.51632214
0.786281 0.54547703 0.32306623 0.039920513 0.05928011 -0.058715537 0.16940771 -0.097619295
0.13780972 -0.1582261 -0.3341563 0.19914813 0.30442366 -0.0045930813 0.030166587 0.49557528
-0.01627385 0.11097575 0.0977629 0.31283498 0.057957612 -0.07446706 0.05025926 -0.0023333507
0.768913 -0.012100494 -0.3997234 -0.2784021 0.45336187 -0.050473947 0.5200743 -0.06139342
-5.0747352e-05 0.7256806 0.021222483 -0.34144434 0.29866594 -0.29668206 0.89367425 0.2704502
-0.43824556 -0.32920203 1.2389208 0.11268514 -0.19328928 -0.02533272 0.102449454 -0.8071349
0.8529303 -0.008219643 0.18764108 -0.16690509 -0.054009713 0.007899251 0.35658526 -0.088501565
-0.34086537 -0.08889666 0.17288427 0.11470913 -0.17109868 -0.029340388 0.014517266 0.9049599
-0.193726 0.8275136 -0.08044832 -0.013699178 -0.029631732 0.085687354 0.01428653 0.20854892

bias f4 [6]
00000000: 1df9 cdbe 7a5a 93be 56b0 25be b928 eabe
00000010: 2755 ad3d c2a7 0a3b
-0.4022912 -0.28779966 -0.16180548 -0.45734194 0.08463507 0.002115712

weight f4 [6, 256]
00000000: 2391 413e 9184 9b3e 33e0 7fbd c64d 0e3e
00000010: fe4d c33d f39b 92bd 323b b43b be40 cbbd
00000020: a1cc 5a3d 9223 343b cc39 873e fe3a a53d
00000030: d11b 8b3e 6654 0f3e 62f9 d03e 2dd4 343e
00000040: 3689 96bd de28 953e 061a d73d a452 313d
00000050: 6014 23be d639 0bbd 19b1 aa3d 9ba6 673e
00000060: f53b 043d 32d6 ab3e a925 2c3d 9356 63bd
00000070: d895 28bc 2843 b6bc 8a3f e43c 324f 0d3e
00000080: bc7d 683c e95d 0b3f 9a95 3d3d ab77 b83c
00000090: 3526 de3d 339b c2bc 9e91 583c bbad 90bd
000000a0: 1c22 263e ad46 973d 890d 513e a267 bd3d
000000b0: 44fd 10bd aee7 d93d 368c 7c3d 69fc 99bd
000000c0: 71f8 e63d 24f9 523e f300 273d 9f8c 573e
000000d0: 8899 9e3d d626 253e 137a 983d 42c2 6cbd
000000e0: a3cb f23d e159 853d 49f8 bd3d 61ce b03d
000000f0: 0df9 0d3f 9c71 3bbb c56e ecba 06a2 413e
00000100: 0c30 a03c d3e4 89bc 1825 633e e598 413e
00000110: b97d 9a3d de1b 87bc bbcc d1bb 508b b43d
00000120: 532e ac3e d98e 663e 0284 4a3d 1f61 cf3e
00000130: d49e d73d 65f1 5d3c b1b6 8f3d ff4a 4d3e
00000140: 4eee 093e 8064 813d 2d17 5d3e bf0c a5bc
00000150: 1e2c b83d 4bf8 113e 312e af3b 88a1 823f
00000160: 21fd 473e b349 39bd 8bbc 2e3e 0625 2b3d
00000170: 8a30 203b b8f9 f43d 9402 dc3d fa6d d53e
00000180: 100a 733d 37a5 9c3d 2fe8 023e 8050 1e3f
00000190: 4eab dc3e c093 e1bd 162a df3d 4451 df3e
000001a0: 4d72 113f 8292 693d 97d8 083e c7cc 0dbe
000001b0: e644 1a3c 02f0 1c3e 6db6 1dbe 4d17 9cbd
000001c0: f9cc ad3e 153b 1d3f f3b4 2cba 085c c8bc
000001d0: a0fe cdbd 0380 833e 742e a4bc 8b69 f83d
000001e0: 0f84 0b3e f756 cf3d 4be8 e03d 4182 37bd
000001f0: 595c 483e f24b f3bd 6600 c03d 756e 2c3d
00000200: c62d 9b3d ebdd 883a 73ab 2c3d 7b0c 55bd
00000210: 7a0a a33c 014e 903e 2c35 cebc 5206 65bc
00000220: 047d de3b b3ea 013e 2983 9abc 1c95 3fbd
00000230: c50b 0f3f 9608 3c3d d69f 993d cfe4 423e
00000240: 9a92 693b 174a 83bd bd49 143e ba00 4c3e
00000250: 27be dd3c 0a9b 24bc 781e fd3c 1e9d 9e3d
00000260: 6516 9b3e eeea cb3b 5d8f c03d ab56 3c3e
00000270: 0482 4a3d 0ff2 2c3f c40f 2a3e 58d1 103b
00000280: bd75 5a3c 59a6 96bb 6004 603d 4bb1 803e
00000290: a017 963c 2f2c 09be 7274 14be cdca 913e
000002a0: 8c7c 193e 0e5a a53e cf21 293d 7618 7fbb
000002b0: 06d7 72be ef79 093d 8803 a63d 96c0 9e3e
000002c0: 04a3 3b3d 785a 053e d440 183e eaa7 9f3c
000002d0: efb8 393d 8753 293f 29a4 c43e ec45 6a3d
000002e0: 4fc1 693e 29ce 423e 30b0 813d f62d c53d
000002f0: c45f e43c b34a 6bbd 2e9b 5f3d 41c5 2cbd
00000300: 889a 913c 4f94 153e c624 27bc 7ccd f23d
00000310: cdd8 043e 32c0 7f3c 7b26 fcbc cfd2 143c
00000320: 764e c1bd 008d 433d 4881 c23d 6b14 313e
00000330: d641 e03d ee09 8b3d 9faf c23d d0e1 3fbc
00000340: 86f8 8a3e e58b 063b 1bc4 493f 7782 d7bd
00000350: f759 0d3e 42b3 cebc 28ad 9cbd 4bd3 843c
00000360: 43b6 b3ba b5df 023c 2977 74bd e2c5 8abd
00000370: 9cc6 373f 2f1b 3c3f 1a1d d1bd 961d 603e
00000380: 3e50 8cbc 61c6 e33c 1520 733e 4195 a73d
00000390: fde9 e13d 85df 703d ee4e 113e 09b0 80bd
000003a0: 163e 0f3e f161 3a3e d104 e03c 22b1 c53e
000003b0: da5b a03e 6c5d ee3e a1d0 883e cc02 06be
000003c0: 3225 e93d 3837 e73d 929b 993e 86f5 723d
000003d0: 4e0b fb3c b8b0 c93d 614f 703c 5724 e63e
000003e0: 716d cb3e ac98 4c3e 338c 06be f670 5abc
000003f0: 9746 5a3d ad62 783e 0e3a d63e 7347 cc3d
0.18903022 0.30374578 -0.062469672 0.13896856 0.0953636 -0.07158651 0.0055002207 -0.09924458
0.053417806 0.0027487022 0.26411283 0.080678925 0.2716966 0.13997039 0.40815264 0.17659064
-0.0735039 0.29132742 0.105030105 0.043291703 -0.15925741 -0.033990704 0.0833456 0.22622149
0.032283742 0.33561856 0.042028103 -0.055502485 -0.010289632 -0.02224882 0.027862329 0.13799742
0.014190134 0.5444017 0.04628525 0.022518 0.10847131 -0.023755645 0.013218312 -0.070643865
0.16223949 0.07386527 0.2041532 0.09248282 -0.035397783 0.106398925 0.061657153 -0.075188465
0.11277855 0.20602852 0.04077239 0.21049736 0.077441275 0.16128096 0.07445159 -0.057802446
0.11855247 0.06511284 0.09275872 0.08633114 0.55458146 -0.0028601652 -0.0018038383 0.18909463
0.01955416 -0.016832745 0.22182119 0.18905981 0.07543511 -0.01649278 -0.0064025796 0.08815634
0.33629093 0.2251543 0.0494423 0.40503785 0.10528341 0.0135463225 0.070172675 0.2004814
0.13469812 0.06317997 0.21590872 -0.02014768 0.0899279 0.14254873 0.0053460826 1.0205545
0.19530155 -0.0452363 0.17064111 0.041783355 0.0024442994 0.119616926 0.10742679 0.41685468
0.05933577 0.076487 0.12783884 0.61841583 0.43099445 -0.11014509 0.10896699 0.43616688
0.56815034 0.057024486 0.13363872 -0.13847648 0.009415841 0.1532593 -0.15401621 -0.07621632
0.33945444 0.6141828 -0.0006588243 -0.024457946 -0.100583315 0.25683603 -0.020041682 0.12129506
0.13624595 0.10124009 0.10981806 -0.044801954 0.19566478 -0.1187972 0.09375076 0.042097528
0.0757709 0.0010442113 0.042155694 -0.052013855 0.019902457 0.28184512 -0.025171839 -0.013978558
0.0067898054 0.12687187 -0.01886137 -0.04677306 0.55877334 0.045906626 0.075011894 0.19032596
0.003564036 -0.06410616 0.14481254 0.19922152 0.02706821 -0.01004673 0.030898318 0.077448115
0.30290523 0.006223074 0.094023444 0.18392436 0.0494404 0.6755685 0.16607577 0.0022097435
0.013333735 -0.004597467 0.054691672 0.25135264 0.018321812 -0.13395761 -0.14497545 0.28475037
0.14988917 0.3229527 0.041292008 -0.0038924492 -0.23714837 0.03356355 0.08106142 0.31006306
0.04580976 0.13022792 0.1486848 0.019489247 0.045342382 0.6614308 0.38406494 0.05719559
0.22827648 0.19023956 0.06332433 0.09627907 0.027877696 -0.057444286 0.05459135 -0.042180303
0.017773882 0.14607356 -0.010201639 0.11855599 0.12973328 0.015609788 -0.030780068 0.009083464
-0.09438793 0.04774189 0.09497315 0.17292945 0.10950057 0.06789003 0.09506153 -0.011711553
0.27142733 0.002053016 0.7881486 -0.10522931 0.1380385 -0.025231961 -0.076502144 0.016214034
-0.0013710934 0.007987906 -0.059683952 -0.067760244 0.7178743 0.7347898 -0.10210629 0.21886286
-0.017128106 0.027804555 0.23742707 0.08182765 0.11030958 0.058806915 0.14190266 -0.06283576
0.13988528 0.18201424 0.027346047 0.38611704 0.31320077 0.4655565 0.2672167 -0.13087004
0.113840476 0.11289829 0.30001503 0.05931618 0.030645039 0.098481596 0.014667363 0.449496
0.39731935 0.19980115 -0.1313942 -0.013332596 0.053289976 0.24256392 0.41841167 0.09974565

bias f4 [6]
00000000: 8691 22c0 b8bd 37c0 0aab 33c0 dca8 62c0
00000010: c770 5dc0 f15c 7cc0
-2.540132 -2.8709545 -2.8073144 -3.5415564 -3.4600084 -3.9431727

weight f4 [256, 32]
00000000: 91e1 fbbf 502a 56bc 1620 3bbf 9966 79c0
00000010: a0de 8abb a6d2 d13f 7606 09be 52a2 19c1
00000020: 25e8 07bf 94df 0cbf 0d27 f4bf 27f4 23bf
00000030: 2acf d53e 1c9c 52be ba52 743f b0de 0740
00000040: 31f1 d7be 6779 823f bb01 5e3f e971 e6be
00000050: 0a64 08c0 4662 c83d 30e1 303c 7f1c 96bf
00000060: 1605 b73d a269 973d 186e 673e d6ad 06be
00000070: e52a 823e 9ba1 33bf 623d 193f 4ede 9fbf
00000080: e89f 1bc1 1042 35bd 6e61 0b41 94d6 9cbf
00000090: b843 c1bd 3699 41c0 773c 2abe 9662 8440
000000a0: fd93 cac0 70b1 a6bf 8c4c 8840 c88a 90bf
000000b0: dc58 cbc0 02de 85bf f2ce f240 ec93 6a3f
000000c0: 25db 4dbe 55ff abbf 4cf4 c1bf 5035 d5bf
000000d0: 5c0a 0641 4814 cc3c e667 b03d dfb5 f540
000000e0: cb4e e6bd 58fc bcbc 5ed5 d0bf 8124 3740
000000f0: d217 00c0 95a5 94bf f7c3 aa3f e929 8b40
00000100: 4606 afc0 bef5 a93d 6043 9c3f ce1d 5840
00000110: 97cf 093e 52e4 2cbf 6ffb 093e 3761 9540
00000120: 8662 07c0 6845 fabf 146e 0440 cbb1 39bf
00000130: 4d6c 0440 c39e 3fbf ba46 803f a4f7 773e
00000140: 4698 093f 9fe6 073f 520c 9e3f b12c dd3d
00000150: a9e8 d43f aabd b43d 1cc4 3bbd e1ee 7b3f
00000160: a019 87bb e084 0bbe 4c62 88be 6630 833e
00000170: 878b babe 72bb 673d 86d0 173e 8562 133f
00000180: 9b04 dfc0 c4a7 0dbe 69c5 8240 cfb1 3540
00000190: efb7 a0bd b26c 1040 e803 d2bc a3ea 92bf
000001a0: 9261 c3bb a110 dfbf 77b4 c6bf 1f72 873f
000001b0: d53d e43f f395 a1bf e234 91bf b737 053e
000001c0: fe7c 08bd 56a9 493e eb55 9a3d 2c40 693d
000001d0: 4f92 1a40 445d 26be 4deb 29be 2ed2 3040
000001e0: 9c88 493d e17f aabd 8b06 703f 1906 9e3e
000001f0: 3a37 253e 1c0a 083e 8963 3a3f e266 2cbd
00000200: 5041 e0c0 56ce b13d d099 d03d 93b4 ed3e
00000210: 005c b4b9 2cdd 55c0 acc4 0ebe d2aa c83c
00000220: 8407 0940 e168 1f40 fd6a e4bd b1ee 3f3f
00000230: 998c f83f d4a0 4d3e 828c 07c0 6c9f 11c0
00000240: 29d4 b0bf 2a38 64bf a044 f2be dddb 2cc0
00000250: ab3d afc0 b81e b0bc a05d 083c 6e76 903d
00000260: ba06 f33d 1e90 30be 1dcf 163f abe1 10bf
00000270: 9a26 f43e d7bb e3bd ff9e 38bf 182e f7bf
00000280: 27cc 99c0 f871 7f3d 8b04 cabe 3c5e 5ebf
00000290: d819 933d 961a 863d c51a 0cbe 1edd 4b40
000002a0: d14e 68bf d775 19bf 3ca1 c03f c90d 053f
000002b0: 2d04 a83e a8dd f93a 5a97 fd3f 8da7 cabe
000002c0: c172 00be 15c7 513f 2d6d d53f 5533 0b3f
000002d0: b1c7 0f3f ceb2 9e3d c085 e0bc e986 b2be
000002e0: bdf0 a4bd 30f6 6bbd d302 9abf f982 543e
000002f0: 4323 36bf ca6f 133e 8834 02bf 56fd 8ebf
00000300: 5027 b6bf a6e0 e13d 55b8 a13f 7233 acbf
00000310: 5082 783d ad96 d5bf c4b6 0fbe ec26 b1c0
00000320: 7ca3 85c0 64a9 8ebf a0ce 1bc0 f3bd 1ebf
00000330: 6c00 5bc0 16fb f9be 649d 9e3f b83c bbbe
00000340: 78b8 1abf 77b9 54bf 5b8c e8bf 49a4 8cbf
00000350: 59c8 e03f 9873 303d 6810 b1bc 28d4 e63f
00000360: 0b96 06be c0af 0c3b ccf3 dabd 6c06 b63c
00000370: 414d 9ebe 2b87 42bf a8ce 063f 3b8f 723f
00000380: dc46 5940 7471 a1bd 074a 8ebe 1f59 653f
00000390: e0b8 2d3c 0ca9 1bc0 ffcd 0d3e 7171 29bf
000003a0: 5bef 20bd 5824 883f 87aa 5a3f 9ba5 88be
000003b0: 272b f03f 248e 523f e9b1 943e 68ed b0bf
000003c0: 65fe 8f3d 69e6 423f 85a7 1f3f 673a 9ebf
000003d0: ef23 21c0 22f3 993d 0e55 d0bd 6514 89bf
000003e0: a829 723d 1e40 fabd 4024 79bd 0e3d a2bd
000003f0: cd67 2b3f b720 07bf 0126 8f3f 707e c7bf
-1.9678212 -0.0130716115 -0.73095834 -3.896887 -0.0042379647 1.639241 -0.13381371 -9.602129
-0.530886 -0.55028653 -1.9074417 -0.6404442 0.41759616 -0.20567364 0.9543873 2.1229668
-0.42176202 1.0193299 0.8672139 -0.45008782 -2.131106 0.09784369 0.010795876 -1.1727446
0.08936517 0.07393195 0.22600591 -0.1315225 0.2542335 -0.70168465 0.5985929 -1.2489717
-9.72654 -0.044252455 8.711287 -1.2252984 -0.094367445 -3.0249763 -0.16624628 4.1370344
-6.330565 -1.30229 4.259344 -1.1292353 -6.354597 -1.0458376 7.587762 0.9163196
-0.20103128 -1.3437296 -1.5152678 -1.6656895 8.377529 0.024912015 0.08613567 7.678451
-0.11245497 -0.023069546 -1.6315114 2.861603 -2.0014539 -1.1613032 1.3341054 4.348866
-5.469516 0.08298825 1.2208061 3.3768191 0.13458095 -0.6753589 0.1347482 4.668117
-2.1153884 -1.9552431 2.0692186 -0.72536916 2.0691102 -0.74851626 1.0021584 0.24215561
0.53747976 0.53086275 1.234751 0.1079954 1.6633502 0.08825238 -0.04584132 0.98411375
-0.004122928 -0.13624907 -0.26637495 0.25622863 -0.36434576 0.056575246 0.14825639 0.57572204
-6.969312 -0.13833529 4.086598 2.8389776 -0.078475825 2.2566342 -0.025636628 -1.1477855
-0.005962559 -1.742695 -1.5523823 1.0581702 1.783137 -1.2623886 -1.1344264 0.13009535
-0.033322327 0.19693503 0.07535919 0.056945965 2.41518 -0.16246516 -0.16593666 2.7628284
0.049202546 -0.08325172 0.93759984 0.30864027 0.16134349 0.13285106 0.7280813 -0.042090304
-7.0079727 0.086819336 0.101855874 0.4642683 -0.0003440082 -3.3416243 -0.13942212 0.024495516
2.1410837 2.4907763 -0.11153219 0.7497359 1.9417907 0.20080882 -2.117951 -2.2753553
-1.3814746 -0.891482 -0.47317982 -2.7009194 -5.476278 -0.021499023 0.008323103 0.07053839
0.11866517 -0.17242476 0.5890978 -0.5659434 0.476857 -0.11119812 -0.7211761 -1.9310942
-4.806171 0.06236455 -0.3945659 -0.8686254 0.07182664 0.065480396 -0.13682087 3.185371
-0.90745264 -0.59945434 1.5049205 0.5197416 0.32815686 0.0019063251 1.9811814 -0.39580956
-0.12543775 0.819444 1.6673943 0.543752 0.5616408 0.07748948 -0.027407527 -0.34868553
-0.0805373 -0.05760783 -1.2032112 0.20753087 -0.71147555 0.14398113 -0.50861406 -1.1171062
-1.4230747 0.110291764 1.2634379 -1.34532 0.06067115 -1.6686608 -0.14034563 -5.536001
-4.1762066 -1.1145444 -2.4344864 -0.6200859 -3.4219007 -0.48824376 1.2391782 -0.36569762
-0.60437727 -0.83095497 -1.8167833 -1.0987636 1.7561141 0.04307899 -0.021614268 1.8033495
-0.13143174 0.002146706 -0.10691032 0.022219859 -0.30918315 -0.759875 0.5265908 0.947498
3.39495 -0.078829676 -0.27790853 0.89589113 0.01060316 -2.4321928 0.13848113 -0.6618872
-0.039290767 1.0636091 0.85416454 -0.26688847 1.8763169 0.8224814 0.29041985 -1.3822451
0.07030944 0.7613283 0.6236499 -1.2361573 -2.5178182 0.07517077 -0.10172473 -1.0709349
0.059121758 -0.12219261 -0.060825586 -0.079218015 0.6695526 -0.52784294 1.1183473 -1.5585461

bias f4 [256]
00000000: 4451 12bf 44dd 0a41 4af1 8e3f 1ffb 7f40
00000010: 3c86 bf3c 3158 d8be 8f54 b53f e07d 39be
00000020: f3e2 04bf 367e 18be 8019 1b3f 9276 3c40
00000030: 4de7 81bf 3617 d0bf a427 2640 2d5e 2c3f
00000040: 2256 a03d 4136 80bf 63c7 1b3e e5d4 2041
00000050: 5eca 8bbe 0b5b 32be a244 14bf bea2 263f
00000060: 87b5 1ac0 d863 7e40 98ba 3c3f d14a 1e3f
00000070: 9ee8 ddbf ae4d b6bf 8d2a 7abf 907b 7240
00000080: b74c 8a3f 7275 a0be 5c8b 00c0 ede6 2f3f
00000090: 4fc8 af40 8d53 a23f 9d5f 273e 0fb6 7ebf
000000a0: ac9e b640 b2fa fcbe cd92 40be 9eb0 4740
000000b0: 6a06 abbf 7459 883f 5d28 803f 6ac6 c03f
000000c0: fb98 8a3e e50f 1040 62ba b33f df18 abbf
000000d0: 47e4 af40 59c7 b540 d604 93bf 8e7e 18bf
000000e0: d8f6 833f ef8b a1bf 7978 cabf 8890 88bf
000000f0: 8dc8 5ebf 59cb ddbd bd4e 543f 1096 503f
00000100: 6684 e23e 4b75 653f dc67 4a40 fafa 84bf
00000110: 86c5 cebf ef40 77bf eecd ba3f bd8d 603f
00000120: b731 87bf 1219 8ebf 8887 9a40 68a9 8f3f
00000130: d404 1b40 b8d7 81bf 666f 1c40 f5bf 93bf
00000140: f127 ce40 25f6 5a3e 7f3d c03f 498b dabd
00000150: fac6 d13f 0358 b8bd 96de 6e3f 135f a2bf
00000160: 1d77 ac3c 85d8 773f 9fb4 81bf 9a06 dd3f
00000170: b869 8c40 53f5 0b40 9678 cc3f 2ef7 0040
00000180: 8c02 5d3f 1f5e c0be 3b5a 82bf 817f 7a3f
00000190: 9968 a340 430e 2b3e 68c4 a93e 40a3 363e
000001a0: 2097 afbf 5534 3ac0 98c1 c9bf bdb2 653f
000001b0: d085 4a40 61e6 773b aa69 5dbf c6e6 943d
000001c0: 327a 3040 3864 6540 deca 8cbe d71c 04c0
000001d0: 66a8 963e 5f97 20bf a70c 92be c5c2 9dbf
000001e0: 57b3 2e40 449f d83f 5499 a93f 49e6 98bf
000001f0: 9ac1 343e d432 d23f 92aa fd3e b247 8340
00000200: bf91 7b3f 18de a0bf 1ad5 c33e ffc5 6e3f
00000210: 8722 343f 30bb 3441 0a6a a03f 0522 c63f
00000220: c9f4 3c3f dd5f 8540 a66f 843d f2e0 bf40
00000230: 55dd 863f 41bc 1c41 8ee9 323f cb5d 2bc0
00000240: 2396 893e 0574 b4bf 6389 f73f 1130 5ebf
00000250: 76eb ae3f 22a1 ab3e 9700 78bf 3adb 6fbf
00000260: ae72 e23f d40d c23f dc73 213f 8dd9 dabe
00000270: 157c 833e 833e 99bd 37b1 5b3f a543 4040
00000280: fb7e 103f 65a0 2440 923b 88bf 4b7e cc3c
00000290: 9616 fa3f a213 0e3f 405a 7c3e 82eb c0bf
000002a0: 2189 ec3e e678 39bf 13ac 33bf 8462 263f
000002b0: a460 c1bf c744 203d f35f d7be 6b6c 583b
000002c0: 5beb 423f 6e1a c740 435b 35bd 7794 9ebf
000002d0: 528a 6abe 76df dcbf 80f3 2740 9b6e e9be
000002e0: 0436 7540 ccae e93f e2c8 d03e 7e3d 80be
000002f0: f228 33bf bf95 76bf 8e91 ffbe 3745 623e
00000300: dd54 f3bf e609 e93f c854 8cbe a177 f43f
00000310: def1 d03f d9d8 67be 713a b2bf b0f9 1a40
00000320: 12f0 413f 9c1e 67bf 790e debf f826 42c0
00000330: 482b 183f 9213 b73f f025 6e3f 8e64 ffbf
00000340: de5b 0241 648e 4a41 3c65 c1bf 47f4 4f3f
00000350: 57dc 673f cb12 5b40 a964 eabf 7cc8 adbe
00000360: 3975 a340 e548 97be 3e2b 0c40 f33d d13e
00000370: 5af7 cc3e 5d99 7040 c060 46bf d0ee 943f
00000380: d1fa 603f ea70 1941 3a6f 8f40 f5ae 093e
00000390: e0a4 7e3f 233c e13f e2f2 da3e 6844 e640
000003a0: dab3 9440 550b aebf d7b3 c43f e877 70bf
000003b0: 1479 bd3f 168f dabf d731 1840 bb59 39bf
000003c0: 2ceb 2040 e601 1fbf 2489 ec3f cca9 8d3f
000003d0: 7302 14c0 e2d1 8e3f 6702 c0be b2ff 46c0
000003e0: ae84 1140 ba36 2240 0934 d9be d5fb bc40
000003f0: bed5 95bf f8b2 9abf 678a 06bf c6a2 4141
-0.5715525 8.67902 1.1167386 3.9997022 0.023379438 -0.42254785 1.416643 -0.18114424
-0.519088 -0.14891896 0.60585785 2.944737 -1.0148712 -1.6257083 2.5961695 0.673312
0.078289285 -1.0016557 0.15212779 10.051976 -0.2730283 -0.17417543 -0.57917225 0.65092075
-2.4173295 3.974844 0.7372222 0.6183291 -1.7336614 -1.4242456 -0.9772118 3.7887917
1.0804662 -0.31339604 -2.0085058 0.6871174 5.4932017 1.2681748 0.16345067 -0.9949655
5.706869 -0.49410015 -0.18806 3.1201549 -1.3361332 1.0652299 1.0012318 1.5060551
0.2706984 2.2509701 1.4041255 -1.3366965 5.496616 5.6805844 -1.1485851 -0.5956811
1.0309706 -1.2620829 -1.5818015 -1.0669107 -0.87024766 -0.10829801 0.82932645 0.8147898
0.44241637 0.896321 3.162589 -1.0389092 -1.6154029 -0.96583456 1.4594095 0.87716275
-1.0562047 -1.1101401 4.8290443 1.1223574 2.4221697 -1.0143957 2.4442992 -1.1542956
6.4423757 0.21382959 1.5018767 -0.10671098 1.6388848 -0.09001162 0.9330839 -1.2685264
0.021052891 0.9681476 -1.0133246 1.726764 4.387905 2.1868484 1.59743 2.0150867
0.8633201 -0.3757181 -1.0183786 0.97850806 5.1065183 0.16704659 0.3315766 0.17835712
-1.3717995 -2.909444 -1.5762205 0.8972586 3.1644173 0.0037826526 -0.86489356 0.07270579
2.7574582 3.5842419 -0.27498525 -2.0642602 0.29425353 -0.62730974 -0.28525278 -1.2325064
2.729696 1.6923604 1.3249917 -1.1945277 0.17651978 1.6421762 0.49544197 4.102502
0.98269266 -1.2567778 0.3824852 0.9327087 0.70365185 11.2957 1.253236 1.5479132
0.7381101 4.167952 0.06466608 5.996209 1.0536295 9.79596 0.69887626 -2.6775997
0.26872358 -1.4097906 1.9338802 -0.86792094 1.3665607 0.33521372 -0.968759 -0.9369389
1.7691247 1.516047 0.6306741 -0.42744103 0.25680605 -0.07482626 0.85817283 3.0041287
0.56443757 2.5722897 -1.064318 0.024962565 1.9538143 0.5549871 0.24643803 -1.5071871
0.4619837 -0.724501 -0.7018444 0.6499407 -1.5107617 0.03912809 -0.4206539 0.0033023607
0.76140374 6.2219763 -0.044276487 -1.2389058 -0.22904328 -1.7255695 2.624237 -0.45592198
3.8314219 1.8256469 0.4077826 -0.25046915 -0.6998435 -0.96322244 -0.49915737 0.22096716
-1.9010273 1.8206146 -0.27408433 1.9099008 1.6323812 -0.22641315 -1.3924085 2.4214897
0.75756943 -0.9028108 -1.7348167 -3.0336285 0.5944104 1.4302847 0.9302664 -1.9952562
8.1474285 12.659763 -1.5109019 0.8123211 0.90570587 3.423022 -1.8311969 -0.3394202
5.1080594 -0.29547802 2.1901393 0.40867576 0.40032464 3.7593606 -0.7749138 1.163538
0.87882715 9.590067 4.4823275 0.13445647 0.9947033 1.7596477 0.4276343 7.1958504
4.6469545 -1.3597208 1.5367383 -0.9393296 1.4802575 -1.7074916 2.378042 -0.7240254
2.5143538 -0.6211227 1.8479352 1.1067443 -2.3126495 1.1157801 -0.37501833 -3.1093564
2.2737231 2.5345902 -0.42422512 5.905741 -1.1705854 -1.2085867 -0.52554935 12.10224
