data/HopperPyBulletEnv-v0_sac_grad_True/HopperPyBulletEnv-v0_sac_grad_True_s5/pyt_save/model.pt (torch_old, 859874 bytes, 18 tensors)

weight f4 [256, 15]
0	0xbf169020	-0.5881367
1	0xbe45b595	-0.1930755
2	0x3f64bd05	0.8935092
3	0x3f1eee86	0.6208271
4	0x3e5e25a4	0.21694046
5	0x3c2b6d2f	0.010463043
6	0xbe317784	-0.17330748
7	0x4013b391	2.3078349
8	0xbe15c198	-0.14624631
9	0xbd1796dc	-0.037009105
10	0x3dcb1b5f	0.0991733
11	0xbe2adf8c	-0.16686839
12	0x3c590ca1	0.01324764
13	0xbdbcaf4a	-0.09213121
14	0x3c433ba9	0.01191608
15	0x3ea5fd55	0.3241984
16	0x3e7e4f5a	0.24834958
17	0xbeb2ae15	-0.3489844
18	0xbecf5b23	-0.4049922
19	0x3e5e26c4	0.21694475
20	0x3e432c00	0.19059753
21	0xbdfc430c	-0.12317476
22	0xbe4e35c6	-0.201377
23	0xbbcfbfb2	-0.0063399905
24	0x3e0ee9e5	0.13956411
25	0xbf40b4d8	-0.75275946
26	0x3ed0de6e	0.407947
27	0xbe35ac9a	-0.17741624
28	0x3e1f998d	0.15585919
29	0xbed985d2	-0.4248491
30	0xbfa32287	-1.2744912
31	0xbdf9fee4	-0.1220682
32	0xbfb69c1d	-1.4266392
33	0xc019f4b2	-2.40556
34	0x3e1cc45a	0.15309277
35	0xbf858416	-1.0430934
36	0x3e786022	0.24255422
37	0xbf9b6536	-1.2140262
38	0xbe128982	-0.14310268
39	0xbefaf561	-0.49015334
40	0xbf220f6b	-0.63304776
41	0xbd1ce7b3	-0.038306903
42	0xbf4c53ce	-0.79815376
43	0x3d5e56dc	0.054282054
44	0xbd62fa5b	-0.05541454
45	0xbf114541	-0.567463
46	0x3e5d5756	0.21615347
47	0xbf5a678e	-0.8531426
48	0x3ebfaf6a	0.37438518
49	0xbd851ac4	-0.06499246
50	0xbddbdb24	-0.10735157
51	0xbcb4f840	-0.022091031
52	0xbce9511c	-0.028481059
53	0x3e49a5fb	0.19692223
54	0x3c9635ed	0.01833626
55	0x3e95c7ae	0.29253906
56	0xbd424371	-0.0474276
57	0x3fabaf2d	1.3412834
58	0x3ede8b2e	0.4346556
59	0xbc32e19f	-0.01091805
60	0x3e6177b3	0.22018318
61	0xbe16ca21	-0.14725544
62	0xbe50dbb4	-0.2039631
63	0xbfb2ebbf	-1.3978194
64	0xbe33cec9	-0.17559351
65	0x3f2b146c	0.66828036
66	0x3cebc500	0.02878046
67	0x3f43d224	0.76492524
68	0xbfb30cf3	-1.3988327
69	0xbe530a52	-0.20609406
70	0x3d3fe939	0.046853278
71	0xbcf53f86	-0.029937517
72	0xbe1885c4	-0.14894778
73	0x3e259cd3	0.16173105
74	0x3e213f18	0.15746725
75	0x3f22717f	0.6345443
76	0x3e180fa0	0.1484971
77	0x3e534ee8	0.20635569
78	0xbf669392	-0.90068924
79	0xbc86a0b8	-0.016434059
80	0x3ea3bb83	0.31978998
81	0xbc9b7610	-0.018977195
82	0xbdfb81ff	-0.12280654
83	0x3e14df8b	0.145384
84	0xbe35d54a	-0.17757145
85	0xbf1c9182	-0.6115953
86	0x3d1be292	0.03805787
87	0xbef410e5	-0.4766914
88	0xbf18aca5	-0.59638435
89	0xbc85bcc4	-0.016325362
90	0xc025ee5a	-2.5926728
91	0xbd412940	-0.04715848
92	0xbf267d92	-0.65035355
93	0x3fac95c6	1.3483207
94	0xbe43b8aa	-0.19113412
95	0xbe631165	-0.22174604
96	0xbdc31bfa	-0.095268205
97	0x3f5b2518	0.85603476
98	0xbe49983a	-0.19686976
99	0x3e26f965	0.16306074
100	0xbf9a206c	-1.2041144
101	0xbea7971f	-0.32732484
102	0xbed1ff4a	-0.41015083
103	0xbe618b65	-0.22025831
104	0x3e4ea629	0.20180573
105	0x3fbb27c6	1.4621513
106	0xbe38c5c7	-0.18044196
107	0x3e4a4d97	0.1975616
108	0x3b9def56	0.004819791
109	0xbd1e8cb4	-0.038708404
110	0xbeadb950	-0.33930445
111	0x3e61593e	0.220067
112	0xbf569c2f	-0.8383207
113	0xbfc0b6f9	-1.5055839
114	0x3e3e6d8a	0.18596473
115	0xbfa4fb0e	-1.2889116
116	0x3e50fe4a	0.20409504
117	0x3e864196	0.26221913
118	0x3dfb9601	0.1228447
119	0x3d1353c1	0.035968546
120	0x3e498412	0.19679287
121	0xbde9a742	-0.11408855
122	0xbbf6e849	-0.007535015
123	0xbec0283a	-0.3753069
124	0xbe0e6068	-0.13903964
125	0x3eb3850b	0.3506244
126	0x3d8c142c	0.06839785
127	0x3bd00953	0.006348768
128	0xbedbd94d	-0.42939225
129	0xbdafb31c	-0.08579084
130	0xbec3686d	-0.38165608
131	0xbdc77a7f	-0.09740161
132	0xbd23f5eb	-0.040029448
133	0xbdfabae5	-0.122426786
134	0xbe984ce8	-0.29746175
135	0xbfe67ff9	-1.8007804
136	0x3e4274fa	0.18989936
137	0xbfa3b001	-1.2788087
138	0xbfacd5c9	-1.3502742
139	0xbe1ea7f8	-0.15493762
140	0xbf5cb778	-0.8621745
141	0x3e77b32e	0.24189445
142	0xbf8ee522	-1.1163676
143	0xbf5e92a3	-0.869425
144	0xbf6f7cf6	-0.9355005
145	0xbdcf13aa	-0.101111725
146	0xbf051315	-0.5198224
147	0xbea2163e	-0.31657594
148	0x3db3661d	0.08759711
149	0x3c9dbbac	0.019254528
150	0xbe96296c	-0.29328477
151	0x3d89af74	0.06722918
152	0xbf63219a	-0.88723147
153	0xbeff9aca	-0.49922782
154	0xbdc47128	-0.09591895
155	0xbea4cd31	-0.321878
156	0xbd8335ce	-0.06406747
157	0xbf20fec5	-0.6288875
158	0x3e104e2a	0.14092317
159	0x3cf8f620	0.030390799
160	0xbfa7bb96	-1.3104122
161	0x3eda9967	0.42695162
162	0xbf70666a	-0.9390627
163	0x3f3b6042	0.7319375
164	0x3e9cbd0a	0.30612975
165	0x3e5b8e3e	0.2144098
166	0x3d2ffed0	0.042967618
167	0xbebf5ee0	-0.3737707
168	0xbeb90ac9	-0.3614104
169	0x3e5dcb42	0.21659568
170	0xbf20a241	-0.6274758
171	0x3e805025	0.25061145
172	0xbdb3389b	-0.08751031
173	0x3ddd11d9	0.1079442
174	0xbf70d858	-0.94080114
175	0xbe1711e4	-0.14752918
176	0xbeaf630b	-0.3425525
177	0x3cb2e26e	0.021836486
178	0x3d0d652c	0.034520313
179	0x3d6ba11d	0.057526696
180	0x3e6788b1	0.22610737
181	0xbe5d080b	-0.215851
182	0x3f962107	1.1728829
183	0x3e332c04	0.1749726
184	0xbcbf3ae8	-0.023343518
185	0x3c4ccea1	0.012500436
186	0x3d48b420	0.048999906
187	0x40194697	2.3949335
188	0x3e53f34d	0.2069828
189	0x3ec8ac00	0.39193726
190	0x3d79b18a	0.06096033
191	0x3e36e213	0.17859678
192	0x3d6e3abb	0.05816148
193	0xbd181f10	-0.037139
194	0xbb3dff08	-0.0028991122
195	0x3f4801b7	0.78127617
196	0x3d3f2830	0.046669185
197	0xbca6081f	-0.020267544
198	0xbf56cf12	-0.83909714
199	0xbe68062c	-0.22658604
200	0x3e7083cc	0.23487777
201	0x3c117260	0.008877367
202	0x3f75d087	0.9602131
203	0xbf6a275a	-0.91466296
204	0x3ebe4514	0.37162077
205	0x3e60b1ae	0.2194278
206	0x3e7e2906	0.24820337
207	0x3e0cca79	0.13749112
208	0xbda48b40	-0.08034372
209	0xbf293e9e	-0.6611117
210	0x3e0e3b05	0.13889702
211	0x3d8bd2a8	0.06827289
212	0xbf6e044b	-0.929753
213	0xbfed80d3	-1.8554939
214	0xbe36104c	-0.17779654
215	0xbf450d14	-0.7697308
216	0x3e51a596	0.20473322
217	0xbe9b7910	-0.303658
218	0x3e191793	0.14950399
219	0x3eba1c73	0.3634983
220	0x3f35c87b	0.71009034
221	0x3eacc29e	0.3374223
222	0xbec3fd93	-0.382794
223	0xbeaa7e12	-0.3329931
224	0xbcafa929	-0.021442967
225	0x3ef5acda	0.47983438
226	0xbe28a570	-0.1646936
227	0xbeafadaf	-0.34312198
228	0xbe198b90	-0.14994645
229	0x3e80ca73	0.25154456
230	0x3da346af	0.07972466
231	0xbddda4c2	-0.10822441
232	0x3eeab824	0.45843613
233	0xbe294fb6	-0.16534314
234	0xbe1cc0bd	-0.15307899
235	0xbeb5d0a0	-0.3551073
236	0xbecdb566	-0.4017746
237	0xbe4d1057	-0.20025764
238	0xbd636d03	-0.055523884
239	0xbe5f4474	-0.21803457
240	0xc071ff49	-3.7812064
241	0x3cc33a20	0.023831427
242	0xbf77f8f9	-0.9686428
243	0xbefcc36c	-0.49367845
244	0xbd059bf8	-0.032619447
245	0xbfcfa092	-1.6220877
246	0xbd0cbae0	-0.034357905
247	0x3f836d22	1.026768
248	0xbead24f7	-0.33817264
249	0xbd847471	-0.06467522
250	0xbfcc74dd	-1.5973164
251	0xbe9a3f05	-0.30126205
252	0x3dc3d17c	0.0956144
253	0x3c8800b4	0.016601898
254	0x3caaf33c	0.020867936
255	0x3f766894	0.96253324

bias f4 [256]
0	0x3f221dff	0.6332702
1	0xbec2ce0d	-0.3804783
2	0xbf82e6bf	-1.0226668
3	0xbf7a5034	-0.9777863
4	0x3d7ae636	0.061254703
5	0xbe8c8790	-0.27447176
6	0xbf2aa454	-0.66656995
7	0x3eaf452b	0.34232458
8	0xbe4039e1	-0.18772079
9	0xbf551388	-0.8323293
10	0xbf4c3f33	-0.79783934
11	0xbe7d5766	-0.24740371
12	0x3fa9f812	1.327883
13	0x3dffff64	0.12499884
14	0xbf2bce1c	-0.6711137
15	0xbe5e3dfd	-0.21703334
16	0xbf8963e4	-1.0733609
17	0xbef0c30d	-0.47023812
18	0xbf8ddd63	-1.1083187
19	0xbf9aa18c	-1.208055
20	0xbf4e662d	-0.8062466
21	0xbebc6e16	-0.3680274
22	0xbf190fb1	-0.5978957
23	0xbf0aef2f	-0.54271215
24	0xbf854797	-1.0412472
25	0x3d936d7a	0.07198615
26	0xbed49fae	-0.41528076
27	0xbfdee4e7	-1.7413605
28	0xbeca78a9	-0.3954518
29	0xbf86b4eb	-1.0523962
30	0x3d92372b	0.07139429
31	0xbf94e804	-1.1633306
32	0x3d023f00	0.031798363
33	0xbdfd6a83	-0.12373831
34	0xbfa093b8	-1.254508
35	0xbee62981	-0.4495354
36	0xbf40c655	-0.7530263
37	0xbeb4a83b	-0.352846
38	0xbeb65b60	-0.3561659
39	0xbdd3baa9	-0.10338337
40	0xbde59798	-0.11210555
41	0xbe3327fe	-0.17495725
42	0xbf270c6e	-0.6525334
43	0xbf1a64c2	-0.60309994
44	0xbf3fa430	-0.74859905
45	0xbf6f613c	-0.9350774
46	0xbf4eab7a	-0.807304
47	0xbdcc3365	-0.0997074
48	0xbf5a221b	-0.8520829
49	0xbda40159	-0.080080695
50	0xbf08a103	-0.53370684
51	0xbeb82eeb	-0.35973296
52	0xbef9da2c	-0.48799264
53	0xbe998fe6	-0.29992598
54	0xbf82a9d6	-1.020808
55	0xbee7608e	-0.45190853
56	0xbedec4f8	-0.4350965
57	0xbedc0b8b	-0.42977557
58	0xbe7406eb	-0.23830764
59	0xbe19ed23	-0.15031867
60	0xbf46b54a	-0.77620375
61	0xbe46a51f	-0.19398926
62	0xbdce4f9e	-0.100737795
63	0xbf93f269	-1.1558353
64	0xbe8faf67	-0.2806351
65	0xbfca5035	-1.5805727
66	0xbf2df41e	-0.6795062
67	0xbf8cbba3	-1.0994762
68	0xbe0d2166	-0.13782272
69	0xbfb1f118	-1.3901701
70	0xbdabc3ff	-0.08386993
71	0xbf584909	-0.8448644
72	0xbea38563	-0.31937703
73	0xbf2163ec	-0.63043094
74	0xbfbef2e5	-1.4917876
75	0xbeccbc10	-0.3998723
76	0xbf5ec352	-0.87016785
77	0x3be805f1	0.0070807864
78	0xbf3ab169	-0.72926956
79	0xbe9015cd	-0.28141633
80	0xbec6dc64	-0.3884002
81	0xbe08b581	-0.13350488
82	0xbf02a5af	-0.51034063
83	0x3eddf104	0.43347943
84	0x3b822e1d	0.0039727823
85	0xbeab59e5	-0.33467022
86	0xbf00e609	-0.50351006
87	0xbef03eba	-0.46922857
88	0xbf119860	-0.5687313
89	0xbcf0032d	-0.02929839
90	0xbdf6738c	-0.120337576
91	0xbdccce01	-0.100002296
92	0xbe8f3035	-0.27966467
93	0xbfb733ab	-1.4312643
94	0xbea8ba4d	-0.32954636
95	0xbe3232d7	-0.17402206
96	0xbe6a3650	-0.22872281
97	0xbf6bcb66	-0.92107236
98	0xbf33c2c4	-0.70219064
99	0xbfacabf3	-1.3489975
100	0xbe240fd1	-0.16021658
101	0xbf336357	-0.70073456
102	0xbe7945ed	-0.24343081
103	0xbf8bbf0d	-1.0917679
104	0xbf89a05e	-1.0752065
105	0xbe0cb15c	-0.13739532
106	0xbf525441	-0.8215981
107	0xbea15888	-0.31512856
108	0xbdcf1736	-0.10111849
109	0xbe83fddc	-0.25779617
110	0xbeac9bb0	-0.3371253
111	0xbe1168cb	-0.14200132
112	0xbeb718cc	-0.35761106
113	0xbf1a22b1	-0.60209185
114	0x3eed8fc4	0.46398747
115	0xbe5d199d	-0.21591802
116	0xbea6b466	-0.32559508
117	0x3f6b1ae9	0.91837937
118	0xbf3f81cc	-0.7480743
119	0xbec5f89a	-0.3866623
120	0x3f0e67d7	0.556272
121	0xbea54aa4	-0.3228351
122	0xbeab83b0	-0.33498907
123	0xbf2e81fb	-0.68167084
124	0xbe8e4c75	-0.27792707
125	0xbe53ed0a	-0.20695892
126	0xbf3c789b	-0.7362153
127	0xbf20ebe5	-0.62859946
128	0xbe51e0c1	-0.20495893
129	0xbead14a5	-0.33804813
130	0xbe56f298	-0.2099098
131	0xbf9c1aec	-1.2195716
132	0xbf076951	-0.52895075
133	0xbf4041f1	-0.7510062
134	0xbf1e61e8	-0.61868143
135	0x3d98c352	0.074591294
136	0xbe924cca	-0.2857421
137	0xbf586fa6	-0.8454536
138	0xbe69f354	-0.22846729
139	0xbf0565fe	-0.5210875
140	0xbefdebb1	-0.4959388
141	0xbe833fa5	-0.25634494
142	0xbf482e5e	-0.7819575
143	0xbdc16394	-0.09442821
144	0xbea4758c	-0.3212093
145	0xbf5c2236	-0.859897
146	0xbe61a814	-0.22036773
147	0xbf65b8a9	-0.89734894
148	0x3f228466	0.63483274
149	0xbf143714	-0.5789654
150	0xbf0c714d	-0.54860383
151	0xbfd0fb4e	-1.6326692
152	0xbe4baed2	-0.19890907
153	0xbe0a83cd	-0.1352684
154	0xbe58de1a	-0.21178475
155	0xbf668303	-0.9004366
156	0xbec9ce3c	-0.39415157
157	0xbf1940a6	-0.5986427
158	0xbf21074a	-0.6290175
159	0xbf00926b	-0.50223416
160	0xbf7870a2	-0.97046864
161	0xbfa4ae23	-1.2865642
162	0xbe7d5bfb	-0.24742119
163	0xbe1530b2	-0.14569357
164	0xbfec9c6b	-1.8485235
165	0xbe874625	-0.26420704
166	0xbf1534a6	-0.5828346
167	0xbe655b6e	-0.22398159
168	0xbfdc2d31	-1.7201291
169	0xbf18bd61	-0.5966397
170	0xbedff14c	-0.43738782
171	0xbf47f107	-0.78102154
172	0xbef91798	-0.48650813
173	0xbeb75b31	-0.3581176
174	0xbe876042	-0.26440626
175	0xbe30d484	-0.17268568
176	0xba27410d	-0.0006380238
177	0xbeaba6ca	-0.33525687
178	0xbebd22ae	-0.3694052
179	0xbf5dbad6	-0.86613214
180	0xbf13a01e	-0.57666194
181	0x3fd7a7ef	1.6848124
182	0xbd2bc5e9	-0.04193679
183	0xbf141dbf	-0.5785789
184	0xbc6ce6f6	-0.014459362
185	0xbee6b3e8	-0.45059133
186	0xbf44b3ba	-0.7683674
187	0x3eec95db	0.4620808
188	0xbf89a783	-1.0754246
189	0xbe85a949	-0.26105717
190	0x3ef385e6	0.47563094
191	0xbf2f8138	-0.6855655
192	0x3e6118a0	0.2198205
193	0xbfa915e1	-1.3209802
194	0xbeff5cd1	-0.498755
195	0xbf9216d3	-1.1413215
196	0xbf6dc114	-0.9287274
197	0xbee58c9f	-0.44833848
198	0xbf06fa2e	-0.52725494
199	0xbec2e6d9	-0.38066748
200	0xbf72fa74	-0.9491341
201	0xbe164563	-0.14674906
202	0x3fd6771e	1.6755102
203	0x3e2ce974	0.1688593
204	0xbe1dc53a	-0.15407267
205	0xbefe5258	-0.49672198
206	0xbea0cabc	-0.31404674
207	0xbf06dacc	-0.5267761
208	0xbf746ea2	-0.9548131
209	0xbf2124fa	-0.62947047
210	0xbe07d193	-0.1326354
211	0xbe421026	-0.18951473
212	0x3db9596c	0.09050259
213	0xbe3f0c82	-0.18657115
214	0xbf6203bf	-0.88286966
215	0xbe374b9f	-0.17899941
216	0xbf10e902	-0.5660554
217	0xbf48e057	-0.78467315
218	0xbf7d5d9c	-0.9897096
219	0x3e0a444a	0.13502613
220	0xbe71a793	-0.2359908
221	0xbd018c40	-0.031627893
222	0xbea9156b	-0.33024153
223	0xbe8f26d3	-0.27959308
224	0xbed9ef81	-0.4256554
225	0xbf470912	-0.77748215
226	0xbfbc0986	-1.4690406
227	0xbf29c986	-0.66323125
228	0xbf98455a	-1.1896164
229	0xbfab558c	-1.3385482
230	0xbec73146	-0.3890478
231	0xbf0cb5bb	-0.549648
232	0xbf36e144	-0.7143748
233	0xbe9d59ff	-0.30732724
234	0x3fb582e5	1.4180571
235	0xbfa8715e	-1.3159597
236	0xbf2bd416	-0.6712049
237	0xbe9ee1ad	-0.31031552
238	0x3d4b899d	0.049691785
239	0xbf4107c3	-0.7540247
240	0x3f56d425	0.83917457
241	0xbf46cbde	-0.77654827
242	0xbe7c6b45	-0.24650295
243	0xbe7abccd	-0.24486084
244	0xbee6e61a	-0.4509743
245	0xbf4b638c	-0.7944877
246	0xbcad79b7	-0.021176202
247	0xbecb5704	-0.39714825
248	0xbf48a874	-0.7838204
249	0xbed6d1c0	-0.41956902
250	0xbf858085	-1.0429846
251	0xbe2df3f0	-0.16987586
252	0xbf86df0d	-1.053682
253	0xbee7919d	-0.45228282
254	0xbe7ebeb2	-0.24877432
255	0x3f91156b	1.1334661

weight f4 [256, 256]
0	0xbd183a0c	-0.037164733
1	0x3d369dcb	0.044584077
2	0x3bbc25de	0.005741819
3	0x39965d5b	0.00028679785
4	0xbd5be7b6	-0.053687774
5	0x3b914e41	0.0044343774
6	0xbd2e1cc7	-0.042507913
7	0xbce13879	-0.027492749
8	0x3d401070	0.046890676
9	0xbd3d3180	-0.046189785
10	0xbce672e7	-0.028130962
11	0xbe02709a	-0.12738267
12	0xbc1a0bb5	-0.009402205
13	0xbd96b7dd	-0.07359288
14	0x3d3b5852	0.045738526
15	0xba7cf4b1	-0.0009649499
16	0x3ba37480	0.004988253
17	0xbe081a87	-0.1329137
18	0x3b58f936	0.0033107526
19	0xbc5900ba	-0.013244802
20	0xbd1bbbc6	-0.03802087
21	0x3c265f82	0.010154607
22	0x3cfb9674	0.03071139
23	0xbdf9b96b	-0.12193569
24	0xbd49d64a	-0.049276628
25	0xbd9a49f1	-0.075336345
26	0xbd647828	-0.055778652
27	0xbcd8c2c3	-0.026460057
28	0xbc3a1828	-0.011358298
29	0xbd9c12f7	-0.07620805
30	0xbd1e58cf	-0.038658913
31	0xbd69fbbf	-0.05712485
32	0xbdd0c553	-0.101938866
33	0x3d8f23ef	0.06989276
34	0xbd8af385	-0.06784729
35	0xbd334a80	-0.04377222
36	0xbdbd5050	-0.09243834
37	0xbd251539	-0.040303443
38	0x3c1a77b8	0.009427957
39	0x3ac894f0	0.0015303176
40	0xbcd51988	-0.02601315
41	0xbd53cbec	-0.051708147
42	0x3ca752aa	0.02042516
43	0xbdeab7c1	-0.114608295
44	0xbd1ffdc9	-0.039060388
45	0x3d730399	0.059329603
46	0xbd62e714	-0.055396155
47	0xbd2e7716	-0.042594038
48	0xbd84f9d2	-0.06492962
49	0xbc105e01	-0.008811475
50	0xbd83391a	-0.06407376
51	0xbdd43b15	-0.103628315
52	0xbd03bea3	-0.032164227
53	0xbdcb69fc	-0.09932324
54	0xbd731baa	-0.059352554
55	0x3c55b17a	0.013042802
56	0xbdc22027	-0.09478789
57	0x3af7e202	0.001891196
58	0xbd593db0	-0.053037345
59	0x3c813139	0.015770542
60	0x3dcd2a65	0.10017852
61	0xbd840bf3	-0.06447592
62	0xbd135d95	-0.03597792
63	0xbdc5d58f	-0.09659874
64	0x3cbf89e0	0.023381174
65	0xbd0fb1d5	-0.035081703
66	0x3d2d7f47	0.04235771
67	0xbdb7addc	-0.08968708
68	0xbaaa2e46	-0.0012983761
69	0xbd3a4a4d	-0.045481015
70	0xbd17351a	-0.036915876
71	0xbc507f74	-0.0127257
72	0x3d9001f3	0.07031622
73	0xbc028d3e	-0.007968245
74	0xbd7d1b02	-0.061793335
75	0xbbf4cc49	-0.0074706418
76	0xbdbc2594	-0.09186855
77	0xbd3035c7	-0.043020036
78	0xbcb292b8	-0.021798477
79	0xbd5234f4	-0.05132003
80	0xbd321692	-0.043478556
81	0xbbb44783	-0.005501689
82	0xbd49e54a	-0.049290933
83	0x3c8e6af7	0.01738499
84	0x3ce63999	0.028103637
85	0xbd73ecd7	-0.05955204
86	0x3bfd5a00	0.007731676
87	0xbdd4a5aa	-0.103831604
88	0xbd8a7793	-0.06761088
89	0xbda4d3cf	-0.08048212
90	0xbd836fc6	-0.064178035
91	0xbce08e16	-0.027411502
92	0xbbceb6c0	-0.0063084066
93	0xbd46ea28	-0.048563153
94	0xbd40b27a	-0.04704521
95	0xbd96ad56	-0.0735728
96	0xbd6f1369	-0.05836812
97	0x3cd2b0d2	0.02571908
98	0x3b9c792c	0.004775187
99	0x3d74179a	0.05959282
100	0x3d5978ec	0.053093836
101	0xbd7e1999	-0.06203613
102	0xbd4e0624	-0.050298825
103	0xbdddcdc8	-0.10830265
104	0xbdd858f8	-0.105638444
105	0xbd1604ac	-0.03662555
106	0x3d97bd72	0.07409181
107	0x3c1aa082	0.009437682
108	0x3d40e950	0.047097504
109	0x3d2c66af	0.042090114
110	0xbbc390d4	-0.0059681926
111	0xbcbe2a59	-0.023213552
112	0xbd06ff07	-0.032958057
113	0x3d050e75	0.03248449
114	0xbd8fd57f	-0.07023143
115	0xbdb69c59	-0.0891654
116	0xbd0da804	-0.03458406
117	0xbcb18023	-0.021667546
118	0x3d907192	0.07052912
119	0xbd87a9ca	-0.066241816
120	0x3d159857	0.036522236
121	0x3c9b3fc0	0.018951297
122	0x3cdaee57	0.026724977
123	0xbca00a79	-0.019536244
124	0x3d59350c	0.053029105
125	0x3c99b8d4	0.01876489
126	0xbdc5ada0	-0.09652257
127	0xbd47ebce	-0.048808865
128	0xbd3281d4	-0.043580845
129	0xbd55a5e2	-0.05216015
130	0xbd2a69f2	-0.041604944
131	0xbd95efcf	-0.073211305
132	0x3cce53ca	0.025186438
133	0x3c9cc6e4	0.019137807
134	0xbd0dc822	-0.03461469
135	0xbc847740	-0.016170144
136	0xbdbcd3a5	-0.092200555
137	0xbc29e570	-0.010369644
138	0x3cebfa71	0.028805943
139	0xbda3402b	-0.079712234
140	0x3cf3f6dc	0.029780798
141	0x3be194e1	0.006884203
142	0x3cddc5a9	0.02707179
143	0xbd628cd9	-0.055310104
144	0xbd22f46a	-0.039783873
145	0xbd7c1483	-0.061543
146	0xbd1ecb01	-0.03876782
147	0xbcb186bf	-0.021670697
148	0xbdb2b6ad	-0.08726249
149	0x3c8f423d	0.01748764
150	0xbdbc40cc	-0.091920465
151	0xbdb6aa4b	-0.089191996
152	0xbd7a514d	-0.06111269
153	0xbd256481	-0.04037905
154	0x3dbc8513	0.092050694
155	0xbdb5a85b	-0.08870002
156	0xbd283bbd	-0.041072596
157	0xbc25d844	-0.0101223625
158	0x3ca3a769	0.019977288
159	0xbd16af2b	-0.036788147
160	0xbce441a9	-0.02786334
161	0xbd33eba0	-0.04392588
162	0x3ca80ca9	0.02051385
163	0x3d8b44d1	0.06800235
164	0x3d517b5b	0.05114303
165	0x3c9800aa	0.018555004
166	0xbdcecb53	-0.10097375
167	0xbdb1fdbc	-0.08690974
168	0xbc99212e	-0.01869258
169	0xbd956960	-0.07295489
170	0xbcf606a8	-0.03003247
171	0xbd96b48e	-0.07358657
172	0xba2c0953	-0.0006562669
173	0x3d4435b5	0.04790278
174	0x3b8fda86	0.0043900637
175	0x3d237922	0.039910443
176	0xbadcdffb	-0.0016851419
177	0x3c6b2f34	0.014354516
178	0xbddf6f4f	-0.10909902
179	0x3c8a716a	0.016899783
180	0x3d8474ab	0.06467565
181	0xbd5da966	-0.05411663
182	0xbe0354af	-0.12825273
183	0xbc849b55	-0.01618735
184	0xbd2a8969	-0.04163495
185	0xbda72768	-0.08161813
186	0xbd858009	-0.065185614
187	0xbb7e698b	-0.0038820233
188	0xbda9c032	-0.082886115
189	0x3caec038	0.021331891
190	0xbd9fdfc7	-0.07806354
191	0x3d22af84	0.039718166
192	0xbdfb47c7	-0.1226955
193	0xbda7f7fc	-0.08201596
194	0xbdc7f915	-0.097643055
195	0xbd3a95e0	-0.04555309
196	0xbdaa8388	-0.08325869
197	0xbdfb3b68	-0.1226719
198	0xbd34e66f	-0.04416507
199	0x3c309a9c	0.010779049
200	0xbd512f24	-0.051070347
201	0x3a8ea02b	0.0010881474
202	0x3ad5dbba	0.0016316094
203	0xbdc224a9	-0.094796486
204	0x3c222e42	0.009898724
205	0xbd4320c3	-0.047638666
206	0x3c2a6339	0.010399633
207	0xbdcada18	-0.09904879
208	0xbcc63786	-0.024196398
209	0xbd4e8872	-0.050423093
210	0x3d6b5446	0.057453416
211	0xbdc0c648	-0.09412819
212	0x3bec005e	0.007202192
213	0x3d31e69d	0.04343282
214	0x3c2bc90c	0.010484945
215	0xbd310f68	-0.043227583
216	0x3acac4a9	0.0015469986
217	0xbd005af7	-0.03133675
218	0xbd2fd0e7	-0.042923834
219	0xbca429e7	-0.020039512
220	0x3d504b34	0.05085297
221	0xbd0a3242	-0.033739336
222	0xbd23b586	-0.039968036
223	0xbd80e7c3	-0.06294205
224	0xbdd89e6c	-0.105770916
225	0xbc42f4aa	-0.011899153
226	0xbd8d625b	-0.069035254
227	0xbe32a4f6	-0.1744574
228	0xbd0b9a7f	-0.034082886
229	0x3b3e971e	0.0029081772
230	0xbd3bb9fe	-0.045831673
231	0xbd988316	-0.07446878
232	0xbdc8831b	-0.097906314
233	0xbd2a7735	-0.04161759
234	0x3bad10cd	0.005281544
235	0xbe0446f3	-0.1291769
236	0x3c9ee7e3	0.019397682
237	0x3cf364f7	0.02971123
238	0xbd0af00c	-0.033920333
239	0x3d03db35	0.032191474
240	0xbd63c9ec	-0.05561249
241	0x3d417560	0.04723108
242	0x3d3b4580	0.045720577
243	0xbcd15043	-0.025550967
244	0xbcb43eff	-0.022002695
245	0xbe02fa48	-0.12790787
246	0xbd73bf05	-0.059508342
247	0xbdb2610c	-0.087099165
248	0xbd87eebf	-0.06637334
249	0x3d9306e3	0.07179048
250	0xbe0d8289	-0.13819326
251	0xbd7bdd70	-0.061490476
252	0x3c1e1e58	0.009650789
253	0x3c969b70	0.018384665
254	0xbd8d06fd	-0.068860985
255	0xbb56c09c	-0.0032768613

bias f4 [256]
0	0xbdb4bd28	-0.08825141
1	0x3f28cfce	0.65942085
2	0xbc80e941	-0.015736224
3	0xbd827d3a	-0.06371541
4	0xbed6a252	-0.41920716
5	0xbdf4c732	-0.11952056
6	0xbdf393f8	-0.11893457
7	0xbe046239	-0.12928094
8	0x3d068f04	0.032851234
9	0xbf34843c	-0.70514274
10	0x3f0556eb	0.5208575
11	0x3ee485fa	0.44633466
12	0xbe6281b6	-0.22119793
13	0xbdaafa6e	-0.08348547
14	0xbd14dd15	-0.036343653
15	0x3ebfdab1	0.37471536
16	0xbdfb2c61	-0.12264324
17	0xbec49f21	-0.38402656
18	0x3ee2d217	0.4430091
19	0x3e0b2dee	0.1359174
20	0xbf489c21	-0.78363234
21	0xbdbdeaa3	-0.09273269
22	0xbe2397bf	-0.15975855
23	0xbe076dc3	-0.13225465
24	0xbdacd705	-0.08439449
25	0xbe97eabd	-0.2967128
26	0xbd2fae93	-0.042891096
27	0x3e729ed8	0.23693407
28	0xbd35f1ca	-0.04442004
29	0xbd232111	-0.039826456
30	0xbdb67453	-0.08908906
31	0xbdd9955d	-0.10624192
32	0xbd9ea5d4	-0.07746473
33	0xbda7e3b1	-0.081977256
34	0xbe074912	-0.13211468
35	0x3e2600da	0.16211262
36	0xbea6768a	-0.32512313
37	0xbe8dcec4	-0.27696812
38	0xbef91fb8	-0.48657012
39	0xbe78c0f0	-0.2429235
40	0xbe9e2ebe	-0.30895036
41	0xbd6c0fc6	-0.05763223
42	0xbde081e3	-0.10962274
43	0xbdcd9977	-0.10039037
44	0xbea65d9f	-0.32493302
45	0xbe59e6a7	-0.21279393
46	0xbfba2ee7	-1.4545563
47	0xbe8ce02b	-0.27514777
48	0xbda64487	-0.08118539
49	0xbdbaac89	-0.0911494
50	0xbdea0fc2	-0.11428787
51	0xbe0a3ffd	-0.13500972
52	0xbdb5206e	-0.08844076
53	0xbe633f85	-0.221922
54	0xbfa464f5	-1.284331
55	0xbdc9b751	-0.09849418
56	0xbf5a17dd	-0.8519266
57	0xbda16967	-0.07881432
58	0xbda6e124	-0.08148411
59	0xbe57003d	-0.20996185
60	0x3e8e4553	0.27787265
61	0xbe1aa6fb	-0.1510276
62	0x3e498ceb	0.19682662
63	0xbe9d3281	-0.30702594
64	0xbdb7eba4	-0.08980492
65	0xbd8127cb	-0.06306418
66	0x3d52dfdb	0.051483016
67	0xbd7722c7	-0.0603359
68	0x3eadddb0	0.33958197
69	0xbdb039ce	-0.08604775
70	0xbe358422	-0.17726186
71	0xbdd8ab97	-0.10579603
72	0xbe9327f0	-0.28741407
73	0xbde6e0b9	-0.11273331
74	0x3e63c6ab	0.22243755
75	0x3d063041	0.032760862
76	0xbe29d415	-0.16584809
77	0xbbf55c33	-0.0074877976
78	0xbbca9bed	-0.0061831386
79	0xbea19a4f	-0.3156304
80	0xbd94917c	-0.072543114
81	0xbe819dc5	-0.2531568
82	0xbdf5ef3b	-0.1200852
83	0xbedd5531	-0.43229058
84	0x3eea4c42	0.45761305
85	0xbe349df4	-0.1763838
86	0x3e835a10	0.2565465
87	0xbf0dfecc	-0.55466914
88	0xbef3a9fe	-0.4759063
89	0xbec242c3	-0.3794156
90	0xbf533b4b	-0.8251235
91	0x3f880a52	1.062815
92	0xbdc8e7cc	-0.09809837
93	0xbebd6ca3	-0.36996946
94	0xbde83edf	-0.11340117
95	0xbe3e7e32	-0.18602827
96	0xbddb98ea	-0.107225254
97	0xbdc874de	-0.09787916
98	0x3dfd5a4f	0.123707406
99	0x3e35b3bc	0.17744344
100	0xbeb55ef5	-0.3542401
101	0xbf2ec6ed	-0.68272287
102	0xbd9804fa	-0.07422824
103	0x3ef14ea3	0.47130308
104	0xbddc6032	-0.10760535
105	0xbd39423f	-0.045229193
106	0xbdafc86c	-0.08583149
107	0xbdef0d48	-0.11672455
108	0xbf045bdb	-0.5170266
109	0xbddabd82	-0.10680677
110	0xbf46c85f	-0.7764949
111	0xbea5f053	-0.32409915
112	0x3f21cbbc	0.632015
113	0xbe966414	-0.2937323
114	0xbe2c200e	-0.16809103
115	0xbf5ed667	-0.870459
116	0xbec3ffb8	-0.38281035
117	0xbe9097c6	-0.28240794
118	0xbd5a115a	-0.053239204
119	0xbddc1e77	-0.10747998
120	0xbed75286	-0.42055148
121	0xbde957da	-0.113937095
122	0x3e47eb28	0.19523299
123	0xbde82aba	-0.113362744
124	0xbee038d4	-0.43793356
125	0xbda30e09	-0.07961661
126	0xbf570f96	-0.8400816
127	0xbe687e6f	-0.2270448
128	0xbe96820a	-0.29396087
129	0xbdb01948	-0.08598572
130	0x3c5d088b	0.013490806
131	0xbf16a955	-0.5885213
132	0xbd549377	-0.051898446
133	0xbe1e9627	-0.15486966
134	0xbdd54960	-0.10414386
135	0xbe1b51a6	-0.15167865
136	0xbe4a31f5	-0.1974562
137	0x3c4d7ef1	0.012542472
138	0xbda711b2	-0.08157672
139	0xbe9b7c45	-0.30368248
140	0xbdb9ae4d	-0.09066448
141	0xbddb9cb0	-0.10723245
142	0xbc10fe81	-0.008849741
143	0x3e43cc79	0.19120969
144	0xbf118b45	-0.56853133
145	0xbe18a216	-0.14905581
146	0xbd96fb3a	-0.073721364
147	0x3f219202	0.63113415
148	0xbe984d0c	-0.29746282
149	0x3ed6ab58	0.419276
150	0x3c74cd63	0.014941546
151	0xbf007075	-0.50171596
152	0xbdfc4632	-0.12318076
153	0xbdcbaf5a	-0.09945555
154	0xbdb53a96	-0.08849065
155	0x3e43a5ef	0.19106267
156	0xbe6e744d	-0.23286553
157	0xbe14b9fd	-0.14524074
158	0xbdd12055	-0.10211245
159	0xbe1b011b	-0.1513714
160	0x3ed39646	0.41325587
161	0xbdcf2e44	-0.10116246
162	0xbefa1a2a	-0.48848087
163	0xbdcb9046	-0.09939627
164	0x3e1fda6d	0.15610667
165	0xbd2316a1	-0.039816502
166	0xbda6c7d3	-0.08143582
167	0xbdcc281e	-0.09968589
168	0xbecc5e78	-0.39915824
169	0xbd8c4a40	-0.068500996
170	0xbd718c9e	-0.058971994
171	0xbf015035	-0.5051301
172	0xbdc3555e	-0.09537767
173	0xbe89ee1d	-0.2693948
174	0xbee4b5de	-0.44670004
175	0xbe090952	-0.13382462
176	0xbe1991a6	-0.14996967
177	0xbe216f46	-0.15765104
178	0xbe5e9fd3	-0.21740656
179	0xbd629f0c	-0.05532746
180	0xbe311b32	-0.1729553
181	0xbeb3c12b	-0.35108313
182	0xbe00bc10	-0.1257174
183	0xbf85b8ed	-1.044706
184	0xbe77f8f7	-0.24216066
185	0xbed146db	-0.4087437
186	0xbe7e17ad	-0.24813719
187	0xbda8edb7	-0.082484655
188	0xbe8e2d84	-0.277691
189	0xbdfac1ef	-0.12244021
190	0xbd6204f1	-0.055180494
191	0xbe0619e1	-0.1309581
192	0xbe06e1a2	-0.1317201
193	0xbdc6fb72	-0.09715928
194	0xbdcbb64d	-0.099468805
195	0xbd957aac	-0.072987884
196	0xbd808552	-0.06275429
197	0xbf567509	-0.8377233
198	0xbddec419	-0.108772464
199	0xbcea344c	-0.02858939
200	0xbf036355	-0.51323444
201	0xbd94c6fd	-0.072645165
202	0x3e1579e5	0.1459728
203	0xbe2a9c79	-0.16661252
204	0xbeca1fac	-0.3947729
205	0xbdc2eab5	-0.09517423
206	0xbe9f2221	-0.31080726
207	0xbca7cbad	-0.020482862
208	0x3d618247	0.055055883
209	0xbdbe0fc9	-0.092803545
210	0xbdf59a23	-0.1199229
211	0xbdba30ca	-0.09091337
212	0xbe53be4e	-0.20678064
213	0xbdbf593f	-0.09343194
214	0x3f44f19b	0.7693116
215	0xbe073197	-0.13202511
216	0xbf05385c	-0.5203912
217	0xbef2ba57	-0.4740779
218	0xbe26df76	-0.16296181
219	0xbe03fe7c	-0.12890047
220	0xbe0e3d65	-0.13890608
221	0xbd4afda4	-0.049558297
222	0xbdc23ee9	-0.094846554
223	0xbf0e3f71	-0.55565554
224	0x3f890029	1.0703174
225	0xbdca84c9	-0.09888608
226	0xbe292db0	-0.16521335
227	0xbddc539e	-0.10758136
228	0xbd5bc8e2	-0.053658374
229	0xbf044bce	-0.5167817
230	0xbdf0afd3	-0.11752286
231	0xbe551f00	-0.20812607
232	0xbee2b8e1	-0.44281676
233	0xbf088319	-0.5332504
234	0xbe360215	-0.17774232
235	0x3f519540	0.8186836
236	0xbe2442ac	-0.16041058
237	0xbe0ff792	-0.14059284
238	0xbfeedea4	-1.8661695
239	0xbdbdc76c	-0.09266552
240	0x3e192f9c	0.14959568
241	0x3ec18a20	0.37800694
242	0xbebeb972	-0.3725086
243	0xbf3ff82a	-0.74988043
244	0xbe0331fc	-0.12812036
245	0xbeb4962e	-0.35270828
246	0xbdac6c64	-0.08419111
247	0xbef27864	-0.47357476
248	0xbee05216	-0.43812627
249	0xbdd8d3c2	-0.105872646
250	0xbd913501	-0.07090188
251	0xbec04102	-0.37549597
252	0xbf27ee28	-0.6559777
253	0xbe18142f	-0.1485145
254	0xbde811a4	-0.1133149
255	0xbdc325f3	-0.095287226

weight f4 [3, 256]
0	0x3b06fba6	0.0020596772
1	0x3c0aff9c	0.008483794
2	0x3d92c6ff	0.07166862
3	0xbc9edd33	-0.019392585
4	0x3d70e999	0.058816526
5	0x3cae2d5a	0.02126186
6	0xbd1621a1	-0.036653165
7	0xbd80eff2	-0.06295766
8	0xbfd18adf	-1.6370505
9	0xbf186cc2	-0.5954095
10	0x3e91166a	0.28337413
11	0x3e65b13d	0.22430892
12	0xbe08cb73	-0.1335886
13	0x3bd01358	0.006349962
14	0xbf404b42	-0.75114834
15	0xbdff01d1	-0.12451518
16	0x3e41ced3	0.18926553
17	0xbd3b4b33	-0.045726012
18	0x3d5e8956	0.054330193
19	0x3e113eb8	0.14184082
20	0xbe84689d	-0.25861064
21	0xbcbf48e6	-0.02335019
22	0xbde277ff	-0.11058044
23	0x3be7f837	0.00707915
24	0xbe0b65fa	-0.1361312
25	0xbe48eb88	-0.19621098
26	0xbccc92c0	-0.02497232
27	0xbb641dab	-0.0034807723
28	0xbc1bee53	-0.00951727
29	0x3d351337	0.044207778
30	0xbcf1a8d6	-0.029499453
31	0x3d1f259f	0.038854238
32	0xbb29a200	-0.0025883913
33	0xbb8c9a3d	-0.0042908476
34	0x3d172019	0.036895845
35	0x3d197139	0.037461493
36	0x3d9de878	0.077103555
37	0xbd8cb24b	-0.06869944
38	0xbe914e7c	-0.2838019
39	0x3f0cd112	0.55006516
40	0xbe3ab52d	-0.18233176
41	0xbcda3b2f	-0.026639549
42	0xbc2b2186	-0.010445004
43	0x3e29f8cd	0.16598816
44	0x3d808155	0.06274668
45	0x3e96b39e	0.29433912
46	0xbe3f5232	-0.18683699
47	0x3dd843b2	0.10559787
48	0x3d0a1302	0.033709534
49	0xbe116391	-0.14198138
50	0xbd9249d2	-0.07142986
51	0x3e17de53	0.14830904
52	0xbdfb6114	-0.122743756
53	0xbdb2033a	-0.08692022
54	0xbe4d635d	-0.20057435
55	0xbd393c3b	-0.045223456
56	0xbe4b54df	-0.19856595
57	0x3b54f963	0.003249728
58	0xbd52041a	-0.051273443
59	0xbe9756ed	-0.29558507
60	0x3d26c02b	0.04071061
61	0xbd4db22c	-0.050218746
62	0xbe06c7f3	-0.13162212
63	0x3e2ecb96	0.1706985
64	0xbd8aafec	-0.06771836
65	0xbd160f5a	-0.036635734
66	0x3cea1b22	0.028577391
67	0xbcc81d6f	-0.024428098
68	0x3d891f9a	0.06695481
69	0x3d41206b	0.047150057
70	0xbe4728c5	-0.19449146
71	0xbd980957	-0.074236564
72	0xbe323fc3	-0.17407136
73	0x3cf3c25b	0.029755762
74	0x3c951b0d	0.018201375
75	0xbe31d732	-0.17367247
76	0xbc9f4879	-0.019443737
77	0xbc9ab096	-0.01888303
78	0x3d99f58b	0.07517537
79	0xbd3b877a	-0.045783497
80	0x3cbd1f40	0.02308619
81	0xbdab1c3d	-0.083549954
82	0x3d834d88	0.06411272
83	0xbd1ba9dd	-0.03800379
84	0x3e36186b	0.17782752
85	0x3da249fb	0.07924267
86	0xbd3ca485	-0.046055336
87	0x3d70c248	0.05877903
88	0xbe449fa7	-0.19201528
89	0xbe00fa40	-0.12595463
90	0xbc4bf956	-0.012449583
91	0xbb256e4b	-0.0025242742
92	0xbadb0790	-0.0016710628
93	0x3e3103fb	0.17286675
94	0xbcacdeee	-0.021102395
95	0xbb7632d2	-0.0037566912
96	0xbd4e25c3	-0.05032898
97	0xbea1dd14	-0.31613982
98	0x3d910cbc	0.07082507
99	0x3d59bb0f	0.05315691
100	0xbd0d27a2	-0.034461625
101	0xbea3206a	-0.31860667
102	0xbc3a3306	-0.011364704
103	0x3b0b29ae	0.002123456
104	0x3cf3c4c4	0.029756911
105	0xbebd101e	-0.3692636
106	0x3c28e636	0.010308793
107	0x3ce46be5	0.02788348
108	0xbc6cb286	-0.01444686
109	0x3d3db05f	0.04631078
110	0x3cdcfa0d	0.026974702
111	0x3ed68a30	0.41902304
112	0xbcc335b3	-0.023829317
113	0xbd236400	-0.03989029
114	0xbaf1d2e8	-0.0018449696
115	0xbfaf67d0	-1.3703556
116	0xbe0d3a16	-0.1379169
117	0x3ef99130	0.48743582
118	0xbcfc9565	-0.030832956
119	0x3bede599	0.007260036
120	0x3cc432f4	0.023950078
121	0xbde4fcde	-0.11181043
122	0xbe97a5f7	-0.2961881
123	0xbca49180	-0.020088911
124	0x3d25985a	0.040428497
125	0x3e15bcb1	0.14622761
126	0xbe487161	-0.195745
127	0x3dbbc5e9	0.09168608
128	0xbf119bab	-0.56878155
129	0x3d52949a	0.05141125
130	0xbdb69eaf	-0.08916985
131	0xbd4c2471	-0.04983944
132	0x3c51b341	0.012799085
133	0xbd9ffec0	-0.078122616
134	0xbb8fdb78	-0.0043901764
135	0xbd2fbc73	-0.04290433
136	0xbe909692	-0.28239876
137	0x3e945d69	0.28977516
138	0xbd004860	-0.031319022
139	0x3d8c66e7	0.068555646
140	0xbcbf4eb7	-0.023352964
141	0x3c8a34dc	0.016870908
142	0x3c659cf8	0.014014475
143	0x3e0473d4	0.1293481
144	0x3ed257d6	0.41082639
145	0x3bcf44a3	0.006325321
146	0xbd9848d2	-0.07435764
147	0xbcea8dc9	-0.028632062
148	0xbe4aad81	-0.19792749
149	0xbe54c584	-0.20778471
150	0x3f0584a6	0.5215553
151	0x3e567584	0.20943266
152	0x3cb50af0	0.022099942
153	0xbd4a3a17	-0.049371805
154	0xbb950693	-0.004547903
155	0xbe5b8ad8	-0.21439683
156	0x3d251229	0.040300522
157	0x3ca118a8	0.019665077
158	0xbc567ec2	-0.013091745
159	0x3d47e421	0.048801545
160	0x3d20c78c	0.039252803
161	0x3c1c61fc	0.009544846
162	0xbf8cf32b	-1.1011709
163	0x3d5d6aea	0.05405704
164	0x3d8cd29b	0.06876107
165	0xbd60a277	-0.05484244
166	0x3c217adf	0.009855955
167	0x3c2533a5	0.010083114
168	0x3e009f8a	0.1256086
169	0xbcb5d10b	-0.022194406
170	0xbd0965ad	-0.03354423
171	0x3d8bae3d	0.06820343
172	0xbd85793a	-0.06517263
173	0xbdeaeb41	-0.11470652
174	0x3e387b6b	0.1801583
175	0x3c42fc15	0.011900921
176	0xbc989d55	-0.01862971
177	0xbe75431c	-0.23951381
178	0xbec920a7	-0.39282724
179	0xbd1b908a	-0.03797964
180	0xbd87fc12	-0.066398755
181	0xbd7a13a0	-0.061053872
182	0x3cac6cd8	0.021047994
183	0xbf25a150	-0.6469927
184	0x3ef1388c	0.47113454
185	0x3e134028	0.14379942
186	0x3ea66f5c	0.32506835
187	0x3b8a246e	0.0042157685
188	0x3dc6b6ec	0.09702858
189	0xbba9bd64	-0.005180048
190	0x3c7d2bb4	0.015452314
191	0xbd13b3e5	-0.036060233
192	0x3c59ece2	0.013301106
193	0x3d67c0a0	0.056580186
194	0xbce61950	-0.028088242
195	0xbc8fb79d	-0.017543608
196	0xbcdcd386	-0.026956331
197	0xbd69ad96	-0.05705031
198	0xbd48a60a	-0.048986472
199	0x3d4f1691	0.05055863
200	0x3e9869cc	0.29768217
201	0xbcd1fd60	-0.025633514
202	0xbe0b0d6f	-0.13579343
203	0xbc903ff1	-0.017608615
204	0xbe530023	-0.20605521
205	0x3d0fd8e6	0.03511896
206	0xbd1ee402	-0.038791664
207	0xbcbd80b2	-0.023132656
208	0x3e1d66c1	0.15371229
209	0x3ccd1ed4	0.025039114
210	0xbe6a5e76	-0.22887596
211	0xbde86a2a	-0.11348374
212	0x3e893a09	0.2680209
213	0x3bc50e78	0.0060136877
214	0x3cdf12a0	0.02723056
215	0xbd1cbf3a	-0.038268305
216	0x3cc8242d	0.024431312
217	0x3edf5941	0.43622783
218	0x3dad8622	0.084728494
219	0x3cd422b6	0.025895458
220	0x3bc6ef9d	0.0060710446
221	0xbd46ebca	-0.04856471
222	0xbcad2e8b	-0.021140357
223	0xbdaaec1d	-0.08345816
224	0xbc436022	-0.011924775
225	0x3b0c6487	0.0021422224
226	0x3cc67082	0.02422357
227	0x3e358ab3	0.17728691
228	0xbd2ac536	-0.04169198
229	0xbe44cd81	-0.19219019
230	0xbc8cee94	-0.017203607
231	0x3da4f015	0.080536045
232	0xbf01a401	-0.50640875
233	0x3d0b2ea0	0.033980012
234	0xbceb95a0	-0.02875787
235	0x3df69658	0.120403945
236	0x3ed91f8f	0.4240689
237	0xbda9afa4	-0.08285454
238	0x3e99a828	0.30011106
239	0x3d156c56	0.03648027
240	0xbd556de9	-0.05210677
241	0xbc5df5f3	-0.013547408
242	0x3d864d0e	0.06557666
243	0xbf2c4315	-0.6728986
244	0xbcba6b39	-0.022756206
245	0xbc7d3fed	-0.015457136
246	0xbc8862b2	-0.016648624
247	0xbe8543a7	-0.26028177
248	0xbf144900	-0.5792389
249	0xbd72dbe3	-0.05929173
250	0x3d4faa8e	0.050699763
251	0x3e9d489a	0.30719453
252	0x3ef2a997	0.47395012
253	0x3d860e31	0.065456755
254	0xbcdcd86a	-0.026958663
255	0x3d8c5b35	0.06853334

bias f4 [3]
0	0x3f02801d	0.50976735
1	0x3e5c133b	0.21491711
2	0x3be858ae	0.0070906496

weight f4 [3, 256]
0	0x3c022bc2	0.007945003
1	0xbd6e52ad	-0.058184315
2	0xbd0d0eb0	-0.034437835
3	0xbba328eb	-0.004979243
4	0x3e3de602	0.18544772
5	0x3dadd01b	0.084869586
6	0xbbb04498	-0.0053792708
7	0xbcf71482	-0.030161146
8	0xbee0140b	-0.43765292
9	0x3ea3f29f	0.32021043
10	0x3b10fee5	0.0022124585
11	0x3da246c1	0.079236515
12	0x3e2487b3	0.1606739
13	0xbcc396bd	-0.023875589
14	0x3ecc27c1	0.3987408
15	0x3dd69dca	0.104793146
16	0x3e5a6684	0.21328169
17	0x3e1febd8	0.15617311
18	0x3dd4bd77	0.103877
19	0x3ecac993	0.39606914
20	0x3e9273e9	0.28604057
21	0xbd4b84b6	-0.04968711
22	0x3eeee4ff	0.46659085
23	0xbbe4c277	-0.00698119
24	0xbb7998bd	-0.0038085424
25	0x3de0d64c	0.10978374
26	0xbd5abfd2	-0.05340559
27	0x38cf07e2	9.8719975e-05
28	0x3d1e35cc	0.038625523
29	0xbd35d7d1	-0.04439527
30	0x3b851b0b	0.0040620617
31	0x3b884fb5	0.0041598924
32	0x3da76aee	0.08174692
33	0x3a1ed8e3	0.00060595403
34	0x3be2878a	0.00691313
35	0x3dcc743a	0.09983106
36	0x3d2d73cc	0.04234676
37	0x3eab49a6	0.33454627
38	0xbef6e7b9	-0.48223665
39	0x3f0a04e4	0.5391371
40	0x3e83e429	0.2576001
41	0xbd3126a6	-0.04324975
42	0x3d9e959f	0.07743382
43	0x3ea8c481	0.3296242
44	0x3d8217e9	0.06352217
45	0x3eb5597f	0.35419843
46	0xbcb2fd2c	-0.021849237
47	0x3ee94dca	0.4556716
48	0xbd54cdbc	-0.051954016
49	0x3e885bf8	0.26632667
50	0x3cef0c35	0.029180625
51	0x3de5ba37	0.11217158
52	0x3dd8233f	0.10553598
53	0x3e64d42a	0.22346559
54	0xbc883854	-0.016628422
55	0x3d321ed2	0.043486424
56	0x3e2e6d72	0.17033938
57	0x3d8683a2	0.06568076
58	0x3d3c4891	0.045967642
59	0x3de08c42	0.10964252
60	0x3e52970a	0.2056543
61	0xbc220267	-0.009888268
62	0x3f62c316	0.8857893
63	0xbd8cd0af	-0.06875741
64	0x3e2cd9b9	0.1687993
65	0xbd4fcb4f	-0.050731
66	0xbd2a07f4	-0.04151149
67	0x3d78b123	0.060715806
68	0x3f704571	0.9385596
69	0x3db77c6b	0.08959278
70	0x3e87391c	0.26410758
71	0x3d8d8f6d	0.06912122
72	0xbda68fca	-0.08132894
73	0xbd67b3da	-0.056568004
74	0x3ddd5a58	0.10808247
75	0xbdad56b6	-0.084638044
76	0x3da25fb7	0.079284124
77	0x3cc5849b	0.024111083
78	0xbd20c0d0	-0.03924638
79	0x3e670205	0.22559364
80	0x3d53a5c3	0.051671755
81	0x3eae8702	0.34087378
82	0xbbb17405	-0.005415442
83	0xbdc480e7	-0.09594899
84	0x3dcf26e8	0.10114843
85	0x3e43dd8b	0.1912748
86	0xbbe5e6f9	-0.0070160595
87	0x3d1eae95	0.038740713
88	0x3ee37154	0.444224
89	0x3de5702a	0.11203034
90	0x3e86d068	0.26330876
91	0xbe25eac9	-0.16202845
92	0x3cdcf28d	0.026971126
93	0x3e6939d1	0.22775961
94	0x3c04b545	0.008099859
95	0x3dfd758c	0.12375936
96	0x3cdd39c8	0.027005091
97	0xbd254fa8	-0.04035917
98	0x3eec3b22	0.46138865
99	0xbd77dba8	-0.060512215
100	0xbd31483a	-0.04328177
101	0x3d885aed	0.06657968
102	0x3da5d904	0.08098033
103	0x3db34538	0.08753437
104	0x3cff3eb0	0.031157821
105	0x3c9b0dee	0.01892754
106	0x3d420740	0.047370195
107	0x3d551396	0.05202063
108	0x3e6c9009	0.2310182
109	0xbcc441a8	-0.023957089
110	0x3e94a549	0.29032353
111	0x3eadc532	0.3393951
112	0xbe8eedae	-0.2791571
113	0x3e418795	0.18899377
114	0x3c32bcf5	0.010909309
115	0x3e09e462	0.13466027
116	0x3e355b99	0.17710723
117	0x3e3ca813	0.1842349
118	0xbd462242	-0.048372515
119	0x3bb5cb3f	0.0055479105
120	0xbdc23814	-0.09483352
121	0x3e51464a	0.2043697
122	0xbd83d699	-0.06437416
123	0x3da43a2a	0.080189064
124	0x3f0325b8	0.5122943
125	0x3e6519d7	0.22373138
126	0x3d91ce3e	0.07119416
127	0x3e876fa0	0.2645235
128	0x3eaf6111	0.34253743
129	0xbd07d6f7	-0.03316399
130	0xbe8c5c6d	-0.27414265
131	0x3e4bddba	0.199088
132	0x3d49dfdf	0.049285766
133	0x3dd84804	0.10560611
134	0xbc0aa34c	-0.008461785
135	0x3e026304	0.12733084
136	0xbd1ce5bf	-0.03830504
137	0x3e2fb3e9	0.17158474
138	0xbd8371d8	-0.06418198
139	0x3d442b86	0.04789307
140	0xbd42211b	-0.047394853
141	0xbd2161c8	-0.039399892
142	0x3d004b2f	0.0313217
143	0xbd11b2dd	-0.035570968
144	0xbe060635	-0.13088305
145	0x3d8bb3ea	0.06821425
146	0xbd59b7f7	-0.05315396
147	0xbddf9291	-0.10916627
148	0x3d5f676d	0.054541994
149	0xbe912a42	-0.28352553
150	0x3ef04e7d	0.46934882
151	0x3eaf227e	0.34206003
152	0x3ccb5fef	0.024826018
153	0x3d8d05a2	0.0688584
154	0xbbdad2f6	-0.0066779805
155	0x3e437c8e	0.19090483
156	0xbc2e17e2	-0.010625811
157	0x3cc92e80	0.024558306
158	0x3d504e51	0.05085594
159	0x3d305410	0.04304892
160	0x3b34be1d	0.0027579137
161	0x3d9eed22	0.07760073
162	0x3e977e7e	0.29588693
163	0xbbbe36b4	-0.005804861
164	0xbc9ebb54	-0.019376434
165	0x3e9c865d	0.3057126
166	0x3c3ce9e5	0.011530374
167	0x3d5986b7	0.05310699
168	0x3c6291ce	0.013828708
169	0x3df8ac7e	0.12142275
170	0x3d0cb257	0.034349766
171	0x3e4f6f64	0.20257336
172	0x3cfc9ff4	0.03083799
173	0x3ebc0672	0.36723667
174	0x3e8333ac	0.2562536
175	0xbd1fff3c	-0.03906177
176	0x3dd03a53	0.101673745
177	0x3dfca046	0.12335257
178	0x3e123020	0.1427617
179	0xbd1732ea	-0.03691379
180	0x3d227443	0.039661657
181	0xbd8e4f9f	-0.0694878
182	0xbc19e465	-0.009392832
183	0x3ec57c30	0.3857131
184	0x3ed9bd48	0.42527223
185	0x3e02c62e	0.12770912
186	0x3d8e25f1	0.069408305
187	0xbd75bfd9	-0.059997413
188	0x3e9ad07b	0.30237183
189	0x3d108488	0.03528264
190	0xbdbc86fd	-0.092054345
191	0x3da9c31f	0.082891695
192	0x3d13a1ca	0.036042966
193	0x3d61bfea	0.055114664
194	0xbcf3cb3e	-0.02976
195	0xbd1df923	-0.038567673
196	0xbc30d107	-0.0107920235
197	0x3e7f00d7	0.24902664
198	0xba8c685c	-0.0010712254
199	0x3da98cd3	0.08278813
200	0x3e490cb9	0.1963376
201	0x3d182b27	0.03715053
202	0xbccfc659	-0.025363134
203	0x3c4179c1	0.011808814
204	0x3eb70653	0.35747012
205	0x3d991d6b	0.07476314
206	0x3e90bdba	0.2826975
207	0x3d439dd6	0.047757946
208	0x3eac6205	0.33668533
209	0x3d10f4fa	0.035389878
210	0x3e2e1fa9	0.17004265
211	0x3e69a76d	0.22817774
212	0x3dfd1131	0.123567946
213	0xbb09286c	-0.0020928634
214	0xbe28a597	-0.16469418
215	0x3c870442	0.016481522
216	0xbe6ec218	-0.23316228
217	0x3e932db6	0.28745812
218	0x3c7f9b9b	0.015601064
219	0x3d11ec0d	0.035625506
220	0x3daf8d5a	0.085718825
221	0xbe161484	-0.14656264
222	0x3b2cf25b	0.0026389572
223	0x3e728882	0.23684886
224	0x3e8083ab	0.25100455
225	0x3d55cb6e	0.05219596
226	0x3dbd9c7f	0.09258365
227	0x3d06c8c7	0.03290632
228	0x3d43278a	0.04764513
229	0xbd24a4c8	-0.04019621
230	0xbbccfb34	-0.0062555317
231	0x3e92b65c	0.28654754
232	0x3d830a65	0.06398467
233	0x3da97f23	0.082762025
234	0xbe46dace	-0.19419405
235	0xbdc2fd8f	-0.09521019
236	0x3d6e2d71	0.058148805
237	0x3da56a61	0.08076931
238	0x3dfc2215	0.12311188
239	0x3ba185a5	0.0049292617
240	0xbde4586a	-0.11149676
241	0xbe022212	-0.1270831
242	0x3817a56a	3.615526e-05
243	0x3e0aaa94	0.13541633
244	0xbd2125a8	-0.039342552
245	0x3e3a4430	0.18190074
246	0xbc5f3067	-0.01362238
247	0xbe4a4de9	-0.19756283
248	0x3da7f1bc	0.08200404
249	0x3c14c8ba	0.00908106
250	0x3d962a5c	0.07332298
251	0x3d8326eb	0.064039074
252	0x3d222e91	0.03959519
253	0x3d2db186	0.042405628
254	0x3b8431d1	0.004034259
255	0x3c5938f9	0.013258212

bias f4 [3]
0	0xbf95e92a	-1.1711781
1	0xbf1fb307	-0.6238255
2	0xbeb00edc	-0.34386337

weight f4 [256, 18]
0	0x3ea63eae	0.32469696
1	0x3e12a137	0.14319311
2	0xbed825a3	-0.42216215
3	0xbf342c3d	-0.7038
4	0xbe4f7aa1	-0.20261623
5	0x3f3087bc	0.68957114
6	0xbd92775a	-0.07151671
7	0xbd2f1f1d	-0.04275428
8	0xbf15eab8	-0.5856128
9	0x3e92a903	0.2864457
10	0x3d9def71	0.077116854
11	0x3eda972a	0.42693454
12	0x3e9b4ffe	0.30334467
13	0x3ddd51cf	0.108066194
14	0xbbe19d9a	-0.0068852426
15	0x3dd6b772	0.10484208
16	0xbe148fb9	-0.14507951
17	0xbe59c281	-0.21265604
18	0xc12cfdfb	-10.812007
19	0xbccb4ce0	-0.02481693
20	0x41aecd82	21.850346
21	0x412a7233	10.652881
22	0x3dd6f74e	0.104963884
23	0xc0d6ef69	-6.716725
24	0xbdef9da5	-0.1169999
25	0xc1aa500b	-21.289083
26	0x416bb9d6	14.73287
27	0xc10433cc	-8.262646
28	0x41b41300	22.509277
29	0xc0907252	-4.513955
30	0x41069e8f	8.413711
31	0xbeea8a25	-0.4580852
32	0x41acec68	21.615433
33	0x402af0cd	2.6709473
34	0x413167f1	11.087876
35	0xc11fe008	-9.992195
36	0xc12601ff	-10.375487
37	0xbd9fc662	-0.078015104
38	0x412d43ee	10.829084
39	0x40e43398	7.131298
40	0x3e3cf5e7	0.1845318
41	0xc013b6f3	-2.3080413
42	0x3d41f544	0.047353044
43	0xc10d526b	-8.832622
44	0x412594bd	10.348813
45	0xc09567cf	-4.668922
46	0x413409d4	11.252399
47	0xc057093c	-3.3599386
48	0x40b4f119	5.654431
49	0xbf3be7f2	-0.73400795
50	0x4120393c	10.013973
51	0x3fa981d5	1.3242747
52	0x40edec26	7.4350767
53	0xc0b7e70d	-5.7469544
54	0xc15e707c	-13.902462
55	0xbcce8ef8	-0.025214657
56	0x41606c9c	14.026516
57	0x413553e4	11.332981
58	0x3e58b691	0.21163394
59	0xc095b914	-4.6788425
60	0x3dbe624a	0.09296091
61	0xc15aafe4	-13.667942
62	0x4154ab2c	13.29179
63	0xc0262f4e	-2.5966372
64	0x414acec3	12.675479
65	0xc0811b83	-4.0346084
66	0x40b46a58	5.6379814
67	0xbda72974	-0.081622034
68	0x416112e9	14.067117
69	0x40306697	2.7562616
70	0x41126e53	9.151935
71	0xc0b7d18c	-5.7443295
72	0xc05a0189	-3.4063437
73	0x3dc6db16	0.09709756
74	0x40964ec2	4.697114
75	0x4013a6b7	2.3070505
76	0x3e243a83	0.16037945
77	0xc0261b97	-2.595434
78	0x3d29827c	0.041384205
79	0xc0a562c3	-5.168306
80	0x40a49f6d	5.144461
81	0xc00ff993	-2.2496078
82	0x409fd20c	4.9943905
83	0xbfc9e88d	-1.5774094
84	0x3f88eaf7	1.0696706
85	0x3ef728c1	0.4827328
86	0x407a3577	3.9095132
87	0x3ee22c89	0.44174603
88	0x3fd9a3c4	1.7003102
89	0xbfb97801	-1.4489747
90	0xbf976a68	-1.1829348
91	0xbd87e67e	-0.0663576
92	0x3f8f7b70	1.1209545
93	0x3fb11f3a	1.3837655
94	0xbe369ab8	-0.17832458
95	0x3fa8d7fe	1.3190916
96	0x3db0f92a	0.08641274
97	0x4055e951	3.3423655
98	0xc0274252	-2.6134229
99	0x3e626f8d	0.22112866
100	0xc00b7fe7	-2.1796815
101	0x3decb599	0.115580745
102	0x3e84678b	0.25860247
103	0x3e4e3688	0.2013799
104	0xbf52c574	-0.8233254
105	0x3cf3827f	0.029725311
106	0x3e9f12c0	0.31068993
107	0xbd370a4f	-0.044687565
108	0xbe9a958d	-0.30192223
109	0xbe6605e9	-0.22463192
110	0x411b1722	9.693148
111	0x406af0d6	3.6709495
112	0x3d8740e6	0.06604175
113	0xbff30c5a	-1.8988144
114	0x3e59b49f	0.21260308
115	0xc1002bfe	-8.01074
116	0x40c4528d	6.135077
117	0xbffc7386	-1.9722755
118	0x4127fc54	10.499104
119	0xc032cef6	-2.793882
120	0x40abf40e	5.373542
121	0x3f191c59	0.5980888
122	0x4109e4da	8.618372
123	0x3f6baa5d	0.9205683
124	0x403ed908	2.9819965
125	0xc0359bee	-2.8376422
126	0xc0358410	-2.8361855
127	0xbd01f06c	-0.031723425
128	0x3f5e09bf	0.8673362
129	0x3db5bd15	0.08873955
130	0x3ce41348	0.027841225
131	0x3f594fc5	0.84887344
132	0xbe4b524f	-0.19855617
133	0x3fbc2b2d	1.4700676
134	0x3ee5a2f5	0.4485089
135	0x3dc0ee9a	0.0942051
136	0xc002d60d	-2.0443146
137	0xbcdd4889	-0.027012127
138	0x3e0c5a1c	0.13706249
139	0xbe9573c2	-0.2918988
140	0xbfb07ece	-1.3788698
141	0xbebc691e	-0.36798948
142	0x3e85a98d	0.2610592
143	0xbec0efdf	-0.37683007
144	0xbf57ad6c	-0.84248996
145	0xbd04add8	-0.032392353
146	0x3f83b2ab	1.02889
147	0x3fa08055	1.2539164
148	0xbe1def9c	-0.15423435
149	0xbec453bc	-0.38345134
150	0x3e27dfc5	0.16393955
151	0x3fa401d5	1.2813059
152	0xbe6b5d28	-0.22984755
153	0xbf4ace87	-0.79221386
154	0xc0157a62	-2.3355947
155	0xbf4ec3ec	-0.80767703
156	0x3eafa2a8	0.34303784
157	0x3f107a16	0.5643629
158	0xbf16a06b	-0.5883853
159	0xbf181f2e	-0.59422576
160	0x3de18567	0.110117726
161	0x3ed2a004	0.41137707
162	0xc129368b	-10.575816
163	0xbe533117	-0.20624195
164	0x413d9651	11.849198
165	0x41057d56	8.3431
166	0x3e40bf49	0.1882297
167	0xc06a7512	-3.6633954
168	0xbcf15ef0	-0.029464215
169	0xc12f1fec	-10.945293
170	0x4131f98e	11.123426
171	0xc09d4f25	-4.915911
172	0x41305a99	11.022119
173	0xc048cf86	-3.1376662
174	0x40af2a7c	5.473936
175	0xbf4bf8cf	-0.79676527
176	0x413399aa	11.225016
177	0x3fe90157	1.8203534
178	0x40ed9156	7.423991
179	0xc0bb27bb	-5.8486
180	0xc01ea5f3	-2.4788787
181	0xbc727f00	-0.014800787
182	0xbf130a0d	-0.5743721
183	0x3f9e0a15	1.2346827
184	0x3dd49aaa	0.10381062
185	0xbf0e39b6	-0.5555681
186	0xbd81aaca	-0.063314036
187	0xbfbf24fb	-1.493316
188	0x3fbf8a3a	1.4964058
189	0xbf9646d9	-1.1740371
190	0xbfef416d	-1.8691841
191	0xbf28a968	-0.65883493
192	0x3eb5cd52	0.3550821
193	0x3eb5c708	0.3550341
194	0xbf30d41a	-0.6907364
195	0x3ef3c650	0.47612238
196	0x3ec286ee	0.37993568
197	0x3da04102	0.07824899
198	0xbff6e035	-1.9287173
199	0xbda57d42	-0.08080532
200	0x40f939b7	7.7882953
201	0x4020f85f	2.5151594
202	0x3e300197	0.17188106
203	0xbf3e9e8a	-0.7446066
204	0x3e044f11	0.12920786
205	0xc0e2fdf0	-7.093498
206	0x40aa0bfb	5.3139625
207	0xc04b4b02	-3.176453
208	0x41016f86	8.089727
209	0xbe2b133c	-0.16706556
210	0x3fae2e61	1.3607904
211	0xbed5b846	-0.41742152
212	0x40d8c867	6.774463
213	0x3f1e4e2d	0.61838037
214	0x4070cc6b	3.7624767
215	0xc0446523	-3.068673
216	0x3f19a170	0.6001196
217	0x3d83ff62	0.06445195
218	0xbf487675	-0.7830575
219	0xbd4e1504	-0.05031301
220	0xbe6a7573	-0.22896366
221	0x3f1624c8	0.58649874
222	0x3e2d6203	0.1693192
223	0x3e92f404	0.28701794
224	0xbf07988a	-0.5296713
225	0xbe8acf68	-0.27111363
226	0xbe8bcc72	-0.27304417
227	0x3ec3235b	0.38112912
228	0x3e55c103	0.2087441
229	0x3e8eeb0e	0.27913707
230	0x3d3790b3	0.04481573
231	0xbe808e8d	-0.25108758
232	0xbe378b6f	-0.17924283
233	0x3f05b681	0.52231604
234	0xbf5000b2	-0.8125106
235	0x3e117c9b	0.1420769
236	0xbf6dcd85	-0.9289172
237	0xbde31450	-0.11087859
238	0xbd0a6b28	-0.0337936
239	0xbeae3a79	-0.34028986
240	0xbc087660	-0.008329004
241	0x3d69f64a	0.057119645
242	0x3e39eed6	0.18157515
243	0x3e5e3a81	0.21702005
244	0xbf14513b	-0.5793645
245	0x3dc1394d	0.094347574
246	0xbdc1d6a9	-0.09464771
247	0x3e2006fc	0.15627664
248	0xbe4e0ad3	-0.20121317
249	0x3d1f0fef	0.038833555
250	0xbc77d4a4	-0.015126381
251	0x3c5f07b0	0.013612673
252	0xbf6e09c5	-0.9298366
253	0xbdbd4fc2	-0.09243728
254	0xbf0da17b	-0.55324525
255	0x3d9bc2bb	0.07605501
