data/HopperPyBulletEnv-v0_sac_grad_False/HopperPyBulletEnv-v0_sac_grad_False_s8/pyt_save/model.pt (torch_old, 859910 bytes, 18 tensors)

weight f4 [256, 15]
0	0xbff625cd	-1.9230286
1	0x3e3696f0	0.17831016
2	0x3e9caa42	0.30598646
3	0x40217e8c	2.5233488
4	0x3be98bc0	0.007127255
5	0xbc054a19	-0.008135342
6	0x3e530470	0.20607162
7	0xbfa2ca77	-1.2718037
8	0xbf6b685d	-0.9195612
9	0xbf4116f7	-0.75425667
10	0xbab9dcac	-0.0014180145
11	0xbf706d2a	-0.9391657
12	0xb8e36262	-0.00010842529
13	0xbf4a2357	-0.78960174
14	0xbdd45110	-0.10367024
15	0x3e964ded	0.29356328
16	0x3e21216c	0.15735406
17	0x3ed250f2	0.4107738
18	0xbba3a52f	-0.0049940567
19	0xbe2f700b	-0.17132585
20	0xbfae0d84	-1.3597875
21	0x3bae9a80	0.0053284764
22	0xbecaf0fa	-0.39636976
23	0x3fb585d5	1.4181467
24	0xbf5845d0	-0.84481525
25	0xbf5ea98b	-0.8697745
26	0x3e336e4d	0.17522545
27	0x3f7c9957	0.9867148
28	0x3f472df0	0.7780447
29	0x3db1e80e	0.08686839
30	0xbe4060b0	-0.18786883
31	0xbdbe8076	-0.09301846
32	0xbeef7b0d	-0.46773568
33	0x3e9d77e1	0.30755523
34	0xbdcc2cee	-0.09969507
35	0x3e269d12	0.16270855
36	0xbce3c730	-0.027804941
37	0x3eaddc8d	0.3395733
38	0xbf4b03bf	-0.7930259
39	0x3d94ff41	0.07275248
40	0x3e448132	0.19189909
41	0x3dcf1c5d	0.10112832
42	0x3e4965c9	0.19667734
43	0x3df0a96e	0.11751066
44	0x3cc8be0c	0.024504684
45	0x4022c0c4	2.5430155
46	0xbc920418	-0.017824218
47	0xbe0a01b3	-0.1347721
48	0xbfb4d6ea	-1.4128087
49	0x3dd1e688	0.102490485
50	0xbf34dee5	-0.7065261
51	0x3e652996	0.22379145
52	0xbedc8102	-0.43067175
53	0xbe225640	-0.15853214
54	0xbf741f42	-0.95360196
55	0xbd619b6e	-0.05507987
56	0x3f81ec1d	1.0150181
57	0x3ea2e482	0.31814963
58	0x3f1d976f	0.61559194
59	0xbe91d016	-0.2847907
60	0xbfe3d6f3	-1.7799972
61	0xbe363916	-0.17795214
62	0xbf056200	-0.5210266
63	0x3faffefe	1.3749692
64	0x3c578960	0.013155311
65	0x3d566e03	0.05235101
66	0x3d8430b0	0.06454599
67	0xbfe64e6c	-1.7992682
68	0xbf31cb78	-0.69451094
69	0x3f185b4f	0.59514326
70	0xbdc3e1ca	-0.0956455
71	0xbf7fcc06	-0.9992069
72	0x3efd4a7f	0.49470899
73	0x3f84f179	1.0386192
74	0x3f3c9989	0.73671776
75	0x3e028e50	0.127496
76	0xbe633798	-0.22189176
77	0xbeedfbfc	-0.4648131
78	0x3d785a70	0.060633123
79	0x3dce5c98	0.100762546
80	0xbdaf522e	-0.085605964
81	0xbe5b4bd6	-0.21415648
82	0x3be29eca	0.006915902
83	0xbf46883f	-0.77551645
84	0xbe35c25b	-0.17749922
85	0xbe0cfb2e	-0.13767692
86	0xbe043f46	-0.12914762
87	0xbe5a0bd8	-0.2129358
88	0x3cc5be5f	0.024138628
89	0xbe91ab8e	-0.28451198
90	0xbe8e98c5	-0.2785093
91	0x3e73db60	0.23814154
92	0xbf26344d	-0.64923555
93	0x3f3fc881	0.7491532
94	0xbb2bd000	-0.0026216507
95	0x3f7de2db	0.9917428
96	0x3e74100e	0.2383425
97	0x3e66f523	0.2255445
98	0xbe818900	-0.25299835
99	0xbe90497d	-0.28181067
100	0xbfc4047d	-1.531387
101	0xbf019ed2	-0.50632966
102	0xbdafcf83	-0.085845016
103	0x3f112adf	0.5670604
104	0xbededd0f	-0.4352803
105	0x3ed31a2c	0.41230905
106	0x3d9ce39c	0.076606005
107	0xbf0c9de0	-0.549284
108	0xbff7e171	-1.9365674
109	0xbe836bdf	-0.25668237
110	0xbf4a2e58	-0.78976965
111	0xbe34f7aa	-0.17672601
112	0xbf5c7ceb	-0.8612811
113	0xbf85842a	-1.0430958
114	0x3e58bb59	0.21165217
115	0xbfe35f36	-1.7763431
116	0x3e8fe3f4	0.28103602
117	0x3f2bc3a8	0.6709542
118	0x3efc3e05	0.49266067
119	0x3f051701	0.51988226
120	0x3f8822bc	1.06356
121	0x3e55353a	0.20821086
122	0x3e2df6e2	0.1698871
123	0x4029064d	2.6410096
124	0x3ddc9b68	0.10771829
125	0xbf8ea24e	-1.1143281
126	0x3ccd2d10	0.025045902
127	0x3ef87201	0.48524478
128	0xbda5bcc7	-0.08092647
129	0xbf90ef1b	-1.1322969
130	0xbe2c5e61	-0.16832878
131	0x3f878cc5	1.0589834
132	0xbfac787f	-1.3474272
133	0x3e94d908	0.29071832
134	0xbfacdb32	-1.3504393
135	0xc020193f	-2.501541
136	0x3d365fc0	0.044524908
137	0xbe92fe89	-0.2870982
138	0xbeff040a	-0.4980777
139	0xbe7febf3	-0.24992351
140	0xbf3fee03	-0.7497255
141	0x3e4d8594	0.20070487
142	0xbed771ee	-0.4207911
143	0xbf05f701	-0.52330023
144	0xbe1f3335	-0.15546878
145	0xbef969f6	-0.48713654
146	0xbcb0801d	-0.021545464
147	0xbf3a0739	-0.7266727
148	0xbe376ccf	-0.17912601
149	0xbfbad2fd	-1.4595639
150	0xbee087fc	-0.43853748
151	0xbd977d36	-0.07396929
152	0x4001a2bc	2.0255575
153	0xbfc77e5f	-1.558544
154	0x3ddd17cc	0.107955545
155	0xbe99fc73	-0.30075416
156	0xbb0ea680	-0.0021766722
157	0xbe072d28	-0.1320082
158	0x3f90c602	1.1310427
159	0xbfb3fa48	-1.4060755
160	0x3fdd1477	1.727187
161	0xbfd6b28d	-1.6773239
162	0xbe19b15e	-0.15009066
163	0xbe0eed93	-0.13957815
164	0x3f43fa59	0.76553875
165	0x3fd93152	1.6968176
166	0x3e21b83a	0.15792933
167	0xbf2b8579	-0.6700054
168	0xbfbabcd5	-1.4588877
169	0x3e38e35a	0.18055478
170	0xbcaa258b	-0.020769855
171	0x3e699822	0.2281194
172	0xbfa01e1b	-1.2509187
173	0x3e89d789	0.26922253
174	0x3f005973	0.5013649
175	0x3eefed26	0.46860617
176	0xbf3b9b9e	-0.7328433
177	0x3ec4b5a3	0.38419828
178	0x3f114309	0.5674291
179	0x3eec7097	0.4617965
180	0xc0310a07	-2.766237
181	0x3e1a9fb4	0.15099984
182	0x3fa85d4b	1.3153471
183	0x3f366cd7	0.71259826
184	0x3e6b128a	0.22956291
185	0xbcef52d7	-0.029214306
186	0xbd10b7fc	-0.03533171
187	0xbf97af00	-1.1850281
188	0xbe319b7f	-0.17344473
189	0xbf0e25e6	-0.5552658
190	0xbd8d8524	-0.0691016
191	0xc038506b	-2.8799083
192	0xbf42d32a	-0.7610346
193	0x3e120cd3	0.14262705
194	0x3ffaa429	1.9581348
195	0xbe4227af	-0.1896045
196	0xbe45449c	-0.19264454
197	0x3e18607f	0.1488056
198	0xbf86549b	-1.049457
199	0x3c826460	0.015917003
200	0xbfada40a	-1.3565686
201	0xbcf124e8	-0.029436544
202	0xbf41a26f	-0.7563848
203	0x3e9da270	0.30787992
204	0x3f1abc46	0.6044353
205	0xbe9e466c	-0.30913103
206	0xbfb975c1	-1.4489061
207	0x3e3af677	0.18258081
208	0xbc4fd39a	-0.012684727
209	0x3f0d6c87	0.55243725
210	0x3f2c0ba7	0.6720528
211	0xbcd31de0	-0.025771081
212	0x3f4714eb	0.77766293
213	0xc040c36d	-3.0119278
214	0xbe36ba42	-0.17844489
215	0xbf41121e	-0.7541827
216	0xbe3605b4	-0.17775613
217	0x3ec88b44	0.3916875
218	0xbef840a6	-0.48486823
219	0x3fbdacc8	1.4818354
220	0xbf7df6d7	-0.9920477
221	0xbe70d54b	-0.23518865
222	0x3fca6266	1.5811279
223	0x3f1228fa	0.57093775
224	0x3db9de32	0.090755835
225	0x3f291691	0.6605006
226	0xbe23b1b8	-0.15985763
227	0xbebd132b	-0.36928686
228	0xbc377146	-0.01119644
229	0xbe3a899c	-0.18216556
230	0x3e722692	0.23647526
231	0xbdc2c9ca	-0.095111445
232	0x3f7dd7bf	0.9915733
233	0x3d6713bf	0.056415316
234	0x3e285f2e	0.16442558
235	0xbf3eefd6	-0.7458471
236	0x3e982fdd	0.29724017
237	0xbe13fccb	-0.14451902
238	0x3ea77aee	0.32710975
239	0xbf21920e	-0.63113487
240	0x3f0530ce	0.52027595
241	0xbc7279a0	-0.0147995055
242	0xbe6c6ebf	-0.23089121
243	0xbe615d59	-0.22008266
244	0xbd6bbe90	-0.05755478
245	0x3eda4844	0.4263326
246	0xbe5dfb1b	-0.2167782
247	0xbd63c847	-0.05561092
248	0xbe5d6d9e	-0.21623847
249	0x3e7fda4d	0.24985619
250	0xbca1ea23	-0.019764965
251	0x3ef9d91e	0.4879846
252	0x3c839789	0.016063469
253	0xbcfef71d	-0.031123692
254	0xbe2c0455	-0.16798528
255	0xbeae590f	-0.3405232

bias f4 [256]
0	0x3d9c84d3	0.07642522
1	0x3f15188a	0.5824057
2	0xbecb712e	-0.39734787
3	0xbe0847fb	-0.13308708
4	0xbef57db7	-0.47947475
5	0xbec73c47	-0.38913175
6	0xbf0a5c3f	-0.54047006
7	0xbf48ffdd	-0.78515416
8	0x3dfd381e	0.12364219
9	0xbed3b320	-0.413476
10	0x3fdab955	1.7087809
11	0xbf61b8c6	-0.88172567
12	0x3f805f42	1.002907
13	0xbdccaaca	-0.09993513
14	0x3f298d39	0.66231114
15	0xbe794101	-0.24341203
16	0xbeae2756	-0.34014386
17	0xbd19f33d	-0.037585486
18	0xbe92f111	-0.28699544
19	0x3d13a5d4	0.036046818
20	0xbf8638cd	-1.0486084
21	0x3f81e82f	1.0148982
22	0x3e42a87d	0.19009586
23	0xbf7a8366	-0.9785675
24	0xbe79ce17	-0.24395023
25	0x3f4bd472	0.7962104
26	0xbeb85628	-0.36003232
27	0xbf498722	-0.7872182
28	0xbec431e1	-0.38319305
29	0xbf2f049d	-0.68366414
30	0x3e8d2c4d	0.2757286
31	0x3f480ffb	0.78149384
32	0xbf043ca5	-0.51655036
33	0xbf0178f2	-0.5057517
34	0x3e0b9783	0.13632016
35	0xbdc7d356	-0.09757106
36	0xbed41023	-0.4141856
37	0x3e8d2f67	0.27575228
38	0xbfcc3065	-1.5952269
39	0xbdeebca0	-0.11657071
40	0xbe497820	-0.1967473
41	0xbf652285	-0.895058
42	0xbec5abe6	-0.3860771
43	0xbf6b1235	-0.91824657
44	0xbe143a69	-0.14475407
45	0x3edfa26f	0.43678614
46	0xbf392d0b	-0.72334355
47	0x3e8db889	0.27679852
48	0x3d73bfcb	0.05950908
49	0xbe18eea7	-0.14934789
50	0xbde4d5c9	-0.11173589
51	0x3deb05fa	0.11475749
52	0xbe1e5a81	-0.15464212
53	0xbc888c16	-0.01666836
54	0xbe13eb72	-0.14445284
55	0xbe988102	-0.29785925
56	0xbdd36675	-0.103222765
57	0xbf05e069	-0.5229555
58	0xbcb4c13f	-0.022064803
59	0xbefd7bfb	-0.49508652
60	0x3fa4e31b	1.2881807
61	0xbf1fb97f	-0.6239242
62	0xbfb1070e	-1.3830278
63	0xbe889ccc	-0.26682127
64	0xbf11e5d8	-0.5699134
65	0xbd81ce5c	-0.06338188
66	0xbf1cc2fa	-0.6123501
67	0xbf3dae30	-0.74093914
68	0xbdd4993c	-0.1038079
69	0xbcbcda2c	-0.023053251
70	0xbd88b2de	-0.06674741
71	0xbec9090c	-0.39264715
72	0xbe4d31a2	-0.20038465
73	0xbf068d1a	-0.52559054
74	0xbe91e359	-0.28493765
75	0xbe515935	-0.20444186
76	0xbf5e27f4	-0.86779714
77	0xbda34c65	-0.079735555
78	0x3e6bb955	0.23019917
79	0xbe1347f8	-0.14382923
80	0xbe82e342	-0.2556401
81	0xbe8fc9af	-0.2808356
82	0x3f4bc7f0	0.79601955
83	0xbdc696d9	-0.09696741
84	0xbf92dc2b	-1.147344
85	0xbe888a36	-0.26667947
86	0xbf95c52e	-1.17008
87	0x3dccde5d	0.1000335
88	0xbe9e1667	-0.30876467
89	0xbe8b983c	-0.27264583
90	0xbd58ed08	-0.052960426
91	0x3efcb393	0.49355754
92	0x3ed9d74e	0.42547077
93	0xbefe8f8e	-0.497189
94	0x3f71d593	0.94466513
95	0x3fc2f7e0	1.5231895
96	0xbef5a3e7	-0.4797661
97	0xbe755452	-0.23957947
98	0xbd8da78a	-0.06916721
99	0xbd23d25b	-0.039995532
100	0x3eb980f8	0.36231208
101	0xbec6682f	-0.3875136
102	0xbea22806	-0.3167116
103	0x3e9b671d	0.30352107
104	0xbd8a5bb8	-0.06755775
105	0xbd3e25a2	-0.04642261
106	0xbe97c4fe	-0.2964248
107	0x3f6aa24d	0.916539
108	0xbec33af4	-0.38130915
109	0xbf87caf3	-1.060881
110	0xbebf8568	-0.37406468
111	0xbf46ae96	-0.77610147
112	0xbef1d679	-0.47233942
113	0x3da8908d	0.08230696
114	0xbe900c8e	-0.28134578
115	0xbee9727a	-0.4559515
116	0xbc0a98e8	-0.008459307
117	0xbd8f668f	-0.070019834
118	0xbf39894c	-0.72475123
119	0x3eb2a163	0.34888753
120	0x3f800401	1.0001222
121	0x3eea8d61	0.4581099
122	0x3fa7712d	1.3081414
123	0xbd9d171c	-0.076704234
124	0xbe8155bf	-0.25260732
125	0x3f09a0ae	0.537608
126	0x3cac3296	0.021020215
127	0xbef5e957	-0.48029587
128	0xbf424b9b	-0.75896615
129	0xbdadca8d	-0.08485899
130	0x3f663230	0.8992033
131	0xbd83b891	-0.064316876
132	0x3dac97df	0.084274046
133	0x3fd2d563	1.647137
134	0xbf8e110b	-1.1098951
135	0x3f324272	0.6963264
136	0x3fcdf799	1.6091186
137	0xbfa87fb9	-1.3163978
138	0x3edc8937	0.43073437
139	0xbf1a1888	-0.6019368
140	0x3eba5e35	0.364
141	0x3ee654f2	0.44986683
142	0xbf35aaba	-0.70963633
143	0x3f387574	0.7205422
144	0xbe3f7314	-0.18696243
145	0x3eac010e	0.33594555
146	0xbe929b51	-0.28634122
147	0xbe414943	-0.18875603
148	0xbead0007	-0.33789083
149	0xbef41759	-0.47674063
150	0x3e0a36ae	0.13497421
151	0xbd98cad0	-0.074605584
152	0xbe5aa661	-0.21352531
153	0xbe5f473c	-0.21804518
154	0x3c69ec3c	0.014277514
155	0x3f1c3c49	0.6102949
156	0xbf891a1c	-1.0711093
157	0xbd26b306	-0.040698074
158	0x3e966260	0.2937193
159	0xbf3584a2	-0.70905507
160	0xbe23c536	-0.15993199
161	0x3f1ee061	0.62061125
162	0x3f417d09	0.75581414
163	0xbf11a138	-0.56886625
164	0xbfb3ea8d	-1.4055954
165	0xbe9fda32	-0.31221157
166	0xbe0b952a	-0.1363112
167	0x3fbe2452	1.4854834
168	0xbf86c5dc	-1.0529132
169	0x3f335738	0.7005496
170	0xbf914e9f	-1.1352118
171	0xbe0edfd7	-0.13952576
172	0xbed7abe1	-0.4212332
173	0xbed0ea18	-0.408036
174	0xbf86d51a	-1.0533783
175	0x3e701d1c	0.23448604
176	0xbe456819	-0.19277991
177	0x3fa0351d	1.2516209
178	0xbe917f96	-0.28417653
179	0x3ee58cd1	0.44833997
180	0x3ec02a7b	0.3753241
181	0xbe2a80e2	-0.16650727
182	0xbf195527	-0.5989556
183	0xbf1a7e2c	-0.60348773
184	0x3f2cf179	0.6755596
185	0x3fb8cb47	1.4437035
186	0x3f3ac72d	0.7296017
187	0xbdc2eee3	-0.0951822
188	0x3f497879	0.7869945
189	0xbed35b48	-0.4128058
190	0x3eafcefb	0.343376
191	0xbf2552a4	-0.64579225
192	0xbe691ca4	-0.22764832
193	0x3fc59d6b	1.5438665
194	0x3f40cf2d	0.75316125
195	0xbebc30c3	-0.36755952
196	0xbe1d9d8c	-0.1539213
197	0xbe94ed92	-0.29087502
198	0xbe83308b	-0.25622973
199	0xbe4c3204	-0.19940954
200	0x3f3fcf03	0.7492525
201	0x3fcbec08	1.5931406
202	0xbe80d06e	-0.2515902
203	0x3fa6cb53	1.30308
204	0xbeb983b6	-0.362333
205	0xbec86352	-0.39138275
206	0x3e53c32c	0.20679921
207	0xbf4a7fed	-0.7910145
208	0xbe96f546	-0.29484004
209	0xbef68c02	-0.48153692
210	0x3f9eac95	1.2396418
211	0xbe706714	-0.23476821
212	0xbdf1813b	-0.11792227
213	0x3f065d66	0.52486265
214	0x3c2d8864	0.0105916
215	0xbe813dea	-0.2524255
216	0xbe8a21e8	-0.26978993
217	0xbe58d80d	-0.21176167
218	0xbdaeec5c	-0.08541176
219	0xbe448ab2	-0.19193533
220	0xbf3dd513	-0.7415325
221	0x3e6a915b	0.22907011
222	0x3f90acdb	1.1302751
223	0xbe3db0ae	-0.18524429
224	0xbeaf3342	-0.34218794
225	0xbe691fed	-0.22766085
226	0xbf1d8b2f	-0.615405
227	0xbf813cbb	-1.0096658
228	0xbe812d7a	-0.25230008
229	0xbec76fc4	-0.38952458
230	0xbee1da37	-0.44111797
231	0xbcbc7d2a	-0.023008902
232	0x3fc97549	1.5738918
233	0xbf14f4c6	-0.58185995
234	0xbe486e80	-0.19573402
235	0xbe829986	-0.25507754
236	0xbed65d21	-0.41867927
237	0x3ea76e33	0.32701263
238	0x3f47c06d	0.78027993
239	0x3f69137f	0.91045374
240	0xbe69bd9e	-0.2282624
241	0xbea0ab59	-0.31380728
242	0xbf49d219	-0.7883621
243	0xbec2f6d2	-0.38078934
244	0x3e19903b	0.14996426
245	0xbf8b4b1f	-1.08823
246	0xbf3400f7	-0.7031397
247	0x3fd3026a	1.6485112
248	0xbec041f5	-0.3755032
249	0xbee38530	-0.44437551
250	0x3eb0e28c	0.34547842
251	0x3ecb99bb	0.39765725
252	0x3ffb5a84	1.9636998
253	0x3f716225	0.9429038
254	0xbea34911	-0.31891683
255	0x3f1065ac	0.5640514

weight f4 [256, 256]
0	0x3d106aa3	0.035257947
1	0x3d9f7a28	0.07786971
2	0xbabb8bb6	-0.0014308605
3	0xbc7d07cc	-0.015443753
4	0xbdd8234d	-0.10553608
5	0x3c2d9752	0.01059516
6	0xbc014d55	-0.007891973
7	0x3d0f22ae	0.034945183
8	0xbcf5c740	-0.030002236
9	0x3d53a361	0.051669482
10	0xbd7a6b17	-0.061137285
11	0xbd903518	-0.07041377
12	0x3cb4080a	0.02197649
13	0xbca81d21	-0.020521702
14	0xbd1d6d6a	-0.038434424
15	0xbd6beffb	-0.05760191
16	0xbd7f61bb	-0.062349062
17	0x3d369554	0.044576004
18	0x3d978415	0.073982395
19	0xbc328a25	-0.010897194
20	0x3d8dc3f3	0.0692214
21	0xbd2ca800	-0.042152405
22	0xbce62ca1	-0.028097453
23	0xbd3f16aa	-0.046652474
24	0xbd1306f2	-0.035895295
25	0xbcec94fd	-0.028879637
26	0xbd0276ed	-0.031851698
27	0xbd31876f	-0.04334205
28	0xbd105051	-0.035232846
29	0x3c83f116	0.01610617
30	0xbd4ffd3e	-0.05077862
31	0xbde33bab	-0.11095365
32	0x3d11c679	0.03558967
33	0xbd264712	-0.04059512
34	0xbd884dd1	-0.06655467
35	0xbd2bf20d	-0.041978884
36	0x3d2cb382	0.04216338
37	0xb9ba4616	-0.00035528903
38	0xbbe3643a	-0.006939438
39	0xbded255b	-0.115793906
40	0xbcad0285	-0.021119365
41	0xbdca57be	-0.09880017
42	0xbc9a2ec6	-0.018821131
43	0xbbc620d8	-0.0060463957
44	0xbdb5c09a	-0.088746265
45	0xbd7bce46	-0.061476015
46	0xbd951b72	-0.072806254
47	0xbbf3138b	-0.007418101
48	0x3c4617e1	0.012090654
49	0xbc81c2de	-0.01583999
50	0xbcbf7386	-0.023370516
51	0xbdb1f38c	-0.08689031
52	0xbcd7a870	-0.026325434
53	0xbdb3f04c	-0.08786067
54	0xbc2737ec	-0.010206204
55	0xbde0da51	-0.109791405
56	0xbd7bd732	-0.061484523
57	0x3c09aa04	0.008402351
58	0xbc32506a	-0.01088343
59	0xbca20f03	-0.019782549
60	0x3c14b5bd	0.009076533
61	0x3c675adb	0.014120783
62	0xbc81e8d1	-0.015858086
63	0xbd172dce	-0.036908917
64	0xbd42da72	-0.047571607
65	0x3d6ae788	0.05734971
66	0xbd93596b	-0.071947895
67	0xbd1baa77	-0.038004365
68	0x3cef044c	0.029176854
69	0x38b0d053	8.4311374e-05
70	0x3cf8b844	0.030361302
71	0xbdf46672	-0.119336024
72	0xbd6496d8	-0.05580792
73	0xbbea46b2	-0.007149541
74	0x3d059405	0.032611866
75	0x3d2e0056	0.04248079
76	0xbd99add5	-0.07503859
77	0x3c2f58e7	0.010702348
78	0xbcab8102	-0.02093554
79	0x3c93af73	0.018027997
80	0xbc4e1c4b	-0.012579988
81	0xbc86f406	-0.016473781
82	0xbc6b4c50	-0.014361456
83	0xbd70cbf5	-0.05878826
84	0xbddc070a	-0.1074353
85	0xbdb6ac8d	-0.0891963
86	0xbcb96aea	-0.022633988
87	0xbd12bf0b	-0.035826724
88	0xbd515d01	-0.051114086
89	0x3b10c280	0.0022088587
90	0xbd047202	-0.03233529
91	0xbda96387	-0.082709365
92	0xbd7534f9	-0.05986497
93	0x3cba111e	0.02271324
94	0x3c1c5d44	0.009543721
95	0xbd2e1a92	-0.04250581
96	0xbc68f57a	-0.014218682
97	0xbc62edc9	-0.013850638
98	0x3c112c63	0.00886068
99	0xbd0d8976	-0.03455492
100	0xbd4b9c13	-0.04970939
101	0x3d6598bf	0.056053873
102	0xbd3e19ac	-0.0464112
103	0x3d2c015a	0.041993476
104	0xbd655418	-0.0559884
105	0xbcc9df61	-0.024642648
106	0xbd265b07	-0.040614154
107	0xbdb42411	-0.087959416
108	0xbd003dce	-0.03130894
109	0xbd9917fd	-0.074752785
110	0xbd257da8	-0.04040304
111	0xbd756dd1	-0.059919182
112	0xbd20ba63	-0.039240252
113	0xbdb7d9c7	-0.089770846
114	0xbcf2962f	-0.029612629
115	0x3d525961	0.05135477
116	0x3c248155	0.010040601
117	0xbb91d1e1	-0.0044500683
118	0xbd3850c8	-0.044998914
119	0xbd76e0bf	-0.06027293
120	0xbc8c40ec	-0.0171208
121	0xbc0c534c	-0.008564781
122	0xbdc974ee	-0.09836756
123	0xbd242183	-0.04007102
124	0x3cb3b446	0.021936547
125	0xbd5ff46a	-0.05467645
126	0xbd25b861	-0.04045904
127	0xbd683e37	-0.056699958
128	0xbdbb8ab6	-0.091573164
129	0xbd0d7e1e	-0.034544103
130	0x3ac93dc0	0.0015353486
131	0xbc9c483d	-0.019077415
132	0xbc975914	-0.018475093
133	0xbc291c55	-0.010321696
134	0xbc83b2c9	-0.016076462
135	0xbd9d2bb2	-0.0767435
136	0x3aee4d19	0.0018180936
137	0x3d434d8f	0.047681388
138	0x3cd13c2c	0.025541387
139	0x3cbc1df2	0.022963498
140	0x3c34550f	0.011006608
141	0xbd083666	-0.033255003
142	0xbcd88aea	-0.026433427
143	0x3cc40f88	0.023933187
144	0xbde099f8	-0.10966867
145	0x3be691c3	0.007036419
146	0x3c9c52af	0.019082395
147	0x3c560b37	0.013064197
148	0xbd03a54d	-0.032140065
149	0xbdcbf6c5	-0.09959177
150	0xbd812aea	-0.06307013
151	0xbd9f612c	-0.07782206
152	0xba9c3d7f	-0.0011920183
153	0x3d3a2212	0.04544265
154	0x3c9f829b	0.019471457
155	0x3cdd5987	0.027020229
156	0xbdb4a391	-0.0882026
157	0x3d2b2505	0.04178335
158	0xbc017a47	-0.007902688
159	0xbdcfd2da	-0.101476386
160	0x3c9bc9fc	0.019017212
161	0xbd61bf8c	-0.055114314
162	0xbb258349	-0.0025255254
163	0xbcc81bcf	-0.024427323
164	0xb98eed12	-0.00027260982
165	0x3d3560c5	0.04428174
166	0x3da6e476	0.08149044
167	0xbd84ad5c	-0.06478378
168	0xbd7ae4af	-0.061253246
169	0xbd0b56ae	-0.03401821
170	0xbdd9aeb6	-0.106290266
171	0x3c02c818	0.007982276
172	0xbc487db3	-0.012237
173	0xbe086eaa	-0.13323465
174	0xbda3093b	-0.07960745
175	0xbd1a65b0	-0.037694633
176	0xbd60e3c5	-0.054904718
177	0xbdd2bd75	-0.10290042
178	0xbd443295	-0.0478998
179	0xbcc08990	-0.023503095
180	0xbd925c6c	-0.07146534
181	0x3c8988e1	0.016788902
182	0xba7e9ba1	-0.00097125216
183	0xbce87c5d	-0.028379614
184	0xbdbe6f6f	-0.09298598
185	0x3da63c5b	0.08116981
186	0xbd845005	-0.06460575
187	0x3c664295	0.01405396
188	0x3cb9670a	0.02263214
189	0x3bb7394c	0.005591547
190	0x3cab6267	0.020920945
191	0xbda1c687	-0.07899194
192	0xba0c1880	-0.0005344227
193	0xbdb1ad4b	-0.08675631
194	0xbe05e6e7	-0.13076364
195	0xba8ec483	-0.0010892305
196	0x3d31c5c0	0.04340148
197	0xbdf36b06	-0.118856475
198	0xbd71e977	-0.05906054
199	0xbd50652b	-0.05087773
200	0xbd74ef88	-0.059798747
201	0x3c880d57	0.016607923
202	0xbc4bf353	-0.01244815
203	0xbdb6f6d8	-0.089338005
204	0x3c6f4893	0.014604705
205	0xbd98e32a	-0.07465203
206	0xbd82a826	-0.06379728
207	0xbdca0b5b	-0.09865447
208	0x3c162723	0.009164604
209	0xbcfa9b5c	-0.03059166
210	0xbcbcfd49	-0.023069995
211	0x3c93ff64	0.018066116
212	0xbda705f6	-0.08155434
213	0x3c9cce94	0.019141473
214	0xbdd9a7c8	-0.10627705
215	0xbd5fe360	-0.0546602
216	0x3ce06b9e	0.027395066
217	0x3c164dcd	0.009173823
218	0x3b681fc4	0.0035419324
219	0xbd20cf3b	-0.03926013
220	0xbd852756	-0.06501643
221	0xbd2edc57	-0.0426906
222	0x3cc9d721	0.024638714
223	0xbd00cf15	-0.03144749
224	0xbd078183	-0.033082496
225	0xbd00ab49	-0.03141335
226	0x3d6d04b2	0.057865806
227	0xbe0cc941	-0.13748647
228	0xbc2d2282	-0.010567309
229	0xbdb759d1	-0.08952678
230	0xbd85f056	-0.06539981
231	0xbd58be21	-0.052915696
232	0xbc334bc9	-0.010943362
233	0xbd422991	-0.047402922
234	0xbd2f7693	-0.04283769
235	0xbd8cb42c	-0.068703026
236	0xbde08601	-0.10963059
237	0xbdb83b03	-0.089956306
238	0xbb3d7987	-0.0028911547
239	0x3beac89d	0.0071650282
240	0xbdb0d561	-0.08634449
241	0xbd5fb5e2	-0.054616816
242	0xbad724cd	-0.0016414166
243	0xbd379ee0	-0.04482925
244	0xbda37de5	-0.07982997
245	0xbde7a0f1	-0.11309994
246	0xbd590816	-0.052986227
247	0xbc834626	-0.01602466
248	0x3d36ec1c	0.044658765
249	0xbb530835	-0.0032200937
250	0xbda14f6f	-0.07876479
251	0x3c543894	0.012952942
252	0xbda6755b	-0.081278525
253	0xbda06e26	-0.07833509
254	0x3b016b6e	0.001974787
255	0xbc911eea	-0.017714936

bias f4 [256]
0	0xbd9cfd02	-0.07665445
1	0xbd26230c	-0.040560767
2	0xbdb1d74d	-0.086836435
3	0xbeb311b9	-0.3497446
4	0xbbef7604	-0.0073077697
5	0x3f959c25	1.1688277
6	0xbe02139f	-0.12702797
7	0xbf9a6458	-1.2061872
8	0xbe8ad4b5	-0.27115408
9	0xbd9c4e9c	-0.07632181
10	0xbe2ae56c	-0.1668908
11	0xbe28e7bb	-0.16494648
12	0x3fa3064b	1.2736295
13	0xbd006aef	-0.03135198
14	0xbe6a389f	-0.22873162
15	0xbde7ff48	-0.11327988
16	0xbdafabcd	-0.0857769
17	0xbddf4138	-0.10901111
18	0xbd89a949	-0.06721742
19	0x3e172a61	0.1476226
20	0xbe00ef90	-0.12591386
21	0xbe0a82c2	-0.13526443
22	0x3f0109b5	0.50405437
23	0x3e7bf466	0.2460495
24	0x3d61e6a3	0.055151593
25	0xbdfe3179	-0.1241178
26	0x3c364113	0.011123913
27	0xbe7a7e65	-0.24462278
28	0xbda9b949	-0.082872935
29	0xbd2f178c	-0.042747065
30	0x3e9bc809	0.30426052
31	0xbda97820	-0.08274865
32	0xbd79ba12	-0.060968466
33	0xbe6fe037	-0.23425375
34	0xbe11bfa7	-0.14233266
35	0xbe05abf6	-0.13053879
36	0xbddca628	-0.10773879
37	0xbe378f55	-0.1792577
38	0x3d964201	0.07336808
39	0xbde4dc8b	-0.11174878
40	0x3dcdfc18	0.10057849
41	0xbcf00a07	-0.029301656
42	0xbdc6454c	-0.09681186
43	0xbe554fb2	-0.20831183
44	0xbdb976b8	-0.09055847
45	0x3f059cec	0.5219257
46	0xbd98a422	-0.07453181
47	0x3db27096	0.0871288
48	0x3e93b6a2	0.28850275
49	0x3d924d06	0.07143597
50	0x3f711805	0.94177276
51	0xbe5298a5	-0.20566042
52	0xbea64d07	-0.32480642
53	0xbe013b11	-0.12620188
54	0xbe1764a1	-0.1478448
55	0x3f7a2628	0.9771447
56	0xbddc540c	-0.10758218
57	0x3e94a0a2	0.29028803
58	0x3f572657	0.84042877
59	0x3d884ad7	0.066548996
60	0x3e77cdbe	0.24199578
61	0xbea04ebf	-0.31310079
62	0x3ebc10af	0.3673148
63	0xbd8dc61d	-0.06922553
64	0x3edcd974	0.43134654
65	0xbe07f43e	-0.13276765
66	0xbde54805	-0.11195377
67	0xbf367db6	-0.7128557
68	0x3dfc6da9	0.123256035
69	0xbf81c177	-1.0137166
70	0xbf051a3f	-0.51993173
71	0x3e8e3990	0.27778292
72	0xbd11022c	-0.035402462
73	0xbf3de788	-0.74181414
74	0x3a057ae7	0.0005091861
75	0xbe160bbd	-0.14652915
76	0xbe500cc4	-0.2031737
77	0x3d14b394	0.03630407
78	0xbf459ab0	-0.7718916
79	0xbf35d84e	-0.7103318
80	0xbeaf3e59	-0.34227255
81	0xbddd1925	-0.107958116
82	0xbdf5a6f5	-0.11994735
83	0xbe898b60	-0.26864147
84	0x3deda5e4	0.11603907
85	0xbf38ca73	-0.72183913
86	0x3ec84786	0.39117068
87	0x3d4b611c	0.049653158
88	0xbe12e755	-0.14346059
89	0xbd4eba9b	-0.05047093
90	0xbde60a92	-0.11232485
91	0xbdbd9d0d	-0.09258471
92	0xbe00b136	-0.125676
93	0x3e7ba1f4	0.24573499
94	0xbdbc0712	-0.09181036
95	0x3e028168	0.12744677
96	0x3db47ac1	0.08812476
97	0x3fa756c0	1.3073349
98	0x3ec77673	0.38957557
99	0x3e501450	0.20320249
100	0xbef5aa95	-0.47981706
101	0x3e5aaca2	0.21354917
102	0xbdfc5c7a	-0.12322326
103	0x3ef606b1	0.4805198
104	0x3f6877d1	0.90807825
105	0x3ec638a0	0.38715076
106	0x3dd4b4ac	0.10386023
107	0xbdd8ec35	-0.10591928
108	0xbd58515b	-0.05281196
109	0xbe0b3c40	-0.13597202
110	0xbdafa71d	-0.08576796
111	0xbd32750c	-0.043568656
112	0xbd9b3984	-0.075793296
113	0xbd1911d6	-0.037370525
114	0xbd3c936a	-0.046039023
115	0xbd37e717	-0.04489812
116	0xbe6f7c3c	-0.23387235
117	0xbda3e796	-0.08003156
118	0xbe0d393f	-0.13791369
119	0xc078b870	-3.8862572
120	0xbdfbc340	-0.122931
121	0xbe08d38d	-0.1336195
122	0xbd9b76c1	-0.0759101
123	0xbd0104cf	-0.031498726
124	0x3f8f0dbf	1.117607
125	0xbe07e7ba	-0.1327199
126	0xbddf27a8	-0.10896236
127	0xbf07f5ca	-0.5310942
128	0xbe0f9dfe	-0.14025113
129	0xbd81e2db	-0.06342097
130	0xbdacff40	-0.084471226
131	0xbddb99a8	-0.10722667
132	0xbf3f22ed	-0.7466267
133	0xbe77b68d	-0.24190731
134	0x3f29ea20	0.6637287
135	0xbe1012bb	-0.14069645
136	0xbf0d0e6e	-0.5510014
137	0xbe7848a0	-0.24246454
138	0xbdfe5f64	-0.12420538
139	0xbe112390	-0.14173722
140	0xbdb61f99	-0.088927455
141	0x3e17df36	0.14831242
142	0xbe23027f	-0.15918921
143	0xbe4108d1	-0.1885102
144	0x3d5efb6f	0.054439005
145	0xbeb1b10c	-0.3470539
146	0xbd8b74ea	-0.06809409
147	0xbe49c714	-0.19704849
148	0xbeb8b571	-0.3607593
149	0x3eb20477	0.3476903
150	0x3d3ad5e9	0.045614157
151	0xbe17bfa0	-0.14819193
152	0xbdb4a30c	-0.08820161
153	0xbdb3b367	-0.08774453
154	0x3e0a25f4	0.1349104
155	0xbdacbc3e	-0.08434342
156	0xbde4e24c	-0.11175975
157	0x3f2bdc00	0.6713257
158	0xbe6396d4	-0.22225505
159	0xbe528b18	-0.20560873
160	0xbdc965d9	-0.09833879
161	0x3ee2f619	0.44328383
162	0xbd8ce7fa	-0.068801835
163	0x3f80ff77	1.0077962
164	0xbf3a58a7	-0.7279152
165	0xbe933bd7	-0.28756592
166	0xbe0b05c5	-0.1357642
167	0xbe07a5b0	-0.13246799
168	0x3d68c7f0	0.0568313
169	0xbc8be0eb	-0.017075023
170	0xbddfa957	-0.10920971
171	0xbde18660	-0.11011958
172	0xbf0813c4	-0.5315516
173	0x3d76c661	0.060247783
174	0xbdfd49be	-0.12367581
175	0xbd86195f	-0.06547808
176	0xbf80b197	-1.0054196
177	0xbd16e27b	-0.036837082
178	0xbdcfb476	-0.10141842
179	0xbea1a672	-0.315723
180	0x3f31f986	0.6952137
181	0x3f25de2b	0.64792126
182	0xbe81be1e	-0.2534036
183	0xbef4fd68	-0.47849584
184	0xbe7a2588	-0.2442838
185	0xbe00f157	-0.12592064
186	0xbe8e4db9	-0.27793673
187	0x3d4a9c6f	0.049465593
188	0xbd0bd652	-0.03413994
189	0xbdc43428	-0.095802605
190	0x3eb397b8	0.3507669
191	0xbed838f4	-0.42230952
192	0xbe0591da	-0.13043919
193	0x3e90c52a	0.28275424
194	0xbe61d9f6	-0.22055802
195	0xbdbd8d7e	-0.09255503
196	0xbdbe87a8	-0.09303218
197	0xbe6a365b	-0.22872297
198	0x3ebc8bdd	0.36825457
199	0xbe4c6572	-0.19960573
200	0xbe3943e9	-0.18092312
201	0xbd878708	-0.06617552
202	0xbe1d1b47	-0.15342437
203	0xbafff724	-0.001952861
204	0xbe8b5d33	-0.27219543
205	0x3d6e6efe	0.05821132
206	0x3f28d563	0.659506
207	0x3ecf6550	0.40506983
208	0xbea1b66d	-0.31584492
209	0xbf00bea2	-0.5029088
210	0xbe30296c	-0.17203301
211	0xbe9b33e8	-0.3031304
212	0x3db4e805	0.08833317
213	0xbeafad21	-0.34311774
214	0xbdab6848	-0.083694994
215	0xbdfa9f58	-0.12237424
216	0xbf17ae8c	-0.5925071
217	0x3eb281ec	0.34864748
218	0xbe009b86	-0.12559327
219	0x3f4a57d2	0.79040253
220	0x3e9e6871	0.30939057
221	0xbff00ac1	-1.8753282
222	0xbd3bff99	-0.045898054
223	0xbe610367	-0.21973954
224	0x3f77c681	0.9678727
225	0xbdb4b905	-0.08824352
226	0xbdec9f60	-0.11553836
227	0xbf0efc4f	-0.5585374
228	0xbe1e6e04	-0.15471655
229	0xbdde2c87	-0.10848337
230	0xbe3ffd28	-0.18748915
231	0xbd9b1c28	-0.0757373
232	0xbea44508	-0.32083917
233	0xbd837b53	-0.064200066
234	0xbf172540	-0.59041214
235	0xbe3bcef5	-0.18340667
236	0xbd83629a	-0.06415291
237	0xbe1c127a	-0.15241423
238	0xbf2c89b7	-0.67397636
239	0xbf50f719	-0.8162704
240	0xbe21927e	-0.15778539
241	0x3d80f0c3	0.06295922
242	0x3e79850b	0.24367158
243	0xbe2f8e42	-0.17144111
244	0xbd5a359f	-0.053273793
245	0x3f17700e	0.59155357
246	0xbdb121e3	-0.086490415
247	0xbea94d32	-0.33066708
248	0xbc07b7fd	-0.008283612
249	0xbf257e62	-0.6464597
250	0xbe0fc29a	-0.14039078
251	0x40b0343f	5.5063777
252	0xbe10927e	-0.14118382
253	0xbda415b1	-0.0801195
254	0x3ddbe70b	0.10737427
255	0x3eb7be1f	0.35887238

weight f4 [3, 256]
0	0xbd04e7a0	-0.032447457
1	0xbd94584a	-0.07243402
2	0x3d8933b7	0.06699317
3	0x3e6f442e	0.23365852
4	0xbe04fce0	-0.12987089
5	0x3f0ae25a	0.54251635
6	0x3d31dd40	0.04342389
7	0xbf14930e	-0.5803689
8	0x3d4bc16c	0.04974501
9	0xbd0ca0d0	-0.03433305
10	0x3c8331ed	0.016015017
11	0x3da98800	0.08277893
12	0xbf4ad518	-0.79231405
13	0x3d6655d1	0.056234185
14	0x3e29ac3a	0.16569605
15	0x3e239bae	0.15977356
16	0x3c886b45	0.016652713
17	0x3cada936	0.02119885
18	0x3e09d55e	0.134603
19	0x3e8db4dc	0.27677047
20	0x3d6fb146	0.05851867
21	0x3cb8b1ba	0.022545684
22	0xbe313e87	-0.17309009
23	0xbf020ce1	-0.508009
24	0x3d88e415	0.06684128
25	0x3d0e115c	0.034684524
26	0xbea679d3	-0.3251482
27	0x3dae0d2b	0.08498605
28	0x3a356d36	0.0006920876
29	0xbd3d5208	-0.04622081
30	0xbdd5daaf	-0.10442101
31	0x3d220de3	0.039564025
32	0xbca90c11	-0.020635637
33	0xbc0c5f3b	-0.008567627
34	0x3c0085fc	0.007844444
35	0x3f847fa7	1.0351456
36	0xbc204c5c	-0.0097838305
37	0xbe244eb4	-0.16045648
38	0xbd2be088	-0.041962177
39	0x3e6f7566	0.23384628
40	0xbecf94f8	-0.40543342
41	0x3daae280	0.08343983
42	0xbd4d0c1d	-0.05006038
43	0xbeba6fe9	-0.36413506
44	0xbc8401bc	-0.016114108
45	0x3e5e70ec	0.21722764
46	0xbdb878d7	-0.09007423
47	0x3e1cf1b6	0.1532658
48	0xbe89d8f9	-0.2692335
49	0xbe05411c	-0.13013119
50	0xbf1b2093	-0.6059658
51	0x3e90bc34	0.28268588
52	0xbe7038a1	-0.23459102
53	0x3d974863	0.073868535
54	0xbc4decea	-0.012568692
55	0xbf2fee50	-0.6872301
56	0xbbd69ffd	-0.006549834
57	0x3e010a5e	0.12601611
58	0xbe940551	-0.28910306
59	0xbf0f481d	-0.5596941
60	0x3d035741	0.032065634
61	0x3e18a694	0.14907295
62	0xbcc8eeb2	-0.024527881
63	0xbc9d6802	-0.019214634
64	0x3eb1b5cc	0.34709013
65	0xba48074a	-0.00076304807
66	0x3c8c3b76	0.017118197
67	0x3be09465	0.0068536275
68	0x3e8ade0b	0.2712253
69	0x3e7038c3	0.23459153
70	0x3eab2c8a	0.33432418
71	0x3e74bc7d	0.23900028
72	0x3d98b29b	0.07455941
73	0x3f8a3c3b	1.0799631
74	0x3c1e2582	0.009652497
75	0x3d9196da	0.07108851
76	0xbf46c017	-0.77636856
77	0xbd60cbec	-0.054881975
78	0xbf7ea6fd	-0.99473554
79	0xbe07a655	-0.13247044
80	0xbe7e45c1	-0.24831297
81	0x3d3fb3f0	0.04680246
82	0x3d89e254	0.06732622
83	0x3e79948a	0.2437307
84	0x3e15e6a9	0.14638771
85	0xbdbe9d13	-0.09307303
86	0x3e0b97fe	0.13632199
87	0xbe0fa767	-0.14028703
88	0xbc25e016	-0.010124227
89	0xbb96cf3b	-0.0046023405
90	0xbd44b9ce	-0.04802876
91	0x3d770a96	0.06031283
92	0x3d64b7a5	0.0558392
93	0xbebb26d9	-0.36553076
94	0x3d1697be	0.036765806
95	0xbe95cd1b	-0.29258046
96	0xbe854637	-0.26030132
97	0xbe683aac	-0.22678632
98	0xbe079f9a	-0.13244477
99	0x3e355495	0.17708047
100	0xbf1a6505	-0.60310394
101	0x3d9f3fdd	0.07775853
102	0x3c53b36c	0.0129211955
103	0xbd88ac81	-0.066735275
104	0x3eaf7de2	0.34275728
105	0xbf4cac61	-0.7995053
106	0x3f3c3d29	0.73530823
107	0xbbcdc499	-0.00627954
108	0xbda0602e	-0.07830845
109	0xbecf1b65	-0.40450588
110	0x3a034d11	0.0005008737
111	0xbdcd83fd	-0.100349404
112	0x3c058746	0.0081499275
113	0x3d7580e2	0.059937365
114	0xbe46b049	-0.19403185
115	0xbe098cbd	-0.13432594
116	0xbeedd8ce	-0.4645447
117	0xbc33c177	-0.010971419
118	0xbd1811ea	-0.03712646
119	0xbf072b2b	-0.52800244
120	0x3f314338	0.6924319
121	0xbb85c615	-0.004082451
122	0x3c4880f5	0.012237777
123	0x3d8f4dc0	0.069972515
124	0xbf0d2117	-0.55128616
125	0x3dcc5bf4	0.09978476
126	0x3ce835ea	0.02834602
127	0x3ebb018c	0.36524618
128	0xbd4b49d1	-0.049630944
129	0x3ca537d4	0.020168222
130	0xbc57e323	-0.013176712
131	0xbc418620	-0.011811763
132	0x3e276177	0.16345774
133	0x3ebba0ce	0.36646122
134	0x3dad8a6b	0.08473667
135	0x3ce920f9	0.028458105
136	0x3e364a47	0.17801772
137	0x3eb330a4	0.34998047
138	0xbf1aa657	-0.60410064
139	0x3d1b6e30	0.03794688
140	0xbd895970	-0.06706512
141	0x3d372863	0.04471625
142	0x3cd849ea	0.026402432
143	0xbcaeb794	-0.021327771
144	0xbc6daa77	-0.014505974
145	0x3d10c126	0.03534045
146	0x3ca11963	0.019665426
147	0x3dba173a	0.09086461
148	0xbcedc069	-0.029022412
149	0xbdfb01c3	-0.122561954
150	0x3e9f7af7	0.31148502
151	0x3de49b48	0.1116243
152	0x3c057d81	0.008147598
153	0xbdc823df	-0.09772467
154	0xbe7b6f4e	-0.24554178
155	0x3c96d769	0.018413262
156	0xbe5184cc	-0.20460814
157	0xbdbdd22d	-0.092686035
158	0x3c191473	0.009343254
159	0x3ef5c2c2	0.4800015
160	0x3d5a306d	0.05326884
161	0x3e48546f	0.19563459
162	0x3eb8441a	0.35989457
163	0x3e7d18c6	0.24716482
164	0x3d9dc2a4	0.077031404
165	0x3d9cfe98	0.076657474
166	0xbd3a1a23	-0.045435082
167	0xbd103b6a	-0.03521291
168	0x3e10bbc5	0.14134128
169	0xbe4dd7aa	-0.201018
170	0xbd97de46	-0.07415442
171	0xbd996128	-0.07489234
172	0xbea163ef	-0.31521556
173	0x3eb5f45d	0.35537997
174	0x3c1a42a9	0.009415307
175	0x3c11a663	0.008889767
176	0xbf520436	-0.82037675
177	0x3ab77ec9	0.0013999577
178	0x3d3eae48	0.046552926
179	0x3f117c21	0.5683003
180	0x3ea02d7f	0.3128471
181	0x3eb9841e	0.3623361
182	0x3d3b4eda	0.045729496
183	0x3e7d58df	0.24740933
184	0x3e392a5f	0.1808257
185	0x3c6205c3	0.013795319
186	0x3e7c2841	0.2462473
187	0xbe2cb502	-0.16865924
188	0xbcd7f76e	-0.0263631
189	0x3d9450f9	0.07242007
190	0x3e4aea4f	0.19815944
191	0x3e0f7597	0.140097
192	0x3e0629aa	0.13101831
193	0xbe8aebcc	-0.27133024
194	0xbd8ce301	-0.06879235
195	0x3da5d83a	0.080978826
196	0x3e24e6e7	0.16103707
197	0xbe37a86c	-0.17935342
198	0x3e60d094	0.21954566
199	0x3e352987	0.17691623
200	0x3e2b08f7	0.16702639
201	0xbbe305f2	-0.006928199
202	0x3d83b79b	0.06431504
203	0x3d41aae6	0.047282122
204	0x3a298a82	0.00064674777
205	0xbdd7b536	-0.1053261
206	0x3e461f5d	0.19347902
207	0x3e567c49	0.20945849
208	0xbf3d5a24	-0.7396567
209	0xbde57c64	-0.11205366
210	0x3d9e9c88	0.077447
211	0xbe539d24	-0.20665413
212	0xbd16eb7e	-0.036845677
213	0xbddf7dba	-0.10912652
214	0x3d81eba8	0.06343776
215	0x3cd76304	0.026292332
216	0x3ed95373	0.4244648
217	0x3e914837	0.28375408
218	0x3da0f64f	0.0785948
219	0x3dddacb2	0.10823955
220	0x3e902770	0.28155088
221	0x3e091aa2	0.13389066
222	0xbd8c06a2	-0.068372026
223	0xbd98be1a	-0.07458134
224	0x3f2c7212	0.6736156
225	0x3b177df9	0.0023115857
226	0x3d3f0b03	0.04664136
227	0x3e547662	0.20748284
228	0x3d7f59bf	0.062341448
229	0x3bbd0253	0.0057680993
230	0xbed12ae2	-0.4085303
231	0xbd205136	-0.03913995
232	0x3d6aa08f	0.057282027
233	0xbd8eec15	-0.06978623
234	0xbe1dcf09	-0.15411009
235	0x3bdabd3f	0.006675392
236	0xbcc59bc3	-0.024122125
237	0x3dc51cce	0.09624635
238	0x3ee224d6	0.4416873
239	0xc0056922	-2.0845418
240	0x3a894693	0.0010473303
241	0x3ef118cd	0.47089234
242	0x3e90f932	0.2831512
243	0x3d279066	0.040909193
244	0x3cd163ee	0.025560346
245	0x3e2ef4f5	0.17085631
246	0xbc59feda	-0.01330539
247	0xbe4bf8aa	-0.19919077
248	0x3ce8952f	0.028391449
249	0xbedd7bcb	-0.4325851
250	0xbd82edee	-0.06393038
251	0xbf8826df	-1.0636863
252	0x3ca3dcbd	0.020002717
253	0xbd7bfb95	-0.061519224
254	0x3e260a53	0.16214876
255	0x3e93d455	0.28872934

bias f4 [3]
0	0xbf1dd422	-0.61651814
1	0xc0857b3c	-4.1712933
2	0xbe6bbcc3	-0.23021226

weight f4 [3, 256]
0	0x3cfbf417	0.03075604
1	0x3d1b1aa0	0.03786719
2	0x3cf57f3b	0.029967895
3	0x3e11e083	0.142458
4	0xbc340f9b	-0.010990049
5	0x3e8a4f44	0.270136
6	0x3c8e7fd7	0.017394943
7	0xbc77ff2b	-0.01513652
8	0x3dd49baa	0.10381253
9	0x3e858815	0.26080385
10	0xbc6c5886	-0.0144254025
11	0x3d0c0fee	0.03419488
12	0x3f1c5d82	0.6108018
13	0xbc779ba9	-0.015112796
14	0x3e25db27	0.16196881
15	0x3d64ce13	0.05586059
16	0x3d312e8a	0.043257274
17	0xbd75884a	-0.05994443
18	0x3e219343	0.15778832
19	0x3e4e4ed7	0.20147263
20	0x3d974895	0.07386891
21	0x3d88a46d	0.06671987
22	0x3d542e6b	0.05180208
23	0x3d01cde8	0.031690508
24	0xbe364451	-0.17799498
25	0xbcf5bfef	-0.029998748
26	0x3f0876b0	0.533061
27	0xbd7f364b	-0.062307637
28	0xbd63336f	-0.055468973
29	0x3d684b13	0.05671222
30	0x3e2dce94	0.16973335
31	0xbd393e7e	-0.045225613
32	0xbcab1e33	-0.020888424
33	0x3dfb00c1	0.12256003
34	0xbc8721b2	-0.01649556
35	0x3e7673ea	0.24067655
36	0x3c2ac79f	0.01042357
37	0x3f0727c7	0.5279507
38	0x3cc94325	0.02456815
39	0x3c342ac4	0.010996524
40	0x3ec6d799	0.38836363
41	0xbcf81a31	-0.030285927
42	0xbc9f4da3	-0.0194462
43	0x3ebc5303	0.36782083
44	0x3d5bab37	0.05363008
45	0x3e3a8ea4	0.18218476
46	0x3dd8a688	0.10578638
47	0xbd1862a3	-0.037203442
48	0x3f1e7ab3	0.61905974
49	0x3d53cb64	0.05170764
50	0x3de5514e	0.11197148
51	0x3f0f3f13	0.5595562
52	0xbc7198cd	-0.014745903
53	0x3e3ce6d3	0.18447427
54	0x3dfeae66	0.124356076
55	0x3edd37dc	0.4320668
56	0xbe0f3351	-0.1398442
57	0x3e83824d	0.2568535
58	0x3ea8a5d1	0.32939008
59	0x3e63466e	0.22194836
60	0x3dc9ef7f	0.098601334
61	0x3eacb394	0.33730757
62	0xbd8e7ec3	-0.06957772
63	0x3d60c87a	0.05487869
64	0x3e1198d3	0.14218454
65	0x3b9cc8a6	0.0047846613
66	0xbdbaab9f	-0.091147654
67	0x3e8ed485	0.27896515
68	0x3ee96afe	0.4558944
69	0x3d9c2051	0.07623351
70	0xbb8e5379	-0.004343447
71	0xbddc7a8f	-0.10765564
72	0x3d684097	0.056702223
73	0x3e8ce453	0.27517948
74	0x3d931017	0.07180803
75	0xbcc995f6	-0.02460764
76	0x3e45f18d	0.19330426
77	0x3c6c9bac	0.014441412
78	0x3e2dcee5	0.16973455
79	0x3e9f5c05	0.31124893
80	0x3e29834b	0.1655399
81	0x3dfa0664	0.1220825
82	0xbd534e9f	-0.05158865
83	0x3acdce85	0.0015701806
84	0xbd84fd8c	-0.06493673
85	0x3e498e9d	0.19683309
86	0x3e065e81	0.13121988
87	0x3e03bc0f	0.12864707
88	0xbce7953c	-0.028269403
89	0xbde45e19	-0.1115076
90	0x3cea94c9	0.0286354
91	0x3d9e8263	0.07739713
92	0x3ceaed45	0.028677592
93	0x3e94cc6c	0.29062212
94	0x3d998081	0.07495213
95	0x3e84ae0c	0.25914037
96	0x3edcacf0	0.4310069
97	0x3ef102c0	0.4707241
98	0x3eb0fbf0	0.34567213
99	0x3ebe802d	0.37207165
100	0x3e7f2909	0.24917997
101	0x3e8ea336	0.27858895
102	0x3d07ff4a	0.033202447
103	0x3dea7ded	0.114498
104	0x3df32b74	0.118735224
105	0x3ee888eb	0.4541696
106	0xbd09ff87	-0.033690955
107	0x3c547178	0.012966506
108	0xbddaa2a0	-0.106755495
109	0x3f55c35b	0.83501214
110	0x3d3ea925	0.046548028
111	0xbd333df9	-0.043760274
112	0xbc864fa4	-0.016395397
113	0xbc22d630	-0.009938762
114	0x3ceb9a46	0.028760087
115	0x3e3e7c52	0.18602112
116	0x3e9dfa46	0.30855006
117	0x3dcc8810	0.09986889
118	0xbd142c85	-0.03617527
119	0xbd6bd0e9	-0.05757228
120	0x3ed786d0	0.4209504
121	0x3d6fac4e	0.058513932
122	0x3d10e3ec	0.035373613
123	0x3f749a53	0.9554798
124	0x3d44668e	0.047949366
125	0x3e13308f	0.14373992
126	0xbdb64116	-0.08899133
127	0xbe37f8a8	-0.17965949
128	0xbdcd5954	-0.100268036
129	0x3d1fadbd	0.03898405
130	0xbc0f3fd8	-0.008743249
131	0x3db1923b	0.086704694
132	0x3f0ed9bd	0.5580099
133	0x3d931c1f	0.07183098
134	0x3e1f4167	0.15552293
135	0x3d2846a1	0.041082982
136	0x3e99b8ea	0.3002389
137	0x3ead9ad5	0.3390719
138	0x3eb2bbc5	0.34908882
139	0x3cd0d1fe	0.025490757
140	0xbbbf1baa	-0.0058321552
141	0xbd58b7a1	-0.052909497
142	0x3d419bbc	0.04726766
143	0x3d84ebe1	0.06490303
144	0x3dd07010	0.10177624
145	0x3c15ee45	0.009151046
146	0x3d309d99	0.043119047
147	0x3e01615c	0.12634796
148	0x3e14ac7a	0.1451892
149	0x3d7a3f4c	0.06109552
150	0x3d20347b	0.03911255
151	0xbcff6a0c	-0.031178497
152	0xbebf1634	-0.37321627
153	0xbe1c2f09	-0.15252317
154	0x3e2bd7de	0.16781566
155	0x3ca92da7	0.020651652
156	0xbcad3f62	-0.021148387
157	0xbe0a914b	-0.13531987
158	0x3db18a72	0.086689845
159	0x3e661e41	0.22472478
160	0x3cbc7c5a	0.023008514
161	0x3e8a912e	0.27063888
162	0x3e378d86	0.1792508
163	0x3dcad7a2	0.0990441
164	0x3e932ae3	0.28743657
165	0x3e8ae843	0.27130327
166	0xbc82ce3b	-0.015967479
167	0x3d78664c	0.060644433
168	0xbe474d78	-0.19463146
169	0x3f07ceaf	0.5304975
170	0x3e683a41	0.22678472
171	0xbdd39da7	-0.10332804
172	0x3efafa13	0.49018916
173	0x3e325be9	0.17417873
174	0x3d54788e	0.051872782
175	0x3d738beb	0.059459608
176	0x3ebf494f	0.37360618
177	0x3dc2b70c	0.0950757
178	0x3d3433b9	0.04399464
179	0x3f53d693	0.8274929
180	0x3e87edf5	0.26548734
181	0x3e5e304d	0.21698113
182	0x3ee16c4d	0.4402794
183	0x3ed955e8	0.42448354
184	0x3c63b457	0.013897977
185	0xbc9a0674	-0.018801905
186	0x3e56b690	0.2096808
187	0x3e90164f	0.2814202
188	0x3cc8fce4	0.02453465
189	0x3daadce6	0.08342914
190	0x3e82dbd1	0.25558332
191	0x3e8528dd	0.2600774
192	0xbd015696	-0.031576715
193	0x3e91cba2	0.28475672
194	0x3df79d19	0.12090511
195	0x3d15a8ee	0.036538057
196	0x3eea853a	0.4580477
197	0x3e0a816c	0.13525933
198	0x3e0640f6	0.13110718
199	0xbe0f96e7	-0.14022408
200	0xbee4172c	-0.4454893
201	0x3c7e1a82	0.01550925
202	0x3d1e7fc7	0.038696077
203	0x3ca6b5a1	0.02035028
204	0xbd820362	-0.063483015
205	0x3d5ada7f	0.05343103
206	0x3e771bf6	0.2413176
207	0x3edf2e01	0.43589786
208	0x3e3c5e3e	0.18395326
209	0x3e6c7e48	0.23095047
210	0x3e30e8ba	0.17276278
211	0x3e1eb81e	0.15499923
212	0x3ebb997a	0.3664053
213	0x3e83e3e7	0.25759813
214	0x3ca80ef4	0.020514943
215	0xbd5fcd5c	-0.054639205
216	0x3dab7977	0.08372777
217	0x3ecbb28e	0.39784664
218	0x3e9fe558	0.31229663
219	0x3d5f8e23	0.05457891
220	0x3e6dafc6	0.23211583
221	0x3e31f123	0.17377143
222	0xbd1862d6	-0.037203632
223	0x3e78b2ed	0.24287005
224	0x3e9b80eb	0.30371794
225	0xbd214b1b	-0.039378267
226	0x3dbd7744	0.09251264
227	0x3d78b122	0.060715802
228	0x3dc5b4a6	0.096535966
229	0x3da5ea09	0.08101279
230	0x3e8433c3	0.2582074
231	0xbdccb2fd	-0.09995077
232	0x3e12fce7	0.14354287
233	0x3cf9c5a7	0.030489756
234	0x3eff8b4f	0.49910972
235	0x3d29a58f	0.041417655
236	0x3c95ab05	0.018270025
237	0x3d3cc59f	0.046086904
238	0x3e17dac7	0.1482955
239	0x3ebf01f2	0.37306172
240	0x3a905937	0.0011012916
241	0x3e02bf4c	0.12768286
242	0x3c1bf100	0.009517908
243	0x3e038f42	0.12847617
244	0xbc3b4803	-0.011430743
245	0x3a0d8acb	0.0005399405
246	0x3e158747	0.14602385
247	0x3ce2ac52	0.02767006
248	0xbc8a4843	-0.01688016
249	0x3e3391bd	0.17536063
250	0x3d05beb3	0.032652568
251	0x3ec6a2aa	0.38795978
252	0x3b5a416b	0.0033303152
253	0x3ce4d4cf	0.027933506
254	0x3de0e606	0.109813735
255	0xbd1f2069	-0.038849268

bias f4 [3]
0	0xc0af0ac7	-5.4700656
1	0xc0b00c0e	-5.5014715
2	0xc0b956c5	-5.791842

weight f4 [256, 18]
0	0x3f3c7597	0.7361693
1	0x3d801d0e	0.06255542
2	0xbee2c410	-0.4429021
3	0xbf3c1c5f	-0.7348079
4	0x3dfa1caa	0.122124985
5	0x3f213f0e	0.6298684
6	0x3df6792a	0.12034829
7	0x3e0af399	0.13569488
8	0xbe31f85d	-0.173799
9	0x3d8105f0	0.062999606
10	0xbed04c41	-0.40683177
11	0x3f2e3305	0.680466
12	0xbed32800	-0.41241455
13	0x3eba5600	0.36393738
14	0x3e030246	0.12793836
15	0x3afdf6f2	0.0019375964
16	0xbe0b4ba3	-0.13603072
17	0x3e54104d	0.20709343
18	0x3f9c9098	1.2231627
19	0x3d4899ac	0.048974678
20	0xbe6512fd	-0.22370525
21	0xbefbc372	-0.4917255
22	0xbddcdf04	-0.10784724
23	0x3fc0d468	1.5064821
24	0xbdb03446	-0.0860372
25	0x3f81dc11	1.0145284
26	0x3e3eb59d	0.18623967
27	0x3e9e764a	0.30949622
28	0xbe5ebef4	-0.2175253
29	0x3ee63262	0.44960314
30	0x3e685b27	0.22691022
31	0x3de30901	0.11085702
32	0xbe970579	-0.29496363
33	0xbc9a995e	-0.01887196
34	0xbe122e9c	-0.14275593
35	0x3d1e9adb	0.0387219
36	0xc2c8891c	-100.26779
37	0x3d30765c	0.043081626
38	0x41a99220	21.19635
39	0xc2b83ae1	-92.115
40	0x3e022dbf	0.12712763
41	0xc2bd7285	-94.72367
42	0xbe6cf7f9	-0.23141469
43	0xc2e27cd3	-113.2438
44	0x429d0b14	78.52164
45	0xc11c2e28	-9.761269
46	0x423032e1	44.049686
47	0xc1d19d0d	-26.201685
48	0x427f8546	63.88015
49	0x42ab225f	85.56713
50	0x42a75e25	83.683876
51	0xc2d0813d	-104.25242
52	0x428dd5f2	70.91786
53	0x428ba37c	69.819305
54	0xbeeda54f	-0.46415183
55	0xbdc45902	-0.095872894
56	0xbe6c3e23	-0.23070578
57	0xbf069baf	-0.52581304
58	0x3cb55c48	0.02213873
59	0xbd5bc486	-0.053654216
60	0xbe6217f4	-0.2207945
61	0x3f2d9c4f	0.67816633
62	0xbe3a5c13	-0.18199186
63	0x3d9ae6d9	0.07563562
64	0xbed6cbd0	-0.41952372
65	0x3e154076	0.14575371
66	0xbdfedc9a	-0.1244442
67	0x3d40214f	0.046906766
68	0xbdb3fcf3	-0.087884806
69	0xbe61aac1	-0.22037794
70	0xbba1ef89	-0.004941885
71	0x3db76ad4	0.08955923
72	0x3f0c3f7d	0.54784375
73	0x3e64c68b	0.22341363
74	0xbecf9a6c	-0.40547502
75	0xbf31bb42	-0.6942636
76	0x3e35f7d7	0.17770325
77	0x3f74d57a	0.9563824
78	0xbd86ca38	-0.06581539
79	0x3fae156b	1.3600286
80	0xbeb3e047	-0.35132048
81	0x3ec97692	0.39348274
82	0x3c3560fa	0.011070484
83	0x3f3da4dc	0.7407968
84	0xbdfec65b	-0.12440177
85	0x3ebb21a8	0.36549115
86	0xbea4088a	-0.32037765
87	0xbe5cbd99	-0.21556701
88	0x3e0d9ca0	0.13829279
89	0xbc26bee5	-0.010177349
90	0xc0f3cdcd	-7.618872
91	0x3e2d6a6f	0.16935132
92	0x414e1128	12.879189
93	0xc271512f	-60.32928
94	0xbdf3f47b	-0.11911865
95	0xc24d489c	-51.320908
96	0xbe220b8c	-0.15824717
97	0xc23aa050	-46.656555
98	0x41c71591	24.88553
99	0xc15032f6	-13.012442
100	0xbff6a48f	-1.9268969
101	0xc1c3c25e	-24.469906
102	0x425a70ac	54.61003
103	0x423c00b8	47.0007
104	0x42114f2a	36.32731
105	0xc06369a5	-3.553323
106	0xc1b7bc4c	-22.966942
107	0xc231e8a2	-44.47718
108	0xc0b0358c	-5.5065365
109	0xbda732e2	-0.08164002
110	0x40c71e4a	6.2224474
111	0xc30943e8	-137.26526
112	0xbe2dde0c	-0.16979235
113	0xc2ab9678	-85.793884
114	0x3d792da4	0.060834542
115	0xc28dec08	-70.961
116	0x42540d3e	53.01293
117	0x3f41f2bd	0.75761014
118	0x419aa64e	19.331203
119	0xc248ede8	-50.23233
120	0x4288b35c	68.35031
121	0x42efd9ea	119.92561
122	0x4228997d	42.14989
123	0xc272c968	-60.696686
124	0x41382d29	11.511025
125	0x42a6618c	83.19052
126	0xc0b296d1	-5.58091
127	0x3d1dded4	0.038542584
128	0x3df0d08b	0.117585264
129	0xc127a4cb	-10.477733
130	0xbe04d37c	-0.129713
131	0x3f0cd4f0	0.55012417
132	0xbe5bdb6b	-0.2147042
133	0x41528053	13.156329
134	0xc10c54bd	-8.770688
135	0x4083ba1d	4.116469
136	0xc0a8dcc8	-5.276951
137	0x40a25df4	5.073969
138	0xc0950ebc	-4.6580486
139	0xbd999f25	-0.075010575
140	0xc0d3fb39	-6.624417
141	0x400575f3	2.085324
142	0xbfc9f9b5	-1.577933
143	0x408ab17c	4.3341656
144	0x3f3a00ba	0.7265736
145	0xbe6bfe28	-0.23046172
146	0xc008b596	-2.1360831
147	0x3e52558a	0.20540443
148	0xbe53fccc	-0.20701903
149	0x3fac23cf	1.3448428
150	0xbdcc0928	-0.09962684
151	0xbfbaefd5	-1.4604441
152	0x3f95fe7f	1.1718291
153	0x3f8a93c8	1.0826349
154	0xbe313b23	-0.17307715
155	0x3f7aa75c	0.9791162
156	0xbf27ede0	-0.65597343
157	0xbe5bf485	-0.21479996
158	0xbf74937e	-0.95537555
159	0x3d055855	0.032554943
160	0xbe868b04	-0.26277936
161	0x3d7ecef2	0.062209077
162	0x4000bc7a	2.0115037
163	0xbe365373	-0.17805271
164	0x3f86687d	1.0500637
165	0x3f0df98b	0.554589
166	0x3e126a9f	0.14298485
167	0x3edb836f	0.42873713
168	0xbe246bc8	-0.1605674
169	0x40853c64	4.163622
170	0xc090496a	-4.5089617
171	0x3d7394df	0.059468146
172	0xc00c60f8	-2.1934185
173	0x3ccb10c8	0.024788275
174	0x3ebfef4f	0.37487265
175	0x3e8da839	0.27667406
176	0xbf7beae1	-0.9840527
177	0xbe907f76	-0.28222245
178	0xbd0d00eb	-0.034424704
179	0x3e9ed42a	0.31021243
180	0x3f807072	1.0034316
181	0x3c3a2cc0	0.011363208
182	0xbf1d0c81	-0.61347204
183	0xbf109936	-0.5648378
184	0xbe6e3d51	-0.23265578
185	0x3e810d44	0.25205433
186	0x3e4ffb01	0.20310594
187	0x3f98c517	1.1935147
188	0x3f338387	0.7012257
189	0x3ede2f84	0.43395627
190	0xbe9b98b9	-0.30389956
191	0x3ed7a446	0.42117518
192	0xbcee12dd	-0.02906173
193	0x3e497c6d	0.19676371
194	0xbf14dbe9	-0.58148056
195	0x3e274506	0.16334924
196	0xbe29ea49	-0.16593279
197	0xbd3e81cd	-0.046510506
198	0xbefa22d7	-0.48854706
199	0xbe6be916	-0.23038134
200	0xbe980e3c	-0.2969836
201	0xbed878da	-0.42279702
202	0xbe3474bb	-0.17622654
203	0x3f44ae12	0.7682811
204	0x3de4c7ee	0.11170946
205	0x3f6530ad	0.895274
206	0x3dcaed86	0.09908585
207	0xbd2c70fe	-0.042099945
208	0xbeffb3db	-0.49941906
209	0x3e7bd2b0	0.2459209
210	0xbe4df44f	-0.20112728
211	0x3e5f6fa6	0.21819934
212	0xbff77953	-1.93339
213	0xbde08ba3	-0.109641336
214	0xbd3378b7	-0.043816295
215	0x3d737d6a	0.059445776
216	0x3eabbaec	0.33541048
217	0x3e13d79d	0.14437719
218	0xbe8cff3b	-0.27538475
219	0x3e334178	0.17505443
220	0x3e0c4a99	0.13700332
221	0x3f0dd51e	0.55403316
222	0x3e22a305	0.158825
223	0x3eaf6c11	0.34262136
224	0xbdecae91	-0.115567334
225	0xbe666e59	-0.22503032
226	0xbef34612	-0.47514397
227	0xbe0c196c	-0.13681573
228	0xbb47db1f	-0.0030495597
229	0x3e200d2d	0.15630026
230	0x3d34c6e7	0.044135
231	0x3df8c0e8	0.12146169
232	0x3cb56322	0.022141997
233	0xbe22f31e	-0.15913054
234	0x40736c1b	3.8034732
235	0xbda2520e	-0.07925807
236	0xc09fc3df	-4.99266
237	0x3fcb7187	1.5894021
238	0xbe1037a6	-0.14083728
239	0x3f81f7bc	1.0153728
240	0xbcb64390	-0.022249013
241	0x40d99c02	6.800294
242	0xc0d1b138	-6.552883
243	0xc0b07884	-5.5147114
244	0xc08207f7	-4.0634723
245	0xc09b3f79	-4.851498
246	0xc09c71a4	-4.888872
247	0xbf172800	-0.5904541
248	0xc05a07ed	-3.4067338
249	0xbe949509	-0.29019955
250	0xbe0c8dc8	-0.1372596
251	0x3e9014cf	0.28140876
252	0x437d9f68	253.62268
253	0xbdde2878	-0.108475626
254	0x40c64f13	6.1971526
255	0x410cc5bf	8.798278
