data/AntPyBulletEnv-v0_sac_grad_False/AntPyBulletEnv-v0_sac_grad_False_s0/pyt_save/model.pt (torch_old, 920332 bytes, 18 tensors)

weight f4 [256, 28]
0	0x3f37e175	0.71828395
1	0x40065911	2.0991862
2	0xbefa5d7c	-0.48899448
3	0xbe9cc467	-0.30618593
4	0xbe8259eb	-0.25459227
5	0xbeee9b83	-0.4660302
6	0x3e717382	0.23579219
7	0x3ef4bd30	0.4780059
8	0x3e65e694	0.2245124
9	0xbef555a3	-0.47916898
10	0x3e92e844	0.2869283
11	0x3bff42de	0.0077899536
12	0xbdd1340a	-0.10215004
13	0xbeb3d5d8	-0.35124087
14	0xbf92dc86	-1.1473548
15	0xbe1d6f30	-0.15374446
16	0x3ead7be2	0.33883578
17	0x3c41b6e3	0.011823389
18	0xbf46917c	-0.7756574
19	0x3f84297f	1.0325164
20	0x3da2524e	0.079258546
21	0x3ec5b7b3	0.38616714
22	0x3f913dd6	1.1346996
23	0x3e785abe	0.24253365
24	0xbf9f034b	-1.242288
25	0x3eadc10e	0.33936352
26	0xbc27b370	-0.010235652
27	0x3e8c7968	0.27436376
28	0xbed4d8bf	-0.41571614
29	0xbe429b3d	-0.19004531
30	0xbea175e0	-0.31535244
31	0xbedd5857	-0.4323146
32	0x3ef473a0	0.47744465
33	0xbf465883	-0.7747881
34	0xbed74bef	-0.4205012
35	0x3f912f9c	1.1342654
36	0xbc4d0153	-0.012512523
37	0x3df95577	0.12174504
38	0xbe4d0bc8	-0.20024025
39	0xbca37f96	-0.019958299
40	0x3f6e5b1c	0.9310777
41	0xbe899b0d	-0.26876107
42	0xbd9d14d8	-0.07669991
43	0xbf29560f	-0.6614694
44	0xbd6ff6d4	-0.058585003
45	0x3d47c8fd	0.04877566
46	0xbd16375c	-0.03667389
47	0x3ebee917	0.37287208
48	0xbed66af2	-0.41878468
49	0x3ea2f3c8	0.31826615
50	0xbee8389e	-0.45355695
51	0xbe371916	-0.17880663
52	0x3e55ffde	0.20898387
53	0xbf1448cc	-0.5792358
54	0x3ec564e5	0.3855354
55	0xbf397b9d	-0.72454244
56	0xbcbef405	-0.023309717
57	0x3ef6b951	0.4818826
58	0xbe2d52ca	-0.16926113
59	0x3e2d7c11	0.16941859
60	0x3eadb79e	0.3392915
61	0x3fa123ab	1.258901
62	0x3f81f60c	1.0153213
63	0xbb936535	-0.004498149
64	0x3ca4b7fe	0.020107266
65	0x3f219a54	0.6312611
66	0xbd6a5383	-0.05720855
67	0x3f416471	0.75543886
68	0x3e1ef8f9	0.15524663
69	0x3e1b0520	0.15138674
70	0x3dfbb5b2	0.12290515
71	0x3fb85638	1.4401312
72	0x3f9e7ca1	1.2381784
73	0x3e7f8533	0.24953155
74	0x3f677555	0.9041341
75	0x3f03e282	0.515175
76	0xbc622ac7	-0.013804144
77	0x3e4b876a	0.19875875
78	0x3ea2f8bf	0.31830403
79	0xbfae39cc	-1.3611388
80	0xbf5db5d5	-0.8660558
81	0xbe18d80d	-0.14926167
82	0xbece8438	-0.4033525
83	0xbf9ec869	-1.240491
84	0x3d2d4232	0.042299457
85	0xbeefcace	-0.46834415
86	0xbeec8730	-0.4619689
87	0x3eca2985	0.39484802
88	0xbf1f4452	-0.62213624
89	0x3d0113ec	0.03151314
90	0x3f85cb63	1.0452694
91	0xbec5f02c	-0.386598
92	0xbebbd0c5	-0.36682716
93	0xbe28d355	-0.16486867
94	0xbdb5e089	-0.08880717
95	0xbe9c6d8b	-0.30552325
96	0x3e6a952f	0.22908472
97	0xbdb4a9e1	-0.08821464
98	0xbf255245	-0.6457866
99	0xbf0bf9e0	-0.54678154
100	0xbf2668a0	-0.65003395
101	0xbefbeed4	-0.4920565
102	0x3f11c09d	0.5693453
103	0xbe494262	-0.1965423
104	0xbe16a992	-0.14713123
105	0xbe2f73f8	-0.17134082
106	0xbe99f22a	-0.3006757
107	0x3f04002a	0.5156275
108	0x3e504ef3	0.20342617
109	0x3e0a46a8	0.13503516
110	0x3e631f5b	0.2217993
111	0x3f2224d2	0.63337433
112	0x3daaeb6d	0.08345685
113	0x3feabc08	1.8338633
114	0xbf1689b5	-0.58803874
115	0x3ed0fcba	0.40817815
116	0xbede47fd	-0.43414298
117	0x3e7f9bc6	0.24961767
118	0x3f52b83c	0.8231237
119	0xbd8a1c5a	-0.06743689
120	0x3f3ee5bd	0.745693
121	0xbdd73f21	-0.10510088
122	0x3e3d98b8	0.18515289
123	0x3d797864	0.06090583
124	0xbddd3c13	-0.10802474
125	0x3f36026a	0.71097434
126	0xbe6d6524	-0.23183113
127	0xbdbf2eed	-0.09335122
128	0x3e14016d	0.14453669
129	0x3e7f9c4d	0.24961968
130	0x3e0a420b	0.13501756
131	0xbe96cfda	-0.29455453
132	0x3f1fe9a3	0.62465876
133	0x3f2b9f81	0.6704026
134	0x3f1618ae	0.5863141
135	0x3f64dfdd	0.8940409
136	0x3e855711	0.2604299
137	0x3d4d5fa8	0.050140053
138	0xbdbe7810	-0.09300244
139	0xbda3126d	-0.07962499
140	0x3f1fb80a	0.62390196
141	0x3e9c5a5b	0.30537686
142	0x3d80f1b6	0.06296103
143	0xbf5f55a6	-0.87240064
144	0x4045dfa6	3.0917754
145	0x3dca5cdb	0.09880992
146	0x3f7e32dc	0.99296355
147	0x3ea401df	0.32032678
148	0xbf4bfe90	-0.79685307
149	0xbdb1de9c	-0.086850375
150	0xbe8ac6d9	-0.27104834
151	0xbec50f80	-0.38488388
152	0x3eec812a	0.46192294
153	0x3e2e8a7a	0.17045012
154	0xbf3a8cc2	-0.7287103
155	0x3ebef770	0.37298155
156	0xbe824bd8	-0.2544849
157	0x3e71fd5a	0.23631802
158	0xbf5dd7d4	-0.8665745
159	0x3f198436	0.5996736
160	0xbeef6db4	-0.46763384
161	0x3f133519	0.57502896
162	0xbeb90eb5	-0.36144033
163	0xbeedad0c	-0.46421087
164	0xbe932381	-0.28738025
165	0xbf5128c9	-0.8170286
166	0x3bdaa73b	0.0066727675
167	0x3e5cef71	0.21575715
168	0xbdb63a20	-0.08897805
169	0x3ff3f9ad	1.906057
170	0xbc68c6c2	-0.014207544
171	0x3ee1c683	0.44096765
172	0xbe83be5e	-0.25731176
173	0xbf369f23	-0.71336573
174	0xbe9ef2ec	-0.3104471
175	0xbf182234	-0.5942719
176	0xbf333c97	-0.7001433
177	0xbd936030	-0.07196081
178	0x3f5c50e6	0.8606094
179	0xbdf960a7	-0.12176638
180	0xbf537fb6	-0.82616746
181	0xbdf76c9d	-0.12081263
182	0x3d965ac0	0.07341528
183	0xbf44a071	-0.76807314
184	0x3f1efe89	0.6210714
185	0xbe3daa8f	-0.18522094
186	0xbe152b2e	-0.14567253
187	0x3f2531a0	0.64528847
188	0xbe2a69ef	-0.16641973
189	0xbe9c27e6	-0.3049919
190	0x3ea76e26	0.32701224
191	0xbd01ff6c	-0.03173773
192	0xbf8b731c	-1.0894504
193	0x3d043677	0.032278504
194	0xbf22413a	-0.6338078
195	0xbf527bdf	-0.8222026
196	0x3ec8494b	0.39118418
197	0xbece0055	-0.40234628
198	0xbf02dea6	-0.51120985
199	0xbe528438	-0.2055825
200	0xbf62ccb3	-0.88593596
201	0x3fd6c976	1.6780231
202	0x3f593c37	0.84857506
203	0xbf22ab1a	-0.6354233
204	0x3ddb3dcd	0.10705147
205	0x3d36bae9	0.044611845
206	0xbe5877cc	-0.21139449
207	0x3d900780	0.070326805
208	0x3f25eccc	0.6481445
209	0x3ed75bae	0.42062134
210	0xbd8250a4	-0.06363037
211	0x3e81d63e	0.25358766
212	0x3ee5ef19	0.4490898
213	0x3eb65311	0.3561025
214	0x3db1acb8	0.086755216
215	0x3ea309ef	0.31843516
216	0x3d108c06	0.035289787
217	0x3f02f262	0.51151097
218	0xbd8c6a67	-0.06856232
219	0x3d14a680	0.0362916
220	0xba949dfa	-0.0011338585
221	0x3f0398c3	0.5140497
222	0x3d1640a0	0.036682725
223	0x3ea32fcd	0.31872407
224	0xbd530204	-0.051515594
225	0xbca0d405	-0.019632349
226	0xbe3ac241	-0.18238164
227	0xbf692b4c	-0.9108169
228	0x3f610ea7	0.8791298
229	0xbf95c6a0	-1.170124
230	0x3fdc9a82	1.7234652
231	0x3ee14777	0.43999836
232	0x3f1af2e3	0.60526866
233	0x3f0db223	0.5534994
234	0xbd417f4d	-0.047240544
235	0xbf1d9bff	-0.61566156
236	0xbe1ac558	-0.15114343
237	0x3f32f637	0.69906944
238	0xbf1980df	-0.59962267
239	0x3f2761b7	0.65383476
240	0x3e480d78	0.19536388
241	0x3f32c9fb	0.6983945
242	0x3ec2ec6c	0.38071
243	0xbf02fd30	-0.51167583
244	0x3f09b9c1	0.5379906
245	0x3f1d75c3	0.61507815
246	0x3e9fcb1e	0.31209654
247	0xbf6544de	-0.8955821
248	0x3eeed86d	0.46649495
249	0xbef00719	-0.46880415
250	0x3dd3cabe	0.103414044
251	0x3e0a715e	0.13519809
252	0x3e085651	0.13314177
253	0xbeabe84a	-0.3357566
254	0xbefc29e5	-0.49250713
255	0xbd814cb9	-0.06313462

bias f4 [256]
0	0xbede71f3	-0.4344631
1	0xbe83fc88	-0.25778604
2	0xbcd0bb74	-0.02548001
3	0xbed903b7	-0.42385647
4	0xbe9e3363	-0.3089858
5	0xbe3c97b0	-0.18417239
6	0xbe420803	-0.18948369
7	0xbec8c4e5	-0.3921272
8	0xbe577037	-0.210389
9	0xbed92a27	-0.42414972
10	0xbe84b27e	-0.2591743
11	0xbeb96cc0	-0.36215782
12	0xbe42211f	-0.18957947
13	0xbf628fc8	-0.8850064
14	0xbf7a0e5a	-0.9767815
15	0xbd5de6fc	-0.054175362
16	0xbe1dc38f	-0.15406631
17	0xbf6f26bf	-0.93418497
18	0xbd6dd074	-0.058060125
19	0xbee5993c	-0.4484347
20	0xbebef0fe	-0.37293237
21	0xbe4121de	-0.18860576
22	0xbe316fd4	-0.17327815
23	0xbe0965c6	-0.1341773
24	0xbf020a9e	-0.5079745
25	0xbecfe5c9	-0.40605
26	0x3e19df7b	0.15026657
27	0xbe943664	-0.28947747
28	0xbeb2ae13	-0.34898433
29	0x3d437817	0.04772195
30	0xbe8babef	-0.27279612
31	0xbd69e4c0	-0.05710292
32	0xbed07e0a	-0.4072116
33	0xbe6a628f	-0.2288916
34	0xbf1f1138	-0.6213565
35	0xbec53857	-0.38519546
36	0xbf04e481	-0.5191117
37	0xbf2fe62d	-0.68710595
38	0xbe5f4bfc	-0.2180633
39	0x3c89a4da	0.01680224
40	0x3edec4b3	0.43509445
41	0x3e85762d	0.26066723
42	0xbf08d0d1	-0.5344363
43	0xbf090d44	-0.53535867
44	0xbe061a9b	-0.13096087
45	0xbec36cee	-0.38169044
46	0xbf0fa9c1	-0.561184
47	0xbef0ed89	-0.47056225
48	0xbf23ebfb	-0.6403195
49	0xbf304cf6	-0.68867433
50	0xbe009edc	-0.125606
51	0x3b8b336c	0.0042480733
52	0xbe2e222c	-0.17005223
53	0xbf69500f	-0.91137785
54	0xbed8fc80	-0.42380142
55	0x3e09f1a7	0.1347109
56	0xbe2779c4	-0.16355044
57	0xbe635c6a	-0.22203222
58	0xbeb0e1e8	-0.34547353
59	0xbed12910	-0.4085164
60	0xbd9f1866	-0.077683255
61	0xbebf21a7	-0.37330362
62	0xbe2362ed	-0.15955706
63	0xbf3e574b	-0.7435195
64	0xbe3427a5	-0.17593248
65	0x3e4e0c05	0.20121773
66	0x3d72f270	0.059313238
67	0xbeefe867	-0.46856996
68	0xbd282aea	-0.04105655
69	0xbedc8a56	-0.43074292
70	0xbeef8f89	-0.46789196
71	0xbd3dc5d9	-0.04633126
72	0xbea17db7	-0.31541225
73	0xbeacfe98	-0.3378799
74	0xbec71a4f	-0.3888726
75	0xbe50881e	-0.20364425
76	0x3d3a66df	0.04550826
77	0xbee72bbe	-0.4515056
78	0xbf2fa396	-0.6860899
79	0xbf1a84b5	-0.60358745
80	0xbf03c65f	-0.51474565
81	0xbf225c07	-0.6342167
82	0xbf4357af	-0.7630567
83	0xbf2621db	-0.6489541
84	0xbd4a12e1	-0.04933441
85	0x3dd4193e	0.10356377
86	0xbf1a82cf	-0.6035585
87	0xbf0b83fe	-0.5449828
88	0xbd755bd7	-0.05990204
89	0xbf259fa2	-0.64696705
90	0xbe804caf	-0.25058505
91	0xbf24a14e	-0.6430863
92	0xbec06cee	-0.37583107
93	0xbf52efbe	-0.8239707
94	0xbe2a0a04	-0.16605383
95	0x3f2e0046	0.6796917
96	0xbdfc65de	-0.12324117
97	0x3e71548b	0.23567407
98	0x3d79b215	0.060960848
99	0xbe964ea1	-0.29356864
100	0xbf108705	-0.56456023
101	0xbe334f94	-0.17510825
102	0xbf06e98d	-0.5270012
103	0xbf17a18a	-0.59230864
104	0xbf195c12	-0.59906113
105	0xbf6058fb	-0.87635773
106	0xbe98d12c	-0.29847085
107	0xbe4b2695	-0.19838937
108	0xbe94f023	-0.2908946
109	0xbf07b70d	-0.5301369
110	0xbeedd663	-0.46452627
111	0xbf2e58ba	-0.68104136
112	0xbf3c5e0a	-0.7358099
113	0xbf13f79c	-0.57799697
114	0x3eba7684	0.36418545
115	0xbe8c9dd3	-0.2746416
116	0xbead2e5d	-0.33824435
117	0xbe3f70f5	-0.18695433
118	0xbf147fec	-0.58007693
119	0xbcef8249	-0.02923693
120	0xbf138c90	-0.57636356
121	0xbefcb09a	-0.49353486
122	0xbed4074b	-0.41411814
123	0x3e03d3ef	0.12873815
124	0x3f068251	0.525426
125	0xbed763e7	-0.42068407
126	0xbf07459b	-0.52840585
127	0xbe96ffbe	-0.2949199
128	0xbd1258a3	-0.03572906
129	0xbecaa295	-0.39577165
130	0xbeebd057	-0.46057388
131	0x3db7bb6a	0.08971293
132	0xbeada0c6	-0.33911723
133	0xbeab4e66	-0.3345825
134	0xbf009fb9	-0.5024372
135	0xbe6f32a2	-0.23359159
136	0xbef56992	-0.47932106
137	0x3d90d077	0.070710115
138	0xbe7dcff7	-0.24786364
139	0xbe120977	-0.14261423
140	0xbe4f64ac	-0.20253247
141	0xbf005812	-0.50134385
142	0xbd3332f5	-0.04374977
143	0xbd181712	-0.037131377
144	0x3e2a08fe	0.16604993
145	0xbf0cbd0e	-0.54975975
146	0xbe9ad58f	-0.30241057
147	0xbd731d37	-0.059354033
148	0xbe8d59a8	-0.27607465
149	0xbf05c8f9	-0.52259785
150	0xbe33d1cb	-0.17560498
151	0xbe963a44	-0.29341328
152	0xbe9f4ffe	-0.31115717
153	0xbecdfc72	-0.40231663
154	0xbe8c5e7b	-0.27415833
155	0xbeda3d65	-0.42624965
156	0xbe79daf0	-0.24399924
157	0xbf154184	-0.58303094
158	0xbea98303	-0.33107767
159	0xbe1c8543	-0.1528521
160	0xbee9c460	-0.45657635
161	0xbea93dea	-0.3305505
162	0xbf090023	-0.53515834
163	0xbde50ac9	-0.11183698
164	0xbf521bba	-0.8207356
165	0xbe220986	-0.15823945
166	0xbf4d56de	-0.80210674
167	0xbd885eca	-0.066587046
168	0xbe9bf741	-0.30462077
169	0xbeb555a3	-0.35416898
170	0xbe2c6c3d	-0.16838165
171	0xbf353840	-0.70788956
172	0xbdcd5697	-0.10026281
173	0xbee0ea17	-0.43928596
174	0x3ea9e3d9	0.33181646
175	0x3d1f627a	0.038912274
176	0x3f018695	0.5059598
177	0xbf432c20	-0.76239204
178	0xbed3659c	-0.4128846
179	0xbe4058f5	-0.18783934
180	0xbf039996	-0.5140623
181	0xbef86570	-0.4851489
182	0x3d39e5c7	0.04538515
183	0xbf002003	-0.50048846
184	0xbebf7f92	-0.37402016
185	0xbf2b693c	-0.6695745
186	0xbf13b10f	-0.57692045
187	0xbf0b9fc7	-0.54540676
188	0xbe6f3da7	-0.23363362
189	0xbf5f58c7	-0.8724484
190	0x3cb0d4ea	0.0215859
191	0xbf0fd58b	-0.56185216
192	0xbeb7cb3c	-0.35897243
193	0xbe1d888d	-0.15384121
194	0xbeda2b16	-0.42610997
195	0xbef37818	-0.47552562
196	0xbe88255d	-0.26591006
197	0xbcdc808c	-0.026916765
198	0xbf26c0ff	-0.6513824
199	0xbdf3c59e	-0.11902927
200	0xbe45c8c0	-0.19314861
201	0xbec7452d	-0.38919964
202	0xbf21a6dc	-0.6314523
203	0xbe027cf7	-0.12742983
204	0xbf1a1b3b	-0.601978
205	0xbefcad01	-0.49350742
206	0xbe08f57b	-0.13374893
207	0xbeff702d	-0.4989027
208	0xbf0d519a	-0.5520264
209	0xbf021458	-0.5081229
210	0xbe3cd7c9	-0.1844169
211	0xbeccc8fe	-0.39997095
212	0xbeda7b06	-0.42671984
213	0xbe2aadce	-0.16667864
214	0x3e4141dc	0.1887278
215	0xbe9c7ef2	-0.30565602
216	0xbedb3a61	-0.42817977
217	0xbeba6427	-0.36404535
218	0xbf033d9e	-0.51265895
219	0xbe912cb5	-0.2835442
220	0xbe1dbd9d	-0.15404363
221	0xbe8444b5	-0.2583367
222	0xbf3fed7a	-0.74971735
223	0xbe52385d	-0.20529313
224	0xbebb7a1f	-0.36616609
225	0xbeabee36	-0.33580178
226	0xbd689a47	-0.056787755
227	0xbe472e12	-0.19451168
228	0x3ea45388	0.3209498
229	0xbebb4856	-0.36578625
230	0xbe5f8f42	-0.21831992
231	0xbf001ce3	-0.5004408
232	0xbea02f1f	-0.3128595
233	0xbeec77b5	-0.4618508
234	0x3e943465	0.28946224
235	0xbf4245fb	-0.7588803
236	0xbe24d033	-0.16095047
237	0x3de10fa3	0.109893106
238	0xbedb001d	-0.42773524
239	0xbd348b7a	-0.044078328
240	0xbe373900	-0.17892838
241	0xbe6c4e1b	-0.2307667
242	0xbea4c861	-0.32184127
243	0x3c832101	0.016006948
244	0xbe6e89d2	-0.23294762
245	0xbf0ed5b8	-0.5579486
246	0xbdb874b2	-0.09006633
247	0xbe1a3b02	-0.15061572
248	0xbf0ba3be	-0.54546726
249	0x3e426a9a	0.18985978
250	0xbf03cf26	-0.5148796
251	0xbef3ae95	-0.47594133
252	0xbef771e2	-0.48329073
253	0x3d2a8616	0.04163178
254	0x3f0ba958	0.54555273
255	0x3f469e6c	0.7758548

weight f4 [256, 256]
0	0xbbcc5791	-0.0062360247
1	0xbd5e4fa2	-0.054275163
2	0x3d387704	0.045035377
3	0xbd872950	-0.065996766
4	0xbccb7fb9	-0.024841176
5	0x3c060d68	0.008181907
6	0xbb01183e	-0.0019698287
7	0xbcdb81fe	-0.026795384
8	0xbc457a18	-0.012053035
9	0xbd69fd20	-0.057126164
10	0xbd551046	-0.052017473
11	0x3d36f020	0.044662595
12	0xbd1cb303	-0.038256656
13	0xbe1d2ce8	-0.15349162
14	0xbc7d9858	-0.015478216
15	0xbd8b67bf	-0.06806897
16	0xbd8d47b1	-0.0689844
17	0x3d056d66	0.032575034
18	0xbd3ee2f3	-0.046603154
19	0x3ca46e95	0.02007226
20	0x3d43ef9e	0.04783594
21	0xbd70de84	-0.058805957
22	0xbd96f722	-0.073713556
23	0xbc50798c	-0.0127242915
24	0x3d07c0a8	0.033142716
25	0xbd8a6bf4	-0.06758872
26	0xbd34f7cd	-0.044181634
27	0x3ba54f0e	0.0050448244
28	0xbcf14ed8	-0.029456541
29	0xbdc1a07f	-0.0945444
30	0xbd71ac46	-0.059002183
31	0xbc29f23c	-0.010372695
32	0xbdab731a	-0.08371563
33	0xbd24ed40	-0.04026532
34	0x3d042852	0.032265015
35	0xbc4cc187	-0.012497312
36	0x3cf17849	0.029476302
37	0xbc6fcd2c	-0.014636319
38	0x3c5dd20f	0.013538851
39	0xbda0dc97	-0.07854574
40	0x3c77cb6a	0.015124181
41	0xbc8219ba	-0.015881408
42	0x3c7fe3c1	0.015618266
43	0x3d301fc1	0.042999033
44	0xbdb6927a	-0.08914657
45	0xbd649e40	-0.05581498
46	0xbd87a2b6	-0.066228315
47	0xbc8a2c1a	-0.016866732
48	0xbc88b070	-0.016685694
49	0xbd1ecdd4	-0.03877051
50	0xbd696430	-0.056980312
51	0xbdaa3dd5	-0.08312575
52	0x3d5f44b8	0.054508895
53	0xbde1d0c2	-0.110261455
54	0xbd7c4e20	-0.061597943
55	0x3d5b08d4	0.053475216
56	0xbd2a7a15	-0.041620333
57	0x39c1a100	0.00036931783
58	0x3d1565a9	0.036473904
59	0xbd2d02b6	-0.042238913
60	0xbde0888f	-0.109635465
61	0xbd08c2e5	-0.03338899
62	0x3d780a82	0.060556896
63	0x3bdbb2cc	0.006704664
64	0x3c8ef348	0.01744999
65	0xbcd9f5cd	-0.026606465
66	0xbceef88a	-0.029171247
67	0xbdb096d2	-0.08622517
68	0x3c5be090	0.013420239
69	0x3cdf9109	0.027290838
70	0xbca956fb	-0.020671358
71	0xbd43ba84	-0.047785297
72	0xbd305480	-0.043049335
73	0xbd26bcdd	-0.040707458
74	0xbcd3cbff	-0.025854109
75	0x3d0f509d	0.03498899
76	0xbd7f3504	-0.06230642
77	0x3c775148	0.015095063
78	0xbd9f5c1d	-0.07781241
79	0xbd06dd6f	-0.03292602
80	0xbd2c9af8	-0.042139977
81	0xbbae1daa	-0.005313595
82	0xbd7072d9	-0.058703277
83	0x3c5c6300	0.013451338
84	0xbdb45088	-0.088044226
85	0xbc7081ca	-0.014679382
86	0xbb290a08	-0.0025793333
87	0xbd2d8d23	-0.042370927
88	0x3b64eae7	0.0034930052
89	0xbd2e142a	-0.0424997
90	0xbd8dd2e0	-0.06924987
91	0xbd274757	-0.04083952
92	0x3d41fafe	0.047358505
93	0xbd9bea91	-0.07613099
94	0xbcaf9d59	-0.021437334
95	0xbd5c7c91	-0.053829733
96	0x3b576a80	0.0032869875
97	0xbbafdb53	-0.0053667217
98	0xbda937cc	-0.082625955
99	0xbcb8b2e6	-0.022546243
100	0x3bb0b5dc	0.005392773
101	0xbcd8e218	-0.026474997
102	0x3cbec670	0.023287982
103	0xbd097d49	-0.033566747
104	0x3d0f9150	0.03505069
105	0xbce39a84	-0.02778364
106	0x3ca32a30	0.019917578
107	0x3b6266a4	0.0034546042
108	0xbb9b0c3f	-0.0047316845
109	0xbdcded78	-0.10055059
110	0xbd30ae8f	-0.043135222
111	0xbd4dfb6f	-0.050288614
112	0xbc8647bf	-0.016391633
113	0xbd0475b2	-0.032338805
114	0xbd880893	-0.066422604
115	0x3cae1f7f	0.021255253
116	0x3d39ea08	0.045389205
117	0xbdb1a58e	-0.08674155
118	0x3c1ae886	0.009454852
119	0xbd6651be	-0.0562303
120	0x3c71df38	0.014762692
121	0x3d6ceb84	0.057841793
122	0xbd90f1c0	-0.0707736
123	0xbcd28220	-0.025696814
124	0x3c8daefc	0.017295353
125	0xbd93267e	-0.07185076
126	0xbd3249f6	-0.043527566
127	0xbd569a3a	-0.052393176
128	0xbcc877e8	-0.024471238
129	0x3d1fd580	0.03902197
130	0x3d12196d	0.03566878
131	0x3bbde819	0.0057954905
132	0x3d35236f	0.044223245
133	0x3b546381	0.0032407942
134	0xbd86a939	-0.065752454
135	0x3d3118bc	0.04323648
136	0xbc6aedd0	-0.0143389255
137	0xbc89778c	-0.016780637
138	0xbd12f211	-0.035875384
139	0xbce0e67f	-0.02745366
140	0xbd7c606d	-0.061615396
141	0xbd44a30e	-0.048007064
142	0xbd87b76a	-0.0662678
143	0xbdb98993	-0.09059443
144	0xbd70f958	-0.058831543
145	0xbd3d314a	-0.046189584
146	0xbc59eb1e	-0.013300685
147	0xbb5e1d44	-0.0033891955
148	0xbb8d9bec	-0.004321566
149	0xbb9f8586	-0.004868212
150	0x3d0244fd	0.031804074
151	0x3d1f5510	0.03889948
152	0x3c2ce180	0.01055181
153	0x3c8af654	0.016963162
154	0xbda3025a	-0.07959433
155	0xbcfba3aa	-0.03071769
156	0xbd27a689	-0.040930305
157	0xbd514ea4	-0.05110039
158	0x3d97867a	0.07398696
159	0xbcfa09a1	-0.03052217
160	0xbbbda169	-0.005787064
161	0xbcc43e5d	-0.023955518
162	0xbd58fa53	-0.052973103
163	0xbcd5cb20	-0.026097834
164	0xbc4231e9	-0.01185272
165	0xbcfc0054	-0.030761875
166	0xbd1bd155	-0.03804143
167	0x3c0be242	0.008537831
168	0xbc7c11da	-0.0153851155
169	0xbdc2cdfd	-0.095119454
170	0x3cae4b97	0.021276278
171	0xbd6f65f7	-0.05844685
172	0xbd859651	-0.06522811
173	0xbd933cd7	-0.07189339
174	0x3d207c39	0.039180968
175	0xbbc98e66	-0.0061510084
176	0xbaeb2d00	-0.0017942488
177	0xbe162dda	-0.14665928
178	0xbc3fd501	-0.011708499
179	0xbb47b774	-0.0030474337
180	0xbcbfc229	-0.023408012
181	0xbd2f6b0b	-0.042826694
182	0xbd9b6b39	-0.075888105
183	0xbd5b505f	-0.053543445
184	0xbd82440d	-0.06360636
185	0xbcd82498	-0.026384637
186	0xbc65c95c	-0.014025059
187	0xbd9ece8f	-0.07754242
188	0xbdf05a0b	-0.11735924
189	0x3c192479	0.009347075
190	0xbd95d5e1	-0.07316185
191	0xbdaf878a	-0.08570774
192	0xbd3b0f1e	-0.045668714
193	0x3d283067	0.041061785
194	0xbba1df6a	-0.004939963
195	0xbdcb3f6f	-0.099242084
196	0x3d03615f	0.032075282
197	0xbc9a4388	-0.01883103
198	0xbdf8d637	-0.12150233
199	0xbd2b6ce5	-0.041851897
200	0xbc8b39e4	-0.016995378
201	0x3c5592f8	0.013035528
202	0xbca09604	-0.019602783
203	0xbd72ed29	-0.059308205
204	0xbd3eb34c	-0.04655771
205	0xbc165ea1	-0.009177835
206	0xbd3f44f2	-0.04669661
207	0x3d0275f6	0.031850778
208	0xbdd5c466	-0.10437851
209	0x3c470e49	0.012149402
210	0xbdbef9a9	-0.09324963
211	0xbd55adfa	-0.05216787
212	0xbdae03fe	-0.08496855
213	0xbcce2d41	-0.025168063
214	0xbd84ab9b	-0.06478044
215	0x3d4c656a	0.049901403
216	0xbd5d701b	-0.05406199
217	0x3cd6a4d8	0.02620165
218	0xbd0b085e	-0.033943526
219	0x3d2b3268	0.041796118
220	0xbd46b000	-0.04850769
221	0xbd3521ad	-0.04422157
222	0xbdde2f2e	-0.108488426
223	0xbd2fefaf	-0.04295319
224	0xbdc992bd	-0.09842441
225	0x3c83a6c1	0.016070725
226	0xbdd95806	-0.10612492
227	0xbd7d4047	-0.061828878
228	0xbd5fcd62	-0.054639228
229	0xbd3a08c2	-0.04541851
230	0xbcd23dd8	-0.025664255
231	0x3c43228f	0.011910095
232	0xbd2eabf5	-0.04264446
233	0xbd464844	-0.04840876
234	0x3cc3dc51	0.023908766
235	0xbd9a38e5	-0.07530383
236	0x3d13ecaa	0.036114372
237	0xbd2ed6ed	-0.042685438
238	0xbd2037e5	-0.039115805
239	0x3cdc0c17	0.026861234
240	0xbcbf3c88	-0.023344293
241	0xbda76474	-0.08173457
242	0xbdb01929	-0.08598549
243	0xbd6f7768	-0.058463484
244	0xbd3ceaf2	-0.0461225
245	0x3cc685af	0.024233667
246	0x3cd4a7e0	0.025958955
247	0x3d78e341	0.0607636
248	0xbdc2469b	-0.09486123
249	0xbbd724b6	-0.0065656556
250	0x3d62f1e2	0.05540646
251	0xbc029fe3	-0.00797269
252	0xbd30ffcc	-0.043212697
253	0xbd5dfe9e	-0.0541979
254	0x3b830358	0.0039982013
255	0xbdb488b8	-0.088151395

bias f4 [256]
0	0xbe3cbd37	-0.18431555
1	0xbeacb800	-0.3373413
2	0x3b9fb647	0.004874024
3	0x3f24dd59	0.6440025
4	0x3f1b226f	0.60599416
5	0xbdf13863	-0.11778333
6	0xbe04d3b8	-0.1297139
7	0xbe86dca1	-0.26340201
8	0x3e1e6258	0.15467203
9	0xbdf64db7	-0.12026542
10	0xbdfa117e	-0.122103676
11	0x3e99aaa6	0.30013007
12	0x3d9a5d2d	0.07537303
13	0xbe2d3f73	-0.16918735
14	0x3e9b06f4	0.30278742
15	0xbebb3a28	-0.36567807
16	0x3f599b14	0.85002255
17	0xbe02b538	-0.12764442
18	0xbef39347	-0.475733
19	0xbe4eef39	-0.20208444
20	0xbdccd48b	-0.10001477
21	0xbdea8f0d	-0.11453066
22	0x3f30993a	0.68983805
23	0x3cdbe540	0.026842713
24	0x3f42bd8e	0.7607049
25	0xbde33d4f	-0.11095678
26	0xbd9b4045	-0.07580618
27	0x3f0c7008	0.54858446
28	0xbdfd3684	-0.12363914
29	0xbcb1ed1e	-0.021719512
30	0xbf242230	-0.64114666
31	0xbe1b24ce	-0.15150759
32	0x3b4102e0	0.0029451177
33	0x3e66f22e	0.22553322
34	0xbe80eb23	-0.25179395
35	0x3ecf0ab5	0.40437856
36	0x3d800082	0.06250097
37	0x3e55d90b	0.20883577
38	0xbe19408f	-0.14966033
39	0x3ea5a0af	0.32349154
40	0x3ea15d18	0.31516337
41	0xbea40ada	-0.3203953
42	0xbe1e29ae	-0.15445587
43	0xbec04ad4	-0.3755709
44	0xbd97a497	-0.0740444
45	0xbf6e1a86	-0.9300922
46	0xbd29b3e9	-0.04143134
47	0xbf285d42	-0.657673
48	0x3decfb9c	0.11571428
49	0x3e208965	0.15677412
50	0xbe0cf2f6	-0.13764557
51	0x3e8f49a4	0.2798587
52	0x3f439939	0.76405674
53	0x3eda2b2c	0.42611063
54	0xbe9c1ae1	-0.30489257
55	0xbe144fbe	-0.14483544
56	0xbe0ff3b7	-0.14057814
57	0xbd687fb4	-0.056762412
58	0xbdd12a95	-0.102132
59	0x3dc0a06a	0.094055966
60	0x3f2c552c	0.6731746
61	0xbe94b8bb	-0.29047188
62	0x3e638ea8	0.22222388
63	0xbf0fef91	-0.56224924
64	0xbe30dc47	-0.17271529
65	0x3ea815a1	0.32829002
66	0xbe2c7c66	-0.16844329
67	0x3d2e4f94	0.04255636
68	0x3d443dfa	0.047910668
69	0xbe2c66a7	-0.16836034
70	0xbe186578	-0.14882457
71	0xbef41914	-0.47675383
72	0x3e9f3c84	0.31100857
73	0xbee2beea	-0.4428628
74	0xbf2da04b	-0.6782271
75	0xbf1c7855	-0.6112111
76	0xbf23b76e	-0.63951766
77	0xbdf5025c	-0.11963341
78	0x3eba7d73	0.36423835
79	0xbf00bb6c	-0.50285983
80	0xbe1994d9	-0.14998187
81	0x3f08fc0a	0.5350958
82	0xbe313672	-0.17305925
83	0xbe84ffc2	-0.25976378
84	0x3e7f1c8a	0.2491323
85	0xbe6ff6cf	-0.23433994
86	0x3e4835a8	0.19551718
87	0xbe14b8ce	-0.14523622
88	0xbe87a4b0	-0.26492834
89	0x3ec5c35e	0.38625616
90	0xbd424575	-0.04742952
91	0x3e2bd54c	0.16780585
92	0xbdb89254	-0.09012285
93	0xbdbc0acd	-0.091817476
94	0xbf3bc293	-0.7334377
95	0x3ec535fa	0.38517743
96	0x3e20009b	0.15625231
97	0x3ef77099	0.48328093
98	0x3e2e5f8b	0.17028634
99	0x3e326cfd	0.17424388
100	0x3ecd5558	0.40104175
101	0xbe35614b	-0.17712896
102	0xbdd23365	-0.10263709
103	0xbebc1379	-0.36733606
104	0xbe33a9c4	-0.17545229
105	0xbe13c324	-0.14429909
106	0xbec2d5ec	-0.38053834
107	0xbe4e4668	-0.20144045
108	0x3f0fcc22	0.56170857
109	0x3dfd6191	0.12372125
110	0xbe247b22	-0.16062596
111	0xbe2209c0	-0.15824032
112	0xbe06a4b3	-0.13148765
113	0x3ef8c070	0.48584318
114	0xbdc1b6bc	-0.09458682
115	0x3e243554	0.16035968
116	0x3e94a5ec	0.29032838
117	0x3c80e0cc	0.015732192
118	0x3e8f3b24	0.27974808
119	0x3e8b9015	0.27258363
120	0x3e7c8362	0.24659494
121	0xbe0dbc7d	-0.13841434
122	0x3daab975	0.08336154
123	0xbe4d9807	-0.20077525
124	0xbe10c96f	-0.14139341
125	0xbe28a8da	-0.16470662
126	0x3c935eba	0.017989505
127	0xbcc9585b	-0.024578264
128	0x3e1733da	0.14765874
129	0xbbf90204	-0.0075991172
130	0x3f8583cb	1.0430845
131	0xbe897073	-0.26843604
132	0xbc841d86	-0.01612736
133	0xbf12986d	-0.57263833
134	0xbc0a34cc	-0.008435439
135	0x3e2de0ae	0.1698024
136	0x3da6f00a	0.081512526
137	0x3e72616a	0.23669973
138	0xbef7d557	-0.48404953
139	0x3dde365e	0.108502135
140	0x3d3ff576	0.04686495
141	0xbdf75087	-0.12075906
142	0x3ebec918	0.37262797
143	0x3eda4737	0.42632458
144	0xbcc59326	-0.024118017
145	0xbd43b3de	-0.047778957
146	0xbed4b93b	-0.4154757
147	0x3dd5e53e	0.10444115
148	0xbd286808	-0.041114837
149	0x3ed5e7fa	0.41778547
150	0xbc5b6eac	-0.013393085
151	0x3ec0e2dd	0.37673083
152	0xbdda2ac2	-0.10652687
153	0x3dcbeff6	0.09957878
154	0xbef6f95b	-0.48237118
155	0x3ed8ab8b	0.42318377
156	0xbe20c758	-0.15701044
157	0xbe030460	-0.12794638
158	0xbe305c96	-0.17222819
159	0x3f3de991	0.7418452
160	0x3d52e865	0.05149116
161	0xbe2eddd3	-0.17076807
162	0xbe0d8229	-0.13819183
163	0x3ea6fff6	0.32617158
164	0x3dc9fd57	0.09862774
165	0xbf03b129	-0.514422
166	0xbe25010b	-0.16113679
167	0x3ee60e84	0.4493295
168	0xbe15d662	-0.14632562
169	0x3e99d082	0.3004189
170	0xbdb6cb93	-0.089255475
171	0x3e2d20f9	0.1690711
172	0xbe149e3c	-0.14513487
173	0x3d9b29d8	0.075763404
174	0xbdf2645d	-0.11835549
175	0xbe822e42	-0.25425917
176	0xbe0b8394	-0.13624412
177	0x3e605ec3	0.21911149
178	0x3e0f762f	0.14009927
179	0xbdc846d1	-0.09779132
180	0x3c8a32fe	0.016870018
181	0xbf21bf1b	-0.6318223
182	0xbe41a7dc	-0.1891169
183	0x3e8fc272	0.28078038
184	0xbe0c5da9	-0.13707604
185	0xbe74c82a	-0.23904482
186	0xbe2be7c9	-0.16787638
187	0xbe18f85a	-0.14938489
188	0x3dd058eb	0.1017321
189	0x3edc79d8	0.4306171
190	0x3da7d3c5	0.08194689
191	0x3f4c5077	0.7981028
192	0x3f015bb9	0.5053058
193	0xbdafe77f	-0.08589076
194	0x3e5c61e8	0.21521723
195	0x3cfaddae	0.030623283
196	0x3f2efba3	0.6835272
197	0xbe085ae4	-0.13315922
198	0x3e587858	0.21139657
199	0xbe3a9ab5	-0.18223079
200	0xbe731a0e	-0.23740408
201	0x3cdc56c8	0.02689685
202	0xbe1087a9	-0.1411425
203	0xbe112e5e	-0.14177844
204	0xbed7978a	-0.42107803
205	0xbe09b7af	-0.13448976
206	0x3e920ccc	0.28525388
207	0xbe1761a5	-0.14783342
208	0xbe7be6ea	-0.24599805
209	0x3ea7f354	0.32802832
210	0x3f1c5b62	0.6107694
211	0xbea61e31	-0.3244491
212	0x3f08efd0	0.53490925
213	0xbd2f4966	-0.042794608
214	0x3e923070	0.2855258
215	0xbf4e5e8a	-0.80613005
216	0xbdec085f	-0.11525034
217	0x3e1606ec	0.14651078
218	0xbe4e578e	-0.20150587
219	0x3ea988c3	0.33112153
220	0x3d8c4654	0.068493515
221	0x3d4dea68	0.050272375
222	0xbc961f08	-0.018325344
223	0xbdb7344d	-0.089455225
224	0xbe0d59e9	-0.13803829
225	0x3e1ca9d7	0.15299164
226	0x3eeb4023	0.4594737
227	0xbeae5136	-0.34046334
228	0x3eaadb5b	0.3337048
229	0xbda3e67e	-0.08002947
230	0xbdec1184	-0.11526778
231	0x3d25fcd2	0.04052431
232	0x3ef19396	0.47182912
233	0xbf31b743	-0.6942026
234	0xbe0c4b3c	-0.13700575
235	0xbe45fa8c	-0.19333857
236	0xbe026b48	-0.12736237
237	0x3ed0c289	0.4077342
238	0x3e6b9673	0.2300661
239	0x3e87648a	0.26443893
240	0xbe39430d	-0.18091984
241	0x3e610405	0.2197419
242	0xbdee0006	-0.11621098
243	0xbe08badc	-0.13352531
244	0xbe210572	-0.15724733
245	0x3e8e1c5a	0.27756006
246	0xbdc56c6a	-0.09639819
247	0x3f18c864	0.5968077
248	0x3d35b894	0.04436548
249	0x3e6aed76	0.22942147
250	0x3e7064d5	0.23475964
251	0xbd852cfb	-0.0650272
252	0x3b2737f2	0.0025515524
253	0xbd3a2427	-0.045444634
254	0x3eeee7f7	0.4666135
255	0xbe296d2e	-0.16545555

weight f4 [8, 256]
0	0xbbc4c392	-0.006004759
1	0xbf22c455	-0.6358083
2	0x3ea94031	0.33056787
3	0xbdbae60f	-0.091259114
4	0xbe918ee9	-0.28429344
5	0xbb81ff1f	-0.0039671804
6	0xbee3bb6e	-0.44478935
7	0x3ef5d0d1	0.48010877
8	0xbf04ed6c	-0.5192478
9	0xbcfa7fd9	-0.03057854
10	0xbca4e1b6	-0.020127159
11	0xbe43a6ad	-0.1910655
12	0x3e122e20	0.14275408
13	0x3d81fc38	0.06346935
14	0xbdf523a7	-0.11969691
15	0x3dfbedc9	0.12301213
16	0xbd6a2459	-0.05716357
17	0x3c946400	0.01811409
18	0x3f20f937	0.6288027
19	0x3ce7d4dc	0.028299741
20	0xbd81b06b	-0.06332477
21	0x3ca8f6f3	0.020625567
22	0x3f04d92a	0.51893866
23	0x3f309aad	0.68986017
24	0x3d3bb479	0.04582641
25	0xbccaec4d	-0.02477088
26	0xbe3d9bd4	-0.18516475
27	0x3dd7563d	0.105144955
28	0x3d79ef6d	0.06101935
29	0xbeb2278f	-0.34795806
30	0x3ea5fc62	0.32419115
31	0xbc12d446	-0.008961743
32	0x3efe94f5	0.4972302
33	0x3ee5ac73	0.4485813
34	0x3ea5c08d	0.32373467
35	0xbda18968	-0.07887536
36	0x3e830bb0	0.25594854
37	0x3ec320e0	0.3811102
38	0x3e1c545c	0.15266556
39	0xbef6c545	-0.4819738
40	0xbe3685ea	-0.17824522
41	0xbd328475	-0.043583352
42	0xbf09616a	-0.5366427
43	0x3f5bf893	0.8592617
44	0xbe1f4756	-0.15554556
45	0xbec4b0b3	-0.3841606
46	0xbdd46f2c	-0.10372767
47	0xbd8b002b	-0.067871414
48	0x3f3b119a	0.7307373
49	0xbe8f60e6	-0.28003615
50	0x3d29f044	0.0414889
51	0x3eb5de05	0.3552095
52	0x3da5f381	0.08103085
53	0xbe1f0585	-0.1552945
54	0x3e0bb961	0.13644935
55	0xbe828c41	-0.2549763
56	0xbc9dc0c8	-0.019256964
57	0x3c1ee473	0.009698021
58	0xbd0108f4	-0.03150268
59	0x3f151861	0.58240324
60	0x3da22dde	0.07918905
61	0xbddaf05d	-0.10690377
62	0xbe579c12	-0.2105563
63	0xbf5e6c8b	-0.86884373
64	0x3c43caca	0.011950204
65	0xbdec9054	-0.11550966
66	0xbef83ef5	-0.48485532
67	0xbf04e9ca	-0.51919234
68	0x3ca9afed	0.02071377
69	0xba053c3e	-0.0005082524
70	0xbc188362	-0.009308668
71	0xbd924ed9	-0.07143945
72	0x3e3eb1df	0.1862254
73	0x3e8cae99	0.27476957
74	0xbf0ac40a	-0.5420538
75	0xbea4101d	-0.32043543
76	0xbe352900	-0.17691422
77	0xbc9a3971	-0.018826218
78	0x3f0586d8	0.5215888
79	0x3d92d0e2	0.071687475
80	0xbdc20776	-0.09474079
81	0x3e555a07	0.20835124
82	0x3ed8fed7	0.42381927
83	0x3e0185cb	0.12648694
84	0xbd691bd8	-0.05691132
85	0x3f16ad95	0.58858615
86	0x3eddcc35	0.4331986
87	0x3b835b08	0.0040086545
88	0xbf1b8a31	-0.6075774
89	0x3da43505	0.08017925
90	0xbe970ca5	-0.29501835
91	0x3d3b6ac3	0.045756113
92	0x3bc2d291	0.0059455116
93	0xbd094f1a	-0.033522703
94	0x3e83bf34	0.25731814
95	0x3e8c8aa9	0.2744954
96	0xbed03cdf	-0.4067144
97	0x3ed29e6b	0.41136488
98	0x3e3e82aa	0.18604532
99	0x3f3a7e3c	0.7284887
100	0x3e02b75b	0.12765257
101	0xbf0bdd56	-0.54634607
102	0x3e6e58a4	0.23276001
103	0xbe2ad8a2	-0.16684201
104	0xbe1584d7	-0.14601456
105	0xbd6a436d	-0.05719321
106	0x3de59260	0.112095594
107	0xbe09c6f2	-0.13454798
108	0x3d15f698	0.036612123
109	0xbe9f552b	-0.31119666
110	0x3d135935	0.035973746
111	0xbc95b2a6	-0.018273663
112	0x3ce15e5a	0.02751081
113	0xbea5047d	-0.32229987
114	0x3ddc35d8	0.107524574
115	0xbe0b0443	-0.13575844
116	0x3ec4d6a7	0.38445017
117	0x3f0e84b9	0.5567127
118	0x3e8e90be	0.27844805
119	0xbde851ca	-0.11343725
120	0xbea54f48	-0.3228705
121	0x3d2383aa	0.039920487
122	0x3eb638af	0.3559012
123	0xbd5886ec	-0.052863047
124	0xbdfc8d8b	-0.12331685
125	0xbcde5c87	-0.02714373
126	0x3eb77742	0.35833174
127	0xbc14e27e	-0.009087203
128	0x3f0ad9c3	0.5423853
129	0xbec60229	-0.38673523
130	0xbecfd755	-0.40593973
131	0xbe17e34b	-0.14832799
132	0x3eb4bfad	0.35302487
133	0xbe99b761	-0.3002272
134	0xbcaac798	-0.020847127
135	0xbe5f31f4	-0.217964
136	0xbe88910c	-0.26673162
137	0xbd9bccbd	-0.0760741
138	0x3dd0eec5	0.10201792
139	0x3e70680b	0.23477189
140	0xbf2a3d3e	-0.664997
141	0x3c8c2913	0.01710943
142	0xbf216f3d	-0.6306036
143	0x3e9257df	0.28582665
144	0xbe00215d	-0.12512727
145	0xbd3e66c8	-0.04648474
146	0x3ea7610a	0.32691222
147	0x3e26254f	0.1622517
148	0xbe277f37	-0.16357122
149	0xbcde265c	-0.0271179
150	0xbea63317	-0.32460853
151	0xbd1c6f72	-0.03819222
152	0x3d0cdece	0.03439217
153	0x3f071d59	0.52779156
154	0xbe3fd99f	-0.1873536
155	0xbe4ad706	-0.19808587
156	0xbd963709	-0.07334716
157	0x3d24cf09	0.040236507
158	0x3de507a2	0.111830965
159	0xbf34acc1	-0.705761
160	0x3da6a2fa	0.08136554
161	0xbd9f3b27	-0.07774954
162	0x3c4c6562	0.012475343
163	0xbddf4c7a	-0.109032586
164	0xbca30636	-0.019900423
165	0x3d900c3a	0.07033582
166	0x3cc8a39f	0.024492083
167	0x3f627225	0.8845542
168	0xbe5371db	-0.20648901
169	0x3efef639	0.49797228
170	0xbd9c5286	-0.076329276
171	0xbe6ae4f6	-0.22938904
172	0xbc0e5ee5	-0.008689617
173	0x3ebdb5e1	0.37052825
174	0xbca49d32	-0.020094488
175	0x3ecc7c44	0.39938557
176	0xbade5093	-0.0016961269
177	0xbe484a7e	-0.19559667
178	0x3eac0898	0.33600307
179	0x3e38512e	0.17999718
180	0xbeed73d0	-0.4637742
181	0x3e8df204	0.27723706
182	0x3d34e4ae	0.0441634
183	0xbe8fc888	-0.2808268
184	0xbca41d37	-0.020033462
185	0x3d20060a	0.03906826
186	0x3dd28bf9	0.10280604
187	0x3bcaa098	0.006183695
188	0x3ed2c4e3	0.41165838
189	0xbf3ad784	-0.729851
190	0xbeb29fcb	-0.34887537
191	0xbef5b1e7	-0.4798729
192	0x3da0ae61	0.0784576
193	0x3d9c9762	0.076460615
194	0x3e03d5d9	0.12874545
195	0xbd834fab	-0.0641168
196	0xbf0de1f6	-0.55422914
197	0x3c5985ef	0.013276561
198	0xbe0bcecd	-0.13653107
199	0x3e5cd5ef	0.21565984
200	0x3ec4f707	0.38469717
201	0xbe5be0f1	-0.21472527
202	0x3c2efd95	0.010680576
203	0xbd0d3825	-0.03447737
204	0xbd9d641e	-0.076851115
205	0x3d8feb15	0.0702726
206	0x3f109fd5	0.56493884
207	0xbd879d85	-0.06621841
208	0xbecc04b7	-0.39847347
209	0x3e5290ab	0.20562999
210	0xbea73dc8	-0.32664323
211	0x3ec38a2a	0.38191348
212	0xbeb9cf08	-0.36290765
213	0x3f5cbfdb	0.8623025
214	0xbd8d7690	-0.069073796
215	0xbf8701e9	-1.0547458
216	0xbd81cb88	-0.06337649
217	0x3e678859	0.22610606
218	0x3a067826	0.0005129598
219	0x3eaaae66	0.3333618
220	0xbecb5e6b	-0.39720473
221	0xbd3a34c1	-0.045460466
222	0x3f0527de	0.5201396
223	0x3dfcd31c	0.123449534
224	0x3d1c5986	0.038171314
225	0x3e32ceeb	0.17461745
226	0x3df56f1a	0.119840816
227	0xbe1f69a7	-0.15567647
228	0xbea4c08c	-0.32178152
229	0x3d9f727c	0.07785508
230	0x3e053387	0.13007937
231	0x3ee21606	0.44157428
232	0xbc7f332a	-0.015576163
233	0xbf8c48e1	-1.0959741
234	0xbc500a87	-0.012697822
235	0x3eee9f88	0.46606088
236	0x3da397fc	0.07987973
237	0x3f11ffdb	0.5703103
238	0x3efbaa4b	0.4915336
239	0x3e5b5abe	0.21421334
240	0xbb967b72	-0.0045923525
241	0xbb26b4e3	-0.0025437407
242	0x3f0cf29f	0.5505771
243	0xbdcc8e67	-0.099880986
244	0xbe1f9d98	-0.15587461
245	0x3e8ba2b2	0.27272564
246	0x3d694d05	0.056958217
247	0x3e35b35f	0.17744206
248	0xbd894abf	-0.0670371
249	0xbf63df1f	-0.8901233
250	0x3e4ba6b1	0.19887806
251	0xbd0bd0d0	-0.034134686
252	0x3e45e860	0.19326925
253	0x3dfc9de7	0.12334805
254	0xbf5ba96c	-0.8580539
255	0xbe029f30	-0.12756038

bias f4 [8]
0	0xbead6a8b	-0.33870348
1	0x3e83c5c0	0.2573681
2	0xbe8154d6	-0.25260037
3	0xbe8643d4	-0.26223624
4	0xbe497ce8	-0.19676554
5	0xbeb87ea7	-0.36034128
6	0xbd9e5609	-0.07731254
7	0x3eb5655a	0.35428888

weight f4 [8, 256]
0	0x3d7bf9ba	0.061517455
1	0xbc716d1a	-0.0147354845
2	0x3dadc33c	0.084845036
3	0x3c80f701	0.01574278
4	0x3c9eb8d9	0.019375252
5	0x3d1a9f5f	0.037749644
6	0x3e19836c	0.1499154
7	0xbcf7257b	-0.03016924
8	0x3e212b2f	0.1573913
9	0x3d44c009	0.0480347
10	0x3dbe08f2	0.0927905
11	0xbd7c948c	-0.061665103
12	0xbc396d0d	-0.011317504
13	0x3d371511	0.044697825
14	0xbda390b6	-0.07986586
15	0xbcf33ef0	-0.029693097
16	0xb99f3bd5	-0.00030371422
17	0xbd4057f0	-0.046958864
18	0xbe3526e2	-0.17690614
19	0xbc5013af	-0.012700005
20	0x3da22d55	0.07918803
21	0xbc13e879	-0.009027594
22	0x3de199d6	0.1101567
23	0x3d655cbb	0.055996638
24	0xbd437e38	-0.047727793
25	0x3d8736e7	0.06602269
26	0x3d5086b4	0.050909713
27	0xbc9e739f	-0.019342242
28	0x3bba05fc	0.005676983
29	0x3dd9b7a6	0.10630731
30	0x3da344a1	0.07972074
31	0xbd46c4f8	-0.048527688
32	0x3e380481	0.17970468
33	0x3e8c647a	0.27420408
34	0x3e6edaeb	0.23325698
35	0xbd071cb5	-0.03298636
36	0xbe677a1f	-0.22605179
37	0x3e9dac38	0.30795455
38	0x3e13e791	0.14443804
39	0x3e0a29da	0.13492528
40	0xb9906af7	-0.00027545515
41	0xbcf60670	-0.030032367
42	0xbd9b903c	-0.0759587
43	0x3e141faf	0.14465211
44	0xbd6620d3	-0.056183647
45	0xbd88eede	-0.06686185
46	0x3e883956	0.26606244
47	0x3d19bb5e	0.037532203
48	0x3e893631	0.26799157
49	0x3d7bebae	0.06150406
50	0x3d191d47	0.037381437
51	0x3d7ce01f	0.061737176
52	0xbcba446c	-0.022737704
53	0xbc1dc60b	-0.009629737
54	0x3da57a5f	0.08079981
55	0xbd76b62c	-0.060232326
56	0x3e0a75fe	0.13521573
57	0xbca7677e	-0.020435091
58	0xbd07e0f2	-0.03317351
59	0x3defca83	0.11708548
60	0x3e0b82bf	0.13624094
61	0x3df35192	0.11880793
62	0x3c26107a	0.010135764
63	0x3e441a62	0.19150689
64	0x3c750c88	0.014956601
65	0x3cbf2212	0.023331676
66	0x3e8cd6fe	0.27507776
67	0x3d885569	0.06656916
68	0xbbaa39ae	-0.0051948642
69	0x3d5bb3bd	0.05363821
70	0x3e057213	0.13031797
71	0x3d8cca39	0.068745084
72	0x3db4cbae	0.08827911
73	0x3e290874	0.16507131
74	0x3cb2b64e	0.021815445
75	0x3c07b9ec	0.008284073
76	0xbca39299	-0.019967364
77	0xbb92c65e	-0.0044792136
78	0x3e0bb28b	0.13642327
79	0x3cab793a	0.020931829
80	0xbd49bc7f	-0.04925203
81	0x3cc9b742	0.024623517
82	0xbb998eea	-0.004686226
83	0x3d109afb	0.03530405
84	0xbd148f73	-0.036269616
85	0xbc925e01	-0.01786709
86	0x3d7e156b	0.062032145
87	0x3dbe3478	0.09287351
88	0x3e38b45b	0.1803755
89	0x3e123b04	0.14280325
90	0x3d8276b0	0.06370294
91	0x3d35fc16	0.04442986
92	0xbc76e1a7	-0.015068448
93	0x3e3d7976	0.18503365
94	0x3e8031f4	0.2503811
95	0x3de3e369	0.111273594
96	0xbd5fa516	-0.054600798
97	0x3e00ef62	0.12591317
98	0x3e343794	0.17599326
99	0x3ec1b380	0.3783226
100	0x3dee3a9e	0.11632274
101	0x3e206c6d	0.15666361
102	0x3d25d27d	0.04048394
103	0x3e4a15b4	0.19734842
104	0xbddfbd95	-0.10924832
105	0x3cbfb3ee	0.023401227
106	0xbc907570	-0.017634124
107	0x3bba669e	0.0056885025
108	0x3d7ecc35	0.062206466
109	0x3e82fe18	0.25584483
110	0x3dde5de6	0.108577535
111	0x3dde9ecb	0.10870131
112	0x3d897f5e	0.067137465
113	0x3b969501	0.0045953994
114	0xbd978478	-0.07398313
115	0x3b305d67	0.002691114
116	0x3d47b78d	0.048759032
117	0x3ead230e	0.33815807
118	0xbbdbae7e	-0.0067041507
119	0xba6d1665	-0.00090441696
120	0xbb96907b	-0.00459486
121	0x3e2f0691	0.17092349
122	0x3e884d5f	0.2662153
123	0x3dce6a10	0.100788236
124	0x3cdee792	0.02721003
125	0x3df4d79a	0.11955185
126	0x3e521bdd	0.20518441
127	0xbd785c33	-0.060634803
128	0x3e63d565	0.22249372
129	0x3cf60394	0.030031003
130	0x3d7375d7	0.059438553
131	0xbe554efd	-0.20830913
132	0x3d9d383e	0.07676743
133	0x3dde1d05	0.10845379
134	0xbc619cab	-0.013770263
135	0x3e02c1cb	0.12769239
136	0xbd4e786c	-0.050407812
137	0x3e0d333c	0.13789076
138	0xbc5031e0	-0.012707204
139	0x3dcea153	0.10089364
140	0x3d97d9d7	0.074145965
141	0xbc958a45	-0.018254409
142	0x3de1c4be	0.11023854
143	0x3d2cdb4a	0.042201318
144	0xbe6a3aa0	-0.22873926
145	0x3da6b3e7	0.081397824
146	0x3d769c87	0.06020787
147	0x3dbeb2c4	0.093114406
148	0xbd3378b4	-0.043816283
149	0x3dbe69a3	0.09297492
150	0xbd1af33d	-0.037829626
151	0xbd4e6aaa	-0.05039469
152	0x3e4f7317	0.20258747
153	0x3e9a952c	0.30191934
154	0xbbd2a0f8	-0.0064278804
155	0x3d1f80cf	0.0389412
156	0x3dc2fb01	0.095205314
157	0x3b08eecd	0.002089429
158	0x3b593fbb	0.0033149559
159	0x3e495d3c	0.19664472
160	0x3c83bf9f	0.016082583
161	0x3e84f5ea	0.25968868
162	0x3d83f4ed	0.064432
163	0x3b9ced07	0.004788998
164	0x3d85fd4f	0.065424554
165	0x3e6158b5	0.22006495
166	0x3ca8ad38	0.02059041
167	0xbe0c6c40	-0.13713169
168	0x3e49b14f	0.19696544
169	0x3e5ef5ef	0.21773504
170	0x3d5c5e33	0.053800773
171	0x3d156b7b	0.036479454
172	0x3d064994	0.032785013
173	0x3e7bfa0d	0.24607106
174	0x3d7b2bf9	0.061321232
175	0x3e2c0256	0.16797766
176	0xbd4ac499	-0.049503896
177	0x3e876996	0.26447743
178	0x3cda61ff	0.026658056
179	0x3cb3cd99	0.021948623
180	0xbf4ee319	-0.80815274
181	0x3d9d30f8	0.07675356
182	0x3d0a5f42	0.03378225
183	0x3c347f0d	0.011016619
184	0x3d7e9fc9	0.0621641
185	0x3d1dc5c4	0.038518682
186	0x3d88f261	0.06686855
187	0xbcde37b6	-0.027126174
188	0x3dba327f	0.090916626
189	0xbe256eeb	-0.16155593
190	0x3e1aba78	0.15110195
191	0x3ed83d29	0.42234161
192	0x3d294985	0.04132988
193	0x3da96a4b	0.08272227
194	0xbe161598	-0.14656675
195	0xbd51c435	-0.05121251
196	0x3e0b09b2	0.13577917
197	0xbcb63ff3	-0.02224729
198	0x3c87d18b	0.01657941
199	0xbe3a722a	-0.18207613
200	0x3e1643e0	0.1467433
201	0xbd67120f	-0.056413706
202	0x3cd8e3cd	0.026475811
203	0x3db29d84	0.0872145
204	0xbd342456	-0.043979965
205	0x3a1e25c3	0.00060328486
206	0x3e4336ac	0.19063824
207	0xbd84ea68	-0.06490022
208	0xbdd776d0	-0.105207086
209	0xbdf5c117	-0.119997196
210	0xbe8d82ce	-0.2763886
211	0x3e09781a	0.13424721
212	0xbce3f810	-0.027828246
213	0x3da3bb47	0.07994705
214	0x3cd058d2	0.025432978
215	0x3eb0d1d0	0.34535074
216	0x3e012e51	0.12615325
217	0x3d29ae0d	0.041425753
218	0xbde55e8e	-0.111996755
219	0x3d222aba	0.03959153
220	0x3e96f525	0.29483905
221	0x3d9b6372	0.07587327
222	0x3e0db881	0.13839914
223	0x3dcb79a3	0.0993531
224	0x3da2e112	0.07953085
225	0xbca01896	-0.019542973
226	0xbdb087a8	-0.086196244
227	0x3e954cd9	0.29160193
228	0x3b94d5a6	0.0045420704
229	0x3d4febaa	0.050761856
230	0x3d794044	0.060852304
231	0x3e50e521	0.20399906
232	0xbe1f4ce7	-0.1555668
233	0x3e84ed46	0.25962275
234	0xbcea2bc4	-0.028585322
235	0xbc22b11c	-0.0099299215
236	0x3d9b72af	0.075902335
237	0x3eaaacfb	0.333351
238	0xbdc77b90	-0.097403646
239	0x3d9821f5	0.07428352
240	0x3d81cf70	0.06338394
241	0xbd0fd4a9	-0.035114918
242	0x3e5c21fb	0.21497338
243	0x3dcdd9e7	0.10051327
244	0xbd68f1ab	-0.056871098
245	0xbd47c3b1	-0.04877061
246	0x3da09021	0.078399904
247	0xbc9cbd10	-0.01913312
248	0xbd0ed130	-0.034867465
249	0x3e748949	0.23880495
250	0x3c73bcc1	0.014876545
251	0x3d525bdd	0.05135714
252	0x3da82a07	0.08211141
253	0x3d49a919	0.04923353
254	0x3e611440	0.21980381
255	0xbcb25292	-0.021767888

bias f4 [8]
0	0xc01be01a	-2.435553
1	0xc020161a	-2.501349
2	0xc0072461	-2.1115954
3	0xc017adf6	-2.3699927
4	0xc0210f43	-2.5165565
5	0xc01e052a	-2.4690652
6	0xc0181aa6	-2.3766265
7	0xc0020a00	-2.0318604

weight f4 [256, 36]
0	0x402600ea	2.5938058
1	0x3eb36051	0.3503442
2	0x3f9169fd	1.136047
3	0x3e0c7405	0.13716133
4	0x3f488687	0.7833027
5	0xc0120e81	-2.2821352
6	0xc050d165	-3.2627804
7	0x3ff5f1b7	1.921439
8	0xbf0a3ef5	-0.54002315
9	0x3e903559	0.281657
10	0x3aa65ff4	0.0012693391
11	0x3fdee687	1.7414101
12	0xbfa68323	-1.300877
13	0x3e1b7f49	0.15185274
14	0xbf5994fd	-0.84992963
15	0xbe557c95	-0.20848306
16	0x3db79128	0.08963233
17	0xbf20547e	-0.62628925
18	0x3e9924de	0.2991094
19	0xbffa5d32	-1.9559691
20	0x3ec22552	0.37919098
21	0x3f56b403	0.83868426
22	0xbf070606	-0.52743566
23	0x3fd7da76	1.6863544
24	0x3fc2c9f4	1.5217881
25	0x3f7ab27b	0.9792859
26	0x3fdd16b5	1.7272555
27	0x3f2e3d8c	0.68062663
28	0xbd3308e5	-0.043709654
29	0x3e8b986a	0.2726472
30	0xbe99846f	-0.2998385
31	0xbdd561a6	-0.104190156
32	0x3c5411d7	0.0129437065
33	0xbf30a838	-0.6900668
34	0x3d18660d	0.0372067
35	0x3f5b70cc	0.8571899
36	0x40bfacd3	5.9898467
37	0x3fb1d6ab	1.3893636
38	0x3f83126b	1.0239996
39	0x406c765a	3.6947236
40	0xc00fc1d8	-2.2462063
41	0x4057b582	3.3704534
42	0x3de0913d	0.10965202
43	0xc08c0578	-4.3756676
44	0x3f8a6d23	1.0814556
45	0x3e430e7a	0.19048491
46	0xbfdf13a3	-1.7427868
47	0xbe8a535d	-0.27016726
48	0x3ec0d604	0.3766328
49	0xbea273c0	-0.31728935
50	0x3f625955	0.8841756
51	0x3dbb0670	0.09132087
52	0xbea99824	-0.33123887
53	0x3ea58fcb	0.32336268
54	0x4060f457	3.5149133
55	0x40195eb2	2.3964047
56	0xbf697360	-0.91191673
57	0x3e5baad4	0.21451885
58	0xbf2d19e2	-0.6761762
59	0xbf484a5f	-0.7823848
60	0x4046d6db	3.1068637
61	0x4027246f	2.6115987
62	0x40260fd4	2.594716
63	0x4054efc8	3.327135
64	0x3fc9a59f	1.5753669
65	0x403c8149	2.945391
66	0x3f03b518	0.514482
67	0x3ff432aa	1.9077961
68	0x3e9045cc	0.2817825
69	0x3e376160	0.1790824
70	0xbf309dd5	-0.6899083
71	0x3fc8514f	1.5649813
72	0x3f997ded	1.1991554
73	0x3c2173bc	0.009854253
74	0x3f6c0d05	0.92207366
75	0x40083a70	2.1285667
76	0xc00bb92c	-2.183177
77	0x408d5e93	4.4177947
78	0x3fe6f6ef	1.8044108
79	0xc04b7f19	-3.1796324
80	0x3e21bec4	0.15795428
81	0xbf1213db	-0.5706155
82	0xc0030591	-2.0472147
83	0x3dc284c7	0.094979815
84	0x3ed8128d	0.42201653
85	0xbee7eed4	-0.452994
86	0x3f935570	1.1510448
87	0x3f9b72d6	1.214442
88	0xbdc0d922	-0.09416415
89	0xbe03b9f5	-0.12863906
90	0x4029be4e	2.6522403
91	0x401da3f0	2.463131
92	0xbfbfca59	-1.4983627
93	0x3f488202	0.78323376
94	0xbec75933	-0.3893524
95	0xbf92707d	-1.1440579
96	0x3fac027e	1.343826
97	0x3f74f7fc	0.95690894
98	0x3f58da52	0.8470813
99	0x3fbd8fc0	1.4809494
100	0x3f56e12e	0.83937347
101	0x3d18caa8	0.037302643
102	0xbef90e00	-0.48643494
103	0x3de3ac0f	0.11116802
104	0x3e95495f	0.2915754
105	0x3f76b731	0.9637328
106	0xbe8b9c84	-0.2726785
107	0x3e8e8b12	0.27840477
108	0x40815095	4.0410867
109	0x4053197a	3.29843
110	0x3f03e583	0.5152208
111	0x3fef692a	1.8703969
112	0x3dd2c79e	0.1029198
113	0x3ff1e9a3	1.8899425
114	0x3f897275	1.0738055
115	0xc03b759d	-2.9290535
116	0xbf67ba40	-0.9051857
117	0xbe93e32f	-0.28884265
118	0xbfaf3644	-1.3688436
119	0xbee0697c	-0.43830478
120	0x3f04abfe	0.5182494
121	0x3d8a9eb7	0.06768554
122	0x3faafc71	1.3358289
123	0x3f027f51	0.5097552
124	0x3f161ce2	0.5863782
125	0xbf42f87a	-0.76160395
126	0xbebbb474	-0.36661112
127	0x3f24b371	0.64336306
128	0xc0011115	-2.0166676
129	0xbda763a4	-0.08173302
130	0xbfb3d459	-1.4049178
131	0xbf338f31	-0.7014037
132	0x3d6da4c5	0.058018465
133	0x3f56a0bb	0.83839005
134	0xbdace364	-0.08441809
135	0x3f9632a3	1.1734203
136	0xbe9abe80	-0.30223465
137	0xbdfa8eff	-0.122343056
138	0x3e325c11	0.17417933
139	0xbec1fc43	-0.37887773
140	0xbec7368a	-0.38908798
141	0xbf69529b	-0.9114167
142	0xbf404fa2	-0.7512151
143	0x3efe1977	0.49628803
144	0x4031b492	2.7766461
145	0xbf92b8a3	-1.1462597
146	0xbe48eaad	-0.19620772
147	0x401812d0	2.3761482
148	0xbfd23020	-1.6420937
149	0xc0c480d2	-6.140725
150	0x3fc8d9c3	1.5691456
151	0xc0265269	-2.59878
152	0xbfe139a3	-1.7595714
153	0xbfcbcd84	-1.5922093
154	0xbfa37ce7	-1.2772492
155	0x40338f82	2.805634
156	0x3e40d93e	0.18832871
157	0xc0035ce9	-2.0525458
158	0x3e0c5e28	0.13707793
159	0xbf8e587a	-1.1120751
160	0xbfe429ba	-1.7825234
161	0xc05d5705	-3.4584363
162	0x4083624b	4.1057487
163	0xbf0fe3e2	-0.56207097
164	0xbe4b7f7a	-0.19872847
165	0xbfe96c2a	-1.8236134
166	0xbfdf695b	-1.7454027
167	0x400015bb	2.0013263
168	0x3dcd3b05	0.10021023
169	0x3e9df971	0.3085437
170	0xbd30caf6	-0.04316231
171	0x3f23bee8	0.63963175
172	0xbe0f9869	-0.14022984
173	0xbdbd05b9	-0.09229607
174	0xbd8ab4e3	-0.06772783
175	0x3f6e69a3	0.9312994
176	0x3d92fd68	0.0717724
177	0x3f4f4348	0.8096204
178	0xbcec6005	-0.02885438
179	0x3cdefb64	0.027219482
180	0x3fc10f47	1.5082787
181	0xbf34a5e6	-0.7056564
182	0xbf89359b	-1.0719484
183	0xbf84b202	-1.0366824
184	0x3f88f249	1.069894
185	0xbfc33070	-1.5249157
186	0x3ece691e	0.40314573
187	0x402b26a6	2.674234
188	0xbec4e551	-0.38456205
189	0x3e876cb7	0.2645013
190	0x3ed927e4	0.42413247
191	0x3f1eab81	0.61980444
192	0x3f2aae36	0.66672075
193	0xbd05d0a8	-0.032669693
194	0x3df88eeb	0.121366344
195	0xbfbbe994	-1.4680657
196	0xbefaf6ca	-0.4901641
197	0x3f0f53f9	0.5598751
198	0x3f68f429	0.9099756
199	0xbf3ebf58	-0.7451072
200	0x3ed0f0d4	0.40808737
201	0xbf26df00	-0.6518402
202	0xbef0b9d6	-0.47016782
203	0x3fa9101b	1.320804
204	0xbfac5813	-1.3464378
205	0x3f0ff052	0.56226075
206	0xbf63ac21	-0.8893452
207	0x3f122259	0.5708366
208	0xbc0ead59	-0.0087083215
209	0x3d1cccbd	0.03828119
210	0x3e284f80	0.16436577
211	0xbdab1343	-0.08353283
212	0x3ca4c075	0.020111302
213	0x3d39c57b	0.045354348
214	0x3e835a1a	0.2565468
215	0xbdaa4c27	-0.08315306
216	0x40631643	3.5482337
217	0xc04a7962	-3.1636586
218	0xbeda2be9	-0.42611626
219	0x402015ee	2.5013385
220	0x4050a65a	3.2601533
221	0xc037ae20	-2.8700027
222	0x40bec405	5.961428
223	0xc08a9512	-4.330697
224	0x40c8694e	6.2628546
225	0xbee280a4	-0.4423877
226	0x3ed2a8f0	0.41144514
227	0x3ff21fda	1.891597
228	0xbf9799a7	-1.1843766
229	0xbfbd82a2	-1.4805491
230	0xbfd68395	-1.6758906
231	0x3ec5d8a9	0.3864186
232	0x40023552	2.0345044
233	0xbf5ef843	-0.8709757
234	0x400b42c0	2.175949
235	0xbe3506d2	-0.17678383
236	0xbf4ff4e5	-0.81233054
237	0xc0302e78	-2.7528362
238	0x3e6d1bce	0.23155138
239	0xc03205f0	-2.7816124
240	0x3fe9f84b	1.8278898
241	0x3f9942f1	1.1973554
242	0x402762c6	2.6154037
243	0x40023637	2.034559
244	0x3e9f8602	0.31156927
245	0xbea73b8f	-0.32662627
246	0x3e85b5b3	0.26115188
247	0xbf3fa0fc	-0.7485502
248	0x3f29948b	0.66242284
249	0x3f7690b6	0.9631456
250	0x3f12b81f	0.57312196
251	0xbe25d9fd	-0.16196437
252	0x40e267e8	7.075184
253	0xbfdbc0ff	-1.7168273
254	0xbf47f998	-0.78115225
255	0x40c238db	6.0694404
