data/AntPyBulletEnv-v0_sac_grad_False/AntPyBulletEnv-v0_sac_grad_False_s0/pyt_save/model.pt (torch_old, 920366 bytes, 18 tensors)

weight f4 [256, 28]
0.3010382 1.2763183 -0.23998459 0.52330405 0.10524804 -0.45431772 0.19741942 -0.2629242
0.03675049 0.4249527 -0.33230552 -0.2470972 0.15976642 0.1586089 0.17085832 0.10148529
-0.15136807 -0.595987 0.12413643 0.00039752614 -0.2638855 -0.18657371 -0.3332626 -0.5305417
0.110009186 -0.12843767 -0.22657356 -0.13252243 0.036963616 -0.26795524 -0.4700472 0.18469192
-0.26394978 0.22175144 0.41679654 -0.467945 0.20144916 -0.33661407 0.6868168 0.2976032
0.33645725 -0.15052631 -0.9921956 -0.64585906 -0.87522864 -0.58638966 -0.18853962 0.107681446
-0.6412028 0.51754314 0.57532024 0.16302705 0.27747798 -0.3586749 -0.3256023 -0.41112936
0.3765067 0.11977082 -1.3183737 -0.6062927 1.3768651 1.038465 -1.6063445 1.0256834
0.36975718 -0.55210215 -0.4528552 0.62571037 -0.347637 0.25646335 0.37226504 -0.09244676
0.6984819 0.436323 0.49531218 -0.3003381 -0.82010335 -0.6100978 -0.1375168 1.1278476
0.04101102 0.098475374 0.14013281 -0.37091684 -1.191068 -0.6319399 0.0034996837 -0.82564896
0.15090533 -1.2971071 0.60211354 0.1632494 0.50094146 -0.555258 -0.3555961 0.18023086
-1.2313097 -0.7884363 -0.8237405 -0.5614992 0.7968342 0.2484291 -1.0363885 1.5808367
0.056883644 -0.12742017 -0.38251233 -0.5830842 -1.736878 -2.1994243 -1.9422809 -1.0530653
0.012634207 -0.35735336 -0.5140468 -0.39969224 -0.46511742 0.060119506 -0.23996627 0.82315195
0.20291558 0.3698132 0.13777348 0.20760953 0.29953358 -0.7065321 -0.71855307 0.10723016
-0.19870865 -0.13308057 -0.6682237 1.2393581 0.21803701 0.97609013 0.6513798 -1.1287059
-1.6033411 -1.3702117 -0.6403767 -1.2530732 0.59739155 0.17162126 -0.42997038 -0.16851649
-0.31070244 -0.36722 0.085937485 -0.094661705 0.19868793 0.12525626 0.27638713 -0.51788235
0.06991577 -0.10537802 -0.041267496 -0.18743007 0.01871807 -0.30311853 -0.35035995 0.11473682
-0.34911954 -0.052516554 0.09481574 -0.85255533 -0.7381004 -0.21281615 -0.43739492 0.32234237
0.032986637 0.027776193 -0.0379051 0.043065485 0.22884877 0.15191488 -0.1271823 0.2751758
0.019923804 -0.09193823 0.14655331 -0.18875337 -0.03332292 -0.04423084 -0.07519151 0.014679151
0.060956698 -0.0068178563 -0.14097406 0.08942938 -0.04574222 0.042268652 0.15940036 -0.007323495
-0.22329538 -0.10081424 -0.22164771 -0.117559046 0.12749198 0.69815224 -0.53626966 1.5536075
-1.0561262 1.678343 -1.2303572 0.29649237 0.38454768 -0.13447471 -0.7628072 0.24453959
-0.6296133 -0.95464253 -0.16042699 1.1613818 0.33035317 0.8836778 -0.74451596 -1.0909549
0.010518485 0.031266686 1.3385371 0.5875602 -0.255369 0.08318093 -0.13394196 0.14902523
-0.074166805 -0.021109976 -0.24074472 -0.005719794 -0.06682954 -0.070555575 0.0052465056 0.20390147
0.00055272784 0.1764673 0.10649768 -0.12627466 0.04492732 -0.08147329 -0.1431934 0.04708032
0.0059400634 0.07152949 -0.07532872 0.002897879 0.019626046 -0.19554885 0.12984018 -0.14314216
-0.09531195 -0.090680905 -0.12935035 -0.033249896 -0.7081149 -1.0172005 -0.7558379 -1.3990632
00000000: ae21 9a3e 665e a33f 85be 75be 41f7 053f
00000010: 498c d73d 559c e8be 5128 4a3e 009e 86be
00000020: af87 163d 6693 d93e f323 aabe 0c07 7dbe
00000030: cf99 233e 5f6a 223e 7cf5 2e3e 85d7 cf3d
00000040: 3b00 1bbe 9b92 18bf 3e3b fe3d 0e6b d039
00000050: 001c 87be 2e0d 3fbe 65a1 aabe 95d1 07bf
00000060: 7f4c e13d 2a85 03be e602 68be f6b3 07be
00000070: 2967 173d 6e31 89be 07aa f0be e11f 3d3e
00000080: 6d24 87be cf12 633e 5b66 d53e 7d96 efbe
00000090: b048 4e3e ae58 acbe 3ad3 2f3f 725f 983e
000000a0: 2044 ac3e 9223 1abe 8800 7ebf 0557 25bf
000000b0: fc0e 60bf a21d 16bf 8810 41be 1788 dc3d
000000c0: de25 24bf b57d 043f 3048 133f 90f0 263e
000000d0: 9811 8e3e 3da4 b7be 58b5 a6be 8c7f d2be
000000e0: 7cc5 c03e 674a f53d 78c0 a8bf 0036 1bbf
000000f0: 1e3d b03f 6cec 843f b29c cdbf 9849 833f
00000100: d050 bd3e 9156 0dbf a3dc e7be 8e2e 203f
00000110: 7afd b1be 2a4f 833e 8699 be3e ba54 bdbd
00000120: b6cf 323f ba65 df3e 8f99 fd3e eac5 99be
00000130: 4bf2 51bf 5f2f 1cbf 34d1 0cbe 4f5d 903f
00000140: 2cfb 273d 75ad c93d fa7e 0f3e d0e8 bdbe
00000150: eb74 98bf d0c6 21bf f35a 653b bb5d 53bf
00000160: ed86 1a3e 9b07 a6bf 1d24 1a3f da2a 273e
00000170: b33d 003f 6325 0ebf b110 b6be 708e 383e
00000180: 8e9b 9dbf f6d6 49bf a8e0 52bf 69be 0fbf
00000190: 53fd 4b3f 3364 7e3e 61a8 84bf db58 ca3f
000001a0: d3fe 683d 6f7a 02be a8d8 c3be 0245 15bf
000001b0: 0552 debf 5ec3 0cc0 a99c f8bf d8ca 86bf
000001c0: b4ff 4e3c 05f7 b6be 9298 03bf 76a4 ccbe
000001d0: df23 eebe df3f 763d b8b9 75be 16ba 523f
000001e0: 1ac9 4f3e 2858 bd3e 7e14 0d3e 9897 543e
000001f0: 775c 993e 4adf 34bf 18f3 37bf 7c9b db3d
00000200: 487a 4bbe 4646 08be b510 2bbf 49a3 9e3f
00000210: 1845 5f3e 0be1 793f d4c0 263f 6f79 90bf
00000220: 483a cdbf 1963 afbf baef 23bf b464 a0bf
00000230: a7ee 183f 7cbd 2f3e 1425 dcbe 968f 2cbe
00000240: 6414 9fbe 4304 bcbe feff af3d ffdd c1bd
00000250: d974 4b3e 2d43 003e 9d82 8d3e f093 04bf
00000260: 0030 8f3d 6ed0 d7bd 1b08 29bd abed 3fbe
00000270: a356 993c 5a32 9bbe 6162 b3be 23fb ea3d
00000280: ccbf b2be 991b 57bd c12e c23d 1141 5abf
00000290: 26f4 3cbf 7aec 59be 3af2 dfbe 0f0a a53e
000002a0: ff1c 073d e68a e33c 6142 1bbd 6f65 303d
000002b0: 5557 6a3e 938f 1b3e 143c 02be d8e3 8c3e
000002c0: 3f37 a33c 1c4a bcbd 1212 163e 9048 41be
000002d0: 9d7d 08bd 662b 35bd 02fe 99bd d280 703c
000002e0: bbad 793d 5368 dfbb 815b 10be c026 b73d
000002f0: 325c 3bbd e521 2d3d d939 233e eef9 efbb
00000300: 8ba7 64be b277 cebd 9ef7 62be ccc2 f0bd
00000310: 428d 023e 1bba 323f f848 09bf 9cdc c63f
00000320: 252f 87bf f2d3 d63f 587c 9dbf d9cd 973e
00000330: 6fe3 c43e bdb3 09be 5547 43bf 9668 7a3e
00000340: 562e 21bf 7463 74bf f946 24be 29a8 943f
00000350: 0d24 a93e b538 623f 9998 3ebf 69a4 8bbf
00000360: b955 2c3c 7f11 003d 2f55 ab3f 586a 163f
00000370: babf 82be c35a aa3d 1528 09be 129a 183e
00000380: c4e4 97bd d4ee acbc c985 76be 1c6d bbbb
00000390: eddd 88bd 717f 90bd e1ea ab3b 8ccb 503e
000003a0: f0e4 103a d8b3 343e 751b da3d 254e 01be
000003b0: b605 383d 78db a6bd 4aa1 12be 4bd7 403d
000003c0: dda4 c23b 0e7e 923d f245 9abd 58ea 3d3b
000003d0: cdc6 a03c f53d 48be d3f4 043e dc93 12be
000003e0: e932 c3bd e9b6 b9bd 6b74 04be 0b31 08bd
000003f0: 0547 35bf a033 82bf 987e 41bf 8114 b3bf

bias f4 [256]
-0.61731696 -0.40460658 -0.9618849 0.14981113 -0.4249756 -0.5549474 -0.22713737 -0.09126815
-0.13913642 -0.49731088 -0.58704996 -1.1161674 -1.2755619 -1.3298653 -1.1467059 -1.2914128
-0.5032872 -1.0860946 -0.96363014 -1.1336676 -0.8022091 -0.514222 -0.77702355 -0.96391296
-1.1140573 -1.4284765 -0.63247824 -1.1020887 0.11127601 -0.6098854 -0.7697354 -0.6666798
0.1925876 -0.6872886 -0.8989565 -0.8385568 -1.0243814 -0.8199935 -1.3776828 -0.64426935
-1.2835648 -0.70782447 -1.4215968 -0.9457485 -0.19806801 -0.65565723 -0.22050436 0.5065726
-1.0555456 -1.2095338 0.6243206 0.43144533 -1.3143505 -0.90920866 -0.7310095 -0.9904497
-1.0796809 -0.6954791 0.12138514 -0.88126916 -0.23944166 -0.27036184 -0.6105216 -0.9619704
-0.53118813 -0.90882766 0.7986245 -0.24045317 -0.89835733 -0.54714364 -0.6753763 -1.0271058
-0.06567038 -1.0361029 -0.13439903 -0.7281193 -0.31433627 -0.1456551 -0.56423223 0.40189007
-0.5126984 -0.7252094 -1.3100218 0.1544162 -0.9029049 -0.30408877 -0.9252329 -0.720492
-0.3301526 -0.56974477 -0.8828406 -0.028006878 -0.73309946 -0.8669614 0.41510928 -1.5911361
-0.81058246 -0.29456013 -1.0924629 -0.95172447 -0.9444718 0.8783964 -0.73082423 -1.5023005
-1.0279071 -0.91216713 -0.030273855 -0.3909708 -1.22066 -1.0785576 0.091930136 -0.8188931
-1.350835 -0.8545278 -0.18917164 -0.80115104 -1.1927166 -1.0258812 -0.14554827 0.07862086
0.3312823 -0.63184 -0.16258776 -0.63586223 0.08378259 -0.8067426 -0.6603809 -1.0482142
-0.64143044 -1.1656451 -0.7175918 -0.16542639 -0.77860725 -0.6337115 -1.0878961 -0.9293881
-0.18942659 -0.95080584 -1.2320901 -0.8707416 -0.8468958 -1.0879121 -0.74843615 -0.1714121
-0.7392646 -0.8598347 -0.6747772 -1.2775539 -0.44814393 -0.812025 -0.72626394 -0.8670112
-0.7413633 -1.1169617 -0.99992216 -0.883953 -0.5183419 -0.5847958 -0.8544032 -0.9018426
-1.1083765 -1.1923921 -0.028992686 -0.26842347 -0.2624386 -0.42359307 -0.32888058 0.1365389
-1.0718899 -1.042232 -1.3068441 -1.1651511 -0.47214374 -1.1408311 -0.9569144 -0.22813731
-0.48850104 -1.4205908 -1.1634223 -0.81648904 -0.75696814 0.76655877 -0.7100426 0.06940352
-0.8089683 -0.8441383 -1.2902709 -1.773623 -0.20728528 -0.7515151 -0.81341517 0.138557
-0.6017875 -0.86942446 -1.059049 -1.2714027 -0.33269626 -0.151917 -1.2222767 -0.94500196
-0.82521224 -0.7382632 0.12110307 -1.0235735 -0.43051282 -0.8118956 -1.4265084 -0.32926604
-0.23624337 -0.7127642 0.024851482 -0.89342684 -1.1418846 -0.28355828 -0.24351005 -0.36728626
-0.80648124 -0.15468673 -0.6205814 -0.6256002 -0.7721766 -1.1158326 -0.5739993 0.5057031
-0.532128 -1.0953 -0.5051111 -0.6690348 0.7690824 -0.5292305 -0.36146674 -0.829411
-0.7202756 -0.6023254 -0.58798796 -0.9346491 -0.07779892 -0.45641583 -0.47787705 -0.33904788
-1.1996257 -0.24424893 -0.27087057 -0.60342795 -0.8807678 -0.68348396 -0.10730634 -0.88930774
-1.3097955 -0.34125656 -0.65064687 -0.48485526 -1.3485575 -0.10067502 0.0153508 -0.018760815
00000000: 7c08 1ebf 9828 cfbe 173e 76bf 1768 193e
00000010: 6796 d9be 0811 0ebf b396 68be ccea babd
00000020: c779 0ebe 889f febe e848 16bf 93de 8ebf
00000030: 9d45 a3bf 0739 aabf 42c7 92bf 044d a5bf
00000040: 6ed7 00bf 2605 8bbf 77b0 76bf 051c 91bf
00000050: 935d 4dbf 0ea4 03bf 04eb 46bf 00c3 76bf
00000060: 6e99 8ebf 51d8 b6bf 18ea 21bf 3e11 8dbf
00000070: ade4 e33d 7321 1cbf 610d 45bf 87ab 2abf
00000080: af35 453e 25f2 2fbf 0322 66bf a9ab 56bf
00000090: ee1e 83bf 18eb 51bf e957 b0bf d6ee 24bf
000000a0: da4b a4bf fc33 35bf e2f6 b5bf 931c 72bf
000000b0: 57d2 4abe 27d9 27bf e5cb 61be beae 013f
000000c0: 1e1c 87bf 01d2 9abf 7ad3 1f3f 67e6 dc3e
000000d0: a33c a8bf e6c1 68bf 7023 3bbf 1d8e 7dbf
000000e0: fc32 8abf eb0a 32bf c698 f83d db9a 61bf
000000f0: 3230 75be de6c 8abe 254b 1cbf b143 76bf
00000100: f2fb 07bf eea8 68bf a872 4c3f 5b39 76be
00000110: bffa 65bf 9b11 0cbf 76e5 2cbf 3478 83bf
00000120: 317e 86bd 059f 84bf e69f 09be 0766 3abf
00000130: aff0 a0be 9c26 15be 8671 10bf 89c4 cd3e
00000140: 3440 03bf 53a7 39bf cbae a7bf 481f 1e3e
00000150: c724 67bf 86b1 9bbe 10dc 6cbf 2a72 38bf
00000160: c309 a9be cbda 11bf d701 62bf ae6e e5bc
00000170: 68ac 3bbf 2ff1 5dbf 3489 d43e 59aa cbbf
00000180: 5582 4fbf 96d0 96be d3d5 8bbf 37a4 73bf
00000190: e7c8 71bf 96de 603f 4c17 3bbf 624b c0bf
000001a0: 7692 83bf c983 69bf e000 f8bc 532d c8be
000001b0: 963e 9cbf 2d0e 8abf de45 bc3d faa2 51bf
000001c0: 29e8 acbf 55c2 5abf 36b6 41be 3c18 4dbf
000001d0: f0aa 98bf 1350 83bf 9b0a 15be f903 a13d
000001e0: d59d a93e 44c0 21bf 687d 26be dec7 22bf
000001f0: 3596 ab3d af86 4ebf b90e 29bf e22b 86bf
00000200: c934 24bf dc33 95bf 19b4 37bf 8965 29be
00000210: ce52 47bf eb3a 22bf 2e40 8bbf 61ec 6dbf
00000220: 0bf9 41be 0368 73bf 21b5 9dbf ece8 5ebf
00000230: 2ace 58bf b440 8bbf 8399 3fbf a786 2fbe
00000240: 7240 3dbf 201e 5cbf 33be 2cbf e386 a3bf
00000250: 1f73 e5be dfe0 4fbf 6fec 39bf 72f4 5dbf
00000260: fcc9 3dbf 9af8 8ebf e6fa 7fbf be4a 62bf
00000270: 0eb2 04bf 2db5 15bf 2bba 5abf 28df 66bf
00000280: 48df 8dbf 4ea0 98bf 1282 edbc cd6e 89be
00000290: 5a5e 86be 31e1 d8be 0963 a8be dad0 0b3e
000002a0: b033 89bf dc67 85bf ab46 a7bf ac23 95bf
000002b0: d3bc f1be c106 92bf 58f8 74bf d49c 69be
000002c0: cf1c fabe ebd5 b5bf 06eb 94bf 6d05 51bf
000002d0: aac8 41bf 323d 443f 5ac5 35bf 6f23 8e3d
000002e0: 8c18 4fbf 7319 58bf 9927 a5bf 1406 e3bf
000002f0: 9842 54be 4b63 40bf fa3b 50bf e3e1 0d3e
00000300: bf0e 1abf 9a92 5ebf eb8e 87bf 53bd a2bf
00000310: 2a57 aabe 2190 1bbe 9073 9cbf a6eb 71bf
00000320: 1c41 53bf d1fe 3cbf e304 f83d 7504 83bf
00000330: 2d6c dcbe 64d8 4fbf d497 b6bf 8f95 a8be
00000340: c8e9 71be b777 36bf 5695 cb3c 9fb7 64bf
00000350: 4629 92bf 8d2e 91be b35a 79be f20c bcbe
00000360: 8e75 4ebf 3366 1ebe 6cde 1ebf 5627 20bf
00000370: 5ead 45bf 9ad3 8ebf 9ef1 12bf c275 013f
00000380: 8a39 08bf ca32 8cbf f64e 01bf dd45 2bbf
00000390: 96e2 443f a67b 07bf 2b12 b9be 4754 54bf
000003a0: fb63 38bf ff31 1abf 6186 16bf 2a45 6fbf
000003b0: 0a55 9fbd 56af e9be 4dac f4be af97 adbe
000003c0: 568d 99bf 641c 7abe 8caf 8abe 417a 1abf
000003d0: 007a 61bf cef8 2ebf 6dc3 dbbd aca9 63bf
000003e0: 61a7 a7bf 2eb9 aebe cb90 26bf f33e f8be
000003f0: 889d acbf b42e cebd ec81 7b3c 48b0 99bc

weight f4 [256, 256]
-0.047276925 -0.044379104 -0.07157783 -0.106126495 0.01164691 -0.04356868 0.0072355717 0.0045296396
-0.012053035 -0.096190766 -0.054811694 -0.029860437 -0.131561 -0.118789636 0.032974094 -0.058351163
0.05079121 0.03300412 -0.06788837 -0.0079248035 -0.025455998 -0.040074684 -0.10036687 0.018539298
0.0067882817 -0.18051662 -0.055536766 0.04184429 -0.029456541 -0.1295679 -0.03855099 -0.024072636
-0.099145055 -0.04214817 -0.021265643 -0.07682509 0.061241604 -0.003356793 -0.04861625 -0.08620111
0.037848674 -0.04559019 -0.01645332 -0.11090933 -0.06925207 -0.12559395 -0.11998128 -0.09231229
-0.13047805 -0.002908426 -0.09150985 -0.051913403 0.044991903 -0.045409244 -0.07492523 0.04471542
-0.046615697 -0.06667568 -0.0009501966 -0.00649182 -0.12062815 -0.006117793 0.05107902 -0.036915287
0.0066672503 0.020252261 -0.09326707 -0.121105224 -0.0720678 -0.048858415 -0.061745357 -0.022250429
-0.043049335 -0.0462177 -0.00022835316 -0.01571932 -0.030598363 -0.038020015 -0.0013522354 -0.091203846
-0.10826019 -0.01590183 -0.072670154 0.010801234 -0.15324827 0.0505945 -0.1068055 -0.023830608
0.06690505 -0.09033797 -0.07551222 -0.08015088 0.017776063 -0.10446729 -0.04504989 -0.04155054
-0.0019719093 -0.050928477 -0.06732612 -0.1073777 -0.009636826 -0.01705014 0.0036020512 -0.099173345
-0.023469182 0.0021698433 -0.01266251 -0.11378545 -0.015793972 -0.101794094 -0.0827848 -0.0676797
-0.085173845 -0.119861566 -0.04559865 -0.077606164 0.019262498 -0.10335657 0.025595825 -0.047546793
-0.05110606 -0.0026855355 -0.03908422 -0.057447106 0.07992608 -0.18511824 -0.09894351 -0.052393176
-0.048916664 -0.02440821 -0.06258735 -0.083498746 -0.010640812 -0.049221482 -0.034001 -0.09261156
0.017406708 -0.05596583 0.020896299 -0.04347931 -0.10342875 -0.030124024 -0.12161344 -0.040467523
-0.104325235 -0.0749803 -0.03864263 -0.09816019 0.04651089 -0.0012149542 0.06477079 -0.026646128
-0.009980335 -0.0061552213 -0.07362067 -0.030638164 0.004738413 -0.09460814 -0.04172272 -0.14966042
-0.10914149 -0.0212002 -0.03394775 -0.02941921 -0.09609604 -0.030761875 0.019839793 -0.054943036
-0.049380407 -0.070571154 0.013968518 -0.16509451 -0.041949242 -0.12317166 -0.037455857 -0.042492054
-0.004366648 -0.13987415 0.017410867 -0.05353437 -0.05648632 -0.09967632 -0.13162822 -0.08942898
-0.04258074 -0.12453194 0.004734367 -0.09621211 -0.06242001 0.010624456 -0.14164856 -0.06053026
-0.12540905 0.006738632 -0.046961375 -0.06421248 -0.04232534 -0.01883103 -0.105965115 -0.030654099
-0.08099769 0.044693958 0.007268501 -0.075205036 0.0022361453 -0.044171143 -0.08960959 0.025695942
-0.09199548 0.05795397 -0.10717856 -0.17460401 -0.011167328 0.006587565 -0.17165574 -0.035495527
-0.05374417 -0.023145502 0.020693565 -0.013783425 -0.061917003 0.046068907 -0.075021066 -0.121790834
-0.10304669 0.027410092 -0.054109216 -0.060011987 -0.08576414 -0.023597047 -0.15795861 0.0829263
-0.029076586 -0.12741898 -0.01139818 -0.1587558 0.02114431 -0.018155675 -0.037430495 0.058620244
-0.03236729 -0.05772592 -0.16337532 -0.09362239 -0.040772885 -0.056089632 0.017947186 0.009940077
-0.17826551 -0.048550025 0.02483456 -0.03855832 -0.044975806 -0.0541979 0.0633248 -0.041825086
00000000: 73a5 41bd ddc6 35bd 6697 92bd d958 d9bd
00000010: aed2 3e3c 1275 32bd 6018 ed3b 5f6d 943b
00000020: 187a 45bc aaff c4bd 3a82 60bd e09d f4bc
00000030: edb7 06be fb47 f3bd d80f 073d a101 6fbd
00000040: 720a 503d 542f 073d 0f09 8bbd 09d7 01bc
00000050: 1989 d0bc 5a25 24bd 258d cdbd badf 973c
00000060: 3c70 de3b 59d9 38be 857a 63bd eb64 2b3d
00000070: d84e f1bc 73ad 04be a5e7 1dbd fa33 c5bc
00000080: 900c cbbd 8fa3 2cbd 4935 aebc 7956 9dbd
00000090: 7ad8 7a3d a4fd 5bbb d521 47bd 358a b0bd
000000a0: 3607 1b3d c7bc 3abd 1dc9 86bc 6e24 e3bd
000000b0: 07d4 8dbd b39b 00be bfb8 f5bd 3a0e bdbd
000000c0: 0a9c 05be 4b9b 3ebb 8469 bbbd 26a3 54bd
000000d0: 6e49 383d 0bff 39bd 6672 99bd 8427 373d
000000e0: 1af0 3ebd 428d 88bd 9d16 79ba 55b9 d4bb
000000f0: e40b f7bd c477 c8bb 3c38 513d 7c34 17bd
00000100: f378 da3b 12e8 a53c ce02 bfbd 0406 f8bd
00000110: 4898 93bd c31f 48bd b3e8 7cbd 8846 b6bc
00000120: 8054 30bd c54e 3dbd 1672 6fb9 cec5 80bc
00000130: 6ba9 fabc e0ba 1bbd 7e3d b1ba 15c9 babd
00000140: 85b7 ddbd 8e44 82bc 17d4 94bd a9f7 303c
00000150: 1ded 1cbe 2e3c 4f3d d8bc dabd 6838 c3bc
00000160: 8405 893d 1d03 b9bd 27a6 9abd 2526 a4bd
00000170: 1b9f 913c f2f2 d5bd 3c86 38bd e630 2abd
00000180: 263b 01bb 619a 50bd 47e2 89bd d7e8 dbbd
00000190: c7e3 1dbc bcac 8bbc 6410 6c3b 651b cbbd
000001a0: 7142 c0bc ee33 0e3b 6b76 4fbc 5908 e9bd
000001b0: 5c62 81bc 6c79 d0bd 148b a9bd a89b 8abd
000001c0: a06f aebd fb79 f5bd a6c5 3abd fbef 9ebd
000001d0: 63cc 9d3c 9cac d3bd 56ae d13c 6dc0 42bd
000001e0: 9754 51bd cfff 2fbb c616 20bd a84d 6bbd
000001f0: 49b0 a33d a38f 3dbe e5a2 cabd 3a9a 56bd
00000200: d75c 48bd baf3 c7bc cc2d 80bd 6401 abbd
00000210: cd56 2ebc 779c 49bd a244 0bbd 21ab bdbd
00000220: 8398 8e3c 6d3c 65bd b72e ab3c 5c17 32bd
00000230: 74d2 d3bd a8c6 f6bc 7810 f9bd 46c1 25bd
00000240: 78a8 d5bd 468f 99bd bc47 1ebd 3608 c9bd
00000250: 3482 3e3d 193f 9fba 8ca6 843d fb48 dabc
00000260: 8f84 23bc bdb1 c9bb 6fc6 96bd e3fc fabc
00000270: b044 9b3b eac1 c1bd 71e5 2abd 9540 19be
00000280: 9385 dfbd 0bac adbc cc0c 0bbd 8e00 f1bc
00000290: 00ce c4bd 5400 fcbc 1087 a23c f30b 61bd
000002a0: 1c43 4abd 9c87 90bd 36dc 643c 890e 29be
000002b0: f8d2 2bbd 6c41 fcbd 506b 19bd 260c 2ebd
000002c0: 1916 8fbb 2b3b 0fbe 3ca1 8e3c db46 5bbd
000002d0: 335e 67bd 1923 ccbd 8cc9 06be 8b26 b7bd
000002e0: 2469 2ebd 9a0a ffbd c022 9b3b db0a c5bd
000002f0: 20ac 7fbd 3312 2e3c 520c 11be 94ee 77bd
00000300: 3b6b 00be becf dc3b 925a 40bd d581 83bd
00000310: 565d 2dbd 8843 9abc 3d04 d9bd 4e1e fbbc
00000320: 1ee2 a5bd 0311 373d 9b2c ee3b 1905 9abd
00000330: 4b8c 123b cdec 34bd 3c85 b7bd 4c80 d23c
00000340: 2068 bcbd 2461 6d3d 6f80 dbbd 65cb 32be
00000350: 2bf7 36bc 80dc d73b 86c6 2fbe c263 11bd
00000360: d922 5cbd a39b bdbc 8d85 a93c e0d3 61bc
00000370: af9c 7dbd c0b2 3c3d a5a4 99bd 796d f9bd
00000380: 250a d3bd 218b e03c a0a1 5dbd 21cf 75bd
00000390: 1ca5 afbd 984e c1bc e7bf 21be 44d5 a93d
000003a0: 0532 eebc 1f7a 02be 6fbf 3abc e190 22be
000003b0: d536 ad3c 36bb 94bc b850 19bd c81b 703d
000003c0: 9093 04bd 0472 6cbd dc4b 27be 18bd bfbd
000003d0: 7801 27bd 3ebe 65bd fa05 933c b4db 223c
000003e0: 3c8b 36be 64dc 46bd d971 cb3c 54ef 1dbd
000003f0: 8d38 38bd 9efe 5dbd 6fb0 813d c850 2bbd

bias f4 [256]
-0.1926294 0.07062936 -0.12228942 -0.5704342 -0.11321666 -0.29218924 -0.14566886 -0.18458377
-0.12960118 -0.12927334 -0.113403074 -0.48702154 -0.094037205 -0.58019924 -0.42916554 -0.71585256
-0.16500695 -0.25251794 -1.4262645 -0.05613241 -1.7122766 -1.3296652 -0.23301488 -0.56002355
-0.6684024 -0.15200101 -0.7976256 0.30233684 -0.25710097 -0.8177346 -0.5290113 -1.1645641
-0.43453968 -0.07907031 0.14642245 -0.717265 0.34576932 -0.16873741 -0.3542134 -0.192855
-0.5228688 -2.1505792 -0.56769675 -0.591862 -0.8284473 -0.18879628 -0.47441533 -0.13286908
-0.5485206 0.03622471 -0.117196865 -0.30211213 -0.2929449 -0.31710732 -1.0255932 -0.041727867
-0.7861752 -0.3580106 -0.12587887 -1.1626773 -0.19284204 -1.2830907 -0.3937717 -0.59054863
-0.20319782 -0.22231874 -0.45413345 -0.20022365 -0.112039626 -1.5689675 -0.89749044 -0.6152852
-0.13956913 -0.45052192 -0.19321711 -1.1898285 -0.17784737 -0.8502045 -0.06895817 -0.1493558
0.36076695 -0.558966 -0.43993938 0.2860209 -0.080057465 -0.8438082 -0.22853553 -0.25152487
-0.16175987 -0.24017532 -0.992409 -1.5090848 -0.6348327 -0.07802323 -0.20847307 0.311267
-0.81202096 -0.1724115 -0.8119818 -0.714937 -0.17356518 -1.5949696 -0.89142126 -0.120412305
-1.0106522 0.10276449 -1.5054982 -0.15308477 -0.23262957 -0.12441165 -0.37942815 -1.0719084
-0.32500324 -0.62772375 0.74208075 -0.28141224 0.19224572 -0.6244857 -1.5420772 -0.0593721
0.35281268 -0.17456517 -1.3436339 -1.0597827 -0.5582557 0.46224082 -0.19342987 -0.26833186
-0.12869935 -0.16902097 0.6070403 0.1338111 -0.2518006 -1.1005518 -0.11842423 -0.13736403
-0.18847054 -1.054026 0.2024578 -0.18564452 -1.5060256 0.32893834 -0.37673548 -0.70771635
-0.5536046 -0.70716006 -0.38440263 -0.07090286 -0.36411735 -0.98055315 -0.16764145 -0.935337
-0.51587087 -0.41648513 -0.2920127 -1.6134422 -0.26286134 -0.12818438 0.09978271 -1.4919275
-0.19051042 -0.39481896 -0.82795334 -0.099629946 -0.12401472 -0.43408498 -0.3789434 0.31545284
-0.47317678 -0.20982888 -0.12913644 -1.6598365 -1.1800007 -0.14716978 -0.5371017 -0.17605905
-0.23357747 -1.3097345 -0.13003433 -0.18483481 -1.2470003 -0.73076826 -1.2245772 -0.1473012
-0.19179124 -0.16367087 -0.19487877 -0.72550875 -0.26657534 -0.7828718 -0.67375356 -0.53580546
-0.8245873 -0.38568613 0.3086659 -0.15582451 -1.556025 -1.1635886 -0.452843 -0.40543666
-0.09718253 -2.0693808 -0.73654 -0.22963613 -0.1474404 -0.78395295 -0.9442167 -0.1430664
-0.014745287 -0.12500654 -0.24783772 -0.24102107 0.4958773 -1.2590858 -0.39546707 -1.3820531
-0.5431161 0.21462765 -0.26313794 -0.29189947 -0.3710352 -0.15652227 -0.5115974 -1.44943
-0.6314961 0.16400614 -0.43508652 0.1456476 -0.12083136 -0.1444169 -0.6480194 -0.64692456
0.30065075 -0.5325001 -0.40508834 -0.95787615 -0.13582407 -0.07974177 0.14304 -0.6471886
0.09036489 -0.1311728 -1.3378837 -0.20771486 -0.5168072 -0.15207875 -1.2007985 -0.24253628
-0.19963509 -0.15224698 -0.87176245 -0.8518206 0.24269712 -0.39760345 -0.30029428 -0.48054534
00000000: a440 45be 20a6 903d e072 fabd fa07 12bf
00000010: 23de e7bd d499 95be 382a 15be 8703 3dbe
00000020: 2cb6 04be 3b60 04be df3f e8bd e35a f9be
00000030: 9496 c0bd f087 14bf 96bb dbbe 1d42 37bf
00000040: 95f7 28be 084a 81be d68f b6bf 19eb 65bd
00000050: e12b dbbf 7832 aabf 749b 6ebe b45d 0fbf
00000060: 6b1c 2bbf 27a6 1bbe 3131 4cbf e5cb 9a3e
00000070: bda2 83be 0e57 51bf 496d 07bf 7010 95bf
00000080: fc7b debe 9def a1bd c4ef 153e ae9e 37bf
00000090: ad08 b13e 80c9 2cbe 755b b5be c87b 45be
000000a0: bbda 05bf 17a3 09c0 9354 11bf 4584 17bf
000000b0: 1f15 54bf d053 41be 91e6 f2be d50e 08be
000000c0: d96b 0cbf 5d60 143d e904 f0bd 71ae 9abe
000000d0: e0fc 95be e45b a2be a346 83bf d7ea 2abd
000000e0: c742 49bf 2a4d b7be 64e6 00be 9cd2 94bf
000000f0: 6278 45be 513c a4bf 729c c9be 322e 17bf
00000100: 1713 50be 86a7 63be 2e84 e8be 6e07 4dbe
00000110: 0875 e5bd edd3 c8bf efc1 65bf 5583 1dbf
00000120: 36eb 0ebe cfaa e6be b5da 45be 4d4c 98bf
00000130: 9f1d 36be 01a7 59bf f139 8dbd baf0 18be
00000140: 72b6 b83e 6518 0fbf bc3f e1be 5571 923e
00000150: 2bf5 a3bd d003 58bf 3805 6abe dec7 80be
00000160: 61a4 25be 85f0 75be 840e 7ebf b129 c1bf
00000170: 6584 22bf a5ca 9fbd f779 55be 635e 9f3e
00000180: 9be0 4fbf a48c 30be 0ade 4fbf 1c06 37bf
00000190: 12bb 31be f727 ccbf 2f34 64bf ba9a f6bd
000001a0: 0d5d 81bf 3076 d23d 2ab4 c0bf 41c2 1cbe
000001b0: 7236 6ebe 89cb febd 6844 c2be 4b34 89bf
000001c0: d366 a6be 81b2 20bf 01f9 3d3f 4415 90be
000001d0: 10dc 443e 4bde 1fbf c962 c5bf 2930 73bd
000001e0: dda3 b43e 36c1 32be 32fc abbf f6a6 87bf
000001f0: d8e9 0ebf d4aa ec3e 7b12 46be cb62 89be
00000200: c3c9 03be d513 2dbe fe66 1b3f c705 093e
00000210: 02ec 80be e2de 8cbf 6788 f2bd 28a9 0cbe
00000220: 6cfe 40be 53ea 86bf 1951 4f3e 9919 3ebe
00000230: 72c5 c0bf 9b6a a83e 79e3 c0be e62c 35bf
00000240: 08b9 0dbf 7108 35bf 6cd0 c4be 8535 91bd
00000250: 976d babe 8805 7bbf 33aa 2bbe 3f72 6fbf
00000260: 1d10 04bf 8a3d d5be b082 95be 4685 cebf
00000270: c395 86be c442 03be e15a cc3d 7bf7 bebf
00000280: 2a15 43be b625 cabe c0f4 53bf c90a ccbd
00000290: 6efb fdbd 6340 debe df04 c2be 0983 a13e
000002a0: 3a44 f2be 62dd 56be 583c 04be 8675 d4bf
000002b0: 430a 97bf adb3 16be 7f7f 09bf d348 34be
000002c0: ef2e 6fbe 61a5 a7bf b827 05be 5645 3dbe
000002d0: b59d 9fbf a113 3bbf f2be 9cbf 20d6 16be
000002e0: ec64 44be 5699 27be 4d8e 47be f1ba 39bf
000002f0: 907c 88be 496a 48bf 1d7b 2cbf 8c2a 09bf
00000300: 2718 53bf a778 c5be 7509 9e3e 7690 1fbe
00000310: d42b c7bf 79f0 94bf 0adb e7be 6595 cfbe
00000320: a207 c7bd bc70 04c0 e38d 3cbf bc25 6bbe
00000330: 9efa 16be 24b1 48bf 30b8 71bf 0080 12be
00000340: 3796 71bc b701 00be 2cc9 7dbe 3ace 76be
00000350: a1e3 fd3e b929 a1bf a97a cabe 1ee7 b0bf
00000360: a809 0bbf 5ac7 5b3e 04ba 86be d973 95be
00000370: 53f8 bdbe 6047 20be 0cf8 02bf ec86 b9bf
00000380: baa9 21bf 3af1 273e a9c3 debe a524 153e
00000390: 6f76 f7bd 06e2 13be 99e4 25bf d99c 25bf
000003a0: e5ee 993e ed51 08bf bd67 cfbe 5f37 75bf
000003b0: 7715 0bbe a74f a3bd 1479 123e 27ae 25bf
000003c0: 3a11 b93d 2a52 06be c63f abbf 34b3 54be
000003d0: 7a4d 04bf 88ba 1bbe c4b3 99bf 6e5b 78be
000003e0: 246d 4cbe a2e6 1bbe d32b 5fbf ea10 5abf
000003f0: 9885 783e ae92 cbbe 2cc0 99be 0a0a f6be

weight f4 [8, 256]
0.01655598 -0.117896646 0.059209235 -0.5499818 0.14071509 0.1255849 0.09536287 -0.088832654
-0.05276311 -0.032678064 0.021287803 -0.7396643 -0.16458623 0.5049474 -0.035259157 -0.1413905
0.10436022 -0.12205068 -0.19352625 -0.06889715 0.004322028 0.20481363 -0.036035515 0.07391156
0.31282625 -0.015290195 0.15363272 0.085322686 0.009611637 -0.14881063 -0.13988611 0.19082302
-0.24746901 -0.0919105 -0.2603051 0.12649602 -0.19882376 0.08694504 -0.032974757 -0.051164582
-0.068547696 0.032190144 0.16786864 0.027874159 0.4614435 -0.059010167 0.08144592 0.037163027
0.012946169 -0.014696934 0.09089516 0.01445695 0.09928069 0.3935262 0.2670302 -0.18748239
0.7650131 -0.068827234 0.013618987 0.13975276 -0.16406639 0.23128381 -0.25490543 0.051811665
-0.011966399 0.10638151 -0.17552418 -0.03942624 0.24385533 0.61129737 0.008672485 0.40103292
0.059552554 -0.2364857 -0.10222642 0.19545041 -0.0018945083 0.272881 -0.029038727 -0.006015966
-0.010630261 0.44419956 -0.27341267 0.46610034 0.065019235 -0.034361638 -0.087124184 -0.28484732
0.1293045 0.005833801 0.14164978 0.093569495 0.14012587 -0.13075824 0.04562932 0.11467212
-0.091879755 -0.05274911 -0.21355397 0.10676763 0.037463803 0.11028185 -0.10920597 0.00980971
0.14740756 0.35035735 0.23322392 -0.3548956 0.13790284 -0.07545486 -0.08750491 -0.19217259
0.14275226 0.12495974 0.20867047 -0.03539788 0.19812939 -0.0061424556 -0.03190574 -0.2997824
-0.013805854 -0.056129944 -0.25043088 -0.0134417415 0.16162613 0.43073115 -0.0031381054 0.0101464
0.04275157 -0.112763904 -0.11983787 -0.003335749 -0.31144363 -0.0021287452 -0.03473562 -0.0838923
0.07580006 -0.0576589 0.14615786 0.35615745 -0.3703976 -0.073804386 0.31276107 0.09927827
-0.21533209 -0.13686913 0.049911905 0.29613498 0.12910037 -0.027043628 0.006946635 -0.04875311
0.14676876 0.043332145 0.4013987 0.059927437 0.05995129 0.21377406 0.13213715 -0.28401032
0.009373303 0.07086098 0.038293462 0.024674412 0.007271242 0.064531095 -0.06834036 -0.02009644
0.07283789 0.13963862 -0.007507769 0.5281124 -0.059687123 -0.05171867 0.12843214 0.048025943
0.20971218 0.018961271 0.31483385 -0.014085821 0.001504922 0.2512022 0.09681294 0.09604261
-0.09656489 -0.036163423 -0.08295705 -0.123875156 0.1543647 -0.040061656 -0.14788006 -0.25383627
-0.06466636 0.005764637 0.1537455 0.03946793 -0.0149790915 -0.01694769 0.16519561 -0.02206665
-0.04590384 -0.06506546 0.13552329 0.12423381 0.04330488 0.09723916 -0.11262698 0.0061596474
0.13272774 0.6100347 -0.05257968 0.005649933 -0.034262333 0.18490218 -0.13533017 -0.034405407
0.46856353 -0.06399712 -0.094677724 -0.15171659 0.06344444 -0.04610508 0.0016483555 0.09995424
0.14251636 0.07075541 -0.039915036 0.37667304 -0.03569765 0.028275376 0.07700174 -0.2652251
-0.2291444 -0.17356464 0.23334141 0.26069957 -0.011704058 -0.14874454 -0.28962 -0.07464627
0.30889854 -0.070235334 -0.4020428 0.032911472 0.060428116 0.034377813 -0.07496374 -0.06318387
0.023252 0.12923802 -0.13940753 0.1724587 0.027726019 -0.021697726 0.019927857 -0.028106753
00000000: 68a0 873c cc73 f1bd 6285 723d 9bcb 0cbf
00000010: 9e17 103e 5499 003e 9c4d c33d e5ed b5bd
00000020: 211e 58bd 6fd9 05bd c263 ae3c a45a 3dbf
00000030: 4b89 28be 3c44 013f e86b 10bd acc8 10be
00000040: d0ba d53d b5f5 f9bd bf2b 46be f319 8dbd
00000050: cc9f 8d3b aaba 513e fa99 13bd f25e 973d
00000060: c32a a03e ba83 7abc e551 1d3e a9bd ae3d
00000070: 217a 1d3c d061 18be 4e3e 0fbe 1c67 433e
00000080: 8468 7dbe 923b bcbd b646 85be 2c88 013e
00000090: 7598 4bbe 3e10 b23d 8a10 07bd f491 51bd
000000a0: bc62 8cbd d0d9 033d c2e5 2b3e 5958 e43c
000000b0: 5342 ec3e a5b4 71bd 1ecd a63d 4238 183d
000000c0: 2b1c 543c 69cb 70bc 3e27 ba3d d8dc 6c3c
000000d0: ad53 cb3d 447c c93e 2fb8 883e 62fb 3fbe
000000e0: e6d7 433f 4bf5 8cbd 2c22 5f3c 591b 0f3e
000000f0: 0501 28be aad5 6c3e f782 82be 7838 543d
00000100: b70e 44bc 8dde d93d 9cbc 33be 697d 21bd
00000110: 36b5 793e fc7d 1c3f 0a17 0e3c 3054 cd3e
00000120: 61ed 733d 4f29 72be 165c d1bd 2724 483e
00000130: 2651 f8ba 0fb7 8b3e a0e2 edbc 9521 c5bb
00000140: 8c2a 2ebc 206e e33e bffc 8bbe b4a4 ee3e
00000150: ce28 853d cabe 0cbd 2a6e b2bd 82d7 91be
00000160: 6668 043e 7829 bf3b a40c 113e 5da1 bf3d
00000170: 287d 0f3e 7de5 05be cfe5 3a3d 37d9 ea3d
00000180: 742b bcbd 730f 58bd e4ad 5abe fda8 da3d
00000190: a573 193d 73db e13d 61a7 dfbd e8b8 203c
000001a0: 02f2 163e 0a62 b33e 40d2 6e3e e0b4 b5be
000001b0: 6736 0d3e 1488 9abd c635 b3bd e4c8 44be
000001c0: a62d 123e e4ea ff3d b6ad 553e 5efd 10bd
000001d0: 6ee2 4a3e a746 c9bb 98af 02bd 147d 99be
000001e0: f331 62bc 83e8 65bd 7a38 80be c03a 5cbc
000001f0: 5281 253e cb88 dc3e aca8 4dbb 163d 263c
00000200: 451c 2f3d c3f0 e6bd 8f6d f5bd 959c 5abb
00000210: 8a75 9fbe 6b82 0bbb f046 0ebd bacf abbd
00000220: 103d 9b3d bd2b 6cbd 68aa 153e 455a b63e
00000230: c1a4 bdbe c126 97bd 3822 a03e 6852 cb3d
00000240: 0480 5cbe 6c27 0cbe 6d70 4c3d 019f 973e
00000250: e332 043e 998a ddbc 99a0 e33b 57b1 47bd
00000260: 8d4a 163e 0c7d 313d 2184 cd3e 7976 753d
00000270: 7c8f 753d 96e7 5a3e f64e 073e cd69 91be
00000280: 7b92 193c 901f 913d 9bd9 1c3d fe21 ca3c
00000290: 9943 ee3b e128 843d 08f6 8bbd 4aa1 a4bc
000002a0: 082c 953d 6dfd 0e3e bb03 f6bb 6032 073f
000002b0: 7c7a 74bd f5d6 53bd b783 033e dab6 443d
000002c0: cabe 563e ab54 9b3c e731 a13e 37c8 66bc
000002d0: ce40 c53a 939d 803e dd45 c63d fdb1 c43d
000002e0: d0c3 c5bd 1920 14bd 63e5 a9bd 42b2 fdbd
000002f0: c811 1e3e b117 24bd df6d 17be d4f6 81be
00000300: cc6f 84bd 48e5 bc3b 766f 1d3e 20a9 213d
00000310: dd6a 75bc e2d5 8abc 0a29 293e 1fc5 b4bc
00000320: aa05 3cbd 0a41 85bd 9ec6 0a3e 4c6e fe3d
00000330: 7560 313d 5325 c73d f9a8 e6bd ded6 c93b
00000340: c8e9 073e 3c2b 1c3f ca5d 57bd 1323 b93b
00000350: a956 0cbd ff56 3d3e fe93 0abe afec 0cbd
00000360: 8fe7 ef3e ec10 83bd 65e6 c1bd 985b 1bbe
00000370: 29ef 813d aed8 3cbd a20d d83a cfb4 cc3d
00000380: cfef 113e 36e8 903d f37d 23bd 4adb c03e
00000390: b337 12bd c3a1 e73c 17b3 9d3d 96cb 87be
000003a0: d4a4 6abe eeba 31be 0df1 6e3e 6a7a 853e
000003b0: 61c2 3fbc 7d50 18be 1349 94be 25e0 98bd
000003c0: f327 9e3e 8bd7 8fbd 8ed8 cdbe 2ece 063d
000003d0: 7983 773d c0cf 0c3d 9786 99bd 8b66 81bd
000003e0: fa7a be3c f956 043e d9c0 0ebe 0399 303e
000003f0: ad21 e33c 6ebf b1bc bf3f a33c 2240 e6bc

bias f4 [8]
0.14167953 0.03022246 0.06691711 -0.20291823 -0.08521316 -0.23324032 -0.088197336 0.07956849
00000000: 7014 113e 1895 f73c d60b 893d ccc9 4fbe
00000010: 3d84 aebd 8dd6 6ebe cea0 b4bd cef4 a23d

weight f4 [8, 256]
0.034596838 -0.013049354 0.15862545 0.3526818 0.024902854 0.10454147 0.07719463 0.09776566
0.004869796 0.06433385 -0.021838175 -0.08100079 0.65455216 -0.056793895 -0.19623451 0.03241223
-0.00408157 0.060830474 0.038084272 0.049522143 0.3194015 0.3488176 -0.013274408 0.43975118
0.09570202 -0.023780301 -0.026673816 0.071035154 -0.019587237 0.30301225 0.26862377 0.21066205
0.2359801 0.046564132 -0.007299578 -0.03240893 0.0646321 0.04889599 -0.0385765 0.06586787
0.0056433016 0.14107956 0.08886136 0.14845866 0.45392755 0.037278008 -0.06438659 0.052248094
-0.00817574 0.002648065 0.020828178 -0.00491245 0.017375324 0.11652023 0.421591 0.035374384
0.2587798 0.10625277 -0.07606536 -0.029297352 0.04458352 0.09462877 0.0074615 0.028419407
0.06148062 0.06516224 -0.0712339 -0.067277335 -0.033385374 0.48710454 -0.17839482 0.4416087
0.06131443 0.15235262 -0.22638877 -0.03612662 -0.04226918 0.7137757 0.017019195 0.17053165
0.027278293 -0.038315397 -0.016908163 -0.05284658 -0.017264646 0.22994344 -0.016578477 0.10447186
0.016858995 0.022568148 0.21051611 0.14330956 -0.04909399 0.06762497 0.028109964 -0.035746053
0.14401644 0.0014613156 0.7017675 0.17583779 0.10700906 0.22689816 -0.23898092 -0.023371533
-0.0043539675 0.048481073 0.118811175 -0.022679608 0.05268376 -0.018921357 0.08092794 0.32997307
-0.23718892 0.10897359 -0.021366695 0.015497055 0.0055665816 0.016445905 0.21077862 0.0045344415
0.023832247 -0.027949609 0.14555326 0.11676614 0.099974796 -0.078523904 -0.0073947445 -0.03305958
0.03690176 0.005869393 -0.0016695076 0.08525937 -0.08005195 0.25052685 0.06871336 0.4095735
0.082647376 0.020560067 -0.1400377 0.035112455 0.19612071 -0.060845777 0.085638836 0.009903211
0.581161 0.2816573 -0.0380886 0.0048511587 0.21173984 0.046681404 0.06040893 0.29788756
0.46709856 0.047828656 0.13329455 0.35107774 0.005731507 -0.081826754 0.009340375 0.35730928
0.074920855 0.03521999 0.25089145 0.004594177 0.07494492 0.259475 0.011056047 -0.029859725
0.36635324 0.107864395 0.0016348707 0.3258556 0.12913027 0.010427468 0.11947295 0.012277618
0.29202035 0.22463453 0.6424612 0.0128138345 0.3251915 -0.048240893 0.15909033 0.08630613
0.03846484 0.14721182 -0.006593256 -0.0015195342 -0.032964323 0.4084835 0.2941395 0.26840958
0.4249 0.08060969 0.022999438 -0.008462264 0.042189747 0.23699112 0.015915625 0.029511986
0.07325629 0.39787894 0.4136966 0.09099275 -0.08641379 0.45880905 0.15735868 0.09184661
0.07044029 0.06457071 0.011744518 0.019089598 0.0040012486 0.31628036 0.17574976 0.0734635
0.34395117 0.0040124496 0.03335471 0.6208634 -0.00023890848 0.0571023 0.11798292 0.02421738
0.37412933 0.029476224 -0.09648859 -0.001942241 0.17015636 0.056714665 -0.1496243 0.36940926
0.03658758 0.07678056 0.09155436 0.13383952 0.13305056 0.025297435 0.03626757 0.1884889
-0.05381483 0.053954862 0.41890642 0.10001259 -0.046809286 0.013810315 -0.05312929 -0.0041862344
-0.052852098 -0.08542243 0.36945224 0.010692698 0.014015097 0.11380053 0.1586286 0.016194068
00000000: 6ab5 0d3d f5cc 55bc b66e 223e b592 b43e
00000010: 1201 cc3c d719 d63d 3818 9e3d 5d39 c83d
00000020: cf92 9f3b 77c1 833d f9e5 b2bc bee3 a5bd
00000030: bb90 273f b7a0 68bd b3f1 48be b0c2 043d
00000040: b1be 85bb 6029 793d 41fe 1b3d bbd7 4a3d
00000050: 9888 a33e 3898 b23e e77c 59bc 1127 e13e
00000060: 6cff c33d e8ce c2bc 0c83 dabc e17a 913d
00000070: 6a75 a0bc 6c24 9b3e 0e89 893e cbb7 573e
00000080: c4a4 713e 08ba 3e3d 4c31 efbb 3abf 04bd
00000090: d65d 843d 2947 483d 6402 1ebd bce5 863d
000000a0: 72eb b83b 2977 103e f2fc b53d 8c05 183e
000000b0: 3169 e83e d3b0 183d 1edd 83bd 1902 563d
000000c0: 8af3 05bc 298b 2d3b db9f aa3c 9ef8 a0bb
000000d0: b256 8e3c 29a2 ee3d c7da d73e bbe4 103d
000000e0: c97e 843e 0d9b d93d 28c8 9bbd 0001 f0bc
000000f0: 369d 363d bbcc c13d 997f f43b d1cf e83c
00000100: 1ad3 7b3d c873 853d 14e3 91bd b3c8 89bd
00000110: 1abf 08bd c465 f93e 22ad 36be 891a e23e
00000120: d724 7b3d 5302 1c3e 75d2 67be 82f9 13bd
00000130: 7322 2dbd 01ba 363f d76b 8b3c d99f 2e3e
00000140: ba76 df3c 9bf0 1cbd fd82 8abc a875 58bd
00000150: 966e 8dbc 4b76 6b3e 96cf 87bc 58f5 d53d
00000160: e01b 8a3c d6e0 b83c 8991 573e bebf 123e
00000170: c816 49bd f67e 8a3d de46 e63c 746a 12bd
00000180: 0c79 133e 9d89 bf3a 09a7 333f d20e 343e
00000190: 9127 db3d fe57 683e 6ab7 74be a875 bfbc
000001a0: baab 8ebb 1794 463d 4653 f33d 96ca b9bc
000001b0: edca 573d f600 9bbc 8cbd a53d 3bf2 a83e
000001c0: a7e1 72be 8c2d df3d 3509 afbc 5ce7 7d3c
000001d0: df67 b63b 90b9 863c 5ad6 573e a795 943b
000001e0: d83b c33c 94f6 e4bc ea0b 153e 1623 ef3d
000001f0: 96bf cc3d 24d1 a0bd 9d4f f2bb 7b69 07bd
00000200: 4d26 173d 0954 c03b 61d3 daba 779c ae3d
00000210: 47f2 a3bd 0e45 803e 97b9 8c3d 9eb3 d13e
00000220: 0743 a93d 966d a83c 0b66 0fbe 14d2 0f3d
00000230: ded3 483e 6c39 79bd 6a63 af3d 1441 223c
00000240: f8c6 143f 6335 903e cb02 1cbd 78f6 9e3b
00000250: 54d2 583e 0035 3f3d 5b6f 773d b884 983e
00000260: 8b27 ef3e fbe7 433d 5e7e 083e 76c0 b33e
00000270: 5ecf bb3b c994 a7bd 5f08 193c 3ef1 b63e
00000280: 1b70 993d d642 103d d874 803e c08a 963b
00000290: b97c 993d e8d9 843e 6c24 353c 629c f4bc
000002a0: a792 bb3e 02e8 dc3d 2849 d63a 8cd6 a63e
000002b0: ba3a 043e f9d7 2a3c 3cae f43d 1028 493c
000002c0: b183 953e 9806 663e 5678 243f 1ef1 513c
000002d0: 807f a63e 3e98 45bd 93e8 223e 45c1 b03d
000002e0: 4f8d 1d3d b2be 163e 3d0c d8bb 1b2b c7ba
000002f0: 9905 07bd c024 d13e 7499 963e fb6c 893e
00000300: 7e8c d93e b116 a53d 5169 bc3c 4fa5 0abc
00000310: 28cf 2c3d cdad 723e 7c61 823c 1fc3 f13c
00000320: 6507 963d cab6 cb3e 0ad0 d33e 685a ba3d
00000330: b7f9 b0bd 05e9 ea3e a222 213e 131a bc3d
00000340: 0043 903d a63d 843d 146c 403c ca61 9c3c
00000350: e81c 833b 80ef a13e bff7 333e 0874 963d
00000360: 5e1a b03e de7a 833b f39e 083d e7f0 1e3f
00000370: 8283 7ab9 1ae4 693d 07a1 f13d 8763 c63c
00000380: e18d bf3e 1f78 f13c cf9b c5bd cb92 feba
00000390: 783d 2e3e a34d 683d 1d37 19be 3623 bd3e
000003a0: dcdc 153d 203f 9d3d da80 bb3d 3a0d 093e
000003b0: 683e 083e 913c cf3c 4e8d 143d 3c03 413e
000003c0: f06c 5cbd c6ff 5c3d e77a d63e 67d3 cc3d
000003d0: 18bb 3fbd a944 623c 199e 59bd ae2c 89bb
000003e0: 717b 58bd f4f1 aebd d828 bd3e 6d30 2f3c
000003f0: 949f 653c 4110 e93d 896f 223e 6ca9 843c

bias f4 [8]
-0.1969303 -0.18022406 -0.17560257 -0.19194987 -0.17514402 -0.22629574 -0.19591562 -0.19393772
00000000: 19a8 49be a88c 38be 29d1 33be 828e 44be
00000010: f458 33be 12ba 67be 1b9e 48be 9c97 46be

weight f4 [256, 36]
3.6406872 -0.6262145 0.6280799 0.6051255 0.57798 1.3084987 -0.45116204 0.5374955
0.15624627 -0.26842526 -0.090106286 0.1746816 -0.36706927 -0.092676304 -0.036702402 0.92138976
-0.30275422 0.035112195 1.1761985 0.08231278 -0.07265949 0.2026046 0.50948906 -0.49879754
0.44135997 0.043640565 0.63636863 -0.17678696 -0.049750276 0.14348927 -0.18351248 0.0092645995
0.095409356 -0.011194246 -0.1884809 -0.055038814 -2.9630728 0.43965176 -0.33153108 2.2090816
-0.045144506 -0.67357296 0.81600124 -1.2875745 0.14047517 -0.14472225 -1.2470798 -0.12731357
0.3285425 0.06329223 1.5411433 0.4017638 -0.2002755 -0.33129862 2.3937929 0.91022813
0.30148327 0.2406229 -1.6888525 -0.115665406 0.3365415 0.49576363 0.27477947 0.3531568
0.02122973 0.19767351 0.24762093 -0.008959077 -0.102184266 0.18633197 0.18730816 -0.19795965
0.5150914 -0.51128846 -1.004787 -0.6295428 0.0910576 0.333599 -0.5572019 0.24203888
1.0344157 -0.2547517 0.4157073 -1.6904454 -0.5299267 0.77380013 -0.76301664 -0.23521349
-0.2806035 0.7884536 -0.26217508 0.44592157 0.4780061 -0.4602978 -0.31255257 -0.41328686
-1.8161685 -2.0974088 -0.5179286 -0.63625574 0.100120105 -0.6257077 0.36364442 0.2389937
-0.46204606 -0.010946397 -0.6977134 -0.27561757 1.5756644 -2.173458 -0.6172443 -1.2705308
-0.014357858 -0.79790443 0.9335262 3.0001822 0.4137969 -0.6950519 0.40700436 -0.9707058
-1.2787672 -0.089131296 0.011178329 1.3906424 -1.6220626 0.83642334 -0.08515313 -0.47953242
1.2908877 -0.53393084 -0.63917786 0.9801061 -1.2093987 -0.62384754 0.7961904 0.32015872
-0.32875106 0.13334478 0.03891004 0.45463607 -0.28913802 0.1789194 0.49820915 0.25909957
-1.6724069 0.55681247 -0.76115894 -3.3488226 0.8386761 -1.6378285 0.74223125 -0.82197887
-1.0096246 2.7609534 -0.02857294 -2.224946 0.07577354 -1.2052004 -0.78645873 2.7638736
1.6368053 0.7907912 -0.5191247 0.96458095 -0.48802862 -0.47172746 0.7585234 0.8540695
0.66824615 -4.3893914 -1.7020181 -3.6463745 0.54998654 -0.9260618 -0.2577033 -0.4587847
-2.3808033 0.23755416 -0.9311423 0.29106608 4.7739577 0.33752093 0.18008015 3.4720755
0.5045842 -0.16132005 -3.99828 2.5577497 0.8155363 -4.382975 0.22843188 -0.83092666
-0.8049369 0.19229032 0.4199421 0.28872058 1.1111593 -3.8592634 0.85337245 -2.7398417
0.09950781 -2.4250104 0.5476591 -1.6055578 0.75255346 0.045277476 0.03580403 -0.067700565
0.18399656 0.13574156 -0.5159665 1.4449807 0.07999217 1.1908284 0.65133977 -1.8731201
-1.4837135 0.2872654 -0.8349165 -2.1433175 -1.3929555 -0.2224656 0.8861835 0.19695726
-0.90543336 -1.3088577 -0.41291806 -5.133918 1.0890936 -1.3991365 -0.801605 1.5556037
0.8703838 -1.2493343 -0.5819409 2.558554 -1.4994767 0.5048076 0.44191986 0.35062256
-1.5611649 -0.5396808 -2.1545613 -5.4216976 0.22976264 0.5497841 1.0737619 1.2892101
1.4587812 -1.4842609 0.02828883 -1.6501622 1.5338764 0.2120566 -0.060023226 -2.1853971
00000000: 0501 6940 984f 20bf d8c9 203f 81e9 1a3f
00000010: 7ff6 133f e37c a73f b6fe e6be 4e99 093f
00000020: 06ff 1f3e 096f 89be a589 b8bd bcdf 323e
00000030: 81f0 bbbe 13cd bdbd 4255 16bd 33e0 6b3f
00000040: 9a02 9bbe ced1 0f3d ac8d 963f 9a93 a83d
00000050: 80ce 94bd 9577 4f3e e06d 023f 6462 ffbe
00000060: eff9 e13e 73c0 323d 0ee9 223f a407 35be
00000070: f2c6 4bbd daee 123e b2ea 3bbe 8cca 173c
00000080: fb65 c33d 1268 37bc 2301 41be 6170 61bd
00000090: fca2 3dc0 091a e13e 71be a9be 9861 0d40
000000a0: 72e9 38bd 476f 2cbf 75e5 503f 3ecf a4bf
000000b0: b9d8 0f3e 1232 14be 50a0 9fbf 7d5e 02be
000000c0: b936 a83e 5b9f 813d 2f44 c53f fcb3 cd3e
000000d0: 0515 4dbe f99f a9be e733 1940 b604 693f
000000e0: 045c 9a3e d965 763e 522c d8bf fce1 ecbd
000000f0: 2b4f ac3e bbd4 fd3e e5af 8c3e f8d0 b43e
00000100: f9e9 ad3c ed6a 4a3e 5790 7d3e 18c9 12bc
00000110: fc45 d1bd cfcd 3e3e b6cd 3f3e efb5 4abe
00000120: 08dd 033f cde3 02bf dc9c 80bf b829 21bf
00000130: 687c ba3d 7dcd aa3e c9a4 0ebf 0ad9 773e
00000140: bc67 843f d16e 82be 96d7 d43e 8460 d8bf
00000150: 47a9 07bf c417 463f 0f55 43bf cedb 70be
00000160: 43ab 8fbe 18d8 493f d03b 86be d54f e43e
00000170: 37bd f43e 27ac ebbe e406 a0be 569a d3be
00000180: 3678 e8bf f23b 06c0 f896 04bf a8e1 22bf
00000190: c50b cd3d 612e 20bf 9a2f ba3e c4ba 743e
000001a0: 4d91 ecbe 8458 33bc 589d 32bf bf1d 8dbe
000001b0: 5faf c93f f019 0bc0 b903 1ebf c1a0 a2bf
000001c0: 393d 6bbc 7743 4cbf 93fb 6e3f fc02 4040
000001d0: 30dd d33e ecee 31bf e062 d03e 2d80 78bf
000001e0: a5ae a3bf 788a b6bd 4f25 373c 9200 b23f
000001f0: bf9f cfbf d71f 563f c464 aebd 4685 f5be
00000200: cf3b a53f b1af 08bf 29a1 23bf 3ce8 7a3f
00000210: 94cd 9abf 79b4 1fbf 22d3 4b3f d8eb a33e
00000220: 0f52 a8be 898b 083e 2260 1f3d 0fc6 e83e
00000230: e609 94be a636 373e 4515 ff3e b3a8 843e
00000240: 6e11 d6bf 438b 0e3f 50db 42bf 1c53 56c0
00000250: 7ab3 563f 5da4 d1bf de02 3e3f 356d 52bf
00000260: 613b 81bf 76b3 3040 cc11 eabc 8465 0ec0
00000270: 282f 9b3d 0244 9abf 5c55 49bf 4ee3 3040
00000280: d682 d13f 4b71 4a3f 5be5 04bf c7ee 763f
00000290: e3de f9be 4386 f1be 972e 423f 4ca4 5a3f
000002a0: 2e12 2b3f e575 8cc0 bbdb d9bf 335e 69c0
000002b0: ebcb 0c3f 6312 6dbf b0f1 83be d4e5 eabe
000002c0: 155f 18c0 6641 733e 575f 6ebf 9d06 953e
000002d0: 43c4 9840 8bcf ac3e ee66 383e 7c36 5e40
000002e0: 6e2c 013f 1531 25be d2e3 7fc0 2cb2 2340
000002f0: fdc6 503f 5541 8cc0 0cea 693e 9cb7 54bf
00000300: 5810 4ebf c1e7 443e a702 d73e 2fd3 933e
00000310: 783a 8e3f 2cfe 76c0 9e76 5a3f 9159 2fc0
00000320: c0ca cb3d 5f33 1bc0 6333 0c3f eb82 cdbf
00000330: 58a7 403f e074 393d 3fa7 123d 98a6 8abd
00000340: 9869 3c3e d6ff 0a3e 6116 04bf 21f5 b83f
00000350: efd2 a33d 116d 983f 34be 263f 66c2 efbf
00000360: 53ea bdbf 7314 933e 16bd 55bf 1d2c 09c0
00000370: 5e4c b2bf 06ce 63be ecdc 623f 2aaf 493e
00000380: 7bca 67bf a688 a7bf ff69 d3be 0e49 a4c0
00000390: 6b67 8b3f e816 b3bf fc35 4dbf 061e c73f
000003a0: 79d1 5e3f 30ea 9fbf 14fa 14bf 59bf 2340
000003b0: daee bfbf 123b 013f 5243 e23e cd84 b33e
000003c0: 40d4 c7bf 8528 0abf 55e4 09c0 8c7e adc0
000003d0: e646 6b3e a7be 0c3f 0871 893f d604 a53f
000003e0: 58b9 ba3f 43fc bdbf fabd e73c 8438 d3bf
000003f0: 1056 c43f 5e25 593e eada 75bd 8cdd 0bc0

bias f4 [256]
1.2563777 -0.8843783 -0.6251133 -0.38689992 -0.57119775 0.33267164 -0.69516957 0.15752444
-1.4192585 2.3228984 -0.8605947 -1.0819852 -1.4972873 0.8902227 -0.71513313 0.3574365
-0.6629771 0.17325094 -0.9493026 2.555855 -0.9599173 2.189186 -1.0867344 -0.9347211
0.36105788 -1.0089678 -0.55914587 -0.0988668 2.367787 0.70884216 -1.1684641 -0.49254057
-1.0765691 -1.3558191 -1.069252 -0.4810134 0.18007094 0.5704874 -0.8968266 -0.2189295
1.1719996 0.3584697 -0.39437675 0.5707087 0.83138883 -0.7376546 -1.5804633 0.6990713
-1.3935237 -1.4902014 -0.18195254 -1.0886323 -1.741632 1.3582491 -0.9949811 -0.42743236
-0.4019093 -1.440739 -0.77407193 1.6281204 0.7750265 0.41715118 0.43042305 -1.0323685
-0.4000474 -0.2113574 0.681956 1.6270359 -0.89806616 3.1224673 -0.4135185 0.60894066
-1.421875 -1.3059797 0.28642416 -0.7323958 0.5175517 -1.3811208 0.93010855 -0.06668599
-1.0058348 -1.0231702 -0.00037045227 1.0733738 -0.971824 0.79403174 -1.6779071 -1.1285576
-0.48430592 -0.99411464 0.49830607 -1.7551248 -0.051948916 -0.18218307 -0.032811157 -1.4591991
-0.30928686 -0.21454032 -0.84863436 1.0170325 -0.5883061 -1.4494569 0.042326365 0.47518557
-1.0131736 -0.48041433 -0.92903215 -0.32929802 0.47598702 0.5455704 -0.97107524 -0.80023366
0.12537453 1.3582237 -0.16369933 0.4716395 1.4314947 -0.45570028 -0.9980414 0.34196618
0.5629288 0.5225612 -0.6612228 0.57517636 -0.46963885 -1.0288675 1.0286752 2.1862922
0.7376709 -0.26146927 -0.7186815 1.4024767 0.060622707 -1.1051177 0.5313937 -0.56635463
0.20870765 0.54714 0.2996318 1.218962 -1.6986675 0.22687303 1.3250121 -1.6841799
-0.6748848 0.56110764 -0.7007569 1.2973263 0.5505781 -1.7214549 1.6026918 0.5565649
1.30059 0.1462853 1.2735996 -0.23272766 0.33386353 -1.5199825 1.4008965 -0.17979886
-0.36524126 -0.02334514 0.44598782 0.43383452 0.2367376 -1.0915011 -0.060055014 -1.4907393
-1.270769 0.2404929 -0.2360999 0.14410006 -0.635413 -0.6096906 -1.2270907 1.3796062
-0.12529607 -0.27335232 -0.5127818 -0.05457753 -0.16101423 1.5964036 -0.60136586 0.15935425
0.23932879 0.44108337 0.6011435 0.33938035 -1.4265058 0.49093503 -1.0567986 -0.11474634
0.79725164 -0.31961742 1.6148069 0.91879654 -1.1008211 -1.3480593 -1.0340374 0.16324097
-0.90539694 -0.70891047 -0.0831397 -0.34118682 -0.1708691 -1.0026278 -1.3790308 -0.0088829445
0.82093745 -0.7474014 -0.17193507 0.6987227 0.7772632 -0.16304317 -0.93474627 -1.6055864
0.77248216 -2.0298047 0.81809545 -0.11765521 1.2335718 -0.9753632 0.8257692 0.22451167
0.38842246 -0.9446004 0.49549714 0.32850584 0.26948884 0.09821488 -1.4462956 0.50666326
-0.7153566 -0.8659738 -0.35441765 -0.9162819 0.91842175 -1.3941466 -0.6297899 -1.4984894
-0.8209564 -0.24413413 -0.05216616 -0.297245 1.5891213 -0.72939634 0.22852708 -1.1105186
-0.076405264 0.11934025 0.24298868 1.6383988 -1.1004733 -0.48858696 -0.10182993 -0.7213644
00000000: fcd0 a03f 9e66 62bf 6d07 20bf bf17 c6be
00000010: 043a 12bf f053 aa3e a2f6 31bf 164e 213e
00000020: 43aa b5bf 5eaa 1440 ef4f 5cbf 7e7e 8abf
00000030: 1ca7 bfbf a3e5 633f f712 37bf eb01 b73e
00000040: deb8 29bf b268 313e 7f05 73bf 2193 2340
00000050: 24bd 75bf a01b 0c40 1d1a 8bbf e249 6fbf
00000060: 94dc b83e db25 81bf 2f24 0fbf ad7a cabd
00000070: d289 1740 ae76 353f 3b90 95bf 472e fcbe
00000080: 04cd 89bf 7b8b adbf 40dd 88bf 6347 f6be
00000090: 8464 383e 760b 123f 6e96 65bf 0e2f 60be
000000a0: 1504 963f 5789 b73e c0eb c9be f719 123f
000000b0: e6d5 543f efd6 3cbf 9f4c cabf 56f6 323f
000000c0: fc5e b2bf ebbe bebf c451 3abe 4e58 8bbf
000000d0: cced debf 1bdb ad3f 15b7 7ebf 6ad8 dabe
000000e0: 0ec7 cdbe 236a b8bf 9429 46bf 4066 d03f
000000f0: 2368 463f d794 d53e 6960 dc3e a724 84bf
00000100: 03d3 ccbe 136e 58be ab94 2e3f b642 d03f
00000110: aae7 65bf 81d6 4740 b2b8 d3be 89e3 1b3f
00000120: 0000 b6bf 582a a7bf 30a6 923e 4b7e 3bbf
00000130: 457e 043f 91c8 b0bf 981b 6e3f aa92 88bd
00000140: 32bf 80bf 3ef7 82bf 4339 c2b9 5064 893f
00000150: 75c9 78bf aa45 4b3f a9c5 d6bf 9374 90bf
00000160: f2f6 f7be 4c7e 7ebf f921 ff3e eea7 e0bf
00000170: 63c8 54bd 338e 3abe fe64 06bd 09c7 babf
00000180: d95a 9ebe 75b0 5bbe 1a40 59bf 1f2e 823f
00000190: 3b9b 16bf ce87 b9bf 695e 2d3d 864b f33e
000001a0: acaf 81bf def8 f5be 0dd5 6dbf c099 a8be
000001b0: 92b4 f33e 80aa 0b3f 6398 78bf 1ddc 4cbf
000001c0: 2e62 003e 46da ad3f cca0 27be bc7a f13e
000001d0: 383b b73f 8c51 e9be a47f 7fbf 3116 af3e
000001e0: 1a1c 103f 92c6 053f e645 29bf c23e 133f
000001f0: 8174 f0be eeb1 83bf a1ab 833f 36ec 0b40
00000200: 00d8 3c3f 4ddf 85be 83fb 37bf 5b84 b33f
00000210: 844f 783d 7f74 8dbf 6b09 083f 9efc 10bf
00000220: 75b7 553e 5e11 0c3f 5769 993e f206 9c3f
00000230: f06d d9bf 6751 683e ff99 a93f 3593 d7bf
00000240: 40c5 2cbf c0a4 0f3f ce64 33bf ca0e a63f
00000250: b0f2 0c3f a258 dcbf 0125 cd3f 0a7b 0e3f
00000260: bc79 a63f d0cb 153e 5005 a33f 2950 6ebe
00000270: 29f0 aa3e c98e c2bf 9450 b33f 311d 38be
00000280: e700 bbbe 4f3e bfbc 8458 e43e 8f1f de3e
00000290: 576b 723e 4fb6 8bbf 3ffc 75bd 8cd0 bebf
000002a0: 8fa8 a2bf c543 763e 2cc4 71be f78e 133e
000002b0: 6daa 22bf af14 1cbf 4f11 9dbf f096 b03f
000002c0: 9d4d 00be d6f4 8bbe ab45 03bf b08c 5fbd
000002d0: eae0 24be f456 cc3f 1df3 19bf c32d 233e
000002e0: 9b12 753e aed5 e13e 8ae4 193f 43c3 ad3e
000002f0: be97 b6bf d65b fb3e 2d45 87bf 2100 ebbd
00000300: af18 4c3f e5a4 a3be feb1 ce3f 4036 6b3f
00000310: b5e7 8cbf 358d acbf 565b 84bf a428 273e
00000320: 18c8 67bf 287b 35bf 2645 aabd 0ab0 aebe
00000330: 4ff8 2ebe 1c56 80bf 1584 b0bf c589 11bc
00000340: f528 523f b355 3fbf bf0f 30be 7edf 323f
00000350: b9fa 463f caf4 26be 884b 6fbf db83 cdbf
00000360: 64c1 453f 52e8 01c0 b46e 513f 37f5 f0bd
00000370: aee5 9d3f 67b1 79bf 9c65 533f 63e6 653e
00000380: 4fdf c63e 55d1 71bf cdb1 fd3e eb31 a83e
00000390: 71fa 893e e224 c93d 3720 b9bf afb4 013f
000003a0: 9c21 37bf 75b0 5dbf 3b76 b5be 7391 6abf
000003b0: b01d 6b3f 6573 b2bf e939 21bf 80ce bfbf
000003c0: 332a 52bf 4cfe 79be 2fac 55bd 7f30 98be
000003d0: 5468 cb3f b8b9 3abf 0103 6a3e 7925 8ebf
000003e0: 5d7a 9cbd a968 f43d 06d2 783e 0db7 d13f
000003f0: 4fdc 8cbf 1228 fabe 368c d0bd 56ab 38bf
