data/HopperPyBulletEnv-v0_sac_grad_False/HopperPyBulletEnv-v0_sac_grad_False_s2/pyt_save/model.pt (torch_old, 859870 bytes, 18 tensors)

weight f4 [256, 15]
-1.2122502 -0.0614447 -0.30076486 3.8797624 0.11029938 0.08450318 -0.029676005 -1.4626632
-2.9425786 -1.3596848 -0.44917232 0.9029966 -1.1630524 -1.6109962 2.732615 -2.683116
0.10926843 1.3185545 -2.2749965 0.24831453 0.14283904 -0.017536432 -0.9049782 1.3501517
0.79154646 1.3931538 0.4637335 2.515619 1.5794572 1.884018 0.15738897 -0.16756651
-0.5488926 0.8881641 0.012719452 -0.15398505 0.11347416 0.5834503 -0.8034376 -0.04821302
-0.91585344 -0.29479024 -0.5413772 -0.05652622 -0.19405718 -0.7435774 0.109432906 1.0558256
2.4519506 0.019716382 -0.23832017 0.17344427 -1.2871375 1.266733 1.7093601 0.20177794
0.5138789 1.190161 0.021605823 -1.3204397 1.0195706 -0.22067203 -0.78406376 -1.4728031
0.2293436 -0.13318375 0.08565846 0.009868527 -0.3086608 -0.31771383 -0.6471707 0.18365148
-0.4494507 0.12573726 -1.2566823 0.116150446 0.025015563 -0.3053226 -0.062054336 -0.16321038
0.21715221 -0.0316938 -0.18490025 -0.0013431688 0.069522366 -0.14500861 0.02732252 0.062372353
-0.08430636 -0.127239 0.028699866 -0.18132122 -0.6742051 1.4767131 0.1544815 -0.281115
-0.19898397 -0.6685098 -3.3361387 0.35911685 -2.5448961 -0.65382034 -1.4855012 0.02422659
-1.7713586 -3.7320094 0.1640743 1.6404301 -0.6627934 0.03900227 -3.159491 -0.187121
-3.6122658 2.995151 -2.9821775 2.930997 -0.8420843 -1.3245895 1.2190452 0.016135378
-1.802044 0.11503351 -0.39115754 -3.8283174 0.17026922 -1.9845006 -0.09206644 -1.8149947
-0.7575806 -2.2560923 -0.8933564 -1.432097 2.3078568 1.5498593 1.687004 0.022841338
0.096711546 -1.6977795 -0.22842178 -0.019481182 -0.31143817 -0.03886956 0.42283443 -1.1037464
-0.2303779 -1.8523844 -0.852872 -0.39464155 -0.09102721 0.15423283 -0.56699145 -0.04163623
0.74702024 -2.2705204 -0.086528376 -0.63859606 -0.18814151 0.01900237 0.23532745 -0.12899137
0.9656711 -2.1009157 -0.21028352 0.18419416 0.90015084 -0.1553828 -0.15182228 -0.47874126
0.37343082 -0.20359169 -0.30998152 0.02592805 0.56524825 -0.9895973 -0.005944369 -0.1747235
-0.4213555 -0.39104626 -0.14538631 -0.11977295 2.5800247 -0.0569838 0.29902416 0.82334644
-0.24253282 3.1807628 -0.091314495 0.31955242 -0.5109279 1.2115756 0.9485892 -0.20587748
0.5216315 0.11162828 1.7941484 0.5568481 0.073403776 0.21259847 1.0601885 0.19746354
-2.0814588 -0.16106156 0.339075 0.17448957 -1.4107941 0.02629183 -1.3923963 -1.4407564
1.143403 1.1909841 2.731414 -0.07047248 1.008815 1.4595091 -0.19343638 1.4411805
0.03803304 -0.55164427 0.29771852 1.1022552 0.0152344 -0.9095485 -1.7638435 -0.5810461
0.5896795 0.7409042 -0.10894622 -0.053272888 0.17994523 -0.13277817 0.47527966 0.052960128
0.3636418 -0.14599144 -0.20186554 -0.14017984 -0.10346147 -0.06895573 0.13834004 -0.4798892
2.5281157 0.10174173 -0.4050014 -0.0064434493 0.22084126 0.32436165 0.14280921 0.928849
-0.95400727 -0.586809 -0.53097206 -0.60331935 -0.23265772 -0.35399276 -0.17511772 2.3892863
00000000: 042b 9bbf 70ad 7bbd dafd 99be 074e 7840
00000010: a4e4 e13d 0110 ad3d 181b f3bc 8c38 bbbf
00000020: 3553 3cc0 270a aebf eaf9 e5be c92a 673f
00000030: e7de 94bf 2035 cebf 2ae3 2e40 2cb8 2bc0
00000040: 20c8 df3d 65c6 a83f 8b99 11c0 2a46 7e3e
00000050: 6644 123e 90a8 8fbc a7ac 67bf c5d1 ac3f
00000060: caa2 4a3f dd52 b23f 7a6e ed3e e7ff 2040
00000070: a72b ca3f 8027 f13f 932a 213e 8e96 2bbe
00000080: 3a84 0cbf b95e 633f 4065 503c 42ae 1dbe
00000090: 2465 e83d 005d 153f 16ae 4dbf 047b 45bd
000000a0: 5f75 6abf bfee 96be b297 0abf 0a88 67bd
000000b0: edb6 46be 175b 3ebf 5c1e e03d 4b25 873f
000000c0: c2ec 1c40 4084 a13c 340a 74be 609b 313e
000000d0: ecc0 a4bf 4f24 a23f 50cc da3f e09e 4e3e
000000e0: 918d 033f 3257 983f b2fe b03c 2b04 a9bf
000000f0: 4a81 823f d9f7 61be 67b8 48bf d084 bcbf
00000100: 0cd9 6a3e 5261 08be b46d af3d 9aaf 213c
00000110: ca08 9ebe 63ab a2be fbac 25bf 220f 3c3e
00000120: 671e e6be 45c1 003e f7da a0bf 49e0 ed3d
00000130: 70ed cc3c 3e53 9cbe b02c 7ebd 9f20 27be
00000140: 265d 5e3e 5cd1 01bd 7e56 3dbe 440d b0ba
00000150: be61 8e3d 237d 14be 7ad3 df3c 277a 7f3d
00000160: d0a8 acbd f14a 02be fb1b eb3c 45ac 39be
00000170: b598 2cbf ef04 bd3f 6630 1e3e 4eee 8fbe
00000180: 74c2 4bbe 7523 2bbf 4c83 55c0 2ade b73e
00000190: 94df 22c0 c560 27bf e724 bebf d776 c63c
000001a0: e1bb e2bf 3ed9 6ec0 1803 283e 9df9 d13f
000001b0: d4ac 29bf d8c0 1f3d 1a35 4ac0 a69c 3fbe
000001c0: 5d2f 67c0 8eb0 3f40 ffdb 3ec0 7495 3b40
000001d0: d692 57bf 268c a9bf ac09 9c3f 572e 843c
000001e0: 61a9 e6bf b096 eb3d cd45 c8be 2703 75c0
000001f0: 0e5b 2e3e 1e04 febf 548d bcbd bf51 e8bf
00000200: cdf0 41bf d163 10c0 01b3 64bf f44e b7bf
00000210: edb3 1340 ca61 c63f bfef d73f c21d bb3c
00000220: b410 c63d d750 d9bf 66e7 69be 0097 9fbc
00000230: d374 9fbe b035 1fbd c17d d83e 9047 8dbf
00000240: 2fe8 6bbe ef1a edbf d255 5abf 750e cabe
00000250: 796c babd 36ef 1d3e 5a26 11bf c08a 2abd
00000260: b83c 3f3f 3550 11c0 ca35 b1bd 087b 23bf
00000270: 2ba8 40be dcaa 9b3c aef9 703e 5016 04be
00000280: 3936 773f 6775 06c0 9054 57be 659d 3c3e
00000290: 4970 663f ab1c 1fbe 4d77 1bbe 931d f5be
000002a0: 5332 bf3e 577a 50be e6b5 9ebe 1067 d43c
000002b0: 1cb4 103f 4056 7dbf fbc8 c2bb b8ea 32be
000002c0: e8bb d7be 3737 c8be 26e0 14be 854b f5bd
000002d0: 201f 2540 d867 69bd b219 993e d5c6 523f
000002e0: 865a 78be 9e91 4b40 1803 bbbd 609c a33e
000002f0: 2ccc 02bf e914 9b3f bed6 723f 8cd1 52be
00000300: a489 053f 5e9d e43d a8a6 e53f 998d 0e3f
00000310: b854 963d 6ab3 593e 42b4 873f e233 4a3e
00000320: 9f36 05c0 52ed 24be 3d9b ad3e 65ad 323e
00000330: e794 b4bf f761 d73c 0b3a b2bf b56a b8bf
00000340: 085b 923f 2b72 983f 7dcf 2e40 e053 90bd
00000350: da20 813f 32d1 ba3f 3014 46be 9a78 b83f
00000360: 88c8 1b3d 8f38 0dbf 906e 983e b316 8d3f
00000370: b499 793c 2cd8 68bf a0c5 e1bf 70bf 14bf
00000380: 3cf5 163f e6ab 3d3f 321f dfbd ac34 5abd
00000390: 9043 383e 00f7 07be db57 f33e b8ec 583d
000003a0: 422f ba3e c87e 15be d7b5 4ebe 4e8b 0fbe
000003b0: 9be3 d3bd a938 8dbd 03a9 0d3e 0ab4 f5be
000003c0: a6cc 2140 f85d d03d 585c cfbe 9223 d3bb
000003d0: 3624 623e bb12 a63e 943c 123e 0cc9 6d3f
000003e0: d239 74bf 1d39 16bf c9ed 07bf 2373 1abf
000003f0: d33d 6ebe 8a3e b5be 0f52 33be 11ea 1840

bias f4 [256]
-0.5958396 1.2721411 -0.43707785 1.2807565 -0.75848633 -0.19957827 -0.6384106 1.286052
-0.40950212 -1.3387125 0.78523356 -0.668647 -0.052187417 0.23223293 1.1289392 -0.3061257
-0.0475633 0.80583036 -0.41075847 0.9190814 1.621207 0.7668979 0.7194637 1.1925144
-0.56590515 -0.42405096 0.70703965 -1.0110981 -0.40071768 0.641437 -0.19452503 1.4174533
-0.25645417 -0.41351196 -0.708901 -0.28195873 0.6102325 -0.4807192 2.635588 -1.0229319
-1.2405261 1.3703449 -1.024189 0.025648639 0.34754542 -0.68299437 0.6489141 -0.47644386
0.45700875 -0.75640345 -0.6620616 -0.24524732 -0.39545447 -0.8975333 -0.5532723 -0.38862523
-0.042678483 0.4303047 -0.38865077 -0.24447082 0.17145543 -0.19750275 1.4486213 0.3736519
-0.35187435 0.45533124 0.2877934 0.64406604 0.22600614 1.262751 -0.20465726 0.41983247
-0.5033355 -0.099982515 1.6703998 -0.23008838 -0.3044532 0.010261261 0.63807464 -0.4920596
-0.4703444 0.18564431 -0.036194198 0.65727836 1.3726801 0.7640925 -0.9242341 0.3847851
0.36171162 -0.6392456 -0.06331264 -0.17399527 -0.8612036 -0.38082808 0.69108254 0.07811651
-0.1451649 -1.081712 -0.3704253 -1.0693609 0.111370586 -0.33166417 0.34424105 -0.6385292
-0.026281992 0.28263205 0.465416 0.57430655 0.5916445 0.8949103 1.8014399 -0.84649116
-0.69766784 0.7704428 -0.15652828 -0.76279193 -1.5231959 -0.32054797 -0.48717177 -0.062310915
-0.8310402 -0.5907461 1.501916 -0.67973644 0.079273574 -0.4932771 0.49759266 -0.61767423
0.08214873 0.59312004 -0.48109192 -0.44669217 0.03545187 0.22509 1.2124782 -0.75015503
-0.625274 -0.8302799 -0.4031562 -0.69459987 -0.14660348 -0.5636847 -0.38664675 -0.47513834
-0.086508185 -0.83586293 1.7681408 0.7228294 -0.8406071 0.62158835 -1.5890223 -0.59751666
-0.5808254 -0.38224322 2.5337207 0.060725898 0.84914094 -0.23376921 1.2111048 -0.2030594
0.19594364 -0.44607016 -0.41145986 -0.2503181 1.1635444 -0.5407977 -0.19909248 -0.6706367
1.1421685 0.8758777 -0.44444913 -0.49752325 -0.28315082 -0.4928689 -0.46345034 0.22634831
-0.021981068 0.12938076 -0.31690702 2.18448 -0.6536868 0.32980922 -0.5165247 1.5362612
-0.5395843 -0.44732624 -0.5571487 0.9046283 0.4598625 -0.54623145 -1.0424606 0.03096083
-0.93877465 -0.41520235 0.9188259 -0.66917336 -0.58593154 -0.15862423 -0.016063124 -0.22173443
0.18060699 0.4978782 -0.52559686 -0.91550857 -0.17347413 -1.0440462 -0.761774 -0.51199067
-0.10452352 0.04351311 0.93669486 0.12896818 -0.40107614 0.19834328 0.27816686 -0.19289444
0.42353663 -0.40157026 -1.9930644 -0.6475142 -0.5259287 -0.1790121 0.35051653 0.3949042
0.027127447 -0.009227675 0.8604687 -0.1561455 -1.4644773 -0.33277324 1.0470074 -1.774408
0.43970594 1.645441 0.93019533 0.64041233 -0.19750439 -0.18334477 -0.2611583 1.8860528
-0.20079541 -0.49259567 1.4763906 -0.15173252 -0.66564673 0.70986396 -0.44620365 0.21167542
-0.59442407 0.016843142 -0.7491327 -0.42568883 0.014805503 0.70045024 1.0329787 -0.9654736
00000000: f288 18bf 85d5 a23f abc8 dfbe d4ef a33f
00000010: 292c 42bf 3f5e 4cbe e16e 23bf 5a9d a43f
00000020: 43aa d1be ee5a abbf 1105 493f 732c 2bbf
00000030: 79c2 55bd 78ce 6d3e 1481 903f 82bc 9cbe
00000040: bcd1 42bd e64a 4e3f ef4e d2be eb48 6b3f
00000050: b683 cf3f 6c53 443f c62e 383f 50a4 983f
00000060: 29df 10bf 351d d9be 8d00 353f aa6b 81bf
00000070: de2a cdbe 3735 243f 9231 47be 1c6f b53f
00000080: f64d 83be d7b7 d3be 897a 35bf e55c 90be
00000090: 3238 1c3f d420 f6be 79ad 2840 6fef 82bf
000000a0: 8fc9 9ebf 7667 af3f a018 83bf 181d d23c
000000b0: 79f1 b13e b8d8 2ebf 3c1f 263f 73f0 f3be
000000c0: 0dfd e93e a8a3 41bf de7c 29bf 1d22 7bbe
000000d0: 0279 cabe bec4 65bf 41a3 0dbf e3f9 c6be
000000e0: a2cf 2ebd e650 dc3e 3cfd c6be 8f56 7abe
000000f0: 0392 2f3e 293e 4abe 6c6c b93f 4d4f bf3e
00000100: e028 b4be 2d21 e93e a859 933e 83e1 243f
00000110: 276e 673e d3a1 a13f ac91 51be 48f4 d63e
00000120: 98da 00bf a2c3 ccbd a9cf d53f 4a9c 6bbe
00000130: 4ae1 9bbe d91e 283c dc58 233f 3cef fbbe
00000140: fbd0 f0be 8b19 3e3e 5e40 14bd 6543 283f
00000150: fbb3 af3f 919b 433f 9b9a 6cbf 8d02 c53e
00000160: 4432 b93e 9aa5 23bf 0faa 81bd d12b 32be
00000170: d777 5cbf e6fb c2be c9ea 303f 8cfb 9f3d
00000180: 1ca6 14be 8a75 8abf 63a8 bdbe d1e0 88bf
00000190: 4316 e43d e3cf a9be 5d40 b03e a676 23bf
000001a0: 554d d7bc 26b5 903e 024b ee3e c105 133f
000001b0: 0476 173f d718 653f 9595 e63f a5b3 58bf
000001c0: 5c9a 32bf bd3b 453f f348 20be 5546 43bf
000001d0: 15f8 c2bf dd1e a4be 946e f9be bb39 7fbd
000001e0: 0dbf 54bf 233b 17bf c93e c03f 3503 2ebf
000001f0: 2f5a a23d d18e fcbe 77c4 fe3e e61f 1ebf
00000200: 983d a83d b7d6 173f ae51 f6be d6b4 e4be
00000210: fb35 113d fe7d 663e 7c32 9b3f 290a 40bf
00000220: f511 20bf 398d 54bf 7d6a cebe 4cd1 31bf
00000230: 391f 16be a44d 10bf 90f6 c5be 5545 f3be
00000240: 342b b1bd 1dfb 55bf 7052 e23f 590b 393f
00000250: 0732 57bf 6a20 1f3f 1565 cbbf daf6 18bf
00000260: f9b0 14bf 62b5 c3be 7b28 2240 b8bb 783d
00000270: 4d61 593f 3261 6fbe 7b05 9b3f ceee 4fbe
00000280: 73a5 483e 4f63 e4be deaa d2be b229 80be
00000290: 06ef 943f b871 0abf e6de 4bbe d9ae 2bbf
000002a0: 9432 923f 8539 603f d68e e3be 5ebb febe
000002b0: 25f9 90be 5059 fcbe 5d49 edbe dac7 673e
000002c0: a411 b4bc 647c 043e a341 a2be 85ce 0b40
000002d0: 0558 27bf c1dc a83e f63a 04bf 35a4 c43f
000002e0: 3222 0abf f207 e5be 4ca1 0ebf b895 673f
000002f0: 1973 eb3e d3d5 0bbf 596f 85bf 91a1 fd3c
00000300: 8953 70bf 6795 d4be 2d38 6b3f f24e 2bbf
00000310: 9cff 15bf 646e 22be d096 83bc 5a0e 63be
00000320: 0af1 383e e4e9 fe3e 848d 06bf c55e 6abf
00000330: 34a3 31be 4ea3 85bf 9f03 43bf d211 03bf
00000340: 6d10 d6bd ce3a 323d 3ccb 6f3f 3c10 043e
00000350: da59 cdbe 801a 4b3e e36b 8e3e 1f86 45be
00000360: cbd9 d83e 9e9a cdbe bc1c ffbf 7ec3 25bf
00000370: 43a3 06bf f34e 37be e776 b33e e230 ca3e
00000380: 613a de3c ad2f 17bc ad47 5c3f 9be4 1fbe
00000390: fe73 bbbf 4161 aabe 5704 863f cd1f e3bf
000003a0: 2321 e13e d09d d23f 4821 6e3f 10f2 233f
000003b0: 973e 4abe bbbe 3bbe 8ab6 85be 2e6a f13f
000003c0: 509d 4dbe 8035 fcbe 5efa bc3f c55f 1bbe
000003d0: d367 2abf a5b9 353f ce74 e4be 71c1 583e
000003e0: 2d2c 18bf a1fa 893c 29c7 3fbf e3f3 d9be
000003f0: c892 723c b550 333f a538 843f 4729 77bf

weight f4 [256, 256]
-2.074842 -0.65897816 -0.039616324 -0.56284827 -0.20124249 -0.04529798 0.2236407 0.066050366
-0.14766143 -0.04642594 -0.21112992 -0.02349538 0.799844 -0.07131044 0.2992549 -0.030168535
0.33401766 0.1601619 -0.17166366 0.08453612 -0.0006563843 -0.5144615 -0.6058055 -0.71470803
-0.06076281 -0.2670332 0.61633843 -0.07287781 -0.43004543 -0.26232865 -0.03354302 0.3093202
-0.07504267 0.031573396 1.6593295 -0.15826957 -0.22166333 -0.009952114 -0.31595424 -0.13366707
-0.7993563 -1.0942912 -0.27599224 0.1778667 -0.67577696 -0.11137708 0.24897708 0.3345887
0.38987768 0.28370726 -0.097364575 -0.7210062 -0.13390945 0.1519278 -0.08452515 0.052144162
-0.03525853 0.19291939 -0.08881554 0.023102172 -0.38236013 0.037424937 -0.6638916 -0.5555542
0.024626242 0.4256951 -0.41661173 0.26452202 0.15593034 -1.7008867 0.030555703 -0.12466887
-0.14352287 -0.9695749 -0.5365948 0.8358739 0.008385907 -0.65543175 -1.1475377 0.8385214
0.22906175 -0.17576924 0.025145294 -0.38121584 0.09546901 0.043741245 -0.6834196 -0.13250309
0.018245077 0.4470346 1.0272881 0.19531204 0.24528144 -0.08483058 0.5078037 0.0097483955
0.024052324 0.2238393 0.015670523 -1.0256741 0.9993111 -0.06346898 0.43400374 0.11980547
-1.3855256 0.026157837 0.6697915 0.35447997 0.27124143 -0.33188257 -0.8099607 -0.96650475
-0.18112974 0.117991455 0.027695362 -0.07749823 0.45856634 -0.3003062 0.019659884 -0.05647517
0.8751157 -0.03683004 0.31060693 -1.4741076 -1.2082865 -0.2313603 -0.5509411 0.022264307
0.43556976 -0.082175255 -0.6894688 0.17174383 -0.09632695 -0.028976327 -0.033113178 -0.2381754
-0.26945037 -0.363914 -0.016898187 0.03870014 0.014905569 -0.14807041 0.84317917 -0.059130955
0.28165165 -0.5579853 -0.11635308 -0.32516345 -0.5617979 0.06908527 -0.3017921 -0.056913108
-0.1275628 -0.13554272 -0.13832526 -0.14120215 -0.7794757 0.005715862 -0.19624746 -0.09240531
0.57445663 -0.85219836 -0.1123582 -0.22409837 -0.38915285 -0.36517173 -0.07664763 -0.010237219
1.3919188 0.3134298 0.0043763816 -1.4964315 -0.04272059 0.06962678 -0.55348694 0.43193984
-0.24902537 0.5254497 -0.010226858 -0.28096005 0.10898445 -0.30224237 0.34436965 -0.022744648
-0.0011964284 -0.27271008 -0.3092293 -0.59836173 0.11740104 0.033755347 0.7388967 0.15526617
-0.1066285 -0.099889524 -0.110094786 -0.08292975 0.34407726 -0.012667324 0.027482525 -0.10659799
0.10467931 -0.73250586 -0.0609308 -0.7382308 -0.42126387 -0.27888373 -0.49897152 0.009973252
-0.5587335 -0.464061 -0.8061363 -0.7638812 -0.07034729 0.4422177 -0.0011602311 -0.025043823
-1.187862 -0.012804575 0.74325794 0.059497368 -0.013984319 -0.8155152 -1.1789836 -2.29534
-0.028459355 0.1731969 1.0452967 0.04705033 -0.30367222 -0.15371361 -0.99762976 -1.3875139
-0.063283965 -1.5635995 -0.011805681 -0.39005744 -0.058898266 0.0195951 -0.066273786 -0.029987464
-0.56144935 -0.3615203 -0.20907874 0.10313852 0.020181641 0.45655963 0.025869481 -0.44474566
0.12535478 -0.12769483 -0.073925935 -0.5617279 -0.98600185 0.58483726 -0.15708023 -0.07815082
00000000: 36ca 04c0 cbb2 28bf ba44 22bd d316 10bf
00000010: 8312 4ebe 608a 39bd 1102 653e 6a45 873d
00000020: 8f34 17be 2029 3ebd 7132 58be 6279 c0bc
00000030: 94c2 4c3f 350b 92bd f037 993e 0124 f7bc
00000040: 5d04 ab3e 7b01 243e 99c8 2fbe 4621 ad3d
00000050: 3411 2cba c0b3 03bf 1216 1bbf 1bf7 36bf
00000060: 6de2 78bd 93b8 88be 5bc8 1d3f f640 95bd
00000070: ea2e dcbe f14f 86be 6864 09bd 385f 9e3e
00000080: f9af 99bd 1b53 013d e964 d43f 6b11 22be
00000090: b6fb 62be 310e 23bc c1c4 a1be 05e0 08be
000000a0: 9da2 4cbf bc11 8cbf db4e 8dbe b022 363e
000000b0: b8ff 2cbf ab19 e4bd d9f3 7e3e 364f ab3e
000000c0: 0c9e c73e 1442 913e 1467 c7bd dd93 38bf
000000d0: 8f1f 09be f692 1b3e 861b adbd 1e95 553d
000000e0: 406b 10bd a98c 453e ece4 b5bd c440 bd3c
000000f0: b5c4 c3be e44a 193d cdf4 29bf cd38 0ebf
00000100: f9bc c93c b5f4 d93e 224e d5be 6e6f 873e
00000110: 34ac 1f3e a8b6 d9bf f44f fa3c 6452 ffbd
00000120: a9f7 12be 1036 78bf 475e 09bf d5fb 553f
00000130: 0b65 093c 60ca 27bf 84e2 92bf 57a9 563f
00000140: 2a8f 6a3e dafc 33be 81fd cd3c b92e c3be
00000150: 4285 c33d 052a 333d 96f4 2ebf e4ae 07be
00000160: b376 953c b8e1 e43e 2d7e 833f e1ff 473e
00000170: 0f2b 7b3e a8bb adbd 6cff 013f bcb7 1f3c
00000180: 6109 c53c 2136 653e 785f 803c 4a49 83bf
00000190: dad2 7f3f 06fc 81bd bd35 de3e 925c f53d
000001a0: e758 b1bf f648 d63c 7577 2b3f 667e b53e
000001b0: 28e0 8a3e 83ec a9be 9659 4fbf db6c 77bf
000001c0: 137a 39be 81a5 f13d 62e1 e23c 64b7 9ebd
000001d0: 35c9 ea3e bcc1 99be c40d a13c 8252 67bd
000001e0: 9507 603f 19db 16bd df07 9f3e 8faf bcbf
000001f0: 22a9 9abf b7e9 6cbe 7a0a 0dbf a363 b63c
00000200: 0003 df3e 804b a8bd 0781 30bf 9ddd 2f3e
00000210: 1047 c5bd c35f edbc afa1 07bd 41e4 73be
00000220: 66f5 89be f052 babe 116e 8abc 0a84 1e3d
00000230: 7d36 743c c59f 17be 97da 573f 4d33 72bd
00000240: a534 903e 20d8 0ebf 864a eebd d37b a6be
00000250: fdd1 0fbf 947c 8d3d 7e84 9abe b81d 69bd
00000260: d39f 02be b6cb 0abe 23a5 0dbe 4c97 10be
00000270: b88b 47bf 204c bb3b 18f5 48be ff3e bdbd
00000280: 970f 133f ac29 5abf 0e1c e6bd 0b7a 65be
00000290: 0b3f c7be caf7 babe 6ff9 9cbd 02ba 27bc
000002a0: 652a b23f df79 a03e c067 8f3b 118b bfbf
000002b0: c9fb 2ebd 7c98 8e3d 52b1 0dbf 3827 dd3e
000002c0: 8200 7fbe df83 063f 8d8e 27bc ffd9 8fbe
000002d0: 3d33 df3d 83bf 9abe 3851 b03e fc52 babc
000002e0: 7ad1 9cba a8a0 8bbe 4e53 9ebe 3c2e 19bf
000002f0: f56f f03d 0c43 0a3d 5628 3d3f 18fe 1e3e
00000300: 0b60 dabd e192 ccbd 6079 e1bd 13d7 a9bd
00000310: e52a b03e 9c8a 4fbc 0823 e13c 0c50 dabd
00000320: 1b62 d63d 8185 3bbf 9392 79bd b2fc 3cbf
00000330: e6af d7be d9c9 8ebe 3279 ffbe da66 233c
00000340: 2909 0fbf 6799 edbe f35e 4ebf b88d 43bf
00000350: 3d12 90bd 5c6a e23e e512 98ba b428 cdbc
00000360: dd0b 98bf 48ca 51bc 2746 3e3f 83b3 733d
00000370: 7c1e 65bc 9bc5 50bf efe8 96bf dae6 12c0
00000380: 9823 e9bc 875a 313e 48cc 853f d9b7 403d
00000390: ed7a 9bbe 1a67 1dbe aa64 7fbf 0e9a b1bf
000003a0: 069b 81bd 0724 c8bf 9d6c 41bc 9cb5 c7be
000003b0: 4f3f 71bd e785 a03c 8dba 87bd 45a8 f5bc
000003c0: 25bb 0fbf 3019 b9be bd18 56be 4a3a d33d
000003d0: f853 a53c 2fc2 e93e 3cec d33c b4b5 e3be
000003e0: 015d 003e 6fc2 02be 7b66 97bd 66cd 0fbf
000003f0: 9e6a 7cbf e5b7 153f a4d9 20be 8a0d a0bd

bias f4 [256]
0.52282196 -1.4142301 -0.43052194 -0.07332105 0.555917 -0.12172708 0.39773574 -0.082190275
-0.6609313 -0.28367537 -0.09321711 0.2438306 -0.80282253 -0.30655533 0.23924929 -0.8534165
0.18631333 -0.5162153 -0.10152276 -0.45199406 -0.12063189 -0.19888821 -0.10382779 -1.4116795
-0.091878705 -0.1279807 -0.12324039 -0.14664744 -0.15185124 -0.12846614 -0.07020858 -0.4784305
0.042693004 -0.12757957 -0.035425287 -0.097379245 -0.28267726 0.18255393 0.5312847 -0.16053748
0.18315835 -0.08530681 -0.11522984 0.72915995 1.2974377 -0.24554287 0.26459095 -0.21628386
1.0679367 0.52986467 0.77253824 0.17841423 0.67889905 -0.10822861 -0.51702094 -0.0815659
0.48447007 -1.0103279 -0.09523558 -0.1396721 0.16672738 0.73558545 -0.70587075 -0.46141052
0.63020813 -0.45286414 -0.10999832 0.29239535 -0.6029986 -0.14488417 -0.91388386 0.088576056
-0.008555075 -0.09366381 -0.07140689 -0.34146735 -0.15776905 -0.3051795 1.5424342 -1.3958546
1.3538958 -0.32869008 0.18653613 -0.12945643 -0.46298668 0.69189316 -0.13120465 -0.03247709
-0.15630159 0.61714 -0.14386517 -0.72349393 -0.32341883 0.7092513 -0.13043027 0.108566135
-0.11955817 -0.1696885 -0.27173308 -0.3784824 0.15055814 -0.191468 1.0610161 -0.20997967
-0.12539415 -0.17177504 0.0056139478 -0.12068431 0.095195726 0.23903187 0.7819639 -0.41891363
0.20046358 -0.11562801 -0.61330676 -0.15178771 1.1632563 0.1386058 -0.084520936 -0.06955065
1.6614468 -0.34001544 -0.34256387 -0.21751103 -0.51398265 -0.63366383 1.4052395 0.7255432
-0.5780921 1.0911065 -0.019161886 -0.13500474 -0.11982764 -0.10797505 -0.5999399 -0.1306317
-0.06243535 -0.11652036 -0.08873964 0.7423506 0.36060423 0.7536688 -0.34730378 -0.12778275
-0.12578484 -0.0047778715 0.55229634 -0.06572161 0.2668973 0.23542629 -1.9393861 -0.10865064
0.6575117 -0.24143954 -0.11900656 -0.007690525 0.99926394 -0.076624155 -0.14637169 -0.10276064
0.281435 -0.060546134 -0.3601823 -0.11830368 1.2022471 0.37676072 -0.11091859 -0.13944498
0.341592 0.6310294 -0.4949398 -0.4349363 0.36057448 -0.48549816 -0.16596733 0.20757696
-0.05844492 0.79342663 1.085083 0.17121744 0.54491377 -0.080334954 0.12773037 -0.11215546
-0.38241863 -0.1915586 -0.20286171 -0.11496924 -0.15830551 0.3703703 0.31236655 0.86255676
0.47593668 1.2187855 -0.4235995 1.3411096 0.7384046 0.04118338 -0.11642349 0.32678515
-0.07068331 0.37834308 0.63919955 0.894174 -0.18240047 -0.2753545 -0.25321224 -0.14881633
-0.318963 -0.22388513 0.3645107 -0.15718187 0.29356155 0.34653738 0.0496895 -0.4369322
-0.086316854 -0.6022751 -0.10884066 -0.05480546 -0.059032056 -1.579856 0.2785373 0.14992419
-0.45156986 -0.65070325 -0.15977985 -0.10709845 0.73624367 -0.31808224 -0.17751932 -0.8234071
0.2329787 -0.02360171 -0.8936247 0.17341511 -0.13529761 0.8346601 -0.27634233 0.023597093
-0.47966722 -0.29830128 0.038238622 0.4103559 -0.80425304 -0.08470392 -0.18289262 -0.66035265
-0.48383066 -0.43585905 0.39028427 1.0095295 -0.57040983 -0.12662181 -0.65823215 0.23730785
00000000: a9d7 053f 7e05 b5bf 5f6d dcbe 5929 96bd
00000010: 9450 0e3f 0c4c f9bd 05a4 cb3e 6053 a8bd
00000020: cb32 29bf e63d 91be 9de8 bebd bbae 793e
00000030: c785 4dbf d2f4 9cbe c4fd 743e 8179 5abf
00000040: ecc8 3e3e b026 04bf 2aeb cfbd c46b e7be
00000050: da0d f7bd 5aa9 4bbe aaa3 d4bd eab1 b4bf
00000060: e72a bcbd 5f0d 03be 7565 fcbd bf2a 16be
00000070: e47e 1bbe a18c 03be 84c9 8fbd d8f4 f4be
00000080: dcde 2e3d 38a4 02be 1b1a 11bd c56e c7bd
00000090: 13bb 90be 6bef 3a3e 4602 083f f063 24be
000000a0: dd8d 3b3e 56b5 aebd 9ffd ebbd 3aaa 3a3f
000000b0: 7012 a63f 976f 7bbe 7778 873e 8479 5dbe
000000c0: 26b2 883f 36a5 073f 11c5 453f 38b2 363e
000000d0: 54cc 2d3f f6a6 ddbd 7c5b 04bf 060c a7bd
000000e0: 760c f83e 6d52 81bf df0a c3bd 3406 0fbe
000000f0: 95ba 2a3e 544f 3c3f f2b3 34bf 003e ecbe
00000100: 5255 213f cfdd e7be cd46 e1bd d8b4 953e
00000110: 1e5e 1abf 845c 14be 4bf4 69bf 5d67 b53d
00000120: 962a 0cbc d0d2 bfbd c73d 92bd cfd4 aebe
00000130: 368e 21be 7d40 9cbe 7c6e c53f 5dab b2bf
00000140: 754c ad3f 114a a8be 5403 3f3e 3a90 04be
00000150: 970c edbe e91f 313f 835a 06be b206 05bd
00000160: 860d 20be e3fc 1d3f 6451 13be e636 39bf
00000170: 2797 a5be 7e91 353f 838f 05be ec57 de3d
00000180: eada f4bd d2c2 2dbe 9920 8bbe 72c8 c1be
00000190: ea2b 1a3e 3010 44be 60cf 873f e904 57be
000001a0: 5367 00be cce5 2fbe 35f5 b73b 5629 f7bd
000001b0: faf5 c23d c5c4 743e c92e 483f d97b d6be
000001c0: 5346 4d3e 61ce ecbd ac01 1dbf 3d6e 1bbe
000001d0: 95e5 943f aeee 0d3e 5019 adbd 9270 8ebd
000001e0: 4aaa d43f 8116 aebe 8864 afbe 36bb 5ebe
000001f0: 5e94 03bf cb37 22bf e3de b33f 33bd 393f
00000200: d8fd 13bf 61a9 8b3f 63f9 9cbc af3e 0abe
00000210: 3268 f5bd 0622 ddbd a995 19bf 51c4 05be
00000220: 36bc 7fbd 3aa2 eebd 21bd b5bd b00a 3e3f
00000230: 1ea1 b83e 70f0 403f cdd1 b1be 7bd9 02be
00000240: becd 00be b18f 9cbb 4b63 0d3f 0d99 86bd
00000250: c3a6 883e 9713 713e ce3d f8bf 3a84 debd
00000260: b052 283f ed3b 77be b6b9 f3bd cd00 fcbb
00000270: c3cf 7f3f 20ed 9cbd 76e2 15be 2c74 d2bd
00000280: 4018 903e 39ff 77bd d069 b8be 3349 f2bd
00000290: 3ce3 993f c8e6 c03e 4929 e3bd aaca 0ebe
000002a0: 26e5 ae3e 258b 213f c068 fdbe f9af debe
000002b0: 389d b83e 3793 f8be 57f3 29be 0e8f 543e
000002c0: f163 6fbd 021e 4b3f 00e4 8a3f a053 2f3e
000002d0: 787f 0b3f a786 a4bd c0cb 023e c3b1 e5bd
000002e0: 60cc c3be f027 44be fbba 4fbe fe74 ebbd
000002f0: d71a 22be 2da1 bd3e 82ee 9f3e 85d0 5c3f
00000300: f9ad f33e 2a01 9c3f 09e2 d8be 7ba9 ab3f
00000310: 1508 3d3f e7af 283d 706f eebd 6250 a73e
00000320: 69c2 90bd 2fb6 c13e 95a2 233f 96e8 643f
00000330: 30c7 3abe 44fb 8cbe 09a5 81be 4f63 18be
00000340: 1e4f a3be 2542 65be 25a1 ba3e 49f4 20be
00000350: b34d 963e 596d b13e 3887 4b3d 94b5 dfbe
00000360: e4c6 b0bd b32e 1abf dae7 debd b17b 60bd
00000370: 99cb 71bd b938 cabf 719c 8e3e ba85 193e
00000380: 2a34 e7be 7d94 26bf 549d 23be 6f56 dbbd
00000390: 777a 3c3f addb a2be a0c7 35be cfca 52bf
000003a0: f891 6e3e 6058 c1bc 97c4 64bf bb93 313e
000003b0: 758b 0abe 49ac 553f be7c 8dbe b14e c13c
000003c0: f196 f5be f2ba 98be 1aa0 1c3d 2b1a d23e
000003d0: 87e3 4dbf 4079 adbd 3448 3bbe df0c 29bf
000003e0: a7b8 f7be eb28 dfbe 57d3 c73e 4338 813f
000003f0: 6106 12bf 26a9 01be e781 28bf d400 733e

weight f4 [3, 256]
-0.06819739 0.67614526 0.28963766 0.050126616 -0.2242974 -0.01557714 0.63014746 0.008726037
0.1539144 0.44055468 0.009167562 -0.37148368 0.23247284 0.121035405 0.1591936 -0.016609134
-0.48191318 0.27879846 0.06421947 0.17931028 -0.0038575332 -0.107535586 -0.816033 -1.0814672
-0.063814245 0.065785386 -0.035257906 0.021459945 -0.08812806 -0.02456063 0.05559223 -0.0018952474
0.26612976 -0.07135972 -0.58101094 -0.007023786 -0.16488154 -0.29809326 0.22558519 0.041306313
-0.60511374 0.009422511 -0.039366633 -0.26956216 0.029962717 0.120002605 0.035296146 0.39522135
-0.3490274 -0.27495122 0.82405365 0.24036086 0.14127727 0.0043764203 -0.06670049 0.72634625
0.54817444 0.54119086 -0.018297836 0.05439332 0.765242 0.22297455 0.0022667572 -0.26946732
0.19387121 0.086858705 -0.03257632 -0.037208743 -0.18639426 -0.022126112 -0.17219561 -0.12571588
0.22617087 0.009046082 -0.03817422 -0.5337392 0.027278213 -0.3205487 -0.2912336 -0.57225764
-0.5713383 0.039150823 0.6660072 -0.075096354 0.25876647 0.67123157 -0.0016870999 0.3350876
0.029734509 0.152038 -0.06297509 0.12976825 -0.0090323165 0.44477186 -0.04271319 0.08794269
0.013734493 -0.031155888 0.37268928 -0.3398775 0.6323136 -0.3825993 -0.32118633 1.0255327
-0.002001164 -0.06860146 0.37823305 -0.06364389 -0.164819 -0.46620464 0.17691557 -0.17087613
0.08675452 -0.03251147 0.15942048 -0.023004815 0.47192276 0.3623378 0.012771292 -0.006716827
0.31059048 -0.1173916 0.26180413 -0.084776156 -0.11444185 0.06842853 -0.19898511 -0.29989803
0.15111957 -0.34498474 -0.060392484 0.12258326 0.31693494 0.04520987 0.06415945 0.03346999
-0.10763969 -0.016429419 -0.028991079 -0.3638843 -0.09377263 0.31098697 -0.16320409 -0.015597678
-0.028348273 0.08233345 -1.0187325 0.7040929 0.21636938 -0.20697425 -0.68692416 0.080007724
-0.45958284 -0.48328745 0.017733801 0.1481698 -0.09132042 -0.020897001 0.025959374 -0.03695956
0.30223748 0.03940286 -0.75475484 -0.011101317 -0.4394031 -0.09841479 -0.04432664 0.28759903
-0.03781915 0.08432884 -0.16383228 0.25753558 0.3867761 0.10654611 -0.03544367 0.106191844
-0.07836544 0.48265043 -0.062647045 -0.22174492 0.346216 0.021140361 0.54264593 -0.06488879
-0.0065817614 0.01879851 0.24776581 -0.018299296 0.10648301 0.019608933 0.4718671 -0.27283573
-0.11766714 -0.2242958 0.7990396 0.022717565 -0.39805755 -0.42470625 -0.015268057 -0.34648898
0.45134372 0.31427887 -0.36463964 0.66267914 0.19075412 0.022295395 -0.45175666 0.48055163
-0.3901929 0.026928015 0.1526158 -0.01010901 0.7435619 -0.13590473 0.23330818 0.6394797
-0.036194246 0.11386113 0.23457068 -0.06390864 0.030225608 -0.32432252 0.6205781 0.2221043
0.09126172 0.398647 0.096407056 0.17706195 -0.26016337 0.019306589 -0.0013616126 0.3679542
0.17129517 -0.2748442 0.024769723 0.48179913 -0.031659644 -0.23510633 0.20177945 0.5213841
-0.25377232 -0.038279314 0.34277207 -0.587883 0.47670865 0.029196838 -0.010635474 0.42552224
0.4309625 -0.1021867 -0.18594997 -0.443125 -0.44865575 -0.03393114 0.33440748 -0.0034461173
00000000: 13ab 8bbd db17 2d3f 634b 943e 9151 4d3d
00000010: 38ae 65be 4337 7fbc 5851 213f a7f7 0e3c
00000020: bd9b 1d3e 6290 e13e 8b33 163c 1c33 bebe
00000030: 5c0d 6e3e 69e1 f73d a603 233e e10f 88bc
00000040: 53bd f6be acbe 8e3e 7f85 833d 1d9d 373e
00000050: abce 7cbb 9e3b dcbd 8ae7 50bf 846d 8abf
00000060: 0bb1 82bd 7dba 863d 986a 10bd c4cc af3c
00000070: 7c7c b4bd 6033 c9bc aeb4 633d f369 f8ba
00000080: 2942 883e 0b25 92bd 22bd 14bf ca27 e6bb
00000090: b5d6 28be ae9f 98be ceff 663e cf30 293d
000000a0: bce8 1abf e060 1a3c e83e 21bd 0d04 8abe
000000b0: 5f74 f53c edc3 f53d b192 103d 745a ca3e
000000c0: b8b3 b2be 68c6 8cbe 2ef5 523f 2821 763e
000000d0: fdaa 103e 1368 8f3b 449a 88bd d4f1 393f
000000e0: 2955 0c3f 7c8b 0a3f 58e5 95bc 88cb 5e3d
000000f0: e6e6 433f 7153 643e e08d 143b 9ff7 89be
00000100: 2d86 463e fae2 b13d bf6e 05bd 3268 18bd
00000110: 23de 3ebe d241 b5bc 0c54 30be aabb 00be
00000120: 5699 673e 0536 143c 925c 1cbd 22a3 08bf
00000130: 8f76 df3c f61e a4be 921c 95be 7a7f 12bf
00000140: 3a43 12bf 9d5c 203d 737f 2a3f 1ecc 99bd
00000150: 0a7d 843e d5d5 2b3f ae21 ddba 9a90 ab3e
00000160: c995 f33c d9af 1b3e 16f9 80bd f8e1 043e
00000170: 48fc 13bc 23b9 e33e 07f4 2ebd 4c1b b43d
00000180: a406 613c a23a ffbc 21d1 be3e 6c04 aebe
00000190: 4edf 213f 0ee4 c3be 8972 a4be a844 833f
000001a0: f625 03bb ec7e 8cbd c3a7 c13e ba57 82bd
000001b0: 50c6 28be 60b2 eebe 5b29 353e 27fa 2ebe
000001c0: 5bac b13d bf2a 05bd 1f3f 233e 9874 bcbc
000001d0: dc9f f13e 5784 b93e ae3e 513c d418 dcbb
000001e0: b705 9f3e 026b f0bd 310b 863e 1f9f adbd
000001f0: 7d60 eabd 4224 8c3d c1c2 4bbe 3c8c 99be
00000200: 17bf 1a3e d7a1 b0be 1c5e 77bd ef0c fb3d
00000210: 4c45 a23e fc2d 393d 0866 833d d417 093d
00000220: 3372 dcbd fd96 86bc b37e edbc 0b4f babe
00000230: dd0b c0bd af39 9f3e f91e 27be 678d 7fbc
00000240: a33a e8bc 719e a83d d465 82bf 6f3f 343f
00000250: ef8f 5d3e 0ff1 53be 43da 2fbf 17db a33d
00000260: 714e ebbe 7471 f7be 7a46 913c d3b9 173e
00000270: 3306 bbbd 3030 abbc c1a8 d43c e862 17bd
00000280: dfbe 9a3e e564 213d 9d37 41bf 4ce2 35bc
00000290: 71f9 e0be b28d c9bd da8f 35bd 2e40 933e
000002a0: 41e8 1abd 99b4 ac3d a6c3 27be b4db 833e
000002b0: 8407 c63e d934 da3d 622d 11bd 1c7b d93d
000002c0: 0f7e a0bd f51d f73e 184d 80bd 1a11 63be
000002d0: 3943 b13e 8d2e ad3c d8ea 0a3f 6ae4 84bd
000002e0: d1ab d7bb 55ff 993c 52b6 7d3e 68e8 95bc
000002f0: c413 da3d eaa2 a03c 9198 f13e 20b1 8bbe
00000300: 78fb f0bd ccad 65be dc8d 4c3f 301a ba3c
00000310: 33ce cbbe 1973 d9be df26 7abc 0167 b1be
00000320: 8616 e73e 29e9 a03e 0cb2 babe 57a5 293f
00000330: 0c55 433e d5a4 b63c a64c e7be dd0a f63e
00000340: 5dc7 c7be 2498 dc3c 5147 1c3e 43a0 25bc
00000350: 135a 3e3f 9c2a 0bbe 57e8 6e3e f1b4 233f
00000360: 6b40 14bd 0630 e93d 4c33 703e 88e2 82bd
00000370: b29b f73c 9a0d a6be 35de 1e3f 4f6f 633e
00000380: 6de7 ba3d 761b cc3e 1071 c53d ba4f 353e
00000390: 2234 85be da28 9e3c 2378 b2ba 7e64 bc3e
000003a0: 0068 2f3e 61b8 8cbe e0e9 ca3c 60ae f63e
000003b0: 8bad 01bd b7bf 70be 469f 4e3e 6e79 053f
000003c0: 72ee 81be c5ca 1cbd d27f af3e 807f 16bf
000003d0: 2813 f43e 352e ef3c 6940 2ebc 0dde d93e
000003e0: 1ea7 dc3e 4347 d1bd ab69 3ebe 48e1 e2be
000003f0: 35b6 e5be 61fb 0abd 7537 ab3e 41d8 61bb

bias f4 [3]
-3.6500788 -1.2616215 4.835183
00000000: e49a 69c0 d07c a1bf d2b9 9a40

weight f4 [3, 256]
-0.032148525 0.42875436 0.17971271 0.06394109 0.05687512 -0.06795406 0.43583396 0.015102166
0.24030115 -0.109235995 0.14787248 0.025797319 0.3561774 0.39587268 -0.25519598 0.41669613
0.35286626 -0.09178076 -0.029133277 0.22400564 0.035988275 0.006840335 0.28455192 0.43865034
-0.005015607 0.078272685 -0.016800998 -0.019959297 -0.027790887 -0.02505143 0.07509681 0.11122951
0.29593596 0.082844704 -0.043276668 0.01622715 0.11688641 0.103400104 0.2623259 0.024503939
0.26095584 -0.025929682 0.057356775 0.14718644 0.13562165 -0.06617204 0.32228002 0.15178572
0.4384358 0.069777735 -0.15577544 0.17917797 0.0051783794 -0.012619421 -0.033678807 0.12607123
0.0829706 -0.055969656 0.021645697 0.05533266 -0.07551748 -0.30201104 0.29127795 0.0142806405
0.027841177 -0.10054524 -0.053958777 0.13728334 0.281831 0.042537946 0.20867321 0.03760634
0.10400044 -0.03660542 -0.06940426 0.16317727 0.045553055 0.25052214 0.35595807 0.8727829
0.1493725 0.012162917 0.34217438 0.0022866104 0.0039258967 0.42504004 0.026740363 0.06537416
0.047224972 0.060557447 0.0049195397 0.43188953 0.07993775 0.37154537 0.07967347 0.16240527
-0.014150166 0.07498393 0.23742065 0.6152378 0.08897589 0.6847586 0.29622456 -0.109902
-0.030511346 0.022612548 0.21549189 0.018905992 0.2653167 0.47147658 0.283606 0.19012636
0.16271059 0.03228864 -0.080623336 0.086698696 0.13329193 0.24902481 0.081753634 0.28494334
0.32947615 0.22573763 0.053055886 -0.025775047 0.39986622 0.2825338 0.1817488 0.02857974
0.0798283 -0.09576892 0.20920959 0.06977618 0.18833534 -0.04693522 0.105974086 0.08869476
0.12483697 -0.0047404584 -0.043317057 0.39036256 -0.0723017 0.18317784 0.34365645 -0.006733604
0.04038873 0.37401944 0.5619259 0.14032191 0.1842767 0.48851973 0.2724021 0.019859342
-0.17708749 -0.18098168 0.02057205 -0.18456687 0.31141964 0.02825004 -0.013736702 0.044285916
0.03259416 -0.046981692 0.36493754 -0.026537344 0.21652563 0.15316705 0.018310398 -0.043171246
0.18622173 0.013266235 0.30395418 -0.09949351 0.23156606 0.4465132 -0.0022194185 -0.3252972
0.1359992 0.06259036 0.22322156 0.12747502 0.11610553 -0.0111827785 0.6510689 0.019939182
0.3651898 0.083279446 -0.06560696 0.07072176 0.18704307 0.09902742 0.28327692 0.005076288
0.3852243 0.32916006 -0.2572126 -0.01913504 0.40649956 0.12554814 -0.030404085 0.20562495
0.14289224 0.14077765 0.22916342 0.27486983 0.13564369 0.16297582 -0.073857695 0.42739123
0.37604624 0.3299625 0.14553742 0.012509816 -0.10642084 0.20773983 -0.03601121 -0.066876166
0.13291316 0.109871596 0.021591274 -0.035744425 0.026996436 0.39874947 -0.094372295 0.2706512
0.01208353 0.20886369 0.18834491 0.12382899 0.18088977 0.25190786 -0.04694072 0.14663832
0.15484196 0.15148614 0.39117053 0.2730524 0.049470834 0.52804667 0.06814706 0.20234363
0.24951236 0.13051865 0.27185255 -0.2133915 0.00797459 0.060148533 0.076314315 -0.084123194
0.21988314 0.32485428 0.18388163 0.49735597 0.28533128 -0.004730163 0.27313784 0.15412721
00000000: 2cae 03bd b185 db3e 9c06 383e 8cf3 823d
00000010: e3f5 683d 802b 8bbd a125 df3e 136f 773c
00000020: 8111 763e 1fb7 dfbd e26b 173e e654 d33c
00000030: e25c b63e d3af ca3e 0ca9 82be 3259 d53e
00000040: e3aa b43e 8df7 bbbd e9a8 eebc bc61 653e
00000050: 7168 133d e424 e03b cab0 913e c796 e03e
00000060: f659 a4bb 6e4d a03d 3fa2 89bc ae81 a3bc
00000070: b7a9 e3bc a838 cdbc 5bcc 993d 4ccc e33d
00000080: eb84 973e 7caa a93d e042 31bd cdee 843c
00000090: 2462 ef3d 6fc3 d33d 954f 863e 7cbc c83c
000000a0: 019c 853e 7c6a d4bc f0ee 6a3d 0bb8 163e
000000b0: 67e0 0a3e 3585 87bd e301 a53e b76d 1b3e
000000c0: a87a e03e a1e7 8e3d 9983 1fbe 6e7a 373e
000000d0: 65af a93b b0c1 4ebc caf2 09bd d118 013e
000000e0: 7dec a93d 7040 65bd 5152 b13c 80a4 623d
000000f0: e9a8 9abd 31a1 9abe 6222 953e 59f9 693c
00000100: 2e13 e43c aaea cdbd e103 5dbd 0194 0c3e
00000110: 274c 903e 453c 2e3d 6eae 553e 1b09 1a3d
00000120: 2ffe d43d 91ef 15bd d223 8ebd f117 273e
00000130: d795 3a3d 7044 803e 2340 b63e b36e 5f3f
00000140: 1bf5 183e f946 473c 7b31 af3e f5da 153b
00000150: cfa4 803b d99e d93e 9b0e db3c e3e2 853d
00000160: f96e 413d 160b 783d 1734 a13b a020 dd3e
00000170: 67b6 a33d 323b be3e d82b a33d 914d 263e
00000180: 19d6 67bc 2d91 993d 661e 733e 3980 1d3f
00000190: fe38 b63d 574c 2f3f bfaa 973e 4d14 e1bd
000001a0: eef2 f9bc f33d b93c e8a9 5c3e bde0 9a3c
000001b0: 97d7 873e 6165 f13e ce34 913e 7cb0 423e
000001c0: 9b9d 263e 1841 043d d91d a5bd 168f b13d
000001d0: ae7d 083e 5c00 7f3e 736e a73d 18e4 913e
000001e0: 19b1 a83e c427 673e 2151 593d 3126 d3bc
000001f0: 44bb cc3e 45a8 903e 5c1c 3a3e 0f20 ea3c
00000200: 057d a33d 7f22 c4bd 0a3b 563e d0e6 8e3d
00000210: fbda 403e 253f 40bd f108 d93d 99a5 b53d
00000220: 86aa ff3d d955 9bbb 3a6d 31bd 9add c73e
00000230: ea12 94bd f992 3b3e bdf3 af3e 90a5 dcbb
00000240: a76e 253d 7a7f bf3e 60da 0f3f 8cb0 0f3e
00000250: 08b3 3c3e 421f fa3e 4a78 8b3e 0fb0 a23c
00000260: 6c56 35be 4353 39be b786 a83c 19ff 3cbe
00000270: 6572 9f3e a16c e73c e70f 61bc 2665 353d
00000280: 7481 053d e06f 40bd 18d9 ba3e d864 d9bc
00000290: e5b8 5d3e d3d7 1c3e b0ff 953c 55d4 30bd
000002a0: e9b0 3e3e 9f5a 593c e29f 9b3e 41c3 cbbd
000002b0: a71f 6d3e 619d e43e aa73 11bb 5b8d a6be
000002c0: 6043 0b3e 602f 803d 3194 643e d088 023e
000002d0: bcc8 ed3d f937 37bc 74ac 263f 7f57 a33c
000002e0: 28fa ba3e 6a8e aa3d f15c 86bd 92d6 903d
000002f0: 3888 3f3e e3ce ca3d ac09 913e fd56 a63b
00000300: 1f3c c53e ab87 a83e 5fb1 83be 16c1 9cbc
00000310: b620 d03e b18f 003e fd11 f9bc 598f 523e
00000320: 5852 123e 0428 103e d1a9 6a3e bdbb 8c3e
00000330: 2ee6 0a3e 22e3 263e b442 97bd 06d3 da3e
00000340: 2289 c03e d8f0 a83e c307 153e f9f5 4c3c
00000350: 2bf3 d9bd c0b9 543e 7e80 13bd 5ff6 88bd
00000360: 631a 083e 5c04 e13d 2fe0 b03c bf68 12bd
00000370: a127 dd3c e428 cc3e 4346 c1bd cb92 8a3e
00000380: 00fa 453c 5de0 553e 7ddd 403e 0e9a fd3d
00000390: 2b3b 393e 11fa 803e ea44 40bd 5b28 163e
000003a0: e48e 1e3e 2f1f 1b3e 8147 c83e 86cd 8b3e
000003b0: eea1 4a3d 112e 073f b090 8b3d 2b33 4f3e
000003c0: 2b80 7f3e aea6 053e 4230 8b3e 4d83 5abe
000003d0: dba7 023c 4f5e 763d ae4a 9c3d c848 acbd
000003e0: 0c29 613e 4d53 a63e 774b 3c3e 71a5 fe3e
000003f0: f116 923e 7cff 9abb b9d8 8b3e 86d3 1d3e

bias f4 [3]
-11.183414 -7.982333 -8.766992
00000000: 44ef 32c1 466f ffc0 9945 0cc1

weight f4 [256, 18]
-28.174194 -0.12502801 -8.569178 -31.959017 -0.21009901 8.756547 0.07309754 1.2646177
-9.003405 0.38496074 -7.342367 4.3564467 1.9993969 -1.9184209 -2.2511568 -4.1336412
3.341224 -2.2985513 -1.3340079 0.15020047 35.810867 23.595451 0.1382827 3.3265479
-0.03961596 -28.395119 70.486565 -38.556488 90.59923 -1.2046716 -0.9972687 0.20866133
80.82032 4.653856 84.94432 -70.19427 16.47751 -0.1289297 112.61805 -88.32939
0.2250631 -78.05779 0.2157469 -79.674164 104.93744 -55.409824 55.61113 -45.417732
77.808784 71.46335 18.738739 33.502663 -68.624664 30.451313 -94.756615 0.18831761
-0.66801167 -5.185103 0.15242864 -53.043224 0.17750765 -70.259674 48.580284 -40.20335
39.60858 -35.494232 91.83021 52.54426 97.06572 14.152813 31.973373 -19.696934
-19.190424 0.028561696 -5.5563927 -17.405739 0.08220641 4.876706 -0.21551993 10.258792
-6.1426177 2.5349512 -4.3861284 2.6519792 -4.7949023 -1.2419856 -5.8998494 -0.04270782
1.8304685 -1.2759117 -55.09836 -0.00019344687 89.09404 -74.92226 -0.1873438 -53.48783
0.034950867 -71.97816 111.11055 -16.365204 40.22393 -66.17717 35.64323 3.2910447
67.252625 61.139725 -20.16651 -15.9271145 -30.95233 -0.039373413 -22.085495 -6.9226627
0.026157483 4.3406944 -0.073327005 -3.1592133 10.67575 5.868107 0.23506959 9.543073
2.140379 4.4298267 -6.116081 -15.238378 6.0527544 1.9224994 -64.28851 -0.09603828
39.58459 -48.272636 0.13610701 -58.635418 -0.15567756 -38.547096 50.96487 -42.45592
69.63369 -52.56332 60.17242 46.51956 97.488045 -7.3537593 12.902208 -8.933346
-0.30350742 -0.014475644 -5.4704247 -1.4505928 -0.07424016 5.96549 0.22186767 4.5502887
1.1135491 -0.12359107 -2.228985 0.8332233 0.6824553 -2.9989352 -2.0758343 -0.22888154
0.53865284 -1.4949398 -0.100401744 -0.19169311 0.07025431 -0.91498303 0.13025685 0.6916919
-0.030542582 0.61684126 -1.3615845 0.18999632 -0.083623245 0.3907793 -0.063106336 0.062209226
-0.64982384 -0.02708352 -0.51618546 0.21049386 1.2297324 0.13963671 -0.3507367 -0.7133845
-0.082212985 0.084265694 -0.0062001646 0.07874817 -0.8383058 -0.031200087 0.51640356 0.019166486
-0.36385006 -0.03714498 -0.99582607 -0.00042143458 -0.13654867 0.009931212 25.895657 0.23543988
-8.515401 -22.74312 -0.078435734 6.7027655 -0.188902 -1.5062186 -29.13911 11.342645
-3.652859 7.027489 5.1217413 3.6218634 3.9443924 -8.21208 5.2408543 9.515921
0.49022838 -0.05775495 -0.3309648 -0.55636674 0.21916915 0.03973052 0.07666175 0.4195844
-0.81686014 0.26524112 -0.26782838 0.31556174 -0.07575304 -0.18388891 -0.4221168 0.21959302
-0.30144536 0.121117964 -0.6968277 -0.06395958 -0.79153687 0.089734316 0.1560479 -0.29027724
0.10105257 -0.13905516 0.1403353 0.10664491 0.1935159 0.029354272 -0.17739537 -0.10345224
-0.5587618 -0.053297065 -0.1082501 0.081171885 0.2270014 -0.15841743 -1.1334553 3.1593854
00000000: c064 e1c1 5807 00be 5a1b 09c1 11ac ffc1
00000010: 3224 57be d11a 0c41 2ab4 953d fede a13f
00000020: f20d 10c1 9319 c53e acf4 eac0 0368 8b40
00000030: 3dec ff3f d18e f5bf f412 10c0 ca46 84c0
00000040: 9dd6 5540 771b 13c0 c5c0 aabf 27ce 193e
00000050: 543e 0f42 7cc3 bc41 fb99 0d3e 29e6 5440
00000060: 5844 22bd 3429 e3c1 1ff9 8c42 d839 1ac2
00000070: ce32 b542 ae32 9abf 004d 7fbf 51ab 553e
00000080: 01a4 a142 63ec 9440 7ee3 a942 7763 8cc2
00000090: f1d1 8341 2606 04be 713c e142 a6a8 b0c2
000000a0: f176 663e 971d 9cc2 c1ec 5c3e 2c59 9fc2
000000b0: f8df d142 a9a3 5dc2 cc71 5e42 c2ab 35c2
000000c0: 199e 9b42 3ced 8e42 f0e8 9541 ba02 0642
000000d0: d43f 89c2 4a9c f341 6383 bdc2 55d6 403e
000000e0: d002 2bbf 5dec a5c0 4116 1c3e 432c 54c2
000000f0: 91c4 353e f484 8cc2 3652 4242 3bd0 20c2
00000100: 306f 1e42 18fa 0dc2 11a9 b742 522d 5242
00000110: a621 c242 ec71 6241 78c9 ff41 5293 9dc1
00000120: fd85 99c1 38fa e93c f8cd b1c0 f43e 8bc1
00000130: d65b a83d fa0d 9c40 42b1 5cbe 0324 2441
00000140: 5390 c4c0 a43c 2240 2a5b 8cc0 07ba 2940
00000150: d76f 99c0 62f9 9ebf 91cb bcc0 65ee 2ebd
00000160: cb4c ea3f 1351 a3bf b864 5cc2 00d8 4ab9
00000170: 2630 b242 32d8 95c2 0ed7 3fbe 8af3 55c2
00000180: a428 0f3d d1f4 8fc2 9a38 de42 f0eb 82c1
00000190: 4ee5 2042 b65a 84c2 ab92 0e42 7aa0 5240
000001a0: 5881 8642 148f 7442 0355 a1c1 76d5 7ec1
000001b0: 5f9e f7c1 0446 21bd 18af b0c1 7486 ddc0
000001c0: 3848 d63c f8e6 8a40 782c 96bd 8d30 4ac0
000001d0: dfcf 2a41 88c7 bb40 15b6 703e 6db0 1841
000001e0: f8fb 0840 24c1 8d40 f0b6 c3c0 65d0 73c1
000001f0: 2ab0 c140 7614 f63f b893 80c2 b8af c4bd
00000200: 9f56 1e42 2e17 41c2 a35f 0b3e ab8a 6ac2
00000210: f069 1fbe 3a30 1ac2 07dc 4b42 ddd2 29c2
00000220: 7344 8b42 d740 52c2 8fb0 7042 0814 3a42
00000230: e1f9 c242 ff51 ebc0 726f 4e41 fcee 0ec1
00000240: 5365 9bbe 402b 6dbc b80d afc0 06ad b9bf
00000250: 3a0b 98bd 4be5 be40 4731 633e f79b 9140
00000260: c788 8e3f 511d fdbd b1a7 0ec0 1f4e 553f
00000270: 64b5 2e3f 8eee 3fc0 78da 04c0 ec5f 6abe
00000280: 27e5 093f 305a bfbf 6e9f cdbd 334b 44be
00000290: 7ee1 8f3d 543c 6abf 0d62 053e b812 313f
000002a0: 7034 fabc 4fe9 1d3f 6748 aebf 658e 423e
000002b0: aa42 abbd 3914 c83e e53d 81bd 1acf 7e3d
000002c0: db5a 26bf 42de ddbc bb24 04bf b48b 573e
000002d0: df67 9d3f edfc 0e3e c393 b3be 5ea0 36bf
000002e0: 485f a8bd 7e93 ac3d c02a cbbb b846 a13d
000002f0: 359b 56bf 5397 ffbc 0633 043f 0903 9d3c
00000300: 8e4a babe 5625 18bd 75ee 7ebf fef3 dcb9
00000310: 6ad3 0bbe 86b6 223c 4e2a cf41 2717 713e
00000320: 153f 08c1 e9f1 b5c1 eaa2 a0bd 0e7d d640
00000330: 876f 41be c5cb c0bf e61c e9c1 797b 3541
00000340: 71c8 69c0 31e1 e040 4ee5 a340 9ccc 6740
00000350: ed70 7c40 ae64 03c1 14b5 a740 3641 1841
00000360: 37ff fa3e 7490 6cbd 3874 a9be 0d6e 0ebf
00000370: e16d 603e 78bc 223d d600 9d3d c4d3 d63e
00000380: bf1d 51bf afcd 873e cd20 89be 4f91 a13e
00000390: 6924 9bbd 604d 3cbe b11f d8be fedc 603e
000003a0: 0c57 9abe b20c f83d 4d63 32bf 3efd 82bd
000003b0: 29a2 4abf a0c6 b73d 05cb 1f3e 389f 94be
000003c0: a6f4 ce3d 7a64 0ebe 0fb4 0f3e a668 da3d
000003d0: 0829 463e 5f78 f03c 22a7 35be c5de d3bd
000003e0: 030b 0fbf 064e 5abd 3ab2 ddbd 723d a63d
000003f0: 0e73 683e 2e38 22be 1015 91bf 5f33 4a40

bias f4 [256]
-8.413528 35.766285 112.813065 -0.8837636 -5.7022743 89.08804 -21.873219 39.512154
-5.2543383 -0.2677738 -0.5809502 -8.449324 -0.2793328 -0.86406475 -0.9616191 15.376591
-13.178927 -1.7840593 -3.6682162 -7.018925 -0.7603616 -1.1079949 -0.6622089 -0.25618914
-0.12905951 5.0291634 -28.408058 6.102163 -0.2456467 -0.36293048 -1.4416649 -0.21630196
-1.261755 -9.887634 -0.19573246 -5.8917437 1.8503393 -3.5867367 0.57707715 -15.111626
-1.9754634 -1.9949265 -1.0840249 -15.947367 -6.7568727 -0.6911729 -0.80809 0.47777897
-0.5715659 0.5535095 -0.0837875 0.007250052 -0.14038806 -0.805339 42.744267 0.026295565
-0.6175128 -0.30536407 -0.99179626 -0.19941513 0.04576755 -0.39302987 -0.19358858 0.0020171802
-0.07572206 37.75326 -3.0770955 0.86454844 -0.67748624 -15.772648 -13.027708 -3.671982
-3.6762562 -0.0026592494 6.7116904 -12.43489 2.3328142 0.7860898 -10.776182 0.10651551
-0.5675383 -10.7667885 -13.4239435 57.70101 -3.2126935 -0.1054841 0.8265291 -0.29794964
-0.14156757 -1.2108701 -30.091105 -3.9356227 -0.2740298 -14.145531 0.20476787 27.551275
83.937454 34.344387 41.518913 -0.37204665 -2.7127848 -0.5112772 -4.89469 -0.49508923
-0.6335018 -0.34302858 -0.7483794 44.547497 -0.35765487 -1.8383944 -0.58401465 -22.298248
-7.0859137 0.42549306 -0.24611582 -0.5962151 0.33453748 9.707596 -0.38823897 81.19418
-15.44763 -0.512401 -0.22486752 -0.61988527 -7.1018915 -22.460611 -0.9284745 -10.878151
-0.24459153 -1.7069141 0.4834943 -0.13375044 16.841373 -10.671244 -21.42774 -0.34982195
-0.8086657 -0.3931983 47.791073 6.3647876 -0.36706764 5.114539 -0.26301152 -0.25089687
-0.058189034 -0.8923151 23.215298 -6.934114 -0.2746894 0.85249853 -11.702417 -1.8826994
0.1805041 -0.73489666 -0.13395748 10.031927 -2.1516614 -0.19645596 -0.31110662 -0.09571267
-27.280214 -2.2951512 -0.1774234 59.437466 -1.0365554 42.62652 0.061528224 59.981335
-1.8884563 0.52099097 0.03874258 -0.9760907 -3.2554731 -3.4918785 -0.43580106 71.39809
-0.084026255 -14.094983 -0.76684076 -10.547084 -0.23878762 -6.196884 -5.4895263 -1.0645626
8.717087 9.841915 -1.723891 -23.764017 -27.25959 -0.29239857 75.55539 -10.702938
-0.28546417 -13.473821 -16.60502 -3.981301 -0.8271738 -0.43062994 -0.18689653 -0.72003275
-0.43390828 -1.332201 0.20593648 -0.4068834 -2.9483232 -0.5429387 0.38979167 -11.1623
-0.1802465 0.2824691 -1.1853628 -1.5052685 -0.27079907 -0.32336968 -27.980242 -0.500294
-10.276035 53.768307 54.583866 22.225924 12.269033 32.844017 6.1561775 -13.981427
-12.614399 -0.38874313 -0.49223152 -0.40237692 -1.3247248 -0.598281 -0.3467317 -0.21951151
-3.2497787 19.039804 -29.722748 -4.8404145 7.0806518 -15.008049 -29.085115 -1.3574865
-3.6145816 24.473583 0.033441775 18.917494 -13.865416 -9.912686 -1.1244904 -0.3658464
-0.3809577 -1.0267625 12.124346 -1.4106462 -1.4523395 -0.95676255 -1.5905545 0.460901
00000000: d09d 06c1 ad10 0f42 4aa0 e142 553e 62bf
00000010: 0879 b6c0 142d b242 5afc aec1 720c 1e42
00000020: 8a23 a8c0 a619 89be 27b9 14bf 6e30 07c1
00000030: b504 8fbe 5933 5dbf ab2c 76bf 8406 7641
00000040: e3dc 52c1 0e5c e4bf 0ec4 6ac0 099b e0c0
00000050: 0fa7 42bf c7d2 8dbf 8686 29bf 392b 83be
00000060: 2d28 04be e8ee a040 b443 e3c1 eb44 c340
00000070: cf8a 7bbe 06d2 b9be 7a88 b8bf 437e 5dbe
00000080: 3081 a1bf c033 1ec1 176e 48be 2a89 bcc0
00000090: ebd7 ec3f 188d 65c0 54bb 133f 38c9 71c1
000000a0: fcdb fcbf c059 ffbf 54c1 8abf 6a28 7fc1
000000b0: 4d38 d8c0 b5f0 30bf fcde 4ebf 729f f43e
000000c0: 2552 12bf ccb2 0d3f c898 abbd d891 ed3b
000000d0: e3c1 0fbe b22a 4ebf 21fa 2a42 cc69 d73c
000000e0: 5215 1ebf ae58 9cbe 5ce6 7dbf 7b33 4cbe
000000f0: c176 3b3d 363b c9be 163c 46be ab32 043b
00000100: 2b14 9bbd 5703 1742 22ef 44c0 0c53 5d3f
00000110: bd6f 2dbf c45c 7cc1 7e71 50c1 c101 6bc0
00000120: c847 6bc0 cd46 2ebb 2bc6 d640 4ff5 46c1
00000130: d44c 1540 2e3d 493f 3e6b 2cc1 ce24 da3d
00000140: 314a 11bf c444 2cc1 79c8 56c1 d6cd 6642
00000150: c59c 4dc0 0c08 d8bd 6997 533f db8c 98be
00000160: 17f7 10be cbfd 9abf 95ba f0c1 3ee1 7bc0
00000170: a24d 8cbe 1854 62c1 abae 513e 0369 dc41
00000180: fadf a742 a760 0942 5e13 2642 e67c bebe
00000190: 449e 2dc0 10e3 02bf 4da1 9cc0 567c fdbe
000001a0: 2d2d 22bf 71a1 afbe cb95 3fbf a330 3242
000001b0: 8a1e b7be 8250 ebbf fc81 15bf d062 b2c1
000001c0: cebf e2c0 3ada d93e c905 7cbe 8ea1 18bf
000001d0: 7f48 ab3e 5052 1b41 42c7 c6be 6c63 a242
000001e0: 7e29 77c1 b62c 03bf ac43 66be cdb0 1ebf
000001f0: b242 e3c0 55af b3c1 81b0 6dbf e80c 2ec1
00000200: 3476 7abe 297c dabf 918c f73e e0f5 08be
00000210: 22bb 8641 6abd 2ac1 036c abc1 dd1b b3be
00000220: b704 4fbf 4a51 c9be 0f2a 3f42 57ac cb40
00000230: 4af0 bbbe 4eaa a340 72a9 86be 8e75 80be
00000240: a057 6ebd c36e 64bf eeb8 b941 43e4 ddc0
00000250: 17a4 8cbe 583d 5a3f 1a3d 3bc1 4bfc f0bf
00000260: 11d6 383e 3022 3cbf 262c 09be c682 2041
00000270: d2b4 09c0 c02b 49be 5e49 9fbe 0105 c4bd
00000280: e13d dac1 c2e3 12c0 7bae 35be f7bf 6d42
00000290: d9ad 84bf 8e81 2a42 0505 7c3d e3ec 6f42
000002a0: f0b8 f1bf aa5f 053f 8ab0 1e3d 15e1 79bf
000002b0: ac59 50c0 f07a 5fc0 5121 dfbe d2cb 8e42
000002c0: f515 acbd 0d85 61c1 ad4f 44bf dbc0 28c1
000002d0: be84 74be e04c c6c0 33aa afc0 9643 88bf
000002e0: 3079 0b41 7c78 1d41 76a8 dcbf b51c bec1
000002f0: a413 dac1 44b5 95be 5c1c 9742 3c3f 2bc1
00000300: 5c28 92be c594 57c1 15d7 84c1 a3cd 7ec0
00000310: aac1 53bf 877b dcbe ce61 3fbe 1154 38bf
00000320: 3a29 debe 9085 aabf 03e1 523e 0553 d0be
00000330: 54b1 3cc0 08fe 0abf c692 c73e c898 32c1
00000340: 8a92 38be ca9f 903e f8b9 97bf a3ac c0bf
00000350: 2da6 8abe b690 a5be 89d7 dfc1 4513 00bf
00000360: a46a 24c1 bf12 5742 e155 5a42 b1ce b141
00000370: f64d 4441 4660 0342 68ff c440 edb3 5fc1
00000380: 94d4 49c1 5709 c7be c505 fcbe 5904 cebe
00000390: 9590 a9bf f228 19bf d186 b1be a0c7 60be
000003a0: 60fc 4fc0 8551 9841 30c8 edc1 ade4 9ac0
000003b0: b394 e240 f820 70c1 51ae e8c1 1ec2 adbf
000003c0: 4e55 67c0 e6c9 c341 3efa 083d 0757 9741
000003d0: bed8 5dc1 5d9a 1ec1 4def 8fbf 3850 bbbe
000003e0: e30c c3be f46c 83bf 52fd 4141 0e90 b4bf
000003f0: 43e6 b9bf 64ee 74bf 4a97 cbbf 37fb eb3e
