data/HopperPyBulletEnv-v0_sac_grad_False/HopperPyBulletEnv-v0_sac_grad_False_s2/pyt_save/model.pt (torch_old, 859910 bytes, 18 tensors)

weight f4 [256, 15]
000000 38 9e 96 bd 70 ad 7b bd 8c af 39 40 42 25 98 3f
       -0.073543966 -0.0614447 2.9013395 1.188637
000010 a4 e4 e1 3d a0 38 4c c0 18 1b f3 bc e5 56 3d c0
       0.11029938 -3.190956 -0.029676005 -2.9584286
000020 2a 3d 6f 40 ac 7f 87 c0 60 95 78 40 65 47 e7 bf
       3.7381082 -4.234335 3.8841171 -1.8068663
000030 17 1f d1 3f 95 8d 18 40 d4 76 79 40 42 9e e9 3e
       1.6337613 2.3836415 3.8978777 0.45628554
000040 20 c8 df 3d 60 63 09 bf 26 f1 5e be 2a 46 7e 3e
       0.10926843 -0.5366726 -0.21771678 0.24831453
000050 7a 0a a2 3d 90 a8 8f bc 3d a4 18 3e 37 6e 99 3e
       0.079121545 -0.017536432 0.14906402 0.299669
000060 ed fa 22 3e 0c ef 88 be 5f 8c 24 3e 12 51 ed be
       0.15916033 -0.26744878 0.16069172 -0.46350914
000070 98 0f 2d bd 18 43 8e be 1e fd 68 3f 8e 96 2b be
       -0.0422512 -0.27785563 0.91011226 -0.16756651
000080 8a a0 dd 3f aa 89 90 bf 40 65 50 3c a1 b4 54 bf
       1.7314618 -1.1292012 0.012719452 -0.8308812
000090 24 65 e8 3d 5e 0e 5a 3f 9e 99 eb bf 20 19 16 3f
       0.11347416 0.8517817 -1.8406255 0.5863209
0000a0 cb a8 7d bf 97 59 0e bd 85 9e d6 3d b3 89 34 3f
       -0.9908568 -0.03475341 0.10479454 0.7052261
0000b0 3e cc d4 3f 52 ed 06 40 5c 1e e0 3d d1 80 76 3f
       1.662483 2.108235 0.109432906 0.9629031
0000c0 7f 13 c7 3e 40 84 a1 3c ea 1e c1 bf 60 9b 31 3e
       0.38882062 0.019716382 -1.5087559 0.17344427
0000d0 23 9c 3d 3f cd 34 3d bd d9 00 b9 bf b2 4d 13 3f
       0.7406637 -0.046192933 -1.4453384 0.5754043
0000e0 a1 87 24 3e 96 72 3b 3f 21 b0 d4 3d 23 7a 68 3f
       0.16067363 0.7322172 0.103851564 0.90811366
0000f0 21 31 f9 3e d9 f7 61 be 50 42 9b 3f 41 c7 15 c0
       0.48670295 -0.22067203 1.2129612 -2.3402865
000100 0c d9 6a 3e f6 3b 3e c0 b4 6d af 3d 9f 59 a9 bf
       0.2293436 -2.9724097 0.08565846 -1.3230475
000110 ae 72 16 40 6a af 5c bf 77 92 2f 3f 34 35 86 bf
       2.3507495 -0.8620516 0.6858286 -1.0484986
000120 b2 7f 66 40 e6 d2 7c 40 f7 ec b6 3f 8b d9 a6 3d
       3.601544 3.9503722 1.4291066 0.08146962
000130 70 ed cc 3c 84 6b 9d be 2b 2f 8c 3c 9f 20 27 be
       0.025015563 -0.3074609 0.017112335 -0.16321038
000140 65 89 81 3e 5c d1 01 bd f2 bf 58 be ec c7 71 ba
       0.25300136 -0.0316938 -0.21166971 -0.0009223211
000150 26 6d ac 3d b6 36 61 be 84 ab b7 3c 46 26 48 3d
       0.08419256 -0.21993527 0.022420652 0.048864625
000160 e5 b9 46 bd 80 77 18 be a0 9d 23 3f 45 ac 39 be
       -0.048517127 -0.14889336 0.6391239 -0.18132122
000170 df 79 8e be cf f3 85 bf 66 30 1e 3e bf 52 0a 3f
       -0.27827355 -1.046503 0.1544815 0.5403251
000180 74 c2 4b be b6 6a 59 be a1 7b db be 43 fa 23 3e
       -0.19898397 -0.21232113 -0.4286776 0.16013436
000190 d5 30 03 bf f1 d4 48 3e c4 3c 38 be 3a c1 db 3c
       -0.51246387 0.1961248 -0.1799193 0.026825536
0001a0 dd 1e 68 be 6a 2a 76 40 18 03 28 3e ce af ef 3f
       -0.22668023 3.8463387 0.1640743 1.8725526
0001b0 d3 94 c7 bb d8 c0 1f 3d b9 a0 4c 40 a6 9c 3f be
       -0.0060907393 0.03900227 3.1973097 -0.187121
0001c0 10 85 69 3f 31 5f 0d 40 01 ba 53 40 e3 54 c8 3f
       0.9121866 2.208935 3.3082278 1.5650905
0001d0 af ca af be 1a 2a a5 3f 1a fd e8 bf af 9c 93 be
       -0.34334323 1.2903473 -1.820224 -0.28830478
0001e0 e3 f0 56 be b0 96 eb 3d 59 41 90 40 29 bc 04 3e
       -0.20990328 0.11503351 4.507977 0.12962402
0001f0 0e 5b 2e 3e 47 0e 56 c0 54 8d bc bd 1a 4d 22 c0
       0.17026922 -3.3446214 -0.09206644 -2.535956
000200 01 f0 39 40 dd 55 cb c0 51 1e 53 40 26 d6 49 c0
       2.9052737 -6.3542314 3.2987254 -3.1536956
000210 3f 70 ef 3f 5e 5d 52 40 4d 2e 25 40 f4 9f dd bf
       1.870613 3.2869487 2.580951 -1.7314439
000220 b4 10 c6 3d 8f 2b da 3f 6a f2 62 be 00 97 9f bc
       0.096711546 1.7044543 -0.22162786 -0.019481182
000230 0a c1 a9 bf b0 35 1f bd 4a b3 4b 3e 3f e0 8a 3f
       -1.3262036 -0.03886956 0.19892612 1.0849684
000240 cb 84 eb bf 0f 7c 10 40 02 2e be bd fc d6 39 bf
       -1.83999 2.257572 -0.09286119 -0.72593665
000250 01 5a 45 3f 8f d6 0a 3f 36 c0 34 c0 c0 8a 2a bd
       0.7709046 0.5423364 -2.8242316 -0.04163623
000260 e4 12 3f 40 f1 52 67 3f ca 35 b1 bd 1e 3d 02 c0
       2.985528 0.90360934 -0.086528376 -2.0349803
000270 2b a8 40 be 1a 57 2a c0 86 3d 1a 40 5a 90 51 c0
       -0.18814151 -2.6615663 2.410005 -3.2744355
000280 44 e7 05 40 9d 87 d2 be cb 4a 93 3f d4 73 e1 3f
       2.0922403 -0.4111909 1.15072 1.7613473
000290 d4 6f bb 3f d4 9c aa 3e 4d 77 1b be 99 dd b0 be
       1.4643502 0.33322775 -0.15182228 -0.34544066
0002a0 45 33 83 be 57 7a 50 be 38 b9 2d be 10 67 d4 3c
       -0.25625053 -0.20359169 -0.16965187 0.02592805
0002b0 e3 23 91 3e 70 fb f4 be 1b 79 a6 bd f2 3d 9b bd
       0.28347692 -0.47848082 -0.08128568 -0.075801745
0002c0 be bc c9 bd 68 25 8c be c6 48 19 3c 0c 40 50 bc
       -0.09850453 -0.2737229 0.009355729 -0.012710582
0002d0 5a a3 16 c0 d8 67 69 bd de 7c 51 3d cc 94 05 bd
       -2.3537202 -0.0569838 0.051144473 -0.032612607
0002e0 86 5a 78 be 35 a8 18 bf 18 03 bb bd 1a 70 44 3f
       -0.24253282 -0.59631664 -0.091314495 0.76733553
0002f0 b4 29 37 be f9 b1 ec 3f 09 91 e5 be e0 73 c3 3d
       -0.17887002 1.8491813 -0.44837216 0.09543586
000300 d5 b6 38 3f 19 2e 6d 3e a5 52 32 3c a6 f2 b4 bf
       0.7215398 0.23162116 0.010883962 -1.413655
000310 b8 54 96 3d ad 81 71 bf f7 11 ae bf e2 33 4a 3e
       0.073403776 -0.94338495 -1.3599232 0.19746354
000320 f0 5c 18 3f 52 ed 24 be 5d e5 1b 3f 3d 8a b5 3e
       0.5951681 -0.16106156 0.60896856 0.3545703
000330 11 7b 71 3f 46 73 1e bf a4 9a 5b 3f f8 ab 56 be
       0.9432841 -0.61894643 0.8578284 -0.20964038
000340 55 5f 2e 3e c5 f4 72 be 99 35 5d bf e0 53 90 bd
       0.17028554 -0.23726185 -0.8640991 -0.07047248
000350 4f 0e 14 bf 20 78 51 3c 30 14 46 be 5a 26 87 3f
       -0.57834333 0.012784988 -0.19343638 1.0558579
000360 88 c8 1b 3d 09 f2 e3 3e 7e c0 a0 3d 33 37 85 bb
       0.03803304 0.44520596 0.07849215 -0.004065418
000370 8e 37 85 3e ce a5 bf bd 4f f2 05 be 1d a4 d9 3d
       0.26018947 -0.093577966 -0.13080715 0.10627005
000380 2a 99 65 bf be bb f2 3e 32 1f df bd a3 35 8c 3d
       -0.89686835 0.4740886 -0.10894622 0.06846168
000390 c9 14 ca 3e 00 f7 07 be 18 b6 3a 3e b8 ec 58 3d
       0.39468983 -0.13277817 0.18233526 0.052960128
0003a0 10 9d be 3e 34 e9 c0 be 2d 43 b0 bc 87 a8 5c be
       0.37229204 -0.3767792 -0.021516407 -0.21548663
0003b0 bd 09 06 3d 75 8a 54 ba c1 f1 21 bd 7e 3d 1d bf
       0.03272413 -0.000810779 -0.039537195 -0.61421955
0003c0 84 87 ae 3e f8 5d d0 3d c0 40 99 be 70 9d a9 be
       0.34087765 0.10174173 -0.29932213 -0.33127928
0003d0 36 24 62 3e ea 18 0e 3f 94 3c 12 3e a2 ae 1e 3f
       0.22084126 0.55506766 0.14280921 0.6198522
0003e0 f7 6c cc be 5f 74 3a be 68 d2 a6 be a4 d3 bc bd
       -0.39926884 -0.18208455 -0.32582402 -0.09220055
0003f0 b6 08 cc 3d 63 de 0f 3e 82 aa 86 3e 1b 3c 00 3e
       0.09962599 0.14049678 0.26301962 0.12522928

bias f4 [256]
000000 f0 cc 26 40 d1 45 15 bf 84 f1 eb 3f df 09 98 3f
       2.6062584 -0.58309656 1.843308 1.1878012
000010 75 88 9e 3f a9 8e 4e be d6 4c 78 be 6b 53 c2 3f
       1.2385393 -0.20171608 -0.2424806 1.5181707
000020 19 ab 8f 40 c7 10 04 40 f2 84 41 40 69 0c 09 bf
       4.489636 2.063524 3.0237393 -0.5353456
000030 96 a4 99 be b6 7b 6c bf 7b 9c ea be 75 d1 3c be
       -0.30008382 -0.9237627 -0.4582251 -0.18439277
000040 54 0e 6e 3d 7c 4f 95 3e 73 bc f8 3f 61 85 37 40
       0.058119133 0.29162204 1.943251 2.8675158
000050 49 1b 32 40 bd c3 fd bd 79 f1 be 3f 32 74 d9 3f
       2.7829154 -0.1239085 1.4917442 1.6988585
000060 32 3d 58 3f ea 66 a3 be 0d ec 95 be 21 4a 44 40
       0.84468377 -0.31914455 -0.29281655 3.0670245
000070 17 c7 66 be bb 87 21 bf 9b a3 15 40 81 57 43 be
       -0.22536884 -0.63097733 2.3381107 -0.19076349
000080 49 65 b0 3f 1e d7 e0 3f e7 03 31 40 3b d0 83 40
       1.378091 1.7565649 2.7658632 4.1191688
000090 d0 0b 69 be 1b ca 18 bf bc 72 54 bf 3e 91 04 40
       -0.22758412 -0.5968339 -0.8298757 2.0713649
0000a0 d8 cd b8 3f 21 91 e6 be 86 60 ed be 05 9b 06 40
       1.4437819 -0.450326 -0.46362704 2.1032116
0000b0 6c 40 a7 be ac 2c b9 be 1e 8b 59 3e 82 60 26 be
       -0.32666337 -0.36166894 0.21244475 -0.16247752
0000c0 f4 20 61 be 0e d9 b7 3c b3 87 b7 be a6 5e 94 bd
       -0.21985227 0.022442367 -0.35845718 -0.07244615
0000d0 7b f1 26 bf 1a e0 25 bd ba ed c4 be 5a 31 da be
       -0.6521222 -0.040496923 -0.3846262 -0.42615777
0000e0 41 a4 94 bc 9d aa 1d be b1 d0 9d bf 38 5e 06 bf
       -0.018144729 -0.15397115 -1.2329313 -0.52487516
0000f0 74 e2 9d be 04 39 7e be 2a 1e be 3f 49 82 66 3c
       -0.30836833 -0.24826437 1.4852955 0.014069148
000100 e2 e3 b7 3e 12 31 5f 40 6e a0 cd bd 89 1e f5 be
       0.35916048 3.48737 -0.10040365 -0.4787486
000110 15 b5 0d be a5 75 46 40 6b 8e 12 bf 57 ba 0d 40
       -0.13838609 3.1009305 -0.5724856 2.2144983
000120 41 78 74 bf d0 ed 4b 40 ee 6f dd be a2 90 11 40
       -0.9549599 3.18639 -0.43249458 2.2744527
000130 c6 bf d4 be fc e7 01 3f 47 8e 90 be 4c cc e3 3f
       -0.41552562 0.50744605 -0.2823355 1.7796721
000140 95 ce e1 3f 93 5a 18 bf 32 8a ad 3f e8 e7 e5 3f
       1.7641169 -0.59513205 1.3557799 1.7961397
000150 c4 5f 80 40 6f 5a 4a 40 a9 bb 5f 3f b5 87 4c be
       4.01169 3.1617696 0.8739572 -0.19973643
000160 75 05 5d bf 76 32 14 be 0d 05 4d bf e1 2d 81 be
       -0.8633645 -0.14472374 -0.8008583 -0.25230315
000170 b8 93 9d 3e e9 a3 c5 3f cc 1d 2a 40 3c 2c de be
       0.30776763 1.5440646 2.6580687 -0.43393123
000180 b8 70 63 40 3c 50 c1 3f e8 36 b7 3f b1 9a 33 40
       3.5537548 1.510261 1.4313631 2.8063166
000190 7e d5 59 bf f8 61 44 40 04 f4 86 3f f4 80 6d 3e
       -0.8509139 3.0684795 1.0543218 0.23193723
0001a0 2b ba cb be 8a cc 81 be 61 17 69 be bb 07 0f bf
       -0.39790472 -0.25351363 -0.22762825 -0.5587117
0001b0 7d 1b a8 3f c1 0e 0c be 11 e4 e1 3f 88 e6 57 40
       1.3133389 -0.13677503 1.7647725 3.3734455
0001c0 90 36 79 3f 65 80 b2 3e c2 f8 8a bc 4a 16 70 bf
       0.9734888 0.34863582 -0.01696432 -0.9378401
0001d0 60 ff 36 bf 70 e7 8c 40 46 e3 a2 be fd 7b 46 be
       -0.7148342 4.4032516 -0.3181402 -0.19383235
0001e0 76 2f 02 40 47 c8 3b bf 2f 61 3d bf 54 bd 08 bf
       2.0341468 -0.73352474 -0.73976415 -0.5341389
0001f0 2c a9 1a 3f 54 94 99 be 4e ca 88 be f7 3b f4 3f
       0.60414386 -0.29995978 -0.26716846 1.90808
000200 59 60 09 bf 73 40 ed be a1 0b 62 3f f8 db dc bd
       -0.5366264 -0.46338233 0.88298994 -0.10784143
000210 cc ac bb bd 8b 84 b9 3f f2 19 af 3f 12 2a 9b be
       -0.09163818 1.4493574 1.3679793 -0.30305535
000220 15 3e b8 be d2 4d e3 3e 82 f1 a0 be cb af 4f bf
       -0.35984865 0.4439531 -0.31434256 -0.81127614
000230 86 9a 43 40 34 5e 1d bf 41 ff 0d 40 cd 6c af be
       3.0563064 -0.6147187 2.2187045 -0.34262696
000240 14 6c 8f 3e 5b f9 e0 be d1 5f b2 3f 21 0a aa be
       0.28012145 -0.43940243 1.3935491 -0.33210853
000250 d4 e0 1e 40 d3 d4 2f bd 0d 6c 2c be fd 66 34 40
       2.4824724 -0.042927574 -0.16838093 2.818786
000260 50 0a b0 bf e3 d2 05 3f e3 d6 4b 40 7f 90 c5 3f
       -1.3753147 0.5227491 3.1849906 1.5434722
000270 da ac 17 3f dc fd 1f 40 1d da 94 be 63 79 8e be
       0.59248126 2.4998693 -0.29072657 -0.27826986
000280 4e 88 1b bf 87 a5 85 bd 36 26 ff be 88 5c ac 3f
       -0.6075486 -0.065257125 -0.4983384 1.3465738
000290 58 12 06 3d 3a f3 87 be 82 41 d3 3f f0 d3 90 be
       0.032732338 -0.26552755 1.6504366 -0.28286695
0002a0 f1 dd a7 be f9 86 4c bf 4e e5 56 40 79 76 29 bf
       -0.32786515 -0.7989345 3.3577456 -0.661964
0002b0 f8 f9 59 40 9a ee 46 40 83 ea 9e 3f 56 ec 46 bf
       3.405882 3.108313 1.2415317 -0.7770437
0002c0 c3 88 10 40 ce 2d da 3f 3c dc 6c bf 0e ee 2c 3f
       2.2583473 1.7045228 -0.9252355 0.6755074
0002d0 64 4c 2b 3f d0 58 38 40 6f 8b 13 bf 4b 0f 22 40
       0.6691344 2.8804207 -0.57634634 2.5321834
0002e0 de 09 8d 3f 1b dd d7 3f 95 ad 6a 40 51 0a 65 40
       1.1018636 1.6864351 3.6668446 3.5787547
0002f0 b2 10 72 3e ee 71 26 40 64 2b 29 bf 55 47 20 40
       0.23639181 2.6007037 -0.66081834 2.5043538
000300 b6 42 bd 3c ee 18 31 bf 21 67 8b 40 c5 19 c6 3f
       0.0231031 -0.69178665 4.356339 1.5476614
000310 f3 86 77 bf ae 4b 0d be 7c 2c b3 be 14 a7 83 40
       -0.9669029 -0.13798401 -0.34994876 4.1141453
000320 87 24 db be ff 57 9c 40 73 a5 29 bf 83 90 92 bf
       -0.42801306 4.8857417 -0.6626808 -1.1450351
000330 81 16 aa be f1 e2 21 3f 7f c2 dc be eb cc 22 40
       -0.33220294 0.6323691 -0.4311714 2.5437572
000340 1d 10 18 3f 2e d5 30 be 8c a3 72 3f 52 e5 18 bf
       0.59399587 -0.17268822 0.947808 -0.59724915
000350 d6 75 27 3f b1 43 b0 be 51 48 90 be 3d 1e 25 be
       0.6541418 -0.34426644 -0.28180173 -0.16124816
000360 3e 55 1a 40 06 d9 4a bf d2 19 b3 be d0 a4 83 bf
       2.4114528 -0.792374 -0.34980637 -1.0284672
000370 0b 02 64 3f 2e cf 82 3d b8 b8 0b bf 24 bc b9 be
       0.8906562 0.06387173 -0.54578733 -0.36276352
000380 40 96 b3 3d 92 42 56 3f 1f 24 a1 be 70 be 22 be
       0.08768892 0.8369533 -0.3147287 -0.15892959
000390 20 03 b2 3f d5 de 15 40 c3 74 b7 3f 07 20 99 be
       1.3907204 2.3417256 1.4332508 -0.29907247
0003a0 f2 98 0b bf aa 05 dd be e3 ab 35 3f 2e fe 32 3f
       -0.5453025 -0.43168384 0.70965403 0.699191
0003b0 12 69 77 be 49 80 08 bf 8d 9b 9f be 16 b3 2d 40
       -0.24161175 -0.5332075 -0.31173363 2.7140555
0003c0 24 c2 fb bd 44 6d 5c 3f 4e 77 b8 be ef 0d 96 40
       -0.12292889 0.86104226 -0.36028522 4.689201
0003d0 ec 65 21 be ca f8 ef be e7 0a b5 3f 08 0c ea 3d
       -0.15761536 -0.46869498 1.4143952 0.11428076
0003e0 c4 74 7d be f9 be 3f 3c 7e 0b 90 be 2b ef 94 bd
       -0.24751574 0.011703246 -0.28133768 -0.0727218
0003f0 77 de 30 bf d8 f0 9f 3e cb f4 23 3d 64 38 3b 40
       -0.69089454 0.31238437 0.040028375 2.9253168

weight f4 [256, 256]
000000 7b 90 a0 3d 57 99 30 bc b9 23 ef be 4f af 05 be
       0.078400575 -0.010778747 -0.46706942 -0.13055156
000010 0d b3 8a bc eb e7 02 bd 31 1c b2 bd 7c 06 0b bf
       -0.016931081 -0.031959455 -0.08696783 -0.5430677
000020 a3 f7 0b be 7f c5 20 bf 1c e4 01 bf ad 51 c3 bb
       -0.13668685 -0.62801355 -0.5073869 -0.0059606642
000030 2c f7 16 be c7 6d b9 be a9 26 48 bd 55 8c 83 bd
       -0.14742726 -0.36216566 -0.048864994 -0.064232506
000040 93 04 cd bd c9 bf a2 be 25 e5 14 bd 71 1e 56 3e
       -0.10010638 -0.31786945 -0.03635134 0.2091005
000050 a3 c6 ae bc ef 10 fb bc 95 a0 5c bf bf 35 0d 3c
       -0.021334952 -0.030647723 -0.8618253 0.008618771
000060 1b 68 e1 be 19 ac 8a bd 2d 19 49 bc 87 d3 83 bd
       -0.4402474 -0.06771106 -0.012274069 -0.0643683
000070 e0 b4 8f be 16 a8 04 be da e9 f1 3e cc 80 09 bd
       -0.28067684 -0.12954745 0.47248727 -0.033570096
000080 14 40 b3 be 89 de cb be d7 e4 60 be d6 86 8e bd
       -0.35009825 -0.39818218 -0.21962295 -0.06959312
000090 12 e5 93 be 4c 03 9a bd b9 ce 2d 3e 46 9c 98 bd
       -0.28885704 -0.0752016 0.1697339 -0.07451682
0000a0 47 95 a2 bd 18 50 11 3e 89 09 7b bd a7 bc 1c 3d
       -0.07938629 0.1419071 -0.06128839 0.03826585
0000b0 f1 48 a7 bd ba 4a 67 bf 94 69 76 bd 31 55 61 3d
       -0.08168209 -0.903484 -0.06015928 0.055012885
0000c0 9a 40 89 3c 70 66 1a bc d3 70 aa be 20 2a cd 3c
       0.016754437 -0.009423837 -0.33289203 0.0250445
0000d0 35 11 b0 be 19 f0 e3 be 03 77 f5 bd c5 4a 38 3c
       -0.34388128 -0.44519117 -0.1198559 0.011248295
0000e0 4d ab 57 bd 2b 31 c7 3a d9 04 ed be 09 79 99 bc
       -0.0526536 0.0015197148 -0.4629276 -0.018734472
0000f0 87 f7 29 bf 8e ab 04 3d ca 14 c3 be 85 3b 9d bd
       -0.6639332 0.03239017 -0.38101798 -0.07677368
000100 cb 44 b0 3e 2f 8e 0c bd 4a ba 61 bd 63 5b ce bc
       0.34427485 -0.034315284 -0.0551093 -0.025190061
000110 ea cf c3 bc aa b7 bb be f4 4f fa 3c b8 13 1f 3d
       -0.023902852 -0.36663562 0.030555703 0.038837165
000120 29 df 60 bd 4b 96 81 3e 96 57 bb bd 5a 60 b5 be
       -0.054900322 0.25309977 -0.09147565 -0.35425073
000130 5a 69 56 bd 6d 74 c1 3e c7 94 b3 bd 5d 42 0b bf
       -0.052346565 0.37784138 -0.087686114 -0.5439814
000140 4b cf b0 be fa 10 c6 be df 94 32 be d0 e4 3a 3e
       -0.34533152 -0.38684827 -0.17439602 0.18251348
000150 02 e5 01 3f 91 7c 20 be 3b 7a e7 be c0 80 81 bc
       0.50740063 -0.15672518 -0.45210442 -0.015808463
000160 b4 e2 fc 3d 5c 6f e8 bc 20 9f c0 bc 59 5f 14 be
       0.12347928 -0.028373413 -0.023513377 -0.14489497
000170 6f 5e d2 be 13 a6 bc bf 73 70 ff be e7 ed 29 3d
       -0.41087672 -1.4738182 -0.4989048 0.041486647
000180 bb 47 1a 3d bd 2a 3f be 81 74 aa be 16 95 8d 3d
       0.037666064 -0.18668647 -0.3329201 0.069132015
000190 e5 29 ad 3e 58 aa 26 be 15 03 c3 be d9 c2 1f bf
       0.33821025 -0.16275918 -0.3808829 -0.6240669
0001a0 2a 1f 48 3c ef a0 43 bd b4 50 cd bc 6b 68 e0 bc
       0.012214461 -0.0477609 -0.025062896 -0.02739354
0001b0 a4 84 0c 3d 08 c4 41 bd 00 82 10 be d7 ac dc 3c
       0.034306183 -0.04730609 -0.14112091 0.026937885
0001c0 66 91 32 bf 20 d8 8c bd 46 7a b6 3d 6a 77 03 bf
       -0.6975311 -0.0687716 0.089100406 -0.51354086
0001d0 99 e9 1a 3a 06 a2 a6 be cc 94 bc 3c fa 84 72 3d
       0.00059094426 -0.3254549 0.02302017 0.059208848
0001e0 4a 04 39 bf 22 cd 15 3e 07 a5 91 bd fe a1 eb 3c
       -0.7227217 0.14629033 -0.071115546 0.028763767
0001f0 99 d2 18 bf 0a 13 85 bd 47 b8 60 bc 0f 22 5e be
       -0.59696347 -0.06497772 -0.01371581 -0.2169268
000200 93 d5 e2 bd 09 40 c9 bb 28 37 1f bf b5 42 25 bd
       -0.11075892 -0.006141667 -0.62193537 -0.04034682
000210 99 4b a9 be ba b1 27 bf 9e 0d 53 bf 8c 2a 0b 3e
       -0.3306549 -0.65505564 -0.82442653 0.13590449
000220 82 56 87 3d d5 3b 10 bf a3 6b 0e be 9b 73 de bd
       0.06608297 -0.56341296 -0.13908248 -0.10861894
000230 95 b0 97 be b9 f8 19 bd a3 e5 2f be 54 1c 86 bd
       -0.2962691 -0.037590716 -0.17177443 -0.06548372
000240 0d 14 bf bd 3f d3 15 3c b8 26 3b be 62 de df bd
       -0.09329996 0.009144603 -0.18276489 -0.10931088
000250 52 a9 f0 be e8 d5 a5 bd 9e 9d 8a be cf a6 2a bf
       -0.4700418 -0.0809744 -0.27073377 -0.6666078
000260 d0 a4 17 bf 37 f8 57 be d4 18 a2 bc fd a7 cc bd
       -0.5923586 -0.2109078 -0.01978723 -0.09992979
000270 3d 1f d6 be ae 4a d1 3e 1c c5 06 be 80 3e f2 bd
       -0.41820708 0.4087729 -0.13161129 -0.11828327
000280 29 38 49 bd 94 b2 8f 3e ca 31 20 bf 77 d3 20 bd
       -0.049125824 0.28065932 -0.6257597 -0.03926417
000290 af c5 16 bf 6d 88 e6 bd 2f 4f e5 3e 42 86 74 bd
       -0.5889539 -0.1125649 0.44786975 -0.05969835
0002a0 37 23 b4 bd 35 9a 8a 3e 42 26 e5 be 6a 65 46 bd
       -0.08795779 0.27070776 -0.4475575 -0.04843656
0002b0 80 a1 47 bd b2 0a 7b be 76 f7 6c bd 8d 1c 87 be
       -0.048738003 -0.24515799 -0.057853185 -0.2638897
0002c0 cc 35 38 bf ca a6 f8 be 76 d3 96 bb cf a7 11 be
       -0.7195709 -0.4856475 -0.004602845 -0.1422417
0002d0 9e a7 4f bd c6 c0 e8 bc 70 78 44 bf f1 b2 0d bf
       -0.05069696 -0.028412234 -0.76746273 -0.5535117
0002e0 5a dc ac be ed de 40 bf b4 d5 ab bd 81 4e 31 bd
       -0.33761865 -0.7534016 -0.0839037 -0.043287758
0002f0 62 64 dd bd 9b 4b 1c bf af 9e 06 be 6a 26 ad bd
       -0.10810162 -0.61052865 -0.1314647 -0.084545925
000300 b7 82 6c bf da ec a2 be 32 b5 18 3e 74 13 b0 be
       -0.92386955 -0.31821328 0.1491287 -0.34389842
000310 52 41 88 be 20 f9 99 bc 49 e6 40 bd c0 58 2e bb
       -0.26612335 -0.01879555 -0.047094617 -0.0026603192
000320 03 bc da 3c 1f f9 9e be f3 3b fb bc 87 1e a8 3d
       0.02670098 -0.3104944 -0.030668234 0.08208948
000330 cd 86 30 3d d1 fc ae be 38 a8 1f be 3e 48 69 be
       0.043097306 -0.3417726 -0.15591514 -0.22781464
000340 88 74 3e 3e e2 fe e0 3a 06 d3 9e bd 4f 86 15 be
       0.1859914 0.0017165805 -0.07755093 -0.14602016
000350 f7 e2 ae be 70 73 44 3c 80 db 8d bc b4 28 cd bc
       -0.34157535 0.011990413 -0.01731658 -0.025043823
000360 b2 2b 10 bf 51 bf ee be 10 93 89 3c 39 9d 05 bf
       -0.56316674 -0.46630338 0.016793758 -0.5219303
000370 e3 b1 00 bf 4f bc 25 3d 0e 07 05 bf 57 27 c4 3c
       -0.50271434 0.04046279 -0.5196389 0.02394454
000380 99 c9 13 be fb 42 a3 bc 49 95 b1 bd f0 73 3f 3d
       -0.14432372 -0.0199294 -0.08671052 0.046741426
000390 b9 a2 32 be 79 02 df be b2 e4 80 be bc b6 3e bd
       -0.17444886 -0.43556574 -0.2517448 -0.046560988
0003a0 07 56 21 bd de 3a 02 bf 61 43 64 bf 1f 20 a5 be
       -0.039388683 -0.50871074 -0.8916531 -0.3225107
0003b0 0a 09 10 3d be 3d 9c bd d6 29 1d bc 53 41 79 3d
       0.03516487 -0.07628964 -0.009592494 0.060853314
0003c0 ff 08 32 be ed a3 69 be 7c 18 92 bc 9a bf 8f 3e
       -0.17386244 -0.22816439 -0.01783394 0.28075868
0003d0 80 2e c0 be b7 78 ac bb a7 6d 89 be ae d1 10 bd
       -0.37535477 -0.005263414 -0.2684147 -0.035356216
0003e0 6a 21 c6 3c 10 ca bf bd d9 b9 e0 bc 8a 8b 62 3e
       0.024185855 -0.09364712 -0.027432369 0.22123542
0003f0 b8 1e 3b be 99 8a f7 bd 37 b9 8a 3d 31 b0 89 be
       -0.18273437 -0.12086982 0.06773608 -0.26892236

bias f4 [256]
000000 a8 27 d7 bd 31 ae 1c be a1 aa 95 3e 8f 98 1e bf
       -0.10505611 -0.15300824 0.29231742 -0.61951536
000010 67 00 c2 bd 58 72 ee bd 9d ac 0c 3e d5 58 56 3f
       -0.09472733 -0.11642903 0.13737722 0.83729297
000020 12 1b dd bc c0 83 99 be 6a 61 ab bd 37 ca dc be
       -0.026990447 -0.2998333 -0.0836819 -0.43123028
000030 eb b0 26 be f6 01 02 be 29 47 8c bf a9 1a 2c 3e
       -0.16278426 -0.1269606 -1.0959216 0.16807045
000040 b0 0a 47 be 58 f3 a6 3b f8 9c fa be 59 1c 85 3c
       -0.1943767 0.005094927 -0.48947883 0.016248869
000050 e8 dc 99 be eb 1d b5 3e fb 46 5c bd 2d 5a 90 bc
       -0.3005135 0.35374388 -0.05377863 -0.017621124
000060 3c 10 31 bd 94 96 c6 be 50 7b 8b 3f 11 4e 7c 3f
       -0.043228373 -0.38786757 1.0897007 0.9855662
000070 59 a9 9f 3e 86 03 44 3e 30 61 dc be 93 3f 51 be
       0.3118389 0.19141969 -0.43042898 -0.20434408
000080 b8 54 06 3e ea 28 0d be 0f 9e 9b bd 92 3b 27 bf
       0.13118255 -0.13785139 -0.07598507 -0.6532527
000090 86 42 94 be 7c f3 41 3f 55 0b 30 be b4 0f ba bd
       -0.28957003 0.7576215 -0.17191823 -0.090850264
0000a0 73 cd 0d bd 62 f6 86 bd cc 6f 01 bf 17 b8 1b 3f
       -0.03461976 -0.065899625 -0.50561213 0.60827774
0000b0 72 ad b8 bd 55 4f 1e be 67 97 90 bb 8c 2a 13 3d
       -0.09017457 -0.1545995 -0.00441258 0.035929248
0000c0 c9 3e bd 3d 69 33 f0 bd 24 4f b7 3e 14 e9 48 be
       0.09240491 -0.11728556 0.35802567 -0.19620162
0000d0 34 67 8c be 96 69 31 3f 8a d4 1f be ba 15 ab be
       -0.27422488 0.69301736 -0.15608421 -0.33415014
0000e0 97 b4 0d be 92 24 90 bd 0a 1f 49 3e d6 c0 dc bd
       -0.13838421 -0.07038225 0.19640747 -0.10778968
0000f0 60 b1 67 3e 21 97 76 3d 18 0f ab bd 6e dd a7 bd
       0.22626257 0.06020272 -0.08352488 -0.08196531
000100 4e 1e ba 3e 2e bd 4c bf 08 54 aa bc 15 08 81 be
       0.36351246 -0.79976165 -0.020792022 -0.2520148
000110 42 c9 d0 be ec 1b 2b bd ef fd a4 3c 8a 1d b0 be
       -0.40778548 -0.041774675 0.020140616 -0.34397537
000120 7c 0f af be d3 aa 40 bb bb 3c e1 bd f4 82 91 3f
       -0.341915 -0.0029398694 -0.109979115 1.1368089
000130 fc 7f 0a 3f c2 bb 91 bd 6a 75 dc bd 65 8e 97 bd
       0.5410154 -0.0711589 -0.107645825 -0.074002065
000140 9e cb 99 3f 1c a6 ea bd f6 5c ed 3d 47 ac 50 3e
       1.2015264 -0.11457464 0.115899965 0.20378219
000150 57 13 81 bd b6 e4 06 c0 de a7 53 be 55 55 ed be
       -0.06302517 -2.1077094 -0.20669505 -0.46354166
000160 d5 17 0f bf e8 40 aa be 45 96 ca 3f 01 e1 22 be
       -0.5589574 -0.33252645 1.5827109 -0.15906145
000170 b4 63 c9 be 72 34 93 bd 88 e8 ac bd e9 07 c1 be
       -0.3933388 -0.071877375 -0.08442789 -0.37701347
000180 21 0e a8 bd 2d f0 fd bd b0 de e1 bd 5e b9 33 bf
       -0.0820582 -0.123993255 -0.110288024 -0.7020472
000190 df 55 26 3f b1 f3 5a 3f 63 b1 65 3e 9d 10 27 bd
       0.6497478 0.85528094 0.22430949 -0.040787328
0001a0 ca 1d f4 be ae 25 4d 3e 12 f6 55 be 76 67 1f be
       -0.47678977 0.20033905 -0.2089465 -0.15566811
0001b0 d1 ad 96 bd 2a 48 0b be e3 5a 28 3f 86 1a 90 3d
       -0.073573716 -0.13601747 0.6576368 0.07036309
0001c0 86 d5 bf be 0c bf 8a bf b9 01 33 3e e5 cf 1d be
       -0.37467593 -1.0839553 0.17481126 -0.15411337
0001d0 ab f0 f3 bd 7c 99 e3 bd d6 18 fc 3d 7a b2 25 3d
       -0.11911138 -0.11113259 0.123094246 0.04045341
0001e0 b6 c8 be bd 01 cc a2 3d 62 87 0b be 69 36 22 3f
       -0.09315626 0.07949067 -0.13625863 0.63364273
0001f0 b5 e6 bb be a8 44 90 be 7b 98 db c0 10 9e 5e 3e
       -0.36699453 -0.2817738 -6.8623633 0.21739984
000200 62 01 9f bd a0 3a 7a 3e ed 63 de bd a2 79 05 bf
       -0.077639356 0.24436426 -0.10858903 -0.5213872
000210 d5 d3 7e 3f dc 97 be bd f8 1b 0e 3f 97 63 85 be
       0.9954198 -0.093063086 0.55511427 -0.26052544
000220 c9 17 97 3f fd b9 0d be 9a ce 30 bd 8d 04 98 be
       1.1804134 -0.1384048 -0.04316578 -0.29690972
000230 e6 a1 4a 3e b1 21 2a be a9 ad 5a 3e 70 00 99 be
       0.19788322 -0.16614415 0.21355309 -0.29883146
000240 a6 df dc be c3 2c 8a bd 32 fd 24 be 69 48 88 3e
       -0.4313938 -0.06746819 -0.16112211 0.26617745
000250 d0 bb 42 bf e2 0d ca bd 18 c8 5f bd 93 56 e2 bd
       -0.7606783 -0.09865929 -0.054634184 -0.11051669
000260 7e 05 2d bd be 33 7e bd 90 b7 09 be 10 e7 b5 3f
       -0.042241566 -0.062061064 -0.1344893 1.421114
000270 10 7f 79 be 1d 9a a7 bd a3 3f 30 be 71 57 20 c0
       -0.24364877 -0.08183692 -0.17211775 -2.505337
000280 4c 09 24 3d 6c 3d 81 be 48 0c e6 3e ec 4c 44 bf
       0.04004793 -0.25242174 0.44931245 -0.76679873
000290 b4 78 f5 be cb 34 00 3f 06 93 e2 bd bb 9c 37 be
       -0.47943652 0.50080556 -0.11063199 -0.17930882
0002a0 b8 28 96 be 44 3e 1d c1 f4 9d eb 3e 22 0a 9c be
       -0.2932794 -9.827702 0.46018946 -0.3047648
0002b0 48 b6 12 be 53 1d 25 bf 76 46 bb bd 92 8d a8 be
       -0.14327347 -0.6449787 -0.09144299 -0.3292051
0002c0 8d 00 02 3f 27 5f 9a bd 6f 1e 3a be fe b9 07 be
       0.5078209 -0.0753768 -0.18175672 -0.13254544
0002d0 8e 20 0b 3f ca 83 8d bd 73 3f 08 be 52 78 17 be
       0.5434655 -0.069099024 -0.13305454 -0.14791992
0002e0 2c 9c 2c 3e 53 b8 02 be dd 7b 12 3e 39 3c 09 3f
       0.1685645 -0.12765627 0.14305063 0.5360752
0002f0 59 6a b4 be 95 25 8f bd d4 e6 77 bd db 36 bb be
       -0.35237387 -0.0698959 -0.06052287 -0.3656529
000300 1b c5 42 3f 71 45 a7 be 65 d1 c3 be 03 ed 84 3e
       0.7608201 -0.32670167 -0.38245693 0.25962076
000310 88 45 4f 3e cb de 28 bf 37 d6 cb be a0 15 38 3f
       0.20241368 -0.65964955 -0.3981187 0.71908
000320 21 21 b1 bd a6 46 b6 bd 04 05 c2 bd a9 89 40 be
       -0.08648897 -0.08900194 -0.09473613 -0.18802513
000330 17 5d ae bd 7d 96 00 bc c1 b6 ff bd 82 87 d0 bd
       -0.08513849 -0.007848379 -0.124860294 -0.10182096
000340 b3 ff 8a bc ac f5 53 3f 49 1e 05 bf e1 2b f8 bd
       -0.01696763 0.8279674 -0.51999336 -0.12117744
000350 90 95 1c 3f ea f0 10 be 61 e9 1d be 17 a3 99 be
       0.61165714 -0.14154401 -0.15421058 -0.3000724
000360 f6 88 2c be 1d 7a 03 bf 61 a4 88 3f 66 8a 1d 3f
       -0.16849121 -0.51358205 1.0675164 0.61539304
000370 19 74 38 bd db c9 c0 bd 48 63 d1 bd fd 03 87 bd
       -0.045032594 -0.09413501 -0.102240145 -0.065925576
000380 ed 01 2a be 86 1e f7 bd c6 e2 41 3e 5d a2 9f bd
       -0.16602297 -0.12066369 0.18934163 -0.0779464
000390 1a d1 37 3f 52 e3 28 bd 9f 93 f6 be 9a 81 2e be
       0.7180344 -0.041232415 -0.481595 -0.17041627
0003a0 1d 66 e6 3e 9c 31 06 bf 0c 95 36 3e 80 97 b4 bd
       0.4499978 -0.5241945 0.17830294 -0.08817959
0003b0 b4 55 d5 3f 22 7e b6 bd 2e 0e e4 bd 12 75 f1 bd
       1.666678 -0.08910777 -0.11135517 -0.117899075
0003c0 2a 4d 96 3b 4c 5d 86 bf 08 ff b4 bd 30 0d 22 3f
       0.0045868354 -1.0497222 -0.08837706 0.6330137
0003d0 ef c3 ac 3f 5e b1 68 3c 3f 92 ea bd 8c 19 ad 3e
       1.3497294 0.014202444 -0.114536755 0.33808553
0003e0 9e 42 48 be 1d 81 bf be a0 ef 3b 3d 61 e3 a0 be
       -0.19556662 -0.37403193 0.04588282 -0.31423476
0003f0 6d 8a b8 bd b6 18 39 be 66 cb 1b be 32 f2 f9 bc
       -0.090107776 -0.18075833 -0.15214309 -0.030510996

weight f4 [3, 256]
000000 20 f7 3e be ee 74 94 bd 3f d4 01 3e 08 fb 8c be
       -0.18648958 -0.07248865 0.12678622 -0.27535272
000010 57 5c 6b 3d e2 15 82 3c 20 5a 05 3f 1f 02 aa 3e
       0.05746111 0.015879575 0.52090645 0.33204743
000020 19 7a 05 bd c0 a1 be be 73 40 4e 3d 47 8d 9a 3e
       -0.032587145 -0.3723278 0.050354432 0.3018591
000030 3d 72 09 3d a7 14 24 bd 44 6b 4e be 72 a2 47 be
       0.03355621 -0.040058758 -0.20158106 -0.19495562
000040 68 74 80 be fd 71 1a 3d f6 36 87 bd c0 1e 32 3d
       -0.2508881 0.037706364 -0.0660228 0.043486357
000050 f1 be e6 bc db 45 2a 3d 3d 62 28 bc c9 a1 80 3e
       -0.02816722 0.041570526 -0.010277328 0.25123432
000060 a3 3a c1 3d 18 37 29 3e 8e d8 8a 3d c6 d0 ce 3e
       0.09435012 0.16524923 0.06779586 0.40393656
000070 56 7e 6f bc e7 cc fe bd 57 9a 9b be 0b b3 bc 3e
       -0.014617523 -0.12441426 -0.3039119 0.3685535
000080 dd 64 04 be 23 14 6b 3b 4e a5 52 3c 1b d9 1f 3f
       -0.12929101 0.0035870157 0.0128567945 0.6244065
000090 82 56 57 be c0 cf 74 be cd 3b 7a 3c e7 f8 00 bf
       -0.21029094 -0.23907375 0.015273047 -0.50379795
0000a0 fe 63 d3 3c 8b 58 14 bc 8a e6 30 3b 21 c3 08 3d
       0.025804516 -0.009054313 0.002699288 0.033389214
0000b0 99 62 57 bd 4a f0 cc 3d 2e 8f 0f 3d 9e d7 88 be
       -0.052584264 0.10006769 0.035048656 -0.26727003
0000c0 8c 66 e4 3e 19 8b 29 3d d5 4d 14 bc a5 ef 8b bd
       0.44609487 0.04139242 -0.00905176 -0.06832818
0000d0 18 65 98 3e 64 e4 d0 3c d5 c6 c2 bc 2b f3 5b bd
       0.29764628 0.02549953 -0.023776451 -0.0536987
0000e0 96 7e 77 3f 03 ec ce 3c 4e 2f 48 3e 25 04 7a bc
       0.9667753 0.025259024 0.19549295 -0.015259777
0000f0 00 3b bd be bb e0 65 bd b2 20 f3 3b 71 c3 8d 3c
       -0.36959076 -0.056122523 0.007419669 0.017305108
000100 4f 21 49 3d 00 0a 1d 3d 4b 60 56 bc 62 50 5a bd
       0.04910403 0.038339615 -0.0130844815 -0.053299315
000110 94 51 9f 3d da ab 7a bd 3b b8 2c be 99 81 0b 3d
       0.07779232 -0.061199047 -0.16867153 0.03405914
000120 1e 21 3b 3e f2 27 4e 3e f2 34 1f bd 15 8f c0 3a
       0.18274352 0.20132425 -0.038868852 0.0014691079
000130 c7 3a 01 be 00 7e 0f 3d c8 8b e8 3d 0b 4e 90 3d
       -0.12620078 0.035032272 0.11354786 0.070461355
000140 ef 72 85 be 21 d0 cf bc 92 d7 78 be 23 e3 25 bf
       -0.2606425 -0.025367798 -0.24300984 -0.6479971
000150 c9 ea 11 3d fa 2c 69 be 20 3c 8d bc 7b 5d cc 3e
       0.0356243 -0.22771063 -0.017240584 0.3991507
000160 6a b3 c9 3c b4 bc fb 3d 64 1e 56 40 d5 f4 19 bd
       0.024621684 0.12291852 3.345605 -0.037587006
000170 0d 97 85 be 28 7f a9 3b b1 45 53 be fc 75 86 3d
       -0.26091805 0.005172629 -0.20632054 0.065654725
000180 11 ae b7 ba 04 40 ac 3c fe 29 b2 3d 29 60 2f be
       -0.0014013668 0.021026619 0.086994156 -0.17126526
000190 19 fd 39 bd e8 a7 2a 3e 1a 7e 99 3f 00 f1 e7 3e
       -0.04540739 0.16665614 1.1991608 0.45301056
0001a0 64 49 c3 3e 34 3a e6 be 67 12 55 be f3 6a d6 3c
       0.3814193 -0.4496628 -0.20807801 0.026174044
0001b0 3f 32 0b 3d 63 87 63 b9 5e cb 06 3e 6b 5b a1 be
       0.033983465 -0.00021698842 0.13163516 -0.3151506
0001c0 7d 10 21 3e cf 83 71 3e 7f 05 47 be 7a 29 c6 bc
       0.15728946 0.23585437 -0.1943569 -0.0241897
0001d0 94 71 e3 bc 02 10 b7 3d 39 53 7b 3d 31 19 25 bd
       -0.02776412 0.089386 0.061358664 -0.040307228
0001e0 c1 ab 09 bd 3a 31 6f 3d 7d cf 35 bc 1f b4 d4 3b
       -0.033611063 0.058396555 -0.011096832 0.0064911987
0001f0 4e 35 22 3f 7c d9 3e 3d 25 d6 fb 3e 0f 9f 01 be
       0.63362586 0.046594128 0.49186817 -0.12658332
000200 e0 1e 49 bd 91 85 8c be f4 a5 29 bd 7f db 85 bd
       -0.04910171 -0.27445653 -0.04141803 -0.06536006
000210 5d 85 cb 3e a5 11 2c 38 e0 c3 af 3e 86 69 07 3f
       0.39750186 4.102443e-05 0.34329128 0.5289539
000220 0e 95 4c be 9b 43 ca 3c d7 78 40 bd 40 2d 37 3b
       -0.19978735 0.02469044 -0.04699024 0.0027950555
000230 58 e0 3a be c8 33 81 3e aa 71 72 3e b5 d9 b9 3e
       -0.18249643 0.25234818 0.23676172 0.3629891
000240 cf 14 0b 3e d2 3a bf 3c 3a af 5a 3d 81 39 d8 bc
       0.13582157 0.023343477 0.053389765 -0.026394607
000250 10 68 d2 3e df 7a ac bb db 6b 82 bd d2 17 58 3d
       0.41095018 -0.005263671 -0.06368228 0.05275709
000260 f1 2f 89 be 2f 53 24 3d 3f 70 df 3c 1a 84 5e be
       -0.2679439 0.040118393 0.027275203 -0.2173008
000270 1d c0 08 bf c4 78 01 bd a1 f6 f2 3c 5b cd ac 3e
       -0.5341814 -0.03160931 0.029658617 0.33750424
000280 90 2f 51 be cc aa 28 3d 7e 79 19 be 71 46 b3 3e
       -0.204283 0.04117851 -0.14987752 0.3501468
000290 77 02 f2 3d c5 4e 2f be 75 ce a6 bc a2 5d 0c 3d
       0.118168764 -0.17119892 -0.020362118 0.034268983
0002a0 2a 12 86 bc 02 20 b5 3e 13 63 f7 3d da b8 bc bd
       -0.016366083 0.35375983 0.12079444 -0.09214945
0002b0 54 a4 9a 3c 21 c4 c6 3f 83 da 5f 3e fa 1a 9a 3e
       0.018877186 1.5528604 0.218607 0.30098706
0002c0 dc 4f f5 3d 17 10 43 3e a1 d7 58 3d 05 60 68 3c
       0.119781226 0.19049107 0.052940015 0.014183049
0002d0 5e e8 71 3c 84 f0 f0 3c 9c e1 b5 3a fd 53 97 bc
       0.014764873 0.029411562 0.0013876441 -0.018472666
0002e0 52 1c 94 3e 2a 54 95 3c fd 29 11 be f5 0f 18 bd
       0.28927857 0.01822861 -0.14176174 -0.037124593
0002f0 c0 99 e6 3c ca 40 d9 3c 62 db 9b be a6 c9 07 3e
       0.028149486 0.026520152 -0.30440813 0.13260517
000300 4c 6e 2d 3e b9 f4 ca 3c e1 d3 07 3f 92 66 c2 3e
       0.16936606 0.024774896 0.53057677 0.3796888
000310 00 d0 9f 3e 7d 43 49 bd 7d 5a 1d 3d f0 01 56 be
       0.3121338 -0.049136627 0.038416374 -0.20899177
000320 84 db 0a bd 3a b7 3b bd d4 d4 a0 3d 12 ec 84 be
       -0.033900753 -0.045829035 0.07853094 -0.25961357
000330 88 37 10 3f 24 2f 44 be 6f 92 f3 3e a0 05 81 bc
       0.56334734 -0.19158608 0.47572657 -0.015749753
000340 55 13 4a 3d 2d d3 2a be 37 7e bb bd af 9b d0 3c
       0.049334843 -0.1668212 -0.09154933 0.02546486
000350 a1 93 7f 3e cf 80 92 3d 54 cd a2 3e 23 02 cf 3d
       0.2495866 0.071534745 0.31797278 0.101078294
000360 d7 17 26 3d 80 0c 64 3e 91 ed 57 3d 95 f2 3f 3e
       0.04055008 0.22270393 0.052716795 0.18744881
000370 e9 68 b3 3e 15 f3 97 3d e4 64 ff bc 9f 56 c9 3d
       0.35040978 0.07419411 -0.031176038 0.09830975
000380 b0 bd 21 ba 58 ed 18 bd 69 98 12 3f 45 74 55 3b
       -0.0006169928 -0.037335724 0.5726381 0.0032570523
000390 5c dd 6f 3e 39 54 04 3e 58 df 49 be 3a bd 74 3c
       0.23424286 0.12922753 -0.19714105 0.014937693
0003a0 18 4a c6 be 26 41 94 be 6c 5e 97 3c c2 2b b1 bc
       -0.38728404 -0.28955954 0.018477641 -0.02162731
0003b0 29 0f 59 be 2c 14 46 3d 2e 5d 36 3d 24 8f 2b bd
       -0.2119719 0.04835908 0.044522457 -0.041884556
0003c0 e9 80 79 3e 95 b9 8a 3e f9 3a b9 bc 6d 69 30 3e
       0.24365582 0.27094713 -0.022611128 0.17227717
0003d0 e7 92 2a 3d 0f 35 d1 bc eb 30 1a 3d cd a6 35 3d
       0.041644003 -0.025537996 0.037644308 0.044348527
0003e0 13 30 c7 bd 11 4a 1f bc cc f7 0f 3f 74 9c ca 3d
       -0.09725966 -0.009722249 0.56237483 0.09893122
0003f0 b5 8d e7 bc 6a 76 a0 3b e1 65 b2 bd 56 cf d2 3d
       -0.028265813 0.0048969286 -0.08710838 0.102934524

bias f4 [3]
000000 b6 da 60 c0 0a 0f c5 40 9e ac 89 40
       -3.513349 6.158086 4.3023214

weight f4 [3, 256]
000000 b4 a2 19 3f 40 18 af 3d 3b 7e 00 3f 0d 0d 03 3e
       0.6001389 0.08549547 0.5019261 0.12797947
000010 77 d4 11 3d d8 eb 59 3c 0d b6 73 bd 47 5c 82 be
       0.035603013 0.013300858 -0.05949979 -0.25461027
000020 fc 99 3b bd 7a 14 90 3e d7 45 81 bd 5a f6 4d 3e
       -0.045801148 0.28140622 -0.06312149 0.20113507
000030 01 00 4a 3a d1 c9 7d 3d 71 55 c6 3e 68 58 20 3f
       0.0007705689 0.061960045 0.38737062 0.626349
000040 31 1f 47 bd 88 bc 34 3e 55 7a a5 3e ff 89 cc 3d
       -0.04861373 0.17650044 0.32319894 0.09987258
000050 34 6b 25 3d 48 b0 6e bd 69 50 0a 3e 20 7c 0b be
       0.04038544 -0.058273584 0.13507237 -0.13621569
000060 0b 8d db bd 98 92 c2 3e c3 94 9b be c2 a3 aa be
       -0.10720261 0.38002467 -0.30386934 -0.33328062
000070 86 b8 0f 3f 51 87 f2 bc b6 94 b0 3e 5f 8e 80 3d
       0.56140935 -0.02960554 0.34488457 0.06277155
000080 bd c4 05 3e 40 b0 79 3d c1 6f be bd 3c be 4c be
       0.13063331 0.0609591 -0.09298659 -0.19994444
000090 5d e6 0a 3e a3 fb 36 3d 7c 11 6c 3d 83 36 e6 3e
       0.13564439 0.044673573 0.057633862 0.44963464
0000a0 90 4f 8e bd 9a fb 0b bd bc 78 06 be a9 36 d0 3e
       -0.06948769 -0.034175493 -0.13131994 0.40666702
0000b0 3a c9 06 3e bd dc 67 3e 1a 5a 00 3e f7 a4 66 3d
       0.131627 0.22642799 0.12534371 0.056309666
0000c0 b6 b6 dd 3e cc c9 dc bc d2 59 de 3a 1f 5b 7d 3c
       0.4330346 -0.026951693 0.0016964024 0.0154636195
0000d0 cd 5d 94 3e 61 95 81 3e 12 33 9e 3d 20 80 9c 3e
       0.28977814 0.2530928 0.07724585 0.30566502
0000e0 fb 21 8c 3d c8 26 ef bb 49 d9 95 bc b1 08 85 3d
       0.06842419 -0.0072983243 -0.018292086 0.064957984
0000f0 f7 b7 07 3e b5 88 70 3b 80 6a bf 3d e9 0c 85 bd
       0.13253771 0.0036702577 0.09346485 -0.06496603
000100 5a 05 f0 3e 53 f0 42 be 4c 1f 40 3d 17 fc a8 3d
       0.46879083 -0.19036989 0.046904847 0.08251207
000110 92 60 89 3e c6 bd b3 3d cf 74 f7 3e 0d 5d bc 3e
       0.2683149 0.08776431 0.48331305 0.36789742
000120 86 08 ab 3d d2 43 0b 3f c0 39 5d bd d2 56 fb 3d
       0.08351235 0.5440036 -0.054010153 0.12272419
000130 dc 6f 91 3d 04 1b c7 3c 82 14 b4 3e a7 83 13 3c
       0.071014136 0.024304874 0.35171896 0.009003556
000140 02 89 55 3f 0e c9 91 3d c9 10 4f 3e 71 91 de be
       0.8341218 0.07118426 0.20221247 -0.43470338
000150 a9 7b 31 bc d6 fd c2 3d 07 46 90 3c b9 28 00 bd
       -0.010832706 0.095210716 0.017611517 -0.031288836
000160 30 8d 9a bd 95 6f 51 3e fb 31 8d 3f 9c ae 24 bd
       -0.07546461 0.20452721 1.1030878 -0.040205583
000170 33 23 46 3e b3 bc a4 bb 57 57 c9 3e d9 be b2 3d
       0.19349365 -0.0050273775 0.39324448 0.087278076
000180 48 38 0e bd 1a c9 79 bc 79 10 db bd 32 f1 17 bd
       -0.034721643 -0.0152457 -0.10696501 -0.037095256
000190 3a 03 d9 3d 7c 45 5c 3e b5 be 61 3e 38 54 a3 3e
       0.105963185 0.21510881 0.22045405 0.3190019
0001a0 48 f7 74 ba 18 98 e4 3e c6 1c 03 3f 12 00 ca 3d
       -0.0009344709 0.44647288 0.5121578 0.09863295
0001b0 dd 78 3c 3e 0e 3b d4 3d 96 61 a7 3b 78 51 08 3e
       0.1840548 0.10362826 0.0051080687 0.13312328
0001c0 52 41 b3 3b a3 8a dc 3e 39 ef 14 3e f6 24 32 3d
       0.0054704333 0.4307452 0.14544381 0.04349228
0001d0 a5 2c 5c 3c bc 8d 1b bc d7 1a 46 3e d7 26 47 3d
       0.013438378 -0.009494241 0.19346176 0.048621025
0001e0 86 f3 3f 3d ea 4c 85 3d 15 67 c6 3e bd 89 f6 3d
       0.0468631 0.06508811 0.3875052 0.1203799
0001f0 d5 00 c0 3e 34 05 72 3d d0 50 a1 bd 72 76 e9 3e
       0.37500635 0.059086993 -0.07876742 0.4559818
000200 86 b9 31 3d 0c 57 5c 3e 71 f1 f1 3d 60 8d e3 3d
       0.04338982 0.21517581 0.118136294 0.111109495
000210 7d d6 c0 bd 2e 76 55 bd 4d f9 c3 bd e6 b9 94 3d
       -0.094159104 -0.052114658 -0.09569035 0.0726202
000220 e5 48 39 3e 7b 06 8c 3c b4 2e b4 be ad 72 8e 3e
       0.18094213 0.017092934 -0.35191882 0.27821866
000230 e0 e1 0c 3e 15 6f f6 3d db c6 11 3d 52 53 a4 3d
       0.1375804 0.12032906 0.035590034 0.080237046
000240 9c e7 05 3d 9d cd 71 bd 3b 44 19 bc 30 c5 80 3d
       0.032691583 -0.05903398 -0.009354646 0.062876105
000250 2a 08 8d be 94 54 27 3d cf c1 d9 3c 2f a8 cd bc
       -0.2754529 0.040852144 0.026581673 -0.02510461
000260 98 58 96 3e 7c 82 11 be 5d c2 0e 3d 78 ae 16 3e
       0.29364467 -0.14209932 0.034853328 0.14714992
000270 8c 36 1c 3f c7 9c 87 bb 74 1e fa 3b b2 67 40 3e
       0.6102073 -0.0041385624 0.007633025 0.18789557
000280 e8 48 15 3e 30 8a 8c 3e a1 a3 b6 be 14 82 a4 3c
       0.14578593 0.2744918 -0.35671714 0.020081557
000290 c2 0c ca 3e a6 6b 73 3e 7d cc 29 3c 0b 5a cd 3d
       0.39462858 0.23771533 0.010363695 0.1002694
0002a0 12 24 4b 3d db 29 17 3d b2 f6 fd 3d d5 1c 9f 3e
       0.049594946 0.03690515 0.12400569 0.31076685
0002b0 60 80 5f 3c 09 46 60 3e a1 0c 6a 3c 58 34 e7 3e
       0.013641447 0.21901716 0.0142852375 0.45157123
0002c0 9c ca 80 be a4 78 24 3f a3 6e f0 3b 39 6b f1 3c
       -0.2515458 0.64246583 0.0073374077 0.029470073
0002d0 8b c2 3d 3e 85 7b 17 bd 93 23 5f 3c d6 11 97 3c
       0.18531244 -0.03698303 0.013619321 0.018441122
0002e0 1c 51 9c 3c 51 eb 87 3d b3 75 e6 3e ba 2b c9 bd
       0.019081645 0.0663668 0.45011672 -0.09822793
0002f0 b9 4b 19 3d 9c 65 7f 3d af a1 f1 3c 08 d4 90 3e
       0.03742573 0.06235276 0.029496042 0.28286767
000300 2b 7e c2 be 7e 55 59 3d 3d 80 92 3d e4 fd 12 3d
       -0.37986884 0.053060047 0.07153366 0.03588666
000310 fc d1 3c 3d e9 c8 a9 3e 87 cc 54 3e c4 0b 8c 3e
       0.046098694 0.33161095 0.20781146 0.27352726
000320 fe 2c f0 3d 06 56 80 3d c9 44 c3 3d 38 09 b3 3e
       0.117273316 0.06266408 0.09534604 0.3496797
000330 f6 4e 09 be 2c df f1 3d 6a 2a c1 3e ef fe c5 bc
       -0.13409027 0.11810145 0.37727672 -0.024169413
000340 67 84 a0 3e ee 16 ed 3e a2 5c be 3e f3 54 9e 3d
       0.31351015 0.46306556 0.37180048 0.077310465
000350 6c 6f 5e 3e fc 2f 10 3e ce 3a 2b 3e 0b cb 60 3e
       0.21722192 0.14080805 0.16721651 0.21952455
000360 9c d4 91 bc 09 1d 10 3f 7a 27 f2 3d d2 18 b8 3e
       -0.017801575 0.56294304 0.11823936 0.35956436
000370 41 9e e0 bc fc 21 05 3e f9 65 21 3d a7 05 0c bc
       -0.027419211 0.13001245 0.03940389 -0.0085462695
000380 a4 f7 0f 3e 2b 7a 6a bb ff 15 ab 3e e7 62 c8 3c
       0.14059311 -0.0035778384 0.3341522 0.024461223
000390 48 c0 42 3e 12 c7 07 3e 8e ed 32 be 6f 32 f0 3d
       0.19018662 0.13259533 -0.17473432 0.117283694
0003a0 ea da e7 3e 93 63 8d 3e 78 43 8b 3d 33 4d 3d 3d
       0.45284206 0.27615032 0.06799978 0.0462162
0003b0 55 d8 6e 3e f0 9f 6c 3d ea 54 13 bd 42 84 be 3d
       0.23324712 0.057769716 -0.035969652 0.0930257
0003c0 b6 c9 a6 3e bd ed c1 3e e9 28 a6 bc 75 80 3d 3e
       0.32575768 0.37876692 -0.02028318 0.18506034
0003d0 00 f6 fc 3c 30 68 7d 3e 48 2d 56 3d d3 8a aa 3e
       0.03087902 0.24746776 0.052289277 0.3330904
0003e0 4d c8 90 3c 15 df 91 3e 28 9b 22 3e fc c1 74 3e
       0.017673636 0.2849051 0.158795 0.23902124
0003f0 bc 7c ac 3b d3 f0 00 3e 73 f8 b4 bd d6 29 73 3a
       0.005263893 0.12591867 -0.088364504 0.00092759484

bias f4 [3]
000000 77 00 f5 c0 92 41 8b c1 c2 59 ba c1
       -7.6563067 -17.407017 -23.293827

weight f4 [256, 18]
000000 99 23 b2 40 58 07 00 be dc c0 1f bf 5b cf 29 3f
       5.5668454 -0.12502801 -0.62403655 0.66332024
000010 32 24 57 be 9b fa c6 3f 2a b4 95 3d c7 ed 84 bc
       -0.21009901 1.5545229 0.07309754 -0.016226662
000020 af c2 e0 bf 90 97 03 3f a0 f0 0b c0 55 7b da 3d
       -1.7559413 0.5140314 -2.1865616 0.10668055
000030 f2 06 b2 3f 5e 39 d7 3e a4 a1 76 3f f1 3f 44 be
       1.390837 0.42035955 0.96340394 -0.19165017
000040 81 ed 30 be 0d 09 4b be 57 ff 13 c2 27 ce 19 3e
       -0.172781 -0.19827671 -36.999355 0.15020047
000050 bc 83 22 42 1f 5a 83 c0 fb 99 0d 3e de 10 06 c2
       40.628647 -4.104751 0.1382827 -33.51647
000060 58 44 22 bd 24 77 09 c2 0b 69 5c 42 57 d3 f1 c1
       -0.03961596 -34.36635 55.10258 -30.228193
000070 31 1c 42 42 40 7c d9 bf a5 2c da 41 52 b3 0c 42
       48.52753 -1.6991043 27.2718 35.175117
000080 11 38 eb 41 0b 61 16 c2 64 e9 44 41 dc 5f dd 41
       29.402376 -37.59477 12.30698 27.671806
000090 26 0f d2 40 26 06 04 be a9 8c 9c 3f c1 25 59 c0
       6.564349 -0.1289297 1.2230426 -3.3929293
0000a0 f1 76 66 3e 0d 8d 33 40 c1 ec 5c 3e 1d 54 9e 40
       0.2250631 2.805484 0.2157469 4.9477677
0000b0 3f 6a d9 c0 95 8b 2e 3f 1b 7f 36 bf ad e2 03 3f
       -6.7942195 0.68181735 -0.712877 0.51517755
0000c0 f0 8a 86 bf 9f 33 b5 bb 35 3f 22 c0 11 08 41 bd
       -1.051115 -0.0055298354 -2.5351079 -0.047126833
0000d0 3b 59 33 bf b9 f0 c5 be 23 ac 1d 3c 55 d6 40 3e
       -0.7005803 -0.3866022 0.00962356 0.18831761
0000e0 13 b4 10 bd 83 04 5a bb 41 16 1c 3e c4 d4 43 3e
       -0.035327982 -0.003326685 0.15242864 0.19124132
0000f0 91 c4 35 3e a7 e9 3e 3e da 97 a3 bd b6 fd e2 bd
       0.17750765 0.18643819 -0.07987948 -0.11083548
000100 4c 16 32 be 3f 09 2a be f7 aa c1 3d 77 9c 0f bd
       -0.17391318 -0.1660509 0.09456437 -0.035061326
000110 b9 eb 42 be 02 1e f2 3c 17 e7 22 bd 5f 63 9d 3c
       -0.19035234 0.029555324 -0.039771166 0.019212423
000120 0b 82 fd bf 38 fa e9 3c 7b 56 76 40 6b b0 eb 40
       -1.9805311 0.028561696 3.8490283 7.3652854
000130 d6 5b a8 3d e7 88 41 c1 42 b1 5c be a1 25 94 3f
       0.08220641 -12.095923 -0.21551993 1.1573983
000140 c5 d2 a5 40 85 d2 e6 c0 64 59 b2 40 8c ae e1 3f
       5.1819787 -7.213198 5.573412 1.7631392
000150 ef 22 d8 c0 5d 5c 45 40 e7 7d e6 c0 2c 00 33 c0
       -6.7542644 3.0837624 -7.202869 -2.7968855
000160 55 db 93 40 00 4c 37 40 db 00 49 41 00 d8 4a b9
       4.620524 2.8640137 12.562709 -0.00019344687
000170 7a 7d c5 c0 d7 81 41 c1 0e d7 3f be c5 48 63 c0
       -6.171567 -12.094199 -0.1873438 -3.5513165
000180 a4 28 0f 3d 48 34 66 c0 95 d7 f2 c1 48 78 bd 40
       0.034950867 -3.596941 -30.355265 5.920933
000190 59 05 86 c1 de 62 57 40 63 0b a1 40 7a 6e 05 40
       -16.752611 3.3654094 5.03264 2.084868
0001a0 af 86 00 41 09 df 81 c0 41 ce 06 41 4a e6 b4 40
       8.032882 -4.058476 8.425355 5.6531115
0001b0 89 2b 6c bd 04 46 21 bd 54 f0 08 bf 69 68 be be
       -0.057658706 -0.039373413 -0.5349171 -0.37189034
0001c0 38 48 d6 3c da 3a 8d 3e 78 2c 96 bd 44 af 21 be
       0.026157483 0.27583963 -0.073327005 -0.15789515
0001d0 81 35 cd 3d 42 4c 2b 3e c6 77 7a bd e4 12 40 3e
       0.10019971 0.16728309 -0.06114938 0.18757206
0001e0 09 02 87 3c be 6e 77 bc 0b 4a af be d3 36 2a bd
       0.016480463 -0.015102087 -0.34236178 -0.04155619
0001f0 6a 79 1c be 34 dc 6f 3b 32 69 75 c1 b8 af c4 bd
       -0.15280691 0.0036599757 -15.338182 -0.09603828
000200 19 52 23 42 73 83 07 c1 a3 5f 0b 3e 59 f7 d4 bf
       40.830173 -8.469592 0.13610701 -1.6637985
000210 f0 69 1f be 1e 31 2f c1 c9 aa 2e 42 84 2a 44 40
       -0.15567756 -10.9494915 43.666782 3.065095
000220 ab 3a 19 42 df 41 ca c0 f1 5a 17 c0 c2 42 73 c0
       38.307293 -6.320541 -2.3649256 -3.8009496
000230 c5 2f 9a 41 7a c2 9a c1 fc 1f 08 41 0c 9e 64 41
       19.273325 -19.34496 8.507809 14.288586
000240 81 3c 3b c1 40 2b 6d bc f3 dd d4 41 46 f7 a6 c0
       -11.702271 -0.014475644 26.608374 -5.2176847
000250 3a 0b 98 bd 56 d6 56 c1 47 31 63 3e ef 7d 80 c1
       -0.07424016 -13.427328 0.22186767 -16.061491
000260 dc a9 cd 41 01 48 27 c1 68 8d c7 41 fe 9e 09 c1
       25.70794 -10.455079 24.944046 -8.601316
000270 ad b7 99 41 f6 83 72 41 db 5b b9 41 cf 71 95 c1
       19.214685 15.157217 23.169851 -18.68057
000280 b7 22 33 41 aa 83 8f 41 4f 97 c8 c0 33 4b 44 be
       11.195975 17.93929 -6.2684703 -0.19169311
000290 07 42 87 3f 65 8f d8 40 0d 62 05 3e a6 be 6d 41
       1.0567025 6.767504 0.13025685 14.859045
0002a0 70 34 fa bc 91 86 f7 3c 17 ba 61 41 ee 95 51 41
       -0.030542582 0.030215533 14.107932 13.099104
0002b0 16 4e 33 c0 47 52 96 3f db a7 07 41 e4 20 05 c0
       -2.801641 1.1743859 8.47848 -2.0801325
0002c0 4f 64 d0 40 9b b7 77 3e ff e1 10 41 78 29 47 41
       6.5122447 0.24191134 9.055175 12.447624
0002d0 f0 53 c3 40 ed fc 0e 3e 3f d4 a8 3f 75 5f cb c0
       6.1039963 0.13963671 1.3189772 -6.3554025
0002e0 48 5f a8 bd 24 7b a5 40 c0 2a cb bb 38 69 16 41
       -0.082212985 5.171282 -0.0062001646 9.400688
0002f0 8a 63 1f c1 9e ff 59 40 d4 15 01 c1 a2 84 b7 3f
       -9.961802 3.4062266 -8.067829 1.4337351
000300 5c 03 13 c0 82 23 bb 3e cf 79 87 3e 97 af 6e bf
       -2.29708 0.36550528 0.2646012 -0.9323668
000310 73 97 21 40 6e a9 4b 40 19 d6 44 3f 27 17 71 3e
       2.5248687 3.1822162 0.7688919 0.23543988
000320 eb a3 4e c0 68 f8 33 c0 ea a2 a0 bd 8c c6 06 40
       -3.2287548 -2.8120365 -0.078435734 2.1058683
000330 87 6f 41 be 44 56 ac c0 73 2e 21 c1 d6 3a 06 41
       -0.188902 -5.3855305 -10.07384 8.389364
000340 6a 38 47 c1 c6 de 01 40 50 39 c7 3f 56 1f a7 40
       -12.451273 2.029222 1.5564365 5.222575
000350 5f 81 b8 40 d8 5e 2f c0 ad e9 e6 3f 44 58 81 40
       5.7657924 -2.7401638 1.8040062 4.0420246
000360 c7 de 39 41 74 90 6c bd 1b 8b 24 40 4d e0 1d c0
       11.616889 -0.05775495 2.5709903 -2.4668152
000370 e1 6d 60 3e d4 7a 91 40 d6 00 9d 3d 67 d7 cd 40
       0.21916915 4.5462437 0.07666175 6.432544
000380 ab e1 03 c1 6f 0a 21 3f a4 10 00 c0 cf 80 13 3e
       -8.242595 0.62906545 -2.0010157 0.14404605
000390 ba d0 40 3f c9 e0 48 3c c6 58 6d c0 77 0e 11 3f
       0.7531849 0.012260624 -3.7085433 0.56662697
0003a0 9b 83 1a bf bb 56 67 3e b7 06 48 3f 3e fd 82 bd
       -0.60357064 0.22591679 0.78135246 -0.06395958
0003b0 1e 91 32 c0 c6 9f 1a 3f 05 cb 1f 3e 13 d9 34 bf
       -2.7901073 0.60400045 0.1560479 -0.7064373
0003c0 a6 f4 ce 3d a9 14 9e bf 13 8c 97 3e cf c6 01 3e
       0.10105257 -1.2350055 0.29599056 0.12673496
0003d0 46 bf 3d bd 50 d3 28 3f e3 f2 15 c0 50 ba 59 be
       -0.04632499 0.6594744 -2.3429496 -0.21262479
0003e0 b3 31 4c c0 ff 1d 26 3e 2c 2e f7 be c2 26 e8 bd
       -3.1905334 0.1622238 -0.48277414 -0.113355175
0003f0 b9 0d ae 40 2e 38 22 be 94 bc 9c 41 13 c9 60 41
       5.439175 -0.15841743 19.59208 14.04909
