data/AntPyBulletEnv-v0_sac_grad_True/AntPyBulletEnv-v0_sac_grad_True_s0/pyt_save/model.pt (torch_old, 920366 bytes, 18 tensors)

weight f4 [256, 28]
1.757535 0.32435843 -0.3238227 1.4663134 0.101568475 1.1646761 0.8338404 -0.6751165
0.32259637 0.06641044 -0.080960974 1.3317963 -0.24112529 -0.3015171 -0.04101255 -0.28180707
-0.08412142 -0.1690261 0.32237053 -0.2216604 -0.46871507 -0.69075286 -0.44738185 0.5920629
-0.7529324 -0.5491044 -0.2358333 -2.8388517 -1.3722996 0.13703783 -0.5337066 0.85020053
-0.79334843 -0.5680403 -0.38599288 0.1084581 0.8539801 0.17034295 -0.26585573 -0.6701907
-0.25928196 -0.26376003 -0.45352286 0.050465375 -0.734098 0.5794646 -0.15644218 0.99335885
-0.09889694 -0.20114022 0.42801642 -0.3783718 -0.4506215 -0.70574373 -1.773789 -0.7510639
1.5558832 1.0344001 -0.9590551 0.42793643 -0.23627818 -0.25978324 -0.455268 0.72744167
-0.057490684 0.33805346 -0.059869047 -0.67078596 -0.08935494 -0.12159828 -0.4213899 0.1920132
-0.24511448 0.94080657 -0.05441339 -0.8174518 0.18953267 -0.43515074 0.6052032 0.2215999
-0.89065427 -0.94422233 -0.66250956 -0.7452457 0.70143026 0.13560395 -0.73652166 -0.34647226
0.3762646 1.1195157 0.12028026 -0.43551275 0.33720008 -0.5354868 0.4489889 1.2789712
0.11986527 -0.11746132 -0.13776319 0.020682305 0.17396346 0.3012081 0.34735924 0.066096604
-0.62121254 -0.7296607 -0.10492026 -0.2621592 -0.79890907 -0.4744963 -0.5579005 -0.6569432
0.51143116 0.49597442 -0.10400056 3.394846 -1.0506737 0.18512598 -0.19214639 4.3390436
0.6465678 -0.1632271 -0.45423236 -0.58947515 0.19522206 0.4014062 -0.21483332 -0.91439235
0.09971386 0.16800708 -0.13659708 -0.01306509 -1.4313239 -0.6084104 -0.073295034 0.4789936
-0.12839292 -0.021387428 -0.060385767 -0.0016102094 -0.5430328 0.013515067 -0.5427703 -1.9324129
1.909724 -1.0466237 1.1488843 0.84126806 -1.154115 -0.75062966 -0.23628022 -0.5969877
1.2362816 0.17130718 0.23556809 0.6695227 0.34640387 1.4501535 0.2968283 0.6596475
-0.55488926 1.1452326 0.14322677 0.34254768 -1.7217225 -2.188932 -0.4851767 -0.9334476
-0.7997798 -0.010193874 -0.6353084 1.7777377 0.49882007 -0.86445224 -0.5097877 -1.3912585
0.54656565 -0.007489386 0.013534128 -2.2327075 -0.21085918 1.3492429 -0.12204229 0.7625061
0.38474348 -1.246515 -0.20930813 0.5474439 0.19192594 0.21335436 0.25420886 -0.40225244
-0.69414246 -0.1788425 -1.0874097 -1.2423995 1.003902 1.2818033 -0.23796771 -0.7473261
-1.3378537 -0.769974 -1.1092556 -0.9076325 0.32380632 -0.01526453 -0.04536068 -0.6441815
-0.6869517 -0.1077387 0.5052033 0.16244705 -0.14895433 -0.041135103 0.2207068 1.0469282
-0.34592107 0.129294 -0.11851024 -0.008351594 0.1352022 -0.023851173 -0.061641123 -0.22646019
0.8945865 0.6330465 -0.6498044 0.046143238 0.2533406 -0.06315469 0.07038538 -0.41569418
-0.1321253 -0.2951725 0.16200382 -0.021952176 0.115602486 0.32355663 -0.06798476 1.970803
-0.081633046 0.5294657 0.025241926 -0.9562343 0.32564214 -0.17251529 0.110738516 -0.4190653
-1.0145063 -1.1971865 -0.6229473 -0.5433273 0.43509975 0.3600969 -0.61732197 0.7711275
00000000: e8f6 e03f 4f12 a63e 17cc a5be 28b0 bb3f
00000010: 2203 d03d 1b14 953f 9176 553f 6fd4 2cbf
00000020: 5a2b a53e 3202 883d dece a5bd 4d78 aa3f
00000030: 8ce9 76be 7360 9abe c7fc 27bd 0449 90be
00000040: da47 acbd 2e15 2dbe c00d a53e f2fa 62be
00000050: 6cfb efbe 2ed5 30bf 3c0f e5be 6f91 173f
00000060: 2ec0 40bf 1b92 0cbf 497e 71be bfaf 35c0
00000070: 83a7 afbf a553 0c3e ffa0 08bf bea6 593f
00000080: e218 4bbf 176b 11bf dca0 c5be 481f de3d
00000090: 719e 5a3f 626e 2e3e 3e1e 88be 9e91 2bbf
000000a0: 9bc0 84be 8e0b 87be 2634 e8be c8b4 4e3d
000000b0: d9ed 3bbf cb57 143f 6132 20be c44c 7e3f
000000c0: 7b8a cabd b4f7 4dbe f824 db3e f3b9 c1be
000000d0: dcb7 e6be 9fab 34bf 850b e3bf b945 40bf
000000e0: 2e27 c73f 3967 843f a384 75bf 7c1a db3e
000000f0: e8f2 71be 4f02 85be e318 e9be 9e39 3a3f
00000100: 5a7b 6bbd 5815 ad3e 3f39 75bd a1b8 2bbf
00000110: b9ff b6bd 8508 f9bd 6bc0 d7be 1c9f 443e
00000120: 4aff 7abe b3d8 703f 93e0 5ebd 8544 51bf
00000130: da14 423e 14cc debe 99ee 1a3f 16eb 623e
00000140: eb01 64bf 8eb8 71bf 3a9a 29bf 6cc8 3ebf
00000150: ef90 333f c3db 0a3e af8c 3cbf d064 b1be
00000160: c1a5 c03e 4a4c 8f3f 7f55 f63d 87fb debe
00000170: 7da5 ac3e aa15 09bf e0e1 e53e 54b5 a33f
00000180: ec7b f53d 8f8f f0bd cb11 0dbe f06d a93c
00000190: 7a23 323e f337 9a3e 12d9 b13e a85d 873d
000001a0: c907 1fbf 0bcb 3abf 6fe0 d6bd bb39 86be
000001b0: 4e85 4cbf 2ef1 f2be 91d2 0ebf 6e2d 28bf
000001c0: 27ed 023f 5cf0 fd3e 3ffe d4bd 2845 5940
000001d0: 7a7c 86bf aa91 3d3e 06c2 44be 72d9 8a40
000001e0: 7885 253f 0125 27be 2591 e8be d8e7 16bf
000001f0: 4be8 473e 1d85 cd3e 44fd 5bbe 9e15 6abf
00000200: c836 cc3d 0c0a 2c3e 1be0 0bbe f60e 56bc
00000210: 9f35 b7bf c9c0 1bbf b51b 96bd a63e f53e
00000220: 6f79 03be b034 afbc 1157 77bd a90d d3ba
00000230: 3304 0bbf 4d6e 5d3c fff2 0abf 4e59 f7bf
00000240: d671 f43f c4f7 85bf a40e 933f 585d 573f
00000250: 0aba 93bf 4429 40bf 71f3 71be 30d4 18bf
00000260: 7a3e 9e3f 266b 2f3e c338 713e d765 2b3f
00000270: d95b b13e a19e b93f e1f9 973e a9de 283f
00000280: 390d 0ebf fb96 923f 0aaa 123e 6962 af3e
00000290: 6761 dcbf 7617 0cc0 1569 f8be 6cf6 6ebf
000002a0: 5ebe 4cbf 3504 27bc 92a3 22bf e98c e33f
000002b0: 5865 ff3e be4c 5dbf 7281 02bf c214 b2bf
000002c0: baeb 0b3f 8669 f5bb 3fbe 5d3c aee4 0ec0
000002d0: 78eb 57be feb3 ac3f 4ff1 f9bd 9a33 433f
000002e0: 19fd c43e ce8d 9fbf df54 56be 4925 0c3f
000002f0: 3c88 443e 9179 5a3e aa27 823e 08f4 cdbe
00000300: 52b3 31bf 7d22 37be 3e30 8bbf f206 9fbf
00000310: dc7f 803f 2112 a43f cfad 73be c350 3fbf
00000320: ca3e abbf 041d 45bf 16fc 8dbf 9b5a 68bf
00000330: f1c9 a53e 1418 7abc 1fcc 39bd 14e9 24bf
00000340: 11dc 2fbf 1ca6 dcbd 0155 013f 8558 263e
00000350: 7c87 18be 487d 28bd f700 623e be01 863f
00000360: 911c b1be a565 043e 7fb5 f2bd 20d5 08bc
00000370: 7272 0a3e 8963 c3bc 677b 7cbd 2ee5 67be
00000380: 9f03 653f 560f 223f 9559 26bf b100 3d3d
00000390: dcb5 813e 3f57 81bd 3626 903d ded5 d4be
000003a0: db4b 07be da20 97be 54e4 253e 0dd5 b3bc
000003b0: ffc0 ec3d 37a9 a53e 983b 8bbd 4643 fc3f
000003c0: 3a2f a7bd 108b 073f 28c8 ce3c c5cb 74bf
000003d0: 91ba a63e d9a7 30be e0ca e23d ba8f d6be
000003e0: 58db 81bf 683d 99bf 7979 1fbf 7f17 0bbf
000003f0: 65c5 de3e 9f5e b83e d008 1ebf 9d68 453f

bias f4 [256]
-0.46148822 -0.39130396 -1.1517297 -1.2036527 -0.40124446 -0.934024 -0.92310095 -0.24900246
-0.949905 -0.5467857 -0.24263799 -0.9901401 -0.78435034 -0.94858503 -1.316472 -0.49406594
-0.80926704 -0.9897054 -0.63534003 -0.85302836 -1.6378208 -1.0168952 -1.0290964 -1.4422908
-0.95647997 -0.8074102 -1.3856939 -0.9369503 -1.2975417 -1.1432209 -0.29832405 -1.2486275
-0.3663356 -0.9363864 -1.4555297 -0.60296506 -1.2339588 -1.4667469 -0.34109256 -0.15215558
-0.8877386 -0.7953928 -0.39900145 -1.3766841 -1.1244199 -0.45228836 0.0082947295 -1.4407576
-0.6064108 -0.2612308 -0.8249918 -0.9993811 -1.1666936 -0.6660049 -0.7879707 -1.0742042
-0.7331294 -0.81025815 -1.1214502 -1.1274995 -0.6654328 -0.6780667 -0.8350081 -0.670337
-0.7883848 -0.5674959 -1.2985731 -1.5851417 -0.2362596 -0.811549 -1.1974512 -1.1360701
-0.65866214 -1.0962738 -0.92319494 -1.0821662 -0.591291 -1.1005111 -0.2880598 -1.3910899
-0.7276763 -1.361752 -0.43914402 -0.100454226 -0.54177487 0.16440848 -0.5404762 -1.306278
-0.95629156 -0.7600695 -0.65084386 -1.4793915 -0.75163347 -1.1208175 -1.2465754 -1.0530876
-1.0004851 -1.2954665 0.22930911 -0.5018758 -0.95710194 -0.41159275 -0.8289511 -1.6163608
-0.90320706 0.36744338 -0.9821393 -0.7711885 -0.668236 -1.593703 -1.3140111 -0.74528813
-1.1334583 -0.25770465 -0.5957284 -0.6842675 -0.37744886 -1.4401284 -1.1328233 -1.1136018
-0.8247762 -0.809695 -1.2533255 -1.1628377 -0.15994203 -0.67660415 -0.6574855 -1.1339666
-0.9260806 -0.21502729 -0.72898006 -0.85879105 -0.7217454 -0.8186341 -1.1291581 -0.5062733
-0.2982498 -1.052405 -1.0597757 -0.96642786 -0.3752309 -1.1080623 -0.02125886 -1.9780043
-0.97226745 -0.9317363 -1.5960602 -1.6601404 -1.0740263 -0.617158 -1.3364085 -0.27627274
-1.1302683 -0.23154481 -1.2546551 -0.6323501 -1.0663129 -1.2182975 -1.1016403 -1.3326684
-0.4153493 -0.8054267 -0.8069058 -0.39077014 -1.175529 -1.0968246 -1.2597909 0.62314874
-1.4468602 -0.954281 -0.99417 -1.7057352 -1.6064228 -1.1639078 0.04253703 -1.6317681
-0.7520296 -0.9086456 -0.99335057 -1.3443772 -0.9795091 -1.270808 -1.2435002 -1.1443253
-0.98229617 -0.92910635 -0.4039508 -1.2358238 -1.0685967 -0.84667593 -1.0438825 -1.1414776
-0.95875984 -0.45189086 -1.2034118 -0.28675252 -1.057652 0.25115606 -0.9616318 -0.7493642
-0.38671875 -0.6969841 -0.7890989 -0.3584886 -1.1439618 -0.40939024 -0.6159839 -0.82885635
0.094703525 -1.2763264 -1.0338813 -0.9919289 -0.49692333 -0.3311465 -0.5961559 -1.020561
-0.26020634 -1.0589802 -0.9849665 -1.0452611 -1.096628 0.27423418 -1.0421135 -1.0160637
-0.3686918 -0.8870351 -0.94282544 -0.9545747 -0.825792 -0.9779987 -1.0597991 0.71108097
-1.3463513 -0.5927567 -0.96827316 -0.8668044 -0.80488634 -1.1546298 -0.55401224 -0.97848046
-1.3212818 -1.1287221 -1.4252481 -0.9908554 -1.2570843 -0.8262851 -0.65484756 -0.78722197
-1.0487597 -1.0287781 -1.1475387 -1.5174248 -1.353704 -1.163854 -0.10815919 -0.22843064
00000000: 2f48 ecbe fe58 c8be e16b 93bf 4b11 9abf
00000010: ea6f cdbe 321c 6fbf 5850 6cbf 80fa 7ebe
00000020: f92c 73bf 26fa 0bbf 1876 78be d279 7dbf
00000030: 2fcb 48bf 78d6 72bf 2882 a8bf 36f6 fcbe
00000040: 202c 4fbf 555d 7dbf a5a5 22bf 1160 5abf
00000050: 1da4 d1bf 9f29 82bf 6eb9 83bf fc9c b8bf
00000060: dfdb 74bf 6fb2 4ebf 6b5e b1bf fadb 6fbf
00000070: d915 a6bf 1055 92bf eebd 98be 07d3 9fbf
00000080: 5790 bbbe 05b7 6fbf cc4e babf eb5b 1abf
00000090: 5df2 9dbf 5dbe bbbf afa3 aebe acce 1bbe
000000a0: d642 63bf dd9e 4bbf eb49 ccbe 2f37 b0bf
000000b0: feec 8fbf 5792 e7be 9ee6 073c bf6a b8bf
000000c0: bd3d 1bbf 0bc0 85be aa32 53bf 71d7 7fbf
000000d0: 3756 95bf 4c7f 2abf 73b8 49bf 867f 89bf
000000e0: 5eae 3bbf 146d 4fbf ae8b 8fbf e751 90bf
000000f0: ce59 2abf c795 2dbf 17c3 55bf 359b 2bbf
00000100: 96d3 49bf 6947 11bf a537 a6bf ece5 cabf
00000110: 09ee 71be adc1 4fbf 1546 99bf bf6a 91bf
00000120: 159e 28bf b352 8cbf 8156 6cbf 6c84 8abf
00000130: d95e 17bf 8cdd 8cbf 937c 93be 3c0f b2bf
00000140: fe48 3abf e44d aebf 7cd7 e0be f2ba cdbd
00000150: c2b1 0abf b25a 283e a65c 0abf 1e34 a7bf
00000160: 86cf 74bf ea93 42bf b49d 26bf b35c bdbf
00000170: 0d6b 40bf f376 8fbf c88f 9fbf 93cb 86bf
00000180: e50f 80bf d9d1 a5bf 02d0 6a3e ef7a 00bf
00000190: a204 75bf 49bc d2be 2436 54bf e9e4 cebf
000001a0: 9438 67bf 8a21 bc3e 7b6d 7bbf 9c6c 45bf
000001b0: 8411 2bbf 76fe cbbf 8431 a8bf 34cb 3ebf
000001c0: 2915 91bf ddf1 83be a881 18bf 282c 2fbf
000001d0: fa40 c1be 2156 b8bf 5b00 91bf 818a 8ebf
000001e0: 8824 53bf 2c48 4fbf f86c a0bf ded7 94bf
000001f0: d8c7 23be ee35 2dbf f850 28bf d125 91bf
00000200: 9e13 6dbf 1d30 5cbe 709e 3abf bbd9 5bbf
00000210: 4ec4 38bf 0192 51bf 4188 90bf 219b 01bf
00000220: 33b4 98be 35b5 86bf bba6 87bf d167 77bf
00000230: 441e c0be fcd4 8dbf 1027 aebc 3f2f fdbf
00000240: 85e6 78bf 4586 6ebf b34b ccbf 7b7f d4bf
00000250: b279 89bf 11fe 1dbf 6f0f abbf 9f73 8dbe
00000260: a2ac 90bf 151a 6dbe 8a98 a0bf b2e1 21bf
00000270: f17c 88bf 2cf1 9bbf 8d02 8dbf e194 aabf
00000280: aaa8 d4be 7230 4ebf 6191 4ebf 0613 c8be
00000290: bc77 96bf c064 8cbf d440 a1bf ad86 1f3f
000002a0: b732 b9bf c24b 74bf ed81 7ebf 8855 dabf
000002b0: 439f cdbf eefa 94bf 4f3b 2e3d c7dd d0bf
000002c0: 0385 40bf ff9c 68bf 394c 7ebf 8d14 acbf
000002d0: 1cc1 7abf d6a9 a2bf 042b 9fbf 4079 92bf
000002e0: c377 7bbf ead9 6dbf a4d2 cebe 792f 9ebf
000002f0: c7c7 88bf c1bf 58bf f19d 85bf f01b 92bf
00000300: 4971 75bf 3d5e e7be 6609 9abf 3ad1 92be
00000310: 2461 87bf 8797 803e 802d 76bf 55d6 3fbf
00000320: 0000 c6be 8d6d 32bf 6302 4abf d18b b7be
00000330: 576d 92bf 999b d1be 1fb1 1dbf ee2f 54bf
00000340: ecf3 c13d aa5e a3bf 3956 84bf 0def 7dbf
00000350: bc6c febe 098c a9be ac9d 18bf bea1 82bf
00000360: c439 85be aa8c 87bf c426 7cbf 1ecb 85bf
00000370: 4e5e 8cbf 6c68 8c3e fa63 85bf 600e 82bf
00000380: 2cc5 bcbe bb14 63bf 025d 71bf 025f 74bf
00000390: 1b67 53bf 1f5e 7abf 7fa7 87bf 6709 363f
000003a0: 3d55 acbf e7be 17bf c0e0 77bf e5e6 5dbf
000003b0: 080d 4ebf e9ca 93bf bfd3 0dbf b27d 7abf
000003c0: c31f a9bf f779 90bf 886e b6bf b3a8 7dbf
000003d0: 23e8 a0bf 6c87 53bf 17a4 27bf 6187 49bf
000003e0: c23d 86bf 00af 83bf 8ce2 92bf fa3a c2bf
000003f0: 2c46 adbf 2bf9 94bf 9182 ddbd b9e9 69be

weight f4 [256, 256]
-0.036530416 -0.0037461987 0.03491384 -0.0612698 -0.10332847 -0.035419792 -0.12570179 -0.001230701
-0.061390154 -0.08693544 -0.037229422 0.07939921 0.1417311 -0.32130656 -0.03470779 -0.090607986
-0.10397 0.033970732 -0.039722666 -0.062042203 -0.042242825 -0.10254506 -0.08222144 -0.02340191
-0.06967054 0.006359277 -0.081930906 0.0019631956 0.0036237733 -0.14020452 0.02981273 -0.031124728
-0.13184163 -0.16762413 -0.0514642 -0.04720119 -0.013165071 -0.057240225 -0.022220196 -0.05071672
-0.09209977 -0.11194691 -0.03885431 -0.14806238 0.020252896 -0.1191754 -0.075117156 -0.08723354
-0.05836482 -0.09946779 0.027877204 -0.10461795 0.009093744 -0.058832854 -0.12370524 0.07664182
-0.016894916 -0.18108724 -0.0034504954 0.013727339 -0.067521155 -0.012789035 0.029816361 -0.14920232
0.010502914 0.079185575 0.016598996 -0.103925794 0.0093462225 0.03653037 0.013879553 -0.024331218
-0.08629311 -0.11462848 -0.07749448 -0.019287372 -0.088427626 -0.0016694186 -0.18450828 -0.13620517
0.045669932 -0.12557913 -0.04685093 -0.12637115 -0.08273165 0.0084173875 -0.13044256 0.13021037
-0.02776755 -0.10004286 -0.0025415402 -0.09902449 0.0413778 -0.14955275 0.0076260255 -0.10839586
-0.0781311 -0.036298923 -0.12786631 -0.13199247 0.0026379097 -0.012002266 -0.08594973 -0.029670712
0.008073014 0.012077911 -0.011607172 -0.034145795 -0.004394612 -0.15033442 -0.04440432 -0.10301841
-0.0068062474 -0.021678623 -0.18354298 -0.10048947 -0.012448441 -0.0026002252 0.013408103 -0.04379013
0.014762692 0.014474546 -0.053601887 0.026989657 -0.046958305 -0.072627895 -0.080225974 -0.01096597
0.04649214 0.03902197 -0.12322332 -0.13151915 -0.018859366 -0.0257311 -0.08947408 -0.05200139
-0.0143389255 -0.011620565 -0.076054856 -0.02763787 0.08548418 -0.03641723 -0.17779122 -0.12977548
-0.09394404 -0.051374804 -0.013859574 0.027402231 0.042234182 -0.027519977 0.013571299 0.03889948
0.040820282 -0.0814994 -0.107948646 -0.0584466 -0.048415843 -0.0034022091 -0.0033869974 -0.16076764
-0.020048613 0.11706769 -0.20282368 -0.0034561825 -0.056998253 -0.055397492 -0.08293255 -0.1735676
-0.03496498 -0.03620402 0.024434784 -0.12055845 -0.01143669 0.012931831 -0.011680683 -0.07318577
-0.07304217 -0.13725902 -0.11525834 -0.041643262 -0.22430319 -0.17037323 -0.12703203 -0.11947323
-0.043757834 -0.091394976 -0.044607915 -0.040346377 -0.19196343 -0.1286505 -0.2900557 0.0059185512
-0.14161125 -0.044526577 0.048511516 -0.14142098 0.055313166 0.010906866 -0.1640466 -0.07003037
-0.10889255 0.109409444 -0.10703674 -0.018336141 0.07469647 -0.07723012 -0.04085096 -0.09150435
-0.08955552 -0.011352957 -0.051039312 -0.19196239 0.041992996 0.006587565 -0.14789185 0.04953194
-0.12884782 0.0535947 0.03989883 -0.040646777 -0.15111484 -0.23371184 -0.20986757 -0.042207178
-0.025700208 0.07138635 -0.116285615 -0.03663677 -0.06371869 -0.0778779 -0.040273566 0.0021020798
-0.051155645 -0.10462672 -0.02025765 -0.10049748 -0.017358083 -0.021953158 -0.14319457 0.0021369483
-0.05953903 -0.18805331 -0.21149482 -0.12262824 0.090724535 -0.08355123 -0.06492397 -0.116351835
-0.070875525 -0.11329454 -0.08126848 0.0044200844 -0.061704107 -0.034929886 0.0878426 -0.10027768
00000000: eba0 15bd c982 75bb d101 0f3d 0bf6 7abd
00000010: e09d d3bd 5814 11bd f8b7 00be 794f a1ba
00000020: 3e74 7bbd 350b b2bd e17d 18bd 0e9c a23d
00000030: f521 113e 4b82 a4be c129 0ebd ae90 b9bd
00000040: 39ee d4bd e524 0b3d 3cb4 22bd f71f 7ebd
00000050: d006 2dbd 2503 d2bd b763 a8bd 5db5 bfbc
00000060: 6eaf 8ebd 7b61 d03b 64cb a7bd f5a8 003b
00000070: d47c 6d3b c691 0fbe d439 f43c 49f9 febc
00000080: 7e01 07be a9a5 2bbe 20cc 52bd 0956 41bd
00000090: 4fb2 57bc ba74 6abd 2107 b6bc 56bc 4fbd
000000a0: ce9e bcbd 6c44 e5bd b225 1fbd aa9d 17be
000000b0: 67e9 a53c 3b12 f4bd 06d7 99bd 80a7 b2bd
000000c0: f30f 6fbd c5b5 cbbd bc5e e43c f041 d6bd
000000d0: edfd 143c b8fa 70bd 2c59 fdbd 63f6 9c3d
000000e0: 3567 8abc ef6e 39be b521 62bb a2e8 603c
000000f0: 8848 8abd 1a89 51bc 7141 f43c 7ec8 18be
00000100: 6a14 2c3c 0c2c a23d 9efa 873c 0cd7 d4bd
00000110: e620 193c dfa0 153d 1167 633c 4352 c7bc
00000120: 71ba b0bd 56c2 eabd 6db5 9ebd 8d00 9ebc
00000130: 8b19 b5bd 65d0 daba bdef 3cbe 5e79 0bbe
00000140: 6510 3b3d d197 00be c3e6 3fbd 7067 01be
00000150: 366f a9bd 15e9 093c bc92 05be de55 053e
00000160: c678 e3bc 45e3 ccbd f88f 26bb 5acd cabd
00000170: c57b 293d 5b24 19be bde3 f93b a6fe ddbd
00000180: 3303 a0bd 2eae 14bd 63ef 02be 0929 07be
00000190: c8e0 2c3b 27a5 44bc 6906 b0bd fe0f f3bc
000001a0: ad44 043c 6ee2 453c 022c 3ebc 76dc 0bbd
000001b0: ad00 90bb 44f1 19be 4ee1 35bd 51fb d2bd
000001c0: f106 dfbb 5e97 b1bc b1f2 3bbe 6ccd cdbd
000001d0: 8cf4 4bbc 8a68 2abb a9ad 5b3c 485d 33bd
000001e0: 38df 713c a526 6d3c a78d 5bbd 6a19 dd3c
000001f0: 5a57 40bd efbd 94bd 844d a4bd 9daa 33bc
00000200: 8b6e 3e3d 80d5 1f3d 825c fcbd f5ac 06be
00000210: f57e 9abc 07ca d2bc 303e b7bd 69ff 54bd
00000220: d0ed 6abc 2f64 3ebc a6c2 9bbd d068 e2bc
00000230: 5412 af3d 3c2a 15bd e70e 36be dde3 04be
00000240: bc65 c0bd 636e 52bd 4413 63bc a57a e03c
00000250: c0fd 2c3d 9371 e1bc 275a 5e3c 1055 1f3d
00000260: 2b33 273d 28e9 a6bd 2e14 ddbd b465 6fbd
00000270: b14f 46bd 99f7 5ebb 63f8 5dbb 46a0 24be
00000280: fd3c a4bc 2fc1 ef3d 03b1 4fbe 1f81 62bb
00000290: 0077 69bd 7be8 62bd 8ad8 a9bd b4bb 31be
000002a0: 7037 0fbd ab4a 14bd 752b c83c 59e7 f6bd
000002b0: f460 3bbc 08e0 533c 5660 3fbc 6ce2 95bd
000002c0: 2297 95bd a18d 0cbe 910c ecbd 2092 2abd
000002d0: bcaf 65be 5276 2ebe af14 02be 61ae f4bd
000002e0: 6a3b 33bd 4a2d bbbd cab6 36bd 3e42 25bd
000002f0: 1092 44be f5bc 03be 2e82 94be 68f0 c13b
00000300: 8a02 11be 8061 36bd 03b4 463d a9d0 10be
00000310: 0f90 623d b6b2 323c d5fb 27be 156c 8fbd
00000320: 0f03 dfbd 0f12 e03d 1436 dbbd ad35 96bc
00000330: 76fa 983d d32a 9ebd 5653 27bd a266 bbbd
00000340: e268 b7bd c101 3abc 990e 51bd ca91 44be
00000350: d900 2c3d 80dc d73b f670 17be 01e2 4a3d
00000360: aff0 03be 1e86 5b3d f56c 233d 3c7d 26bd
00000370: d9bd 1abe 2852 6fbe 86e7 56be 6fe1 2cbd
00000380: 3e89 d2bc 0233 923d 2727 eebd 7010 16bd
00000390: f27e 82bd 737e 9fbd e5f5 24bd 0cc3 093b
000003a0: 9588 51bd 8946 d6bd 5ff3 a5bc 9fd1 cdbd
000003b0: 8a32 8ebc 1cd7 b3bc 99a1 12be 0b0c 0c3b
000003c0: 33df 73bd 0c91 40be 1992 58be 8424 fbbd
000003d0: c9cd b93d e81c abbd dcf6 84bd df49 eebd
000003e0: 3027 91bd f806 e8bd 1770 a6bd 5bd6 903b
000003f0: 72bd 7cbd a412 0fbd d2e6 b33d 625e cdbd

bias f4 [256]
-0.20902486 -0.7418974 -0.11963211 -0.5193155 -1.8717426 0.20992763 -0.45554578 -1.2946337
-0.76255196 -0.21249066 -0.8447235 -1.4016811 -1.295269 -0.5965418 0.16231212 -0.39859384
-0.83102906 0.73005223 -0.031766724 -1.4374994 -1.0019422 -0.1974664 -0.7893878 -0.8155771
-0.5833664 -1.3788773 -0.59538704 -0.14106847 -0.16507664 -1.0672413 -0.062282372 -0.41131175
-1.1917231 -1.4126092 -0.23758282 -1.6195395 -0.20359837 -0.5016725 -1.3967034 -0.9031378
0.0052836435 -0.9623897 0.25544736 -1.1002747 0.08503336 -1.3136646 -1.2410611 -1.2792506
-0.9043649 -0.4853825 -0.46960598 -0.14553295 -0.80072933 0.1876686 -0.15956815 -1.1187855
-1.2031503 -1.1223419 -1.0604368 -0.34407645 -0.16232263 -1.3944389 -0.46143198 -0.21620856
-0.13389038 -0.6470618 -0.8928691 -0.88215095 -0.7606322 -0.32656413 -1.0133576 -1.064335
-0.30415222 -0.17260441 -0.57635635 -0.15511458 -0.18849947 -0.77970815 -0.4425921 -0.15640506
-0.1860584 -0.41778368 -0.907018 -1.0355387 -0.9559759 -0.9947729 -0.5211436 -0.80072045
-1.7034986 0.25688478 -0.6748023 -0.33300966 -0.9632159 -0.4711846 -0.755441 -0.53062296
-0.7567251 -0.24577542 -0.41368946 0.19153251 -0.5880414 -0.17848994 -0.5747316 -0.84053355
-0.23016942 -1.1538363 -1.4971823 -0.17633748 -0.4426645 0.07896428 0.19642992 -1.4350345
-0.029744396 -0.680429 -0.4055491 -0.13791448 -0.09750621 -0.4475921 -1.1253031 -0.14210224
-1.8028687 -1.7822132 -1.3136132 -0.6990573 -2.1187935 -0.6043184 -1.442359 -0.18431637
-0.62764025 -1.0442739 -0.6542604 -1.0233266 -0.6894744 -0.31197426 -0.6867717 0.3461128
-0.9585973 -0.86653656 -0.6918564 -1.1188403 -0.9550796 -1.0574429 0.0028757898 -0.13252304
-1.4308946 -0.39918312 -0.25225863 -0.70293695 -0.77055615 -0.7908792 -0.74139607 -0.109603696
-1.2818564 -0.44891068 -1.4107428 -0.9693319 -0.25673553 -0.61487883 -0.15124503 -1.266439
-0.18320641 -0.76365244 0.14865665 -0.13417943 -0.68767565 0.21717314 -0.9314692 -1.0419832
-0.9809725 -1.0940952 -0.027910361 -0.914917 -0.01542717 -0.978498 -0.4446643 -0.51100385
-0.34506038 -0.40122423 -1.5617812 -0.20040011 -0.1901309 -0.15261422 -1.5092132 -0.584369
-0.22208506 -0.99694955 -0.2325048 -0.6905471 -0.008654986 -0.9108467 -1.3868299 -1.0908216
-1.2995943 -1.1654248 -1.0818928 -0.14958239 -1.571711 -0.72508776 -0.15471005 -0.99100053
-0.38207698 -0.22301485 -0.18207693 -1.1920235 -0.17429669 -0.4469678 -1.3436239 -0.088273495
-0.7887939 -0.2605145 -0.89191043 -1.0531346 -1.3513237 -0.047524728 -0.78557116 -1.2664343
-0.5241263 -0.76530993 -0.17134312 -1.2580966 -0.23187253 -1.0283581 0.11664022 -0.90757084
-0.16332628 -1.0545655 0.60243124 -0.86084855 -0.8767753 -0.19293451 -0.14345649 -0.39462838
-0.78319156 -1.0337998 -1.0105323 -0.9248477 -0.43485525 -0.16251472 -0.9549018 -0.9319832
-0.15418085 -0.12721437 -0.087003015 -0.91994363 -0.5340405 -0.36695784 -0.7824935 -0.8147202
-0.5400509 -0.12814681 -0.25877717 -1.0110991 -0.15312046 -0.86498994 -1.173313 -1.2288053
00000000: 9d0a 56be fdec 3dbf ae01 f5bd dcf1 04bf
00000010: 4395 efbf 45f7 563e 4c3d e9be 8fb6 a5bf
00000020: 9b36 43bf 2797 59be cd3f 58bf 496a b3bf
00000030: 60cb a5bf f7b6 18bf 2635 263e 7e14 ccbe
00000040: 52be 54bf b4e4 3a3f d31d 02bd fbff b7bf
00000050: a43f 80bf a234 4abe 5215 4abf a9c9 50bf
00000060: 8057 15bf 0d7f b0bf 496b 18bf 4174 10be
00000070: da09 29be 5d9b 88bf cd1b 7fbd 7497 d2be
00000080: 628a 98bf 61d0 b4bf e948 73be 124d cfbf
00000090: 177c 50be 9c6d 00bf 2dc7 b2bf 0a34 67bf
000000a0: 6a22 ad3b 2c5f 76bf ffc9 823e cdd5 8cbf
000000b0: f825 ae3d 2926 a8bf 17db 9ebf 7cbe a3bf
000000c0: 7584 67bf 0e84 f8be 3270 f0be 9706 15be
000000d0: 99fc 4cbf 332c 403e d565 23be 5d34 8fbf
000000e0: d400 9abf e6a8 8fbf 65bc 87bf ca2a b0be
000000f0: e737 26be f97c b2bf d040 ecbe c765 5dbe
00000100: 8f1a 09be d8a5 25bf 1293 64bf a5d4 61bf
00000110: cbb8 42bf 6a33 a7be b4b5 81bf 213c 88bf
00000120: d7b9 9bbe 36bf 30be 178c 13bf 5bd6 1ebe
00000130: 0106 41be f49a 47bf 6f9b e2be a628 20be
00000140: 1886 3ebe bee7 d5be 5532 68bf 888c 84bf
00000150: d6ba 74bf 70a9 7ebf ab69 05bf 04fc 4cbf
00000160: 3e0c dabf 6786 833e d8bf 2cbf 3e80 aabe
00000170: 5195 76bf 1c3f f1be 9564 41bf e8d6 07bf
00000180: bcb8 41bf 8dac 7bbe 1bcf d3be 1921 443e
00000190: e289 16bf 11c6 36be 9c21 13bf 352d 57bf
000001a0: 88b1 6bbe e8b0 93bf aba3 bfbf d091 34be
000001b0: eca4 e2be 06b8 a13d ed24 493e 36af b7bf
000001c0: 85aa f3bc 9830 2ebf 22a4 cfbe 7439 0dbe
000001d0: 56b1 c7bd cb2a e5be ef09 90bf 4083 11be
000001e0: 67c4 e6bf 901f e4bf 7a24 a8bf 6bf5 32bf
000001f0: 509a 07c0 9cb4 1abf 389f b8bf 6ebd 3cbe
00000200: 08ad 20bf c4aa 85bf 9c7d 27bf 5efc 82bf
00000210: 6581 30bf 17bb 9fbe 45d0 2fbf b235 b13e
00000220: a266 75bf 57d5 5dbf 801d 31bf 2936 8fbf
00000230: 1980 74bf 4a5a 87bf bf77 3c3b 1fb4 07be
00000240: 8e27 b7bf bb61 ccbe 0b28 81be adf3 33bf
00000250: 2b43 45bf 0f77 4abf 22cc 3dbf e777 e0bd
00000260: df13 a4bf 9fd7 e5be 3893 b4bf 2326 78bf
00000270: d772 83be b368 1dbf fadf 1abe ac1a a2bf
00000280: 769a 3bbe ba7e 43bf 7339 183e 5566 09be
00000290: 830b 30bf a362 5e3e c474 6ebf b55f 85bf
000002a0: 0421 7bbf 500b 8cbf 45a4 e4bc 0038 6abf
000002b0: 3ec2 7cbc d87e 7abf 0aab e3be 26d1 02bf
000002c0: c1ab b0be 436d cdbe 72e8 c7bf b035 4dbe
000002d0: adb1 42be e746 1cbe e62d c1bf 3599 15bf
000002e0: 446a 63be 1638 7fbf bd15 6ebe b2c7 30bf
000002f0: a4cd 0dbc 402d 69bf a483 b1bf 0ba0 8bbf
00000300: 1b59 a6bf a42c 95bf 777b 8abf 202c 19be
00000310: d32d c9bf 5a9f 39bf 506c 1ebe 36b2 7dbf
00000320: 989f c3be 015e 64be 6072 3abe 3a94 98bf
00000330: d57a 32be f7d8 e4be defb abbf bcc8 b4bd
00000340: 66ee 49bf 2862 85be 3e54 64bf 1dcd 86bf
00000350: 2df8 acbf 4aa9 42bd 311b 49bf 851a a2bf
00000360: 242d 06bf 5aeb 43bf 9274 2fbe 4f09 a1bf
00000370: fe6f 6dbe 3da1 83bf 11e1 ee3d 9056 68bf
00000380: 013f 27be 01fc 86bf ef38 1a3f 9260 5cbf
00000390: 5974 60bf a090 45be 42e6 12be bb0c cabe
000003a0: 3e7f 48bf 8d53 84bf 1f59 81bf d2c2 6cbf
000003b0: 59a5 debe 426a 26be 7274 74bf 7396 6ebf
000003c0: 96e1 1dbe 7c44 02be a32e b2bd 6d81 6bbf
000003d0: e1b6 08bf e6e1 bbbe 7e51 48bf 8191 50bf
000003e0: c740 0abf eb38 03be 717e 84be b26b 81bf
000003f0: 9ccb 1cbe fb6f 5dbf 1f2f 96bf 7e49 9dbf

weight f4 [8, 256]
-0.022501454 0.4463033 -0.03036922 0.027263407 0.09331928 -0.080633864 -0.12252024 0.14500718
-0.034498986 -0.057048112 -0.12932512 -0.14963806 -0.10845456 -0.07819589 0.0129200835 -0.11277447
0.3125705 0.0841725 0.20597152 0.24923874 0.050044592 -0.01002975 0.28820035 -0.8019308
-0.2141826 0.2180097 0.24605852 -0.02209176 -0.033498984 0.6292255 -0.0926161 -0.104774125
0.30203184 0.024697537 -0.019490244 0.42131338 -0.06404698 -0.113438755 -0.04712428 0.1469165
0.095766135 -0.34003046 0.18275195 0.14328666 -0.39047426 0.15458445 -0.4308999 0.016051218
0.043994274 0.092090555 0.14944956 0.060551114 0.04539768 0.22124383 0.098818585 -0.1331835
-0.30907613 0.12977469 -0.30982497 0.13691029 0.013823228 -0.0060478067 -0.104297034 -0.28796694
-0.062160563 -0.15190391 0.3449629 0.70445126 -0.059337642 0.0622377 0.06412926 -0.08256587
-0.09455792 0.032603465 -0.34518132 0.0041705156 -0.032867163 -0.3663323 0.0045782463 0.018484952
-0.08418153 0.105964534 0.48455998 0.011526523 -0.17322141 0.22901475 -0.06290313 -0.047111705
-0.01622255 0.1361454 -0.04226502 0.2676374 -0.11719558 -0.35193372 0.4303152 0.112484366
0.19296902 -0.026684282 -0.4860445 0.23910205 -0.05705403 -0.03968881 -0.29154295 -0.14741267
-0.2600332 0.102827415 -0.10638633 0.000865165 0.32670358 -0.24306299 -0.1699591 0.20661156
0.21192653 -0.24276084 -0.05981271 0.015746262 0.1065998 -0.08829613 -0.23709923 0.0009965333
-0.06494757 -0.103879444 -0.10365151 -0.33197707 0.4051224 0.16142601 0.39501613 -0.08713752
0.04498191 -0.33242866 0.10043551 0.002434024 0.092349395 0.037190016 -0.18090974 0.37017983
0.017583333 -0.21347064 -0.098977126 -0.1319499 -0.0011205818 -0.20542923 -0.20238546 0.04505094
0.13577282 -0.23980293 -0.15897839 -0.06262911 0.28710425 -0.35771906 0.21742742 0.14238372
-0.075750396 -0.076934084 0.17242925 0.57807153 -0.09968152 -0.057788324 0.107480824 0.28129622
-0.02484841 0.30969247 0.14682911 0.25087693 -0.0986433 0.20441651 0.034986082 0.005464824
0.5332775 -0.1586648 -0.014987046 0.042126533 -0.124198355 -0.66202235 -0.08628528 -0.060760263
0.02564075 -0.13359928 0.4113812 0.07705779 0.01893958 0.067419596 0.15229861 -0.12125811
-0.036820922 0.13747062 -0.038360678 -0.034333758 0.06282001 0.56660295 0.08299603 -0.030000985
0.39552662 -0.39168286 0.39272773 -0.043164413 0.22080816 -0.18092543 -0.098390676 0.09011084
0.13594724 -0.32539362 -0.013402611 -0.2139961 0.050391752 0.021178521 -0.6587294 0.14773925
-0.59742934 0.1759424 -0.07117192 -0.41047242 -0.16854458 -0.06630847 0.0032365585 0.10797727
0.15326469 0.4807939 -0.09248273 0.095390484 0.31499544 -0.10059143 0.107871786 -0.29232502
0.013388069 -0.10181157 0.01723 0.11803312 -0.38723135 0.015584706 0.047731493 -0.20827389
0.29121804 0.10804761 -0.04526634 -0.030095188 0.47706848 0.08597919 -0.5717594 0.014265641
-0.014093535 -0.019933006 0.065828174 0.39882344 0.24623373 0.3863174 0.2073849 -0.08405786
0.041514147 -0.016653927 -0.15522815 0.37907046 0.16974807 -0.023593739 -0.1021706 0.08778556
00000000: f854 b8bc de81 e43e dfc8 f8bc 8257 df3c
00000010: 2e1e bf3d 5e23 a5bd e4eb fabd c37c 143e
00000020: cf4e 0dbd 48ab 69bd ce6d 04be b83a 19be
00000030: 6d1d debd 2b25 a0bd c2ae 533c 4df6 e6bd
00000040: 3e09 a03e a262 ac3d 33ea 523e 7138 7f3e
00000050: 8ffb 4c3d d253 24bc ff8e 933e 564b 4dbf
00000060: af52 5bbe ef3d 5f3e c4f6 7b3e c7f9 b4bc
00000070: 3b36 09bd ec14 213f 83ad bdbd d193 d6bd
00000080: eba3 9a3e 7d52 ca3c 01aa 9fbc 63b6 d73e
00000090: 102b 83bd 9452 e8bd 6405 41bd 4771 163e
000000a0: 0921 c43d 7918 aebe 5423 3b3e bdb9 123e
000000b0: 3eec c7be 634b 1e3e e99e dcbe d87d 833c
000000c0: 5733 343d f999 bc3d 4e09 193e 7204 783d
000000d0: ebf2 393d be8d 623e 6661 ca3d 4161 08be
000000e0: 3a3f 9ebe a8e3 043e 61a1 9ebe 3632 0c3e
000000f0: d27a 623c ae2c c6bb af99 d5bd 6770 93be
00000100: 139c 7ebd b38c 1bbe fa9e b03e eb56 343f
00000110: 070c 73bd f5ec 7e3d 3456 833d 4b18 a9bd
00000120: 95a7 c1bd 368b 053d 9bbb b0be d2a8 883b
00000130: b89f 06bd e88f bbbe 1d05 963b c16d 973c
00000140: 5e67 acbd ef03 d93d 3f18 f83e bed9 3c3c
00000150: f460 31be d882 6a3e 5bd3 80bd 34f8 40bd
00000160: 27e5 84bc b369 0b3e 161e 2dbd c507 893e
00000170: 3c04 f0bd a830 b4be 4652 dc3e 345e e63d
00000180: ac99 453e ff98 dabc d3da f8be 2bd7 743e
00000190: 7db1 69bd bc90 22bd 1e45 95be 59f3 16be
000001a0: 1223 85be 2e97 d23d 14e1 d9bd 3ecc 623a
000001b0: b145 a73e 81e5 78be c209 2ebe fb91 533e
000001c0: 4503 593e 4c96 78be 2cfe 74bd 4efe 803c
000001d0: ff50 da3d 9ad4 b4bd 24ca 72be 1c9e 823a
000001e0: 3b03 85bd bfbe d4bd 3e47 d4bd e6f8 a9be
000001f0: 346c cf3e dc4c 253e 8e3f ca3e 2875 b2bd
00000200: f43e 383d 1734 aabe 22b1 cd3d 2584 1f3b
00000210: ae21 bd3d 8f54 183d 6740 39be 3688 bd3e
00000220: ec0a 903c 0c98 5abe 85b4 cabd e01d 07be
00000230: 7ce0 92ba 0a5c 52be 223e 4fbe 5687 383d
00000240: 0808 0b3e e68e 75be 3bcb 22be b143 80bd
00000250: 54ff 923e f426 b7be 4ba5 5e3e 0acd 113e
00000260: 0623 9bbd 9e8f 9dbd 4b91 303e 7ffc 133f
00000270: d325 ccbd 73b3 6cbd e81e dc3d 0f06 903e
00000280: e58e cbbc 0390 9e3e 5f5a 163e f172 803e
00000290: 8005 cabd 9052 513e 914d 0f3d 4412 b33b
000002a0: e084 083f 0679 22be 3a8c 75bc df8c 2c3d
000002b0: b55b febd 4c7a 29bf 56b6 b0bd c1df 78bd
000002c0: 8d0c d23c 40ce 08be 8fa0 d23e 79d0 9d3d
000002d0: 2e27 9b3c 4913 8a3d 2bf4 1b3e 2c56 f8bd
000002e0: 89d1 16bd 19c5 0c3e 1620 1dbd 8ea1 0cbd
000002f0: c7a7 803d e40c 113f d3f9 a93d a0c4 f5bc
00000300: 7782 ca3e a88a c8be 9c13 c93e 2bcd 30bd
00000310: 891b 623e 8444 39be 0d81 c9bd 088c b83d
00000320: c135 0b3e fe99 a6be a096 5bbc cb21 5bbe
00000330: 9567 4e3d 947e ad3c 7da2 28bf f548 173e
00000340: 21f1 18bf 3f2a 343e 95c2 91bd 7129 d2be
00000350: f396 2cbe bccc 87bd 711c 543b 3023 dd3d
00000360: 6bf1 1c3e 9e2a f63e 9667 bdbd 165c c33d
00000370: 1547 a13e e102 cebd e2eb dc3d a0ab 95be
00000380: a259 5b3c 9682 d0bd ee25 8d3c 59bb f13d
00000390: 3043 c6be ff56 7f3c 1982 433d c045 55be
000003a0: 881a 953e 1148 dd3d 3369 39bd 2f8a f6bc
000003b0: 5242 f43e dc15 b03d d35e 12bf 6fba 693c
000003c0: 92e8 66bc 8b4a a3bc ecd0 863d 9632 cc3e
000003d0: b224 7c3e 65cb c53e b55c 543e 8726 acbd
000003e0: bd0a 2a3d d16d 88bc 21f4 1ebe 8615 c23e
000003f0: 70d2 2d3e a847 c1bc d23e d1bd eac8 b33d

bias f4 [8]
-0.00029369854 0.0785716 0.03981219 -0.19010279 0.05674557 -0.16839126 -0.09568326 -0.05514556
00000000: 8dfb 99b9 26ea a03d 1b12 233d 4eaa 42be
00000010: 0b6e 683d c26e 2cbe 96f5 c3bd 50e0 61bd

weight f4 [8, 256]
0.0912718 0.21988077 0.03774307 0.028966706 0.2866468 0.012737542 0.50979954 0.093127586
-0.08416314 0.27290776 0.36627504 -0.12417475 -0.08870231 0.026466252 -0.0019648934 0.012667522
0.20623314 0.006407049 0.5674439 0.26465008 0.005893638 -0.115356706 0.14837961 0.52215165
0.020779757 0.08288488 0.08983761 0.05531379 -0.04173556 0.42743212 -0.015735297 0.08022462
0.38734588 0.2641165 -0.058314864 -0.021920025 -0.055536363 0.23274761 0.2452067 0.29803854
0.0030934385 0.7103419 -0.044666562 0.07578888 -0.019439109 0.20145282 0.21279806 0.008890105
0.53712374 0.222723 0.28975424 0.04798709 0.097929224 -0.027406234 0.008876582 0.040360957
0.2990114 0.41813117 -0.0057491837 -0.007142345 -0.023258211 0.028894845 0.35050413 -0.04493065
-0.08976737 0.32862377 0.5121064 -0.07823109 0.11901963 0.18616275 -0.044760827 0.17064852
0.44316417 0.092640914 0.1830556 0.038938727 -0.06372256 0.28750724 -0.0021714955 -0.03930017
0.030423805 -0.0452369 0.39804748 0.59409136 0.11406456 0.14167471 -0.18408981 0.25323024
0.18332422 0.047680005 0.12970108 0.122917846 0.02160766 0.002509206 0.010516156 0.024916284
0.15814482 -0.014303834 0.2281574 -0.03266646 0.24573752 -0.020790886 0.02856115 -0.057749897
-0.047320034 0.3067672 0.102570266 -0.03693334 -0.06545674 0.030254645 -0.0105211325 -0.0029733626
0.021463474 0.47354913 -0.04597706 0.029840343 0.029965494 -0.069621876 0.14577867 0.07738639
0.07847046 -0.08304746 0.11474733 0.25064355 0.24549125 -0.005714553 0.17179404 -0.00046387425
-0.02143284 0.10358082 0.010191721 -0.00087883376 0.031432357 0.3986821 0.100403346 0.01291363
0.2766961 -0.02660413 0.2347453 -0.016542971 0.2365442 0.15011728 0.012359081 0.37448135
-0.0124211535 0.09266586 0.055608142 0.38318694 0.38709944 0.46903253 0.052226618 -0.009238341
0.23648383 -0.120375484 0.08582518 0.30680618 -0.059651546 0.08235832 -0.058710426 0.10628315
0.027388649 0.24367729 -0.0026732155 -0.058181245 0.34403467 -0.013347701 0.24421969 0.15721622
0.52745724 -0.0617053 -0.024266925 0.55620134 -0.05067076 0.38026306 -0.16408508 -0.020716922
-0.025960643 0.0021108678 0.33546403 -0.007818725 0.023702988 0.06449995 0.28699368 -0.010971087
0.06019325 0.059206445 0.0045012706 -0.15403084 -0.04348659 0.28076336 0.37802938 0.049402125
-0.12573321 0.57335883 0.26558188 0.06718121 -0.08827933 0.042047955 0.075678065 -0.06947774
0.09730203 0.11356735 0.04750197 0.5747592 -0.049851444 0.016904294 -0.114498146 -0.18011285
0.13038374 -0.008361689 0.12524849 0.45524508 0.6068252 -0.02471817 0.09924706 0.064908944
0.20047194 0.32734382 -0.0042999275 0.40526637 0.5371405 0.05314619 0.011811287 0.469677
0.044934507 0.044988777 -0.009067321 0.16162802 0.5475503 0.0634002 0.15051709 0.04806433
0.26894704 0.5979826 0.12112232 0.22771506 0.1448593 0.026710896 0.38975403 0.23083119
0.10233781 -0.04307215 0.082103945 -0.061873853 0.21170747 0.265027 0.02411233 0.022926554
0.016755186 -0.07064599 -0.09348956 0.5679428 -0.09633182 0.04124238 0.36445495 0.124982476
00000000: b6ec ba3d 6d28 613e 7a98 1a3d 964b ed3c
00000010: 5fc3 923e 20b1 503c 3982 023f adb9 be3d
00000020: b95d acbd 91ba 8b3e 6788 bb3e 554f febd
00000030: 8fa9 b5bd c1cf d83c 71c5 00bb 708b 4f3c
00000040: c82e 533e 39f2 d13b 0144 113f 3780 873e
00000050: 6b1f c13b 2340 ecbd d3f0 173e bbab 053f
00000060: 4f3a aa3c 8cbf a93d c8fc b73d b690 623d
00000070: e8f2 2abd 62d8 da3e 4fe7 80bc ce4c a43d
00000080: 3352 c63e 473a 873e 91db 6ebd a091 b3bc
00000090: 197a 63bd 6455 6e3e 7717 7b3e 8298 983e
000000a0: 49bb 4a3b f7d8 353f 49f4 36bd 3337 9b3d
000000b0: c43e 9fbc a649 4e3e bce7 593e cea7 113c
000000c0: f180 093f 8011 643e ab5a 943e 1c8e 443d
000000d0: 1e8f c83d 0a83 e0bc 156f 113c 8851 253d
000000e0: 0618 993e 4a15 d63e a663 bcbb 550a eabb
000000f0: 0188 bebc e2b4 ec3c 4775 b33e 3409 38bd
00000100: f4d7 b7bd 6041 a83e 6819 033f 9f37 a0bd
00000110: 90c0 f33d 73a1 3e3e 2157 37bd 7cbe 2e3e
00000120: 6ae6 e23e 85ba bd3d ed72 3b3e 377e 1f3d
00000130: f980 82bd 2634 933e a64f 0ebb 37f9 20bd
00000140: 583b f93c 544a 39bd e1cc cb3e 5f16 183f
00000150: ae9a e93d 2d13 113e 0a82 3cbe 65a7 813e
00000160: 58b9 3b3e 1c4c 433d 5cd0 043e 5abc fb3d
00000170: 8c02 b13c 7e71 243b f54b 2c3c 3c1d cc3c
00000180: b7f0 213e a15a 6abc 18a2 693e 44cd 05bd
00000190: 9ea2 7b3e a651 aabc 13f9 e93c 288b 6cbd
000001a0: a7d2 41bd 9710 9d3e 5c10 d23d 6a47 17bd
000001b0: 2f0e 86bd 97d8 f73c d460 2cbc bfdc 42bb
000001c0: 2bd4 af3c 0875 f23e 7152 3cbd bc73 f43c
000001d0: 327a f53c ea95 8ebd 0147 153e c17c 9e3d
000001e0: 1fb5 a03d c914 aabd a600 eb3d 5a54 803e
000001f0: 0f62 7b3e 2541 bbbb c7ea 2f3e 2634 f3b9
00000200: ec93 afbc 2e22 d43d 2dfb 263c 8961 66ba
00000210: 37bf 003d 0f20 cc3e 45a0 cd3d b193 533c
00000220: 1cab 8d3e e8f0 d9bc 1261 703e 2085 87bc
00000230: a538 723e 58b8 193e be7d 4a3c 05bc bf3e
00000240: 1882 4bbc 99c7 bd3d 5dc5 633d 1431 c43e
00000250: e631 c63e 0825 f03e 94eb 553d 695c 17bc
00000260: d128 723e 6c87 f6bd 1dc5 af3d b315 9d3e
00000270: 2e55 74bd 7bab a83d 587a 70bd fbaa d93d
00000280: 295e e03c 8a86 793e 1d31 2fbb 754f 6ebd
00000290: 5025 b03e 51b0 5abc ba14 7a3e 4afd 203e
000002a0: 7007 073f b2be 7cbd 6ecb c6bc 3663 0e3f
000002b0: 258c 4fbd d7b1 c23e eb05 28be 89b6 a9bc
000002c0: 6aab d4bc 7c56 0a3b f1c1 ab3e 1c1a 00bc
000002d0: c52c c23c 8d18 843d d6f0 923e 13c0 33bc
000002e0: 338d 763d 7582 723d 657f 933b 43ba 1dbe
000002f0: ff1e 32bd 37c0 8f3e 118d c13e e259 4a3d
00000300: 35c0 00be a5c7 123f 59fa 873e 4d96 893d
00000310: cbcb b4bd 7a3a 2c3d 1afd 9a3d 584a 8ebd
00000320: 4946 c73d 0096 e83d 6d91 423d 6b23 133f
00000330: 0731 4cbd e07a 8a3c 017e eabd 816f 38be
00000340: 5183 053e 77ff 08bc 2441 003e e215 e93e
00000350: e558 1b3f c27d cabc 0b42 cb3d fbee 843d
00000360: 8448 4d3e 9c99 a73e 68e6 8cbb 137f cf3e
00000370: 0a82 093f d2af 593d 2184 413c 8179 f03e
00000380: 3f0d 383d 2746 383d 1a8f 14bc d181 253e
00000390: 422c 0c3f f7d7 813d 2721 1a3e 1adf 443d
000003a0: 6db3 893e 6315 193f fb0e f83d 232e 693e
000003b0: ff55 143e cfd0 da3c d78d c73e 035f 6c3e
000003c0: 7c96 d13d 6c6c 30bd 1d26 a83d 706f 7dbd
000003d0: d8c9 583e 9eb1 873e 3987 c53c 78d0 bb3c
000003e0: 2c42 893c d8ae 90bd 7477 bfbd b364 113f
000003f0: 9e49 c5bd c5ed 283d d799 ba3e d0f6 ff3d

bias f4 [8]
-0.20803128 -0.14019422 -0.14812922 -0.18603086 -0.18552597 -0.24168548 -0.2062258 -0.16970243
00000000: 2706 55be 138f 0fbe 30af 17be e07e 3ebe
00000010: 85fa 3dbe 667c 77be db2c 53be 79c6 2dbe

weight f4 [256, 36]
0.5281739 -4.5482216 -0.92295694 -0.48765534 -2.5248926 0.86812645 0.5872753 0.23055853
-0.19426142 0.068745725 0.05571311 -0.121516354 -0.5248242 -0.0730387 0.58831763 0.4659748
-0.08173025 0.26022217 -0.15516904 0.14613558 -0.30354366 -0.20744506 -0.092599936 -0.08388929
-0.063564636 -0.03475919 -0.09122725 -0.041122906 -0.0038079931 -0.023232223 -0.043949056 0.058324244
0.0016836345 0.022926323 -0.030579153 0.03563866 -1.6597173 -0.11857872 0.41148198 -0.41289508
-1.1442034 0.3276695 0.41698194 0.9992784 0.08400158 -0.6018412 -0.91371155 -0.043103803
-0.21398918 0.59933513 0.43723795 0.9382441 0.9576585 0.35598737 0.24994138 -1.1048986
0.32930657 -0.13072087 -0.7745792 0.9704339 0.6902488 0.5413886 0.64608 0.4403215
-0.7183174 -0.25743857 0.46389925 0.68050194 0.40078905 0.13897459 0.30409586 -0.14692283
-2.7520578 -0.5773046 0.35734648 -0.32543433 -1.5455071 -0.84519714 0.08642098 1.0805067
0.116290405 0.07996219 -1.2005837 -1.4820569 -0.7002569 0.050485265 0.48488954 0.32215965
1.4500744 0.44983447 0.50588554 -0.13874775 0.5494835 0.5060577 -1.2273301 0.0517269
0.5160221 0.34822053 0.2644096 0.095007144 -0.022910578 -0.2876125 0.0017273021 0.110961236
0.025913063 0.09931152 -0.014274366 -0.09569612 0.15797706 -0.41038018 -1.0177972 0.8374231
-0.021429166 0.7221567 -0.22151527 0.66798574 -0.5296991 0.8315874 0.27743137 -3.3119743
0.07450447 0.891502 0.25419235 1.7839665 0.33764344 -0.11669077 -0.32929686 0.8398091
-0.152934 -0.079475425 -0.13836691 0.74877465 -2.8238275 0.9504246 -0.5052165 -3.4263248
0.30324677 -0.71100235 -0.012848611 0.1459433 0.030020453 0.88623166 0.86460537 -0.06601802
-2.6069822 -1.8762486 -1.5522993 2.2846088 -1.5262016 -2.054755 -0.5394165 0.6133917
0.74992067 0.06279146 0.72402424 -2.1572287 -0.286694 0.8673878 -0.39496845 0.006993574
0.24297424 -1.0381248 -0.99253255 1.5744723 0.5803792 0.97092843 0.71150285 -0.9779006
-1.7123824 -0.64029545 -1.4055972 -0.87251604 -0.3627541 0.11465693 0.23430124 -0.06310342
-0.5200247 -0.21925986 0.33945468 -0.6837881 0.055197287 -1.0359261 -1.8789173 -2.089033
-3.0387292 -0.9870982 1.6638329 3.1031601 -0.17924069 -0.40615654 0.27189222 0.1324951
-0.42464623 0.18259402 -1.7989986 -0.64938563 0.3736446 0.5448745 1.0877953 -0.64603907
0.27799588 -0.32921016 -1.0760465 -1.1611121 -0.49615386 -0.113355055 -0.47956702 -0.041580267
-0.1329218 -0.20947456 0.00050406385 0.1238702 -0.006286872 0.0719131 0.11296245 -0.09729183
2.198047 0.7636329 -0.7517482 -3.1555157 0.95023763 3.069012 0.1571841 4.095205
-2.1756146 1.2989007 -0.6000996 1.6391529 2.0680707 2.8771732 0.48774886 -1.0874932
0.97380275 2.8907282 0.30621886 1.0486389 -0.95233184 1.0512805 0.06341504 -1.4253519
-0.15065114 -0.1262959 0.09103278 -0.462687 -0.89110756 0.24451298 0.11024826 -0.25595528
3.0051322 -0.30092126 0.53167415 -1.6306622 -0.10697749 -0.083138496 0.8475003 0.7381957
00000000: 6836 073f 088b 91c0 e846 6cbf f6ad f9be
00000010: d797 21c0 893d 5e3f ad57 163f 8917 6c3e
00000020: 77ec 46be 8fca 8c3d 6e33 643d 91dd f8bd
00000030: e15a 06bf 5095 95bd fc9b 163f 4094 ee3e
00000040: 3062 a7bd d73b 853e a2e4 1ebe 91a4 153e
00000050: 136a 9bbe 7a6c 54be 09a5 bdbd 26ce abbd
00000060: 2d2e 82bd a75f 0ebd 5ad5 babd 7e70 28bd
00000070: 868f 79bb 8151 bebc ed03 34bd 67e5 6e3d
00000080: 66ad dc3a fccf bb3c 2281 fabc d8f9 113d
00000090: 9e71 d4bf 66d9 f2bd c4ad d23e fc66 d3be
000000a0: 4275 92bf 4cc4 a73e a87e d53e b6d0 7f3f
000000b0: 0509 ac3d 4412 1abf 00e9 69bf 9d8d 30bd
000000c0: fb1f 5bbe 076e 193f a7dd df3e c430 703f
000000d0: 1c29 753f fa43 b63e a2f0 7f3e 516d 8dbf
000000e0: df9a a83e b1db 05be d34a 46bf 5b6e 783f
000000f0: 25b4 303f 7198 0a3f 8065 253f d271 e13e
00000100: a6e3 37bf fdce 83be 3484 ed3e 6035 2e3f
00000110: 3934 cd3e 5b4f 0e3e 74b2 9b3e f072 16be
00000120: b721 30c0 3cca 13bf 1ef6 b63e 549f a6be
00000130: 2dd3 c5bf d75e 58bf 7cfd b03d 0b4e 8a3f
00000140: aa29 ee3d 37c3 a33d baac 99bf 0ab4 bdbf
00000150: 0944 33bf a3c9 4e3d 7143 f83e 1cf2 a43e
00000160: 0a9c b93f b450 e63e b781 013f e413 0ebe
00000170: f3aa 0c3f ff8c 013f 2719 9dbf 96df 533d
00000180: 061a 043f f649 b23e b260 873e 1b93 c23d
00000190: f7ae bbbc f241 93be a466 e23a a53f e33d
000001a0: a247 d43c d763 cb3d 08df 69bc 54fc c3bd
000001b0: bdc4 213e 5a1d d2be 2e47 82bf 5c61 563f
000001c0: 388c afbc 43df 383f e6d4 62be 1d01 2b3f
000001d0: 5c9a 07bf e9e2 543f 7c0b 8e3e 63f7 53c0
000001e0: cd95 983d 7a39 643f 8025 823e 0459 e43f
000001f0: 9adf ac3e 92fb eebd 9999 a8be bbfd 563f
00000200: bb9a 1cbe 03c4 a2bd 0eb0 0dbe b2af 3f3f
00000210: 97b9 34c0 074f 733f de55 01bf e848 5bc0
00000220: 2943 9b3e 4004 36bf fb82 52bc 2972 153e
00000230: 74ed f53c 14e0 623f c756 5d3f 7534 87bd
00000240: ccd8 26c0 ea28 f0bf beb1 c6bf 0837 1240
00000250: 935a c3bf 1b81 03c0 3317 0abf 3d07 1d3f
00000260: cdfa 3f3f cf98 803d a759 393f 0910 0ac0
00000270: 8ec9 92be 200d 5e3f 4e39 cabe 5a2a e53b
00000280: 3dce 783e 46e1 84bf 9d16 7ebf 4f88 c93f
00000290: bb93 143f c48e 783f 0d25 363f b257 7abf
000002a0: 592f dbbf 67ea 23bf 9cea b3bf 365d 5fbf
000002b0: e8ba b9be 41d1 ea3d aaec 6f3e 5e3c 81bd
000002c0: 5720 05bf a885 60be 01cd ad3e bd0c 2fbf
000002d0: 8d16 623d 3a99 84bf 5d80 f0bf b7b2 05c0
000002e0: 8a7a 42c0 78b2 7cbf 7af8 d43f 2d9a 4640
000002f0: df8a 37be c0f3 cfbe 7535 8b3e ccac 073e
00000300: 3b6b d9be edf9 3a3e 9645 e6bf 233e 26bf
00000310: 584e bf3e e57c 0b3f e03c 8b3f d162 25bf
00000320: 7a55 8e3e 3c8e a8be e4bb 89bf 529f 94bf
00000330: e107 febe b226 e8bd cf89 f5be 1250 2abd
00000340: a71c 08be 8080 56be 2723 043a a9af fd3d
00000350: 1b02 cebb 2d47 933d db58 e73d f040 c7bd
00000360: cdac 0c40 727d 433f 9272 40bf f8f3 49c0
00000370: c642 733f b16a 4440 def4 203e eb0b 8340
00000380: 453d 0bc0 6142 a63f 21a0 19bf c3cf d13f
00000390: 455b 0440 9b23 3840 38ba f93e fa32 8bbf
000003a0: 234b 793f b101 3940 b8c8 9c3e cd39 863f
000003b0: 05cc 73bf 5c90 863f bfdf 813d ee71 b6bf
000003c0: 4b44 1abe b653 01be 656f ba3d 4fe5 ecbe
000003d0: a01f 64bf 9c61 7a3e d7c9 e13d 920c 83be
000003e0: 1654 4040 5a12 9abe cc1b 083f 8ab9 d0bf
000003f0: 0417 dbbd 8444 aabd c8f5 583f 65fa 3c3f

bias f4 [256]
-0.026117241 0.29748118 -0.06978264 -0.9805325 -1.4566399 -0.1463381 -0.2948887 1.2609174
1.2850233 0.52036065 1.0243535 -1.7101483 -1.257566 1.9517112 -0.9633792 1.1625469
-0.49739063 -1.2015163 -1.2133392 -0.45813495 2.018708 1.1133232 0.93502563 -1.4689331
1.1918198 0.55668956 -0.8834783 -1.0967506 2.072043 1.258948 0.92291707 1.835605
1.0646664 0.6139678 -0.5122777 1.17515 -1.1934451 -0.3927818 -1.6907396 -0.8439459
1.313711 -0.13782658 -0.5463432 0.919459 -0.21831426 -0.8189361 -1.1594683 1.2229319
-0.70762765 0.6983524 -0.59850925 1.0437108 -1.2349691 0.6820804 -1.7572995 -0.6437872
0.11190646 0.44927663 -1.2874823 1.1412739 1.1313872 0.027316911 -0.6983679 -1.7347949
-2.0419137 -1.1864905 -1.4331843 0.47237262 -1.9472239 1.2052125 1.1961166 0.23835902
-2.1051989 0.21217999 -0.7338581 -0.2991048 -1.362728 -0.58956844 0.35361972 -0.77281886
-0.022332251 0.75991666 1.0445262 -0.27530056 0.19488132 0.14476585 -1.791072 1.0656885
-0.35993534 -0.5974205 -0.24818678 -1.260437 -0.3184809 -0.49636552 -1.2912916 -1.0802321
-1.8739802 -4.0768013 -0.39153028 0.25148377 -0.9788984 0.5940173 -0.28988007 10.0578
-0.30474722 -1.1641592 -1.0210123 -1.0067079 -0.8973361 2.353899 -2.7628357 -0.6010754
-0.76509106 1.2185781 -1.5453796 -1.0864097 -0.22840637 1.1210932 -1.18044 -0.1824613
0.13674691 -0.83613765 -0.6504979 0.19119403 -1.02189 -1.401086 -0.67585593 1.783567
-0.16523121 -0.9264259 -1.6309365 1.2892356 -0.59981835 -3.6037328 -0.08970568 -1.6017495
-0.6172208 -0.90086675 -0.86213654 1.2318916 -0.61305857 0.37045828 -1.0824957 0.59327555
-2.0162423 0.016199002 0.9560721 1.1402788 0.11365899 -0.45893613 -0.6529483 -1.1988786
0.90224296 -1.7394499 0.1395297 -0.45925957 -0.6776079 -3.550615 0.3002017 -0.6018201
-1.6173261 -0.5399333 -0.9009522 -0.026069894 -0.87697357 -0.6906043 -0.6270286 -2.0028822
0.120483994 0.55835074 -2.1829975 -1.3806654 -0.91226315 -3.3640382 -0.66805696 0.8196624
-0.5448948 0.10099709 -0.6237227 -0.8660934 0.92359626 -1.3025869 1.9126017 -1.4132198
1.1405804 0.6391472 -1.3445213 -0.643674 -0.65783334 0.012642703 -1.6026406 -1.6088609
-0.6587547 0.2272922 -0.3908046 -0.33922243 -0.64894336 -3.4227104 -0.850601 1.4971207
-0.9613018 -1.5002012 0.5640845 -0.7140953 1.1611463 0.122220136 -1.3164147 -1.0591451
-0.28223568 0.74538666 -1.0807413 -0.9468666 -0.72448266 -1.109626 -0.6586151 -1.1171618
1.3349208 -1.6896318 0.9544715 0.084961906 1.1629487 0.84167 -0.03463354 1.1110874
1.2327883 -1.6423444 -0.9459699 -1.4747102 1.3492788 -0.40788883 -0.32227868 0.3515799
-0.52558243 -2.400434 -1.1239107 0.6337852 -1.1923873 -1.2248764 -1.2072073 1.1127205
-0.31843203 -1.3599575 -0.26642594 1.2136345 1.2484725 -0.68676776 -1.2866833 -1.4181929
0.6896123 -1.2776511 0.9803749 -0.08380682 1.4974518 0.3182508 -1.3282789 1.3243697
00000000: d3f3 d5bc 744f 983e 33ea 8ebd 2e04 7bbf
00000010: 2d73 babf a8d9 15be a7fb 96be be65 a13f
00000020: a57b a43f 5b36 053f 041e 833f 24e6 dabf
00000030: ecf7 a0bf acd1 f93f 05a0 76bf 56ce 943f
00000040: fca9 febe 49cb 99bf b34e 9bbf aa90 eabe
00000050: 8332 0140 6081 8e3f d75d 6f3f 0006 bcbf
00000060: 8d8d 983f 3583 0e3f a22b 62bf 5362 8cbf
00000070: 5a9c 0440 3525 a13f 4b44 6c3f 1bf5 ea3f
00000080: fd46 883f fe2c 1d3f a224 03bf 516b 963f
00000090: cfc2 98bf b21a c9be 286a d8bf d70c 58bf
000000a0: af27 a83f 6922 0dbe 26dd 0bbf aa61 6b3f
000000b0: c68d 5fbe cca5 51bf 7569 94bf 0889 9c3f
000000c0: 1627 35bf 39c7 323f e737 19bf 5198 853f
000000d0: 7813 9ebf d29c 2e3f 31ef e0bf 3dcf 24bf
000000e0: 372f e53d 9607 e63e 38cc a4bf 4315 923f
000000f0: 4cd1 903f b7c7 df3c 3dc8 32bf c20d debf
00000100: b7ae 02c0 ecde 97bf 9572 b7bf d3da f13e
00000110: a23e f9bf 6744 9a3f 591a 993f 6314 743e
00000120: 94bb 06c0 b645 593e 20de 3bbf 4424 99be
00000130: df6d aebf f5ed 16bf a50d b53e 75d7 45bf
00000140: 20f2 b6bc e689 423f 09b3 853f 32f4 8cbe
00000150: f88e 473e 803d 143e d941 e5bf 7b68 883f
00000160: 7249 b8be 8df0 18bf ad24 7ebe 0056 a1bf
00000170: ee0f a3be 9f23 febe 0b49 a5bf 0c45 8abf
00000180: 95de efbf 2875 82c0 a876 c8be 7bc2 803e
00000190: 1699 7abf 8511 183f 296b 94be c0ec 2041
000001a0: d407 9cbe 2b03 95bf 88b0 82bf cedb 80bf
000001b0: d2b7 65bf 48a6 1640 4dd2 30c0 14e0 19bf
000001c0: 02dd 43bf 5efa 9b3f 00cf c5bf 790f 8bbf
000001d0: 5ce3 69be fb7f 8f3f a818 97bf 23d7 3abe
000001e0: 6207 0c3e 1e0d 56bf 0887 26bf 5ec8 433e
000001f0: 4bcd 82bf c956 b3bf e504 2dbf ec4b e43f
00000200: 5f32 29be 3f2a 6dbf 87c2 d0bf ac05 a53f
00000210: b28d 19bf 8fa3 66c0 9db7 b7bd 2106 cdbf
00000220: 2f02 1ebf 349f 66bf fbb4 5cbf a0ae 9d3f
00000230: 68f1 1cbf b5ac bd3e 388f 8abf e8e0 173f
00000240: 1d0a 01c0 c5b3 843c 24c1 743f a8f4 913f
00000250: 0bc6 e83d adf9 eabe 9f27 27bf db74 99bf
00000260: 65f9 663f 4ba6 debf e0e0 0e3e 1224 ebbe
00000270: b677 2dbf 473d 63c0 0ab4 993e e210 1abf
00000280: 8b04 cfbf 1239 0abf cea4 66bf 8890 d5bc
00000290: 5781 60bf 72cb 30bf f284 20bf 392f 00c0
000002a0: 50c0 f63d 13f0 0e3f 3bb6 0bc0 a5b9 b0bf
000002b0: 148a 69bf 674c 57c0 c805 2bbf 65d5 513f
000002c0: 3a7e 0bbf 90d7 ce3d 4aac 1fbf 4cb8 5dbf
000002d0: ce70 6c3f 2bbb a6bf 22d0 f43f 63e4 b4bf
000002e0: 8afe 913f 279f 233f 4619 acbf d2c7 24bf
000002f0: c467 28bf 5723 4f3c 5423 cdbf 27ef cdbf
00000300: 26a4 28bf 49bf 683e 8a17 c8be 90ae adbe
00000310: 2721 26bf b00d 5bc0 fdc0 59bf a7a1 bf3f
00000320: e017 76bf 9806 c0bf d767 103f f3ce 36bf
00000330: 71a0 943f 8d4e fa3d 4780 a8bf 1192 87bf
00000340: 3281 90be a9d1 3e3f bb55 8abf d965 72bf
00000350: b277 39bf 3a08 8ebf 009b 28bf 28ff 8ebf
00000360: afde aa3f db45 d8bf 3f58 743f 8200 ae3d
00000370: 81db 943f af77 573f e6db 0dbd 1d38 8e3f
00000380: 02cc 9d3f 5738 d2bf 152b 72bf 4ec3 bcbf
00000390: 2bb5 ac3f ced6 d0be b601 a5be 4802 b43e
000003a0: 928c 06bf b6a0 19c0 4edc 8fbf bf3f 223f
000003b0: 26a0 98bf c0c8 9cbf c585 9abf a06d 8e3f
000003c0: 8609 a3be 1613 aebf fb68 88be 6058 9b3f
000003d0: f2cd 9f3f 03d0 2fbf 0ab2 a4bf 5887 b5bf
000003e0: 6f8a 303f 128a a3bf d9f9 7a3f e9a2 abbd
000003f0: 80ac bf3f c5f1 a23e 0b05 aabf f284 a93f
