data/AntPyBulletEnv-v0_sac_grad_True/AntPyBulletEnv-v0_sac_grad_True_s0/pyt_save/model.pt (torch_old, 920334 bytes, 18 tensors)

weight f4 [256, 28]
00000000: e31b 133e e37d f93c 5fac 72be f5d6 aebd
00000010: 3f4a 39bd b188 c93d 438c 0f3d d3d7 d33d
00000020: 73f2 b9bd 388b 123d def9 ba3d c621 3abd
00000030: d596 f8bd 2d3f e6bd 54cf 20be ac83 e2bc
00000040: 01cf 223d 5303 263d 64ac 4cbd 770d 4ebd
00000050: e9dc 44bd 52a4 c13d f0bd 253d 54f1 f53d
00000060: c4de 12be fd7b a2bd 7f73 713d cecf 53be
00000070: 6f96 ce3e ec8c f33e bc47 2abf 781a 0ac0
00000080: ad09 4d3f ead7 a13f 2e9b afbe f2d9 a2bf
00000090: fb9f 9cbf d27d 3abe 445a 563e 92e5 b23c
000000a0: 957e 0abf a0c0 d1be 12c2 fbbe b115 08bf
000000b0: de0f 5e3f c22f 223f b439 863e e82f 883f
000000c0: 32d5 de3e 7907 7e3f 3f5f 2d3e 7d3c 5a3f
000000d0: 6a7c d43c 025a f63d 2906 ab3e 23a6 0ac0
000000e0: e4f8 053f deca 4f3d b654 08bf cc30 94be
000000f0: 2a55 323e 6854 583f 555e 02be bbf7 c93e
00000100: 581e cd3c 50ad 80bd a6a2 3b3d 2478 593e
00000110: 846a 05bd cb2f 883d 5da1 70be 49b4 2c3f
00000120: 5edb 423e 05dc ab3e a651 ff3d 2bd3 013e
00000130: 77d6 0bbf 3721 33be b244 9f3d 3780 f3be
00000140: b0bd 9bbf fee2 6ebc c48b 43be 2763 94be
00000150: 7943 42be d89c 753e 2ad9 9cbf 2c92 ae3f
00000160: 77e6 013e ad56 1bbe c114 623f 2428 023f
00000170: 540b 193f 367d 123f 1c26 afbe 4c74 5bbe
00000180: 1107 323c 58f3 cbbe 2e9e 0e3e 8def 423e
00000190: 492a d03e 755d 293f d438 593e 4ca7 2dbe
000001a0: cfda 03bf a8ed f3be ce6b bfbe 941d f33e
000001b0: 4da5 e9bd d6c6 293e 28f1 813d 0f6c aebe
000001c0: 54d4 163f c72c 5c40 9274 12bf e3d1 a4be
000001d0: 94ce bcbd 9c50 6abe ba24 533f 4f33 2a3f
000001e0: a043 113f 2bc3 b83e 572d df3d 4a6c 1bbf
000001f0: 93cc 4c3f 42e7 3d3f 3ae2 c93e e9d7 2abe
00000200: 5e42 393d eb12 1bbc 9819 913e 874a 083f
00000210: 2d97 4b3e 0f79 ddbe 6769 f6bc e19b df3d
00000220: 09cb 11bd 2dd5 9d3d ac2e 94be 7baa 1a3e
00000230: 7921 393f fd6f bdbe fa0f 6bbf 75c9 9d3e
00000240: f855 633c 1cf3 73bd c7e9 4b3e 60a7 7b3f
00000250: 050f 2cbf 5158 11bf b27e 963e 7b70 6dbe
00000260: d8a8 583e fa9f e1be 170e 13bf 27b9 643f
00000270: 9b99 573e f87e f1be 0f10 3abe 9448 c53d
00000280: 0322 cbbe 13e3 51bd 4168 8f3e cd56 073d
00000290: 5595 e43d df2b 0fbf f4cc 5abf 01e1 edbe
000002a0: 3be8 f73c 6807 fdbd a319 03bf e1df 363e
000002b0: 08dc c8be 1eb1 403f d9c9 113f 6a3f 363f
000002c0: 9a5a b23b 0ae6 433f 5a45 4cbe b818 2d3f
000002d0: 4f2d 33bf 056d 9f3e 7c18 48bf a088 53be
000002e0: cd14 d4be 75ae cf3c 503b 6c3d 936d 71bf
000002f0: 7624 113f af2d 1bbd a095 053e fa83 97bf
00000300: a25c 58bf c69c 18be bc63 ffbf ec1c b63d
00000310: 6dce 00be 6e4b 32bf 2611 8cbf 486b 1840
00000320: e55b 613f 3111 683e 1d3a cfbf 24b2 6bbd
00000330: 58fe 3abc b00f 0a3e 65e7 27bf 3338 a5be
00000340: 8f86 733f 03eb 893e cafa cc3e 3a77 c8be
00000350: d6ac e0bd 134d 423e 55aa 433f ce28 603f
00000360: 9af4 49be ceb7 cebd a99b 2bbe 299b e6be
00000370: c469 94bd 5524 10bc 1aa0 e13d a6a3 4c3e
00000380: efd6 213f ff1b 4dbe 28f4 57bf 5820 263f
00000390: dda5 813e ec51 4f3f e67a f43c 36ee b03f
000003a0: da33 8ebe 4a92 623f 574e 703e a8b9 e0be
000003b0: ab62 013c 557c a53e cef2 2fbe 1b88 e5be
000003c0: 77d3 bc3e b507 55bf 178d 043e 2789 0e3e
000003d0: 71da 11bf e7a2 633e 165a 543e 3c46 7dbe
000003e0: 6166 49be 09ce b9be ab63 4fbe f2ca 36bf
000003f0: 5963 5b3f d844 e9be c077 5ebf 9653 5d3e
0.14366107 0.030455535 -0.23698567 -0.085370935 -0.045236822 0.09840525 0.035045873 0.103438996
-0.09079447 0.0357773 0.0912969 -0.045442365 -0.12138144 -0.112425186 -0.1570409 -0.027650677
0.039748196 0.040530514 -0.049969092 -0.05030581 -0.04806224 0.0945517 0.04046434 0.1200892
-0.14342791 -0.07933805 0.058948036 -0.2068474 0.40349147 0.47568452 -0.6651571 -2.1578655
0.8009289 1.2644017 -0.3429808 -1.2722762 -1.2236322 -0.18212059 0.20932871 0.021837983
-0.540994 -0.40967274 -0.491715 -0.531581 0.8674296 0.6335412 0.262159 1.063962
0.4352203 0.9923015 0.16930865 0.8524855 0.025938231 0.120288864 0.33403137 -2.1663902
0.523329 0.05073058 -0.5325426 -0.2894348 0.174153 0.84503794 -0.12731297 0.39446816
0.025038883 -0.06283057 0.04580941 0.21237236 -0.032572284 0.06649741 -0.23499055 0.67462593
0.19028994 0.335663 0.12466745 0.1267821 -0.5462412 -0.17493139 0.077767745 -0.47558758
-1.2167263 -0.014580486 -0.19096285 -0.28981897 -0.18971051 0.23985612 -1.2253773 1.3638358
0.12685572 -0.15169783 0.8831292 0.508425 0.5978291 0.57222307 -0.34208763 -0.21431082
0.010865943 -0.39834094 0.13927528 0.19036694 0.4065726 0.6615823 0.21213084 -0.1695835
-0.5150575 -0.47642255 -0.37386936 0.47483504 -0.11408482 0.16579756 0.06344825 -0.34066817
0.58917737 3.440233 -0.5720912 -0.3219138 -0.09219089 -0.22882313 0.82477915 0.6648454
0.5674381 0.360864 0.1089732 -0.6071211 0.79999655 0.74180996 0.3943041 -0.16683926
0.04522931 -0.00946496 0.2833984 0.5323872 0.19881888 -0.43256423 -0.030079557 0.109184034
-0.03559402 0.07706676 -0.28941858 0.15104096 0.723167 -0.36999503 -0.91821253 0.30817762
0.013875477 -0.05955802 0.19913398 0.9830227 -0.6721042 -0.56775385 0.29393536 -0.23187439
0.21158159 -0.44067365 -0.57443374 0.8934502 0.2105469 -0.47167182 -0.18170188 0.09632984
-0.39674386 -0.051241945 0.28009227 0.033041764 0.11161295 -0.55926317 -0.85468984 -0.46460727
0.030262103 -0.12354928 -0.51210994 0.1785884 -0.3923037 0.7527026 0.5694862 0.7119051
0.0054429295 0.76522887 -0.1994833 0.6761584 -0.6999101 0.31137863 -0.7816236 -0.20657587
-0.4142212 0.025351742 0.057673752 -0.9430782 0.5669626 -0.037885364 0.13045359 -1.1837151
-0.84516346 -0.14903554 -1.9952312 0.08892235 -0.12578745 -0.69646347 -1.0942733 2.381548
0.88030845 0.22662808 -1.618961 -0.057542935 -0.011413179 0.13482547 -0.65587455 -0.3226944
0.95127195 0.26937112 0.40035087 -0.39153463 -0.10970466 0.18974714 0.7643178 0.87562263
-0.19722214 -0.10093652 -0.16758598 -0.45040253 -0.07246736 -0.008797725 0.11016865 0.19984302
0.6321859 -0.20030211 -0.8435693 0.648931 0.25321856 0.8098438 0.029843759 1.3822696
-0.27773935 0.8850447 0.23467384 -0.43891644 0.007897059 0.3232142 -0.17182466 -0.44830403
0.36880085 -0.83214885 0.12944447 0.13919507 -0.5697394 0.22230111 0.2073749 -0.24733824
-0.1966796 -0.36290005 -0.20252864 -0.7140342 0.8569847 -0.45560336 -0.86901474 0.21613917

bias f4 [256]
00000000: 68fb a1be c720 97bf 175d 0abf 17fc 1ebf
00000010: 4103 fdbe 077e a5bf 5d4b 55bf 4222 acbf
00000020: b03c 86bf 24aa 4dbf 2b4e c9bf 8242 1bbf
00000030: 435b b8be ad8d dabe 2ca4 0fbf ceea 32bf
00000040: 2d60 9dbe 4d63 a5bf 1b20 dc3e 564e 35bf
00000050: 261a 79be e908 d73f cccb 5fbf dccc 7abf
00000060: fa3b 65bf 3ae8 18be cc7e 9abf 8bd8 41be
00000070: cece 15bf e639 82bf f643 3b3f 5c46 60bf
00000080: b1b5 03bf 693e 75bd 73ce 49bf d56b 51bf
00000090: de69 2fbf 3c86 acbf 3601 3abf 46ff 6cbf
000000a0: 1db6 9ebf df51 6dbe 4591 bbbd acff a7bf
000000b0: 0da4 7ebf b462 31bf d7aa 0fbf db1e 9abf
000000c0: 4d4f 17bf 3b61 9cbf b7a4 45bf 9509 67bf
000000d0: ba58 8fbf e76d 7fbe b448 9cbf a3f3 0dbe
000000e0: b2f9 76bf ac98 8bbf e454 7fbd 3e00 8dbf
000000f0: 7fa0 87bf c2a1 c7be bac3 efbf 71c2 fd3e
00000100: 9a3c 703e 5c29 79bd a3fd 20bf 5d02 c2bf
00000110: 9dcd aabf d0e8 babf 9f66 f1be 262b 70bf
00000120: 4926 46bf 7687 19bf e470 44bf 13fb 8bbf
00000130: ea50 66bd 734c 01be ddad 28bf f5f6 34bf
00000140: da73 e53e 7da4 91be 718b 5d3f 55fd 1dbf
00000150: 05a4 233e a154 89be f20c 08bf 9875 6abf
00000160: f151 70bf 0e91 75bf e08b 67bf dcad 94bf
00000170: d5d8 23bf b092 d23e 4cfb d8be 4dc0 28bf
00000180: 7bc8 4abf d417 4fbf 7059 a6be 7992 40bf
00000190: 8e4c aebf 77a3 f5be 4c4f aebf c299 1fbf
000001a0: 564d 9abf c5e4 023e 1fa2 37bf 9ca8 a2bf
000001b0: 541b 6dbf 8086 8fbf 0cac 81bf 04a8 46bf
000001c0: f89c 82bf c4e9 82be c29c 09bf b007 453d
000001d0: 566d d9be ef3e aabe 30b6 5ebf 8064 21bd
000001e0: d9d6 33bf a044 a93e 3511 8cbf 7d4b b9be
000001f0: 85f6 aebf 020f 8cbf 563d 0cbe 2e04 35be
00000200: c149 75bd 5797 6ebe 7660 ad3f 5179 e5be
00000210: cd37 b1be 19e7 efbe 437a 77be 7e5e 0fbf
00000220: a74b 73bf 8478 e7be 46ba f4be 728f 81be
00000230: 685e 62bf 5d26 adbf 14ce 45bf 93d8 b4be
00000240: 14b3 3abf d195 36bf 16d3 9b3d c803 e8be
00000250: 44d1 51bf 3fd9 9dbf 52a7 24bf d3ee eabe
00000260: 6094 8abe 73ca a8bf c678 3bbf 672a 52bf
00000270: 30f1 fbbe 8e3d 5dbf ba32 8fbf ffaf 8bbf
00000280: c106 10bf 5629 5cbf 085a 54bf 0d98 5dbf
00000290: fd58 86bf 34b4 703f 7320 d7be 20f6 32bf
000002a0: ae59 e1be 7319 44bf bf4b b3bf 27c4 5abf
000002b0: fcbd aebf d5cb 80bf a4bc 94bf e7b2 15bf
000002c0: 8d9c 3cbe b162 adbf ac2c dabe 5c36 47bf
000002d0: 7f80 2cbf 0d2c 83bf 41ca 49bf e70c a7bf
000002e0: c650 61bf a88e c8be 74e4 bfbf 1971 82bf
000002f0: 912a cabc 0585 f9be 3fac dfbe d4a3 c8be
00000300: a838 ffbd 0d2a 4f3e 68c8 65bf 2897 a4bf
00000310: 03b8 25bf e17e 9fbf a84a 173e 1bd4 98bf
00000320: 87dd 06bf 1c54 cebf 7174 86bf 6101 8ebf
00000330: eb55 adbe b15e a2bf 43e2 4dbf 6ee1 f5bf
00000340: 584f 20bf 55ad 81bf 526e 9fbc bd74 a9be
00000350: dfb4 84be 9e38 89bf 0300 02bf 2ff2 4abf
00000360: daa3 01bf 17e2 07bf 3f85 b5be 1732 a8be
00000370: c87c e5be 4350 b1be 1298 4dbe 3e97 84be
00000380: 567c 47bf d715 9ebf 5289 87be eaa0 aebf
00000390: e974 0cbe f0f3 56bf 43b4 f5bf 4962 fabe
000003a0: 9819 dfbe fc57 8dbf bc1c 1fbf 13c8 80bd
000003b0: 6e8f 55bf a41d 25bf daab 94be 0b09 a3be
000003c0: 853e 39bf 8f55 9bbf 942c 17bc 8ba0 9bbf
000003d0: c6f7 4bbf 9e76 0fbf 8027 02bf dafa 763c
000003e0: ee3a 11bf 84fb 83bf 8894 1fbf ed77 a2bf
000003f0: 3341 a0bf 32ff 57bf 78f8 823d 2eac 40bf
-0.3163712 -1.1806878 -0.54048294 -0.6210341 -0.49416545 -1.2929085 -0.8331812 -1.3447955
-1.048727 -0.8033774 -1.572698 -0.6064836 -0.36007127 -0.42686215 -0.5610988 -0.69889534
-0.3073744 -1.2920929 0.42993245 -0.70822656 -0.24326381 1.6799594 -0.87420344 -0.9796884
-0.8954464 -0.14932337 -1.2069945 -0.18930261 -0.58518684 -1.0173919 0.73150575 -0.8760736
-0.51449114 -0.059873972 -0.7883064 -0.81805164 -0.68520916 -1.3478465 -0.726581 -0.92577016
-1.2399327 -0.23175763 -0.09158567 -1.31249 -0.9946907 -0.69291234 -0.56120056 -1.2040666
-0.5910538 -1.2217172 -0.7720446 -0.90248996 -1.1198952 -0.24944268 -1.2209687 -0.13862471
-0.96474755 -1.0905967 -0.062336817 -1.1015699 -1.0595855 -0.389906 -1.8731606 0.4956241
0.23460618 -0.06083046 -0.6288702 -1.5156971 -1.3343998 -1.4602299 -0.47148606 -0.9381584
-0.7740217 -0.5997232 -0.7673476 -1.0935997 -0.05622951 -0.1262682 -0.65890294 -0.70689327
0.4481495 -0.28445807 0.86540896 -0.6171468 0.15980537 -0.2682238 -0.5314475 -0.91585684
-0.9387503 -0.9592446 -0.9044781 -1.1615558 -0.64002734 0.4112754 -0.42379224 -0.6591843
-0.7921216 -0.80895734 -0.3249011 -0.752235 -1.3617113 -0.47976276 -1.361795 -0.6234399
-1.2054851 0.12782581 -0.7173175 -1.2707705 -0.92619824 -1.1212921 -1.013063 -0.7760012
-1.0204153 -0.25568974 -0.5375482 0.048103034 -0.4246623 -0.3325114 -0.86996746 -0.039402485
-0.70249707 0.3306017 -1.0942751 -0.36190405 -1.3668982 -1.094208 -0.13695273 -0.17677376
-0.05988479 -0.23299919 1.3545063 -0.4481912 -0.34612885 -0.46856 -0.24167733 -0.5600356
-0.9503731 -0.45209134 -0.47798365 -0.25304753 -0.884253 -1.3527333 -0.77267575 -0.35321483
-0.729295 -0.7132235 0.07608621 -0.45315385 -0.8195994 -1.2331923 -0.6431781 -0.45885333
-0.27066326 -1.3186783 -0.7323116 -0.8209595 -0.4920745 -0.8642205 -1.1187356 -1.0913085
-0.56260306 -0.86000574 -0.82949877 -0.86560136 -1.0495907 0.9402497 -0.42016944 -0.69906807
-0.44013733 -0.7660133 -1.4007491 -0.85455555 -1.3651729 -1.0062205 -1.1620069 -0.5847611
-0.18419094 -1.3545743 -0.42612207 -0.7781732 -0.6738357 -1.0247818 -0.7882424 -1.3050812
-0.88013875 -0.39171338 -1.4991593 -1.0190765 -0.0246785 -0.48734298 -0.436861 -0.3918749
-0.12461978 0.20230885 -0.8975892 -1.2858629 -0.64733905 -1.2460595 0.14774573 -1.193973
-0.52681774 -1.6119418 -1.0504285 -1.1094171 -0.33854613 -1.2685148 -0.80423373 -1.9209421
-0.6262107 -1.0131022 -0.019461785 -0.33096877 -0.25919244 -1.0720403 -0.5078127 -0.7927579
-0.5064064 -0.5307936 -0.3545322 -0.32850716 -0.44821763 -0.34631547 -0.20077541 -0.2589664
-0.77924097 -1.2350415 -0.26471955 -1.3642857 -0.13716473 -0.8396597 -1.9195637 -0.4890311
-0.43574214 -1.1042476 -0.6215322 -0.06288161 -0.8342198 -0.64498353 -0.29037362 -0.31842837
-0.7236102 -1.2135485 -0.009226937 -1.2158369 -0.7967495 -0.5604037 -0.5084152 0.015074456
-0.56730545 -1.0311131 -0.62336016 -1.2692848 -1.2519897 -0.8437377 0.06395048 -0.75262725

weight f4 [256, 256]
00000000: a884 383c 50a2 f6bc 6c20 3abc 0001 bebd
00000010: ed81 853c 0e05 273c 6018 ed3b 3af1 933b
00000020: 187a 45bc 20fd 69bd 4610 55bd 9a5b 713d
00000030: 48e2 a8bc ad67 b1bd 4bce 9c3c e4b3 7bbd
00000040: 3094 3f3d 14dd c33c cd44 92bd 5011 153d
00000050: 9eef 433d 84de 70bd 2ae6 14bd 8887 0bbc
00000060: a933 97bc 15fa 97bd e1a0 5ebd e50f 6c3d
00000070: d84e f1bc 6055 dcbd 28e8 49bd 0a88 9cbd
00000080: 9852 82bd 23d8 5bbd 8011 b2bb 77df 99bc
00000090: 848c 4c3c bcf2 b4bc 5281 5e3c 56bc 4fbd
000000a0: 8fa9 c73b 20a3 273b 96ab cdb9 00d8 af3b
000000b0: bfb1 dcbc 17b1 7abd 6d97 87bd 78eb 253c
000000c0: bf6c b9bc 1ac4 8dbb 16fe 8abd 2208 2cbd
000000d0: 4074 bc3c 66af 19bd f9b0 e1bd d232 8ebb
000000e0: e0ec 8abc 24f7 44bd 0819 29ba 835c 32bc
000000f0: 645c 82bd 63fa 11bd 820a 783d 0615 c5bb
00000100: 88b6 91bc cdd2 853c c73a a83c 809e 6cbd
00000110: 1bab 013c 2b3b 203b 689a 40bd f320 50bd
00000120: 9b9f 96bd 7d3b 05bd fb43 81bd e203 e43b
00000130: 0435 7fbd 0fa7 95bc 4115 43bd e2c5 10bd
00000140: 7094 febb 4cb1 d83c 9fde b4bd 0063 5c3c
00000150: 2c77 2abd 1b6e 5f3c e79f 5cbd 3cab c2bc
00000160: 6126 643b 74e3 c5bd 9f06 5bbd 68d8 eebc
00000170: 6754 9d3c 9138 a9bd 00d4 d93b 34c9 b4bc
00000180: 90ad 68bc bcb4 d13c 1ac2 1dbd ae57 30bd
00000190: 64fa 833b 4133 37bc 70c6 be3c 770b 0fbd
000001a0: 105f da3b b384 96bc da15 a6bc 41e6 97bd
000001b0: 4a3d 23bb 9ddd 2abd e4fc c9bc 87df 11bd
000001c0: e0fd 073c b275 04bd a6c5 3abd dd5e be3c
000001d0: 0e1d 833b 3a70 7ebd 78b8 4b3d bc70 16bd
000001e0: 38df 713c 84eb 6c3d df79 90bd 2082 d2bc
000001f0: 8a44 00bd 4bd6 b0bd a845 c7bc 3a9a 56bd
00000200: 5003 ef3b 80d5 1f3d c1f4 82bd 3352 3abd
00000210: eaab 723d 16d0 443c a244 0bbd 2c31 8b3b
00000220: d0ed 6abc 00db 903c ea8a 21bd 8411 c83c
00000230: 0839 02bd a8c6 f6bc a984 aabd 5930 5ebd
00000240: e1cb 97bd e759 24ba fcb6 42bd 5ee2 bcbb
00000250: f685 dfb9 cb8f cbba b096 4e3d 1055 1f3d
00000260: 8076 00ba 69e7 81bc eab2 40bd 7331 71bc
00000270: b998 4ebc 8fbc cbbd 2a86 513d 9cc3 41bd
00000280: 6480 7bbc 2fbd dc3c ce76 51bd 8c53 d7bc
00000290: 30d1 90bd 5400 fcbc aa21 43bc 60d3 d63c
000002a0: d438 12bd 5c6d 01bd 78cb 373d 249f 8cbd
000002b0: f8d2 2bbd 6e28 ccbd 28b8 16bc 02f2 11bd
000002c0: 21bc e13c 187d 7ebd 5574 26bd fff3 b8bc
000002d0: 4ef0 3d3b 8083 0abd d5cb ccbd 8511 bcbd
000002e0: d048 d4bc a5a5 09bd ab2b ddbc 93e0 6bbd
000002f0: 4f8c 00be f36e 803b 16c6 9cbd 0c41 443c
00000300: 1e0f 3bbd a03b 97bc 880d 4e3d 5d58 8bbd
00000310: 2627 b33c 8843 9abc 42fc debd 8e56 36bd
00000320: 123b 41bd f892 553c 68e1 453c 70de e1bc
00000330: f4a1 93bc d4af 63bc ba28 0cbd 89fb 37bc
00000340: 7558 76bd e7ea 9a3c 509c f3bc faad 55bd
00000350: 14ca 333c 80dc d73b daca 78bd 6522 c03c
00000360: 5cb2 b8bc 10b2 283d 7cc1 84bd 6832 2b3d
00000370: a8d1 f6bc ecef 31bd ce8e ccbd f396 81bd
00000380: faa7 0bbd e03e 333c e8fa 28bd 388b 2dbc
00000390: df93 5dbd 96db d9bc 80dd fabb 5241 0d3d
000003a0: 0026 d3bc ef4f 8cbd 65e4 213d a8b5 4bbd
000003b0: 3161 d23c 4a1b 14bc 801d f2bb fe0f dc3c
000003c0: c23f 19bd 95ba 8cbd d369 6ebd 6877 6fbd
000003d0: f2ea 3cbd eb28 38bc e0a7 d43c 4b6f 43bd
000003e0: f34b 75bd 74a3 0d3d e2f1 623d c4f7 c83c
000003f0: 1988 2cbd 9efe 5dbd 952f 5d3c 8ee1 d1bc
0.011262096 -0.030106694 -0.011360269 -0.092775345 0.016297305 0.010194076 0.0072355717 0.0045148404
-0.012053035 -0.057126164 -0.052017473 0.05892525 -0.020615712 -0.08662353 0.019141337 -0.061450854
0.046772182 0.02390913 -0.07142029 0.036393464 0.04783594 -0.058805957 -0.036352314 -0.0085162
-0.01845725 -0.07420746 -0.054352645 0.057632346 -0.029456541 -0.107584715 -0.049293667 -0.07643135
-0.0636341 -0.05367292 -0.005434215 -0.018783314 0.012484673 -0.022088401 0.013580637 -0.05071672
0.006093211 0.0025579408 -0.00039228488 0.0053663254 -0.026940225 -0.061204042 -0.06620679 0.010126941
-0.022634862 -0.0043263556 -0.06786744 -0.041999944 0.023004651 -0.03752079 -0.11020083 -0.0043395543
-0.016958654 -0.048087254 -0.00064505683 -0.010886314 -0.06365278 -0.035639178 0.060556896 -0.006014469
-0.017787233 0.01633587 0.02053584 -0.057768345 0.00791433 0.002444933 -0.047022253 -0.050812673
-0.07354661 -0.032527436 -0.06311794 0.0069584707 -0.06230642 -0.018268136 -0.04762769 -0.035344966
-0.00776916 0.02645173 -0.08831524 0.013451338 -0.041617557 0.013637091 -0.053863432 -0.023763292
0.0034812915 -0.09662524 -0.05347311 -0.029155925 0.019205285 -0.08262742 0.006647587 -0.022068597
-0.014201537 0.025598876 -0.038515188 -0.043052368 0.0040276516 -0.0111816535 0.023287982 -0.034923043
0.0066641644 -0.018373823 -0.020274092 -0.07416964 -0.0024908357 -0.041715253 -0.02465672 -0.035613563
0.008300275 -0.032338805 -0.04559865 0.023238594 0.0040012663 -0.062118746 0.04973647 -0.036728606
0.014762692 0.057841793 -0.07054495 -0.025696814 -0.031315364 -0.08634623 -0.024325207 -0.052393176
0.007294096 0.03902197 -0.06394339 -0.045488548 0.05924598 0.012012502 -0.034001 0.004247805
-0.0143389255 0.017682552 -0.03943912 0.024422415 -0.03179267 -0.030124024 -0.08326084 -0.054245327
-0.07411934 -0.00062695 -0.04753779 -0.0057642898 -0.00042633683 -0.0015530525 0.050436676 0.03889948
-0.00049004704 -0.015857415 -0.047045626 -0.014721262 -0.012609654 -0.09948074 0.05115334 -0.04730569
-0.015350435 0.026945679 -0.05113869 -0.026284955 -0.07071149 -0.030761875 -0.011909882 0.026223838
-0.035698727 -0.031598434 0.044871777 -0.06866291 -0.041949242 -0.09968649 -0.00919918 -0.035631187
0.027555527 -0.062131017 -0.040638287 -0.022577284 0.0028982344 -0.033816814 -0.099998154 -0.09183029
-0.025913626 -0.033605237 -0.026998362 -0.057587218 -0.12553523 0.003919476 -0.076549694 0.011978399
-0.045668714 -0.018461049 0.050305873 -0.06803963 0.021869253 -0.01883103 -0.10887958 -0.04451614
-0.047175474 0.013035528 0.012077667 -0.027571887 -0.018021561 -0.013896901 -0.034218527 -0.011229404
-0.060142953 0.018910838 -0.029737622 -0.05216787 0.010973472 0.006587565 -0.06074033 0.0234539
-0.022545986 0.04118544 -0.06482217 0.041796118 -0.030129269 -0.043441698 -0.09988175 -0.063276194
-0.03409574 0.010940284 -0.041254908 -0.010592274 -0.0540961 -0.026593965 -0.0076557994 0.034486122
-0.025774956 -0.068511836 0.039524455 -0.049733788 0.02568111 -0.009039709 -0.0073887706 0.026863094
-0.03741432 -0.06871525 -0.05820639 -0.058463484 -0.0461225 -0.011240224 0.025958955 -0.04771356
-0.059886884 0.03457971 0.05540646 0.024532206 -0.04212198 -0.0541979 0.013500114 -0.025620248

bias f4 [256]
00000000: 8857 2dbe 87d2 4ebe 2290 02bf 9074 90be
00000010: c0b2 80bf 4705 d2bd 4367 e9bd 1c04 9dbe
00000020: 792f 24c0 2cb8 563f 9b23 a2bd 45d5 86bf
00000030: 7835 f2bd e11f 42be 80ad aebf 5402 d2bd
00000040: 8066 42be f3e0 a9bf 8cca 80bf a2a5 e0bf
00000050: b2e6 30be f3c2 6ebf bf17 95be 5461 8bbf
00000060: 7451 8cbe aa16 4cbe accc e73e f120 7ebe
00000070: bb24 0ebe 0237 193f e91a e9bf 6423 bcbf
00000080: 3bf7 31be 763b 1cbf d419 f2bd 5573 b6be
00000090: b84e 9bbf 5b78 3abf d4d7 34bf 509c b1bf
000000a0: fd95 08be 0015 e8bf 078f b2be f815 9bbf
000000b0: 005e bbbe 42f2 87be f589 1ebf f5a2 26be
000000c0: cfe0 75be 76c9 30bf 3dca 9abe 7ac9 9ebf
000000d0: f933 c2bf 72f5 d1be 4659 9ebf da16 60be
000000e0: 4889 e0bd d762 96bf c595 16be 82f3 fdbd
000000f0: 9f24 fcbf 93a1 a6bf 672b 05be c313 1cbf
00000100: 1fe9 8bbf 7de2 873e f195 0ebe 20de cfbe
00000110: e3ae b8be a117 17be aec0 a5be 23a8 b13d
00000120: b914 3ebe 6b1c 88bc 0bde 37be 93f0 53bf
00000130: 33ea 1abe 58f1 3bbf 1da8 81bf f660 0dbe
00000140: e23c ffbe 8e33 8dbe dd5b aebf e28d 3abe
00000150: 9aec c4bd 69ee 9b3d 3a4f a23e f110 56bf
00000160: 36db 10bf 178d 693e c801 9abf 15d9 0fbf
00000170: 10e7 84bd 7582 2abe 1afc 96be 3c8e 7cbf
00000180: ef80 863e 16e0 16be 05af 9fbf 21b5 8cbe
00000190: f4b7 d8bf c2d6 16be a52c a4bd e4d7 acbe
000001a0: 6eee aabf 1b04 01be 7acd 08bf 28c6 55be
000001b0: 463b 46bd 3423 eabd a556 15be dd22 6abe
000001c0: d96e 5bbe c477 78bf aad7 ebbe 04df a9bf
000001d0: f908 91bf 5a53 04be 6b92 2ebe c8de 13be
000001e0: 382c 01bf 1bab b4be 4c36 5fbf f6bd 74bf
000001f0: 3544 b8bf 03cf 56bf 8fdc 2fbe 87e0 96be
00000200: eb67 1fbe 4a2c 81bf f8ec 0ebe 0382 f8bd
00000210: 3da5 04bf 1c65 13be 3341 b3bd 9f2e c5bf
00000220: c9a0 6a3c 4624 dfbf 4369 73bf 7908 023e
00000230: a939 bbbf d7a7 49bf 2cae abbf 7522 d3bf
00000240: 8111 04be fbe1 27be c8fd d6bd 647d e7bf
00000250: bbcd 79bf e53e 8cbe 022b 89bf 2361 82be
00000260: 0f50 00c0 8d99 01be d48a 22be 254f 43bc
00000270: 2aa4 b5be ae0a 35be f413 a0be 0ad4 8abf
00000280: 16b6 6ebf c8b7 43bf 2f45 8d3e 5c56 e7be
00000290: ff2a f5be a49a 7ebf aa9e 27bf 5513 aabd
000002a0: 0be1 c4bf f3a3 acbe 24ef 25bf 245b 2cc0
000002b0: 7222 d2bd 5e95 01be 1424 043f 5464 19be
000002c0: f786 0dbf 1ec8 a0bf 7e10 27be cbc4 fc3e
000002d0: 3aa9 9cbf 68cc 7fbe 77f4 f0bd 67e0 d8bf
000002e0: e2e5 17be bae4 eb3e 64dc 7bbf bad2 bebe
000002f0: 13ef 36bf abef 97bf 5dff c0bb a717 adbf
00000300: 7c15 cfbf da07 69bf 6819 debf 6a47 fcbf
00000310: f223 bdbf 56f7 b8be 57e2 45bf e7f7 0cbe
00000320: 0ac3 bcbf b53e 9ebe a987 8dbf fa4d d6bf
00000330: af19 b5be 9f9d b2bf 538d 2ebf ff11 dabe
00000340: 4375 91bf 33de 05be 1ac0 b3be 2ff5 653d
00000350: 5c90 8ebe d404 5cbf 9dde 2a3e dab0 e8bf
00000360: 955f ddbf a865 72be b5ad 06be a004 e7bc
00000370: 4e6c 3fbf 9263 12be 7c24 b7bd f130 84bf
00000380: b4c4 43bf 1090 51bf f343 2abf 1cfd a6bf
00000390: e6ea 15be 1385 dfbd 25cc babf 26c9 97bf
000003a0: b618 86be 04ef eebe 6347 0ebf e04d 05c0
000003b0: c088 c9bf 0593 05c0 012d 2ebf 35e9 37be
000003c0: 204d fc3e 5e4f acbe 8eb8 d8bd ee5d 4ebf
000003d0: 3dc0 8dbe 333b 63bf e8d3 9fbe 88ae 26bf
000003e0: 4d3c 1cbf 4d18 8d3d 41c1 bdbf 26f0 c1bf
000003f0: 585d b3be 9f41 1cbf f2f4 c4be fcee 993d
-0.16927922 -0.20197497 -0.5100118 -0.2821393 -1.005455 -0.10254913 -0.11396649 -0.30667198
-2.5653975 0.83874774 -0.079169475 -1.0533835 -0.118266046 -0.18957473 -1.3646698 -0.1025435
-0.18984413 -1.3271774 -1.0061812 -1.7550547 -0.17275503 -0.9326622 -0.2911968 -1.0889077
-0.27405894 -0.1993052 0.4527334 -0.24817254 -0.13881199 0.5984956 -1.8211337 -1.46983
-0.17379467 -0.6102823 -0.118213326 -0.35634866 -1.2133398 -0.728399 -0.7064183 -1.3875828
-0.13338466 -1.8131409 -0.34874746 -1.2116079 -0.36595154 -0.26552016 -0.61929256 -0.162731
-0.24011539 -0.69057405 -0.3023242 -1.2405236 -1.5172111 -0.41007572 -1.2370994 -0.21883717
-0.10963684 -1.1748914 -0.1470557 -0.12399961 -1.9698676 -1.3018059 -0.13004838 -0.60967654
-1.0930518 0.26539984 -0.13924386 -0.40599155 -0.36070928 -0.14755107 -0.32373565 0.08674648
-0.18562593 -0.016615113 -0.17955796 -0.8278896 -0.15128402 -0.73415136 -1.0129429 -0.13806519
-0.49851137 -0.27578396 -1.3621784 -0.18218186 -0.09615441 0.076138325 0.3170107 -0.836196
-0.5658449 0.22807728 -1.2031794 -0.56190616 -0.06489384 -0.16651328 -0.29489213 -0.9865453
0.26270244 -0.1473392 -1.2475287 -0.2748194 -1.6931138 -0.14730361 -0.08016328 -0.3375846
-1.3354013 -0.12599222 -0.5343853 -0.20876372 -0.04839637 -0.11432496 -0.14583834 -0.22864862
-0.21429004 -0.9705775 -0.46062976 -1.3271184 -1.1330863 -0.12922421 -0.17048042 -0.14440453
-0.504581 -0.35286793 -0.87192225 -0.9560236 -1.4395815 -0.83909625 -0.1717398 -0.29468176
-0.15566985 -1.0091641 -0.13957584 -0.12134173 -0.51814634 -0.14394039 -0.0875267 -1.5404853
0.014320561 -1.7432945 -0.9508249 0.12698545 -1.4626971 -0.7877173 -1.3412528 -1.649489
-0.12897302 -0.16394798 -0.10497624 -1.8085141 -0.97579545 -0.27391735 -1.071625 -0.25464734
-2.0048864 -0.12656231 -0.15873271 -0.011920725 -0.3547681 -0.17679855 -0.31265223 -1.0845959
-0.9324659 -0.764523 0.27591845 -0.45183074 -0.47884366 -0.9945471 -0.6547648 -0.083044685
-1.5381178 -0.33718833 -0.64818025 -2.6930628 -0.10260476 -0.12654635 0.5161755 -0.14979678
-0.55284065 -1.2561071 -0.16314885 0.4936889 -1.2239144 -0.24980319 -0.11765378 -1.6943482
-0.14833787 0.46072942 -0.98383164 -0.37270147 -0.7145855 -1.1870016 -0.0058898167 -1.3522843
-1.6178432 -0.91027606 -1.7351503 -1.9709294 -1.4776595 -0.36126202 -0.7729849 -0.13766442
-1.4747021 -0.30907217 -1.1057025 -1.6742547 -0.35371158 -1.3954352 -0.68184394 -0.42591855
-1.136391 -0.13073044 -0.351075 0.05614203 -0.27844512 -0.8594487 0.16686483 -1.8178971
-1.7294794 -0.23671591 -0.13152201 -0.028200448 -0.74774635 -0.14295796 -0.08942506 -1.0327436
-0.7647202 -0.81860447 -0.6650993 -1.3045993 -0.14640388 -0.10914054 -1.459355 -1.1858261
-0.26190728 -0.4666673 -0.5557768 -2.082878 -1.5744858 -2.0870984 -0.6803742 -0.17960055
0.49277592 -0.33654302 -0.10582076 -0.80612075 -0.2768573 -0.88762206 -0.3121636 -0.65110064
-0.6102951 0.06889401 -1.4824601 -1.5151412 -0.35032153 -0.6103763 -0.38468128 0.07516286

weight f4 [8, 256]
00000000: c4df e93c 3452 c63e ce6f 503e 9ba2 cd3e
00000010: ea7d 673e 8a5d d83d 3a7a 783c e5c2 913d
00000020: e4a0 73be 782b 593e 156e a83c 9c09 9fbd
00000030: 1e90 8abd 8dcb 8bbe 74d9 babc b5f0 503c
00000040: febd 25bd 7bd1 223e fda5 5ebd 3365 a6bd
00000050: b1c8 413d 6397 5f3e dc09 9e3d 5694 8c3e
00000060: a36c d1bc 2575 133e d7b4 fdbc c9ca 6d3d
00000070: 6ee7 113d 278a c83c 6a32 09be b3be 223d
00000080: 2cb4 46bd 68b8 debd 0b46 f63c 967c 5c3e
00000090: 7e03 3d3e df2d e63d d4c7 18be a709 ae3e
000000a0: 4d3e 883d 73d4 f0bd 2013 ee3e 874e a63c
000000b0: f8d4 883d d4c2 1ebe 9442 b0bd 96db c5bc
000000c0: a6a2 f43c 2422 713e da0d c23d 04c7 0c3f
000000d0: 7dd4 bcbd 3868 46be 0bf1 403d c8da dabe
000000e0: 3dc3 70bd d6fa ccbe da04 6e3d c0c9 213d
000000f0: 6a6d f33e f111 4abe 43da cabd aa94 1d3d
00000100: 5d43 9e3e a500 86be 69f8 6b3a d8bc 23bf
00000110: 04f7 5bbd 1364 83bd 2244 eb3e 9f6b d8bd
00000120: 0881 29be 7982 8a3e 427e f93c 3fcd 223e
00000130: 0926 193d e3d6 efbd 66ea a13e 4443 08bd
00000140: 7cdd a3be 7095 b83e feee 80be 8c34 803c
00000150: 88f6 67be 672f 42be c22e 8dbb e90e 9b3d
00000160: c07e cbbe a2c1 683e 0e5d 023d a0b1 71bd
00000170: 6db7 4abc 03b0 463d 0304 ee3d 8e19 2fbe
00000180: a75d 553e 7479 213e 1d93 01bf b740 c3bc
00000190: c5f8 813d 56af cabc 2402 c63b 4242 6f3d
000001a0: 0474 2b3e 40f7 07be 02eb a13e ad3d 91bc
000001b0: 3dfd a13d 0897 f03c e019 603d a517 c63d
000001c0: c954 2abd 000b 643d 0e9d 69be 8771 43be
000001d0: 4ce5 29be 7b8b a43d 6a3b 1fbc e09e 153e
000001e0: ae18 09be 48a0 a73e 30a4 97be 2ac0 043d
000001f0: 60c6 843d 58d7 433e be30 dbbb 7468 183e
00000200: 29c6 9b3d 8f73 093e 5e59 a53b c948 493c
00000210: 56f4 973c d85f 193e bde8 dabb 1776 293f
00000220: 7f0b b13e dee8 6e3e 903b 26be d09d 293d
00000230: 1f23 4cbd 3d10 97be f446 06be 8741 a03c
00000240: 6443 89be a036 d1bd b739 33bd cf2e b9bd
00000250: bb6a c13e 08b4 04bc 2ec7 c53d 271c 1d3e
00000260: 3145 893e 6e13 6f3c 0eee d13a 51d8 a9be
00000270: 1718 273e 5d8e 9d3c 91a4 303e d02c 07bf
00000280: 4480 b13d 8e21 cd3d 8c8c 3cbe 95e8 783d
00000290: 6a6f 8dbe 512a bd3d e2fb 953d 9ddc 22bd
000002a0: 04c4 ec3e 10d7 94bd dae0 743e 82a8 d23d
000002b0: 8af6 c1bb 1db1 1f3c 81a5 04bd ba4e cb3c
000002c0: fe82 9e3a 0cb6 56be ace5 f6bc 98ba 3bbe
000002d0: f023 94be 2dc7 c93c c5a6 8ebd 1cbe 94be
000002e0: 9c31 a7bb ed8f 7e3c add8 adbb 31b6 aa3d
000002f0: 3594 abbd d3c6 af3d 6625 723e 21c4 a23e
00000300: f9f2 ed3e 873e ef3e f043 5ebd d872 adbe
00000310: 32f9 dbbe 5f4f 713e 474a c33c 8b88 abbd
00000320: b036 3cbe 19bb b2bc 154f 24be 8691 eb3d
00000330: f2db 3bbe b563 123e eae5 cfbc 5a61 173c
00000340: 7baf e9bb 449f b73b a9e7 9dbd 39f8 8a3e
00000350: 8c34 60be eecf e3bc 325f 5b3d f7cf 40be
00000360: b313 c53d 4ab4 28be 0875 4d3d c9df b03d
00000370: 9930 a03d c1f1 39bd 162f 93be 7071 90be
00000380: 41fd 5a3e 9f9d 80bd 7fcf 203c 7241 67bd
00000390: 0c48 00bd 3349 64bd d94d 8b3e 51b4 79bd
000003a0: 1f75 c53d 199f 153e 2ba1 55be bbd7 c1bd
000003b0: f766 8fbd bb53 73bc 63de 6b3e b84a 9ebc
000003c0: a7f8 373c 2a24 223d f30c ce3c 1c80 71be
000003d0: 1979 b53e a631 b1be df33 e93c 5132 cd3e
000003e0: 9ce9 d13d d39f c4bd 7c3a 7ebe d0c3 123f
000003f0: 3557 9c3e f8e4 8dbd c2da dabc 85f8 dcbd
0.028549083 0.3873459 0.2035515 0.4016312 0.22606626 0.10564716 0.01516586 0.07117251
-0.23791844 0.21207988 0.020560304 -0.07765505 -0.067657694 -0.27303734 -0.022808768 0.0127527015
-0.040464394 0.15900223 -0.054357518 -0.08124771 0.047310535 0.21835093 0.07716724 0.2745692
-0.025564497 0.14400156 -0.03097002 0.05805472 0.0356211 0.024479939 -0.13398138 0.039732646
-0.04851167 -0.108750165 0.030062696 0.21531901 0.18458363 0.11239218 -0.14919978 0.3399174
0.06652508 -0.117592715 0.46498966 0.020301117 0.066812456 -0.15504009 -0.08606449 -0.024152558
0.029862713 0.2354818 0.09475298 0.54991174 -0.092202164 -0.19375694 0.047104876 -0.42745042
-0.058779944 -0.40035123 0.058110096 0.039499044 0.47544414 -0.19733407 -0.09904911 0.038471855
0.3091077 -0.26172367 0.00090015546 -0.6396003 -0.05370237 -0.06415572 0.4595042 -0.10567402
-0.16553128 0.27052668 0.030455712 0.15898608 0.03738979 -0.11710908 0.31624144 -0.033267274
-0.32004917 0.36051512 -0.25182337 0.015650056 -0.22652638 -0.18963395 -0.0043085525 0.07571203
-0.3974514 0.22730115 0.031827025 -0.059007287 -0.012372834 0.0485077 0.11621859 -0.17099592
0.20836507 0.15768987 -0.506151 -0.02383457 0.06346277 -0.02474181 0.0060427357 0.058412798
0.16743475 -0.13277912 0.3162461 -0.017729605 0.079096295 0.029368892 0.054712176 0.096724786
-0.041584764 0.055674553 -0.22813818 -0.19086276 -0.16591376 0.08034416 -0.009718755 0.14611387
-0.13388321 0.32739472 -0.29617453 0.032409824 0.064831495 0.19125116 -0.00668916 0.14883596
0.076061554 0.13422988 0.005046054 0.01228542 0.018549126 0.14977968 -0.0066805766 0.66195816
0.34579083 0.2333102 -0.16233659 0.041410267 -0.04983818 -0.29504576 -0.13113004 0.019562496
-0.26809227 -0.10215497 -0.043756213 -0.09042131 0.3777674 -0.008099563 0.09657131 0.1534277
0.268106 0.014592035 0.001601638 -0.3317285 0.16317783 0.019232923 0.17250277 -0.52802753
0.08667043 0.10016166 -0.1841299 0.060768683 -0.27624065 0.09236587 0.073234335 -0.039761174
0.46243298 -0.072675824 0.23913899 0.102860466 -0.0059192823 0.009746817 -0.0323844 0.024817813
0.0012093482 -0.20967883 -0.030138813 -0.18332899 -0.28933668 0.024631107 -0.069654025 -0.29051292
-0.0051023494 0.015537244 -0.005305371 0.083355315 -0.083778776 0.085828446 0.23647079 0.3179026
0.46474436 0.46727392 -0.05426401 -0.3387668 -0.42963558 0.23565434 0.02383913 -0.08375653
-0.18380237 -0.02181773 -0.16045792 0.11502366 -0.18345621 0.14295848 -0.025378186 0.009239519
-0.0071315146 0.0056037027 -0.07710201 0.27142504 -0.21895045 -0.02780911 0.053557582 -0.18829332
0.09622898 -0.16475025 0.050160438 0.08636434 0.07821769 -0.04539657 -0.2874686 -0.28211546
0.21385671 -0.06280064 0.009815096 -0.056458898 -0.03131871 -0.05573387 0.2720783 -0.06096298
0.0964148 0.14611472 -0.20862262 -0.094649754 -0.07002061 -0.014851506 0.23034053 -0.019322738
0.011228717 0.03958527 0.025152659 -0.23584026 0.35443953 -0.3460819 0.028467117 0.4007745
0.102496356 -0.096007966 -0.24826998 0.57330036 0.30535284 -0.06928438 -0.02671564 -0.10789589

bias f4 [8]
00000000: 4029 a0bd eccc 463e d761 e63c f650 60be
00000010: 6bb1 13bd 99d2 53be 6997 2cbd fd31 3fbe
-0.07820368 0.19414109 0.028122826 -0.21905884 -0.03605787 -0.20685805 -0.042136583 -0.18671413

weight f4 [8, 256]
00000000: 0d3e 723d 5d3b db3d 1dae 5e3c c5e6 913e
00000010: f580 563c ea9b 233c 1ec1 313d 661a 893c
00000020: 0461 0c3f bc75 003c df91 61bd caf5 b53d
00000030: 9584 233d 2ccd 873d 8d12 9b3d 73d7 44bc
00000040: a1a9 873d d32a c23e 174f eebc 9b66 573e
00000050: c42f ac3d 7186 ab3e 9f7c e53c 3cb0 a43e
00000060: 9466 3dbd 263c 7bbc 405b 32bd 1422 153e
00000070: c55c cc3b 186e 6d3c 459a b43d 606d 3c3f
00000080: d967 25bd 44a9 b83b c94b 3b3d 362b 6d3d
00000090: f251 d13c 4a55 903e 559b 7d3b 8ec6 22bd
000000a0: 52f6 25bd 28dc d03e 12b3 e13b ecdf fd3b
000000b0: a5eb 81bd b210 1dbd 1cbf a8bc 1f3a a33d
000000c0: 1122 473d dd66 7f3e 7ccf 933c a6b8 883e
000000d0: 2b66 7fbd 6026 26bd 565b 2f3e 9191 eebd
000000e0: b88d 573d 6f5f 563e 19b0 743c fb54 aa3d
000000f0: f400 dd3d 9ca1 943b 4592 b3bd 7b4b 0b3e
00000100: cf60 723e 76f0 a73d 18f8 9dbc 42b0 033e
00000110: c049 8dbd c06e c03c bbdb cdbd 4b6c afb9
00000120: 3457 3f3b 6c75 7b3e 51e6 c53b 8109 17bb
00000130: 145a 39bc 1953 af3e 6d0f 1b3d 3795 8d3d
00000140: 91dd fd3e a4d9 1f3e caaf db3e 3a45 08bc
00000150: 3f68 6ebc 3b7b 0f3d 32dd 0c3d e6b5 1b3e
00000160: 99da 793e 2493 3cbd d4fa d339 368f b43d
00000170: 3a4d 4d3c 339d e9bc c7d1 ea3d df3e 3fbd
00000180: 8942 25bc 4b4f 183b bb8f 123f 5067 493e
00000190: c765 f9bc f49a 183d b028 963c 02cd 33bc
000001a0: f4cb 14bd 2cb8 6fbc a281 1c3d 9ecd 323d
000001b0: bd17 e83b baf9 aebd 09e1 5b3d 46bb 823b
000001c0: 7ae6 f63d d87d 163e 33b2 c73c b43c 223d
000001d0: 5a35 cf3e fe59 02be b909 d73e d937 993c
000001e0: af7c a2b9 7596 5dbc a079 273e 7535 7dbd
000001f0: 8e0c a33e a261 0e3e d6dc 32bd 5d65 28bd
00000200: 5e5f a43c 11cb 923d bec6 953d 5090 9bba
00000210: 5c57 043d 5195 753c 8278 873d d352 a33e
00000220: f21b f3bd ff8d 023f 8782 953e 0307 703d
00000230: 62b5 cf3b 4cd3 ccbd 562f 72bd e21a 3e3e
00000240: f541 4e3a 3c77 57bd f45f 1d3c dd13 88bd
00000250: 4674 403e dedf 083d cc18 363d 8d63 c53d
00000260: 0603 fd3c c98e b73c d8b4 be3b 4342 93bc
00000270: 93d3 203d be41 cebc 6a6f 293d 7862 df3d
00000280: 75fa 10be 9308 fbbd 7d7a 3bbd bfc2 edbd
00000290: 29d1 fd3d b184 a63b 05a6 053d c06e d33b
000002a0: d473 113e cbf8 aa3b fd75 b43e 1697 3f3e
000002b0: 2957 733a a8b9 82bc 7144 7cbc 94a5 6e3d
000002c0: fdf6 033d 6848 df3d b8d6 bcbd 7219 a5bd
000002d0: 1790 1c3e a91f aebd da79 4c3d 1d72 bd3e
000002e0: 2cb3 b23d 6685 3abc 416c c33e d160 28bc
000002f0: 9e90 453d 9a2c 953e b8dd c93b dbc2 3a3d
00000300: 7e17 e63e d4fd b93d 34ff 783e 6bc3 b03e
00000310: 7466 143b 35cb a6bc 9ea0 b73d 5dad d83d
00000320: 1b99 703c 7a88 ee3d 51ae fcbd 834c 4bbd
00000330: c3ce f2bc 31f8 1b3e 34be ac3e a36d ba3a
00000340: cde6 b4ba 6d2f 0fbd d2e0 1c3e 997c 9ebd
00000350: 92ea 993e ce4c 213b 9811 4d3d ce52 6b3d
00000360: 12dc d23e 577a 43bc 79d2 513d ddc2 013e
00000370: e97d 353e 4bcb 313d d17f 983d 8697 ea3e
00000380: bb70 833d 467b 6f3e 1c51 503b a6dc 443d
00000390: 9923 893d 9fd2 debc 670e 05bd 9886 003e
000003a0: ad84 6dbd 1c70 9dbd 82b9 a93d ec3f e6bc
000003b0: 8b1f ac3e 4237 203e 7cd5 70bd 99d5 e3bc
000003c0: 179d 50bc bc09 d4bc 49d3 8bbc 9826 933d
000003d0: d5d6 9f3e 0e47 243e 2ad8 613c a22e 6dbd
000003e0: 22bb 163e ec58 aebd 3b0a f83d 3177 2e3f
000003f0: 578c df3d 855b 913e ed62 dc3d 91a7 353c
0.059141207 0.10704682 0.0135913165 0.28496376 0.013092269 0.009985903 0.04339706 0.01673622
0.54835534 0.00784057 -0.055070754 0.08884771 0.039921362 0.0663093 0.07571898 -0.012014258
0.06624151 0.37923297 -0.029090447 0.21035235 0.08407548 0.33501008 0.028013526 0.32165706
-0.046240404 -0.015334165 -0.043544054 0.14563781 0.006236645 0.01449158 0.08818487 0.73604393
-0.04038224 0.0056354124 0.04572657 0.057902537 0.02555177 0.2819007 0.0038697321 -0.039740138
-0.040518112 0.40792966 0.006887802 0.007747641 -0.06343774 -0.038346 -0.02059894 0.0797007
0.048616473 0.24941583 0.018043272 0.26703376 -0.062353294 -0.04056394 0.17124686 -0.11648858
0.052625388 0.20934843 0.014934563 0.0831699 0.107911974 0.004535867 -0.08768133 0.13603012
0.23669742 0.08200161 -0.01928334 0.12860206 -0.06898832 0.02349031 -0.10051676 -0.00033459286
0.0029196264 0.24556512 0.0060394187 -0.0023046436 -0.01131298 0.34243086 0.037856508 0.06913226
0.49583104 0.15610367 0.42907554 -0.008317286 -0.014551221 0.03502963 0.034390636 0.15206107
0.24399795 -0.04603876 0.00040431938 0.08816378 0.012530619 -0.028517341 0.11465793 -0.046690818
-0.010086664 0.0023240622 0.57250565 0.19668317 -0.030444039 0.03725715 0.018329948 -0.010974171
-0.036327317 -0.014631312 0.038209565 0.043653123 0.007082908 -0.08543725 0.053681407 0.00398961
0.12055679 0.14696443 0.024376964 0.039608672 0.40470392 -0.12729642 0.41999605 0.018703388
-0.00030991944 -0.013524641 0.1635499 -0.06181856 0.31845516 0.13904431 -0.043667637 -0.041112293
0.020065006 0.07167638 0.07313298 -0.001186857 0.032309875 0.014989213 0.06614782 0.31899127
-0.118705645 0.5099792 0.29201147 0.058600437 0.006338761 -0.10001239 -0.059127174 0.18564942
0.0007868105 -0.052603945 0.009605397 -0.066444136 0.18794355 0.03341662 0.044457242 0.096381284
0.03088523 0.022406952 0.005819898 -0.017975932 0.039264273 -0.025177833 0.04136602 0.10907453
-0.14158042 -0.12257495 -0.04577111 -0.116094105 0.1239341 0.005081736 0.03262903 0.0064524114
0.14204341 0.0052176467 0.35246268 0.18709978 0.0009282702 -0.015957668 -0.015397177 0.058263376
0.03221797 0.10902482 -0.09220642 -0.08061494 0.15289341 -0.085021324 0.049920894 0.37001124
0.087255806 -0.011384344 0.3816853 -0.010276989 0.04823362 0.2913559 0.006160464 0.045595985
0.44939798 0.09081617 0.24316102 0.34524092 0.0022644075 -0.020360569 0.08966182 0.105799414
0.014684941 0.116471246 -0.12337936 -0.049633514 -0.029639607 0.15231396 0.33738863 0.0014223348
-0.0013801694 -0.034957338 0.15320137 -0.07738609 0.30061775 0.002461243 0.050065607 0.057452016
0.41183525 -0.011931024 0.051226113 0.1267199 0.17723812 0.043406766 0.07446254 0.45818728
0.06417986 0.23386869 0.0031786626 0.04806199 0.06696243 -0.027200041 -0.03248444 0.12551343
-0.057987858 -0.07687399 0.08287336 -0.028106652 0.33617815 0.15646079 -0.058797345 -0.027811812
-0.012732766 -0.025883548 -0.017068522 0.071850955 0.3121859 0.1604273 0.013784448 -0.0579058
0.14719823 -0.08513054 0.12111326 0.6815062 0.109154396 0.28390136 0.10761056 0.011087314

bias f4 [8]
00000000: f4d2 59be b474 2bbe dc80 43be 39bf 46be
00000010: 1869 48be 3fd3 68be 5c7d 6abe 3fe3 4cbe
-0.21271878 -0.16743737 -0.19092125 -0.19408883 -0.1957134 -0.22736834 -0.22899383 -0.20008563

weight f4 [256, 36]
00000000: dec5 dc3f 12e5 883d 3b82 6c3f 0f9c 65c0
00000010: 4303 f2bf adaa 0b3f a3a7 ed3e e639 b0bf
00000020: f2b1 fd3e 29f7 09bf c7c4 423f c6c4 21c0
00000030: bf29 65bf a99f 0c40 934d b63e cac6 d5bf
00000040: 264c a7bf df85 cf3e 21e0 043f bd2d a340
00000050: 50eb 9dbf 147b 56be b47a a63f 5722 64bf
00000060: d96c 8abe 4ed0 83be ace3 073f d985 af3e
00000070: 8e32 e33e 571f d4bc 5033 df3f b618 423f
00000080: 4f13 163f b9d0 fcbe 4d71 de3f 7c0a 64bf
00000090: c82a 08bf 1a1b f13e 585d 95be 07ea d03f
000000a0: 4f53 c43f f0bc dcbe 7b91 c73f a583 88bf
000000b0: baf6 d1bf 24da 89be 307c 963f fdfb 5f3d
000000c0: bba9 21bf 5344 b03d 694d b2be 9dae 913f
000000d0: 4497 653f eb54 04bd 982f 883e 9592 9540
000000e0: 9511 adbe 68d5 a8be d4aa 9fbd d724 aabe
000000f0: 48b5 24be f849 24bf 3c0e 8dbe 8f0c 3ec0
00000100: 20af acbf 295b f8bd 95c7 e2bf d018 ac3e
00000110: 1d19 4dbe f6d3 0b3f 3999 c9be fa35 9dbe
00000120: 01c6 8b3f 4c53 25c0 ccda b9bd 98e2 4340
00000130: e997 85bf 0f8c 4540 b5bb 893e 107a d93f
00000140: 68c2 a6bf 4434 d73f f410 283e 73d8 1fc0
00000150: 8aa5 3bbf 0c2a 7e40 96c2 a6be 4018 6a40
00000160: b232 acbf 6953 58be f084 cabe e839 0140
00000170: 76c8 f83f ae19 0240 23fa ebbd 94c7 8e3f
00000180: 9608 35bf c653 05bf d4ac 2cbe d6bc c0be
00000190: e804 23bf 75cd cfbe dd96 b6bf 0cf7 dd3d
000001a0: a823 233f 3671 81c0 083c 9a3f 3ef7 19c0
000001b0: 23b7 a1bf b0ec 76bf ba78 74bf 28af f5be
000001c0: 3100 ac3e ef5c 31bf 9528 e93e 4eef 813d
000001d0: 216e 89be aac2 8e3f 6ba7 2ebe f093 6a3f
000001e0: b8a6 efbf 1be9 a7be 028e f2be c2c0 703f
000001f0: 587e a93f 0474 a4bf 8320 c13e 31bf 303f
00000200: 34c2 2bbf 2942 c0be c202 033e d7fc 9e3e
00000210: 788c 14bd dc12 43bf a25b 8abe d280 743d
00000220: a60d 483f 7c6f bebf 6209 df3e 48a8 163e
00000230: 8044 89bf 91c1 a0bd cdb6 023f fae5 b0bd
00000240: 779b 40be 3c18 23bf e7a9 37bf 7e0e 2d3f
00000250: 84ba 09be d5bf 693f 75bb b93f b1f3 f13f
00000260: 64e5 ca3f 934a 24bf eaeb 00bf 9b7a ccbe
00000270: 1d96 0ebf 3ab4 3ac0 37f7 483d c2dc f13d
00000280: bff0 e23e 7886 d43f 943e 13be 9669 45c0
00000290: 5cd1 e0bf 38bf 143f 928d 81bd 43e0 50c0
000002a0: 8ae8 1cbf 9cdf 52bf 4158 3ebc abdb e13c
000002b0: 7536 5bbf fc80 3a3e 8f19 aabe c211 4d3f
000002c0: 0231 ba3e 0630 5d3d bc60 913e a80b 80bd
000002d0: 3522 30bf 9e53 86bd 0c75 d6be 980c 4e40
000002e0: f829 cebf be7b df3f e040 87bf a9c9 783f
000002f0: 184d dbbd 7e18 b03f 14e8 1ac0 3c7f 9abf
00000300: 6d42 a63e fc97 e93f 5c3b e93f 32eb 06bf
00000310: 1c3a 19bf a7fc adbe 2643 883f 23d7 23be
00000320: 5fc4 95be d50a 8d3d c55c 25c0 5249 02bf
00000330: 1c86 d7bc c9c8 5f3e 9523 f73e beb0 473f
00000340: 363e 32bf a0ed 7dbf e1bb 983f 752c 3dbf
00000350: 4802 b43d 85a8 8f3f 7f3a 733f 5b1e 41c0
00000360: c471 803e f480 adbd 1863 06bf 72a2 f33f
00000370: d049 fcbe f367 1bbf 75f3 0540 b543 9abf
00000380: 7f70 9dbf 41fb 69bf e0f4 303e 39c4 3e3f
00000390: 16e8 5c3f 5499 2b3f 2718 d6be f3ad b2be
000003a0: 5dbd 5ebf b51e d2be b1ba 163f f1fb 57be
000003b0: cb1d e93f d663 723f e81c 26bf 5175 c3bd
000003c0: 77f7 e6bd c453 4cbe d917 01be 6d91 19bf
000003d0: 36be 0a3b f9cb 853d 43ea 363d af76 f4bb
000003e0: 90c3 7abb afd5 223c 465f e23c 97d8 46bb
000003f0: ebec eb3e 4deb febe fff6 33bf ead9 0bc0
1.7247884 0.06684317 0.92386216 -3.58765 -1.8907245 0.54557306 0.4641696 -1.3767669
0.49549824 -0.5389276 0.7608151 -2.527635 -0.89516824 2.197245 0.3560606 -1.6701291
-1.3070114 0.40531823 0.51904494 5.0993333 -1.2337437 -0.20945388 1.3006196 -0.891149
-0.2703617 -0.2574486 0.53081775 0.34281805 0.44374508 -0.02589385 1.7437534 0.75818956
0.5862321 -0.49377993 1.7378327 -0.890785 -0.5319028 0.4709099 -0.29172778 1.632142
1.5337924 -0.43112898 1.5591272 -1.0665175 -1.640342 -0.2692424 1.1756649 0.054683674
-0.63149613 0.08606782 -0.34824684 1.1381413 0.8968394 -0.032307547 0.2659881 4.6741433
-0.33802477 -0.32975316 -0.07796255 -0.33231232 -0.16084778 -0.6417537 -0.27549922 -2.9695165
-1.3490944 -0.121267624 -1.7717158 0.3361268 -0.20029111 0.546203 -0.39374712 -0.30705243
1.0919801 -2.583209 -0.09074935 3.0607052 -1.0436984 3.0866735 0.26901022 1.6990376
-1.3028078 1.6812825 0.16412717 -2.497586 -0.7329947 3.9713163 -0.32570332 3.65773
-1.3452971 -0.21125568 -0.39554548 2.0191593 1.9436176 2.0328174 -0.11522319 1.1154656
-0.70716226 -0.52080953 -0.16862804 -0.3764407 -0.6367936 -0.4058644 -1.426479 0.10838136
0.6372628 -4.0450697 1.204957 -2.4057155 -1.2634014 -0.96454906 -0.95496714 -0.47985196
0.33593896 -0.6928243 0.45538774 0.06344472 -0.26841834 1.1153157 -0.17056052 0.91631985
-1.8722754 -0.32795033 -0.47373968 0.94044125 1.3241682 -1.2847905 0.37720117 0.69041735
-0.67093205 -0.37550476 0.12794021 0.31052276 -0.036266774 -0.7620065 -0.27023035 0.059693165
0.78145826 -1.4877772 0.43561846 0.14712632 -1.072403 -0.0784942 0.5106018 -0.086376145
-0.18809305 -0.63708854 -0.71743625 0.6760024 -0.13450056 0.9130834 1.4510332 1.8902494
1.5851254 -0.6417629 -0.50359976 -0.3993729 -0.55697805 -2.9172502 0.049063887 0.11809684
0.443243 1.6603537 -0.1437934 -3.0845695 -1.7563891 0.58104277 -0.063258305 -3.2636878
-0.61292326 -0.8237245 -0.011617721 0.027570566 -0.8562997 0.18213266 -0.33222625 0.8010522
0.36365515 0.054000877 0.28394115 -0.06252223 -0.68802196 -0.065589175 -0.41886175 3.2195187
-1.6106558 1.7459638 -1.0566673 0.9718271 -0.10708064 1.3757474 -2.420415 -1.2070079
0.32472554 1.8249507 1.822124 -0.5270263 -0.5985429 -0.3398182 1.0645492 -0.16000037
-0.29251382 0.06886832 -2.5837872 -0.5089313 -0.026309066 0.21853937 0.48269334 0.7800406
-0.69626176 -0.9919071 1.1932336 -0.7389596 0.087894976 1.1223303 0.9501113 -3.0174778
0.25086796 -0.084718615 -0.52494955 1.9033949 -0.49275064 -0.6070549 2.0929844 -1.2051913
-1.2299956 -0.9139901 0.17280912 0.7451816 0.86291635 0.67030835 -0.41815302 -0.34898338
-0.87007695 -0.41039053 0.5887862 -0.21092202 1.8212217 0.9468359 -0.6488786 -0.09543861
-0.11277669 -0.19953829 -0.12606753 -0.5998753 0.0021170503 0.06533045 0.044657003 -0.0074604372
-0.0038263537 0.009938641 0.02763332 -0.00303415 0.46079192 -0.49788895 -0.7029876 -2.1851754

bias f4 [256]
00000000: 3678 643f 71ff 83be 1c16 68bc 8341 b9bf
00000010: cebb 37bf 2428 dcbe 5475 5cbf 3836 60bf
00000020: 28c0 48bf f37d e9be f7bb 2fbf 0287 c53e
00000030: 328a 7fbf 2836 193f 0c49 02bf 677a 73be
00000040: 1c4e 683e f483 06bf f571 7f3b c182 69bf
00000050: 9216 a83f 74f7 56bf 574f 4abf 9ec0 28bf
00000060: 04cb 9b3f 02e5 aa3f aad0 91bf 6b65 02bf
00000070: 095a 5ebf ce0c c63f faea c6be 4d00 40bf
00000080: 6803 9cbe 8e41 15bf 0963 09bf bea7 a73f
00000090: 0ff1 213e eef6 2dbf 92fd 83bf 9168 03bf
000000a0: 9ecb b9be a0db 7ebc c9fb e1bf 28c8 eebf
000000b0: 0d23 733f 28ca 20bf b603 1cbf f1e3 cc3f
000000c0: abac 96bf a50f 133f dffa bb3f 15cf 9ebf
000000d0: 2861 89bf 4a0c 7f3f 5b1a a33f 1704 0cbf
000000e0: dcfe 8abf 9daf 00bf 8bcc cabe 55e4 9e3f
000000f0: cbd7 c33f 60ce 923f 5620 9b3f 2c6d 72bf
00000100: 8038 7cbf 5e30 a9be 8bb0 c9bf 31a1 9b3f
00000110: b460 b5bf fce3 8abf 0b52 283f 52cc c1bf
00000120: 1788 81be 3b3c a73f 3455 a33f 41e4 98bf
00000130: fe12 cfbf 8264 a1bd d49c 963f e40e 93bf
00000140: 7cc7 3ebf e053 6d3f ffda aa3f c345 12bf
00000150: 8935 bfbe b957 c93c d887 b9be 958b 66bf
00000160: b359 963f 4de0 c9be e243 2bbf a9f6 a6bf
00000170: 6075 39bf 5843 703f 472a 89bf 2bfd 09bf
00000180: a562 10c0 c656 833f 0689 9fbe 7504 c73f
00000190: 5c70 023e a594 8a3f c92d 9cbf 8eea bb3f
000001a0: 1212 34bf e11f 8dbf 17a9 7ebe 6629 41bf
000001b0: fdc0 a5ba 2147 3fbf 8c70 7fbf f034 f53e
000001c0: 2b88 0e3f 2c08 973f 8ff7 64bf b4c6 9d3e
000001d0: 0f1b 863f 4e65 733f a9d6 60bf 0012 96be
000001e0: c8b1 9b3f 591e a83f cf5f c4bf 0ad6 f03e
000001f0: 8642 54bf 4ade 68be 53bb 36bf 66fe 93be
00000200: ca40 b43f c5f2 b4bf b9de 01c0 3630 963f
00000210: 050c 62bf 43e3 80bf df0e afbf 833c bebf
00000220: 7097 f63f f008 92be cff0 5abf ee6e aa3f
00000230: cbd2 36bc cae3 ab3f bf5f d3be 954c 523c
00000240: fa61 89bf 0f8b 92be dcfb 9a3f 07b3 923f
00000250: a931 b6bd 9b01 9dbf e70b 8a3f 79e0 073f
00000260: 7372 9e3f 8f47 73bf dcb7 b33e 2371 87bf
00000270: 0a75 a33f 7939 f5be 47d5 cc3f 9750 3bbf
00000280: 889c 0cbf 6a2c 5dbf 4d02 76bf 1bc5 d4be
00000290: 0f28 68be a50d a8bd 4352 5bbf ce8b b3bd
000002a0: 6c67 b03e b2df 0e3f 7cf7 f23e 0760 8cbf
000002b0: 8c5f 87bf 195a 17bf d4b3 9cbe af2d 80bf
000002c0: 4069 abbe 587c 01bf 7cc3 033f 11de 4cbf
000002d0: 30c2 ad3f 8de7 213f 8512 8fbf 5ec0 38be
000002e0: 8200 92bf 6cd7 8c3f f1a2 44bf 002a 293f
000002f0: f15b a4bf 9853 843f 91b1 a4bf a06a ffbe
00000300: d767 8abd b6db 44bf 7afc ae3f dafe 653f
00000310: d169 b43e e6a4 e7bd 1a07 fcbd d7bc 923f
00000320: 7e54 33bf 630e 0cbf 418c 883f 8c01 76bf
00000330: c919 983f e241 863f fd8c 8abe 1a93 96be
00000340: 46f0 143f 58cb 86be 7b41 31be 12cb 5bbe
00000350: 2e31 d7be a6f2 5fbf 48ea 8dbe c890 8cbf
00000360: ed78 7f3f f32a 16bf b68f 26bf 0cba 803f
00000370: d2a0 a63f 0e71 9abf 8dbd c9be 7263 933f
00000380: 8d0d bc3f 9f72 0940 b581 b9bf 4710 51bf
00000390: 227b 8ebf c835 84bf a559 af3f b64f 29bf
000003a0: 5726 e03e 2908 86bf 1ef5 7fbf b9d3 17bf
000003b0: 48ff 403f ffb2 47bf 664b 22bf cf3f 58be
000003c0: 3cf1 70be 6380 36bf 9aac 59bf fe1b 42bf
000003d0: dafe 9c3f 7e5a 493f 95b0 63bf 4102 32bf
000003e0: 06bd 6abf dc33 35bf a438 78bf b59e ab3f
000003f0: d076 6f3e cd07 f13e 937a 3c3d 5478 0e3f
0.8924593 -0.25780824 -0.014165428 -1.4473118 -0.7177094 -0.42999375 -0.8611653 -0.8758273
-0.7841821 -0.45603904 -0.68646187 0.38579565 -0.99820244 0.5984826 -0.5089271 -0.23777162
0.22686046 -0.52545094 0.0038977836 -0.9121514 1.3131888 -0.83971334 -0.79027313 -0.6591891
1.217133 1.3351138 -1.1391804 -0.50936 -0.8685613 1.5472658 -0.38851148 -0.7500046
-0.3047135 -0.58303154 -0.5366674 1.3098066 0.15814613 -0.6795491 -1.0311759 -0.5133143
-0.3628816 -0.015555292 -1.7654964 -1.8654833 0.9497536 -0.62808466 -0.6094316 1.6007062
-1.1771444 0.57445747 1.4685935 -1.2406946 -1.0732775 0.99628127 1.2742418 -0.5469374
-1.0859027 -0.50267965 -0.3960918 1.2413431 1.530023 1.1469231 1.2119243 -0.94697833
-0.9852371 -0.33044714 -1.5757002 1.2158567 -1.4170136 -1.0850825 0.6575019 -1.5140479
-0.2529914 1.3065256 1.2760377 -1.1944658 -1.6177671 -0.078804985 1.176661 -1.1488919
-0.7452314 0.9270611 1.3348082 -0.571377 -0.37345532 0.024577962 -0.36236453 -0.90056735
1.1746124 -0.3942894 -0.66900456 -1.3044025 -0.72444725 0.9385276 -1.0716027 -0.5390193
-2.2560208 1.0260856 -0.31159228 1.5548235 0.12738174 1.0826613 -1.2201473 1.4680955
-0.70340073 -1.1025354 -0.2486919 -0.75453794 -0.0012646016 -0.7471791 -0.9978111 0.4789195
0.55676526 1.1799369 -0.89440244 0.3081566 1.0477008 0.95076454 -0.87827545 -0.29310608
1.216363 1.3134261 -1.5341738 0.470383 -0.82914007 -0.22741047 -0.71379584 -0.28905028
1.4082272 -1.4136587 -2.029219 1.1733463 -0.8829959 -1.0069355 -1.3676413 -1.4862217
1.9264965 -0.28522444 -0.85523695 1.3315103 -0.011158655 1.3428891 -0.41283986 0.012835641
-1.0733025 -0.28621718 1.2108111 1.1460885 -0.08896191 -1.2266115 1.0784882 0.53076893
1.2378677 -0.95031065 0.3510121 -1.0581402 1.2770092 -0.4789541 1.6002587 -0.73169845
-0.5492635 -0.86395895 -0.9609726 -0.4155663 -0.22671531 -0.082057275 -0.85672396 -0.087669
0.34453905 0.5581008 0.4745444 -1.0966805 -1.0576034 -0.59121853 -0.30605948 -1.0013942
-0.33478737 -0.5058036 0.5147016 -0.80026346 1.3574886 0.63243943 -1.1177527 -0.18042132
-1.1406405 1.1003242 -0.7681113 0.6607971 -1.2840558 1.0338011 -1.2866689 -0.49886036
-0.06758087 -0.7689775 1.36708 0.89842 0.35236982 -0.11310749 -0.12306042 1.1463879
-0.700508 -0.5470945 1.0667802 -0.9609611 1.1882869 1.0488856 -0.2706069 -0.29409105
0.5817913 -0.26327014 -0.17310135 -0.21464184 -0.4202971 -0.8747963 -0.27717805 -1.0981684
0.99793893 -0.58659285 -0.65063035 1.0056777 1.3017828 -1.2065752 -0.39402428 1.1514723
1.4691635 2.147621 -1.4492708 -0.8166546 -1.1131327 -1.0328913 1.3699232 -0.66137254
0.4377925 -1.047124 -0.99983394 -0.5930744 0.7538953 -0.780075 -0.633963 -0.21118091
-0.23529524 -0.7128965 -0.85028994 -0.7582396 1.2265275 0.78653705 -0.8894132 -0.6953469
-0.91694677 -0.70782256 -0.96961427 1.3407809 0.23385167 0.47076264 0.046015333 0.55652356
