data/AntPyBulletEnv-v0_sac_grad_True/AntPyBulletEnv-v0_sac_grad_True_s0/pyt_save/model.pt (torch_old, 920366 bytes, 18 tensors)

weight f4 [256, 28]
000000 de ed 1c 3f 93 af d3 3f 3d 3b b4 be 60 f0 41 3e
       0.61300457 1.6537956 -0.35201445 0.18939352
000010 c3 c1 e2 3e 3a d5 12 3f e1 8c ff be f8 93 17 3f
       0.44288453 0.5735661 -0.4991217 0.5921016
000020 6f fc 2a 3f fc 45 15 3e ce 70 1c 3e f7 7c 0c be
       0.66791433 0.14577478 0.15277407 -0.13719545
000030 f2 b7 cc be 98 08 5b bf b7 84 b6 be 97 20 d3 be
       -0.3998409 -0.8555999 -0.35648128 -0.41235802
000040 ef 16 d3 3e b3 4d 1a 3e 97 7f 69 bd bd 93 03 be
       0.41228434 0.15068702 -0.057006445 -0.12849326
000050 27 63 36 3e 5b 5f 7d 3e be bb 02 be fa e2 07 be
       0.17811261 0.24743406 -0.1276693 -0.13270178
000060 cd f1 36 3e 0d 12 79 3e be 09 95 bc 48 e3 36 bd
       0.17865677 0.24323292 -0.018193122 -0.044650346
000070 03 24 b6 3e 36 b5 0e 3f a1 71 77 be 18 2c 8f be
       0.3557435 0.55745256 -0.2416444 -0.27963328
000080 b6 ba a6 3f 39 28 14 bc 14 1b 3d 3d 08 9a c3 bd
       1.302573 -0.009042793 0.0461684 -0.095508635
000090 98 23 95 be 64 8c 5b be 85 69 4e be 05 29 32 be
       -0.29128718 -0.21440274 -0.2015744 -0.1739846
0000a0 3a 7b 50 3e a7 12 ab be ad 9c 11 3d 10 f4 ba bd
       0.20359507 -0.33412668 0.03554981 -0.091285825
0000b0 34 17 6f 3e cb 02 03 be a6 3c 40 be ca 0d 46 be
       0.23348695 -0.12794034 -0.18773136 -0.19341198
0000c0 b6 78 17 3d 6d 4d 36 3f b8 7d 67 3c c6 b7 88 bd
       0.036980353 0.7121189 0.014129095 -0.06675677
0000d0 a4 33 ef 3e a0 cb f3 bd 76 6d 7e 3e e7 b8 b7 bf
       0.46719086 -0.11904073 0.24846444 -1.4353303
0000e0 d0 71 df 3e dd 03 b0 bf cd 9e 9f be e8 6d 82 bc
       0.4364152 -1.3751179 -0.31175843 -0.015921548
0000f0 81 2f fa be e2 3e 14 40 12 fd be 3e e5 b9 5a bc
       -0.48864368 2.316338 0.37302452 -0.013349985
000100 d1 e0 de be 0f 8e e8 3d 70 94 a9 be 7a 4d 0b 3f
       -0.43530896 0.113552205 -0.3312106 0.54415095
000110 ed c1 b6 bd 60 10 09 3f d1 d4 4d be 2c 28 6c 3e
       -0.08923707 0.5354061 -0.20100714 0.230622
000120 ba ee 9d 3d 2b 72 08 3e 4f 37 c1 3d 3a 0c 3a 3f
       0.07711549 0.13324802 0.094343774 0.72674906
000130 d9 5f 4e be 2e 5c e0 be 28 58 d1 3e ea df 84 bf
       -0.2015375 -0.43820328 0.4088757 -1.0380833
000140 ba d3 99 bf 11 5c 55 3e 5a b8 4a 3c 8f 27 8a 3d
       -1.2017739 0.20835902 0.012373054 0.067458265
000150 e6 22 a5 3d ff a4 f4 be 81 2b ec be 8c 1f 4a bf
       0.08063297 -0.47782132 -0.4612694 -0.78954387
000160 eb df 93 bf 38 a2 88 3f 9b cc 5a bf 45 30 b6 3f
       -1.1552709 1.0674505 -0.85468453 1.4233481
000170 31 cc fe 3d b4 98 62 be 6b ac a4 bd b3 46 80 bc
       0.1244129 -0.22128564 -0.080406986 -0.015658712
000180 e5 da dd be b5 a4 d9 be 64 a8 82 be 40 60 75 bf
       -0.43331066 -0.42508474 -0.25519097 -0.9584999
000190 05 e0 5e bf a1 fc 33 bd cc d0 86 be 35 fe 3f 3f
       -0.87060577 -0.043942098 -0.26331174 0.74997264
0001a0 fc aa db be 95 ce 48 3e f1 45 d6 3d 0c bf ae 3e
       -0.42903888 0.19610055 0.10462559 0.34130132
0001b0 60 ca dd bd 75 d8 57 bf 4c cd b8 be f5 01 06 bf
       -0.108296156 -0.8431466 -0.3609413 -0.52346736
0001c0 c4 2d 49 3e ad b1 08 3f ba dd 3a bf 44 d1 06 3e
       0.19646364 0.5339611 -0.7299458 0.13165766
0001d0 3b 85 02 bf b0 a4 5e 3f 52 9f 4d bf 17 66 88 3f
       -0.50984544 0.86970043 -0.8032123 1.0656155
0001e0 1c e2 69 be a3 7a 42 3e 3f b4 18 bd 37 44 07 3e
       -0.2284016 0.18992095 -0.03728127 0.13209616
0001f0 57 be 0a bf 38 aa 1e 3d 15 02 4e bf ae 63 2a bf
       -0.54196686 0.038736552 -0.80471927 -0.6655835
000200 1e 4e 00 3e 32 52 b7 be ba dc 9b 3b 31 6b 41 bf
       0.125298 -0.35804898 0.0047565373 -0.75554186
000210 b9 a5 03 bf 6f 70 5c 3e a0 dd 1b be ac 0f 02 3f
       -0.5142475 0.21527265 -0.15221262 0.50805163
000220 bb f0 fc 3b f9 28 85 bc 87 09 c7 be eb 63 80 3e
       0.007719127 -0.016254889 -0.38874456 0.2507623
000230 e4 dc 12 3f 4a f4 a0 3f a2 78 86 bd fa f2 a3 3f
       0.573683 1.2574551 -0.06565978 1.2808526
000240 dc 33 81 be a7 a2 f0 3e 0a 16 30 bf 60 a0 72 3d
       -0.25234878 0.46999094 -0.6878363 0.059234977
000250 41 b3 57 3e a3 6b e2 3e 16 0d 46 bf 6c 9e 4e be
       0.21064474 0.44222745 -0.7736372 -0.2017762
000260 8e 21 dd 3c 2d a3 f6 3e 84 20 8d 3d 37 45 00 3f
       0.02699354 0.48171368 0.068909675 0.50105613
000270 a4 91 af bd e3 75 38 be 50 34 c9 be b6 25 85 3c
       -0.085727006 -0.1801372 -0.39297724 0.016253334
000280 ec a6 62 be d7 8b ce be 06 71 23 3e 0a f4 51 be
       -0.22133988 -0.40341064 0.15961084 -0.2050325
000290 b2 76 51 be ad dc 9a 3e b6 c7 4a be b4 6e e5 be
       -0.20455435 0.30246487 -0.19802746 -0.44811022
0002a0 0a 57 cf 3c d2 cc 87 bf 10 1a e5 bd c4 c7 75 3e
       0.025310058 -1.0609381 -0.11186612 0.24001986
0002b0 53 f2 8a bf 5e 49 f1 3e 56 4c 53 bb c9 ad 85 3f
       -1.0855201 0.47126287 -0.0032241545 1.044366
0002c0 79 c6 9e 3e 4c af 9e be 0d bb a4 3d 10 21 e5 be
       0.31010798 -0.30993116 0.080434896 -0.44751787
0002d0 33 26 fb bd 5c c3 c9 bd 97 90 66 be 5e 59 50 bc
       -0.12263145 -0.09851715 -0.22516094 -0.012716619
0002e0 f1 61 a1 bd 39 d7 b0 3e 72 a7 af be 72 8d e1 3e
       -0.07880009 0.34539202 -0.34307438 0.44053227
0002f0 4d 2d 18 3f 60 4d 9a 3f 35 94 33 3e 48 05 a8 be
       0.59444124 1.2054863 0.17537005 -0.3281653
000300 3f 0e 9c be b3 e6 19 bf 25 ad 19 bf c4 f7 80 bf
       -0.3047962 -0.60117644 -0.6002982 -1.0075612
000310 7a 6e be 3e 4a 85 fd 3e 7d c3 91 be 07 66 91 3e
       0.37193662 0.49515754 -0.28469458 0.28398153
000320 8a e8 cb 3d b9 53 80 3e d0 7e 0d bd 82 db 33 bf
       0.09956463 0.25063875 -0.034544766 -0.7025682
000330 e0 85 9c 3d 76 a5 3e be 90 fc 89 be 3a 4b b9 3e
       0.07642722 -0.18617806 -0.26950502 0.36190206
000340 56 94 c3 3e fa 59 c2 3c ea 84 9a 3c fa 94 8d be
       0.3819911 0.023724545 0.018862206 -0.27652723
000350 e1 d8 ad 3e 62 6e 89 3e 20 4d c3 be 8d 91 bb bd
       0.33954528 0.26842028 -0.3814478 -0.09158621
000360 d0 81 d4 be d4 30 0b bf f5 68 08 3f 4a 0e 89 3f
       -0.4150529 -0.5437138 0.5328515 1.0707486
000370 a7 85 70 bd a2 07 2f 3d a1 15 88 be f0 21 24 bf
       -0.05872121 0.04273189 -0.26579002 -0.64114285
000380 61 cb 71 bf 7c a3 93 3f 32 09 a2 be 30 7c 05 3f
       -0.94450957 1.1534266 -0.3164764 0.5214262
000390 51 38 d4 be b8 ce 90 bf 6e 57 8b 3d 8d eb c8 3e
       -0.41449216 -1.1313086 0.06803785 0.3924221
0003a0 6f 11 80 3e d0 71 43 3e f8 7e 0e 3f 52 49 20 3e
       0.250133 0.19086385 0.5566249 0.1565297
0003b0 03 7f 71 3e ca 40 3e be 79 3e fd bd 83 08 76 3e
       0.23583607 -0.18579403 -0.12365431 0.24026684
0003c0 73 c6 42 be a2 ce 20 3f 5a 8b a4 3e 6f d3 62 3f
       -0.19021015 0.62815297 0.32137567 0.8860387
0003d0 1b f1 27 3e 73 59 89 be 14 5c b1 3e b4 44 db be
       0.16400568 -0.26826057 0.34640563 -0.42825854
0003e0 3e 56 0a bd eb 48 83 be 68 1c de be 26 43 1b be
       -0.033773653 -0.2564157 -0.43381047 -0.15162334
0003f0 60 ba 7c 3e 9a 02 45 be 02 b3 07 bf f9 2c cc 3e
       0.24680471 -0.19239274 -0.5300752 0.3987806

bias f4 [256]
000000 55 2e b6 be 29 b0 b7 be b1 8b b7 be 80 24 ae be
       -0.35582224 -0.35876587 -0.35848764 -0.34012222
000010 9c 36 2d bf 84 d9 35 be f8 d4 25 be dc b8 10 be
       -0.6766145 -0.17758757 -0.16194522 -0.14133018
000020 61 02 f9 bd cc 83 ac be 01 29 1c bf 61 54 00 be
       -0.12158657 -0.33694303 -0.61000067 -0.12532188
000030 d5 c3 fa be 98 51 80 bf a5 ce 62 bf f1 89 0a bf
       -0.48977533 -1.00249 -0.88596565 -0.5411673
000040 0f 1f 05 bf 36 b5 40 bf 94 44 d8 be 8c cc 9b be
       -0.52000517 -0.75276506 -0.4223982 -0.30429494
000050 10 c9 44 bf 31 c3 8d bd 6d 31 2a 3e 8e ea 15 bf
       -0.768693 -0.069219954 0.16620417 -0.5856103
000060 59 db cf be 65 1e 1d bf 0e fc 30 bf 07 d0 f1 3e
       -0.40597036 -0.61374503 -0.69134605 0.47229025
000070 e9 21 c3 be 1e 4d 22 bf f9 77 c3 be a5 d4 57 bf
       -0.3811181 -0.6339892 -0.3817747 -0.84308845
000080 dd b0 01 bf 90 fc bc be e9 f0 04 bf f7 c1 17 be
       -0.50660497 -0.3691144 -0.519301 -0.14820085
000090 98 35 96 be fe 42 28 bf 98 8a e5 be ab 6e c8 bd
       -0.29337764 -0.6572722 -0.448323 -0.09786733
0000a0 42 3a a9 be 44 ee 39 bd cb 49 33 bf 01 59 3a bd
       -0.3305226 -0.045393243 -0.70034474 -0.045495037
0000b0 42 2b 17 bf 8b 94 57 be 31 7b 2e bf cc 3d df be
       -0.5905038 -0.21052758 -0.68156725 -0.43601835
0000c0 d4 10 5b bf 95 71 f2 be d3 06 8a bd f8 dd a2 be
       -0.8557255 -0.4735228 -0.06739583 -0.31809974
0000d0 31 6b f2 be d4 3e 60 bf 5c b5 02 bf a8 77 2d bf
       -0.47347406 -0.8759587 -0.5105798 -0.67760706
0000e0 2f dc 3e 3d 63 c6 51 bf 1a fc 24 bf f6 a9 02 bf
       0.046596702 -0.8194334 -0.64447176 -0.5104059
0000f0 7e 86 7b be ec fc 38 bf ec 33 06 be b1 cf 97 be
       -0.24563023 -0.7226093 -0.13105744 -0.29650643
000100 a9 62 36 3d 2b be 47 be fc 99 a4 be 74 4d 4f be
       0.044527683 -0.19506137 -0.3214873 -0.2024439
000110 0d 8c 14 be a2 73 36 bf 85 c3 76 bd c3 5a d7 be
       -0.1450655 -0.7127019 -0.060245056 -0.42061433
000120 9e 44 30 bf 9a 9e f6 be c0 85 3e bd 67 08 9a be
       -0.688547 -0.48167878 -0.046514273 -0.30084535
000130 7b 32 08 be 03 e9 bf be b3 5b 07 bf d8 42 26 bf
       -0.13300507 -0.3748246 -0.52874297 -0.64945745
000140 6c 7c 00 bf 6d f9 52 bf ad bc f5 be ed 8d 0d bf
       -0.5018985 -0.82411844 -0.4799551 -0.55294687
000150 5e 15 55 3e bd 6f e8 be b9 bc 82 3b 2b b4 1a bf
       0.20808932 -0.4539775 0.0039897827 -0.60431165
000160 12 15 e7 bd 71 1c e2 be 28 f9 dc be 7d 63 3b bf
       -0.11283316 -0.44162324 -0.4315884 -0.7319868
000170 6e 29 1a bf ab b5 28 bf cf c9 a5 be 62 9b a0 be
       -0.60219467 -0.65902203 -0.3238053 -0.31368548
000180 96 45 f4 be 7a 66 30 be a1 46 8f 3e 8a 84 3d bf
       -0.4770934 -0.17226592 0.27983573 -0.74030364
000190 44 5b 85 be 3f ab a1 bc 3a e0 b8 be af 36 64 bf
       -0.26046193 -0.019734977 -0.3610857 -0.8914594
0001a0 06 c5 a4 be af 30 0e bf f6 85 59 bf 29 b9 54 be
       -0.32181567 -0.55543035 -0.84970033 -0.20773758
0001b0 b3 47 1d be 0c de 53 bf 05 64 94 be 41 ee 3c bf
       -0.15359382 -0.8276069 -0.2898256 -0.73801047
0001c0 62 af 22 bf b8 1c c6 be 11 f1 fd be 1b f6 aa be
       -0.6354886 -0.38693786 -0.49597982 -0.3339089
0001d0 7a 04 b1 be 1b cc 2e bf 9f 08 30 bf 8e bc 27 3e
       -0.34573728 -0.6828019 -0.68763155 0.16380522
0001e0 70 cf 67 bf 97 d7 64 be 13 4c 2e be 40 c8 f7 3d
       -0.905509 -0.22347866 -0.17021208 0.120987415
0001f0 ef 80 df be d3 d7 50 bf 47 1d b4 be 9d 3e 04 bf
       -0.43653056 -0.8157932 -0.35178587 -0.5165804
000200 86 e5 00 bf 7e f2 1f bf f5 4a 75 be 32 7d 10 bf
       -0.50350225 -0.6247939 -0.23954375 -0.5644103
000210 1b ea 1a bf a8 94 30 bf be d2 27 bf 25 b2 51 be
       -0.60513467 -0.6897683 -0.6555594 -0.20478113
000220 26 a9 16 bf b0 9d ac be 2f 7f 09 bf 1d 5c ac be
       -0.5885185 -0.33714056 -0.5370969 -0.33664027
000230 e1 e0 b6 be cf c3 05 bf a4 32 ca be 18 52 f5 be
       -0.35718444 -0.52251905 -0.3949176 -0.47914195
000240 e2 34 66 be 57 f5 0e bf 17 a0 39 bf 76 eb 7c be
       -0.2248111 -0.5584311 -0.725099 -0.24699196
000250 4e f7 2a bf 73 c5 61 bf 87 76 d4 be 2a 39 93 be
       -0.66783607 -0.8819191 -0.4149668 -0.2875455
000260 dd 13 b9 3e 0a dc 64 bf d5 72 3e bf 3d fc 26 bf
       0.36147967 -0.8939825 -0.7439397 -0.65228635
000270 49 45 2a be 66 bb ee be 82 d3 96 be 25 6d ae be
       -0.16627993 -0.4662735 -0.29458243 -0.34067646
000280 93 8a 6f be 20 7a b0 be 6d 6a 1e bf d2 db 94 be
       -0.23392706 -0.34468174 -0.6188114 -0.2907396
000290 e5 20 ec be 55 71 9c be 59 e4 73 bf 50 5e 01 bd
       -0.46118847 -0.30555215 -0.95270306 -0.031584084
0002a0 80 5a d8 be 2a 25 2b be 7e 90 d4 be f4 45 3c bf
       -0.42256546 -0.16713396 -0.4151649 -0.7354424
0002b0 c3 3b b4 be 41 b2 45 bf 73 7a 7e be 67 e4 0e be
       -0.35201845 -0.7722512 -0.24851398 -0.13954316
0002c0 db b2 e2 bd 5a 65 cc be de 6e 1b bf 3c af 58 bf
       -0.1106927 -0.39921075 -0.60716045 -0.84642386
0002d0 73 d3 9c be 9b b3 67 be 90 92 b1 be b7 6e f1 be
       -0.30630073 -0.22627108 -0.3468213 -0.4715478
0002e0 a4 c7 4c be 92 dd 0e bf 1e 7b 30 bf da 76 03 bf
       -0.19998032 -0.5580684 -0.6893786 -0.5135323
0002f0 88 a4 31 bf fb e0 5d bf dc e6 f2 be f3 f6 cc be
       -0.6939168 -0.8667142 -0.47441757 -0.40032157
000300 e6 5b ca be 6c 09 11 bf 2e 3b 72 be 37 06 95 be
       -0.39523238 -0.56655 -0.23655388 -0.29106304
000310 8b 56 01 bf 24 e3 70 be 43 11 fe be 06 f6 d2 be
       -0.5052268 -0.23524147 -0.49622545 -0.41203326
000320 85 6a 38 bf f8 2e 13 be 0e bd ee bd d5 c3 e7 be
       -0.72037536 -0.14373386 -0.11657153 -0.45266595
000330 2a e6 0f bf 0d 50 84 be d2 05 0a bf b4 96 ad be
       -0.5621058 -0.25842324 -0.5391513 -0.3390404
000340 39 41 75 be a7 32 9a be c3 7f eb 3d ee 9e 8c bf
       -0.23950662 -0.3011677 0.11498978 -1.0986001
000350 ea d7 02 bf ee 64 10 bf 07 89 56 be 58 91 1d bf
       -0.5111071 -0.56404006 -0.2095071 -0.615499
000360 77 0b 16 bf f2 b9 e2 be 84 d1 7d be d3 39 47 bf
       -0.58611244 -0.4428249 -0.24786955 -0.7782261
000370 d8 76 10 bf 3e 0a 89 be 2a bf ee be 00 28 00 be
       -0.5643134 -0.26765627 -0.46630222 -0.12515259
000380 92 17 27 bf 76 e3 36 bf 58 4b f3 be b8 da c6 be
       -0.6527034 -0.7144083 -0.4751842 -0.38838744
000390 f6 9c 7b be 3c a8 e8 be d8 f8 1f bf 4d 83 a8 be
       -0.24571595 -0.45440853 -0.6248908 -0.32912675
0003a0 70 82 e0 bd 21 e7 20 bf 53 0e 44 bf 7c 60 82 be
       -0.10962379 -0.62852675 -0.7658436 -0.25464237
0003b0 c7 2d 6c be 81 a4 17 bf 6c 15 27 bf 9f 60 c5 be
       -0.23064338 -0.5923539 -0.6526706 -0.3855028
0003c0 dd 72 4b bf 57 23 2c bf d0 76 21 be b4 df 92 be
       -0.7947214 -0.67241424 -0.1576798 -0.28686297
0003d0 8b 24 0d bf 66 8b dd be d8 ec 4f be 99 2d 89 be
       -0.55133885 -0.43270415 -0.20305192 -0.267926
0003e0 82 e2 fc be f7 42 2f bf 57 4e b0 bd 6e 39 2b bf
       -0.49391562 -0.68461555 -0.08608692 -0.66884506
0003f0 db 7a d5 be 8b bb c5 be 47 71 94 be 0e b3 09 be
       -0.41695294 -0.38619646 -0.28992674 -0.1344721

weight f4 [256, 256]
000000 58 7a 54 bf 6c 7a 1a bf 2a c8 34 be 47 cd 00 bf
       -0.8299918 -0.6034305 -0.17654482 -0.5031323
000010 10 4c 6d bf b8 cf 88 3d 11 64 15 3e e2 91 80 3e
       -0.9269419 0.06680244 0.14588954 0.251113
000020 42 c9 e6 be d4 07 98 3d ee 10 0f 3e 0e 0c ca be
       -0.45075423 0.07423368 0.13971302 -0.39462322
000030 07 3c 17 bf e8 b1 97 be 34 aa 19 bf 66 89 d0 be
       -0.5907597 -0.2962792 -0.60025334 -0.40729827
000040 ff 3b 33 3e b5 b2 d8 3d f0 60 4b bf 36 49 9b 3b
       0.17503355 0.10580961 -0.7944479 0.004738952
000050 a0 82 10 be 89 6f b6 be d7 10 09 bf 5d 92 89 bf
       -0.1411233 -0.3563197 -0.5354132 -1.0747792
000060 8b 28 09 bf 87 c3 cb bf a1 c8 c4 bb ec e6 52 bf
       -0.5357749 -1.5919045 -0.006005362 -0.8238361
000070 62 5b 44 bf f5 50 0a bf 1e 4e 16 bf 53 1f f5 be
       -0.7670194 -0.5402978 -0.5871295 -0.4787546
000080 81 bc 8c bf 42 7d a4 bf 3b 50 2f bf 9e 8c b0 be
       -1.0995027 -1.2850726 -0.68481797 -0.34482282
000090 21 65 84 be 80 52 c8 bb 76 0a 78 3e 02 2e ca be
       -0.25858405 -0.0061133504 0.2422274 -0.39488226
0000a0 15 2c 60 3d eb 18 12 bf 2c 81 01 be 72 e8 0e be
       0.05472954 -0.5706927 -0.12646931 -0.13955858
0000b0 b5 95 25 bf 53 b4 82 bf 12 f0 0a be bc d2 70 be
       -0.6468156 -1.021128 -0.13568142 -0.23517889
0000c0 c1 ea d9 be 1e 06 84 bf 6f 5f 00 bf 3f 29 5c 3d
       -0.42561916 -1.0314367 -0.5014562 0.053750273
0000d0 d0 f6 df bd 58 dc a9 3d e8 ff 04 bf 5e ee a8 be
       -0.109357476 0.0829398 -0.5195298 -0.3299436
0000e0 45 73 46 bf ae c0 21 bf fb a0 f3 be a6 52 fa 3b
       -0.7751964 -0.6318463 -0.47583756 0.007639247
0000f0 4b c1 9b be 76 92 23 bf 37 88 99 3e 30 ed 18 bf
       -0.30420908 -0.63895357 0.29986736 -0.5973692
000100 4a 32 1e bf 97 56 95 bc 1e a1 c9 bc d7 74 e9 bd
       -0.61795485 -0.018229766 -0.02461296 -0.113992386
000110 32 76 c7 bd 1b ac 6b 3e bb 36 df 3d 39 93 3f bf
       -0.09739341 0.23014872 0.10899111 -0.7483402
000120 58 91 78 3e 84 02 f0 3e 6b 54 91 bc 29 be 81 bd
       0.24274194 0.4687692 -0.017740449 -0.06335098
000130 22 3a 95 be 1d 6c 2a bd a8 09 51 be 42 89 88 3e
       -0.29145914 -0.04160701 -0.2041384 0.2666722
000140 19 4f dd bd 54 ad 51 bf 33 52 57 be 17 4d e5 bc
       -0.10806102 -0.819051 -0.2102745 -0.02799086
000150 0e 87 17 3f 7e 1d 0f 3e 1d aa 8e be 48 49 88 bd
       0.5919045 0.13976094 -0.2786416 -0.06654602
000160 52 9c bd bc f9 16 7e 3e 3d d8 86 3e 50 23 ea be
       -0.023145828 0.24813451 0.26336852 -0.45730066
000170 c7 4e 00 be 85 33 38 bf 90 75 b6 3d cf 82 fa be
       -0.12530051 -0.7195361 0.08909142 -0.48927924
000180 3d 9a 5f be 70 e9 d3 3e 81 76 80 be 4a b3 f5 bc
       -0.21836181 0.41389036 -0.2509041 -0.029992718
000190 9e b3 89 bf c0 a4 b2 bd 31 ff b9 be c2 68 f6 bd
       -1.075794 -0.0872283 -0.36327508 -0.120317
0001a0 02 86 89 bf 76 85 4f 3e 01 95 04 3f 63 74 37 3e
       -1.0744021 0.20265755 0.5178986 0.17915492
0001b0 78 9f d2 be 91 1a a9 3d 4c 4e 9e bf 35 20 3e 3e
       -0.4113729 0.0825702 -1.2367644 0.18566974
0001c0 5a 15 30 3f e3 7b e0 3d 4a 71 b5 be 49 b7 4b bf
       0.6878258 0.109611295 -0.35437995 -0.79576546
0001d0 cb de f1 3b 2b de 88 bc 7f ec ee 3c e2 37 92 be
       0.0073812953 -0.0167075 0.029165505 -0.2855826
0001e0 a3 a1 4f 3f fa ef 47 3e f3 7e 40 bf fc cb ea be
       0.81106013 0.19525138 -0.7519371 -0.45858753
0001f0 6c dc 82 bf f8 49 e4 bf 03 9d f5 3e 3a 7b 81 be
       -1.0223517 -1.7835073 0.47971353 -0.25289327
000200 24 49 9a 3e 47 98 18 3e 58 23 59 bf 77 ee 9d be
       0.30133927 0.14901839 -0.84819555 -0.30845997
000210 ac cb db bd 1c 9e 27 bf df 4e ab 3e ac 4d 1f bf
       -0.10732207 -0.6547563 0.3345861 -0.6222789
000220 5b 55 99 3e 0e 5f d0 be d0 bf a8 3e 51 8c cf be
       0.29947934 -0.4069752 0.3295884 -0.4053674
000230 dc 2b 95 be 49 27 f7 be ad 55 cb bd a7 bc 4d 3e
       -0.29135025 -0.4827216 -0.09928451 0.20091496
000240 85 67 17 bf 72 5f 2d bf b1 93 98 bf 47 e7 ce 3b
       -0.59142333 -0.67723763 -1.1920072 0.0063141915
000250 9b d0 22 bf 1e e1 7e bf 32 b7 24 3e 10 55 1f 3d
       -0.63599557 -0.9956225 0.16085508 0.03889948
000260 d0 b5 25 bf 52 c2 5b be 18 08 0a 3f e4 b1 51 bf
       -0.6473055 -0.21460846 0.539186 -0.81912065
000270 d8 1e 0f be ff 40 8e 3d ad f3 df 3c 4c c0 a9 be
       -0.1397661 0.06945991 0.027337873 -0.33154523
000280 7b db e0 be b0 2b bb be 0a 22 09 bf 41 51 34 3e
       -0.4391745 -0.36556768 -0.53567564 0.17609121
000290 41 2d af 3d 72 91 45 bf f7 b6 9e 3c 94 3a 2a bf
       0.085535534 -0.77175057 0.019374354 -0.66495633
0002a0 fd fa c9 3d 5f ce 22 3d 7b d4 0b 3e 27 a9 55 bf
       0.09862325 0.039747592 0.13655274 -0.8346123
0002b0 77 5c 4e bf 34 4d 26 be 7c 98 b4 bf ca 1a f5 be
       -0.8060984 -0.16240388 -1.4109035 -0.47872
0002c0 ff 63 c3 be 9f 1f ba be 84 a0 db 3e 4a 38 fe 3d
       -0.38162228 -0.3635225 0.428959 0.1241308
0002d0 b8 e7 9e 3e d9 a8 ed be c7 d5 73 3e ff e1 1b bf
       0.31036162 -0.46417883 0.23812018 -0.6089172
0002e0 30 c5 22 be d9 5d 10 3f 2d ce 42 bf a9 82 53 bf
       -0.15895534 0.563932 -0.7609585 -0.82621247
0002f0 aa 6e b0 be 68 4b 1d 3e 96 87 aa be b5 8f 25 bf
       -0.3445943 0.15360796 -0.3330657 -0.64672405
000300 db 44 87 bf 11 49 eb 3d c9 de 54 bf 6c f6 5c be
       -1.0567888 0.11488546 -0.83152443 -0.21578377
000310 fa 0e 06 be 8b 92 eb be 67 8d 60 be 4a 87 85 3b
       -0.1309165 -0.4601024 -0.2192894 0.0040749656
000320 96 8e a8 be a8 24 c3 3e b8 72 a8 bd e5 a5 8f bf
       -0.32921284 0.38113904 -0.08225006 -1.1222502
000330 26 a6 3c be 02 c0 0a bf c9 8b ff be b0 88 3a be
       -0.18422756 -0.5419923 -0.49911335 -0.18216205
000340 d1 21 49 bd 57 64 bf be 82 10 01 bf a2 49 6c 3d
       -0.049104515 -0.3738124 -0.50415814 0.05768741
000350 9d 8a 20 bf 0f 46 4f bf c3 36 cd be ea 2b 1b 3f
       -0.6271151 -0.80966276 -0.40080842 0.6061388
000360 e4 df a7 bd ba 2f a8 3e 3f bd 24 bf e6 d7 59 3e
       -0.081970006 0.32848912 -0.64351267 0.21273765
000370 59 b2 0d bf af 0a c6 bd 0a 27 2c bf ee fd 0f bf
       -0.5535026 -0.096700065 -0.6724707 -0.5624684
000380 f3 dc 3a bc 31 e4 d5 be 34 d7 b0 be c3 27 53 3f
       -0.011405217 -0.4177566 -0.34539187 0.82482547
000390 a3 54 41 bf 97 04 1f bf ae ea dc 3d f9 7e 1d 3e
       -0.7551977 -0.6211638 0.10786949 0.15380467
0003a0 e7 72 a5 bf 35 76 9c 3d d8 15 8a 3e 2b 74 25 3e
       -1.292569 0.07639734 0.2696979 0.16157596
0003b0 4d 37 80 bf e2 77 22 bf 65 f9 4a bf 8b f6 2f bf
       -1.0016876 -0.63464177 -0.79286796 -0.6873557
0003c0 b3 4c 42 bd bd 78 ac 3c 66 4d 61 bf 26 08 33 bf
       -0.047436427 0.021053666 -0.88008726 -0.6993431
0003d0 ae 97 03 bf bd cc 51 3c 30 5a 73 3e 01 3a 41 be
       -0.5140332 0.012805161 0.23764873 -0.18869783
0003e0 c8 6b 0d bf af eb a5 3e 8b 12 36 3e 17 e1 02 3e
       -0.55242586 0.32406375 0.17780511 0.12781177
0003f0 78 72 70 be 02 74 91 be 85 6b aa bd c5 2e 0f be
       -0.23481166 -0.2840882 -0.08321289 -0.13982685

bias f4 [256]
000000 7d af 9e be 0a 3a 16 be 90 2e 88 be 2d 2f 1a bf
       -0.30993262 -0.14670578 -0.26598024 -0.60228235
000010 e5 ed d3 bd 60 da 7b be c5 7a a0 be ad 17 65 be
       -0.10348109 -0.24595022 -0.31343666 -0.22372313
000020 52 04 b0 bd 06 8d c7 be 53 f1 83 be 93 68 0c be
       -0.08594574 -0.3897478 -0.25770053 -0.13711767
000030 a4 f5 f8 bd ae a1 34 be 9a db 49 be 01 55 7f be
       -0.12156227 -0.17639801 -0.19712678 -0.2493477
000040 25 35 a8 be 24 83 b0 be 86 68 ae bd 0a 54 2c be
       -0.32853046 -0.34475052 -0.0851603 -0.16828933
000050 5f 41 21 be c3 ab 80 be 20 80 05 be b9 21 06 be
       -0.15747593 -0.25131044 -0.13037157 -0.13098802
000060 3f 60 c0 3d 4a 0d 97 bd 42 75 8a 3e 78 7a 1b be
       0.093933575 -0.073755816 0.27042586 -0.15183437
000070 89 96 a6 bd 19 01 b8 3d 01 6f 24 bf 20 3a 8e be
       -0.08134181 0.08984584 -0.6423188 -0.2777872
000080 3b 50 0b be f9 7f 5c be cd 1a 36 bf 4d d4 b7 3b
       -0.13604824 -0.21533193 -0.71134645 0.005610025
000090 20 7e 91 be f8 2b 4e be ae a5 38 bf 5a 72 6e 3d
       -0.28416538 -0.2013396 -0.7212781 0.058214523
0000a0 ec b4 da bd fa e9 e7 bd 7f 1f 0b be 03 0a b8 3e
       -0.10679039 -0.11323924 -0.13586234 0.35945138
0000b0 bf ff f6 bd da 7e e7 bd 7c 86 60 be 4a 26 f6 bd
       -0.120604984 -0.11303492 -0.21926302 -0.12019022
0000c0 6f 38 8f 3e 3d 1d 16 be 57 b5 3c be 3b d3 a8 be
       0.27972743 -0.14659591 -0.1842855 -0.32973656
0000d0 3b 73 ac be ab 9b 18 be 30 be 04 be 82 42 8d bf
       -0.33681664 -0.14903133 -0.12963176 -1.1035922
0000e0 26 53 9b be a9 22 0e be 44 75 68 be 13 c1 8b 3d
       -0.30336875 -0.1388041 -0.22700983 0.06823935
0000f0 26 a2 8c be ee d5 86 be 11 c7 fc 3a c5 cc 28 bf
       -0.2746746 -0.2633509 0.0019285401 -0.65937454
000100 e1 67 8f be 45 d0 36 bd 01 08 b4 be 54 0c 20 be
       -0.2800894 -0.044632215 -0.35162356 -0.15629703
000110 52 0b a3 be 4e 59 d0 be 10 1b 0f 3e 22 30 47 bf
       -0.31844574 -0.40693134 0.13975167 -0.7780782
000120 78 9b 8a be 8e f8 db bd a8 15 90 be 05 7d b0 be
       -0.27071738 -0.107407674 -0.28141522 -0.34470382
000130 df c7 0d be 12 36 81 bf 61 a9 37 3e 62 82 f9 bd
       -0.13845776 -1.0094626 0.17935707 -0.12183072
000140 a0 66 3d 3e 77 3a 83 be 8c df 1d be ca 18 30 be
       0.1849618 -0.25630543 -0.15417308 -0.17196956
000150 f0 24 2f be a5 6f 91 be dc b4 18 be b8 8a f0 be
       -0.17103934 -0.2840549 -0.14912742 -0.46980834
000160 ff 6a 87 3c 84 e3 87 be af f9 36 3e 80 4f c3 be
       0.016530512 -0.26540768 0.17868684 -0.3814659
000170 31 9f 1e be 00 b5 b3 be c1 0a 57 be 61 e0 79 3e
       -0.15490414 -0.3509903 -0.21000196 0.24402
000180 aa 6b 57 bf 83 1a 1f bf 64 c3 4e be 41 8f c3 be
       -0.8414866 -0.6214983 -0.20191723 -0.38195232
000190 4c be 76 be 56 95 33 bf bd 35 cf be fa 80 71 bf
       -0.2409603 -0.70149744 -0.40470687 -0.9433743
0001a0 e9 66 f7 bd bd a1 13 be 2f 2d d5 bd 80 17 3c be
       -0.120801754 -0.14417167 -0.10409009 -0.1836834
0001b0 10 23 76 bd 00 ec 05 be eb e9 15 be b6 59 ea 3c
       -0.060092032 -0.13078308 -0.14640014 0.02860723
0001c0 3a 73 02 be a9 83 e6 bd e8 4a 11 bf fb 53 4d 3e
       -0.12739268 -0.11255581 -0.5675492 0.20051567
0001d0 0b f1 89 be 41 47 f8 be af 51 59 3e 1e 67 33 be
       -0.26941714 -0.48491862 0.21222566 -0.17519805
0001e0 88 da fa bd 9a 6c df bd 16 d3 01 bf c7 a3 06 be
       -0.12248713 -0.10909386 -0.50712717 -0.13148414
0001f0 50 42 fa 3d ba 8e f5 be 85 bd f2 be 43 1f 4c be
       0.12219679 -0.47960454 -0.47410217 -0.199338
000200 27 d0 10 bf a0 a9 05 3e 34 ec 62 be e1 4d 1b bf
       -0.56567615 0.13052988 -0.22160417 -0.6066571
000210 a5 47 54 bf be 7b dd be 92 0d 42 be 98 97 9d bd
       -0.8292182 -0.4325847 -0.18950489 -0.0769493
000220 5a b3 f1 bd 08 8e 49 3e 28 45 f7 be 29 6b 21 bf
       -0.11801787 0.19683087 -0.4829495 -0.6305414
000230 ca 50 25 be bc 9c 26 bf 68 57 18 bf e2 ac 00 3e
       -0.161441 -0.6508291 -0.5950837 0.1256595
000240 b6 da d3 be 23 83 e2 bd bd c2 ba be 50 ef 1d be
       -0.413778 -0.110601686 -0.364767 -0.15423322
000250 22 fa 13 be b5 0b 1c be 1c 16 3f be 69 90 32 3e
       -0.14450887 -0.15238841 -0.18660778 0.174379
000260 67 68 39 be 4d 2e cb 3b 3b 66 26 be a6 68 ee be
       -0.18106233 0.006200588 -0.16249935 -0.46564215
000270 3d be 46 be cd 64 94 be 5a f3 a3 3d 9a 64 85 bd
       -0.19408508 -0.28983155 0.080054 -0.06513329
000280 e8 c7 88 3e 3c 7f 22 bf 1c 2e 6f bf ba a1 bb be
       0.26715016 -0.63475394 -0.9342973 -0.36646825
000290 c5 b4 a1 be 49 cd c7 3d 61 1f 9f 3d b4 6d d3 be
       -0.3158323 0.09755952 0.07769657 -0.41294634
0002a0 d9 01 12 bf 8a cc 9a be 31 69 5b be 67 09 d2 3d
       -0.5703407 -0.30234176 -0.21426846 0.102556996
0002b0 67 cd 0d be 7b f3 da bd 78 44 37 be 01 16 3d bd
       -0.13847886 -0.106909715 -0.17897213 -0.046163563
0002c0 f9 78 e2 be 15 81 4a bf 6b 29 22 be 55 31 aa be
       -0.4423292 -0.79103214 -0.15836112 -0.33240762
0002d0 59 e7 cb bd 88 64 53 3d 2c 43 0c be 31 46 08 be
       -0.099562354 0.051609546 -0.13697499 -0.13308026
0002e0 2b 3c 2e be 5b d5 85 be ff 28 21 be cc 4b 42 bf
       -0.1701514 -0.2613934 -0.15738295 -0.75896907
0002f0 a9 fe 1b be b4 5f f2 3d 43 71 39 be 76 6c c7 be
       -0.15233864 0.1183466 -0.18109612 -0.38949937
000300 90 a8 d1 3b 97 42 81 bd 81 9e b1 be 00 0b 88 be
       0.006398268 -0.06311529 -0.3469124 -0.26570892
000310 47 f5 44 be fb 4b 4b bf 71 48 79 be 3a 33 1a be
       -0.19234191 -0.7941281 -0.2434404 -0.15058604
000320 1e a3 84 be 74 d0 6a bd 65 aa 1e 3e c2 7c b7 bd
       -0.259057 -0.057327703 0.15494688 -0.089593425
000330 0d 09 32 bf 89 72 3e be b9 3c 09 bf 57 63 40 be
       -0.6954506 -0.18598379 -0.5360828 -0.18787895
000340 03 0e f1 bd f8 42 87 bd b4 5c 01 bf ae 31 cb bd
       -0.11770251 -0.0660457 -0.5053208 -0.09921585
000350 57 d1 b1 3e 26 a8 dc be 42 f0 67 3d 83 5f b5 be
       0.34730026 -0.43097037 0.056625612 -0.35424432
000360 2a 28 06 be bf 3c ae be d5 28 84 bd 58 1b 16 3e
       -0.13101259 -0.3403072 -0.064531006 0.14658868
000370 4d f9 24 be 96 5c 88 be d7 e3 d3 be ee b9 18 3e
       -0.16110726 -0.26633137 -0.41384766 0.14914677
000380 34 84 a7 be 6a af 16 bd f9 af 91 be b2 0a 23 bf
       -0.3271805 -0.03678838 -0.2845457 -0.63688195
000390 64 02 07 bf 25 28 71 bd d6 5d 0a be cc 90 47 be
       -0.5273802 -0.058876175 -0.13512358 -0.1948883
0003a0 9c 9f 2e be dc e7 62 bd e9 96 04 bf d0 f4 6a bd
       -0.17053074 -0.0553969 -0.5179277 -0.057362378
0003b0 39 89 da bd a7 f7 b3 bc 07 55 23 bf 22 fe 05 3c
       -0.106707044 -0.021968676 -0.63801616 0.008178266
0003c0 99 99 81 be 0f 73 68 be 33 16 1b be 92 fd b3 bd
       -0.25312498 -0.22700141 -0.15145187 -0.08788599
0003d0 eb 30 36 bf 28 cb 41 be ee 96 5d bf 1d 50 06 be
       -0.7116839 -0.18925154 -0.86558425 -0.13116498
0003e0 be 23 dc bd c7 e1 20 3e 31 37 01 bf a4 e1 bc be
       -0.10749005 0.15711127 -0.5047484 -0.368909
0003f0 e7 6d 6d bf a4 cf 67 3d a4 b7 0a 3c a8 b4 29 be
       -0.9274582 0.056594506 0.008466635 -0.16572821

weight f4 [8, 256]
000000 46 c0 85 be 4d 16 61 3c 57 ad 53 3b ac 3e 45 3e
       -0.26123255 0.013738227 0.0032299364 0.19262189
000010 f2 00 82 bc 2c cf d1 be 00 b2 a4 3d c1 dc 4d 3e
       -0.015869591 -0.40978372 0.08041763 0.20103742
000020 e1 93 7c be b4 52 f4 bc e9 dc 20 be 17 49 6e bd
       -0.24665786 -0.029824592 -0.1570927 -0.058175173
000030 7b 69 6d bd 9c d7 8b bb 7a a3 47 be 67 1e 08 be
       -0.057961922 -0.004267646 -0.19495955 -0.13292848
000040 89 e1 97 3d 62 61 39 3e 3f 10 ee bd b6 d1 01 bb
       0.07416064 0.18103555 -0.116241924 -0.0019808835
000050 53 57 99 3c 19 d4 ef bd 55 c6 65 bd 23 ff 12 bd
       0.018718397 -0.11710376 -0.056097347 -0.03588785
000060 81 54 36 be a5 10 34 be 66 70 4f 3e a8 1d cb 39
       -0.17805673 -0.17584474 0.2025772 0.00038741273
000070 8f a4 01 be 15 28 0b 3e b3 4c 6f be 2c 7f 23 3e
       -0.1266043 0.13589509 -0.23369102 0.15966481
000080 b3 10 1b bc 42 b1 33 be 52 a9 8e 3e f7 f5 fc 3e
       -0.009464431 -0.17548087 0.27863556 0.49406406
000090 e0 f5 77 3e 41 85 08 3d c7 46 19 3e 3e 20 4f 3e
       0.24214888 0.033330206 0.14968406 0.20227143
0000a0 1c 31 07 3d 99 5c 98 3d ed 76 fe 3c e1 a6 5d bd
       0.03300582 0.074395366 0.031062568 -0.054114226
0000b0 8e bf 2d bc 74 89 ab 3d 03 74 b7 be 45 f4 1f 3d
       -0.010604752 0.083758265 -0.35830697 0.039051313
0000c0 c2 fa 12 be 18 f8 d0 bd db 64 cb bc 30 a5 8e 3d
       -0.14353469 -0.1020357 -0.024828365 0.06965101
0000d0 8a 47 79 bd 4e 4f 23 3e ef cf 53 bc dc 2a 5f 3d
       -0.06085924 0.15948221 -0.012927993 0.054484233
0000e0 63 20 eb bb eb eb 3b 3e e2 3d 32 3d 80 57 83 3c
       -0.0071754917 0.18351714 0.043516047 0.016032934
0000f0 49 55 29 be 1e f6 3e 3e fb 3f 2f be b4 f7 f4 bc
       -0.1653644 0.18648574 -0.1711425 -0.02990327
000100 04 d6 bf bd 6d 48 14 be dc 9d 2b 3d 70 20 a9 3b
       -0.09366992 -0.14480753 0.041898593 0.0051613376
000110 72 5f 8c be 4c 94 72 bd 6e fc 9b 3d f6 3a 1f be
       -0.2741657 -0.05922346 0.076165065 -0.15549836
000120 98 ab 1d 3d 73 ac b0 be 0a 29 3b bd 79 33 70 3e
       0.038493723 -0.34506568 -0.045693435 0.23457135
000130 e8 32 51 3d c5 2d d5 3d 55 26 6f be 7e 6a 11 3e
       0.05107394 0.104091205 -0.23354466 0.1420078
000140 da 32 6a be c5 5d 7e 3e 95 58 9e 3c c9 a2 01 3d
       -0.22870961 0.24840458 0.019329349 0.031649385
000150 3c d5 c5 3d 32 e0 e8 be 23 dc 96 be 11 c4 d5 3d
       0.09659812 -0.45483547 -0.29464826 0.10437787
000160 87 4e 6b 3d 1c 42 46 ba dc de b0 bd ff aa 14 3e
       0.057447936 -0.00075629517 -0.08636257 0.14518355
000170 0a 61 42 3d 32 6c e4 3d 89 96 f2 3d 5a d5 3e 3e
       0.047455825 0.11153449 0.118451186 0.18636075
000180 2b ed 2f bd cf 1a 58 3e bb a8 87 3d 68 60 02 bd
       -0.04295079 0.21103977 0.0662398 -0.03183022
000190 20 03 0b 3e c1 17 1e be 75 51 a9 3d 8c c4 91 bc
       0.13575411 -0.15438749 0.0826749 -0.017793916
0001a0 5b 98 cd 3b 20 dc b9 3d 28 b6 2c 3d 35 9f 06 bc
       0.0062742657 0.09075189 0.042165905 -0.008216669
0001b0 64 93 89 3c 27 05 64 3d e8 6c 9b 3d 30 01 a7 be
       0.016793914 0.055668976 0.075891316 -0.32618093
0001c0 bc 25 5f 3c c8 ef 11 be 67 c9 52 3d ca 77 a2 3e
       0.013619836 -0.14251626 0.051461603 0.31732017
0001d0 7d 43 e8 bd 7f 25 59 be 13 4a 76 3e dd 30 e9 3d
       -0.11340997 -0.2120571 0.24051695 0.11386273
0001e0 be fb 8d 3e 8d af 4d be 0b 91 42 be db ec 83 3d
       0.27731127 -0.20086499 -0.19000642 0.06441661
0001f0 1a f4 4b be 58 56 a3 bd 89 dc 15 3e ce bf f2 3d
       -0.19917336 -0.07975453 0.14634909 0.1185299
000200 79 4d f1 bd 98 46 f1 be 6e e9 35 3d a0 e7 10 bc
       -0.11782355 -0.4712417 0.04441207 -0.008844286
000210 66 da e5 bd c1 10 86 3e 85 78 83 be 33 8a a8 be
       -0.11223297 0.26184657 -0.25677887 -0.32917938
000220 94 1e 70 3b 6e d0 05 bd 89 b1 50 be db 7c 82 be
       0.003663932 -0.032669477 -0.20380224 -0.25485882
000230 28 aa b1 3d 48 84 54 be f2 a4 bc 3d ed 43 b8 bd
       0.08675033 -0.20753586 0.09211148 -0.08997331
000240 1b d9 40 3e df 35 bc 3c 2c 15 d4 3d 4c b9 67 3d
       0.18832819 0.022974906 0.10355601 0.056573197
000250 b4 41 f9 bc a7 06 d2 3d e1 23 42 3b cc 59 aa bd
       -0.030426838 0.10255175 0.0029623436 -0.08317909
000260 16 5e 21 be 8a 61 5e 3e d2 55 87 bd 23 ec 64 3b
       -0.15758547 0.21716896 -0.06608166 0.0034930788
000270 58 04 2f 3e bf a3 04 3e 79 15 5c be b0 ea 13 3e
       0.17091501 0.12953089 -0.21492566 0.14444995
000280 84 73 a2 3e 47 8e 77 bd 52 0f bb bd 60 6a 8c bd
       0.31728756 -0.06043842 -0.091337815 -0.06856227
000290 58 34 a8 bd b9 b6 49 bc ed 07 59 3e 64 c7 42 3e
       -0.08213109 -0.012311631 0.2119443 0.19021374
0002a0 5f e7 92 3d 24 1d f6 3b 22 08 ec bb be 81 39 be
       0.07173037 0.007510798 -0.007203118 -0.18115899
0002b0 41 31 c9 bd 6d 26 db 3d 5a 74 96 bd 5d a8 02 3c
       -0.098238476 0.107006885 -0.07346411 0.007974711
0002c0 aa 2b 2e 3e 51 19 57 bd 6e 28 ea 3c 38 0e cb bd
       0.17008844 -0.052514378 0.028583732 -0.099148214
0002d0 68 13 81 be 0c 4a 3b bd a1 04 30 3d 22 1e 1f 3a
       -0.25210118 -0.045724913 0.042973164 0.0006069859
0002e0 3b dc 51 bd 91 ff 3d be 11 a3 8b 3d 72 f6 7c bc
       -0.05123542 -0.18554522 0.06818212 -0.0154396165
0002f0 2e 6f da bd c1 3b 1a 3d 97 89 d6 bc e0 f4 21 3e
       -0.10665737 0.037654642 -0.026188655 0.15816069
000300 53 63 3e bd a2 65 fa 3c c7 b5 06 bf 01 f2 f7 3d
       -0.04648144 0.03056604 -0.5262112 0.121067055
000310 7f 5e 2d 3b 1f b0 17 be 8b bb a5 be 70 bc f2 bc
       0.002645403 -0.14813279 -0.32369646 -0.02963087
000320 b3 99 97 3e 56 57 8e bd 6e 2a 88 3d 8c 29 06 bc
       0.2960945 -0.06950252 0.06648718 -0.0081886165
000330 24 74 87 3d 97 fa 0c be 17 e2 ae 3d 17 15 4e bc
       0.06613949 -0.13767467 0.08539217 -0.01257827
000340 f7 50 c2 bd 6d 91 8b 3c c8 c7 8f 3e 60 ec 6d 3c
       -0.09488099 0.017037118 0.28082108 0.014521688
000350 66 2b 0d be e1 74 2b be 54 43 a8 3d 3e 60 45 3e
       -0.13786086 -0.16743805 0.08215967 0.19274995
000360 18 58 9a bd ec af 04 3e 3a 7e 26 3e 15 72 1c bd
       -0.07536334 0.12957734 0.16259089 -0.038194735
000370 7e c9 14 3e 5e 1e f1 3d 44 d7 5c be 2d dd 31 3e
       0.14529988 0.1177337 -0.21566492 0.17369528
000380 ee 18 19 be 31 b1 95 be b8 18 00 be 8a cc 05 3e
       -0.14950916 -0.2923675 -0.1250943 0.13066307
000390 80 e2 af bd ca f1 96 be 3b 1b 24 bd 20 1d 37 bd
       -0.08588123 -0.29481345 -0.04006503 -0.04470551
0003a0 1f bd 0f 3d 51 d7 88 bd dc e1 d7 3d f4 d5 79 3e
       0.03509247 -0.06681693 0.10541126 0.24398023
0003b0 1f b2 99 bd d4 01 16 3d 9b 9d 55 3c 4e 4f d6 bd
       -0.07504677 0.036622837 0.013038064 -0.10464345
0003c0 67 04 50 bd f1 c6 2b 3e 83 d9 5a 3d 33 20 9a be
       -0.05078545 0.16775109 0.05343009 -0.3010269
0003d0 95 a6 17 3e e2 ad 9d be af 05 01 3e a1 e8 9f 3c
       0.1480964 -0.30796725 0.12599824 0.019520106
0003e0 8d 39 0d bd 96 08 a5 3d a0 51 02 be 7d 8a 7f 3d
       -0.034478713 0.08058278 -0.1272645 0.062387932
0003f0 20 43 9d bc ad f1 a7 be cc 62 0b 3b c5 3b 1a bb
       -0.019197047 -0.3280157 0.0021268604 -0.002353416

bias f4 [8]
000000 f2 75 5a 3e 5b 16 24 3e fe af d1 bc c1 01 01 be
       0.21334055 0.16024153 -0.025596615 -0.12598325
000010 27 ee 2e be d4 63 6b bd 8e 8a 58 be b6 44 e9 3d
       -0.17083035 -0.05746825 -0.21146604 0.11390059

weight f4 [8, 256]
000000 b2 52 20 3d 0b 0c 40 bc 9b 5d 6e bc ec 46 fb 3d
       0.039141364 -0.011721621 -0.0145486845 0.12269387
000010 05 32 97 3d ff 1a 84 3c a9 ab 2b bc 20 1e be bc
       0.07382587 0.016126154 -0.010477939 -0.023207724
000020 ed c6 b5 bc e4 ab b7 bd e3 58 38 3a fe 65 24 3d
       -0.022189582 -0.089683324 0.0007032288 0.04013633
000030 1a 3c 9d bc 52 aa 8c 3d 06 50 96 bd fb 96 be 3d
       -0.019193698 0.068684235 -0.07339482 0.09306141
000040 9b d8 5a bd 16 dd 25 bd 1e ce ba bc b9 8a d4 3d
       -0.053429227 -0.040494047 -0.022803362 0.10378022
000050 5e 25 29 3c 12 7a 35 3d ef ff d2 bd b9 1e 94 3d
       0.01032385 0.04430587 -0.10302722 0.072324224
000060 a8 b2 cb 3b 99 bb d4 bc b0 a3 81 bd f0 3e f3 3d
       0.006216366 -0.02596836 -0.06330049 0.11877239
000070 cb 4e bd 3d c3 64 ab 3b 95 9a ca bc 14 2e e0 bd
       0.09243544 0.0052305176 -0.024731914 -0.10946289
000080 23 a5 e1 3d 0d f6 17 bd f9 ff a9 bd b6 3b 1d bd
       0.110178255 -0.037099887 -0.08300776 -0.038387023
000090 15 5b 7a bd 71 2c d5 3c a6 d7 85 3d 14 d8 ed bc
       -0.06112202 0.026022168 0.06535272 -0.029033698
0000a0 27 45 82 3c f9 bb 19 3d eb 5e 24 bc 00 95 a5 bc
       0.015902115 0.03753278 -0.010032396 -0.02021265
0000b0 64 7e 68 bd f6 54 a9 3d b7 98 b2 bc e2 c3 9b 3c
       -0.05676116 0.08268158 -0.021801336 0.019014303
0000c0 7d 42 c7 3b 43 6e 17 3d 35 9d 30 3c 99 eb 3d 3d
       0.006080924 0.03697039 0.010779669 0.04636726
0000d0 60 83 60 bc 4c b8 b3 bd 04 6c 2c 3c 5b b8 19 3e
       -0.013703197 -0.08775386 0.0105238 0.15011732
0000e0 19 ff 62 3b bb 3c 9e 3c 1a 38 5d 3d 35 c1 1d bd
       0.0034636913 0.019316068 0.05400858 -0.038514335
0000f0 0a ac 19 bd 93 85 1a 3d d0 fd cd bc 40 b6 e7 bb
       -0.037517585 0.037725043 -0.025145441 -0.0070712864
000100 ee f8 e8 3c 19 94 08 3d 65 71 8f bd 2e b3 03 bd
       0.028439011 0.033344362 -0.0700405 -0.0321533
000110 5e 26 3f 3c 60 d6 42 bd 51 40 2b bd 1d 08 89 3c
       0.011666862 -0.047567725 -0.041809384 0.016727502
000120 3b e8 95 3d ed d8 15 bd 56 f1 ce 3d 32 c3 01 3d
       0.07319685 -0.03658383 0.10104625 0.031680293
000130 be 10 18 bd a4 05 69 3d a4 f9 52 3d 68 6d 8a 3a
       -0.03712534 0.056890145 0.051507607 0.001056117
000140 60 ff 81 3c 2f c0 18 3d a0 9a 62 3d d7 7e 76 3d
       0.015868843 0.037292656 0.055323243 0.060179558
000150 38 6a 34 bd 33 99 f4 bc 8b 9c f4 bd 70 1b 9c bb
       -0.04404661 -0.029858207 -0.11943921 -0.004764013
000160 07 6b 75 3d 92 74 57 3d b2 af 05 bd c1 9b 57 3d
       0.059916522 0.052601404 -0.03263826 0.052638773
000170 e2 44 3d bd bf 2a 3e 3e 9d 91 dd bc 15 11 71 3d
       -0.04620827 0.18570994 -0.027046973 0.05885418
000180 b5 aa 12 bd 56 8e 84 3d 55 76 24 bd 58 fb 84 bd
       -0.03580733 0.06472461 -0.040151913 -0.064932525
000190 44 65 a6 bc 5a 01 99 bc 44 68 33 bd 82 bb 8e 3d
       -0.02031196 -0.018677402 -0.043800607 0.06969358
0001a0 4b 49 60 3d e3 b9 4f 3e 7d 5e ac bc 81 52 6d 3d
       0.054757398 0.20285754 -0.02104115 0.05794001
0001b0 9a d6 3c 3d 15 5f 98 bb b9 0e e5 bc 9a 2a 92 bd
       0.046103097 -0.0046500065 -0.027961122 -0.07137032
0001c0 b0 ba e2 3d 89 bf 42 3d 53 d8 11 bd 0a e4 23 bd
       0.11070764 0.047545943 -0.035606693 -0.040012397
0001d0 80 24 28 3e a7 f0 6a bc a6 f3 49 3d bf c6 f1 3c
       0.16420174 -0.014339603 0.049304627 0.029513715
0001e0 cb f8 b9 bc 46 2f d0 3b 98 83 05 bc b2 29 20 3d
       -0.022701642 0.0063532917 -0.00814905 0.039102264
0001f0 9c c3 c5 3d c7 e5 a8 bc 8f 64 8e bc 5d 80 1a bc
       0.0965645 -0.020617379 -0.017381934 -0.009430018
000200 35 b4 d2 3c 72 68 f5 3c b7 24 57 3d 28 da 80 3c
       0.025720695 0.02995703 0.05252525 0.015729025
000210 20 08 8d 3d af 92 de bc 74 1d a7 bd 47 b2 0e bd
       0.06886315 -0.027169554 -0.081599146 -0.034837987
000220 39 26 f2 3d 58 2b c4 3d 86 9f 93 bb 36 7c 8e bc
       0.11823697 0.0957858 -0.0045051007 -0.017393213
000230 52 bb c8 bb bb 4a 02 bd c9 bb 87 bc ea 2f 38 3d
       -0.006125846 -0.03180955 -0.016569035 0.04496757
000240 b8 7c 90 3b 78 35 ff 3b 2e cb fd 3c 05 d0 98 3d
       0.004409399 0.0077883564 0.030980673 0.074615516
000250 fb f3 ff 3c 7a 52 d7 3d 9f f4 a1 ba a2 bb a6 3d
       0.031244269 0.10513778 -0.0012356228 0.08141257
000260 fe e6 44 bd 1f ab 90 bb 01 18 d5 3d a9 78 c8 bc
       -0.048071854 -0.0044149305 0.10404969 -0.024471598
000270 06 97 f1 3a 43 8d 06 3d f4 c8 73 3c b8 eb 89 bd
       0.0018431849 0.03284956 0.014879454 -0.06734413
000280 60 40 92 bd 08 a8 db bd ee c2 79 3d bb a9 b2 bc
       -0.07141185 -0.10725409 0.060976915 -0.02180945
000290 43 bd ed 3b dd fe d0 bc 07 e3 3b bd 03 9b c5 3c
       0.007255228 -0.025512153 -0.045870807 0.024121767
0002a0 b8 24 e0 bc c9 4c ab 3c 6a 95 2c 3d b9 c5 2d 3e
       -0.027361259 0.020910637 0.04213468 0.16969956
0002b0 fc 92 4f 3d 26 59 db 3c 41 86 e2 3c 58 a2 b0 bd
       0.050677285 0.026775908 0.027651908 -0.086247146
0002c0 2c 07 32 bd ad 54 8e 3c 11 96 b1 3b 28 c9 c0 3c
       -0.04346387 0.017374361 0.0054195006 0.023533419
0002d0 b8 e0 aa bd 59 9f 93 bc 1e ac 08 3d 77 ad 01 bd
       -0.08343643 -0.018020319 0.03336727 -0.03165957
0002e0 d8 ab a2 3d df 87 09 bd 13 2d aa 3d 0d 9e cb 3c
       0.07942933 -0.033576842 0.083093785 0.024855638
0002f0 66 da 29 3d 47 d9 f2 3b 01 b3 82 3c 93 81 1f 3e
       0.041468047 0.0074111554 0.015954496 0.15576772
000300 b0 33 95 3d 65 30 e4 bd f5 51 b7 bd c5 61 22 3d
       0.07285249 -0.11142043 -0.08951179 0.03964402
000310 43 c7 b6 bd bd 2f 43 bd e0 88 40 3c 11 f5 fe 3c
       -0.08924725 -0.04765295 0.011751384 0.031122716
000320 68 dd 68 bd f1 3f a1 3c 26 f7 d9 bb 96 0f 2d 3d
       -0.056851774 0.01968381 -0.006651777 0.042251192
000330 41 89 4f 3b 9b cb 04 bd 11 54 bd 3d 5d 42 41 bd
       0.0031667503 -0.032420736 0.0924455 -0.04718243
000340 03 51 4c 3d e0 5f d1 3c 77 a7 ef 3c 22 14 83 bd
       0.049881946 0.025558412 0.029254658 -0.064003244
000350 73 2e 7b bc ed 1d 86 3d 00 67 31 bd 10 31 fd 3d
       -0.015330899 0.06548677 -0.04331112 0.123628736
000360 24 63 5b 3c 54 dc 45 bd 7b ac f2 3b b3 05 9c 3d
       0.013390336 -0.048305824 0.007405815 0.076182745
000370 02 e5 ab 3d be b3 25 3d e2 2f 65 bc 31 9b 04 3d
       0.08393289 0.04045462 -0.013988467 0.032374565
000380 33 e5 0c bd e4 9d ef 3c 1a 33 52 bd 83 ab 1e bc
       -0.03439827 0.029250093 -0.051318265 -0.009684446
000390 bb 7c 06 3e e3 32 d0 ba f9 a3 70 3d cd 4c 3b bc
       0.13133518 -0.0015884306 0.058750127 -0.011431885
0003a0 1d c3 99 3d 3b ff 50 bc f4 e5 8b bc c2 b0 2e 3d
       0.07507918 -0.012756164 -0.017077424 0.042649038
0003b0 fa de bb 3d ae 29 b5 3b f2 bc b0 3c 21 0b 48 3d
       0.09173389 0.0055286502 0.021574471 0.04883874
0003c0 47 a7 06 bd d8 27 1a bd 4a 82 7a 3d 1f 6e 2d bd
       -0.03287437 -0.037635654 0.06115941 -0.042341348
0003d0 a7 db 7c bd c4 51 5f 3d 64 ec 83 bd 96 74 38 bd
       -0.061732914 0.054521337 -0.06441572 -0.04503306
0003e0 2b 2b 38 bd ee f5 48 bd 5f a9 2d bc 41 a3 3a 3d
       -0.044963043 -0.04906266 -0.010599463 0.045565847
0003f0 d2 12 02 be e9 b5 4d bd 48 8a 55 bb c8 21 c6 3d
       -0.12702492 -0.05022231 -0.0032583643 0.09674412

bias f4 [8]
000000 f0 84 4b be aa 35 27 be 90 83 34 be 5d 3d 41 be
       -0.1987493 -0.16329065 -0.17628312 -0.18871064
000010 80 19 31 be 3e 8b 10 be 6f 7c 48 be 02 65 43 be
       -0.17294884 -0.14115617 -0.19578718 -0.190815

weight f4 [256, 36]
000000 6f d7 db 3e de fb d7 3e 8b 54 42 3d 38 f1 95 be
       0.429378 0.42184347 0.047443908 -0.29285598
000010 d8 9c 62 be d9 bc 53 3f d6 cc 59 3e 0d c5 c0 be
       -0.22130144 0.82710034 0.21269545 -0.37650338
000020 b1 b4 ac be 96 e9 eb be 1a 70 1a bf 60 5c 70 3f
       -0.33731607 -0.4607665 -0.60327303 0.93890953
000030 be 8d d3 3e 54 2d 16 3e 79 f4 3a 3f 4c 5d 1c bf
       0.41319078 0.14665729 0.73029286 -0.6107986
000040 b1 c8 ab 3e a0 d8 b1 be 98 57 59 3f 42 ae 22 3f
       0.33551553 -0.34735584 0.8489928 0.63547146
000050 a3 ac c9 be f6 67 30 3e b3 91 36 bf 0f ac f3 3e
       -0.39389524 0.17227158 -0.7131607 0.47592208
000060 06 62 98 3e 72 86 83 3e 53 e9 3d 3f d3 a5 35 3d
       0.29762286 0.2568851 0.7418415 0.044347595
000070 b3 14 0a 3e a2 5e 53 3d 3f 04 3d be 9e 97 e6 bd
       0.13484459 0.05160392 -0.18458651 -0.112593874
000080 65 92 5a be 96 d7 fd 3d 5e 51 2f 3e e3 f9 a0 3e
       -0.21344908 0.123946354 0.17120883 0.31440648
000090 07 10 13 c0 55 ce 09 3f f9 b0 73 3e 51 54 da be
       -2.2978532 0.5383046 0.23797978 -0.42642453
0000a0 71 0a ff 3d a2 1b c6 bf d0 7b e1 be 60 bd 6a 3e
       0.124531634 -1.5477183 -0.44039774 0.22923803
0000b0 3c 93 c4 be 42 5c fc 3d 5a 77 a6 be 5c ec 7d be
       -0.3839358 0.12322284 -0.32512933 -0.24797195
0000c0 53 4c 01 3f de c4 10 bc 86 c7 5a 3f c0 b6 88 bd
       0.50507087 -0.008835999 0.854607 -0.06675482
0000d0 e9 95 e3 3d 5a 6e b0 3d f8 85 9a 3f 55 27 0a 3f
       0.111125775 0.08614798 1.2072134 0.53966266
0000e0 ad 5a 65 be 9d 87 6d 3e 73 a8 b1 be dd 2d b2 bc
       -0.22397871 0.23196264 -0.3469883 -0.021750385
0000f0 b2 8c e1 3e c6 70 7e 3e 61 a8 f1 3e 5d 6a fb 3e
       0.44052655 0.24847707 0.47198775 0.49104586
000100 74 02 bd bd 92 a0 d9 be dd b3 b7 bc f4 2d cc bd
       -0.092289835 -0.42505318 -0.022424633 -0.09969702
000110 02 d1 b8 3e 6f c6 7f 3d c7 7e 6d be 4b ad 03 3e
       0.3609696 0.0624451 -0.23192893 0.12859075
000120 80 e2 e4 3e 5f f4 2c bf 0c f1 48 3f f3 95 3d bf
       0.44704056 -0.6756038 0.7849281 -0.7405693
000130 5c fc be be d0 90 15 3f 64 10 02 be c5 c1 03 c0
       -0.3730191 0.5842409 -0.12701565 -2.0587018
000140 7b 3e a5 be 5e c1 9c be d6 c9 36 bd 61 f7 80 3b
       -0.3227423 -0.30616277 -0.04462608 0.00393574
000150 0d 82 2b 3e 10 27 43 bf 10 d9 b0 3e 1e f2 ab 3e
       0.16748829 -0.7623148 0.34540606 0.33583158
000160 af 4c 4f 3e 1a 14 cd be c5 1b 5f 3e 75 25 92 3d
       0.20244096 -0.400544 0.21787937 0.071360506
000170 88 0e e1 3d 7b cf 7b be de 43 92 3e 1a f2 30 3f
       0.109891 -0.24590866 0.28567404 0.6911942
000180 84 0c a0 3e 4a 15 65 3e b4 74 98 3e a9 cb 36 3e
       0.3125955 0.22371402 0.29776537 0.17851128
000190 4c 32 11 bd 18 0e 14 3e d7 e8 49 3e dd 40 35 be
       -0.035448357 0.14458501 0.19717728 -0.17700525
0001a0 40 7f 0e 3e 72 3b e8 be cd b9 92 be e2 d7 23 3e
       0.1391573 -0.45357853 -0.2865738 0.16000322
0001b0 6f d7 1b 3e 07 b6 50 bb fa 1e 37 bf db 1b e4 3e
       0.152189 -0.0031846778 -0.7153164 0.44552502
0001c0 fb 45 9c bc e7 24 29 bf 77 0d 1e 3f 3c 46 98 3e
       -0.019076338 -0.66071934 0.61739296 0.29741085
0001d0 9c 70 32 bf 87 6e 2a bf a5 8e 33 bd 3b 8d 1a 3e
       -0.6970308 -0.665749 -0.04383721 0.15092938
0001e0 78 61 d6 3e b6 ff bb 3e be 0a d8 bd ff 73 57 3f
       0.41871238 0.3671853 -0.10548924 0.8416137
0001f0 7f 29 de be e6 53 61 3f c2 18 a3 be 00 06 04 bf
       -0.43391034 0.88018644 -0.31854826 -0.51571655
000200 59 07 02 3f 54 a3 70 3f 44 20 af bd c6 6e 68 3f
       0.5079246 0.9399922 -0.08551076 0.90794027
000210 1a 45 19 c0 70 21 9a be ff e7 38 be c5 45 15 bf
       -2.3948426 -0.30103636 -0.1805725 -0.58309585
000220 a9 9b 7a 3f 38 3c ce 3e 1c e9 a2 3d a1 6c 18 3f
       0.9789377 0.40280318 0.07954618 0.59540755
000230 e8 7b 24 3e fc 67 7c 3e 7c 7e d3 3e b8 cf 6f 3e
       0.16062891 0.24649042 0.41307437 0.23419082
000240 e0 0b e7 bf 7e c4 c8 bf 75 fb 0c bf bf e9 bf be
       -1.8050499 -1.5684965 -0.5507119 -0.37483022
000250 e0 17 8f 3e 8d 27 b2 bf a0 77 27 3f 4f ff 96 3f
       0.27947903 -1.391832 0.6541691 1.1796664
000260 44 78 bf 3e 78 cb be 3e 99 70 c6 3e b7 24 a8 3e
       0.37396443 0.3726461 0.3875778 0.3284051
000270 b7 e9 6a 3f 87 14 3f 3f 1c 62 1b bf 38 48 3f be
       0.9176287 0.746407 -0.6069658 -0.18679893
000280 ae 72 03 bf ad 2e 20 bf 9e de 64 bf ee 4a 17 bf
       -0.5134686 -0.6257122 -0.89402187 -0.5909871
000290 6b be a0 3e 31 24 6a be 55 96 b9 3e 17 31 b2 be
       0.31395277 -0.22865368 0.36247507 -0.34803078
0002a0 93 dd a6 bd 43 47 19 bd 25 c1 1a bf f1 1b e6 bd
       -0.08147731 -0.037421476 -0.60450965 -0.11235798
0002b0 83 c1 bb bd 7b d3 5d bd a5 0d c9 3d 55 f6 20 bd
       -0.09167769 -0.05415676 0.098170556 -0.03929742
0002c0 60 8e 49 bd 85 75 d4 bc 9b ca 7f bd 3e a3 94 bd
       -0.049208045 -0.025934944 -0.06244908 -0.072576985
0002d0 42 f1 7d 3f d6 97 0c be 87 ff 68 3f af 73 ba 3d
       0.99196255 -0.13729796 0.91014904 0.09104096
0002e0 ad 7f 55 bf 5f 21 4c 3f 9d 2a 94 3f 1f 2f 9b bf
       -0.8339794 0.7973842 1.1575505 -1.2123755
0002f0 b4 3d 5e be e3 49 b9 be e3 80 3b 3f 57 c4 e0 3d
       -0.21703225 -0.36189184 0.7324354 0.10974949
000300 75 a7 9d bd 0c aa a9 be f2 e7 97 3e 78 a1 23 3f
       -0.076979555 -0.33137548 0.29669148 0.63918257
000310 ff a9 fa bd 82 2a d6 be 61 3c ee 3e f3 3c 92 3e
       -0.122394554 -0.41829306 0.4653044 0.28562126
000320 98 b6 0e 3e 6e 97 81 3f f4 5f 30 3e 69 01 70 3e
       0.13936841 1.0124338 0.17224103 0.23438038
000330 f6 cf 09 3f dc 06 70 3d 20 f8 54 3e 2c 7b 5a 3e
       0.5383295 0.05860029 0.20797777 0.21336049
000340 2b 62 cb bd bd ee 24 3e ac 7e a0 bc 25 f6 f7 be
       -0.099308334 0.16106696 -0.019591652 -0.4842998
000350 4c e8 ad 3e a2 c6 d5 be c9 1f 8a bf 08 3e 52 3e
       0.3396629 -0.41753107 -1.079095 0.20531476
000360 64 1f 42 3f cd af b3 3e 65 e7 aa 3d 2e 9d c3 bf
       0.7582915 0.35095063 0.08344916 -1.5282342
000370 02 fa a0 3e 6c 21 8d 3f aa ec 3f be 78 01 3b bf
       0.3144074 1.1025825 -0.18742624 -0.73049116
000380 1d e8 e5 be 5d 88 bf be 9b a3 c1 be 63 d2 ec 3f
       -0.4490365 -0.37408724 -0.37820134 1.8501705
000390 66 07 2c 3d 76 5e f6 be d7 8d 07 3f c0 a2 b0 bf
       0.041999243 -0.48118943 0.52950805 -1.3799667
0003a0 7b 2f 1c 3f 17 0e ed 3d fb 81 5e 3f cc 6c 67 bf
       0.6100995 0.11574953 0.86917084 -0.90400386
0003b0 c2 ca da be 04 6c d9 3e 49 1d 2b bf e4 58 84 3f
       -0.42732817 0.42465222 -0.6684156 1.0339627
0003c0 37 e3 e6 3e cb 94 93 3e 22 e7 1a 3f 13 d7 43 3f
       0.45095226 0.28824458 0.6050893 0.7650005
0003d0 77 ef 37 be 2d 9b 25 3e d3 43 87 bc aa 98 58 be
       -0.17962442 0.16172476 -0.016511833 -0.21151987
0003e0 ab fc 6f bb 0b 13 e4 bd a8 68 18 3c 42 49 48 3e
       -0.0036619108 -0.11136445 0.009302296 0.19559196
0003f0 af 35 ae 3f 24 f6 3b bf bc d5 8a 3c c6 04 b8 bd
       1.3610133 -0.73422456 0.01694762 -0.089852855
