temp/data/cmd_td3_pytorch/cmd_td3_pytorch_s0/pyt_save/model.pt (torch_old, 856496 bytes, 16 tensors)

weight f4 [256, 15]
00000000: 0060 fdba 56d5 0d3e 0c9c 59be 3f94 42be
00000010: 92aa cbbd a0cc 8d3d 00a2 a7bb f4a2 513e
00000020: 58b5 bbbc c0ec 8b3d c2ce 9fbd 58e2 4fbd
00000030: 0a97 7cbe c21a 2fbe e2fa d9bd 3124 043e
00000040: c00c d13d 5e38 413e d41d 11be da44 e6bd
00000050: 9bce 7a3e 0c8d 5b3e 8a5e 1a3e 053e 8d3e
00000060: 3717 c93b cf0c 2a3d 0775 8d3e 10bb 08be
00000070: 5db3 27be 90e0 8fbd 935b 01be 2470 643e
00000080: 8723 72be a475 663c aeb7 38be 674a 8ebe
00000090: a456 1abe cef5 4c3e c9f9 ea3c 8502 fa3d
000000a0: 52e7 c5be f3b6 14be 3fe1 333b f061 bebe
000000b0: 4aae c3be ac28 bcbb 38d1 263e 14d8 243e
000000c0: 4d81 8c3d f0a3 18bc a9c8 5d3e 176c 833e
000000d0: 5c51 c03e 0ce0 e03d cbf4 513e 0fe8 1fbe
000000e0: 0cc2 863d 12e2 26bd 754d e5bd 25cd 66be
000000f0: 6365 ae3d b0a8 d43d d4dc 3bbe 24bc 9c3d
00000100: 5425 113e 84e5 cbbd 4085 213c 7451 103e
00000110: afac 2e3e f718 f73d 7333 a0be 5ec1 86bd
00000120: ff77 e93d c1cb 683e f8dd 453e 22b3 7a3e
00000130: 7079 523d 1af4 7abe f3b3 313d 4868 25be
00000140: 666a 61be dee9 6a3e 21d1 5d3e 765c 8ebe
00000150: 276d e13c e316 82bd 9a5d b1bc a7b7 0dbe
00000160: 87cc a03d 3c9a 1cbe 1d46 1a3e 00b5 053e
00000170: d776 233e 242e 6a3e 42d7 82be 63ec f7bd
00000180: 4804 043e ba29 603e e203 30be 4dc1 c8bd
00000190: 0780 593e 3116 3f3e 11b9 79be 4199 b7bd
000001a0: 0831 a1be 12df c2ba 021b 47be 8de3 86be
000001b0: 1c9b 18bd 70ca 1e3d 3511 0ebe f0e2 1c3e
000001c0: ecdc 17be 1139 2b3e a7de 1d3d ca39 9dbe
000001d0: b933 87bd a4a4 f83c d1d8 463d 142c 303d
000001e0: 864e 103e c065 7d3c 984d 1cbe 7c4f 823d
000001f0: 0a9f 7dbe 507b 30be 4c5f 84bd 1b8d edbd
00000200: 4e1b b1bd 5300 84be ef4d a3bd ec26 563d
00000210: df82 89be 0c54 803d b1ed 183e dc49 f8bd
00000220: 0024 eb3b 9006 73bd 07a7 903e fa1c 283e
00000230: a376 003e f2e7 273e 832d 8c3e 2dd0 33bd
00000240: 2371 90be ba4b 70be a459 193e 9029 b53d
00000250: debc 893b 0877 aebe ce7c a4be f026 5fbe
00000260: b6e2 02be 415a 9c3e 72f1 0e3e 2b0e acbe
00000270: deec 243e 6cbf 63be 74d2 6fbe 8245 17be
00000280: e67c 35be 0275 12bd 76e0 86be c57f d0bd
00000290: dfb5 1bbe 757e 993d 7437 f0bd d527 9f3d
000002a0: 48ff 4fbe 28bf 8ebc 2297 863e 94b0 d7bd
000002b0: 0090 ba3e 0b1e f93d 237a 1bbe 59da 033e
000002c0: b874 0abe bdc9 57bd c873 413e a7f9 7cbe
000002d0: 8775 c73e b86c 5dbd 75ec 163e d95b 863e
000002e0: 4816 fe3d 594c bc3e 6852 7ebd f40a 9a3e
000002f0: 0f24 4abe 37b2 593e b8fe 2d3e 1026 993e
00000300: d89d 2dbe 46d2 c4bc 2055 b5be 33de fabd
00000310: 9710 1abe 540d 653d f059 7dbe 8096 b8bb
00000320: d2de ae3d 806f 2a3e 7fc6 70be b950 6ebe
00000330: e401 f3bd 2ee1 273e db9c f0bd 599f 2c3e
00000340: 2acc 303e 4067 a2bb ed2e f93d 8810 51bd
00000350: 7ac5 f2bc cf00 9dbd 00cb edba b742 a43d
00000360: c7cf 4ebe 2709 4b3d 93c9 3d3e a20c ecbd
00000370: 5b21 93bd be5d 0f3e 668f d7bb 5f8b 463e
00000380: 5290 d5be cdfd 93bc ee52 3cbe 6ec9 6dbd
00000390: fff0 d7bd 589d 1cbd 1706 973d 5613 5a3e
000003a0: c317 793c e69c 8f3e db91 563e 1935 31be
000003b0: aea7 683e 8790 85be bd98 b33d 9f03 633e
000003c0: 310b 9f3d 665b 463e e7c5 2fbe 6e20 83bc
000003d0: fc1d 083e 96f1 8bbe 2627 3f3e 6817 43be
000003e0: 8d70 cdbd 7ca3 b7bc 20ac b9be 9e3f 063d
000003f0: f519 d73d a4d6 533c 421d 26be 2be0 503d
-0.0019330978 0.13850912 -0.21250933 -0.19001864 -0.09944643 0.06923795 -0.0051157475 0.20472318
-0.02291362 0.06832266 -0.07803108 -0.050752968 -0.24666992 -0.17100051 -0.10643555 0.12904431
0.1020751 0.18869159 -0.14171535 -0.11243601 0.24492876 0.21440524 0.15075126 0.2758638
0.0061368006 0.04151612 0.27628347 -0.13352609 -0.16377015 -0.07025254 -0.12632589 0.22308403
-0.23646365 0.014066134 -0.18038818 -0.2779114 -0.15072113 0.20015642 0.02868356 0.12207512
-0.38653046 -0.14522915 0.002744749 -0.37184095 -0.3821891 -0.005742153 0.16290748 0.16098052
0.068606 -0.0093164295 0.21658577 0.25668404 0.37562072 0.109802336 0.20503537 -0.15615867
0.0657998 -0.04074294 -0.111964144 -0.22539194 0.08515432 0.10383737 -0.18345958 0.076530725
0.14174396 -0.09955886 0.009858429 0.14093572 0.17058061 0.120653085 -0.31289253 -0.065798506
0.113998406 0.22733976 0.19322956 0.24482396 0.051385343 -0.2450718 0.043384504 -0.16153061
-0.22013244 0.22940776 0.21661808 -0.27804917 0.027517868 -0.063520215 -0.021651078 -0.13839589
0.078515105 -0.1529321 0.15065809 0.13057327 0.15963303 0.22869164 -0.25554854 -0.12105634
0.12892258 0.21890917 -0.17188981 -0.09802494 0.21240245 0.18660809 -0.24387003 -0.08964778
-0.3148272 -0.0014867506 -0.19443896 -0.26345482 -0.0372573 0.03876728 -0.13873751 0.15320945
-0.14830369 0.16720988 0.038542416 -0.30708152 -0.06601662 0.030351944 0.048546616 0.043010786
0.14092454 0.015466154 -0.15263975 0.06362817 -0.247677 -0.1723454 -0.06463489 -0.11599179
-0.08647786 -0.25781497 -0.07973849 0.052283213 -0.2685766 0.06266031 0.14934422 -0.121234626
0.0071759224 -0.05933243 0.28252432 0.16417304 0.12545256 0.16397074 0.27378473 -0.043899704
-0.28211316 -0.23466387 0.14975601 0.08845818 0.004203423 -0.3407519 -0.32126468 -0.21792197
-0.12781796 0.30537608 0.13959292 -0.3360456 0.16105983 -0.2224099 -0.23420125 -0.14772609
-0.17723426 -0.03575612 -0.26343125 -0.1018062 -0.15206097 0.07494823 -0.11729327 0.07771269
-0.20312226 -0.017425135 0.2628718 -0.105317265 0.36437988 0.12163933 -0.1518331 0.12876262
-0.13521087 -0.052682627 0.18891823 -0.2470461 0.38956854 -0.05405876 0.14738639 0.2624195
0.124065936 0.36777 -0.062090307 0.30086482 -0.19740318 0.2125939 0.16991699 0.29911852
-0.16954744 -0.024026047 -0.35416508 -0.122494124 -0.15045391 0.055920914 -0.2474134 -0.0056331754
0.08538593 0.16644096 -0.2351322 -0.23272981 -0.11865595 0.16394493 -0.11748668 0.16857661
0.17265382 -0.004956156 0.121671535 -0.051041156 -0.02963518 -0.0766617 -0.0018142164 0.08020537
-0.20196448 0.049569275 0.18533926 -0.11525847 -0.071840964 0.14000604 -0.0065783737 0.19389103
-0.4171167 -0.018065358 -0.1839101 -0.058053426 -0.10544013 -0.038235992 0.073742084 0.21296439
0.015203419 0.28049392 0.20954077 -0.17305411 0.22720215 -0.26086828 0.08769367 0.2216935
0.077658065 0.19370803 -0.17165338 -0.016006675 0.13292688 -0.27332753 0.18667278 -0.19051898
-0.10031233 -0.022416823 -0.36264133 0.032775514 0.10502998 0.012929592 -0.16222098 0.050995033

bias f4 [256]
00000000: 804b 6bbe 7987 43be f6f9 febd a184 533e
00000010: 9dda 3e3d 8d8a e63c 63c3 bfbd b4cf 2e3e
00000020: c71d c6bc ae4e 4d3d b71b 92bd 55e7 a93c
00000030: 1621 493d 9dcc 293e 8d56 b13d 64c5 453d
00000040: 62bb 703c eea3 1fbe f9b4 da3d 84fb aabb
00000050: 92eb 303e 30c6 abbd eb65 7cbe d467 a5bc
00000060: 11fd 0c3e 844b 263e 671f b53d 76f9 ce3c
00000070: a1b2 e83d dd1f 2bbe 7b53 663e 7d90 0d3e
00000080: aa98 2d3e ad19 033e c04d 36be 55a1 893d
00000090: 6df1 393e 431a 81be 211f a9bd 4664 6bbe
000000a0: 898a adbd 6922 a1bc 6bb2 a73d 3f1b e0bd
000000b0: da78 4bbe bd55 bc3d 5731 8b3d 5e48 9bbd
000000c0: e82f 243e 37d7 2b3e 027e 8cbd f4d5 ac3c
000000d0: 13c7 d73c 27af a1bd 5053 55bd 3a71 1bbe
000000e0: 657d afbd e5e8 f73d ee7c dd3c 571a 26be
000000f0: 8867 3a3e 1c57 d03d 494f 243e a939 5c3e
00000100: 7e70 bdbd e637 053c fcfb 463e d747 38be
00000110: 1fc4 60bd c55c ac3c 9418 60bd 484a df3d
00000120: 9dfa 103e a355 eabd d979 453b ac83 203e
00000130: c25f 74be f29a 6abe 021b 55be 468b 223e
00000140: 8146 8dbe ee1b 2bbe e076 a33d 0780 1ebe
00000150: f0d2 103e f8fb 1fbe 9e6a e6ba 9910 fabc
00000160: 7ff4 6dbd ea84 2c3d b871 0b3e b8ca 39be
00000170: ff96 0b3e 4224 1c3d b300 62bd d7f6 5cbe
00000180: e8f6 6f3d 346f ea3d 345c 93be 062f 74be
00000190: e9ce 91be 1426 55bb 81d1 17be 4778 f6bd
000001a0: 9313 2f3e b5e6 88bd 18dc 05be 059e efbc
000001b0: 2087 0ebe b1ea debc 7484 df3d 779c 8a3d
000001c0: 5852 51be fb1c 593e dd86 103e 5d51 02be
000001d0: 175d 3d3d bbcb 303d 3a90 35be c8d0 39be
000001e0: 9570 0fbe 8d16 b13b 4d20 3c3d 7c40 7e3d
000001f0: aa59 10be 57fa 6e3e c40f 41bd 3258 32be
00000200: 5ff2 68bd de26 a93d 0685 edbc be3b 953c
00000210: 8532 4bbe 2808 34be 5419 363e f2cc 43be
00000220: b60f cc3d 39e8 f5bd 25b1 95bc 93ed 97be
00000230: 910d 1dbe 6338 193e c601 21be 471e 5e3e
00000240: 67f3 86be 447d dfbc 174d 5cbe 3335 fcbd
00000250: 006e 8cbe eb16 3dbe d676 3fba 77cc 75be
00000260: cea5 dc3c ecc5 f53d 5b82 1c3e d522 4a3e
00000270: 69dd 223e 8643 babd d0f9 12be 75a5 0e3e
00000280: 47fa 413e ddc0 19be f35f 2d3e b3c6 97be
00000290: 26eb 113e dedc 9a3d 8cd3 5ebe b1e0 5abe
000002a0: d29d 063e d6d2 4f3e dbd7 4abb c166 f7bd
000002b0: b5a6 3c3e d718 a33d 1a1e b4bd afea 033e
000002c0: 591d 0a3e e33f cd3c 9fb0 d23d 697d 89be
000002d0: c0c2 d4bd 1e4b 943b 09ea 90bd d66d c1bd
000002e0: 4845 a93d e1ab 8dba 045b 74be f45f ad3c
000002f0: 8189 c2bd c229 78be bbb1 c73c ee5f b2bc
00000300: a932 2abe 57ed 70be 8586 443e 1448 5fbe
00000310: 0abf 5d3a c8db 393e 546c 213d e249 2dbe
00000320: 68f2 7dbe 98b8 2f3d efd9 54be c294 393c
00000330: 08f7 c03d 9e2f f6bd 974c 083e 1bce bdbd
00000340: 08b6 f5bd b797 18be a05d b63c c3b4 2cbe
00000350: 3f2f 763d b6fa 51bd 925b 5b3e 16fa 19be
00000360: 396c f9bd cbc6 1dbd 0217 4ebe 35db b33d
00000370: 1ad3 f6bd 4814 8c3d 67a3 b23d 3b60 cf3d
00000380: 2911 b9bd 6be1 d03d d9f3 22be c283 8cbe
00000390: 6fb7 4abd 66df a5bd 7623 5ebe 174b 223c
000003a0: b9fe 243e 46db 29be 828f adbd 06bb 48be
000003b0: abc0 ca3a d567 103d 318c 933b 6341 473e
000003c0: faca 54be fae7 f0bd 91bb 19be 792e 283e
000003d0: 817a 4e3e 7dfe 6a3e eb41 4e3e 859b 963d
000003e0: f129 50be 5b27 d7bd aca4 3c3d d702 95be
000003f0: 3af4 7d3d a886 723d dfbe 7a3c 9eec 71be
-0.2297802 -0.19094647 -0.1245002 0.20656063 0.046595205 0.028142238 -0.09363439 0.1707142
-0.02418412 0.050123863 -0.071341924 0.02074019 0.04910382 0.1658196 0.086590864 0.04828395
0.014693113 -0.15589878 0.10679049 -0.0052179713 0.17277363 -0.08387411 -0.24648254 -0.02019111
0.13768412 0.16239744 0.0884388 0.025265437 0.11362196 -0.16711374 0.22492783 0.13824649
0.16952768 0.12802763 -0.17803097 0.06720225 0.18158503 -0.2521535 -0.082578905 -0.2298747
-0.08473689 -0.019669728 0.081883274 -0.10942697 -0.1987032 0.09196041 0.0679652 -0.07582162
0.160339 0.16781317 -0.068599716 0.021098115 0.026340043 -0.07894736 -0.052081406 -0.15179911
-0.08568839 0.12104968 0.02703711 -0.16220985 0.18203557 0.10172865 0.1604587 0.2150637
-0.09249972 0.008131003 0.19432062 -0.17996155 -0.054874536 0.02104033 -0.05471094 0.1090284
0.14158101 -0.11442115 0.0030132441 0.15675229 -0.23864654 -0.2291067 -0.20811084 0.15873441
-0.27592853 -0.16709873 0.07981658 -0.15478526 0.14142966 -0.15623462 -0.0017579382 -0.030525493
-0.058094498 0.042118944 0.13617599 -0.18143737 0.13631819 0.038120516 -0.055176448 -0.21578537
0.058585078 0.114469916 -0.28781283 -0.23846063 -0.28478172 -0.0032523917 -0.14826013 -0.1203466
0.1709731 -0.06684629 -0.1307224 -0.029250154 -0.13918734 -0.027211519 0.10913935 0.067681246
-0.20441568 0.21202461 0.14113946 -0.1272635 0.046231356 0.043163043 -0.177308 -0.1814605
-0.1400779 0.0054042996 0.045929242 0.062073216 -0.14096704 0.23337685 -0.047134176 -0.17416456
-0.056871768 0.082593665 -0.028994095 0.018216964 -0.1984349 -0.17581236 0.177831 -0.19121149
0.09963934 -0.120071836 -0.018272946 -0.29673442 -0.15337206 0.14962916 -0.15723333 0.21691237
-0.26357576 -0.027281411 -0.21513782 -0.123148344 -0.27427673 -0.18465774 -0.000730378 -0.24003778
0.02693453 0.12000641 0.15284102 0.1973985 0.15904774 -0.0909491 -0.14353108 0.13930304
0.1894313 -0.15014978 0.16931133 -0.29643783 0.14249858 0.07561658 -0.21760386 -0.21374775
0.13146141 0.20295271 -0.0030951414 -0.120801456 0.18422969 0.07963722 -0.08794804 0.12882493
0.13487758 0.025054878 0.10287594 -0.26853493 -0.10388708 0.004525556 -0.07075889 -0.09444778
0.082651675 -0.001080867 -0.23862845 0.021163918 -0.09498883 -0.2423468 0.02437674 -0.021774258
-0.16620888 -0.23528038 0.1919194 -0.2180484 0.0008458948 0.18150246 0.03940995 -0.16922715
-0.24799502 0.04290065 -0.2078626 0.0113269705 0.094221175 -0.12020801 0.13310467 -0.09267827
-0.1199761 -0.14901625 0.02226144 -0.1686583 0.06010365 -0.051264487 0.2142165 -0.15036806
-0.12178845 -0.038519662 -0.20125964 0.08782045 -0.12051983 0.06839806 0.08722573 0.101257764
-0.09036476 0.10199245 -0.15913333 -0.27444273 -0.049491342 -0.080992505 -0.21693215 0.009905598
0.16112794 -0.16587552 -0.084746376 -0.19602594 0.0015468796 0.035255272 0.004502796 0.19458537
-0.20780554 -0.11762996 -0.15012957 0.16423978 0.20163919 0.22948642 0.20142333 0.07353882
-0.203285 -0.10505553 0.04605548 -0.2910373 0.06200049 0.05921045 0.015304296 -0.23625419

weight f4 [256, 256]
00000000: 083a 3a3d 7591 f6bc edc2 61bd d0f9 c23b
00000010: 93c2 30bc 1cc2 e3bc 13b9 00bb 8b79 73bd
00000020: ea01 403d a6ee 1f3d eaf0 6d3c 4c87 8c3c
00000030: 3f1e acbd 1885 46bd 1fd7 99bd 88fe 97bd
00000040: ac70 84bd e8cf 033d 13bc da3c cd1c 893c
00000050: eb75 34bd 44a9 ca3c 64ab d7bc 3e45 03bd
00000060: 0467 003d 10ab cf3c 46c9 85bd cf42 3a3d
00000070: a8d7 b2bc f000 273b 60d0 a0bd f878 69bc
00000080: 3a50 51bd d5c9 81bd a85a 9fbd 82d8 67bc
00000090: adc8 fdbc c389 5cbd c760 cf3c 6450 853b
000000a0: c336 90bd f68a 893b b1d6 3ebb 5969 0cb8
000000b0: dc7d 75bc 6450 cdbc c40f 293c 49f1 68bd
000000c0: 1222 2fbd d521 9f3c 3c08 60bd f6bb 263c
000000d0: 6f1c 2e3d f670 79bd 84d2 44bd 5be4 273d
000000e0: 8cf3 1cbd 1397 a2bc affb f0bb c632 253c
000000f0: 8a95 23bd a89f 833b 160c df3c b1d4 e9bc
00000100: 1691 96bd fc41 ae3b 2f7d 03bd 1fbd 46bb
00000110: b55d c33c 7f05 08bc 8a31 5cbd d78e 4dbd
00000120: 90ae d5bc 3fc1 0dbd d8a9 d6bc b917 6abd
00000130: 1c98 073d e06b 463c ad94 c1ba 8b54 29bb
00000140: 1d85 0fbc 4cd0 fa3c bb2e 6aba f0fc 1b3c
00000150: 9e84 5ebd 8f44 3839 3e51 92bd b820 723b
00000160: 9619 8bbd c7c5 15bd 9cdc 873c ad7e 57bd
00000170: 5047 eb3c 3fdb 7dbd c696 0f3d e94f 773b
00000180: 442d 29bd 4c8e f13c e0a7 90bd 742c 22bd
00000190: 2882 b2bd 15f9 44bc ec4d 0ebc 0b72 a0bd
000001a0: 0638 3c3d 46bf 54bc d744 43bd b85d 63bc
000001b0: d44e 86bd c9ca 19bc bca6 5b3c 7921 23bd
000001c0: 3d6c 2bbd 0924 a83c 4d9a 62bd 11ac 25bd
000001d0: ea0d 8ebc e7e1 6bbd 2cd6 c7bc e089 163b
000001e0: 251d 86bd a19c 08b9 ae62 0f3d 96db 623c
000001f0: 4b31 4dbd 9a4d 7d3d d219 74bd 5235 58bd
00000200: ea5b 293c 5aa0 153d 32a4 313d c3da 1b3d
00000210: fa48 58bd 2bc1 f3bb fbb6 64bd 7dcb 8abc
00000220: b4ba 0c3d 12dd 5a3c 958a 93bd e0bd 2ebd
00000230: 4f55 91bd d7ef b83c e0fd 01bc 559a f0bd
00000240: 2398 37bd 6acb a43a 1369 fbbb abf4 813d
00000250: 3ca8 81bc 3435 763a 0a55 11bd e75d 45bc
00000260: 0236 6abc 88bf 233d 6721 753c 707a 52bd
00000270: 08d3 94bd 1fb9 95bd 2586 20bd b5e0 e8bb
00000280: 2fb5 7f3d d70b 9abc 8ad0 cc3a ae76 7a3c
00000290: c157 83bd c766 82bd 1011 e63c 14c6 3b3c
000002a0: 268a 31bd fee4 4abb e94d aabd 8421 8cbc
000002b0: 5a86 7abb 57b9 fdbc 7c34 e6bc a4d5 353c
000002c0: 0477 10bd af9f e93c b326 90bd 6a22 86bd
000002d0: dc53 96bd f1f5 9cbd 3ebb fa3c f6ff 00bd
000002e0: 1b91 8fbd 3daa e7ba 84db 41bd a31e 62bc
000002f0: ab87 8b3c 9d47 e1bc f17e 55bc fe60 9fba
00000300: 6e24 88bd a88a 493c 58ac c23c d7ea d7bc
00000310: e24e 22bc 2785 a4bc 7686 3abd 0418 853c
00000320: 2d97 a2bd 2a3b 423d 15fd 283c c629 3bbc
00000330: 8eff c5bb 02e2 92bd c5f2 03bd 6f35 9dbc
00000340: a95f 9abb e5ad 46bd ac17 b4bb 38fc 06bd
00000350: 1f20 fb3c 17b9 89bd 1785 07bd 7e3f a73c
00000360: 8a3e 97bd 5539 07bd 49da 9a3c 91b3 673b
00000370: d2bf aebc e7a1 0c3c b514 72bd c9a8 153d
00000380: 61a9 99bc ba07 d03c e53c 48bb e4eb d1bc
00000390: 0392 f4ba 8431 853d e06b 6d3d 5409 8abd
000003a0: 7620 40bc bc59 71bd ceb3 c33c ecc6 f43c
000003b0: f160 5bbd 0eab e4bc 49a2 023d bed8 bb3b
000003c0: 867a 40bd afb8 c43b 7e5c c5bc 0e46 8ebd
000003d0: 876c abbc aa0f 2a3c d333 ba3c 1cd9 7cbd
000003e0: ec96 7dbd 45a7 85bd 0928 623c 3681 90bd
000003f0: 4611 82bc 8591 ffbc ccdf 863c bcdd 88ba
0.0454655 -0.030098656 -0.055117536 0.00595019 -0.010788578 -0.02780252 -0.0019641563 -0.059442084
0.046876825 0.039045952 0.01452277 0.017154358 -0.084042065 -0.04846677 -0.07511734 -0.07421595
-0.06466803 0.032180697 0.026701009 0.016737366 -0.044057768 0.024738915 -0.026326843 -0.032048456
0.031348243 0.025350124 -0.065325305 0.04547387 -0.021831349 0.0025482737 -0.078522444 -0.014250033
-0.0511019 -0.063373245 -0.07780963 -0.014150741 -0.030979479 -0.053842317 0.025314702 0.004068421
-0.07041695 0.0041974736 -0.0029119665 -3.3476714e-05 -0.0149836205 -0.025062747 0.0103187 -0.056870732
-0.0427571 0.019425312 -0.054695353 0.010176649 0.042507585 -0.060898744 -0.048052326 0.04098926
-0.038318202 -0.019847428 -0.007354222 0.010082906 -0.039937533 0.0040168352 0.027227443 -0.028543802
-0.07351892 0.0053179245 -0.032101806 -0.0030325127 0.023848394 -0.008302092 -0.05375818 -0.05018505
-0.026084214 -0.034608122 -0.026204035 -0.05715153 0.033104047 0.01211068 -0.001476904 -0.0025837745
-0.008759764 0.030616902 -0.0008933355 0.009520754 -0.054325692 0.00017573147 -0.07144402 0.0036945771
-0.067919895 -0.03656557 0.016584687 -0.05261104 0.028720528 -0.061976667 0.035055898 0.003773684
-0.041302934 0.029486798 -0.070632696 -0.039593175 -0.087162316 -0.012022276 -0.00868557 -0.07834252
0.045951866 -0.012985056 -0.047673073 -0.013877325 -0.06558004 -0.009386727 0.013406452 -0.039826844
-0.04185127 0.020524995 -0.055322934 -0.0404473 -0.01734062 -0.057588484 -0.024394117 0.0022970363
-0.06548528 -0.0001302832 0.035006218 0.013846299 -0.050095838 0.061841585 -0.059594937 -0.052785225
0.010336855 0.036529876 0.04336948 0.038050424 -0.05280397 -0.007438799 -0.055838566 -0.016942734
0.03435774 0.013358371 -0.07204167 -0.042661548 -0.070963494 0.022575302 -0.007934064 -0.117481865
-0.044822823 0.0012572829 -0.007672438 0.06345495 -0.01582729 0.0009392083 -0.03548149 -0.012046314
-0.014295103 0.03997758 0.014961577 -0.051386297 -0.072668135 -0.073107 -0.03919043 -0.0071068653
0.06242865 -0.018804474 0.0015626114 0.0152870845 -0.06413222 -0.063672595 0.028084308 0.0114608
-0.04334464 -0.0030959244 -0.083156414 -0.017105825 -0.0038227052 -0.030972166 -0.028101198 0.011098299
-0.035269752 0.028518526 -0.07038631 -0.06549533 -0.07340214 -0.07664097 0.030606862 -0.031494103
-0.070100985 -0.0017674636 -0.047328487 -0.01380125 0.017032465 -0.027499968 -0.0130307535 -0.0012159643
-0.066475734 0.012301125 0.02376382 -0.026357098 -0.009906502 -0.020083023 -0.04553839 0.016246803
-0.07938991 0.047419704 0.010314246 -0.011423534 -0.0060424274 -0.07172014 -0.032213945 -0.019190518
-0.0047111106 -0.048505682 -0.005495986 -0.03295538 0.030654965 -0.06724756 -0.03308591 0.020416018
-0.07384975 -0.03301366 0.018902915 0.0035354833 -0.021331701 0.008583522 -0.05910178 0.03653792
-0.018757524 0.02539431 -0.0030553874 -0.025625177 -0.0018659238 0.06503585 0.057964206 -0.067400604
-0.011726489 -0.058923468 0.023889448 0.02988001 -0.053559247 -0.027913596 0.03189305 0.005732625
-0.046991847 0.0060034613 -0.024091955 -0.069469556 -0.020925773 0.010379711 0.02272979 -0.06173049
-0.06191151 -0.06526045 0.01380349 -0.07055895 -0.015877377 -0.031197319 0.016464137 -0.0010442059

bias f4 [256]
00000000: 4d0d 3cbd 84f1 3abd 6ac1 1cbd 5027 23bd
00000010: 01b5 81bd 8c43 b23c 2fc6 993d 3272 6ebd
00000020: 1307 323d 523f c23c 3c3f 80bd 7fcc 02be
00000030: d26b ad3c d47d 6dbd 4ff5 ed3c ccf7 f5bd
00000040: 8d80 44bd fb18 92bd 5672 cebb 591c 103d
00000050: a711 af3c 0214 36bd 8d97 0ebc f1d1 debc
00000060: c738 2cbd 2df8 8e3c 0d8a dd3b c528 91bc
00000070: 5014 debb b2de febc 35df 8cbc fd64 82bd
00000080: 1fc7 ebbc 1574 11bd 45df 003d 4434 71bd
00000090: fd12 79bc b9e2 0dbd 929b e5bb 3eda 183d
000000a0: 3b3f 4abd cdc3 0fbd 1a5f 233c 57d8 7e3b
000000b0: 5727 d13c d2da ddbc a86e 5ebd d8d0 9cbd
000000c0: c59c 87bc 5cdd ae3d 3b2a 5b3b 5f1f 323d
000000d0: b326 5d3c 785f 073e 40bd 253d acc8 4f3d
000000e0: a2be 56bc b37d 9cbb 6b6f 45bd b669 5fbd
000000f0: 7421 b4bb 65d2 2ebd 5873 c3bc 7a38 963d
00000100: 6f67 0ebd fc03 80bd 096a fd3c b188 33bd
00000110: 42bf 273d 60c9 0c3d 90b7 883d fc28 a13d
00000120: e2b7 8d3c ceeb 863b f8a0 7b3d d6c8 94bd
00000130: 9941 963d 3d8e 31bd 4e0a 2abd 509b 46bd
00000140: 7935 7e3c b48d 973c 4614 d33d ef0c 983d
00000150: 2bde b6bc f5f3 abbb 555f dd3c badf cd3c
00000160: 8aab 573d 657a 99bc f60d 4bbb d405 f53b
00000170: 79d8 86bd 1640 26bd a6f4 30bd a11e 903d
00000180: 17d1 033d 471c 55bd 7a9b 38bd a692 8abd
00000190: 84bc 40bd 3065 e9ba 18e0 eb3d ecfb 133d
000001a0: dd43 98bd 3cdf 0dbd c558 64bd 5df5 933d
000001b0: 38c6 09bd 0422 f5bd 7235 0dbd 88e3 98bb
000001c0: 7e92 573c 2ab0 bb3d 4ba3 b13c b74b 8cbd
000001d0: 78f8 573d 9876 5b3d a5cf 1ebd 546d 2b3d
000001e0: 3b0f 5a3c 2cf7 5abd 6157 283c 223c fa3c
000001f0: 8abf df3c 58cc c3bc 5a44 653d 8d65 153b
00000200: 5d3e 5ebd 78ae a13d 0321 113c 9389 8abd
00000210: 44db eebc 894d 233b 2d28 603d ec32 423d
00000220: 5e57 56bd fbb7 85bd 6b88 0abe c710 82bd
00000230: c626 193d 7e4c 1c3d a798 20bd 0449 733d
00000240: f7b2 c1bc 4c8a 113d 7c16 5438 8d79 02bd
00000250: f7b4 d73c 64ea 213c d01d 073d 69a0 3c3d
00000260: 103a 91bc cbc1 9d3d b87e 0cbc 0e78 873c
00000270: 8fd5 003d dd27 afbb 4e8b 06bc 5d48 e0bc
00000280: 3ed7 0339 8f99 a03d e4f5 a43d 3222 3e3d
00000290: e46e 38ba f038 dbbb 7208 bb3c 690d 183b
000002a0: b752 60bc 02bb 95bd 5b4f fe3c 5db9 abbc
000002b0: b207 64bd 7c22 75bd b64a cfbc 617c 003d
000002c0: e9e4 823d 99b4 8abd 5777 c8bc af51 c0bd
000002d0: cf90 c6bc 10c8 02bc 3be6 32bd ffe5 753c
000002e0: 4990 a9bd 829f 0ebd 82f7 44bd 19d1 c33d
000002f0: 4a06 6b3c 4524 2ebd 01a5 4fbd 635c 293b
00000300: 3a79 8cbd 07c6 873d e036 e7bb 0833 343d
00000310: 8b96 1f3d 077d 47bd c688 2dbd 6404 70bd
00000320: 8f01 9d3c d4ba 6f3d ab35 21bd b81b aabd
00000330: 5d7f 843d 6b55 88bd f36b f3bc ef8e 2b3d
00000340: 0819 5fbd 5527 9db9 b6af 86bc ff9d 2b3a
00000350: 50fb 9bbd 1f65 703d 7436 31bd 8375 cd3c
00000360: 1a65 85bd fc90 f03c 4f9a af3b 1e18 eb3c
00000370: 5100 8abd d978 18bd 1dfe cd3d 085e b6bc
00000380: b346 ccbc 3766 86bd 900b 98bc 6050 02bc
00000390: a5bd 90bd 23c8 86b9 94f1 f5bc 8db6 c43d
000003a0: 1f23 5abd f699 57bd 32e0 173d 8cc2 1abd
000003b0: 674f 93bd 607d 9dbd 45b4 2c3d 5668 6a3c
000003c0: 5b4b 793d 12ad 6ebd 5462 b7bd e0d7 87bd
000003d0: 4a2d 9a3c 3cec ba3c 5eb0 96bd 1c24 b73d
000003e0: 3535 d2bd fd41 8e3b defe e4bb a355 c1bd
000003f0: 0977 2c3c c99d 7fbc 27a1 f73c 94d4 e9bb
-0.045911122 -0.045640483 -0.03827039 -0.039832413 -0.06333352 0.021760724 0.07508504 -0.058214374
0.043463778 0.023711834 -0.06262061 -0.12773322 0.021169577 -0.057981327 0.029047636 -0.12010154
-0.047974158 -0.07133671 -0.006300251 0.035183284 0.021370722 -0.044452675 -0.008703125 -0.027199717
-0.042046335 0.017452324 0.0067608417 -0.017719636 -0.006777324 -0.031112049 -0.017196277 -0.06366918
-0.028781472 -0.035511095 0.031462926 -0.058887735 -0.015202281 -0.034640048 -0.007007071 0.037317507
-0.049376708 -0.03509884 0.009971404 0.0038886273 0.025531454 -0.02708188 -0.05430475 -0.07657021
-0.016554246 0.08538315 0.003344192 0.04348695 0.013497996 0.13220012 0.040463686 0.050728485
-0.013106974 -0.0047757267 -0.04820196 -0.054544173 -0.005497152 -0.042681117 -0.023858711 0.07334991
-0.03476661 -0.0625076 0.03093435 -0.04383153 0.040953882 0.034371734 0.06675637 0.07869145
0.017299596 0.0041174656 0.06143281 -0.07264869 0.073367305 -0.04334854 -0.041513734 -0.04848796
0.015515679 0.018500187 0.10306601 0.07424342 -0.022322735 -0.005247588 0.027022997 0.025131095
0.052653827 -0.01873512 -0.0030983663 0.0074775014 -0.06584258 -0.04058846 -0.043202065 0.07037092
0.032181825 -0.05202892 -0.04507015 -0.06766252 -0.047054783 -0.0017806645 0.11517352 0.036128923
-0.07434819 -0.03463672 -0.05574872 0.07224534 -0.0336363 -0.119693786 -0.034474798 -0.0046657957
0.013157485 0.0916446 0.02168431 -0.06850379 0.052727193 0.053579897 -0.038772244 0.04185231
0.013309295 -0.053458378 0.010274739 0.030546252 0.027313013 -0.02390115 0.05597339 0.0022796125
-0.054258693 0.078946054 0.008857968 -0.067645214 -0.029157288 0.002491804 0.054725815 0.047411844
-0.052329414 -0.06529232 -0.13528602 -0.06350856 0.037390493 0.038158886 -0.03920808 0.059395805
-0.023644907 0.03553228 5.056568e-05 -0.0318542 0.026331408 0.009882543 0.032987416 0.046051417
-0.017727882 0.07702979 -0.008575134 0.016536739 0.031453665 -0.0053453282 -0.008211924 -0.027378256
0.00012573318 0.07841789 0.080547124 0.04641933 -0.0007035567 -0.006690137 0.022831175 0.0023201352
-0.013691596 -0.073110595 0.031043699 -0.020962412 -0.0556714 -0.05984734 -0.02530418 0.031368617
0.063913174 -0.067727275 -0.024470968 -0.0939058 -0.024238972 -0.007982269 -0.043676596 0.015008449
-0.08279473 -0.034820087 -0.048087604 0.095613666 0.014344761 -0.042515058 -0.05069447 0.002584242
-0.0685906 0.066295676 -0.007056102 0.04399398 0.03896193 -0.04870322 -0.042366765 -0.058597937
0.019165782 0.058527783 -0.039357822 -0.08306068 0.06469605 -0.06656917 -0.02971456 0.04188436
-0.05446723 -0.00029974678 -0.016441207 0.00065466756 -0.076162934 0.058690187 -0.04326482 0.025080448
-0.06513424 0.029366009 0.005358971 0.028698023 -0.067383416 -0.037224624 0.10058234 -0.022261634
-0.024936056 -0.06562465 -0.0185602 -0.007953733 -0.07067422 -0.00025707585 -0.03002242 0.09605131
-0.05325615 -0.052637063 0.037079044 -0.03778319 -0.07192879 -0.07689929 0.042164106 0.014307102
0.06086288 -0.05827052 -0.089543015 -0.06632972 0.018820424 0.022817723 -0.07357858 0.08942434
-0.10264055 0.0043413625 -0.0069883903 -0.09440162 0.010526427 -0.015601584 0.03022821 -0.007135937

weight f4 [3, 256]
00000000: 9764 34bc dd90 8fbd 432e 0eb9 b478 f13c
00000010: e5d3 153d 0953 6d3c 76ad 8d3c 0734 493c
00000020: bf2c eebd bc57 d8bd 569f 1e3c 2658 afbe
00000030: 4322 6abc 06c8 a73c b204 843c b93b 9b3d
00000040: cca8 a43c 8c88 103d 01ea c7bd c907 503e
00000050: bd88 6ebd a0cb 413d 7f52 033e aadc 72be
00000060: b9bf 183d b5b3 04bd 4837 debd d457 29bd
00000070: 3d0a 193c 6f68 ebbc 0386 94bd d042 c1bc
00000080: 7775 ccbc 37f8 613b 954b 17bd 684d f1bd
00000090: e4cb ffbb 0007 54bc 0273 c1bc f93b 263d
000000a0: ea41 f73c 3854 c8bc 6a09 d5bc 5d21 eebd
000000b0: 71ad 8cbd 9f73 a1bb dc66 d1bc d389 f3ba
000000c0: 0906 b53d e784 a6bd 747d 1d3d 5b1b 02bd
000000d0: 80c8 b5bc 6ac4 673d e38e f93b ad88 0c3f
000000e0: ca8d 5cbe 7b81 a4bd e2a7 1fbc 792d 44bc
000000f0: a433 b6bd 5312 06bd 9fc8 ac3c 1497 2d3d
00000100: 5f6a 1dbd 8afa 243d a3d8 3bbd ac0b ee3d
00000110: dd15 96bd 5ec4 10bb 4924 2dbd 224a 463d
00000120: 4cd0 a1bd 2ba1 683d d990 0bbe 6a77 423d
00000130: ffa7 39bd 439e 05be e331 f13c 1cb2 2e3d
00000140: 1395 363d c8cb 363d 3ef8 96bc daaf 97bc
00000150: 322b 9a3c 987a 093d 1995 363c acfe 4ebd
00000160: bd34 32bd a269 82bd b149 35bd 2d4d 4abb
00000170: cc01 813a c795 f63c 4fe5 88bc b5b7 e6bc
00000180: 3e9b b1bd f5c9 363d 8766 babd 9d1c 643d
00000190: cf9d eb3b aafc d3bc d7aa 043e b51a 7a3c
000001a0: 667d 35be f661 26be a671 b7bd 21f7 d4bd
000001b0: 4c0b 073d 735e 4abd 8636 0cbe 15ca e3bc
000001c0: beca 7abc 5b2a 4b3e fba1 dfbd c94c 873c
000001d0: 6bec e1bd 958f 013d 0257 17bc 3ae7 0a3c
000001e0: 2844 b0bd ec59 183d 5027 c83c 2750 19be
000001f0: c5e9 31bd 8fbc 1abe 711d 15be 54b4 27bc
00000200: fe3b 8cbe 522d febd 3aa8 a8bc d667 4cbd
00000210: fe82 b039 e2ce 0abc c4b0 b03b af80 12be
00000220: eed5 0cbd 1519 12bd a14a dcbe d316 82bc
00000230: e98a e23b 44b9 c1bd 5249 a3bc 0ee3 d83d
00000240: dbce 1e3c f430 9ebc 0249 6dbc 51eb ae3a
00000250: 32b9 2d3d cfab 483d 3b66 acbd dd1e 34bd
00000260: 3bad ac3c 6d89 abbd 81a1 bc3c 204c b1bd
00000270: c8c2 e9bd dfe1 093c b62b 4dbc a25c a8ba
00000280: 2042 743d 049a bbbd 6fc5 e03c 8831 a63d
00000290: a618 95bd 18d8 313d 0be2 a23d df68 2d3d
000002a0: 64c8 933c d3b0 ce3c bcbf 273d 10bf 16be
000002b0: f180 cabd 2c6d 0abd bae9 af3b 00a8 a0bb
000002c0: 3caa e9bc 208b 833c cccc fbbc 73d5 18be
000002d0: 14c8 43bd 7304 0d3d ec45 64ba 311a 553c
000002e0: 435d c43c 348a 323d dc65 79bd eeb3 913e
000002f0: 62bc d53c c1de 0abd 40c8 d13c 5fa9 913c
00000300: 3b8d a2bd a39e 69bc 2a30 1fbc e349 15bc
00000310: 6196 8d3c 6347 d33a 15fc ddbd 6eb3 5bbd
00000320: 9c37 ef3a c462 babc f816 303c 6dca 413d
00000330: ee49 0d3e 5c90 1dbb 04c5 a9bc 3813 963d
00000340: e571 2abd b330 063c ef8f 2fbd 1ec2 6bbc
00000350: cc74 413c 2085 293e 0e59 baba faa1 b3bc
00000360: 6a74 38be ee14 3ebd e3fa 89bd 3221 0c3c
00000370: 1ebc 1c3d 43f9 123c 47f4 a73d 275f 25be
00000380: 9c7c 31bd d2c1 133c 5c83 4d3c 1c6b 523d
00000390: 01af fc3b 7ca6 14bd 7344 0abc 2a59 933d
000003a0: a2eb 0e3c 30fc a3bc 0543 5c3d d615 f93c
000003b0: bfec 1ebe c033 f3bd 8959 b23c b9ff ebbd
000003c0: 872e 023e f33b 383d ca4c 4f3d 12bf 0b3d
000003d0: ca9e 5eba 08a7 783d 1080 27bc 4498 a03e
000003e0: b89e 72be 3004 4fbd c014 34be 0ac2 80be
000003f0: b639 55bd dda4 55be bdd4 893c d262 923c
-0.011010311 -0.07010052 -0.00013559409 0.029476501 0.03657903 0.014485129 0.017294627 0.012280471
-0.116296284 -0.10563609 0.009681543 -0.3424694 -0.014290395 0.02048112 0.01611552 0.075797506
0.02010002 0.03528647 -0.097614296 0.2031547 -0.058235873 0.047313333 0.12824439 -0.23716989
0.037292216 -0.032397944 -0.10850388 -0.041343525 0.00934082 -0.028736321 -0.07252123 -0.023591429
-0.024958355 0.0034480223 -0.036937315 -0.11782342 -0.007806288 -0.012941122 -0.02361441 0.040584538
0.030182797 -0.024454221 -0.026005466 -0.11627457 -0.06869019 -0.004927113 -0.025561742 -0.0018580504
0.08839042 -0.08130818 0.03844972 -0.03176437 -0.022190332 0.0565838 0.0076159104 0.5489605
-0.21538463 -0.08032509 -0.009744616 -0.011973732 -0.088965684 -0.03273232 0.021091757 0.042380407
-0.03843152 0.040277995 -0.045860898 0.1162332 -0.07328389 -0.00220897 -0.042270932 0.048410542
-0.079010576 0.056794327 -0.13629474 0.047477163 -0.04532623 -0.13048653 0.029442733 0.042650327
0.044575762 0.044627935 -0.018428918 -0.01851647 0.018819425 0.03356418 0.011143946 -0.050535843
-0.043507326 -0.06367804 -0.04425973 -0.0030868754 0.0009842454 0.030100716 -0.016710905 -0.02816377
-0.08672188 0.044626195 -0.09101587 0.05569135 0.007190443 -0.025877316 0.12955795 0.0152651565
-0.17723617 -0.16248307 -0.089572236 -0.103986986 0.032969758 -0.04940648 -0.13692674 -0.027806321
-0.015307127 0.19840376 -0.10919567 0.016516106 -0.11031421 0.03163107 -0.009237053 0.00847798
-0.0860675 0.03719513 0.024432808 -0.14971982 -0.04343583 -0.15110992 -0.14562012 -0.010235865
-0.2738952 -0.12410988 -0.02058803 -0.049903713 0.00033666933 -0.008472176 0.005392166 -0.14306901
-0.034383707 -0.03566845 -0.43025687 -0.015880024 0.006913532 -0.09459165 -0.019932423 0.10590182
0.009692873 -0.019310452 -0.014482738 0.0013345276 0.042412944 0.048991974 -0.084179364 -0.043974746
0.021078696 -0.08375821 0.02302623 -0.08657098 -0.11414105 0.008415668 -0.0125226285 -0.001284499
0.059633374 -0.091602355 0.027437894 0.08114916 -0.07280092 0.043418974 0.079532705 0.04233634
0.01803989 0.0252308 0.040954337 -0.14721322 -0.09887875 -0.03379552 0.0053684385 -0.0049028397
-0.028523557 0.01605755 -0.030737303 -0.14925174 -0.04779823 0.03442807 -0.0008707929 0.013006733
0.023970252 0.043588832 -0.060888156 0.28457588 0.026090804 -0.03390384 0.025608182 0.017780958
-0.07937094 -0.014259013 -0.009716073 -0.009111854 0.01728362 0.0016119297 -0.108390965 -0.053637914
0.0018250826 -0.022752173 0.010747664 0.04731219 0.13797733 -0.0024042344 -0.020723827 0.073278844
-0.041612525 0.008190322 -0.042861875 -0.014389543 0.011807632 0.1655469 -0.0014217214 -0.021927822
-0.18013158 -0.04640668 -0.06737306 0.008552836 0.03826534 0.008970561 0.08200889 -0.16149579
-0.043331727 0.009018378 0.012543526 0.05137168 0.007711292 -0.036291584 -0.008439171 0.07194741
0.008723171 -0.020017713 0.053774852 0.03040592 -0.15519999 -0.11875105 0.02177121 -0.115233846
0.12713061 0.044979047 0.05061034 0.034117766 -0.00084922893 0.06070617 -0.010223404 0.3136617
-0.23693359 -0.050541103 -0.1758604 -0.2514804 -0.05205699 -0.20863672 0.016825074 0.017869387

bias f4 [3]
00000000: e836 9d3d 4cd1 2cbd 0f26 803d
0.07676488 -0.04219179 0.06257259

weight f4 [256, 18]
00000000: bf77 1e3e 1595 31be 26b5 debd a9d6 b9bd
00000010: 8b28 103e 86bb cb3e b444 4a3d 94a1 ad3e
00000020: 2fbf 8dbe a1f6 a53c 3876 fb3d 53d8 763d
00000030: d749 6c3e 0463 08bd 6a71 bd3a 5558 423e
00000040: 10d3 0fbe 2fa1 71be 5618 35be 06be 9f3d
00000050: 6ba8 1b3e 61e7 57be aa02 943d 1ee7 e73d
00000060: 57f9 5b3e 3fc5 983e 8524 e03c d57e 8c3d
00000070: e0d0 573e ef89 113d 3da7 a23b 9087 0dbe
00000080: f554 6b3e a4b6 d8bd d464 2abe 5fd3 ddbc
00000090: 5e2b 4abe 5912 15be 1359 cd3d 035c 0bbd
000000a0: 4eb0 cfbd 784f b33d 90d0 18be ae6b ae3c
000000b0: 6528 673e 74fe acbd 7f0d 58bb 0e06 cfbc
000000c0: 37fb c03c 0504 9abd 9b90 fb3d 564e 813d
000000d0: c699 0abd 478b 13be fcb7 5c3c b0b1 6b3c
000000e0: 8e1f 873d 00f4 313b 0065 233c 4a5f 11bc
000000f0: ad34 573e a23a 9c3e 3cca f13d 271f 49be
00000100: 2668 423e 353b 9fbd 0a51 78be f790 12be
00000110: 379b 1dbb d646 38bc 3150 073e c0b5 583e
00000120: 671f 93be b8bf a9bd 69f8 753e 8030 de3d
00000130: cad6 9b3d 6ba4 29be 02a2 eb3d a776 cbbd
00000140: f98d e4bd 3d2f ebbd 84e9 743e cd42 513e
00000150: cb58 1a3d e123 37be 6164 d4bd 017f 6cbe
00000160: 76d7 553c 0f82 993d 9dbf 84be fcea 503d
00000170: 9f0c 52be a665 29be c9dc 53be 19e7 483e
00000180: ac79 1e3d a095 80be dd55 0a3e 8026 f9bd
00000190: b44a 3a3e 4529 6d3c c999 0cbe ef1c 8e3d
000001a0: ae5e 23be 0176 6c3e 2680 ebbc 87ab 3c3e
000001b0: 28ab 71be ae07 8fbd 52af 3cbe 5cc0 813d
000001c0: 6ad6 b5bd 8ad3 d5bd 0ac7 e1bd 0bd6 bbbe
000001d0: e6de 24bd 28d9 823d f51f b73d a1a9 963d
000001e0: 599a 1a3b 772e 853d 3401 823e 52ed e7bd
000001f0: da55 2a3d f0d5 c7ba 87ef bb3d ece7 17bd
00000200: a5b8 c7bd 28f8 56be f6f8 a7bd d8bb 7b3e
00000210: 52ae b7bd 852c 12be b380 39be 53a6 093e
00000220: c857 323e 8439 493d b5c6 6bbe b67e 88bd
00000230: 76cb 1e3e 3b3f 163e 4e49 df3d 7384 cdbd
00000240: 0a54 03bd 326a 8f3d fb9f 2e3e eca9 c1bd
00000250: 23ac 51be 3029 89bd bbc2 373e 0e6e 5a3e
00000260: a8e9 b0bd f23e 77be b61f 0f3e ecb4 3a3c
00000270: d666 85be afb0 a8be e57b e7bd 1c5e 9dbe
00000280: 7211 82be 9248 82be 0c12 933d 1571 423e
00000290: 268c 5c3e 5cab 72be c0bd 1dbd 07be e9bb
000002a0: 8454 5bbe e711 343e f2b0 fd3d c898 66be
000002b0: 1979 a5bd f674 343e e33d 3cbe c413 413e
000002c0: b2b4 383e 6c1a 50be dd88 95ba 666b ffbd
000002d0: 2289 823e 0892 99bc d644 d73c 5b1e 68be
000002e0: 000b 70bd 8300 0abe 0d01 393e 7c58 92be
000002f0: e0c7 80be 11de 42be a063 193d b2e6 67be
00000300: 118d 173d 2737 c03d 4d92 d2bd 81d6 09be
00000310: 4992 ecbd 56a5 27bd 8bfa 78bb ef67 6d3e
00000320: 5b4c 0cbe c696 b8bc 82a6 03be 6676 c83d
00000330: a36d 0c3e e5ad 273e 06e0 5e3e 0433 a1bd
00000340: 444b 073e b420 c33d f73a adbd 838e f43d
00000350: 70f0 463d 32de 273d dfa2 22be ca53 96be
00000360: e04b 5d3e 8cb0 c4bd c06e 07be d395 28bd
00000370: 9a63 33be 81ec eb3d 785c a8bd 6539 1e3e
00000380: 6cb1 cdbd b10f a43d a0aa 433c 1318 ca3c
00000390: c7c4 723e ea3b 37bd 0ba0 213e 904a f5bd
000003a0: bc9f 383e d215 83be 3327 69be 4c2d 3abd
000003b0: 4bdb a5bd 7bf2 9c3e 50e2 7ebd 39eb 8d3e
000003c0: 128a 81bd ac2d 9b3d f772 a53e 3d54 003e
000003d0: 2ae1 413e c27c 873d 024d 40bb e1cd 8d3d
000003e0: 1128 afbc 5715 453e 5044 cc3c ec78 18bd
000003f0: 72bf ed3d 3547 573e 45f4 283e a1ee 593b
0.15475367 -0.17342027 -0.10874395 -0.09074146 0.14077966 0.39791507 0.049381927 0.33912337
-0.27684924 0.020259203 0.12278408 0.060264897 0.23075043 -0.033297554 0.0014453356 0.18979008
-0.14045358 -0.23596643 -0.17685065 0.07799916 0.15200965 -0.21084358 0.07227071 0.11323379
0.21481834 0.29837987 0.027361164 0.06860129 0.21075773 0.035531934 0.004963784 -0.13821244
0.22981627 -0.10581711 -0.16640025 -0.027078329 -0.19743106 -0.1455778 0.10026755 -0.034023296
-0.10141049 0.08755392 -0.1492331 0.02129158 0.22574003 -0.084469706 -0.0032967029 -0.025271442
0.023557289 -0.07520298 0.12283441 0.063137695 -0.033838056 -0.14408599 0.0134716 0.014385626
0.065978155 0.0027153492 0.009972811 -0.008872816 0.21016188 0.30513483 0.11806151 -0.1964079
0.18985042 -0.07774965 -0.24249664 -0.14313112 -0.0024048814 -0.011247357 0.13214184 0.21163082
-0.28734896 -0.082885206 0.24020542 0.108490944 0.07609327 -0.16566627 0.1150551 -0.099347405
-0.11159892 -0.11483619 0.23917204 0.20435639 0.037682336 -0.1788478 -0.10370708 -0.23095323
0.013051858 0.0749551 -0.2592744 0.05100535 -0.20512627 -0.16542682 -0.20689692 0.19619407
0.038690254 -0.25114155 0.13509317 -0.121655464 0.1819256 0.014475171 -0.1373054 0.069391124
-0.15954086 0.2309189 -0.02874763 0.18424807 -0.23600447 -0.06983887 -0.18426254 0.06335518
-0.08878787 -0.104407385 -0.11024292 -0.3668674 -0.040251635 0.063890755 0.08941642 0.07356573
0.0023590534 0.06503003 0.25391543 -0.11324562 0.04158578 -0.0015246253 0.091765456 -0.037086412
-0.09752015 -0.20993102 -0.082017824 0.24583375 -0.08968796 -0.14274795 -0.18115501 0.13442354
0.17416298 0.049127117 -0.2302502 -0.06664793 0.15507302 0.14672558 0.10902654 -0.10035028
-0.032062568 0.07002677 0.17053215 -0.09456238 -0.20475821 -0.06697309 0.17945378 0.21331045
-0.086383164 -0.24145105 0.1397694 0.011395674 -0.2605502 -0.329473 -0.11302928 -0.30735862
-0.25403935 -0.25445992 0.071811765 0.1898845 0.21537837 -0.23698181 -0.038511038 -0.0071332487
-0.21418959 0.17584954 0.12387265 -0.22519219 -0.08079738 0.17622742 -0.18382983 0.18855196
0.1803768 -0.20322579 -0.0011408586 -0.124716565 0.2549525 -0.018746391 0.02627794 -0.2266783
-0.05860424 -0.13476758 0.18066807 -0.28583133 -0.25152493 -0.19030024 0.037448525 -0.22646597
0.036999766 0.093855195 -0.10281811 -0.13460733 -0.11551339 -0.04092916 -0.0037991132 0.23184179
-0.13701002 -0.022532832 -0.12856486 0.09788208 0.13713698 0.16374929 0.21765146 -0.078710586
0.13212305 0.09527722 -0.08458512 0.119412445 0.048569143 0.040983386 -0.15882443 -0.293608
0.21610975 -0.09603986 -0.13225842 -0.04115851 -0.17518464 0.11519719 -0.08220762 0.15451582
-0.10043606 0.080108054 0.011942536 0.024669683 0.23707877 -0.044734873 0.15783708 -0.11977112
0.18029684 -0.25602585 -0.2276886 -0.045453355 -0.080984674 0.30653748 -0.062227547 0.27718523
-0.06325163 0.075770706 0.32314274 0.12532134 0.1893355 0.066155925 -0.0029342775 0.06924034
-0.02138141 0.19246422 0.024934918 -0.037224695 0.11608781 0.21023257 0.16499431 0.0033253806

bias f4 [256]
00000000: 4bf9 0a3e 7d2f a6bd 672e be3d 3a8e eabd
00000010: 4cec 0f3c 4ca7 bc3c 06e5 1cbe ac13 7c3e
00000020: 8ba7 d2bd 391b 54bd 29bb 12be 91e0 4d3e
00000030: 71f9 9f3d ee81 613e 9b59 573e 48cf 623e
00000040: 4f9d c63d e0b2 5a3e b658 e6bc d1fe cf3d
00000050: cc56 ddbd b1c8 09be d11c 59be 06a6 303e
00000060: d405 433e ffdb 3dbe 5d16 67bc 2d9b ec3c
00000070: 9894 64bd ac7a 77bd c170 acbd c890 d43d
00000080: 926e f53c e839 dabd fe48 cd3d 219d 593e
00000090: 9ef9 923d 8cbe e7bb f069 45be d4e4 893d
000000a0: ba14 263e 9f6a bfbd 6d88 9fbd c260 2b3d
000000b0: dfe6 04bd ffa3 cc3d cd0a 293e 41e6 44bd
000000c0: c553 afbd 5c5c 49be 2b23 fc3d 2009 59be
000000d0: a39f 3a3e f728 fdbd 88e7 1fbd 31c5 6f3e
000000e0: 1528 5f3e aae5 4ebe 20cb 72be 7b79 213e
000000f0: 176a 3dbd 0ac7 1e3e f776 2d3e 33ea 0ebe
00000100: d77a ce3d 1254 0b3e dcbc 80bd 142b 293e
00000110: c08e e93b bbae cdbd 4012 ae3d e473 e93d
00000120: ae4c 3abe ec68 743e 0fdf c0bd dcbc 0d3e
00000130: ca34 18be 31a2 023e 229d 6f3e f9c6 6c3e
00000140: f78c de3d aac5 993b bfb7 553e c0ef fa3d
00000150: 77c2 a43d 5027 1a3e 5975 6f3e 48bd 463e
00000160: 38cf acbd 678b 90bd 4587 34be d251 143e
00000170: 69e7 473e 52a0 e6bd 5ac3 ef3d a2b8 4b3d
00000180: fa69 c53d ac29 d0bd c253 313e a082 963d
00000190: 03dc 16be 016a 89bd 7c5c 623e bce5 8dbd
000001a0: a472 113e ad86 dcbd 10ef 86bd 2053 0e3e
000001b0: 10d7 663e 7eae d0bd a78a 143e ac25 e43c
000001c0: 2aa2 57be 088b e4bd 3e73 15be 5060 603e
000001d0: 806c 893e 0635 663e 5212 44bd d06a 30bd
000001e0: e369 60be 0f35 07be cf70 09be 892c 89bd
000001f0: ba89 133e 1b84 22be 774d 413e 8a35 27be
00000200: 7442 b33d 96a4 dcbc 09b5 453e 5949 54be
00000210: a372 14be d44e 063e 5061 03be 8cbd 803d
00000220: 486e 54be 7c80 abbc f834 1c3d ea6f 1d3e
00000230: daed 833d d978 803d 28c1 56be 11e1 5dbe
00000240: 1075 8ebd fd0c 453e 7741 c0bd d6b9 17be
00000250: 4faf fcbb befb 60be 030e 6fbd 3f6b 26be
00000260: 5756 e03d 0c97 0f3e af96 1bbe 74d1 08bd
00000270: 1ec9 3b3d b5e4 30bd 7a33 c93d a4e0 a7bd
00000280: b1f2 60be 8f03 6cbe 359d 3f3e 5ba4 67be
00000290: aaae 14be 23ad afbd 2afa 7a3d ed03 713e
000002a0: 5c00 42bd 3d96 3a3e 14da 61be 8e09 99bd
000002b0: 4a8b 20be 0cc0 afbd dc31 783d 6441 043e
000002c0: 06fa 74be 5fdc 533e a3c1 29be 0a8a f03d
000002d0: a5d4 babc 214c 4cbe 2881 cdbd 84c9 fcbd
000002e0: 7ccb 403e 5f18 cebc 2e3c 19be ceb8 793e
000002f0: 6732 4ebc 9d8e a23d 49e4 6e3e a20e 403e
00000300: cbb3 ec3c aacf 5cba 0aa6 25bd 8462 f6bd
00000310: a447 723e 194e 223e 889d 55be 1f23 a7bd
00000320: 54a5 09be 48d8 6fbe ed64 5fbe efdf fcbc
00000330: 8dd5 bd3c b953 28bd 61d9 74bc d196 7b3d
00000340: ecc7 603e ed42 59be 354c 1bbe af7c 00be
00000350: fd0c a0bd c6a2 953a 55be a4bc dc1f e93d
00000360: 9eac 25be 883e 853d c2ae 873b 0128 663e
00000370: a351 4f3d 0fc4 7b3e e609 163c e681 00bd
00000380: 4d82 27bd 932f 50be 60c0 093e 9d62 063e
00000390: 4c04 1f3e 7b52 743e c791 fa3d e52f 64bd
000003a0: 9646 e6bd 0c32 da3d 38f0 883b 65cc 0a3d
000003b0: 5a38 0f3e 570a 723e 5f84 d53d e80a 3f3d
000003c0: e9ca ecba 55de 043e 6a64 32bc 708d 613e
000003d0: 3726 47be 70d7 1cbc b9ad 7b3e 37d4 d23d
000003e0: ee03 a43d 00eb 4ebe 47a9 4bbe 89bc 433e
000003f0: 8b1b 683d d3af 0dbe 2266 fdbd aa5c 1b3e
0.1357166 -0.081145264 0.09286194 -0.11452909 0.008784365 0.023028992 -0.1532174 0.24616879
-0.102858625 -0.051783774 -0.14329208 0.20105197 0.07811249 0.2202222 0.21030276 0.22149384
0.09697973 0.21357298 -0.028118473 0.10156024 -0.10807571 -0.13455464 -0.21202399 0.17250833
0.19045192 -0.18540953 -0.014104453 0.028882587 -0.055805773 -0.060419723 -0.084199436 0.10379177
0.02995995 -0.10655576 0.10023688 0.21251346 0.07176517 -0.0070722755 -0.19278693 0.067330986
0.16218844 -0.09346508 -0.07789693 0.041840322 -0.03244674 0.09992217 0.16508026 -0.04807115
-0.085609 -0.19664139 0.12311395 -0.21194887 0.18224959 -0.12361329 -0.039039165 0.23415066
0.21792634 -0.20204797 -0.23710299 0.15768997 -0.046243753 0.15505615 0.16939913 -0.13956527
0.100820236 0.13606289 -0.06286022 0.16520339 0.007127613 -0.10043093 0.08499575 0.113990575
-0.18193313 0.2386815 -0.09417545 0.13841575 -0.14863887 0.12757184 0.23399785 0.23122777
0.10866731 0.004692753 0.20870875 0.1225276 0.08044904 0.15054059 0.23384608 0.19408143
-0.08437961 -0.07057839 -0.17629726 0.14484337 0.1952187 -0.112610474 0.11707182 0.049736626
0.09639354 -0.10164198 0.17317107 0.073491335 -0.14732365 -0.06709672 0.22105592 -0.06928584
0.14203888 -0.10767875 -0.06588566 0.13898897 0.22542977 -0.10189532 0.14506017 0.027849995
-0.21057954 -0.111593306 -0.14594743 0.2191174 0.2684059 0.22481164 -0.047869034 -0.043070614
-0.21915393 -0.13203834 -0.1342194 -0.066979475 0.14408007 -0.15870707 0.18877207 -0.16329017
0.08752909 -0.02693395 0.1930734 -0.20731105 -0.14496855 0.13116008 -0.1283009 0.06286153
-0.20745194 -0.02093529 0.038136452 0.15374723 0.06441851 0.0627305 -0.20972121 -0.21667887
-0.06955922 0.19243236 -0.093874864 -0.14816985 -0.007711328 -0.21971032 -0.058362972 -0.16251849
0.10953968 0.14022464 -0.151942 -0.033402875 0.045846097 -0.043186862 0.098242715 -0.08197144
-0.2196758 -0.23048232 0.18712313 -0.2262129 -0.14519754 -0.08577945 0.06127373 0.23536654
-0.047363624 0.18221374 -0.22055846 -0.074725255 -0.15678135 -0.08581552 0.060594425 0.1291557
-0.23923501 0.20689534 -0.16577773 0.11745079 -0.022806475 -0.19950916 -0.100344 -0.123431236
0.18827623 -0.025158105 -0.14964363 0.24386904 -0.012585259 0.079373576 0.23329271 0.18755582
0.028894326 -0.00084232783 -0.04044155 -0.12030509 0.23660141 0.15850104 -0.20860875 -0.08160996
-0.13441974 -0.23422348 -0.21815844 -0.030868499 0.023173118 -0.04109547 -0.014944405 0.061423127
0.21951264 -0.21216936 -0.1516579 -0.12547563 -0.07814977 0.0011416308 -0.020110289 0.1138303
-0.1617913 0.065060675 0.004140706 0.22476198 0.050614964 0.24586509 0.009157633 -0.03137388
-0.04089575 -0.20330648 0.13452291 0.13123555 0.15528983 0.23859589 0.12234836 -0.05570974
-0.11243932 0.10654077 0.004179027 0.033886332 0.1398634 0.23636757 0.104256384 0.04664126
-0.0018065843 0.12975438 -0.010888198 0.2202661 -0.19448172 -0.009572849 0.24577989 0.10294383
0.08008562 -0.20206833 -0.19888793 0.19114889 0.056666892 -0.13836603 -0.12372996 0.15172067
