data/cmd_td3_pytorch_use/cmd_td3_pytorch_use_s0/pyt_save/model.pt (torch_old, 856497 bytes, 16 tensors)

weight f4 [256, 15]
0.02978881 0.13850912 -0.24424312 -0.22175051 -0.09944643 0.03769486 -0.0051157475 0.17300265
-0.054631125 0.036672886 -0.10976485 -0.029309852 -0.21493572 -0.13926066 -0.13816933 0.38208997
0.1020751 0.18229985 -0.49167657 -0.11243601 0.3685076 0.21440524 0.68375784 0.55179554
0.058489732 -0.13699001 -0.081004634 0.07173711 -0.16937627 0.026062345 0.3134761 0.22308403
-0.14857888 -0.8112824 -0.18038818 -0.31747705 -0.15072113 0.19115222 0.41649958 0.01713671
0.07501451 -0.22969483 0.06058113 -0.654234 -0.014155442 -0.36323163 0.16290748 0.3192797
-0.2962413 -0.0093164295 0.13078216 0.25668404 1.0794992 0.13360763 0.049560644 -0.47550663
0.37485552 0.16469117 0.11933865 -0.008027711 -0.080995 0.10383737 -0.06553834 0.36037362
0.14174396 -0.12589955 0.009858429 0.26248637 0.48329806 0.18387504 -0.97402793 -0.19241698
0.0295696 -0.29798615 0.38065037 -0.9547403 0.051385343 -0.03793131 0.7952068 -0.16153061
-1.1312103 0.22940776 0.95236796 -0.5055019 -0.25075507 -0.060814332 -0.21867882 -0.1912014
0.28406295 -0.09618503 1.2018149 0.13057327 0.08550455 -0.56166846 -0.25554854 -0.08253381
0.12892258 0.032948855 -0.38162136 -0.017415378 0.54435086 0.03286746 -0.10737247 -0.54904896
0.03466727 -0.5731775 -0.19443896 -0.09845955 0.37417227 0.03876728 -0.037880324 0.15320945
-0.11343094 0.15493658 0.26255327 -1.2070088 0.04014623 -0.062781885 -0.26788235 0.33917817
0.08095067 0.015466154 -0.35145158 0.32828262 -0.247677 -0.216167 -0.06463489 -0.44631884
-0.17926365 -0.4305551 -0.5238764 0.24287969 -0.08769617 0.22307526 -0.046365585 -0.39058065
0.0071759224 0.039287906 -0.6157542 0.16417304 -0.29815856 0.16397074 0.71718866 0.1437204
-0.5421968 -0.17559874 -0.39169928 -0.3165734 -0.034514606 -0.041448746 -0.12660006 -0.21792197
-0.28546458 0.17900309 0.13959292 -0.54001915 0.16105983 -0.42865384 -0.7483105 -0.37118462
-0.23612124 -0.33474463 -0.46783406 0.08782836 -0.04633291 0.27126917 -0.11729327 0.057859167
0.199344 -0.017425135 0.7027839 -0.105317265 0.579146 -0.45294178 -0.33101568 0.39909238
0.27317488 0.62436235 0.32630345 0.044200446 -0.44260335 -0.05405876 0.13088576 0.36161906
0.124065936 -0.26901007 -0.062090307 0.30056524 -0.8655358 0.3721872 0.29003528 0.054876912
-0.4252791 -0.008555758 -0.8514614 -0.70392257 -0.15045391 -0.004589509 -0.48028207 -0.0056331754
0.612403 0.16644096 -0.24858877 -0.9037884 0.4154565 0.1582379 -0.1241388 -0.03475612
0.24866278 -0.13236748 -0.19483972 -0.051041156 -0.016286705 0.44027165 -0.0018142164 0.15378545
-0.20196448 0.17892034 0.1271986 0.04026159 -0.30168137 0.7805558 0.38182396 0.19922541
-0.46146214 0.29566035 -0.1839101 -0.28674453 -0.62520295 -0.038235992 -0.011481932 0.21296439
0.45026934 0.40716538 0.8300943 -0.25321233 0.24294613 -0.30996233 -0.3143778 -0.010005409
0.42198032 0.19370803 -0.36932918 -0.343045 0.13292688 -0.448767 0.18667278 -0.7587032
-0.5580788 -0.24785024 -0.1726241 -0.12199996 0.11513513 -0.12637332 0.06926342 0.14396442
00000000: aa07 f43c 56d5 0d3e de1a 7abe 9112 63be
00000010: 92aa cbbd ed65 1a3d 00a2 a7bb 9b27 313e
00000020: e3c4 5fbd 4f36 163d 65cc e0bd 371b f0bc
00000030: 1c18 5cbe 599a 0ebe 437c 0dbe 4ca1 c33e
00000040: c00c d13d d0ac 3a3e 08bd fbbe da44 e6bd
00000050: 07ad bc3e 0c8d 5b3e c10a 2f3f 7942 0d3f
00000060: ee92 6f3d 1c47 0cbe c2e5 a5bd e8ea 923d
00000070: f970 2dbe b380 d53c f07f a03e 2470 643e
00000080: 1025 18be 34b0 4fbf aeb7 38be 5a8c a2be
00000090: a456 1abe 68bd 433e 6f3f d53e 4962 8c3c
000000a0: 35a1 993d 1f35 6bbe eb23 783d e17b 27bf
000000b0: 3aec 67bc 7ff9 b9be 38d1 263e a178 a33e
000000c0: f1ac 97be f0a3 18bc c2eb 053e 176c 833e
000000d0: 082d 8a3f 70d0 083e 1a00 4b3d 9b75 f3be
000000e0: 10ed bf3e cda4 283e d267 f43d a986 03bc
000000f0: b5e0 a5bd b0a8 d43d f738 86bd e482 b83e
00000100: 5425 113e d0eb 00be 4085 213c 9d64 863e
00000110: d872 f73e bd49 3c3e e559 79bf f508 45be
00000120: f23b f23c a491 98be 9be4 c23e dc69 74bf
00000130: 7079 523d dc5d 1bbd ac92 4b3f 4868 25be
00000140: 80cb 90bf dee9 6a3e 63ce 733f 9368 01bf
00000150: f862 80be 7318 79bd 57ed 5fbe 4dca 43be
00000160: b370 913e a8fc c4bd 12d5 993f 00b5 053e
00000170: 021d af3d 81c9 0fbf 42d7 82be 7c07 a9bd
00000180: 4804 043e 61f5 063d e063 c3be b2aa 8ebc
00000190: 945a 0b3f 08a0 063d 19e6 dbbd 798e 0cbf
000001a0: 44ff 0d3d c3bb 12bf 021b 47be 29a5 c9bd
000001b0: 8293 bf3e 70ca 1e3d 6628 1bbd f0e2 1c3e
000001c0: 7b4e e8bd b2a7 1e3e 626d 863e 447f 9abf
000001d0: 6070 243d ca93 80bd e027 89be c3a8 ad3e
000001e0: 77c9 a53d c065 7d3c 76f1 b3be a914 a83e
000001f0: 0a9f 7dbe e25a 5dbe 4c5f 84bd e783 e4be
00000200: e490 37be b871 dcbe c41c 06bf 74b5 783e
00000210: 0d9a b3bd d76d 643e d7e9 3dbd 30fa c7be
00000220: 0024 eb3b 5bec 203d 11a2 1dbf fa1c 283e
00000230: 3da8 98be f2e7 273e ad99 373f 712b 133e
00000240: 69cd 0abf 28d0 33be cf8c c8be e915 a2be
00000250: 305f 0dbd 29c6 29bd 72a3 01be f026 5fbe
00000260: 6a28 92be 964c 373e 72f1 0e3e b23e 0abf
00000270: deec 243e 8478 dbbe 4791 3fbf e90b bebe
00000280: c4c9 71be a663 abbe f287 efbe 5bdf b33d
00000290: 94c7 3dbd cbe3 8a3e 7437 f0bd bcfd 6c3d
000002a0: d520 4c3e 28bf 8ebc a5e9 333f 94b0 d7bd
000002b0: ea42 143f fce7 e7be e37a a9be d655 cc3e
000002c0: 94dd 8b3e 36d6 1f3f 3f11 a73e 870b 353d
000002d0: e89c e2be b86c 5dbd eb06 063e 2226 b93e
000002e0: 4816 fe3d b0bb 89be 6852 7ebd b0e3 993e
000002f0: c193 5dbf 528f be3e 817f 943e 9dc6 603d
00000300: 2fbe d9be 732d 0cbc 60f9 59bf 4534 34bf
00000310: 9710 1abe 9863 96bb 88e7 f5be 8096 b8bb
00000320: 71c6 1c3f 806f 2a3e 0e8e 7ebe ad5e 67bf
00000330: b7b6 d43e 1e09 223e 7c3c febd 6f5c 0ebd
00000340: 75a1 7e3e 578b 07be 1084 47be 8810 51bd
00000350: b26b 85bc 496b e13e 00cb edba ef79 1d3e
00000360: c7cf 4ebe e536 373e 5a40 023e 56e9 243d
00000370: fb75 9abe 81d2 473f 6e7e c33e bf01 4c3e
00000380: c444 ecbe cb60 973e ee52 3cbe 2ed0 92be
00000390: 4d0d 20bf 589d 1cbd b71e 3cbc 5613 5a3e
000003a0: b489 e63e fb77 d03e 0f81 543f 0ca5 81be
000003b0: dfc6 783e 62b3 9ebe 21f6 a0be baed 23bc
000003c0: ce0d d83e 665b 463e b718 bdbe 98a3 afbe
000003d0: fc1d 083e cac4 e5be 2627 3f3e 5f3a 42bf
000003e0: 41de 0ebf 74cc 7dbe 5fc4 30be 1ddb f9bd
000003f0: f8cb eb3d 0268 01be fbd9 8d3d 696b 133e

bias f4 [256]
-0.2615139 -0.19733796 -0.036615893 0.36486053 0.16451569 0.23528129 -0.16776387 0.33570638
-0.22299369 0.14874506 -0.2289908 0.00088687777 0.032603543 0.10530966 0.0999397 -0.18041104
-0.18298426 -0.10226062 0.34269738 0.050587665 0.2115902 -0.04053659 -0.17663099 -0.18030399
0.056122474 0.27877608 0.024279911 0.11108911 0.11136878 -0.267887 0.3258284 -0.16700085
0.07169992 0.31756374 -0.14424263 0.14944603 0.45576718 -0.28720087 -0.21929052 -0.3643444
-0.2933694 -0.15343389 0.122301586 -0.21003897 -0.24810654 0.11036586 0.2085394 -0.3078877
0.02165903 0.29295763 -0.1280869 0.029266708 -0.09619737 -0.14558671 0.022192037 -0.16780783
-0.08870633 0.40824527 -0.26663473 -0.10089511 0.19596273 0.04322741 0.027485626 0.18165661
-0.20896666 -0.029480532 0.046778794 -0.20485304 -0.175867 0.04943324 -0.050907776 0.24143697
0.15204088 -0.06694455 -0.18910961 0.17626335 -0.20534384 -0.0098038465 -0.36337593 0.29274365
-0.12012958 -0.16380557 -0.014382702 -0.0071387393 0.42477196 -0.16110657 -0.2058822 -0.046716474
-0.099235155 -0.042105947 0.09194153 -0.37725464 0.025538562 0.010583466 0.0564215 -0.27338114
-0.18522362 -0.03545894 -0.38262552 -0.12434435 -0.34783888 0.063628495 -0.30338866 -0.043442767
-0.04069202 -0.06010968 -0.22870544 -0.1755763 -0.027309347 0.06404581 0.13380061 0.20687021
-0.14728247 0.37836617 -0.016669089 -0.24093376 0.0040933406 -0.035864413 -0.3266052 -0.1814605
-0.2269278 -0.0020856448 -0.13180685 0.14751992 0.0031648849 0.13160753 0.020322995 -0.38773397
0.15566604 -0.004048011 -0.09962592 -0.20628943 -0.2328946 -0.28781912 0.3724557 -0.16709416
0.051859092 -0.28150302 0.02005795 -0.47690067 -0.3365663 0.13060737 -0.33057773 0.1945283
-0.20828079 0.047749005 -0.2565239 -0.39642078 -0.5029243 -0.20317708 -0.21055785 -0.26413357
-0.014684008 0.124152854 0.14052115 0.036552805 0.12389927 -0.05100455 -0.21041366 0.08590277
0.020603402 -0.15128164 0.28896374 -0.4130659 0.0617447 -0.25014058 -0.28226826 -0.2451604
0.031288557 -0.048913036 -0.19823219 -0.1134477 0.27461395 0.13313742 -0.26246506 0.13390099
0.20475148 0.008788193 0.2688346 -0.26189277 -0.039522108 -0.21073449 -0.29465953 -0.2205557
0.018352557 -0.051598765 -0.23862845 0.2111216 -0.20934123 -0.23458757 -0.1960036 -0.28664976
-0.23374085 -0.1682646 0.076235116 -0.060152024 -0.059300426 0.07811344 -0.13531101 -0.20037873
-0.30337977 -0.029410318 -0.20016992 -0.140183 -0.10447101 -0.027359312 0.32113737 -0.15048224
-0.44649252 -0.15678456 0.03572908 -0.1810986 -0.094390154 -0.0061375136 0.088534385 0.024458397
-0.16954124 -0.11629636 -0.20613997 0.24325357 -0.15381221 0.06537484 0.024163434 -0.11492086
-0.086740665 0.1967399 -0.027116554 -0.3313879 0.07962575 -0.23223014 -0.3820756 -0.15681407
-0.12549481 -0.27467254 -0.14043784 -0.027381318 -0.079699576 0.15871865 -0.19914092 0.14665599
-0.23945898 -0.11144638 -0.13475041 0.009666985 0.33088443 0.06346345 0.14493734 0.10438044
-0.3974906 -0.1861555 -0.12879942 -0.39733934 -0.034077413 -0.13355005 -0.117466435 -0.5347604
00000000: 26e5 85be f612 4abe 8cfa 15bd 00cf ba3e
00000010: cd76 283e 94ed 703e 4bca 2bbe b5e1 ab3e
00000020: 7558 64be a050 183e 907c 6abe 5c7d 683a
00000030: 4b8b 053d 97ac d73d 2fad cc3d acbd 38be
00000040: 3a60 3bbe 046e d1bd 0876 af3e 0335 4f3d
00000050: 1aab 583e b209 26bd c1de 34be 9ca1 38be
00000060: aee0 653d bdbb 8e3e aae6 c63c b082 e33d
00000070: 5115 e43d 7c28 89be fbd2 a63e 4502 2bbe
00000080: 68d7 923d b797 a23e 57b4 13be 6108 193e
00000090: 515a e93e fe0b 93be b28d 60be 598b babe
000000a0: 8434 96be c61d 1dbe 4179 fa3d 7514 57be
000000b0: a40f 7ebe 7f07 e23d 5a8b 553e 75a3 9dbe
000000c0: 476e b13c 8bfe 953e 3629 03be bcc0 ef3c
000000d0: 2003 c5bd af14 15be 13cc b53c d1d5 2bbe
000000e0: aaab b5bd 8605 d13e 5984 88be 18a2 cebd
000000f0: 74aa 483e 3a0f 313d 8929 e13c 3104 3a3e
00000100: 5bfb 55be 2881 f1bc 1f9b 3f3d ffc4 51be
00000110: 7b16 34be 827a 4a3d ac84 50bd 413b 773e
00000120: 9bb0 1b3e 391a 89bd f3a5 41be 617e 343e
00000130: a845 52be 50a0 20bc 690c babe 7fe2 953e
00000140: 7f06 f6bd a6bc 27be 6da5 6bbc 16ec e9bb
00000150: b67b d93e 1ff9 24be c9d2 52be c659 3fbd
00000160: cd3b cbbd 4977 2cbd d74b bc3d 8527 c1be
00000170: 3f36 d13c 4666 2d3c 3b1a 673d 9df8 8bbe
00000180: 43ab 3dbe 653d 11bd 7ee7 c3be 40a8 febd
00000190: f017 b2be a84f 823d c255 9bbe 0bf1 31bd
000001a0: adac 26bd 9135 76bd c231 6abe 46ca 33be
000001b0: dab7 dfbc 732a 833d 0703 093e c9d5 533e
000001c0: 37d1 16be 36b9 c13e 9d8d 88bc 57b7 76be
000001d0: 6e21 863b 90e6 12bd cc38 a7be c8d0 39be
000001e0: c35f 68be 50af 08bb 60f8 06be 760f 173e
000001f0: f569 4f3b 20c4 063e 697c a63c 1185 c6be
00000200: eb66 1f3e 2da5 84bb ad08 ccbd 893d 53be
00000210: ec7b 6ebe 075d 93be 83b2 be3e bb1a 2bbe
00000220: 336a 543d 2a21 90be 9250 a43c 532c f4be
00000230: 6b52 acbe f0bd 053e 7c41 a9be 6d32 473e
00000240: 8f47 55be 7694 433d 1a57 83be aaf7 cabe
00000250: a6bf 00bf a70d 50be 7a9c 57be 843c 87be
00000260: 3295 70bc da43 fe3d c7e4 0f3e 65b8 153d
00000270: e7be fd3d 26ea 50bd ae76 57be cbed af3d
00000280: 77c8 a83c 93e9 1abe 0ef3 933e 607d d3be
00000290: 03e8 7c3d 6d12 80be 7785 90be 540b 7bbe
000002a0: 6e28 003d 0959 48bd 61fd 4abe 4557 e8bd
000002b0: 339a 8c3e 2d55 083e d261 86be 571d 093e
000002c0: 5faa 513e 5afc 0f3c b0a4 893e cf16 86be
000002d0: efe1 21bd c8ca 57be 9ddd 96be 5ad9 61be
000002e0: 1a58 963c 3a59 53bd 045b 74be 4330 583e
000002f0: 8c5d 56be b937 70be 2bb5 48be c2c3 92be
00000300: c359 6fbe 8e4d 2cbe 2821 9c3d f861 76bd
00000310: 01e5 72bd f0f9 9f3d f88e 0abe 1530 4dbe
00000320: 9854 9bbe e8ed f0bc 58f9 4cbe 228c 0fbe
00000330: e6f4 d5bd a320 e0bc 1e6c a43e 0418 1abe
00000340: ab9a e4be 228c 20be a858 123d e971 39be
00000350: a04f c1bd 321d c9bb 8451 b53d fa5c c83c
00000360: 389c 2dbe c92c eebd 5b16 53be 7717 793e
00000370: f380 1dbe 3ee3 853d 65f2 c53c a15b ebbd
00000380: 17a5 b1bd 2f76 493e 8923 debc adab a9be
00000390: d312 a33d bdcd 6dbe 6a9f c3be de93 20be
000003a0: b681 00be e1a1 8cbe f0ce 0fbe c94e e0bc
000003b0: 8839 a3bd 2487 223e 99eb 4bbe fd2c 163e
000003c0: bc34 75be 003e e4bd 03fc 09be 4662 1e3c
000003d0: af69 a93e 20f9 813d 746a 143e 6ac5 d53d
000003e0: e383 cbbe 8c9f 3ebe ffe3 03be 1070 cbbe
000003f0: c294 0bbd 58c1 08be 3e92 f0bd 0fe6 08bf

weight f4 [256, 256]
0.0454655 -0.026880743 -0.046095997 0.00998741 -0.009614687 -0.02780252 -0.00025148597 -0.057903796
0.047076344 0.04178814 0.015382279 0.01873372 -0.08197313 -0.04732727 -0.073935725 -0.064701244
-0.063822165 0.033659726 0.028017068 0.018151531 -0.044332422 0.027192112 -0.024234898 -0.030841872
0.03677341 0.02677621 -0.06558161 0.046526678 -0.02085012 0.0033616547 -0.07793039 -0.014359736
-0.05123236 -0.061750825 -0.07365371 -0.01393142 -0.03022804 -0.052716363 0.025724594 0.0052723256
-0.07120178 0.0003320311 -0.0024420011 -0.0039331513 -0.015499324 -0.023237437 0.011913239 -0.05443459
-0.04118598 0.022926982 -0.052974936 0.012482854 0.04357976 -0.061633382 -0.046293233 0.039811455
-0.024852563 -0.017823432 -0.001368951 0.01081658 -0.03879154 0.006214869 0.028437885 -0.026483135
-0.07207746 0.0060847113 -0.031044457 -0.008695894 0.022703527 -0.008860399 -0.052464463 -0.050649792
-0.024307754 -0.034020387 -0.024835138 -0.05601334 0.034609146 0.013501721 -0.006483177 -0.0010167568
-0.008212086 0.031817038 0.00017426812 0.009620528 -0.051661056 0.00015369136 -0.07024217 0.003029269
-0.06729904 -0.035662886 0.018254364 -0.053386822 0.03148088 -0.059235953 0.037136726 0.0025880318
-0.040402796 0.031505372 -0.06949966 -0.039593175 -0.06603564 -0.010666081 -0.0074721333 -0.07197948
0.04591654 -0.011481911 -0.051502988 -0.013084522 -0.048026487 -0.010267063 0.01412343 -0.037111692
-0.038122866 0.021865899 -0.05398725 -0.04053781 -0.017141879 -0.057141174 -0.021149525 0.0022970363
-0.056211855 -9.432978e-05 0.040439613 0.016239686 -0.048606597 0.057210416 -0.057801094 -0.05238429
0.010489608 0.037720107 0.04491123 0.035620313 -0.05249778 -0.005215492 -0.058477744 -0.013688105
0.035590433 0.014823779 -0.07069151 -0.046308696 -0.06962582 0.021908019 -0.007934064 -0.08419796
-0.049245417 0.0014498645 -0.006518316 0.05775624 -0.014481814 0.0026547909 -0.034354188 -0.010434791
-0.013805362 0.04126905 0.014485804 -0.050243657 -0.07154705 -0.07141431 -0.037564255 -0.0055211224
0.06358562 -0.017568633 0.0044150166 0.01494285 -0.06287969 -0.06273826 0.03132096 0.0119126765
-0.042124286 -0.0020980241 -0.0924965 -0.016416466 -0.0012887148 -0.02619289 -0.027967852 0.012148905
-0.03365814 0.029726313 -0.0696746 -0.054822452 -0.07244632 -0.075740784 0.0318277 -0.030720273
-0.0679685 -0.0008903713 -0.047328487 -0.012412009 0.018567976 -0.027906971 -0.0070019476 -0.002342526
-0.06444234 0.012301125 0.024984552 -0.025982713 -0.010276661 -0.018395599 -0.025480116 0.016246803
-0.07777431 0.047419704 0.011199934 -0.009540358 -0.0042883866 -0.06974615 -0.03009829 -0.017786797
-0.0050109 -0.049945805 -0.0032814553 -0.01939673 0.031714607 -0.06529487 -0.03182446 0.02262443
-0.071748994 -0.030596416 0.018684048 0.005094874 -0.024570094 0.011551709 -0.057928104 0.03783556
-0.019708134 0.02667985 -0.0032695436 -0.024071641 -0.0033360457 0.057585064 0.056689527 -0.06662411
-0.010254485 -0.05799826 0.024842655 0.030839773 -0.054232493 -0.024296258 0.032629684 0.008287052
-0.046991847 0.00968971 -0.022504745 -0.06815674 -0.020121051 0.01211414 0.023781853 -0.060754266
-0.060509693 -0.065926954 0.015373162 -0.06855821 -0.014615396 -0.030012913 0.018062167 0.0002180948
00000000: 083a 3a3d 0135 dcbc 28cf 3cbd 3ca2 233c
00000010: ec86 1dbc 1cc2 e3bc e0d9 83b9 882c 6dbd
00000020: 20d3 403d 0a2a 2b3d f405 7c3c 7577 993c
00000030: 87e1 a7bd 3dda 41bd 9d6b 97bd 1682 84bd
00000040: 32b5 82bd c8de 093d 0d84 e53c 85b2 943c
00000050: ea95 35bd fec1 de3c 4488 c6bc 18a8 fcbc
00000060: b79f 163d c859 db3c a74f 86bd c292 3e3d
00000070: dfcd aabc 354f 5c3b f899 9fbd 1945 6bbc
00000080: 06d9 51bd 6fee 7cbd c2d7 96bd 9c40 64bc
00000090: cba0 f7bc 1ded 57bd 62bc d23c 79c3 ac3b
000000a0: 3dd2 91bd 7614 ae39 fb09 20bb aae1 80bb
000000b0: e0f0 7dbc 705c bebc bf2f 433c cef6 5ebd
000000c0: a1b2 28bd 5ed1 bb3c 3ffc 58bd e284 4c3c
000000d0: b180 323d 4973 7cbd f99d 3dbd 5611 233d
000000e0: 9a97 cbbc 7202 92bc 606e b3ba 0638 313c
000000f0: e1e3 1ebd 1aa6 cb3b 91f6 e83c 29f3 d8bc
00000100: 599d 93bd 4262 c73b f250 febc 3979 0ebc
00000110: bffc b93c 352b 11bc fae4 56bd 2876 4fbd
00000120: 0e21 c7bc f658 0bbd 0f73 cbbc 3e6e 65bd
00000130: 52c2 0d3d 5336 5d3c d570 d4bb b244 85ba
00000140: fc8b 06bc 9552 023d bebb 3639 6b9f 1d3c
00000150: 8b9a 53bd 3628 2139 20db 8fbd b386 463b
00000160: 14d4 89bd 3f13 12bd 2d8a 953c 24ac 5abd
00000170: 18f2 003d 66a1 72bd ae1c 183d f89b 293b
00000180: 677d 25bd c70b 013d d655 8ebd 742c 22bd
00000190: b23d 87bd c9c0 2ebc ccd8 f4bb fa69 93bd
000001a0: fb12 3c3d a01e 3cbc ccf4 52bd 7760 56bc
000001b0: 6cb7 44bd 2f37 28bc f565 673c 6e02 18bd
000001c0: b926 1cbd 1d20 b33c bc21 5dbd fa0a 26bd
000001d0: 206d 8cbc dd0c 6abd c541 adbc e089 163b
000001e0: 673e 66bd ead2 c5b8 02a4 253d 1709 853c
000001f0: b617 47bd 7855 6a3d d7c0 6cbd e990 56bd
00000200: 9bdc 2b3c 6680 1a3d d7f4 373d 9be6 113d
00000210: ea07 57bd b8e6 aabb 5c86 6fbd 1344 60bc
00000220: 46c7 113d 70df 723c b6c6 90bd 30ae 3dbd
00000230: fb97 8ebd 7278 b33c e0fd 01bc fb6f acbd
00000240: 90b5 49bd 6109 be3a 9997 d5bb cf91 6c3d
00000250: 2145 6dbc 00fc 2d3b fab6 0cbd b0f6 2abc
00000260: e32f 62bc bc09 293d de55 6d3c 4bcc 4dbd
00000270: 4287 92bd aa41 92bd fadc 19bd 88ea b4bb
00000280: 2d39 823d 18ec 8fbc d8ab 903b dbd2 743c
00000290: 11c7 80bd eb7c 80bd 684a 003d 632d 433c
000002a0: 848a 2cbd 017f 09bb ce6e bdbd d37b 86bc
000002b0: 18ea a8ba 7992 d6bc d61c e5bc 330c 473c
000002c0: 1edd 09bd 9984 f33c 8fb1 8ebd 828d 60bd
000002d0: bc5e 94bd fc1d 9bbd c35d 023d 15a9 fbbc
000002e0: 1233 8bbd ce67 69ba 84db 41bd bd5b 4bbc
000002f0: de1b 983c 299d e4bc 9870 e5bb 1185 19bb
00000300: 58fa 83bd a88a 493c 67ac cc3c b3d9 d4bc
00000310: 715f 28bc 5eb2 96bc adbb d0bc 0418 853c
00000320: 2348 9fbd 2a3b 423d ee7f 373c 294f 1cbc
00000330: 9885 8cbb 12d7 8ebd b090 f6bc 9eb5 91bc
00000340: 7a32 a4bb f993 4cbd af0d 57bb e4e5 9ebc
00000350: 2de7 013d 51b9 85bd 5d5a 02bd de56 b93c
00000360: 23f1 92bd 56a5 fabc 4a0f 993c e7f2 a63b
00000370: 3947 c9bc 6143 3d3c 0546 6dbd 76f9 1a3d
00000380: f472 a1bc b38f da3c d745 56bb e431 c5bc
00000390: 8fa1 5abb 51de 6b3d 4733 683d 3972 88bd
000003a0: 6d02 28bc 958f 6dbd d382 cb3c b1a3 fc3c
000003b0: e422 5ebd f208 c7bc b4a6 053d 6ac6 073c
000003c0: 867a 40bd 97c1 1e3c df5b b8bc c395 8bbd
000003d0: e7d4 a4bc 637a 463c 29d2 c23c 77d9 78bd
000003e0: 03d9 77bd b604 87bd b7df 7b3c 3f68 8cbd
000003f0: 6a75 6fbc a4dd f5bc 1cf7 933c 61b0 6439

bias f4 [256]
-0.044764563 -0.07799538 0.26163194 0.10744923 -0.07559077 0.010622603 -0.1378516 0.032498445
0.21437404 -0.26410812 -0.051027063 -0.33328632 -0.021639952 -0.082174465 0.020871028 -0.12518354
-0.07665295 -0.078602254 -0.11534763 -0.19941184 -0.1521282 -0.08219993 -0.03317718 -0.07546315
-0.09025016 -0.26614225 -0.13685676 -0.14477375 -0.0108348215 -0.04934332 -0.46748686 0.25873035
-0.0113163935 -0.06766052 0.0012829662 -0.17599377 -0.015891254 -0.070414975 0.12826987 0.30919784
-0.3729478 0.065704264 -0.04048367 -0.17524594 0.16349377 0.2359885 -0.17259999 -0.10772415
0.20391253 0.04153113 -0.030784367 0.0141886445 -0.037653707 0.21460015 0.0029954233 -0.39578298
0.10746979 0.23214741 -0.06473052 -0.09554378 -0.31383523 -0.07462195 -0.098473094 0.019265141
-0.20376007 -0.0904853 -0.17056055 -0.06919945 0.083489515 -0.15309575 0.15003091 -0.24418901
-0.19163232 -0.028773196 -0.05116587 -0.08963989 0.103359476 -0.13792433 -0.08165886 -0.07008711
-0.02442238 0.012918026 0.010303082 -0.24521947 -0.07953899 -0.036399074 -0.03784087 -0.23453943
-0.016359918 -0.54502773 -0.5167953 -0.045967743 -0.09186448 -0.05612198 0.15508755 0.10093601
0.08483417 -0.04767464 0.07566989 -0.123189196 -0.064206004 -0.025351217 0.0007477685 0.0070405207
-0.4530214 -0.45577323 0.07417525 -0.009844166 -0.056404233 -0.037084844 -0.1825266 0.2852127
-0.005002215 0.35257673 -0.3008962 -0.100686364 0.0033155868 -0.031050764 -0.22904521 0.020004764
-0.22864343 -0.05500817 -0.012121801 -0.074121885 0.042313863 0.124732815 -0.4370638 -0.04092539
-0.1930619 0.040774994 -0.07871156 -0.018076822 -0.052917745 -0.0822238 -0.035497185 -0.10170819
-0.25286493 -0.072916545 -0.24901305 -0.084784925 -0.1748648 0.07925302 -0.3025691 0.122614086
-0.2386246 -0.09359793 -0.026285494 -0.10001802 -0.022705436 0.15761976 -0.14802115 0.0060930755
-0.06617312 -0.0061116014 -0.12473291 0.020667976 -0.08897339 0.110682786 -0.049300417 -0.03767054
-0.073893644 -0.020336611 0.056446597 -0.05826752 -0.24255824 -0.044350434 -0.048799407 -0.0120940525
-0.06997642 -0.0737391 -0.041837487 -0.065231174 -0.050858237 -0.080582246 -0.03263684 -0.062394213
-0.08723171 -0.067956425 -0.06373341 0.04400413 -0.05760606 0.013704097 -0.1974096 -0.0061382917
-0.09721322 -0.054524966 -0.12945278 -0.21460305 -0.027058769 -0.47336438 -0.07091699 -0.024989901
-0.008697386 0.2631145 -0.64846337 -0.24589825 0.17288227 -0.11137488 -0.0248389 -0.16919331
0.006298954 0.21926814 -0.06959829 -0.092116185 -0.098418094 -0.108032346 -0.24819584 -0.082338676
-0.06293713 -0.027208865 0.121656716 0.34492594 -0.07635945 -0.04205527 -0.06726392 -0.085425265
-0.41852298 0.12330582 0.047080763 -0.002551652 -0.09960357 -0.07018103 0.08104377 -0.51275736
-0.27386886 -0.11470421 -0.057629395 0.31506756 0.15931718 -0.03300587 -0.05042658 0.12747274
-0.078347616 0.010393794 -0.0042802603 -0.07143341 -0.5099555 -0.0027654357 0.05042061 -0.042881925
-0.2766296 -0.10267251 -0.1608922 0.018792165 0.13038635 0.33206922 -0.104711324 0.5084699
-0.30141604 -0.11026335 0.052583445 -0.094823904 -0.08335901 0.19474468 0.012390379 -0.025877055
00000000: 0c5b 37bd 0bbc 9fbd 9ff4 853e 580e dc3d
00000010: 55cf 9abd 6d0a 2e3c f828 0dbe 171d 053d
00000020: de84 5b3e 2e39 87be c101 51bd 81a4 aabe
00000030: 4546 b1bc 164b a8bd b8f9 aa3c 1d30 00be
00000040: 39fc 9cbd 38fa a0bd 613b ecbd 9e32 4cbe
00000050: 7fc7 1bbe 7058 a8bd cbe4 07bd 6d8c 9abd
00000060: 13d5 b8bd cc43 88be 2e24 0cbe 923f 14be
00000070: 8984 31bc 391c 4abd 705a efbe 4e78 843e
00000080: 6568 39bc 9991 8abd 3429 a83a b637 34be
00000090: 602e 82bc ba35 90bd 2d59 033e 2e4f 9e3e
000000a0: 04f3 bebe f58f 863d 34d2 25bd ac73 33be
000000b0: e96a 273e f8a6 713e 0dbe 30be 7b9e dcbd
000000c0: 72ce 503e 8c1c 2a3d 7f2f fcbc 7d77 683c
000000d0: c63a 1abd 24c0 5b3e dd4e 443b 11a4 cabe
000000e0: 1f19 dc3d 0db8 6d3e 6f91 84bd 75ac c3bd
000000f0: 03af a0be 65d3 98bd 43ac c9bd eed1 9d3c
00000100: 7ba6 50be 5b50 b9bd 6da7 2ebe 71b8 8dbd
00000110: 8dfc aa3d 22c5 1cbe b4a1 193e af0c 7abe
00000120: 433b 44be c4b5 ebbc 4e93 51bd 1e95 b7bd
00000130: 22ae d33d 093c 0dbe c33c a7bd d589 8fbd
00000140: 7111 c8bc 21a6 533c 42ce 283c d01a 7bbe
00000150: 57e5 a2bd 3217 15bd 07ff 1abd 1b2b 70be
00000160: 3c05 86bc f086 0bbf b24c 04bf ac48 3cbd
00000170: 7223 bcbd 29e0 65bd 45cf 1e3e 8ab7 ce3d
00000180: 8abd ad3d 7c46 43bd d1f8 9a3d 9e4a fcbd
00000190: 707e 83bd 5bad cfbc e505 443a 2bb4 e63b
000001a0: 6cf2 e7be 1c5b e9be 32e9 973d 6d49 21bc
000001b0: 2008 67bd 47e6 17bd 41e8 3abe 6607 923e
000001c0: 9fe9 a3bb f084 b43e 110f 9abe a734 cebd
000001d0: 514a 593b 2c5e febc d48a 6abe 08e1 a33c
000001e0: 8121 6abe 3f50 61bd 859a 46bc 37cd 97bd
000001f0: 4d51 2d3d eb73 ff3d d4c6 dfbe 62a1 27bd
00000200: 05b2 45be ae03 273d 8733 a1bd d815 94bc
00000210: 47c0 58bd f464 a8bd 7f65 11bd 624c d0bd
00000220: 8377 81be 4555 95bd 47fd 7ebe b8a3 adbd
00000230: c20f 33be 684f a23d 56ea 9abe 181d fb3d
00000240: 025a 74be 46b0 bfbd ad54 d7bc 3fd6 ccbd
00000250: c000 babc 1367 213e db92 17be 6ca8 c73b
00000260: c685 87bd d443 c8bb f873 ffbd e34f a93c
00000270: ae37 b6bd a8ad e23d 3cef 49bd 6d4c 1abd
00000280: 8d55 97bd f798 a6bc 8c34 673d eca9 6ebd
00000290: 3061 78be cda8 35bd e3e1 47bd 2226 46bc
000002a0: cc4f 8fbd 8604 97bd c95d 2bbd ec97 85bd
000002b0: ba50 50bd 4e08 a5bd 35ae 05bd 1391 7fbd
000002c0: 8aa6 b2bd bd2c 8bbd a986 82bd ad3d 343d
000002d0: 55f4 6bbd 2687 603c be25 4abe b923 c9bb
000002e0: ba17 c7bd 9255 5fbd 458f 04be e7c0 5bbe
000002f0: 5aaa ddbc d15c f2be ed3c 91bd 9fb7 ccbc
00000300: 7b7f 0ebc f2b6 863e b201 26bf c0cc 7bbe
00000310: 0d08 313e 8318 e4bd f37a cbbc 0341 2dbe
00000320: 7567 ce3b d487 603e 8c89 8ebd 69a7 bcbd
00000330: 6d8f c9bd 1040 ddbd 0d27 7ebe 2ea1 a8bd
00000340: 2fe5 80bd 20e5 debc 2827 f93d 229a b03e
00000350: 5862 9cbd 2642 2cbd abc1 89bd 71f3 aebd
00000360: a548 d6be c387 fc3d c2d7 403d 9e39 27bb
00000370: f5fc cbbd 12bb 8fbd 47fa a53d 1144 03bf
00000380: 8a38 8cbe 0aea eabd cd0c 6cbd 8950 a13e
00000390: 0b24 233e 2a31 07bd 1a8c 4ebd 3788 023e
000003a0: b774 a0bd bb4a 2a3c 6d41 8cbb ae4b 92bd
000003b0: 728c 02bf 503c 35bb d785 4e3d f5a4 2fbd
000003c0: 65a2 8dbe f745 d2bd edc0 24be 07f2 993c
000003d0: 0084 053e fa04 aa3e e472 d6bd 152b 023f
000003e0: 3453 9abe c0d1 e1bd bd61 573d 0933 c2bd
000003f0: 21b8 aabd 266b 473e 0401 4b3c 1efc d3bc

weight f4 [3, 256]
-0.011279223 -0.013300118 0.046351932 -0.044346645 0.036693756 -0.06891041 -0.059455875 2.5945148
0.15042078 -0.68828815 0.017309168 -0.28872302 0.08147125 0.0076130545 0.0045521413 0.012675132
0.00050489325 0.034286775 0.39774302 0.18732013 0.117196016 0.0077875075 0.0373841 -0.20995128
-0.0030051079 -0.24912687 -0.3620013 -0.011098001 0.014712725 -0.062105943 -0.21241234 0.21633698
0.31013227 0.0012649288 -0.03909832 -0.040628765 -0.00938512 0.015046209 0.000549014 0.05701134
0.51378953 -0.05419536 -0.08969901 -0.40534806 -0.013336222 0.13978204 -0.40557832 -0.002131047
0.15349174 -0.091405876 0.0069554467 -0.036491934 -0.060019568 3.2691453 0.007336273 0.32497635
0.22467643 0.12739758 0.01884504 0.0067940312 -0.091646045 -0.03199775 0.05474348 -0.025643192
-0.0933064 0.009775299 -0.116478115 0.031034723 0.16977781 0.012994332 -0.04170801 0.24149342
-0.1934172 0.0063394085 -0.15832195 -0.0037016356 -0.22437441 -0.0715366 0.022940742 0.055433992
0.004956536 0.04493128 -0.016927404 -0.02833243 1.7573837 0.014137757 0.004721889 0.3237206
-0.02243119 -2.0020623 -0.10026431 0.008936008 0.021807838 -0.011237014 0.15249918 0.1113663
-0.19328573 0.031165777 -0.062137756 0.047689255 0.040371455 -0.031130904 0.01099065 0.0020863307
-0.8431223 -0.20117691 -0.08539762 0.01728842 0.05188985 -0.008993652 -0.08372319 0.117482014
0.013691435 0.54932296 -0.087912515 0.042764943 0.25763914 -0.041833352 0.9264791 -0.04552922
-0.1286866 0.042053908 0.07892885 -0.043724447 -0.109198965 -0.060943935 -0.66626453 -0.033147056
-0.34911406 -0.07557479 -0.148621 0.14195035 -0.016112262 -0.03408496 0.030377688 0.008671683
-0.100801446 -0.0018585018 -0.5005406 -0.013228782 -0.0324377 -0.17568435 -0.09933306 0.9436419
-0.3256121 0.0068807025 1.738005e-05 0.18304549 0.0067527564 -0.29402015 -0.07765174 0.003994778
-0.022045989 0.037953477 -0.19888763 -0.36996174 -0.2520486 3.5293908 0.0023635803 -0.0038568838
0.014928339 0.047204886 1.1237378 -0.0009169555 -0.093492635 0.025683494 0.0064572264 0.04141732
-0.02799997 0.025022686 -0.007789819 0.021425635 -0.080734774 -0.012650426 0.007147535 -0.07208685
-0.09954511 -0.03285358 -0.17159103 0.102156214 -0.33387724 0.1324149 0.07820361 0.022853376
0.01060188 0.014282225 0.15278752 -0.29216447 -0.01046017 -0.24411444 -0.011373846 -0.007752488
0.17222944 0.021402854 0.85648775 0.27335787 -0.032808255 0.041587707 -0.18502541 0.032115795
-0.015378163 0.032040894 -0.017456364 0.0779805 0.1595389 -0.024298802 -0.4526951 -0.035857342
-0.010914954 0.034648128 -0.25567558 0.16750818 0.012072732 0.013539419 -0.03901695 0.6760995
-0.8218363 0.10209019 -0.21792775 0.005179974 -0.004691957 -0.028828165 0.11176793 1.4474083
0.110011846 0.0010924258 0.04788379 0.16456679 0.20177157 -0.06983421 0.0046916986 0.07772517
-0.024867555 -0.22609158 -0.012696013 0.03047277 -0.31629562 -0.208897 0.10160864 0.0078246035
0.10578293 0.011522498 0.13774395 -0.060674742 -0.09685907 0.16437304 0.008361848 0.3067952
-0.23019089 0.017584503 -0.2847167 -0.0078974785 0.07993848 0.034250814 0.023666218 0.010996968
00000000: 7dcc 38bc bde8 59bc 86db 3d3d d4a4 35bd
00000010: 314c 163d e720 8dbd 0188 73bd 880c 2640
00000020: e807 1a3e a733 30bf f5cb 8d3c 81d3 93be
00000030: 66da a63d ee76 f93b 212a 953b 5bab 4f3c
00000040: d05a 043a 4a70 0c3d f9a4 cb3e d9d0 3f3e
00000050: 7704 f03d 592e ff3b 1220 193d 78fd 56be
00000060: 58f1 44bb 1d1b 7fbe 3c58 b9be 64d4 35bc
00000070: a40d 713c cd62 7ebd 9f82 59be 7187 5d3e
00000080: a8c9 9e3e f8cb a53a 8f25 20bd 596a 26bd
00000090: 0cc4 19bc 6084 763c b5eb 0f3a b984 693d
000000a0: b687 033f f4fb 5dbd 1db4 b7bd c889 cfbe
000000b0: 2b80 5abc 0623 0f3e f6a7 cfbe 09a9 0bbb
000000c0: f02c 1d3e 0133 bbbd 84ea e33b 9178 15bd
000000d0: 14d7 75bd ad39 5140 1e65 f03b 4d63 a63e
000000e0: 9411 663e 8374 023e ea60 9a3c 77a0 de3b
000000f0: ecb0 bbbd 1310 03bd b33a 603d ac11 d2bc
00000100: 6d17 bfbd 9328 203c 148c eebd 883c fe3c
00000110: 3cda 2d3e 2ee6 543c 05d6 2abd 0d4a 773e
00000120: 290f 46be d0ba cf3b 261f 22be 2497 72bb
00000130: 68c2 65be c881 92bd 39ee bb3c c10e 633d
00000140: 706a a23b dd09 383d 57ab 8abc 6a19 e8bc
00000150: f3f1 e03f 0da2 673c 13ba 9a3b b5be a53e
00000160: 9dc1 b7bc ca21 00c0 6057 cdbd 5668 123c
00000170: 5aa6 b23c 741b 38bc bf28 1c3e 0414 e43d
00000180: b2ec 45be 5f4f ff3c 2984 7ebd cf55 433d
00000190: 8a5c 253d 3d06 ffbc 2112 343c d2ba 083b
000001a0: ddd6 57bf 5201 4ebe f3e4 aebd 72a0 8d3c
000001b0: 748a 543d 1c5a 13bc 1077 abbd 699a f03d
000001c0: 0a52 603c 6ea0 0c3f 7a0b b4bd 4b2a 2f3d
000001d0: 47e9 833e 7359 2bbd bc2d 6d3f d97c 3abd
000001e0: 6cc6 03be b840 2c3d 73a5 a13d 6818 33bd
000001f0: b5a3 dfbd 59a0 79bd 5090 2abf 35c5 07bd
00000200: 14bf b2be f5c6 9abd 1a30 18be 6f5b 113e
00000210: ddfd 83bc ac9c 0bbd a1da f83c ad13 0e3c
00000220: fd70 cebd f998 f3ba 6e23 00bf 89bd 58bc
00000230: 65dd 04bd 99e6 33be 226f cbbd 8492 713f
00000240: a1b6 a6be 8477 e13b 60cb 9137 4770 3b3e
00000250: 3a46 dd3b cf89 96be e007 9fbd a0e6 823b
00000260: ca99 b4bc 1b75 1b3d 33a9 4bbe a06b bdbe
00000270: 840c 81be 8ae1 6140 4ce6 1a3b c6c3 7cbb
00000280: fe95 743c e959 413d a4d6 8f3f d85f 70ba
00000290: 1179 bfbd 3166 d23c 2497 d33b 35a5 293d
000002a0: 3160 e5bc 60fc cc3c bd41 ffbb d084 af3c
000002b0: 4658 a5bd bb43 4fbc df35 ea3b 45a2 93bd
000002c0: 4ede cbbd 7a91 06bd 8fb5 2fbe 4737 d13d
000002d0: f5f1 aabe c697 073e 3729 a03d 0137 bb3c
000002e0: 82b3 2d3c feff 693c 5574 1c3e 9596 95be
000002f0: 2261 2bbc 23f9 79be 5e59 3abc 9508 febb
00000300: ea5c 303e 0a55 af3c c842 5b3f 90f5 8b3e
00000310: f361 06bd df57 2a3d 4d77 3dbe da8b 033d
00000320: b1f4 7bbc 503d 033d a600 8fbc 3eb4 9f3d
00000330: 2a5e 233e 480e c7bc a7c7 e7be 26df 12bd
00000340: a3d4 32bc 32eb 0d3d e9e7 82be 4487 2b3e
00000350: b5cc 453c 70d4 5d3c 3dd0 1fbd db14 2d3f
00000360: dd63 52bf a914 d13d 7428 5fbe c5bc a93b
00000370: fdbe 99bb 0b29 ecbc 96e6 e43d ad44 b93f
00000380: e44d e13d ba2f 8f3a cb21 443d 3284 283e
00000390: 359d 4e3e 3d05 8fbd d2bc 993b 602e 9f3d
000003a0: 0bb7 cbbc 8d84 67be f002 50bc 08a2 f93c
000003b0: 80f1 a1be 18e9 55be 3118 d03d c432 003c
000003c0: b9a4 d83d dcc8 3c3c c00c 0d3e 1486 78bd
000003d0: 0c5e c6bd 6851 283e 2200 093c 4314 9d3e
000003e0: 29b7 6bbe 600d 903c 63c6 91be 6d64 01bc
000003f0: c9b6 a33d 954a 0c3d a8df c13c a02c 343c

bias f4 [3]
0.11352052 0.015510506 0.1271797
00000000: 727d e83d c71f 7e3c 653b 023e

weight f4 [256, 18]
-0.9381787 -0.17342027 -0.11691981 0.6258672 0.14077966 0.72933507 0.049381927 0.261478
-1.0606191 -0.082949065 -0.002128313 0.68304306 0.10376061 -0.18420953 -0.11221484 0.13576567
0.22087298 -0.06434007 -0.25270852 0.07799916 -0.026436742 -0.68013126 0.07227071 0.26554313
0.21481834 0.15923224 -0.019438203 -0.19350834 0.042158823 0.2476317 0.1296894 0.14552444
0.2321248 -0.83866626 -0.03198763 0.66748375 -0.38060853 -0.1455778 0.06258685 -0.02899633
-0.10141049 0.6593673 -0.1492331 -0.046133522 0.07795585 -0.2186244 -0.5912287 -0.31358838
-0.30269533 -0.17597802 0.21621943 0.01695541 -0.0005045017 -0.13846338 -0.19537535 0.014385626
0.2616208 -0.013273908 0.009972811 -0.18975571 0.21016188 0.32328194 0.26975057 -0.25779182
0.39694956 -0.23443496 -0.7541589 -0.22655116 0.03689447 -0.1632557 0.12536272 -0.012889467
-0.8956757 -0.082885206 0.1378587 0.19759762 0.07609327 -0.15904069 0.1150551 0.11533704
-1.0159509 0.17817636 0.24245676 -0.02186414 0.036663894 0.29234126 -0.59952235 0.16197269
-0.21010563 0.4948495 -0.9161697 0.05100535 -0.05563562 0.63206196 -0.20689692 0.09836491
0.038690254 -0.36186266 -0.06880562 -0.08646336 -0.23868701 -0.2952487 -0.43529162 0.23925209
-0.65510654 0.48574167 -0.19461626 0.16655776 -0.08243409 -0.06983887 -0.43536964 0.0692826
-0.08878787 -0.29541427 -0.11024292 -0.8696176 -0.024073744 -0.18498178 0.12279897 -0.06311835
-0.09529273 -0.074190825 -0.01198034 -0.30323738 0.14242564 -0.06585969 -0.023338128 -0.037086412
-0.026298452 0.80219495 -0.082017824 1.3775911 -0.08968796 -0.082101844 -0.13390172 -0.2614823
0.16922675 0.32432854 0.10218486 0.30837312 -0.013760473 0.36535752 -0.20554477 0.03036425
0.8909913 0.07002677 0.04508096 0.4551944 -0.20475821 -0.24205562 0.17945378 0.3400117
-0.77476 -0.34270865 0.41704333 0.108357444 -1.258962 -0.23650642 0.030129354 -0.44473243
-0.1666332 -0.45077914 0.0958339 0.1898845 0.23988083 -0.40583488 -0.038511038 0.26495662
-0.21418959 0.29682276 0.37291825 0.029072067 -0.24355645 -0.015653657 -0.34667814 0.22210674
0.23574805 -0.015394935 -0.010771502 0.0754825 -0.4670905 -0.018746391 -0.60002416 -0.1996467
-0.05860424 -0.039958626 0.18066807 -1.1536638 -0.22008505 -0.47708803 -0.119694196 -0.3329372
0.0042734123 -0.0072130677 -0.017233208 -0.35773626 0.03601587 0.02687836 0.6122849 0.23184179
0.08504716 0.0332129 -0.12856486 0.56979436 0.13713698 0.56891507 0.578042 0.09153633
0.15048888 -0.09201149 -0.017649218 0.14831312 0.0006830411 0.32907936 -0.11242324 -0.07358431
1.5893587 -0.09603986 -0.45405635 -0.021891883 -0.17518464 -0.52692026 -0.08220762 0.096098065
-0.45447892 0.49022517 -0.027512075 -0.22857992 0.40789655 -0.5792765 0.21001138 -0.004270885
0.029363828 -0.6115057 0.60400176 -0.045453355 1.0216187 0.26823705 -0.062227547 0.71010226
-0.06325163 -0.37312508 0.568681 -0.50279456 0.62144077 -0.23419277 0.941662 0.10582423
0.8286437 0.59631854 0.08932822 0.087925345 0.26864436 0.21023257 0.2781655 0.027094934
00000000: 7b2c 70bf 1595 31be a773 efbd d538 203f
00000010: 8b28 103e b4b5 3a3f b444 4a3d 72e0 853e
00000020: 5ec2 87bf 33e1 a9bd 2b7b 0bbb e9db 2e3f
00000030: 7180 d43d 6ca1 3cbe e5d0 e5bd 2806 0b3e
00000040: 872c 623e bac4 83bd 0363 81be 06be 9f3d
00000050: de91 d8bc 151d 2ebf aa02 943d 45f5 873e
00000060: 57f9 5b3e c70d 233e de3c 9fbc 0d27 46be
00000070: bbae 2c3d 2a93 7d3e 4ccd 043e 5c04 153e
00000080: 20b2 6d3e d5b2 56bf 7605 03bd 37e0 2a3f
00000090: 1fdf c2be 5912 15be 892d 803d b689 edbc
000000a0: 4eb0 cfbd 4ccc 283f 90d0 18be 81f6 3cbd
000000b0: 51a7 9f3d 13df 5fbe c45a 17bf a88e a0be
000000c0: e2fa 9abe 9533 34be a068 5d3e 12e6 8a3c
000000d0: 8940 04ba 58c9 0dbe 7a10 48be b0b1 6b3c
000000e0: 29f3 853e ce7a 59bc 0065 233c 524f 42be
000000f0: ad34 573e 3685 a53e bf1c 8a3e 4afd 83be
00000100: f93c cb3e b80f 70be 8f10 41bf 07fd 67be
00000110: a81e 173d 812c 27be 165f 003e 582e 53bc
00000120: 014b 65bf b8bf a9bd d52a 0d3e 0857 4a3e
00000130: cad6 9b3d 90db 22be 02a2 eb3d d335 ec3d
00000140: ae0a 82bf dd73 363e 9646 783e 6d1c b3bc
00000150: e12c 163d c1ad 953e 4c7a 19bf 2bdc 253e
00000160: ee25 57be ea5c fd3e 198a 6abf fcea 503d
00000170: 2de2 63bd d0ce 213f c9dc 53be 8b73 c93d
00000180: ac79 1e3d 1046 b9be f6e9 8cbd b413 b1bd
00000190: 5e6a 74be d62a 97be 8bde debe 80fe 743e
000001a0: 10b5 27bf 22b3 f83e 7c49 47be 1e8e 2a3e
000001b0: 34d3 a8bd ae07 8fbd c5e8 debe 09e4 8d3d
000001c0: 6ad6 b5bd 8a40 97be 0ac7 e1bd 429f 5ebf
000001d0: 4d36 c5bc dd6b 3dbe 077e fb3d 3244 81bd
000001e0: d628 c3bd 5cf1 97bd 3049 44bc ee41 9bbe
000001f0: 07d8 113e 72e1 86bd 9a2f bfbc ece7 17bd
00000200: da6f d7bc a65c 4d3f f6f8 a7bd e854 b03f
00000210: 52ae b7bd 0325 a8bd 881d 09be 02e1 85be
00000220: c749 2d3e 640e a63e 4c46 d13d 15e3 9d3e
00000230: 9b73 61bc 2410 bb3e 547a 52be 73be f83c
00000240: 0118 643f 326a 8f3d d0a6 383d 3e0f e93e
00000250: 23ac 51be 6edd 77be bbc2 373e 0316 ae3e
00000260: ac56 46bf 8277 afbe b486 d53e 82ea dd3d
00000270: ab25 a1bf bd2e 72be d6d1 f63c f8b3 e3be
00000280: e5a1 2abe 86cc e6be 9044 c43d 1571 423e
00000290: 52a3 753e 97c9 cfbe c0bd 1dbd 65a8 873e
000002a0: 8454 5bbe 27f9 973e 24ef be3e 8b28 ee3c
000002b0: dd66 79be 193c 80bc cc7f b1be f36f 633e
000002c0: f067 713e 0a3b 7cbc f47a 30bc 9296 9a3d
000002d0: 7c26 efbe 0892 99bc 2f9b 19bf 2f70 4cbe
000002e0: 000b 70bd a8ab 23bd 0d01 393e 41ab 93bf
000002f0: fa5d 61be e244 f4be 3b22 f5bd bf76 aabe
00000300: fb07 8c3b 995b ecbb a82c 8dbc 3529 b7be
00000310: 6085 133d 0230 dc3c b4be 1c3f ef67 6d3e
00000320: 352d ae3d 400a 083d 82a6 03be 0bde 113f
00000330: a36d 0c3e 6ba4 113f 8ffa 133f 6677 bb3d
00000340: c219 1a3e 8570 bcbd 1895 90bc 65df 173e
00000350: 1d0e 333a 177d a83e 283e e6bd 5fb3 96bd
00000360: 1b70 cb3f 8cb0 c4bd 137a e8be 9b56 b3bc
00000370: 9a63 33be 3fe4 06bf 785c a8bd 10cf c43d
00000380: 76b1 e8be cbfe fa3e 0161 e1bc db10 6abe
00000390: d1d7 d03e 774b 14bf 390d 573e c8f2 8bbb
000003a0: 698c f03c a38b 1cbf dc9f 1a3f 4c2d 3abd
000003b0: 67c4 823f 5e56 893e 50e2 7ebd 43c9 353f
000003c0: 128a 81bd 400a bfbe 1495 113f 25b7 00bf
000003d0: be16 1f3f 3bd0 6fbe c310 713f 60ba d83d
000003e0: fe21 543f 55a8 183f b7f1 b63d 3412 b43d
000003f0: c18b 893e 3547 573e b56b 8e3e 32f6 dd3c

bias f4 [256]
0.12753831 -0.25959188 0.055181827 0.081115514 -0.09356444 0.17252064 -0.4043241 0.3173933
-0.22831365 -0.02728248 -0.76958907 0.4231118 -0.24368267 1.322821 0.3234735 0.27217972
-0.08026085 0.30020303 -0.047337208 -0.12711309 -0.3191833 -0.24894057 -0.24378914 -0.03899385
0.34907332 -0.017103275 -0.13432585 0.12255691 -0.049634025 -0.021481864 -0.35598695 0.025648681
-0.0027730977 -0.38717178 -0.13102643 0.02783988 0.21956387 -0.22016932 0.005099217 0.40074086
0.24923511 -0.105502345 -0.25885662 0.18759012 -0.069614336 0.36841118 0.29902223 0.020105982
-0.16862538 -0.48822877 0.17640264 -0.013068625 0.27708352 -0.2372515 0.07500181 0.34124476
0.45638603 -0.2931878 -0.24402696 -0.2200731 0.3223361 -0.38512635 0.62033087 0.0134533495
0.6514239 0.10124615 -0.5660793 0.033162877 -0.26646277 -0.25535375 0.46341312 -0.06574972
-0.762108 0.38554865 -0.38271677 0.23612097 0.18701929 0.44094443 0.02594458 0.16924173
-0.097508684 -0.09922516 0.05600107 0.087079704 0.08209299 0.3623767 0.32856363 0.34433535
-0.66824263 -0.17597021 -0.95681113 0.07468695 -0.028789997 -0.35455233 -0.103743024 -0.042336583
0.077380665 -0.16936336 0.25827944 0.08975635 -0.32257482 -0.07826031 0.048280228 -0.22249928
0.06397668 -0.28625134 0.24970147 0.025343781 0.31444067 -0.2535675 0.2362549 0.07150067
-0.37977389 -0.1513584 -0.6264552 0.21830863 0.1617743 -0.12704736 0.023559432 -0.37791732
-0.46148217 -0.29691008 -0.49826527 0.093653485 0.0948592 -0.23229614 0.35321885 -0.41813585
0.12671426 -0.2526931 0.96739554 -0.11818251 -0.57739764 0.40722853 0.26550427 0.60665554
-0.122920856 -0.114652224 -0.34989774 0.29425088 0.08626867 -0.1975887 -0.37974852 -0.124327205
0.23697822 0.25540623 0.117872834 -0.41286987 0.15517312 0.12390953 -0.02385554 -0.3013958
-0.07104417 0.0550173 -0.11602122 -0.40428683 0.05426522 -0.38661426 -0.12767592 -0.13136834
-0.36449355 -0.52427727 0.09219603 -0.28964198 -0.093439475 -0.22511992 -0.18798788 0.020149965
-0.073968746 0.1231808 -0.7667532 -0.08016695 -0.36484587 -0.33591038 -0.07685757 -0.071445264
-0.30811828 0.27754787 -0.41452435 0.2018055 0.1417238 -0.38679326 -0.08024952 -0.20942411
0.22643748 -0.088059336 -0.28757185 0.40109873 -0.32293123 0.2448831 0.38595027 0.24330819
0.08667271 -0.28971675 -0.15424578 -0.70210415 0.14646472 0.17034894 -0.26147884 -0.5355148
-0.21508686 -0.4487776 -0.3347585 -0.2571889 -0.14158021 0.012785997 -0.18784055 0.10818457
0.2694678 -0.57156163 0.022434646 -0.29012236 -0.18717948 -0.17678605 -0.10636337 0.12136486
-0.794084 -0.097717285 -0.2618098 0.29158345 -0.01608977 0.19892758 -0.2430251 -0.06453382
-0.05656181 -0.39374718 0.17092863 0.37565812 0.24537759 0.15871377 0.12216752 0.19266681
-0.46490481 0.33277842 -0.19025074 0.036166456 -0.014602579 -0.37424308 0.03560903 0.1301877
-0.43058696 0.2559338 -0.12122946 0.3646312 -0.27943408 0.002667974 0.3141518 -0.15193987
0.5678065 -0.26401216 -0.2236007 0.21950099 -0.2621199 0.08022575 -0.2605361 -0.018941915
00000000: 6799 023e 3ae9 84be 5706 623d e41f a63d
00000010: b79e bfbd 40a9 303e 9203 cfbe 6081 a23e
00000020: 0ecb 69be 827f dfbc ca03 45bf 1ca2 d83e
00000030: f387 79be 3352 a93f 529e a53e 245b 8b3e
00000040: cd5f a4bd 36b4 993e a9e4 41bd ef29 02be
00000050: fe6b a3be 47ea 7ebe dca3 79be 04b8 1fbd
00000060: bdb9 b23e 2b1c 8cbc b78c 09be 1eff fa3d
00000070: 0c4d 4bbd bcfa afbc ec43 b6be 2f1d d23c
00000080: dcbc 35bb 613b c6be cb2b 06be 7610 e43c
00000090: 5ad5 603e 1174 61be 5517 a73b e82d cd3e
000000a0: 7d37 7f3e 9d11 d8bd db88 84be a017 403e
000000b0: f691 8ebd 64a0 bc3e 7119 993e 4db5 a43c
000000c0: 22ac 2cbe 1ff9 f9be e5a2 343e c91d 56bc
000000d0: e4dd 8d3e 0ff2 72be 8d9a 993d a2b7 ae3e
000000e0: 6eab e93e b61c 96be 34e2 79be d85a 61be
000000f0: 3d09 a53e 482f c5be 01ce 1e3f 706b 5c3c
00000100: b7c3 263f 245a cf3d 93ea 10bf ccd5 073d
00000110: cf6d 88be babd 82be 7c44 ed3e caa7 86bd
00000120: 8319 43bf a266 c53e 74f3 c3be b2c9 713e
00000130: fc81 3f3e 78c3 e13e ba89 d43c b44d 2d3e
00000140: a2b2 c7bd 9036 cbbd 6161 653d d856 b23d
00000150: 5f20 a83d 7089 b93e 7e39 a83e b94c b03e
00000160: f311 2bbf 8931 34be 93f1 74bf 79f5 983d
00000170: 00d9 ebbc e287 b5be 3977 d4bd 2069 2dbd
00000180: c179 9e3d 976d 2dbe 343d 843e 2dd2 b73d
00000190: 8728 a5be f146 a0bd 7dc1 453d dad6 63be
000001a0: 3506 833d 898f 92be beb1 7f3e c39d cf3c
000001b0: 5efe a03e 99d3 81be ceec 713e f16e 923d
000001c0: b971 c2be b2fd 1abe 5e5f 20bf 4c8c 5f3e
000001d0: 29a8 253e b418 02be b6ff c03c 617e c1be
000001e0: 6447 ecbe 9904 98be a01c ffbe 66cd bf3d
000001f0: 8a45 c23d 0adf 6dbe 1ad9 b43e e715 d6be
00000200: 62c1 013e fd60 81be 3ca7 773f ac09 f2bd
00000210: 55d0 13bf 4280 d03e 2df0 873e c74d 1b3f
00000220: eebd fbbd c9ce eabd cc25 b3be 0da8 963e
00000230: a1ad b03d b154 4abe 666e c2be 439f febd
00000240: 6baa 723e 9bc4 823e 5067 f13d ae63 d3be
00000250: b4e5 1e3e 48c4 fd3d b26c c3bc 8d50 9abe
00000260: 9b7f 91bd d259 613d 899c edbd affe cebe
00000270: 3545 5e3d 4ef2 c5be 7abd 02be 6c85 06be
00000280: e69e babe 0937 06bf 46d1 bc3d f44b 94be
00000290: 325d bfbd d685 66be e57f 40be 8a11 a53c
000002a0: ed7c 97bd 3746 fc3d f049 44bf 922e a4bd
000002b0: 14cd babe 72fc abbe 8067 9dbd e551 92bd
000002c0: aec1 9dbe c11a 8e3e 893c d4be 1aa6 4e3e
000002d0: 0b20 113e c409 c6be dc59 a4bd 4673 56be
000002e0: 3adf 673e 7458 b4bd 9e3c 93be d05c cd3e
000002f0: 3e57 a5be a3c2 7a3e 469b c53e c825 793e
00000300: 7681 b13d c155 94be 9bf2 1dbe 19bd 33bf
00000310: d9fa 153e f46f 2e3e 8ee0 85be 7f17 09bf
00000320: bb3f 5cbe 2dc6 e5be 7765 abbe 43ae 83be
00000330: 67fa 10be 5c7c 513c 4659 40be df8f dd3d
00000340: aff7 893e dd51 12bf ddc8 b73c eb8a 94be
00000350: faab 3fbe 6707 35be 0ad5 d9bd 248e f83d
00000360: 1749 4bbf 0020 c8bd ef0b 86be 6d4a 953e
00000370: b1ce 83bc acb3 4b3e 92db 78be 4f2a 84bd
00000380: 5bad 67bd 3b99 c9be ea07 2f3e 4356 c03e
00000390: 4344 7b3e dd85 223e f732 fa3d 734a 453e
000003a0: 0108 eebe ef61 aa3e 17d1 42be 4723 143d
000003b0: a83f 6fbc ca9c bfbe c6da 113d ed4f 053e
000003c0: e575 dcbe c109 833e 2747 f8bd f1b0 ba3e
000003d0: fc11 8fbe 2dd9 2e3b 81d8 a03e 2096 1bbe
000003e0: c45b 113f 9a2c 87be 95f7 64be dec4 603e
000003f0: 9434 86be 664d a43d fd64 85be 132c 9bbc
