data/HalfCheetahPyBulletEnv-v0_sac_grad_True/HalfCheetahPyBulletEnv-v0_sac_grad_True_s2/pyt_save/model.pt (torch_old, 906014 bytes, 18 tensors)

weight f4 [256, 26]
0	0xbe189a75	-0.1490267
1	0xbd3f29ac	-0.0466706
2	0xbf99d122	-1.2016947
3	0xbf287a7d	-0.658119
4	0x3dab9402	0.083778396
5	0x3f283d3e	0.6571845
6	0xbcb8a6f0	-0.02254054
7	0x3f29fd7e	0.66402423
8	0x3f487b36	0.78313005
9	0xbeddb6ef	-0.4330363
10	0x3de217ee	0.110397205
11	0xbecf8aca	-0.40535575
12	0x3ec7660b	0.3894504
13	0x3e99b52b	0.30021033
14	0xbf387b63	-0.72063273
15	0xbf39f6df	-0.7264232
16	0xbf0b423b	-0.54397935
17	0xbd2fa92b	-0.04288594
18	0xbf76f5a6	-0.9646858
19	0x3efd4f9e	0.49474806
20	0xbeb930fa	-0.3617018
21	0xbc5a3ba0	-0.01331988
22	0xbc7ea480	-0.01554215
23	0x3cb667d2	0.022266302
24	0xbc98bcb8	-0.018644676
25	0x3d538560	0.05164087
26	0xbfa9b871	-1.3259412
27	0xbde0e67a	-0.1098146
28	0xbf4ae647	-0.79257625
29	0x3efeaaef	0.49739787
30	0xbe366dae	-0.17815277
31	0x3f1705a2	0.5899297
32	0x3d3d0dc8	0.04615572
33	0x40364e4e	2.8485293
34	0x3e230989	0.15921606
35	0xbce085c8	-0.027407542
36	0xbe108dc0	-0.14116573
37	0x3cb2ca06	0.021824848
38	0xbe4c46bb	-0.19948857
39	0x3df44603	0.11927416
40	0xbfc6cfb7	-1.553214
41	0xbf0f4512	-0.5596477
42	0xbe705800	-0.2347107
43	0xbda7900d	-0.081817724
44	0x3efea08e	0.49731869
45	0x3ed8a6c4	0.42314732
46	0xbe65da7c	-0.22446626
47	0x3c0e2910	0.008676782
48	0x3caa2568	0.02076979
49	0x3e858b34	0.26082766
50	0x3dd6513a	0.104647115
51	0x3e06e6f3	0.13174038
52	0xc089205e	-4.285201
53	0x3de8cbd2	0.11367001
54	0xbf508edd	-0.8146799
55	0x40113baf	2.2692678
56	0xbd233f34	-0.039855197
57	0xbfaf9a59	-1.3718978
58	0x3cb26c90	0.021780282
59	0x40c294c4	6.08066
60	0xbe9d68a4	-0.30743897
61	0xbf8c36c2	-1.0954211
62	0x3f18e8d9	0.597303
63	0x3ea57616	0.32316655
64	0x3dcb5f0b	0.099302374
65	0xbc92137f	-0.017831562
66	0xbe637fe6	-0.22216758
67	0xbf5937d4	-0.8485081
68	0xbe73d710	-0.23812509
69	0xbf323b43	-0.69621676
70	0xbf71a0f9	-0.9438625
71	0x3d38a033	0.045074653
72	0x3f1e9386	0.6194385
73	0x3d7e04d4	0.062016323
74	0xbbf34a60	-0.0074246377
75	0x3cb336a2	0.021876637
76	0x3c9ba750	0.01900068
77	0xbe3bbc5c	-0.18333572
78	0xbde4979b	-0.11161729
79	0xbdfde281	-0.12396718
80	0xbf49b9d4	-0.78799176
81	0x3f19e2bb	0.6011159
82	0xbe47f682	-0.19527629
83	0xbf26f1d4	-0.6521275
84	0x3dae6c3e	0.08516739
85	0x3f7d6d31	0.9899474
86	0xbec3e1bb	-0.38258156
87	0xbf7f3223	-0.9968588
88	0x3f06b6ea	0.52622855
89	0xbbfd18a8	-0.0077238865
90	0x3e7050ed	0.2346837
91	0xbcf2d324	-0.029641695
92	0xbdd0a923	-0.1018851
93	0xbf10b869	-0.5653139
94	0xbfce7914	-1.61307
95	0xbef570e6	-0.47937697
96	0xc0162f9b	-2.3466556
97	0xbf84b64d	-1.0368134
98	0x3e9cb3c1	0.3060589
99	0xbd8116de	-0.0630319
100	0xbd92c56d	-0.07166562
101	0x3f0308ed	0.51185495
102	0xbe4246b5	-0.18972285
103	0x3da99d1e	0.08281921
104	0x3f8aee6b	1.0854009
105	0x3d7e96fc	0.06215571
106	0xbf60b6d3	-0.8777897
107	0x3f09b983	0.53798693
108	0xbe463f58	-0.19360101
109	0x3fa79917	1.3093594
110	0x3e3a4921	0.18191959
111	0xbfd233d3	-1.6422065
112	0xbf67480d	-0.90344316
113	0xbe8c249a	-0.27371675
114	0xbf38d21d	-0.7219561
115	0x3eb14792	0.34624916
116	0x3d6a71b2	0.057237335
117	0x3dcc6330	0.09979856
118	0xbec8139a	-0.39077455
119	0x3f6b1a62	0.9183713
120	0xbebd8f65	-0.37023464
121	0x3f1997af	0.59997076
122	0xbf70df48	-0.940907
123	0x3ec90304	0.39260113
124	0xbea4cf9c	-0.32189643
125	0xbe0ff652	-0.14058807
126	0xbd8f3730	-0.06992948
127	0xbf41e3f6	-0.75738466
128	0xbe433892	-0.19064549
129	0xbe3003b6	-0.17188916
130	0x3f837759	1.0270797
131	0x3d7a4e14	0.061109617
132	0xbf1b8772	-0.6075355
133	0xbc291801	-0.010320664
134	0x3d9bb0a6	0.076020524
135	0x3f65274b	0.8951308
136	0x3d9670fe	0.0734577
137	0x3d21b0f5	0.0394754
138	0xbeb9f9fa	-0.3632353
139	0x3dde60db	0.108583175
140	0xbf9bc22e	-1.2168634
141	0x3cc151b3	0.023598528
142	0xbeb6232b	-0.35573706
143	0xbe01e8c4	-0.1268645
144	0xbef23ec9	-0.47313526
145	0x3f81cd70	1.014082
146	0xbfad2a52	-1.352854
147	0xbc9e3c18	-0.019315764
148	0xbb47fa25	-0.0030514088
149	0xbe0dec75	-0.13859732
150	0x3e0b786b	0.13620155
151	0xbd018934	-0.031624988
152	0xbe29885e	-0.16555926
153	0x3d1b6d5f	0.0379461
154	0xbd8699ca	-0.06572302
155	0xbe2b8825	-0.16751154
156	0xbfc585d9	-1.5431472
157	0x3b8c38e0	0.004279241
158	0xbeecbd1c	-0.4623803
159	0xbe3cc795	-0.1843551
160	0xbe059d6a	-0.1304833
161	0xbee04beb	-0.4380792
162	0x3c83dfe8	0.016097978
163	0x409a4015	4.8203225
164	0xbf2bde49	-0.67136055
165	0x3ded2de8	0.115810215
166	0xbf00ed7f	-0.5036239
167	0x3da60ad1	0.08107532
168	0xbedbd60e	-0.42936748
169	0x3e334dcd	0.17510147
170	0xbeb321b4	-0.3498665
171	0xbf3e68e5	-0.74378806
172	0xbf9cadc9	-1.2240535
173	0xbe42cfbc	-0.19024557
174	0xbfd5a1de	-1.6690023
175	0xbf45c2b4	-0.7725022
176	0xbe20f922	-0.15720037
177	0x3c3cbf60	0.011520237
178	0x3e14e505	0.14540489
179	0x3f1e3049	0.6179243
180	0xbdf5a942	-0.11995174
181	0xbd3148c8	-0.0432823
182	0xbf7ea6fa	-0.99473536
183	0x3d59eb7c	0.05320309
184	0xbf6578e7	-0.8963761
185	0x3ee66981	0.45002368
186	0xbd8e0bbe	-0.069358334
187	0xbf0d4345	-0.5518077
188	0x3e336f95	0.17523034
189	0xbe457114	-0.19281417
190	0x3f45ad99	0.77218014
191	0x3dfae583	0.12250807
192	0x3f9ecd2e	1.2406366
193	0x3f0c7825	0.54870826
194	0x3e739804	0.23788458
195	0x3f25cec5	0.6476863
196	0x3f6a67d0	0.91564655
197	0xbf0c85c1	-0.5489159
198	0xbee8b7bc	-0.45452678
199	0x3de9ff1e	0.11425613
200	0xbfab8363	-1.3399471
201	0xbf684891	-0.9073573
202	0xbf1f1714	-0.6214459
203	0xbe2bf095	-0.16790994
204	0xbcb84070	-0.022491664
205	0xbf19ff70	-0.6015539
206	0x3d965352	0.07340111
207	0xbd816e98	-0.06319922
208	0x40085b77	2.1305826
209	0xbdaea92b	-0.0852836
210	0xbf9c7d79	-1.2225791
211	0x3da49299	0.08035774
212	0x3c5dc070	0.01353465
213	0x3e817d95	0.25291124
214	0xbe1673a2	-0.14692548
215	0xbf92dbd9	-1.1473342
216	0x3c366f5b	0.011134948
217	0x3d9305fa	0.07178874
218	0x3f0d2175	0.55129176
219	0xbee662c0	-0.44997215
220	0x3d5acf4d	0.053420354
221	0xbf38d1e7	-0.72195286
222	0xbf0ebc66	-0.55756223
223	0xbdb4786f	-0.088120334
224	0xbda0b410	-0.07846844
225	0xbe381684	-0.17977339
226	0xbebb4565	-0.3657638
227	0xbe55ac87	-0.20866595
228	0xbfab98a5	-1.3405958
229	0xbdce8ba2	-0.100852266
230	0x3c003dd0	0.007827237
231	0xbe85dacf	-0.261435
232	0x3d545970	0.051843107
233	0xbc35c930	-0.01109533
234	0xbe4c464c	-0.19948691
235	0xbbc5aba0	-0.006032422
236	0xbf358655	-0.709081
237	0xbf77123b	-0.9651219
238	0xbdc71ad1	-0.09721912
239	0x3d9ba03f	0.07598924
240	0xbdbd4337	-0.09241336
241	0x3fb0ee91	1.3822805
242	0xbed05622	-0.40690714
243	0x3efbef9c	0.49206245
244	0x3fa358be	1.2761457
245	0x3f6cdb16	0.925218
246	0x3e807cb7	0.2509515
247	0x3e9f89c8	0.31159806
248	0xbf8353ac	-1.025991
249	0xbe630bcf	-0.22172473
250	0xbfaa6ac8	-1.3313837
251	0xbdf97323	-0.12180164
252	0xbefa7ad7	-0.48921844
253	0x3f054dc4	0.52071786
254	0x3f9e1c02	1.2352297
255	0x3de214ea	0.11039145

bias f4 [256]
0	0xbf8ad3d4	-1.0845895
1	0xbf3762b7	-0.71635
2	0xbf52a02c	-0.8227565
3	0xbf9013d6	-1.1256053
4	0xbf72d30f	-0.948533
5	0xbf2005c7	-0.62508816
6	0xbf43c741	-0.7647591
7	0xbf627cfa	-0.8847195
8	0xbf6e0f8e	-0.92992485
9	0xbf360c2b	-0.71112317
10	0xbdbd84db	-0.09253856
11	0xbe03aac9	-0.12858118
12	0xbeb82088	-0.3596232
13	0xbf5b231d	-0.85600454
14	0xbf8025f4	-1.0011582
15	0xbf6961d4	-0.911649
16	0xbf4ae728	-0.79258966
17	0xbf677c64	-0.9042418
18	0xbf94849e	-1.1602972
19	0xbf851be3	-1.0399135
20	0xbe148532	-0.14503935
21	0xbf63e15c	-0.89015746
22	0xbc4777f0	-0.012174591
23	0xbf8a8a13	-1.0823387
24	0xbf1feada	-0.6246773
25	0xbed3c7e2	-0.41363436
26	0xbe7082f2	-0.23487452
27	0xbeb708a4	-0.3574878
28	0xbf303f1a	-0.68846285
29	0xbeb9a196	-0.36256093
30	0xbee8c702	-0.4546433
31	0xbf857336	-1.0425785
32	0x3d1d255b	0.038365703
33	0xbee42cf6	-0.44565552
34	0xbecf5908	-0.40497613
35	0xbf96183e	-1.1726148
36	0xbf0fcdd2	-0.5617343
37	0xbf920e95	-1.14107
38	0xbf07c29c	-0.53031325
39	0xbedf4f41	-0.43615153
40	0xbf7072a0	-0.93924904
41	0xbf363e40	-0.71188736
42	0xbf898685	-1.0744177
43	0xbf46ca88	-0.7765279
44	0xbf2270f6	-0.63453615
45	0xbf477777	-0.77916664
46	0xbe994da8	-0.2994206
47	0xbf62f84a	-0.8866011
48	0xbe3b3ac3	-0.18284135
49	0xbec45d3a	-0.38352376
50	0xbe27e81f	-0.16397141
51	0xbf854155	-1.0410563
52	0xbf4ff919	-0.8123947
53	0xbf3821b3	-0.7192642
54	0xbe9f7234	-0.31141818
55	0xbf5eaed0	-0.8698549
56	0xbf0c45cb	-0.54793996
57	0xbf1c5f3c	-0.61082816
58	0xbf866bd5	-1.0501658
59	0xbf2d5568	-0.67708445
60	0xbf466c32	-0.7750884
61	0xbf37a2cb	-0.7173278
62	0xbe4293bb	-0.19001667
63	0xbf3e730b	-0.7439429
64	0xbf17abf4	-0.59246755
65	0xbf8cee51	-1.1010228
66	0xbf60cb57	-0.8781027
67	0xbf9ade6c	-1.2099128
68	0x3e8c638c	0.27419698
69	0xbe9f6a80	-0.3113594
70	0xbdd3055a	-0.10303755
71	0xbf388b8c	-0.7208793
72	0xbf6f8ba3	-0.93572444
73	0xbf802695	-1.0011774
74	0xbf60c19d	-0.8779543
75	0xbf88a668	-1.0675783
76	0xbf5b0d16	-0.8556684
77	0xbf798788	-0.9747243
78	0xbf568eab	-0.83811444
79	0xbf56d278	-0.839149
80	0xbf5e11d8	-0.8674598
81	0x3f0ff0f0	0.56227016
82	0xbf318035	-0.69336253
83	0xbedf114d	-0.43567887
84	0xbf799e66	-0.9750732
85	0xbf766a27	-0.96255726
86	0xbec60552	-0.38675934
87	0x3fabca6b	1.3421148
88	0x3eb2ccc4	0.3492185
89	0xbf8e6281	-1.1123811
90	0xbfae5c94	-1.3622003
91	0xbf146bd9	-0.5797706
92	0xbf2d1388	-0.6760793
93	0xbf9afda3	-1.2108654
94	0xbf336a22	-0.7008382
95	0xbf3f0d1f	-0.74629396
96	0xbf69d0b0	-0.91334057
97	0xbf1fd438	-0.62433195
98	0xbf9c5545	-1.2213522
99	0xbeac4fc6	-0.33654612
100	0xbf6d4414	-0.92682004
101	0xbf0ae420	-0.5425434
102	0xbe09ec59	-0.13469066
103	0xbed1120a	-0.40834075
104	0xbfa102fd	-1.2579037
105	0xbec7d1f4	-0.3902737
106	0xbf5b4b78	-0.8566203
107	0xbde8001d	-0.113281466
108	0x3ec2c430	0.38040304
109	0x3c575b9a	0.013144398
110	0xbf670bbf	-0.902523
111	0xbf4940f5	-0.7861474
112	0xbdfc2e64	-0.12313536
113	0xbf3804d4	-0.7188237
114	0xbf8d584e	-1.1042573
115	0x3dcf89b7	0.10133689
116	0xbf686309	-0.90776116
117	0xbed42d40	-0.41440773
118	0xbf5fb2cc	-0.873822
119	0xbfc1c931	-1.5139524
120	0xbf6f139f	-0.93389314
121	0xbee3bf55	-0.44481912
122	0xbf11d92e	-0.56972015
123	0xbe5dcf61	-0.2166114
124	0xbf0ba03d	-0.5454138
125	0xbee8b629	-0.45451477
126	0xbf2749c8	-0.65346956
127	0xbf53b76f	-0.8270177
128	0xbfdb0dcd	-1.7113587
129	0xbee59845	-0.44842735
130	0xbf3715e9	-0.7151781
131	0xbf3f859e	-0.7481326
132	0xbf01cdfe	-0.50704944
133	0xbf54c742	-0.83116543
134	0xbf2923ae	-0.6607007
135	0xbfc1541b	-1.5103792
136	0xbeda7756	-0.4266917
137	0xbf349192	-0.7053462
138	0xbed66163	-0.41871175
139	0xbfa1b41f	-1.2633094
140	0x3e7ea240	0.24866581
141	0xbf034f49	-0.51292855
142	0xbe5c92b6	-0.21540341
143	0xbe729474	-0.23689443
144	0x3ed25193	0.4107786
145	0xbf379af9	-0.71720845
146	0x3e74aa97	0.238932
147	0x3de36a68	0.1110428
148	0xbe9f5035	-0.3111588
149	0xbf901b1d	-1.1258274
150	0xbefabdff	-0.4897308
151	0xbe6e6c97	-0.23283611
152	0xbe57d870	-0.21078658
153	0xbece3d4d	-0.40281144
154	0xbf76dfb4	-0.96435094
155	0xbf8127c4	-1.009026
156	0xbe6bf093	-0.2304099
157	0x3e8501be	0.25977892
158	0xbf08a518	-0.53376913
159	0xbdd2a628	-0.10285598
160	0xbf012325	-0.5044425
161	0xbf878555	-1.0587565
162	0xbf3ff2a6	-0.7497963
163	0xbec43254	-0.38319647
164	0xbf7e6704	-0.9937594
165	0xbf0505de	-0.5196208
166	0xbf645534	-0.8919251
167	0xbf3c1fdf	-0.7348613
168	0xbf7e6792	-0.99376786
169	0xbf26da58	-0.65176916
170	0xbea18598	-0.31547236
171	0xbf5a2fdc	-0.8522928
172	0xbebbbd0a	-0.36667663
173	0xbf5c82ba	-0.8613697
174	0x3edc397e	0.43012613
175	0xbf6c90d4	-0.9240849
176	0xbf85bf3c	-1.0448985
177	0x3ea2f747	0.31829283
178	0x3ef2fd56	0.47458905
179	0xbf65894b	-0.8966262
180	0xbf9ddefe	-1.2333677
181	0xbf176196	-0.5913328
182	0xbf276670	-0.6539068
183	0xbfa04abc	-1.2522807
184	0x3e04fb00	0.12986374
185	0xbf285c98	-0.65766287
186	0xbf5a4aec	-0.8527057
187	0xbe875b14	-0.26436675
188	0xbf0db35d	-0.5535181
189	0xbf1be3c4	-0.6089442
190	0xbf6c8554	-0.9239094
191	0xbf3fa78b	-0.74865025
192	0xbf841588	-1.0319071
193	0xbe817a17	-0.2528846
194	0xbf40f67d	-0.7537611
195	0xbef8239a	-0.48464662
196	0xbf7c824f	-0.98636335
197	0xbf976b0e	-1.1829545
198	0xbf41cbfa	-0.7570187
199	0xbf122877	-0.57092994
200	0xbb9d3338	-0.0047973655
201	0xbf0ba8b2	-0.54554284
202	0xbd81b565	-0.063334264
203	0xbf06a8b0	-0.52601147
204	0xbf14d5c4	-0.5813868
205	0xbf325dcb	-0.69674367
206	0xbea489fb	-0.3213652
207	0xbf93d294	-1.1548638
208	0x3e91b942	0.28461653
209	0xbf11f4bf	-0.5701408
210	0xbdca0638	-0.098644674
211	0xbf2a01ee	-0.66409194
212	0xbf76264e	-0.961522
213	0xbf2331f6	-0.6374811
214	0xbef482fb	-0.4775618
215	0xbf82bf21	-1.0214578
216	0xbf584b28	-0.8448968
217	0xbf1ad9bb	-0.6048848
218	0xbd8591de	-0.065219626
219	0xbf119bde	-0.5687846
220	0xbe9551aa	-0.29163867
221	0xbedb732b	-0.42861304
222	0x3e32bdc5	0.17455204
223	0xbce94afa	-0.028478134
224	0xbf59a20f	-0.85012907
225	0xbf0da709	-0.55333
226	0xbf692797	-0.91076034
227	0xbf3e22a3	-0.742716
228	0xbf1af5b1	-0.60531145
229	0xbf88ca9f	-1.0686835
230	0xbf63ba5a	-0.88956225
231	0x3e27a8ca	0.16372982
232	0xbf54b5a8	-0.83089685
233	0xbe83164b	-0.25602946
234	0x3d3d8111	0.046265665
235	0xbf29cc98	-0.6632781
236	0xbefbce12	-0.49180657
237	0x3eaf410d	0.34229317
238	0xbeed08ec	-0.4629587
239	0xbf26d064	-0.6516173
240	0xbf405eba	-0.7514454
241	0xbeb6cfd7	-0.35705444
242	0xbf34b7e0	-0.7059307
243	0x3db3928c	0.08768186
244	0x3f128e78	0.5724864
245	0xbf4abad3	-0.7919132
246	0xbf32b21e	-0.69803035
247	0xbf631a48	-0.88711977
248	0xbf34f4f7	-0.70686287
249	0xbef65858	-0.48114276
250	0xbf2184f9	-0.63093525
251	0xbed19412	-0.4093328
252	0xbf65cad7	-0.89762634
253	0xbeb6c93b	-0.35700402
254	0xbf44f664	-0.7693846
255	0xbf650d51	-0.89473444

weight f4 [256, 256]
0	0xbea4deed	-0.3220133
1	0xbf39cc06	-0.7257694
2	0xbee0e559	-0.43924978
3	0x3e845338	0.2584474
4	0xbea83f0e	-0.32860607
5	0x3e73647b	0.23768799
6	0xbe35419f	-0.17700814
7	0x3e4d7e21	0.20067646
8	0xbe24b279	-0.16083707
9	0x3f584ec9	0.84495217
10	0x3ef3ed0a	0.47641784
11	0xbf9af96a	-1.2107365
12	0xbf2a3ca8	-0.66498804
13	0x3ed858ab	0.42255148
14	0xbed2cc7e	-0.4117164
15	0x3e401af4	0.18760282
16	0xbfa3ae48	-1.2787561
17	0xbe5ec57f	-0.21755026
18	0x3ecff3f8	0.4061582
19	0xbe5340b2	-0.20630148
20	0xbf4244dc	-0.7588632
21	0x3df84069	0.1212166
22	0x3ec17bcb	0.3778976
23	0x3e4a001c	0.19726604
24	0xbeeea42f	-0.46609637
25	0xbf329a63	-0.69766825
26	0xbf0218c6	-0.5081905
27	0xbf940fce	-1.1567323
28	0xbf67c62d	-0.9053677
29	0xbeda2e82	-0.42613608
30	0xbeacd64c	-0.33757246
31	0x3eadc5e4	0.3394004
32	0xbf64b589	-0.893395
33	0x3ea12f83	0.3148156
34	0xbe57f63f	-0.21090029
35	0xbebd9d0f	-0.3703389
36	0xbdd74d8c	-0.10512838
37	0xbf6d5d87	-0.92720836
38	0xbca464a2	-0.020067517
39	0xbdd7fc12	-0.105461255
40	0x3e5d5388	0.21613896
41	0xbe8a58ab	-0.27020773
42	0x3f9bdbe5	1.2176481
43	0xbf86a053	-1.0517677
44	0x3da2e291	0.0795337
45	0x3e758bb4	0.23979074
46	0x3d18003d	0.037109602
47	0x3f804a03	1.0022587
48	0xc0094f0d	-2.1454499
49	0xbeb22157	-0.3479106
50	0xbeb9393c	-0.3617648
51	0x3ea0e1d4	0.31422293
52	0xbda14bdc	-0.07875797
53	0x3f004a98	0.5011382
54	0x3e77bac6	0.24192342
55	0xbe14bbe0	-0.14524794
56	0x3f536c75	0.8258737
57	0x3ef40c79	0.47665766
58	0xbf57034d	-0.8398941
59	0xbe41f067	-0.18939362
60	0x3f9dbe00	1.2323608
61	0xbdc04663	-0.09388425
62	0xbf05e968	-0.52309275
63	0x3e6e7a09	0.2328874
64	0xbe855547	-0.26041624
65	0xbe930135	-0.28711858
66	0x3f314d49	0.6925855
67	0x3f598254	0.8496449
68	0xc048253f	-3.1272733
69	0xbe298e2e	-0.16558143
70	0xbea090a2	-0.31360346
71	0x3e54c69b	0.20778887
72	0xbf878a01	-1.058899
73	0xbebb2223	-0.36549482
74	0xbe2d820f	-0.16944145
75	0x3ea56595	0.32304063
76	0x3f60c40b	0.8779914
77	0xbf07ea2b	-0.53091687
78	0xc008186d	-2.1264908
79	0x3f93fd51	1.1561681
80	0xbfce2e66	-1.610791
81	0xbec6e660	-0.38847637
82	0xbf7c6f5f	-0.9860744
83	0xbf78bec5	-0.9716609
84	0x3d8781b7	0.06616538
85	0x3eec23f4	0.4612118
86	0xbfa87ccf	-1.3163089
87	0x3e4b7b10	0.19871163
88	0xbf35c52a	-0.71003973
89	0xbecc6570	-0.3992114
90	0xbf8e1084	-1.109879
91	0xbf2fd82f	-0.68689245
92	0x3d2b2383	0.041781913
93	0x3d00dfa8	0.031463295
94	0xbfd6aecd	-1.6772095
95	0xbf08743c	-0.5330236
96	0x3f3fe5ea	0.74960196
97	0xbe91d334	-0.28481448
98	0x3f3181ed	0.69338876
99	0xbf9d41f3	-1.2285751
100	0x3fac54a9	1.3463336
101	0xbd915c1f	-0.07097649
102	0xbf3e8b5d	-0.744314
103	0x3f56f3fd	0.83966047
104	0x3efdffea	0.4960931
105	0xbf3ec91b	-0.7452561
106	0x3dc557b1	0.096358664
107	0xbf94fef9	-1.1640311
108	0xbec418b8	-0.3830011
109	0xbf6dd81d	-0.9290789
110	0x3f0d6343	0.55229586
111	0x3e4b7183	0.1986752
112	0xbf837f7d	-1.0273281
113	0xbd05cea7	-0.032667782
114	0xbec517f7	-0.38494846
115	0xbf29ae10	-0.66281223
116	0x3eb884bb	0.36038765
117	0xbf92890c	-1.1448073
118	0xc01657bc	-2.349105
119	0xbc247ae8	-0.010039069
120	0xc01a4079	-2.410185
121	0x3f26bd21	0.6513234
122	0x3f28c564	0.65926194
123	0xbfee652d	-1.8624626
124	0xbef5a87e	-0.47980112
125	0xbf2bad94	-0.67061734
126	0x3fe06e3c	1.7533641
127	0xbd40e283	-0.04709102
128	0xbee39cc8	-0.44455552
129	0xbf1c17a5	-0.6097358
130	0xbea1fc33	-0.31637725
131	0x3dcaa633	0.09894981
132	0x3ee5ab70	0.4485736
133	0xbf6195f3	-0.8811943
134	0x3e92f985	0.28705993
135	0x3f0c04fd	0.5469511
136	0xbe1bdf2d	-0.15221854
137	0x3f4de7fd	0.8043211
138	0xbe4e1a63	-0.20127253
139	0xbdbca009	-0.09210212
140	0xbe54feb4	-0.20800287
141	0xbfe535a9	-1.7907001
142	0x3f3ae5aa	0.7300669
143	0xbfbd32cc	-1.4781127
144	0xbf02263f	-0.5083961
145	0xbebc1144	-0.36731923
146	0xbf60591d	-0.87635976
147	0x3e723175	0.23651679
148	0xbfc6d16b	-1.5532659
149	0xbecec31d	-0.40383235
150	0x3dbacc6a	0.0912102
151	0x3d53fd5d	0.051755298
152	0x3edb0890	0.4277997
153	0x3e62fe52	0.22167328
154	0x3ecde715	0.40215364
155	0x3ce01d3f	0.027357696
156	0x3ecb678a	0.39727432
157	0xbf80fee2	-1.0077784
158	0x3f145185	0.5793689
159	0xbeed157f	-0.46305463
160	0x3ed83c45	0.42233482
161	0x3ea1f4c7	0.31632063
162	0x3f596bb2	0.84929955
163	0xbf8c2171	-1.0947706
164	0x3e19d4ac	0.15022534
165	0xbf5da4aa	-0.8657938
166	0x3f20a572	0.6275245
167	0x3e4db152	0.20087174
168	0xbc8dbd43	-0.017302161
169	0xbf932e0b	-1.1498426
170	0xbf9ff117	-1.249545
171	0xbf84edf1	-1.0385114
172	0x3f05fcea	0.5233904
173	0xbfa61aaf	-1.2976893
174	0xbdaeab45	-0.08528761
175	0xbe34b090	-0.17645478
176	0xbef7c146	-0.48389643
177	0xbf7900e1	-0.97266966
178	0xbf5860af	-0.8452253
179	0xbfc290d5	-1.5200449
180	0xbca943ca	-0.020662207
181	0xbf0be32a	-0.546435
182	0xbebc0d56	-0.36728925
183	0x3e9ec048	0.31006074
184	0xbeaf02d6	-0.3418185
185	0xbf56ebdb	-0.83953637
186	0xbd3e8594	-0.04651411
187	0x3c603a37	0.0136857545
188	0xbeac85d3	-0.3369585
189	0xbf54d598	-0.8313842
190	0xbed0019a	-0.40626222
191	0x3ecab94d	0.39594498
192	0xbf0ab2a1	-0.54178816
193	0x3f5a42db	0.85258263
194	0xbf90d7c6	-1.1315849
195	0xc006404b	-2.0976741
196	0xbf4c07ff	-0.796997
197	0xbe2342de	-0.15943477
198	0x3ed47c05	0.4150087
199	0xbd20ad49	-0.039227758
200	0xbd8d7543	-0.069071315
201	0xbeaa15c4	-0.3321973
202	0xbe3d0d7b	-0.18462174
203	0x3e8d40d9	0.27588537
204	0xbef45ceb	-0.4772714
205	0x3e46d48d	0.19417019
206	0xbdbe94ee	-0.0930575
207	0xbf871f5b	-1.0556444
208	0xbe0bdc23	-0.13658194
209	0x3efe2831	0.4964004
210	0xbf0f4f25	-0.5598014
211	0xbfe823d2	-1.8135931
212	0xbf32a43c	-0.6978185
213	0xbf4c5379	-0.7981487
214	0xbe773a1d	-0.24143262
215	0xbf22aa05	-0.6354068
216	0xbdfdd3fe	-0.1239395
217	0x3f24a299	0.64310604
218	0xbfefa8c2	-1.8723376
219	0xbf029746	-0.51012075
220	0x3ddca223	0.107731126
221	0xbee2a373	-0.44265327
222	0x3d0a6ae1	0.033793334
223	0xbeab38c6	-0.33441752
224	0x3f9702ab	1.1797689
225	0xbf77c55d	-0.9678553
226	0xbdb113c6	-0.086463496
227	0x3ec1270b	0.377251
228	0xbf0ee28b	-0.5581443
229	0x3f5824ae	0.8443097
230	0xbe6b0474	-0.22950917
231	0xbeebf2b0	-0.46083593
232	0xbf042d92	-0.51632035
233	0xc02ab3d2	-2.6672254
234	0xbf273ce9	-0.65327317
235	0xbd693e01	-0.056943897
236	0xbfaa002a	-1.32813
237	0x3f315862	0.69275486
238	0xbf3c721d	-0.73611623
239	0x3f5eca1a	0.8702713
240	0x3edc51c8	0.43031144
241	0xbf28b5de	-0.6590251
242	0xbf9ced2c	-1.2259879
243	0xbf8d681d	-1.1047398
244	0xbe8a6577	-0.27030537
245	0xbf22c97e	-0.635887
246	0xbe3b5a0b	-0.18296067
247	0x3f93918a	1.152879
248	0xbf56d7dd	-0.8392313
249	0x3e790743	0.24319176
250	0xbf7237e6	-0.94616544
251	0xbfbb2a1e	-1.4622228
252	0xbe87d2f4	-0.26528132
253	0xbebd1088	-0.36926675
254	0xbfc427b4	-1.5324616
255	0x3f27726f	0.65408987

bias f4 [256]
0	0xbf46e54a	-0.7769362
1	0xbec22bfc	-0.37924182
2	0xbf47f392	-0.78106034
3	0xbd281062	-0.04103125
4	0xbf179b61	-0.59221464
5	0xbe0cef4b	-0.13763158
6	0xbd869433	-0.065712355
7	0xbec36982	-0.38166434
8	0xbe275ea1	-0.16344692
9	0x3c445795	0.011983772
10	0xbf51fe6d	-0.8202885
11	0xbeb45fdc	-0.35229385
12	0xbf8c3ba9	-1.0955707
13	0xbfa7b706	-1.3102729
14	0xbf1fef51	-0.6247454
15	0xbfa39e52	-1.278269
16	0xbf7eab87	-0.9948048
17	0xbd3a7e9d	-0.045530904
18	0xbf293bfc	-0.66107154
19	0xbe9b35f7	-0.3031461
20	0x3f353e21	0.70797926
21	0xbeec301f	-0.46130463
22	0xbe7212c0	-0.23639965
23	0xbd9ace07	-0.07558828
24	0xbf908da1	-1.1293222
25	0xbe06c057	-0.1315931
26	0xbf2c7c0d	-0.67376786
27	0xbff54d86	-1.9164283
28	0xbd40321b	-0.046922784
29	0x3e1773bf	0.14790247
30	0xbefbef46	-0.4920599
31	0xbdc9d05e	-0.09854196
32	0xbf868db8	-1.0511999
33	0xbeeca914	-0.46222746
34	0xbf093ba7	-0.5360665
35	0xbcd67e3c	-0.02618324
36	0xbf6db7c4	-0.9285853
37	0xbf1a802b	-0.6035182
38	0xbf1d7743	-0.61510104
39	0xbf923e7f	-1.1425322
40	0xbe5f0bd6	-0.21781859
41	0xbf76ca5f	-0.96402544
42	0xbf48c25d	-0.78421575
43	0x3d953042	0.07284595
44	0xbd6e64ad	-0.05820148
45	0xbf72f9dc	-0.94912505
46	0xbdecc6ce	-0.115613565
47	0xbdbf6476	-0.09345333
48	0xbf7f39ba	-0.9969746
49	0xbe8c4296	-0.2739455
50	0xbef311f5	-0.47474638
51	0xbebfd458	-0.37466693
52	0xbe0dc140	-0.1384325
53	0xbe462c3f	-0.19352816
54	0xbeb4d294	-0.35316908
55	0xbd8a02ff	-0.06738853
56	0xbf45504b	-0.7707564
57	0xbf93fb47	-1.1561059
58	0xbe500af8	-0.20316684
59	0xbf44422a	-0.7666346
60	0xbf3f827f	-0.74808496
61	0xbfdfcfef	-1.7485331
62	0xbd895a6d	-0.067067005
63	0xbdea4702	-0.11439325
64	0xbdb2c121	-0.08728243
65	0xbd93f05e	-0.07223581
66	0xbf6253cd	-0.8840912
67	0xbe0356d5	-0.12826093
68	0xbf331cc0	-0.69965744
69	0xbecef477	-0.40420887
70	0xbf4e4de7	-0.8058762
71	0xbe0b256e	-0.13588497
72	0xbe41457b	-0.18874161
73	0x3ecf3a5e	0.40474218
74	0xbca8893f	-0.020573257
75	0xbfbba2bb	-1.4659036
76	0xbf138df1	-0.5763846
77	0x3eced579	0.40397242
78	0xbf00f7db	-0.503782
79	0xbf47b809	-0.7801519
80	0xbe59d353	-0.2127202
81	0xbdb8f596	-0.09031217
82	0xbeb947e4	-0.3618766
83	0xbf312bc6	-0.6920742
84	0xbecff7e6	-0.4061882
85	0xbf647ad5	-0.89249927
86	0xbe985519	-0.29752424
87	0xbf2de7fd	-0.6793211
88	0xbd5ac6e3	-0.05341233
89	0xbd9a5149	-0.07535035
90	0xbf728a0f	-0.9474191
91	0xbdd3a434	-0.10334054
92	0xbe202524	-0.15639168
93	0xbf2cbf7f	-0.674797
94	0xbe136114	-0.14392501
95	0xbe7cef7b	-0.2470073
96	0x3e169e55	0.14708836
97	0xbf83ed3a	-1.0306771
98	0xbe227a87	-0.15867053
99	0xbeacd4be	-0.3375606
100	0xbd081262	-0.033220656
101	0xbf66d2ce	-0.9016541
102	0xbedd8076	-0.4326207
103	0x3e85d7d1	0.26141217
104	0xbf712ddc	-0.942106
105	0xbd993fd6	-0.07482879
106	0xbe8e6a96	-0.27815694
107	0x3fb16e48	1.386178
108	0xbf247d33	-0.6425354
109	0xbf240ced	-0.64082223
110	0xbeee14f3	-0.46500358
111	0xbf1947a5	-0.59874946
112	0xbf6be581	-0.9214707
113	0xbf71e966	-0.9449676
114	0xbebab884	-0.364689
115	0xbf4b005e	-0.79297435
116	0xbdd22ad4	-0.10262075
117	0xbf7ec458	-0.99518347
118	0xbf140700	-0.5782318
119	0xbef4b800	-0.4779663
120	0xbf962c3f	-1.1732253
121	0xbfb3a90e	-1.4035966
122	0xbf11dc99	-0.5697723
123	0xbf811ba5	-1.0086561
124	0xbdd5bfdf	-0.10436987
125	0xbdc9a2cd	-0.09845505
126	0xbd9aa2a7	-0.07550555
127	0xbf82c6f3	-1.0216964
128	0xbf817edc	-1.011684
129	0xbf1f74bb	-0.6228749
130	0x3e8cdc89	0.27512005
131	0xbdc48441	-0.09595538
132	0xbd54d60f	-0.051961955
133	0xbe125589	-0.14290442
134	0xbe02a20a	-0.12757125
135	0xbe03433a	-0.12818614
136	0x3dd4c044	0.10388234
137	0xbdc850c5	-0.097810306
138	0xbb507e84	-0.003181369
139	0xbde4be85	-0.11169151
140	0xbebd1f4c	-0.3693794
141	0xbf161339	-0.5862308
142	0xbeaa41b1	-0.33253244
143	0xbf5342c6	-0.82523763
144	0xbe43f611	-0.19136836
145	0xbf43424e	-0.7627305
146	0xbf83ccf2	-1.0296919
147	0xbdf5dcc0	-0.12004995
148	0xbdfaeef5	-0.12252609
149	0xbd9807bb	-0.074233495
150	0xbf77e653	-0.9683582
151	0xbde11bf3	-0.10991659
152	0xbe85eb67	-0.2615616
153	0xbfe7e721	-1.811741
154	0xbdc0802a	-0.09399445
155	0xbddf4cc1	-0.109033115
156	0xbeca4bdf	-0.3951101
157	0x3f6e76dd	0.9315012
158	0xbf5a2fa0	-0.8522892
159	0xbe9244a5	-0.28567997
160	0xbf032c75	-0.5123971
161	0xbf245fc3	-0.6420862
162	0xbf73b442	-0.95196927
163	0xbe96176a	-0.2931474
164	0x3fbda4ea	1.4815953
165	0xbf866f9c	-1.050281
166	0xbf0dd817	-0.5540785
167	0xbdf2bdf9	-0.11852641
168	0xbed61ed4	-0.41820395
169	0xbf9c4333	-1.2208008
170	0xc0103d5e	-2.2537456
171	0xbd9e0b02	-0.07716943
172	0xbe22249f	-0.15834282
173	0xbe9357b3	-0.28777847
174	0xbe2ca8d8	-0.16861284
175	0xbf8c52d0	-1.0962772
176	0xbf3a69da	-0.72817767
177	0xbf71a5e5	-0.9439376
178	0xbdedcd50	-0.11611426
179	0xbd00463c	-0.03131698
180	0xbf4c6497	-0.7984099
181	0xbf1af2dc	-0.60526824
182	0xbf1ce93b	-0.6129338
183	0xbfacf373	-1.3511795
184	0xbf2db625	-0.67856055
185	0xbf42f9f2	-0.76162636
186	0xbfe524dc	-1.7901874
187	0xbd991970	-0.07475555
188	0xbf053d9a	-0.5204712
189	0xbf8ff7b4	-1.1247468
190	0xbf084cfa	-0.53242457
191	0xbf3ade97	-0.72995895
192	0xbf3c8fcd	-0.7365692
193	0x3da7c2dc	0.08191463
194	0xbdc0d7de	-0.094161734
195	0xbf54def0	-0.83152676
196	0xbdbf3457	-0.09336155
197	0xbd8730ec	-0.06601128
198	0xbd228c46	-0.039684556
199	0xbf6d21e1	-0.9262982
200	0xbd8ef654	-0.06980577
201	0xbf414338	-0.7549319
202	0xbeb76c11	-0.35824636
203	0xbe28884a	-0.1645824
204	0xbf0c590b	-0.5482337
205	0x3f2f781f	0.68542665
206	0xbe9b2d04	-0.30307782
207	0xbeb47b9e	-0.35250562
208	0xbf8d7314	-1.1050744
209	0xbe71f30c	-0.23627871
210	0xbf1ef30d	-0.62089616
211	0xbf11c271	-0.5693732
212	0xbd147c39	-0.03625128
213	0xbdf0872a	-0.117445305
214	0xbdb26328	-0.08710319
215	0xbd99e307	-0.07514005
216	0x3ef6ffc5	0.48242012
217	0xbf03589b	-0.51307076
218	0xbee3ad7a	-0.4446829
219	0xbd6cbb17	-0.05779561
220	0xbdc838b7	-0.097764425
221	0xbe15a8e6	-0.14615211
222	0xbdb0b601	-0.086284645
223	0x3e3013a9	0.17195
224	0xbea46db4	-0.32114947
225	0xbdbfcc2a	-0.09365113
226	0xbf344dfd	-0.704315
227	0xbd55ec2f	-0.052227195
228	0xbfb28bb7	-1.3948888
229	0xbfbe869c	-1.488483
230	0xbdeb9900	-0.11503792
231	0x3e7ec4f8	0.24879825
232	0xbf9cffda	-1.226558
233	0xbf5dca3c	-0.8663671
234	0xbdb64ff5	-0.08901969
235	0xbdd8e64d	-0.105908014
236	0xbdfcf31d	-0.12351058
237	0xbf3dedcd	-0.7419098
238	0x3f180396	0.5938047
239	0xbf95c090	-1.169939
240	0xbea0ada8	-0.3138249
241	0xbdc74de4	-0.09731653
242	0xbdf91166	-0.121615216
243	0xbdcdb028	-0.10043365
244	0xbf828c71	-1.0199109
245	0xbddd09f1	-0.10792912
246	0xbd2d2148	-0.042268068
247	0x3d1eee2d	0.03880136
248	0xbfb1507a	-1.3852684
249	0xbf7bf482	-0.98419964
250	0xbd80a399	-0.06281204
251	0xbee453a9	-0.44595078
252	0xbdfbf75d	-0.1230304
253	0xbda11fac	-0.07867369
254	0xbe1e80b5	-0.15478785
255	0xbf8224d8	-1.0167494

weight f4 [6, 256]
0	0xbf378d58	-0.7170005
1	0xbe9df083	-0.30847558
2	0x3e6bd336	0.2302979
3	0x3d5f8227	0.054567482
4	0xbf4bb29f	-0.7956943
5	0x3d0bc7fc	0.034126267
6	0xbd126a9a	-0.035746194
7	0xbe1815f5	-0.14852126
8	0x3e7634ee	0.24043629
9	0x3e7aa700	0.24477768
10	0xbe5c25b2	-0.21498755
11	0x3bffe6b3	0.007809484
12	0xbeea97de	-0.4581899
13	0xbe87dd56	-0.26536053
14	0xbeee8099	-0.46582487
15	0x3dc0bb88	0.09410769
16	0xbe2e7c53	-0.17039613
17	0x3b9514a3	0.004549579
18	0x3e570ff3	0.21002178
19	0x3ba638b9	0.00507268
20	0xbc7653a0	-0.015034586
21	0x3dcda241	0.10040713
22	0xbdd9a8b7	-0.10627883
23	0x3cd38b0d	0.02582314
24	0xbe7edc45	-0.24888714
25	0xbbfc6219	-0.007702124
26	0x3ed422e7	0.41432878
27	0x3b19e3a4	0.0023481632
28	0x3e0086f0	0.12551475
29	0x3b94ddd2	0.0045430446
30	0x3d55f941	0.05223966
31	0x3d5f5e12	0.05453307
32	0xbd1f1aff	-0.038844105
33	0xbf68a735	-0.9088014
34	0x3de96b18	0.1139738
35	0x3ec70744	0.3887273
36	0x3c798989	0.015230545
37	0x3ea22178	0.3166616
38	0x3ebe28ef	0.37140605
39	0xbe532772	-0.20620516
40	0xbbb04587	-0.005379382
41	0xbe1c017a	-0.15234938
42	0xbd871a5f	-0.06596827
43	0xbec21cd5	-0.37912622
44	0x3cc46317	0.023973031
45	0x3d2f6bdb	0.04282747
46	0xbd55d94a	-0.052209176
47	0xbcd37420	-0.025812209
48	0xbd618618	-0.055059522
49	0xbe2201ae	-0.15820953
50	0xbea2cf2e	-0.3179869
51	0x3dba0b59	0.09084196
52	0xbdf95c07	-0.12175756
53	0xbe844550	-0.2583413
54	0x3d57224c	0.052522942
55	0xbcb48cb1	-0.022039743
56	0xbebf6756	-0.37383527
57	0x3dffa413	0.124824665
58	0x3da3000e	0.07958995
59	0xbf167c64	-0.58783555
60	0x3c05d557	0.00816854
61	0xbca6074a	-0.020267148
62	0xbd35e6c8	-0.044409543
63	0xbe0079b1	-0.12546422
64	0xbcac894b	-0.02106156
65	0x3b577bba	0.0032880143
66	0xbd63d8dc	-0.055626735
67	0x3c985e97	0.018599791
68	0xbf043d5c	-0.51656127
69	0x3e5720d5	0.21008618
70	0x3d8a199e	0.06743167
71	0x3bd3227f	0.0064433212
72	0x3e142433	0.14466934
73	0x3cbab852	0.022792969
74	0x3c5c0db0	0.013430998
75	0xbe3b9f3f	-0.18322466
76	0x3e33a6a9	0.17544045
77	0x3e2ca042	0.16858009
78	0x3e2844dc	0.16432518
79	0x3d5a7c49	0.053341184
80	0xbe000caf	-0.12504838
81	0x3dc7dd2d	0.09758983
82	0x3d747425	0.059681077
83	0x3ea72301	0.32643893
84	0xbe92a098	-0.28638148
85	0x3e14ce19	0.14531745
86	0x3d519463	0.051166903
87	0xbda12c38	-0.07869762
88	0x3cabc2dc	0.02096694
89	0xbd3dddf8	-0.046354264
90	0xbf28db0a	-0.6595923
91	0xb9a546e9	-0.00031524085
92	0xbc45d034	-0.012073565
93	0xbde86989	-0.11348254
94	0xbd4fb9e9	-0.050714407
95	0x3d2d8939	0.042367194
96	0x3c69755b	0.014249171
97	0x3cb19886	0.021679174
98	0xbd4c3aeb	-0.049860876
99	0xbf9d7e4c	-1.2304168
100	0x3d118544	0.035527483
101	0x3e19682d	0.14981146
102	0xbf2dd01a	-0.6789566
103	0xbcb88ce6	-0.022528123
104	0xbe823c4d	-0.2543663
105	0xbdec451f	-0.11536621
106	0xbee0f151	-0.4393411
107	0x3de11847	0.10990959
108	0xbeb6404d	-0.35595933
109	0xbd860b28	-0.06545097
110	0x3c36521f	0.011127978
111	0xbe347990	-0.17624497
112	0x3f11766c	0.5682132
113	0xbf25250f	-0.6450967
114	0xbdc6655f	-0.09687304
115	0xbe1a87bb	-0.1509084
116	0xbccf9e6e	-0.0253441
117	0xbd334bca	-0.04377345
118	0xbdd2c5b5	-0.10291616
119	0xbedba0a3	-0.42895994
120	0xbf294bda	-0.66131365
121	0xbde86a9c	-0.11348459
122	0xbcebc9ba	-0.028782714
123	0xbdeda9b3	-0.11604633
124	0xbd0645bc	-0.032781348
125	0x3d261150	0.040543854
126	0x3d56274a	0.052283563
127	0xbe792363	-0.24329905
128	0xbf2f6305	-0.68510467
129	0xbcf102b8	-0.029420242
130	0xbe563f35	-0.20922549
131	0xbc9cafe9	-0.01912685
132	0xbd014a90	-0.03156525
133	0x3caa607a	0.020797957
134	0xbd2479cf	-0.04015523
135	0x3d04b6b7	0.032400813
136	0x3e485e11	0.19567133
137	0x3d9c34b0	0.07627237
138	0xbe26c952	-0.16287735
139	0x3b8f7147	0.0043775174
140	0x3e271f45	0.16320522
141	0x3d32612a	0.043549694
142	0xbd5fc304	-0.05462934
143	0xbf01f010	-0.5075693
144	0x3d011616	0.031515203
145	0xbd2d1f85	-0.042266387
146	0x3e1c71df	0.15277813
147	0x3ca10e5b	0.019660166
148	0x3ae41db8	0.0017403876
149	0x3d1783d0	0.03699094
150	0x3d2fb693	0.042898726
151	0xbd89d5bb	-0.06730219
152	0xbe80c468	-0.25149846
153	0x3ef97fea	0.48730403
154	0xbb1b77e8	-0.0023722593
155	0x3d6c50d9	0.05769429
156	0xbcd349a3	-0.025791949
157	0xbe4504db	-0.19240133
158	0xbc7baea4	-0.015361462
159	0xbd88185d	-0.06645272
160	0xbdff6657	-0.12470692
161	0x3e565d90	0.20934129
162	0x3cfee49a	0.031114865
163	0x3e9613a4	0.2931186
164	0x3e0a6c0e	0.13517782
165	0xbe06ca3a	-0.13163081
166	0xbdd1e073	-0.102478884
167	0x3c8d4e2b	0.017249187
168	0x3dd037ed	0.10166917
169	0xbf1b1919	-0.6058517
170	0xbe4e181c	-0.20126384
171	0xbd12bc92	-0.035824366
172	0x3d73fe41	0.059568647
173	0xbe431427	-0.19050656
174	0xbd737b91	-0.059444014
175	0xbeb01863	-0.34393606
176	0xbde46e7c	-0.11153886
177	0xbe18c1e6	-0.14917716
178	0x3c3f4bad	0.011675757
179	0xbc053188	-0.008129485
180	0xbf74c238	-0.95608854
181	0xbd171f8d	-0.036895324
182	0xbe83ce29	-0.25743225
183	0xbe897ff9	-0.26855448
184	0xbe9221ce	-0.28541416
185	0xbe970d1b	-0.29502186
186	0xbea46502	-0.32108313
187	0xbd0163a3	-0.03158916
188	0xbd912e12	-0.07088865
189	0x3d774dd4	0.060376957
190	0x3d957916	0.07298486
191	0x3de356eb	0.11100563
192	0x3e888c51	0.26669553
193	0x3e732ecf	0.23748325
194	0x3d7f4273	0.06231923
195	0x3e938f09	0.28820065
196	0xbd6dad2e	-0.058026485
197	0x3d3ce493	0.046116423
198	0xbdaa53c8	-0.08316761
199	0xbd3b2cf5	-0.04569717
200	0xbd89a3a6	-0.067206666
201	0xbdcfe014	-0.101501614
202	0x3e54b6da	0.20772877
203	0xbece131d	-0.40248957
204	0xbd0d2e19	-0.03446779
205	0xbd9deb25	-0.07710866
206	0xbf57b172	-0.84255135
207	0xbd2fc759	-0.042914722
208	0xbe2cf9ba	-0.16892138
209	0xbce09ac5	-0.02741755
210	0xbe187d64	-0.14891583
211	0x3e52964e	0.20565149
212	0xbc60b01f	-0.013713866
213	0x3cc89f21	0.024489941
214	0x3d1457ca	0.036216535
215	0xbd80f21d	-0.062961794
216	0xbd3a09b7	-0.04541942
217	0xbd61a581	-0.055089477
218	0x3e81befe	0.25341028
219	0x3c67469b	0.014115955
220	0x3d80c73d	0.06288002
221	0xbb79394c	-0.0038028536
222	0xbd73c01f	-0.059509393
223	0xbf49dc16	-0.7885145
224	0xbd12dd99	-0.035855863
225	0x3bbcd08e	0.0057621663
226	0xbe17f8c8	-0.14840996
227	0xbcfa3f11	-0.03054765
228	0xbf2437d4	-0.64147687
229	0xbea42c93	-0.32065257
230	0x3d9fe632	0.07807578
231	0xbd87b396	-0.0662605
232	0xbbc428e6	-0.005986321
233	0xbef80630	-0.4844222
234	0x3b894bce	0.004189945
235	0xbd5a7633	-0.05333538
236	0xbbcdc413	-0.0062794774
237	0x3c37d9dc	0.011221375
238	0x3da4a776	0.08039753
239	0xbeaa91e6	-0.33314437
240	0x3f0f1fa3	0.5590765
241	0x3ca000e2	0.019531671
242	0xbc10bb46	-0.008833712
243	0x3c815736	0.015788656
244	0xbd971684	-0.073773414
245	0x3cb2fb0a	0.02184822
246	0x3c5dc56c	0.013535839
247	0x3cb6a7f5	0.022296885
248	0x3e0feb91	0.14054705
249	0xbd3e14fd	-0.046406735
250	0xba085e1c	-0.00052020117
251	0xbea60e38	-0.32432723
252	0xbd357f8b	-0.044311088
253	0x3c393027	0.011302984
254	0xbd2376a1	-0.039908055
255	0xbe4a4ac7	-0.19755088

bias f4 [6]
0	0x3e111ee0	0.14171934
1	0xbd95ee41	-0.07320834
2	0x3d5fba15	0.05462082
3	0xbeaf0aae	-0.34187835
4	0x3e018ced	0.12651415
5	0xbc8ab959	-0.016934084

weight f4 [6, 256]
0	0x3e9c6c8d	0.30551568
1	0x3e8bd511	0.27310994
2	0xbd08f39d	-0.033435453
3	0x3cd9c37f	0.026582478
4	0xbdda3dca	-0.106563166
5	0x3d5dafed	0.054122854
6	0xbd51d590	-0.05122906
7	0x3efd9996	0.4953124
8	0xbd94bd34	-0.0726265
9	0x3d017477	0.03160521
10	0x3e302f82	0.17205623
11	0x3d81ce27	0.063381486
12	0x3f1a5d65	0.6029876
13	0x3f9e17d1	1.2351018
14	0x3f5121ae	0.81692016
15	0x3f86a29a	1.0518372
16	0xbc089d32	-0.0083382595
17	0x3d9655c6	0.07340579
18	0x3ed66993	0.41877422
19	0x3ee0cf3f	0.43908116
20	0xbd0f3b34	-0.03496857
21	0x3f205286	0.6262592
22	0x3f094a85	0.5362933
23	0x3cd93534	0.026514627
24	0x3ef2311d	0.47303095
25	0x3ce47e21	0.027892174
26	0x3e0e7089	0.13910116
27	0x3e0480a8	0.12939703
28	0xbd8a1562	-0.0674236
29	0xbc06a5fc	-0.008218285
30	0x3d8377c8	0.06419331
31	0x3d22e6c1	0.039770845
32	0x3dfd0dd1	0.12356151
33	0x3ef7902b	0.4835218
34	0xbd808364	-0.06275061
35	0xbd6e136c	-0.05812399
36	0x3cfb1f81	0.03065467
37	0x3e899463	0.26871023
38	0x3dea6e9a	0.11446877
39	0x3e6ce8b8	0.2313565
40	0x3e0e8f5e	0.13921878
41	0x3ebf4c35	0.3736283
42	0x3db3e594	0.08784023
43	0xbd5237b5	-0.051322658
44	0x3d140d06	0.036145233
45	0x3f03c2ef	0.5146932
46	0x3cc95bf8	0.024579987
47	0x3b6dc475	0.0036280428
48	0x3e8557ae	0.26043457
49	0x3ea1d18f	0.31605193
50	0x3f2b3455	0.6687673
51	0x3d44187d	0.047874916
52	0x3e2caafe	0.16862103
53	0xba4174d6	-0.00073797756
54	0x3e42a3b7	0.19007765
55	0x3bfd3dd6	0.0077283187
56	0xbe21d7d1	-0.15804984
57	0x3e2c90ad	0.16852064
58	0x3e986907	0.2976763
59	0x3f620438	0.8828769
60	0x3f32e99a	0.698877
61	0x3efce453	0.49392948
62	0x3d21f686	0.039541744
63	0x3c64fb3b	0.013975914
64	0x3cc4df8a	0.024032373
65	0x3d25f820	0.040519834
66	0xbd2f7ac1	-0.042841677
67	0x3c0f7b85	0.008757477
68	0x3f3a779a	0.7283875
69	0x3f00aa27	0.5025963
70	0x3f172140	0.5903511
71	0x3d99b97d	0.07506082
72	0x3d2a7f64	0.041625395
73	0x3d4cbc7b	0.049984436
74	0x3b23a98f	0.002497289
75	0x3f0bdbe8	0.54632425
76	0x3e27e21f	0.16394852
77	0xbafe3915	-0.0019395674
78	0xbe1a93df	-0.15095471
79	0xbbc1300d	-0.0058956207
80	0x3e0c3776	0.13693032
81	0x3da45975	0.08024875
82	0x3f06d038	0.52661467
83	0x3ed4d866	0.4157135
84	0xbd1eff7a	-0.03881786
85	0x3d55fe2b	0.052244347
86	0x3d28eb14	0.041239813
87	0x3e7eec4e	0.2489483
88	0xbbec424b	-0.007210051
89	0x3c2b5fa1	0.010459811
90	0x3f4d9180	0.8030014
91	0x3dcbe377	0.09955495
92	0xbd4f0b86	-0.0505481
93	0x3d8d8afe	0.06911276
94	0x3d89dc41	0.06731463
95	0x3b559f79	0.0032596274
96	0x3b1bc368	0.0023767594
97	0xbd8d39d8	-0.068957984
98	0xbd829309	-0.06375701
99	0x3f152478	0.5825877
100	0x3d092e4d	0.03349142
101	0x3e9496cd	0.29021302
102	0x3ef837b9	0.48480013
103	0xbb838869	-0.004014064
104	0x3ebc9be6	0.3683769
105	0x3dede3c4	0.116157085
106	0x3f204d87	0.626183
107	0xbd2451d2	-0.040117092
108	0xbd13f712	-0.036124296
109	0x3f8face5	1.1224638
110	0xbdc22fd1	-0.094817765
111	0x3e635a29	0.22202362
112	0x3e054c7d	0.13017459
113	0x3e478d9a	0.1948761
114	0xbd9c4885	-0.076310195
115	0x3b784e63	0.003788852
116	0xbd768782	-0.060187824
117	0x3f1d276c	0.6138828
118	0x3f14474c	0.5792129
119	0xbd93a553	-0.072092675
120	0x3f077194	0.5290768
121	0x3e6fecfa	0.23430243
122	0x3e8dc276	0.27687424
123	0x3d64a1ae	0.055818252
124	0xbc455602	-0.012044432
125	0xbb937ad0	-0.0045007244
126	0xbd01cf52	-0.031691857
127	0x3e655a8e	0.22397825
128	0x3ecfae0d	0.40562478
129	0x3f1c2b49	0.6100355
130	0x3d31aa31	0.043375198
131	0x3e4765b7	0.19472395
132	0x3ce170b1	0.027519556
133	0x3ab04359	0.0013447806
134	0xbd3467d8	-0.044044346
135	0xbda9d85c	-0.082932204
136	0xbb74d20d	-0.0037356645
137	0xbdb290a7	-0.087189965
138	0x3dfdb596	0.123881504
139	0x3c9bb53e	0.019007321
140	0x3d5793b6	0.052631103
141	0x3e84a767	0.25908968
142	0x3f2d01d4	0.67580914
143	0x3f753acb	0.95792836
144	0x3dd87151	0.105684884
145	0x3ed6a78f	0.41924712
146	0x3eef81a8	0.46778607
147	0xbbcbb974	-0.006217176
148	0xbce3c53e	-0.027804013
149	0x3d6c2d5a	0.057660438
150	0x3ef61d0b	0.48069033
151	0xbd9bb8ae	-0.07603584
152	0x3ee6554d	0.44986954
153	0x3f27a47d	0.65485364
154	0x3c960492	0.018312726
155	0x3d9c01f9	0.07617564
156	0x3d81bb91	0.063346036
157	0xbe02f418	-0.12788427
158	0xbc5b901f	-0.01340106
159	0x3e1f4a9b	0.15555803
160	0x3d7768fb	0.06040285
161	0x3cb94dd8	0.022620127
162	0x3e03b7a4	0.12863022
163	0x3bdcc09b	0.0067368275
164	0xbd0d1df9	-0.034452412
165	0x3efc02c5	0.49220863
166	0x3e9c31fb	0.30506882
167	0xbd2469e8	-0.040140063
168	0xbe14c362	-0.14527658
169	0x3ebdec25	0.37094226
170	0x3e9086d7	0.28227875
171	0xbd0982d4	-0.033572033
172	0x3d52befb	0.051451664
173	0x3cde167a	0.027110327
174	0x3e65a717	0.22427021
175	0x3e795528	0.24348891
176	0xbbfdd6dc	-0.0077465605
177	0x3f119afa	0.568771
178	0xbd550b0a	-0.05201248
179	0x3d422b3a	0.047404505
180	0x3f2fbcf9	0.68647724
181	0xbdc9ba55	-0.09849993
182	0x3f833140	1.0249405
183	0x3ebc6238	0.36793685
184	0x3f01c7e1	0.50695616
185	0x3f23d532	0.63997185
186	0x3db02e3f	0.08602571
187	0xbd2c7feb	-0.04211418
188	0x3d91a620	0.07111764
189	0x3e675a61	0.2259307
190	0x3c002385	0.0078209685
191	0x3ece24dd	0.402625
192	0x3f98f4dc	1.1949725
193	0x3d798766	0.06092014
194	0xbda5191c	-0.0806143
195	0x3ec1deff	0.37865445
196	0x3d45f2e8	0.048327357
197	0x3d8a2345	0.067450084
198	0xbc07b3a1	-0.008282573
199	0xbda59dda	-0.080867484
200	0x3dc17150	0.09445441
201	0x3f273195	0.6531003
202	0x3e08f159	0.13373317
203	0x3f55d75e	0.8353175
204	0x3ed6443a	0.41848928
205	0x3cb5bfba	0.022186149
206	0x3f05fe51	0.5234118
207	0xbd6f1c80	-0.05837679
208	0xbd012fdf	-0.031539794
209	0x3e1d6f10	0.15374398
210	0x3f1e0986	0.6173328
211	0x3f2e41a2	0.680689
212	0x3b892bff	0.004186153
213	0x3a8403b6	0.0010071907
214	0x3d8d85fb	0.0691032
215	0xbcd601d3	-0.026123917
216	0xbe17a3a9	-0.14808525
217	0xbda7b7ab	-0.08189329
218	0xbd632f51	-0.055465046
219	0x3d41232d	0.047152687
220	0x3a1de873	0.00060237123
221	0x3d6a0ee7	0.05714312
222	0x3d869f1d	0.06573317
223	0x3dcb3869	0.09922869
224	0xbd30f559	-0.04320273
225	0x3dd382f4	0.10327712
226	0xbd5e4ad9	-0.0542706
227	0xbd98989b	-0.07450982
228	0x3f900d29	1.1254016
229	0x3d80f1a1	0.06296087
230	0x3c023eff	0.00794959
231	0xbe964d07	-0.29355642
232	0x3ce8359d	0.028345877
233	0x3f383574	0.71956563
234	0xbdb26158	-0.08709973
235	0x3e41da1e	0.18930861
236	0x3c62a3da	0.013833011
237	0xbdd63cb7	-0.10460799
238	0xbd0156e4	-0.031577006
239	0x3f2d86eb	0.67783993
240	0x3f27d87c	0.65564704
241	0x3c349db5	0.011023928
242	0xbcb0ef3c	-0.02159845
243	0x3d88cb7d	0.06679437
244	0x3f34ebb1	0.70672137
245	0x3cbbe345	0.022935519
246	0x3a651d7f	0.0008740052
247	0x3dc26526	0.09491949
248	0x3f69b13e	0.91286075
249	0x3e15e0da	0.14636555
250	0x3cf4cc2b	0.029882511
251	0x3e93cf14	0.28868926
252	0xbd38059e	-0.044927232
253	0x3d3c80ae	0.046021156
254	0x3d833f37	0.06408542
255	0x3f664c62	0.899603

bias f4 [6]
0	0xbe750923	-0.23929267
1	0xbeb81d96	-0.35960072
2	0xbe95da49	-0.292681
3	0xbee40df4	-0.44541895
4	0xbe7f41cc	-0.24927443
5	0xbe27154f	-0.16316722

weight f4 [256, 32]
0	0xc0eb3064	-7.349657
1	0xbd7d022a	-0.061769642
2	0x3f46d96e	0.7767552
3	0x40e00ca8	7.001545
4	0x3db043f2	0.086067095
5	0x3f3e27f9	0.74279743
6	0xba04c800	-0.0005065203
7	0x4140f92b	12.060832
8	0xbfac5e50	-1.3466282
9	0xbfb3eb09	-1.4056102
10	0x3fbf2bf8	1.4935293
11	0xbed772b0	-0.42079687
12	0xbf40dfba	-0.7534138
13	0xbd5d3ba4	-0.054011956
14	0xc044849b	-3.0705936
15	0xbfaa9a0c	-1.3328261
16	0xc075cd86	-3.8406692
17	0x3e801bfa	0.25021344
18	0xbee2573d	-0.44207183
19	0x3f3ce683	0.7378923
20	0x4007e9f0	2.1236534
21	0xbe1eb314	-0.15498
22	0x3d855480	0.06510258
23	0x3d0aa010	0.033844054
24	0x3d27d4a0	0.04097426
25	0xbc873390	-0.01650408
26	0xbcc42a8d	-0.023946071
27	0x3e429829	0.19003357
28	0x3c42cd6b	0.011889796
29	0xbe0d3a48	-0.13791764
30	0xbd488875	-0.04895826
31	0xbd298eff	-0.041396137
32	0x3f8931f9	1.0718375
33	0x3d8a0e12	0.06740965
34	0xbf9c783b	-1.2224191
35	0x3fd1a243	1.6377643
36	0xbe084784	-0.13308531
37	0x3f947b55	1.1600138
38	0x3e0c0e9b	0.13677447
39	0x3e44fb29	0.19236435
40	0xbed38634	-0.41313326
41	0x3c16ed3c	0.0092118345
42	0x3ea4dde0	0.32200527
43	0x3fc679a6	1.5505874
44	0x3eee847b	0.4658545
45	0x3df56ea6	0.11983995
46	0xbe583e9f	-0.21117638
47	0x3f222e7a	0.6335217
48	0x400290b5	2.0400822
49	0x3e1a772b	0.15084521
50	0xbf76b054	-0.96362805
51	0xbe93645e	-0.28787512
52	0x3f02548e	0.5091027
53	0x3dc478ee	0.09593378
54	0x3e3215ef	0.1739118
55	0x3e5376c2	0.20650771
56	0xbdd95918	-0.106126964
57	0xbe2c036f	-0.16798185
58	0xbec65d5d	-0.38743106
59	0x3e96af37	0.29430553
60	0xbe55d19a	-0.20880738
61	0x40334260	2.8009262
62	0xc0147d3f	-2.3201444
63	0x3f0ce6ba	0.5503956
64	0xc0afc1f1	-5.4924245
65	0xbd34fa3c	-0.044183955
66	0x3f249697	0.6429228
67	0x40cdeed4	6.435404
68	0x3da2097a	0.07911964
69	0x3f2f7320	0.6853504
70	0xbe0fe1c6	-0.1405097
71	0x40befd36	5.9684095
72	0x3f3db5ad	0.7410534
73	0xbfd17682	-1.6364291
74	0x404389de	3.0552897
75	0xbd446029	-0.047943268
76	0x3e82efc0	0.2557354
77	0xbeb12c69	-0.34604195
78	0xbe5c31db	-0.21503393
79	0xbf018a2c	-0.5060146
80	0xbfdcfca1	-1.7264596
81	0xbd9d76b2	-0.07688655
82	0xbf58bf1e	-0.8466662
83	0xbd2c0d92	-0.04200513
84	0x3fb32b6c	1.3997626
85	0x3e0b52e9	0.13605846
86	0x3d56409c	0.05230771
87	0xbdc87a44	-0.09788945
88	0xbcec7358	-0.028863594
89	0xbe1b9134	-0.1519211
90	0x3f08d64d	0.53452
91	0xbefcb6dd	-0.49358264
92	0xbe16b0ae	-0.14715835
93	0x3ea80f5a	0.32824212
94	0xbe19c4e6	-0.15016517
95	0x3c4707b9	0.012147837
96	0x403fb46b	2.9953868
97	0x3d0a141c	0.033710584
98	0xbe2b565d	-0.16732164
99	0xc05235c2	-3.284531
100	0xbd07761c	-0.033071622
101	0x3f9f843c	1.246223
102	0xbe0dd74f	-0.13851665
103	0xc0b81840	-5.75296
104	0xbf68d091	-0.9094325
105	0xbf5c404c	-0.8603561
106	0xbf3756ee	-0.7161702
107	0x3f342f6e	0.7038487
108	0xbf104708	-0.56358385
109	0xc04b195b	-3.1734226
110	0xbdafb200	-0.08578873
111	0x3f9a1dd8	1.2040358
112	0x3f4253b2	0.7590896
113	0x3f7e4f70	0.9933996
114	0x3a640037	0.0008697542
115	0x3f7351c6	0.9504665
116	0xbe14a894	-0.14517432
117	0xbd2f87cc	-0.042854115
118	0x3e2fad77	0.17156015
119	0xbf03e851	-0.5152636
120	0x3e182be3	0.14860491
121	0x3d14da24	0.036340848
122	0x3f4c2769	0.79747635
123	0x3eb0bc43	0.34518632
124	0x3f72c654	0.94833875
125	0xbf63530e	-0.88798606
126	0x3f6c7140	0.92360306
127	0x3ef9e5fc	0.48808277
128	0xc0b576d8	-5.6707573
129	0x3e2d4c79	0.16923703
130	0x3e1e6836	0.15469441
131	0x3face4bf	1.3507308
132	0x3b671d00	0.0035265088
133	0xbecba6e4	-0.39775765
134	0x3dd5a64a	0.10432108
135	0x4108e323	8.555453
136	0x3e4e795a	0.2016348
137	0xbe8aeab6	-0.27132195
138	0x3f2d6b9d	0.6774233
139	0x3d44efda	0.048080303
140	0xbe8abc75	-0.27096906
141	0x3e70a5c0	0.23500729
142	0xc05128c3	-3.268113
143	0xc0107147	-2.256914
144	0xc015054a	-2.3284478
145	0xbf6350e0	-0.8879528
146	0xbe6a8124	-0.22900826
147	0xbe66e698	-0.22548902
148	0x3f142271	0.57865053
149	0x3d6814dc	0.056660518
150	0x3e0476b9	0.12935914
151	0x3fbcc30c	1.4747024
152	0xbcf6eb48	-0.030141488
153	0xbd432f84	-0.047652736
154	0xbde277bf	-0.11057996
155	0xbed04bfa	-0.40682966
156	0x3e83b759	0.2572582
157	0x3e1e82ad	0.15479536
158	0xbd74fbb4	-0.059810355
159	0xbd8529e7	-0.06502133
160	0xc08c9fc3	-4.394502
161	0x3e011b3f	0.1260805
162	0x3f08a9cf	0.5338411
163	0xbf79c12c	-0.9756038
164	0x3e0e50ad	0.13897963
165	0xbf82acb6	-1.0208957
166	0xbd99d762	-0.07511784
167	0x3f6a1753	0.9144184
168	0x3e858950	0.26081324
169	0xbf372c6b	-0.7155215
170	0x3d450ea9	0.048109684
171	0xbe86d9b4	-0.2633797
172	0xbdc30101	-0.09521676
173	0x3c86cc87	0.016454948
174	0xbfe8cd9d	-1.8187748
175	0xbea6192d	-0.32441083
176	0xbf371257	-0.7151236
177	0xbfa876c8	-1.3161249
178	0xc059fd6f	-3.4060934
179	0xc0168e38	-2.3524303
180	0x3e694fef	0.22784398
181	0x3d61fafc	0.055170998
182	0x3c2af7a0	0.010435015
183	0xbe82fa8c	-0.25581777
184	0x3e26343b	0.16230862
185	0x3d7b9aa0	0.06142676
186	0x3ea4842f	0.32132098
187	0x3ca97e7b	0.020690193
188	0xbd81e834	-0.06343117
189	0x3e0ae94f	0.13565563
190	0x3eea8ebf	0.45812032
191	0xbf9f4709	-1.2443553
192	0x40504b70	3.2546043
193	0x3e19a375	0.1500376
194	0xbd96df42	-0.07366802
195	0xbebc95ec	-0.3683313
196	0xbca34eb8	-0.019934997
197	0x3fe542d7	1.7911023
198	0x3d06742c	0.032825634
199	0x4028d9a7	2.6382844
200	0xbe28f9ed	-0.16501589
201	0xbecfbccd	-0.4057373
202	0x3fc9f829	1.5778857
203	0x3fea9a66	1.8328369
204	0xbea0b69f	-0.3138933
205	0xbfbd6322	-1.4795878
206	0x3e240fa7	0.16021596
207	0x3f4f87ec	0.81066775
208	0x3f3abc06	0.7294315
209	0x3f2cf85f	0.67566484
210	0x3fef691c	1.8703952
211	0x3e2459f3	0.16049938
212	0x3ec79f52	0.3898874
213	0xbd09d200	-0.033647537
214	0x3e1b0869	0.15139927
215	0xbf3c4cba	-0.73554575
216	0xbe18c5ce	-0.14919207
217	0x3e217415	0.15766938
218	0xbd6cefbc	-0.057845816
219	0x3f34e4f4	0.70661855
220	0xbf032990	-0.51235294
221	0xbfa2d532	-1.2721312
222	0xbf400cca	-0.75019515
223	0xbfb9dcad	-1.452047
224	0xbfe96e90	-1.8236866
225	0x3e0d3f8d	0.13793774
226	0xbe0d3a91	-0.13791873
227	0xbf9bf9f2	-1.2185652
228	0x3db4224e	0.087956056
229	0x40c0a08a	6.019597
230	0x3da2992a	0.0793937
231	0x3e22c5af	0.15895723
232	0xbecbd6b6	-0.3981225
233	0x3fc02628	1.5011644
234	0xbf69b817	-0.91296524
235	0xbfe2e07e	-1.772476
236	0x3f1d0d6e	0.6134862
237	0x3f0e5597	0.5559935
238	0xbf5fe595	-0.8745969
239	0xc003b6dd	-2.058036
240	0xbf5d15f6	-0.86361635
241	0xbee4b98d	-0.44672814
242	0x3ea4f10a	0.32215148
243	0x3ee09fe1	0.43871978
244	0x3e658ebd	0.22417732
245	0x3e116aff	0.14200972
246	0xbde0953a	-0.10965963
247	0x3f49d19c	0.78835464
248	0x3dcb8c9a	0.09938927
249	0xbd51193c	-0.051049456
250	0xc0079d6f	-2.118984
251	0x3edd8b98	0.43270564
252	0x3f6e9393	0.9319393
253	0xbfcc605f	-1.596691
254	0x3d920a3d	0.07130859
255	0x3fc51dd4	1.5399728
