data/AntPyBulletEnv-v0_sac_grad_True/AntPyBulletEnv-v0_sac_grad_True_s1/pyt_save/model.pt (torch_old, 920366 bytes, 18 tensors)

weight f4 [256, 28]
000000 e2 87 03 3e bc ef 79 bd 08 64 86 bd 88 bc ad 3e
       0.12844804 -0.061019644 -0.06562048 0.339329
000010 b2 7e 80 be 0c dc 89 3d 15 22 00 3b f1 37 3d 3e
       -0.2509666 0.06731424 0.0019551564 0.18478371
000020 94 b9 10 3d af 67 ef bd b7 0c b1 3d 53 00 11 be
       0.03533323 -0.11689698 0.08645003 -0.1416028
000030 c7 3b 49 3e ff 2b 4d be 12 4d 64 bd a6 29 92 3e
       0.1965171 -0.20036314 -0.055737562 0.285474
000040 f0 ed 63 3d 3b a7 13 be e6 7e 01 3e 98 c0 2e 3c
       0.055646837 -0.14419262 0.12646064 0.010666035
000050 3d a4 b8 bd 7b ef 87 be 7e 3c 1e bb 04 48 58 3d
       -0.09015701 -0.26549897 -0.0024144943 0.052803054
000060 82 8e e1 bd 56 40 55 bc 8e 0a b0 3d 84 45 9a 3d
       -0.11013509 -0.013015827 0.08595763 0.0753279
000070 d3 21 02 be ba 33 3f 3e 2f da 38 bc 23 18 ad 3e
       -0.12708215 0.18672076 -0.011282488 0.33807477
000080 8c 4a 3f bd 67 a4 c3 3c d5 fb 24 be 5b 0d 7f bd
       -0.046701953 0.023882104 -0.16111691 -0.062268596
000090 a2 75 23 3e a1 c0 ab 3d 5b 02 10 3e c4 0a 1f be
       0.15962842 0.083863504 0.14063399 -0.1553145
0000a0 03 dc 85 3e a1 71 c1 bb 2e 2c a0 3d 50 8c 1e 3d
       0.26144418 -0.005903438 0.078209266 0.03870803
0000b0 f8 74 03 be 08 60 53 3e c3 93 2b be 35 03 7c bd
       -0.12837589 0.20642102 -0.16755585 -0.061526496
0000c0 8d db 9c bc 0f 97 da 3d d8 bd f1 bd f2 1a 95 bd
       -0.019147659 0.106733434 -0.11803788 -0.0728053
0000d0 6d 16 29 3d 8a 47 db bd 6b 7b fd 3d d1 4c e0 3d
       0.041281153 -0.10707004 0.12377056 0.109521516
0000e0 d5 be 71 3d 6a 6f a1 bd b2 cb 50 3d 20 1a 52 be
       0.059019882 -0.07882579 0.05097551 -0.20517778
0000f0 14 48 de bd 99 01 76 3e ef b1 c7 3d 90 5a 6a 3d
       -0.108535916 0.24024047 0.09750735 0.057215273
000100 72 4c 5c bd c9 6b 45 be 2d 33 79 3d 96 93 82 3c
       -0.05378384 -0.19279398 0.06083982 0.015939515
000110 89 2f 20 be c0 66 8f be fc 9f 6d 3d d3 ef 13 bd
       -0.15643133 -0.2800808 0.0580139 -0.036117386
000120 c3 47 5e 3d 2c c9 01 be 41 ac a8 3c e8 6d 14 3e
       0.054267656 -0.12674397 0.02058995 0.14495051
000130 41 39 b8 3d 2e 63 25 bc ca 22 f4 bd 68 59 0b 3d
       0.08995295 -0.010094447 -0.11920698 0.03402081
000140 04 8b 39 be 70 95 25 be a4 06 28 bd 90 fd a3 bd
       -0.18119437 -0.16170287 -0.041021958 -0.080073476
000150 08 05 20 3e 97 99 bc bd 06 43 5b be 76 7d 00 3e
       0.1562692 -0.092089824 -0.21412286 0.1254786
000160 3d d3 2a bd f6 6a e6 3d 2e c6 9e 3d b4 3c 34 be
       -0.04170536 0.1125087 0.077526435 -0.17601281
000170 e1 71 1a 3d 1a 96 60 3d 1d d6 a5 bd 10 97 9b bd
       0.03770626 0.054830648 -0.080974795 -0.07597172
000180 d9 19 a8 3d a3 cf 2e 3d 30 da fd bd 35 eb 64 bd
       0.08208055 0.042678487 -0.123951316 -0.055888373
000190 53 48 eb 3d 9e eb b9 bc 4b c9 99 3d db 12 d4 3d
       0.11488404 -0.022695359 0.07509097 0.10355159
0001a0 c5 eb b3 bd 25 72 21 be 40 de 62 3e c7 18 0c 3d
       -0.08785204 -0.15766199 0.22155094 0.034203317
0001b0 3f c8 b6 3d 45 6f e3 bb 9c 11 84 3c 6d 9c bd 3d
       0.08924913 -0.0069407546 0.016121678 0.092583515
0001c0 15 7f 37 3e 2c 6a 00 be 08 90 c1 3c 01 6a 10 3e
       0.17919572 -0.12540501 0.02362825 0.14102937
0001d0 eb 30 0c 3e 02 71 f0 3d 70 0d 0c be 5e 5a 0b be
       0.13690536 0.117403045 -0.13677001 -0.13608691
0001e0 72 11 ea bd 98 7d c2 3c 55 df 40 3e 20 7b f4 bd
       -0.11429109 0.023741528 0.18835194 -0.11937547
0001f0 6e 3e ce 3d 39 38 d6 bd d0 f2 35 be 58 85 24 bd
       0.10070501 -0.10459942 -0.17768407 -0.04016623
000200 aa ff de 3d 35 a8 33 3e 38 5d f0 bd 6c fb 27 3d
       0.10888608 0.17544635 -0.1173653 0.04101126
000210 93 fa 26 3e 3b 3c 00 3e a2 35 f1 3d 23 85 09 3e
       0.16306524 0.12522976 0.11777808 0.13429694
000220 6e ce f4 3d 94 f0 47 3d d5 54 04 be 1b 82 22 be
       0.11953436 0.048813418 -0.12922986 -0.15869944
000230 30 03 33 bd 5b cf 04 3e 35 1f c5 bd 0e 5d 82 3c
       -0.04370421 0.12969725 -0.09625093 0.015913513
000240 e3 c0 66 3e 5c 42 92 bd a8 93 ed 3c 60 86 c3 3d
       0.22534518 -0.07141563 0.029001072 0.09547114
000250 94 83 94 3e 90 69 0c 3e 77 b6 d7 bd eb c4 2f 3e
       0.29006636 0.13712144 -0.10532849 0.17164962
000260 a0 4c 06 3e 57 0f 79 bb c7 4c 20 be f1 78 31 be
       0.13115168 -0.0038003528 -0.15654288 -0.17331292
000270 26 f1 25 3d fa 57 0b 3c 03 b5 2c 3e 96 1d 02 be
       0.04051318 0.008504862 0.16865925 -0.12706599
000280 bb 69 d6 bd e1 53 0c 3d 64 e1 0b 3d 1d e9 5f 3e
       -0.10469385 0.03425968 0.034150496 0.2186627
000290 3d 8e 15 be 41 3e 27 bd 91 9e 03 be 44 ea 14 be
       -0.14605041 -0.040830854 -0.12853457 -0.1454249
0002a0 84 57 18 be a6 7c 04 be 96 26 f8 bc 52 53 90 3e
       -0.14877135 -0.12938175 -0.030291837 0.28188568
0002b0 f5 27 db 3d d1 32 5f bd ff f1 36 3d 6c b4 0d 3e
       0.107009806 -0.05449182 0.04466438 0.13838357
0002c0 2a 1d 6e 3e f4 27 0b 3d b2 0c 18 be d7 91 ec 3b
       0.23253313 0.03397365 -0.14848593 0.007219534
0002d0 69 2b a1 bd fc dc 35 bc 16 88 fb bd 37 a3 26 be
       -0.07869608 -0.01110005 -0.12281816 -0.16273199
0002e0 08 7a 19 3d 85 32 25 3e 50 b0 6a be 89 e0 3c be
       0.037469894 0.16132553 -0.2291882 -0.18445028
0002f0 a2 63 b3 bd f1 0e 68 be 6b 8d 10 3e da ac 81 bd
       -0.08759238 -0.2266195 0.14116447 -0.06331797
000300 dc 83 5b bd 23 97 90 3c c2 d3 1a 3e f7 a2 52 be
       -0.053592548 0.017650193 0.15119842 -0.20569979
000310 ff d6 0c 3e 1f a5 b7 3d c4 bb fb 3d 45 9f 1f be
       0.1375389 0.08967041 0.12291673 -0.155881
000320 ef 31 27 3d b9 81 dd bd 8e e4 b8 3d 65 ff 49 bd
       0.040819105 -0.10815758 0.09027968 -0.04931583
000330 87 61 9c 3d 21 9b 67 3d 24 7e 46 3d 79 b0 c2 3b
       0.07635789 0.056544427 0.04846014 0.0059414473
000340 8a 57 bd 3d 50 7b 04 3e 09 26 fd bc df fd ad 3d
       0.092452124 0.12937665 -0.030901926 0.08495688
000350 27 6d 0a be 56 a4 68 3e 76 56 ae 3d 07 c6 3b 3e
       -0.13518201 0.22718939 0.08512585 0.1833726
000360 0a 41 ba 3d d3 06 92 bd 05 5f 19 3b f4 f0 f6 3d
       0.090944365 -0.07130208 0.0023402583 0.12057677
000370 27 94 5f be 79 fb 04 3e bb 9a 6a be d0 7a 46 be
       -0.2183386 0.12986554 -0.22910587 -0.19382787
000380 b1 e3 17 3e 36 2c 3a be cc b4 c7 bd 22 4c 1d 3e
       0.14832951 -0.18180928 -0.09751281 0.15361074
000390 e1 d7 95 3e 6a 0c 2e 3e 5d 47 ad bd 04 ed 5f be
       0.29266265 0.16996923 -0.08460877 -0.21867758
0003a0 f0 13 3b 3e 1c 20 70 bc 75 3e 47 bc 27 7d 4a 3e
       0.18269324 -0.014656093 -0.012160887 0.19774304
0003b0 7f 5f 0d be 7c 8d 2f 3e 6c a3 6d 3d b9 e9 18 be
       -0.1380596 0.17143816 0.05801718 -0.14932908
0003c0 a9 ed 98 bd 4e 9a 05 3c d5 f7 8d 3c 33 ec 54 3e
       -0.07467205 0.008154465 0.01733009 0.20793228
0003d0 d6 11 20 be 75 94 2e bd f8 63 e4 bd 51 10 9f bd
       -0.15631804 -0.04262205 -0.1115188 -0.07766784
0003e0 8a b9 1e be 07 d2 cd 3d e8 66 12 3e 10 3c e4 bd
       -0.15500465 0.10049825 0.14297068 -0.111442685
0003f0 00 2b 5e 3d 9c 09 ba 3d d5 45 a2 bc 34 ed 48 be
       0.054240227 0.09083864 -0.01980869 -0.19621736

bias f4 [256]
000000 9f b0 c9 bc 94 33 fc 3c a4 c3 31 3c 86 40 80 bd
       -0.024620352 0.030786313 0.010849867 -0.06262307
000010 8e 42 99 bd 8f 3b 96 bd 52 2f ec 3d 3d f3 ea 3c
       -0.074833974 -0.07335579 0.11532463 0.028680438
000020 08 53 82 3d a3 3d 63 3c 26 47 ac bd 33 e7 7d 3d
       0.06363493 0.013869676 -0.08412008 0.061988067
000030 48 bc 94 bd 5e 76 b0 bd 9e 62 13 3e 1d 02 22 bd
       -0.07262474 -0.08616327 0.14393088 -0.039552797
000040 48 54 3c bd 5a ca 75 3d 05 ff eb bd 52 59 06 3d
       -0.045978814 0.06000743 -0.115232505 0.032800026
000050 f5 86 cd bd 93 9c c7 3c 09 de 9c 3d f9 37 a0 bc
       -0.10035507 0.024366653 0.07659537 -0.01955794
000060 1a ba 36 be 9f 35 84 bd ff f7 3d be fa 71 0d 3d
       -0.1784443 -0.0645554 -0.18551634 0.034532525
000070 9e 76 ba 3d 8a cc 8b 3c 20 eb 6b be 28 33 e8 bd
       0.09104656 0.017065305 -0.23038912 -0.11337882
000080 5e 94 bb bc c2 02 51 3d 20 73 89 bd 85 8b a9 3d
       -0.022897895 0.05102802 -0.067114115 0.08278564
000090 da 91 9e bd 59 a0 1b bd c9 71 f9 bd f7 eb e1 3d
       -0.07742663 -0.037994716 -0.12179906 0.11031335
0000a0 f8 0b 04 be 56 f9 b4 bb d3 3f c8 3d 48 6f 2b be
       -0.1289519 -0.005522887 0.097777985 -0.16741669
0000b0 bb 80 8e 3d 94 7e 4f be f8 bf c4 3d e0 d4 0d be
       0.06958147 -0.2026313 0.09606928 -0.13850737
0000c0 93 6c fa 3d 4b ab f7 3d 0b ad 2e be cc 81 55 be
       0.1222774 0.120932184 -0.17058198 -0.20850295
0000d0 c3 64 13 3d 17 93 ce bd b3 a5 a6 3c 87 74 98 bd
       0.035984766 -0.10086649 0.020342683 -0.07444101
0000e0 1c a8 20 3d c6 6f 34 bc 1d 3f 02 be b5 6f 2e 3c
       0.03922282 -0.011012977 -0.12719388 0.01064675
0000f0 ca bb f1 3d da 13 90 bb 44 5d 30 be 51 20 56 be
       0.11803396 -0.0043968977 -0.17223078 -0.20910765
000100 d1 ff 65 bc a5 18 16 3e 36 bb 84 3d bc b6 5a be
       -0.014038042 0.14657839 0.0648102 -0.2135877
000110 c9 39 87 bc 99 25 35 be 71 a9 b2 3a d0 f7 03 3e
       -0.016507046 -0.17690124 0.001363082 0.12887502
000120 bd 5b e6 bd 10 07 0d bc 44 73 08 bc d4 95 05 3d
       -0.112479664 -0.008607641 -0.008328263 0.03261359
000130 8c 83 48 bd 11 1c dc bd 69 3d 8a 3d dd 14 09 be
       -0.048953578 -0.10747541 0.06749994 -0.13386865
000140 74 bd 18 be 16 3e 8e bd b3 ba 64 3d 67 d5 a1 bd
       -0.1491602 -0.06945436 0.055842113 -0.079020314
000150 e5 bb 1d 3e 72 ed 5f bd a4 4c 0b 3d 04 6d fc 3d
       0.15403707 -0.054669805 0.034008637 0.123254806
000160 9e 18 31 be 3a 7a de 3d 4c 60 c9 bd 3f b9 07 3e
       -0.17294547 0.108631566 -0.0983282 0.1325426
000170 39 e3 36 3d 32 88 d0 bd 42 25 f3 bd ba df 42 3b
       0.04465029 -0.10182227 -0.11872341 0.0029735402
000180 f1 a4 f0 3d ea f1 a2 3d c4 48 9b 3d 7d b6 cb 3d
       0.1175021 0.07956298 0.07582238 0.09946916
000190 4d 94 43 be 4f a2 39 3e ab 2b 14 3d 6c e5 04 be
       -0.19099541 0.18128322 0.036174458 -0.12978142
0001a0 de d9 4c be b6 1e 1b 3e a4 eb 94 bd 21 ed 2a bb
       -0.20004985 0.15148434 -0.072715074 -0.0026081281
0001b0 e8 b7 f5 bd 94 e1 80 be 16 f7 e7 3d 3c 2d 18 be
       -0.11997968 -0.25172102 0.11326425 -0.14861006
0001c0 e7 96 9e bc 72 de 0b 3e c9 84 15 3e 7d e0 60 3c
       -0.019359065 0.13659075 0.14601435 0.013725397
0001d0 66 05 c6 bd 58 98 35 be 07 87 b5 bd 59 b8 a1 bc
       -0.096689984 -0.17733896 -0.08863645 -0.019741224
0001e0 11 4d 4f 3e 3c 86 d8 bd eb 4e 56 be 81 62 8b bc
       0.20244242 -0.10572478 -0.20928542 -0.017014744
0001f0 c0 58 2a be 30 ae 93 bc d2 96 f7 bd 2e 69 29 3e
       -0.16635418 -0.018027395 -0.120893136 0.16544029
000200 cc 14 79 bd 16 a7 b7 bd 89 88 15 3e b2 c3 a4 3d
       -0.06081085 -0.08967416 0.14602865 0.080451384
000210 36 f0 0e bd 40 12 52 be 5d 84 83 3d d6 9d 11 3e
       -0.03489705 -0.20514774 0.06421731 0.14220366
000220 ab ab be 3d 40 cd 0e be 94 fe 43 be 58 59 8a bd
       0.09310087 -0.13945484 -0.19140083 -0.06755322
000230 51 7c 3b be ba be 93 3d 19 7b 19 be 20 67 09 3c
       -0.18309142 0.072141126 -0.14988364 0.008386403
000240 d2 40 42 3e bc e0 19 bd 80 d2 32 be 41 55 bd bc
       0.1897004 -0.03756784 -0.17463112 -0.023111941
000250 70 a7 1e 3e 03 d0 ca bb 51 0b 8a 3a 7e 60 0a 3e
       0.1549356 -0.0061893477 0.0010531937 0.13513371
000260 51 03 1d be a1 a4 e6 bd 44 7f 33 bc 14 59 0b 3e
       -0.15333296 -0.11261869 -0.010955635 0.136082
000270 eb 53 54 bd f6 c3 17 be 47 55 37 be a3 4b 62 be
       -0.051837843 -0.14820847 -0.17903624 -0.22099166
000280 18 61 2a 3d e0 59 80 bd fc 93 0e bd ab a3 4d 3c
       0.041596502 -0.06267142 -0.034809098 0.0125512285
000290 c3 b3 96 bc 9a dc 3c be ae df ae 3d 14 4d 7c bd
       -0.018396264 -0.18443528 0.08538757 -0.061596945
0002a0 d2 63 e7 bd 8e e9 ff bd a6 cf 36 be 31 11 ef bc
       -0.11298336 -0.12495719 -0.17852649 -0.029183002
0002b0 3c b9 30 bc 6a 4b 3c be 1d 6a a8 bd 76 d3 2a be
       -0.010786351 -0.18388143 -0.082233645 -0.16682228
0002c0 67 e4 27 be 16 3c d7 bd c3 40 de 3d d6 fa 16 3d
       -0.16395722 -0.10509507 0.10852196 0.03686031
0002d0 f6 df ae 3d 7c e6 0b be d7 e5 ee bd a8 2e 3e be
       0.08538811 -0.13662142 -0.11664932 -0.18572485
0002e0 e7 57 8b 3d 9c 50 65 be a2 b2 4e be 2e 30 5a bd
       0.068038754 -0.22394031 -0.2018533 -0.053268604
0002f0 f1 fc fa 3b 7a a8 e0 3b 24 85 57 bd 2c 9f 8e bc
       0.0076595475 0.0068560215 -0.052617207 -0.017409883
000300 6f 04 6a 3c bc 27 43 3d fe b8 b1 bd 08 81 a2 3d
       0.014283284 0.047645316 -0.086778626 0.07934767
000310 34 19 93 3c c3 e4 6e 3d ab b0 15 3c 5f 43 0e be
       0.017956354 0.058323633 0.009136359 -0.13892888
000320 08 2b e5 bd b5 80 21 be 6c 7e f2 bc e9 3d a7 bc
       -0.11189848 -0.15771754 -0.029601298 -0.020415263
000330 6b d6 46 bd fc c6 e2 3d 89 81 01 3e 6b c4 86 bc
       -0.04854433 0.110731095 0.1264707 -0.016451081
000340 68 ab 01 bc 91 90 0f be 4b c0 ca 3d a3 f3 89 bd
       -0.007914402 -0.14019991 0.09899958 -0.06735923
000350 fa 8d 4a be 4e 7c 95 3d 08 ac aa 3d 35 d2 9f 3d
       -0.19780722 0.072991 0.083335936 0.07803766
000360 7f 7d 27 bd e5 41 1d be 88 52 07 3e 43 77 1e 3e
       -0.040891167 -0.15357168 0.13215077 0.15475182
000370 7b 28 8a 3d f8 27 48 3d eb 2b 12 be 41 ac 04 3d
       0.06746002 0.048866242 -0.14274566 0.032390837
000380 b3 55 c2 bd dc 91 cb bd 0f a7 39 3d 1f 6a d8 3d
       -0.09489002 -0.0993993 0.045325335 0.10567116
000390 ea a4 a5 3d 24 dd 4f bc e0 e6 42 bd 60 12 88 3c
       0.080880955 -0.012687001 -0.04758346 0.016610324
0003a0 2e 62 2a 3d cd 6f e3 ba 8d d7 30 be 39 e8 f5 3d
       0.041597538 -0.0017352045 -0.17269726 0.120071836
0003b0 2a bc e9 ba b4 07 2b 3d f6 ee 37 bd 80 e2 43 3e
       -0.0017832567 0.041755393 -0.044905625 0.19129372
0003c0 d7 29 11 bd c6 e9 89 3c 9b 80 2f 3d f6 36 89 bd
       -0.035440292 0.016835105 0.042847257 -0.06699936
0003d0 a6 50 4f 3c 8c aa 26 bd 8a d5 d5 bc 33 97 17 bd
       0.012653505 -0.04068999 -0.0261028 -0.03700943
0003e0 d5 64 ff bd 84 c0 d8 bd 25 85 e1 3d 28 4d 6e 3d
       -0.12470404 -0.105835944 0.110117234 0.05817905
0003f0 80 db a1 bc 18 c5 f2 bc d6 a0 1b be f9 93 d7 3d
       -0.019757986 -0.029634997 -0.15198073 0.105262704

weight f4 [256, 256]
000000 f7 16 87 bd 5b e5 76 3c 46 e2 15 3d 05 98 93 bc
       -0.06596177 0.015069331 0.036592744 -0.018016824
000010 04 3b e6 3c 69 fa 80 bd 35 41 a4 bc 79 ac 1e bd
       0.028104313 -0.06297762 -0.020050624 -0.0387387
000020 3f 94 15 3b cf be 90 bd 8b 95 e0 3a 70 23 c8 3c
       0.0022823957 -0.07067644 0.0017134411 0.02443096
000030 4e 64 ce b8 f3 ac c0 bd 0d d0 d8 3c c4 02 7d 3c
       -9.841529e-05 -0.094079874 0.026466394 0.015442554
000040 eb 71 1a bc c3 58 01 bd 06 fc 96 bd 7f 24 a8 bd
       -0.009426574 -0.03157879 -0.073722884 -0.08210086
000050 70 30 32 bd c3 b5 86 bd 8d 17 6e bd 98 fe 05 bd
       -0.043503225 -0.06577637 -0.05812793 -0.032713503
000060 ca 5d 1c 3d e8 7d 82 bd c1 14 28 3d 7a 90 47 3d
       0.03817538 -0.06371671 0.041035417 0.048721768
000070 c8 21 15 3c e1 19 12 3b fc 99 aa 3c 1e 78 90 bd
       0.009102292 0.0022293257 0.020825379 -0.070541605
000080 64 e2 86 bd 84 19 86 bd cc aa 2b 3d e4 e9 4f bd
       -0.06586149 -0.065478355 0.04191093 -0.050760165
000090 4a 76 8e 3c 59 ac b8 bc 47 ed 41 bd 10 88 9d bc
       0.017390389 -0.02254312 -0.047345426 -0.019229919
0000a0 da 29 1f 3d a4 82 03 3d db 42 ce bb 81 fa fb 3c
       0.038858272 0.03210701 -0.006294591 0.030759098
0000b0 b0 bf 51 bd 6b 14 eb bc 36 f8 43 bd 23 0a e4 3b
       -0.051208198 -0.02869626 -0.047844134 0.006959216
0000c0 3a 68 51 bd 18 f1 25 bc a2 0a e8 3c d8 90 2c 3c
       -0.05112479 -0.010128282 0.028325383 0.01053258
0000d0 f5 fe 4d bd 48 63 0d 3d 5a 9c 83 bd d0 85 d6 3c
       -0.050291974 0.03451851 -0.06426306 0.026186854
0000e0 80 be 07 3b b3 45 85 bd 47 0a 0d 3c a5 4c d4 bc
       0.0020712912 -0.06507435 0.008608407 -0.025915453
0000f0 85 63 ae bc 14 54 64 bd 99 92 34 3d 74 05 7f 3c
       -0.021287689 -0.055744246 0.04408512 0.015565265
000100 31 66 92 bd 95 16 9c 3d f3 b4 ff bc 77 8a 8f 3b
       -0.07148398 0.07621495 -0.031214213 0.00438052
000110 44 14 84 bd 90 52 67 bd 57 0a 13 3b 64 ef 17 bd
       -0.06449178 -0.056475222 0.0022436583 -0.037093535
000120 60 01 4f bc 80 f6 c1 ba 70 b0 e2 bb 4d 20 38 3a
       -0.012634605 -0.0014798194 -0.0069180056 0.0007023856
000130 86 90 60 bd e9 1c 73 3c 44 64 04 bd 97 1b 1a bd
       -0.05482533 0.014838436 -0.032322183 -0.037623968
000140 64 85 6c 3d bc 46 6e 3c 31 b8 b0 3c 28 a7 48 bc
       0.0577444 0.014543232 0.021572204 -0.012246884
000150 4e 14 8e bd 1a 8c 2b 3d b8 8a fd 3b 90 72 0b bd
       -0.069374666 0.041881658 0.007737484 -0.034044802
000160 27 71 38 3d f2 ff 8d bd f0 c4 13 3d 89 44 8a bc
       0.045029785 -0.06933583 0.036076486 -0.016878383
000170 88 23 2b 3d d5 d3 da 39 d5 aa 93 bd f0 89 f9 3b
       0.041781932 0.00041738027 -0.07210318 0.0076153204
000180 25 dc 4b 3c 57 29 db bc d0 b0 2d bd 7b 7a d7 bc
       0.012442623 -0.02675311 -0.04240495 -0.02630352
000190 a9 e5 3a 3d 82 b9 5e bd 4d 05 1d 3d b8 10 99 bc
       0.045629177 -0.054376133 0.038335133 -0.01868473
0001a0 50 ce b3 b9 52 90 cd 3b 55 bd 95 bd 16 f7 08 3d
       -0.00034295255 0.006273308 -0.07311503 0.033438765
0001b0 89 a2 aa 3c d8 c8 24 3d 1b 6f ee bc 22 cd 7d bd
       0.020829456 0.040230602 -0.029105714 -0.061963208
0001c0 3e f8 2a 3c 6e c3 05 bd a5 c3 57 3c c3 12 7a 3a
       0.010435162 -0.03265708 0.013169204 0.0009539539
0001d0 00 bd 63 bd 14 1b 1e 3d ce 2a 38 bd 64 1b b8 bc
       -0.055600166 0.038600042 -0.044962697 -0.022473998
0001e0 14 55 9c bc 38 22 09 3c ab 8d 2a bd 00 d9 28 ba
       -0.019083537 0.008369975 -0.04163901 -0.0006441027
0001f0 bc 85 1f bd 56 d6 16 3d d9 3c 6d bc bb c2 5f bd
       -0.0389459 0.0368255 -0.014479839 -0.05462907
000200 92 21 3c bd a7 06 8d bd b4 1d 1f 3d 30 e2 f5 3b
       -0.045930453 -0.068860345 0.038846686 0.0075037703
000210 85 f3 8a bc b8 7a bb 3c d5 1f c6 bc fc 50 dc 3c
       -0.016961822 0.022885665 -0.0241851 0.026894085
000220 0b b0 6b bc 6f 0b 3d bd b0 9a 41 3c 18 9f 87 bd
       -0.014385234 -0.046153482 0.0118166655 -0.066221416
000230 38 37 11 bc 79 ac 92 bd b6 9d 7d bd cb 76 79 3c
       -0.008863263 -0.07161803 -0.061917983 0.015226076
000240 df 1a 71 bc 53 53 d3 3c ae bb 2f 3d bc 11 a6 3c
       -0.014715879 0.025796568 0.042903595 0.020272128
000250 09 9b 3d bc e4 c5 9e bc 46 be 19 bd 88 04 b4 ba
       -0.011572608 -0.019381471 -0.037534975 -0.001373426
000260 fd 18 e2 3c 8c 27 1c 3d a8 19 9a 3c 74 5e 73 3d
       0.027599806 0.038123652 0.018811062 0.05941625
000270 09 5e 50 bd d6 35 20 bc da 55 63 3d 4f 50 f4 bc
       -0.05087093 -0.0097784605 0.055501796 -0.02982345
000280 e4 0a f2 bc 38 1e 27 bd 82 73 0c bd 49 d0 ec 3c
       -0.029546209 -0.040800303 -0.034289844 0.028907912
000290 f8 96 99 bd 18 95 24 bd fc bb ac bc c0 3f 09 bc
       -0.07499498 -0.04018125 -0.021085732 -0.008377016
0002a0 54 2e 4f bc 2e bb 0a 3d 00 ca 70 ba 6f f7 7f 3d
       -0.012645323 0.033869915 -0.0009185374 0.06249183
0002b0 20 00 70 bd 90 8a bb bc 5a d8 62 bd 80 e2 ca 3c
       -0.05859387 -0.02289322 -0.05538211 0.024766207
0002c0 10 f5 cb 3b 30 62 57 bd 3e e8 b8 bd 04 ba d6 3c
       0.006224282 -0.052583873 -0.09028672 0.026211746
0002d0 48 ae 26 3c e4 d2 7c 3b 00 f8 7b bb 35 58 6f bd
       0.010173388 0.003857785 -0.003844738 -0.05843373
0002e0 e3 f4 4d bd 1a 3e 27 bd c0 45 16 bb 51 47 ac 3c
       -0.05028237 -0.04083071 -0.0022929758 0.0210301
0002f0 9a d1 ba 3c af 8d c5 bc 19 07 84 bd 5e 8a ad bc
       0.022805024 -0.024115412 -0.06446666 -0.021184143
000300 20 d2 16 3d 29 ba 5d 3c a5 3d 7e 3c 72 d5 92 bd
       0.036821485 0.013533154 0.015517627 -0.07169618
000310 07 51 af bd ed ac 69 bd d7 5f da bc 00 fe 54 bd
       -0.085603766 -0.05704968 -0.026657028 -0.052000046
000320 93 ed ba 3c 7c 85 eb bc 73 4d 33 bd a7 bb 96 bc
       0.022818362 -0.028750174 -0.043775033 -0.018400026
000330 cd 14 9a bb 5d a4 14 bd ad f3 91 bd 68 45 86 bb
       -0.0047021867 -0.03628956 -0.071265556 -0.0040976293
000340 fd 2a 42 bd 33 9e 19 bd b0 cf 96 bd 00 45 c0 39
       -0.047404278 -0.037504386 -0.07363832 0.00036672503
000350 75 14 96 bd 71 9e 19 bd 82 42 05 3d 87 88 41 3b
       -0.073281206 -0.037504617 0.03253413 0.002953084
000360 f2 b3 0c 3c 9f 2d 33 3d f3 18 47 bc 2c 84 28 bd
       0.008587824 0.04374468 -0.012151944 -0.041141674
000370 e8 b5 75 bd ef 6d 87 ba e2 18 df bc 7c be 36 3d
       -0.059987932 -0.0010332445 -0.027233545 0.044615254
000380 5f 3a c7 bb 85 c2 3c bc 4e 2e ba 3c af a2 84 bb
       -0.0060799564 -0.011520986 0.022727158 -0.0040477137
000390 87 6b 1b bb 8a c3 c8 bc 22 51 12 bd 48 98 56 bd
       -0.0023715214 -0.024507303 -0.035721906 -0.05239132
0003a0 b0 cc a5 3c f0 f5 3d bc e6 9d eb bc 89 63 f2 bc
       0.020239204 -0.011594281 -0.028761815 -0.029588478
0003b0 48 75 3e bd 14 c5 2e bd 58 ad f0 bb 58 1c 14 3c
       -0.046498567 -0.042668417 -0.007344883 0.009039961
0003c0 0a 2e 89 bd 5a d6 75 3d 18 47 5c bd 52 35 78 bd
       -0.066982344 0.060018875 -0.053778738 -0.060597725
0003d0 30 66 85 3c 98 21 91 bc a5 79 84 bd 48 c0 65 bd
       0.016284078 -0.017716214 -0.06468514 -0.056091577
0003e0 13 c8 6e bd 3a f4 3f bc 03 ee 86 bd 96 1d 12 bc
       -0.058296274 -0.011715943 -0.06588366 -0.008918187
0003f0 16 84 32 bd 3d 16 6c 3d 28 c7 7e 3d 9b da 41 bc
       -0.043583 0.057638396 0.06220165 -0.011831905

bias f4 [256]
000000 bd d2 9b 3c f7 8f c5 bc 30 72 0b bc 3e d0 83 bd
       0.019021386 -0.0241165 -0.008511111 -0.064362034
000010 d8 aa 0c bd 22 15 da bc 66 fd 97 bc 7e 59 cd bc
       -0.034342617 -0.026621405 -0.018553447 -0.025067087
000020 5c 3b 21 bd 4c cd e4 3b 50 48 d1 3d d1 d8 06 bd
       -0.03936325 0.006982481 0.10218871 -0.032921616
000030 94 ae 2f 3c b8 16 8f bc 9f f1 fa 3b 34 1b 87 bc
       0.010722775 -0.017466888 0.007658198 -0.016492464
000040 13 ae 4f 3d 8a d0 1f 3e d0 7f 80 bd 7f 3e 65 3d
       0.05070312 0.15606895 -0.06274378 0.055967804
000050 9e 44 d6 bc f7 90 4f bd 65 11 36 3d 63 e9 5e 3b
       -0.026155766 -0.05067536 0.044450182 0.003401362
000060 a4 79 d0 bd c2 43 84 bd a5 da 4d bc 81 87 63 bd
       -0.10179451 -0.06458236 -0.012564336 -0.05554915
000070 07 2a 99 bc 49 a9 22 3c d7 28 c1 bc 9a f5 37 bd
       -0.018696798 0.009928056 -0.023579044 -0.04491196
000080 91 0e 9c 3c 74 10 82 3c b6 27 50 3b be 18 04 bd
       0.019049915 0.015876986 0.003176195 -0.03225016
000090 93 41 c3 bc 70 b1 c5 3c a6 51 71 bd 5b 72 5f 3c
       -0.02383498 0.02413246 -0.058915757 0.013638104
0000a0 f2 cb 82 bd b4 14 49 bd 8d 0e 0c 3c 62 d0 34 bd
       -0.06386556 -0.04909201 0.008548391 -0.04414404
0000b0 73 79 55 bd ae bf 0f bc a5 06 9f bc e0 ae b1 bc
       -0.052117776 -0.008773727 -0.019412348 -0.021689832
0000c0 0f cf c7 3c f9 83 69 bd 26 6e 81 bd 16 1d 09 bd
       0.024390725 -0.057010625 -0.06319837 -0.033475004
0000d0 11 3f 88 bc 19 c3 87 bd f0 7c ce bc 87 3f 17 bd
       -0.016631635 -0.06629009 -0.02520606 -0.03692582
0000e0 eb 54 bb bc f9 a5 ef 3b 26 16 f7 3c 6e 05 93 3c
       -0.02286764 0.0073134867 0.030161928 0.017946925
0000f0 54 28 f1 bc 27 4f c6 bc 01 d6 62 3c 99 d5 5f 3c
       -0.029438175 -0.024207665 0.013844968 0.0136617655
000100 d7 4b 9c bd 40 75 c3 bd 21 ca 66 3c dd be 1e bd
       -0.07631653 -0.09543848 0.014086277 -0.03875624
000110 94 3f 8e bd d3 07 00 bd 6a 52 12 bb bf 3c 0c 3c
       -0.0694572 -0.03125746 -0.0022326955 0.008559405
000120 2f b6 2b 3d 3c c9 74 bd 81 41 05 bc 3f fc 04 ba
       0.04192179 -0.059762225 -0.008133293 -0.0005072988
000130 3a 3e cd bc bb 37 50 3b 2d 57 b6 bd 12 a3 f5 3b
       -0.025054086 0.00317715 -0.08903346 0.007496246
000140 3e 17 5d bd 8d 8d 1d b5 b1 55 35 3c 48 2f 4a bc
       -0.053977244 -5.869304e-07 0.011067794 -0.012340374
000150 03 7c 9b bd a8 0e 87 bc 24 6b 79 bd b5 32 41 bd
       -0.07592013 -0.01648648 -0.060893193 -0.0471675
000160 26 75 56 bd 10 32 1d 3d f0 84 a8 bb 8e f8 2b bd
       -0.052357815 0.03837782 -0.0051428005 -0.041985087
000170 29 ba 75 bd 03 68 81 3c 40 8e c9 bb 83 f8 9e bc
       -0.05999199 0.015796667 -0.0061509907 -0.019405609
000180 4b 4f a4 3c f4 28 7d 3d 92 bf 19 3c 9f 0b 04 b8
       0.020057341 0.061806634 0.009384053 -3.1482075e-05
000190 c0 1c 0b 3c d8 3c 65 bd f0 0d 6c bb 23 2a b6 bd
       0.008490741 -0.05596623 -0.003601905 -0.08894756
0001a0 28 7a 61 bd d7 a9 b6 bb 35 ad 2f bd 64 79 26 bb
       -0.055048138 -0.0055744457 -0.042889792 -0.0025401944
0001b0 f3 ee 59 bd 86 52 c4 3c 98 c2 23 3d a4 ad 74 bd
       -0.053206395 0.023965131 0.0399805 -0.05973591
0001c0 a8 fb 93 bd 21 f9 21 bd d5 6c 15 bd a9 d8 2d bc
       -0.07225734 -0.03954423 -0.036480743 -0.010610738
0001d0 19 e3 89 3b 41 8e 97 bd 5a 5c 32 3d 14 41 9e bb
       0.0042079804 -0.0740018 0.043545105 -0.0048295353
0001e0 ce 51 58 bd a0 0c 6a bd 0e 88 29 bd 07 b9 d8 3c
       -0.05281239 -0.057140946 -0.041389517 0.026455415
0001f0 a5 73 20 bd f7 8d bd bc 1b f9 97 bc c3 e5 e0 3c
       -0.039172787 -0.023138983 -0.0185514 0.027453309
000200 22 93 86 bd a5 2f b1 bd 5f 5b ef bc 99 cb 14 3d
       -0.06571032 -0.086516656 -0.029218374 0.03632698
000210 46 75 35 3c 83 b6 d0 bb e0 f5 08 3d e6 b5 7f bd
       0.011075323 -0.0063694133 0.03343761 -0.06242933
000220 a0 48 30 3d 5f cb 2e bd 3c fb 3b bd 44 14 dc bb
       0.04303801 -0.04267442 -0.045893893 -0.006716283
000230 8e 17 9e bd 35 8d 79 bc b2 bc d0 bc 6e f5 d5 bc
       -0.077193365 -0.01523142 -0.025480602 -0.026118007
000240 0a 2f 86 3c d5 ff 7d bd 09 4a 89 bd fd f7 bd 3d
       0.016379852 -0.06201156 -0.06703574 0.09275816
000250 bf 7a 43 3d 75 71 be bb 96 d5 6f 3d 5c 31 b3 3b
       0.04772448 -0.005811865 0.0585533 0.0054685306
000260 5c e7 a8 bd ce 16 47 bc e6 b5 ff bc 32 a2 a0 3d
       -0.08247253 -0.012151433 -0.031214666 0.07843436
000270 d1 ed 22 bd d2 d1 04 bc 41 f6 8c bc e1 c0 2c bc
       -0.03977758 -0.008106666 -0.017207267 -0.010544033
000280 be c3 2b bd a1 e7 6b bd 39 88 0a 3c 91 45 e4 bc
       -0.04193472 -0.057593945 0.00845533 -0.027865203
000290 54 86 b4 3d 45 16 1d bd f5 51 79 3c 97 9b ca 3d
       0.088146836 -0.038351316 0.015217294 0.09892958
0002a0 6e 9c 47 3a a8 a7 83 bc fa da 15 bd e0 1d a8 bd
       0.00076145574 -0.016071156 -0.036585785 -0.08208823
0002b0 c9 47 b6 3d 46 07 03 bd fe 98 2d 3d 20 f1 37 bd
       0.08900411 -0.03198936 0.042382233 -0.04490769
0002c0 9e bf ca 3b 99 ff dc bb 3a 64 80 3c dd ff bf bd
       0.0061873933 -0.006744337 0.015672792 -0.09374974
0002d0 a1 21 03 3d b3 9d 0d bd 63 aa b8 3b 69 69 70 bd
       0.032014493 -0.03457422 0.005635546 -0.058694277
0002e0 b6 cc b3 bc 5c e4 32 bd cd 96 85 bb 98 6a 90 3d
       -0.0219482 -0.04367481 -0.0040768147 0.07051581
0002f0 65 dc 8d bc 19 aa 8d bd 4b f1 b5 bc 64 fa 2e bd
       -0.017317006 -0.06917209 -0.022209784 -0.04271926
000300 77 6c fd bc bd 96 89 bd e9 b5 b0 bd 79 48 32 bc
       -0.03093551 -0.06718204 -0.086284466 -0.010881537
000310 d6 f2 af bd a5 5b b8 bd 71 e7 51 3c 3b 5f a4 bc
       -0.08591239 -0.09001855 0.012811528 -0.02006494
000320 6e 82 b1 bc b6 82 2f bd 96 33 a9 bd 44 2d 43 bd
       -0.021668639 -0.042849265 -0.08261792 -0.04765059
000330 61 a1 5c 3c 88 9a 88 3d c5 c5 13 bd 0f 4a 8a bb
       0.01346621 0.066700995 -0.03607728 -0.0042202543
000340 65 8e 2a bc 50 f6 d8 3c 30 3c b2 bd 21 6b 4c bd
       -0.010409926 0.026484638 -0.08702886 -0.049906854
000350 1a e7 71 bd 5d 06 4f bc d5 2a 71 bc 49 54 d8 3c
       -0.059058286 -0.0126357945 -0.014719685 0.026407378
000360 13 b7 0b bd 12 18 6f 3c e4 0b a3 bc a0 4b 82 bd
       -0.03411014 0.014593141 -0.01990313 -0.063620806
000370 d7 d6 9d bb fe 41 9d bd aa 38 4d 3c c7 09 51 bd
       -0.0048168707 -0.07678603 0.012525717 -0.051034715
000380 2a 45 53 bd f5 51 9b 3d d8 e2 0b 3d 62 52 e2 bc
       -0.051579632 0.075839914 0.034151882 -0.027627174
000390 73 9a 03 3d 5d 7c 8e bd f7 77 9a bd 94 6f 35 bd
       0.032129716 -0.06957314 -0.07542413 -0.044295862
0003a0 18 9b d7 bc 4b dd 99 bd 63 eb 26 bd 50 72 a9 bd
       -0.026319072 -0.075129114 -0.040751826 -0.082737565
0003b0 ea 7a 92 3c 94 0e 76 bd 8d 9e b2 3c 19 8d 70 3b
       0.017880876 -0.060072497 0.021804119 0.0036705195
0003c0 81 95 2e bd 4e fc 04 3d 04 66 25 bd 85 35 31 bc
       -0.042623047 0.03246718 -0.040380493 -0.010815983
0003d0 eb f1 5d bd 81 71 63 3d 9a 10 0b 3d 11 8b 8b bd
       -0.05418579 0.055528168 0.03395138 -0.06813634
0003e0 be 35 af bc e2 47 53 bd a1 c4 b2 3c db c5 db bb
       -0.021387931 -0.051582225 0.021822276 -0.006706936
0003f0 18 b0 f2 3b 7d 53 8b bd be 73 50 3c 6c 3b 0b bd
       0.007406246 -0.068030335 0.012722908 -0.033992216

weight f4 [8, 256]
000000 61 dc ec bc 86 8c 82 3d 42 23 0f bd 03 03 b3 bc
       -0.028913679 0.06374459 -0.034945734 -0.021852022
000010 1e 5d af bc ff 65 a7 3c 92 64 02 bd 2f 0f a4 bc
       -0.021406706 0.020434378 -0.031834193 -0.020026771
000020 eb 01 5d 3d 94 1f cd 3c ef 81 2a 3d d4 76 a4 3c
       0.053956907 0.025039472 0.04162782 0.020076193
000030 74 73 64 bc c0 4b 47 bc ca df 19 bd 4e db 0d bd
       -0.013943542 -0.012164056 -0.037566938 -0.034632973
000040 17 87 2b bd 0c a3 75 bd 8f 43 d7 3c 4c f2 49 3d
       -0.04187688 -0.059969947 0.026277332 0.049303338
000050 d6 a8 57 3d c7 3b a7 3d d2 ef ae 3c 19 b4 5f bc
       0.05265125 0.081656985 0.02135459 -0.0136537785
000060 73 c1 0d bd d8 2f 20 3c 37 1c 9c 3c 9f 1c da bd
       -0.034608316 0.009777032 0.019056423 -0.1064999
000070 ef 14 d1 bc 3a 13 3d bc 15 cf 85 3c b2 77 32 bc
       -0.025522677 -0.0115402285 0.016334096 -0.010892795
000080 24 f6 84 3d 27 97 24 bd 67 9d a9 bd b0 e1 aa 3d
       0.0649226 -0.040183213 -0.08281975 0.08343828
000090 8c 0b 25 3d 8f 56 2c bd 7d aa 13 3d 18 eb 1c bb
       0.040294215 -0.042074736 0.036051262 -0.0023943838
0000a0 45 f6 2b bd 41 f8 f9 bc 81 de ef 3c f3 b9 67 3d
       -0.041982908 -0.030513884 0.029280903 0.05657382
0000b0 1a 5a 93 3d 62 b4 11 bd dc 5c bb bc d9 e2 4b bd
       0.0719492 -0.035572417 -0.022871427 -0.049776886
0000c0 7e a2 23 3c e0 92 8a 3d da 71 eb 3d 4a 7e 24 bd
       0.009987472 0.067662954 0.11496325 -0.0401595
0000d0 1a 49 47 3d 2d 04 6d bc cf ab 29 3d 96 35 64 3d
       0.0486537 -0.014466328 0.041423615 0.055715166
0000e0 5f 29 2e 3d 26 7a 1e bd 6f 5f 12 3d 4f bd 2c bd
       0.042519923 -0.03869071 0.035735544 -0.042172726
0000f0 b9 80 04 3d 9a 1d 6f bd c5 fc 05 ba 11 30 1d 3c
       0.032349322 -0.05837784 -0.0005111213 0.009593979
000100 1d 91 4c 3b 28 18 a9 bc 95 b1 f3 bc 00 da ba 3c
       0.0031214424 -0.020641401 -0.029747764 0.022809029
000110 57 4f 4b 3d fb d2 df bc 4d 71 10 3d df 51 d8 bd
       0.04963621 -0.027322283 0.035264302 -0.10562491
000120 db cd 73 bd f9 01 17 3b 4f ad 8f 3d 13 6a ae bd
       -0.05952249 0.0023041947 0.07015478 -0.08516326
000130 47 af 15 bc df d5 21 bd dc 0b ca bb 17 eb 76 bd
       -0.009136028 -0.039510604 -0.0061659645 -0.060282793
000140 9f 4b 4f 3c c6 51 9a 3c e4 af ee 3d d4 80 90 bc
       0.012652307 0.01883782 0.11654642 -0.017639555
000150 d3 70 6e 3d ec 6f c4 3d b4 df 21 3d 19 14 9a 3b
       0.058213066 0.0959166 0.03951998 0.004702103
000160 45 06 33 bd cd 7f 94 bb ed e5 f3 3c 78 ed 68 3d
       -0.04370715 -0.0045318366 0.029772723 0.056867093
000170 92 7e 33 bd 6b 60 48 39 12 85 d4 3d eb 64 95 3a
       -0.04382188 0.00019109405 0.10376944 0.0011397874
000180 59 cd 25 bc 2f 4f 90 3b 38 b0 7a 3d 39 ea 00 be
       -0.0101197595 0.0044039707 0.06120321 -0.12589349
000190 57 3a 01 3d 82 9b 14 bd 55 5b cf bc 9b e0 2d 3b
       0.031549778 -0.036281116 -0.025312105 0.002653158
0001a0 f5 1f 0b be d0 48 4d 3b 01 7e 9a bd 62 e8 86 3c
       -0.1358641 0.0031323917 -0.075435646 0.01646823
0001b0 5a 4e b8 bc b7 0e 5e bc bf 10 4e bc 58 f6 15 bc
       -0.022498298 -0.013553313 -0.012577235 -0.009152971
0001c0 d6 d4 51 3d b5 b7 b5 bc 11 53 00 3d 09 a6 94 3d
       0.051228367 -0.022182325 0.03132922 0.07258231
0001d0 d6 48 c4 bc 7b db 02 3d 55 58 b9 bd 30 dc 8c 3c
       -0.023960512 0.031947594 -0.09050051 0.017194837
0001e0 30 eb 78 3d ae ee 14 bb a9 47 af 3d 3d 3a 2d bc
       0.060771167 -0.0022725272 0.0855859 -0.010572967
0001f0 c8 8c c0 bb 6d 75 22 3c 29 44 07 3d a3 64 ab bd
       -0.0058761574 0.009915692 0.033023987 -0.08368804
000200 b8 8e ba bc 00 7c 77 3c d7 9e f3 3b 9e 9c ab 3d
       -0.022773132 0.0151052475 0.0074347067 0.08379482
000210 1c b3 ff bb ae 18 55 3d 57 b0 a7 bd 6c 95 e8 bc
       -0.007803334 0.05202549 -0.08187931 -0.028391562
000220 5e d6 2d bd 0c 8f 81 bd 3a 0f 30 bd e0 11 6c bd
       -0.042440765 -0.06326112 -0.04298327 -0.057634234
000230 d0 94 0b 3d fd 8f 1d 3b d2 e9 86 3d a3 31 b2 bd
       0.034077466 0.0024042123 0.065875664 -0.08700874
000240 3d 15 20 3d 0f f5 86 bb 4c d4 2e bd c1 66 f9 3d
       0.039082754 -0.0041185687 -0.04268293 0.12177802
000250 3a 64 f3 bd 68 91 aa bd 59 bb f9 bb da 03 ca bc
       -0.11884351 -0.08328515 -0.0076212105 -0.02466004
000260 a4 82 63 3d 05 55 eb bb 00 bf 6e 3d 49 e5 a4 3d
       0.05554451 -0.007181766 0.05828762 0.08051545
000270 b3 08 32 be 83 84 61 3d df c3 80 3d 76 fd 14 bc
       -0.17386131 0.055058014 0.062873594 -0.009093633
000280 49 1b 40 3d 8d 13 65 3a 71 c5 0d bd a6 f6 70 bd
       0.04690102 0.000873857 -0.034612123 -0.058828972
000290 be d6 16 bd 3c 61 d5 3c 9b 65 8b 3c 94 b7 17 3c
       -0.036825888 0.026047342 0.017016223 0.009260077
0002a0 e1 ad 5f bd bd 5e 45 3d 07 f6 19 bd 43 0f 12 bd
       -0.054609183 0.048186053 -0.037588146 -0.035659086
0002b0 80 48 8f 3d 6b 69 54 3c 53 14 de bc 8a 24 75 3d
       0.0699625 0.012964587 -0.0271093 0.0598493
0002c0 fc e0 86 bd 89 b0 a9 bc 07 35 27 3c 8a 5a a8 bc
       -0.06585881 -0.020714061 0.010205514 -0.020550985
0002d0 fb 32 39 bc 9b 15 01 bd bd 7f b7 3d cf 54 9e 38
       -0.011303659 -0.031514745 0.08959911 7.549824e-05
0002e0 4a 46 2d 3d 4c 41 58 3b ea e7 a2 bc 2b a2 82 3d
       0.04230336 0.0032997904 -0.019885976 0.06378587
0002f0 ac 07 39 bc 22 dc 4e bd 3b e0 ee 3c 5f 7f d4 3c
       -0.011293333 -0.050502904 0.029159656 0.025939642
000300 9b 8f 34 3b 3e 8d 25 3d 03 62 45 bc a2 84 aa 3d
       0.0027551416 0.040417902 -0.012047294 0.08326079
000310 d4 43 fc bb cb 60 af 3c 39 7d f9 3b 01 47 10 3d
       -0.0076985154 0.02140846 0.0076138047 0.035223965
000320 82 1f 9c 3c 65 2e 10 bd c1 ec db bc bf 5f 14 bd
       0.019057993 -0.035200495 -0.026846291 -0.036224123
000330 99 13 25 3c 70 11 c9 3d 1c 6a 5c bd d6 79 4e bd
       0.010075473 0.09817779 -0.05381213 -0.05040916
000340 8d 44 77 be 34 41 8e 3d e0 78 82 3c 58 06 8a 3d
       -0.24147244 0.0694603 0.015926778 0.06739491
000350 b9 46 08 bd 83 c9 58 bd 00 75 71 bc 8f 1c 9e 3b
       -0.03327057 -0.05292655 -0.014737368 0.004825182
000360 71 91 34 3c ba b9 83 bc cf 7e 85 3c 68 92 f0 3c
       0.011021004 -0.016079772 0.016295819 0.029366687
000370 fe 73 ad bc 49 d2 28 3b 94 89 3a 3d 91 ba 43 bc
       -0.021173473 0.0025760105 0.04554136 -0.011946336
000380 39 71 23 3d f1 eb 0b 3e af ef d5 3c 55 12 ad 3b
       0.0399029 0.13664223 0.026115267 0.0052817264
000390 a4 bd 55 bc 41 f5 a1 bc 13 ef ed bc c2 f3 81 3c
       -0.013045702 -0.019770266 -0.029044664 0.015863303
0003a0 68 88 6c bd 9c 59 3c 3c 44 79 88 bd 40 13 00 3b
       -0.057747275 0.011495974 -0.066637546 0.0019542724
0003b0 f4 61 a1 3c 8f e6 82 3c 9a 19 4d 3c b9 d4 09 bd
       0.019700028 0.01597908 0.012518311 -0.033650134
0003c0 e5 51 91 3b 24 7d b8 bc eb d2 68 bc 99 59 cc bd
       0.0044348114 -0.02252061 -0.014210443 -0.09978027
0003d0 40 1d cd bc 44 3f bc 3c db a2 12 be ce 9d 8a 3c
       -0.025038362 0.022979386 -0.14319937 0.01692095
0003e0 0d 36 81 3d 11 39 df 3c c4 9c ab bc f6 c3 fa bc
       0.063091375 0.027248891 -0.020948775 -0.03061102
0003f0 9d 81 b0 bc 09 7f 8a 3c 03 55 d1 3c 00 82 07 bc
       -0.02154618 0.016906278 0.025553232 -0.0082707405

bias f4 [8]
000000 43 72 89 3d 4e 8f f1 3c 1c df 86 3d 68 96 cd bc
       0.06711247 0.029487278 0.065855235 -0.025096133
000010 44 10 c5 bc 39 5c 94 bc ac 57 a4 3c 90 02 0c bc
       -0.024055608 -0.018110381 0.020061336 -0.008545533

weight f4 [8, 256]
000000 c1 f4 51 3d 8c 7c d2 3c dc 92 c5 3c 2d 4e 04 bc
       0.051258806 0.025694154 0.02411788 -0.008075279
000010 f9 c0 81 3c 66 29 a6 3d 1c 82 e9 bc 9f 03 37 3b
       0.015839087 0.08113365 -0.028504424 0.0027925742
000020 aa 4e 39 bd 67 7f 66 bd b8 30 87 bd 90 5c 5a 3d
       -0.045241036 -0.056273844 -0.06601089 0.05331093
000030 2f 0d 1d 3d 0f 3b ad bc 3b cd 3d 3c d1 8e f6 bc
       0.03834265 -0.021146325 0.011584575 -0.030097397
000040 1f a3 71 bd 2d 64 d9 bd 2a ee 3c bc 81 1b 3d 3c
       -0.058993455 -0.1061481 -0.011531392 0.011542202
000050 a1 44 bc 3c f0 10 77 3d 6a 60 26 bd 9e e5 85 3b
       0.022981944 0.060318887 -0.04061929 0.0040862104
000060 69 39 c6 bb b7 53 99 3c a0 a2 b0 3c ab 7b dc bc
       -0.0060493243 0.018716676 0.02156192 -0.026914438
000070 da 01 36 3d ef 41 4b bc 72 83 83 bc 2c b2 64 3d
       0.04443536 -0.0124058565 -0.016053889 0.05583398
000080 ef bf 69 3b 5d 05 8c bc a1 6a ae 39 c4 43 8d 3b
       0.003566738 -0.017092401 0.0003326731 0.004311057
000090 c6 f2 69 bd a7 ee 1a 3d 04 41 a2 3b f0 30 69 bd
       -0.057116292 0.037825253 0.004951598 -0.056931436
0000a0 f6 41 fd 3c f9 25 32 bd b4 5e b0 3c 28 12 6d bc
       0.030915242 -0.043493245 0.021529533 -0.014469661
0000b0 63 4b 2a bd e2 05 6b 3d 78 c6 2c 3c 04 6c 6d b9
       -0.0415758 0.057378657 0.0105453655 -0.0002264232
0000c0 b8 76 e1 3c 0d 6a a0 3c 0a ea 23 3c db d5 2d bd
       0.02752243 0.019581819 0.01000453 -0.042440277
0000d0 75 33 2f bc 8c af 0a bd fb 13 af bb b3 ea 64 3d
       -0.010693421 -0.03385882 -0.005342958 0.05588789
0000e0 ce 1e 93 3d 2b 51 fe bb 86 63 22 bd 92 73 45 3c
       0.0718361 -0.007761141 -0.039645694 0.01205148
0000f0 f2 8b b6 bb 28 fd 8a 3c 62 c4 6f bd 98 a9 33 3c
       -0.005570882 0.016966417 -0.058536895 0.010965727
000100 80 06 a4 3c 96 55 52 3d 2d a6 62 3d 53 a7 c8 bb
       0.02002263 0.051351152 0.05533426 -0.006123462
000110 48 c0 2d bd 22 b3 12 bd 33 e5 64 bb ad 2a 4f 3c
       -0.0424197 -0.035815366 -0.0034926652 0.012644452
000120 72 96 98 bd 80 5b 4e bd 53 78 11 3c 2c 28 75 bd
       -0.0745057 -0.05038023 0.008878785 -0.059852764
000130 dd ec 67 bd 55 5d 65 3c f0 f0 17 3c f9 d4 fc bc
       -0.056622375 0.013999303 0.009273753 -0.030863272
000140 a4 66 e2 bc 45 44 0a 3d 57 8c 4a 3c 1f a7 9f bc
       -0.027636833 0.033756513 0.012362561 -0.01948887
000150 30 b1 df 3c 33 12 be bc 24 bf 29 3d 7d 57 40 bb
       0.02730617 -0.023202037 0.04144205 -0.0029349022
000160 8d a8 a0 bc 96 fe 2c bd be 41 25 bd 9b d6 4f bd
       -0.019611621 -0.04223498 -0.0403459 -0.050741773
000170 49 37 04 bd 56 e0 98 3c 8e 33 13 3d 2f d5 19 3d
       -0.032279287 0.01866166 0.03593784 0.037556823
000180 cb 89 39 3b 7e 89 77 bc 44 5e 10 bc f5 00 01 bc
       0.002831089 -0.015108464 -0.008811537 -0.007873763
000190 d3 20 ae 3d 20 02 a1 3b c9 b1 11 bc a8 c0 1a 3d
       0.085023545 0.0049135834 -0.008892485 0.037781388
0001a0 9e 9d e9 ba 4d 43 32 bd 9b c8 10 3d 47 0d ba 3c
       -0.0017823463 -0.043521214 0.035347562 0.02271141
0001b0 c7 ed 6a bd 8e 7b 5b bd 42 b3 30 3c fc 18 d4 3b
       -0.05735567 -0.053584628 0.010784926 0.006472705
0001c0 73 d2 54 3d 5f 2b 02 3d aa 34 63 bc 74 bb 4c 3d
       0.051958513 0.031779643 -0.013867537 0.049983457
0001d0 cc c9 b7 3d 62 b4 80 bd 2c 5f 56 bd 8a 4d 9c 3d
       0.089740366 -0.06284405 -0.052336857 0.07631977
0001e0 4c 25 9b bc 49 e9 03 3c 64 d3 86 bd 2a bb 98 bd
       -0.018938683 0.008051225 -0.06583288 -0.07457574
0001f0 b7 a2 29 3d 0f 83 22 3c 4c 55 53 bd c7 dc ef bb
       0.041414943 0.009918942 -0.051595017 -0.00732002
000200 0f e1 f1 3c 48 8d 35 bb 0c fd 29 3d 6e 10 2f bc
       0.029526262 -0.0027702618 0.04150109 -0.0106850695
000210 cd a3 15 bd 34 2f 29 3d 18 3c ca bc 28 a6 1c bc
       -0.036533166 0.041304782 -0.024686858 -0.009561099
000220 ad e9 33 bd 11 11 19 bd a6 e3 06 3d d9 12 9f 3c
       -0.043924022 -0.03736979 0.032931946 0.019418167
000230 13 c2 b3 3c 48 73 2b 3d b4 4a 26 3d 37 22 94 3d
       0.021943128 0.041857988 0.040598586 0.072330885
000240 51 00 ff 3c c4 f2 49 3c b2 33 26 bc 0a b2 09 bd
       0.03112808 0.012325946 -0.010144161 -0.033617057
000250 9a 0f 57 bd 2c ba 11 bd a0 17 77 bd 6e 2d 9e 3b
       -0.052505113 -0.035577938 -0.060325265 0.004827193
000260 12 a0 f7 bc c5 dc 81 bd f7 38 d5 3c 0e cc fe bc
       -0.030227695 -0.063409366 0.02602814 -0.03110316
000270 56 c4 d9 3c c4 49 0c bd fa 74 2c 3d 37 49 62 bd
       0.026582878 -0.034250036 0.042103745 -0.055245604
000280 6c 98 34 3d 8f 8e 50 bd 0d 6d 9b 3c 1d db 19 3d
       0.044090673 -0.050917204 0.018972898 0.03756248
000290 cd 36 ec bc ef d7 4f 3d 44 9c dd 3c b3 b8 d1 bd
       -0.028834725 0.05074304 0.027052052 -0.10240307
0002a0 ee b6 13 3c 27 a7 7a bb 8f bf 04 3d 23 ac a6 3c
       0.009015782 -0.0038246603 0.032409247 0.020345753
0002b0 77 11 76 bd 42 9e b3 bb ae b6 56 bd 8b e9 43 3d
       -0.06007525 -0.0054815123 -0.05242031 0.047830146
0002c0 b8 b4 9d bb 77 79 03 3d a0 da 83 3c 88 69 81 3d
       -0.004812803 0.03209826 0.01609546 0.063189566
0002d0 4b c4 2d bd af eb cb bc 04 1c 2f 3c 0a 8f 5e bd
       -0.042423528 -0.024892656 0.010687832 -0.05433563
0002e0 34 eb e2 3c 8f 47 96 3c 89 ad c8 bc ec da 8b bd
       0.027700044 0.018344669 -0.02449681 -0.068288654
0002f0 da 31 67 3d 88 36 f5 bc 46 f5 c6 bc 62 87 65 3d
       0.056444027 -0.02993323 -0.024286877 0.056037314
000300 08 fe 65 bd 94 8e b6 3c bb 51 35 bb 3b 99 39 bc
       -0.056150466 0.022284783 -0.0027667123 -0.011328037
000310 dd f2 4a bd e1 50 ff bc fd 35 77 3d 99 7f ad 3c
       -0.04954802 -0.031166496 0.06035422 0.021179007
000320 b7 5d f2 3b 77 f4 fa bc e3 e0 f1 bc 30 b1 de 3c
       0.0073964256 -0.030634148 -0.02952618 0.027184099
000330 e1 14 46 3d c1 b7 8c bd 45 43 e6 3c d9 ee a1 3c
       0.048359755 -0.06870986 0.028108248 0.019767212
000340 e9 17 ae 3c a0 a0 29 bc 91 26 4c 3d 6e da ba bc
       0.021251636 -0.010353237 0.049841467 -0.022809234
000350 4d 6e 0b bd 1a 75 9d 3c bc cf 8c 3c b7 9e b9 bc
       -0.034040738 0.019220877 0.0171889 -0.022658689
000360 5a 96 62 3c b8 17 55 bd 34 d3 16 3d 7e fd 2f bb
       0.013829792 -0.052024573 0.036822513 -0.0026853974
000370 cf 9e 2e 3d 0b bd cf 3b f7 21 b4 3b fd fb 09 3d
       0.04263192 0.0063396743 0.005497213 0.03368758
000380 9e 96 33 3d 91 c6 4c bd b1 c6 9c 3d 64 7a 00 3d
       0.04384481 -0.049994055 0.07655085 0.03136672
000390 d4 45 00 3b 0f a8 8a ba de 41 cb bb 7d 4d f2 3c
       0.001957287 -0.001057865 -0.0062029203 0.029577965
0003a0 e8 52 55 bd 5d d0 70 3b 98 85 32 3d a4 88 e9 3c
       -0.05208102 0.0036745288 0.043584436 0.028507538
0003b0 78 e5 7f 3c d1 ce 5c 3d 27 4a 5d bd ff 8f 4a 3c
       0.015618674 0.053908173 -0.054025795 0.012363433
0003c0 dc 26 50 3d bc 3d e7 3c c6 38 31 bd 01 08 01 bc
       0.05081831 0.02822768 -0.043267034 -0.007875443
0003d0 32 45 1e bb 5a 84 66 bd 4f fa 1f bd 55 f4 c9 bc
       -0.002415013 -0.056278564 -0.039057072 -0.02465264
0003e0 76 56 50 bc d8 f5 1f 3c f9 23 d1 3c e1 0c 5e 3c
       -0.012715926 0.009763204 0.025529848 0.013552875
0003f0 66 d7 2b bd 92 09 46 bc f8 bf 51 bb b7 93 ba bc
       -0.041953467 -0.012087243 -0.0032005291 -0.022775514

bias f4 [8]
000000 8a 4d a1 bd 14 a7 80 bd 9d 39 a9 bd c6 64 d1 bd
       -0.078761175 -0.062818676 -0.08262942 -0.10224299
000010 49 bd 9b bd 39 b5 d5 bd 8a 4f 03 be 57 a8 8c bd
       -0.07604463 -0.10434956 -0.1282331 -0.06868046

weight f4 [256, 36]
000000 2c 3d 9c 3d 20 bc 31 be 31 b6 78 bd 0c 7b 37 3e
       0.07628855 -0.1735692 -0.060720626 0.17918032
000010 0c a6 04 bd a7 00 ce 3d 15 f1 4f be c6 04 1c bd
       -0.032384917 0.10058718 -0.20306809 -0.03809049
000020 aa e9 43 bd ef 0e 20 bd 39 fd 4a 3d a2 37 05 3b
       -0.04783026 -0.03907674 0.0495579 0.002032735
000030 bc ba 01 bc b3 3d 50 bd 2a e6 fc 3d 33 2e 14 be
       -0.007918056 -0.05084009 0.12348588 -0.14470749
000040 d7 b2 4f bd 8c 78 05 be 58 f0 32 bd 0e 4d 3c be
       -0.050707664 -0.13034266 -0.04368624 -0.18388769
000050 52 6f 08 be 2f 69 2c bd 83 56 86 ba a8 03 fb 3d
       -0.13323715 -0.0420925 -0.0010249171 0.12256557
000060 56 7a 23 3e 95 78 54 3e 87 e1 41 3d ef 86 5e 3d
       0.15964636 0.20749123 0.04733422 0.0543279
000070 6d db e5 bc 9e 47 c8 bd ca 9d 50 3c df 04 a0 bb
       -0.028058732 -0.09779285 0.012732932 -0.004883393
000080 ff 99 08 3e 9d 78 e3 3c 96 91 c5 3d af 32 f1 bd
       0.13339995 0.027767474 0.09646909 -0.11777245
000090 a4 09 10 be f9 44 ea 3d 62 0a 8e 3d f0 06 32 3e
       -0.14066178 0.11438937 0.06935574 0.17385459
0000a0 b7 55 41 3d 4d 99 ad 3c 1a ed 85 be 4f 73 89 3d
       0.047200885 0.021191264 -0.26157457 0.067114465
0000b0 3c d8 d2 3d 51 59 1f 3e 98 2d 2a bd c7 14 28 3e
       0.1029515 0.15561415 -0.041547388 0.16414176
0000c0 e4 4c 0c bd c4 7e 09 3e 66 04 2b 3e f0 33 06 be
       -0.034253016 0.13427263 0.16700897 -0.1310575
0000d0 0e 51 ad 3c 9b 59 1b 3d 35 de b0 3c 3a 39 b6 bd
       0.021156814 0.03792725 0.021590332 -0.08897634
0000e0 15 45 b0 bc aa 2f 3c 3e aa d7 19 bd 04 0d b9 3d
       -0.021517316 0.18377557 -0.03755919 0.09035686
0000f0 a2 67 14 3d f1 d8 42 bc 75 cb 8d 3d 96 ad f9 3c
       0.036231644 -0.011892543 0.06923572 0.03047828
000100 8c a5 7a bd 19 a1 b4 bd dc 1e 4b 3c a0 2b f8 bd
       -0.061193034 -0.088197894 0.012397494 -0.12117696
000110 f1 2a 06 be 4f 39 f6 bd 1d 61 6e bd 88 6b 17 be
       -0.13102318 -0.120226495 -0.058198083 -0.14787114
000120 7b cf 9a 3c 7c 31 63 3d e0 c8 0b 3e 93 86 47 bc
       0.018897763 0.055467114 0.13650846 -0.012178081
000130 11 a0 0f be 86 20 8d bd 52 cf b4 bd 56 df 4a 3e
       -0.14025904 -0.06890969 -0.08828606 0.19811758
000140 ba 2b c3 3c f3 a1 e6 bd 13 f0 06 bc b2 29 2b 3b
       0.023824561 -0.11261358 -0.008235949 0.0026117382
000150 5a b1 f1 3d 1c 9a 9b 3d 08 4e 9b 3c 43 59 91 bd
       0.11801405 0.075977534 0.018958107 -0.070971034
000160 0d d9 27 be f8 5b 51 3c eb 92 32 3e 2e 34 82 3e
       -0.16391392 0.012778275 0.17438857 0.25430435
000170 c5 d1 2e 3e 52 84 8d 3d 9b 2c d4 3b 96 1f 18 be
       0.17072208 0.06910004 0.006475044 -0.14855799
000180 68 ee 3d 3d c9 97 ed bd 02 07 80 3d 2b 88 af 3d
       0.04636994 -0.11601216 0.06251337 0.08570894
000190 7e 8f 07 bd d2 c9 73 bc 83 f4 cd 3d 90 c9 e9 bd
       -0.03309583 -0.014879661 0.100564025 -0.11415398
0001a0 11 06 05 be c2 55 22 3d e0 39 de bd 69 24 e8 bd
       -0.12990595 0.039632566 -0.108508825 -0.1133507
0001b0 b2 04 bf 3d 67 89 56 3e 56 3d fd bd 34 3e 1f 3f
       0.093270674 0.20950852 -0.123652145 0.6220429
0001c0 ca 62 a3 3e 5a 3c 6a 3d 6e 37 64 be db e1 ce bd
       0.31911308 0.057186462 -0.2228677 -0.10101672
0001d0 6f 6c 68 3e 87 9e 9f 3e 90 7c 20 3d 00 c9 bd 3d
       0.22697614 0.31175634 0.039181292 0.09266853
0001e0 f7 03 b9 bd 3c 74 38 3e b6 c6 a4 3c a4 e4 c1 3e
       -0.09033959 0.1801309 0.020114284 0.3786975
0001f0 00 16 12 be 95 8b a5 3d 35 47 02 3d c9 6b ef 3d
       -0.14266205 0.08083264 0.03180619 0.1169048
000200 bc a6 6a 3e cf 42 72 3d c2 4a c2 bd b7 0f 00 3e
       0.22915167 0.059145745 -0.09486915 0.12505995
000210 21 55 d4 bd 53 ea 1b 3c 0d 38 0b be 55 3b f8 3b
       -0.103677996 0.0095163165 -0.135956 0.0075754323
000220 69 95 00 3d a0 cf 5a bd f3 5b b7 3d c3 ee 02 be
       0.03139249 -0.053420663 0.08953085 -0.12786393
000230 9e 35 69 bc ff 32 59 bd 6c 62 1c 3e 43 b0 0d bd
       -0.014233975 -0.05302715 0.1527192 -0.034591924
000240 8f db 04 bd bc 79 8d be da 2c 28 be ec b4 e2 3c
       -0.03243595 -0.27631938 -0.1642336 0.02767416
000250 cb 3b 19 bd 49 de 44 bb fb 2a 69 3e 46 45 90 3e
       -0.03741054 -0.003003972 0.22770302 0.2817785
000260 1f 51 2f 3b 1a 89 db bd 80 6e f8 3d 3f 4d df bb
       0.0026751233 -0.107195094 0.12130451 -0.0068146284
000270 87 79 25 3e 13 0f 1f be 51 b6 d6 bd 37 17 79 be
       0.1615964 -0.15533094 -0.10483993 -0.24325262
000280 33 15 a8 bd 9e fa 05 3e ac 00 54 3c 81 63 c9 3d
       -0.082071684 0.13083884 0.012939613 0.09833432
000290 5f fe 47 be bb c3 41 3e 59 69 13 be 18 af b3 bd
       -0.19530629 0.18922321 -0.14395656 -0.08773631
0002a0 cd 29 be 3d f4 0c df 3d 71 15 70 3d 7a 70 bb bd
       0.092853166 0.108911425 0.058614198 -0.091523126
0002b0 5d 60 11 3d b0 f8 9c bd 81 5b 0d 3e 4e 10 d4 bd
       0.03549229 -0.07664621 0.13804437 -0.10354672
0002c0 a9 6a 16 bd a4 a7 10 be 49 72 73 3e 26 87 62 3e
       -0.036722813 -0.1412645 0.23774065 0.22121868
0002d0 b7 a9 36 be 89 0c 13 bd e7 7e 11 3e ab 68 39 3e
       -0.17838179 -0.035900626 0.14208566 0.18106334
0002e0 75 67 e9 3d d3 81 06 be bb 02 09 bd f5 63 32 3e
       0.11396686 -0.13135462 -0.03344987 0.17420943
0002f0 26 81 5b 3d 89 d8 00 bd 49 4e 5c bc 34 eb 94 ba
       0.053589962 -0.031456504 -0.013446399 -0.00113616
000300 5d 79 bd bd fa 4c 88 3c c7 77 65 bd 5a fb af 3d
       -0.09251664 0.016638268 -0.05602243 0.085928634
000310 d2 fb ce 3c 4a cc 06 3e 47 f3 9e bd 37 78 22 3d
       0.025266562 0.13163868 -0.07761245 0.039665427
000320 e9 70 0c 3d e2 74 4c 3e a2 46 3d be 22 c4 4a bd
       0.034287367 0.19966462 -0.18483976 -0.049503453
000330 cb e8 c1 3d 14 ae b8 3d 73 a6 80 3d 93 72 03 3e
       0.0946823 0.09017578 0.06281748 0.12836675
000340 a2 b1 4e bd b3 67 be 3d 66 e6 2d 3e 2d 8e ba bc
       -0.050462373 0.09297123 0.16982421 -0.022772873
000350 ad c0 99 bd d2 79 cb bd 2d f1 07 bd 90 7f e6 3d
       -0.07507453 -0.09935345 -0.033188988 0.11254799
000360 1e 2d 0e be 4e 09 d0 bc 6a 03 f4 bd 91 fd d7 bc
       -0.13884398 -0.025395062 -0.11914714 -0.026366027
000370 6f 94 77 3e 7c 92 d9 bc 81 f5 78 be 30 a4 58 3e
       0.24177717 -0.026559107 -0.24312402 0.21156383
000380 58 38 94 3b 9a 6c 0e 3e 74 8d ff 3d c9 e6 28 3e
       0.0045233183 0.13908616 0.12478152 0.16494288
000390 f2 6c 14 bd e3 04 19 3e 56 a1 f2 bd de 10 ee 3c
       -0.03623671 0.1494327 -0.11847179 0.029060777
0003a0 ea d0 b1 bd f1 4e 48 3e 93 af 1f 3e f2 c4 5c ba
       -0.08682425 0.19561364 0.1559432 -0.0008421681
0003b0 51 09 af bd 8a 1b c7 bb cd c1 76 3c 05 c3 e1 be
       -0.08546699 -0.006076281 0.015060854 -0.440941
0003c0 ad ed 5b 3d 81 ae a3 bd 29 d3 a0 3d 7f 70 b8 3d
       0.053693462 -0.07992268 0.078527756 0.09005832
0003d0 a8 a3 fd 3d 4c e6 fc bc 71 97 29 be d6 8d c2 3d
       0.123847306 -0.030871533 -0.16561677 0.09499709
0003e0 83 83 49 3e ea d8 19 be 55 ab c1 bd 12 7f 75 be
       0.19679074 -0.15024152 -0.09456507 -0.23974255
0003f0 53 61 e2 3c e8 78 e8 3c 38 a1 3e 3e 97 2c 74 3e
       0.027634298 0.028377965 0.18616188 0.23845135
