data/HalfCheetahPyBulletEnv-v0_sac_grad_False/HalfCheetahPyBulletEnv-v0_sac_grad_False_s0/pyt_save/model.pt (torch_old, 906014 bytes, 18 tensors)

weight f4 [256, 26]
00000000: 92d4 6d3e da75 d73d 0307 37bf 99ad f3bc
00000010: 16b2 9abd c48e 633f 00a7 7ebb 10b6 df3a
00000020: 0fad 39be 375d 50be fc06 183f cc9a 70bf
00000030: 932d c63e f5e1 69be 5ccb 283f 6132 9c3e
00000040: a67d 16bf a608 b13e 70d7 37bf 9350 e1be
00000050: 7773 883f cdc2 263e 4c51 25bd 0df0 25be
00000060: 2c7a 01bd c8ff a93c 796f 5bc0 274c 3abe
00000070: bc34 0dbf 6ddc 1e40 c08f 9cbd 5e19 74bf
00000080: 5a2b 02be e015 4040 b5a1 54bc e905 5cbf
00000090: abee 5c3e 9297 a93c 7272 1a3f db9d eb3d
000000a0: 265f cb3f caef 0c3d b28a 2fbf c66d 45bf
000000b0: 9d5d d6bf ea3b 1bbf 89b3 7fbe 567e eb3d
000000c0: c120 b2bd 94ba c9be 3f70 003e 0da5 473e
000000d0: 5e66 c53f b809 d93c 748e cb3e 850e 74bf
000000e0: 48b0 153d 4a79 a9be 0630 0bbe 30a6 d2bf
000000f0: b0ae 503e 3a49 3a3e f785 6f3e 47b4 9b3e
00000100: 756d 883d bc4f ba3d f1ba 9d3f 5c29 ed3f
00000110: 69b8 753c 7f25 2ebf d936 60bf 3b51 46bf
00000120: a16a 6e3e 4764 263e f1c1 2e3e eb13 3abc
00000130: e0dd 1f3d d3a1 2ebe 8f79 46bf 9445 fbbd
00000140: aa6f 75bf f2c8 bb3f 9bb2 183e c549 76bf
00000150: 905a 163d ed47 b43f 556c 8abe 969e d3bf
00000160: eb22 f03e 8eb0 aebd 685a 643f db69 e23d
00000170: 0d94 a63e d388 e1be 551d 41c0 7fd4 9cbe
00000180: df73 80bf b77d 433f 16d8 d1be 8846 e7bd
00000190: 8dec 3c3e bb7e 293f b020 afbd 202d 4abd
000001a0: bb0e 07c0 0004 67bb ef9e 87bf ac8a 05be
000001b0: 500b 31bc 9619 4dbe 737c a4bd 003b 2540
000001c0: 1eba 57bf 3da7 0bbe 0afc 8e3e c9f0 00bf
000001d0: 55cc 43be 97b9 08be 5565 383f 4ab9 03bf
000001e0: d1e4 593e e31b 00bf a930 053e 52c0 913c
000001f0: 14e3 a0bf e50e eebd 8016 49bd 36a0 97bb
00000200: 5682 8cbd 4c99 24be 1184 88bf 74b5 2b3d
00000210: fd96 75bf 5ecd 583f 5fc2 0f3e 91b4 423e
00000220: 209a b23b 5259 0c40 c014 37bd c70e dbbe
00000230: 6893 a83f c149 03be 832d 503f 24a2 e43c
00000240: d32b 4c3e 5093 afbe 9f01 2a3f 62ae 913e
00000250: 7d3e 48bf 9c8a 5f3e d5c8 fa3d 077f 29be
00000260: e4ef 22bd 9b6a 323c 6e25 d93d 16ae 41be
00000270: 3fd0 a83f 5525 1dbe 7ee1 79bf a210 1ac0
00000280: ecb9 1abd 9387 1b3f 5c35 34be 6ff4 a23f
00000290: 14a1 233e e83b 8f3f 2cb6 b33e 6286 16be
000002a0: b9f1 3bbf f81b 5b3e f983 0dbf b8c8 97bd
000002b0: b5db 353f a64b 273e a3d2 893f d684 823e
000002c0: b4e6 13bf 264c b3bd b596 203e 4715 043e
000002d0: f064 ac3c 242f 28bd ac00 9940 043c 603d
000002e0: 99be 523e 2955 acbf dc2b 41bd 48c5 b33e
000002f0: 947e 25be f1ce 16c0 a54e 463f 6298 5c3f
00000300: 37f2 513f 3266 da3e 6197 413f f898 233d
00000310: 687f 52be 4472 1b3c c611 e03e 642b 0dbd
00000320: 35be e63e 17cf a43d db69 51c0 0ede 09be
00000330: 6538 e9bd ade7 5d3e ac60 90bd 5164 293e
00000340: 026f eabf 706f cb3c 78bf 81be 62f0 06bf
00000350: 7892 c93c 9f8c d5bf 009e b4ba f6a6 1a3f
00000360: 2f9b 523e 92e4 ecbe 0700 1f3e d222 c73e
00000370: 55cb 613f 2655 cbbe 259b 74bd c64c 39bf
00000380: 58a7 96bf 4d30 25bf f8ae 96bf 4a44 80be
00000390: 42f4 c7bd 28ea edbc 0096 0c3b e144 e1be
000003a0: 6090 c83c 2be0 333e e462 603f 15ed fdbd
000003b0: b410 9fbf 6095 06c0 453a aabd 0787 f93e
000003c0: ca9e 843d d2d8 383e 1b2c 953e 126c c9be
000003d0: ea64 24bf 6696 17bf 05a2 2e3e b9b2 3cbe
000003e0: fcdf 2dbf 5ea2 c5bf 986b 17be 73e6 37bf
000003f0: 17be 46bf 123d e43f ff1d 473f 538b 94bd
0.2322562 0.10520525 -0.71495074 -0.029745864 -0.075534984 0.8888972 -0.0038856864 0.0017067809
-0.18132423 -0.20348059 0.5938566 -0.939862 0.38706645 -0.22840102 0.659353 0.30507186
-0.58785474 0.3457691 -0.71813107 -0.44006786 1.0660237 0.16285248 -0.040360734 -0.16204853
-0.031610653 0.020751849 -3.4286788 -0.18193112 -0.5515859 2.4822037 -0.07644606 -0.9535121
-0.1271185 3.0013351 -0.012978007 -0.8594652 0.2157542 0.020702157 0.6033088 0.11504718
1.5888412 0.03440837 -0.6857101 -0.77120626 -1.6747319 -0.60638297 -0.24970831 0.11498706
-0.086976536 -0.3940016 0.12542818 0.19496556 1.5421865 0.026493892 0.3975712 -0.95334655
0.036545068 -0.3310035 -0.13592538 -1.6456966 0.20379138 0.18191996 0.23390947 0.30410978
0.06661502 0.090972394 1.2322675 1.8528247 0.01499758 -0.68025964 -0.8758369 -0.774677
0.23282863 0.1624919 0.1706617 -0.011357288 0.039029956 -0.17053919 -0.77529234 -0.1226913
-0.9587351 1.4670699 0.14911883 -0.96206313 0.03670746 1.408445 -0.27035776 -1.6532772
0.4690164 -0.08529769 0.8920045 0.110553466 0.3253483 -0.440497 -3.0174153 -0.30630872
-1.0035361 0.763637 -0.40985173 -0.1129275 0.18449612 0.66209 -0.085511565 -0.04935944
-2.110274 -0.0035250187 -1.0595378 -0.1304118 -0.01080592 -0.20029292 -0.08031549 2.581726
-0.8426837 -0.13638015 0.27926666 -0.5036741 -0.19120915 -0.13352047 0.7202962 -0.51454604
0.21278693 -0.5004255 0.13006844 0.0177919 -1.2569299 -0.11623935 -0.049093723 -0.004627253
-0.06860797 -0.16074103 -1.0665303 0.041921094 -0.95933515 0.84688365 0.1403899 0.19014193
0.005450502 2.1929517 -0.044697523 -0.42784712 1.3169985 -0.12821104 0.81319445 0.027909346
0.19938593 -0.34292078 0.66408724 0.28453356 -0.7822035 0.21830219 0.12245337 -0.16552363
-0.03977956 0.010889675 0.10602842 -0.18914065 1.3188552 -0.15346272 -0.976097 -2.4072652
-0.037774965 0.60753745 -0.1759848 1.2730845 0.15979415 1.1190157 0.35099924 -0.146997
-0.73415715 0.21397388 -0.552795 -0.07411331 0.7103837 0.16337451 1.0767406 0.2549197
-0.577739 -0.087547585 0.1568249 0.12898742 0.021044225 -0.04106058 4.781332 0.054744735
0.2058052 -1.3463489 -0.04716097 0.3511145 -0.16161567 -2.3563807 0.7746375 0.8617002
0.82010216 0.42656094 0.7562161 0.039940804 -0.20556414 0.009487692 0.4376356 -0.03446521
0.4506699 0.08047312 -3.272086 -0.13463613 -0.113877095 0.21670409 -0.07049689 0.16542174
-1.8315127 0.024833411 -0.25341392 -0.52710545 0.024605975 -1.6683539 -0.0013779998 0.6041101
0.2056701 -0.46268135 0.15527354 0.38893753 0.88200885 -0.397134 -0.05971827 -0.7238277
-1.1769819 -0.64526826 -1.1772146 -0.250521 -0.09763385 -0.029042318 0.0021451712 -0.43997863
0.024482906 0.17565982 0.87650895 -0.123987354 -1.2426972 -2.1028671 -0.08311895 0.4873583
0.06475599 0.1805146 0.29135212 -0.39340264 -0.6421648 -0.59213865 0.17053993 -0.18427552
-0.679199 -1.5440176 -0.14787138 -0.7183601 -0.77633804 1.7831137 0.77780145 -0.072531365

bias f4 [256]
00000000: bfe6 bbbe be6d f8be 0566 d83e 4b16 4ebf
00000010: dc82 61bf bf3f 53bf 2a93 6ebf 2654 c53d
00000020: 490b ddbe 7523 a8bf d8f3 6a3c 72ef 45bf
00000030: e7de 27bf 38fa 3cbf d93d 77bf 9642 1ebf
00000040: 6d5b 21bf eb4a c1be e923 9abf 5634 2f3e
00000050: a3f2 e33c db4c 09be 2370 f8be 0770 b4be
00000060: b71c 02bf 62fb f3be 702e 52bf a2b6 2cbd
00000070: ac83 10bf 8cce ecbe 0d6c c4bc 7c01 3dbf
00000080: 3044 2ebf 04a7 76bf 000c 63be 2769 a8bf
00000090: b24b a4be 563f 2bbf b627 103f 1087 bcbe
000000a0: 545b 5ebf 6129 26bf 11a3 4d3d 9a3a 78bf
000000b0: cb66 63bf 2c4d b7be 04d3 62bf 9519 47bf
000000c0: 20e0 2ebe b1ca 4abf 91fc 69bf 8df7 44bf
000000d0: 51c8 34bf 6460 09bf a668 a63e 81d5 61bf
000000e0: 6f78 c3bf 5ebf 50bf 97c7 5ebf ab98 33bf
000000f0: 8f04 79bf 51e2 76bf f64b bebf 08ad d9be
00000100: e08e fbbd 7c33 48bf f59b 3dbf c59a 7dbe
00000110: 7746 2cbf d8e4 043e 28d8 a9be cd5c fabe
00000120: eeee a3be b056 2dbf 6673 9cbe c17a 8e3e
00000130: f58a a4bd 2684 98be 705a 5abf bc4e cebd
00000140: 0b49 2dbf 521e 10bf 2274 823d 7c10 32bf
00000150: decc 66bf 3ed2 4abe b2f7 55bf eb81 15bf
00000160: 9762 153d e123 94be efd7 9ebf cfa4 72bf
00000170: 7909 7e3e 9f8f 10bf 78e5 99bf 0d10 53bf
00000180: f03a 96bf 72d5 1cbe 9b4a e5be 1482 43bf
00000190: 0a38 63bf ec1a 6bbf 0aae 31bf 69b3 69bf
000001a0: 3cfa 3ebf c799 33bf 82bb 4abf 53e7 d6bd
000001b0: 9493 3bbf 8c69 3ebf 112f 8d3d 9bde 8ebf
000001c0: 9a90 6bbf 273c a1bf e060 783e 6d3d 5e3f
000001d0: d58c 29bf 993b d1be ae0f 9dbe 5991 54bf
000001e0: e3a7 9fbf 2c18 6dbf 2e80 b5be 8a68 59bf
000001f0: 7cea c2bf a280 0bbf f455 84bf 6d5e b6bf
00000200: 7f08 743f 361a 7fbf 6772 71be 8192 a2bf
00000210: 9b3c 87bf a09d afbe 8e68 e5be d95f ccbd
00000220: 85fe 6bbf 4766 85be 2df8 00bf fee4 79bf
00000230: c061 a5be bf4c 67bf 415b 0fbf 166f c0bf
00000240: b34f e8be 508b 42bf c588 3c3c 006d 3e3f
00000250: 0d28 fbbd 1363 46bf f233 5dbe 5caa 00bf
00000260: 05ff 03bf 1ffe 9cbe 8d47 8dbf 86bf a93c
00000270: 82a0 80bf ce18 a6bf 2a68 48be ca70 8ebf
00000280: 1952 25bf b77d acbe d9d5 83bf b171 4dbf
00000290: 61ce 22bf 2135 f6be 7c21 96bf 7d5d 143f
000002a0: 0541 60be aeea 84bf b953 c8be 00e6 bdbf
000002b0: 9334 98be c106 7fbf 8f85 68be 71b6 e0be
000002c0: 1ee9 7fbe ad24 a7bf 854b 1cbe 2dc1 ec3e
000002d0: f577 a7bc 5a6f 9cbd b95b 9abe 6379 99be
000002e0: 2c20 8abf 6b16 69bf f9aa dbbe 4fdb 37bf
000002f0: 190d 4ebf 3175 f1be b510 73bf 5646 48bf
00000300: 90b2 bbbe 469d 0ebe 4ba1 9fbe b2f5 1dbe
00000310: 642b 90be dd27 8bbf ba06 4dbf ca1c 64bf
00000320: ea63 c8bc 67d1 3fbf 474d 77bf 7571 d4be
00000330: 0677 21bd 029e 53bf abfe a0bf cda5 7d3f
00000340: 008f 80bf d99a 48bf 9ea3 bbbf 87c3 32bf
00000350: 3a24 8dbf 7526 cebe d37f adbf 5a28 49bf
00000360: 331b 86bf d9a8 63bf 4e57 b53e 7391 67bf
00000370: 7245 0bbf 5659 3d3f 0b7c 83bf fc17 84bf
00000380: bc6d 6bbf 1327 10bf d683 fcbe a8e7 51bf
00000390: 59e2 45bf 5930 c3be 1286 243e 4a22 12bf
000003a0: 19bf 84be 87da b5bf 5b00 03bf d109 fe3d
000003b0: d4de 17be 2e06 26bf d80d 20bf 0c46 72bd
000003c0: dcba 04bf 5c9b 5fbe 793b d4be c899 81bf
000003d0: 3199 883e e335 99bf c137 2fbf bb7d bb3d
000003e0: 94c6 56bf e2a6 cbbe 2d77 1bbf cf01 14bf
000003f0: 1a3b 893e 2a92 67bf 0f30 5fbf 8a10 50bf
-0.36699483 -0.48521227 0.42265335 -0.80502766 -0.880903 -0.82519144 -0.93193305 0.09635191
-0.43172672 -1.3135821 0.014340363 -0.7731849 -0.65574497 -0.73819304 -0.9657875 -0.6182035
-0.6303013 -0.3775247 -1.2042209 0.17109808 0.02782566 -0.13408224 -0.48523054 -0.3524172
-0.50825065 -0.47652727 -0.8210211 -0.04216636 -0.56450915 -0.46251333 -0.023977304 -0.7383039
-0.68072796 -0.96348596 -0.22172546 -1.315709 -0.32089 -0.6689352 0.56310594 -0.36821795
-0.86858106 -0.6490689 0.05020434 -0.9696442 -0.88828725 -0.35801065 -0.88603234 -0.7777341
-0.17077684 -0.7921553 -0.9140101 -0.7694023 -0.7061816 -0.53662705 0.32501715 -0.88216406
-1.5271128 -0.81542003 -0.870233 -0.7015483 -0.9727258 -0.9643908 -1.4866931 -0.42514825
-0.122831106 -0.7820356 -0.74066097 -0.24766071 -0.6729502 0.12977922 -0.33172727 -0.48898926
-0.32018226 -0.677104 -0.30556792 0.2782803 -0.080343165 -0.2978832 -0.85294247 -0.10073611
-0.6768958 -0.56296265 0.06369807 -0.69556403 -0.9015635 -0.19806764 -0.8358108 -0.58401364
0.036470976 -0.28933623 -1.2409648 -0.9478273 0.24808301 -0.5646915 -1.2023153 -0.82446367
-1.1736736 -0.15315798 -0.44783482 -0.7637036 -0.88757384 -0.91837955 -0.6940619 -0.91289383
-0.7460058 -0.7015652 -0.79192364 -0.1049334 -0.7327206 -0.743798 0.06893743 -1.1161684
-0.9201752 -1.2596482 0.24255705 0.8681248 -0.6623052 -0.40865782 -0.30676025 -0.8303428
-1.247311 -0.9261501 -0.35449356 -0.8492514 -1.5227809 -0.54493153 -1.0338731 -1.4247566
0.95325464 -0.9964937 -0.23578797 -1.270096 -1.056537 -0.34299946 -0.4480633 -0.09979219
-0.9218524 -0.26054594 -0.50378686 -0.9761504 -0.3230114 -0.9035148 -0.5599862 -1.5033901
-0.45373306 -0.75993824 0.011507218 0.7438507 -0.122634985 -0.77494925 -0.21601847 -0.5025995
-0.51561004 -0.3066263 -1.103746 0.020721208 -1.0048983 -1.297632 -0.19570985 -1.112817
-0.64578396 -0.33689663 -1.0299636 -0.80251604 -0.6359616 -0.4808741 -1.1728969 0.5795515
-0.21899803 -1.0384119 -0.39126375 -1.4835815 -0.2972761 -0.9961968 -0.22707199 -0.43889192
-0.24991271 -1.3058068 -0.15263183 0.4624113 -0.020442942 -0.07638426 -0.30148104 -0.29975423
-1.0791068 -0.9104983 -0.4290388 -0.71819013 -0.80488735 -0.47159722 -0.9494737 -0.78232324
-0.3665967 -0.13927183 -0.31177744 -0.15425757 -0.28158104 -1.087154 -0.8008839 -0.8910643
-0.024461705 -0.749289 -0.9660229 -0.4149281 -0.03942015 -0.82662976 -1.2577718 0.99081117
-1.004364 -0.7836128 -1.4659307 -0.698296 -1.102668 -0.40263715 -1.3554634 -0.78577197
-1.047705 -0.88929516 0.3541817 -0.9045631 -0.5440284 0.7396444 -1.027223 -1.031982
-0.91964316 -0.5630962 -0.49319333 -0.81994104 -0.77298504 -0.38122824 0.16066769 -0.5708357
-0.25927046 -1.4207314 -0.5117242 0.12404216 -0.14831096 -0.6485318 -0.62521124 -0.059148833
-0.51847625 -0.21836609 -0.41451624 -1.0125055 0.26679376 -1.196957 -0.6844445 0.091548406
-0.83896756 -0.3977576 -0.6072872 -0.5781526 0.26802903 -0.90457404 -0.87182707 -0.81275237

weight f4 [256, 256]
00000000: 6e70 37bd bbd7 b4bc c817 64bd c4b0 77bd
00000010: 3fcc 09bc 5552 d5bc b337 6abd 1176 c03c
00000020: 26bc 863c b8de f1bb 4ded 40bd 3cf9 0f3c
00000030: 2f98 f0bc b216 1fbd 6da7 61bd 1300 17bd
00000040: 21f3 d93c df79 19bd 724b 84bd 3c80 5bbd
00000050: d64c 613c b0bc 793c 40dc 47bd 725e a8bd
00000060: 6b49 68bd bd3f dd3b eecc 7dbd 8db7 6f3c
00000070: c163 67bd 88ae 973c db80 ef3b e778 aabc
00000080: 3f80 52bc d4af 6ebc 85d3 aabd 2611 50bd
00000090: 794e 09bc bc7f 9abd 22a0 b1bc 7b56 76bb
000000a0: a394 48bd 55b5 16bd db94 983b eca8 0cbd
000000b0: bd6a 0dbd 487e 09bc d619 12bc a260 5cbd
000000c0: 2e09 cdbb d784 a13c 5c39 2f3d 7ed0 50bd
000000d0: a2fa bf3b f37a 1ebd 8be4 62bd 077c ea3c
000000e0: 8e69 40bd 9dca 223d 9eb8 3c3d 18b3 a9bd
000000f0: 9888 f73b f1e8 3dbc 1913 c2bc 0ce5 fbbc
00000100: 74f1 483b 3a89 b5bd 24be 9d3c 4c49 3c3c
00000110: 59a4 36bd 21fb 7abc 90e3 febc 3867 993c
00000120: 3c3c 0cbd 72aa 98bc d3a3 b4bc bc78 fc3b
00000130: 2d85 18bc 4b06 fd3c 4b4e a93b 4a19 31bc
00000140: 3df8 ebbb f6d4 8bbc 4d9d 44bd a539 933c
00000150: 153b 91bd a336 243c c5e0 a5bc bf79 f13b
00000160: a88c a6bd 82db 73bc a5b4 85bd af62 7bbd
00000170: 5aac aebc 75b5 78bd 977f e43c cf9f 113d
00000180: a5d5 81bc d763 6fbd e721 97bb 6a89 bc3c
00000190: 8a31 12bd 06f0 b0bd df13 883b a2c4 0dbd
000001a0: cff2 9fbd 5759 e03b 3267 16bc a783 6ebc
000001b0: bdcf 253d b96a e5bc 3bc0 14bc cebc 73bc
000001c0: a1e4 cfbc 85cf 4fbc e1bb 71bd b86e a43b
000001d0: deea b9bc afe4 8ebd 7e8d 54bd 5034 563c
000001e0: 5bcf df3b c764 ccbb 726b 9abd 6d46 eebb
000001f0: 8fe0 e13c 8244 c43c dc94 c8bc b39b 8cbd
00000200: 8347 223c 5593 533c 164f 3ebc 9596 883c
00000210: b55b cd3c 7860 47bd fa36 ab3c fc74 0c3d
00000220: b41f 8ebc c114 b2bd 12cf b63b b6ac 39bd
00000230: 96c8 873c 9692 a0bd 03df 32bd e4f4 14bd
00000240: b0dd 38bd 76cf 5dbd 85b8 f33c 19a5 afbc
00000250: 3126 f1bb a148 b6bd 11cc 2bbd 5537 de3c
00000260: 5b12 afbd 983c 5cbd aad5 88bd 3b4f 88bd
00000270: d0fa 1fbd ff19 113b 3a36 35bc f897 0a3c
00000280: 9841 87bd c349 96bd f858 d5bc 82da 19bb
00000290: f492 88bd 6f32 053c 676b 0fbd 391a 4ebd
000002a0: 6503 da3c 4d25 8ebc fb69 64bd ed61 3bbd
000002b0: b224 873c 1922 e8bc 8883 92bc ff36 57bc
000002c0: 940c aabd e647 883b afb4 4bbd fbd8 7cbd
000002d0: c373 36bc e43e 8fbc 282e 76bc 70a3 8fbb
000002e0: fd59 a0bd 5630 89bb 8770 e7bc 5f91 a2bc
000002f0: aa46 3fbd 90b5 933c 4a08 bebd c421 10bd
00000300: edc6 a4bd 634d 27bd cf6e 3dbd 5f1f 96bd
00000310: 77bb 41bd 8d77 f6bc c17d 8f3c b69a 26bd
00000320: 6487 83bc 5759 99bc be83 f2ba e726 cbbc
00000330: 6330 ce3a 20e8 e6bd 2816 45bc 2d4a eebd
00000340: 93ba 673c 2583 fbbc 09bc e9bc 31e4 293d
00000350: 2891 413d 8c31 9fbc d3cf a0bd f50b 28bc
00000360: f957 0fbd 19f0 08bd 68f0 81bd 52eb ad3c
00000370: bc0b 0dbd 80b3 883b d50d 2abd 6e43 a73c
00000380: 5860 d3bd a657 fbbc 4a2d 05bd 1480 2fbb
00000390: 145a abbc 2c0a 8fbb 473c da3b 9c6e a9bc
000003a0: 4104 123d d593 8cbd be01 1f3d 7f09 50bd
000003b0: 083a 71bc 86f0 36bd a7d0 3c3d d151 3fbd
000003c0: 636a 88bc 8dab 13bd 6a33 93bd d491 14bc
000003d0: af78 4abd a25d 1bbd 19c9 f33b 93ec eabc
000003e0: 66df 16bd e809 b23b c238 6dbc ab77 7ebc
000003f0: 93d4 9ebd 1d9b f8bc 07ff 8abb 74f8 d0bc
-0.044784956 -0.022075525 -0.055686742 -0.06047131 -0.0084105125 -0.026040236 -0.057182025 0.023493798
0.016447138 -0.0073812865 -0.047101308 0.008787449 -0.029369442 -0.038840003 -0.05509131 -0.036865305
0.02660519 -0.03746974 -0.064597026 -0.05358909 0.013751229 0.0152427405 -0.04879403 -0.08221139
-0.05671064 0.006751983 -0.061963014 0.014631164 -0.056491617 0.01851584 0.007309062 -0.020809604
-0.012847959 -0.014568288 -0.083411254 -0.050797604 -0.008380526 -0.07543895 -0.021682803 -0.0037588167
-0.048969876 -0.036794025 0.004656417 -0.034340784 -0.03452562 -0.008391924 -0.008917293 -0.053803094
-0.006257198 0.019716663 0.04277931 -0.050980084 0.005858735 -0.038691472 -0.055393737 0.028623594
-0.046975665 0.03974401 0.046074502 -0.082861125 0.007554125 -0.011591182 -0.023690747 -0.030748866
0.0030661495 -0.088640645 0.019255705 0.011492085 -0.044590328 -0.015318663 -0.03111437 0.018725976
-0.03423713 -0.018635962 -0.022050774 0.0077048223 -0.009309095 0.03088679 0.005166804 -0.010809252
-0.007201223 -0.017069321 -0.048001576 0.017971823 -0.07091347 0.010022792 -0.02024878 0.0073692496
-0.08132297 -0.014883878 -0.06528596 -0.06137341 -0.021322418 -0.060719926 0.02789287 0.035552796
-0.015848944 -0.058444824 -0.004612196 0.023014743 -0.035691775 -0.08639531 0.0041527594 -0.03461135
-0.07809984 0.0068465876 -0.009179877 -0.014557756 0.040481318 -0.02800499 -0.009079034 -0.0148765575
-0.025377573 -0.012683754 -0.059017066 0.0050180815 -0.022695001 -0.06977212 -0.05189275 0.013073996
0.0068301386 -0.0062375995 -0.07540025 -0.007271579 0.027572898 0.023958448 -0.024485044 -0.06865635
0.009904745 0.012913545 -0.011615535 0.016673366 0.025068143 -0.048675984 0.020900238 0.034291252
-0.017349102 -0.08695365 0.005578884 -0.045330726 0.016575139 -0.07840459 -0.04366971 -0.03636636
-0.045133293 -0.05415293 0.029751072 -0.02144103 -0.007359289 -0.089005716 -0.04194266 0.027125994
-0.08548423 -0.053768724 -0.06681378 -0.06655737 -0.039057553 0.002214074 -0.011060292 0.008459084
-0.06604308 -0.07338288 -0.0260434 -0.0023476188 -0.06668654 0.0081297 -0.035014536 -0.050317977
0.026612947 -0.01735177 -0.055765133 -0.045747686 0.01649699 -0.028336572 -0.017884985 -0.013135671
-0.0830318 0.0041589616 -0.04973286 -0.061730366 -0.011135998 -0.017486043 -0.015025653 -0.004383497
-0.07829664 -0.0041866703 -0.0282519 -0.019844709 -0.04669825 0.018030912 -0.09278925 -0.03518845
-0.080457546 -0.040845286 -0.046248253 -0.07330202 -0.04729792 -0.030086303 0.017516019 -0.040674888
-0.01605577 -0.018719358 -0.0018502397 -0.024798824 0.0015730973 -0.11274743 -0.012029208 -0.11635242
0.014143604 -0.030702183 -0.028532045 0.041477386 0.047257572 -0.019432805 -0.07852139 -0.010256757
-0.034996007 -0.0334321 -0.06344682 0.021230374 -0.03443502 0.0041717887 -0.041517098 0.020417895
-0.103211105 -0.030681442 -0.032513894 -0.0026779221 -0.020916976 -0.0043652263 0.0066600177 -0.020682625
0.035648588 -0.06864134 0.03882002 -0.050790306 -0.014723308 -0.044662975 0.046097424 -0.046708886
-0.016652292 -0.036052275 -0.07187541 -0.009067971 -0.0494315 -0.037931092 0.007439744 -0.02867726
-0.036834143 0.00543331 -0.014478864 -0.015531461 -0.07755389 -0.030347401 -0.0042418274 -0.025509097

bias f4 [256]
00000000: 15dd a1bd b0bc 4ebe 595d 37bf 8b37 48bf
00000010: 1a3b d3bd 20c4 f0bd 9085 563e b103 e7bf
00000020: dad6 f5bd 2b95 fcbc 481b e1bd 83af a83e
00000030: acb4 63bd 0eac 8cbf fba0 b8bf 3398 bfbd
00000040: a901 87bf 5e6f d2bd cd0d a3bd 5852 2cbf
00000050: 13b6 46bf 24fc b03d 8d04 41bf cd8d 63bf
00000060: 37c7 19c0 172f 7bbf aa1c 243e 2e04 b6bd
00000070: 1e49 a5bf b071 8ebe ee5b debd cfda 1ebf
00000080: fa69 58bd e611 97bf c00a 30be d870 22bf
00000090: a653 fbbe 4ea4 8fbd 6f14 debf f4fa 2fbd
000000a0: 2370 20be 6da9 88bf 5a4d bcbd 445d 1ebe
000000b0: 2b86 9ebd a726 113f b857 10bf 7463 b6bf
000000c0: 8876 45bf 03e4 e7bd 404d b1bd cdb9 e8bb
000000d0: b7b9 debd 4fa5 b9bd 0fc9 7fbf 3ab5 2abf
000000e0: 859c e9bd c8cc 92be 088b f0bd f8ff b8bd
000000f0: 320c f6be 39f7 f4bd 43ad 533d f2c0 8dbf
00000100: 25a4 b8be 703e 76bf 00b5 53bf 6842 0cbe
00000110: d1dc 72bf f5d1 ecbd a93a 69bf 7364 ccbe
00000120: 76ab b4be 0e9b 0e3f 332e 8fbd 4cfe 1fbe
00000130: 1970 e7bd 5b0c a9bd 5469 93bd 4d5f c03d
00000140: ce30 76bd cd2d 4dbe 79b0 52bf 2a38 24bf
00000150: 899f 33bf 554b b2be 6658 633e 5d24 4b3f
00000160: 882d 29bf afb1 5fbf 553c 5ebd 2d7f 2ebf
00000170: 2f6c cdbd 31d7 17be 9c30 ecbe 9350 69bf
00000180: 0b22 55be 92bd 18be 0a00 a9bf 81ce 663d
00000190: 2d5b 3fbd de94 79bd 181b f1bc 6c8c 8bbf
000001a0: 0053 0abd 1b1f f3bd 17c0 aabf 9cde 08bf
000001b0: f1e2 34bf 38fa f5be a010 15bf 4d45 1dbf
000001c0: 5620 c2bd 07a4 a5bf 833a cbbe 1328 fbbd
000001d0: 946b fabf bcc8 e8be a066 05be 72f8 e23e
000001e0: 3e54 bcbf 659e 853d 2399 16be 8dde c23e
000001f0: 26f2 ed3e 146d 2abe 7b3c 15be a542 83be
00000200: ed90 afbe 8ac3 c6bf 968a 0abf 19b7 33be
00000210: eed0 73bd fe70 d3bd 64ae b9be 3f8e 87be
00000220: 26d4 63bf 3c82 773f 8b82 54bd f4ed 9fbe
00000230: 80e4 2bbe 7576 dabd 48df 04be 29f6 cfbf
00000240: e593 96bf 318b a73d c36b 1ebf 94ed f4be
00000250: af52 21be 749d 6fbf 6106 48bf 4a4e c4bf
00000260: ec09 1bbe 5791 84bf 6d9b bbbf 6f03 fcbe
00000270: ce26 0abe df2e 05bf 059c 00be f483 5cbf
00000280: 5715 58bf 8c1a 60bf 10c6 6fbd 4cc8 42bc
00000290: df6e bebf ae2c a7bd 7e74 4e3e c02a e6be
000002a0: 2da4 82bd 2a7a debd 2752 61bc 870c 4abf
000002b0: d699 b3bd 46cf f1bd 52d1 87bf c2d6 f5be
000002c0: 5eb7 5cbf adbe 43be 9422 aabd 5430 c9be
000002d0: b487 0cbe 0874 98bf 66d3 57be 66fa d23d
000002e0: b0ca e6bd e610 92bf fc95 dfbe 2aa4 f23e
000002f0: ccaa 90bd 547c a4be 1bc4 edbe 2e20 33bd
00000300: 0f31 8bbd 6173 07be 97de efbf 99f9 adbf
00000310: d37f 01be 1ec5 2cbf 89bc 10be cd24 68be
00000320: b30a 3dbe 13f4 2abe 8aec a4bd 2f95 02bf
00000330: b0c8 37bf 7b37 d7bd 00a4 cbbf 1142 c6be
00000340: e5f6 12be 0eac 21be 474e 93bf fe83 f8bd
00000350: 1cdc 51be cb4a 913e dfa5 00be 2abd 59bd
00000360: 9fcd 1ebf b24b 4cbf 3713 9dbd dcbb b6bd
00000370: dd45 473e 0349 95be db8a b13e e22a 9fbe
00000380: a99a 253f 3794 19be 119d e5bd 5b7d 0dbe
00000390: 1ec3 bfbd 8eb2 88bd 9ac8 a6bd 40fd 3dbd
000003a0: 4766 13be 027f 45be 64b2 d5be 7e3d 39bf
000003b0: 7d3e 4dbf ef9e afbe ce32 5ebe 2696 5b3e
000003c0: 4f1e 1cbf cd8a c0bd e0d9 5abf 8793 debd
000003d0: 9268 8ebd ee62 e9bf 1808 93bf 10b1 cabe
000003e0: 68a3 5dbf d85c 08be c243 12bf d4c5 c2bd
000003f0: 4ff9 d0bd 0edb b8bd 0dae c5bd fb67 65bf
-0.07903496 -0.20189166 -0.7162681 -0.7820975 -0.10314007 -0.11756158 0.20949388 -1.8048002
-0.1200387 -0.030832848 -0.109915316 0.32946405 -0.055592224 -1.0990007 -1.4424127 -0.093552016
-1.0547382 -0.10275148 -0.07961617 -0.67313147 -0.77621573 0.08641842 -0.7539757 -0.88888246
-2.402784 -0.9811873 0.1602656 -0.08887516 -1.2912939 -0.27821112 -0.10857378 -0.62052625
-0.052835442 -1.1802337 -0.17191601 -0.63453436 -0.49087256 -0.070137605 -1.7349986 -0.042963937
-0.15667777 -1.0676705 -0.09194441 -0.15465266 -0.07740434 0.56699604 -0.5638385 -1.4249101
-0.7713399 -0.11322787 -0.086573124 -0.0071022273 -0.10875266 -0.09064733 -0.99916166 -0.6668278
-0.11406807 -0.2867186 -0.11745268 -0.09033197 -0.4805618 -0.119612165 0.051678907 -1.1074507
-0.36062732 -0.9618902 -0.8269806 -0.13697207 -0.9486819 -0.115634836 -0.91105133 -0.39920387
-0.35287064 0.55705345 -0.06991234 -0.1562435 -0.11300678 -0.0825431 -0.07197824 0.09393177
-0.060105138 -0.20037003 -0.82300526 -0.641482 -0.70165306 -0.348231 0.2220169 0.7935236
-0.660851 -0.873805 -0.054256756 -0.68162805 -0.100304 -0.14828183 -0.46130836 -0.9113857
-0.20813768 -0.14916065 -1.3203137 0.05634928 -0.04671781 -0.060932986 -0.029431865 -1.0902228
-0.03377056 -0.11871167 -1.3339871 -0.53464675 -0.70658785 -0.48042464 -0.5822849 -0.6143387
-0.09478824 -1.2940682 -0.39693078 -0.12263503 -1.956408 -0.45465648 -0.1302743 0.44330174
-1.4713209 0.06524352 -0.14706855 0.38060418 0.46473807 -0.16643173 -0.14573853 -0.25636783
-0.34290257 -1.5528424 -0.54117715 -0.17550315 -0.059525423 -0.10324286 -0.36265862 -0.26475713
-0.8899559 0.96683097 -0.051882308 -0.3123623 -0.16786385 -0.10667125 -0.129758 -1.6246997
-1.1763884 0.081808455 -0.6188318 -0.47837508 -0.15754198 -0.9359963 -0.78134733 -1.5336392
-0.15140504 -1.0356854 -1.4656807 -0.4922137 -0.13491365 -0.52024645 -0.12559517 -0.86138844
-0.8440756 -0.8754051 -0.058538496 -0.011888575 -1.4877585 -0.08162819 0.20161626 -0.4495449
-0.0637897 -0.10863145 -0.013752497 -0.78925365 -0.08769576 -0.118071124 -1.0610754 -0.4801541
-0.86217296 -0.19115706 -0.083073765 -0.39294684 -0.13723642 -1.191041 -0.21076736 0.10301666
-0.11269128 -1.1411407 -0.43669116 0.47390872 -0.07063827 -0.32126105 -0.4643868 -0.04373186
-0.067964666 -0.13227607 -1.8739804 -1.3591796 -0.12646417 -0.67488277 -0.1413442 -0.22670288
-0.18461113 -0.1669467 -0.08052929 -0.51008886 -0.717906 -0.10508629 -1.5909424 -0.3872228
-0.14351995 -0.1578829 -1.1508263 -0.121345505 -0.20494121 0.28377375 -0.12563275 -0.053158917
-0.620325 -0.79803 -0.076696806 -0.0892255 0.19460244 -0.29157266 0.3467625 -0.31087404
0.6468912 -0.14997946 -0.11211599 -0.1381735 -0.093633875 -0.066746816 -0.081437305 -0.046384096
-0.14394484 -0.19286731 -0.41737664 -0.72359455 -0.80173475 -0.34300944 -0.21699068 0.21443996
-0.6098375 -0.09401474 -0.854887 -0.10867982 -0.06953539 -1.8233316 -1.1486845 -0.39588213
-0.86577463 -0.13316667 -0.5713464 -0.09510389 -0.10203802 -0.09026156 -0.09652338 -0.89611787

weight f4 [6, 256]
00000000: 1f70 143d 27f1 debc 2d3a c5be 5792 713e
00000010: 9ff3 783d 22a7 fbbc 9124 30be 9e17 fc3d
00000020: 1bfa fbbd 73a6 233c 0e88 d03c 7efe c43c
00000030: 9cee 163c 549c 533f 07fc deba 1f07 f7bc
00000040: 4586 4fbd 6ed7 923c da38 87bd b613 ad3c
00000050: 1ed2 643c 8544 fd3d 89f4 d4bc 79d9 b7be
00000060: bce8 9f3e 69ee df3e e198 1abe e213 a73d
00000070: 2c45 f13e ec6c 5bbe 77f5 14bd a825 423f
00000080: 34c8 9a3c 75a6 97be 7a5d db3d d140 f33e
00000090: a1a9 ad3e 35b1 1c3e 1a79 28bd c8b5 87bc
000000a0: 7a91 9a3c 35aa 6e3e 85f0 adbd d7c5 82bd
000000b0: fa30 b2be f4e8 b9be d92a 99bd 138b bbbe
000000c0: 60d1 bfbd d8ac 42bd 26f2 febc 4ade 043e
000000d0: 9b83 82bc 2e96 453d af0f b93e b3b5 ac3e
000000e0: 1448 64bd 5c25 f3be cdd3 d5bc 4f58 11bd
000000f0: 05d1 e7bd 2cb9 a6bd 74a1 5ebe 8eb6 103e
00000100: 495b 323e 8dae cd3e e7ff 8ebc 8326 b6bd
00000110: 26e0 bebe 006c f0bb 88ac 12be fed2 84bd
00000120: 6cd0 0fbe b2ea 45be 7c8c db3c f44f 9f3d
00000130: 0668 9abc 540b cabc c958 82be 796a 4abd
00000140: 2234 cd3d f25f ecbd 6b5c c93e 3980 663e
00000150: fd69 dabd d694 733d 4461 8ebe 008f 4c3d
00000160: ed1e 1c3e f885 f6be fdde d4bd 5398 59be
00000170: e859 9cbc 3056 2eba a980 423e bb03 7abd
00000180: ab5b 5cbd 9482 ca3c 1c1a 0c3e d364 133e
00000190: 3e5f 34bb 78e5 8abd 8c36 393c 086e 3fbe
000001a0: 0b17 ecbd ff7c acbc dc60 b4bd afca 88ba
000001b0: 1350 3ebd 0ba2 013f a3ba 15be b05b 7bbe
000001c0: 6440 96bd 0c9c d83e a4dd 1a3f 3776 cdbd
000001d0: 59ae d53f 29fc 8b3e bda0 5e3d 5d90 bbbd
000001e0: 7470 2b3f 9918 a73e b285 ccbc 4d8f 4ebe
000001f0: 1229 79be 6857 033e f2be 0fbc 2d88 8a3e
00000200: 13f0 393e d85a 8a3f b380 8dbe a4ec 3a3d
00000210: eff3 1dbd 22da b3bb dd26 3d3d 06f9 7cbd
00000220: ecb5 40be d339 803d 578c f7bb ff3d 75bd
00000230: e436 c6bd 7eaa b13d 69be 5a3d 69ad aebe
00000240: 69e1 d2be 264f 82bd f291 cfbc f82b 9ebd
00000250: 74cc debd a4b3 90bd 7da5 b2bd 607c 903d
00000260: f4e9 18bd a8cf c23e 3274 80be 7383 d0bd
00000270: 72ac 063d d110 603d 13f7 7bbd 9261 5c3e
00000280: 2fe8 fe3e 7d5c e13d 18af 9cbc 5a49 40be
00000290: de0c fc3d 60b4 633d 8e4c 06bd 135e 953c
000002a0: 1478 e53c 81e4 debc 49e8 fd3d 6311 11be
000002b0: 61eb 63bd bf10 913d 2789 dfbb 82ca ba3d
000002c0: d27e 47bc b97a 08bd 8f12 123b 1e7d 173e
000002d0: 4f87 253d e3a3 6bbd ecc8 033f 7476 843d
000002e0: ce24 423d e7e7 a7bd 02ef 12bd b40a 423e
000002f0: 6c19 8ebd 52a4 cabe 1e4e 0ebe 10f6 a23b
00000300: 82a9 2fbd 5142 88bc 7287 f73e 4aa7 9fbd
00000310: 10b1 493c b749 0d3f 5a5f 8e3c c4b9 683e
00000320: 93fd dabd 24bc a33d 6bef b0bd e56f 08be
00000330: a156 cbbe 8d5d 1cbd 1f8e 893e 3627 49bd
00000340: 615b 873c 38f3 133c 6a0e 0f3f 5d0d dc3d
00000350: d21d a0bc d79e 4a3c e32a 38bd 9315 4c3d
00000360: 9dba c13e 0f90 0d3d ef70 4f3d 5c29 e9bc
00000370: a966 2dbe d850 03bd dbc3 143c a313 9cbd
00000380: a431 aebe da8f 173d 8d7b 2fbb 99cf 1c3b
00000390: 16e8 153a ffdc 91bc 7bfb ac3d 8020 3cbd
000003a0: fb36 973c 52b0 0a3d 35bc df3e b91b 5bbe
000003b0: e929 143f 0068 dabe d47d 3dbe 6a3a e1bc
000003c0: 77bb 953e 53b8 e3ba d97f d53e 37f1 d03c
000003d0: 914f f2ba ad2b 3bbe 9845 09bf ec26 d2bd
000003e0: 1f52 253e 6488 5f3d 10d0 433e 9f10 a53d
000003f0: 4f4c 0fbc 2324 393d 1a7f 89bd f05c bfbc
0.03623974 -0.0272146 -0.38520947 0.2359098 0.06077921 -0.030719344 -0.17201449 0.12309192
-0.12303563 0.009988415 0.0254555 0.024047133 0.009212162 0.8266041 -0.0017012366 -0.030154763
-0.05066516 0.01792499 -0.066026405 0.021127563 0.0139661115 0.12366585 -0.02599551 -0.35908106
0.3123225 0.4373658 -0.15097381 0.08158089 0.47123086 -0.21428269 -0.036366906 0.7583871
0.018894292 -0.29619184 0.107111886 0.47510388 0.3391848 0.15301974 -0.041131116 -0.016566172
0.018868197 0.23307116 -0.08493141 -0.06385391 -0.3480299 -0.36310542 -0.07478876 -0.36629543
-0.09366107 -0.047528118 -0.031121325 0.12975422 -0.015931895 0.048238926 0.36144778 0.33732376
-0.0557328 -0.4748944 -0.026101971 -0.03548461 -0.11319164 -0.081407875 -0.21741277 0.14132139
0.17417635 0.40172234 -0.017456008 -0.08894064 -0.37280387 -0.0073370934 -0.14323628 -0.06485556
-0.1404435 -0.1932781 0.026800387 0.07778922 -0.01884843 -0.024663605 -0.25458363 -0.049417946
0.10019709 -0.115417376 0.39328322 0.2250985 -0.10664747 0.059468113 -0.27808583 0.049941063
0.15246172 -0.48149085 -0.10394094 -0.21249513 -0.01908584 -0.0006650416 0.18994392 -0.061038714
-0.05379836 0.024720468 0.13681835 0.1439393 -0.002752259 -0.06782049 0.011304509 -0.18694317
-0.115278326 -0.021055697 -0.08807537 -0.0010436381 -0.046463083 0.5063788 -0.14621978 -0.24546695
-0.073365 0.42306554 0.60494447 -0.10032313 1.6693832 0.2734082 0.05435251 -0.091583945
0.66968465 0.32635954 -0.024966095 -0.20171852 -0.24332073 0.12826312 -0.008773552 0.2705702
0.18157987 1.0808973 -0.27637252 0.045635834 -0.03856271 -0.00548865 0.04617964 -0.061760925
-0.18819398 0.06261029 -0.0075545716 -0.059873577 -0.09678438 0.08675097 0.053404246 -0.34116676
-0.411876 -0.063627526 -0.025338147 -0.0772323 -0.1087884 -0.07065514 -0.08722971 0.07054973
-0.03733249 0.38049054 -0.2508865 -0.10181322 0.0328793 0.054703537 -0.061514925 0.21521595
0.49786517 0.11003969 -0.01912646 -0.18777981 0.12307142 0.05559194 -0.032787852 0.018233335
0.02801136 -0.027208569 0.123978205 -0.14166789 -0.055644397 0.07083272 -0.0068217698 0.091206565
-0.012176232 -0.033320162 0.0022288894 0.14793822 0.040412243 -0.05752934 0.5147846 0.06467906
0.04739838 -0.08198529 -0.035872467 0.18949395 -0.069384426 -0.3957849 -0.13896987 0.0049731806
-0.042886265 -0.016633185 0.48345524 -0.0779558 0.012310281 0.55190605 0.017379452 0.22727114
-0.10692897 0.07994869 -0.08639415 -0.13323934 -0.3971453 -0.038175154 0.26866242 -0.04910966
0.016523065 0.009030156 0.5588137 0.10744736 -0.01954547 0.012366972 -0.044962775 0.049825262
0.37837687 0.034561213 0.05064481 -0.028462104 -0.16933693 -0.03205952 0.009079899 -0.07620933
-0.34022248 0.037002422 -0.0026776523 0.0023927449 0.00057184824 -0.017805574 0.084464036 -0.045929432
0.018458834 0.03385956 0.43698278 -0.21397294 0.5787645 -0.4265747 -0.18505031 -0.027493674
0.29244587 -0.0017373658 0.41699103 0.025505645 -0.0018486847 -0.1827838 -0.53621817 -0.1026133
0.16144608 0.05457343 0.19122338 0.08059811 -0.008746221 0.04520048 -0.06713696 -0.023359746

bias f4 [6]
00000000: 298f cd3d 638a 3b3e 657e 933d d25a 0fbf
00000010: ed52 873e 1106 f03d
0.10037071 0.18314509 0.07201842 -0.55997956 0.26430455 0.11719907

weight f4 [6, 256]
00000000: b56b 743c 1847 4b3c bcd4 01bd eb9f ca3e
00000010: 1e8b 843d 5bf6 bc3b 9d21 053e 3db4 5b3f
00000020: 371e ff3d a8e7 80bd 8b33 a73a ab25 67bd
00000030: a3a0 80bd d76a b43e 3a56 073f be3e 4c3d
00000040: 5574 a13e d314 71bd 15a9 a93c 4bd9 3c3d
00000050: 26b0 ef3c 90ee a63d 97e1 a1bd 3c99 853e
00000060: ec5b 9e3e 70a8 453e 8472 753b ff97 e53c
00000070: db2b c13d 83e5 4dbb bcdf cc3c 14a5 ea3d
00000080: 7c47 153d 0439 833e e6da 9a3e 9b35 a13e
00000090: c5b4 40bd 7f14 ef3c b45b 9b3d 81de f9b9
000000a0: 521e 923c 0919 143f 376b f63c 05e4 d73d
000000b0: c4f6 a2bd 8184 aabc daca ca3e a894 943e
000000c0: 666b 08bb cb60 a63d b18e 64bc a2e0 9cbd
000000d0: 19f4 91bc a4af dd3d a138 913e 0742 263e
000000e0: 209d 8bbc 1112 c63c e9c0 563c 7dfc 56bd
000000f0: e1d9 423f 81e0 213c 0424 8d3d 654b f33e
00000100: f844 26bd fd73 393f 7edc 0dbe 74fb 003e
00000110: c17b 443e d40f a73b 4b09 343e c1d6 76bd
00000120: 0ff8 983c 6755 43bc 24cd 90bd e261 a23c
00000130: 5f07 e43c ba6b 88bc ffaf 14bc 2973 12bb
00000140: b056 ff3d 5290 8ebd 0eda d83e 9bfb 1d3f
00000150: 85ab d73d 6400 703d 81e6 16bc ae6f 2b3d
00000160: 7d92 b03d c56f d13e 0c90 5b3d 64a1 2a3e
00000170: e524 01bd 037a 9f3d 235e 2a3e df64 dabd
00000180: 3b34 a03d 9948 b5bc 5c7c 283f 4612 093b
00000190: 998e 553b 6ba9 16bd b4f0 ac3d a9b3 5f3e
000001a0: 426d babc bfa1 86bd 615c ba3e bb6a 523f
000001b0: ff32 023f 67ee 2a3e 6c71 aa3e 7dd6 c13e
000001c0: 4453 7fbb 8784 2e3f 6c91 59bc e3fc a53d
000001d0: 3a80 fb3d bf12 9dbd 057a 18bd 8191 583b
000001e0: 9478 003f 59c1 933c 801b 0c3d bb93 22bd
000001f0: 6fed d83c 6269 ab3d c909 af3d 291a 713b
00000200: 1c35 743d af7e 3f3f 497d b93d 9470 c33d
00000210: afd2 9ebc aa23 81bd c447 8ebd 3a7a a13c
00000220: f7cc edbc ea51 b93b 71a7 483c 924a 0c3f
00000230: ea81 f5bc adfa d93d 5560 8c3d 7c9b 20be
00000240: 3c4c a4bd d276 f2bd 335e 7a3e 4805 65bd
00000250: 521a f8bc eae3 2e3e 7008 113f 6b97 c53e
00000260: 3dbc 3b3d e0f2 2f3f 79c7 503d ca71 383e
00000270: d432 7b3d 3d0a 81be 0541 02bd ea5f d03e
00000280: cd12 dd3c 2e9f 5a3f 6e3b 963c 363a 223d
00000290: a238 003f 8cab a93d c63c a6bd 37af 8439
000002a0: eeb5 543d 6ea8 3f3b 3b41 dabb 2c4a 3dbe
000002b0: 3fae 19bb 1611 8c3d 54e9 ce3d 2368 6aba
000002c0: aeca 91bc ea15 68bd 7c10 483d 08b7 f23e
000002d0: 21e6 96bd d4d1 823e ed6a c73d 06ac 48bd
000002e0: 4acc 153e c8f1 6b3d 283a 383e a21c a4bd
000002f0: 1949 3a3d b26d 5a3e ca8a c2bd 7272 3cbe
00000300: b279 a83d 8eda 573c 77c9 e53e d04e 4e3f
00000310: 3eff 9dbc b7e8 813e ab7f 613e b4a9 883d
00000320: 1047 fe3c abe1 f23d 08fd 903c 5857 3fbd
00000330: 80e8 d93d 1d18 503c 6040 c43e cb4d 9ebc
00000340: 6408 9a3d 4e85 d63d dd30 493f 1e22 abba
00000350: 42eb 9f3c a12e 5a3d 5b80 9e3d 3762 f63d
00000360: e3ba ee3e 646a f5bd a900 cc3c c057 813c
00000370: 51f1 16bd c921 87bd 3370 be3c 0497 5fbd
00000380: eb7c 8dbe f297 423d 6b06 5dbc c2d4 35bd
00000390: deeb 15bd da4b 3d3c 599b 86bc f300 0cbd
000003a0: 1de3 0c3c f94d 12bd 70ec 1c3e 2622 0d3e
000003b0: 9d91 9f3e 7bf1 dd3b 2f3b 243d 43d7 f43c
000003c0: c994 ecbc 897d 2d3c 417f 193e 192e 24bd
000003d0: a927 a43c 1b0d 163e 5c2f 7d3e 277f ab3e
000003e0: 9db6 7cbd 1475 29bd 48d4 5b3e a68b b63c
000003f0: f818 3a3d 1af9 423d f8ce b3bc 244a 053d
0.0149182575 0.012407087 -0.03169702 0.39575133 0.06471847 0.0057666725 0.13001104 0.85821897
0.12456935 -0.06294185 0.001275645 -0.056432407 -0.06280639 0.35237762 0.52865946 0.049864523
0.31534067 -0.05885775 0.020710507 0.046105664 0.029258799 0.08150971 -0.07904356 0.2609347
0.30929506 0.19302535 0.003745229 0.028026579 0.09432193 -0.0031417317 0.025009029 0.114572674
0.036445126 0.25629437 0.3024513 0.3148621 -0.047047395 0.029184578 0.0758585 -0.0004765876
0.017836723 0.578507 0.03008042 0.10541538 -0.07957223 -0.020815136 0.39607888 0.29019666
-0.0020815968 0.081239305 -0.013950036 -0.07660033 -0.01781659 0.108245164 0.28363517 0.16236125
-0.017042696 0.024178537 0.013107517 -0.052486885 0.76113707 0.009880186 0.06891635 0.4751846
-0.040593117 0.7244261 -0.13853642 0.12595922 0.19187833 0.0050983224 0.1758167 -0.0602634
0.018672971 -0.011922217 -0.070703775 0.019822065 0.027835546 -0.01665293 -0.009075164 -0.0022346473
0.12467706 -0.06961121 0.42353863 0.61712044 0.10530762 0.058594123 -0.00921023 0.041854553
0.086216904 0.40905586 0.05360417 0.16663128 -0.031529326 0.07786944 0.16637473 -0.10663771
0.07822462 -0.022129344 0.6581476 0.0020915433 0.0032586216 -0.036782663 0.08444348 0.21845879
-0.022757176 -0.06573819 0.36398605 0.8219411 0.50859064 0.16692506 0.3328966 0.37858954
-0.0038959542 0.6817097 -0.0132793 0.08104875 0.12280317 -0.07669591 -0.037225742 0.0033045711
0.5018399 0.018036531 0.034205914 -0.039691668 0.026480405 0.083697096 0.08546788 0.0036789274
0.05962096 0.7480268 0.09057099 0.09542957 -0.019387571 -0.063056305 -0.06947282 0.019711602
-0.029028399 0.005655517 0.012246952 0.54801285 -0.029969174 0.10643516 0.068543114 -0.15684313
-0.08022353 -0.118390694 0.24449997 -0.05591324 -0.030285988 0.1707913 0.566535 0.38592085
0.045833815 0.6872997 0.050971482 0.18012157 0.06132777 -0.25203124 -0.03180029 0.40698177
0.026986504 0.8539914 0.018338885 0.039606296 0.50086415 0.08284673 -0.0811706 0.00025307547
0.051931314 0.002924468 -0.006660608 -0.18485326 -0.0023449806 0.068391964 0.101030976 -0.0008941909
-0.01779684 -0.056661524 0.048843846 0.47405267 -0.07368112 0.2555071 0.09737191 -0.04899218
0.14628711 0.057603627 0.17990935 -0.08013274 0.045479868 0.21330908 -0.09499128 -0.18403032
0.082263365 0.013174666 0.44880268 0.8058901 -0.019286748 0.2537286 0.22021358 0.06672993
0.031039745 0.11859449 0.01769878 -0.046714157 0.10640049 0.012701062 0.38330364 -0.019324204
0.07521132 0.104746446 0.78590184 -0.0013056432 0.01952136 0.053267125 0.077393256 0.12030452
0.46626958 -0.11983183 0.024902659 0.015788913 -0.03685123 -0.06598241 0.02324686 -0.05458738
-0.27634367 0.047508188 -0.0134903 -0.044392355 -0.036601894 0.011553729 -0.016431497 -0.034180593
0.00859907 -0.03571889 0.15324569 0.13782558 0.31165782 0.0067731715 0.040095504 0.029887801
-0.02887954 0.010589012 0.1498995 -0.040083025 0.020038443 0.14653437 0.24725097 0.33495447
-0.06169759 -0.04137142 0.21467698 0.022283386 0.04543397 0.047600843 -0.021949276 0.03254141

bias f4 [6]
00000000: a4cd a6be e7ec d6be 0e93 3ebe 45fc 12bf
00000010: ee16 babe 96a6 53be
-0.32578766 -0.41977617 -0.18610784 -0.5741618 -0.3634562 -0.20669016

weight f4 [256, 32]
00000000: b746 03c1 11ec 273e 2027 113f 93a5 4f40
00000010: 2aac 973d ff75 30bc 6bf1 03be a0c4 fd40
00000020: d0f1 2bc0 770e d4be fb0c aa3f ea0c 3e3d
00000030: a095 31c0 7320 343f 06cf bfc0 fee0 ccbf
00000040: 86da 08c0 eb39 1abf 6b4f bc3f e97b 1c3e
00000050: 912a ae3f 55df 2b3e ad04 06be f885 3c3e
00000060: f052 bc3c b4b9 0b3d 840c 5bbe 01a1 26bf
00000070: bf42 8fbe a490 a8be fca4 6ebf 4b7a 8bbf
00000080: ecf9 fbbe be36 13be 25d6 bdbe 3f21 a1bf
00000090: a4d7 eabd d102 ae3f 0010 303b a01c 253f
000000a0: 0502 30bf 5130 9fbf 4189 51bf ac13 22bf
000000b0: 7150 293f 7dce 513e 26df 88be 5809 863f
000000c0: 6f40 4140 a009 873f 0bf2 a13f d245 70be
000000d0: 76ec 903f 1103 0b3e 65cf dabd d35d b53f
000000e0: 7433 ecbd 4895 25bd df94 9abe 9ef0 563d
000000f0: 0c29 ad3e 1728 bfbe 963a 003f 56ab e93d
00000100: 93c2 a440 e2b3 e5bd 4a4b 813f f537 14bf
00000110: 0046 68bb 8750 8140 1ca0 003d 3e99 0fc0
00000120: 507b f4bb 0ccd 3340 f285 95bf 2cd9 573f
00000130: 7ce8 70bf f57d 2dbe e943 28c0 7686 d53f
00000140: 146b bd3f 1a3b 163f ac3f 3b3e e7f5 88bf
00000150: aaea c73f bc27 0dbd 6433 1c3d 8d1d 4b3f
00000160: 3c93 ccbd 6dc1 023e b0d8 123d 7a20 843e
00000170: 257b 5d3b 517b 09c0 4935 993e 540b 4c3e
00000180: 14a3 463f 8c63 27be 9b87 14be b92b babf
00000190: cb60 1a3e 7f8f 42c0 54bb 0dbd ca47 46c0
000001a0: 23d2 023f 27cf 1840 1c47 d5bd b921 f33e
000001b0: 0302 ab3b 70d7 71be c7ce afbf a365 87c0
000001c0: 2d8b 6dbf 7ece 25c0 7ea5 fabe 175d 363f
000001d0: 3944 f6bd e7ed 9dbd 0eca 0cbe 350f 9e3e
000001e0: 58ef 553d 00d7 43bb f4f6 ca3d d644 53be
000001f0: 446a 26be e192 d0bd 3819 8abf fc82 253f
00000200: 7134 e7c0 7260 d13d 4bc0 e53e 5c77 9b40
00000210: b6e7 b63d dddc 1740 a08d 07bc ebdf c840
00000220: 8f46 e4bf c2b0 dbbe 9b18 afbf ce04 973e
00000230: 3269 90bf 7474 61bf f5a0 07c0 f84e b8bf
00000240: f173 b1bf 54eb 2dbf c9eb 783f 3289 6dbf
00000250: 7afa bc3f 3427 bfbd 6a3c 17be e00a 883f
00000260: a0d0 fd3b 238b b2bd 618f 3ebe 9e01 6fbe
00000270: 0782 4abf 0275 eabe a875 803e 6f2d 7abe
00000280: 1cf7 dfc0 7828 553d c9a1 a83f b1a8 91bf
00000290: 2d31 09be 49cd 83bf 821c 8b3d ad5f e840
000002a0: 895d ef3f 1376 8e3f 9f75 0e40 099c 4d3f
000002b0: 7c47 9cbe 6376 4a3e 4016 55c0 f506 d3bf
000002c0: b1ad 04c0 5422 51bf f1e9 fcbe e7f4 afbe
000002d0: f43e eb3f 0393 193e 6622 f93d 564f bf3e
000002e0: 4b64 323e cb74 cabd b78b 83be 357d 403e
000002f0: ed37 3e3d caa1 55be 2f27 31be 788c 61bd
00000300: 0731 15bf 4064 f0bb 2acf c53a 611b 2fbf
00000310: e2fa 1fbe 05b3 0a3f d4e0 823d 6ca0 7fbf
00000320: 4553 0bbe 6f5e b8bf 1c45 0140 ce41 ea3f
00000330: 0410 ce3f 691a c83e e05b 653f 0424 d4bf
00000340: 34d7 f7bf 275c 1abf e2a0 11c0 af87 47bf
00000350: 24d6 e23e 53a4 2e3e c7bb 1d3e 9667 17be
00000360: 78d9 03be d594 15be 9e12 b4be d823 993f
00000370: bc5e 873f 2d98 9dbe 34c7 00be 1e81 ce3f
00000380: debc edbf 98f1 8ebd a176 0540 aa11 9e3e
00000390: 6ad5 f93d 9c7c 0d40 6c4b dabd bbe1 debe
000003a0: d3c5 30be 1745 4a3e d662 93be ae19 e53e
000003b0: 8850 083d b1e5 2c3d 50cb e13d 7d29 ab3f
000003c0: 093f a1bf 574f 9a3f eaac 84bf d9ac e03e
000003d0: 8e6b 10c0 d47b 0cbd c086 7dbc ee6b 4fbc
000003e0: 3cb0 823d 82fb f03d 4683 b43c b171 2d3c
000003f0: 97ce 303c 292b 513c 497d b43d cfbd 7d3b
-8.204764 0.16398646 0.56700325 3.2444808 0.074058846 -0.01077032 -0.12885062 7.930252
-2.686634 -0.41417286 1.3285211 0.046399035 -2.7747574 0.70362014 -5.9940214 -1.6006162
-2.1383376 -0.60244626 1.4711736 0.15281643 1.360674 0.16784413 -0.13087721 0.1841048
0.022988766 0.034112647 -0.21391493 -0.6508942 -0.2798061 -0.32922852 -0.93220496 -1.0896696
-0.49214113 -0.14376351 -0.37077442 -1.2588271 -0.114669114 1.359461 0.0026865005 0.64496803
-0.6875308 -1.243662 -0.8185006 -0.63311267 0.6613837 0.20488925 -0.2673275 1.0471601
3.0195577 1.0549812 1.2651991 -0.23464134 1.1322162 0.13575388 -0.106840886 1.4169258
-0.115332514 -0.04042557 -0.30191705 0.052475564 0.3382038 -0.37335274 0.50089395 0.11409633
5.1487517 -0.112159505 1.0101101 -0.57897884 -0.0035442114 4.04108 0.031402692 -2.2437282
-0.007460989 2.80939 -1.1681502 0.84315753 -0.94104743 -0.1694258 -2.629145 1.6681659
1.4798303 0.5868393 0.18286008 -1.0700043 1.5618489 -0.03446172 0.038134947 0.79341966
-0.0998902 0.12769099 0.03585118 0.25806028 0.0033795324 -2.1481516 0.29923466 0.19926196
0.7759259 -0.16346568 -0.14504854 -1.4544593 0.15075986 -3.0400083 -0.03460248 -3.0981317
0.51101893 2.3876436 -0.10413954 0.47486666 0.0052187457 -0.23617339 -1.3734978 -4.231157
-0.9279049 -2.5907283 -0.48954386 0.71235794 -0.12024731 -0.07711392 -0.13748953 0.30870977
0.05223021 -0.0029882789 0.09910384 -0.20631728 -0.16251475 -0.10184265 -1.0788946 0.6465299
-7.2251515 0.102234736 0.4487327 4.85832 0.08930914 2.3728554 -0.008273512 6.2773337
-1.7834033 -0.42908293 -1.3679384 0.29495853 -1.1282103 -0.8806832 -2.119199 -1.4399099
-1.3863508 -0.6793721 0.9723478 -0.9278747 1.4763939 -0.09333649 -0.1476914 1.0628319
0.0077458173 -0.087179445 -0.18609382 -0.2334046 -0.79104656 -0.45792395 0.25089765 -0.24431394
-6.9989147 0.052040547 1.3174373 -1.1379606 -0.13397665 -1.0297023 0.06792547 7.261679
1.870042 1.1129783 2.225929 0.80316216 -0.30523288 0.19771723 -3.329483 -1.6486498
-2.0731013 -0.81693006 -0.49397233 -0.34366533 1.8378587 0.14997487 0.12164764 0.37365216
0.17421071 -0.09885558 -0.2569253 0.18797763 0.046440054 -0.20862499 -0.17300104 -0.055065602
-0.58277935 -0.0073361695 0.0015091647 -0.6840115 -0.15623048 0.5417941 0.06390539 -0.9985416
-0.13605984 -1.4403819 2.019843 1.8301332 1.6098638 0.3908265 0.89593315 -1.6573491
-1.936255 -0.60296863 -2.2754445 -0.7794141 0.44304 0.17054872 0.15403663 -0.14785609
-0.12875926 -0.14607556 -0.35170454 1.1964064 1.0575786 -0.30780163 -0.1257599 1.6133153
-1.8573263 -0.06979674 2.0853655 0.30872852 0.121989086 2.2107306 -0.10658917 -0.43531594
-0.17262964 0.19752918 -0.28786343 0.44746155 0.033279926 0.04221124 0.11025107 1.3372036
-1.2597362 1.2055463 -1.0365269 0.43881872 -2.2565646 -0.03429778 -0.015474021 -0.01266001
0.0638127 0.11766721 0.022035252 0.010586188 0.010791442 0.012766638 0.08812959 0.003871787

bias f4 [256]
00000000: 3577 293f a1d8 1abf dd4f 483f ef81 cebe
00000010: 9f97 133f 24f9 c23f e727 793d 6597 0340
00000020: 51e5 91be f02d 6dbf b08b b43f 4c87 163d
00000030: 243f 483f 570f 163c 9eed 493e 30a3 ecbb
00000040: c63a 5a40 9825 4040 ae62 5f40 499c 3b3f
00000050: 7f46 923f 5bae 0e3f 216f 0fbf a74a 163f
00000060: a1c5 bc3f c292 f6bf 66d7 413f f894 1d3f
00000070: 27df 70bf 81a3 09bf 4438 41bf 2edc 52be
00000080: 05c2 c0be 97cc 7dbf fc9b 18be b9cf b63f
00000090: eee2 4340 dd16 8b3f ae11 e9bf 2397 51bc
000000a0: 3090 abbe db69 b03f d6a9 923f aa01 803f
000000b0: 92ef 223f d4b9 70bf 88a6 8e3e 067c 313f
000000c0: d404 ebbe 8d9a f6be 02b6 ab3e 46c2 27be
000000d0: a47f 143f e6e2 653f dd24 603f 71d8 333f
000000e0: 79f6 243f d8f1 38be 91ad 8f3d 6306 35bf
000000f0: b0f5 98be f7b6 23bf 04e7 613f 4312 023f
00000100: 3036 f5bd 073c 2b41 e585 34bf 083b f1bd
00000110: a170 223e db3a 193e e269 fe3e 7351 303f
00000120: 4788 6d3f 63a8 4bbf cd0f 32bf 312e 853e
00000130: 14c5 763e 1a9b 1ebf 4a6d a4be 0062 ab3f
00000140: be57 0abf f771 d5be 09e2 4f3e d30e ab3f
00000150: 45cb 98bf 3ea9 d9bd 370a 86bf acc6 92be
00000160: ba97 94bf b571 83bf 166b 573c b39a bcbe
00000170: 6521 cb3c 687f 80bf 1d1b 41bf b1c4 533f
00000180: e167 f6be 5eee 54be 32d6 573f 926f cebe
00000190: cad5 873d d3c8 19bf 86d6 0ebf 14ea 9dbf
000001a0: 6e43 94be 2b67 1ebe 952f 913f 2b93 3b3e
000001b0: 0ac1 95be 7f44 383a f73a fc3d b86e 2f3f
000001c0: 36a2 583d 98b0 fdbe d565 45bf fd14 33bf
000001d0: d432 953f 25eb 35be 70ab dcbe 967b 593f
000001e0: 75fd a8bf d1c9 ac3f 719a d03d f9fb 013f
000001f0: 66ae c23e 6326 993f e032 d83f 7a0f 19bf
00000200: 625c 74bf 299a 9b3f 755b b43f 5e75 4d3f
00000210: 5231 b93d 649e 23bf d1c6 7b3f f625 853f
00000220: 64c4 86bf 8d5a bc3e f622 0f3f 6258 eebe
00000230: 560d ac3f a4ab 2040 0092 d33e 3f6a b7be
00000240: 41e4 ddbc c15d 1ebe 50cb 54be a8e1 3940
00000250: 69a4 1f3e b158 1dbe 7d25 983f edad b3be
00000260: 4428 fb3e da1f 873f 5fdd de3f 24c8 5e3d
00000270: 0b8b 24bf 1077 e5be 1de9 39bf a1e8 6f3f
00000280: 5f3e c33f cf02 7c3f f41a 3e3e 35f8 763f
00000290: 9396 433f 4977 79bf d535 a4be 7dec 8bbe
000002a0: 1d1d 0640 433c 3abf 1412 28bf e35e ad3f
000002b0: 4cd2 c63f 6970 8dbf b100 603f c946 3840
000002c0: 3a9f 063f c71a 553f f979 69bf 95c4 a4be
000002d0: 592e 57bf 236b 07c0 6314 e43e c8c3 ecbe
000002e0: 5ff6 9140 0828 e5bd 00ca 2f40 c8d7 86bf
000002f0: d9a2 e63f 5947 fa3d a894 9bbf f440 9e3e
00000300: 93d0 e53d 9dae d03d dfae a23e 11a1 bfbe
00000310: 1b0b 3a40 9862 04bf c25d ecbd 7b4e 3d3f
00000320: 1555 513d 8d79 a3bf 9e57 983f a602 87bf
00000330: fb07 083f d026 203d 400e 9f3e 9011 1440
00000340: f516 213e d803 aabe 8f0b 923d 805c a8be
00000350: bd2e 1c3f cb2a eebd 5b06 913f a73e 9b3e
00000360: d8db 073f c606 df3e cf13 1f3f 71e5 933b
00000370: c9a2 31bf a5fb edbd 75a8 a13f aa7e d53c
00000380: 235d 8dbe 0f07 92bf afa2 5cbf 510f f8be
00000390: 8b2a efbd 40b6 7b3e a9f8 eebb 6b5c 8f3e
000003a0: d5c9 82bf f6c8 53bf 03a6 7f3e c91d ae3e
000003b0: 2818 963f fb08 443f f61a cf3e 9e49 42be
000003c0: b558 a7be 9b53 da3e 200a 723e 5e06 44bf
000003d0: a74a 373e 91b1 563e 2740 363d 2fd5 c23f
000003e0: a213 fd3e 7d4d 133e 1028 a4bf 505b 63bf
000003f0: 628b f23e 0a92 a8bd 5483 173f a51f 0ebe
0.6619752 -0.604868 0.7824686 -0.40333506 0.5765323 1.5232282 0.06082907 2.0561154
-0.28495267 -0.9264822 1.4105129 0.036750123 0.78221345 0.009158931 0.1971955 -0.007221602
3.4098372 3.0022945 3.490398 0.7328535 1.1427764 0.55734795 -0.56028944 0.5870766
1.4747812 -1.9263537 0.75719297 0.61555433 -0.94090503 -0.5376511 -0.7547648 -0.20591804
-0.37648025 -0.99140304 -0.14903253 1.4282142 3.0607257 1.0866352 -1.820852 -0.012792381
-0.33508444 1.3782305 1.145808 1.0000508 0.63646805 -0.9403355 0.27861428 0.6932987
-0.4590212 -0.48164788 0.33537298 -0.16382703 0.58007264 0.89799345 0.8755625 0.7025214
0.6443859 -0.18061006 0.07015527 -0.7071287 -0.29874945 -0.6395106 0.88243127 0.50809115
-0.11973226 10.702155 -0.70516807 -0.117788374 0.15863277 0.14963858 0.49690157 0.6887428
0.9278607 -0.7955381 -0.6955536 0.26011804 0.24098617 -0.61955416 -0.3211463 1.3389282
-0.54040134 -0.4168851 0.2030107 1.3363899 -1.1937033 -0.106279835 -1.0471867 -0.286672
-1.1608803 -1.0269076 0.01314809 -0.36836776 0.024796197 -1.0038881 -0.75431997 0.82722
-0.48126128 -0.20794055 0.8431121 -0.40319496 0.06632574 -0.6007206 -0.55796087 -1.233706
-0.28957695 -0.15469043 1.1342646 0.18317859 -0.2924884 0.00070292497 0.12315934 0.6852832
0.05288907 -0.49548793 -0.7710851 -0.699539 1.1656137 -0.17765482 -0.43099546 0.849542
-1.3202349 1.349909 0.10185707 0.50775105 0.3802368 1.196484 1.6890526 -0.5978924
-0.95453465 1.2156421 1.409041 0.80257213 0.0904261 -0.6391356 0.98350245 1.040221
-1.0528684 0.36787835 0.5591272 -0.46551806 1.344157 2.510476 0.41322327 -0.35823247
-0.027086379 -0.15465452 -0.20780683 2.904398 0.15590061 -0.15365864 1.188644 -0.35093632
0.49054158 1.0556595 1.7411307 0.054390088 -0.6427466 -0.448174 -0.7262133 0.9371434
1.5253409 0.98441786 0.1856497 0.96472484 0.76401633 -0.9744764 -0.3207232 -0.27328864
2.095527 -0.727482 -0.65652585 1.3544582 1.5532928 -1.104993 0.87501055 2.8793204
0.5258671 0.83243984 -0.9120174 -0.3218123 -0.84055096 -2.115914 0.44546804 -0.4624312
4.5613246 -0.11189276 2.746704 -1.0534601 1.8018447 0.1222064 -1.2154741 0.3090893
0.11221423 0.10189555 0.3177404 -0.3742757 2.9069278 -0.5171294 -0.115413204 0.73947877
0.05110653 -1.2771469 1.1901739 -1.0547683 0.5313718 0.039099514 0.3106556 2.313572
0.15731414 -0.33206058 0.07131111 -0.32883072 0.61008817 -0.11629256 1.1330065 0.30321237
0.5306983 0.43559855 0.621396 0.0045134355 -0.69389015 -0.11620263 1.2629534 0.026061375
-0.2761012 -1.1408404 -0.86185735 -0.48449185 -0.11678036 0.24581242 -0.007292826 0.28000197
-1.0217844 -0.8272852 0.24965672 0.340071 1.1726122 0.76576203 0.40450257 -0.18973395
-0.32684866 0.4264191 0.23636675 -0.76572216 0.17899571 0.20966174 0.044494774 1.5221308
0.4942904 0.14385028 -1.2824726 -0.88811207 0.47371966 -0.0823098 0.59184766 -0.13879259
