data/HalfCheetahPyBulletEnv-v0_sac_grad_False/HalfCheetahPyBulletEnv-v0_sac_grad_False_s0/pyt_save/model.pt (torch_old, 906014 bytes, 18 tensors)

weight f4 [256, 26]
-1.0863831 0.10520525 -0.34078282 -1.659593 -0.075534984 -0.85365075 -0.0038856864 1.3083086
-1.2092578 -0.16088441 -0.2312309 -0.6196038 -0.20074074 -0.03293639 -1.5179932 0.26798046
-1.0202423 -0.78092587 -0.40827936 0.03961237 0.66675144 0.16285248 -0.040360734 -1.7442695
-0.031610653 0.020751849 -0.10224033 -0.18193112 -0.6157763 -2.8509042 -0.07644606 1.3205241
-0.1271185 -0.108426146 0.61338884 -0.23022366 -0.51252526 0.0802698 0.33890072 -0.17518914
-0.36574286 0.18270797 0.13256148 -0.55094415 -2.4001226 -0.45241535 0.90184957 0.11498706
-0.086976536 -0.42746308 0.12542818 0.19496556 1.7596462 0.026493892 -0.8048103 0.5785594
0.036545068 0.41918778 -0.13592538 -0.14128377 0.55248404 0.31723446 -0.26502678 -0.22606204
-0.43395084 0.3167921 -0.76620907 -0.35787517 -1.4543643 -0.109676465 -2.5413353 -0.48115295
-0.8885655 0.1624919 0.1706617 -1.4720485 0.039029956 -0.17053919 1.8641411 -0.1226913
-0.5112491 0.6364097 0.14911883 -0.19540137 0.03670746 -1.6420836 -0.817775 -0.8109189
0.05303104 0.3393442 0.595545 0.19451329 -0.06200869 0.058830913 -0.83886737 0.13164833
-0.30834118 -0.3449675 -0.3095844 -0.1129275 0.18449612 0.60336626 -0.085511565 -0.04935944
0.42079195 -0.0035250187 -1.5362397 -0.29827 -0.01080592 1.6836478 -0.08031549 -0.1470578
-0.710174 0.17829062 -0.950159 -0.96076024 -0.20316687 -0.6543127 0.88161546 0.3299218
-0.49099842 -0.23072626 -1.142135 0.92674595 -1.6920696 -0.11623935 -0.049093723 0.50942856
-0.06860797 -0.16074103 0.57227486 0.041921094 -0.98511696 -0.48704803 0.1403899 0.0069182566
0.005450502 -0.36973065 0.66727227 -0.44570562 0.6341517 0.60931367 0.95376104 0.5888891
-1.4302603 -0.40636513 0.30392924 -0.06901912 -0.07872517 0.19216172 -1.7462859 -0.16552363
-0.03977956 -0.35030383 0.10602842 -0.18914065 0.33597976 -0.15346272 -0.34837773 -1.426079
-0.037774965 -0.4075113 -0.1759848 -3.1227446 0.03743076 0.32347372 -0.9712697 -0.5483543
-0.47442743 0.47436687 0.40770185 0.44486147 -0.10810512 -0.14467199 -1.2886242 0.8112671
0.27124316 -0.087547585 0.1568249 0.070978776 0.021044225 -0.04106058 2.1652339 0.054744735
-0.13143425 1.1790773 -0.04716097 -0.84627223 -0.16161567 0.084721275 0.017157346 -0.37358084
-0.18909296 0.012222428 0.14782092 -0.20376529 1.7372364 -0.05160678 0.49368808 0.29827702
0.58315617 0.35922247 -2.323729 -0.13463613 -0.113877095 0.06830254 -0.07049689 0.16542174
-0.99345493 0.024833411 -0.48422015 -0.60078883 0.024605975 -0.9855659 -0.0013779998 1.873397
-0.19523636 0.35583195 0.17205247 -0.09035248 0.54691947 -0.035267696 0.30239412 0.12099972
-2.114369 -0.62738264 -1.0915396 0.032884505 1.0910857 -0.029042318 0.0021451712 -0.3840218
0.024482906 0.17565982 0.52888036 -0.123987354 0.14819841 -1.4098172 -0.08311895 -0.19831866
0.06475599 -1.0531859 -1.1344461 -0.48873323 -0.7037522 -0.8548986 -0.29662478 -0.32913968
-0.40479177 -0.2652463 -0.64017665 -0.27184135 -0.39452145 -0.62897795 -0.6548226 -0.072531365
00000000: 9a0e 8bbf da75 d73d 167b aebe 8b6d d4bf
00000010: 16b2 9abd db88 5abf 00a7 7ebb a876 a73f
00000020: f6c8 9abf e2be 24be cbc7 6cbe 5b9e 1ebf
00000030: fb8e 4dbe 4fe8 06bd 9a4d c2bf bc34 893e
00000040: 4d97 82bf c2ea 47bf fe09 d1be 9540 223d
00000050: 39b0 2a3f cdc2 263e 4c51 25bd 3944 dfbf
00000060: 2c7a 01bd c8ff a93c 6163 d1bd 274c 3abe
00000070: 84a3 1dbf 3775 36c0 c08f 9cbd ef06 a93f
00000080: 5a2b 02be 870e debd 0d07 1d3f c0bf 6bbe
00000090: db34 03bf 7e64 a43d 6584 ad3e c864 33be
000000a0: a642 bbbe cc17 3b3e 32be 073e ad0a 0dbf
000000b0: 9c9b 19c0 fca2 e7be 9ddf 663f 567e eb3d
000000c0: c120 b2bd 71dc dabe 3f70 003e 0da5 473e
000000d0: 163c e13f b809 d93c 0c08 4ebf 781c 143f
000000e0: 48b0 153d c89f d63e 0630 0bbe b1ac 10be
000000f0: 986f 0d3f 8e6c a23e 97b1 87be cf7c 67be
00000100: ce2e debe 9332 a23e 4726 44bf 6a3b b7be
00000110: 9c28 babf 0e9e e0bd 3da5 22c0 ae59 f6be
00000120: 0779 63bf 4764 263e f1c1 2e3e 166c bcbf
00000130: e0dd 1f3d d3a1 2ebe 2d9c ee3f 9445 fbbd
00000140: 39e1 02bf bfeb 223f 9bb2 183e 4c17 48be
00000150: 905a 163d cc2f d2bf b459 51bf 6298 4fbf
00000160: 1337 593d 86be ad3e a375 183f 7e2e 473e
00000170: d3fc 7dbd aff8 703d 03c0 56bf d2ce 063e
00000180: e5de 9dbe 959f b0be d981 9ebe 8846 e7bd
00000190: 8dec 3c3e 3676 1a3f b020 afbd 202d 4abd
000001a0: 0b72 d73e 0004 67bb 81a3 c4bf d8b6 98be
000001b0: 500b 31bc c581 d73f 737c a4bd 5296 16be
000001c0: f7cd 35bf d191 363e 9f3d 73bf 62f4 75bf
000001d0: fa0a 50be 0981 27bf 8db1 613f 83eb a83e
000001e0: 2564 fbbe 8143 6cbe 7b31 92bf 393f 6d3f
000001f0: bd95 d8bf e50e eebd 8016 49bd e969 023f
00000200: 5682 8cbd 4c99 24be 9b80 123f 74b5 2b3d
00000210: a030 7cbf 5c5e f9be 5fc2 0f3e 8bb2 e23b
00000220: 209a b23b 564d bdbe 5bd2 2a3f 8733 e4be
00000230: c457 223f fbfb 1b3f af29 743f 70c1 163f
00000240: c512 b7bf 170f d0be 9d9c 9b3e e559 8dbd
00000250: a93a a1bd 0bc6 443e 4c86 dfbf 077f 29be
00000260: e4ef 22bd 065b b3be 6e25 d93d 16ae 41be
00000270: 8a05 ac3e 5525 1dbe 915e b2be c289 b6bf
00000280: ecb9 1abd 52a5 d0be 5c35 34be 0cdb 47c0
00000290: ff50 193d 599e a53e 22a5 78bf f360 0cbf
000002a0: 27e8 f2be 37e0 f23e 4cbe d03e e2c4 e33e
000002b0: 3866 ddbd e524 14be a3f1 a4bf 33af 4f3f
000002c0: 62e0 8a3e 264c b3bd b596 203e 525d 913d
000002d0: f064 ac3c 242f 28bd 3193 0a40 043c 603d
000002e0: b396 06be 01ec 963f dc2b 41bd 4ca5 58bf
000002f0: 947e 25be 5982 ad3d 908d 8c3c fd45 bfbe
00000300: 96a1 41be 9440 483c 5e5e 173e d9a7 50be
00000310: c35d de3f a261 53bd afc4 fc3e c4b7 983e
00000320: b949 153f 02ec b73e fab7 14c0 0ede 09be
00000330: 6538 e9bd 34e2 8b3d ac60 90bd 5164 293e
00000340: 1053 7ebf 706f cb3c b4eb f7be 4ccd 19bf
00000350: 7892 c93c 0c4e 7cbf 009e b4ba 79cb ef3f
00000360: 0aec 47be 9b2f b63e 862e 303e b90a b9bd
00000370: ea02 0c3f dc74 10bd 67d3 9a3e b4ce f73d
00000380: d251 07c0 269c 20bf 92b7 8bbf e7b1 063d
00000390: b2a8 8b3f 28ea edbc 0096 0c3b 819e c4be
000003a0: 6090 c83c 2be0 333e b464 073f 15ed fdbd
000003b0: 53c1 173e e474 b4bf 453a aabd 0c14 4bbe
000003c0: ca9e 843d ccce 86bf 8835 91bf 3e3b fabe
000003d0: 1b29 34bf a2da 5abf 34df 97be ff84 a8be
000003e0: de40 cfbe 5dce 87be 9ee2 23bf ca2e 8bbe
000003f0: b7fe c9be b304 21bf 74a2 27bf 538b 94bd

bias f4 [256]
0.0071816845 -0.54940456 -0.7797311 -0.35754746 -1.3576108 -0.8509678 -0.30421865 -0.24089284
-0.6625041 0.07730395 -0.6853534 -0.49461827 -0.6908995 -1.2706387 -0.77547204 -1.1091067
-1.0322936 -0.7939761 -0.81472874 -0.23582546 -0.99120957 0.20059246 -0.7599895 -0.63122517
-0.4658277 -0.3552476 -0.59041977 -0.73214084 -0.29180905 -0.9646724 -0.29067877 -0.71874523
-0.2721704 -0.9051769 -0.09555464 -1.2582835 0.20243956 -1.0950567 0.48069596 0.020404419
0.2600273 -0.86875844 -1.0535873 -0.51186234 -1.3719529 -1.3035156 -0.02781639 -0.8757712
-1.7052683 -1.3369884 -0.62939537 -1.0180424 -0.6902517 -1.1114099 -0.7983235 -0.91830444
-0.8281368 -1.1592307 -0.6870231 -0.6781181 -0.6902442 -1.0349321 -0.98917204 -0.20991915
-0.8878552 -0.8434281 0.31135926 -0.4956672 -0.037965976 -1.0913234 -0.2775213 0.032146297
-0.75015926 0.06256153 -0.021889191 0.28564242 -1.0103267 -0.48079735 -0.68909913 -0.93972754
-0.19665138 -1.1085917 -1.1001077 -0.5378142 -1.5954273 -0.15157281 -0.8841849 -0.6006183
-0.34906632 -0.29792997 -0.6737026 -0.85689 0.17393316 0.24761853 -1.0255117 -0.63500065
-0.96717703 -0.76772714 -0.9117486 -0.21623215 -0.7259902 -0.75842917 -0.62658453 -0.6500927
0.0829731 -0.9462578 -0.3702507 -0.41008535 -1.1535239 -1.0878918 -0.8022047 -0.29728764
-0.054555297 -0.7098381 -0.6059559 -0.8666842 -0.83446455 -1.2455562 -0.6882234 -0.3349643
-0.67878884 -0.62784886 -0.055855494 -0.6522268 -1.1689512 -0.37881693 -0.56410724 -0.99614185
0.25002122 0.9834724 -1.3765085 -1.1919225 -0.6891894 -1.4059408 -0.84447116 0.30278474
-0.79951304 0.03723383 -0.35784248 -0.729341 -0.86192 -0.8044635 -0.6313033 -1.0489945
-1.0580672 -1.2102965 0.2367972 0.3051774 -0.7228666 -0.8958354 -0.8594365 -0.6028188
-0.95999014 -1.595003 -0.44175252 -0.8353841 -0.1681752 -1.2473404 -0.5108624 -0.16978425
-1.2199724 0.1310372 -0.6266652 -0.7556927 -0.6861877 -0.8809277 -0.7979028 -0.023254575
-1.1889919 0.44137034 -0.37262723 -1.5407522 -1.0139111 -0.42060277 -0.0910625 -0.6255883
-0.63284713 -0.78863376 1.0267856 -0.7154566 -1.1614503 -1.0113518 -0.8907489 -0.033133727
-1.2892903 -0.738438 -1.2597853 -0.8691468 -1.4185368 -1.1806853 -1.464139 -0.40600544
-0.5013044 -0.3713496 -0.8870634 -1.3775152 -1.1372122 -1.3489772 -1.4023033 -0.38492507
-0.9904306 -1.0721302 -1.0563276 -0.42225626 -0.7141812 -1.2465975 -0.7112847 -0.9189102
-1.0119812 -0.5089465 -0.9141489 -1.1191444 -0.88631564 -0.52963567 -1.746848 -0.009764557
-1.1173666 -0.5805823 -0.036662526 -1.0612822 -0.8752018 0.95258254 -1.5221051 -0.64269406
-0.6642994 -1.4268901 -0.8624641 -0.9973128 -1.0224364 -0.49199575 -0.5797449 -0.96446
-0.303146 -1.103278 -1.423667 -0.7137524 -0.16052212 -1.0992202 -0.6063867 -0.42619303
-0.3235249 -1.617716 -1.2380407 -1.0477312 -0.34616768 -0.023324724 -1.0002202 -0.0837063
-1.148265 -1.0467875 -0.26038307 -0.66210693 -0.10346542 -1.4070339 -0.87327313 -1.2181902
00000000: 5654 eb3b c7a5 0cbf 759c 47bf 7610 b7be
00000010: 31c6 adbf 07d9 59bf 8cc2 9bbe 9dac 76be
00000020: de99 29bf 8951 9e3d 5273 2fbf 9b3e fdbe
00000030: cade 30bf 4aa4 a2bf 5685 46bf 35f7 8dbf
00000040: 3222 84bf 0542 4bbf 1092 50bf 3b7c 71be
00000050: e9bf 7dbf 1c68 4d3e ac8e 42bf f997 21bf
00000060: f880 eebe 03e3 b5be c025 17bf 956d 3bbf
00000070: ff67 95be c5f4 76bf d9d3 94be b0ff 37bf
00000080: eb59 8bbe acb9 67bf 27b2 c3bd 6f0f a1bf
00000090: 514c 4f3e d12a 8cbf c81d f63e 2b27 a73c
000000a0: 4c22 853e f466 5ebf f3db 86bf 6909 03bf
000000b0: 279c afbf 99d9 a6bf 33df e3bc 8b32 60bf
000000c0: 3b46 dabf 7022 abbf 0e20 21bf 374f 82bf
000000d0: 56b4 30bf ae42 8ebf ee5e 4cbf 0016 6bbf
000000e0: c600 54bf ac61 94bf bfe0 2fbf 2699 2dbf
000000f0: d8b3 30bf a878 84bf 613a 7dbf 0cf5 56be
00000100: 7a4a 63bf e7ea 57bf 7b6a 9f3e 17c8 fdbe
00000110: 3682 1bbd 7cb0 8bbf 4617 8ebe d6ab 033d
00000120: 700a 40bf 4220 803d f650 b3bc b93f 923e
00000130: 6352 81bf 122b f6be cd68 30bf fc91 70bf
00000140: fb5e 49be 55e6 8dbf 54d0 8cbf 31ae 09bf
00000150: f636 ccbf e735 1bbe f159 62bf 1fc2 19bf
00000160: d2b8 b2be 478a 98be c677 2cbf 255d 5bbf
00000170: 891b 323e b68f 7d3e f843 83bf 678f 22bf
00000180: ea98 77bf c489 44bf 5b68 69bf f66b 5dbe
00000190: 7eda 39bf 6a28 42bf d867 20bf 7a6c 26bf
000001a0: cded a93d f43d 72bf 8091 bdbe b5f6 d1be
000001b0: aca6 93bf 0a40 8bbf 4a5d 4dbf 1636 98be
000001c0: 6075 5fbd f3b7 35bf ed1f 1bbf 04df 5dbf
000001d0: 789f 55bf 636e 9fbf 692f 30bf 7180 abbe
000001e0: 1bc5 2dbf b4ba 20bf bbc8 64bd 56f8 26bf
000001f0: 31a0 95bf 4bf4 c1be 5569 10bf 2703 7fbf
00000200: c802 803e d9c4 7b3f 6e31 b0bf eb90 98bf
00000210: b76e 30bf def5 b3bf 432f 58bf 9a06 9b3e
00000220: e3ac 4cbf 8082 183d 2137 b7be 17b6 3abf
00000230: caa6 5cbf 52f1 4dbf 189d 21bf 7445 86bf
00000240: bf6e 87bf ffea 9abf f77a 723e 3640 9c3e
00000250: c90d 39bf 7855 65bf 0804 5cbf 5552 1abf
00000260: eac1 75bf 0f29 ccbf 632d e2be bbdb 55bf
00000270: 1f36 2cbe daa8 9fbf e1c7 02bf ecdb 2dbe
00000280: 0e28 9cbf 9e2e 063e 216d 20bf 1475 41bf
00000290: ffa9 2fbf 7a84 61bf 5c43 4cbf 6180 bebc
000002a0: e330 98bf 4bfb e13e ffc8 bebe 5e37 c5bf
000002b0: d7c7 81bf 3f59 d7be fa7e babd 8e26 20bf
000002c0: 4502 22bf e7e3 49bf b66d 833f 2a28 37bf
000002d0: 67aa 94bf fa73 81bf 1f08 64bf 3bb7 07bd
000002e0: 7707 a5bf 460a 3dbf a540 a1bf 6880 5ebf
000002f0: 9d92 b5bf b220 97bf e868 bbbf f2df cfbe
00000300: 7c55 00bf 8921 bebe 9616 63bf 6b52 b0bf
00000310: 2b90 91bf 49ab acbf ad7e b3bf e614 c5be
00000320: dc8c 7dbf 903b 89bf be35 87bf f931 d8be
00000330: 94d4 36bf 8290 9fbf c116 36bf b33d 6bbf
00000340: 9a88 81bf 514a 02bf aa05 6abf 2040 8fbf
00000350: 95e5 62bf 3496 07bf b798 dfbf 85fb 1fbc
00000360: de05 8fbf 0ba1 14bf 722b 16bd 18d8 87bf
00000370: 3a0d 60bf 73dc 733f 57d4 c2bf 9987 24bf
00000380: 870f 2abf 56a4 b6bf 72ca 5cbf e44f 7fbf
00000390: 32df 82bf dee6 fbbe 296a 14bf dae6 76bf
000003a0: f435 9bbe 3738 8dbf b83a b6bf 7ab8 36bf
000003b0: e95f 24be 3fb3 8cbf 293c 1bbf f935 dabe
000003c0: 0ea5 a5be 5111 cfbf 1e78 9ebf 0e1c 86bf
000003d0: e43c b1be 7e13 bfbc 3707 80bf 356e abbd
000003e0: 59fa 92bf 22fd 85bf ee50 85be d77f 29bf
000003f0: aee5 d3bd b019 b4bf d48e 5fbf a8ed 9bbf

weight f4 [256, 256]
-1.673354 -0.62396336 -0.2580804 -0.3610615 0.031055132 0.04150012 0.21535264 -0.44006312
-0.4442764 -0.08841672 -0.65792507 -0.13110685 -0.7233496 -0.40128604 -0.030068805 -0.44192144
-0.52890706 -0.3929654 -0.3223009 -0.8244342 0.21126284 -0.13792938 -0.31559205 -1.000626
-0.6113582 -0.520587 -0.20716995 -0.20774533 0.48044026 -0.80820125 -0.9778787 -1.4015712
-0.57104325 -1.2352567 -0.33522877 -0.44534868 -0.060785618 0.05669624 -1.3428906 -0.84809154
-0.008989315 -0.6097636 0.047822393 -1.3148195 -0.69611216 -0.69176227 -0.59446806 -0.6368877
-0.86150986 0.0049900822 -0.50920886 -1.071287 -0.1879733 -0.026673306 -0.9041418 -0.11112137
-0.029864006 -0.45018327 -0.15009095 0.41943088 -0.33974147 -0.12424186 0.27799115 0.73314214
-1.1574581 -0.535505 0.30989853 0.03670093 0.29037237 0.24212036 -0.40666395 0.23887676
-0.2674743 0.37711853 -0.7020313 -0.44316307 -0.49115348 -0.82115865 0.5743695 -0.8824305
-1.1115589 0.102826394 -0.87446487 -0.54830825 -0.49423006 0.3495078 0.43082535 -1.4238992
-1.37046 -0.910521 -0.5957801 0.3497784 -0.33658427 -0.05856528 0.15274471 -0.37110752
-0.87469655 -0.1921098 -0.21137014 -0.49640357 -0.024921926 -0.6290326 -0.52368194 0.53754485
-0.02664144 -0.44007188 -0.037550233 -0.24397126 -0.6370594 -0.76760525 -0.17375275 -0.6986987
-0.14729494 -0.07362357 -1.0923398 -0.5591694 -0.24068864 -0.42974013 -0.6237612 0.034181826
-0.5933808 0.46241736 -1.6983675 0.13100988 -0.24859469 -0.021721696 -0.64962554 -1.239423
0.098325044 -0.4260334 0.19131649 0.03629081 -0.65216684 -0.33683127 -0.062962845 -0.20234106
0.11557272 -0.37024325 0.06880699 -0.88296616 -0.56309265 0.4000556 -0.33604702 -0.6132949
-0.55403787 0.03381101 -0.5632579 -3.1649613 -0.59157205 0.03534232 -0.045576207 0.072383046
-0.062188186 -0.5640516 -0.822616 0.024571387 -0.2696923 0.17483962 -0.19272052 0.036851455
-0.48934907 -0.32840124 0.08887769 -0.56755954 -0.42062873 -0.6627992 -0.15266165 0.16437931
0.00828272 -1.3928169 0.2781525 0.42837617 0.6651884 -0.5711065 -1.5097666 -0.368233
-0.34549394 0.33774957 0.44277853 0.07216527 -1.5421373 0.5414598 0.17132995 0.024571812
0.14422208 -1.1167936 0.0051750396 0.18466255 0.09345844 -0.12796241 -0.7611759 -0.6587848
-0.2383443 0.049555767 -1.1808507 0.07999815 0.42048872 -0.74110955 -0.5724892 -0.23058611
-0.7781904 -0.9357456 -0.19314002 -0.47982603 0.26785436 -0.91080916 -0.46134916 0.008968784
-0.3246713 -0.38135982 -0.4587797 -1.0498383 -0.30845636 0.1385871 -0.5552692 -0.36856136
-0.21280754 -1.0726124 -0.18278119 -0.4752717 -0.19742309 0.6678111 -0.44800812 -0.18434201
-0.14259896 -0.11295242 0.004781909 -0.50435233 -0.33254674 -0.18536374 -0.031068636 0.19867589
0.1186678 0.15053257 -0.69029135 -0.28922826 -1.2124357 -0.037195995 -0.03916403 -0.21716212
-0.13699512 -1.2499121 -0.95814955 -0.031200575 -0.07740482 0.33108264 -0.80576587 -1.1080709
-0.3390722 -0.5412141 0.07892951 -0.35415134 -0.33139518 0.3250096 0.3904115 -0.4787912
00000000: 7730 d6bf 10bc 1fbf 1d23 84be 0edd b8be
00000010: 5567 fe3c 08fc 293d 6785 5c3e f44f e1be
00000020: 3278 e3be d313 b5bd c76d 28bf e040 06be
00000030: 702d 39bf 5d75 cdbe db52 f6bc 8743 e2be
00000040: 7466 07bf c332 c9be a004 a5be 1f0e 53bf
00000050: 4955 583e 5c3d 0dbe 4895 a1be 8314 80bf
00000060: f981 1cbf 3145 05bf 5c24 54be 31bb 54be
00000070: 44fc f53e 47e6 4ebf 4256 7abf af66 b3bf
00000080: e42f 12bf e41c 9ebf 1ba3 abbe be04 e4be
00000090: 57fa 78bd 513a 683d d7e3 abbf 871c 59bf
000000a0: eb47 13bc 7819 1cbf 6ae1 433d 014c a8bf
000000b0: 6834 32bf 5517 31bf 0f2f 18bf 130b 23bf
000000c0: e98b 5cbf d883 a33b 835b 02bf ef1f 89bf
000000d0: 137c 40be fa81 dabc d675 67bf 9a93 e3bd
000000e0: 5ca5 f4bc 6c7e e6be 71b1 19be a5bf d63e
000000f0: 98f2 adbe 8472 febd db54 8e3e 34af 3b3f
00000100: 9627 94bf db16 09bf 05ab 9e3e b753 163d
00000110: b0ab 943e 66ee 773e 4236 d0be 1c9c 743e
00000120: 64f2 88be ae15 c13e 53b8 33bf 45e6 e2be
00000130: 7878 fbbe 7437 52bf e109 133f f7e6 61bf
00000140: 9047 8ebf a596 d23d eedc 5fbf ee5d 0cbf
00000150: b90b fdbe b0f2 b23e 2495 dc3e 5442 b6bf
00000160: 3c6b afbf e717 69bf 0b85 18bf 2816 b33e
00000170: c654 acbe 26e2 6fbd 1c69 1c3e ce01 bebe
00000180: 1dec 5fbf 6eb8 44be 6a71 58be 9c28 febe
00000190: 1129 ccbc 4808 21bf 0510 06bf 8a9c 093f
000001a0: 263f dabc 1a51 e1be 46ce 19bd 9ad3 79be
000001b0: 5316 23bf c781 44bf 3eec 31be ebdd 32bf
000001c0: 7cd4 16be f4c7 96bd cad1 8bbf ba25 0fbf
000001d0: 1577 76be e606 dcbe d0ae 1fbf 3e02 0c3d
000001e0: cee7 17bf f8c1 ec3e 1b64 d9bf 7427 063e
000001f0: 9b8f 7ebe b3f1 b1bc dc4d 26bf 6aa5 9ebf
00000200: a45e c93d 0d21 dabe 78e8 433e aca5 143d
00000210: 68f4 26bf 2675 acbe aaf2 80bd 7f32 4fbe
00000220: 64b1 ec3d 8690 bdbe aeea 8c3d 120a 62bf
00000230: d726 10bf 16d4 cc3e 5b0e acbe e500 1dbf
00000240: 6dd5 0dbf 6a7d 0a3d ab31 10bf ba8e 4ac0
00000250: 4471 17bf 1cc3 103d 1eae 3abd 903d 943d
00000260: 0ab9 7ebd b065 10bf f696 52bf ef49 c93c
00000270: 1c15 8abe 2809 333e 8758 45be 8df1 163d
00000280: f68b fabe 3524 a8be 8205 b63d 954b 11bf
00000290: a65c d7be 35ad 29bf 5653 1cbe 0d53 283e
000002a0: 3fb4 073c d347 b2bf 016a 8e3e 1f54 db3e
000002b0: c949 2a3f 0934 12bf 0840 c1bf 0989 bcbe
000002c0: 95e4 b0be 83ed ac3e deb3 e23e 63cb 933d
000002d0: c164 c5bf 1c9d 0a3f 1e71 2f3e d34a c93c
000002e0: f4ae 133e 18f3 8ebf 6193 a93b 2e18 3d3e
000002f0: 2367 bf3d 9408 03be 6cdc 42bf 1fa6 28bf
00000300: 8710 74be fdfa 4a3d 1e26 97bf 12d6 a33d
00000310: 4c4a d73e 5bb9 3dbf a78e 12bf c41e 6cbe
00000320: 7c37 47bf 068d 6fbf 7fc6 45be c2ab f5be
00000330: 3524 893e ca2a 69bf f535 ecbe cef1 123c
00000340: 513b a6be 9841 c3be 2ce5 eabe 1a61 86bf
00000350: feed 9dbe c7e9 0d3e 1f26 0ebf 13b4 bcbe
00000360: 38ea 59be 5d4b 89bf fe2a 3bbe d056 f3be
00000370: 4729 4abe abf5 2a3f 5261 e5be 27c4 3cbe
00000380: 7605 12be 9953 e7bd 8fb1 9c3b 3c1d 01bf
00000390: 9143 aabe fecf 3dbe a783 febc b171 4b3e
000003a0: 1b08 f33d 3625 1a3e efb6 30bf ba15 94be
000003b0: 1831 9bbf d45a 18bd 766a 20bd bf5f 5ebe
000003c0: 7348 0cbe 1ffd 9fbf 4a49 75bf 5998 ffbc
000003d0: 6b86 9ebd aa83 a93e ac46 4ebf 44d5 8dbf
000003e0: df9a adbe 028d 0abf cca5 a13d 5353 b5be
000003f0: a1ac a9be a967 a63e 04e4 c73e 1f24 f5be

bias f4 [256]
-0.17653081 0.10782028 -0.1411402 -0.1303816 -0.73354787 -0.1592088 -0.18597578 0.060015265
-0.06162465 -0.8256714 -0.027886666 -0.07139943 -0.06797839 -0.20133735 -0.13851865 -0.12618244
-0.30699462 -1.7486657 -0.8387974 0.188771 -1.1241901 -0.60268074 -0.46240246 -1.0262288
-0.68237174 -0.501385 -0.09993228 0.42509115 -0.5556687 0.50398934 -1.1742016 -0.883099
-1.1613227 -1.3229344 0.22644804 -0.3868115 -0.5357634 -1.1289859 -1.1524769 -0.43606475
-0.1001541 -0.1253743 -0.09229063 -1.3084824 -0.44512615 -0.110540286 -0.5957937 -1.9528912
-0.10939325 -0.36909953 -0.4500238 -0.20570171 0.5641382 -0.035629354 -0.11222206 -0.19940163
-0.6886094 -1.281555 -0.80422777 -0.11752015 -0.8291833 -0.06957326 -1.2242713 -0.09395786
-0.1277039 -0.2991089 -0.99517447 -0.20717792 -1.7610228 -0.6322024 -0.83838993 -0.13893057
-0.1006242 -0.4819745 -0.42803347 -0.754478 0.34138954 -0.104831815 -0.71613127 -0.04331604
0.1758525 -0.0804974 -0.1268443 -0.22093993 -1.0243162 -0.13960482 -0.051156506 0.88001275
-0.76174664 -0.11772037 -0.15694 -1.0092795 0.6226505 -1.1565893 -0.14390577 0.24065857
-0.8134362 -0.9273524 -0.46067175 -0.14992972 -1.039811 -1.4088193 -0.081051864 -0.057445504
-0.07453238 -0.6449818 -0.7354287 -0.4608339 0.81172603 0.12091005 -0.15220775 -0.65577835
-0.30306137 -0.27920753 -1.0250189 -0.96211475 0.7379658 0.11693554 -0.10938003 -1.3965979
-1.2789539 -0.13870496 -0.11287027 -0.569378 0.82005537 -0.044404637 -0.095936045 0.30427545
-0.29123932 0.5834064 -1.6792544 -1.2161032 -0.052417964 0.48592922 -0.16264646 -0.5107382
-1.3226761 0.9212119 -0.051001735 -1.1541793 -1.4062428 -0.14397074 -0.5045236 -0.4904223
-1.2355294 -0.0582074 -0.08623678 -0.3175463 -0.21857615 -1.9574662 -0.13028912 0.10760098
-0.77878225 -0.08361492 -0.63107675 -0.055273347 -1.1152313 -0.38129735 -0.4613777 -0.0713884
0.54950404 -0.9447753 -0.17457849 -0.07254939 -0.10041589 -0.058456384 -1.1518099 -0.47696912
-0.053456984 -0.17569685 0.81255925 -1.4093409 -0.8696311 -0.02192411 -0.916381 0.5139046
-0.096275605 -0.106041014 -0.43375185 -0.18379435 -0.23560998 -0.14857127 -0.16505624 -0.0805497
-1.2618182 -0.11658403 -0.06432669 -0.49534902 -0.44885895 -0.8203112 -0.7744386 -0.8459833
-0.9032692 -0.54388714 -0.15819374 0.30059665 -0.5606462 -0.11436022 -0.5490833 -0.20950691
0.98911244 -1.5550734 -0.3267321 -0.62528366 -0.010631947 -1.1041592 -0.06950828 -0.9467837
-0.14754641 -0.26419643 -0.56680495 -0.16515292 -0.18485048 -0.9127916 -0.12594856 -0.0939232
-0.14454982 -0.07901833 -0.60096514 -0.42455527 -1.5874721 -0.7981092 0.7478825 -1.1717862
0.0013991665 -0.06060205 -0.94781643 -0.5578715 -0.101024345 -0.05875028 -0.20842528 -0.12606654
-0.10768421 -0.2392396 -0.6965151 0.3201263 -1.1536574 0.30180073 -0.03062497 -0.038010012
-0.5705608 0.4192425 -0.47252515 -0.95281917 -0.040243443 -0.6832676 0.23741943 -0.022462826
-0.19332732 -1.1259058 -1.2004629 -0.07565937 -0.8557042 -0.27769536 0.9534456 -0.11646345
00000000: 7ec4 34be e1d0 dc3d 0e87 10be c182 05be
00000010: cbc9 3bbf a207 23be 6f70 3ebe 91d2 753d
00000020: 216a 7cbd 335f 53bf 9472 e4bc dd39 92bd
00000030: 4138 8bbd 612b 4ebe d5d7 0dbe f835 01be
00000040: 662e 9dbe 47d4 dfbf 6dbb 56bf 2f4d 413e
00000050: 76e5 8fbf 4949 1abf 04c0 ecbe 775b 83bf
00000060: eaaf 2ebf c45a 00bf 4ca9 ccbd 8ca5 d93e
00000070: 4e40 0ebf 7205 013f 3d4c 96bf c712 62bf
00000080: 39a6 94bf ea55 a9bf ffe1 673e 280c c6be
00000090: ca27 09bf 9c82 90bf 5d84 93bf e143 dfbe
000000a0: 981d cdbd 1f62 00be df02 bdbd 5a7c a7bf
000000b0: 93e7 e3be f262 e2bd f085 18bf 57f8 f9bf
000000c0: 9109 e0bd 9dfa bcbe 8569 e6be 78a3 52be
000000d0: 5c6b 103f 16f0 11bd aed4 e5bd f12f 4cbe
000000e0: b548 30bf ff09 a4bf dfe1 4dbf 68ae f0bd
000000f0: 5b45 54bf 6d7c 8ebd ecb4 9cbf fa6c c0bd
00000100: d0c4 02be cd24 99be c1c3 7ebf 7326 54be
00000110: 3269 e1bf 04d8 21bf b9a0 56bf d143 0ebe
00000120: 1014 cebd 5dc5 f6be 3427 dbbe 7825 41bf
00000130: 9cca ae3e 10b2 d6bd 6154 37bf 296c 31bd
00000140: ae12 343e d2db a4bd 79e3 01be 143e 62be
00000150: cb1c 83bf 91f4 0ebe 7c89 51bd 8448 613f
00000160: d401 43bf 6117 f1bd e1b4 20be 1230 81bf
00000170: 0666 1f3f 1e0b 94bf 095c 13be 336f 763e
00000180: 5b3d 50bf f866 6dbf 2bdd ebbe 2d87 19be
00000190: 8718 85bf 3154 b4bf 85fe a5bd fa4b 6bbd
000001a0: 6fa4 98bd 871d 25bf 0e45 3cbf 6cf2 ebbe
000001b0: 47cd 4f3f b09f f73d 59dc 1bbe 17e1 27bf
000001c0: dc2a 9bbe 4af4 8ebe d233 83bf 274d 76bf
000001d0: 54eb 3c3f e77b ef3d a302 e0bd b8c3 b2bf
000001e0: c3b4 a3bf ac08 0ebe 8728 e7bd c2c2 11bf
000001f0: 26ef 513f a3e1 35bd 1e7a c4bd fec9 9b3e
00000200: 521d 95be 1f5a 153f cff1 d6bf 45a9 9bbf
00000210: 38b4 56bd b7cb f83e cb8c 26be bdbf 02bf
00000220: 734d a9bf 8bd4 6b3f 32e7 50bd 26bc 93bf
00000230: c4ff b3bf 116d 13be 7528 01bf a218 fbbe
00000240: d425 9ebf e26a 6ebd e99c b0bd 6e95 a2be
00000250: 6dd2 5fbe 418e fabf 836a 05be e75d dc3d
00000260: 465e 47bf 4d3e abbd 3f8e 21bf 4e66 62bd
00000270: e6bf 8ebf 6839 c3be b339 ecbe 1534 92bd
00000280: 4cac 0c3f cbdc 71bf b4c4 32be c694 94bd
00000290: d9a6 cdbd f66f 6fbd 826e 93bf 4c35 f4be
000002a0: b6f5 5abd e0e9 33be e203 503f 4865 b4bf
000002b0: 25a0 5ebf 319a b3bc f297 6abf 408f 033f
000002c0: 252c c5bd 082c d9bd b914 debe 9634 3cbe
000002d0: be43 71be 1123 18be 8104 29be 3ef7 a4bd
000002e0: 4283 a1bf 9cc3 eebd b6bd 83bd 639e fdbe
000002f0: d7d0 e5be eaff 51bf 9c41 46bf 5d92 58bf
00000300: a63c 67bf 303c 0bbf 8afd 21be cee7 993e
00000310: 8286 0fbf b135 eabd b990 0cbf fb88 56be
00000320: 7936 7d3f a50c c7bf 6e49 a7be 9712 20bf
00000330: 9e31 2ebc 1755 8dbf 5b5a 8ebd 6b60 72bf
00000340: 6816 17be c144 87be 211a 11bf d91d 29be
00000350: 7249 3dbe b6ac 69bf a9f8 00be cf5a c0bd
00000360: de04 14be 5dd4 a1bd dad8 19bf 4f5f d9be
00000370: 4932 cbbf e250 4cbf 3a75 3f3f 17fd 95bf
00000380: 3d64 b73a db39 78bd 19a4 72bf abd0 0ebf
00000390: dae5 cebd 22a4 70bd 706d 55be 9617 01be
000003a0: 8a89 dcbd 3afb 74be d04e 32bf 98e7 a33e
000003b0: 0cab 93bf a085 9a3e 38e1 fabc 63b0 1bbd
000003c0: 4610 12bf f4a6 d63e d1ee f1be f5eb 73bf
000003d0: 4fd6 24bd a0ea 2ebf 141e 733e f603 b8bc
000003e0: 99f7 45be ae1d 90bf c5a8 99bf 4df3 9abd
000003f0: 6e0f 5bbf 162e 8ebe 0315 743f 6484 eebd

weight f4 [6, 256]
-0.60297835 -0.12856777 0.023766857 -0.021893693 -0.10874969 -0.037375525 0.029357487 -0.26984784
0.0140971625 -0.16030475 0.05758154 0.008440294 -0.04573436 0.054341253 -0.0153871095 -0.092650205
-0.014791599 -0.08334957 -0.307029 0.1294773 0.33643827 0.006209511 -0.4732412 -0.06547055
-0.22003593 0.027772246 -0.012666389 0.26379424 -0.28090185 0.12518552 0.79662603 -0.088719524
-0.08461943 0.42758074 0.24050373 0.26828825 0.06257353 0.09105176 0.26311946 -0.23621078
0.061806306 -0.023674075 0.03859377 -0.41661897 -0.4720437 -0.033235524 -0.33278826 0.019934634
-0.075478435 -0.24739216 -0.17324343 -0.0761474 0.10444244 0.0027182624 0.0022510404 0.08760522
0.027958805 0.3940942 0.14121152 -0.00036838805 -0.6309457 -0.099619076 0.1843332 -0.019123273
-0.09794389 -0.23705013 -0.11936857 0.18206817 -0.22690398 0.41184586 -0.3341544 0.03917028
-0.15157029 -0.13485922 -0.4262164 -0.65459996 0.08986136 0.040288113 -0.18591045 0.0057343794
-0.24923038 -0.004270483 -0.028160237 -0.1025362 0.05332668 0.028611448 -0.0490985 0.11148897
-0.14991373 -0.55551594 0.012296693 -0.12193863 -0.19542173 0.07986249 0.045234066 -0.001176557
-0.026621537 -0.042399384 0.18968023 -0.011797714 -0.22827736 0.46264315 0.08244401 -0.025560763
-0.049901813 0.36566627 -0.54517955 0.2280629 -0.12932314 0.27519718 -0.22060613 -0.08041853
-0.4946655 -0.22355805 0.32523963 -0.48148617 -0.26629764 -0.18658523 0.0253997 -0.23774154
0.41653883 0.029006947 0.03881557 0.3922948 0.006579327 -0.006909417 -0.09496518 -0.045710135
-0.23214015 -0.21123584 -0.28679556 -0.14785047 -0.09818623 -0.26645333 0.00038963425 0.16257443
-0.2887948 -0.15025155 -0.029990712 0.27434665 -0.27912414 0.10518875 0.07826784 -0.011787111
0.6357278 -0.051212702 0.016582973 0.059611596 -0.16798282 0.050146 0.06797305 -0.40750864
-0.35225213 -0.050050557 -0.31122983 0.0018673519 -0.037190817 0.13406135 0.3132083 0.03664135
-0.06428948 0.29707232 -0.17767009 0.12347984 -0.012229773 0.087866716 0.07790015 0.013395392
0.04602224 0.004763123 0.0658146 0.17367318 -0.39292225 0.17565228 0.07319594 -0.018847331
0.039526876 0.05876561 -0.33149844 0.21154402 0.16396512 0.4202706 -0.13807447 0.04780262
-0.026413858 0.015316484 -0.017285196 -0.12902702 -0.61168104 0.3031133 -0.21678598 0.41858226
-0.5617282 -0.26790044 -0.029252548 -0.0845284 -0.22551635 0.33932167 0.33783358 -0.0061777197
0.11892086 -0.32148266 0.06303431 -0.48475552 0.25731987 -0.36407003 0.0024816194 0.12978643
0.0020876392 0.14160863 0.038690004 -0.045655306 -0.016712908 -0.50615966 0.06644841 0.05591315
0.032723248 -0.0027928918 -0.15476343 -0.3617959 0.047552075 -0.07160313 -0.07963227 0.13310522
0.18932302 0.0091665005 0.35794935 -0.5971748 0.064293236 0.0066868733 0.19733937 0.12154309
-0.012078606 0.17911641 -0.59477216 -0.31416047 0.85104495 -0.03546584 -0.03425964 0.185989
0.25896293 0.060230277 -0.15483485 0.052092556 0.03777244 -0.26290795 -0.2716111 0.013503067
0.04687031 0.8586607 -0.58383596 0.03280459 -0.07872434 -0.031375572 0.30543947 0.08874489
00000000: ca5c 1abf 45a7 03be b6b2 c23c 675a b3bc
00000010: 28b8 debd 1417 19bd 1d7f f03c 7f29 8abe
00000020: c9f7 663c ee26 24be 9fda 6b3d 2949 0a3c
00000030: f453 3bbd ef94 5e3d 371a 7cbc 64bf bdbd
00000040: 7658 72bc 2eb3 aabd e832 9dbe b395 043e
00000050: a341 ac3e 2779 cb3b ac4c f2be 6c15 86bd
00000060: 1951 61be 9f82 e33c b086 4fbc 0a10 873e
00000070: 5ed2 8fbe a230 003e afef 4b3f 95b2 b5bd
00000080: f44c adbd ddeb da3e 9c46 763e 145d 893e
00000090: 8d26 803d 5879 ba3d 98b7 863e 3de1 71be
000000a0: 9c28 7d3d 22f0 c1bc 8014 1e3d 154f d5be
000000b0: b6af f1be f921 08bd 3963 aabe f54d a33c
000000c0: 7094 9abd 5f54 7dbe ba66 31be 2bf3 9bbd
000000d0: ebe5 d53d e024 323b 3186 133b 5e6a b33d
000000e0: dd09 e53c b7c6 c93e c199 103e 3524 c1b9
000000f0: a885 21bf 1605 ccbd d8c1 3c3e 69a8 9cbc
00000100: ce96 c8bd 45bd 72be 8277 f4bd 1470 3a3e
00000110: 8459 68be 76dd d23e 4916 abbe 0471 203d
00000120: 3e35 1bbe 8918 0abe 0939 dabe dd93 27bf
00000130: 3c09 b83d 2605 253d 4f5f 3ebe 76e7 bb3b
00000140: 4036 7fbe 68ef 8bbb 4cb0 e6bc 80fe d1bd
00000150: 146d 5a3d 8e62 ea3c 821b 49bd 5454 e43d
00000160: fc82 19be 4b36 0ebf 1278 493c f6ba f9bd
00000170: a21c 48be f28e a33d 5b47 393d b436 9aba
00000180: 6915 dabc faaa 2dbd 893b 423e 334b 41bc
00000190: 8ac1 69be 90df ec3e 68d8 a83d ce64 d1bc
000001a0: d865 4cbd 9c38 bb3e e390 0bbf 5289 693e
000001b0: 496d 04be a5e6 8c3e 93e6 61be 78b2 a4bd
000001c0: cc44 fdbe 67ec 64be cf85 a63e 5b85 f6be
000001d0: 2a58 88be 3310 3fbe 0813 d03c 8572 73be
000001e0: 9444 d53e fa9f ed3c 13fd 1e3d ddda c83e
000001f0: 6597 d73b 6468 e2bb 1b7d c2bd 8d3a 3bbd
00000200: 26b6 6dbe 354e 58be ded6 92be 1d66 17be
00000210: dd15 c9bd 926c 88be d347 cc39 e979 263e
00000220: e9dc 93be 8bdb 19be 15af f5bc 2a77 8c3e
00000230: 5ce9 8ebe 336d d73d e44a a03d ba1e 41bc
00000240: 0fbf 223f 69c4 51bd 04d9 873c 4a2b 743d
00000250: b003 2cbe e465 4d3d 7435 8b3d f9a4 d0be
00000260: 645a b4be d001 4dbd 8459 9fbe efc1 f43a
00000270: 6655 18bd 6147 093e d75c a03e 3d15 163d
00000280: 34aa 83bd dd19 983e 26ef 35be 00e3 fc3d
00000290: 635f 48bc 77f3 b33d 1d8a 9f3d 5978 5b3c
000002a0: d181 3c3d f913 9c3b cec9 863d 62d7 313e
000002b0: 1b2d c9be 31de 333e c1e7 953d b865 9abc
000002c0: efe6 213d 35b4 703d 2aba a9be ff9e 583e
000002d0: 79e6 273e b52d d73e 6563 0dbe aecc 433d
000002e0: e061 d8bc fdf1 7a3c af99 8dbc a91f 04be
000002f0: 2197 1cbf ab31 9b3e 25fd 5dbe 6a50 d63e
00000300: 6bcd 0fbf 3f2a 89be 0aa3 efbc 3a1d adbd
00000310: c2ed 66be 92bb ad3e 86f8 ac3e 786e cabb
00000320: c88c f33d 6099 a4be 2218 813d e031 f8be
00000330: 6ebf 833e 6367 babe aaa2 223b bce6 043e
00000340: c6d0 083b da01 113e 6979 1e3d 0f01 3bbd
00000350: 82e9 88bc ae93 01bf 1b16 883d 3005 653d
00000360: d008 063d f308 37bb 4e7a 1ebe 503d b9be
00000370: f7c5 423d a9a4 92bd 3e16 a3bd bc4c 083e
00000380: e5dd 413e 172f 163c 2345 b73e 73e0 18bf
00000390: 2cac 833d 8f1d db3b 5513 4a3e 95eb f83d
000003a0: 58e5 45bc 4b6a 373e fd42 18bf a4d9 a0be
000003b0: 15de 593f a144 11bd d653 0cbd e773 3e3e
000003c0: ca96 843e 06b4 763d 078d 1ebe 015f 553d
000003d0: 46b7 1a3d df9b 86be 9c10 8bbe f83b 5d3c
000003e0: 15fb 3f3d 30d1 5b3f 4676 15bf 1b5e 063d
000003f0: 3a3a a1bd ac83 00bd 9062 9c3e e2bf b53d

bias f4 [6]
-0.15020049 0.08384562 0.14192055 -0.6823262 0.049242213 0.049686044
00000000: 28ce 19be 41b7 ab3d 9f53 113e eeac 2ebf
00000010: 34b2 493d 9883 4b3d

weight f4 [6, 256]
0.5055924 0.011955779 0.02722036 0.060089678 0.32496202 -0.002578761 0.07203697 0.15539445
0.002678279 0.09453996 -0.048232954 0.009618131 -0.040559 0.074275196 0.02915878 0.08403326
0.09557529 -0.053069558 0.4784759 0.0074611385 0.12265107 0.043641694 0.45204538 0.5691016
0.67033565 0.14102843 0.035489198 0.3600032 0.25473157 -0.0041652597 0.7366683 0.5386232
0.5883385 0.651673 0.05828018 -0.027885916 0.07041484 0.28558296 0.36130396 -0.07458653
0.02242587 0.02412245 0.0104964655 0.5337225 0.016610065 0.053116485 0.36914617 0.039487455
0.037601948 -0.07683305 -0.15557052 -0.10906302 -0.013506521 0.106438026 0.008318503 0.11231005
0.47838968 -0.03474659 0.068236925 0.012696769 0.049642593 -0.059538 -0.020054545 0.01786122
-0.022243965 0.5530204 0.18829669 0.38404572 0.43852928 0.05712028 -0.0097908415 0.09189
0.39483193 0.07505858 0.4594633 1.0120101 -0.06188361 0.0067081815 0.05371353 -0.095761165
-0.075172916 0.05624144 0.060257714 0.14953212 0.051276334 0.030371394 0.021172944 -0.057270873
0.28178787 0.004779199 0.032565173 0.45725983 -0.040665645 0.0124550015 -0.008323396 0.040904537
0.5789465 0.02758499 -0.038704604 -0.075283825 0.56723034 0.58027047 0.034694634 -0.000544978
-0.032622896 0.69710374 0.34575123 0.095731206 0.020824632 0.0628865 0.10329897 -0.012413173
0.08964751 0.13996555 0.118220374 0.097643316 0.0235437 0.07385573 0.019026963 0.150844
0.23771618 0.0037126574 0.07568923 0.110789195 -0.040638033 0.04720766 0.08417283 0.056166757
-0.007633078 0.042390097 0.16587012 0.3835013 -0.065340735 0.018647797 0.004110616 0.34926742
0.2208028 -0.025641967 0.020077098 -0.066228375 0.5203859 -0.017059257 0.11516112 0.07537624
0.17596799 0.06418396 0.026281292 -0.012116075 0.04804578 0.15715282 0.03888376 0.2534354
0.80618054 0.028142978 0.18335328 0.0041160784 0.5552056 0.10117049 0.62367827 -0.042190697
-0.113577485 0.52789587 -0.017635722 -0.059081584 -0.02906357 0.085178874 0.3788246 0.7064736
0.06499107 0.091625534 -0.0006429976 0.23779991 0.3659836 -0.10205255 0.3538229 -0.018843561
0.0047554104 0.014036688 0.38991642 0.00037645036 0.014003122 0.033904523 -0.033292726 0.04975672
0.04548397 0.036933273 0.065750174 -0.059344184 0.30661908 -0.17427567 -0.10705114 0.41872844
0.34797254 0.6550327 0.041344937 -0.15578409 0.4268139 -0.1367112 0.031321917 0.11357443
-0.022205342 0.21309718 0.17350121 0.6167167 0.13338317 0.47205096 0.025760738 0.49307486
0.07167082 0.087693125 0.06148688 0.04834845 0.056139458 0.33813927 0.114981875 -0.021300362
0.07431881 0.015278687 0.07831861 0.08086008 0.13149504 0.55548304 -0.13953535 0.3531343
0.1766306 0.05403709 0.06417919 0.7369307 -0.03585796 -0.030449243 0.034479782 -0.050226055
0.017651409 0.23761229 0.9172236 0.24348013 0.34262547 0.008368267 0.019976623 -0.056310985
0.44523215 0.008696427 0.95886713 0.51878905 0.06251083 -0.20766564 -0.059159543 -0.017246163
0.13811898 0.2531617 0.6829543 -0.037226204 0.0065361666 0.05932513 0.05890862 0.13722159
00000000: 816e 013f 2ce2 433c 3bfd de3c 9820 763d
00000010: 6c61 a63e 6e00 29bb 1e88 933d b91f 1f3e
00000020: 1186 2f3b 2b9e c13d eb8f 45bd 5e95 1d3c
00000030: 3221 26bd 981d 983d 65de ee3c a119 ac3d
00000040: fabc c33d 775f 59bd cbfa f43e 917c f43b
00000050: 7c30 fb3d a2c1 323d 7e72 e73e a4b0 113f
00000060: 1e9b 2b3f c269 103e 1f5d 113d 5752 b83e
00000070: 2d6c 823e bb7c 88bb 4b96 3c3f 36e3 093f
00000080: 5a9d 163f 0bd4 263f 33b7 6e3d 0171 e4bc
00000090: a835 903d ee37 923e d5fc b83e d3c0 98bd
000000a0: 75b6 b73c 729c c53c 5ef9 2b3c 0aa2 083f
000000b0: d511 883c ac90 593d ba00 bd3e 99bd 213d
000000c0: 8004 1a3d a55a 9dbd e14d 1fbe 6f5c dfbd
000000d0: 744a 5dbc 2efc d93d 554a 083c d002 e63d
000000e0: 7eef f43e 7152 0ebd cdbf 8b3d 1c06 503c
000000f0: 0856 4b3d 1ede 73bd 6e49 a4bc b151 923c
00000100: fa38 b6bc bf92 0d3f d9d0 403e a4a1 c43e
00000110: e986 e03e f4f6 693d c469 20bc d330 bc3d
00000120: 6927 ca3e 50b8 993d c63e eb3e 8c89 813f
00000130: ab79 7dbd 4ed0 db3b b802 5c3d 6e1e c4bd
00000140: 42f4 99bd 6d5d 663d cbd0 763d f31e 193e
00000150: 2207 523d 6ecd f83c e272 ad3c dd94 6abd
00000160: 8046 903e d49a 9c3b 0f63 053d f61d ea3e
00000170: 0591 26bd 1010 4c3c da5e 08bc 848b 273d
00000180: d635 143f ebf9 e13c b888 1ebd 682e 9abd
00000190: 0236 113f 9b8c 143f f61b 0e3d dbdc 0eba
000001a0: 969f 05bd 6475 323f 4e06 b13e b90e c43d
000001b0: 6b98 aa3c a3ca 803d 698e d33d 9f60 4bbc
000001c0: 1d99 b73d 2153 0f3e 861d f23d 38f9 c73d
000001d0: b8de c03c ac41 973d 6fde 9b3c d976 1a3e
000001e0: df6b 733e 0e50 733b f402 9b3d 72e5 e23d
000001f0: 1174 26bd d25c 413d ce62 ac3d 1d0f 663d
00000200: e61e fabb 3da1 2d3d dbd9 293e 485a c43e
00000210: 5dd1 85bd 44c3 983c 59b2 863b 2ed3 b23e
00000220: 211a 623e 1a0f d2bc ba78 a43c bea2 87bd
00000230: 0338 053f dbbf 8bbc 98d9 eb3d dc5e 9a3d
00000240: f430 343e e172 833d dd4b d73c 8082 46bc
00000250: a7cb 443d abec 203e 9444 1f3d 49c2 813e
00000260: d961 4e3f 1a8c e63c f6c0 3b3e 2be0 863b
00000270: f421 0e3f 7932 cf3d 61a9 1f3f 27d0 2cbd
00000280: 509b e8bd 2f24 073f ca78 90bc 88ff 71bd
00000290: b916 eebc 4372 ae3d 4cf5 c13e 74db 343f
000002a0: 0a1a 853d 2ba6 bb3d d78e 28ba d281 733e
000002b0: 3462 bb3e ed00 d1bd 4628 b53e d05d 9abc
000002c0: 46d3 9b3b 23fa 653c 20a3 c73e 505e c539
000002d0: 5a6d 653c 78df 0a3d f45d 08bd b4cd 4b3d
000002e0: 664d 3a3d 5847 173d 07a8 863d e312 73bd
000002f0: 2dfd 9c3e 5275 32be a13d dbbd 9363 d63e
00000300: 7529 b23e 39b0 273f 4f59 293d dd85 1fbe
00000310: 5a87 da3e 05fe 0bbe 694b 003d b699 e83d
00000320: fae7 b5bc 2636 5a3e 4daa 313e 25e1 1d3f
00000330: 9995 083e aab0 f13e 2f08 d33c 4f74 fc3e
00000340: 27c8 923d 7498 b33d abd9 7b3d 0609 463d
00000350: 7df2 653d 9720 ad3e 9e7b eb3d 197e aebc
00000360: 7634 983d 7553 7a3c 8265 a03d f899 a53d
00000370: a3a6 063e 2334 0e3f 5be2 0ebe 05ce b43e
00000380: a7de 343e ff55 5d3d 6170 833d 7ea7 3c3f
00000390: ccdf 12bd b170 f9bc ac3a 0d3d d6b9 4dbd
000003a0: b099 903c a350 733e 2acf 6a3f db52 793e
000003b0: 9b6c af3e 0e1b 093c 04a6 a33c 59a6 66bd
000003c0: 78f5 e33e 757b 0e3c 5178 753f 5ccf 043f
000003d0: ae05 803d 4da6 54be 4751 72bd d347 8dbc
000003e0: 106f 0d3e 699e 813e 18d6 2e3f 817a 18bd
000003f0: 572d d63b e8fe 723d 2a4a 713d d183 0c3e

bias f4 [6]
-0.26375496 -0.45657197 -0.24141288 -0.5553382 -0.25889826 -0.19600865
00000000: e40a 87be cdc3 e9be f034 77be a52a 0ebf
00000010: 508e 84be 7eb6 48be

weight f4 [256, 32]
-1.2999942 0.16398646 0.33944988 5.8963323 0.074058846 -0.24224667 -0.12885062 6.0408916
1.9186463 0.16416943 3.0100977 0.512393 -0.52979517 0.3509713 -0.64630485 -0.023456097
1.6751517 0.622638 1.8185867 0.40738153 1.3790705 0.16784413 -0.13087721 0.47606888
0.022988766 0.034112647 -0.35082182 -0.044269327 -0.8874341 0.3667399 -1.1928157 0.27200577
1.1680645 -0.14376351 -0.22631161 -0.890049 -0.114669114 -0.7513302 0.0026865005 -1.9467162
1.3346393 1.3156035 -1.0468338 0.68406147 -1.2774864 0.38641742 -5.363067 -0.8350391
0.9315085 -0.11869428 -1.3189623 -1.1335331 0.15200332 0.13575388 -0.106840886 0.90783286
-0.115332514 -0.04042557 -0.34691912 -0.15773223 0.98089015 1.3860874 -0.41945884 -0.38376105
0.36178207 -0.112159505 -0.7225689 -1.2368184 -0.0035442114 1.2741681 0.031402692 -0.5574838
-1.7254418 -0.051919233 -3.1151712 -1.1500074 -0.9222998 -0.2515269 -1.3646331 -0.39322406
1.0501143 -0.39827088 2.1248121 -0.25810432 0.43134114 -0.03446172 0.038134947 0.07561627
-0.0998902 0.12769099 -0.25431502 -0.54959005 0.07572055 -1.0075517 -0.3419119 -0.16824628
2.0019739 -0.16346568 -0.12625995 0.593532 0.15075986 -0.17868948 -0.03460248 -1.2358047
0.9363776 -1.1893454 0.603592 1.043492 0.37888372 -0.37330872 -4.529821 0.9474587
1.1341034 0.18833673 0.56724733 -0.1109849 0.5456378 -0.07711392 -0.13748953 0.7775979
0.05223021 -0.0029882789 0.59049296 0.30439216 -1.4514725 0.42855608 -0.5737776 -0.30751848
-3.1782641 0.102234736 -0.8029255 -0.9151647 0.08930914 -2.465186 -0.008273512 0.14826089
-0.13056551 -1.196621 -0.8657687 -1.58605 -1.1672533 0.042744763 -0.2823228 -2.8180563
-1.3492911 -0.46946472 0.122288786 1.886834 -0.22851975 -0.09333649 -0.1476914 -0.62534016
0.0077458173 -0.087179445 -0.39763084 0.107087515 1.4485366 -0.81620467 -0.9130063 0.6817626
-1.5208849 0.052040547 -0.9070148 1.7330745 -0.13397665 -0.979443 0.06792547 3.6784267
0.17793359 -1.8916976 -1.4885089 1.4343113 -0.37325448 1.8306224 -0.6517422 -0.19164181
-0.74923337 -0.06509619 -0.31538403 -1.6104369 -0.9291686 0.14997487 0.12164764 -0.89072615
0.17421071 -0.09885558 0.3736273 -0.20446981 -2.0457664 -0.2025763 0.3828766 0.8192416
-2.3473425 -0.0073361695 -0.88750386 -2.6049194 -0.15623048 -1.3309197 0.06390539 -0.4803037
0.05642573 -0.65036416 -0.5909557 -0.73184955 0.20297237 -0.9615479 -2.5303483 -0.882036
1.012613 -1.3413174 -1.3223339 -2.255041 -2.4284399 0.17054872 0.15403663 0.9498444
-0.12875926 -0.14607556 0.762277 0.5404001 0.42570835 0.80574447 -0.4744212 0.6604575
-5.8677745 -0.06979674 0.052920107 3.597885 0.121989086 0.31231776 -0.10658917 3.8449445
-0.7784926 -0.71740526 1.4904495 -0.25534388 -0.5481676 0.06025011 0.7530531 -1.3163381
1.0314668 -0.114412166 1.9144423 -0.3814992 -0.9204038 -0.03429778 -0.015474021 1.4762886
0.0638127 0.11766721 -0.2687173 -0.14705426 0.8009279 -0.98167956 0.39334267 1.053851
00000000: 3666 a6bf 11ec 273e 60cc ad3e c1ae bc40
00000010: 2aac 973d 830f 78be 6bf1 03be fc4e c140
00000020: 3496 f53f 081c 283e 71a5 4040 302c 033f
00000030: a8a0 07bf 83b2 b33e 3c74 25bf 0027 c0bc
00000040: 5f6b d63f 3465 1f3f 73c7 e83f 5094 d03e
00000050: 6285 b03f 55df 2b3e ad04 06be 4dbf f33e
00000060: f052 bc3c b4b9 0b3d eb9e b3be c153 35bd
00000070: e22e 63bf 55c5 bb3e 2fae 98bf 5744 8b3e
00000080: 2383 953f be36 13be 3bbe 67be 40da 63bf
00000090: a4d7 eabd 2d57 40bf 0010 303b ff2d f9bf
000000a0: 76d5 aa3f b265 a83f a6fe 85bf a71e 2f3f
000000b0: ad84 a3bf 81d8 c53e 3f9e abc0 1fc5 55bf
000000c0: 5777 6e3f fd15 f3bd c2d3 a8bf 9d17 91bf
000000d0: c2a6 1b3e 1103 0b3e 65cf dabd bc67 683f
000000e0: 7433 ecbd 4895 25bd 629f b1be 8f84 21be
000000f0: 9e1b 7b3f 506b b13f 4fc3 d6be 547c c4be
00000100: 803b b93e e2b3 e5bd 47fa 38bf 1150 9ebf
00000110: 0046 68bb f117 a33f 1ca0 003d 42b7 0ebf
00000120: 47db dcbf 43a9 54bd f75e 47c0 7133 93bf
00000130: d71b 6cbf 22c8 80be 4cac aebf aa54 c9be
00000140: 256a 863f 29ea cbbe ecfc 0740 4026 84be
00000150: bfd8 dc3e bc27 0dbd 6433 1c3d b4dc 9a3d
00000160: 3c93 ccbd 6dc1 023e 9435 82be efb1 0cbf
00000170: 6013 9b3d 74f7 80bf 140f afbe c148 2cbe
00000180: 5720 0040 8c63 27be 4a4a 01be b7f1 173f
00000190: cb60 1a3e 60fa 36be 54bb 0dbd d92e 9ebf
000001a0: 71b6 6f3f 783c 98bf 0185 1a3f 2591 853f
000001b0: 0cfd c13e 5222 bfbe 4bf4 90c0 a78c 723f
000001c0: 4d2a 913f 58db 403e 1f37 113f 0d4c e3bd
000001d0: ebae 0b3f e7ed 9dbd 0eca 0cbe a810 473f
000001e0: 58ef 553d 00d7 43bb 8c2a 173f 4ad9 9b3e
000001f0: dac9 b9bf b46b db3e 17e3 12bf 1073 9dbe
00000200: ae68 4bc0 7260 d13d 878c 4dbf 3c48 6abf
00000210: b6e7 b63d 9cc5 1dc0 a08d 07bc b4d1 173e
00000220: f7b2 05be e02a 99bf 04a3 5dbf b003 cbbf
00000230: 8e68 95bf 2215 2f3d 9d8c 90be 095b 34c0
00000240: 92b5 acbf ae5d f0be 8b72 fa3d c783 f13f
00000250: 1501 6abe 3427 bfbd 6a3c 17be 4b16 20bf
00000260: a0d0 fd3b 238b b2bd 4596 cbbe b350 db3d
00000270: a669 b93f caf2 50bf c8ba 69bf fe87 2e3f
00000280: 5bac c2bf 7828 553d 1f32 68bf 63d5 dd3f
00000290: 2d31 09be c7bc 7abf 821c 8b3d 586b 6b40
000002a0: 3934 363e 2623 f2bf 7687 bebf 8397 b73f
000002b0: 361b bfbe d651 ea3f 94d8 26bf c03d 44be
000002c0: c2cd 3fbf 2751 85bd 047a a1be cc22 cebf
000002d0: fedd 6dbf 0393 193e 6622 f93d a106 64bf
000002e0: 4b64 323e cb74 cabd 144c bf3e 8960 51be
000002f0: d6ed 02c0 2970 4fbe 6708 c43e d1b9 513f
00000300: dc3a 16c0 4064 f0bb 7433 63bf 00b7 26c0
00000310: e2fa 1fbe 945b aabf d4e0 823d 5eea f5be
00000320: ab1e 673d 447e 26bf df48 17bf 7e5a 3bbf
00000330: fdd7 4f3e 0128 76bf 3af1 21c0 1ccd 61bf
00000340: 4e9d 813f 4ab0 abbf 3d42 a9bf 9752 10c0
00000350: 8f6b 1bc0 53a4 2e3e c7bb 1d3e 0129 733f
00000360: 78d9 03be d594 15be 9624 433f a957 0a3f
00000370: 72f6 d93e 4545 4e3f 56e7 f2be be13 293f
00000380: cfc4 bbc0 98f1 8ebd c1c2 583d bf43 6640
00000390: 6ad5 f93d 1de8 9f3e 6c4b dabd 9213 7640
000003a0: 4b4b 47bf dfa7 37bf 0dc7 be3f 6fbc 82be
000003b0: b654 0cbf d2c8 763d 17c8 403f c47d a8bf
000003c0: 1b07 843f ed50 eabd 720c f53f dd53 c3be
000003d0: 959f 6bbf d47b 0cbd c086 7dbc 06f7 bc3f
000003e0: 3cb0 823d 82fb f03d 5095 89be 6495 16be
000003f0: 9c09 4d3f 5a4f 7bbf 3664 c93e 97e4 863f

bias f4 [256]
0.43441013 -0.46041256 -0.9501698 -0.38454488 -0.6751373 -0.7012236 -0.8281609 0.02367171
0.7141953 -0.85094696 0.080812275 2.1175535 0.93138474 -0.35698795 -0.3701818 0.40744162
-0.3915712 -0.9267247 0.1835877 -0.43075025 -0.76293933 0.69445145 0.11741954 1.139107
-0.4945374 -0.62308794 1.2761873 0.05554181 -0.14037 -0.43616125 2.3361268 0.6880345
-0.6254181 0.21660946 0.5139153 0.5337769 -1.1879452 2.1664093 0.6018669 -0.21008213
0.54109526 -0.7818411 -0.15380724 -1.2510407 -0.7727016 1.3282557 -0.8827399 -0.6621603
-0.03456776 -0.9818923 1.032854 -0.23107466 -0.08945345 -0.6746346 0.82156575 -0.48566464
1.0948677 -0.46902755 -1.5690558 0.46755132 -0.5236995 -0.010550182 0.39808783 0.01223758
0.47742558 2.0149949 -1.5877723 0.61496353 0.9982084 -0.4684271 0.20017733 -1.431677
-0.23211242 -0.5392001 -0.28429037 0.52060884 -0.578368 0.34942707 -0.91428435 1.236026
-0.27793953 0.2671344 -0.6944521 0.077270865 0.13181663 -0.015866391 0.470948 0.699496
-0.089629 0.60883296 0.39549538 -0.57930017 0.45210072 0.23807374 -0.23889267 -0.5509951
-0.37625593 -0.38002464 -0.11753177 -0.707406 -1.0626825 0.14663306 0.115234725 -0.41761082
-0.93443763 1.8163974 1.2105557 1.6154809 1.2404876 0.06248415 1.6121581 0.34024537
0.44612437 0.31275758 -0.8180036 -0.6526942 -1.6718321 5.508557 0.553001 -0.589179
-0.57741106 0.2621352 0.12278707 -0.04170808 0.40681282 -0.13273548 -1.1976573 0.0048057
-1.219547 -0.05596399 0.33420038 0.6474824 -0.13310468 -0.095113024 1.1567719 0.41616982
0.13971105 1.5263206 0.3770252 0.41152442 0.6074335 -0.36939436 0.1531867 -0.06891552
0.013561389 0.8738933 -0.84125245 -0.5006853 0.7392797 -0.08659787 -0.31399772 1.4550234
0.017174853 -0.47230867 0.3167839 -0.38170916 0.41663957 -0.9574128 0.15224268 -0.6139837
0.5335548 -0.10545718 -0.79204476 0.95266104 0.6871959 -0.2080789 0.940502 -0.1119794
-1.1532806 -0.34521055 0.4470622 0.65568674 -0.026126113 0.41318628 0.5179289 -0.07124716
-0.026738977 0.32503578 0.09802 1.1446457 0.40631473 -0.31627285 -0.68581975 -0.036142837
0.5731927 -0.7233825 -0.5440047 0.033986036 1.1966943 -0.712893 0.2550467 0.37829235
0.19737263 -0.32651645 -0.6191984 -1.00492 -0.10262171 -0.0693992 -0.62914115 0.3399101
1.6448691 -0.32800874 0.7564982 -0.8814434 0.039325476 0.8737723 -1.1985414 0.20419054
-0.06518626 -1.0453562 0.19853815 0.37904721 0.45187715 -0.16757962 0.0007520312 0.6536046
-0.28934968 -0.7284781 -0.68330264 1.4632595 -0.4415421 -0.13649203 -0.44988167 -0.1277698
1.1283625 0.3353445 -0.4452367 -0.5177817 -0.65704113 -0.78952014 -1.1373585 0.14161824
-0.61822134 -0.6235777 1.0929118 0.9913954 1.3801914 0.62839174 -0.25674137 0.66171426
-0.47549123 0.165471 0.7835227 -0.32589015 -0.19549873 1.0181272 -0.40793827 -0.59994495
1.2627218 0.7563618 -0.5774172 -0.22411203 0.48777634 -0.35451683 -0.12690917 0.19337294
00000000: 016b de3e 32bb ebbe 543e 73bf 11e3 c4be
00000010: ccd5 2cbf 6483 33bf 5a02 54bf 2deb c13c
00000020: 81d5 363f a9d7 59bf e880 a53d ff85 0740
00000030: 3b6f 6e3f 20c7 b6be 7888 bdbe 309c d03e
00000040: 057c c8be d43d 6dbf 6afe 3b3e 4c8b dcbe
00000050: fe4f 43bf 92c7 313f a879 f03d 42ce 913f
00000060: 0234 fdbe b182 1fbf 1b5a a33f cf7f 633d
00000070: 27bd 0fbe 8750 dfbe 1a83 1540 0723 303f
00000080: 671b 20bf dfce 5d3e f48f 033f 9aa5 083f
00000090: 970e 98bf 73a6 0a40 f313 1a3f c51f 57be
000000a0: 3885 0a3f bd26 48bf a57f 1dbe 1a22 a0bf
000000b0: c6cf 45bf 4804 aa3f 3efb 61bf 5683 29bf
000000c0: ec96 0dbd 4b5d 7bbf 8f34 843f d69e 6cbe
000000d0: 5f33 b7bd dab4 2cbf 2252 523f 09a9 f8be
000000e0: a024 8c3f 6124 f0be d2d6 c8bf e362 ef3e
000000f0: 2c11 06bf acda 2cbc 2bd2 cb3e 2180 483c
00000100: 2071 f43e adf5 0040 1f3c cbbf 406e 1d3f
00000110: 968a 7f3f add5 efbe 49fb 4c3e 3141 b7bf
00000120: e1ae 6dbe 0509 0abf 828e 91be 9f46 053f
00000130: ed0f 14bf 1be8 b23e 8a0e 6abf 1a36 9e3f
00000140: 174e 8ebe d7c5 883e 9dc7 31bf 3040 9e3d
00000150: f0fa 063e 3cfa 81bc 1920 f13e 2b12 333f
00000160: 698f b7bd 7adc 1b3f 5f7e ca3e 044d 14bf
00000170: bf79 e73e 9ac9 733e 48a0 74be 040e 0dbf
00000180: 9ea4 c0be 9792 c2be 7fb4 f0bd 8f18 35bf
00000190: fb05 88bf fa26 163e 2f00 ec3d 16d1 d5be
000001a0: 4e37 6fbf b67f e83f 7df3 9a3f 14c8 ce3f
000001b0: 4cc8 9e3f 61ef 7f3d 325b ce3f a434 ae3e
000001c0: 6a6a e43e c321 a03e af68 51bf f816 27bf
000001d0: 98fe d5bf 1946 b040 7991 0d3f 6fd4 16bf
000001e0: 36d1 13bf 9636 863e ca77 fb3d 17d6 2abd
000001f0: c549 d03e cfeb 07be d64c 99bf 2279 9d3b
00000200: 1e1a 9cbf 7f3a 65bd 501c ab3e 68c1 253f
00000210: 984c 08be 9eca c2bd 1a11 943f 3614 d53e
00000220: 6a10 0f3e 795e c33f 7209 c13e 54b3 d23e
00000230: c380 1b3f 4221 bdbe f9dc 1c3e 9523 8dbd
00000240: 9730 5e3c 79b7 5f3f 525c 57bf e92c 00bf
00000250: 6f41 3d3f 395a b1bd 4fc4 a0be 353e ba3f
00000260: 47b2 8c3c 71d2 f1be 8031 a23e 626f c3be
00000270: c851 d53e 0119 75bf 81e5 1b3e 092e 1dbf
00000280: 0c97 083f eff9 d7bd 72c3 4abf 98e1 733f
00000290: 12ec 2f3f a312 55be bdc4 703f 7555 e5bd
000002a0: b39e 93bf 70bf b0be 56e5 e43e 16db 273f
000002b0: 6e06 d6bc 278d d33e fd96 043f 08ea 91bd
000002c0: b30b dbbc 176b a63e b6be c83d c083 923f
000002d0: 7c08 d03e 84ee a1be e291 2fbf 830a 14bd
000002e0: c2bc 123f 982f 39bf e443 0bbf f134 0b3d
000002f0: 472d 993f 2880 36bf 7b95 823e 89af c13e
00000300: 0d1c 4a3e 2a2d a7be c983 1ebf 38a1 80bf
00000310: 552b d2bd 2b21 8ebd 650f 21bf b208 ae3e
00000320: 128b d23f c3f0 a7be dea9 413f 46a6 61bf
00000330: c013 213d 8baf 5f3f ce69 99bf 5317 513e
00000340: 6080 85bd 3bce 85bf 964d 4b3e 7a12 c23e
00000350: 715c e73e fe99 2bbe f623 453a a252 273f
00000360: a425 94be 8a7d 3abf ecec 2ebf 164c bb3f
00000370: ce11 e2be 91c4 0bbe e456 e6be 16d6 02be
00000380: 2f6e 903f 46b2 ab3e 11f6 e3be 578d 04bf
00000390: d933 28bf fe1d 4abf f794 91bf 5f04 113e
000003a0: c143 1ebf caa2 1fbf 89e4 8b3f 17cc 7d3f
000003b0: 1daa b03f 48de 203f 9b73 83be 1b66 293f
000003c0: 9673 f3be 3b71 293e f294 483f 13db a6be
000003d0: d230 48be fe51 823f 49dd d0be fe95 19bf
000003e0: dea0 a13f eda0 413f 9dd1 13bf a07d 65be
000003f0: d2bd f93e 3b83 b5be 7af4 01be 8e03 463e
