data/HalfCheetahPyBulletEnv-v0_sac_grad_False/HalfCheetahPyBulletEnv-v0_sac_grad_False_s0/pyt_save/model.pt (torch_old, 905978 bytes, 18 tensors)

weight f4 [256, 26]
000000 b6 db 16 bf da 75 d7 3d ae aa e1 be f9 c2 6a be
       -0.58929 0.10520525 -0.4407553 -0.22925939
000010 16 b2 9a bd 3d be 58 3e 00 a7 7e bb bc ad aa 3f
       -0.075534984 0.2116632 -0.0038856864 1.333427
000020 96 9e b0 be e5 84 3e bd d1 28 3f bf b0 3a 95 be
       -0.3449599 -0.046513457 -0.74671656 -0.29146338
000030 58 cd 03 bf d0 1f 9b be e8 8e 6c bf 05 cf 90 be
       -0.51485205 -0.3029771 -0.9240556 -0.28282943
000040 15 0c 28 be 40 10 ed 3d 2e e2 a3 bf de 85 1d bf
       -0.16410859 0.11575365 -1.28034 -0.6153239
000050 20 32 a0 be cd c2 26 3e 4c 51 25 bd 5f dc 16 3e
       -0.31288242 0.16285248 -0.040360734 0.14732502
000060 2c 7a 01 bd c8 ff a9 3c ea b5 fb be 27 4c 3a be
       -0.031610653 0.020751849 -0.49162227 -0.18193112
000070 c0 cd 39 bf 01 37 cf be c0 8f 9c bd 7a d6 07 3e
       -0.72579575 -0.40471652 -0.07644606 0.1326541
000080 5a 2b 02 be 72 86 b3 be 01 cb 02 bf a7 ac 47 bf
       -0.1271185 -0.3506351 -0.5109101 -0.7799782
000090 49 cf 35 3e 88 94 4b 3f 93 b3 89 3e 54 ce 19 3e
       0.17754854 0.79523516 0.26894817 0.15020114
0000a0 07 90 ea 3e c6 97 42 3f 06 a1 9a be d0 2f 97 be
       0.4581301 0.7601284 -0.30200976 -0.29528666
0000b0 41 1c 36 bf 94 7a 84 be 8a ca 7f 3e 56 7e eb 3d
       -0.7113686 -0.2587477 0.24979606 0.11498706
0000c0 c1 20 b2 bd ce 78 dc bc 3f 70 00 3e 0d a5 47 3e
       -0.086976536 -0.026913073 0.12542818 0.19496556
0000d0 3d 9b 98 3d b8 09 d9 3c be db 72 bb 46 76 ce 3e
       0.07451484 0.026493892 -0.0037057246 0.4032461
0000e0 48 b0 15 3d d9 bc 54 bf 06 30 0b be df e0 7b bf
       0.036545068 -0.8310066 -0.13592538 -0.9839
0000f0 d3 fa a7 3e 52 5f 4a be bb 68 49 3e 63 d2 e3 3d
       0.3280855 -0.19762924 0.19668858 0.111241125
000100 ab 21 de bd 37 17 b3 3e 33 ea 93 bf 9a 1c c9 bc
       -0.108462654 0.3497865 -1.1555847 -0.024549771
000110 fc e0 eb 3e 35 42 a7 3d fe 90 9a bf f6 6a 23 3f
       0.46070087 0.08166925 -1.2075498 0.63835084
000120 ed 09 a1 be 47 64 26 3e f1 c1 2e 3e 45 32 82 be
       -0.31452885 0.1624919 0.1706617 -0.25428978
000130 e0 dd 1f 3d d3 a1 2e be 7c 3f 95 3f 94 45 fb bd
       0.039029956 -0.17053919 1.1659999 -0.1226913
000140 8d ac 3d bf 94 44 c2 3e 9b b2 18 3e a7 17 2f bf
       -0.74091417 0.37942946 0.14911883 -0.68395466
000150 90 5a 16 3d c6 12 7e be a6 40 51 3e c0 c5 47 bf
       0.03670746 -0.24811849 0.20434818 -0.7803612
000160 28 ff 87 3e fb 73 11 3d 20 1c 32 3e 9f 6f 9f 3d
       0.26561856 0.035511 0.17393541 0.07784962
000170 66 c8 0b 3f f6 1e 45 3f 71 2c b0 bf b1 be 19 bf
       0.5460266 0.7700037 -1.3763562 -0.60056597
000180 a1 73 b0 3e 79 3c ae 3d 4a 9c 1c bf 88 46 e7 bd
       0.34463218 0.08507628 -0.6117598 -0.1129275
000190 8d ec 3c 3e 4f 19 42 be b0 20 af bd 20 2d 4a bd
       0.18449612 -0.18954967 -0.085511565 -0.04935944
0001a0 d9 8a 0e 3f 00 04 67 bb 92 95 4a bf 63 54 4d be
       0.55680615 -0.0035250187 -0.79134476 -0.20051722
0001b0 50 0b 31 bc 3c 8e c5 3d 73 7c a4 bd 23 5f c0 be
       -0.01080592 0.0964627 -0.08031549 -0.37572584
0001c0 61 18 53 3f b6 43 87 3e 6b 82 46 3e 5f a9 1f bd
       0.82459074 0.26418847 0.19385688 -0.038979884
0001d0 04 b0 51 3e b9 b4 6c 3e 54 c4 49 be 14 ba e5 3e
       0.20477301 0.23115815 -0.197038 0.4486853
0001e0 7a 66 a1 be 1d b0 8d 3d cb fd ff bd a7 0e 13 3e
       -0.31523496 0.069183566 -0.12499579 0.14361058
0001f0 00 ad 2b bf e5 0e ee bd 80 16 49 bd c6 02 c8 bf
       -0.6706085 -0.11623935 -0.049093723 -1.5625846
000200 56 82 8c bd 4c 99 24 be 91 e3 93 bf 74 b5 2b 3d
       -0.06860797 -0.16074103 -1.1553823 0.041921094
000210 4a 1d 06 bf c0 76 b5 be 5f c2 0f 3e 28 16 6d 3e
       -0.5238844 -0.35442162 0.1403899 0.23152983
000220 20 9a b2 3b fc 14 6e 3f 77 d3 04 3f d2 86 75 3f
       0.005450502 0.9300077 0.5188517 0.95908844
000230 12 29 61 3f 9a 00 7f bd 62 88 b8 3e 4c 38 88 bc
       0.87953293 -0.062256433 0.36041552 -0.016628407
000240 46 c6 c8 3e ee 46 cf be 0e 5f 9a 3b 7d 07 3d be
       0.3921377 -0.40483803 0.0047110384 -0.18459888
000250 ce d4 fd be 7f 9c ee 3e 1d 26 c1 3d 07 7f 29 be
       -0.4957642 0.46603772 0.09431098 -0.16552363
000260 e4 ef 22 bd 1a 89 71 3e 6e 25 d9 3d 16 ae 41 be
       -0.03977956 0.23587456 0.10602842 -0.18914065
000270 13 cc 0b 3f 55 25 1d be 22 7a 2d bf 4c 24 2e bf
       0.5460827 -0.15346272 -0.67764485 -0.68024135
000280 ec b9 1a bd d5 66 a2 bd 5c 35 34 be d7 d8 ac bf
       -0.037774965 -0.0792977 -0.1759848 -1.3503674
000290 d3 62 35 3e b4 ab fe be 97 87 31 bf da 0c 8f 3e
       0.1771348 -0.49740374 -0.6934752 0.27939492
0002a0 48 9e 8e be c5 4c d2 3e f4 01 51 3e 07 a8 b3 3c
       -0.27855134 0.41074196 0.20410901 0.021930708
0002b0 5b 55 e3 3d 54 49 bb 3d 72 51 82 bf 45 df 24 3f
       0.11100265 0.091448456 -1.0181105 0.6440318
0002c0 c5 97 e5 be 26 4c b3 bd b5 96 20 3e a6 11 96 3e
       -0.44842353 -0.087547585 0.1568249 0.2931034
0002d0 f0 64 ac 3c 24 2f 28 bd f9 8f 26 bf 04 3c 60 3d
       0.021044225 -0.04106058 -0.65063435 0.054744735
0002e0 b4 65 a9 bd c9 3d af 3f dc 2b 41 bd 6c af a6 3e
       -0.082713515 1.369073 -0.04716097 0.3255571
0002f0 94 7e 25 be 2e e2 66 3f 8e b6 f4 be 50 ee bc 3e
       -0.16161567 0.9018887 -0.47795528 0.36900568
000300 39 df 1b bf 96 c0 9f 3e 30 d2 8f 3b 6b d1 1d 3d
       -0.60887486 0.3120162 0.00438907 0.038529795
000310 f4 1c 25 3f eb 41 58 3e c1 b5 45 3e a4 ed 9f 3e
       0.64497304 0.21118896 0.19307615 0.31235993
000320 5f fc 39 bf eb 04 8c 3e 32 14 d3 bf 0e de 09 be
       -0.7265071 0.27347502 -1.6490538 -0.13463613
000330 65 38 e9 bd 3c db fb 3e ac 60 90 bd 51 64 29 3e
       -0.113877095 0.491907 -0.07049689 0.16542174
000340 a5 70 6d be 70 6f cb 3c 06 61 18 bf 48 f1 c6 be
       -0.23187502 0.024833411 -0.59523046 -0.38855958
000350 78 92 c9 3c 0b fe dc 3e 00 9e b4 ba 29 9f b6 3e
       0.024605975 0.4316257 -0.0013779998 0.35668305
000360 4a d6 f0 bd c2 96 61 be a1 34 14 3f 2a eb fa 3e
       -0.117596224 -0.22030166 0.57892805 0.4900754
000370 2f 65 1b 3f 8c 55 89 be 5a 06 64 3f 7f 8d e2 3d
       0.6070127 -0.2682308 0.8907219 0.110621445
000380 76 4f d8 be e8 54 8a 3e 69 4f f5 be 68 38 b5 3e
       -0.42248124 0.27017903 -0.47912148 0.35394597
000390 c5 c7 20 3f 28 ea ed bc 00 96 0c 3b a1 15 d2 3e
       0.62804824 -0.029042318 0.0021451712 0.41032127
0003a0 60 90 c8 3c 2b e0 33 3e a7 cb 61 3f 15 ed fd bd
       0.024482906 0.17565982 0.88201374 -0.123987354
0003b0 c2 46 79 be f6 ba a1 bf 45 3a aa bd f2 fd 08 40
       -0.24343398 -1.2635181 -0.08311895 2.1404996
0003c0 ca 9e 84 3d ef b9 58 bf ae 4b 31 3f e8 05 4e 3d
       0.06475599 -0.8465871 0.69256103 0.0502986
0003d0 ec db 5c be fb e4 82 3d 80 0e e4 bd e6 d6 a3 bd
       -0.21568269 0.06391331 -0.11135578 -0.07999973
0003e0 e6 28 1b bf 03 82 31 3f 01 4a a3 3d 16 0e 26 3d
       -0.6060928 0.6933901 0.079730995 0.040540777
0003f0 dd 7f fb 3e 75 d7 3f 3c 1c 11 d8 bf 53 8b 94 bd
       0.4912099 0.011709084 -1.6880221 -0.072531365

bias f4 [256]
000000 72 0f be bd 32 d0 28 bf 98 19 af 3c 2d 53 16 bf
       -0.0928029 -0.6594268 0.021374509 -0.58720666
000010 27 da 1c bf 8f 8c c7 be ca 2b 22 bf af c7 44 be
       -0.61270374 -0.38974425 -0.63348067 -0.19216798
000020 54 06 46 bf 2d ef a0 be db 72 d5 bd eb 53 8b 3e
       -0.77353406 -0.31432477 -0.104222976 0.27212462
000030 6d 34 e3 be 7f 17 07 bf 61 7b 42 bf bb ca 6e bf
       -0.44375935 -0.5277023 -0.7596951 -0.9327809
000040 7b e7 49 bf 89 a2 1c 3d bd 37 08 be 21 1c a1 be
       -0.78868836 0.038240943 -0.13302512 -0.31466773
000050 4b 53 a6 be 3c 70 16 3d 9b b5 4d bf 5e a7 f7 be
       -0.32485422 0.03672813 -0.8035523 -0.4836988
000060 c0 10 7d bf e7 2f 8a bf 89 3f 86 bf 7f 1c 0e bf
       -0.98853683 -1.0795869 -1.0488139 -0.5551223
000070 57 15 36 bf 50 66 07 bf 23 28 83 be 39 01 95 bd
       -0.7112631 -0.5289049 -0.2561656 -0.07275624
000080 19 6c 0e bf 92 a2 d1 be eb f2 86 be 77 5e 16 bf
       -0.55633694 -0.40944344 -0.26357207 -0.5873789
000090 c0 11 f8 3d a6 9d 1c bf 31 23 aa be 3b 03 46 bf
       0.121127605 -0.6117805 -0.33229974 -0.7734868
0000a0 6a 41 2b be 98 33 2f be ae f6 ab be c2 53 0f bf
       -0.16724172 -0.17109525 -0.3358664 -0.5598718
0000b0 fb 9d 00 bf 87 f4 90 be e4 87 8e bd fe ac 4a bf
       -0.5024106 -0.2831156 -0.06959513 -0.79170215
0000c0 61 7e ec be bc f4 6d be 4b 54 1b bd 5d d4 96 be
       -0.4619017 -0.2323789 -0.037922185 -0.29458895
0000d0 a1 17 ac be b3 29 04 bf 0f a3 dc be 25 3b 01 bf
       -0.33611777 -0.5162613 -0.43093154 -0.5048087
0000e0 67 64 1e bf fb 6a 1c bf 2b e4 f1 be 25 f4 6d bf
       -0.6187195 -0.6110074 -0.4724439 -0.9295066
0000f0 40 97 3c bf 8f 47 52 bf a9 c1 5f bf d2 64 30 bf
       -0.7366829 -0.8214044 -0.87404877 -0.6890384
000100 c9 1f 3f bf 3e cc a6 be 11 6c 28 bf 53 18 a2 be
       -0.74657875 -0.325777 -0.65789896 -0.31659183
000110 85 98 ca be ea 3b d7 be 00 32 08 bf 9d c5 0e b9
       -0.39569488 -0.42037898 -0.53201294 -0.00013615792
000120 13 1b c3 be 91 8f f4 be 5d d9 e1 be 7b d2 f6 bd
       -0.38106593 -0.47765782 -0.44111148 -0.12051865
000130 c5 df a4 3e 36 2c 31 bf 29 2a 3d bf 1e 52 b3 be
       0.32201973 -0.69208086 -0.73892456 -0.35023588
000140 00 9a dc be 55 0e 4f bf 4c 11 0d bf 56 6b 19 bf
       -0.43086243 -0.80881244 -0.5510452 -0.59929407
000150 5a 03 46 bf 2a f0 44 3d 56 07 48 bf 1b fc 2c be
       -0.77348864 0.0480806 -0.78136194 -0.16893046
000160 45 70 7d be 3f 50 c6 be 3c d5 b9 be 9c a0 5f bf
       -0.24749859 -0.38733098 -0.36295497 -0.87354445
000170 47 ee ed 3e f5 ff 11 bf 2f db 6c bf 34 ab cf be
       0.46470854 -0.57031184 -0.9252195 -0.40560305
000180 8b c3 c3 be cc 70 1b bf dc 7e 29 be ae de c3 be
       -0.38235125 -0.6071899 -0.165523 -0.3825583
000190 fc db bb 3d 14 29 82 be cf 67 26 bf 5f bb 62 bf
       0.09172818 -0.25421965 -0.6500215 -0.88567156
0001a0 57 30 db bd 82 c5 17 bf 17 e2 07 bf 0e 80 3e bf
       -0.107025795 -0.5928575 -0.5307936 -0.74414146
0001b0 48 48 2f bf d7 ce 77 bf ec 91 62 be 07 76 5b 3c
       -0.6846967 -0.9679999 -0.22125977 0.013394839
0001c0 cd 4c 3d bf 2e e2 69 bf 8f 40 71 be e1 d1 24 3e
       -0.73945314 -0.9136075 -0.23559783 0.16095687
0001d0 9f f4 1f bf 1b 05 78 bd 56 0e 37 bf e1 20 37 bf
       -0.6248264 -0.060551744 -0.7150625 -0.71534544
0001e0 f0 4e 31 bf df a1 32 bf 4a 0d 23 bf c4 45 28 bf
       -0.69261074 -0.69778246 -0.6369215 -0.65731454
0001f0 4b 83 2b bf d3 84 68 3c 4f eb 8c bf f3 28 7a bf
       -0.6699721 0.014191824 -1.100931 -0.97718734
000200 92 4b 4b bf 1b a4 a7 be e6 c5 6a bf 08 12 2b bf
       -0.79412186 -0.3274239 -0.9170822 -0.6682439
000210 41 77 0e bf ac fc ae be cd f5 16 bf e3 d3 bb be
       -0.5565072 -0.34177148 -0.5896881 -0.36685094
000220 23 b5 d7 be e7 02 7a be d5 05 a2 3e 70 c9 35 bf
       -0.42130384 -0.2441517 0.31645074 -0.71010494
000230 39 8c 77 be 97 dc d4 be cd ce 2b 3d b7 a0 28 bf
       -0.24174584 -0.41574547 0.041945267 -0.6587023
000240 82 15 2f bf ff f8 00 bf 20 34 91 3e b0 73 bf be
       -0.68392193 -0.5037994 0.2836008 -0.3739295
000250 05 0c 55 bd 7c 20 8b 3d f4 4d 8d be 31 06 09 bf
       -0.052013416 0.06793305 -0.27598536 -0.5352507
000260 ce 8f b2 be 79 7d 4f bf 55 9e 47 bf 8a 3e 0b 3e
       -0.3487534 -0.8105083 -0.7797597 0.13598076
000270 f1 12 8c be 3a 8e f6 be 38 4c 14 bf 83 4b af be
       -0.273582 -0.48155385 -0.579288 -0.34237298
000280 e9 c7 de be d5 e5 04 be 79 02 d3 be 00 3f aa be
       -0.43511894 -0.12978299 -0.41212824 -0.3325119
000290 01 71 37 bf bf 1b 98 bd 3d 3f 98 be f2 2c 3e be
       -0.71656805 -0.07427167 -0.29735747 -0.18571833
0002a0 96 3e de be 10 d0 05 be 60 ce f2 be 77 3b 39 bf
       -0.43407124 -0.13067651 -0.47423077 -0.7235636
0002b0 f9 d8 0a 3f 8b f9 e6 be c7 14 e0 be 2f 62 31 bf
       0.54237324 -0.4511226 -0.43765852 -0.6929044
0002c0 0f 83 b9 be e8 af c0 be 76 5b 66 bd f2 ac 40 bf
       -0.36232802 -0.37634206 -0.056239568 -0.75263894
0002d0 fe 0f 32 bf 85 98 45 bf e9 28 de be 0a df 5f be
       -0.6955565 -0.7718585 -0.43390587 -0.21862426
0002e0 df 50 cf be 2c 73 36 bf f2 5e 05 bf 9c 77 09 bf
       -0.40491387 -0.7126949 -0.52098 -0.53698134
0002f0 45 01 9f be 1a 1c a7 be 86 ce c9 be 27 3c c6 be
       -0.31055656 -0.32638627 -0.39415377 -0.38717768
000300 30 fa 3e bf 79 96 81 be e2 54 1d bf 85 d0 e5 be
       -0.74600506 -0.25310114 -0.61457646 -0.4488565
000310 c9 38 1c bf 2b af 61 bf 40 2f 81 be 59 5c 38 bf
       -0.6102415 -0.8815791 -0.2523136 -0.7201591
000320 90 7d 02 be b8 90 18 3e f9 d3 40 bf 4d 75 48 bf
       -0.12743211 0.14898956 -0.75323445 -0.78303987
000330 e6 52 49 bf 54 9d 13 bf b2 7b 2b bf 77 02 61 be
       -0.7864212 -0.5766194 -0.6698562 -0.21973597
000340 84 7b 23 bf 06 81 4c bd 4a 3b d1 be 1f 9f 5a be
       -0.63860345 -0.049927734 -0.40865546 -0.21349762
000350 7a dc 85 bf 26 9f e9 3c 90 39 1d bf 93 c1 c2 be
       -1.0457909 0.02851827 -0.6141596 -0.3803831
000360 1b b1 00 bf 25 37 41 bf db 33 d0 be c0 6f 38 bf
       -0.5027024 -0.7547477 -0.40664563 -0.72045517
000370 26 f8 ae 3e cd 87 b1 3e 6b c1 41 bf a7 c7 2b bf
       0.34173697 0.3467392 -0.7568576 -0.6710152
000380 d2 b3 8b be 8a 9e 10 bf a2 ca 5a bf 42 06 1f bf
       -0.2728563 -0.5649191 -0.85465443 -0.62118924
000390 48 fd 88 be 99 c7 60 bd 73 47 7c 3d 82 a1 ae be
       -0.26755738 -0.05487785 0.061591577 -0.34107596
0003a0 8e 7d 11 be 43 73 38 bf 60 d0 c3 be b6 96 b0 be
       -0.14208052 -0.72050875 -0.38244915 -0.34489983
0003b0 e7 d0 03 3e 78 ab 52 be 49 fa 01 bf 99 0d a5 be
       0.12872659 -0.20573223 -0.5077253 -0.32236937
0003c0 12 98 32 bf 35 66 17 bf e5 35 2d be ce b8 1f bf
       -0.6976329 -0.5914033 -0.1691509 -0.62391365
0003d0 fe 38 eb be 79 ba d0 be 76 be cb bd aa 4c 6a be
       -0.4594192 -0.40767267 -0.09948437 -0.22880808
0003e0 5e 63 cd be 05 f5 17 bf 6b d9 b9 be 2a 05 3e bf
       -0.40114874 -0.59358245 -0.3629869 -0.7422663
0003f0 9b bc 72 bd 2f c8 02 bf f0 1a af be 58 49 28 bf
       -0.0592619 -0.51086706 -0.3420024 -0.65736914

weight f4 [256, 256]
000000 e4 dc 5b bc 77 b2 2a bf d2 ec a0 bf 50 ce 00 3d
       -0.013419364 -0.66678566 -1.2572272 0.031446755
000010 01 f2 17 3f 7b 17 42 3e 08 04 04 bd 92 0d a6 3c
       0.59353644 0.1895427 -0.032230407 0.020270143
000020 5b 1f 1d 3f 89 39 7b be a9 01 49 3d d8 d0 4a bb
       0.6137597 -0.24533667 0.04907385 -0.0030947234
000030 fe 3f 99 be 74 30 74 bf 73 c7 87 bc fd f3 2b 3d
       -0.29931635 -0.95386434 -0.016574597 0.041980732
000040 86 89 f3 be e3 a3 43 bf 29 11 ad 3e 59 e2 8f bf
       -0.4756586 -0.76421946 0.33802155 -1.1240951
000050 f1 3b 2c bf 48 02 bf be c3 b3 9a bf 80 75 84 be
       -0.67278963 -0.37306428 -1.2086109 -0.25870895
000060 2b b0 33 bf 9c 66 a2 be df e2 2f bf b9 37 98 bf
       -0.70190686 -0.3171891 -0.6870555 -1.1892005
000070 1c 78 27 3e d5 90 b3 3e 1d 0c d7 3d 69 55 2f 3b
       0.16354412 0.35071436 0.10500357 0.002675379
000080 69 a0 58 bf 01 7f 1b bf 08 fe 49 bf 29 a1 13 bf
       -0.84619766 -0.6074067 -0.78903246 -0.57667786
000090 9e ca 1f be f0 33 43 be 36 0d 8d be ff 3d b4 3f
       -0.15604636 -0.19062781 -0.27549142 1.408142
0000a0 41 da 13 bf c8 c4 b6 be d4 f8 8a bf e3 35 cd 3e
       -0.57754904 -0.35697007 -1.0857186 0.40080175
0000b0 cb c8 8c bf 91 57 4e 3c 99 ee a2 bd e6 57 96 bf
       -1.0998777 0.01259412 -0.07955665 -1.1745574
0000c0 8d 52 1f bd ed 26 bd be 61 e3 9a bc 71 c4 eb be
       -0.038897086 -0.3694376 -0.01890725 -0.4604831
0000d0 f6 7b f8 be 33 1b 2e 3f 36 7e a8 3c d4 94 d0 be
       -0.48532075 0.6801025 0.020567995 -0.40738547
0000e0 98 84 aa bf 78 66 19 bf 3c fd cd 3e 21 9d db be
       -1.3321714 -0.5992198 0.40232265 -0.42893317
0000f0 9d 24 ec be e5 b6 aa be 31 07 28 3f 69 97 65 bf
       -0.46121684 -0.33342662 0.65635973 -0.8968416
000100 9e 22 01 bd d9 e0 e0 3e 7d 8a f5 be 47 29 d6 bc
       -0.031527154 0.43921545 -0.4795722 -0.02614273
000110 94 3a 49 bf 9b b7 9d bf 84 ab 2d 3e 22 88 64 bf
       -0.7860501 -1.2321657 0.1695996 -0.8927022
000120 e6 2d 07 bd 07 36 b1 be be 59 bd be 35 f7 32 3f
       -0.033002757 -0.34611532 -0.3698253 0.6990846
000130 de dd 71 be 52 e4 96 3d 2b 96 c8 be 7a c4 03 bc
       -0.23619792 0.073677674 -0.3917707 -0.008042449
000140 37 8e 25 be 19 62 63 3e 63 2e 8d bd 2d 0b 87 bd
       -0.16167532 0.2220539 -0.06893613 -0.065939285
000150 fb 60 c8 3e ca 8e 89 be e0 b8 d1 3d 8f 58 8f be
       0.3913649 -0.26866752 0.1024034 -0.27997252
000160 01 b6 8c be 6a 9a 5f bd d7 19 f2 be a7 af c7 be
       -0.27482608 -0.05459062 -0.4728534 -0.390012
000170 66 fa d8 3c 86 d6 95 bf d2 9c 0c be a2 32 a5 be
       0.026486587 -1.1706092 -0.13731697 -0.32265192
000180 49 83 bd bf 03 af 9a bf 70 82 b5 be c5 ae f4 be
       -1.480569 -1.2084659 -0.35451078 -0.4778959
000190 ea 38 dd bd 2b 80 62 bf ed 36 34 bc 64 bf 27 bf
       -0.10801871 -0.8847682 -0.010999423 -0.65526414
0001a0 87 f2 56 3e 3d 27 55 be 14 ae 04 bf c3 1d 30 3f
       0.20990954 -0.2081575 -0.5182812 0.6879541
0001b0 41 72 17 3f eb 28 de bd 21 23 79 be 60 33 3f be
       0.5915871 -0.10847648 -0.24329807 -0.18671942
0001c0 0c 49 71 3e 0e d0 25 bf 75 3f b9 be f7 c9 d6 bf
       0.23563021 -0.6477059 -0.36181226 -1.6780385
0001d0 e7 ea e9 bc d8 48 66 bc 17 80 44 bf 89 9e 97 bf
       -0.028554393 -0.014055453 -0.7675795 -1.1845256
0001e0 54 3c d5 be 59 be 61 3e a8 56 19 be 77 f2 4c 3c
       -0.4164759 0.22045268 -0.14974463 0.01250898
0001f0 57 c7 29 c0 c4 4c 10 be d4 71 46 bf ae 1b 16 bf
       -2.6527917 -0.14091784 -0.7751744 -0.58635986
000200 d8 9b d4 be 80 ea f6 be 15 f3 d4 be 80 66 ed be
       -0.4152515 -0.48225784 -0.41591707 -0.46367264
000210 d1 78 75 3f 46 d4 59 bf 9c 48 fc be 30 b4 ea bd
       0.95887476 -0.8508953 -0.49274147 -0.11460149
000220 7c 66 38 be d0 90 79 bf 8e f9 7a bf 99 40 4e bf
       -0.18007845 -0.9748659 -0.9803704 -0.8056732
000230 67 73 b6 be 61 b2 3e bf 67 85 42 be 15 5f 83 be
       -0.3563492 -0.74490935 -0.18996201 -0.2565848
000240 e4 5f 60 be b6 8e 00 bf 03 52 3a bf 4a ee 02 bf
       -0.2191158 -0.5021776 -0.7278139 -0.5114485
000250 66 69 2e bf 8b 8f 94 bd 64 a6 cf bd 8c 0d 87 bd
       -0.68129575 -0.07253941 -0.10139158 -0.06594381
000260 02 e9 67 bf d9 4c 38 bf e5 99 06 c0 ae 95 a0 be
       -0.90589917 -0.7199226 -2.103143 -0.31364197
000270 4f 69 42 bc e7 dd 97 be 50 da f1 be ae 58 85 be
       -0.011865928 -0.29661486 -0.47236872 -0.2604422
000280 11 a6 a7 bf 96 b7 96 3d 91 c1 c2 bd c8 34 42 be
       -1.3097554 0.07359235 -0.09509576 -0.18965447
000290 a0 0f 00 bf ab dd 4e bf 15 c6 e3 3c 07 95 96 3f
       -0.5002384 -0.8080699 0.027804414 1.176423
0002a0 9f 90 76 bf e3 69 a8 3e 52 d9 81 be ff 61 aa be
       -0.96314424 0.32893285 -0.25361115 -0.3327789
0002b0 fb 63 25 bd 64 99 f0 bd 85 63 64 bf b5 e6 03 bf
       -0.040378552 -0.11748007 -0.89214355 -0.51523906
0002c0 87 2e 66 bf d2 c4 7d 3e f1 f2 24 bf b2 15 70 bf
       -0.89914745 0.24782112 -0.644332 -0.93783104
0002d0 54 7b 81 bf 9c b3 e9 3d a0 be ce bf 9a d9 98 be
       -1.0115762 0.11411211 -1.6151924 -0.29853517
0002e0 b9 6a 6b bd bc 9a 56 bf 2b 8e af bd de 5b ab 3b
       -0.057474826 -0.83829856 -0.08572038 0.0052294573
0002f0 dd 49 57 be aa e0 59 be 0c 00 01 bf a3 c4 ba 3e
       -0.2102427 -0.21277109 -0.50390697 0.36478147
000300 95 d3 fd be 06 3c 39 bf 2c ec 20 3f bc aa 1d 3e
       -0.49575487 -0.72357213 0.6286037 0.15397161
000310 56 21 3b be 8f 4c 35 bf 2f e7 35 bf f4 2b 79 bf
       -0.18274435 -0.70819944 -0.71055883 -0.9733269
000320 dc 31 6b 3e b1 1c fb 3d 5f f1 ee bd b3 68 23 bf
       0.22968239 0.12261332 -0.11667132 -0.63831633
000330 7d b6 15 bf a9 69 77 be 8e ac b0 bd 72 d4 d5 be
       -0.5848158 -0.241614 -0.08626662 -0.41763645
000340 46 f5 c2 be 93 a9 0c bf db 3c 39 3d 20 56 d1 bd
       -0.38077754 -0.5494625 0.045224052 -0.10221505
000350 7e f7 46 bf 85 6a 01 bf 15 b0 cf be 35 79 66 be
       -0.77721393 -0.5055316 -0.40564027 -0.22507174
000360 84 da cd 3e d7 a2 b9 bd 1c 54 6e be 64 06 08 3e
       0.40205777 -0.09064262 -0.23274273 0.13283688
000370 7e e8 c0 be 55 fb a4 3d 09 5b 2d bf f2 99 a2 be
       -0.37677377 0.0805575 -0.67717034 -0.31758076
000380 44 3a 61 be aa ac ca be 82 53 d3 be 69 f5 00 bf
       -0.21994883 -0.39584857 -0.4127465 -0.50374466
000390 69 33 5a 3e f1 49 b1 3e 62 89 41 bf f4 16 19 bf
       0.21308674 0.34626725 -0.75600255 -0.5980065
0003a0 ac 37 a8 3e 0d a7 c6 bd 7f a4 04 bf 07 b1 c4 be
       0.32854974 -0.09699831 -0.518135 -0.3841631
0003b0 ed 3c fb be 58 ee f9 be b5 d7 19 ba 18 b1 73 bf
       -0.4906992 -0.48814654 -0.00058686297 -0.951921
0003c0 47 1f 3a bf 53 0e 77 3e 6b be 05 3f b0 e3 00 3f
       -0.72703975 0.24126558 0.5224368 0.50347424
0003d0 af 11 c8 be a3 f9 bb bd 56 9a 55 bf 39 62 e2 be
       -0.39075992 -0.09178474 -0.8343862 -0.44215563
0003e0 34 f4 69 bf 6d fb b5 be 2b 60 e9 be e9 08 e7 be
       -0.9138825 -0.35543385 -0.45581183 -0.45123985
0003f0 7a 8d c9 3e 7f 15 2e 3e c3 50 81 bf f4 da d4 be
       0.3936575 0.17000388 -1.0102772 -0.41573298

bias f4 [256]
000000 80 1a 41 3e a9 a1 9c be da 1e 1a be 87 b6 55 3e
       0.18857765 -0.30592087 -0.15050831 0.2087041
000010 b7 df da bd bc 46 d3 bd fc 37 31 bf 73 04 cd be
       -0.106872015 -0.10316226 -0.6922605 -0.40042457
000020 62 fc 24 bf 88 21 22 be 60 b4 3c bf d2 49 ca bd
       -0.64447606 -0.15833104 -0.7371273 -0.09877361
000030 04 0e 52 bf cb 16 9b be e0 84 11 be 80 c2 8f bd
       -0.82052636 -0.30290827 -0.14210844 -0.0701952
000040 19 d0 70 3f 6f e3 47 bd 8b b7 83 3e 55 13 8d 3d
       0.9406753 -0.048800882 0.2572597 0.06888453
000050 a3 96 99 be d1 91 04 bf b2 24 3a be 94 86 ff be
       -0.2999774 -0.51785 -0.1817806 -0.49907362
000060 77 54 23 bd b4 6d 4e be be 05 05 bf a8 d2 b2 be
       -0.039875474 -0.20159036 -0.51961887 -0.34926343
000070 cb b0 c3 3d 1d 61 e3 3d 21 b0 82 3d 1f 4f 72 bd
       0.09555205 0.11102507 0.0638125 -0.059157487
000080 f5 a7 57 bf 22 c1 02 3f bb d3 2f bf fd 36 05 3f
       -0.8424066 0.5107595 -0.6868245 0.5203703
000090 fc a4 8d bd 91 d8 90 be 33 1b d3 bd 0e cb da bd
       -0.06916234 -0.28290227 -0.10307922 -0.10683261
0000a0 33 e7 6e bf 52 6b 9a bd 0b 85 86 bd 55 41 4b bd
       -0.9332153 -0.07540001 -0.06568345 -0.049622852
0000b0 bc fa 22 bf 97 cb ad bd 73 8a 0c bf 18 89 c8 bd
       -0.6366384 -0.08486097 -0.54898757 -0.097917736
0000c0 7d fc 71 be 98 96 32 bf 6b 29 a4 be ff 1c 8c bf
       -0.23631473 -0.6976104 -0.3206285 -1.0946349
0000d0 f3 ca 59 bf f5 ba 41 bd 21 ff 93 bd e6 66 13 be
       -0.850753 -0.047297437 -0.07226396 -0.14394721
0000e0 00 77 af bd 44 76 c9 bd 38 e5 e0 bd fe dc 0b bf
       -0.08567619 -0.098370105 -0.1098122 -0.5463408
0000f0 27 c8 41 be 76 4e b8 bd 17 6b 18 be 09 f9 1d bf
       -0.18924008 -0.0899934 -0.14884602 -0.6170812
000100 4b 00 03 be 06 73 0c bf 2a 75 da bb b5 97 9a be
       -0.1279308 -0.5486301 -0.006666799 -0.30193868
000110 40 62 b6 bd 9c 29 b6 bd 77 37 8c bf d0 a6 c2 3d
       -0.089054585 -0.08894655 -1.0954427 0.09504473
000120 f7 0a c9 3d 3b f9 67 bf 32 f5 8b be ec fc 08 3f
       0.098165445 -0.9061467 -0.27335507 0.5351093
000130 a0 a1 eb bd ca fe 6e 3f 73 21 ea bd 2c 3a bd 3e
       -0.11505437 0.9335753 -0.11432161 0.36958444
000140 a9 91 b6 3e e2 f1 43 be 17 58 ec bd da 84 92 be
       0.35658005 -0.1913524 -0.11540239 -0.28616983
000150 12 42 c2 be 2d dd 02 be 90 e8 39 bd 79 d1 ba 3e
       -0.37941033 -0.12779684 -0.045387805 0.3648794
000160 3f 7b 16 bf f1 ff e6 be c0 ae 19 3f 86 fe 8e bd
       -0.5878181 -0.45117143 0.6003227 -0.0698214
000170 b2 a7 16 bf b4 cd fa bd 96 e3 b3 bd be 45 ad 3b
       -0.5884963 -0.12246266 -0.08783643 0.005287855
000180 f5 aa eb bd 98 8c e0 bd cc 94 e4 be b0 68 16 be
       -0.11507217 -0.10964316 -0.44644773 -0.14688373
000190 72 78 92 3e 17 6b f0 3d 09 44 41 3e d1 7a 35 3f
       0.28607517 0.11739176 0.1887361 0.7089053
0001a0 37 e4 c3 bd 16 19 d9 bd 45 eb 0c bf 67 6c 33 3f
       -0.09565013 -0.10600488 -0.5504649 0.70087284
0001b0 27 95 39 3b 72 ea b2 bd 0c c3 16 be eb 55 5f bf
       0.0028317661 -0.08736123 -0.14722842 -0.87240475
0001c0 91 63 e3 bd 3d e3 16 3f 12 13 8d bd db a6 94 3d
       -0.11102975 0.5894049 -0.06888403 0.07258388
0001d0 d1 f1 0e bf 6d 65 14 be 24 05 b0 bd 1a 0c 36 be
       -0.5583773 -0.14491816 -0.085947305 -0.17778054
0001e0 3f 86 30 be 11 c8 39 3e 34 5c c7 bd a1 25 b7 bd
       -0.17238711 0.18142726 -0.09734383 -0.08942724
0001f0 90 0b 15 3d a5 82 8f bf 6e 9b 89 bd 8d ff 31 be
       0.03638798 -1.1211745 -0.06719099 -0.17382641
000200 ce ac 3a bd ac ee c1 be e4 3f b5 bd d8 bd 4b bf
       -0.045574956 -0.37877405 -0.08850077 -0.79586554
000210 7c ea e7 bd d9 79 32 3f 05 5c 13 bf 88 49 96 3e
       -0.11324021 0.69717175 -0.57562286 0.29352975
000220 15 64 e5 be 5a 42 91 3e f1 f6 16 bd 9e f1 b8 bd
       -0.4480292 0.28370935 -0.036856595 -0.0903046
000230 49 97 76 3f 4a 52 b9 bd 58 22 6b bf 6e 4b 7d be
       0.9632459 -0.090488985 -0.9184928 -0.24735805
000240 96 d9 70 bf 2b d4 7d 3c 63 83 25 bf c9 1a cb be
       -0.9408201 0.015492479 -0.64653605 -0.39668873
000250 a7 59 4a be e8 13 03 be 77 6d 63 bd de 4f 31 bf
       -0.19760762 -0.12800562 -0.055524316 -0.6926249
000260 1f ed cc bd 73 3e c6 bd da 0d c6 bd a5 c1 7f bd
       -0.10006165 -0.0967988 -0.09670611 -0.062440533
000270 24 99 43 be ab 93 f9 bd 8d 93 5d bf 26 b8 bb bd
       -0.19101387 -0.121863686 -0.8655327 -0.09165983
000280 cb 9f da bd 94 5c 8d bf 5a ce 78 bd f2 5b 99 bd
       -0.10675009 -1.1043878 -0.060743667 -0.0748824
000290 98 a5 cd bd c3 a1 0c bf bf f7 9f be 70 05 77 3e
       -0.1004135 -0.5493433 -0.31243703 0.24123168
0002a0 8e ca 8d bf 4d d8 11 be 9f 07 86 3f c5 57 83 3d
       -1.107744 -0.14242668 1.0471076 0.06413225
0002b0 cf b7 50 be 75 07 d1 bd e8 f2 0a bf 2e 3d 1b 3e
       -0.20382617 -0.102065004 -0.54276896 0.15160057
0002c0 4e 55 e9 be 63 18 b8 be cb e4 c0 be c1 ff 3c bf
       -0.45572895 -0.35956106 -0.37674555 -0.7382775
0002d0 64 72 8f bd 4d a2 80 bd 86 46 19 be 52 fd 6f 3f
       -0.0700424 -0.062809564 -0.14968309 0.9374591
0002e0 63 e3 1a bf ec 04 23 be c4 7c 53 be ca b6 a9 bd
       -0.60503215 -0.15919846 -0.20653063 -0.08286817
0002f0 9e e8 35 bf ba 2c 2a 3f f0 46 b2 be 92 6a 7d bd
       -0.7105807 0.664745 -0.34819746 -0.06186921
000300 05 38 19 bf 77 61 20 be 0b 2c 19 bf cf 41 60 bd
       -0.59851104 -0.1566218 -0.5983283 -0.05475026
000310 64 4d 4b bf 22 0e 04 3f d5 e1 c1 3d de 91 05 bf
       -0.79414964 0.51584065 0.09466902 -0.521757
000320 b3 e5 d8 3e 79 5a df bd 32 0a 92 3f 00 4a 6f be
       0.42362747 -0.10905928 1.1409361 -0.23368073
000330 f4 c5 a8 be ef 3e 6b be 81 8c 03 bf 0f 76 7f bd
       -0.32963526 -0.22973226 -0.51386267 -0.06236845
000340 42 4a ea bd d2 37 df bd f4 b1 f5 bd 7b 1a 84 be
       -0.11439945 -0.10899319 -0.119968325 -0.25801453
000350 32 86 2e 3d f4 2b d3 3e e3 be 03 be 16 81 ab bd
       0.042608447 0.4124447 -0.12865786 -0.083742306
000360 42 c6 14 be f4 db e3 bd 22 7c 7e bd 4b e9 eb bd
       -0.14528754 -0.11125937 -0.0621301 -0.115191065
000370 a9 7a a6 bd 64 7a 22 bf 9b 68 bd be 52 2d 08 bf
       -0.08128864 -0.63468003 -0.3699387 -0.53194153
000380 bd ce 77 be 5e f6 a3 bd 01 af b2 bd 45 bf 17 be
       -0.24199958 -0.08005975 -0.087247856 -0.14819057
000390 9a c7 b7 bd 18 2a c6 bd 5f 00 90 bd b6 2e 22 3f
       -0.08973618 -0.096759975 -0.07031321 0.63352525
0003a0 a8 e6 05 be d9 02 8e 3d 56 e3 9f bd 96 dd 31 bd
       -0.1307627 0.06934137 -0.07807033 -0.04342421
0003b0 90 86 e7 bd 81 ec 6f bd 6f 97 0a bf 90 ff 5b be
       -0.11304963 -0.058575157 -0.5413732 -0.21484208
0003c0 cf 37 6b 3e bf ed 1c bf 29 5c ee bd e3 23 67 bd
       0.22970508 -0.6130027 -0.11638672 -0.05643071
0003d0 4e 6e ed 3e 4b 36 41 be 7b ac 4d 3e 4b 81 29 3e
       0.46373218 -0.18868367 0.20085327 0.16553228
0003e0 35 f7 bd be e1 61 d0 bd 8f dc ca bd 22 c0 9f 3d
       -0.37102666 -0.10174919 -0.099053495 0.07800318
0003f0 ae 9f 89 bd bc 5e 28 be 9a 9c 8e be 0b b8 94 bf
       -0.067199096 -0.16442388 -0.27853853 -1.1618665

weight f4 [6, 256]
000000 c2 23 e7 bd 94 3e 93 be bc 88 80 ba 0d 24 41 3c
       -0.11286117 -0.2875868 -0.0009806375 0.01178838
000010 8d 01 ac 3d 78 45 1d be 97 a1 85 3d ea 0d c1 3e
       0.08398733 -0.15358531 0.065249614 0.37705928
000020 7f 63 79 3d c1 03 e5 3d 23 d2 f1 bd 11 d2 b9 bd
       0.060885902 0.111823566 -0.118076585 -0.0907327
000030 e5 fb b6 bb 82 2e e9 be 24 ff b3 bd 36 61 d8 bb
       -0.0055842274 -0.45543295 -0.087888986 -0.0066033853
000040 0a 00 1f 3d 95 7a 6f bd 6e ab 1b be ad 9a e6 3d
       0.038818397 -0.058466513 -0.15202114 0.11259971
000050 6d 06 a1 be a6 da bf bd 6a 20 e9 3c 31 06 6a be
       -0.31450215 -0.09367876 0.028457839 -0.22853924
000060 4e 91 c6 3a de 45 39 be 4b d5 03 be 74 0e 98 3d
       0.0015149505 -0.18093058 -0.12874334 0.07424632
000070 b1 b0 5b be 91 d9 cd be 04 65 28 3e 5d 83 88 3c
       -0.21454121 -0.40205052 0.16444784 0.016664201
000080 26 b7 47 be 8f 62 b3 3c 7c 03 49 be a7 30 a4 3c
       -0.1950346 0.021897582 -0.19630235 0.02004273
000090 39 02 a1 3b 72 e7 88 be 9e 28 53 3d 46 bb e3 bc
       0.004913595 -0.2673908 0.051552407 -0.02779926
0000a0 fe 1e a3 3d 9f 25 88 bc 1c 88 ff bc 90 a2 d3 bd
       0.07964896 -0.016619502 -0.031192832 -0.10333741
0000b0 13 1f c6 bd 8e 26 90 bd a7 d5 1a 3c 84 18 c0 bd
       -0.09673896 -0.07038604 0.009450353 -0.09379676
0000c0 41 ad 36 be 0a f2 58 3d fa de 5c 3c b8 35 f0 3e
       -0.17839529 0.0529652 0.013480896 0.46915984
0000d0 05 b4 42 be 6a b4 b9 3c c5 90 5e bb 24 64 3a 3d
       -0.19013985 0.022669036 -0.00339608 0.045505658
0000e0 93 db 13 3d 8f 75 5e bd ea fb b1 bc 39 9f 8e be
       0.036098074 -0.05431133 -0.021726567 -0.27855852
0000f0 6b 35 45 3e 2c 79 4b bd 8e e4 1b be 53 16 d2 3d
       0.19258659 -0.049676105 -0.15223905 0.10258164
000100 3b ee 86 bc 25 a2 59 be e3 24 83 3e ac c6 88 3d
       -0.016471019 -0.2125326 0.2561408 0.06678519
000110 8e 87 9c bd ad 4b 7c 3b cf 8f fc bc 0d 5a 99 be
       -0.076430425 0.0038497255 -0.030830292 -0.29951516
000120 0d e5 0f 3d 03 0e 96 3c 53 a2 fe bd 22 ec 97 3d
       0.03513055 0.018317228 -0.12433305 0.07418086
000130 50 3b c6 3b 14 39 06 3e b5 76 a6 bd b8 5d 90 3c
       0.006049551 0.13107711 -0.0812811 0.017622814
000140 ed cb 24 be 6a c7 94 be e2 dc 96 bc 98 bc 08 be
       -0.16093417 -0.2905839 -0.018415872 -0.13353193
000150 4c 68 c5 be 3f 4f 98 3c 53 2a 1a 3d 0f 29 32 bc
       -0.38556135 0.018592475 0.03763802 -0.010874047
000160 42 61 cd 3c 2a 22 24 be 15 b0 7a bd 78 ba 3e bd
       0.02507079 -0.16028658 -0.06120308 -0.04656455
000170 3c d8 85 bc cb 6f 81 3d 62 bc 3a bb e2 f6 81 bd
       -0.01633846 0.06320151 -0.0028493633 -0.06345917
000180 39 8e 86 3b 4e 7b d7 3c 37 fe a3 ba bf f8 97 bc
       0.0041063097 0.026303913 -0.0012511675 -0.018551229
000190 d3 0a 31 bc 09 1b bd 3d 3a f0 7e 3d f5 92 96 be
       -0.010805803 0.09233672 0.062240817 -0.29408994
0001a0 ea 8b 2b bd 97 50 46 bd b5 8c eb bd e5 93 96 3e
       -0.04188148 -0.0484167 -0.11501447 0.2940971
0001b0 c7 68 d9 3d 84 9c 93 3d 5a 8d 50 bc 2a 2a c4 be
       0.10615688 0.07207587 -0.012729013 -0.3831342
0001c0 26 d5 94 3c 32 d5 7b 3e fa ea 62 3d cd 6c 45 3e
       0.018168043 0.24593046 0.055399872 0.19279785
0001d0 72 c9 83 be a9 51 18 be 98 4f 0b bd 1c 1f bc 3d
       -0.25739628 -0.14874901 -0.034011453 0.09185621
0001e0 80 f1 f5 3e 57 ee d9 bc 8d 4a 71 bd 46 b3 96 3c
       0.48035812 -0.026602907 -0.058908988 0.018396031
0001f0 63 af 53 be e1 05 4d 3e 6e dc b2 bc 5d d2 86 3e
       -0.20672373 0.20021774 -0.021833625 0.2633237
000200 32 fc a8 bb cd 43 f6 3d 72 5c ee bc 46 12 61 3c
       -0.005157017 0.12024651 -0.029096816 0.013737267
000210 3b c5 62 bc 91 e6 8f 3d 83 36 a1 be 90 fe 2c 3e
       -0.013840969 0.07026399 -0.31486902 0.16893983
000220 50 32 68 be 54 33 5e bc ea 89 c9 3d f0 a4 04 3e
       -0.22675443 -0.013562042 0.09840758 0.12953544
000230 f7 91 1a 3e 61 1c a1 3c c2 38 96 bd eb 07 9f be
       0.15094744 0.019666852 -0.073350444 -0.31060728
000240 e7 18 18 3e be 87 1d 3e b1 06 0c be fd 7d 47 be
       0.1485325 0.15383813 -0.13674428 -0.19481654
000250 73 8c 6d 3d 76 8f 93 3d 89 99 07 3d 9c 0d 47 3e
       0.05799527 0.072050974 0.033105407 0.19438785
000260 7d 18 a3 bc 80 40 16 bf a4 65 b4 bd a4 58 98 bd
       -0.019909138 -0.5869217 -0.08808449 -0.07438782
000270 1c 2e 1d be c8 e9 76 bd a8 28 7a 3e 28 34 1c 3d
       -0.1534962 -0.060281545 0.24429572 0.038135678
000280 1c c2 58 be 1a 54 66 bb a4 43 4c bd c8 f7 05 3c
       -0.21167797 -0.0035145343 -0.049869195 0.008176751
000290 df 3e 4c bd b1 a4 98 3e 1b 24 5a be 8f c2 a6 3d
       -0.049864646 0.2981315 -0.21302836 0.08142578
0002a0 c1 e3 63 bd 43 7f c2 bd 4a 68 62 3e 81 f5 4b 3d
       -0.055637125 -0.094969295 0.22110096 0.049794678
0002b0 b4 d8 5c 3d 88 99 1b 3d 52 75 8d bc 9a d5 3f 3e
       0.0539176 0.037988216 -0.017267857 0.18733826
0002c0 94 fc d2 bd 65 8f a7 3e a2 33 8f 3e de f0 4b be
       -0.10302082 0.3272659 0.2796908 -0.19916102
0002d0 d5 2d 74 3e f3 22 8d bd 15 37 d0 be 85 3f dd bc
       0.23845609 -0.06891432 -0.40667024 -0.027007828
0002e0 6d 89 bd 3e 3c d1 41 bc 1d 2d 55 3e c8 df fc 3c
       0.3701891 -0.0118296705 0.2081799 0.030868426
0002f0 4e 03 2e bf d9 38 88 be 13 ef 7f 3d 4f f7 51 bd
       -0.6797379 -0.2660587 0.06248386 -0.051261242
000300 52 48 41 3e 0a 63 e5 bd da 46 7a 3e c7 3c be 3b
       0.18875244 -0.11200531 0.2444109 0.005805585
000310 8b 86 63 3e 11 f4 b2 39 92 5e 9f bd 60 84 4a be
       0.22219293 0.0003413265 -0.0778171 -0.1977706
000320 0c 44 f5 3d f1 49 7a bc 60 fd 89 3d 6f ba 7c bd
       0.119758695 -0.015276418 0.067377806 -0.061701234
000330 bc 14 e4 be 1e 63 42 bc 58 f6 d5 bc a4 2c 4a 3c
       -0.4454707 -0.011864452 -0.026118442 0.012339745
000340 88 73 01 3d 63 d7 be bc ff c0 0b 3e 57 d4 8b be
       0.03160432 -0.023296064 0.13647841 -0.2731044
000350 9e 34 0f 3e 1c 3f 1a 3d 30 0b 01 bd e6 09 91 3d
       0.13984916 0.037657842 -0.03150481 0.07081966
000360 6b e5 9c bd b6 c4 97 bc 43 bb 17 3d 01 39 56 3c
       -0.076609455 -0.018526416 0.03704382 0.013075114
000370 ee 71 c8 bc 21 8b 83 3d d7 1a 3e be f7 b4 89 bc
       -0.024468388 0.06423021 -0.18564926 -0.016809924
000380 04 69 41 be d7 90 18 bd 94 32 a6 3d e5 92 48 bd
       -0.18887717 -0.037247505 0.08115116 -0.048968215
000390 d9 6c 90 3d 4d 7d 9b bc bf 95 01 3d b2 5d 30 3e
       0.07052011 -0.018980647 0.03163695 0.17223242
0003a0 bc 11 d0 3b ca 03 0c 3e 89 55 db ba a2 85 ef 3d
       0.0063497704 0.1367332 -0.0016733865 0.1169541
0003b0 2c f4 bc 3b c3 b7 c3 bc 67 c1 11 bf 70 60 6c bd
       0.0057664122 -0.023891335 -0.56935734 -0.057709157
0003c0 8d 16 32 3e c8 90 c3 3e ed 25 2c 3c 07 33 13 bd
       0.17391415 0.38196397 0.010507089 -0.035937335
0003d0 e5 6c 45 3e b0 e8 97 3d 0a a9 6a 3d 16 13 e4 be
       0.19279821 0.074174285 0.057290114 -0.4454581
0003e0 b6 c0 7a be e8 c9 76 3c 10 d3 ad bd 10 7e a2 be
       -0.24487576 0.015062787 -0.084875226 -0.31736803
0003f0 b5 1b 05 3d cc 35 60 bd 3d 86 16 bb 46 f3 f2 3e
       0.032497127 -0.054738805 -0.0022968196 0.47451228

bias f4 [6]
000000 95 98 19 3f e6 23 80 3d 9c cd aa 3b 58 46 4b be
       0.59998447 0.06256847 0.005212499 -0.19851053
000010 18 08 f8 3e 04 14 49 3e
       0.48443675 0.19636542

weight f4 [6, 256]
000000 dd ee 29 3d 96 98 07 3e 87 39 f8 bd 32 4b 19 bd
       0.041487563 0.132418 -0.121203475 -0.037425227
000010 3a 21 4a 3d 73 ab 0e 3f 26 ce 30 bc fd d5 39 3e
       0.049348094 0.5573036 -0.010791337 0.18148036
000020 c2 d3 fa bb e6 b3 eb 3d d8 9c 8a 3e 69 65 77 3d
       -0.007654638 0.11508922 0.27072787 0.060399447
000030 0f e5 03 3e 0e 36 12 3d 8e cb c1 3d 9e c9 1d bd
       0.12880348 0.03569608 0.09462653 -0.038522355
000040 fc 2c c0 bd 56 e1 38 3d 28 0b 22 3e 9d b5 f7 bc
       -0.0938358 0.045136772 0.15824568 -0.030237967
000050 2d 95 3c 3e 06 6c 76 3d fb 84 d3 3d 9c ee cd 3e
       0.18416281 0.060161613 0.103280984 0.40221107
000060 7a 45 16 3d be a9 e0 3d a6 3e 07 be ed c0 62 3d
       0.03668735 0.10969876 -0.13207492 0.05535977
000070 66 21 86 bd 04 15 a9 3d 8a 43 7c 3d 63 e8 6b bc
       -0.06549339 0.082559615 0.061587848 -0.014398667
000080 b1 cf 90 3d 5a c1 23 bb 7e dd 2b 3d 55 82 1d 3d
       0.07070864 -0.0024987073 0.04195928 0.038454372
000090 70 9b 85 3d a3 66 fb 3c da 63 53 3c 5a fa da 3d
       0.06523788 0.03068859 0.012902224 0.10692282
0000a0 20 05 e3 bc 17 19 61 3d a6 a0 a5 3d 4c fb d0 bd
       -0.027712405 0.05495557 0.08087282 -0.10204181
0000b0 b6 8a dd 3e fb 3d 6a 3d 55 05 39 3b ea 76 37 bc
       0.4326989 0.057188015 0.0028231938 -0.011197785
0000c0 f8 d9 53 3d 67 8e 8f 3e 8e 50 f0 3c a4 8d dd 3e
       0.051721543 0.28038332 0.029335286 0.43272126
0000d0 89 87 5a 3d 0c 87 97 3b 37 70 19 3d 12 9e 76 bc
       0.053351913 0.004624253 0.037460532 -0.015052335
0000e0 eb 78 bd 3c ce 52 54 3d 43 10 c9 bc 7f f7 9c 3e
       0.023128947 0.05183678 -0.024543887 0.30657575
0000f0 d0 9a 60 3d c6 42 95 3c 36 e1 06 3d 52 32 00 3f
       0.05483514 0.018220317 0.03292962 0.5007678
000100 0d b7 5e 3d 83 8c 3c 3e 75 dd 0b 3e 3a 84 29 3d
       0.05437379 0.18412976 0.13658698 0.041385867
000110 38 32 72 3d 60 03 67 bc 36 7b 73 3e 30 a9 9e bd
       0.059129924 -0.014099926 0.2377747 -0.07747114
000120 c1 e6 82 3d bf ab 5f 3d b5 60 83 3d 5f 0e 05 3d
       0.06391669 0.05460715 0.0641493 0.03248441
000130 be 44 40 3b 19 32 0b bd c7 b9 78 3d b1 7e ac bd
       0.0029337849 -0.033983324 0.060724046 -0.08422602
000140 26 fa ea bd 01 75 e4 bd 5b 22 cc bc 08 c3 4d bc
       -0.11473493 -0.11155129 -0.024918726 -0.012558706
000150 54 b6 9a 3e e5 9b 91 3c d8 e7 a3 3d 31 b8 bd bd
       0.3021723 0.017774532 0.08003205 -0.09263647
000160 cf de f9 3d f3 0c 98 3e 05 67 31 bd a0 b1 a5 3d
       0.122007005 0.2969738 -0.043311138 0.0809052
000170 64 12 d6 3a 3d 17 09 3d fc 4d e5 3c 29 b5 89 bd
       0.0016332385 0.033469427 0.027991287 -0.06724007
000180 2f 12 a3 bc c9 d2 bd bb 61 c4 2e bc 18 04 6e bd
       -0.019906132 -0.00579295 -0.010666938 -0.058109373
000190 7b 76 ec bc 56 1e 62 be c2 fa 64 3c ac c9 80 3d
       -0.02886509 -0.22081885 0.013975801 0.06288466
0001a0 29 a0 94 3b db 86 16 3d 5d 7a 78 3d 97 83 98 3d
       0.004535694 0.036749702 0.06066357 0.07446974
0001b0 e2 45 9a 3d 9f 16 97 bc 50 85 31 3d 36 79 dc 3c
       0.0753286 -0.018443404 0.043340027 0.026913267
0001c0 5a 7f cf 3c ec bf db bb 49 bc b6 3d 20 c6 0a 3d
       0.02532928 -0.0067062285 0.08922631 0.033880353
0001d0 f7 87 d8 bd f9 dc 86 bc 58 5b f4 3b d6 be ef 3d
       -0.10572808 -0.01646279 0.007457178 0.11706321
0001e0 2e b1 1f bd 97 e0 39 3c fc bf 3b 3d 3b 38 d6 3c
       -0.03898733 0.01134505 0.045837387 0.02614986
0001f0 59 a8 9b 3c 9f 0e 87 3e e6 f9 ae 3c 8a 1b fe bc
       0.019001173 0.26378343 0.021359395 -0.031018991
000200 d6 b1 ea bc 98 e2 f9 3d 4b 34 bb 3d bb 07 25 3e
       -0.028649252 0.122014225 0.091408335 0.1611623
000210 41 4b 7b bc 39 53 9d bd 05 2b c1 3e d9 09 96 3d
       -0.015337766 -0.07681889 0.37728134 0.07326097
000220 24 c5 ea 3d 5f 65 50 bd 23 96 a3 bd 7a 64 0e 3d
       0.11463383 -0.050877925 -0.07987621 0.03476379
000230 64 80 43 bd ca 25 6b ba 3a 7c bc 3d 28 b6 09 bc
       -0.047729865 -0.00089701696 0.09203382 -0.008405246
000240 7a 44 e5 3e 99 f9 dd 3e d5 1f 00 3f 19 73 ee bd
       0.44778806 0.4335449 0.5004857 -0.11643047
000250 82 52 87 3d 8d 9c 80 bb 17 6e b0 bb a4 3e 28 3d
       0.06607534 -0.0039249123 -0.0053842175 0.041075364
000260 94 ac cb 3a 1c 6f 61 3e eb 2a 9b ba c5 f4 81 bc
       0.0015539103 0.22015041 -0.0011838352 -0.015863786
000270 3b 7b 72 3d 00 93 36 3d 10 e1 0b 3f cc eb c5 bc
       0.059199553 0.044573784 0.54640293 -0.024160288
000280 15 c3 a7 bd 2d f4 8e 3e 44 29 57 bb e9 82 99 bc
       -0.08191506 0.27920666 -0.0032830993 -0.01873918
000290 6b d1 9c bd d8 e2 89 3e 07 5a 44 bd f0 fa 43 3d
       -0.07657131 0.2693088 -0.04793742 0.047846735
0002a0 6e 3d f0 3c c6 b2 3c 3d c5 02 9f bd 05 27 04 3e
       0.029326167 0.04606893 -0.077642 0.1290551
0002b0 bf cd c7 bd dd ed 99 3a 05 86 8a bd 65 6a c0 bb
       -0.0975604 0.0011743862 -0.067638434 -0.005872058
0002c0 d4 1d 43 bd 5c c8 b3 3e bd d6 7f bd bd f7 88 3e
       -0.04763587 0.351138 -0.06246065 0.2675151
0002d0 5e 1d 7f bc 9f b9 16 3d 68 59 61 3e 30 29 3b bd
       -0.0155709665 0.036798116 0.22006762 -0.045693576
0002e0 cb aa ee 3e 9b aa 64 3d 5d 20 07 3e 41 82 72 3d
       0.4661468 0.055826765 0.1319594 0.05920625
0002f0 92 1d 20 3e 2c 0f 8c 3d b0 46 1f 3e b8 17 25 3d
       0.1563628 0.06838831 0.15554309 0.040305823
000300 f9 a0 17 3e 48 c8 d2 bb 01 dc eb 3d c7 43 fe bc
       0.148075 -0.006432567 0.11516572 -0.031038178
000310 56 ff 9c bd 0b ed fe bb be 39 99 ba 6b 06 87 3d
       -0.07665889 -0.0077797226 -0.0011690182 0.06593021
000320 10 d7 4b bc 18 a4 90 3c 68 87 9d bd a8 15 27 be
       -0.012441412 0.017656371 -0.07691842 -0.16316855
000330 71 1d 36 3d 4a 1f dd bc 31 f3 4e 3d 8a ac c6 bc
       0.04446167 -0.026992459 0.050524894 -0.024252195
000340 bb e6 c7 3d ba 2a 27 3c e6 55 ec 3c 0f 5d 29 3e
       0.09760805 0.010203058 0.028849553 0.16539405
000350 2e 5a 32 bd 8c b5 7d 3d da 95 f4 3b 16 6e f2 3c
       -0.043543033 0.061940715 0.0074641528 0.029593509
000360 ef 53 b7 bc 55 e1 bc 3c 8b ba 28 bb a5 10 07 bd
       -0.02237889 0.023056665 -0.0025745954 -0.032974858
000370 ec eb eb bc 39 5e 97 3d 8d 0a e0 3e 1e 09 1c 3f
       -0.02879902 0.073910184 0.4375805 0.6095141
000380 ce bb e3 3d 89 c7 6f 3d 80 64 b8 bb 4f 43 78 bd
       0.11119805 0.0585399 -0.005627215 -0.060611065
000390 a2 0b 0d 3c 39 07 f1 bd 65 c8 8e 3d 2b 57 20 3c
       0.0086087305 -0.11768956 0.06971816 0.009786407
0003a0 a9 cb 8f bd ba ed 65 bd f6 ad 1e 3e b9 5f c5 bc
       -0.07021267 -0.056134917 0.15496048 -0.024093496
0003b0 f7 83 be bb 5f 60 1d 3d 69 46 a1 3e 82 7e f5 3a
       -0.0058140713 0.038421985 0.3149903 0.0018729719
0003c0 65 7c 4f 3d 8a 34 2d be 5a db 64 ba 38 fd 57 bc
       0.05065574 -0.16914573 -0.00087301957 -0.013182931
0003d0 31 71 31 3d a4 96 a2 3d 3e 04 ef bc 1a 1d 7a 3d
       0.04332084 0.07938889 -0.029176828 0.06106291
0003e0 52 9d 82 3e 97 c2 00 bd 5f 8c cc bc 55 d3 0f 3e
       0.2551065 -0.031435575 -0.024969278 0.1404546
0003f0 66 c6 17 3d b8 fb 02 3e 7f 39 39 3c 7c 97 fc 3e
       0.037054442 0.12791336 0.011305212 0.49334323

bias f4 [6]
000000 40 31 c0 be ab ae cf be 0c 03 68 be f6 3b 3c bf
       -0.37537575 -0.4056295 -0.22657412 -0.73528993
000010 8d 09 11 bf b9 ab 6a be
       -0.566552 -0.2291707

weight f4 [256, 32]
000000 ea 19 ad bf 11 ec 27 3e 11 12 5c be 38 e7 43 bf
       -1.3523533 0.16398646 -0.21491267 -0.76524687
000010 2a ac 97 3d 84 27 5c 3f 6b f1 03 be 79 4e 8f bf
       0.074058846 0.85997796 -0.12885062 -1.1195823
000020 e7 a6 d4 3f 80 24 f3 3d b8 c5 23 3f 61 77 18 bf
       1.6613435 0.11872196 0.6397357 -0.5955716
000030 2f c3 a6 3e 3b 9f ad be 33 e1 a0 bf bf cc 79 bc
       0.32570788 -0.33910546 -1.2568725 -0.015246569
000040 3d e7 51 3f 56 d6 b6 bd 6d 68 28 3e 0e 3f cc be
       0.81993467 -0.089276 0.16446085 -0.39891857
000050 12 33 2d bf 55 df 2b 3e ad 04 06 be e7 a9 86 bd
       -0.6765605 0.16784413 -0.13087721 -0.06575375
000060 f0 52 bc 3c b4 b9 0b 3d 01 cb 78 3e cb 93 67 bf
       0.022988766 0.034112647 0.2429619 -0.9045989
000070 12 0f 1b bf c7 33 a8 3f d2 aa 11 bf 25 8f c4 3e
       -0.6056987 1.3140801 -0.56901276 0.3839046
000080 73 55 18 c0 be 36 13 be a2 d7 8b 3e 44 c6 80 c0
       -2.3802154 -0.14376351 0.27312952 -4.0242023
000090 a4 d7 ea bd 65 b8 d9 be 00 10 30 3b c9 67 67 c0
       -0.114669114 -0.42523494 0.0026865005 -3.6157095
0000a0 7a e6 90 bf d7 99 0b bf 98 b6 c6 bf 64 2a 31 bf
       -1.1320336 -0.54531616 -1.5524473 -0.6920531
0000b0 21 8d 0a bc fb f1 4c be 0a 18 15 bf 7b 24 22 3f
       -0.008456499 -0.20014183 -0.58239806 0.63336915
0000c0 e9 62 47 bf 57 49 9e bd 2b 5d 84 bf 26 50 f4 be
       -0.778853 -0.07728832 -1.0340933 -0.47717398
0000d0 9e 59 d8 3e 11 03 0b 3e 65 cf da bd 6e 6c ab 3d
       0.42255872 0.13575388 -0.106840886 0.08370291
0000e0 74 33 ec bd 48 95 25 bd 14 6d c4 bd 31 f8 57 bd
       -0.115332514 -0.04042557 -0.095911175 -0.05272693
0000f0 66 32 9c bc ab e4 c2 bd bc 09 3e 3c b2 69 08 bd
       -0.019067 -0.09516271 0.011599001 -0.033303924
000100 68 35 3f 40 e2 b3 e5 bd 06 3d f8 be 66 17 20 bf
       2.9876347 -0.112159505 -0.48484057 -0.62535703
000110 00 46 68 bb bc bd af 3f 1c a0 00 3d eb 1e 41 bf
       -0.0035442114 1.3729777 0.031402692 -0.754378
000120 80 26 4b bf 96 a7 27 3f e7 a6 8b be 84 18 cf be
       -0.7935562 0.6549009 -0.27275774 -0.4044839
000130 c1 53 9d be df 2c 88 3e 16 ab d6 be 50 e1 90 3f
       -0.30727962 0.26596734 -0.41927403 1.131876
000140 43 2f 3e 3f cc 2e 23 bf f0 dd 96 3e 72 e7 d7 be
       0.74290866 -0.6374328 0.294662 -0.42168766
000150 22 eb 02 bf bc 27 0d bd 64 33 1c 3d ce 35 31 bf
       -0.51140034 -0.03446172 0.038134947 -0.69222724
000160 3c 93 cc bd 6d c1 02 3e 12 18 3b bf bc 0c 75 bf
       -0.0998902 0.12769099 -0.73083603 -0.95722556
000170 0d 80 72 bd af 5f 4e bf 9f 1b c3 bf 94 b4 8a 3e
       -0.05920415 -0.8061475 -1.5242804 0.27090895
000180 62 1e e0 3f 8c 63 27 be 63 1b 58 be 64 1a 21 3f
       1.7509272 -0.16346568 -0.21104197 0.62930894
000190 cb 60 1a 3e e9 40 ab 3e 54 bb 0d bd 1a 72 9b 3b
       0.15075986 0.3344796 -0.03460248 0.0047438266
0001a0 55 07 ce be 95 f2 90 be d9 7c a4 3e a4 9b 0e 3f
       -0.4023997 -0.28310075 0.321265 0.5570624
0001b0 25 c3 6a be 81 d0 79 3e c8 88 9d bf 15 ee 77 bf
       -0.22926004 0.24395944 -1.2307367 -0.9684766
0001c0 39 a0 40 3f d5 80 88 bf 87 cb 03 3e a2 b0 9d be
       0.7524448 -1.0664316 0.12870608 -0.30798823
0001d0 fc 2b 07 3e e7 ed 9d bd 0e ca 0c be d3 46 a3 3c
       0.13200372 -0.07711392 -0.13748953 0.019931233
0001e0 58 ef 55 3d 00 d7 43 bb 26 b7 cb be 58 39 19 3f
       0.05223021 -0.0029882789 -0.3978817 0.59853125
0001f0 a2 53 95 bf 2f 7e c9 3f 70 76 91 be 1e 48 55 be
       -1.1666148 1.5741633 -0.28410673 -0.20828292
000200 cb 79 4b c0 72 60 d1 3d a5 7e 84 be cb ab 1c 3f
       -3.1793087 0.102234736 -0.25877872 0.61199635
000210 b6 e7 b6 3d 0a 3e 91 3f a0 8d 07 bc 26 53 ef bf
       0.08930914 1.1347058 -0.008273512 -1.869725
000220 eb 43 dd be 14 dd aa bf 89 75 8c bf 40 1f 9f bf
       -0.4321588 -1.3348718 -1.0973369 -1.2431412
000230 90 c3 99 3d cf 45 f0 be 91 82 00 bf df e3 e2 3e
       0.07508004 -0.4692826 -0.5019923 0.44314477
000240 7f 07 b6 bd 9e ad 58 3e bf 98 d2 3d 75 7d 1e 3e
       -0.088881485 0.2115998 0.1028304 0.15477546
000250 20 77 f1 b9 34 27 bf bd 6a 3c 17 be 7d d2 60 bd
       -0.00046055857 -0.09333649 -0.1476914 -0.054888237
000260 a0 d0 fd 3b 23 8b b2 bd 16 ed 63 3e 71 27 12 bf
       0.0077458173 -0.087179445 0.2225841 -0.5709143
000270 61 d1 1a 3e c6 32 a3 3d 54 da e2 bc 52 39 61 3d
       0.15118934 0.07968669 -0.027691998 0.054986306
000280 f4 3d 90 be 78 28 55 3d 08 27 83 bf a8 c0 0c bd
       -0.28172266 0.052040547 -1.0246286 -0.03436342
000290 2d 31 09 be 5f 7e 57 3f 82 1c 8b 3d 85 00 85 3c
       -0.13397665 0.841772 0.06792547 0.0162356
0002a0 de c0 2d 3f 10 ae 37 bf 43 85 60 3f d7 a8 a5 3f
       0.67872417 -0.71749973 0.8770334 1.2942151
0002b0 d2 62 59 3f 44 7b 79 3e ad 74 af bd 7a 17 4b 3f
       0.8491641 0.24363428 -0.08567176 0.793327
0002c0 06 89 b2 bf 7e 72 e7 be 2e 96 95 be 3a 83 c4 be
       -1.3948066 -0.45204538 -0.2921614 -0.38381368
0002d0 1b ca 63 3f 03 93 19 3e 66 22 f9 3d 25 0c 5e be
       0.88980263 0.14997487 0.12164764 -0.2168432
0002e0 4b 64 32 3e cb 74 ca bd 35 73 a0 3f 18 04 4e 3f
       0.17421071 -0.09885558 1.2535158 0.80474997
0002f0 4a 71 db be 1e ca f3 3d d1 f5 a3 3f 9e 8e de be
       -0.4285987 0.11903785 1.2809392 -0.43468183
000300 bc 00 ab bf 40 64 f0 bb ba cb bb be 1e 3f c6 bf
       -1.3359599 -0.0073361695 -0.3667887 -1.5488012
000310 e2 fa 1f be 77 94 10 3f d4 e0 82 3d 1a d6 0b be
       -0.15623048 0.5647654 0.06390539 -0.13655892
000320 6a 98 4a 3f a3 ed 9a 3f 03 09 aa 3f 92 b0 bd 3f
       0.79138815 1.2103771 1.3284 1.481951
000330 56 b7 a9 3e 07 ee 86 3b f4 e5 c7 bf 6f d1 b5 3e
       0.33147687 0.0041177305 -1.5617051 0.35511348
000340 3c c0 a7 bd 7a e0 c0 3e 40 ce db bf 15 2d e3 3d
       -0.08190963 0.37671262 -1.7172318 0.11092583
000350 3c 62 35 3f 53 a4 2e 3e c7 bb 1d 3e cf b5 1a be
       0.7085302 0.17054872 0.15403663 -0.15108417
000360 78 d9 03 be d5 94 15 be 5e 0f 64 3f 0b 54 7e 3e
       -0.12875926 -0.14607556 0.8908595 0.24836747
000370 c8 0e 4f bf a6 6f 24 3e 86 57 8b be d7 bc 41 bd
       -0.8088193 0.16058215 -0.27215213 -0.047299232
000380 67 fc 8a c0 98 f1 8e bd 39 73 83 3c 40 5f c1 be
       -4.343311 -0.06979674 0.016046153 -0.37767982
000390 6a d5 f9 3d 69 6c 50 be 6c 4b da bd 44 12 eb 3e
       0.121989086 -0.20353855 -0.10658917 0.45912373
0003a0 5b b1 35 c0 02 bb 83 bf 8f 3e 88 bf e4 39 dd be
       -2.83895 -1.0291445 -1.0644091 -0.4320823
0003b0 f9 5e 1e bf 18 18 89 bd 92 d0 f3 bf 6d 8d 82 be
       -0.61863667 -0.06694049 -1.9048026 -0.25498524
0003c0 17 c7 dc bf 64 3e 8e be ad 12 3f bf 27 55 b3 be
       -1.7248257 -0.27781975 -0.7463787 -0.35025904
0003d0 ab fa e1 bd d4 7b 0c bd c0 86 7d bc 02 e6 ca 3e
       -0.11034139 -0.03429778 -0.015474021 0.39628607
0003e0 3c b0 82 3d 82 fb f0 3d bd cc 15 be 93 7a 60 3c
       0.0638127 0.11766721 -0.14628883 0.013701099
0003f0 1b db 7d bd 12 91 d6 bd c6 e7 8b 3b 28 0a a1 3c
       -0.061976533 -0.10476889 0.004269573 0.019658163
