data/HalfCheetahPyBulletEnv-v0_sac_grad_False/HalfCheetahPyBulletEnv-v0_sac_grad_False_s2/pyt_save/model.pt (torch_old, 906014 bytes, 18 tensors)

weight f4 [256, 26]
0	0x3fbe76f6	1.4880054
1	0xbd3f29ac	-0.0466706
2	0xbf3eff11	-0.7460795
3	0xbf30863a	-0.68954813
4	0x3dab9402	0.083778396
5	0x3e6e4295	0.23267587
6	0xbcb8a6f0	-0.02254054
7	0xc028c35c	-2.6369238
8	0xbf266bf0	-0.6500845
9	0xbebece90	-0.3726697
10	0x3ec32106	0.38111132
11	0xbca20d3f	-0.019781707
12	0xbe066651	-0.13124968
13	0x3e44c382	0.19215205
14	0x3e036ed8	0.12835252
15	0x3f46bb2d	0.7762936
16	0x3e9ea77b	0.30987152
17	0x3edea83b	0.43487725
18	0xbd123e72	-0.035704084
19	0xbda591bb	-0.080844365
20	0xbec56066	-0.3855011
21	0xbc5a3ba0	-0.01331988
22	0xbc7ea480	-0.01554215
23	0x3dd29d92	0.102839604
24	0xbc98bcb8	-0.018644676
25	0x3d538560	0.05164087
26	0xc09969fa	-4.7941866
27	0xbde0e67a	-0.1098146
28	0xbed0969f	-0.40739915
29	0x40092878	2.143095
30	0xbe366dae	-0.17815277
31	0xbf633e12	-0.88766587
32	0x3d3d0dc8	0.04615572
33	0x40800e8a	4.001775
34	0x3e21b15a	0.1579031
35	0xbd959dd2	-0.073054925
36	0x3f21ff1c	0.6327989
37	0x3e1ae030	0.15124583
38	0x3e1c567f	0.1526737
39	0x3db15542	0.0865884
40	0xbdcdbfd4	-0.10046354
41	0xbfa63026	-1.2983444
42	0xbe93548e	-0.28775448
43	0xbf36a07b	-0.71338624
44	0xbf125517	-0.57161087
45	0xbea80fe8	-0.32824636
46	0xbdb75cc4	-0.089532405
47	0x3c0e2910	0.008676782
48	0x3caa2568	0.02076979
49	0x3dec5014	0.11538711
50	0x3dd6513a	0.104647115
51	0x3e06e6f3	0.13174038
52	0xbf600283	-0.8750383
53	0x3de8cbd2	0.11367001
54	0xbf5ee2b4	-0.8706467
55	0x3ea8580a	0.32879668
56	0xbd233f34	-0.039855197
57	0xbf5282f8	-0.8223109
58	0x3cb26c90	0.021780282
59	0x3ff5fc3c	1.9217601
60	0x3ee2ee1a	0.44322282
61	0xbebd0a09	-0.3692172
62	0x3f2de613	0.6792919
63	0x3e85b526	0.26114768
64	0x3f253fed	0.6455067
65	0xbe45eaaf	-0.19327806
66	0xbe1264b4	-0.14296228
67	0x3df32d65	0.11873893
68	0x3e7a3181	0.24432947
69	0x3e05df4a	0.1307346
70	0xbf1ee61e	-0.6206988
71	0x3f35b27e	0.7097548
72	0xbf57ab2b	-0.84245557
73	0x3d7e04d4	0.062016323
74	0xbbf34a60	-0.0074246377
75	0xbe93b7f4	-0.28851283
76	0x3c9ba750	0.01900068
77	0xbe3bbc5c	-0.18333572
78	0xbe87bfe3	-0.26513585
79	0xbdfde281	-0.12396718
80	0xbe2f24f1	-0.17103936
81	0xbe9b527a	-0.30336362
82	0xbe47f682	-0.19527629
83	0xbe08b6ec	-0.13351029
84	0x3dae6c3e	0.08516739
85	0x3d627434	0.0552866
86	0x3f4b308f	0.7937097
87	0xbe59f9c4	-0.21286684
88	0xbeef346c	-0.46719682
89	0xbeac1cfe	-0.3361587
90	0x3f418ea0	0.75608253
91	0xbf1bacc8	-0.6081052
92	0xbf96f40e	-1.179323
93	0x3f1365b1	0.57577044
94	0x3e4332b4	0.1906231
95	0xbee34db4	-0.4439522
96	0xbf3fbc20	-0.7489643
97	0x3dd96ff1	0.10617054
98	0xbf9eee77	-1.2416524
99	0xbd8116de	-0.0630319
100	0xbd92c56d	-0.07166562
101	0xbb64151e	-0.0034802626
102	0xbe4246b5	-0.18972285
103	0x3da99d1e	0.08281921
104	0xbfa644cd	-1.2989746
105	0x3d7e96fc	0.06215571
106	0xbe4b509a	-0.19854966
107	0xbf026fb1	-0.5095168
108	0xbe463f58	-0.19360101
109	0x3fc9601a	1.5732453
110	0x3e3a4921	0.18191959
111	0xbfc08f90	-1.5043812
112	0xbfa01977	-1.2507771
113	0xbda53ee1	-0.08068634
114	0xbfd83bd5	-1.6893259
115	0x3e92a39a	0.28640443
116	0xbea3a71c	-0.31963432
117	0x3e3343b9	0.17506303
118	0x3f79367e	0.97348773
119	0x3f310ffc	0.69165015
120	0xbd31bf12	-0.04339511
121	0x3e8bfcc0	0.2734127
122	0xbf43e6d0	-0.76524067
123	0x3e0ca544	0.13734919
124	0xbd8e3769	-0.069441624
125	0xbe0ff652	-0.14058807
126	0xbd8f3730	-0.06992948
127	0xbe1d6487	-0.1537038
128	0xbe433892	-0.19064549
129	0xbe3003b6	-0.17188916
130	0xbf15ff42	-0.5859262
131	0x3d7a4e14	0.061109617
132	0xbefaabef	-0.489593
133	0x3bc46362	0.0059932927
134	0x3d9bb0a6	0.076020524
135	0x4029238d	2.6427948
136	0x3d9670fe	0.0734577
137	0x3f8d6f0f	1.1049517
138	0x3f64cbfc	0.89373755
139	0xbdac12e6	-0.08402042
140	0xbf03e9b8	-0.515285
141	0x3cf3ec63	0.029775804
142	0x3ebacc7c	0.36484134
143	0xbec40c04	-0.38290417
144	0x3f428eff	0.75999445
145	0x3fa4da8b	1.2879194
146	0x3e611d78	0.21983898
147	0x3c7fb692	0.015607493
148	0xbd004827	-0.03131881
149	0xbf3683ab	-0.7129466
150	0xbd5731bf	-0.052537676
151	0xbd018934	-0.031624988
152	0xbe29885e	-0.16555926
153	0x3c1ee09f	0.0096971085
154	0xbd8699ca	-0.06572302
155	0xbe2b8825	-0.16751154
156	0xbe809d0c	-0.25119817
157	0x3b8c38e0	0.004279241
158	0xbe3a41ec	-0.1818921
159	0x3d2556a1	0.04036582
160	0xbe059d6a	-0.1304833
161	0x3f8760f4	1.0576463
162	0x3c83dfe8	0.016097978
163	0xbeb738eb	-0.35785612
164	0x3eb67dae	0.3564276
165	0xbe73ed8a	-0.23821083
166	0x3e5ff2ee	0.21870014
167	0xbd0a6c80	-0.03379488
168	0xbd615a4d	-0.05501776
169	0x3d6ac928	0.057320744
170	0xbe7a8c67	-0.24467622
171	0xbdc9cea5	-0.098538674
172	0x3f247df2	0.6425468
173	0x3d468b01	0.04847241
174	0xbe892cae	-0.267919
175	0x3e39dc49	0.18150438
176	0xbfb78085	-1.4336096
177	0x3c3cbf60	0.011520237
178	0x3e14e505	0.14540489
179	0x3f599a57	0.8500113
180	0xbdf5a942	-0.11995174
181	0xbd3148c8	-0.0432823
182	0xbfed3b4b	-1.853372
183	0x3d59eb7c	0.05320309
184	0x3d8bc488	0.06824595
185	0x3f460bd0	0.77361774
186	0xbd8e0bbe	-0.069358334
187	0xbf9211fb	-1.1411737
188	0x3e336f95	0.17523034
189	0x4053ebca	3.3112664
190	0xbe0facbd	-0.14030738
191	0x3ddf8e08	0.10915762
192	0x3edc7b10	0.4306264
193	0xbe82fb04	-0.25582135
194	0x3e0c8077	0.1372088
195	0x3d637b91	0.055537764
196	0x3ea1f1df	0.31629845
197	0xbf307d4b	-0.6894118
198	0xbf4cb648	-0.7996564
199	0xbed05a12	-0.40693718
200	0xbf090b07	-0.5353245
201	0xbef5849f	-0.47952744
202	0x3f1ffed9	0.6249824
203	0xbe2bf095	-0.16790994
204	0xbcb84070	-0.022491664
205	0x3dfc4628	0.12318069
206	0x3d965352	0.07340111
207	0xbd816e98	-0.06319922
208	0xbf84c3e3	-1.037228
209	0xbdaea92b	-0.0852836
210	0xbf832bc4	-1.0247731
211	0x4041c4a3	3.0276268
212	0x3c5dc070	0.01353465
213	0x3bc718f4	0.0060759727
214	0xbe1673a2	-0.14692548
215	0x403908af	2.891155
216	0xbeefe243	-0.46852311
217	0xbeb35128	-0.35022855
218	0x3ede41a5	0.43409458
219	0xbd857581	-0.06516553
220	0x3d029f60	0.031890273
221	0xbdc51246	-0.09622626
222	0xbf1c9083	-0.6115801
223	0xbe6ffeaa	-0.2343699
224	0x3d418346	0.047244333
225	0x3eb3ffa8	0.35155988
226	0x3ec1cdca	0.37852317
227	0x3ee9db02	0.45674902
228	0xbea0d0d4	-0.31409323
229	0xbdce8ba2	-0.100852266
230	0x3c003dd0	0.007827237
231	0xbdfc4234	-0.12317315
232	0x3d545970	0.051843107
233	0xbc35c930	-0.01109533
234	0xc093c02a	-4.6172075
235	0xbbc5aba0	-0.006032422
236	0xbef4aeed	-0.47789708
237	0x3f6ac0c6	0.917004
238	0xbdc71ad1	-0.09721912
239	0xbfacdf0b	-1.3505567
240	0xbdbd4337	-0.09241336
241	0x4053c47a	3.308867
242	0x3ef13e1e	0.47117704
243	0x3e0de75e	0.13857791
244	0x3f37319b	0.71560067
245	0xbd87dd10	-0.06633961
246	0x3e104481	0.14088632
247	0x3d9ace6b	0.07558902
248	0xbf353faf	-0.708003
249	0xbf679d2c	-0.904742
250	0xbf82ead9	-1.022792
251	0xbf579a0b	-0.84219426
252	0xbf7abb04	-0.97941613
253	0xbeaeb4ce	-0.34122318
254	0x3bf6abcf	0.0075278054
255	0x3de214ea	0.11039145

bias f4 [256]
0	0xbf210523	-0.62898463
1	0xbea98f42	-0.3311711
2	0xbf60f414	-0.87872434
3	0xbf023663	-0.5086424
4	0xbe89e0f1	-0.2692943
5	0xbf01d465	-0.50714713
6	0xbef7f185	-0.48426452
7	0x3da3a3eb	0.07990249
8	0xbf3b6b90	-0.73211
9	0xbef5ba9f	-0.47993943
10	0xbdb95736	-0.09049837
11	0xbe86597b	-0.26240143
12	0xbf02bb94	-0.5106747
13	0xbe7d92f2	-0.24763086
14	0xbe8ee59b	-0.2790955
15	0xbeb728c4	-0.3577329
16	0xbf1c292d	-0.6100033
17	0xbe5c30dd	-0.21503015
18	0xbe221f23	-0.1583219
19	0xbf2fc32a	-0.6865717
20	0xbe7ed4eb	-0.2488591
21	0xbe6929cb	-0.22769849
22	0xbe11015a	-0.14160672
23	0xbf04008d	-0.5156334
24	0xbeaae57e	-0.33378214
25	0xbe11d028	-0.14239562
26	0xbf3d0f86	-0.7385181
27	0xbe548d81	-0.20757104
28	0xbeb0d726	-0.34539145
29	0xbe5606d8	-0.20901048
30	0xbe3f2560	-0.18666601
31	0xbf5e6538	-0.868732
32	0xbed32ef5	-0.41246763
33	0xbf24aa1e	-0.6432208
34	0xbf36d92e	-0.7142514
35	0xbea08eff	-0.31359097
36	0xbeab510b	-0.33460268
37	0xbf427cd3	-0.75971717
38	0xbec31d01	-0.38108066
39	0xbe52ccb8	-0.20585907
40	0xbf3b6daa	-0.7321421
41	0xbf37c2dc	-0.71781707
42	0xbf410566	-0.7539886
43	0xbf40cc73	-0.75311965
44	0xbe6f12e0	-0.23347044
45	0xbf294af9	-0.66130024
46	0x3d324198	0.043519586
47	0xbee1798d	-0.44038048
48	0xbe5d7a3b	-0.21628658
49	0xbf481089	-0.7815023
50	0xbf1b0e47	-0.6056866
51	0xbeeecb62	-0.46639544
52	0xbe1ff9e6	-0.15622672
53	0x3e851c16	0.2599799
54	0xbf27406f	-0.6533269
55	0xbe388644	-0.18019968
56	0xbeac2a74	-0.3362614
57	0xbe428761	-0.18996955
58	0xbf5d5000	-0.86450195
59	0xbeb99e2d	-0.3625349
60	0xbed63720	-0.41838932
61	0xbf0d3a68	-0.55167246
62	0xbf2b6f3e	-0.6696662
63	0xbeff8174	-0.49903452
64	0xbec1c1e1	-0.3784323
65	0xbef1d5ff	-0.4723358
66	0xbec5b5b2	-0.38615185
67	0xbec7b304	-0.39003766
68	0x3e64c5ba	0.22341052
69	0xbe0c8dad	-0.1372592
70	0xbf39d68d	-0.72593004
71	0xbee9e10b	-0.45679507
72	0xbed317f6	-0.41229218
73	0xbec4cd22	-0.38437754
74	0xbf4a24f0	-0.7896261
75	0xbeb5f659	-0.3553951
76	0xbe3adc88	-0.18248188
77	0xbec910fe	-0.39270777
78	0xbf122407	-0.57086223
79	0xbf060a49	-0.52359444
80	0xbf2649d0	-0.6495638
81	0x3e8027a8	0.25030255
82	0xbe646900	-0.2230568
83	0xbee5adc0	-0.44859123
84	0xbeeff95d	-0.46869937
85	0xbf3a7cbf	-0.728466
86	0xbee450a5	-0.44592777
87	0xbf2f17a5	-0.68395454
88	0x3e2e1192	0.1699889
89	0xbf5f65b6	-0.87264574
90	0xbf1f7db4	-0.6230118
91	0xbea29657	-0.31755325
92	0xbe3a3e93	-0.18187933
93	0xbed7119b	-0.4200562
94	0x3e4505b8	0.19240463
95	0xbef9e4db	-0.48807415
96	0xbef85906	-0.4850542
97	0xbf291491	-0.66047007
98	0x3d6f9f6d	0.05850165
99	0xbf04e6db	-0.5191476
100	0xbf476cdd	-0.7790049
101	0xbeec0061	-0.4609404
102	0xbe501833	-0.20321731
103	0xbe6a05de	-0.228538
104	0xbeca0a2d	-0.39460889
105	0xbf1fe6dd	-0.62461644
106	0xbebd4526	-0.3696682
107	0xbedcafaf	-0.43102786
108	0xbd97e22c	-0.07416186
109	0x3e99e894	0.30060256
110	0xbeba2c5f	-0.36361977
111	0x3b8563bd	0.0040707276
112	0xbe976f38	-0.2957704
113	0xbd97da71	-0.07414711
114	0xbe2397e9	-0.15975918
115	0xbf21b66f	-0.63168997
116	0xbf8f4013	-1.1191429
117	0xbe415735	-0.18880923
118	0xbf711d83	-0.94185656
119	0xbf032f20	-0.5124378
120	0xbf7e5475	-0.9934762
121	0xbe14c9c5	-0.14530094
122	0xbf14ce2e	-0.58127105
123	0xbedd14f5	-0.4318005
124	0xbe967d07	-0.29392263
125	0x3dafd308	0.08585173
126	0x3debb14f	0.11508428
127	0xbf1eb8c3	-0.62000674
128	0xbf1e56c1	-0.61851126
129	0xbf1ac2f6	-0.60453737
130	0xbebccb2e	-0.36873764
131	0xbf337f38	-0.70115995
132	0x3d444599	0.047917936
133	0xbeeb2aba	-0.45931035
134	0xbf0a6dbe	-0.54073703
135	0xbf3770ed	-0.71656686
136	0xbec019f2	-0.37519795
137	0xbe3fdbac	-0.18736142
138	0xbe98d2a4	-0.29848206
139	0xbed28b1b	-0.41121754
140	0xbed557de	-0.416686
141	0xbf437d39	-0.7636295
142	0xbf1100fd	-0.56642133
143	0xbf2a5aad	-0.6654461
144	0xbe3263d4	-0.17420894
145	0xbf259f62	-0.64696324
146	0xbf0d9d16	-0.5531782
147	0xbf7f6a7e	-0.9977187
148	0x3cbdf711	0.0231891
149	0xbf329829	-0.6976343
150	0xbf346edf	-0.70481676
151	0xbe4c3134	-0.19940645
152	0x3d7da7db	0.061927658
153	0xbf18d9d7	-0.597074
154	0xbf13801d	-0.5761736
155	0xbf00d30b	-0.50322026
156	0xbeed04f2	-0.46292835
157	0xbedba246	-0.42897242
158	0xbf30ce8b	-0.6906516
159	0x3ec8444f	0.39114615
160	0x3dd50406	0.10401158
161	0xbedbc81a	-0.42926103
162	0xbf444ace	-0.7667664
163	0xbeefc9b7	-0.46833584
164	0xbedaa6f5	-0.42705503
165	0xbf2410da	-0.64088213
166	0xbf096e6f	-0.53684133
167	0xbe387aed	-0.18015642
168	0xbe6ae92b	-0.22940509
169	0xbe853027	-0.260133
170	0x3d330b56	0.043711983
171	0xbeb5e6d0	-0.35527658
172	0x3f297470	0.66193295
173	0xbea9e727	-0.33184168
174	0xbf14dd52	-0.5815021
175	0xbf1c0d62	-0.6095792
176	0xbf16d98a	-0.5892569
177	0xbea8acf9	-0.32944468
178	0xbd3ad2ab	-0.045611065
179	0xbf0ba444	-0.54547524
180	0xbf814a36	-1.0100772
181	0xbf099877	-0.5374827
182	0xbdaac7ff	-0.083389275
183	0xbf3f7731	-0.74791247
184	0xbeea18cf	-0.45722052
185	0x3eb4881a	0.35260087
186	0xbf0c5929	-0.5482355
187	0xbf976c43	-1.1829914
188	0xbf195e52	-0.59909546
189	0xbeddae65	-0.43297115
190	0xbd98b3a5	-0.074561395
191	0xbee921d5	-0.45533624
192	0xbeae1dc4	-0.34007084
193	0xbf0cc470	-0.5498724
194	0x3e213335	0.1574219
195	0xbc72fb9a	-0.014830494
196	0xbe48df5c	-0.19616455
197	0xbf27a241	-0.65481955
198	0xbf16974c	-0.5882461
199	0xbf0b7570	-0.5447607
200	0xbe9921be	-0.29908556
201	0xbf0ffbf7	-0.5624384
202	0xbea0c944	-0.31403553
203	0xbf07ee40	-0.53097916
204	0x3cdf2de8	0.02724357
205	0xbe511768	-0.20419085
206	0xbf0e4ca8	-0.5558572
207	0xbf328bce	-0.69744575
208	0xbddb36de	-0.107038245
209	0xbec72248	-0.38893342
210	0xbe225f25	-0.15856607
211	0x3d81d618	0.06339663
212	0xbf0e65b3	-0.5562393
213	0x3cc0ff78	0.023559317
214	0xbe39c7c7	-0.18142615
215	0xbeec0118	-0.46094584
216	0xbe567551	-0.2094319
217	0xbed549a4	-0.41657746
218	0xbf0ba0d5	-0.54542285
219	0xbf6d8ea7	-0.92795795
220	0x3e30ee0d	0.17278309
221	0xbf3faefa	-0.7487637
222	0xbef5d249	-0.48011997
223	0xbf07774f	-0.52916425
224	0xbf7e8654	-0.9942372
225	0xbf46600a	-0.77490294
226	0xbedfb1c5	-0.43690315
227	0xbf23db19	-0.6400619
228	0xbecdaae7	-0.4016945
229	0x3f05d3f6	0.5227655
230	0xbf3cf179	-0.7380596
231	0xbf60b6a9	-0.8777872
232	0xbe9a17d8	-0.30096316
233	0xbeccdc49	-0.40011814
234	0xbf0dac87	-0.5534138
235	0xbed8162d	-0.4220442
236	0xbf302e28	-0.6882043
237	0xbf3d9a54	-0.7406361
238	0xbf6c2ee9	-0.9225908
239	0xbdeea43c	-0.11652419
240	0xbef7302b	-0.48278937
241	0xbf41593e	-0.755268
242	0x3ea20394	0.31643355
243	0xbef4c12a	-0.47803622
244	0xbecaa8b4	-0.39581835
245	0xbed34a4f	-0.4126763
246	0xbefce38a	-0.4939235
247	0xbf5af897	-0.8553557
248	0xbecdb2e1	-0.40175536
249	0xbea8446b	-0.328647
250	0xbf01ca5e	-0.5069941
251	0xbd3d8ade	-0.046275012
252	0xbf20c3e0	-0.6279888
253	0x3d167023	0.036728036
254	0xbf420d39	-0.75801426
255	0xbf076207	-0.5288395

weight f4 [256, 256]
0	0xbd8d0f43	-0.068876766
1	0x3ecf787d	0.40521613
2	0x3eff4cd1	0.49863294
3	0x3ec6c2e1	0.38820556
4	0x3e05a8d1	0.1305268
5	0xbea574da	-0.32315713
6	0x3f0e7858	0.5565238
7	0x3d9f2377	0.07770436
8	0x3e689f04	0.2271691
9	0x3e506206	0.20349893
10	0xbc50df38	-0.012748532
11	0xbec04140	-0.37549782
12	0xbed7231c	-0.42018974
13	0xbe9688e1	-0.29401305
14	0x3c6fe1b0	0.01464121
15	0x3cd9a4af	0.026567785
16	0x3e70c002	0.23510745
17	0xbc798e47	-0.0152316755
18	0x3eb5121b	0.35365376
19	0xbeea7b12	-0.4579702
20	0xbf0e99e8	-0.5570359
21	0xbe313dd7	-0.17308746
22	0xbf0c9b0e	-0.54924095
23	0x3f0c185d	0.54724675
24	0x3d71a493	0.05899484
25	0xbef73194	-0.48280013
26	0x3d62edbd	0.055402506
27	0x3edcb543	0.43107042
28	0x3e4b8cb0	0.19877887
29	0x3d81aeaf	0.063321464
30	0xbe7b676e	-0.24551174
31	0x3df67118	0.1203329
32	0xbf02feb2	-0.51169884
33	0xbe16fe43	-0.1474543
34	0x3e852fb5	0.2601296
35	0x3f172710	0.5904398
36	0xbf071a3c	-0.52774405
37	0x3db18f11	0.08669866
38	0xbcea8acc	-0.028630637
39	0xbbe16f72	-0.0068797404
40	0x3ecc7404	0.39932263
41	0xbea639d0	-0.32465982
42	0x3e90ddcc	0.28294218
43	0xbeae1b75	-0.34005323
44	0xbf45d8a9	-0.7728372
45	0x3deb2657	0.11481922
46	0x3ecba2b0	0.39772558
47	0xbdd289ea	-0.10280211
48	0xbdd25719	-0.10270519
49	0x3e87a137	0.26490185
50	0x3eebe289	0.4607127
51	0xbe7c3727	-0.24630414
52	0xbf7142fe	-0.94242847
53	0xbf1ce8f2	-0.61292946
54	0xbea617b1	-0.3243995
55	0x3e7a2c6e	0.24431011
56	0xbdac63f3	-0.08417501
57	0xbcd18eaf	-0.025580732
58	0x3f40e6de	0.75352275
59	0xbf3c0d8d	-0.73458177
60	0x3eb878dd	0.3602971
61	0x3dc43338	0.09580082
62	0xbd0935d5	-0.033498604
63	0x3f069c4f	0.5258226
64	0x3f2fc96b	0.68666714
65	0xbe5d47b6	-0.21609387
66	0xbe79ccb1	-0.2439449
67	0xbf34f9e8	-0.70693827
68	0x3e8910c9	0.2677062
69	0x3e33e726	0.17568645
70	0xbd819e8f	-0.06329071
71	0xbdc9613c	-0.09832999
72	0xbdd8a351	-0.10578025
73	0x3ef1fbf7	0.47262546
74	0xbf89a4b5	-1.075339
75	0xbf553d1e	-0.8329638
76	0xbeab321d	-0.3343667
77	0x3d2b2d48	0.04179123
78	0xbdbd7071	-0.09249962
79	0x3ec0aca7	0.37631723
80	0x3e0b0c5c	0.13578933
81	0xbde426fc	-0.11140248
82	0x3ec04c83	0.37558374
83	0xbd8b17b8	-0.06791633
84	0x3d008f3c	0.0313866
85	0x3f04d224	0.5188315
86	0xbe0ee2bb	-0.13953678
87	0xbea0b0b6	-0.3138482
88	0xbd86ac1c	-0.06575796
89	0xbfb94fdd	-1.4477497
90	0xbdceece3	-0.10103776
91	0xbf03a9aa	-0.5143076
92	0x3f42c989	0.7608877
93	0x3eb0e450	0.3454919
94	0xbd29f678	-0.041494817
95	0xbbf2af44	-0.007406147
96	0xbf204532	-0.62605584
97	0xbccff01b	-0.025383046
98	0xbf4d142a	-0.8010889
99	0xbe742251	-0.23841216
100	0xbfd83c9d	-1.6893498
101	0xbe5ed956	-0.21762595
102	0xbeb61d6b	-0.3556932
103	0x3e850cd6	0.25986356
104	0x3e57a0c4	0.21057421
105	0xbee6dcd4	-0.45090353
106	0xbf48e514	-0.78474545
107	0xbea5292d	-0.32257977
108	0xbf7a3caa	-0.97748816
109	0xbf4187a3	-0.7559759
110	0xbf2a398b	-0.66494054
111	0x3e679a14	0.2261737
112	0xbdf84e2e	-0.121242866
113	0xbea9f086	-0.33191317
114	0x3c0d3e29	0.008620777
115	0x3ce3ed3c	0.027823083
116	0xbf7e74c4	-0.9939692
117	0x3e975645	0.29558006
118	0xbf6284e8	-0.8848405
119	0xbf27598d	-0.6537102
120	0x3d7532db	0.059862953
121	0x3e60929e	0.2193093
122	0x3e09df8a	0.1346418
123	0x3e7524dd	0.23939843
124	0xbd622290	-0.055208743
125	0xbea6dee9	-0.32591942
126	0xbeda56f2	-0.4264446
127	0xbedac001	-0.42724612
128	0xbd22b8a0	-0.039726853
129	0xbd56cd48	-0.052441865
130	0x3d9fa2f2	0.07794751
131	0xbea72eb2	-0.32652813
132	0xbf302241	-0.6880227
133	0xbf7b084d	-0.9805954
134	0x3dd8d64e	0.105877504
135	0x3d36cbbe	0.044627897
136	0x3e96446b	0.29349074
137	0xbe09643e	-0.13417146
138	0x3e982430	0.2971511
139	0x3ecb411b	0.3969811
140	0x3ef10de1	0.470809
141	0x3eeeedb2	0.46665722
142	0xbef1fae3	-0.47261724
143	0x3f02df5f	0.5112209
144	0xbf997466	-1.1988647
145	0x3da3ca55	0.07997576
146	0x3e571eaa	0.21007791
147	0x3b02e456	0.0019972525
148	0xbd96fc20	-0.07372308
149	0xbee83eba	-0.45360357
150	0x3f10e498	0.56598806
151	0x3edf416b	0.43604597
152	0x3e2e48b3	0.1701992
153	0xbe589f72	-0.21154574
154	0x3ec57db5	0.3857247
155	0xbd6f9c72	-0.058498807
156	0xbdaf43bb	-0.085578404
157	0xbf5da19f	-0.8657474
158	0x3e310413	0.1728671
159	0xbe1a1d1c	-0.15050167
160	0xbdfb25e0	-0.122630835
161	0x3f1b4616	0.6065382
162	0x3e7b9def	0.24571966
163	0x3e98bd36	0.29831856
164	0xbec150ae	-0.37756866
165	0x3e50f39a	0.20405427
166	0x3cd5603c	0.026046865
167	0x3ea49a21	0.3214884
168	0xbe29ce47	-0.16582595
169	0xbf99d2f8	-1.2017508
170	0xbf7f3fa6	-0.99706495
171	0xbd9f535d	-0.07779572
172	0xbf4840d3	-0.78223914
173	0x3d1b07a4	0.037849084
174	0x3dc006d6	0.09376304
175	0xbe0f255e	-0.13979098
176	0xbeed81ef	-0.46388194
177	0x3d9a78f5	0.07542602
178	0x3f59d65f	0.8509273
179	0x3e258bd3	0.1616662
180	0xbe7c72b8	-0.24653137
181	0xbdc6f3f3	-0.09714498
182	0xbd9a9d2a	-0.07549508
183	0xbf1ce73c	-0.61290336
184	0x3ded7bc4	0.11595872
185	0x3d31bdd5	0.04339393
186	0x3efcd8b5	0.49384084
187	0x3d128a4c	0.03577642
188	0x3d6be9f7	0.057596173
189	0xbe938832	-0.28814846
190	0x3e45b567	0.19307481
191	0xbf0b2a37	-0.5436129
192	0x3d30ba64	0.043146506
193	0xbe3b7438	-0.18306053
194	0x3d8cbd46	0.068720385
195	0xbe05af0d	-0.13055058
196	0xbca38229	-0.019959526
197	0xbe944553	-0.2895914
198	0x3f4fa6c3	0.81113833
199	0x3e8157ab	0.25262198
200	0xbe1919a3	-0.14951186
201	0x3f20d3d3	0.6282322
202	0x3e88a0e6	0.26685256
203	0x3e5d35f3	0.21602611
204	0xbe54498a	-0.20731178
205	0xbe9d28bf	-0.3069515
206	0xbe2a18f3	-0.1661108
207	0x3e929c42	0.2863484
208	0x3f308913	0.6895916
209	0xbf7400c2	-0.95313656
210	0x3ec6b163	0.3880721
211	0x3e3563d3	0.17713861
212	0xbe5f7f45	-0.21825893
213	0xbceb4f9d	-0.028724486
214	0x3df57cb7	0.11986678
215	0xbe0ee2ca	-0.139537
216	0xbdb0a903	-0.086259864
217	0x3e06196f	0.1309564
218	0xbf1850b8	-0.5949817
219	0xbd027e36	-0.031858645
220	0xbe5283d2	-0.20558098
221	0xbf75d83e	-0.96033084
222	0xbde7990b	-0.113084875
223	0x3f021b17	0.50822586
224	0x3df1188d	0.11772261
225	0xbe1c2f2a	-0.15252367
226	0xbecd4839	-0.40094164
227	0xbe3be1bf	-0.18347834
228	0xbe8e9d1d	-0.27854243
229	0x3ebfc076	0.37451524
230	0x3e815c70	0.25265837
231	0x3d9baf8c	0.07601842
232	0xbdfd082a	-0.12355073
233	0x3ec9bbe2	0.39401156
234	0x3ee158d4	0.44013083
235	0x3e011d74	0.12608892
236	0x3f263b4b	0.64934224
237	0x3f41d7d1	0.75719935
238	0xbeb8847a	-0.36038572
239	0xbe09506d	-0.13409586
240	0xbe8806bd	-0.2656764
241	0xbf265d45	-0.6498607
242	0x3e7487e7	0.23879968
243	0xbeb9779e	-0.36224073
244	0xbe23f4a7	-0.16011296
245	0xbe1ea824	-0.15493828
246	0xbeb84f16	-0.35997838
247	0xbd1b4e49	-0.037916455
248	0x3e86129e	0.2618608
249	0xbf4da227	-0.8032555
250	0xbe89d3d5	-0.26919428
251	0xbeeab2e9	-0.45839623
252	0xbf0c684f	-0.5484666
253	0x3b80872a	0.003922363
254	0x3f70469a	0.9385773
255	0xbeba87ba	-0.36431676

bias f4 [256]
0	0xbed61c46	-0.41818446
1	0xbd0765e5	-0.03305616
2	0xbd2824b4	-0.041050628
3	0xbde680d2	-0.11255039
4	0x3ed2d610	0.41178942
5	0xbe2ab33b	-0.16669933
6	0xbd90fb05	-0.07079128
7	0x3de945a0	0.11390233
8	0xbf4d96ba	-0.80308115
9	0xbef9b07d	-0.48767462
10	0xbdefc661	-0.1170776
11	0xbdcb6766	-0.09931831
12	0x3e8f6083	0.2800332
13	0xbf033aa1	-0.51261336
14	0xbea2345b	-0.3168057
15	0xbec85998	-0.39130855
16	0xbd8c2270	-0.06842506
17	0xbf22a716	-0.635362
18	0xbf5fcf16	-0.87425363
19	0x3e4a115f	0.19733189
20	0xbe890e0d	-0.26768532
21	0x3e7d309c	0.24725574
22	0xbe64a070	-0.22326827
23	0xbd8f7c2e	-0.07006107
24	0xbe98aec1	-0.29820827
25	0xbf3d5530	-0.7395811
26	0xbe0bdb42	-0.13657859
27	0xbe007585	-0.1254483
28	0xbd2fed09	-0.042950664
29	0xbd4867cc	-0.048927113
30	0xbce9c3fe	-0.02853584
31	0x3e0c109d	0.13678212
32	0xbdf04058	-0.117310226
33	0xbdb8d044	-0.090240985
34	0xbd959029	-0.07302887
35	0xbed4b961	-0.41547683
36	0xbe23d934	-0.16000825
37	0xbe8bdc0d	-0.27316323
38	0xbea511dc	-0.32240188
39	0xbe244df9	-0.16045369
40	0xbe1b1a2f	-0.15146707
41	0xbdbf8495	-0.0935146
42	0xbee59ca8	-0.44846082
43	0x3c2f0a80	0.010683656
44	0xbe45bc2a	-0.1931006
45	0xbdf88b51	-0.121359475
46	0xbf1bdf27	-0.6088738
47	0xbdae2256	-0.08502643
48	0xbf71b0cc	-0.94410396
49	0xbdac0cc9	-0.08400876
50	0xbd531669	-0.051535044
51	0xbe2145a2	-0.15749219
52	0xbf22106b	-0.633063
53	0xbce79cf3	-0.028273081
54	0xbd9c6fc1	-0.07638503
55	0xbd739fba	-0.0594785
56	0xbf250755	-0.6446431
57	0x3cfb5bda	0.030683447
58	0xbf57211c	-0.84034896
59	0xbea59704	-0.32341778
60	0xbf495ba7	-0.78655475
61	0x3ec3d6b2	0.38249737
62	0xbd2b0363	-0.041751277
63	0xbdded4c8	-0.108804286
64	0xbe1fbcdc	-0.15599388
65	0xbdd44ab5	-0.10365812
66	0xbef62d4b	-0.4808143
67	0xbddf983a	-0.10917707
68	0xbd608560	-0.054814696
69	0x3d9f5fa9	0.077819176
70	0xbe255e6d	-0.16149302
71	0xbdf7ae37	-0.12093776
72	0xbd304847	-0.04303768
73	0xbf8b40f0	-1.0879192
74	0xbf22d931	-0.6361266
75	0xbddc26d6	-0.10749595
76	0xbec623a7	-0.38699076
77	0xbf31bf96	-0.6943296
78	0x3e057649	0.13033403
79	0x3ec44606	0.38334674
80	0xbf18b9b3	-0.59658355
81	0xbf2e821f	-0.681673
82	0xbf4a9a75	-0.7914193
83	0xbded604a	-0.11590631
84	0xbea0a3c1	-0.31374934
85	0xbf8a4574	-1.0802445
86	0xbd6f5990	-0.058435023
87	0x3d26bf76	0.040709935
88	0xbe0a19e5	-0.1348644
89	0x3ca5b9a3	0.02023012
90	0xbde33748	-0.110945284
91	0xbd10b776	-0.035331212
92	0xbdd4aa93	-0.10384097
93	0xbd80c3c2	-0.06287338
94	0xbe671bdd	-0.22569223
95	0x3d0ea578	0.034825772
96	0xbf7cde5d	-0.987768
97	0xbdddb058	-0.108246505
98	0xbe9c57e4	-0.30535805
99	0xbe152d0d	-0.14567967
100	0x3e910486	0.28323764
101	0x3def7430	0.11692083
102	0xbf06ce26	-0.5265831
103	0xbf9a0444	-1.2032552
104	0xbf7c4f79	-0.98558766
105	0xbf5ecc95	-0.8703092
106	0xbdf39fb9	-0.11895699
107	0xbd7f21d1	-0.06228811
108	0xbe9edf0d	-0.3102955
109	0xbf2f4a79	-0.6847301
110	0xbeaa9545	-0.3331701
111	0xbdb50086	-0.088379905
112	0xbf6453c5	-0.8919032
113	0x3f0196aa	0.5062052
114	0xbe84d897	-0.25946495
115	0x3d9be8de	0.07612775
116	0xbf292788	-0.66075945
117	0xbe541c3e	-0.20713899
118	0x3ea8408e	0.3286175
119	0xbd82e44b	-0.063912
120	0xbf4ef1a9	-0.80837494
121	0xbe8fae87	-0.2806284
122	0xbd4c2542	-0.04984022
123	0x3e8ea388	0.2785914
124	0xbe029a5f	-0.127542
125	0xbdf8352b	-0.12119516
126	0xbea91d8d	-0.33030358
127	0x3f693737	0.91099876
128	0x3e9a183f	0.30096623
129	0xbee823f3	-0.45339927
130	0xbe99bb42	-0.3002568
131	0x3f336f8a	0.7009207
132	0xbf45008c	-0.7695396
133	0x3e57bc9b	0.21068041
134	0xbe0ca3c5	-0.13734348
135	0x3d0b48d6	0.03400501
136	0xbea2ee12	-0.31822258
137	0xbf55e7eb	-0.83557004
138	0x3f12deef	0.5737142
139	0x3f95fdbc	1.1718059
140	0xbdafb469	-0.085793324
141	0xbf193e04	-0.59860253
142	0xbe385b80	-0.18003654
143	0xbdb5a638	-0.08869594
144	0xbda00798	-0.078139484
145	0xbe52eb15	-0.20597489
146	0xbdeb8f46	-0.115019366
147	0xbdea902f	-0.11453282
148	0xbdf084b6	-0.117440626
149	0xbf4346fd	-0.76280195
150	0xbf09af29	-0.537829
151	0xbe5e808c	-0.21728724
152	0xbf22e1b3	-0.6362564
153	0xbddbec75	-0.1073846
154	0xbdeb09ff	-0.11476516
155	0xbe123bf9	-0.1428069
156	0xbdd0bafd	-0.10191915
157	0xbf10fd1f	-0.5663623
158	0xbd529cd9	-0.051419113
159	0x3e447a2a	0.19187227
160	0xbee64e6c	-0.44981706
161	0xbe339604	-0.17537695
162	0xbe65643a	-0.22401515
163	0xbe8c2360	-0.2737074
164	0x3f09e886	0.5387043
165	0xbe797c31	-0.24363782
166	0xbed8f3fe	-0.4237365
167	0xbeced49b	-0.4039658
168	0xbd400820	-0.04688275
169	0xbee3a624	-0.44462693
170	0xbd89930e	-0.067175016
171	0xbf00470b	-0.501084
172	0xbed0277f	-0.40655133
173	0xbd7415d0	-0.059591115
174	0xbdd62f30	-0.10458219
175	0xbda18762	-0.0788715
176	0x3dd5b2fb	0.104345284
177	0xbd073065	-0.033005137
178	0xbe1c08a3	-0.1523767
179	0xbd45a185	-0.04824974
180	0x3f10d74f	0.56578535
181	0xbe2ed3a5	-0.17072923
182	0xbdd1312c	-0.10214457
183	0x3ea334e7	0.318763
184	0xbc8f52ea	-0.017495591
185	0xbdbaab29	-0.091146775
186	0xbf4a4e6c	-0.7902591
187	0xbe830d48	-0.2559607
188	0xbd799a2d	-0.06093805
189	0xbe234b04	-0.15946585
190	0xbd5e1233	-0.054216575
191	0xbd7812b1	-0.0605647
192	0xbf4e76a6	-0.80649793
193	0xbf7912be	-0.97294223
194	0xbdaeb827	-0.08531218
195	0x3da5efb9	0.08102364
196	0xbe072e5c	-0.13201278
197	0xbed36c76	-0.41293687
198	0xbdc23148	-0.09482056
199	0xbe09496a	-0.13406911
200	0xbde98ca5	-0.11403779
201	0xbf1e0d11	-0.6173869
202	0xbdc1af45	-0.09457258
203	0xbee8eac4	-0.45491612
204	0xbe001052	-0.12506226
205	0xbe899056	-0.26867932
206	0xbf241a6f	-0.64102834
207	0xbef9d651	-0.48796323
208	0x3f3a8e18	0.7287307
209	0xbd7ebb28	-0.062190205
210	0xbf05dff4	-0.5229485
211	0xbdd733fb	-0.10507961
212	0xbf13343b	-0.5750157
213	0x3fc109aa	1.5081074
214	0xbebcf999	-0.36909178
215	0xbd52aa4c	-0.05143194
216	0xbdc4d43b	-0.09610792
217	0xbf2fbcd8	-0.6864753
218	0xbf671627	-0.90268177
219	0xbf3196c0	-0.6937065
220	0x3e146dde	0.14495036
221	0xbeca40ef	-0.39502665
222	0xbe3a192e	-0.18173668
223	0xbcb757c5	-0.022380719
224	0xbf286975	-0.65785915
225	0xbd83b629	-0.06431229
226	0x3e55e0e7	0.20886575
227	0xbe714150	-0.23560071
228	0xbd9d71e9	-0.07687742
229	0xbf29ad32	-0.662799
230	0xbf412b31	-0.7545653
231	0x3dec90ca	0.11551054
232	0x3dc0e8c1	0.09419394
233	0xbbc977d6	-0.0061483188
234	0xbf0bf09a	-0.54664004
235	0xbd96747c	-0.073464364
236	0xbe5fa3be	-0.21839806
237	0xbe62e7b8	-0.22158706
238	0xbf171f45	-0.5903209
239	0x3c087a6d	0.00832997
240	0xbd84d162	-0.06485249
241	0xbf335632	-0.700534
242	0xbe3f9f77	-0.18713175
243	0xbdbd286c	-0.092362255
244	0xbd8e7de6	-0.06957607
245	0xbf122e24	-0.57101655
246	0xbd38071b	-0.04492865
247	0xbecaa27b	-0.39577088
248	0xbf7e1a2f	-0.99258703
249	0xbe10ca02	-0.1413956
250	0xbde92578	-0.113841
251	0xbf20f8c8	-0.6287961
252	0xbdf39051	-0.118927605
253	0xbf2777cf	-0.6541719
254	0xbdcb20f4	-0.09918395
255	0xbe92aed0	-0.28648996

weight f4 [6, 256]
0	0xbce9d9f9	-0.02854632
1	0xbc43f165	-0.011959408
2	0xbbc2886e	-0.005936674
3	0x3cd98f1e	0.026557501
4	0x3dee52b2	0.11636867
5	0xbcb5619a	-0.022141267
6	0xbc8a812d	-0.016907299
7	0xbe8e17e3	-0.277526
8	0x3e3fdefa	0.18737403
9	0x3e3516f2	0.17684534
10	0x3e5c5cd1	0.21519782
11	0xbd018c1a	-0.031627752
12	0xbc7224e5	-0.014779304
13	0x3e8d3196	0.27576894
14	0xbd5804ce	-0.052738957
15	0x3e5474cc	0.2074768
16	0xbd01cbf1	-0.031688634
17	0xbc7ee84b	-0.015558313
18	0x3f04f3df	0.5193462
19	0xbdad9c4d	-0.08477078
20	0x3df5e737	0.12006991
21	0x3d2b0b15	0.041758616
22	0xbe62d6e7	-0.22152291
23	0xbd972fa5	-0.07382134
24	0xbf0ebedc	-0.5575998
25	0x3c50dd6c	0.012748104
26	0xbd788556	-0.060674034
27	0x3c0cfb36	0.008604815
28	0x3b822674	0.003971869
29	0xbd7ff2f8	-0.062487572
30	0xbc259917	-0.0101073
31	0x3da001f1	0.0781287
32	0x3ce6523c	0.028115384
33	0x3ca08953	0.019596731
34	0xbc98fd26	-0.018675398
35	0xbec4d4af	-0.38443515
36	0x3dd2e2cd	0.10297165
37	0x3d5404c1	0.051762346
38	0xbac74d70	-0.0015205573
39	0xbd6de901	-0.058083538
40	0xbc48764b	-0.0122352345
41	0xbd310f18	-0.043227285
42	0xbe47175c	-0.19442505
43	0xbe5045a4	-0.20339066
44	0xbe4e258b	-0.20131509
45	0xbdad450c	-0.08460435
46	0xbd46a83a	-0.048500277
47	0xbdd02064	-0.10162428
48	0x3f2496b3	0.6429245
49	0x3ca27ee6	0.0198359
50	0x3b0f4b1d	0.002186484
51	0xbde2aff1	-0.110687144
52	0xbe88ac2e	-0.26693863
53	0x3e1c1567	0.1524254
54	0xbdfc86b3	-0.12330379
55	0x3beac982	0.007165135
56	0x3da85c3c	0.08220717
57	0x3e9c54c5	0.30533424
58	0x3ecc9d2a	0.39963657
59	0xbd0ffdb8	-0.035154074
60	0x3e06a6e4	0.13149601
61	0x3c5f918d	0.013645542
62	0xbca00ccc	-0.019537352
63	0xbd85dc62	-0.06536175
64	0xbeeddf42	-0.46459395
65	0x3c796858	0.015222631
66	0xbe409c09	-0.18809523
67	0xbd9583c4	-0.07300523
68	0x3d122b7d	0.035686005
69	0x3d46d109	0.048539195
70	0xbc93f217	-0.018059773
71	0x3ce19953	0.027538931
72	0xbd869c8e	-0.06572829
73	0x3da5a60c	0.080883116
74	0xbda4a79d	-0.08039782
75	0x3d6b3f20	0.057433248
76	0xbdaa7db3	-0.083247565
77	0x3d6539e9	0.05596343
78	0x3de3f9ed	0.11131654
79	0x3e6b8bcc	0.23002547
80	0xbec02945	-0.37531486
81	0x3e3bf92a	0.18356767
82	0x3ea6669a	0.32500154
83	0x3d360f4c	0.044448182
84	0x3e7aae1b	0.24480478
85	0x3e05df78	0.13073528
86	0xbc7b0aa8	-0.015322365
87	0xbdcc89cb	-0.099872194
88	0xbd9b82c9	-0.07593305
89	0x3e0a7367	0.13520585
90	0xbcb9a31c	-0.022660784
91	0xbd7d5c97	-0.06185588
92	0x3db7751d	0.089578845
93	0x3d988c81	0.07448674
94	0x3dcbe4f4	0.09955779
95	0xbf2b4b62	-0.669119
96	0xbde93680	-0.11387348
97	0xbce5fdcb	-0.02807512
98	0xbef9141e	-0.4864816
99	0xbd0dcb4d	-0.03461771
100	0x3e6c439b	0.23072664
101	0x3e8b1be0	0.27169704
102	0x3f49aae1	0.78776366
103	0xbe992912	-0.29914147
104	0xbe484a81	-0.19559671
105	0x3c914cf5	0.017736891
106	0xbd24b807	-0.040214565
107	0x3dbff9f6	0.09373848
108	0xbe9ac37a	-0.30227262
109	0x3dbe976a	0.09306224
110	0xbe1bda37	-0.15219961
111	0x3d23b8ff	0.039971348
112	0xbe706ed4	-0.23479778
113	0x3e85d34c	0.2613777
114	0xbed9833d	-0.4248294
115	0x3ee5e76f	0.44903132
116	0x3f4cb679	0.7996593
117	0x3e2558d8	0.16147172
118	0xbf363e7c	-0.71189094
119	0xbccdc3a4	-0.025117703
120	0xbdb8ca7d	-0.090229966
121	0xbe871b27	-0.26387903
122	0xbd2a7a1f	-0.04162037
123	0x3ccf5711	0.025310071
124	0x3c1be361	0.009514661
125	0x3cbf005a	0.023315597
126	0x3ee93592	0.45548683
127	0xbe8d18f8	-0.27558112
128	0xbc8f93f8	-0.017526612
129	0x3c5756c8	0.013143249
130	0x3ed552b3	0.41664657
131	0x3b7c030b	0.0038453962
132	0xbe4ad621	-0.19808246
133	0x3ddbbc81	0.10729314
134	0xbd33e25f	-0.043917056
135	0xbe1f4f52	-0.15557602
136	0x3df43395	0.11923901
137	0xbe719ead	-0.23595686
138	0x3e16052b	0.14650409
139	0xbd1f1e21	-0.038847093
140	0xbc73ae1a	-0.014873052
141	0xbdb5e7b1	-0.08882082
142	0x3d1b4837	0.037910666
143	0xbc51e345	-0.012810533
144	0x3ba460bc	0.0050164144
145	0xbe0df6b1	-0.13863637
146	0xbd0e1ddc	-0.034696445
147	0xbcc7fc99	-0.02441244
148	0x3ce53289	0.027978199
149	0x3dcd43a6	0.100226685
150	0x3e93ae62	0.2884398
151	0xbd69fc84	-0.057125583
152	0x3ed0e425	0.4079906
153	0x3d45b0c0	0.048264265
154	0xbc2a2923	-0.010385784
155	0xbd4cfab2	-0.05004377
156	0xbd134377	-0.03595301
157	0xbcf83fd1	-0.030303868
158	0x3b058c29	0.0020377731
159	0xbe049960	-0.12949133
160	0x3e165254	0.14679843
161	0x3df9e6be	0.12202214
162	0x3da71eec	0.08160195
163	0x3e911ca7	0.28342173
164	0x3e22d4ee	0.15901539
165	0xbe7362ba	-0.2376813
166	0x3edc64f7	0.4304578
167	0x3e08b593	0.13350515
168	0xbc15e5c4	-0.009149019
169	0xbd4f450d	-0.05060296
170	0xbd982f5a	-0.074309066
171	0x3f0a0e56	0.53928125
172	0x3e4172f6	0.1889151
173	0x3db7c03e	0.08972214
174	0xbd7b0d8d	-0.06129222
175	0x3d1e1bae	0.038600616
176	0xbe15ca57	-0.14627968
177	0x3ca7ac30	0.020467848
178	0xbd26d78a	-0.040732898
179	0x3cfa2745	0.030536303
180	0xbe6517cb	-0.22372358
181	0x3e0ef029	0.13958801
182	0xbca0aa1c	-0.019612364
183	0x3e10386e	0.14084026
184	0x3cd3d1c6	0.025856864
185	0x3d0319c3	0.03200699
186	0x3da1b6f3	0.07896223
187	0xbe7a631f	-0.24451874
188	0x3bf8378f	0.0075749825
189	0xbc145b55	-0.009054978
190	0x3d5419c2	0.051782377
191	0x3b748b56	0.0037314496
192	0x3eb02013	0.3439947
193	0xbd97bcaa	-0.07409032
194	0xbd96e443	-0.07367756
195	0x3f008cec	0.5021503
196	0xbcdfabb8	-0.027303562
197	0x3eadd4cb	0.3395141
198	0x3e973a66	0.29536742
199	0x3d0090c8	0.031388074
200	0xbcfc6e3f	-0.030814288
201	0x3ec98ba2	0.39364344
202	0xbd7d3f1b	-0.06182776
203	0xbd18a41e	-0.03726589
204	0xbdca15b5	-0.098674215
205	0xbe5abb84	-0.21360594
206	0xbdc5f955	-0.09666697
207	0x3ca7d69d	0.020488078
208	0x3ea68ab9	0.32527712
209	0x3cfc3fb7	0.0307921
210	0x3d114ba9	0.035472546
211	0xbcf1e5d6	-0.02952854
212	0x3dbb9fa1	0.09161306
213	0x3e60951d	0.21931882
214	0xbd51649b	-0.051121335
215	0xbd34c2b8	-0.04413101
216	0x3ba2a369	0.0049633277
217	0x3d10572c	0.035239384
218	0x3efabda3	0.48972806
219	0xbed8bc8f	-0.4233136
220	0xbe8167e7	-0.25274584
221	0xbe97346e	-0.29532188
222	0xbda1929a	-0.0788929
223	0x3de7b62b	0.11314043
224	0x3e4a7b85	0.19773681
225	0x3d20f27f	0.039293762
226	0xbe09c29b	-0.13453142
227	0xbe021e02	-0.1270676
228	0xbd3229af	-0.043496784
229	0x3d066653	0.032812428
230	0x3d01d0d9	0.031693313
231	0x3decb020	0.11557031
232	0xbca325ba	-0.01991545
233	0xbd1cc41d	-0.038272966
234	0x3edcbd91	0.43113378
235	0xbd254b2f	-0.040354904
236	0xbdeab5d7	-0.114604644
237	0x3e7b3eea	0.24535719
238	0x3e99e241	0.3005543
239	0xbd1cf4ac	-0.038319275
240	0xbcbb44de	-0.022859987
241	0x3e7e3e70	0.24828506
242	0xbe62ced0	-0.22149205
243	0xbc97ff30	-0.0185543
244	0x3d0b65e3	0.034032714
245	0xbdfa06e8	-0.122083485
246	0x3d3d11cb	0.046159547
247	0xbe7e6237	-0.24842153
248	0xbdc23d68	-0.094843686
249	0xbecb84c4	-0.3974973
250	0xbe55ae23	-0.20867209
251	0xbecbf011	-0.39831594
252	0x3d0bfd28	0.034176975
253	0xbef477f1	-0.47747758
254	0xbc09c782	-0.008409383
255	0xbe3072c3	-0.17231278

bias f4 [6]
0	0xbd04a491	-0.032383505
1	0xbe3ff5c0	-0.1874609
2	0x3ddbdc8a	0.10735424
3	0xbe905b58	-0.2819469
4	0x3ee1b257	0.44081375
5	0x3dfd5581	0.12369824

weight f4 [6, 256]
0	0xbc564909	-0.013078936
1	0x3c1866e4	0.009301875
2	0x3d8e5b61	0.06951023
3	0x3bc5c9c7	0.0060360166
4	0xbd5cf972	-0.053948827
5	0x3df31579	0.1186933
6	0x3d83ae22	0.064296976
7	0x3c4e0334	0.012574006
8	0x3d1dae97	0.03849658
9	0x3e26ae6b	0.16277473
10	0x3dff7fd2	0.12475552
11	0x3ca98125	0.020691464
12	0x3d93fdfe	0.072261795
13	0x3da18eb4	0.078885466
14	0xbd948d01	-0.07253457
15	0xbc96f6d6	-0.018428247
16	0x3c8810fe	0.016609665
17	0x3db6bb54	0.08922449
18	0x3e24832b	0.16065662
19	0x3c4839a9	0.0122207785
20	0x3d0dab6d	0.034587312
21	0xbda45b4f	-0.08025228
22	0x3d599188	0.053117305
23	0x3d8f3433	0.06992378
24	0x3e7e5bdc	0.24839729
25	0xbbefef99	-0.0073222634
26	0x3d0143df	0.031558868
27	0x3b0a3be3	0.0021092824
28	0x3d605a00	0.05477333
29	0x3d84f895	0.06492726
30	0x3d5ef488	0.054432422
31	0xbd7ce5d7	-0.06174263
32	0xbc922649	-0.017840521
33	0xbd96dbf3	-0.07366171
34	0xbb9779ea	-0.0046226876
35	0x3dd58f71	0.1042775
36	0x3d4599d2	0.048242398
37	0xbd080b3a	-0.03321383
38	0xbd94f6eb	-0.07273658
39	0x3c4f3324	0.01264647
40	0x3d8214cf	0.06351625
41	0x3d98b2a8	0.07455951
42	0x3f12bd56	0.57320154
43	0x3c11281d	0.008859661
44	0x3cc71cad	0.024305666
45	0x3d665eda	0.0562428
46	0x3ce32aa2	0.02773029
47	0x3c9733f9	0.0184574
48	0x3e78a79f	0.24282692
49	0x3da48147	0.0803247
50	0x3cf3d9a0	0.029766858
51	0xbda011d4	-0.078159004
52	0x3f607d1d	0.8769091
53	0x3db2a29c	0.087224215
54	0xbd3b6c73	-0.045757722
55	0x3b3c1d1a	0.002870387
56	0x3d834287	0.064091735
57	0x3da30fd3	0.079620026
58	0x3e9f24c6	0.31082743
59	0xbcdd3785	-0.027004013
60	0x3a4d7121	0.0007836987
61	0x3c26e652	0.010186749
62	0x3d29127d	0.041277397
63	0xbbb2f7e4	-0.00546168
64	0x3ea2a96c	0.31769884
65	0x3cd49d6c	0.02595397
66	0x3ccd581f	0.025066433
67	0x3da84fcb	0.08218344
68	0x3d892cd3	0.06698003
69	0x3cc039be	0.023465034
70	0xbdb1a00c	-0.08673105
71	0x3c14eaf1	0.0090892175
72	0x3c498a9b	0.0123011125
73	0x3dad088a	0.08448894
74	0x3e90ab25	0.28255573
75	0x3d179719	0.037009332
76	0x3d01d273	0.03169484
77	0xbbf616b9	-0.007510033
78	0x3b000dba	0.0019539432
79	0x3c17d037	0.009265951
80	0xbe8effef	-0.27929637
81	0xbe46269f	-0.1935067
82	0xbcd2dcde	-0.025740083
83	0x3d2d6c64	0.042339697
84	0x3e9c5716	0.3053519
85	0x3eb10a65	0.34578243
86	0x3d2edcb3	0.042690944
87	0x3d9dcb29	0.07704765
88	0x3e5a6c55	0.21330388
89	0xbdda8d4e	-0.10671483
90	0x3d4c0d38	0.049817294
91	0xbd43f185	-0.047837753
92	0xbb9571a7	-0.0045606676
93	0xbb4d2937	-0.0031305084
94	0xbd46a1b7	-0.048494067
95	0xbd5728c3	-0.052529108
96	0xbdbe8fde	-0.09304784
97	0x3d07a1ec	0.033113405
98	0x3ed49fba	0.41528112
99	0xbdb2c44d	-0.08728848
100	0x3e52941f	0.20564316
101	0x3ce49571	0.02790329
102	0x3e8ea4b8	0.27860045
103	0x3eba6187	0.36402532
104	0x3e91da77	0.28486988
105	0x3d4c9a78	0.049952
106	0xbc971a51	-0.018445166
107	0xbc31b336	-0.01084595
108	0x3e4f718a	0.20258155
109	0xbd5c8609	-0.053838763
110	0x3e658e76	0.22417626
111	0x3d2dbb48	0.042414933
112	0x3f52b4c9	0.82307106
113	0x3cad86e7	0.02118249
114	0x3c518a3b	0.012789304
115	0x3dc1f1dd	0.0946996
116	0x3dc86b92	0.097861424
117	0xbd2a5c1f	-0.04159176
118	0x3e9db3ff	0.3080139
119	0xbd14457c	-0.036199078
120	0xb885832f	-6.366369e-05
121	0x3d81c5d8	0.06336564
122	0x39540a78	0.00020221795
123	0x3b8fe739	0.0043915776
124	0x3cb9fcd1	0.02270356
125	0x3d7cc22a	0.061708607
126	0x3e72e42c	0.23719853
127	0xbddad0ef	-0.10684382
128	0xbbcb80b1	-0.0062104096
129	0xbcec8e7c	-0.028876536
130	0x3d9aa87d	0.07551668
131	0xbd8ff903	-0.07029917
132	0x3f359f33	0.70946044
133	0xbbc367e1	-0.005963311
134	0x3b708e35	0.0036705856
135	0x3c0effdd	0.008727995
136	0xbd5b5307	-0.053545978
137	0x3ca40ac3	0.020024663
138	0x3d14b9f9	0.03631017
139	0xbe0938bf	-0.13400553
140	0xbc85caa8	-0.016331986
141	0x3ce4b65e	0.02791899
142	0xbca420f9	-0.020035254
143	0x3d9850c0	0.07437277
144	0xbd574c66	-0.052563094
145	0x3d8a3385	0.06748108
146	0xbd93213f	-0.071840756
147	0x3c53c676	0.012925735
148	0x3de5c7e4	0.11219767
149	0x3f0ae11c	0.5424974
150	0x3df9b634	0.121929556
151	0xbd09b320	-0.033618093
152	0x3df486a0	0.1193974
153	0x3c88daf0	0.01670596
154	0x3d3c7834	0.046013072
155	0x3d4118c4	0.04714276
156	0x3add0bec	0.0016864515
157	0x3d8d8c3e	0.06911515
158	0x3db64cef	0.08901393
159	0xbcee4279	-0.029084431
160	0x3e2c5f38	0.16833198
161	0x3d8b7bf3	0.06810751
162	0x3e383c21	0.17991687
163	0x3db2b4c5	0.08725885
164	0xbdcbbc68	-0.09948045
165	0x3d17beaa	0.037047066
166	0x3eca562c	0.3951887
167	0xbbcd1691	-0.0062587936
168	0x3d903ee6	0.07043247
169	0x3db8011d	0.08984587
170	0x3dc3981c	0.09550497
171	0x3e8d914d	0.27649918
172	0x3dd5447c	0.10413453
173	0xbd970537	-0.073740415
174	0x3e0d34e2	0.13789704
175	0x3dbff5ff	0.09373092
176	0xbcdc527b	-0.026894799
177	0x3d3e905d	0.046524394
178	0x3d9a1fcf	0.07525598
179	0xbd12226c	-0.03567736
180	0xbcb17379	-0.021661507
181	0x3d856cde	0.065149054
182	0x3d91816e	0.07104765
183	0x3ba55326	0.0050453125
184	0xbc83de28	-0.016097143
185	0x3d27d2c3	0.040972482
186	0x3d8a6c8f	0.06758987
187	0x3d853dd6	0.06505935
188	0x3cbe0885	0.023197422
189	0xbc1ea213	-0.009682196
190	0x3d879bf5	0.06621543
191	0x3dcf4d6c	0.10122189
192	0x3d8309bf	0.06398343
193	0x3d801d5d	0.062556006
194	0x3de6d328	0.112707436
195	0x3e8e5310	0.27797747
196	0x3d2ebab7	0.042658534
197	0x3efe83bb	0.49709877
198	0x3ebcf8bb	0.36908516
199	0x3d21cc1b	0.03950129
200	0xbc3f9b6e	-0.011694772
201	0x3e8bbe4d	0.27293625
202	0x3d62f1c1	0.055406336
203	0xbe124b6e	-0.14286587
204	0x3df06b40	0.11739206
205	0xbd1b5f93	-0.037932944
206	0x3e0a1091	0.13482882
207	0xbd5565d8	-0.05209908
208	0xbd168d8d	-0.036756087
209	0xbdc96829	-0.0983432
210	0xbcf87a5c	-0.030331783
211	0x3bf595f5	0.007494683
212	0x3cd14c9d	0.025549227
213	0xbe18a8bb	-0.14908116
214	0x3df5412d	0.11975322
215	0xbc2cb43a	-0.010541016
216	0x3d5cf1ef	0.053941663
217	0xbc37f2ea	-0.011227349
218	0x3eb6474d	0.35601273
219	0x3e1a3cf0	0.15062308
220	0xbe79d228	-0.24396574
221	0x3db5f1dd	0.088840224
222	0x3d57fe58	0.052732795
223	0xbd48ce5e	-0.049024932
224	0x3eb450ec	0.35217988
225	0x3d324a13	0.043527674
226	0x3d7be637	0.061498847
227	0xbe08a5b6	-0.13344464
228	0xbbf2fe51	-0.007415571
229	0x3d570b73	0.052501153
230	0x3db1059b	0.08643647
231	0xbd0c8c9e	-0.03431379
232	0x3d843cb9	0.064568944
233	0x3d1731a6	0.036912583
234	0x3d51ce78	0.051222295
235	0x3c61ed8b	0.013789545
236	0xbd5e4578	-0.05426547
237	0x3ce7df76	0.028304797
238	0x3f03419b	0.5127198
239	0xbcd54786	-0.026035082
240	0x3cc6baff	0.024259089
241	0x3dd8d941	0.10588313
242	0x3e5215fb	0.20516197
243	0x3d220768	0.039557844
244	0xbd586078	-0.052826375
245	0x3a03faef	0.00050346454
246	0x3c7879e6	0.015165782
247	0xbe0e5f5d	-0.13903566
248	0xbe2cccb4	-0.16874963
249	0x3de8f33a	0.11374517
250	0x3d30c338	0.043154925
251	0xbd98f0c1	-0.07467795
252	0x3ce046e4	0.027377553
253	0x3ed81fd3	0.4221178
254	0x3dc1e082	0.094666496
255	0x3e4904b0	0.19630694

bias f4 [6]
0	0xbeb96e89	-0.36217144
1	0xbec66e2e	-0.38755935
2	0xbedd6baa	-0.43246204
3	0xbf253820	-0.64538765
4	0xbf05fa49	-0.5233503
5	0xbea12039	-0.31469896

weight f4 [256, 32]
0	0xbee6c11b	-0.45069203
1	0xbd7d022a	-0.061769642
2	0x3f7a3dc4	0.97750497
3	0x402cf4d1	2.7024424
4	0x3db043f2	0.086067095
5	0xbf79220b	-0.9731757
6	0xba04c800	-0.0005065203
7	0x405644bd	3.3479455
8	0x3ef88071	0.48535493
9	0xbc67402b	-0.01411442
10	0x3ff3f2f2	1.9058516
11	0xbe6f08c0	-0.23343182
12	0x3f7a227f	0.97708887
13	0x3f25e325	0.6479972
14	0xbdb13c1f	-0.08654045
15	0xbe3a77e8	-0.18209803
16	0x3fcf94e4	1.6217313
17	0xbe68c885	-0.22732742
18	0x3fcd4418	1.6036406
19	0xbde49154	-0.11160532
20	0x3f98f759	1.1950485
21	0xbe1eb314	-0.15498
22	0x3d855480	0.06510258
23	0x3f64d517	0.8938765
24	0x3d27d4a0	0.04097426
25	0xbc873390	-0.01650408
26	0xbe55609a	-0.20837632
27	0xbf351af6	-0.70744264
28	0xbcaee87f	-0.021351097
29	0xbd276996	-0.04087218
30	0xbe6de43b	-0.23231594
31	0xbe161db2	-0.14659765
32	0x407f3646	3.9876876
33	0x3d8a0e12	0.06740965
34	0x3ea934b9	0.33048037
35	0x404be772	3.1860013
36	0xbe084784	-0.13308531
37	0x3f396c08	0.7243047
38	0x3e0c0e9b	0.13677447
39	0xbfd43d25	-1.658116
40	0x3da08990	0.07838738
41	0x3fa8a3f1	1.3175031
42	0x3f13a953	0.57680243
43	0x3edd3f4e	0.4321236
44	0x3e12abf4	0.14323407
45	0xbf64dca1	-0.89399153
46	0x3ee58f88	0.44836068
47	0xbe93b161	-0.28846267
48	0x3f1e5c27	0.61859363
49	0x3f41a18c	0.75637126
50	0xbf204785	-0.6260913
51	0x3f55c388	0.8350148
52	0x3eb4d9bf	0.35322377
53	0x3dc478ee	0.09593378
54	0x3e3215ef	0.1739118
55	0x3ec3210a	0.38111144
56	0xbdd95918	-0.106126964
57	0xbe2c036f	-0.16798185
58	0x3f38fd73	0.7226173
59	0xbf3035a1	-0.6883183
60	0x3dd96e9e	0.10616802
61	0x3f53057e	0.82430255
62	0x3baa5bdc	0.005198939
63	0x3f2c41fc	0.67288184
64	0xc05d34db	-3.456351
65	0xbd34fa3c	-0.044183955
66	0x3fa38ff6	1.2778308
67	0xbfef83eb	-1.8712133
68	0x3da2097a	0.07911964
69	0xbf3392f2	-0.70146096
70	0xbe0fe1c6	-0.1405097
71	0x3debea27	0.115192704
72	0x3fb4b689	1.4118205
73	0x3f65e969	0.8980928
74	0x3f0a57bc	0.5404012
75	0x3e6dc9a8	0.23221457
76	0x3cab5f72	0.020919535
77	0xbde217aa	-0.1103967
78	0xc02e3b66	-2.7223754
79	0xbfe94b98	-1.8226194
80	0xc007617e	-2.1153255
81	0xbf982851	-1.1887304
82	0xbfa74144	-1.3066792
83	0xbefd290c	-0.4944538
84	0xbec8bd62	-0.39206988
85	0x3e0b52e9	0.13605846
86	0x3d56409c	0.05230771
87	0x3cb37776	0.02190755
88	0xbcec7358	-0.028863594
89	0xbe1b9134	-0.1519211
90	0xbdae1112	-0.0849935
91	0x3dfe9139	0.12430043
92	0xbd8058a7	-0.06266909
93	0xbcd77e77	-0.02630542
94	0xbe77d1c8	-0.24201119
95	0xbbbf4155	-0.0058366456
96	0x410cc6f4	8.798573
97	0x3d0a141c	0.033710584
98	0x3f2b6942	0.66957486
99	0xbed37964	-0.4130355
100	0xbd07761c	-0.033071622
101	0x3f443ba1	0.76653486
102	0xbe0dd74f	-0.13851665
103	0xbf918152	-1.136759
104	0xbf1f0674	-0.6211922
105	0x3d9e006e	0.07714926
106	0x3eb15c0d	0.34640542
107	0x3e9172b1	0.28407815
108	0xbed9096e	-0.42390007
109	0xbe00045c	-0.12501663
110	0x3f49fbfc	0.7890012
111	0x3f13e024	0.57763886
112	0xbf774470	-0.965888
113	0xbe4efe73	-0.20214252
114	0x3d560e3a	0.05225966
115	0xbe57a8c6	-0.21060476
116	0xbfa975ae	-1.3239038
117	0xbd2f87cc	-0.042854115
118	0x3e2fad77	0.17156015
119	0xbeb470ed	-0.35242406
120	0x3e182be3	0.14860491
121	0x3d14da24	0.036340848
122	0xbe5dc2bd	-0.21656318
123	0x3db14101	0.08654977
124	0xbe37dfd5	-0.17956479
125	0x3dc2dacd	0.09514389
126	0x3e29f4ae	0.16597244
127	0x3e3fcd91	0.18730761
128	0xc04c66c9	-3.1937735
129	0x3e2d4c79	0.16923703
130	0xbe5f8113	-0.21826582
131	0x3f9a00aa	1.2031453
132	0x3b671d00	0.0035265088
133	0xbecbc64f	-0.39799735
134	0x3dd5a64a	0.10432108
135	0x40a0d350	5.025795
136	0x3fc7c884	1.5608068
137	0xbff179e5	-1.8865324
138	0xbf0a0599	-0.5391479
139	0xbe3905e7	-0.18068658
140	0x3eb6de9b	0.3571671
141	0x3e81e78b	0.25371966
142	0xbf125505	-0.5716098
143	0x3eaae00a	0.33374053
144	0xbfbb5746	-1.4636009
145	0x3f12fee3	0.57420176
146	0xbf3b0bf1	-0.73065096
147	0x401b58f5	2.4273045
148	0xbe2a9337	-0.1665772
149	0x3d6814dc	0.056660518
150	0x3e0476b9	0.12935914
151	0x3f3273ba	0.69707835
152	0xbcf6eb48	-0.030141488
153	0xbd432f84	-0.047652736
154	0x3f291824	0.6605246
155	0xbfcd2b34	-1.602881
156	0xbed85518	-0.4225242
157	0xbf706bfc	-0.9391477
158	0xbfb2c3bc	-1.3965983
159	0xbee30032	-0.44336087
160	0xc007e309	-2.1232321
161	0x3e011b3f	0.1260805
162	0xbdcbe8f3	-0.09956541
163	0xbf4def52	-0.804433
164	0x3e0e50ad	0.13897963
165	0xbe8c8c12	-0.27450615
166	0xbd99d762	-0.07511784
167	0x3fb4e618	1.4132719
168	0x3c59bc68	0.013289548
169	0xbefddc07	-0.4958193
170	0x3eb0eebc	0.3455714
171	0xbeea333d	-0.45742217
172	0x3ca42f76	0.020042162
173	0x3ed14f10	0.40880632
174	0xbf8d6593	-1.1046623
175	0xbf535ebf	-0.82566446
176	0xbf399316	-0.7249006
177	0xbfa12531	-1.2589475
178	0xbf79eed0	-0.97630024
179	0xbfe12627	-1.7589768
180	0xbf69725c	-0.91190124
181	0x3d61fafc	0.055170998
182	0x3c2af7a0	0.010435015
183	0x3f632ca4	0.8873999
184	0x3e26343b	0.16230862
185	0x3d7b9aa0	0.06142676
186	0x3e4ce4a9	0.20009102
187	0xbe297211	-0.16547419
188	0x3edb2ff0	0.4281001
189	0xbf31ff34	-0.69530034
190	0xbdc53682	-0.09629537
191	0xbf3ae0d6	-0.7299932
192	0xbfb3f6f4	-1.4059739
193	0x3e19a375	0.1500376
194	0xbf04ddb4	-0.5190079
195	0xbf82a587	-1.0206765
196	0xbca34eb8	-0.019934997
197	0xbf391e72	-0.7231208
198	0x3d06742c	0.032825634
199	0xbfb17fbe	-1.3867109
200	0x3f995af2	1.1980879
201	0x3f1723eb	0.5903918
202	0x3fb9cb2d	1.4515129
203	0x3f25d591	0.64779
204	0x3e3a407d	0.18188663
205	0x3eaaace3	0.33335027
206	0xbff2ff19	-1.89841
207	0xbfa6b0b6	-1.3022678
208	0xbf78cd8d	-0.97188646
209	0xbf8c598f	-1.0964831
210	0xbf6843e2	-0.9072858
211	0xbf98174e	-1.1882112
212	0x3ca607d1	0.020267399
213	0xbd09d200	-0.033647537
214	0x3e1b0869	0.15139927
215	0xbdc24437	-0.09485667
216	0xbe18c5ce	-0.14919207
217	0x3e217415	0.15766938
218	0xbe3f5620	-0.18685198
219	0xbee90b50	-0.45516443
220	0x3e51319a	0.20429078
221	0xbf502a91	-0.8131495
222	0x3ecbe65f	0.39824197
223	0xbf49ec01	-0.7887574
224	0xc0056e13	-2.0848434
225	0x3e0d3f8d	0.13793774
226	0xbed416c1	-0.4142361
227	0x3e400fb1	0.18755986
228	0x3db4224e	0.087956056
229	0x3fc62892	1.5481131
230	0x3da2992a	0.0793937
231	0x3ecfe2b2	0.40602642
232	0xbf385bd1	-0.720151
233	0x3f03ee09	0.5153509
234	0x3f16f0dd	0.5896128
235	0xbe969b12	-0.29415184
236	0xbf17f686	-0.5936054
237	0xbf0e1737	-0.55504173
238	0xc017b206	-2.3702407
239	0xbdddd1f8	-0.10831064
240	0xbfc17a06	-1.5115364
241	0xbd2f7dcd	-0.042844582
242	0xbf88947e	-1.0670316
243	0xbe75b6d7	-0.23995529
244	0xc047432d	-3.113475
245	0x3e116aff	0.14200972
246	0xbde0953a	-0.10965963
247	0x3f45279b	0.7701356
248	0x3dcb8c9a	0.09938927
249	0xbd51193c	-0.051049456
250	0xbef9ff7e	-0.48827738
251	0xbf00b8ed	-0.50282174
252	0x3e8520d2	0.26001602
253	0xbf90af1b	-1.1303438
254	0x3ece3a83	0.40279016
255	0xbe17b23e	-0.14814088
