data/HalfCheetahPyBulletEnv-v0_sac_grad_True/HalfCheetahPyBulletEnv-v0_sac_grad_True_s0/pyt_save/model.pt (torch_old, 906014 bytes, 18 tensors)

weight f4 [256, 26]
0	0xbf1df61d	-0.61703664
1	0x3dd775da	0.10520525
2	0xbf733af4	-0.9501183
3	0x3ee825a9	0.45341232
4	0xbd9ab216	-0.075534984
5	0x3f71814c	0.94337916
6	0xbb7ea700	-0.0038856864
7	0x4030b598	2.7610836
8	0x3f46c1ee	0.77639663
9	0x3e9e35e6	0.30900496
10	0x3d81ab34	0.063314825
11	0x3ee0f03a	0.43933278
12	0x3e46e781	0.19424249
13	0xbebf56fc	-0.3737105
14	0x3e172a44	0.14762217
15	0x3f90d4b7	1.1314915
16	0xbe9edaff	-0.31026456
17	0x3e428cbf	0.18999003
18	0xc01df741	-2.4682162
19	0x3eecf36d	0.4627947
20	0xbf03afca	-0.5144011
21	0x3e26c2cd	0.16285248
22	0xbd25514c	-0.040360734
23	0x3c7679a1	0.015043647
24	0xbd017a2c	-0.031610653
25	0x3ca9ffc8	0.020751849
26	0x3f8abe1b	1.0839266
27	0xbe3a4c27	-0.18193112
28	0xbf43c021	-0.7646504
29	0x3d47147d	0.048603524
30	0xbd9c8fc0	-0.07644606
31	0x3f195dda	0.5990883
32	0xbe022b5a	-0.1271185
33	0xbff41ff1	-1.9072248
34	0xbe1c74a4	-0.1527887
35	0xbf1d45a6	-0.614344
36	0xbf684252	-0.90726197
37	0x3e10f9c1	0.14157774
38	0x3eb70ed0	0.3575349
39	0x3e95eda0	0.29282856
40	0x400d7a18	2.210577
41	0x3e0f4898	0.13992536
42	0x3ee464bb	0.446081
43	0xbe67ab53	-0.22623949
44	0xbf855bd7	-1.0418652
45	0xbf4c399a	-0.79775393
46	0xbd9b22a1	-0.07574964
47	0x3deb7e56	0.11498706
48	0xbdb220c1	-0.086976536
49	0x3e3a0ff1	0.18170144
50	0x3e00703f	0.12542818
51	0x3e47a50d	0.19496556
52	0x401d78d0	2.4604988
53	0x3cd909b8	0.026493892
54	0xbf0b8820	-0.54504585
55	0xbfa97e88	-1.3241739
56	0x3d15b048	0.036545068
57	0xbf7c0a32	-0.98453057
58	0xbe0b3006	-0.13592538
59	0xc003d197	-2.0596673
60	0xbe857716	-0.26067418
61	0xbec5f928	-0.38666654
62	0x3f00d9b8	0.5033221
63	0xbde183f9	-0.110115
64	0x3e9ad835	0.30243078
65	0xbcb7bfdd	-0.022430355
66	0xbf0ca2a2	-0.5493566
67	0x3eacb966	0.33735198
68	0x3f404703	0.75108355
69	0xbd0ce099	-0.03439388
70	0xbf49a123	-0.787615
71	0xbf5d2550	-0.8638506
72	0x3d39f056	0.045395218
73	0x3e266447	0.1624919
74	0x3e2ec1f1	0.1706617
75	0x3ea6aab3	0.32552108
76	0x3d1fdde0	0.039029956
77	0xbe2ea1d3	-0.17053919
78	0xbeabb8c6	-0.33539408
79	0xbdfb4594	-0.1226913
80	0xbf308653	-0.6895496
81	0x3e6093a6	0.21931323
82	0x3e18b29b	0.14911883
83	0xbf61bb94	-0.88176847
84	0x3d165a90	0.03670746
85	0x3ff81e69	1.938428
86	0x3f61ef50	0.88255787
87	0xbe3e8557	-0.18605553
88	0xbeb66e9b	-0.3563126
89	0xbf053876	-0.5203928
90	0x3bade2d8	0.005306583
91	0xbdd08e09	-0.10183341
92	0x3e4dbab4	0.20090753
93	0xbfd07569	-1.6285831
94	0xbf96aa55	-1.1770731
95	0xbf70a03a	-0.93994486
96	0xbe4fad59	-0.2028097
97	0xbcccd3e7	-0.025003387
98	0xbfab4744	-1.3381124
99	0xbde74688	-0.1129275
100	0x3e3cec8d	0.18449612
101	0x3e9206ae	0.2852072
102	0xbdaf20b0	-0.085511565
103	0xbd4a2d20	-0.04935944
104	0xc01ff349	-2.499224
105	0xbb670400	-0.0035250187
106	0xbed07c87	-0.40720007
107	0x4013518c	2.3018522
108	0xbc310b50	-0.01080592
109	0xbdfa107c	-0.122101754
110	0xbda47c73	-0.08031549
111	0x40172ff8	2.3623028
112	0xbf501672	-0.8128425
113	0xbe9fb137	-0.31189892
114	0x3e5abafb	0.2136039
115	0xbe4e7552	-0.20161942
116	0x3e5c0730	0.21487117
117	0x3d306f6d	0.043075014
118	0x3e225fd0	0.15856862
119	0x3f7841f5	0.9697564
120	0xbf4c8f8f	-0.79906553
121	0x3e2b6e7c	0.16741365
122	0xbf7677d4	-0.96276593
123	0xbed6f360	-0.41982555
124	0x3f9f39a8	1.243947
125	0xbdee0ee5	-0.11623935
126	0xbd491680	-0.049093723
127	0x3e4fbe5e	0.20287463
128	0xbd8c8256	-0.06860797
129	0xbe24994c	-0.16074103
130	0xc0766bd5	-3.8503315
131	0x3d2bb574	0.041921094
132	0xbf92a263	-1.1455806
133	0x3fdee140	1.7412491
134	0x3e0fc25f	0.1403899
135	0xc00eaf0c	-2.229434
136	0x3bb29a20	0.005450502
137	0x40b6b433	5.709497
138	0xbe86170c	-0.26189458
139	0xbee689ef	-0.4502711
140	0x3f25ad5a	0.6471764
141	0xbe629e25	-0.2213064
142	0x3df568fe	0.11982916
143	0xbd9e88b9	-0.077409215
144	0x3f10dd19	0.5658737
145	0xbfc7da65	-1.5613524
146	0x3de2edbf	0.11080503
147	0xbf1d6d24	-0.6149466
148	0xbed9b80b	-0.42523226
149	0xbe0e996d	-0.13925715
150	0xbbe9d93e	-0.007136493
151	0xbe297f07	-0.16552363
152	0xbd22efe4	-0.03977956
153	0x3d0cb3f7	0.034351315
154	0x3dd9256e	0.10602842
155	0xbe41ae16	-0.18914065
156	0x3f43f71b	0.7654893
157	0xbe1d2555	-0.15346272
158	0xbef674b3	-0.4813591
159	0xc01ae8ad	-2.4204514
160	0xbd1ab9ec	-0.037774965
161	0xbc8fb963	-0.017544454
162	0xbe34355c	-0.1759848
163	0xbfc07bae	-1.5037744
164	0xbfc3d3f5	-1.5299059
165	0x3df5a0e9	0.11993582
166	0xbf491f76	-0.7856363
167	0xbda515bf	-0.08060788
168	0xbf3af476	-0.7302927
169	0x3d06ccd4	0.032910183
170	0xbf812589	-1.008958
171	0x3f02c472	0.51081
172	0xbeeba989	-0.46027783
173	0x3ea29ba1	0.3175936
174	0xbf73a8c2	-0.9517938
175	0xbe7b5a1a	-0.2454609
176	0x3e0836eb	0.133022
177	0xbdb34c26	-0.087547585
178	0x3e2096b5	0.1568249
179	0x3e71f254	0.23627597
180	0x3cac64f0	0.021044225
181	0xbd282f24	-0.04106058
182	0x3fb32327	1.3995103
183	0x3d603c04	0.054744735
184	0xbe8090d4	-0.25110495
185	0x3e8ae50e	0.2712788
186	0xbd412bdc	-0.04716097
187	0x3fc75ab8	1.557456
188	0xbe257e94	-0.16161567
189	0x3f3e1354	0.7424824
190	0x3e36f431	0.17866589
191	0x3c9380b4	0.018005706
192	0xbe14770b	-0.14498536
193	0xbeded09e	-0.43518537
194	0x3ecbc9e7	0.39802477
195	0xbe9b21eb	-0.30299315
196	0xbdeaa42d	-0.11457095
197	0x3e58a0c9	0.21155085
198	0xbfbb798e	-1.464647
199	0xbf387cd8	-0.72065496
200	0x3ef4e342	0.47829634
201	0xbd4b5093	-0.04963739
202	0xbd93e424	-0.07221249
203	0xbe09de0e	-0.13463613
204	0xbde93865	-0.113877095
205	0xbe96c7ee	-0.2944941
206	0xbd9060ac	-0.07049689
207	0x3e296451	0.16542174
208	0x3e49b697	0.19698559
209	0x3ccb6f70	0.024833411
210	0xbf8bc889	-1.0920573
211	0xbccb3fcb	-0.024810692
212	0x3cc99278	0.024605975
213	0x3ef7384d	0.48285142
214	0xbab49e00	-0.0013779998
215	0x3f1bf1aa	0.60915625
216	0xbe22e161	-0.15906288
217	0xbe75309c	-0.23944324
218	0x3e87ba83	0.26509485
219	0xbf178834	-0.59192204
220	0x3e474873	0.19461231
221	0xbe10bcb4	-0.14134485
222	0xbf4ac73f	-0.79210275
223	0xbe4c89e2	-0.19974473
224	0xbeb1be48	-0.34715486
225	0xbe9f49d0	-0.31111002
226	0xbf58dcb1	-0.8471175
227	0xbda69039	-0.08132977
228	0xbdfa0f25	-0.1220992
229	0xbcedea28	-0.029042318
230	0x3b0c9600	0.0021451712
231	0x3cbac61f	0.02279955
232	0x3cc89060	0.024482906
233	0x3e33e02b	0.17565982
234	0x3f1eab64	0.6198027
235	0xbdfded15	-0.123987354
236	0xbf227665	-0.63461906
237	0xbfea5894	-1.8308282
238	0xbdaa3a45	-0.08311895
239	0x3fcb9058	1.5903425
240	0x3d849eca	0.06475599
241	0x3ec1e632	0.37870938
242	0xbdd6f0a7	-0.104951195
243	0xbf0114b0	-0.5042219
244	0xbf1114c7	-0.5667233
245	0xbf4c6190	-0.7983637
246	0x3e69e27f	0.22840308
247	0x3e540249	0.20703997
248	0x3f60bf61	0.8779202
249	0xbefd579c	-0.49480903
250	0xbfcbd415	-1.5924097
251	0xbe1eaee8	-0.15496409
252	0xbfa531a3	-1.2905773
253	0x3de5f8c0	0.11229086
254	0xbdaece52	-0.08535446
255	0xbd948b53	-0.072531365

bias f4 [256]
0	0xbf1a26e5	-0.602156
1	0xbf32c350	-0.69829273
2	0xbf051caf	-0.5199689
3	0xbf092f05	-0.5358737
4	0xbe6a0c6e	-0.22856304
5	0xbf817671	-1.011427
6	0xbedfd8a2	-0.43719965
7	0xbeb89add	-0.3605565
8	0xbfa29af1	-1.2703534
9	0xbf349c66	-0.70551145
10	0xbf1ba2a4	-0.60795045
11	0xbf1973ec	-0.5994251
12	0xbff64237	-1.9238957
13	0xbe417106	-0.18890771
14	0xbfa2f2cc	-1.2730346
15	0xbf45bc0a	-0.7724005
16	0xbf819331	-1.0123044
17	0x3f16a6f3	0.58848494
18	0xbf604e97	-0.8761992
19	0xbe9ab5c8	-0.30216813
20	0xbeea4bc1	-0.4576092
21	0x3dcdcc91	0.100487836
22	0xbf4ff8a3	-0.81238765
23	0xbee580c0	-0.4482479
24	0xbe4e2256	-0.20130286
25	0xbf30d960	-0.6908169
26	0xbd5c560a	-0.05379299
27	0xbf07513e	-0.5285834
28	0xbecdf2c8	-0.4022429
29	0xbf977f25	-1.1835676
30	0xbf2c01ca	-0.6719023
31	0x3f00ab94	0.5026181
32	0xbdce6c9b	-0.100793086
33	0xbc9ca26e	-0.019120421
34	0xbf98cd86	-1.1937721
35	0xbef18cec	-0.47177827
36	0x3dfa3e6f	0.122189395
37	0xbf1b54ed	-0.6067646
38	0xbf613cd4	-0.8798344
39	0xbf9b29dc	-1.212215
40	0xbf8a500b	-1.0805677
41	0xbe30b178	-0.17255199
42	0xbe9352e2	-0.28774172
43	0xbe465dbb	-0.19371693
44	0xbf23feec	-0.64060855
45	0xbf438525	-0.7637504
46	0xbf690f59	-0.91039044
47	0xbf7a5c23	-0.9779684
48	0xbf03d414	-0.5149548
49	0xbf8301f8	-1.0234976
50	0xbe8cb72d	-0.27483502
51	0xbe4992c6	-0.19684896
52	0xbf275fed	-0.65380746
53	0xbf6e67b1	-0.9312697
54	0x3d917772	0.071028605
55	0xbf6be4f8	-0.92146254
56	0xbf2ba229	-0.6704431
57	0xbf5d0bfb	-0.86346406
58	0xbf3c4331	-0.73540026
59	0xbf999809	-1.1999522
60	0xbf9a8384	-1.2071385
61	0xbf8ce54a	-1.1007473
62	0xbf0ddc2c	-0.5541408
63	0xbebaebbf	-0.36507985
64	0xbf484ed4	-0.7824528
65	0x3e9963c6	0.29958934
66	0xbef161cf	-0.47144935
67	0x3d921a04	0.07133868
68	0xbe703422	-0.23457387
69	0xbf6e23c4	-0.93023324
70	0xbf39a323	-0.7251455
71	0x3eb2a025	0.34887806
72	0xbf158202	-0.584015
73	0xbe991fdd	-0.29907122
74	0xbf61b09d	-0.88160115
75	0xbf6de80b	-0.92932194
76	0xbeb65951	-0.35615018
77	0xbf868c7f	-1.0511626
78	0xbf1be2db	-0.6089303
79	0x3f661861	0.8988095
80	0xbf470c0f	-0.77752775
81	0xbf8165af	-1.0109156
82	0xbf707d07	-0.93940777
83	0x3e27cc02	0.16386417
84	0xbf9170f3	-1.1362594
85	0x3ecc95d6	0.39958066
86	0xbf5e8345	-0.8691905
87	0xbf92cdb7	-1.1469029
88	0xbdc3e6e3	-0.095655225
89	0xbf1007fe	-0.56262195
90	0xbf8fd86f	-1.1237925
91	0xbf80e7c4	-1.0070729
92	0xbf36fafb	-0.71476716
93	0xbf12eb04	-0.57389855
94	0xbf4364f5	-0.76325923
95	0xbf490db9	-0.78536564
96	0xbf8f5d29	-1.1200305
97	0xbf90c455	-1.1309916
98	0xbeaa2101	-0.33228305
99	0xbf6899a4	-0.90859437
100	0xbf823ce6	-1.0174835
101	0xbf691645	-0.91049606
102	0xbf85b683	-1.0446323
103	0xbf646d7b	-0.89229554
104	0xbe3a7743	-0.18209557
105	0xbe10d7d4	-0.14144832
106	0x3f385534	0.7200501
107	0xbf70a1dd	-0.93996984
108	0xbfa2069c	-1.2658267
109	0xbf4562d4	-0.77103925
110	0xbea64116	-0.32471532
111	0xbe7d1865	-0.24716337
112	0xbf5b9fae	-0.85790527
113	0xbf804954	-1.0022378
114	0xbf4a1873	-0.78943557
115	0xbcacd2bb	-0.021096578
116	0xbfa08003	-1.2539066
117	0xbde2eb3d	-0.110800244
118	0x3e51857a	0.20461074
119	0xbf67a5d5	-0.90487415
120	0xbec46482	-0.3835793
121	0xbf25af39	-0.64720494
122	0xbc300cc4	-0.010745231
123	0x3ec4ced4	0.38439047
124	0xbf8c0a20	-1.094059
125	0xbf07cdd7	-0.5304846
126	0xbf2e7e74	-0.681617
127	0xbfa439c0	-1.2830124
128	0xbf3d1d16	-0.73872507
129	0xbe99bbad	-0.30025998
130	0xbf375a7f	-0.7162246
131	0xbf300322	-0.6875478
132	0xbf8d891d	-1.1057469
133	0xbf1aa483	-0.60407275
134	0x3c48bd35	0.012252142
135	0xbf1e98c7	-0.6195187
136	0xbf931d1c	-1.1493258
137	0x3dfbf2fa	0.123022035
138	0xbf679d7b	-0.9047467
139	0xbf975717	-1.1823453
140	0xbfb60435	-1.4220034
141	0xbf43d7c5	-0.76501113
142	0xbf085d69	-0.5326753
143	0xbf8ed644	-1.1159139
144	0x3e42fed7	0.19042526
145	0xbe8bc8f7	-0.27301762
146	0xbeb038d8	-0.34418368
147	0xbf013e67	-0.50485843
148	0xbf540d6d	-0.82832986
149	0xbf2f753f	-0.6853828
150	0xbf71db92	-0.9447566
151	0xbf747869	-0.9549623
152	0xbf91f6e7	-1.1403474
153	0xbfaeecfb	-1.3666071
154	0xbb0468a4	-0.0020203972
155	0xbf321b98	-0.69573355
156	0xbf81e7cd	-1.0148865
157	0xbf9985b1	-1.1993924
158	0xbeca0552	-0.39457184
159	0xbe8b43d3	-0.27200183
160	0xbeaa5039	-0.3326433
161	0xbf605b4a	-0.87639296
162	0xbf79afda	-0.97533953
163	0xbd44fea0	-0.04809439
164	0xbf23b45e	-0.63947093
165	0xbf17ac89	-0.5924764
166	0xbf09e1f3	-0.53860396
167	0xbf2e1160	-0.6799526
168	0xbf8fb6fb	-1.1227716
169	0xbf183173	-0.59450454
170	0xbf1852bf	-0.5950126
171	0xbf89c0bf	-1.0761946
172	0xbe66e58a	-0.225485
173	0xbfa6b61b	-1.3024324
174	0xbe8c1566	-0.27360076
175	0xbf372cf6	-0.7155298
176	0xbf91c829	-1.1389209
177	0x3d5e2e98	0.054243654
178	0xbd693bea	-0.056941904
179	0xbe4f017f	-0.20215414
180	0xbf468539	-0.7754703
181	0xbf014e0f	-0.5050973
182	0xbedadc94	-0.42746413
183	0xbf3a52ba	-0.7278248
184	0xbf31d396	-0.6946348
185	0xbfcb3685	-1.5876013
186	0xbfba108c	-1.45363
187	0xbe2eb202	-0.17060092
188	0xbf4d52b1	-0.802043
189	0x3e01aadd	0.12662835
190	0xbf2b4fbf	-0.6691856
191	0xbeda16f1	-0.42595628
192	0xbea007fd	-0.31256095
193	0xbf4bec82	-0.7965776
194	0xbfa2fe14	-1.2733788
195	0xbec9f410	-0.39444017
196	0xbfbabc87	-1.4588784
197	0xbf7d0266	-0.98831785
198	0xbf33f8bf	-0.7030143
199	0xbdbaf486	-0.091286704
200	0xbe8140ee	-0.2524485
201	0x3e9c79f8	0.30561805
202	0xbcfce5c5	-0.030871281
203	0xbf8a0103	-1.0781559
204	0xbf74633e	-0.9546393
205	0xbf959ed6	-1.1689098
206	0xbf9edb48	-1.2410669
207	0xbe0e8e0d	-0.13921376
208	0xbf4541f2	-0.7705375
209	0xbf01dfb2	-0.50731957
210	0xbf542267	-0.82864994
211	0xbf6471e6	-0.89236295
212	0xbea8c47b	-0.32962403
213	0xbf0d9f22	-0.5532094
214	0xbf76abec	-0.9635608
215	0xbf198c7c	-0.5997999
216	0xbecf6a77	-0.40510914
217	0xbf09a1b4	-0.53762364
218	0xbf4e9080	-0.8068924
219	0xbf6bcc15	-0.9210828
220	0xbf68a323	-0.90873927
221	0xbeb713ff	-0.35757443
222	0xbfa2d66c	-1.2721686
223	0xbf77cb7f	-0.96794885
224	0xbf807f3c	-1.0038829
225	0xbf840155	-1.0312907
226	0xbf76bbd9	-0.9638038
227	0xbf00b589	-0.50277
228	0xbf0c2c12	-0.54754746
229	0xbfc48d60	-1.5355644
230	0xbf987932	-1.1911986
231	0xbf0f8451	-0.56061274
232	0xbf2c5411	-0.67315775
233	0xbf13313a	-0.5749699
234	0xbf271326	-0.65263593
235	0xbea64988	-0.32477975
236	0x3e190612	0.14943722
237	0xbf6207cc	-0.8829315
238	0xbf907e1e	-1.1288488
239	0xbee31486	-0.44351596
240	0xbee513df	-0.44741723
241	0xbf34384f	-0.7039842
242	0xbf5bcc9b	-0.8585908
243	0xbf6b1cd9	-0.91840893
244	0xbf6550ae	-0.8957623
245	0xbf62020c	-0.88284373
246	0xbf4280a0	-0.75977516
247	0xbe7526c1	-0.23940565
248	0xbf796413	-0.97418326
249	0xbf630bd8	-0.8868995
250	0xbf8c7f49	-1.0976344
251	0x3e3703ed	0.17872591
252	0x3d8f5870	0.0699929
253	0xbf8394cd	-1.0279785
254	0xbeb74212	-0.35792595
255	0xbe29bcfe	-0.16576001

weight f4 [256, 256]
0	0xbc968146	-0.01837219
1	0xbf7a0db4	-0.9767716
2	0xbf657fd3	-0.8964817
3	0x3e89cfea	0.26916438
4	0xbff4439b	-1.9083132
5	0xbfe13e65	-1.7597166
6	0xbf28f83c	-0.66003776
7	0x3d8ff7c0	0.070296764
8	0xbe0b3906	-0.13595971
9	0xbf08a262	-0.53372777
10	0xbf1fa3de	-0.62359416
11	0xbf05099b	-0.5196778
12	0xbebe24ce	-0.37137455
13	0xbe479701	-0.19491197
14	0x3ee115b5	0.43961874
15	0x3e557dfc	0.2084884
16	0xbec06355	-0.37575784
17	0xbe21b4a5	-0.15791567
18	0x3f34c4fb	0.7061307
19	0xbe96f6b9	-0.2948511
20	0xbfe585c0	-1.7931442
21	0xbf09d3ff	-0.53839105
22	0xbd28ca9a	-0.04120884
23	0xbf3939ea	-0.72353995
24	0x3e4170e3	0.18890719
25	0xbf079d7a	-0.52974665
26	0xbefe4e62	-0.49669176
27	0xbece06a9	-0.40239456
28	0xbe8bfefd	-0.27342978
29	0xbdeb5f10	-0.11492741
30	0x3d16d3a0	0.036822915
31	0xbdc0b2ae	-0.094090804
32	0xbf356462	-0.70856297
33	0xbd21f120	-0.039536595
34	0x3e149fb3	0.14514045
35	0xbe04854e	-0.12941477
36	0xbdc36e04	-0.09542468
37	0x3d75514c	0.059891984
38	0xbfc1fe08	-1.5155649
39	0xbea23da1	-0.31687644
40	0xbfa41c0a	-1.2821057
41	0xbf1ff380	-0.62480927
42	0xbf56695e	-0.8375453
43	0xbf439790	-0.7640314
44	0x3e1488dd	0.14505334
45	0xbf55f083	-0.83570117
46	0x3e5b8dcf	0.21440814
47	0xbf0d08de	-0.55091655
48	0xbef2d54e	-0.47428364
49	0xbec07d04	-0.3759538
50	0x3e4cd80c	0.2000429
51	0x3edf3509	0.4359515
52	0xbd8ab212	-0.067722455
53	0xbf01408e	-0.5048913
54	0xbd8e8aea	-0.069600895
55	0x3e57cc32	0.21073988
56	0xbe4b529f	-0.19855736
57	0xbe865839	-0.26239184
58	0xbf9da114	-1.2314782
59	0xbf1bff76	-0.6093668
60	0x3d84afa2	0.06478812
61	0xbe584c6b	-0.21122901
62	0xbfe225a5	-1.7667738
63	0xbf3233bb	-0.69610184
64	0xbf78c797	-0.9717955
65	0x3e1be902	0.15225604
66	0xbe93593e	-0.28779024
67	0xbea15a41	-0.3151417
68	0xbdecccf9	-0.11562533
69	0xbf0180a0	-0.5058689
70	0xbf59c2b6	-0.8506273
71	0xbdb2af99	-0.08724899
72	0x3d782af9	0.060587857
73	0xbfb6ef61	-1.4291803
74	0x3f29fe3b	0.6640355
75	0xbea77f1a	-0.32714158
76	0x3f2c60b5	0.67335063
77	0xbe7d2544	-0.24721247
78	0xbffe2b12	-1.9856894
79	0xbfe3e05f	-1.7802848
80	0xbedbfb3d	-0.42965117
81	0xbf349918	-0.705461
82	0x3aafff65	0.0013427554
83	0x3eb2a450	0.34890985
84	0x3e1489ca	0.14505687
85	0xbf441fd7	-0.76611084
86	0xbebb7143	-0.3660985
87	0x3b8c7bbe	0.004287212
88	0xbecc2fca	-0.3988021
89	0xbe9e81a3	-0.3095828
90	0xbe59443e	-0.21217439
91	0xbf0e1116	-0.5549482
92	0xbf0abcd7	-0.54194397
93	0x3e8937b6	0.26800317
94	0xbf21cc9a	-0.6320282
95	0x3f0aeab2	0.54264367
96	0xbf729598	-0.9475951
97	0xbf2cfc73	-0.67572707
98	0xbf9d430e	-1.2286088
99	0x3c969df3	0.018385863
100	0x3e6c8811	0.2309878
101	0xbee66cdc	-0.45004928
102	0xbee54f1b	-0.44786915
103	0xbec78a10	-0.3897252
104	0x3eb7aa64	0.35872185
105	0xbd2c1b7a	-0.04201839
106	0xbf9f526b	-1.2447027
107	0xbdbfbd14	-0.09362236
108	0x3ea4b947	0.32172605
109	0xbfacf16c	-1.3511176
110	0xbda40525	-0.08008794
111	0xbec985cb	-0.39359888
112	0xbe9f667d	-0.3113288
113	0x3f1558ff	0.5833892
114	0xbe76e034	-0.24108964
115	0x3d55d1a5	0.052201886
116	0xbee4b377	-0.4466817
117	0xbf4a6306	-0.7905735
118	0xbf53835f	-0.8262233
119	0xbdec952d	-0.115518905
120	0xbd2ad7b7	-0.041709628
121	0xbf5707c3	-0.8399622
122	0xbed944e2	-0.42435366
123	0xbf5b9c84	-0.857857
124	0x3ddc8027	0.107666306
125	0x3d7b0433	0.0612833
126	0x3e06af87	0.13152896
127	0xbfc85aa1	-1.5652658
128	0xbf21251d	-0.62947255
129	0x3f0759b5	0.5287126
130	0xbeeab550	-0.45841455
131	0xbd5eda82	-0.054407604
132	0xbf2304f7	-0.6367945
133	0xbf1222c9	-0.5708433
134	0xbf6633fe	-0.89923084
135	0xbdd60465	-0.10450057
136	0xbf406d2b	-0.7516658
137	0xbe6417af	-0.2227466
138	0xbe808280	-0.25099564
139	0x3f517edd	0.81834203
140	0xbf57a6f5	-0.8423913
141	0x3f3c9531	0.7366515
142	0xbf414111	-0.7548991
143	0x3eb91c26	0.36154288
144	0xbf56ea8a	-0.8395163
145	0x3e65e724	0.22451454
146	0xbf688a37	-0.908359
147	0xbe7f4ae4	-0.24930912
148	0xbf3e6ab7	-0.74381584
149	0xbf005988	-0.50136614
150	0xbeb67581	-0.35636523
151	0xbee8e45f	-0.45486733
152	0x3e38337f	0.17988394
153	0x3f8fad51	1.1224767
154	0xbf84b33c	-1.0367198
155	0xbf760828	-0.96106195
156	0xbe0ed209	-0.1394731
157	0xbf6001e4	-0.87502885
158	0x3e40dce6	0.18834266
159	0xbec2628f	-0.3796582
160	0xbf23cb71	-0.639823
161	0x3f243a8b	0.6415183
162	0x3ee55752	0.44793183
163	0xbf884f42	-1.0649188
164	0x3e679a1e	0.22617385
165	0xbe477960	-0.19479895
166	0xbe56f085	-0.20990188
167	0x3e9ae207	0.3025057
168	0xbe512bcf	-0.20426868
169	0xbfa100b3	-1.2578338
170	0x3e7e8b62	0.24857858
171	0x3edcc915	0.43122163
172	0x3e0813fb	0.13288872
173	0xbe4fd1a1	-0.20294811
174	0xbf1472db	-0.57987756
175	0xbf4d3c58	-0.801702
176	0xbea4a46a	-0.32156688
177	0xbef57d24	-0.47947037
178	0xbf754ea8	-0.95823145
179	0xbf9e3aee	-1.2361734
180	0xc027f469	-2.6242926
181	0xbd8280bb	-0.0637221
182	0xbf43bc7d	-0.76459485
183	0xbeae9153	-0.3409525
184	0xbf35cbf5	-0.7101434
185	0xbedb424b	-0.42824015
186	0xbef92204	-0.48658764
187	0x3c8d7c59	0.017271208
188	0xbf9fd183	-1.2485813
189	0x3c9c34d7	0.019068165
190	0x3f0ed83e	0.5579871
191	0xbf940940	-1.1565323
192	0xbdffe707	-0.12495237
193	0x3d16ba9f	0.03679907
194	0xbe857002	-0.26062018
195	0xbec80e24	-0.39073288
196	0xbf28fbef	-0.6600942
197	0x3e627ba0	0.22117472
198	0x392fd90f	0.00016770161
199	0x3e0c43b7	0.13697706
200	0x3e84ddc8	0.25950456
201	0xbf82a782	-1.0207369
202	0x3f37ca59	0.71793133
203	0x3f25e974	0.64809346
204	0x3f131930	0.5746031
205	0xbdead147	-0.11465698
206	0xbd376b38	-0.044779986
207	0x3e3b5dbd	0.18297477
208	0x3f067c5e	0.5253352
209	0xbf8ee8b0	-1.116476
210	0xbe0c7908	-0.13718045
211	0x3bf9a0c5	0.007618042
212	0xbfa43054	-1.2827249
213	0x3ec023a1	0.37527183
214	0xbfcd0967	-1.6018494
215	0x3db9f1a5	0.09079293
216	0xbfb5502c	-1.4165092
217	0xbf8080ab	-1.0039266
218	0x3f8fd881	1.1237947
219	0x3f1dfd6d	0.6171482
220	0xbf1e2032	-0.61767876
221	0xbf6d4ab6	-0.92692125
222	0x3f603e9b	0.8759553
223	0xbebe793c	-0.3720187
224	0xbf5bcf4a	-0.85863173
225	0xbf0d3085	-0.5515216
226	0xbdc9724a	-0.09836252
227	0xbf5bd256	-0.8586782
228	0xbf0425f2	-0.516204
229	0x3e4cae39	0.19988336
230	0xbe429bf9	-0.19004811
231	0xbf29dcf4	-0.6635277
232	0xbf24140c	-0.6409309
233	0xbea47a87	-0.3212473
234	0x3d925c6f	0.071465366
235	0x3e97c889	0.29645184
236	0xbf5f4681	-0.87216955
237	0xbee503e2	-0.44729525
238	0xbf833c69	-1.0252811
239	0xbf3bcf4c	-0.73363185
240	0xbfb3def1	-1.4052411
241	0xbeb61718	-0.35564494
242	0xbe10bbc6	-0.1413413
243	0xbedfd647	-0.43718168
244	0x3ee5ba3e	0.44868654
245	0x3d2b9cf9	0.041897748
246	0xbf802293	-1.0010551
247	0x3f0a58a4	0.54041505
248	0x3cc2ce40	0.023779988
249	0x3d3ac5a1	0.04559863
250	0x3e9c7adb	0.3056248
251	0xbfbb6ed4	-1.4643197
252	0xbf0a2f55	-0.5397847
253	0x3f13df26	0.5776237
254	0xbf157c70	-0.58393
255	0xbf155c14	-0.58343625

bias f4 [256]
0	0xbf4baddf	-0.7956218
1	0xbf52e4d0	-0.8238039
2	0xbe5117f8	-0.204193
3	0xbf810456	-1.0079448
4	0xc0040a70	-2.063137
5	0xbf04539b	-0.5169007
6	0xbf92ffbf	-1.1484298
7	0xbf9204a2	-1.1407664
8	0xbfc8313b	-1.5640024
9	0xbf0ae4f2	-0.5425559
10	0xbf8e001b	-1.1093782
11	0xbd4fd51c	-0.050740346
12	0xbfbea9c7	-1.4895562
13	0xbe2e1427	-0.16999875
14	0xbe0e071d	-0.13869901
15	0xbf1dd4a1	-0.6165257
16	0xbf8a579c	-1.0807986
17	0xbbdb93a6	-0.0067009507
18	0xbf021403	-0.50811785
19	0xbfadcb3b	-1.3577646
20	0xbf8391ae	-1.0278833
21	0xc00ea835	-2.2290165
22	0x3e00636a	0.12537923
23	0xbf6990db	-0.91236657
24	0xbe2a89da	-0.16654149
25	0xbeafbca1	-0.343236
26	0xbdbf5835	-0.09342996
27	0x3e1fffaf	0.1562488
28	0xbf6feda6	-0.93722
29	0xbd883495	-0.06650654
30	0xbf2c98cf	-0.6742067
31	0xbf083780	-0.53209686
32	0xbf81fa7c	-1.0154567
33	0xbe253170	-0.1613214
34	0xbf32240b	-0.6958625
35	0xbeed1766	-0.46306914
36	0xbf15c352	-0.5850116
37	0xbf45939a	-0.7717835
38	0xc005da7a	-2.0914598
39	0xbe03ba9f	-0.12864159
40	0xbf1281ce	-0.57229316
41	0xbfa78f3a	-1.3090584
42	0xbe01d644	-0.12679392
43	0x3e0db9c2	0.13840392
44	0xbda1d75d	-0.079024054
45	0xbf88b627	-1.0680588
46	0xbf366707	-0.7125096
47	0xbd3f5845	-0.04671504
48	0xbf19ac79	-0.600288
49	0xbd8bb728	-0.06822044
50	0xbfaad5f8	-1.3346548
51	0xc003a507	-2.0569475
52	0xbf5d8322	-0.8652822
53	0xbd9dba07	-0.077014975
54	0xbf08a453	-0.5337574
55	0xbdf14621	-0.11780954
56	0xbf2339fa	-0.6376034
57	0xbff140a9	-1.8847858
58	0xbdd74df8	-0.10512918
59	0xbe35c673	-0.17751484
60	0xbf6f4483	-0.93463916
61	0xbf83132f	-1.0240229
62	0xbfcca14e	-1.5986726
63	0xbd868440	-0.065681934
64	0xbddafb43	-0.106924556
65	0xbdfbec76	-0.12300961
66	0xbf9ded40	-1.2338028
67	0xbf967b81	-1.175644
68	0xbe715292	-0.23566654
69	0x3e47f09b	0.19525377
70	0xbf42d404	-0.7610476
71	0xbdcdbc4d	-0.10045681
72	0xbf475c36	-0.7787508
73	0xbe32ce7a	-0.17461577
74	0xbdca7521	-0.09885622
75	0xbf870cb4	-1.0550752
76	0xbf015c3d	-0.5053137
77	0xbfb30098	-1.3984556
78	0xbf853f1d	-1.0409886
79	0xbfae6cc7	-1.3626946
80	0xbd8d01cb	-0.068851076
81	0xbece4174	-0.40284312
82	0xbf510dd1	-0.8166171
83	0x3dc3cd02	0.095605865
84	0xbef2e187	-0.4743769
85	0xbdcf98e8	-0.101365864
86	0xbf314962	-0.692526
87	0x3dd94031	0.10607947
88	0xbdc42590	-0.09577477
89	0xbed636dd	-0.41838732
90	0xbdaf300f	-0.08554088
91	0xbf4ec25d	-0.80765325
92	0xbe00366d	-0.12520762
93	0x3e8cf900	0.27533722
94	0xbe03a337	-0.1285523
95	0xbf7abe3f	-0.9794654
96	0xbf794eee	-0.9738606
97	0x3d1ec5f5	0.038763005
98	0xc0073a71	-2.112942
99	0xbde896d8	-0.11356896
100	0xbeba4d3f	-0.3638706
101	0xbe16a5ed	-0.14711733
102	0xbd858557	-0.06519573
103	0xbedc556c	-0.43033922
104	0xbfece604	-1.8507695
105	0xbf40f579	-0.7537456
106	0xbf6f1f66	-0.93407285
107	0xbf14ae04	-0.58078027
108	0xbfc1fe36	-1.5155704
109	0xbddf4a5c	-0.10902855
110	0xbdc6f6a6	-0.09715013
111	0xbfaae398	-1.3350706
112	0xbf14e013	-0.5815441
113	0xbe7df764	-0.24801403
114	0xbf55d956	-0.83534753
115	0xbee7abf7	-0.45248386
116	0xbd873a49	-0.06602914
117	0xbf4740f8	-0.7783351
118	0xbdf9fc4b	-0.12206324
119	0xbf5a9e79	-0.8539806
120	0xbead74c3	-0.33878145
121	0xbe5d0993	-0.21585684
122	0xbecce99c	-0.4002198
123	0xbedffb08	-0.4374621
124	0xbe91d368	-0.28481603
125	0xbdc8e4c8	-0.098092616
126	0x3e4fcb76	0.20292458
127	0x3cc863e1	0.024461688
128	0xbf89ba70	-1.0760021
129	0xbf9ef58f	-1.2418689
130	0xbe6ee9f2	-0.2333143
131	0xbe997c07	-0.29977438
132	0xbf5d1310	-0.8635721
133	0xbfadd2ff	-1.3580016
134	0xbe6884c8	-0.22706902
135	0x3cd9b5ab	0.026575884
136	0xbd9edff2	-0.07757558
137	0xbe89a181	-0.2688103
138	0xbf4bb626	-0.7957481
139	0xbf86f92f	-1.0544795
140	0xbf3c808e	-0.7363366
141	0xbf71179f	-0.9417667
142	0xbed97e27	-0.4247906
143	0xbe4562d6	-0.19275984
144	0xbed04f9f	-0.40685746
145	0xbed27f1c	-0.41112602
146	0xbe015416	-0.12629732
147	0x3db4e4f1	0.088327296
148	0xbf850720	-1.0392799
149	0x3ddf9e4a	0.10918863
150	0xbe10eb7c	-0.1415233
151	0xbf9574a0	-1.1676216
152	0xbe0704f7	-0.13185488
153	0xbdd78aa5	-0.10524491
154	0xbf9e5a00	-1.2371216
155	0xbe14e7eb	-0.14541595
156	0xbe22ebcf	-0.15910266
157	0xbe228fa1	-0.15875103
158	0xbd582f6d	-0.052779604
159	0x3e78820e	0.24268362
160	0xbda3683e	-0.07978867
161	0xbf8b6cda	-1.0892594
162	0xbd6e7ca6	-0.058224343
163	0xbd4dac06	-0.050212882
164	0xbfce159f	-1.6100348
165	0xbdd453bf	-0.10367536
166	0xbed69c27	-0.4191601
167	0x3de20215	0.11035553
168	0xbdc0f8b2	-0.09422435
169	0xbe39da32	-0.18149641
170	0x3dc14a7a	0.094380334
171	0xbf99ad07	-1.2005929
172	0xbfa7e7f2	-1.3117659
173	0xbdda85c7	-0.10670047
174	0xbf119862	-0.5687314
175	0xbf45d129	-0.7727228
176	0xbf2225cb	-0.6333892
177	0x3eaa1e7c	0.33226383
178	0xbf7150ac	-0.9426372
179	0xbd255b7b	-0.040370446
180	0xbfc1d047	-1.5141686
181	0xbf71288e	-0.94202507
182	0xbfa36e14	-1.2767968
183	0xbee8ab51	-0.45443204
184	0xbf2db4a1	-0.6785374
185	0xbf6da295	-0.92826205
186	0xbe596cc3	-0.21232896
187	0xbf576835	-0.8414338
188	0xbf118023	-0.56836146
189	0xbf9e22d2	-1.2354376
190	0xbe3aca42	-0.18241218
191	0xbfbcc5d9	-1.4747878
192	0xbd58dd15	-0.052945215
193	0xbdc771c2	-0.097384945
194	0xbe402935	-0.18765719
195	0xbd6fad22	-0.05851472
196	0xbe268b64	-0.16264111
197	0xbf9c96a1	-1.2233468
198	0xbf9b6921	-1.2141458
199	0xbd30ff1f	-0.043212052
200	0xbf4880e9	-0.783217
201	0xbf445744	-0.76695657
202	0xbf4d5fce	-0.8022431
203	0xbdc847e1	-0.09779335
204	0xbfe57064	-1.7924924
205	0xbf991a6a	-1.1961186
206	0xbe5a3a70	-0.21311355
207	0xbfb6d4c2	-1.4283679
208	0xbdf4c49d	-0.119515635
209	0xbfc45c23	-1.5340618
210	0xbd80c6ce	-0.06287919
211	0xbe0eafbc	-0.13934225
212	0xbfa2779b	-1.2692751
213	0xbe6e570c	-0.23275393
214	0xbecb2cc4	-0.3968259
215	0xbf9ce56f	-1.2257518
216	0xbf87f7d7	-1.062251
217	0xbf2fb63a	-0.6863743
218	0xbf97e9e7	-1.1868256
219	0xbfa0563d	-1.2526318
220	0xbde0b090	-0.109711766
221	0xbde4ddd1	-0.111751206
222	0xbf6637a3	-0.89928645
223	0x3d3eb435	0.046558578
224	0xbf9ea5d3	-1.2394356
225	0xbf109b9f	-0.5648746
226	0xbf58563a	-0.8450657
227	0xbf8cbc9e	-1.0995061
228	0xbf62622f	-0.88431066
229	0xbbe5e3de	-0.0070156893
230	0xbe0131a4	-0.12616593
231	0xbf5dbe0c	-0.86618114
232	0xbe011283	-0.12604718
233	0xbf21c20e	-0.6318673
234	0xbf6907a7	-0.910273
235	0xbf06c56c	-0.5264499
236	0xbfe30ee9	-1.7738925
237	0xbfa8719f	-1.3159674
238	0xbd2964fd	-0.041356076
239	0xbf9f432b	-1.2442373
240	0xbf281a09	-0.65664726
241	0xbf6bee67	-0.9216065
242	0xbdf0641a	-0.11737843
243	0xbf550e77	-0.83225197
244	0xbd4257e0	-0.047447085
245	0xbe819c80	-0.25314713
246	0x3ee64ef9	0.44982126
247	0xbe8d3d12	-0.27585655
248	0xbf6b3d13	-0.91890067
249	0xbe0ef03e	-0.13958833
250	0xbe424d8f	-0.18974899
251	0xbf5751f4	-0.84109426
252	0xbf6aada7	-0.9167122
253	0xbfab6557	-1.3390301
254	0xbf61ca40	-0.88199234
255	0xbdec922e	-0.11551319

weight f4 [6, 256]
0	0xbdbe3722	-0.092878595
1	0x3e8c3fda	0.27392465
2	0xbf28f114	-0.65992856
3	0xbe6527a9	-0.2237841
4	0xbf618918	-0.88099813
5	0xbae3f0ba	-0.0017390468
6	0xbdf39b03	-0.118948005
7	0x3ba6ef8e	0.005094475
8	0xbf17f6d0	-0.5936098
9	0x3d59ae64	0.053144827
10	0xbed83031	-0.42224267
11	0xbd418ad5	-0.04725154
12	0xbe63bc58	-0.22239816
13	0xbe8a6bf1	-0.27035478
14	0x3d8209fc	0.063495606
15	0x3da82328	0.082098305
16	0x3d43aaa6	0.047770165
17	0xbedff58e	-0.4374203
18	0x3dd2b751	0.10288871
19	0x3e16d7b1	0.14730717
20	0x3e1f7eb2	0.15575674
21	0x3d1951bf	0.037431475
22	0x3cefbc0a	0.029264469
23	0xbf0a96e5	-0.54136497
24	0xbdc8b6d6	-0.09800498
25	0xbc8e257c	-0.017351858
26	0x3e3e865c	0.18605942
27	0xbecbe4d6	-0.39823025
28	0x3df279ce	0.11839639
29	0xbc8a6df0	-0.016898125
30	0xbeff940b	-0.49917635
31	0x3ee1b206	0.44081134
32	0xbe280316	-0.16407427
33	0xbd832bb5	-0.06404821
34	0xbe3d204a	-0.18469349
35	0xbf061afd	-0.5238493
36	0xbe265c86	-0.16246232
37	0xbe0b9357	-0.13630424
38	0xbe8fc47e	-0.280796
39	0x3e1403c5	0.14454563
40	0x3e66b826	0.22531185
41	0x3e0442e1	0.12916137
42	0xbd3cdba2	-0.046107896
43	0xbe3e6001	-0.1859131
44	0xbd0546f7	-0.03253838
45	0x3e25d715	0.16195329
46	0x3dae247e	0.08503054
47	0xbbf538d6	-0.007483582
48	0x3dce42a5	0.10071305
49	0xbdb5d2e0	-0.08878112
50	0xbf2ef620	-0.68344307
51	0x3e107a1b	0.1410908
52	0x3e1f6c1a	0.15568581
53	0x3c9a5b77	0.018842442
54	0x3dbc3d6d	0.091914035
55	0x3d894045	0.067017116
56	0x3e018b88	0.12650883
57	0x3cbdd139	0.023171054
58	0xbb0582b0	-0.0020372085
59	0x3e56594e	0.20932505
60	0xbe095214	-0.13410217
61	0x3ee305e7	0.4434044
62	0xbd8a134c	-0.06741962
63	0x3c871692	0.016490255
64	0xbde449d8	-0.11146897
65	0xbd4ded38	-0.050275058
66	0x3de81beb	0.1133345
67	0xbdabfbd4	-0.08397642
68	0x3e510a75	0.20414145
69	0xbeabf10a	-0.33582336
70	0xbead4ce3	-0.33847722
71	0xbdac7588	-0.08420855
72	0x3c2b64d7	0.010461054
73	0x3e05511b	0.1301922
74	0x3cced505	0.02524806
75	0xbd250b35	-0.04029389
76	0xbd67c010	-0.05657965
77	0xbec411f0	-0.38294935
78	0x3e733111	0.23749186
79	0xbe165c0e	-0.14683554
80	0xbca47080	-0.020073175
81	0x3c4e043f	0.012574255
82	0xbe9f7370	-0.3114276
83	0x3eb22b7c	0.347988
84	0xbe5861f2	-0.21131113
85	0x3c8e3e19	0.017363595
86	0xbea88fbd	-0.32922164
87	0x3dd33ccb	0.1031433
88	0xbcadbbeb	-0.02120777
89	0xbdcc36d8	-0.09971398
90	0xbcee1dcd	-0.029066944
91	0xbeb498be	-0.35272783
92	0x3a7a6fe0	0.0009553414
93	0x3e0598a1	0.13046505
94	0x3e093228	0.1339804
95	0xbdb545f8	-0.08851236
96	0x3ef606d4	0.48052084
97	0x3deaf203	0.11471941
98	0xbe08f30f	-0.1337397
99	0xbd5622f2	-0.05227942
100	0x3d2c6e9f	0.042097684
101	0xbe337c1e	-0.17527816
102	0x3f0a3038	0.53979826
103	0x3d44c405	0.0480385
104	0x3c5fc693	0.013658184
105	0x3d996793	0.07490458
106	0x3d5aed71	0.053449098
107	0xbe8a8771	-0.2705646
108	0x3d83c307	0.06433683
109	0x3c825ab4	0.015912391
110	0x3d22e934	0.03977318
111	0x3f38170a	0.71910155
112	0x3dd372e3	0.10324647
113	0xbe7bc1a0	-0.24585581
114	0xbe536efd	-0.20647807
115	0x3dfe5a5c	0.124195784
116	0xbe17639d	-0.14784093
117	0x3e4e1f31	0.20129086
118	0xbd893b7e	-0.067008
119	0xbec92520	-0.39286137
120	0xbe91efb4	-0.2850319
121	0x3e2f361d	0.17110486
122	0xbdd8c765	-0.105849065
123	0x3c046ddb	0.008082832
124	0xbc801cd6	-0.01563875
125	0xbcbcb7eb	-0.023036918
126	0xbdd25a6e	-0.10271154
127	0x3d122450	0.03567916
128	0x3e7ae487	0.24501239
129	0xbefdfb38	-0.49605727
130	0xbde1863d	-0.11011932
131	0xbe76b593	-0.24092703
132	0x3cc451dc	0.023964815
133	0xbdf1262c	-0.11774859
134	0x3c5d338e	0.013501061
135	0xbe78aa94	-0.2428382
136	0x3d08458c	0.03326945
137	0x3cf6f107	0.030144228
138	0x3d1f062b	0.03882424
139	0xbe975c7d	-0.2956275
140	0xbe456a4b	-0.19278829
141	0x3e0d332e	0.13789055
142	0x39c37a61	0.00037284478
143	0xbd5fa8fd	-0.05460452
144	0x3e47b7f1	0.19503762
145	0xbdec6f37	-0.1154465
146	0x3cd61165	0.026131341
147	0xbeb0845a	-0.34475976
148	0xbca78890	-0.02045086
149	0x3d9df938	0.0771355
150	0xbd223ae5	-0.039606947
151	0x3e7400de	0.23828456
152	0x3cfe990a	0.031078834
153	0xbc616b32	-0.0137584675
154	0xbdeab9db	-0.1146123
155	0xbe936de7	-0.28794786
156	0xbd1f6241	-0.03891206
157	0xbd5cb751	-0.05388576
158	0xbb1c5452	-0.002385397
159	0xbe502729	-0.20327438
160	0x3e7ede32	0.24889448
161	0xbd7af552	-0.061269112
162	0xbd1cb972	-0.038262792
163	0xbcd3d137	-0.025856597
164	0xbe8423fa	-0.25808698
165	0xbc858d3a	-0.016302694
166	0xbe810544	-0.2519933
167	0xbca6bf18	-0.020354792
168	0xbb63f2f7	-0.003478227
169	0xbe11fd99	-0.14256896
170	0x3de6b38b	0.11264714
171	0x3e74662f	0.23867105
172	0xbed3ecb1	-0.4139152
173	0x3d798f46	0.06092765
174	0xbde0afc5	-0.109710254
175	0xbe111c5b	-0.14170973
176	0xbdb53771	-0.08848465
177	0x3e97e3d7	0.29666016
178	0x3e32f7e1	0.17477371
179	0x3ccac279	0.024750935
180	0xbf07dda3	-0.53072566
181	0x3def7fec	0.11694321
182	0xbe8be01f	-0.27319428
183	0x3de6ce7d	0.11269853
184	0xbec18972	-0.37800175
185	0xbf1a4a7d	-0.6026991
186	0xbe730149	-0.23730959
187	0x3e139c92	0.14415196
188	0xbf0446b1	-0.51670367
189	0x3e425435	0.18977435
190	0x3d334b36	0.0437729
191	0x3f0fa6c4	0.5611384
192	0xbc80fcbd	-0.015745515
193	0xbc93cad0	-0.018041044
194	0x3c917f8e	0.017761018
195	0x3d785739	0.060630057
196	0x3d3ffdc6	0.046872877
197	0xbdae27df	-0.085036986
198	0x3dcaa9f1	0.09895695
199	0xbdf4ea86	-0.11958794
200	0x3db66d0d	0.089075185
201	0xbda31f0b	-0.07964905
202	0xbf0c644f	-0.5484056
203	0xbd995695	-0.07487217
204	0xbefcf1a4	-0.49403107
205	0x3cde98b0	0.027172416
206	0xbe6a24da	-0.2286562
207	0xbdfc40b3	-0.12317028
208	0x3d115629	0.03548256
209	0x3ed30aaf	0.41219088
210	0x3cce6396	0.02519397
211	0xbd2053eb	-0.03914253
212	0x3dcf2938	0.10115284
213	0x3e6ce503	0.23134236
214	0x3e174a6a	0.1477448
215	0x3d6b59be	0.05745863
216	0x3d0b0444	0.033939615
217	0xbd5fffaf	-0.0546872
218	0xbf3800ee	-0.7187642
219	0xbc59140f	-0.013249411
220	0xbd0abaa1	-0.03386939
221	0x3c86093e	0.016361829
222	0x3ea8b639	0.32951525
223	0x3df8d939	0.12150807
224	0x3d893993	0.067004345
225	0x3ebfc47b	0.3745459
226	0x3e73c16d	0.23804255
227	0xbe5ca3e5	-0.21546896
228	0xbebac1d7	-0.36476013
229	0x3d4d79a1	0.050164822
230	0xbcf983c0	-0.030458331
231	0xbbaa7706	-0.005202177
232	0x3d2511b6	0.040300094
233	0x3eb9d65c	0.36296356
234	0xbd812e93	-0.063077115
235	0x3e2b2915	0.1671489
236	0x3e54f78f	0.20797561
237	0x3f8af7fe	1.0856931
238	0x3db840cc	0.08996734
239	0xbf3544ff	-0.70808405
240	0xbf40854a	-0.7520338
241	0x3f047831	0.517459
242	0xbcb11cfb	-0.021620264
243	0xbf05b00c	-0.5222175
244	0x3dc59152	0.09646858
245	0x3db15aba	0.08659883
246	0x3e5daa89	0.21647085
247	0xbeda935e	-0.42690557
248	0xbe80bb59	-0.25142935
249	0x3d4c6da2	0.04990924
250	0x3c529f86	0.012855416
251	0xbe8c6553	-0.27421054
252	0x3d3e761b	0.046499353
253	0x3e33d150	0.17560315
254	0xbb687649	-0.0035470894
255	0xbd857c5e	-0.06517862

bias f4 [6]
0	0x3e9c07d4	0.30474722
1	0x3d5bf065	0.053696055
2	0x3d545b7b	0.051845055
3	0xbeb52bbb	-0.35384926
4	0x3ead0cbb	0.33798775
5	0x3da93ccb	0.082635485

weight f4 [6, 256]
0	0xbd30f851	-0.043205563
1	0x3e2bba25	0.16770227
2	0x3e2240c9	0.15845026
3	0x3d016046	0.031585954
4	0x3e85ac1d	0.26107875
5	0x3c8b8f48	0.017036095
6	0x3ea58fab	0.32336172
7	0x3e325c7a	0.1741809
8	0xbd24c3af	-0.04022568
9	0xbd0a036c	-0.03369467
10	0x3b9c8e0c	0.0047776755
11	0x3cacf34a	0.021112103
12	0x3e292830	0.16519237
13	0x3f034c1b	0.51288
14	0x3db6fbf0	0.08934772
15	0x3e632728	0.22182906
16	0x3f0f8d2f	0.56074804
17	0x3c433a00	0.011915684
18	0xbd298347	-0.04138496
19	0x3ddafeca	0.106931284
20	0x3ec7b815	0.3900763
21	0x3d245646	0.04012134
22	0x3dada340	0.08478403
23	0x3ecdc959	0.4019268
24	0x3cf48537	0.029848678
25	0x3c2bc61a	0.010484243
26	0xba900485	-0.0010987675
27	0xbcf65728	-0.030070856
28	0x3f61fead	0.8827923
29	0x3bfc39eb	0.007697334
30	0xbce8d87d	-0.028423542
31	0x3e5efa92	0.21775272
32	0x3d16ca01	0.03681374
33	0x3d1056c2	0.03523899
34	0x3ec3b7eb	0.38226256
35	0x3f16f5c0	0.58968735
36	0xbc9bdf4f	-0.01902738
37	0xbd05bc54	-0.032650307
38	0x3ddcf9f9	0.10789866
39	0xbd6aedc0	-0.057355642
40	0x3d88c896	0.06678884
41	0x3df7dc26	0.12102537
42	0x3c82c6d7	0.015963955
43	0x3d58fb9c	0.05297433
44	0x3d8da269	0.06915743
45	0xbd7feed5	-0.062483627
46	0x3e843739	0.25823382
47	0xbcb67f06	-0.022277366
48	0xbd8c0b11	-0.06838048
49	0x3d03d646	0.03218677
50	0x3e015d74	0.12633306
51	0x3e9aee75	0.30260053
52	0x3c056398	0.008141421
53	0xbd2da350	-0.042392075
54	0x3d6b1329	0.05739132
55	0x3d93d3dd	0.07218144
56	0x3ef12c73	0.47104225
57	0xbdd874f9	-0.10569186
58	0x3d1f3fd1	0.03887922
59	0xbb086dd5	-0.0020817418
60	0x3e4a0241	0.19727422
61	0x3e19948b	0.14998071
62	0x3cadccd1	0.021215828
63	0x3d8d3d68	0.06896478
64	0x3e0a1235	0.13483508
65	0xbd1af702	-0.03783322
66	0xbda5ed0b	-0.08101853
67	0xbcd5e937	-0.026112182
68	0x3c7f9703	0.015599969
69	0xbbf98bcb	-0.0076155416
70	0x3e87699d	0.26447764
71	0xbd1dca88	-0.038523227
72	0x3a6bfb6a	0.0009002002
73	0x3f57af95	0.8425229
74	0x3da18b58	0.07887906
75	0x3c374533	0.011185932
76	0x3eb9bc51	0.36276487
77	0x3f3c20e6	0.734877
78	0x3e66e1b1	0.22547032
79	0x3ece9d93	0.40354595
80	0x3d9abfb1	0.075560935
81	0x3ef8fbc9	0.48629597
82	0x3c322023	0.01087192
83	0xbced9ddf	-0.029005943
84	0x3d099801	0.033592228
85	0x3d3adb7f	0.045619484
86	0xbda6d83f	-0.081467144
87	0xbddf1c7e	-0.10894106
88	0x3ddfcf9e	0.10928272
89	0xbd2bdcd0	-0.04195863
90	0x3e415563	0.18880229
91	0x3f3fa649	0.74863106
92	0x3d509586	0.050923847
93	0xbd0ee8c8	-0.034889966
94	0xbc5a0ed6	-0.013309201
95	0x3e431b4f	0.19053386
96	0x3f57771d	0.8416613
97	0x3c1d5a0f	0.009603991
98	0x3d4a865a	0.049444534
99	0x3e132d25	0.1437269
100	0xbd4c30b5	-0.04985114
101	0xbd76c938	-0.06025049
102	0x3dd2eaf5	0.10298721
103	0x3dd93c16	0.106071636
104	0xbdc4431e	-0.09583114
105	0x3ec2e1d8	0.3806293
106	0x3cf17e45	0.029479155
107	0x3caad466	0.020853233
108	0xbd35670f	-0.044287737
109	0x3c81e39a	0.0158556
110	0xbbb947d2	-0.0056543136
111	0x3f2b8c8a	0.6701132
112	0xbc7e5ac3	-0.015524569
113	0x3f34cc1b	0.7062394
114	0xbdacf1b8	-0.08444542
115	0x3e7649fd	0.24051662
116	0x3dfbb117	0.122896366
117	0x3d218274	0.03943105
118	0x3dc84028	0.09777862
119	0x3cd1f0b2	0.025627468
120	0x3e96d5ea	0.29460078
121	0xbdc168a2	-0.09443785
122	0x3da6841a	0.08130665
123	0x3d9b2aee	0.075765476
124	0x3e06a8de	0.13150355
125	0x3d3eb6e6	0.046561144
126	0x3d48f13f	0.049058195
127	0xbc95c90b	-0.018284341
128	0x3d825ce1	0.063653715
129	0x3e03ae67	0.12859498
130	0xbddd95fa	-0.108196214
131	0x3db4bc31	0.08824957
132	0x3e29ba8e	0.16575071
133	0x3c182563	0.009286257
134	0x3dec3a4e	0.11534558
135	0x3cf7a6b1	0.030230852
136	0xbdb4ebd3	-0.088340424
137	0x3d04b355	0.032397587
138	0x3f645d9b	0.8920533
139	0xbd2b5a2b	-0.041834038
140	0x3f54063b	0.82822007
141	0x3f32fd02	0.6991731
142	0x3e6ae0dc	0.2293734
143	0x3dc8df49	0.09808213
144	0x3c2db816	0.010602972
145	0x3dff0fdc	0.12454197
146	0x3e123b07	0.1428033
147	0xbccf2d1d	-0.025290066
148	0x3e701853	0.23446779
149	0xbc23d24b	-0.009998868
150	0x3d611772	0.054954
151	0x3cd3f261	0.025872411
152	0xbd2ac6c1	-0.041693453
153	0x3cc8f4c8	0.024530783
154	0xbda2f692	-0.07957186
155	0x3df0a8c5	0.1175094
156	0x3c0dadb1	0.008647368
157	0xbda683f6	-0.08130638
158	0x3e1fd38b	0.15608041
159	0x3da0e8e6	0.07856922
160	0xbd843b26	-0.06456594
161	0x3dcc1dd0	0.09966624
162	0xbd3010d7	-0.04298481
163	0x3cc60466	0.02417202
164	0x3dac6d21	0.08419252
165	0x3d94c46a	0.072640255
166	0x3f3a847a	0.72858393
167	0xbc894b5c	-0.016759567
168	0x3d1dca17	0.038522806
169	0x3d3b4d2e	0.0457279
170	0xbd3bbcac	-0.04583423
171	0x3d7aee9d	0.061262716
172	0x3f226a3f	0.6344337
173	0x3d2f9839	0.04286978
174	0x3f2a6d0a	0.6657263
175	0x3e8bac85	0.2728006
176	0x3c985dcf	0.018599419
177	0xbd9d970b	-0.07694825
178	0x3d8005c1	0.062510975
179	0x3b919300	0.0044425726
180	0xbc06589b	-0.008199836
181	0xbc7a3892	-0.0152722765
182	0x3da9c1b6	0.082889006
183	0xbd8b2ab5	-0.06795255
184	0xbd09fe85	-0.033689994
185	0x3e0f3c9f	0.13987969
186	0x3ddfc3d7	0.10926025
187	0xbc2f9427	-0.010716475
188	0x3ed6cebe	0.41954607
189	0x3b301758	0.0026869383
190	0xbd0322bd	-0.03201555
191	0xbbc7490b	-0.0060817054
192	0x3e2c3daf	0.16820405
193	0xbcebc80a	-0.02878191
194	0xbc602bfd	-0.013682363
195	0x3d4e1f84	0.050323024
196	0x3d2a7b8f	0.04162174
197	0xbc65a265	-0.014015769
198	0xbd26ff4b	-0.04077081
199	0x3d22f3b8	0.03978321
200	0xbbafe97e	-0.0053684106
201	0x3e5334bd	0.20625587
202	0x3f5bfd28	0.8593316
203	0x3ac9092d	0.0015337818
204	0x3bdada79	0.006678876
205	0x3f1f8c31	0.6232329
206	0x3dc360ed	0.095399715
207	0x3d98a389	0.07453067
208	0x3d733997	0.059381094
209	0x3e757464	0.23970181
210	0xbb1bc02e	-0.002376567
211	0xbd982ef4	-0.074308306
212	0xbe054119	-0.13013114
213	0x3cdb54f7	0.026773913
214	0x3d3e9eb8	0.046538085
215	0x3f65364f	0.89535993
216	0x3d8b0a9f	0.06789135
217	0xbce396ea	-0.027781922
218	0x3e007116	0.12543139
219	0x3f359b87	0.7094044
220	0xbcd04889	-0.025425212
221	0x3d63707a	0.055527188
222	0x3e763769	0.24044575
223	0x3d507ef9	0.05090234
224	0x3f218306	0.6309055
225	0x3e89ed69	0.26938942
226	0x3f319df6	0.69381654
227	0x3e67c3a6	0.22633228
228	0x3e8d10d5	0.27551904
229	0xbdec6fac	-0.11544737
230	0xbda51d4a	-0.08062227
231	0xbd0acc85	-0.03388645
232	0x3c9d6a8b	0.019215843
233	0x3e25456f	0.16139768
234	0xbcef0dab	-0.029181322
235	0x3eb4dfb6	0.35326928
236	0x3e431e26	0.1905447
237	0x3f29ef79	0.6638103
238	0x3d365935	0.04451867
239	0x3f2af3b9	0.6677814
240	0x3e0f837c	0.14015001
241	0x3ec4c4c1	0.3843136
242	0xbd34f833	-0.044182014
243	0x3e77beef	0.24193929
244	0x3d5c1ea4	0.05374016
245	0x3c80caf0	0.015721768
246	0xbcf4712b	-0.029839119
247	0xbd2beb5c	-0.041972503
248	0x3e7e5f23	0.2484098
249	0x3d21b00e	0.03947454
250	0x3e067ae7	0.13132821
251	0x3f38965a	0.7210442
252	0x3bd34778	0.0064477287
253	0x3c5fd48b	0.013661514
254	0x3e7cbeab	0.24682109
255	0x3dab481f	0.083633654

bias f4 [6]
0	0xbe9f856d	-0.31156483
1	0xbee8fb3a	-0.4550417
2	0xbe5760b3	-0.21032982
3	0xbf18116e	-0.59401596
4	0xbeca2953	-0.39484653
5	0xbe499c52	-0.19688538

weight f4 [256, 32]
0	0x3fe2e539	1.7726203
1	0x3e27ec11	0.16398646
2	0x3f2982a5	0.6621497
3	0xc06630d4	-3.5967302
4	0x3d97ac2a	0.074058846
5	0xbf53d2a8	-0.8274331
6	0xbe03f16b	-0.12885062
7	0x40452afb	3.0807483
8	0x3f48717c	0.78298163
9	0x3fbd3200	1.4780884
10	0xbfad310b	-1.3530592
11	0xbdb86a1f	-0.09004616
12	0xbfc13183	-1.5093235
13	0x3e981b10	0.29708147
14	0xbf9dfc26	-1.2342575
15	0x3eb0cbf8	0.34530616
16	0x3f84b553	1.0367836
17	0xbf2fd642	-0.68686306
18	0x3f34e998	0.70668936
19	0xbf4d50dc	-0.80201507
20	0x3f7d83b1	0.9902907
21	0x3e2bdf55	0.16784413
22	0xbe0604ad	-0.13087721
23	0xbe71cf87	-0.23614322
24	0x3cbc52f0	0.022988766
25	0x3d0bb9b4	0.034112647
26	0x3f8fde85	1.1239783
27	0x3e83accd	0.25717774
28	0x3eae6a23	0.3406535
29	0x3f51069b	0.81650704
30	0x3efccc29	0.49374512
31	0xbe9bb44e	-0.30411
32	0x40f2dc05	7.589358
33	0xbe1336be	-0.14376351
34	0x3f479d13	0.7797405
35	0x4083b234	4.1155033
36	0xbdead7a4	-0.114669114
37	0xbfc2c6fd	-1.5216976
38	0x3b301000	0.0026865005
39	0xbf96ca6f	-1.1780528
40	0xbd996147	-0.07489257
41	0xbf9c53fb	-1.2213129
42	0xbea94ef3	-0.33068046
43	0xbc57440e	-0.013138784
44	0xbf9e359b	-1.2360109
45	0xbe30d14e	-0.17267343
46	0x3fa80fed	1.312986
47	0xbfdda540	-1.7316055
48	0x3f887182	1.065964
49	0x3de2e7e4	0.11079386
50	0xbf31b53e	-0.6941718
51	0x3e1ff479	0.15620603
52	0x3e6ca005	0.23107918
53	0x3e0b0311	0.13575388
54	0xbddacf65	-0.106840886
55	0x3e0d43da	0.13795415
56	0xbdec3374	-0.115332514
57	0xbd259548	-0.04042557
58	0xbe0867d5	-0.13320859
59	0xbe5d455c	-0.2160849
60	0xbea2bf60	-0.31786633
61	0xbf05bd6b	-0.52242154
62	0xbd4168b1	-0.047218982
63	0xbe3f0f30	-0.18658137
64	0x40951d2d	4.6598115
65	0xbde5b3e2	-0.112159505
66	0x3f57cfeb	0.8430163
67	0xbf687b60	-0.90813255
68	0xbb684600	-0.0035442114
69	0x3f2da0e1	0.67823607
70	0x3d00a01c	0.031402692
71	0x405f02b6	3.4845405
72	0xc011a289	-2.2755454
73	0x4003c4f0	2.058895
74	0xbf91114f	-1.1333407
75	0xbeaff814	-0.34368956
76	0xbe8d164d	-0.27556077
77	0xbed11dfc	-0.4084319
78	0xc055bfe5	-3.3398373
79	0xbf257060	-0.64624596
80	0xc02a9e4f	-2.6659124
81	0xbea8bfd5	-0.32958856
82	0xbe4bf8c6	-0.19919118
83	0x3ddddd22	0.10833193
84	0x3ea99d23	0.33127698
85	0xbd0d27bc	-0.03446172
86	0x3d1c3364	0.038134947
87	0x3ed471aa	0.4149297
88	0xbdcc933c	-0.0998902
89	0x3e02c16d	0.12769099
90	0x3e239842	0.1597605
91	0xbe366cf0	-0.17814994
92	0x3dc70e91	0.09719575
93	0xbe163e6b	-0.14672248
94	0x3cac0e12	0.021002803
95	0xbd1859bc	-0.037194952
96	0xc0c4d558	-6.151043
97	0xbe27638c	-0.16346568
98	0xbc463c54	-0.012099344
99	0x3ff1f37c	1.890243
100	0x3e1a60cb	0.15075986
101	0xc00060f5	-2.0059178
102	0xbd0dbb54	-0.03460248
103	0x406a302b	3.65919
104	0xbf337329	-0.70097595
105	0x3f895cbf	1.0731429
106	0xbeebb02e	-0.46032852
107	0x3f70377f	0.9383468
108	0xbf0b7285	-0.5447162
109	0xbbf3caad	-0.0074399323
110	0xbff49fb6	-1.911124
111	0xbef6f51d	-0.48233882
112	0x3f3d8b3a	0.7404057
113	0xbe5a7cb3	-0.21336631
114	0x3febd2b5	1.8423678
115	0x3f10832c	0.5645015
116	0x3cc37de2	0.023863737
117	0xbd9dede7	-0.07711392
118	0xbe0cca0e	-0.13748953
119	0x3eacefd3	0.3377672
120	0x3d55ef58	0.05223021
121	0xbb43d700	-0.0029882789
122	0x3f0de9fc	0.55435157
123	0xbd8fe1d2	-0.07025494
124	0x3df40ca5	0.11916474
125	0xbe1d4d41	-0.15361501
126	0x3e8b5b79	0.27218226
127	0x3e1c6e2d	0.15276404
128	0xc0175c6c	-2.365016
129	0x3dd16072	0.102234736
130	0xbf22b9cb	-0.6356475
131	0xbfa61190	-1.297411
132	0x3db6e7b6	0.08930914
133	0x3fd8e42b	1.6944631
134	0xbc078da0	-0.008273512
135	0x3f7cb6f0	0.9871664
136	0x3f93ad55	1.1537272
137	0xbf6327e7	-0.8873276
138	0xbfa5fee5	-1.2968413
139	0xbe5c70f1	-0.21527459
140	0xbf95acd1	-1.1693364
141	0xbfc8914f	-1.5669345
142	0x3ced2a62	0.028950874
143	0x3df99329	0.12186272
144	0x3fcd24db	1.6026872
145	0xbf486e0e	-0.7829293
146	0x40228129	2.5391333
147	0xbea48269	-0.32130745
148	0x3eb525eb	0.35380492
149	0xbdbf2734	-0.09333649
150	0xbe173c6a	-0.1476914
151	0x3f8144fe	1.009918
152	0x3bfdd0a0	0.0077458173
153	0xbdb28b23	-0.087179445
154	0x3f696464	0.9116881
155	0xbe657850	-0.22409177
156	0x3e025e75	0.12731345
157	0x3f827b12	1.0193808
158	0x3e8efbb2	0.27926403
159	0x3ebb3e72	0.3657108
160	0xbf82b6a2	-1.0211985
161	0x3d552878	0.052040547
162	0xbed8343e	-0.42227358
163	0xbde6770a	-0.11253174
164	0xbe09312d	-0.13397665
165	0x3f379fca	0.71728194
166	0x3d8b1c82	0.06792547
167	0x406b36ae	3.6752124
168	0x3f7728bd	0.96546537
169	0x3eb37b36	0.3505494
170	0x3f0525a7	0.5201058
171	0x3c88de31	0.016707512
172	0x3dbcb680	0.092144966
173	0xbd580135	-0.052735526
174	0xbf5fa8a0	-0.87366676
175	0x3ec44f20	0.38341618
176	0x3f630d62	0.88692296
177	0xbf3c9001	-0.7365723
178	0x3ee61c43	0.44943437
179	0x3f1b07f2	0.60559
180	0x3ef37d59	0.4755657
181	0x3e199303	0.14997487
182	0x3df92266	0.12164764
183	0x3f3257a0	0.69664955
184	0x3e32644b	0.17421071
185	0xbdca74cb	-0.09885558
186	0x3eb49b44	0.35274708
187	0xbf4b87ca	-0.7950407
188	0x3c751c1a	0.014960313
189	0xbfa02582	-1.2511446
190	0x3f448b48	0.76775026
191	0xbdee7789	-0.11643893
192	0xc0639ffa	-3.5566392
193	0xbbf06440	-0.0073361695
194	0xbf2caab0	-0.6744795
195	0xbf04d93c	-0.51893973
196	0xbe1ffae2	-0.15623048
197	0xc03d5d8e	-2.9588351
198	0x3d82e0d4	0.06390539
199	0x40ac161a	5.377698
200	0xbed593b4	-0.4171425
201	0x3f9727e4	1.1809049
202	0x3f40e3d7	0.75347656
203	0xbe191eb8	-0.14953125
204	0xbf0d66d6	-0.5523504
205	0xbe1fd806	-0.1560975
206	0xbff2cf3a	-1.896949
207	0xc031ec44	-2.7800455
208	0xbfbb302e	-1.4624078
209	0xc000da5a	-2.0133271
210	0xc01154b4	-2.2707949
211	0x3efcc40d	0.49368325
212	0xbf0599f7	-0.52188057
213	0x3e2ea453	0.17054872
214	0x3e1dbbc7	0.15403663
215	0x3ed0fed0	0.40819407
216	0xbe03d978	-0.12875926
217	0xbe1594d5	-0.14607556
218	0xbdc53547	-0.096293025
219	0x3e1c77b7	0.15280043
220	0xbedeae5d	-0.43492404
221	0x3fdc25d6	1.7199047
222	0xbff6785b	-1.925548
223	0x3ef1f6aa	0.47258502
224	0xc0096e7f	-2.1473691
225	0xbd8ef198	-0.06979674
226	0xbed09685	-0.40739837
227	0x3f5d00ce	0.8632935
228	0x3df9d56a	0.121989086
229	0x3f06d3e3	0.52667063
230	0xbdda4b6c	-0.10658917
231	0x3f5bdc75	0.85883266
232	0xbfcc7314	-1.5972619
233	0x3f6da140	0.9282417
234	0x3e89cb14	0.2691275
235	0xbea6a07e	-0.3254432
236	0x3f134d33	0.5753967
237	0xbe9804ca	-0.29691154
238	0xbfec0cd8	-1.844142
239	0xbf9e179d	-1.2350956
240	0x3f994161	1.1973077
241	0xbeeabf9b	-0.45849308
242	0xbfd65781	-1.6745454
243	0xbf9e2e3a	-1.2357857
244	0xbfde34c5	-1.7359854
245	0xbd0c7bd4	-0.03429778
246	0xbc7d86c0	-0.015474021
247	0x3ee94129	0.45557526
248	0x3d82b03c	0.0638127
249	0x3df0fb82	0.11766721
250	0x3f43805a	0.76367724
251	0x3f0e72b7	0.5564379
252	0xbdbb9595	-0.0915939
253	0xbf3ae308	-0.7300267
254	0x3f0bdc30	0.54632854
255	0x3df938d2	0.12169041
