data/cmd_sac_pytorch/cmd_sac_pytorch_s100/pyt_save/model.pt (torch_old, 859873 bytes, 18 tensors)

weight f4 [256, 15]
000000 64 9c 90 be de 03 27 3e a0 e9 17 be 0d 9e 87 be
       -0.28244317 0.16310069 -0.14835215 -0.2648777
000010 c8 aa ba 3d 82 07 3b bd 70 f9 fa bd fa cd be be
       0.09114605 -0.045661457 -0.12254608 -0.37266523
000020 96 12 99 be 18 bd 8b be 40 8b 48 be 2e ab 4c 3b
       -0.29896992 -0.27292705 -0.1958437 0.003122996
000030 20 41 17 3d 8c 4a ff 3d bb 49 bb 39 27 12 7c 3e
       0.036927342 0.124653906 0.00035722353 0.246163
000040 e5 5f 83 3e 04 6b 9b 3d 7a 44 15 bc 06 09 d1 bd
       0.256591 0.07588771 -0.009110564 -0.10206799
000050 c4 1c a0 bd e8 3e 2b 3e f1 db e1 3d 8f c6 33 3e
       -0.078179866 0.16723216 0.110282786 0.17556213
000060 f9 dc b9 3d 6c b6 4a 3e f9 2c 1e 3e fb 7d 06 bd
       0.0907535 0.19796151 0.15446843 -0.032834988
000070 a7 58 24 be 9e 88 0e 3d a9 49 33 3e e8 af 05 be
       -0.16049443 0.034798257 0.17508568 -0.13055384
000080 e3 11 bd 3d 80 cd 0a be a4 75 7f be 04 7d 87 bd
       0.09231927 -0.13554955 -0.2494722 -0.06615642
000090 7a d3 6f 3e 20 21 41 3e 7b 5d 73 be ff d3 07 3e
       0.23420516 0.18860292 -0.23766129 0.13264464
0000a0 4a 7d 96 3c 58 8c 5b be ee ef ae bc 09 4b 96 bd
       0.01837029 -0.21440256 -0.021354642 -0.073385306
0000b0 05 09 1b be f3 4b b3 3d d0 c7 70 be c2 0b 01 bd
       -0.1514016 0.087547205 -0.23513722 -0.031505354
0000c0 15 c6 b5 3e 80 19 51 3d 20 cb 96 3d 98 f2 f0 3d
       0.35502687 0.05104971 0.07362962 0.11765021
0000d0 94 6c 60 3d 18 8c e5 bd d4 fb 2d 3e d1 e4 47 3c
       0.05479105 -0.112083614 0.16990596 0.01220055
0000e0 10 b3 ea 3d 69 cf d7 bd 27 cd 46 3e ac fa e9 3d
       0.11459935 -0.10537607 0.19414197 0.11424765
0000f0 5a 0a b6 bd 80 90 b6 3d 81 25 a0 3d 03 f9 5f 3e
       -0.08888693 0.0891428 0.07819653 0.21872334
000100 dc ee 5c 3e d8 f8 01 3e 54 c0 12 3e 13 15 84 3d
       0.21575493 0.12692583 0.1433118 0.06449332
000110 00 45 9f bd 2a 93 0b be 3b 48 a3 3e 3b 87 43 3e
       -0.077768326 -0.13630357 0.31891045 0.19094555
000120 95 33 bb be b1 71 ee 3d 42 5b 25 bd 08 bd 67 be
       -0.3656279 0.11642779 -0.040370233 -0.22630703
000130 b6 b1 7d 3e 96 be 24 bd 25 b4 4c 3d 00 b5 86 bb
       0.24774823 -0.04022082 0.049976487 -0.0041109324
000140 8b 7e 33 be 44 80 73 3e 65 ee f0 bd a7 d1 ac be
       -0.17528741 0.23779398 -0.1176422 -0.33753702
000150 7c 4d ab 3e 12 57 51 be cb 71 ec bd f3 40 33 3e
       0.33457553 -0.20443371 -0.11545142 0.17505245
000160 c7 b0 cf 3d 5c b0 e7 bd 75 a5 28 bc c6 cb 11 be
       0.101411395 -0.11312935 -0.010293354 -0.1423789
000170 5c 55 3b 3e dd aa 77 be 21 48 2a be 33 67 b0 bd
       0.18294281 -0.24186273 -0.16629077 -0.08613434
000180 fc 4b 24 be d4 ab 7e 3e 1c d7 44 be fd 2b b5 bc
       -0.1604461 0.24870235 -0.19222683 -0.022115702
000190 5b 65 49 3d 5e 4a d5 bc 67 ed 03 3d 3c 4d 8b bd
       0.049168926 -0.026036438 0.032208826 -0.06801841
0001a0 54 50 a0 be b6 8f 7b 3e dc 2b cb bd 86 46 6c 3d
       -0.31311285 0.2456654 -0.09920475 0.057684444
0001b0 ea 77 61 3e a0 87 a8 3d 67 d5 14 be 40 c1 ba bb
       0.220184 0.082289934 -0.14534532 -0.0056993067
0001c0 a6 71 cc 3d fa 5b e3 3d 2b 13 87 3e de db 63 3e
       0.09982614 0.111015275 0.26381811 0.22251841
0001d0 7c 2a d9 3b e0 79 91 3e 68 58 7a bd 6d f0 d7 bd
       0.006627379 0.28413296 -0.061119467 -0.105439045
0001e0 2e 9c 19 be a6 51 7b 3e 91 7c ed 3d 7e 2b 71 3e
       -0.15000984 0.24542865 0.11596025 0.23551747
0001f0 98 67 f8 bd 08 96 6e be 00 41 40 3b 90 61 a2 3d
       -0.12129134 -0.2329942 0.0029335618 0.07928765
000200 a6 46 38 be a1 5f 84 3e 98 22 70 be d4 81 f2 ba
       -0.179957 0.2585421 -0.23450696 -0.0018501827
000210 2b 08 53 be 0a c9 ff bc 72 2c fc bd 9f 6b de 3d
       -0.20608585 -0.031223793 -0.12313165 0.10860371
000220 d2 c5 7b 3e 42 52 cb 3c 39 13 05 3e 5e 54 6a 3e
       0.24587181 0.024819497 0.12995614 0.22883746
000230 66 5c 77 3e 72 a1 7e 3e 35 84 8b be b8 0c 73 bd
       0.24156341 0.24866274 -0.27249303 -0.0593383
000240 8c 0b 17 bc 9b 23 29 be 0d 88 4b 3b 75 26 04 3e
       -0.009219062 -0.16517489 0.0031056434 0.12905295
000250 d2 8a a0 3e b8 43 f8 be 58 28 69 be 80 b8 9c bb
       0.31355911 -0.48489165 -0.22769296 -0.0047827363
000260 e4 74 31 be 5c d2 08 bc 7a 18 3f be 15 79 5e be
       -0.17329746 -0.008350935 -0.18661681 -0.21725877
000270 a8 18 0c 3d 7c 58 ec bd b7 96 25 3d 40 5e 4b 3e
       0.0342032 -0.115403146 0.040426936 0.19860172
000280 c3 b4 57 be d3 8b 0a 3e 4b 4b 9e 3d 26 75 db bd
       -0.21065049 0.13529901 0.07729205 -0.10715704
000290 a4 31 86 be 50 84 1a b8 27 34 82 3e 0d 7a c7 bd
       -0.26209748 -3.6839687e-05 0.25430414 -0.09740076
0002a0 1f 32 2f be 7a 82 2d be 91 8c b5 3e 14 3c c0 3d
       -0.17108963 -0.16944304 0.35458806 0.09386459
0002b0 f9 7a 1f be 16 29 ac 3e 53 35 9f be 59 da 6c be
       -0.15574254 0.33625096 -0.3109537 -0.23130168
0002c0 ae 7d fe bd 97 e9 09 3e f8 4e 90 bd 6e f1 97 bd
       -0.12426315 0.13468014 -0.07046312 -0.07419096
0002d0 f2 4f ba bd f0 2b 1d be 52 17 65 3e 32 a3 8d 3d
       -0.090972796 -0.15348792 0.22372177 0.06915893
0002e0 ce 42 92 bd 4a 6d a9 3e 34 67 75 be fc 21 99 bd
       -0.07141648 0.33091193 -0.2396515 -0.07477185
0002f0 b0 90 64 3e 03 c9 df bd c1 16 5c 3d b3 94 3a be
       0.22320819 -0.10927012 0.053732637 -0.18220787
000300 a7 30 2a be 1e 00 e9 bd fc ff 57 be ed 56 82 bd
       -0.16620122 -0.113769755 -0.21093744 -0.06364236
000310 a4 e7 0d be 3c a7 2a be 39 4b 35 be a4 bf e5 bd
       -0.13857895 -0.16665357 -0.17704476 -0.11218193
000320 91 fe 1b be 00 4e 74 bb fd 8c 4b 3d f8 c1 02 be
       -0.15233828 -0.0037277937 0.049695004 -0.12769306
000330 a9 43 dc bd 78 5d 17 3e a8 96 48 be 07 c0 21 3e
       -0.10755093 0.14781749 -0.19588721 0.15795909
000340 43 64 58 bd b3 e7 3c be 28 9e b4 be 28 9a 4c 3d
       -0.052829992 -0.18447761 -0.35276914 0.049951702
000350 cc 36 87 be 45 e0 6b 3e 00 6e f3 ba 33 37 c7 be
       -0.26408994 0.23034771 -0.0018572211 -0.389093
000360 a6 f3 7f 3e a4 28 e5 bd 17 21 b2 bd 86 78 9f bd
       0.24995288 -0.11189392 -0.08697718 -0.0778666
000370 75 2b 5f 3e 0b 6e 93 bd 50 95 75 be 14 1f 38 3d
       0.21793921 -0.071987234 -0.2398274 0.044951513
000380 7b 93 2e 3c 90 fa c4 bd 20 e2 4e be 21 49 e7 3d
       0.010655279 -0.096181035 -0.20203447 0.11293245
000390 04 f9 8d be c0 7b a8 bc 83 05 14 be 88 44 6f be
       -0.27729046 -0.020566821 -0.14455228 -0.23365986
0003a0 3f a5 d7 bd 99 73 a8 bd f8 31 82 3c 74 f0 8d be
       -0.10529565 -0.082251735 0.015892968 -0.27722514
0003b0 1d bb 32 3e 51 b0 90 be c3 09 d8 bd b8 64 7b be
       0.1745419 -0.2825952 -0.10548737 -0.2455014
0003c0 b0 fd 95 be a4 24 8e 3d 01 80 e8 bd 32 63 c7 3d
       -0.2929511 0.069405824 -0.1135254 0.09735717
0003d0 38 0d 99 3d 57 f0 6d 3e f0 04 96 bd 86 7d 4d be
       0.074732244 0.23236214 -0.073251605 -0.20067415
0003e0 2e f4 a5 be 80 7f 8d bd 89 f1 75 3e 25 dd 0e be
       -0.32412857 -0.06909084 0.2401792 -0.13951547
0003f0 da 5b 42 be 77 69 10 3e 99 b0 ea 3d 56 b5 6a 3e
       -0.18980351 0.14102732 0.114594646 0.22920737

bias f4 [256]
000000 43 66 4d bd 34 d5 1e 3e 0b b1 cc 3d d0 97 05 be
       -0.050146352 0.15511018 0.09994706 -0.13046193
000010 3c 95 59 be 7b a5 62 be 37 e1 65 3e f5 5e 0e be
       -0.21248335 -0.22133438 0.22449194 -0.1390341
000020 58 e4 4a 3c 33 f2 ca bc 42 f9 0f 3e 39 ff 57 3d
       0.012383543 -0.024773693 0.14059928 0.052733634
000030 06 3c a7 3d 0b 8f 31 be 9b 31 78 be c5 a8 11 3e
       0.081657454 -0.17339723 -0.24237673 0.14224537
000040 14 c1 14 be 26 87 1f bc 77 00 8f 3d 21 fe 61 3e
       -0.14526778 -0.009736812 0.069825105 0.22069599
000050 77 e7 68 be ac 09 19 3e 66 68 4f 3e 05 93 b8 bd
       -0.22744547 0.14945096 0.20254669 -0.09012417
000060 e8 79 51 3e b8 9f 2e be 46 ed 8b 3d 68 4c aa 3c
       0.2045666 -0.17053115 0.06832366 0.020788386
000070 af a9 da bd 70 da 7f be 05 24 6d be 15 9c 3c be
       -0.10676896 -0.24985671 -0.23158272 -0.18418916
000080 ce 92 89 3c 5e 4d 14 be 6b 9b c3 bd 4a 06 0d bc
       0.016793635 -0.14482638 -0.09551128 -0.008607456
000090 c9 72 77 be b4 7e 0d 3e 12 4b 41 be 48 9f fe bd
       -0.24164881 0.13817865 -0.18876293 -0.12432724
0000a0 63 6f 90 be e0 c7 5c 3e eb fd 4a be ec 0b 21 3e
       -0.2820998 0.21560621 -0.19823425 0.15727204
0000b0 a5 d9 34 3d 2c 2f 15 3e 47 cd 16 bd 4d 1e 02 be
       0.044152874 0.14568776 -0.03681686 -0.12706871
0000c0 5c 53 a3 bd ce ce d6 bd 2c f7 d4 bd 3c 63 ef 3d
       -0.07974884 -0.104886636 -0.10398707 0.11688849
0000d0 07 6b fd 3d 32 b7 0b 3e 34 c4 3f be d2 f3 76 3e
       0.123739295 0.13644102 -0.1872719 0.24116448
0000e0 d1 06 99 3c f8 4a 7a be 0c ea c5 bd a4 5e cf bd
       0.018680008 -0.24442661 -0.096637815 -0.10125473
0000f0 7c 72 0b 3e 62 57 46 bd 17 a8 6c 3d 01 93 63 be
       0.13617891 -0.04842318 0.05777749 -0.22224046
000100 8c ac a5 3d 15 07 41 3c 9a d4 50 3e b7 26 f6 3d
       0.08089551 0.011781474 0.20393601 0.12019103
000110 c1 d5 bc bd f9 cd 93 bd 88 e0 22 3d 2f 3a 86 3d
       -0.09220458 -0.072170205 0.03976491 0.065540664
000120 bc c6 1f be 1c cd 88 3d dc 13 5a be 85 5a 77 be
       -0.15603155 0.066797465 -0.21296638 -0.24155624
000130 d5 20 8e be 70 23 36 3e 32 50 86 3d 4d 5e 3b 3e
       -0.27759424 0.17786956 0.06558265 0.18297692
000140 27 a3 93 bd 3b 6f 81 be 7d 9d 7a 3e 65 1c 35 3d
       -0.07208853 -0.25280175 0.2447414 0.044216532
000150 b5 e8 61 3b a0 51 26 be e1 74 55 bd 40 3e ae bc
       0.003447098 -0.16242075 -0.052113418 -0.021269917
000160 f2 93 96 3d 06 d1 4f be d1 c2 85 bd 4a 21 9d bd
       0.07352437 -0.2029458 -0.06531299 -0.07672365
000170 5e 9e 14 3c 73 1c 63 3e 76 9b 83 be 63 c9 fb 3d
       0.009070961 0.22178821 -0.25704545 0.12294271
000180 ea 68 27 3e 96 45 8d be 33 04 c3 bd 40 33 0a be
       0.16348615 -0.27592152 -0.09522285 -0.13496113
000190 76 5e eb bd 12 98 c0 bd 5f 50 d4 3d 49 e9 af 3c
       -0.11492626 -0.09404005 0.10366892 0.021473544
0001a0 2d 1b 23 3e 9f 60 1f 3e e7 23 94 bd 82 0e 5d 3c
       0.15928335 0.15564202 -0.0723341 0.013492228
0001b0 40 a0 69 be 65 6e 09 bd 43 f0 be bd 89 08 a9 bc
       -0.22815037 -0.033552546 -0.0932317 -0.020633953
0001c0 00 98 be bd 1f 72 f8 3d 3d dd b0 bd e8 d8 01 3a
       -0.093063354 0.12131142 -0.08635948 0.0004953281
0001d0 e6 f3 95 be 1a 22 ad 3c 90 27 60 3e 6d 59 30 be
       -0.29287642 0.021134425 0.21890092 -0.17221613
0001e0 a6 75 b9 3d ad 0a c1 3d 5e 19 57 3e 44 c8 83 be
       0.09055643 0.09425864 0.2100577 -0.25738728
0001f0 22 28 a9 bd ce c6 25 be 0f 48 f5 3d 78 59 33 be
       -0.08259608 -0.16189119 0.11976635 -0.17514598
000200 ea a7 8a be e1 ee 20 3e 09 7c 78 3e 51 bb 38 be
       -0.27081233 0.15716125 0.24266066 -0.18040206
000210 0d 0e d4 3d 1a 3f 02 bc ae 2f 8a 3e 04 42 71 bc
       0.103542425 -0.007949615 0.26989502 -0.014725212
000220 81 62 13 3d 77 e5 a3 bc ce b8 97 3d c1 97 80 be
       0.035982613 -0.020006878 0.074082956 -0.2511578
000230 70 bf b7 bc e1 fd 07 be d1 bc 5a 3d cc 75 e7 3d
       -0.022430152 -0.13280441 0.053402726 0.11301765
000240 06 f4 87 be 90 ec 7c be 0d a2 00 be ea 9e 33 3e
       -0.26553363 -0.24699616 -0.12561817 0.1754109
000250 01 be 18 3d 0f fc 1d be 32 d1 6a be 4b b0 53 be
       0.037290577 -0.15428184 -0.22931364 -0.20672719
000260 90 7d 28 3e 73 c2 76 be 20 97 81 be 5e b9 1b 3e
       0.16454148 -0.24097614 -0.25310612 0.1520743
000270 7d 73 6d bd 02 9d 56 be 39 eb 0a be 02 f5 c2 3d
       -0.057971466 -0.20958331 -0.13566293 0.09519388
000280 e5 d5 73 bd 93 e6 85 bd 36 54 32 3e aa ae 35 bd
       -0.059530158 -0.06538119 0.17414936 -0.044356026
000290 73 4f 9f 3d 98 3f 30 be 69 0b c7 bd ce e4 ae be
       0.077788256 -0.17211759 -0.09718973 -0.3415894
0002a0 7c e3 4d 3e 8b 0e 2d be 4e f5 2a be bf 47 10 be
       0.2010631 -0.16900079 -0.16695139 -0.14089869
0002b0 62 33 51 3e b3 f5 05 be b7 c3 c8 bd 16 3a e7 3d
       0.20429757 -0.13082008 -0.09802955 0.11290376
0002c0 82 68 7d 3e d2 db 30 3e 39 19 6b bd 77 c4 05 be
       0.24746898 0.17271355 -0.0573971 -0.13063227
0002d0 d5 01 21 be 4a 8d 45 be 59 58 4c be 51 71 77 bd
       -0.15723355 -0.19292179 -0.19955577 -0.0604108
0002e0 c2 e3 1e be b5 50 6f 3e 67 1a 00 bd 78 f3 14 3e
       -0.1551657 0.23370631 -0.03127518 0.14546001
0002f0 ef 2e 41 bd 66 a9 48 bd 63 b6 e4 bd 42 4c 20 be
       -0.0471639 -0.048989676 -0.111676 -0.1565409
000300 88 4c 68 be 1a 00 65 be 6f 76 32 be 7f 45 17 3e
       -0.22685444 -0.2236332 -0.17427991 0.14772604
000310 60 d9 ae bc fc 36 6f 3e 84 cb 82 be 45 01 15 3e
       -0.021343887 0.23360819 -0.25545895 0.14551266
000320 5a a3 06 3d d3 3e 16 3e 04 79 13 3e 35 3d c2 bc
       0.032870628 0.14672403 0.14401633 -0.023710826
000330 00 1f 27 3e b2 ac 0c 3e 81 49 b9 3d 3a a5 81 3d
       0.1632042 0.13737753 0.09047223 0.063303426
000340 84 4d b1 3c 1d fd 38 3e 01 ad 4b bd 94 94 1d be
       0.021643408 0.18065305 -0.049725536 -0.1538871
000350 77 0a e5 bd 3f c9 8b be fa cc a0 bd 96 89 07 3e
       -0.11183637 -0.27301976 -0.07851596 0.13236079
000360 f6 19 c0 bc 4b 58 2d be 39 b7 02 3d 47 04 19 be
       -0.02344988 -0.16928212 0.031913016 -0.14943038
000370 86 b6 c5 bd 94 db ab bc 7d 8d ca 3c 00 50 20 3e
       -0.09653954 -0.020978726 0.02472567 0.15655518
000380 33 6e 80 3e b6 5f af bc 12 c7 42 3d ce f9 10 be
       0.25084075 -0.021407943 0.04755313 -0.14157793
000390 de 5e ef bd 12 2c ea bd 62 22 4f be ba 2d fb bd
       -0.11688016 -0.11434187 -0.2022796 -0.12264581
0003a0 fc 32 1c 3e f5 a1 85 be b0 eb 11 3d 2c 71 2b 3e
       0.15253824 -0.26100126 0.03562516 0.1674239
0003b0 8d ea 6a be ff 36 57 3c 91 1c 24 be 64 89 89 3d
       -0.22941037 0.013135671 -0.16026522 0.06715658
0003c0 f1 36 6f 3e 10 f2 5c bd 42 d8 84 be 3b 02 d8 bd
       0.23360802 -0.053941786 -0.25946242 -0.105473004
0003d0 a5 ca 08 be e7 6d 5c 3e b8 ef 8c 3d fd 84 89 bd
       -0.13358553 0.215263 0.0688166 -0.067148186
0003e0 a5 84 3c 3d e0 f1 53 3d 37 26 a8 bd 3b 64 85 bd
       0.046024937 0.05174434 -0.08210414 -0.06513258
0003f0 aa d2 10 3e 84 1c 85 3d 81 3c 5e 3d 8a ae b5 3d
       0.14142862 0.064995795 0.05425692 0.08871181

weight f4 [256, 256]
000000 b5 34 85 bd 42 b0 8f 3c 55 77 29 3d 0e ef 26 3b
       -0.06504194 0.017540101 0.04137357 0.0025472078
000010 7a cf b6 39 84 90 87 bb 1e 42 8a 3b 1f 17 90 3c
       0.00034868327 -0.0041371007 0.0042193076 0.01758915
000020 f8 35 9e 3c 35 d4 f4 bb a3 19 27 bd 14 7d 5f bd
       0.019312844 -0.007471586 -0.040795933 -0.054562643
000030 85 02 40 bc 0e f8 58 3d 4d bd bb 3c 8a d7 d2 3b
       -0.011719351 0.05297094 0.022917414 0.0064343857
000040 7e c1 06 bd 90 86 2c bd ab df 30 3d 80 15 00 3d
       -0.032899372 -0.042120516 0.043182056 0.031270504
000050 13 9a d6 3c 75 08 0d 3d ea 68 16 bd da 5c 91 bd
       0.026196515 0.034431893 -0.036721148 -0.07097788
000060 41 fd be bc b5 23 47 bc ee 91 ad bd 0c ae 1c bd
       -0.02331412 -0.012154509 -0.084750995 -0.03825192
000070 ab 7b 2c bd 08 f7 7f bd e2 87 98 3c 52 b3 be 3c
       -0.042110126 -0.062491447 0.018619481 0.023278866
000080 0f d2 ea bb c6 c2 10 3d 41 71 90 bd dc 3f 0c bd
       -0.007166154 0.035342 -0.070528515 -0.03424059
000090 df c8 38 3d 28 50 59 bd fa d6 8b bd fd 04 2f bd
       0.04511344 -0.05305496 -0.06828113 -0.042729367
0000a0 da dc 85 bd c0 f5 c3 bc 52 c3 39 3d 08 54 6f bd
       -0.06536265 -0.023920894 0.045352288 -0.058429748
0000b0 53 40 26 bd bd ae 6b bd ef 32 10 3d 2e fc ed bc
       -0.040588688 -0.05753969 0.035204824 -0.029050913
0000c0 ab f5 d6 bc 62 00 65 bd 5d eb 10 3d f3 66 07 3c
       -0.02624019 -0.05590857 0.03538071 0.008264291
0000d0 5b 88 3d bd d2 83 48 3d dc 31 d6 bc a1 59 59 3c
       -0.046272617 0.04895384 -0.026146822 0.013265998
0000e0 28 43 23 3c 71 69 72 bd dc a0 14 bc f5 74 a2 bb
       0.009964742 -0.059182588 -0.009071555 -0.00495779
0000f0 c7 b8 8a bc fa 72 2b bd bb b9 61 bd 48 e9 03 bc
       -0.016933812 -0.041857697 -0.055108767 -0.008051224
000100 13 84 13 bd af e9 92 3b 5e b3 8d bd 56 29 40 bd
       -0.036014628 0.0044834237 -0.06918977 -0.04691442
000110 51 2f 5c 3a 41 23 34 3d 8f ac 18 3d 2d 73 ea 3c
       0.00083993847 0.043978933 0.03727394 0.028619373
000120 64 bf 21 bd 4f 48 80 bd cd 64 bb 3b d5 e0 51 bd
       -0.039489165 -0.06263792 0.0057188035 -0.051239807
000130 a6 75 1c bc 08 f5 42 3b 7c 25 62 bd 8a 8f 3e bc
       -0.009549534 0.00297481 -0.05521153 -0.011630902
000140 a2 bb 40 bd 99 a6 3c 3b 24 29 80 bd e0 ec 3a 3d
       -0.04705394 0.0028785823 -0.06257847 0.045636058
000150 89 a9 26 3d 7a 7b b8 3c 3d 5f 5e bd 80 3d 1b bd
       0.040689025 0.022519816 -0.054290045 -0.037900448
000160 9a 85 3f 3d b9 b7 9d 3b 8d df b5 3c a8 61 41 3d
       0.04675827 0.004813161 0.022201324 0.047212273
000170 84 06 8e 3c 72 51 b7 bc 87 f0 c1 3c 7a 7a e0 bc
       0.017337091 -0.022377703 0.023674263 -0.027402151
000180 96 86 72 bd 00 5e 45 3c 39 32 c1 3c 09 bb c4 3c
       -0.059210382 0.012046337 0.023583518 0.024014967
000190 76 c0 e9 3c bc 31 2e 3d 3f 6e 6e bd 66 f2 a8 bd
       0.028534155 0.0425279 -0.058210608 -0.08249359
0001a0 16 d4 88 3c 42 15 09 bd f3 5a bf 3c 4a 15 c2 3b
       0.016702693 -0.03346754 0.023358798 0.005922948
0001b0 cd a7 7d bd ef 89 65 bd 14 46 8d bd 1d 03 97 bd
       -0.061927605 -0.056039747 -0.06898132 -0.07373641
0001c0 75 df c6 bc a4 c2 34 bd 8d b0 6b 3b 43 68 e6 3b
       -0.024276474 -0.044130936 0.0035963387 0.007031472
0001d0 ab 96 57 3a 5e 3b 48 3c 2e 92 57 bd c4 0b 4e 3d
       0.00082240504 0.0122211855 -0.052629642 0.05030419
0001e0 07 03 d6 3c ad 83 d8 3c 72 0e 08 bc 24 6a 30 bd
       0.02612449 0.026429975 -0.008304225 -0.043069974
0001f0 1a 0e 53 3d 1e dd 73 3d 38 24 05 3d 03 69 7f bb
       0.05152712 0.059537046 0.032505244 -0.0038972504
000200 ee 38 b7 bb ef cc 54 bd d5 9a 0d bc 44 9d 7a 3b
       -0.0055915033 -0.051953252 -0.008642872 0.003824071
000210 95 7e 84 bc 6f f6 d3 bc 17 10 00 bd 2c ae 86 bd
       -0.01617364 -0.025874345 -0.031265344 -0.065761894
000220 fa 3f 89 bc d0 80 80 bc b4 cf 55 3b 5f 10 8f bd
       -0.01675414 -0.015686423 0.0032625021 -0.069855444
000230 0f 5c 8c bd 37 60 81 bd 7a aa 5a bc 75 45 04 3d
       -0.06853496 -0.0631718 -0.013346309 0.032292802
000240 ae 15 c9 3c 82 f1 a6 bd da a1 aa bc bd 0f 0f 3b
       0.02454647 -0.08151533 -0.02082913 0.002182945
000250 6c 3c 38 bd ce e8 ab bc 7e de 5f bd 01 8d 53 bd
       -0.044979498 -0.020985033 -0.054655544 -0.051648144
000260 e9 ef 99 3c 72 ef 10 3d 8b 82 3d bd 7e b5 4a 3c
       0.018791156 0.035384603 -0.046267074 0.012372373
000270 ce 14 8a bd eb 82 12 bd ee 4b 42 bd 1c 1a b7 bc
       -0.067422494 -0.035769384 -0.047435693 -0.022351317
000280 25 95 97 bc a7 d6 a0 ba 3a 98 df 3c 44 1b 1b bd
       -0.018503735 -0.0012271003 0.027294267 -0.0378678
000290 1a eb 94 bd 81 61 dc bc a7 cd db ba 81 c7 aa 3b
       -0.072714046 -0.026901962 -0.0016769663 0.005211771
0002a0 3c ea 20 3d 94 ed d6 3c a0 e0 11 bd 1c 3c 56 bd
       0.039285883 0.026236333 -0.03561461 -0.05230342
0002b0 8e d6 31 3c 0c 11 28 3a 89 d7 60 bb f2 48 fc bc
       0.0108543765 0.00064112316 -0.0034308156 -0.030796502
0002c0 b3 b2 de bb 97 5f 06 3d fc 0d 9b bc bd fb 24 bd
       -0.006796205 0.032806005 -0.018927567 -0.04027914
0002d0 41 09 63 3d c4 0d 0c bd 3d fa e2 3c 21 be 76 3a
       0.055428747 -0.034192815 0.027707214 0.00094124867
0002e0 d2 c3 92 3c aa 0c b9 bb 27 03 04 bd e8 8c 8d bd
       0.01791564 -0.0056472616 -0.03222957 -0.06911641
0002f0 a7 37 1c bd 39 ab 3c bd 74 51 82 bd aa 52 44 bd
       -0.03813901 -0.04606173 -0.06363192 -0.047930397
000300 dd 4c fe 3c 2f 07 6c 3d 2f 48 ea bb 16 2d c8 bc
       0.03104251 0.05762404 -0.0071497182 -0.024435561
000310 fd e9 fc 3b 1c ff 63 bd 1e eb 64 3b a2 fb 6b bb
       0.0077183233 -0.055663213 0.003493018 -0.003600814
000320 eb 3d 81 3c e0 46 98 bd 0a e0 ac bc 4e 57 3f bb
       0.015776595 -0.07435393 -0.021102924 -0.0029196325
000330 86 c7 a8 3c b8 d1 93 bd 4b f9 99 bc cb ab a3 bc
       0.020602953 -0.07217735 -0.01879563 -0.019979378
000340 53 d5 4d bd 9c b1 f5 bb 66 38 ab 3c a8 4f 7b bd
       -0.05025227 -0.0074979793 0.020900916 -0.061355263
000350 6b ce ef 3a 89 3d 34 3d 75 8e 33 3d f3 6c c8 bc
       0.001829577 0.044003997 0.04383703 -0.024466014
000360 fa 63 6c 3c 05 a9 34 3d 41 a2 3a 3d 5d a0 83 bc
       0.014428133 0.044106502 0.045564894 -0.016067678
000370 73 21 59 bd 39 a0 0d 3c 97 61 0e bd 7b 4a 18 bd
       -0.053010415 0.008644157 -0.034761038 -0.037180405
000380 43 27 57 bd 0c 30 df 3b 08 39 a9 bd 08 4a 6f 3d
       -0.052527677 0.0068111476 -0.08262831 0.05842021
000390 d8 84 97 bd 0c 60 1b 3d 39 b2 73 3c a0 7c fd bc
       -0.07398385 0.037933394 0.014874035 -0.030943215
0003a0 e4 15 42 bd 6a 11 08 bd 56 92 8d 3c df 08 fa bc
       -0.047384158 -0.033219732 0.017281692 -0.030521808
0003b0 37 72 65 3d ae 54 b1 3c 80 62 83 3c fb fd 78 bd
       0.056017127 0.021646824 0.01603818 -0.06078909
0003c0 3a af 0c 3d c3 e0 7f bd 83 9c 65 bd b4 f4 31 bd
       0.034346797 -0.06247021 -0.056057464 -0.043446258
0003d0 8a 41 1b 3d 59 db b4 3c a7 26 06 3d 5a 25 93 3b
       0.0379043 0.02207725 0.032751705 0.0044905366
0003e0 a7 b2 09 bd 7b 54 23 3b 5f a0 df bb ad 80 2e 3d
       -0.03361764 0.002492218 -0.0068245376 0.042603184
0003f0 76 59 c4 3c da e0 72 bd 42 15 04 bd 61 07 83 3c
       0.02396844 -0.059296466 -0.032246836 0.01599473

bias f4 [256]
000000 0a 68 a2 3c 6b d2 f2 3a db bb 0d bd 7b e6 4e 3d
       0.019825 0.0018525844 -0.03460298 0.050512772
000010 e8 73 b3 3c 80 49 48 bd eb 52 93 3d 4f 1b a3 3c
       0.021905854 -0.04889822 0.0719355 0.019910483
000020 17 90 a5 3d 11 92 ba 3d 59 19 7c bd 74 73 2f 3d
       0.080841236 0.09109891 -0.06154761 0.042834714
000030 3a d5 29 3d be 21 bc 3a 2b 6d 9a 3d b3 c1 03 3d
       0.041463114 0.0014353318 0.075403534 0.032167148
000040 d2 c5 aa 3c 12 da 16 3d f9 04 4b bd 34 60 7b bc
       0.020846281 0.03682906 -0.04956529 -0.015342761
000050 01 45 46 bd 6d ee 00 3d 5a 55 72 bd 19 47 19 bd
       -0.04840565 0.03147738 -0.05916343 -0.03742132
000060 dc 32 90 ba 16 95 7b bd 37 8a 8d bb 35 87 03 bc
       -0.0011001485 -0.061421476 -0.004319455 -0.008027841
000070 d9 c0 00 3d ae 0b 16 bd dc 29 57 3d 38 98 45 3d
       0.031433914 -0.036632232 0.052530155 0.04824087
000080 ec 9c 68 bd af 18 ec bc e3 a7 38 bc b8 6b 86 bd
       -0.056790277 -0.028820364 -0.011270496 -0.065635145
000090 cc 95 72 bc 01 be 58 3d 97 0c 63 3c b9 2d 05 bc
       -0.014806222 0.052915577 0.013857982 -0.008128577
0000a0 45 46 30 bd b4 b2 f2 bc da 48 88 bd f3 6c 2c 3d
       -0.043035764 -0.029626228 -0.0665452 0.04209609
0000b0 67 ff 67 bc 47 1f 0e bd 74 5d 70 bd da f3 a2 bb
       -0.014160014 -0.034697797 -0.058682874 -0.004972917
0000c0 84 a6 8f bd 8c f0 22 bc 23 6f e4 bb 92 ee 04 3d
       -0.07014182 -0.009945046 -0.0069712563 0.03245408
0000d0 cf aa 10 bd 5e 68 8a bc 1e 95 af 3c aa b3 57 bd
       -0.035319146 -0.01689547 0.02143341 -0.052661575
0000e0 2e 5a a1 3d 2d c7 2d bd 53 85 16 3c df e8 14 bd
       0.078785285 -0.042426277 0.00918706 -0.036354896
0000f0 dd 0c 9b 3d 66 80 52 3c d9 bc 98 bd d2 63 d6 3b
       0.07570813 0.012847995 -0.07457895 0.006542661
000100 22 6f f0 3a d6 17 66 bc 4d 20 80 bd 2e ff de bc
       0.0018343667 -0.014043769 -0.06256161 -0.027221289
000110 14 98 99 bb 25 e3 76 bd 5a db 3a bc 39 6c 41 bd
       -0.0046873186 -0.060275216 -0.011404837 -0.04722235
000120 76 de fc 3a 25 64 dd bc a6 16 28 3d df 9f ac 3b
       0.0019292373 -0.027025292 0.041037224 0.0052680816
000130 2e 1b 1b bd f3 33 f5 bc 2f 3b 07 bd a1 ae 08 bd
       -0.037867717 -0.029931998 -0.033015426 -0.033369664
000140 1e 17 32 bd fc 0c ac 3d 4e 76 5c bd 95 f7 1f bd
       -0.043479078 0.08400914 -0.05382376 -0.039054472
000150 d1 ff 9a bc 42 35 ec bc 54 cd 38 bd a8 51 aa 3d
       -0.01892081 -0.028833989 -0.04511769 0.08316356
000160 62 3d 98 bd 23 de 46 3d d8 99 05 3d 09 45 69 bb
       -0.07433583 0.04855169 0.03261742 -0.0035594127
000170 3b ab 95 bd 61 11 c4 bc c7 66 1f bd 8c 55 cb 3d
       -0.0730805 -0.023934068 -0.038916375 0.09928426
000180 04 11 76 bd 1e 9d 32 3d 03 ad 09 3d 5e 42 04 3d
       -0.06007482 0.04360687 0.033612262 0.032289855
000190 a0 aa f3 bb e0 0e 8d 3c 3f 5a 0d bd 81 21 e9 3d
       -0.0074361116 0.017219007 -0.034509894 0.113833435
0001a0 bc 8b 83 bd 97 eb a5 3d fd fa 95 bd 22 b5 2c bd
       -0.064231366 0.08101576 -0.07323263 -0.04216493
0001b0 c1 1f 82 3d eb 4c 1e 3d 63 ad aa bc de 44 4b bd
       0.06353713 0.038647573 -0.02083463 -0.049626224
0001c0 dd 3b 3b 3d 5c 33 36 bd 71 35 32 3c 81 14 13 bc
       0.045711387 -0.044482574 0.010876999 -0.0089770565
0001d0 94 e6 c8 3d 9b 8f ee 3b 4b 23 1f 3c 2f 92 9f 3d
       0.09809604 0.0072803027 0.009713004 0.07791554
0001e0 20 3e f9 3c c8 46 8e bd 86 02 85 3a bb d6 f7 bc
       0.030425131 -0.06947094 0.0010147847 -0.030253759
0001f0 b8 1d 3b bd 2f 59 61 3d 89 6f 09 3d bc cb 29 3d
       -0.04568264 0.055016693 0.033553634 0.041454062
000200 e3 be 42 3d f8 08 bc 3c 46 f7 36 bd 23 ea 8e bd
       0.047545325 0.022953495 -0.044669412 -0.06978252
000210 fa bd 97 bc bf 58 a4 3c 96 b4 3c 3d bb 41 f1 ba
       -0.018523205 0.020061849 0.046070658 -0.001840643
000220 c4 ee 7f 3d db 8d c1 bc ec 87 17 bd ce c5 c8 bd
       0.062483564 -0.023627212 -0.03699486 -0.09803353
000230 03 2b 4b 3c d2 fa 1f 3d 41 04 04 bd 77 cf 04 bd
       0.0124003915 0.03905756 -0.03223062 -0.032424416
000240 40 ac 88 bd ab 60 00 bd 7c 0b 7b 3c 35 1c 2b 3c
       -0.06673479 -0.03134219 0.015322562 0.010443737
000250 52 86 89 3d 6f a3 c6 ba c6 18 e8 3b bc 65 36 bd
       0.06715073 -0.0015154908 0.0070830313 -0.044530615
000260 fc 8e 26 3d 52 d7 81 bc 13 a7 b6 b9 76 43 9d bc
       0.040663704 -0.015849743 -0.00034838225 -0.019197207
000270 06 2d 81 3d 03 a3 26 3b f2 e4 a8 3c e9 84 90 3c
       0.06307416 0.0025426752 0.020616982 0.017641502
000280 1c bc 12 3d 15 22 8b bc ee 7d 08 3d 55 5b e4 bb
       0.035823926 -0.016984025 0.03332322 -0.0069688954
000290 ee 0c 73 bd c9 9c 1c 3d 56 f4 36 bc 52 64 62 3d
       -0.059338503 0.03823546 -0.011166653 0.055271454
0002a0 ca 45 8d bd 06 8e ba bc 33 12 2f bd 84 71 8d bc
       -0.06898077 -0.0227728 -0.042741966 -0.017266043
0002b0 59 b4 79 bc a2 1b a4 bd d6 b8 88 bd 99 4f 67 bd
       -0.015240752 -0.08013083 -0.0667588 -0.056472395
0002c0 ea e7 03 3e 67 c2 bb bc 91 15 fe 3c 7d f7 96 3d
       0.12881437 -0.022919847 0.031016143 0.073714234
0002d0 ac b3 53 bd 9f 12 19 3d 34 06 00 3e 57 75 20 bd
       -0.05168502 0.037371274 0.12502366 -0.039174404
0002e0 fd ee 04 3d c6 de f6 3b 8b 56 e6 3c 3b e0 34 3b
       0.03245448 0.007533881 0.028117439 0.0027599472
0002f0 50 c3 74 bc 26 a1 3b bc ac e1 37 bc f0 27 a7 3b
       -0.014939144 -0.011451995 -0.011223238 0.0051011965
000300 0e 70 04 3b 57 4f b3 bd 49 a5 18 bb b6 7b 25 3d
       0.0020208391 -0.08755367 -0.0023291877 0.040401183
000310 7f 41 6e 3d 08 c4 88 bd 5c f5 d6 3a 33 ec 9f bd
       0.05816793 -0.06678015 0.0016400027 -0.07808723
000320 62 02 f2 bb a6 57 21 bc 6b 82 f8 3d cd e0 31 3d
       -0.007385538 -0.009847557 0.1213425 0.043427277
000330 90 5a 26 3d cd 6b 08 bd 07 92 dc bc 57 ae af bc
       0.04061371 -0.03330593 -0.0269251 -0.021445436
000340 b1 e9 0b bd 44 69 12 bd 38 bd a8 bd a5 69 23 bd
       -0.034158412 -0.03574492 -0.082392156 -0.039895672
000350 6e d9 57 39 25 39 d0 3d 12 3c 95 3d f4 79 48 3b
       0.00020584997 0.101671495 0.07286848 0.0030590268
000360 ee 67 dc bc a7 76 73 bd 5c 33 bd 39 8f 70 9e bd
       -0.026905026 -0.059439328 0.00036087155 -0.077363126
000370 9b fc 0a 3c fc ab 52 bb 1b 4d 28 bd 9e a9 b0 bc
       0.008483077 -0.0032145968 -0.04108916 -0.021565255
000380 33 33 a8 bc 5d d8 04 3c 0d 93 1b bd 73 2c df bc
       -0.020532226 0.008108226 -0.037982035 -0.027242875
000390 55 b2 f2 3b 0b ff 39 3d 4a 5b b5 bd 4c 80 ee bb
       0.0074065127 0.045409244 -0.08855303 -0.007278478
0003a0 1e 8f 48 bc b3 90 5c bd bf ef 35 bc c3 f2 19 3d
       -0.012241153 -0.053848933 -0.011104523 0.03758503
0003b0 5c 0f 8e bd fb 15 10 bd 2f 5a e7 bc d5 9a 2e 3d
       -0.06936523 -0.035177212 -0.028241245 0.042628128
0003c0 06 0a 2b bd 8e 6d 66 3c b1 13 19 bd 69 82 01 bd
       -0.041757606 0.014064206 -0.037372295 -0.03161851
0003d0 cf b8 54 3a 0e 3f 07 3c c4 16 92 bc 25 01 ff bc
       0.0008114697 0.0082547795 -0.017833121 -0.031128475
0003e0 c6 24 85 bd 89 69 31 3d 52 ba bd 3d 86 7b 02 3d
       -0.065011546 0.043313537 0.092640534 0.031856082
0003f0 17 e2 4b 3d 68 01 61 bd 01 ab 95 3d 8e 25 2a bd
       0.049776163 -0.05493298 0.07308007 -0.04153972

weight f4 [3, 256]
000000 6d cb 21 3d e8 4f 26 bd c7 3d 68 bc 42 ed 76 bd
       0.039500643 -0.04060355 -0.014174885 -0.06028486
000010 76 ba ba 3c f4 37 43 3d 90 6d 06 3d 95 6f 0a bd
       0.02279399 0.047660783 0.03281933 -0.03379782
000020 ca a9 2b 3d 27 8e 6f 3c 19 94 74 3c b9 f4 14 bb
       0.04190997 0.014621294 0.014927887 -0.0022728874
000030 b4 ba 5b bd 52 56 15 bd 78 f6 bf bd 5a 3a 51 bd
       -0.05364485 -0.036459275 -0.09373182 -0.05108104
000040 e6 0f ad bc 97 90 5b 3e 88 7e 37 3c d4 3a 4f 3d
       -0.021125745 0.21441875 0.011199601 0.050593212
000050 18 76 3b 3d fa b0 4a bd 7c a4 19 3d 8c 22 32 bd
       0.04576692 -0.049485184 0.03751038 -0.043489978
000060 21 56 ea 3c b9 3f d0 3c a1 2a f0 bb 91 03 52 bd
       0.028605523 0.02542101 -0.0073293005 -0.051272932
000070 98 f7 a2 3c 25 71 b8 3c 77 58 2f 3e d8 29 96 bc
       0.019893453 0.022514889 0.1712359 -0.0183305
000080 80 60 bc bb 77 12 38 bb eb 89 43 3d 8b 87 c0 bd
       -0.0057488084 -0.0028087178 0.04773895 -0.09400853
000090 b2 fb 59 3b 26 60 1a 3d 4b 70 a2 bc a0 06 dc 3c
       0.0033261594 0.03768935 -0.019828936 0.026858628
0000a0 1c f1 a0 3c ef 8e 19 bd bf 1a fc 3c ba e8 e3 3c
       0.01964622 -0.037489828 0.030774472 0.027820934
0000b0 a7 16 e6 bc 16 d6 e2 3b e8 d1 9d bb 52 3c 2c bd
       -0.028086973 0.0069224937 -0.0048162825 -0.042049713
0000c0 d4 c0 e5 bc c5 31 99 bd 19 35 9f bd b0 87 1b 3d
       -0.02804605 -0.07480196 -0.077737994 0.0379712
0000d0 df 17 00 3c 7c 80 57 bd 3b 48 16 bd 64 48 1a 3d
       0.007818191 -0.052612767 -0.036689978 0.037666693
0000e0 b5 4f 21 3e 89 28 08 bc c3 dd 0b bd 82 7f 3e 3c
       0.15753062 -0.008310446 -0.034147035 0.01162708
0000f0 45 36 67 bd 59 47 88 3d 88 e6 1b 3d 1e ae a0 3a
       -0.05644824 0.066542335 0.03806165 0.0012258922
000100 83 3b 03 bb 18 ca fb 3a f2 83 10 bd 89 b6 04 bd
       -0.0020024485 0.0019210009 -0.035282083 -0.03240064
000110 fb 61 43 be d6 f0 40 3d af 56 3c 3d c7 ce 6d be
       -0.19080345 0.04710468 0.045981105 -0.2322341
000120 c7 14 fe 3c bd 7a 0a 3d cd f3 20 3d a6 73 67 bc
       0.031015767 0.03380846 0.039295007 -0.014126694
000130 8a ba 64 3d 6e 76 ca 3c fa d5 e2 3b 0d ac e4 3c
       0.05584196 0.024714675 0.0069224807 0.027914071
000140 eb dd 4f bc ad 38 ec bc 48 f1 03 bd 61 70 40 bb
       -0.012687187 -0.028835619 -0.032212526 -0.0029363858
000150 ec 39 4c bd 38 c4 49 3d 4a 37 68 bd 24 11 19 3e
       -0.049859926 0.049259394 -0.056693353 0.14947945
000160 56 22 01 be a0 f6 dc bd e3 fb 04 bc 83 72 cc 3c
       -0.12610754 -0.107892275 -0.008116695 0.024956947
000170 d6 d7 39 3d 6d 3e 4e 3c 9e c4 02 3d 14 8f 97 3e
       0.045371853 0.012588126 0.03192579 0.29601347
000180 e0 4f 2f 3c 4b d1 0d bd 3d 6e bf 3c 45 67 09 3d
       0.010700196 -0.034623425 0.023367995 0.03354575
000190 05 9e 54 3c aa 4f 81 3c ab 71 f6 bc ad 74 e8 3d
       0.012977128 0.015785057 -0.030083498 0.11350379
0001a0 66 7e 69 3d 29 9c 51 bd 70 a5 84 bc 17 6a 9b bd
       0.05700531 -0.051174317 -0.016192168 -0.075885944
0001b0 0f 36 4c bd 2a d5 84 3d 16 6d 87 bc d7 fc d0 bb
       -0.04985624 0.0648597 -0.016531508 -0.006377797
0001c0 9b a3 cc bd c6 76 5e bd ee 33 12 bd 92 54 fe 3c
       -0.09992143 -0.05431249 -0.035694055 0.031046186
0001d0 96 7a bf 3d 7a 15 4b bd 6d d6 d3 bd cf 97 e9 3d
       0.09349553 -0.04958103 -0.10343633 0.11405908
0001e0 a4 a9 05 bc 66 fc dd 3c f2 bb 8d bd 93 b3 82 3c
       -0.008158121 0.027097892 -0.06920613 0.015954768
0001f0 c6 16 91 bd c9 ee d4 3d d7 a6 ff ba 10 8c 06 bd
       -0.07084422 0.10397107 -0.0019504678 -0.032848418
000200 e2 53 92 bd 39 0d 8b bc 08 88 0f 3d 72 d1 09 bd
       -0.071449056 -0.016974078 0.03504184 -0.03364701
000210 c3 19 58 3c 1c 38 6f bc 50 ac 1c bb 11 81 8e bc
       0.013189736 -0.01460078 -0.0023906417 -0.017395528
000220 00 3c 58 3c a3 6d 0a 3b e6 60 14 3d 23 b0 b8 bc
       0.013197899 0.0021122477 0.036225222 -0.022544926
000230 f8 9f d4 3b 1b 10 61 3c 06 15 f1 bb 63 77 9e 3c
       0.0064887963 0.01373675 -0.0073572425 0.019344037
000240 c3 8a 4a bc df 62 6b bd bd f7 0e 3d 72 fc 4a bd
       -0.012362185 -0.057467338 0.03490423 -0.049557157
000250 64 cc ce bd 08 5d de 3c e4 5d f7 3a 78 59 56 bd
       -0.10097578 0.02714397 0.0018872586 -0.052331418
000260 95 4f 02 3c 59 44 95 bb eb 3b 51 bc d8 a9 88 bd
       0.007953544 -0.004555267 -0.012770633 -0.0667302
000270 78 cf 57 bc f8 97 fe 3c 27 97 c3 3c d1 87 25 3c
       -0.013172023 0.031078324 0.023875786 0.010103182
000280 be 60 4b 3d 82 88 3d 3d d6 0f 37 bc 3c d7 02 bd
       0.049652807 0.046272762 -0.011173209 -0.031943545
000290 08 7b f9 bc 6f 0c 7b 3e 25 98 8f bd 05 44 14 bb
       -0.030454174 0.24516462 -0.07011441 -0.002262355
0002a0 8c 7e 22 bc 33 94 a7 bc 6f b5 45 3d c2 02 a9 3c
       -0.009917866 -0.02045641 0.04826873 0.020631198
0002b0 5c c5 e2 3c d4 ba 78 bb 0d 27 0c 3d 10 77 98 ba
       0.027681999 -0.0037953155 0.03421693 -0.0011632163
0002c0 53 cf 58 3c 38 1f 9b bd 05 14 64 3c a1 70 a8 3d
       0.013233024 -0.07574314 0.013920789 0.08224607
0002d0 42 70 65 3d 39 1a c1 bb 64 c1 8d ba 29 97 d0 bd
       0.05601526 -0.0058930186 -0.0010815081 -0.101850815
0002e0 5a cc 66 bd 4b c7 7b bb d6 a3 8e ba 3f b3 d1 bc
       -0.05634723 -0.0038418348 -0.0010882567 -0.025598167
0002f0 3b dc 93 3d b8 b1 5a bc 1e 7a 54 bd c3 bc 2d bd
       0.0721974 -0.0133480355 -0.051874273 -0.042416345
000300 06 26 03 bd d0 7b d1 bd 3f 46 c4 3b 3e 7e de 3d
       -0.032018684 -0.102286935 0.0059898193 0.108639225
000310 f3 04 92 bd 6b 11 b4 bc ba c9 bd 3c 54 19 07 3c
       -0.0712985 -0.021980962 0.02316748 0.008245785
000320 98 f1 69 3b 5f ac f5 bc a0 f8 64 3e 80 97 2c 3d
       0.003569698 -0.02998942 0.22360468 0.04213667
000330 fb 69 d7 38 a1 68 60 3e 4f 7e ce bc 08 1d 87 3a
       0.00010271739 0.21914913 -0.025206713 0.0010308335
000340 85 cd 0d bc e2 2c 97 3c fe e6 cb bb 66 7e 5f 3c
       -0.008654957 0.018454019 -0.006222605 0.013640976
000350 42 64 14 3d 28 a2 14 bd 7f fb b2 3d f5 45 94 3c
       0.036228426 -0.036287457 0.08739375 0.018099764
000360 4b c8 ef bc 12 28 a5 3c ec 08 5f 3c e8 45 82 3d
       -0.029270312 0.020160709 0.013612967 0.0636099
000370 bc f6 d5 bd bb 3d 22 bd 76 23 81 3c 0f c7 5a 3b
       -0.104474515 -0.039609652 0.01576398 0.0033382808
000380 1b ff 47 3d 76 25 0d bc ca d4 1f bd 5a 5a be bc
       0.048827272 -0.008614888 -0.03902129 -0.023236442
000390 b2 dc ee bb 29 6e 44 bc 39 64 04 be 11 2f 11 3d
       -0.0072894925 -0.011989155 -0.12928857 0.035445277
0003a0 a0 fc 96 3d 46 7b 5b bd dc f5 14 3d 3f 33 87 bd
       0.07372403 -0.05358436 0.036367282 -0.06601571
0003b0 25 84 26 3d 94 b9 18 3e 94 6f ed bc a7 ea c0 bc
       0.040653367 0.14914542 -0.028983869 -0.023549391
0003c0 77 be 2e bc 37 5c ac bd a4 c9 09 bd e1 fe 40 3d
       -0.010665528 -0.08416026 -0.033639565 0.04711807
0003d0 4f a2 5f bc 97 fd 5a 3d 6f 53 00 3d cd 41 13 3d
       -0.013649537 0.0534645 0.03132957 0.035951424
0003e0 7b a2 42 3c 29 86 02 bd 10 cc 34 3d 1e 21 42 bc
       0.011879559 -0.031866226 0.04413992 -0.011848716
0003f0 cb 73 d2 bc 94 7b c3 3c 6e 03 47 bd c8 57 e5 bb
       -0.02568998 0.023862638 -0.048587255 -0.0069989897

bias f4 [3]
000000 0e fc 8c bc a8 89 c6 bc 57 4e bd 3c
       -0.017210033 -0.024235561 0.023108644

weight f4 [3, 256]
000000 c7 f8 8b bc 50 75 39 3d 11 19 23 3d 90 cf 9c bd
       -0.0170864 0.045277894 0.039818827 -0.07656777
000010 a3 a6 19 bc 94 a5 27 bd 91 71 f4 bd e6 4f 65 3b
       -0.009378108 -0.040929392 -0.119357236 0.003499025
000020 4d 7c ce 3c 11 2a 9a bd a5 cb fa bc b8 f7 99 bb
       0.025205756 -0.07527555 -0.030614683 -0.00469872
000030 85 50 44 bc d2 71 5e bb 5c 24 04 bd 16 04 83 3c
       -0.011982088 -0.0033942354 -0.032261238 0.01599316
000040 bb 9b bf 3c 12 4d 85 3d 7e b9 fe 3b c2 e0 db 3d
       0.023389688 0.065088406 0.0077735772 0.107362285
000050 5e 44 01 be 39 c6 09 be 8d e4 e0 3c a9 ec 1e bc
       -0.12623736 -0.13454522 0.027452732 -0.009699979
000060 ce 42 20 3d 93 b0 5d 3d c2 32 02 bd 7a b9 e1 bc
       0.03912621 0.054123472 -0.031786688 -0.027554262
000070 14 8f 08 3c d3 8f e7 bc e2 3f d1 3d 76 b5 a7 bb
       0.008334894 -0.028266823 0.10217263 -0.0051180674
000080 37 99 34 3d 33 02 d7 3b a9 08 70 bc f3 08 e7 3c
       0.04409143 0.0065615415 -0.014650502 0.02820251
000090 ff 5c 55 bc 96 c1 3d bd 10 cd d0 bc f1 ff 8e bc
       -0.01302266 -0.046327196 -0.025488406 -0.017456027
0000a0 d5 8d d3 bc 0a 70 06 3d 78 ad 4b bd c7 7f 2e 3d
       -0.025824467 0.032821693 -0.04972598 0.042602327
0000b0 b0 1d 37 bd a5 98 32 ba 60 a2 92 bc 08 19 2c bd
       -0.044706047 -0.0006812907 -0.017899692 -0.04201606
0000c0 7b 21 0c bd 8a a1 fc bd 16 c3 90 bc e8 94 1b bd
       -0.034211617 -0.12335499 -0.01767115 -0.037983805
0000d0 54 c9 17 3d ad 7b 65 be 52 79 51 bb 8d 8b 1c 3d
       0.037057236 -0.2241046 -0.0031963182 0.038219023
0000e0 10 35 00 be 1f 4f 00 bc 19 06 48 3b ce 9f fd 3b
       -0.12520242 -0.007831364 0.0030521213 0.0077399975
0000f0 ee a3 1e be e2 07 cf bc d9 31 92 bb 47 18 32 3d
       -0.15492222 -0.025272314 -0.0044615087 0.043480184
000100 65 bf 99 bc 1a 1b f2 3b d4 2f e9 39 02 24 84 bd
       -0.018768022 0.0073884847 0.00044476858 -0.064521804
000110 09 fb 67 3a c6 de 35 3b 77 2b cb bc 8a d2 1c bd
       0.0008849358 0.0027751192 -0.024801 -0.038286723
000120 8d be e9 bc 09 a6 35 bd 86 e6 83 3c 17 0a 82 3d
       -0.028533245 -0.044347797 0.016101133 0.06349581
000130 14 5e ab bc 66 f2 92 bc 1d 50 bb 3b 51 7b 74 bc
       -0.020918883 -0.01793785 0.0057163374 -0.014921979
000140 df e1 e8 bc 86 d9 f7 bd 8e 98 09 bd 1b 4f 62 3d
       -0.028428016 -0.12102036 -0.033592753 0.055251222
000150 eb df 60 3d 22 e0 0a 3b ff 40 de bc 80 e4 43 be
       0.054901045 0.0021190722 -0.027130602 -0.19130135
000160 d5 0a 9e bc 1a c8 08 bd 9d 47 0f bb 24 fa 84 bd
       -0.019292274 -0.033393957 -0.0021862753 -0.06493023
000170 d0 ee ee 3b 4b 48 91 bc 1b f0 33 3d 8c d7 50 3e
       0.0072916523 -0.017734667 0.043930154 0.20394725
000180 87 66 b4 bc dc 46 85 3c 35 19 39 3d 85 78 7d 3c
       -0.022021545 0.01626914 0.045190055 0.015470629
000190 df e5 3b bd d0 1f 3d bd 4a 74 28 bd c9 e5 00 be
       -0.04587352 -0.046172917 -0.041126527 -0.12587656
0001a0 88 00 db 3c 59 6e 08 be f2 4b 49 3b e0 10 4a 3c
       0.026733652 -0.13323344 0.0030715433 0.012333125
0001b0 8f 67 3d be 5d 43 be bd 5c fe 97 3b 49 e3 ae bc
       -0.18496536 -0.09290192 0.0046384763 -0.021348612
0001c0 af f4 aa bd 68 e7 62 bc a4 72 57 bd 5e 70 e0 3a
       -0.08347451 -0.013849117 -0.052599564 0.0017123332
0001d0 9a 4a 8b bd ab 68 24 3d 86 6b ca bd 49 ef a6 bd
       -0.068013385 0.04013888 -0.0988379 -0.08151109
0001e0 f9 57 e2 3c 58 78 3d bd 08 66 86 3d e5 6c 15 3d
       0.02762984 -0.046257347 0.0656243 0.036480803
0001f0 26 97 9b ba df 40 aa bc 78 2e e3 bc 76 2c 5d 3c
       -0.0011870607 -0.020782886 -0.027732119 0.01349937
000200 e2 95 bb bd 5c ca 2d 3d 4c ab 08 bb 4f 24 bc bc
       -0.09159447 0.042429313 -0.0020854054 -0.022966532
000210 d9 70 77 bd 31 ee 12 bd 58 07 60 bc 3a 2b b5 3c
       -0.060410354 -0.03587169 -0.013673626 0.022115339
000220 0c 78 bb bd 52 a7 43 3d 4a bb c7 3c 69 d8 8c bd
       -0.091537565 0.04776699 0.024381299 -0.068772145
000230 1c 8b 46 bb a7 5c a4 bd c3 46 6c bc ff 29 06 bb
       -0.0030295318 -0.080254845 -0.014421168 -0.002047181
000240 e0 5a c8 3c 70 24 17 3c 7f 0f cc 3c 23 86 14 bd
       0.024457395 0.009224996 0.024909733 -0.036260735
000250 69 d6 f7 bd 99 9d 60 bd 59 63 72 bd 06 4e 21 bd
       -0.12101442 -0.054837797 -0.059176777 -0.03938105
000260 63 54 ca bc 12 48 21 bd 46 a2 02 3d 62 59 89 bd
       -0.024698442 -0.039375372 0.031893037 -0.067065015
000270 9c 80 c7 bd 98 2e 3f 3d db 43 05 3d 99 92 13 3d
       -0.09741327 0.046675295 0.032535415 0.03602848
000280 af 9b 0b bd 90 98 68 3c 6f 82 4a bc 89 a0 1f bd
       -0.03408402 0.01419653 -0.012360199 -0.038971458
000290 1d 77 8d 3d b7 06 24 3e d1 a3 30 3c 4b d9 ce bd
       0.06907485 0.16018187 0.010781244 -0.10100039
0002a0 ca 29 d8 ba f4 e7 a7 bc 84 11 64 3d 4a 29 9b 3d
       -0.0016491946 -0.020496346 0.055680767 0.07576235
0002b0 83 05 be 3b a3 52 92 ba 92 de 8e 3c a9 02 4c bc
       0.005798997 -0.0011163544 0.017440114 -0.012451806
0002c0 f0 f3 ed bd 5e e0 e0 3d 68 6f 1d bd e8 fa 0d be
       -0.11618793 0.10980295 -0.038436323 -0.13865244
0002d0 9d 7f 42 bc 01 b5 4b 3c 74 e6 00 be fd c5 35 3d
       -0.011871246 0.012433291 -0.12587911 0.04437827
0002e0 ad 58 52 3d a9 f1 25 3d 5b 8b 8f bd cf cd 93 3c
       0.0513541 0.04051367 -0.07009002 0.018042473
0002f0 bc f2 19 bd 21 cc 84 bd be da 94 bd 9b 62 b0 bd
       -0.037585005 -0.06484247 -0.07268284 -0.086125575
000300 91 71 d7 3c 70 1d 2f bd 26 3d ba 3c ae 4d 80 3c
       0.02629927 -0.042752683 0.022734236 0.01566204
000310 cc 95 f3 bd e5 1a 9c bc d6 40 24 3c 3f f9 22 bd
       -0.11893806 -0.019055793 0.010025224 -0.03978848
000320 e8 76 bf 3c f2 25 3b bd 1e 89 a6 3d d7 fc de 3c
       0.023372129 -0.045690484 0.08131622 0.027220173
000330 31 2e e8 bc cb b4 17 3e 42 61 3c 3c e4 96 88 bc
       -0.028342338 0.14815061 0.011497797 -0.016673513
000340 d0 f1 7e 3d 35 8e a9 bb 97 24 19 bd ac 70 27 bd
       0.06224233 -0.005174423 -0.03738841 -0.040878937
000350 f6 61 3e 3c 8d 24 0d be b4 d7 ba bd 1b 38 f9 3c
       0.011620035 -0.13783474 -0.09123173 0.030422261
000360 18 41 7a ba bd 8e 88 3c 9f 69 f1 bb d3 c1 c3 bc
       -0.0009546443 0.016669625 -0.0073673273 -0.023896134
000370 fb 03 bc 3d d3 c6 96 bd e3 c9 fe bb b6 a3 26 bc
       0.09180447 -0.073621415 -0.0077755316 -0.010170868
000380 83 74 c5 3b 90 ef bd bc 8e 97 1e be 81 4f 05 bd
       0.006025852 -0.023185521 -0.15487501 -0.032546524
000390 65 b8 67 3d d6 3b ba 3c 6a f4 d6 bd 0b ea 83 3d
       0.056572337 0.02273361 -0.10495837 0.064411245
0003a0 4e c1 a1 3d 13 55 4a 3d 67 fd 01 3d 5a 0c ae 3c
       0.07898198 0.04939754 0.031735804 0.021246124
0003b0 64 e0 52 3d c4 2c e4 3d 8e 7f 3c 3d d9 a5 0a bd
       0.051483527 0.11141351 0.046020083 -0.03384957
0003c0 15 7a 1a bd 6f 73 d1 bd 6b 36 e5 3b 55 be 62 bc
       -0.037714083 -0.10227095 0.0069950125 -0.013839324
0003d0 41 d4 7d 3d 22 12 e4 3b c2 e6 78 bd 47 5d 7c 3d
       0.06197 0.0069601694 -0.060766943 0.061612394
0003e0 0a 6a 19 3c cd e8 41 bd 4c bf 63 bd 57 63 57 bc
       0.009363661 -0.047341157 -0.055602357 -0.013146243
0003f0 56 9a 3b bd a1 37 e5 bc 3a df dc bc 3d 54 9f ba
       -0.045801483 -0.027980627 -0.026961911 -0.0012155842

bias f4 [3]
000000 67 30 d9 bd ea 1e 0f be 17 e9 fe bd
       -0.10604935 -0.13976637 -0.12446802

weight f4 [256, 18]
000000 39 12 79 be 0a a3 a9 3d e1 b9 dd bc 2c 8c 2d 3d
       -0.24323358 0.0828305 -0.027066173 0.042370006
000010 b8 5d 37 be f0 b4 90 bd b7 0f 60 3e 28 3e 99 3e
       -0.17906845 -0.07065761 0.21880995 0.29930234
000020 c6 48 29 3e 09 e7 60 3c 43 a8 8d 3e 1c 85 15 bd
       0.16531667 0.013726958 0.27667436 -0.036503896
000030 c8 13 06 3e e0 c7 84 3e 11 7c c5 3d 5f 48 1d 3e
       0.13093483 0.25933743 0.096428044 0.15359639
000040 14 c4 2c be 57 da 58 3e 51 38 09 3f 92 41 24 be
       -0.16871673 0.2117704 0.53601557 -0.16040638
000050 10 ce 18 be 1f 39 e3 bd 58 2d d4 3c 18 78 ab 3e
       -0.14922357 -0.11094879 0.025900528 0.33490062
000060 3d e1 6b be e7 a3 6d 3e 91 9a 48 3e 4e 36 56 3e
       -0.2303514 0.23207055 0.19590212 0.20919153
000070 68 73 73 3e e8 75 e6 3d fd ea 86 3d d5 80 3c 3e
       0.23774493 0.112529576 0.06587789 0.1840852
000080 f1 76 86 bd 0b 1a 95 3e bf b4 2f be 77 20 ea 3d
       -0.06565655 0.29121432 -0.17158793 0.114319734
000090 ae 54 98 be 08 67 af bd 85 5c ea bc e5 97 84 3e
       -0.29752105 -0.085645735 -0.02860857 0.25897136
0000a0 c0 7d e1 bd 90 d3 1f 3e a0 e2 fa bc 33 fd 8e 3e
       -0.11010313 0.15608048 -0.030625641 0.2792755
0000b0 db b8 15 3e 1a 25 e3 bd f1 90 7f 3e 52 61 81 be
       0.14621298 -0.11091061 0.24957635 -0.25269562
0000c0 06 fc 26 bd ac 35 a7 bd 35 1f c3 bd e5 e1 d0 bb
       -0.040767692 -0.08164534 -0.09527437 -0.006374585
0000d0 d4 0a 1a be 58 42 77 be 73 d6 29 3e 8d fb 6d 3e
       -0.15043193 -0.24146402 0.16585712 0.2324049
0000e0 85 b2 87 bd 4b 39 a2 be b0 21 15 be b0 c3 88 bd
       -0.06625847 -0.31684336 -0.14563632 -0.066779494
0000f0 77 e4 4d 3e da 8d 72 be b3 8d 4d bc 00 16 fc 3d
       0.20106684 -0.23686925 -0.012545991 0.12308884
000100 12 fd 63 be c8 46 18 be 23 12 80 be 6a e8 57 3d
       -0.22264507 -0.14870751 -0.25013837 0.05271188
000110 82 5d 42 3d 60 76 05 3e 76 37 3e be c3 f2 5a 3e
       0.047452457 0.13033438 -0.18575844 0.21381669
000120 de 83 aa 3d 9d ec 2b 3e 49 17 46 be 5a 48 9a be
       0.08325933 0.1678948 -0.1934482 -0.30133325
000130 74 23 f8 bd fa 00 a2 be ea 64 b8 bd 90 15 66 be
       -0.12116137 -0.3164137 -0.09003623 -0.22469163
000140 d6 e5 61 3c fe c7 39 3d 68 b5 1a 3e d9 81 33 be
       0.013787707 0.045356743 0.15108263 -0.17530002
000150 98 da 0c bd 54 67 d6 3d 65 58 27 be 2a d7 85 3e
       -0.034388155 0.10468927 -0.16342314 0.2614072
000160 09 b3 1d be 21 5f a8 bd 26 da da bd bc 9d c0 bd
       -0.15400328 -0.082212694 -0.1068614 -0.094050854
000170 0a a9 2c 3e 2e 6d 0b 3c 18 c0 e4 bc 38 66 0b be
       0.16861358 0.008509917 -0.027923629 -0.13613212
000180 a4 c6 3a be 58 8f 57 3e 82 d0 47 3e 96 0a a8 bd
       -0.18239838 0.21050775 0.19513133 -0.08205144
000190 d3 5f 3d be c8 09 53 be e4 6f 05 be 84 be ea 3d
       -0.18493585 -0.206092 -0.13030964 0.11462119
0001a0 d6 19 69 3d ff 0f bc 3d 5b af cd bc dc 68 d6 3c
       0.056909405 0.091827385 -0.02510803 0.026173048
0001b0 90 af 2a 3d 0f 18 07 3e 60 09 7d bd ac c2 54 3e
       0.041671336 0.13192771 -0.06177652 0.20777386
0001c0 f3 04 65 be f6 75 a3 3d d4 00 39 be d4 54 13 3e
       -0.22365169 0.07981484 -0.18066722 0.14387828
0001d0 95 4e 50 3e 65 92 3b 3e 7a df 35 3e e7 5e c4 bd
       0.20342477 0.18317564 0.17761031 -0.09588414
0001e0 c2 09 39 be 91 82 0f be 47 2e 63 3e a6 0c b4 3e
       -0.18070129 -0.14014651 0.22185622 0.351659
0001f0 e3 bf 90 3d c1 48 09 3e a0 b3 2b be 3d ce 30 3e
       0.070678495 0.1340666 -0.1676774 0.17266174
000200 3f ea fd 3d 64 be b0 3d e4 81 08 bd 1e ab 2f 3c
       0.123981945 0.08630064 -0.033327 0.01072195
000210 75 e4 52 3e 83 c7 5f 3e 0e 4a 19 be 93 68 92 3d
       0.20594962 0.21853451 -0.14969656 0.07148852
000220 a3 64 88 3c 10 b5 6e be 12 57 56 bc 4b 7f 25 be
       0.01664955 -0.23311257 -0.013082283 -0.1616184
000230 17 08 9a 3d c2 3b b2 3d dd cc d3 be bf 45 c1 3b
       0.07521074 0.08702804 -0.41367236 0.005898207
000240 0e 9e aa 3e a4 f4 2b bd 69 05 b5 bd 20 68 8f 3e
       0.3332371 -0.041981354 -0.088389225 0.2800913
000250 c1 8b 5e 3e 80 a0 44 3e de 0a 90 bd b0 cb f9 3d
       0.21733 0.19201851 -0.07033323 0.121970534
000260 01 95 38 be 83 34 82 bd be 31 8f 3e e0 fe af 3d
       -0.1802559 -0.06357672 0.27967638 0.085935354
000270 42 01 6f be 38 cb cb 3d 28 bc d9 bd ae 40 a6 bc
       -0.23340324 0.0995087 -0.10631591 -0.020294514
000280 f5 dc 07 3e b1 17 aa 3d a9 60 2e 3d 0b 7c 68 be
       0.13267882 0.083053 0.04257265 -0.22703569
000290 10 8a 4c be 6c 1e 6c 3e 2e 50 e1 3d 99 67 cd 3d
       -0.19974542 0.2305848 0.11001621 0.10029525
0002a0 ac 4b 66 bd 49 dc 2a 3e e4 e8 b7 bd 8a 7c b9 bd
       -0.05622451 0.16685595 -0.08979967 -0.09056957
0002b0 c3 37 49 3c 94 21 2f 3e 90 49 f0 bd a4 82 92 39
       0.012281361 0.17102653 -0.11732781 0.00027944625
0002c0 e6 a3 79 3e 50 c3 c3 3e 7f 8e a3 bd 51 97 2e be
       0.24378929 0.3823495 -0.07986163 -0.1704991
0002d0 8b 99 e1 bd f4 4c 5d 3d 32 0b 1c 3e 64 ed e0 3d
       -0.11015614 0.054028466 0.15238646 0.10982779
0002e0 60 b6 25 3c bc 6e 5e 3d 95 23 27 3e 30 c6 9c 3d
       0.010114282 0.054304823 0.16322167 0.07654989
0002f0 90 e6 68 3e a9 2e 35 3e 09 74 81 bb 56 c2 17 be
       0.22744203 0.1769358 -0.0039506 -0.14820227
000300 87 86 22 3d 15 d2 31 bb f6 37 03 be 46 7c 3d be
       0.039679077 -0.0027133275 -0.12814316 -0.18504438
000310 74 93 07 be a5 6a 11 be 27 90 54 be 14 34 64 bd
       -0.13239843 -0.14200838 -0.20758115 -0.055713728
000320 a3 e8 42 3e 92 74 dc bd 05 c8 6f be ef a1 fa 3b
       0.19034056 -0.107644215 -0.23416145 0.0076486985
000330 0c 5a 0c 3d 02 af 8c 3d c9 da 2e be 71 fc e3 bd
       0.034265563 0.068693176 -0.17075647 -0.11132134
000340 c6 1b 2a 3e 57 a4 5c be e7 bb 65 bd 2f fe 64 bc
       0.16612157 -0.21547066 -0.0560874 -0.013976618
000350 ba 0c ee bd 93 d8 aa bd f3 d8 17 be 55 70 03 bb
       -0.11623521 -0.083420895 -0.14828853 -0.0020055969
000360 be 22 55 3d c5 3b 27 3e a8 b3 fd bd c7 fc 48 3e
       0.052035086 0.16331394 -0.12387782 0.19627677
000370 65 17 08 be c5 ac 9d 3b c8 29 8d 3c 4f 38 45 3e
       -0.13290174 0.0048118555 0.017231837 0.19259761
000380 41 55 d3 3d a6 26 39 be 58 6b 20 bd 59 cb e1 bd
       0.10318995 -0.1808115 -0.03916487 -0.110251136
000390 40 f0 31 be 1f 3f c6 3d 4a 40 5b bd 20 54 25 be
       -0.17376804 0.09680008 -0.053528108 -0.16145372
0003a0 2a 2c 31 be 2b a8 38 bd 4c f6 30 bd 28 ce 8d bd
       -0.17302004 -0.045082252 -0.043203637 -0.06924087
0003b0 e7 df 79 3c 94 a5 c0 3e 83 4f 5e be b3 9a 01 3e
       0.015251136 0.37626326 -0.21710019 0.1265667
0003c0 54 72 05 bd 9d 56 2f be 99 64 96 3d 8d ae 5c 3e
       -0.032579735 -0.17122884 0.07343406 0.21550961
0003d0 40 a4 52 3e 67 12 8d 3e 88 96 c5 3c 92 45 d1 3d
       0.20570469 0.27553102 0.02411963 0.102183476
0003e0 38 6e 1f be 93 9a f7 bc 5c 4d 2d 3e 01 30 f7 3d
       -0.15569389 -0.030225074 0.16924042 0.12069703
0003f0 fb f8 33 3d 3e 1d 9a 3d 3a 4b c1 3d 20 9e db bd
       0.04393862 0.07525109 0.094381765 -0.10723519
