data/cmd_sac_pytorch_envhalfcheetahpybulletenv-v0/cmd_sac_pytorch_envhalfcheetahpybulletenv-v0_s0/pyt_save/model.pt (torch_old, 905974 bytes, 18 tensors)

weight f4 [256, 26]
000000 44 98 d5 bf da 75 d7 3d 3d 12 1b bf 52 57 cf be
       -1.6687093 0.10520525 -0.60574704 -0.40496308
000010 16 b2 9a bd c9 64 82 3f 00 a7 7e bb d7 7b d0 3f
       -0.075534984 1.0187007 -0.0038856864 1.6287793
000020 32 c9 97 be 89 be 67 3f 0b 5d 2a 3d dc 26 40 3e
       -0.29645687 0.9052511 0.04159264 0.18764824
000030 b7 3d 8e be 8a 8c 8c bd c4 ae 60 bf f6 f3 e4 3e
       -0.2778146 -0.06862743 -0.8776667 0.44717377
000040 cb ee 2d bc 8a 2f 6e 3d 96 39 9e bf d4 d4 45 bf
       -0.010616015 0.058150806 -1.2361324 -0.77277875
000050 92 a8 98 be cd c2 26 3e 4c 51 25 bd 19 86 1e 3e
       -0.2981611 0.16285248 -0.040360734 0.15480842
000060 2c 7a 01 bd c8 ff a9 3c 7e 9c b8 3f 27 4c 3a be
       -0.031610653 0.020751849 1.4422758 -0.18193112
000070 16 e5 79 bf f3 01 83 bf c0 8f 9c bd 42 4b 51 3f
       -0.9761518 -1.023497 -0.07644606 0.8175546
000080 5a 2b 02 be 41 e0 50 be 26 b5 9a be 39 d4 be be
       -0.1271185 -0.20398046 -0.3021633 -0.37271288
000090 46 53 9d be 2f 93 68 be 48 ba f1 3b 02 8c f3 3c
       -0.30727595 -0.22712396 0.007376943 0.029729847
0000a0 7d 57 b2 be 1a ab 0f bf b2 8b 14 bf 47 d8 84 bd
       -0.34832373 -0.56120455 -0.5802566 -0.06486564
0000b0 21 59 19 bf 6b ff ce bd 1c 97 81 3d 56 7e eb 3d
       -0.59901625 -0.10107311 0.0632765 0.11498706
0000c0 c1 20 b2 bd 93 34 a6 be 3f 70 00 3e 0d a5 47 3e
       -0.086976536 -0.32461986 0.12542818 0.19496556
0000d0 3c e2 64 40 b8 09 d9 3c fc 7a 1f 3d 12 b5 f9 be
       3.5763083 0.026493892 0.038935646 -0.48770958
0000e0 48 b0 15 3d dc f4 fb 3e 06 30 0b be b0 65 05 be
       0.036545068 0.4921025 -0.13592538 -0.13027072
0000f0 a0 73 40 3f 61 2b df 3e f0 0c 79 bd 42 43 75 3e
       0.7517643 0.43587783 -0.060803354 0.23951438
000100 4f 33 28 be 6d 3d 05 3d 8c fc b2 be 8f 0b b5 3e
       -0.16425823 0.032529283 -0.34958303 0.3536038
000110 e8 64 d4 bd e8 b4 66 3e 76 68 56 be 4d e9 00 3e
       -0.10370809 0.22529948 -0.20938286 0.12588997
000120 63 40 13 3f 47 64 26 3e f1 c1 2e 3e 42 5e d6 3d
       0.5752012 0.1624919 0.1706617 0.10467197
000130 e0 dd 1f 3d d3 a1 2e be fd 49 06 3f 94 45 fb bd
       0.039029956 -0.17053919 0.5245665 -0.1226913
000140 02 df 2d bf c1 ff 28 bf 9b b2 18 3e 02 8b 41 3f
       -0.6791841 -0.6601525 0.14911883 0.75602734
000150 90 5a 16 3d c6 61 9a bf cb f8 8a be a1 58 64 3c
       0.03670746 -1.2061088 -0.2714294 0.013937146
000160 1d e1 8c 3f da e2 27 bf 00 40 a6 3e fe a1 54 3e
       1.1006199 -0.65580523 0.32470703 0.2076492
000170 27 a9 06 3f be d5 eb 3e c2 07 e7 3e 96 01 41 be
       0.52601856 0.4606151 0.45123106 -0.18848261
000180 96 8e 11 3d 2f d9 9c 3c c5 d3 19 3e 88 46 e7 bd
       0.03553637 0.01914653 0.1502219 -0.1129275
000190 8d ec 3c 3e a2 22 08 3d b0 20 af bd 20 2d 4a bd
       0.18449612 0.033236153 -0.085511565 -0.04935944
0001a0 d2 1b d1 3e 00 04 67 bb 60 4d bf be 0a 3a 05 bf
       0.40841538 -0.0035250187 -0.3736372 -0.52041686
0001b0 50 0b 31 bc db 33 85 3d 73 7c a4 bd a9 8f 2d 3f
       -0.01080592 0.06504031 -0.08031549 0.67797333
0001c0 8d a8 3e 3e e2 b4 45 3e 9f 3e 90 bf e6 d3 a3 be
       0.18618985 0.19307283 -1.126911 -0.31997603
0001d0 11 35 08 3e 67 2e b9 3d 51 90 34 3d 06 6b 18 3f
       0.13301493 0.09042054 0.044082943 0.59538305
0001e0 e4 ca 2f be 7b 22 5b bc 00 c0 05 bf 66 0d fa 3e
       -0.1716724 -0.01337492 -0.52246094 0.48838347
0001f0 0e c8 d9 bf e5 0e ee bd 80 16 49 bd 80 9a 83 bf
       -1.7014177 -0.11623935 -0.049093723 -1.0281525
000200 56 82 8c bd 4c 99 24 be a4 13 eb bf 74 b5 2b 3d
       -0.06860797 -0.16074103 -1.8365369 0.041921094
000210 90 53 1e be d9 b5 95 be 5f c2 0f 3e ad 80 a9 be
       -0.15461564 -0.292403 0.1403899 -0.33105984
000220 20 9a b2 3b 98 b9 f5 3f d7 97 bd be 97 87 e1 be
       0.005450502 1.9197264 -0.37029907 -0.4404876
000230 4e 1e e5 3e 4e 87 97 3c e9 a0 18 3d ea 82 5a bd
       0.44749683 0.018497135 0.03726283 -0.053347506
000240 c2 19 25 bf 9a f4 18 bf 89 47 3f bf b1 15 f3 be
       -0.6449243 -0.5974823 -0.7471853 -0.47477487
000250 53 10 82 bf 3b 5a 07 bf ca ef 50 be 07 7f 29 be
       -1.0161232 -0.52872056 -0.20403972 -0.16552363
000260 e4 ef 22 bd 18 80 92 3e 6e 25 d9 3d 16 ae 41 be
       -0.03977956 0.28613353 0.10602842 -0.18914065
000270 70 c7 35 bb 55 25 1d be 94 86 f7 be 3d 61 b5 3e
       -0.0027737282 -0.15346272 -0.48344862 0.3542575
000280 ec b9 1a bd 66 e1 59 3e 5c 35 34 be d2 52 df be
       -0.037774965 0.21277389 -0.1759848 -0.43617874
000290 9e 6b e0 be f2 82 56 bf c1 52 43 3e 9e e9 23 3f
       -0.43832105 -0.83793557 0.19074537 0.64028347
0002a0 15 c3 0e 3d 90 d2 1c bd 9e a4 fb be eb 4d b5 3d
       0.034854013 -0.038286746 -0.4914903 0.08852752
0002b0 7f 50 e4 3e 81 64 5b 3e 57 b5 76 bf 1b 71 f7 3e
       0.44592664 0.21425058 -0.9637045 0.4832848
0002c0 4c 18 f5 bc 26 4c b3 bd b5 96 20 3e 9d ed d1 be
       -0.029918812 -0.087547585 0.1568249 -0.41001597
0002d0 f0 64 ac 3c 24 2f 28 bd af b1 96 bf 04 3c 60 3d
       0.021044225 -0.04106058 -1.1772975 0.054744735
0002e0 e0 b1 97 3d 73 1b 7a bf dc 2b 41 bd 4f 67 a7 be
       0.07406974 -0.97698134 -0.04716097 -0.32696006
0002f0 94 7e 25 be fa c3 48 bf e3 e9 ad 3f ba 97 3e 3e
       -0.16161567 -0.78424037 1.3587002 0.18612567
000300 5b 97 cd 3e ee 89 b5 3e 35 4c d9 be d1 93 4f 3d
       0.40154538 0.35456795 -0.42440954 0.050678078
000310 d8 d6 5a bf db 8c 3f be cc 04 00 bf e4 04 98 3e
       -0.85484076 -0.18706076 -0.5000732 0.2969123
000320 66 c2 af be 45 2b d2 3e 06 98 8f bf 0e de 09 be
       -0.34328002 0.41048637 -1.1218269 -0.13463613
000330 65 38 e9 bd 7f cd 95 3e ac 60 90 bd 51 64 29 3e
       -0.113877095 0.29258344 -0.07049689 0.16542174
000340 dc 26 4a bf 70 6f cb 3c ce 32 30 be be 16 8d 3f
       -0.78965545 0.024833411 -0.1720688 1.1022565
000350 78 92 c9 3c 77 be 5e bf 00 9e b4 ba be a1 db 3e
       0.024605975 -0.87009376 -0.0013779998 0.42896837
000360 3c 14 b0 be 2b 78 68 be b6 81 81 3f 6a e0 21 bf
       -0.34390438 -0.2270209 1.011771 -0.63233054
000370 26 44 7d be 86 d2 ee bd a3 fe 7d be 04 93 8b bc
       -0.24733028 -0.11661248 -0.24804167 -0.017037876
000380 b4 eb df 3d 99 f2 6b 3e af dd 9f bf 10 c2 20 be
       0.10933629 0.23041762 -1.2489527 -0.15699029
000390 a2 0c cc 3e 28 ea ed bc 00 96 0c 3b f2 70 1c be
       0.39853388 -0.029042318 0.0021451712 -0.1527746
0003a0 60 90 c8 3c 2b e0 33 3e af a1 d5 3c 15 ed fd bd
       0.024482906 0.17565982 0.026078073 -0.123987354
0003b0 df 69 76 be 19 8e ba be 45 3a aa bd f7 82 35 3f
       -0.24063824 -0.36436537 -0.08311895 0.7090296
0003c0 ca 9e 84 3d 45 03 29 3f 0d 2b 9f be 79 04 78 3d
       0.06475599 0.66020614 -0.31087533 0.06055114
0003d0 68 58 13 3f 04 16 9c be ab 6a d7 3e 2d ff 69 be
       0.5755677 -0.30485547 0.4207357 -0.22851248
0003e0 7e 55 15 3e 6d c7 2c be dc 5a 2b bf 10 68 d5 3d
       0.14583394 -0.1687295 -0.66935515 0.10420239
0003f0 b0 cc 81 be 6f ac 6a 3e b6 23 3f 3f 53 8b 94 bd
       -0.25351477 0.2291734 0.74663866 -0.072531365

bias f4 [256]
000000 04 fd 83 be 98 e7 68 bf ee 17 83 3d e6 85 06 bf
       -0.25778973 -0.90978384 0.064010486 -0.5254806
000010 97 ab 47 be fd b6 a7 bc 7d ea e0 be 3b ec 10 bd
       -0.1949905 -0.020472998 -0.439289 -0.035381537
000020 44 62 b3 be 26 81 9f be 05 5e 2f be f9 4b c6 be
       -0.35035908 -0.3115322 -0.1712571 -0.38729838
000030 00 02 33 be f3 c1 19 bd c4 4f 39 bf 04 12 56 be
       -0.17481232 -0.03753848 -0.7238734 -0.2090531
000040 81 04 1e bf ca 7e 98 bd 50 a8 3f bf c8 a1 38 be
       -0.6172562 -0.07446058 -0.748662 -0.18030465
000050 12 05 b4 3d 09 f5 0f bf 64 a7 1f bf 23 b9 60 be
       0.087900296 -0.5623327 -0.6236479 -0.21945624
000060 c4 be 97 bc 16 ba 64 bd ea 48 86 3d 9b 74 8f be
       -0.018523581 -0.055841528 0.06556876 -0.2801865
000070 2c 46 50 bf b6 54 31 bf e8 4b 05 bf da cd 7c bb
       -0.81357074 -0.69269884 -0.5206895 -0.0038574846
000080 33 73 f1 be 58 9f 27 bf 4b 68 0b 3d ac 91 c1 be
       -0.47158203 -0.65477514 0.03403501 -0.3780645
000090 e8 57 a8 be 88 6a c2 be ea 05 fe be 81 d3 5b 3d
       -0.32879567 -0.37971902 -0.49613887 0.053668503
0000a0 c3 28 e5 be 28 6d d8 bd 3c 9a 7d bf 42 4a 60 be
       -0.4475766 -0.10567695 -0.9906347 -0.21903327
0000b0 a3 c3 4d bf 6f b0 16 bf bc d4 c4 3e 18 5c 22 bf
       -0.8037664 -0.58862966 0.38443553 -0.63421774
0000c0 b9 7c 25 be 1c a6 a2 be 01 2f ab be 8f 89 41 bf
       -0.16160859 -0.31767356 -0.334343 -0.7560052
0000d0 ad ee 6f be ce d2 1f bc be d2 5d be dd 21 1a bf
       -0.23430891 -0.00975485 -0.21662423 -0.6020792
0000e0 1d d0 e1 be c2 e1 43 bf ce 15 3a bd 7e 87 b7 be
       -0.4410409 -0.76516354 -0.04543095 -0.3584556
0000f0 c1 33 cb be aa 7b eb be 9f f9 7e bf 49 f5 75 3d
       -0.39687923 -0.45992786 -0.9959964 0.060048375
000100 46 64 08 bf 9b bc 0c bf 06 ad 76 be f7 0e 0e bf
       -0.53278005 -0.5497529 -0.2408944 -0.55491585
000110 f6 5f d8 be a2 c6 c2 3d e9 5d c5 be c6 3c 97 be
       -0.42260712 0.095105425 -0.3854821 -0.29538554
000120 00 76 08 bf ef fe 09 bf f8 aa 32 bf 9b 6a 0e bf
       -0.53305054 -0.5390462 -0.6979213 -0.5563142
000130 95 71 9d 3c 97 a4 de be 4d 1c 2c bf 79 28 1c 3e
       0.0192192 -0.43484947 -0.67230684 0.15249814
000140 d4 ec ef be 25 35 4b bf 12 62 85 bf 91 0c 96 be
       -0.46860373 -0.7937797 -1.0420554 -0.29306462
000150 2f 14 23 bf e4 be 76 be 20 9d fb be 60 30 43 be
       -0.6370267 -0.24096256 -0.49143314 -0.19061422
000160 62 c1 ab be f6 58 39 be 91 f0 0d bf 1e 33 17 bf
       -0.33545977 -0.18100342 -0.554452 -0.59062374
000170 cd 4f 48 be 18 50 b6 be 1d 45 06 bf 0b fe cf be
       -0.19561692 -0.35607982 -0.5244921 -0.40623507
000180 2c 4e 23 bf 2c 2c 07 bf ac 6e e5 3c 1c 16 a4 bd
       -0.63791156 -0.52801776 0.028006874 -0.080120295
000190 1f 2a 78 be ae 11 e8 be 5b 67 84 be 35 4d 0d bf
       -0.24234818 -0.4532599 -0.25860104 -0.55195934
0001a0 32 20 d2 be 84 ea 14 bf ad e5 88 3e f9 77 02 bf
       -0.41040188 -0.5817034 0.2673773 -0.50964314
0001b0 c1 29 3c bf b8 20 a9 be b7 25 51 bf 54 b1 68 be
       -0.7350121 -0.33032775 -0.81698173 -0.22723895
0001c0 7f a6 d3 be e5 2c 4d bf af 4f 2e bf ca 16 be be
       -0.41337964 -0.8014663 -0.6809034 -0.37126762
0001d0 3f b3 20 be 6b a7 84 bf 9e 26 24 bc b2 62 48 be
       -0.15693377 -1.0363592 -0.010018973 -0.195689
0001e0 63 d2 a8 be e9 d7 ee bd bd 6e 4b be f0 1e 13 bf
       -0.32973012 -0.11662275 -0.19866462 -0.5746908
0001f0 dd 0e 34 bf 93 8e 18 bf a9 e0 4a bf df f3 8b bd
       -0.7033518 -0.5959255 -0.79249054 -0.06833624
000200 21 b3 f8 be c8 a1 2f be 30 d3 10 bf 95 a5 ea be
       -0.48574165 -0.17151558 -0.56572247 -0.45829454
000210 a9 10 ba be 38 09 16 bf f6 3c 51 bf c4 8c 47 be
       -0.36340836 -0.58607817 -0.81733644 -0.19487292
000220 d5 fe a2 be da 06 13 be a8 10 0c bf 3d 3a 19 bf
       -0.31835046 -0.14358082 -0.54712915 -0.5985449
000230 ad 01 d4 be cc c9 f2 be 00 21 c5 be 0d b1 7d bf
       -0.4140753 -0.47419584 -0.3850174 -0.99098283
000240 9f cf a7 be ce 0f f8 be 61 f7 10 bf c2 9d f7 be
       -0.3277559 -0.48449558 -0.5662747 -0.48362547
000250 9d 3a 30 bf 56 a1 d5 be f0 63 c3 be c5 65 b2 be
       -0.68839437 -0.41724652 -0.38162184 -0.3484327
000260 48 ee 60 bd a8 cd 5e bf c6 85 d6 be 94 16 cd 3d
       -0.054914743 -0.87032557 -0.41898936 0.10014072
000270 8e e7 47 be b8 85 25 bf b9 c5 06 bf 79 dd 97 be
       -0.19521925 -0.64657164 -0.5264545 -0.29661158
000280 2d f0 d3 be fd 8e 86 be c0 53 87 bd 5c 69 b4 3d
       -0.41394177 -0.26280966 -0.06607771 0.08809158
000290 b3 ef 28 bf e0 51 18 bf 97 06 f0 bd f8 aa f7 be
       -0.6599075 -0.5949993 -0.11720007 -0.48372626
0002a0 b1 9a f0 be 16 23 04 bf 75 52 85 be 81 99 31 bf
       -0.4699302 -0.51616037 -0.26039472 -0.69374853
0002b0 cc e1 e6 3d 11 21 5d bf ea 27 9e be be 07 41 be
       0.11273536 -0.8637858 -0.30889827 -0.1885061
0002c0 38 3e 2c be 15 51 24 3e 85 d2 8d be 89 47 a2 be
       -0.1682061 0.16046555 -0.27699676 -0.31695202
0002d0 a1 3f 91 be bd 6e 7a 3d 0c de d4 be fd 61 17 3e
       -0.28368858 0.061140765 -0.41575658 0.14783473
0002e0 51 a6 57 bf c8 3c 54 bf 71 eb e5 be b9 99 20 bf
       -0.84238154 -0.82905245 -0.4490619 -0.6273456
0002f0 02 b3 3f bf f4 2b 24 bf bc fe 42 bf 25 57 f1 be
       -0.7488252 -0.6412957 -0.76169944 -0.47136799
000300 44 07 15 bf 5d 01 44 be 43 66 0a bf b7 7e f3 be
       -0.5821421 -0.19141145 -0.5406229 -0.47557613
000310 34 d8 49 be b9 07 07 bf 67 78 d7 be 3e 3d 19 bf
       -0.19711381 -0.5274616 -0.42084047 -0.59859073
000320 48 7c 52 be 29 1e d6 3d 62 20 32 bf 73 95 56 bf
       -0.20555222 0.10454971 -0.6958066 -0.8382179
000330 9d ab 90 be c9 02 d2 be 67 31 35 bf cd c0 c3 3d
       -0.2825593 -0.4101775 -0.70778507 0.09558258
000340 3b 72 b9 be 4a d5 20 bf fa d3 e1 bd bf 54 b0 bd
       -0.36219963 -0.62825453 -0.110267594 -0.08609914
000350 78 87 96 be 90 7d 67 3e 63 1f 09 bf 8a 91 b5 bd
       -0.2940023 0.22606492 -0.5356352 -0.0886565
000360 16 b2 b4 bd 8a 8d 20 bf af 7e 66 3e 14 69 85 be
       -0.0882303 -0.6271597 0.22509263 -0.2605673
000370 75 02 14 bf 31 30 bb 3e 20 44 18 bf 07 51 97 be
       -0.5781625 0.36560205 -0.5947895 -0.29554006
000380 17 47 1e bf b0 a8 60 bf 9a 00 4e bf e5 6e c9 be
       -0.61827224 -0.87757397 -0.8046967 -0.39342418
000390 0d 19 2e bf a3 2f a6 be 30 db 16 be 2f 9f 09 bf
       -0.68006974 -0.3245822 -0.14732051 -0.5375852
0003a0 e3 54 1c be ce cf ef be 9a f6 3e bf 45 3a f8 bd
       -0.15266757 -0.4683823 -0.74595034 -0.12120489
0003b0 e6 5a ed 3d c7 8f 04 3e a6 af 28 bf 16 73 83 bd
       0.11589603 0.12945472 -0.6589302 -0.06418435
0003c0 2e 15 00 bf 7e 1e 89 be c8 7d ac be 36 d4 8d 3c
       -0.5003232 -0.26781076 -0.33689713 0.017313104
0003d0 c5 66 7b be 0e a0 00 be 08 df b4 be 72 36 f7 be
       -0.24550922 -0.12561056 -0.3532641 -0.48283726
0003e0 c9 fd 17 bf 1f 92 31 bf b3 13 df be b6 8a 14 be
       -0.5937162 -0.6936359 -0.43569717 -0.14506039
0003f0 20 12 fc be 67 82 4c bf 42 43 b1 be d6 64 d1 be
       -0.49232578 -0.7988648 -0.34621626 -0.40897244

weight f4 [256, 256]
000000 bc ea 92 bd 7c fc 79 bd dc 29 a5 bd bb d2 74 bd
       -0.07173678 -0.061031803 -0.08064625 -0.05977128
000010 c7 b8 e4 3c 17 63 5b bd 9a 0e 87 bd 84 42 7a 3b
       0.02792014 -0.053561296 -0.06594582 0.003818662
000020 ed fc 16 3d 64 fb 29 bd 8f 92 8e bd 30 8b bb 3b
       0.036862303 -0.04149951 -0.069615476 0.0057233796
000030 27 04 2a bd ce df 09 bd 66 7f b4 bc df 56 03 bd
       -0.041507866 -0.033660702 -0.022033405 -0.03206527
000040 02 fd 06 3d 8c 48 86 bb f2 95 ac bd e8 9a f0 ba
       0.03295613 -0.0040980037 -0.08427037 -0.0018356713
000050 95 a9 25 bd 20 1a 84 3c ec d6 d2 bd 0d b3 65 bd
       -0.04044493 0.016125739 -0.10294899 -0.05607896
000060 f4 fa 11 bd be d0 2c bd 31 ae 85 bd 66 3f b9 3c
       -0.03563972 -0.04219126 -0.06527365 0.022613239
000070 66 3a e6 bc 92 94 89 3c 2f 94 91 bc 73 3a 4e bd
       -0.028104018 0.016794477 -0.017770855 -0.05034871
000080 e1 fc 25 bd 4b 52 15 3b 79 f2 8e bd 57 93 22 bd
       -0.040524367 0.0022784646 -0.06979842 -0.039691295
000090 66 9b a8 3c d2 b1 62 bd 38 d1 46 bd 05 84 92 bc
       0.020581912 -0.055345364 -0.04853937 -0.017885217
0000a0 24 0d 63 bd 51 c9 f8 3a 3a 49 ac bc d0 b8 3d bd
       -0.055432454 0.0018980895 -0.02103101 -0.04631883
0000b0 71 a3 7b bd df e9 37 3c 86 24 27 bd 37 59 77 bd
       -0.061435167 0.011225193 -0.040806316 -0.060387816
0000c0 2f b3 5d 3c 9d 47 3b 3d 63 4a 55 3c 55 13 4c bd
       0.01353149 0.045722593 0.013018223 -0.049823124
0000d0 1f 55 f7 3c a5 56 e3 bd 92 21 9c bd 70 46 29 3c
       0.030191956 -0.111005105 -0.076235905 0.010331735
0000e0 4c 99 9f bd 25 c1 df 3c 29 fe 1b 3d bb 04 9f bc
       -0.07792911 0.027313778 0.038084183 -0.019411435
0000f0 10 f3 cf 3c 2f e9 65 bd 44 10 5c bd c0 60 d2 bc
       0.025384456 -0.056130584 -0.05372645 -0.0256809
000100 b3 55 4a 3c c6 98 cf bd 1d cd b3 3c 05 3d b2 3c
       0.012349534 -0.10136561 0.021948392 0.021757612
000110 bd 45 bf bd 7f c0 a0 3c 55 cb fe bc 5f d8 ec 38
       -0.093394734 0.01962304 -0.031102816 0.00011293659
000120 40 59 cf bc f7 f1 eb bb 88 9d f4 bb 35 0f ab 3c
       -0.025311112 -0.0072004753 -0.0074650683 0.020881275
000130 6d 74 ab 3a 75 87 4f 3c 33 03 67 bc bd a0 cc bb
       0.0013080962 0.012666573 -0.014099884 -0.0062447474
000140 65 96 3d bd bc 64 09 3b c9 5e 33 bd 1c 1d 03 3d
       -0.046286006 0.0020964583 -0.043791566 0.032010183
000150 4f fa 89 bd 42 fd d7 bc c1 38 3e bb b2 5a 55 3c
       -0.06737196 -0.02636588 -0.0029025527 0.013022112
000160 25 1a a4 bd f9 29 64 3c 13 a8 cb bd c2 1e 8b bd
       -0.08012799 0.013926023 -0.09944167 -0.06792976
000170 49 72 cb 3b 61 7b 87 bd 77 37 25 bc 46 8f ed 3c
       0.006208692 -0.066153295 -0.010084025 0.028998982
000180 79 51 21 bd 4f cf 49 bd ea af b9 bc 5b d1 11 3d
       -0.03938434 -0.04926997 -0.02266689 0.035600048
000190 bb 5f 02 bd de 63 b4 bc 45 e2 94 3b df bb 6d bd
       -0.031829577 -0.022020277 0.004543575 -0.058040496
0001a0 ac ab 7f bd 25 31 29 3c 98 dc 13 bc 67 59 98 bc
       -0.06241958 0.010326658 -0.009024762 -0.018597318
0001b0 2e a4 28 3c 56 83 91 3b 16 fe b3 bb 50 e9 f0 bc
       0.01029305 0.0044407053 -0.005492936 -0.029408127
0001c0 da f4 8d bd d6 2c 68 3c e0 cd a7 bd 06 f5 27 3c
       -0.06931467 0.014170846 -0.081935644 0.010251289
0001d0 45 e7 ec 3c 8b 2c df bd 89 68 7b bd a2 d7 55 bc
       0.028918872 -0.10897168 -0.06137899 -0.013051899
0001e0 0d 9f b1 ba 4f aa 09 3d f2 ee bb bd 59 5d 12 bd
       -0.0013551429 0.033609685 -0.091764346 -0.035733555
0001f0 71 36 20 bc 22 2d a4 3c cc 91 e0 bc 7f b5 f2 bd
       -0.009778605 0.020041052 -0.027413271 -0.11851024
000200 c4 b2 88 3c 0c c2 f3 bc ab 23 b3 bc 16 1b 02 3c
       0.016686805 -0.029755615 -0.021867594 0.007941028
000210 9d 77 5a 3d 81 d7 57 bd 5d 6a 02 3c 80 07 cd 3c
       0.05333673 -0.052695755 0.007959929 0.02502799
000220 d0 fd 27 bc 4e 25 b9 bd d1 22 e4 3b b9 68 a5 bd
       -0.010253385 -0.090403184 0.0069621583 -0.08076615
000230 f6 92 96 3c 21 d1 9f bd 55 c5 22 3c 03 cc 2e bd
       0.018380623 -0.0780356 0.009934743 -0.04267503
000240 dc 2e a7 bd 27 b2 0f bd 72 f2 14 bc 55 f1 41 3c
       -0.081632346 -0.03508201 -0.009091007 0.011837323
000250 8f 74 44 bd 5f 33 82 bd 20 c6 83 bd e9 58 46 3c
       -0.04796272 -0.063574545 -0.06434274 0.012106159
000260 d6 d4 96 bd 7b 81 73 bd e1 77 03 bd 58 21 7b bd
       -0.07364814 -0.059449654 -0.032096747 -0.061311096
000270 06 40 54 bd f9 72 be bb 8c a1 31 3d 1b 79 62 3d
       -0.05181887 -0.0058120457 0.043366954 0.055291276
000280 28 03 d2 bc 9e 4c 38 bd 1c a3 d4 3c 72 a6 29 3b
       -0.02563627 -0.044994943 0.025956683 0.0025886563
000290 f8 8a 9d bc 0a c1 84 39 8e 4b 35 bd 62 14 66 bd
       -0.019231305 0.00025320827 -0.044261508 -0.056171782
0002a0 3f a8 ed 3b 29 ac 15 bd 48 66 9a bd 5e 9b 0a bd
       0.0072527225 -0.036541138 -0.0753904 -0.033839576
0002b0 38 fa 22 3b 5c 10 e5 bc 35 d4 31 bd 3c 57 6c bd
       0.002486838 -0.027961902 -0.043415267 -0.05770038
0002c0 de 8d 7c bd f4 b9 6b 3b 16 03 0a bd 8c 92 9f bd
       -0.061658733 0.003596899 -0.03369435 -0.077916235
0002d0 c9 f3 0e bd 34 f1 5a bd 0e 8e 03 bd 19 de fc bc
       -0.03490046 -0.053452685 -0.032117896 -0.030867623
0002e0 2b 49 e2 bd be 63 06 bd 0d ce 9f bd b6 38 63 bc
       -0.11049112 -0.032809965 -0.07802973 -0.013868501
0002f0 bc b0 64 bc 60 58 51 bc a0 85 b1 bd be 98 5d bd
       -0.013958152 -0.012777418 -0.08668065 -0.054100744
000300 d7 d2 80 bd 61 39 6c bd fb 88 bc bd 34 86 9c bd
       -0.062902145 -0.05767191 -0.092058145 -0.07642785
000310 d1 6d ea bc 46 8b 7c bd 88 7f 45 3b 1d 70 a1 bc
       -0.028616818 -0.06165626 0.003013583 -0.01970678
000320 91 57 3f 3d 0b 76 a8 bc 4a 77 80 3c 91 82 a9 bb
       0.04671437 -0.0205641 0.015681881 -0.0051730354
000330 9a f2 9d 3c 33 9a 09 be 58 de 15 3d 25 a9 cf bd
       0.01928072 -0.13437729 0.036588997 -0.10139684
000340 5d d4 46 3c 6a a9 78 bc c4 02 71 bd 18 92 16 3c
       0.012135592 -0.01517711 -0.058840528 0.009190105
000350 15 97 1c 3d 57 39 4f bd 40 93 c9 bd 09 2e 3d bc
       0.03823002 -0.050591793 -0.09842539 -0.01154662
000360 0a 5f a5 bd c0 51 86 bd 80 a4 c6 bd 3c bf 4f 3d
       -0.08074768 -0.06558561 -0.09699345 0.050719485
000370 00 56 3b bc 5c e1 53 bc 0d fd 93 bd 65 85 00 3b
       -0.011434078 -0.012932148 -0.07226 0.001961076
000380 50 90 8b bd 7d c6 06 bd fa de bd bc 82 27 ad 3b
       -0.06814635 -0.032904137 -0.023177613 0.0052842507
000390 88 33 18 bd b5 7a 3d bc 94 ea 82 3d 7b 4b 94 3c
       -0.03715852 -0.0115649 0.063923985 0.018102398
0003a0 db f8 ee bb c1 3b d6 bc 6f 24 aa 3d d5 99 47 bd
       -0.0072928495 -0.02615154 0.083077304 -0.04873069
0003b0 c8 f0 27 bd e1 cf 7a 3c b5 f5 ba 3c f4 6c 97 3c
       -0.04100111 0.015308351 0.02282224 0.01848457
0003c0 45 63 22 bd f0 30 52 bd 49 f1 a1 bd 06 fc a6 3c
       -0.039645452 -0.0513162 -0.079073496 0.020383846
0003d0 ae 14 dd bc ad d7 ab bd 82 64 10 bc 47 d3 e5 3c
       -0.0269874 -0.08390746 -0.008813025 0.028054846
0003e0 70 39 c8 bc 6b 71 a7 bb a7 7e 0a 3d f2 3b 99 bc
       -0.02444145 -0.005109956 0.03381219 -0.018705342
0003f0 ec 21 74 bd 6f db 78 bd 27 5e 6c bb 91 76 f2 3b
       -0.059602663 -0.060756143 -0.0036066861 0.007399388

bias f4 [256]
000000 85 26 ac bd a3 86 3b be 7f 7e 14 3b 21 bc 43 bf
       -0.084057845 -0.18313079 0.0022658405 -0.76458937
000010 9b 7d 0d 3f 00 a3 33 bf 4c 00 23 be b6 04 40 be
       0.55269784 -0.70170593 -0.15918082 -0.18751797
000020 72 eb 38 bf ca 5d a9 be 6c c7 47 bf 21 33 89 3e
       -0.7223426 -0.33079368 -0.7803867 0.2679682
000030 fd f0 ab bd 2b 01 79 bf de a2 00 be fc f6 9e bd
       -0.08395574 -0.9726741 -0.12562129 -0.07761952
000040 ea e1 cb bd 0c c2 62 bd b5 40 b5 3e fd cf 8f 3e
       -0.09955199 -0.05536084 0.3540093 0.2808837
000050 c8 9e fd bc 78 8d 1e 3e bb 2e eb be 98 42 a7 be
       -0.030959502 0.15483654 -0.4593409 -0.32667994
000060 ac 73 9b be 8f ed 04 be c3 2f 1b bf 14 77 4e bf
       -0.30361688 -0.12981246 -0.60619754 -0.8065045
000070 cb a1 b9 bd 81 52 8c bf 63 88 bd be d2 d5 35 bf
       -0.09064063 -1.0962678 -0.37018117 -0.7102939
000080 4f 44 f1 bd 25 79 d9 bd 5b 6b 83 bf c8 2b 81 bd
       -0.11780607 -0.106188096 -1.0267137 -0.06307179
000090 25 68 96 bd c3 73 08 bf c2 da 15 bf db 52 14 bd
       -0.07344083 -0.5330164 -0.5853692 -0.03621183
0000a0 53 99 5c bf c3 20 91 bd 57 a9 0e bf 9a 2a bd be
       -0.86171454 -0.07086327 -0.5572714 -0.36946565
0000b0 38 4c a9 bd c1 04 a6 bd ac 93 11 bd 07 07 d8 be
       -0.08266491 -0.081063755 -0.03554122 -0.4219286
0000c0 cd 0f 9f bd ea 6f 55 be ee 2d 25 be ae 0b 1e 3f
       -0.07766686 -0.20843473 -0.16130802 0.6173657
0000d0 09 75 8e be 40 dc 32 bd 47 e9 ac be 5b 15 aa 3d
       -0.27823666 -0.043667078 -0.33771726 0.083048545
0000e0 cc d1 51 be 1a 0c b5 bf e0 97 dc bd 92 37 32 be
       -0.20490187 -1.4144318 -0.10771155 -0.17404011
0000f0 d2 a2 a1 be 56 c9 5a 3e 62 fe 00 bf 17 db ad bd
       -0.31569535 0.21365866 -0.5038816 -0.08489054
000100 05 a1 de 3d 23 8a 91 be 10 83 d8 be 1f 74 3b 3f
       0.10870556 -0.28425702 -0.42287493 0.7322406
000110 80 2d 23 bd 6f c3 10 bf df f2 ed be b7 37 1a be
       -0.039838314 -0.5654821 -0.46474358 -0.15060316
000120 70 59 b5 3e a2 36 7b be c7 7c 6e bd 49 a1 09 be
       0.35419798 -0.2453256 -0.058224466 -0.13440432
000130 f6 f6 ba bd 31 54 4b be a9 6e 02 be 39 74 cb bd
       -0.09129135 -0.19856335 -0.12737526 -0.09934277
000140 5e 1b f9 bc 87 1d 30 be b4 70 c6 bd 40 79 15 bd
       -0.030408558 -0.17198764 -0.09689465 -0.036492586
000150 ec 51 0c 3f ef 1b be bd 55 8b 2a bf 5b 78 ac 3f
       0.548125 -0.09282672 -0.66618854 1.347423
000160 2a 46 bc bd 45 0c 89 be de 3f 4b bf 61 49 5b bd
       -0.0919307 -0.26767173 -0.7939433 -0.053536776
000170 b7 70 2f 3f 88 7c f5 bd 71 75 93 be 30 d6 2f 3e
       0.68531364 -0.11986643 -0.28800538 0.1717155
000180 d8 08 48 bf 43 9e f8 bd 7d 1f 34 bf d5 13 4b bf
       -0.78138494 -0.12139561 -0.7036055 -0.79327136
000190 ad 1d 17 3f ac c9 27 3e 32 31 96 be f2 13 73 bd
       0.59029657 0.16385525 -0.29334408 -0.059345193
0001a0 02 e4 6a be 5c f4 05 be 69 80 9e be 7c f7 90 bd
       -0.2293854 -0.13081497 -0.30957344 -0.07078454
0001b0 e7 18 65 bd 43 83 f2 3e a5 d7 d3 bd d6 4b 18 bf
       -0.05593195 0.4736577 -0.10343865 -0.59490716
0001c0 fc 50 aa 3e 58 e9 88 3f bf f9 4a bd 0b 63 d0 3d
       0.3326491 1.0696211 -0.049554583 0.10175141
0001d0 32 bb 80 bd ac 47 83 3e 1f 32 b8 be 80 32 eb 3d
       -0.06285705 0.2564062 -0.3597574 0.114842415
0001e0 fc a7 03 be e7 df 9a be 29 8f 0f 3f 32 aa 05 be
       -0.1285705 -0.3024895 0.5607782 -0.13053206
0001f0 62 42 b6 3e d0 e8 38 be a9 da 93 bd 41 fc c5 be
       0.3559752 -0.18057561 -0.072194405 -0.38669017
000200 71 65 f0 be c8 ea fc be 5f 0f eb be b8 ad 55 bf
       -0.46952394 -0.49397874 -0.45910165 -0.834682
000210 1d 4c ef bd 73 a5 5e 3d 19 b1 e3 be a1 3c d9 be
       -0.11684439 0.054357003 -0.44471052 -0.4242907
000220 55 57 31 bf 15 6d c6 be ef 00 4b bf 16 27 90 3e
       -0.69273883 -0.38755098 -0.792983 0.2815482
000230 14 5e 13 bf b0 16 fd be 93 12 c3 be 05 c8 e8 be
       -0.57565427 -0.49431372 -0.38100109 -0.45465103
000240 14 ba 72 bf 42 eb 0c 3f 03 5f fc bd 2d b6 06 bf
       -0.9481518 0.55046475 -0.123228095 -0.5262173
000250 8a 79 b0 be a7 1e f7 be 8b 2d f2 be 7c 23 bb bd
       -0.34467727 -0.48265573 -0.47300372 -0.091376275
000260 87 e1 49 bf 7c 27 d0 be 46 e5 bf be 00 f1 1c bd
       -0.7885975 -0.40655124 -0.3747961 -0.038315773
000270 58 2b 58 be e3 63 a6 bd d0 62 f8 be d0 b7 ad bd
       -0.21110284 -0.08124521 -0.48512888 -0.08482325
000280 da 6e b6 be ec 9d b4 3e bd e6 22 bd 65 79 db bc
       -0.35631448 0.35276735 -0.03977083 -0.026791284
000290 c1 c7 d7 bd 28 85 b4 bd 31 61 c8 bd b7 75 e6 be
       -0.10536147 -0.0881446 -0.09784163 -0.45011684
0002a0 90 d7 81 be 2f 39 0e bf 39 59 b2 3e 79 52 2e bf
       -0.25359774 -0.55556005 0.34833696 -0.68094593
0002b0 4f 83 c2 3e d8 54 53 be 13 94 5a be 50 37 19 3e
       0.37990806 -0.20637834 -0.21345548 0.14962506
0002c0 17 c6 1f bf 11 f9 b3 3e 7e f6 7a 3e b2 27 50 3d
       -0.62411636 0.3515096 0.24508092 0.050819106
0002d0 91 72 e9 bd db 42 12 bf 46 47 b6 be 5e c5 37 be
       -0.11398805 -0.57133263 -0.35601252 -0.17946383
0002e0 8b ca 0e bd a4 ec 2d be 60 17 1c bf a8 54 db bd
       -0.03486113 -0.16984802 -0.6097317 -0.10709506
0002f0 95 5d 09 bf 1e b6 86 bd a4 7e 1a be 08 1c b0 3e
       -0.5365842 -0.06577705 -0.15087372 0.34396386
000300 7d 99 d8 bd 8f 04 4e bd b9 81 04 be ae 92 11 3f
       -0.105761506 -0.050297316 -0.1294011 0.5686444
000310 3b ea e3 bd ef cf af 3f 58 d4 48 bd f8 c5 27 bc
       -0.1112866 1.3735331 -0.04903063 -0.0102400705
000320 1a 18 49 bf 22 2a fe bd 98 e8 5f be 70 6e e2 bd
       -0.785524 -0.1241038 -0.21866071 -0.110562205
000330 e4 96 c5 3b 4a 97 7c bd 3b b5 0d bf 78 19 b2 3b
       0.0060299505 -0.061667718 -0.5535466 0.005435165
000340 4e 78 30 3f 3a 57 f4 be e2 09 75 bf 57 c5 04 be
       0.6893357 -0.477228 -0.95718205 -0.12965904
000350 19 12 68 bf aa e6 18 bf a2 c1 fa bd 39 e5 1a bf
       -0.90652615 -0.59726965 -0.12243964 -0.60506016
000360 d2 14 ba bd fa 77 af bd cd 33 ee bd ae ff aa bd
       -0.090860024 -0.085678056 -0.11630974 -0.08349548
000370 b1 b4 7d be 6a 78 17 bf 68 55 a3 bc 6b 0b 07 bf
       -0.2477596 -0.5916811 -0.019938186 -0.527518
000380 7e fa 8e bf 6e 5a 78 bd 61 c4 1a bf 8a 95 c8 be
       -1.1170194 -0.060633115 -0.604559 -0.3917659
000390 32 b5 de bd 6f f6 13 bf 4d 76 65 be e5 8e 5c 3e
       -0.10874404 -0.577979 -0.2240841 0.21538885
0003a0 7a d8 75 be 8e fd 17 3e 65 bd 0d 3e 88 09 9f bd
       -0.2400836 0.14842817 0.1384178 -0.0776549
0003b0 8e db c9 bd c9 83 16 be b5 94 bd bc cf 30 c3 bd
       -0.0985633 -0.1469871 -0.023142198 -0.09530794
0003c0 78 43 2b be ef 7b a5 be c2 63 e5 bd 56 94 a3 bd
       -0.16724956 -0.32321116 -0.11200668 -0.07987277
0003d0 e4 13 0b bf 11 68 a2 bd d2 e8 34 bf 64 77 c2 be
       -0.54327226 -0.07930005 -0.70667756 -0.37981713
0003e0 3a 9d a0 bd a8 fa 99 be 42 33 93 bd 2b 7b 85 bd
       -0.078424886 -0.30074048 -0.07187511 -0.06517633
0003f0 50 73 9b bd ca 4a 1f 3f f0 f9 a2 3e 6a b4 c9 be
       -0.075903535 0.62223494 0.31831312 -0.39395458

weight f4 [6, 256]
000000 4c 1e bc bc 9a b1 bb 3c 37 15 4d bf 1f fd 5f bb
       -0.022963665 0.022911835 -0.80110496 -0.0034177972
000010 cf a5 07 bd b0 1f 2d be a3 80 87 3d b8 43 2f 3d
       -0.03311711 -0.16906619 0.066163324 0.04278919
000020 45 d4 58 be 1a 66 d1 be 93 9b 12 be 0f ed cb bd
       -0.21174724 -0.4089821 -0.1431716 -0.09957325
000030 8d 02 85 bd 0d a0 00 bd 14 6f ac bc 8c 04 72 bb
       -0.06494627 -0.031402636 -0.02104906 -0.003692898
000040 e3 9a 10 3d cd 69 c6 bb 1f 9b d2 3e 3f 18 91 3d
       0.03530396 -0.006055093 0.41133973 0.07084703
000050 18 d8 cd 3c 24 92 0c be 4d cc 12 3c 58 f3 5d bf
       0.025127456 -0.13727623 0.008959842 -0.8669944
000060 98 2e 1e bf 2e d3 da 3c 61 b6 d2 bc 34 5c 5d be
       -0.61789846 0.026712026 -0.02572173 -0.21617204
000070 f5 bd fc bd ab b7 64 3d 1f 42 8b be 18 73 c6 be
       -0.12340919 0.055839222 -0.27198884 -0.38759685
000080 fb 74 da 3d c2 16 d3 bc 4c 55 bc 3e bc 4c 97 3d
       0.106668435 -0.025767688 0.36783826 0.07387683
000090 37 b4 36 3d 58 36 4b bf 56 32 ec be b2 73 a9 bd
       0.04460546 -0.79379797 -0.46132153 -0.0827402
0000a0 3f df 8a bd 28 19 91 bd f9 91 50 3c 08 4d d8 bc
       -0.06780862 -0.07084876 0.012730115 -0.026403919
0000b0 69 46 37 3d 7a 3c 9c bc ac 38 8e 3d 57 9c 89 bd
       0.044744883 -0.019071806 0.06944403 -0.067192726
0000c0 55 28 73 3e bb a7 16 bf 53 45 19 3e c9 58 12 3e
       0.23745854 -0.58849686 0.14967851 0.14291681
0000d0 c9 cb 69 be 2b 22 a8 3d b6 2f 0c 3e ce 97 cf 3a
       -0.22831644 0.08209642 0.13690075 0.0015838088
0000e0 45 59 8a bd 2f 27 4f bd c3 d8 a8 b9 47 f8 75 3b
       -0.06755308 -0.050574478 -0.00032204957 0.0037532018
0000f0 10 6c 5e bc 41 3b 33 bf ea c0 4c 3c 81 92 8d 3a
       -0.013575569 -0.7001229 0.012497166 0.0010801108
000100 96 5e 9a be 8a 36 a5 be 48 8a 85 bd ec bb 2e 3d
       -0.30150288 -0.32268173 -0.06520516 0.042659685
000110 82 8f 71 bd 11 0d 1e be 68 27 4d bd 1c b6 2f be
       -0.05897475 -0.15434672 -0.05008641 -0.17159313
000120 c3 12 0b 3e e4 73 ac bd a1 17 d6 3c 3d 92 af 3e
       0.13581376 -0.08420542 0.026134314 0.34291258
000130 cc 92 bc 3c 45 a0 df 3c ca 5e 23 bb 38 a9 30 3d
       0.023019217 0.027298102 -0.0024928325 0.04313013
000140 5d 13 c2 3d 4f 49 88 3d 20 7c 3b bc 70 b5 44 be
       0.094763495 0.066546075 -0.011443168 -0.19209838
000150 ad ca 87 3d 74 d9 c2 3c ba 30 b1 bd aa 96 8e bd
       0.06630454 0.02378533 -0.08651872 -0.06962331
000160 9a 92 9f 3c 4f 26 6d be e6 c7 32 bf ca 5e b9 3d
       0.019479085 -0.23159145 -0.6983627 0.09051283
000170 b5 f3 21 3e 7f 68 12 3d 6d 40 43 3d f4 29 d7 3d
       0.15815623 0.035744186 0.047668863 0.10506049
000180 ac 21 32 3f a0 c2 44 bd 17 74 72 be a5 36 0a be
       0.6958263 -0.04803717 -0.23677097 -0.13497408
000190 4a d6 83 3e ce 0e de 3d 70 9a 53 3e c0 cd 9d 3d
       0.25749427 0.108426675 0.20664382 0.07705259
0001a0 fc 25 7f 3e 86 1b 3f bd a2 c3 a5 be 5c 31 35 bd
       0.24916834 -0.046657108 -0.32375818 -0.044236526
0001b0 58 1a ce bc 19 92 07 bd f8 35 90 3d 95 66 42 bd
       -0.025159046 -0.033098314 0.07041544 -0.04746111
0001c0 82 6d a8 3e 4f eb a2 3d ca 4c 39 ba a2 31 76 bd
       0.32896048 0.07955038 -0.00070686324 -0.060105927
0001d0 bc f9 20 bc 9a 62 8e 3d 5a 15 27 3e 93 ed 85 be
       -0.009825166 0.069524005 0.16316739 -0.26157817
0001e0 3b 45 1f bb 03 ad 08 be f4 e4 74 3e ac f5 8c 3c
       -0.002430274 -0.13347249 0.23915464 0.01720699
0001f0 50 59 94 3e c5 2f 94 3c 25 4d b4 3d b2 43 c3 bd
       0.2897439 0.018089185 0.08803777 -0.09534396
000200 d9 d8 68 3e da cc 2f be 86 4b 77 bd 62 39 4e be
       0.22738971 -0.17167988 -0.06037476 -0.20139077
000210 21 0d 8e be 40 96 6a 3c 9c fb 0c be 28 f0 5a be
       -0.27744392 0.014318049 -0.13767856 -0.21380675
000220 46 42 99 bd f6 cd 34 bf 13 3c 0f 3e a1 55 a2 3e
       -0.07483344 -0.7062677 0.1398776 0.31705955
000230 6d b7 03 be df c1 10 3e fe 2c f2 bd 7a 9d 71 be
       -0.1286294 0.14136456 -0.11824988 -0.23595229
000240 d1 ea 75 bd e6 b9 9d 3d 36 bc 3a 3c 33 14 0a bf
       -0.06003839 0.07701473 0.011397412 -0.5393707
000250 8c 03 a9 3d ee 00 1a be dd c6 63 3d 77 a2 e8 be
       0.0825263 -0.15039417 0.055609573 -0.4543645
000260 a3 8d 27 be 26 8f 8a bf ae e8 01 bf de b8 20 3d
       -0.16362624 -1.0824935 -0.50745666 0.039238803
000270 15 fb 2c 3c 32 8a 9d bc 50 2a 73 bd aa 6e 85 bd
       0.0105579095 -0.019230936 -0.059366524 -0.06515248
000280 ee b4 88 3e ca 31 21 bc aa de 0b bd 28 a8 3f 3d
       0.26700538 -0.009838531 -0.034147896 0.046791226
000290 89 d2 e8 be 19 3a c7 bd 7a 4f c9 bd c5 56 6e 3e
       -0.45473126 -0.09727878 -0.09829612 0.23275287
0002a0 7b 08 56 bd 51 74 77 be 6a e8 88 3e f4 63 c6 3e
       -0.05225418 -0.24165465 0.26739818 0.38748133
0002b0 fe a7 9e 3e f9 08 10 3c 1d 94 f4 be 21 cf 4b 3d
       0.30987543 0.008791202 -0.4776925 0.04975808
0002c0 e7 6a 87 be 4e 63 e1 3b c4 6a 3a 3e 37 ff b2 3c
       -0.26448748 0.006878293 0.1820479 0.021850212
0002d0 f3 fd 30 3b 4f fb e5 be f1 4a ea bd 5d bc f4 3e
       0.0027006834 -0.44918296 -0.11440075 0.4779996
0002e0 d1 ef 9f bd 5a 5f b7 3c eb aa 08 be c9 13 81 3c
       -0.07809413 0.022384334 -0.1334645 0.015756505
0002f0 1f 63 ea be 5b 00 76 3c 18 4a 82 bc b4 56 55 be
       -0.45778748 0.015014733 -0.015904471 -0.20833856
000300 1c 88 11 be 4e d6 b6 3c 9b b8 fa bc db b6 5e be
       -0.14212078 0.022318985 -0.030605605 -0.21749441
000310 3d 15 83 3c 95 08 ee 3d ec a6 5c bd f8 61 22 3c
       0.016001338 0.11622731 -0.053870127 0.009911053
000320 91 6f 47 3d de 11 a3 3d ac ee 70 bd 1b de 5e 3d
       0.048690382 0.07962392 -0.058821365 0.054411035
000330 05 a4 84 3e 0f 0b 2d bc 2b 69 ef 3e 1b d9 5e 3e
       0.25906387 -0.010561719 0.46759924 0.21762507
000340 56 b9 cf 3d 63 1b f6 3d 07 57 b9 3c 97 2f 03 3d
       0.10142772 0.12016942 0.022624506 0.032027807
000350 53 2a bf bc 00 b7 d4 bb 25 79 a6 3d 56 a2 06 bd
       -0.023335611 -0.006491542 0.08128575 -0.03286966
000360 57 82 30 3d a6 af d7 3c 9d 82 99 3b 56 f8 27 3c
       0.04309305 0.026328873 0.00468476 0.010252079
000370 54 a9 3b 3c 34 b5 b1 bc 62 60 1f 3c 1c 7e cf be
       0.011453945 -0.02169285 0.009727569 -0.405259
000380 e7 ce 23 3e e4 d4 90 3d 73 e5 25 3e c4 ed 4d be
       0.15996896 0.07071856 0.16200809 -0.20110232
000390 f3 7d 3d 3c 71 7d da bc 2f 1b b6 bc ee b1 48 3c
       0.011565673 -0.026671143 -0.022229759 0.012249453
0003a0 75 0e 3a 3d 37 3e 21 3e 33 06 16 be cb ee bb bc
       0.045423944 0.1574639 -0.14650802 -0.022941014
0003b0 f2 63 19 bc ce 9b 43 be 87 93 31 bb cc 11 1f 3d
       -0.009362208 -0.19102404 -0.002709599 0.03883533
0003c0 8f 0f 16 be 5f f5 8d be 18 3b 95 bd a9 38 06 bd
       -0.14654373 -0.27726266 -0.07286662 -0.03276888
0003d0 18 86 51 be 1d e3 6b 3c 3f cf 61 be e2 85 f2 bd
       -0.20461309 0.01439741 -0.22051714 -0.11841942
0003e0 c6 dc ef bb 57 1a 85 be 6b 15 7d 3d 0b 76 5e 3d
       -0.0073200194 -0.25996658 0.061788004 0.054311793
0003f0 cf 1a a5 bd 39 ce e2 3d 5e fb 22 3e b8 c5 0e be
       -0.08061754 0.1107449 0.15916201 -0.13942611

bias f4 [6]
000000 fe 9a 02 3f ea d0 0b 3e 08 0a 0f 3d 3c ff 9d be
       0.5101775 0.13653913 0.034921676 -0.3085879
000010 7d a6 81 3e 92 4c 59 3d
       0.25322333 0.05305154

weight f4 [6, 256]
000000 a0 b9 8c 3d be 00 83 3d 59 97 bb 3e d3 5e 5e 3d
       0.06871343 0.06396626 0.36638907 0.05428965
000010 1b fe 49 3c b5 8d ff 3d 3a cb c8 bc a4 4d 9c bb
       0.01232865 0.124782 -0.024510968 -0.0047699977
000020 d0 2b 18 bd b2 b4 6e 3d d0 0a a1 3d da 15 25 bd
       -0.037151158 0.058277793 0.078633904 -0.040304042
000030 25 d9 08 3c d5 89 43 3e 54 53 bf 3d e3 bf 8a 3d
       0.008352553 0.19095547 0.093420655 0.06774881
000040 26 b9 ae 3c 31 1f 96 3d 3d 5b 4a 3d 3b 60 b9 bd
       0.02132852 0.07330168 0.049403418 -0.09051558
000050 b5 63 4c bc 41 38 e2 bb 80 72 67 bd 74 fd 82 3e
       -0.012474944 -0.0069036786 -0.05650568 0.25583994
000060 5f cb 81 3e 0d 77 50 bd 32 30 4b 3c 26 2b b7 3d
       0.25350472 -0.050894786 0.012401627 0.08943777
000070 1e c2 af bc 0c 0e 8c 3d 9a 5b 80 3e 29 a5 2d be
       -0.021454867 0.06838617 0.25069886 -0.16957535
000080 90 cf 8a 3b 38 11 93 3c 96 af fb 3d dd 3f 83 3e
       0.004236169 0.017952546 0.1228935 0.2563466
000090 a8 17 4a bc 51 50 79 3e c4 ce 1f 3e 29 06 91 bd
       -0.012334742 0.24347045 0.15606219 -0.07081253
0000a0 e1 5c 8e 3e 99 ab 55 bc d9 fc cf 3c 3f e4 c9 3d
       0.27805236 -0.0130414 0.025389122 0.098579876
0000b0 76 c4 13 bc 65 de 74 3a 5a e9 e3 3d fe 31 05 3f
       -0.009019008 0.00093410007 0.11128493 0.5202941
0000c0 87 ff fb bc c2 09 55 bd 47 38 17 3d 2c 70 8f 3a
       -0.030761493 -0.05201126 0.036918905 0.0010943464
0000d0 13 46 1a bd a2 d9 fb 3b 1a 1f a5 3c b0 e2 97 3d
       -0.037664484 0.007685856 0.020156432 0.07416284
0000e0 95 be e3 3d 16 8c 8e bc d6 d5 05 bd 2c cd c3 3c
       0.11120335 -0.017400783 -0.032674633 0.023901545
0000f0 78 35 99 bd 6f c6 04 be be 0d 03 be 90 eb e9 3c
       -0.074809015 -0.12966321 -0.12798211 0.028554708
000100 f5 2c 68 be 2d b3 46 bd 71 ce 08 be 99 1f 15 bd
       -0.226734 -0.04851072 -0.13360001 -0.036407087
000110 13 aa 63 3d 0a 87 e4 3d 4d 64 3e 3e e4 33 8f 3b
       0.055582117 0.11158569 0.18592949 0.0043701995
000120 b0 46 3b bd 42 e0 b8 3d db 22 ff bc 91 91 07 3e
       -0.04572171 0.09027149 -0.03114455 0.13239123
000130 aa 7a 13 3e 1f 2d 12 3c 70 1f 6a 3d 9c ad 50 3c
       0.14402261 0.0089218905 0.057158887 0.012736704
000140 f8 4f bb 3b ec 21 75 3d 62 44 b3 3c 24 a3 12 3e
       0.00571632 0.059846804 0.021883193 0.14320046
000150 36 bb 16 3d 5b 8c 9a bc ef e1 21 3e 83 be 9b bb
       0.036799632 -0.018865755 0.15808843 -0.0047529354
000160 54 42 1c 3d 86 c3 92 bd fe 13 a2 3e 94 9b 63 3d
       0.038149193 -0.071661994 0.31655878 0.055568293
000170 6f 02 db 3b 2b 5a e3 bb a9 3d 10 bd 8f 20 ff 3c
       0.0066836397 -0.006938239 -0.035215054 0.031143455
000180 16 03 4f 3e eb ec 80 bc 29 9d 43 3e 4d e4 45 3f
       0.20216021 -0.015737971 0.1910292 0.77301484
000190 9c b8 40 3d e0 7e 41 3c 2a 9c ba 3d 43 89 db 3d
       0.047051057 0.0118100345 0.09111817 0.1071954
0001a0 15 d4 b5 3d 3d 92 a8 3d ef b3 9d bd d5 16 fa 3c
       0.08878342 0.08231018 -0.07700335 0.030528465
0001b0 51 22 7c 3d 14 a0 bb bd 4f 52 2c 3a 5f 8c a5 3d
       0.061556164 -0.09161392 0.0006573544 0.08083414
0001c0 3f a7 13 bd b5 f6 e6 bc a8 14 82 3c cc 80 4c 3c
       -0.03604817 -0.028193811 0.01587899 0.012481879
0001d0 13 02 9a bd 82 1d 8c 3c 92 0f 12 3e 00 73 88 3e
       -0.07519927 0.017103914 0.14263752 0.26650238
0001e0 f7 e1 1f 3d 86 2a e2 3e f0 c7 d1 bd df f6 df 3d
       0.039033856 0.44173068 -0.10243213 0.10935759
0001f0 28 b1 39 bd 09 ba 3a be 7f 06 5d bd d8 81 70 3e
       -0.045334965 -0.1823503 -0.053961273 0.23487031
000200 bf 30 97 3d 1b 39 74 3d c7 64 b7 3c b4 72 15 3e
       0.073823445 0.059624773 0.022386922 0.14594537
000210 9c 7b df bc c6 0f ae bd 93 aa db 3d 5c 7d 42 3d
       -0.027280621 -0.08499102 0.10725894 0.047482833
000220 9b 0c 5a 3f c2 e8 0d 3e e8 18 8f 3e ee 31 5c 3d
       0.85175484 0.13858321 0.2794869 0.053758554
000230 52 bc eb bd e7 6e 3a bc af ff 31 be 73 d0 fc 3d
       -0.115105286 -0.01137898 -0.17382692 0.12344446
000240 f2 9a 0c 3f e9 92 88 3c 1c f8 82 ba 14 f2 ec 3b
       0.5492393 0.016671615 -0.0009992155 0.0072310064
000250 96 64 36 bd 4d bb 61 3b 96 4c 6b 3e 33 ac 8a 3d
       -0.04452952 0.0034443915 0.22978434 0.06771126
000260 1d 1a 6b 3e 27 54 39 3f 60 2c 4a 3d e0 27 2b 3d
       0.2295918 0.7239403 0.049358726 0.041786075
000270 43 77 a4 3b 49 aa 3a bd b6 b9 6e bc 24 88 e9 3c
       0.0050191 -0.045572553 -0.014570644 0.0285073
000280 f8 44 75 3d 30 48 27 bd 91 a5 52 3e 21 5d 70 3c
       0.059880227 -0.040840328 0.20570971 0.014670641
000290 03 7c c7 3d d6 a6 dd bb 37 8c 36 3d f9 72 84 3c
       0.0974045 -0.006764273 0.044567313 0.016168104
0002a0 1a c1 b8 3d b8 c4 e5 3d a9 7c b0 3d 9d 24 5f bd
       0.09021206 0.11219162 0.08617527 -0.054478277
0002b0 7e 75 ba bc 7f 0a 03 be d6 fe 03 3e a0 eb d6 3b
       -0.022761103 -0.12796973 0.12890181 0.0065588504
0002c0 19 8f 42 3d 8e 8a b1 3b 8f cb d9 bc c2 5e 65 3d
       0.04749975 0.0054181283 -0.026586322 0.05599857
0002d0 65 a0 0d 3c c3 f7 e9 3d bd d1 71 bd 87 31 a3 3c
       0.008644198 0.1142421 -0.059037913 0.019921077
0002e0 32 35 c4 bc 2e ed a8 3d be cc f3 3b a0 58 ca 3d
       -0.023951147 0.082483634 0.0074401787 0.09880185
0002f0 28 80 07 3f f9 9a df bd 9d 95 9a 3d 8b 12 ed ba
       0.52929926 -0.109182306 0.07548068 -0.0018087191
000300 74 4f ba 3d 56 5e 8f 3d 97 10 4f 3d 4d 5d 23 bd
       0.09097186 0.07000415 0.05055293 -0.0398839
000310 9b 57 5b 3d 2e 11 01 be 54 dd fa 3d 3c a5 bb 3b
       0.053550344 -0.1260421 0.12249246 0.0057264846
000320 66 cf 6c bd 38 f1 93 3b 2b 20 60 3d 69 b5 11 bd
       -0.057814978 0.0045148395 0.054718178 -0.035573397
000330 5a 81 6a 3e 19 12 20 3e 8d df d9 3e a2 4d 58 3d
       0.22900906 0.15631904 0.42553368 0.05280841
000340 00 dd 93 bc e3 f4 22 bc 3f 30 f1 3c 43 ec a3 bc
       -0.018049717 -0.009946081 0.02944195 -0.02001012
000350 7c f2 3c 3d 5d 07 02 3e b1 5e bc 3d 85 ba ce 3b
       0.04612969 0.12698121 0.091977485 0.006308856
000360 90 24 a8 3c 51 46 90 3d 45 9e a2 3d 08 8e ea 3c
       0.020525247 0.07044662 0.07940344 0.028632179
000370 5d e2 5d 3e 2d 85 96 3e 56 e8 8e 3c 14 a4 2d 3e
       0.21668382 0.2939848 0.01744477 0.16957122
000380 52 4f c9 3d 3e 71 86 3d ca 84 63 3d bb 54 f1 3c
       0.09829582 0.06564568 0.05554656 0.029459348
000390 f9 8f 44 3d 82 84 76 bb 0a fd 12 3e 8c 86 b8 bc
       0.047988866 -0.0037615602 0.14354339 -0.022525094
0003a0 36 e5 19 3d cc 52 43 3e c2 9e 10 3e 9e 58 6a 3b
       0.03757211 0.19074553 0.14123061 0.0035758386
0003b0 ef cb 54 bc ee 7f 05 be 41 81 e8 3d db 3e 3f bc
       -0.012988075 -0.13037083 0.11352778 -0.011672701
0003c0 a4 9a a0 3c 2b 98 4f 3d de 27 a9 3d db b3 1f bc
       0.019604988 0.050682228 0.08259557 -0.009747471
0003d0 e0 ff 6a bb 48 57 12 3d 37 f6 30 3e 2b 1a f6 3c
       -0.003585808 0.03572777 0.17281424 0.030041775
0003e0 ca 93 87 3d 58 12 6a bd cb 7b 41 bd 60 6f a2 bd
       0.066199854 -0.0571464 -0.0472372 -0.07931399
0003f0 85 1c 13 3d 59 b2 f1 bc d0 81 0c 3c 55 fb a3 3e
       0.03591587 -0.029503988 0.008575872 0.3202769

bias f4 [6]
000000 ed e1 c8 be 28 0f e1 be d4 ca a5 be 17 32 27 bf
       -0.39234868 -0.43956876 -0.32381308 -0.65310806
000010 f3 9d 05 bf cd ca 9b be
       -0.52194136 -0.30428162

weight f4 [256, 32]
000000 77 72 ef 3f 11 ec 27 3e f9 3a a0 be db fd 18 bf
       1.8706807 0.16398646 -0.31294993 -0.5976235
000010 2a ac 97 3d ed 24 a8 b9 6b f1 03 be 5e 83 06 bf
       0.074058846 -0.0003207097 -0.12885062 -0.525442
000020 85 53 1b bf e2 f2 89 3f 7b 73 af 3e e1 19 87 bd
       -0.60674316 1.0777247 0.34267792 -0.06596733
000030 18 2b 0a bf 83 d4 be 3e cc c7 93 3c ea 69 cd be
       -0.53972006 0.3727151 0.018039607 -0.4011987
000040 f8 ed 27 3e 92 eb 35 be b7 b1 1c bf 49 bd 08 be
       0.16399372 -0.17765644 -0.6120867 -0.13353457
000050 bd 0a 53 be 55 df 2b 3e ad 04 06 be 05 d7 f7 be
       -0.20609565 0.16784413 -0.13087721 -0.48406234
000060 f0 52 bc 3c b4 b9 0b 3d 9d 1e 9f 3f d9 0e a9 be
       0.022988766 0.034112647 1.2431217 -0.3301914
000070 6c b6 57 be 23 ec d8 3d 1b 60 14 3e 5d 13 fd 3d
       -0.21065682 0.105919145 0.14489786 0.12357209
000080 1d 0c 7f 3f be 36 13 be 27 ed d6 be 5b 86 51 3f
       0.9962786 -0.14376351 -0.41977808 0.81845635
000090 a4 d7 ea bd 23 aa 28 be 00 10 30 3b 95 be eb 3e
       -0.114669114 -0.16471152 0.0026865005 0.4604384
0000a0 be 48 d9 bd 11 85 13 3f 5b bf b4 3e 57 56 c8 3e
       -0.106095776 0.5762492 0.35302243 0.39128372
0000b0 fd 55 0a bf 72 e9 cd 3e e9 1a ba bf b8 78 11 bf
       -0.5403746 0.40217167 -1.4539462 -0.5682483
0000c0 01 74 36 3f 5d e0 12 3f 0d 77 b6 be 3d 45 f1 3e
       0.7127076 0.573736 -0.35637704 0.47123137
0000d0 79 a0 47 3e 11 03 0b 3e 65 cf da bd f8 2c 44 be
       0.19494809 0.13575388 -0.106840886 -0.19157779
0000e0 74 33 ec bd 48 95 25 bd d3 27 f3 be b8 7f 4e be
       -0.115332514 -0.04042557 -0.4749132 -0.20165908
0000f0 d2 92 3b 3f 7a 43 43 3f 9d 6c d4 3e 37 e5 4d 3d
       0.73270905 0.76274836 0.41489115 0.050267424
000100 46 b2 ba 3f e2 b3 e5 bd 95 80 0f 3f 88 4a 14 3f
       1.4585655 -0.112159505 0.56055576 0.57926226
000110 00 46 68 bb 8e c3 11 bd 1c a0 00 3d 95 f3 22 bf
       -0.0035442114 -0.035586886 0.031402692 -0.63652927
000120 8c bb 2f be 3f ed c5 3e 45 07 95 3e 35 fe f8 3b
       -0.17161387 0.38657567 0.2910711 0.007598663
000130 f4 d9 99 be 18 a9 9f bc 7b ed 49 3e 89 51 b2 3c
       -0.30049098 -0.01948981 0.19719498 0.021767395
000140 01 46 2d be 58 93 2e be af f5 04 bd db 13 c8 be
       -0.16921236 -0.17048395 -0.032460865 -0.3907765
000150 39 78 a6 3e bc 27 0d bd 64 33 1c 3d 27 c6 f7 bd
       0.32513598 -0.03446172 0.038134947 -0.120983414
000160 3c 93 cc bd 6d c1 02 3e 51 17 13 3e 89 c2 43 bd
       -0.0998902 0.12769099 0.14364363 -0.047792945
000170 cf a9 76 3e 76 64 25 bc aa 1c dd bd af 44 7f bd
       0.24088214 -0.010094753 -0.10796483 -0.06232136
000180 de 1f 81 3f 8c 63 27 be e6 29 d0 be 21 94 19 40
       1.008785 -0.16346568 -0.40656966 2.399666
000190 cb 60 1a 3e be c9 47 bf 54 bb 0d bd 24 56 0e 3f
       0.15075986 -0.7804221 -0.03460248 0.5560019
0001a0 f8 19 2c bf d1 75 38 3f 4b 9b 94 3e 49 ec 82 3d
       -0.67227125 0.72054774 0.2902473 0.06392724
0001b0 94 3e 1a 3d cf f9 2c 3f 52 0f 49 be 4a 3c c6 3d
       0.037657335 0.6756868 -0.1963475 0.09679468
0001c0 d7 7a 33 3e bb bb 12 3f 1b f6 09 3f 5e a6 db 3e
       0.17527328 0.57317704 0.5389115 0.42900366
0001d0 7d 15 91 3c e7 ed 9d bd 0e ca 0c be 48 7c dd be
       0.017710442 -0.07711392 -0.13748953 -0.43258882
0001e0 58 ef 55 3d 00 d7 43 bb fd 4d 94 bf ff bc 54 3f
       0.05223021 -0.0029882789 -1.15863 0.83100885
0001f0 58 d5 02 c0 81 40 c6 be 71 a8 4f bf ac 66 cf 3e
       -2.0442715 -0.38721088 -0.81116396 0.4050802
000200 ab 02 b9 3f 72 60 d1 3d 23 ea 16 bf 15 ae c8 3e
       1.4453939 0.102234736 -0.58951014 0.39195314
000210 b6 e7 b6 3d fd a2 9f 3e a0 8d 07 bc ed 35 8e bf
       0.08930914 0.31179038 -0.008273512 -1.1110207
000220 0c f0 17 bf 16 6b 7b 3e d1 1b e0 be 85 61 4f bd
       -0.5935066 0.24552569 -0.43771222 -0.05063011
000230 8b 14 54 be b9 9d eb 3e 62 85 d6 be 14 2f d7 bc
       -0.20710962 0.4601877 -0.41898638 -0.026267566
000240 f8 84 98 3e 6d c1 5c 3e 23 59 a2 be a5 e6 4d 3d
       0.29788947 0.21558161 -0.3170863 0.050268788
000250 4d a9 a3 3e 34 27 bf bd 6a 3c 17 be 8c ef e7 bd
       0.31965104 -0.09333649 -0.1476914 -0.11324987
000260 a0 d0 fd 3b 23 8b b2 bd 7a 9f d3 bd 0d c0 39 be
       0.0077458173 -0.087179445 -0.10333152 -0.18139668
000270 29 41 86 3f 9b 7e 53 3f 1a 84 36 bf 58 64 d7 3e
       1.0488635 0.8261506 -0.7129532 0.42068744
000280 fb bc cb bd 78 28 55 3d de 3b 2a bf 71 53 2b 3e
       -0.099481545 0.052040547 -0.664976 0.16731049
000290 2d 31 09 be 92 f6 4c 3f 82 1c 8b 3d 01 74 42 3f
       -0.13397665 0.80063736 0.06792547 0.7595826
0002a0 58 4e 87 be c7 19 83 be 1e a7 85 3f d3 c2 7d 3f
       -0.2642696 -0.25605604 1.0441625 0.99125403
0002b0 20 4e eb bc c1 74 81 bc 78 fc e6 bd 7a 28 38 3f
       -0.028723776 -0.015802743 -0.11278623 0.7193676
0002c0 8b 56 38 bd 0d 8b c9 3b d2 b4 2a 3f a9 56 21 3c
       -0.04500441 0.0061506093 0.6668216 0.009847322
0002d0 e5 e1 bd 3d 03 93 19 3e 66 22 f9 3d de 40 17 be
       0.092716016 0.14997487 0.12164764 -0.14770839
0002e0 4b 64 32 3e cb 74 ca bd 87 86 2f bf 94 f5 02 be
       0.17421071 -0.09885558 -0.6856465 -0.12788993
0002f0 72 7c 56 bf d7 65 b7 3e 96 e7 34 3e fd f4 f0 3d
       -0.8378364 0.35819885 0.17666468 0.11765478
000300 a6 3b 85 bf 40 64 f0 bb fd 11 14 bf ac d8 09 40
       -1.0408828 -0.0073361695 -0.5783995 2.1538496
000310 e2 fa 1f be 39 c4 30 3c d4 e0 82 3d 7a 46 aa 3f
       -0.15623048 0.010788971 0.06390539 1.3302758
000320 fc a9 8a be c5 60 af 3e 08 47 17 be 79 9c ce 3e
       -0.27082813 0.34253517 -0.1477319 0.40353754
000330 1e 9c 5b 3e b2 7f 37 3e a5 27 1d bf 66 a5 c0 be
       0.21446273 0.17919806 -0.6138862 -0.3762619
000340 bb 6e 0a 3f 91 bc 63 bf 9f 1f ed be 12 b6 2a bf
       0.5407521 -0.88959605 -0.46313187 -0.6668407
000350 9a 88 17 3e 53 a4 2e 3e c7 bb 1d 3e cf 0f 7b bf
       0.14798203 0.17054872 0.15403663 -0.98070997
000360 78 d9 03 be d5 94 15 be 5a 18 ea 3e 8b 20 4b 3e
       -0.12875926 -0.14607556 0.45721704 0.19836633
000370 17 91 58 3f 0f ee 7f 3e 4a fe 73 3d 08 09 b5 bc
       0.8459639 0.24993156 0.05956868 -0.022099033
000380 82 97 ba bf 98 f1 8e bd 31 eb 09 be 32 79 98 3e
       -1.4577487 -0.06979674 -0.13468625 0.29779965
000390 6a d5 f9 3d 6c 9a 42 3f 6c 4b da bd ff 45 b9 bd
       0.121989086 0.7601688 -0.10658917 -0.09046554
0003a0 a5 77 71 be 19 a1 54 be 70 c0 06 be 2d 9b 3b bf
       -0.23580797 -0.20764579 -0.13159347 -0.73283654
0003b0 67 59 02 bd b9 dc 5b be 00 cb 46 bf 94 44 1f bf
       -0.031823542 -0.21470918 -0.77653503 -0.62214017
0003c0 83 7c ec be b6 b5 b0 be 0f b6 46 be ae 4b 0d 3f
       -0.46188745 -0.34513634 -0.19405387 0.55193603
0003d0 ef f8 c8 be d4 7b 0c bd c0 86 7d bc 93 f2 9f bd
       -0.3925242 -0.03429778 -0.015474021 -0.07809939
0003e0 3c b0 82 3d 82 fb f0 3d bc 77 6a bf bc 5f 6a 3f
       0.0638127 0.11766721 -0.9158895 0.9155233
0003f0 70 c7 24 be ae ab 19 bf 90 78 53 bf 10 13 46 3d
       -0.16091704 -0.6002759 -0.8260584 0.048358023
