data/HalfCheetahPyBulletEnv-v0_sac_grad_True/HalfCheetahPyBulletEnv-v0_sac_grad_True_s1/pyt_save/model.pt (torch_old, 905978 bytes, 18 tensors)

weight f4 [256, 26]
000000 a6 e8 7a 40 1a 47 b1 bd b5 75 4a be 57 3f 10 c0
       3.9204497 -0.0865614 -0.19771464 -2.253866
000010 e6 0f 3d be 4f 9e 1c 3f e8 41 25 bd 29 02 4b c0
       -0.18463096 0.6117906 -0.040346056 -3.1720068
000020 22 2c 1d bf 60 6b 0b 3e 86 eb 40 bf e8 61 15 bf
       -0.61395466 0.13615179 -0.7535938 -0.5835252
000030 30 05 df be 4e ac 37 be 21 c9 12 bf 68 ab b7 3e
       -0.43558645 -0.17936823 -0.5733815 0.3587296
000040 ec 05 ed 3e 1f 97 62 3e 39 5c 89 3f 9a fd 31 be
       0.4629358 0.2212796 1.0731269 -0.17381898
000050 1d 10 46 be 1d 94 f2 bd f0 a4 06 bd c7 b1 b8 bc
       -0.19342084 -0.118446566 -0.03287214 -0.022545708
000060 f2 b4 80 bd 00 da 19 3c e6 8c f4 3e 2a 4f da 3d
       -0.062845126 0.009390354 0.47763747 0.106596306
000070 67 5b b1 bf db 7d 6a be 24 69 60 3d ff 66 cf be
       -1.3856019 -0.22899573 0.05478777 -0.40508267
000080 1d 8e 04 3e 89 9b 0b 40 bf 46 1f bf be 13 47 bf
       0.12944837 2.181368 -0.62217325 -0.777645
000090 a6 65 87 bf 14 16 62 3f a6 da 26 3f 4e f8 f1 bd
       -1.0577896 0.8831494 0.6517738 -0.118149385
0000a0 e5 74 1d bf fc f0 15 be b4 66 13 3e 40 f2 dd 3e
       -0.6150649 -0.1464271 0.14394647 0.43348885
0000b0 72 6c 30 bf 7c 4a e7 3e be 76 cb bc 7c 40 6c 3d
       -0.68915474 0.45174015 -0.024836894 0.057678685
0000c0 cc f4 67 bd 1f 9b 57 bf 9b 11 41 be 56 7f bf bd
       -0.05662994 -0.8422107 -0.18854372 -0.09350459
0000d0 f3 04 b2 3f 10 43 43 bd 29 11 3d 3d 91 50 48 be
       1.390776 -0.047671378 0.046158943 -0.19561984
0000e0 c0 73 16 bc 7f 2a 8d 3e 4e 96 f4 3d 66 c2 9b 3f
       -0.00918287 0.27571484 0.11942731 1.2168701
0000f0 1b 83 1a be fc ae 34 3f bb 3d c8 3e c9 74 e0 3e
       -0.15089075 0.70579505 0.39109597 0.438391
000100 0b d8 9a 3c 54 21 ec 3e e4 ee 98 be 63 88 8a be
       0.018901845 0.46119177 -0.2986976 -0.2705718
000110 b7 79 0f 3e 17 f5 06 be 7f df 7a 3e 4a b6 92 3d
       0.14011274 -0.13179432 0.2449932 0.07163675
000120 4d c6 cd 3e b0 2e 37 3c da e0 83 3d b8 e5 e1 bf
       0.40190354 0.011180565 0.064393714 -1.764823
000130 c6 09 92 3d a2 19 c7 3d 97 22 2e c0 46 2b ca 3d
       0.071307704 0.09721686 -2.7208612 0.09871535
000140 fb 23 e3 be f7 31 69 3e 20 68 43 3c 37 8e 1d bf
       -0.44363388 0.22772966 0.011926681 -0.6154513
000150 72 e5 eb 3d ee 06 38 3f 6c bf 21 be 12 d7 ca be
       0.115183726 0.71885574 -0.15795678 -0.3961721
000160 c5 d5 6e 3f 75 b1 84 3e 14 e2 ec 3e 80 f8 f9 3e
       0.93294936 0.2591664 0.46266234 0.48822403
000170 51 f7 de be b3 0d 0a be 73 a5 bc be 10 6f b2 bd
       -0.43548062 -0.13481788 -0.36844978 -0.0871259
000180 41 44 46 bf 5e d1 2b bf 57 38 a1 be 50 2b 73 bd
       -0.774479 -0.67116344 -0.31488296 -0.059367478
000190 25 ee 37 3e 8f 8d 1d 3f ce 71 e2 3d f6 e9 ad 3d
       0.17961939 0.61544126 0.11056863 0.0849189
0001a0 b7 32 c2 bd 26 c9 2a be f0 a4 cf be 4c 73 af bf
       -0.09482329 -0.16678295 -0.40555525 -1.3707061
0001b0 db a7 09 3e 31 0f c5 3f ae 2d 81 3d 2a 8a 14 3f
       0.13442938 1.5395261 0.06307541 0.5802332
0001c0 80 20 b6 3f 62 a7 88 3f d4 2a f3 3c 89 fe b3 3e
       1.4228668 1.0676081 0.029683508 0.35155132
0001d0 37 95 66 3f 74 cb a6 3e f6 4b 3a bf f0 91 cc 3d
       0.90071434 0.32577097 -0.7277216 0.09988773
0001e0 18 ad 9a bf ac 2b bc be 7d 64 99 be 38 0f d3 bd
       -1.2084074 -0.3675207 -0.2995948 -0.10305637
0001f0 a2 50 86 3f 64 4e de bd 1e d1 3c be 76 65 8a 3e
       1.0493357 -0.108547956 -0.18439147 0.27030534
000200 aa 6a e7 3d 5f 70 3a 3e 45 93 d7 40 c4 52 2e 3d
       0.112996414 0.18206929 6.736727 0.0425594
000210 6e 8b 82 3e 04 36 07 bf a2 50 fa 3d fe 4a 1e 3f
       0.25497 -0.52816796 0.12222411 0.6183318
000220 2e 0c fe 3d b4 95 29 c0 0f 7c e6 be ef 88 93 be
       0.12404667 -2.6497622 -0.45016524 -0.2881541
000230 c3 57 41 bf bf 4e 30 be d8 8b 3c 3d 19 cc 20 3d
       -0.7552454 -0.17217539 0.046031803 0.039257143
000240 de 95 7a be c5 f0 48 3f 6b 9d 97 bf d8 ee 0f be
       -0.24471232 0.78492385 -1.1844915 -0.14055955
000250 fc 09 0e 3f 60 61 43 be b0 c8 18 be 8b 35 44 3e
       0.55483985 -0.19080114 -0.14920306 0.1916105
000260 c8 bb b9 bc d2 c4 6f be 81 8d 3d be bd 40 01 be
       -0.022672549 -0.23414925 -0.1851101 -0.12622352
000270 b0 4b b8 3f 0b cb ab bd 6e 45 fb be cd a1 c4 bf
       1.4398098 -0.08388337 -0.49076408 -1.5361878
000280 3a 12 16 be e4 73 bb be 42 98 80 3d cd ed 09 3e
       -0.1465539 -0.36611855 0.06279041 0.1346962
000290 0d 39 1c 3f 75 f7 e9 3c 25 97 8a bf 5d 81 6b 3e
       0.6102455 0.02856038 -1.0827376 0.22998567
0002a0 65 f6 bf 3d b2 bb fc be 16 1c a7 bf 45 b3 cb be
       0.09373168 -0.4936195 -1.3055446 -0.3978521
0002b0 a8 1a 55 bd 9a 95 a1 be b2 fc a2 be 19 0e d3 bd
       -0.052027375 -0.3155945 -0.31833416 -0.10305423
0002c0 b7 28 b9 bf 20 a3 cc 3b 76 ed 0a be d2 eb ff 3d
       -1.446555 0.006245032 -0.13567147 0.12496151
0002d0 b4 df 48 bd 80 e2 81 bc 9c c0 cb 3f 50 ac 1e bd
       -0.049041465 -0.015855074 1.5918155 -0.03873855
0002e0 f7 dd 6a bf 27 71 92 3f 9a 9d 2d be af 27 6b 3e
       -0.9174494 1.1440781 -0.16954651 0.22964357
0002f0 e0 36 da bb b3 37 76 3d e0 f2 56 bf b3 da 5a bf
       -0.0066593736 0.060111713 -0.8396435 -0.8548996
000300 94 ca d1 be ca 60 91 bf 59 46 ce be 1f da 99 be
       -0.40974867 -1.1357663 -0.40288046 -0.30049226
000310 89 b0 29 40 da 45 b0 3f ef ee 13 3f 15 cf 3a 3f
       2.6513999 1.3771317 0.5778646 0.7297223
000320 e9 b1 11 be 43 b7 5a 3e b6 bb 7d 3e 0c cd 9b bd
       -0.14228024 0.21358971 0.24778637 -0.07607469
000330 b6 ee f1 3d 3c 39 1c 3e 00 40 7a bc e0 0c cd bb
       0.118131086 0.15256208 -0.015274048 -0.0062576383
000340 b1 9d 49 40 92 55 bd 3d 35 e5 2a 3f d8 f6 21 c0
       3.1502497 0.09244837 0.6675599 -2.5306911
000350 2a a5 34 be 89 a5 6f bf 1b 17 2f 3e d0 ea 2e c0
       -0.1764113 -0.9361196 0.17098658 -2.7330818
000360 7b 68 7c 3e 93 73 30 be 79 2c 91 3d a0 aa 8a 3d
       0.24649231 -0.17231588 0.070885606 0.067708254
000370 9d 81 c1 3d 74 0d 87 bc 89 ff 39 c0 78 a7 88 bf
       0.0944855 -0.016485907 -2.9062216 -1.0676107
000380 db cc 7f bf 7c 92 12 bf fd 49 83 be a3 62 3c be
       -0.9992196 -0.5725477 -0.25642386 -0.18397002
000390 5b 16 69 3f ef ed 3d 3e 7c 00 23 bd ad 5b 3f bd
       0.91049737 0.18547796 -0.039795384 -0.04671829
0003a0 81 bb 45 3e 44 1f 2b bd ac 72 6e bf 4c d2 43 3d
       0.19309808 -0.041777864 -0.93143725 0.047807977
0003b0 dd 4b 24 bf bb 07 ec be 7e b9 fb 3d d7 3b 44 bf
       -0.6417826 -0.46099648 0.12291239 -0.7665381
0003c0 4e f3 24 be e2 bc 0c c0 e4 f5 a7 3d 6e 2b 33 bf
       -0.16108438 -2.1990285 0.08201197 -0.69988143
0003d0 71 9e b2 be 50 5b cf be ee 17 1e bf 65 c1 e2 bd
       -0.34886506 -0.40499353 -0.61755264 -0.11072043
0003e0 66 d5 55 3e 4c 4c 03 bf 06 30 2a be 99 a7 13 be
       0.20882186 -0.51288295 -0.16619882 -0.14419402
0003f0 0a 4a ac 3e 52 3a 94 be ba 1b ce bf 0c 20 c9 bd
       0.33650237 -0.28950745 -1.6102211 -0.098205656

bias f4 [256]
000000 9a e4 98 bc 53 56 93 bf c5 50 17 be c2 94 d3 be
       -0.018663693 -1.1510719 -0.14776905 -0.4132443
000010 c4 2e 11 bf 22 70 1d bd b7 4f 52 bf e2 03 5c bf
       -0.56711984 -0.038437016 -0.82152885 -0.85943425
000020 a4 98 2f 3f 4a ca 2c bf fc 36 6f bf 04 dd 8e bf
       0.68592286 -0.6749617 -0.93443274 -1.1161199
000030 7c bd e3 be 63 cf 92 be 2c b8 aa be e5 01 f1 3c
       -0.44480503 -0.28673849 -0.33343637 0.029419849
000040 59 e3 6b bf 14 28 1a bf f4 85 85 bf 9a 10 f7 3e
       -0.9214378 -0.60217404 -1.0431504 0.48254853
000050 cb 6b 86 bf c3 fa d0 be 9e bc 60 bf fc b8 c2 bf
       -1.0501646 -0.40816316 -0.87787807 -1.5212703
000060 9d 21 a5 be 60 c6 52 bf 74 73 16 bf 8a 70 b6 3e
       -0.32252207 -0.82333946 -0.5876992 0.35632735
000070 df 4e 5f bf f2 5a 90 bf 0a cd 85 bf 03 77 3b bf
       -0.8722972 -1.1277754 -1.0453198 -0.7322847
000080 73 3f 1f bf 1c 74 47 3f 20 09 91 bf b3 78 92 bf
       -0.6220619 0.77911544 -1.133091 -1.1443084
000090 5c 08 af bf 47 ed 9e bf f8 8f 2b bf a3 02 b9 bf
       -1.3674426 -1.2416161 -0.67016554 -1.445393
0000a0 99 dc e6 be b6 b0 12 bf e9 2b 50 bf 03 e0 41 3e
       -0.45090178 -0.5730089 -0.81317 0.1893311
0000b0 d6 0b 75 bf 14 de 7e bf f6 55 2f bf 98 32 8f bf
       -0.95721185 -0.99557614 -0.6849054 -1.1187315
0000c0 62 3c 84 3e d3 97 96 bf 7f 4f 6b bf ca e2 69 bf
       0.25827318 -1.1765083 -0.91918176 -0.9136168
0000d0 b2 3c 70 bf eb 31 4c be 81 bf 6c bf aa 64 8c bf
       -0.93842614 -0.19940917 -0.9247971 -1.096822
0000e0 dd d3 51 bf 23 52 d7 be e5 e2 2f bf 43 0f 23 be
       -0.819639 -0.42054853 -0.6870559 -0.1592379
0000f0 be a3 9a bf a3 61 29 bf 9c 4e 92 bf 4e b8 32 bf
       -1.208122 -0.66164607 -1.143024 -0.69812477
000100 a8 c4 62 bf 99 53 eb be e8 69 44 bf 95 4e 8b bf
       -0.88581324 -0.45962217 -0.767241 -1.0883356
000110 80 a2 51 bf 10 14 9f bf 37 4d 88 bf 47 8e 6b bf
       -0.8188858 -1.2427998 -1.0648564 -0.92013973
000120 97 ff ec be 26 48 49 bf 9b 27 0d bf 60 9e 93 bf
       -0.4628875 -0.78625715 -0.5513856 -1.1532707
000130 dd c3 50 bf 6d 21 1e bf 4d 8a c5 be b0 d6 08 bf
       -0.81548864 -0.61769754 -0.38582078 -0.5345259
000140 7f 28 51 be 02 76 a6 bf a4 f1 6a bf c4 01 9d bf
       -0.20425604 -1.3004763 -0.91774964 -1.2266164
000150 12 6c 50 bf cf b3 7c bf 78 a9 8d bf e4 e6 dd 3e
       -0.814149 -0.98711866 -1.1067343 0.43340218
000160 fd 99 57 bf 7f 47 3a bf 96 eb 19 bf 49 5f 60 3f
       -0.8421934 -0.72765344 -0.601251 0.87645394
000170 f6 e0 22 bf b4 ed ec be e5 24 8c bf 42 85 5c bf
       -0.63624513 -0.46275103 -1.0948759 -0.86140835
000180 13 43 c3 be d7 d2 8f bf e8 7a 79 be e5 80 5e bf
       -0.3813711 -1.1236218 -0.24363291 -0.8691543
000190 42 74 bc 3d 8e 8f 8f bf 71 72 66 bf 80 f5 6e bf
       0.09201862 -1.1215684 -0.90018374 -0.93343353
0001a0 eb 22 13 bf b4 36 52 bf 42 79 87 bf 76 d1 67 bf
       -0.57475156 -0.8211472 -1.058388 -0.9055399
0001b0 7f cf 30 bf 8a 7b ca bf e3 a4 52 bf 45 57 95 bf
       -0.69066614 -1.5818951 -0.8228285 -1.1667258
0001c0 c2 4f 3e bc 58 dc 5f bf 0a 1d b2 bf 70 66 94 bf
       -0.011615695 -0.8744559 -1.3915112 -1.1593761
0001d0 3b 23 43 bf d8 12 36 bf 27 e1 27 bf 67 8b 8f bf
       -0.7622563 -0.71122503 -0.6557793 -1.1214417
0001e0 36 85 99 bf 34 99 2a bf f7 ed 16 bf 73 21 08 bf
       -1.1993778 -0.6664002 -0.58956856 -0.5317604
0001f0 7b 1a a6 bf 85 7d 02 bf 52 8a 85 bf ea 05 53 bf
       -1.2976831 -0.5097278 -1.0432837 -0.824309
000200 2b c5 27 bf 11 cd 1b bf 0b e6 83 bf 59 c3 69 bf
       -0.6553523 -0.6085978 -1.0304579 -0.913137
000210 b3 f6 30 bf 69 18 41 3f 0b 60 5b bf cd 47 5f bf
       -0.69126433 0.7542787 -0.85693425 -0.87218934
000220 14 67 89 bf 90 6c a8 bf f9 a2 9b bf 34 22 87 bf
       -1.0734582 -1.3158131 -1.215911 -1.0557313
000230 dd 8c 96 bf 20 3d 40 3e bb 1c b1 bf 22 24 23 bf
       -1.1761738 0.18773317 -1.3836893 -0.6372701
000240 95 da a7 bf dc ee 46 bd 76 07 36 bf 02 10 73 bf
       -1.3113581 -0.048567638 -0.71105134 -0.949463
000250 9b f4 09 bf 49 a5 0c bf 63 9b 3f bf 5f 80 81 bf
       -0.53888863 -0.54939705 -0.74846476 -1.0117301
000260 18 68 21 bf 65 ee be 3e 9e 5e 89 bf 57 30 10 bf
       -0.6304946 0.37291256 -1.0732 -0.5632376
000270 2b ef 82 bf 61 53 e8 be e8 9b c0 bf 14 ae 8c be
       -1.0229238 -0.45376113 -1.5047579 -0.2747656
000280 3b 46 80 be dd 98 df bc 0f 42 4b 3f ca 45 6d bf
       -0.25053582 -0.02729457 0.7939767 -0.92684615
000290 ff 7c 87 bf 50 49 4a bf d7 61 69 bf a3 27 44 bf
       -1.0585021 -0.79018116 -0.91164917 -0.7662298
0002a0 36 da 7b bf ae c9 a1 bf 83 fd 84 bf 7b 33 77 bf
       -0.9837984 -1.2639673 -1.0389866 -0.9656293
0002b0 8e c2 19 bf b8 8b 53 3e cc 05 a2 3e b3 79 39 3f
       -0.6006249 0.20658767 0.31645048 0.72451323
0002c0 5d e7 9a bf 45 bb 2d bf 9e 6d 25 bf f3 9e 30 bf
       -1.2101856 -0.67863876 -0.6462039 -0.6899254
0002d0 e1 e4 52 bf 8e 73 42 bf f7 00 23 bf ea da 39 bf
       -0.8238049 -0.7595757 -0.6367335 -0.7259966
0002e0 96 9b 73 be c0 d6 ae be b6 24 4b bf f9 1a 7c bf
       -0.2378982 -0.34148216 -0.7935289 -0.98478657
0002f0 e3 2a 8c bf 3b 06 19 bf a2 0d 0c be 52 be 8c bf
       -1.0950588 -0.5977513 -0.13677076 -1.0995581
000300 14 81 41 be 52 8c 87 bf be 68 7b bf f1 8c e1 be
       -0.18896896 -1.0589697 -0.982067 -0.44052842
000310 f4 a5 85 bf 97 1e 4a bf c7 ec 8e bf 3e f8 74 3e
       -1.044127 -0.78952926 -1.1166009 0.23922822
000320 48 40 7c bf 79 be 58 bf 3f d4 50 bf 59 67 b1 be
       -0.98535585 -0.8466564 -0.8157386 -0.3464916
000330 34 94 90 bf 22 57 97 bf 31 bc 32 bf 0a 23 8d be
       -1.1295228 -1.1823466 -0.6981841 -0.27565795
000340 9a 35 4b bf 9f a3 8c be b1 d9 49 bf 26 26 d3 be
       -0.79378664 -0.27468583 -0.78847796 -0.41240042
000350 e1 1f 49 bf b8 17 6a bf d2 38 00 bf 26 07 57 bf
       -0.7856427 -0.9144244 -0.500867 -0.8399528
000360 35 c9 a1 bf 7e 86 92 bf 65 bf 03 bf 4a 69 49 bf
       -1.2639529 -1.1447294 -0.5146392 -0.78676283
000370 a6 45 50 bf fe f8 73 bf 3a f4 4f bf b1 08 54 bf
       -0.81356275 -0.95301807 -0.81232035 -0.8282576
000380 15 4f 13 bf c8 3b a0 bf e9 53 6b bf 4c 6d 46 bf
       -0.57542545 -1.2518244 -0.9192491 -0.77510524
000390 70 b8 cf bf 69 7d 79 bf e2 a9 c6 bf 61 b7 00 bf
       -1.6228161 -0.97456986 -1.5520594 -0.50279814
0003a0 77 14 24 bf d5 e1 01 bf 79 8a 22 bf 6b b5 80 bf
       -0.64093727 -0.5073522 -0.6349254 -1.0055364
0003b0 7f 95 02 bd aa cc 52 bf 3b 0d 06 be 50 d0 1b bf
       -0.03188085 -0.8234354 -0.13090985 -0.60864735
0003c0 89 d9 3b bf 96 7f ac be a2 87 63 bf 3a 9f 6b bf
       -0.7337881 -0.3369109 -0.88878834 -0.92039835
0003d0 54 ea 4f bf d8 18 90 be 0c 38 9d bf fb c9 1e bf
       -0.8121693 -0.28143954 -1.2282729 -0.6202695
0003e0 53 c1 88 bf 79 b1 38 bf 09 8e ab bf a3 20 33 be
       -1.0683998 -0.721458 -1.3402721 -0.17492919
0003f0 7f 40 80 3e 09 31 79 bf 84 89 d8 be f0 3d b4 3e
       0.25049207 -0.97340447 -0.42292416 0.35203505

weight f4 [256, 256]
000000 21 86 21 ba 98 bc 1b bd 25 0f ff bc 09 ea 35 3b
       -0.00061616494 -0.038021654 -0.031135151 0.0027757904
000010 ef 3b 23 bd 7c 2e 8a bd 65 8a 9f 3c 39 d5 72 bd
       -0.03985208 -0.067471474 0.019475171 -0.059285376
000020 07 35 15 bd a8 2e da bb 2b 6e 3d bd 96 2c a2 3a
       -0.036427524 -0.006658394 -0.046247642 0.0012372907
000030 aa ff a7 bc 4b 70 ff bc 06 25 24 bd b0 a8 2e 3c
       -0.020507652 -0.031181475 -0.04007437 0.010660335
000040 8a 22 89 bd 1b ec d1 bc 4e f9 0a 3d df ed 01 bd
       -0.06696041 -0.02562528 0.03392916 -0.031720992
000050 24 c1 16 bc cb 51 8c bd 94 0b a6 bc 5e 84 2a bc
       -0.009201322 -0.06851538 -0.020269193 -0.010407535
000060 f9 9b ff bc cc f9 0a 3d f6 5a 7f bd 5a df df bb
       -0.031202303 0.03392963 -0.062342606 -0.0068320455
000070 3f 90 4b bd fb 06 21 bd 2c 58 64 3d d8 9a 32 bd
       -0.04969811 -0.039313298 0.05574815 -0.0436047
000080 af e6 0a bd b1 b9 b5 bd aa 71 fe 3c 49 bc 40 bd
       -0.033911403 -0.088733084 0.031060059 -0.047054563
000090 e1 e5 09 bc 66 da 6c bc 1d 82 44 bc 08 30 8b bd
       -0.008416624 -0.014456367 -0.011993912 -0.067962706
0000a0 57 f3 a9 bb 17 2f 8e bd b8 79 28 3d 3b f4 44 3c
       -0.005186479 -0.069425754 0.041131705 0.01202112
0000b0 ea 81 15 b9 40 1e 03 3c 94 66 9a bd b8 a2 c0 bb
       -0.00014258144 0.008002818 -0.075390965 -0.0058787726
0000c0 4b 73 92 bd e2 e7 06 bd 69 d4 23 bd b3 26 cc 3c
       -0.07150897 -0.032935984 -0.039997492 0.024920797
0000d0 dc 9d 97 bc c7 89 6a bd f3 89 a6 bd dc 49 34 3d
       -0.01850789 -0.0572603 -0.081317805 0.04401575
0000e0 c2 00 a9 bd 82 5c 6d 3b 22 20 d7 3c ae 1c 00 bd
       -0.08252098 0.003621847 0.02626044 -0.03127735
0000f0 cb 14 ce bc a3 0c 1d bd 80 f2 08 3d e1 09 cc 3b
       -0.0251564 -0.03834213 0.03343439 0.0062267636
000100 7f 55 ba bc 46 d3 b1 bd d9 83 ac bd e5 41 dd bc
       -0.022745846 -0.08682875 -0.084235854 -0.02700896
000110 22 b4 97 bd f6 56 ad bc b6 7e 24 3d c7 f2 82 bd
       -0.074074045 -0.02115963 0.040159903 -0.06393962
000120 d0 67 fc 3c 61 a2 80 bd e7 bb 69 bd f5 7a 2e bd
       0.03081122 -0.06280971 -0.057063963 -0.04259773
000130 f8 d0 97 bb c2 97 a7 bd e1 1d 85 bd e5 a0 74 3c
       -0.0046330653 -0.081832424 -0.064998396 0.014930938
000140 f7 d2 91 3c 13 21 84 bd 44 c5 68 bd d4 5b c0 3c
       0.017800791 -0.06451621 -0.056828752 0.023481287
000150 a2 bb 75 3c 60 99 a9 bd 7d 04 6e bd 6f 44 e2 bc
       0.014998348 -0.08281207 -0.05810975 -0.027620522
000160 22 92 8f bd f4 41 06 bd ea fe 18 bd d8 94 13 bd
       -0.070102945 -0.03277774 -0.03735248 -0.03603062
000170 79 65 1c bd c2 3c 0e 3d d7 3b 86 bd 49 38 2a 3b
       -0.03818271 0.034725912 -0.06554382 0.002597349
000180 6c 81 90 bd 9d 9f 0f bd 06 35 e6 bc 19 9b ee bc
       -0.07055935 -0.03506433 -0.028101455 -0.02912669
000190 42 09 1c bd b4 98 62 3c 5d 1b 82 bc 13 f6 e7 bc
       -0.038094766 0.013830353 -0.015882188 -0.02831558
0001a0 40 52 6d bd b6 60 20 bc d9 34 da 3c a1 58 8b bd
       -0.057939768 -0.009788683 0.026636528 -0.06804014
0001b0 9d 32 5a bd 87 7a 15 3c ef ef de 3c de 78 d8 bc
       -0.053270925 0.009123451 0.027214019 -0.026424821
0001c0 db 23 0b 3c ad b1 a6 bb 48 74 91 bc 5d 83 12 3d
       0.008492435 -0.0050870986 -0.017755643 0.03576981
0001d0 08 b8 42 3d ef 96 8f 3c f7 f0 b1 3c 65 aa cb bd
       0.047538787 0.017528025 0.021721346 -0.099446096
0001e0 b3 1b 2b bd 53 7e 8e bd 6a 4b ac bd ac 86 1b 3c
       -0.041774463 -0.06957688 -0.084128216 0.0094925575
0001f0 9d 47 a0 bb 98 4f ce bc 5c 57 cd bc b6 e4 1f 3d
       -0.0048913495 -0.025184438 -0.02506607 0.039036475
000200 e4 95 c0 bd d4 2b c4 3c 29 52 15 3d c8 2d fb bc
       -0.09403589 0.02394668 0.036455307 -0.030661479
000210 9c 8c 4a 3c 43 f5 17 bd 49 c8 a3 bc 8f 41 4f bc
       0.012362625 -0.037099134 -0.019992964 -0.012649908
000220 51 0a 10 bd db 8b dc 3a a6 54 96 3c e7 1a 6c 3c
       -0.03516609 0.0016826348 0.01835091 0.014410711
000230 8b 1a 83 bd 52 6a 2e 3d c8 73 41 bc ba 12 0b 3d
       -0.06401547 0.042581864 -0.01180739 0.033953406
000240 7f 99 48 bc e3 c4 9b bc 87 58 96 bd bf 3f ad bc
       -0.012243628 -0.019014781 -0.07341104 -0.02114856
000250 b6 e7 45 bc a0 d7 d5 bb fc 97 a0 bd 7e 6f 73 bd
       -0.01207917 -0.0065259486 -0.07841489 -0.0594325
000260 86 ed 76 bd 3b 2b c1 bc 9a 1f 00 3c 27 85 09 3d
       -0.060285114 -0.023580184 0.007820034 0.03357425
000270 db ea f8 bc f5 6e 78 bc 11 0c 36 3b e1 5c 54 bd
       -0.030385425 -0.015163173 0.0027778188 -0.05184639
000280 b6 43 9b bd 1e 9d 41 bc 58 99 06 bd 28 97 0c bc
       -0.07581274 -0.011817245 -0.032861084 -0.00858096
000290 e5 ae 03 bd 19 e6 0c 3d 3d f5 36 3c b4 51 bf bc
       -0.032149214 0.034399126 0.011166868 -0.023354389
0002a0 f9 78 99 bc 35 cd a9 3c fa a5 58 bd 19 37 cc 3b
       -0.018734442 0.020727733 -0.052892663 0.006232154
0002b0 16 62 24 3c 77 01 9e bc b0 aa 31 3b 8c 14 96 bd
       0.010033151 -0.019287808 0.0027109794 -0.07328138
0002c0 4f cd cc 3c 5e a8 36 bd 1c f3 68 bd fc cb 72 bd
       0.025000243 -0.04459416 -0.056872472 -0.059276566
0002d0 02 56 4c bd 3b e9 42 bd b9 b9 a6 bd 2c 54 87 bd
       -0.04988671 -0.047585707 -0.081408925 -0.066078514
0002e0 9d 1d ba 3c 1a 06 04 bd 87 50 8f bd 94 f3 61 3c
       0.022719199 -0.03223238 -0.06997781 0.013790984
0002f0 30 ad 8f bc 70 20 10 bc 34 dd 87 bd c8 23 9e bd
       -0.017538637 -0.008796796 -0.06633988 -0.077216685
000300 6d 11 28 bd ec c2 92 bc 3e db 90 bd 89 7b 64 bd
       -0.041032244 -0.017915212 -0.07073067 -0.055781875
000310 89 cb 4c bc 58 62 15 3c d7 7c b3 39 56 c6 72 bd
       -0.012499698 0.009117685 0.00034234553 -0.05927118
000320 92 42 8d bd b6 56 e6 bc 70 ad ea 3c a2 98 83 bd
       -0.06897463 -0.028117519 0.028647155 -0.06425597
000330 f4 60 e8 bb b9 89 3f bd 3a cc 92 bd ac fe 9a 3c
       -0.007091636 -0.046762202 -0.071678594 0.018920265
000340 1e 21 77 3c 5b ce 52 3c fd d7 eb 3c 88 95 2a bd
       0.015083579 0.012866582 0.028789515 -0.04164651
000350 6f 4a 4f 3d 7b cb 90 bc 0e 71 99 bd 05 51 44 bd
       0.050608095 -0.017675152 -0.074922666 -0.04792883
000360 8c c0 7a bd aa e3 59 bc 84 2e b6 bd 10 be 4d bd
       -0.061218783 -0.013298908 -0.08895591 -0.050230086
000370 6e 51 eb bd 1c d5 84 bc 6c a6 c2 bd 4e b1 bf bc
       -0.11490141 -0.0162149 -0.09504399 -0.023399975
000380 99 c3 84 bd 12 ea ac bc 58 51 84 bc b0 68 99 bb
       -0.0648262 -0.021107707 -0.016152069 -0.004681669
000390 5c e2 87 bd 6c af 74 bd eb 8e 1f bd de 7e df bc
       -0.066349715 -0.059737608 -0.038954657 -0.027282175
0003a0 50 36 71 bc 17 27 f2 bc 1a 7f b5 bb 16 ed 6e bd
       -0.014722422 -0.029559655 -0.0055388333 -0.05833157
0003b0 54 17 d9 bd 8a 7c 8e bc ed f0 38 3b 48 2c 27 3d
       -0.106001526 -0.01739337 0.0028219775 0.040813714
0003c0 f6 62 97 bc b8 d2 8c bd dc d0 a1 bc 74 5c fb 3c
       -0.018479805 -0.06876129 -0.019752912 0.030683734
0003d0 5e 15 3a 3d a8 6c 32 bd 7b 44 82 bd 22 00 f2 bb
       0.045430534 -0.043560654 -0.06360718 -0.0073852697
0003e0 4b 0c c2 3c 92 4f b4 bd 2e 9a bc bd 22 c4 23 bb
       0.023687502 -0.08804239 -0.09209095 -0.002498873
0003f0 61 1c c2 bd 35 fc 3f 3b c1 1c a9 3c da fb 25 bc
       -0.09478069 0.0029294614 0.020643594 -0.010130847

bias f4 [256]
000000 bb 40 59 bd a1 85 56 bf 2e 95 06 3f f3 f6 eb bd
       -0.053040247 -0.8379765 0.5257138 -0.11521711
000010 05 26 83 bd d1 7d 01 be ce 7a 9f be ee 93 81 bf
       -0.06403736 -0.12645651 -0.3114838 -1.012327
000020 de 23 eb bd 91 67 94 3e 18 72 9a bf fb fb bb 3c
       -0.114814505 0.28985265 -1.2066069 0.022947302
000030 5a 3c c3 bf 77 92 3e bf 7b 42 62 bf da 47 fa bd
       -1.5252793 -0.7444224 -0.8838269 -0.12220736
000040 80 de 83 bd bc d4 56 bf 6b de 38 be 67 d9 b5 bd
       -0.06438923 -0.83918357 -0.18053596 -0.08879357
000050 51 56 f8 bd 01 aa 2f bf 7d 20 d0 bd 14 c6 80 bf
       -0.121258385 -0.6861878 -0.10162447 -1.0060449
000060 40 2f 87 bd d1 a8 3a bd 4c 51 d5 bd 1a 64 71 bf
       -0.06600809 -0.045571152 -0.10415897 -0.9429337
000070 87 db 3c be fd 1a 1b be 03 77 bb bd 84 46 87 bf
       -0.18443118 -0.15147014 -0.09153559 -1.0568395
000080 fc a1 17 bf 7d 7d 9e bf a6 53 37 3f ad 86 f4 bd
       -0.59231544 -1.2382046 0.7161201 -0.1193975
000090 6d 7b ec be ad 57 94 bf 62 2c 05 bf 1d 8b 9c bf
       -0.46187916 -1.1589257 -0.5202085 -1.2229954
0000a0 27 ad b0 be d1 0e 53 3e ec 8e 1c 3f fd e4 3a bf
       -0.34507105 0.20611121 0.6115558 -0.7300566
0000b0 3a 3d 6b bf f2 c0 9b bd 46 df 20 bf 70 c9 83 bf
       -0.918903 -0.07605161 -0.6284069 -1.0295849
0000c0 97 79 0c bf 84 02 2e be d4 3b 0a be 27 05 e4 be
       -0.5487303 -0.16993147 -0.13499385 -0.4453518
0000d0 41 69 c5 bd d1 30 44 be 73 e3 b6 bd de 98 8e bf
       -0.09639216 -0.19159247 -0.08930101 -1.1140401
0000e0 a3 00 fb bc 32 89 0e bf 72 50 7f 3f d0 e3 d7 bf
       -0.030639952 -0.55678093 0.99732125 -1.6866398
0000f0 f6 d5 bb bf 9f 00 f0 bf b7 f9 cd bf e4 1b 0d bf
       -1.4674671 -1.875019 -1.6091832 -0.5512068
000100 34 8e 2d bf 5c bf 0e bf 91 be 19 bf 8b 77 59 be
       -0.6779511 -0.5576074 -0.60056406 -0.21237008
000110 5e 6a 12 be c4 13 b7 bf c0 e1 31 be a9 a3 fc be
       -0.14298388 -1.4302907 -0.17371273 -0.49343613
000120 11 36 bb be d2 27 5a bf 6b 62 41 bf d5 72 48 bf
       -0.36564687 -0.8521701 -0.755408 -0.7830022
000130 49 81 b8 be f8 62 0a be 9c 6a 12 be d5 7f e0 bf
       -0.36036137 -0.13514316 -0.14298481 -1.7539011
000140 3f d2 4f bd 43 7f 4b bf 57 31 20 be 13 02 18 bf
       -0.050737616 -0.7949106 -0.15643822 -0.59378165
000150 b0 8a 58 3f 42 33 0e be 29 fa 83 bf c0 a9 35 bf
       0.8458662 -0.13886741 -1.0310718 -0.7096214
000160 6c 64 d8 bd 97 b2 0c be e9 3c f6 be 40 ba a7 3e
       -0.10566029 -0.13740002 -0.48093346 0.32759285
000170 0b ed 75 be 35 71 41 bf 13 09 ee be 2b 33 bb bd
       -0.24016206 -0.75563365 -0.46491298 -0.09140619
000180 46 4f cf bd 86 da aa bf cd bc 86 be b5 9a 52 bf
       -0.10122542 -1.3347938 -0.2631592 -0.82267314
000190 1d 72 ca bd 7e 1a 73 bf a6 11 81 be 82 58 4b bf
       -0.09885047 -0.949623 -0.25208777 -0.7943193
0001a0 6b 08 28 bf 29 49 97 bf ee 2d 26 bf 48 90 08 be
       -0.65637845 -1.1819202 -0.64913833 -0.13336289
0001b0 f5 48 67 be 72 42 33 bf 13 0c 88 bf 1c 8d 67 bf
       -0.22586425 -0.7002326 -1.0628685 -0.9044969
0001c0 a5 39 43 bd 0a 1b 9f bf 68 12 ea bc eb 00 92 bf
       -0.047662396 -1.2430127 -0.02857323 -1.140653
0001d0 31 cb a2 bd 1b 69 bf be b5 6d 30 bf 32 b5 45 3e
       -0.07948912 -0.37384877 -0.689174 0.19307402
0001e0 22 81 08 be 5d 7a 66 bd ea 15 e3 bd 9d b8 80 bf
       -0.1333051 -0.05626904 -0.11088164 -1.005634
0001f0 31 55 11 bf 10 39 53 bf bf b1 9f bd 2c 23 09 bf
       -0.56770617 -0.82508945 -0.07797574 -0.53569293
000200 28 c6 2f bf 64 ed d1 bd 9f 48 41 bf 08 0d a3 bf
       -0.6866174 -0.10250357 -0.75501436 -1.2738352
000210 b5 ab 56 bd 87 15 00 be c4 b1 9a bd a3 6f 66 bf
       -0.052409846 -0.12508212 -0.07553437 -0.90014094
000220 ac e0 69 bf 6d cf ca bd b0 d5 9d bd a7 88 4e bf
       -0.9135845 -0.099028446 -0.07706773 -0.80677265
000230 85 6e 96 bd 84 7a 3b bf 55 09 7a 3e c5 03 29 bf
       -0.07345299 -0.7323382 0.24417622 -0.66021377
000240 22 7f 00 be 35 be db 3e d3 13 55 bf 1e 0b 0d be
       -0.12548497 0.42918554 -0.83233374 -0.13773772
000250 ea e3 ca bf 94 93 5e bd 11 ed 8c bf 42 a9 3d bd
       -1.5850804 -0.05433996 -1.1009847 -0.046303995
000260 44 60 1d bf fd ef 59 be 72 0d f0 bd 0d aa 5a be
       -0.61475015 -0.21282955 -0.117213145 -0.21353932
000270 28 c0 9a be 72 f7 9c be e0 f5 49 bf 93 23 d4 bd
       -0.3022473 -0.30657536 -0.788908 -0.10358348
000280 65 b2 f3 be cd 00 eb be 86 65 a9 bf 49 14 21 be
       -0.47597042 -0.45899048 -1.3234107 -0.15730394
000290 02 d7 09 bd 8b 3d d0 3e 6a db 69 bf c3 5c 7e bf
       -0.033652313 0.40671954 -0.91350424 -0.99360293
0002a0 0b 00 fb bf 4f ae 2a bf 94 db e8 bd 87 a0 fc be
       -1.9609388 -0.66672224 -0.11370006 -0.49341223
0002b0 b2 cb af bd b8 34 91 bf 5a 6d 89 bf 98 ef b0 bd
       -0.08583774 -1.1344213 -1.0736496 -0.08639449
0002c0 b8 34 ac bf ea f2 02 bf 48 ab 44 bd 5f 9d 66 bd
       -1.3453588 -0.5115191 -0.04801491 -0.056302425
0002d0 34 33 08 bf 5c 42 2d 3e 74 2a 52 bf 4e d1 64 bf
       -0.5320313 0.16919845 -0.8209603 -0.89381874
0002e0 50 44 20 be 3f a6 b0 bf c3 2f a1 bd 05 50 e1 bd
       -0.15651059 -1.3800734 -0.07870438 -0.11001591
0002f0 88 63 3f 3e 23 4b fc bd 46 70 2d be 0e d3 68 bf
       0.18690312 -0.12319019 -0.1693736 -0.90947044
000300 22 7b 0c c0 d9 6e 46 bd c0 e8 fc bd 0b 8f 2e be
       -2.1950154 -0.048445556 -0.12349081 -0.17046754
000310 af 97 a8 3d a8 8f f4 be a5 b6 40 bf 0f a7 5c bf
       0.08232056 -0.4776585 -0.75278693 -0.8619241
000320 6d 81 88 bf 27 10 2e be a7 33 d4 bf 26 0e 7d bd
       -1.0664498 -0.16998349 -1.6578263 -0.06178107
000330 1b 1e ab bd b6 e6 97 bf e6 f0 1e bf 93 9c 19 bf
       -0.083553515 -1.1867282 -0.6208633 -0.6000454
000340 68 3b 9c bf 3d 8a 16 c0 54 f3 bd bd 94 ea 4d bf
       -1.2205629 -2.3521874 -0.09274927 -0.8043606
000350 11 47 a2 bf 28 f5 ea bd cf 52 13 be ac 36 26 3f
       -1.2677938 -0.11472541 -0.14387058 0.6492717
000360 37 a6 9a bf 3c 5f 3a bd de 83 43 3e 01 7f b3 bd
       -1.2081975 -0.04550098 0.19093272 -0.087644584
000370 5b a7 5e be f0 0b 8c bf 0b 5a 2a be 9a b7 87 bf
       -0.21743529 -1.0941143 -0.16635911 -1.0602906
000380 4e da 7f bf 2f ff 46 be bf a4 2a bf 70 34 94 3d
       -0.9994248 -0.19433282 -0.6665763 0.07236564
000390 0a 16 a3 bf 90 3a b9 bf e7 92 57 bf 75 4c 1f bf
       -1.2741101 -1.4470997 -0.8420853 -0.6222604
0003a0 08 b4 a7 bd 90 6b 5b bf 20 14 f9 3e 0d dd 6f 3e
       -0.08188635 -0.85711 0.48648167 0.23424168
0003b0 c1 83 1d 3d ca 7a 1c be 8f 35 7b be 8b ef de bf
       0.03845573 -0.15281215 -0.2453215 -1.7416853
0003c0 db 42 cd bd 42 e9 4b 3e 21 dd 80 bd 26 f6 49 bd
       -0.10022517 0.199132 -0.06292177 -0.04930701
0003d0 3e 48 03 bf 45 8a ab bf 87 e1 40 bf 20 f9 c9 be
       -0.5128211 -1.3401572 -0.7534413 -0.3944788
0003e0 a9 51 f4 bf ac 40 cf bd 9c ed f3 bd 01 2f f5 be
       -1.9087421 -0.10119757 -0.11910555 -0.47887424
0003f0 17 8e 03 bf aa 94 48 bf be c4 1b bf 9b 9a 98 3f
       -0.51388687 -0.78351843 -0.6084708 1.1922182

weight f4 [6, 256]
000000 35 28 d1 bc 64 bc 59 3d 76 e0 bf 3d 13 b5 c4 bc
       -0.025531868 0.05315818 0.093689844 -0.024012124
000010 f3 74 bd bc d3 c9 79 bd 96 c4 ed 3b 37 f0 33 3c
       -0.023127055 -0.06098349 0.007256101 0.010982565
000020 c3 ea a6 3b 7a 6d 74 3d 45 b8 08 3e 45 37 6e 3e
       0.0050939037 0.059674717 0.13351543 0.23263271
000030 69 88 6d be 06 cf 2d bf 9e 7a a5 be 90 ab 54 3b
       -0.23196568 -0.6789402 -0.32320112 0.0032450892
000040 30 50 ee 3c 78 af 32 3f cf 00 30 bd c3 4c c4 bd
       0.02909097 0.69798994 -0.04296952 -0.09584954
000050 5b e5 41 3d 25 9d 92 be 34 87 82 bc 4f 61 f2 be
       0.04733787 -0.28635517 -0.01593361 -0.47339866
000060 69 69 61 bb d2 35 8b 3c e8 f8 ce 3c f0 10 54 3e
       -0.0034395105 0.016993437 0.025265172 0.20709586
000070 b6 49 a0 3d 85 29 e4 3d ae ee 43 bc ba 0a b9 3d
       0.07826559 0.11140732 -0.011958761 0.09035249
000080 19 38 c3 3d 28 a8 8c be 0d c3 e4 bc 6c e9 8f bb
       0.09532184 -0.27472043 -0.027925039 -0.0043918397
000090 65 0a d1 be 76 d9 1f be 8f b9 0d 3c 05 b4 01 3d
       -0.40828243 -0.15610299 0.008650198 0.03166582
0000a0 0e 15 50 be 11 37 17 be 5e 0e 37 3e f5 f0 ff 3d
       -0.20320532 -0.147671 0.17876574 0.12497131
0000b0 f0 97 26 3e 8a d9 bf 3d 69 56 dc 3c fd db 1a be
       0.16268897 0.09367664 0.026896672 -0.15122981
0000c0 21 a8 63 be 63 aa 0d 3d e7 08 4d 3d 15 33 5b 3e
       -0.22232105 0.03458632 0.050057318 0.21406205
0000d0 c2 dc 79 3c d6 90 aa bc ad 0e 9b bc bd 85 83 be
       0.015250387 -0.020821016 -0.018927896 -0.25687972
0000e0 c8 93 55 3d d4 0a 5a 3e ba 51 a1 3d 8a d0 03 bf
       0.05214289 0.21293193 0.07876916 -0.5149008
0000f0 af 20 f5 bc 4c 82 b9 bd f2 a2 ec bc d0 e6 b6 be
       -0.029922811 -0.09058055 -0.028886292 -0.3572297
000100 a8 d7 eb bc 29 d2 8d be 95 08 82 bc fa a7 d2 3a
       -0.028789356 -0.27699402 -0.015873233 0.001607179
000110 61 52 00 3c f9 09 47 3f 6f 7e a3 bd e0 54 1f be
       0.007832141 0.7774959 -0.079831 -0.15559721
000120 51 36 59 bf a5 1b da 3e b9 7a bf 3c 50 b9 b7 3d
       -0.84848505 0.42599216 0.023373948 0.089708924
000130 a9 95 e2 3d 8f 1e 55 bd b5 7a e5 3c 8c 93 e7 3d
       0.11063702 -0.052031096 0.028012613 0.11307439
000140 6c 21 43 3b 0f dd 65 be b7 fe 25 bc 35 9a da 3e
       0.002977456 -0.22447608 -0.0101315295 0.42695776
000150 18 ee 10 3e a1 fc 50 3d e0 5d ab 3c c4 7d 25 3d
       0.14153326 0.051022176 0.020918787 0.040403143
000160 ec 6c 6f be 39 2c 3a bc 6e 86 a2 3c 33 d3 67 3d
       -0.23381394 -0.011363083 0.019839492 0.0565979
000170 6e c7 c9 bd 74 a2 91 3c 4d 5e 40 3e 98 ca 47 38
       -0.09852491 0.017777659 0.18785973 4.7633977e-05
000180 5e fc fd bc 75 df 7a 3d 1d a2 9d be ad fe a3 be
       -0.031004127 0.06124826 -0.30787745 -0.3203024
000190 10 b6 f6 bd d6 c7 de 3e a3 2c d1 bd f5 8e 16 3f
       -0.120464444 0.43511838 -0.10213592 0.58811885
0001a0 9d f3 2d 3c b1 fb 16 be de 37 50 be 71 85 31 3c
       0.010617164 -0.1474445 -0.20333812 0.010835038
0001b0 3a 50 f5 3d 04 d0 40 bd 7f c5 ed 3d 2a 12 60 3e
       0.119781926 -0.04707338 0.11609935 0.21881929
0001c0 d0 3f a7 bd 10 54 ae be 1d 3d ee 3b af f1 d3 bc
       -0.08166468 -0.3404851 0.007270469 -0.02587208
0001d0 eb db 05 bd 09 ec 1f be 9a 7c 2f 3e 35 8b 68 3e
       -0.032680433 -0.15617384 0.17137375 0.22709353
0001e0 14 05 da 3e 88 f4 6c bb 8c 2b 01 be 2d bf 0f bf
       0.42582 -0.0036156494 -0.12614268 -0.56151086
0001f0 8f 43 63 bd 47 62 25 be 2c 6b 8c 3c c3 ba 2c be
       -0.05548435 -0.16150771 0.017140947 -0.16868119
000200 21 3e 15 bd a6 36 ff 3d 07 4b e8 3d ec ce 8a 3e
       -0.036436204 0.12461595 0.11342435 0.27110994
000210 bb f5 cb bc af 36 64 bd 26 f2 8b bb a9 55 83 be
       -0.024897447 -0.055716213 -0.0042708097 -0.2565129
000220 1b 19 9e bc b4 0e 80 bc df 6f 5b bd a4 d1 be be
       -0.01929908 -0.015632011 -0.053573485 -0.37269318
000230 82 8a fe bd f3 b3 c5 3d 83 39 09 3e af ed 98 bc
       -0.12428762 0.09653463 0.13400845 -0.018668024
000240 b1 6a 24 3c 70 aa fd bd 2d 80 87 be 2b b1 c7 bb
       0.010035203 -0.12386024 -0.26464978 -0.006094118
000250 1c 44 7e be 7d 98 61 3c bd b6 04 bf b2 ec 74 3d
       -0.24830669 0.013769266 -0.51841336 0.059796043
000260 67 5b c3 be df 58 41 bc f1 69 23 be e1 3e 6a be
       -0.38155672 -0.011800974 -0.15958382 -0.22875549
000270 6b a4 0b bd 26 60 09 3d 6e ac 0b 3e d4 e1 32 3d
       -0.034092348 0.03353896 0.13639995 0.043672398
000280 b2 7e 83 bd ef fc 1d bc cd 9a 90 3d 92 d0 87 be
       -0.064206496 -0.009642824 0.07060776 -0.26526314
000290 7c 55 67 bb 99 dc e3 be ab 92 07 bf 62 ec ab bc
       -0.0035298755 -0.4450424 -0.5295817 -0.02098674
0002a0 64 a0 d2 3e 68 8c 2a be 6b 08 32 bd 32 c3 6e 3e
       0.41137993 -0.16655123 -0.04346506 0.23316649
0002b0 69 a3 39 3b 11 8b 44 bd 55 42 6c 3f d9 20 1a bd
       0.002832616 -0.047984187 0.92288715 -0.037628982
0002c0 02 09 ec 3d 46 46 8b bd 4b bc 1d bd 1a 0c 4a 3d
       0.115251556 -0.06800513 -0.03850965 0.049327947
0002d0 16 d0 ac 3e 47 ed 6e be c8 77 bd bd 91 be 0d 3e
       0.33752507 -0.23332702 -0.09251362 0.13842227
0002e0 5f f1 a9 3b 0a 2d 05 bc 20 d1 50 3e 7e bd 1f 3d
       0.0051862444 -0.008128414 0.20392275 0.038999073
0002f0 f0 a0 15 3e a4 e3 0b bd 38 6f 87 3d 7e 53 09 3e
       0.14612174 -0.034152642 0.0661301 0.13410756
000300 1d 22 af be 1a ae 22 be 7c a4 9a 3c ea 7e b2 3c
       -0.34205714 -0.15886727 0.01887726 0.021789033
000310 81 4e 5f bd 19 62 25 3e 8a a4 92 3d ab 93 3a be
       -0.054518227 0.16150703 0.071602896 -0.18220393
000320 6e 64 ed 3e e2 f7 35 bc 4d 9f 80 3e df 53 59 3b
       0.46365684 -0.011106463 0.25121537 0.0033161563
000330 58 a7 62 3c d6 60 01 be 4e 3d d2 be 17 81 2a 3e
       0.013833843 -0.12634596 -0.41062397 0.16650806
000340 93 16 d0 bc b8 0d 4f be 2b b0 02 bd fa 3b 46 be
       -0.02540139 -0.20220077 -0.031906288 -0.19358817
000350 79 0f 59 bc 9e 8a 22 3d 9e f0 18 bd 23 ee ae 3e
       -0.013248318 0.039682977 -0.037338845 0.3416606
000360 1d 25 62 be b8 05 87 bc 10 e4 41 bd cd 9e 75 3c
       -0.2208447 -0.01648222 -0.047336638 0.014991474
000370 07 07 1c bd 66 0a 8b be 8c 23 1f be bf fa 5a 3e
       -0.03809264 -0.2715637 -0.15540904 0.21384715
000380 cf 01 01 be 1d 37 a2 bd 0d 31 8e 3c 47 c1 96 bd
       -0.12598346 -0.07920668 0.017357374 -0.073610835
000390 fa 3d 41 bd 5f 50 d2 be b3 02 f3 3d 25 ba 65 3e
       -0.047178246 -0.41076943 0.11865749 0.2243429
0003a0 7d 5e 99 bb 37 94 d7 3e 56 41 3b 3e 80 c7 d8 3d
       -0.0046804533 0.42105266 0.18286642 0.105849266
0003b0 21 84 bc bd 39 ec 20 bd 62 39 f4 bd 76 70 79 be
       -0.09204889 -0.03928778 -0.119250074 -0.24359307
0003c0 6d 2a 71 3c 16 f0 5e 3d a2 ff 32 3c 3f 37 7f bc
       0.014719588 0.054428183 0.010925205 -0.015577137
0003d0 af dd 6a 3f 26 1b 9b ba 68 48 1c be 11 da 3b 3d
       0.9174451 -0.0011833652 -0.15261996 0.04586226
0003e0 33 c2 6c be d3 bb 48 bd f5 7e db 3c 8e d1 d3 3e
       -0.23120956 -0.049007248 0.026793936 0.41370815
0003f0 dd 63 55 3f 13 1d b3 be 73 77 5a 3e a3 37 c7 3d
       0.83355504 -0.3498312 0.21334629 0.09727409

bias f4 [6]
000000 1b cb ec 3d 0f ac 72 be a2 b0 9b bd a4 7d f0 be
       0.11562177 -0.23698448 -0.076020494 -0.46970856
000010 e2 40 90 3e fe 1f fd 3d
       0.28174502 0.12359618

weight f4 [6, 256]
000000 44 e5 56 bc 17 98 18 bd 88 18 36 bc 56 09 aa 3c
       -0.013116185 -0.03725442 -0.011114247 0.020756405
000010 f8 c8 4c 3d a0 0b 06 3d ba 47 cc 3d 72 97 54 bd
       0.049996346 0.03272593 0.09974618 -0.051902242
000020 79 0c 71 bb 95 44 89 bd 1d 4d 11 3e 49 a3 b4 bc
       -0.0036781116 -0.06702534 0.14189573 -0.022050517
000030 f1 85 15 3f 08 84 9a ba f1 43 57 3e f5 d5 f6 3b
       0.58407503 -0.0011788616 0.21022011 0.00753283
000040 36 19 3c bb 10 46 c1 3e 49 16 79 3c cd 01 59 3c
       -0.002870155 0.37748766 0.015203067 0.013245058
000050 8b 7a 42 bd a8 14 08 3f 20 43 dd 3c d3 27 81 3e
       -0.047480147 0.5315652 0.027009547 0.25225696
000060 88 cd 06 3d 8a c0 55 3d f3 6c 0c bc d3 ca df 3e
       0.032910854 0.052185573 -0.008570897 0.4370943
000070 a8 61 ce 3d 67 5a 13 bd 8c cb 8f bb 03 b2 b0 3d
       0.1007722 -0.035974886 -0.0043882784 0.08627703
000080 9a 3e ab 3e ca e9 1b 3f 56 8c 6c bd 87 fb 85 3d
       0.334462 0.6090361 -0.057751022 0.06542116
000090 ed c7 21 3f ba 5c a7 3e 33 49 be 3e 46 d9 03 3f
       0.6319569 0.32687932 0.37165222 0.5150341
0000a0 48 df 5d 3d 6a 43 6f bc d6 f7 c6 3c 39 88 d0 3e
       0.054168016 -0.014603475 0.0242881 0.4072893
0000b0 4b ac 05 3e e3 28 c5 bc 8f 36 8c 3e 4a 7f 34 3e
       0.13054006 -0.024067348 0.27385375 0.17626682
0000c0 ec 49 cd 3e 6b 76 c3 3c cb 2b 20 be d4 06 9b 3d
       0.4009546 0.023860177 -0.15641706 0.07569662
0000d0 7a 69 de 3c 9e 3a e3 3d 28 8b 89 bd 50 5d 5a 3c
       0.027149905 0.11095165 -0.06715995 0.0133279115
0000e0 c8 7e f1 bc 49 79 94 3e 98 32 c2 bd 16 8b 4a 3e
       -0.0294794 0.28998783 -0.09482306 0.1977962
0000f0 68 9d 16 3f 99 be 0a 3e 22 a6 d2 3d 7e a6 a9 bc
       0.5883393 0.1354927 0.102855936 -0.020709272
000100 04 fe 18 3f 51 a2 60 3e 18 52 08 3e 5f 54 79 bd
       0.597626 0.21936919 0.13312566 -0.06087148
000110 32 b7 0e bc e8 cf a4 3e 5d 89 14 3e df 66 3b 3f
       -0.008710669 0.3218987 0.14505525 0.73203844
000120 52 1c fa 3e da b5 84 3e 14 e1 13 3f 49 37 5c 3d
       0.48849732 0.25919992 0.57765317 0.05376366
000130 7f a6 c2 3c bb 1f 7d 3c a2 da 66 bd 81 42 e8 3e
       0.023761032 0.01544946 -0.05636085 0.45363238
000140 a7 eb 0f bc a7 89 88 3e 46 3a 36 39 e2 d2 2d 3d
       -0.008784211 0.2666752 0.00017378581 0.04243744
000150 9b 22 da 3d 8d 82 c4 3c 12 d9 18 3e c3 ce c2 3e
       0.10651132 0.023988033 0.14926556 0.38048372
000160 df ed fc 3e de 74 b0 bd 28 eb e6 bd e0 92 19 bc
       0.4940023 -0.08616041 -0.11275321 -0.009373397
000170 cb 05 78 bb 49 0c 7e 3e 5b 2a 42 3f cf 7f 76 bd
       -0.003784525 0.24809374 0.7584588 -0.06018048
000180 6c f4 fa 3d 39 a8 e2 bb 27 ff 18 be 08 d6 30 3f
       0.12253651 -0.0069170264 -0.14941083 0.69076586
000190 b5 a9 a8 3b de fb c8 3e e7 df d6 3d b5 42 26 3f
       0.005147184 0.3925466 0.10491925 0.64945537
0001a0 e1 57 ef 3d 9c 10 5c 3e ad c4 f0 3e 0e 15 42 bd
       0.116866834 0.21490711 0.47025052 -0.04738336
0001b0 b1 98 b8 3d 69 72 3e 3b e2 73 5b 3d 67 8c 3a 3d
       0.090134986 0.0029059893 0.05357731 0.045544054
0001c0 8d 7b 27 bc 18 c5 05 3f f4 e0 9a 3d 82 63 02 bd
       -0.010222328 0.52253866 0.07562438 -0.03183318
0001d0 08 8c d6 bb 3d 58 10 be 14 af ec 3e 29 be a3 3e
       -0.0065474547 -0.1409616 0.46227324 0.31981018
0001e0 11 93 c0 bd 1b bd 07 3d 8f 18 ee 3d e8 57 b3 bd
       -0.09403051 0.03313933 0.11625778 -0.08757001
0001f0 0f bb 81 bc a1 bc 76 3e d9 69 5e 3c 8d 3b ad bc
       -0.015836267 0.24095394 0.013575041 -0.02114656
000200 55 8b a8 3d fd 36 92 bd 95 17 fb bc cd 5f 30 3d
       0.082297005 -0.071393944 -0.030650893 0.043060113
000210 64 5f 51 3b 79 38 a8 3d d9 01 fd 3a ad 3c 2c 3e
       0.0031947726 0.08213896 0.0019302919 0.16820021
000220 d4 df 6b 3d 14 e4 7f 3d 57 f6 72 3c 1b c9 fe 3d
       0.057586506 0.06247337 0.01482924 0.124407016
000230 3d d8 73 3d 43 63 d9 3e 6a 5e d5 bc 96 24 71 bd
       0.059532393 0.42458543 -0.026045997 -0.05887278
000240 a8 b1 d2 bb 54 dc ae bd 9e 39 31 3e 66 05 41 3c
       -0.0064298697 -0.08538118 0.17307135 0.011781072
000250 50 5e 97 3e 98 33 b3 3c 1d 97 0a 3e 9e f4 5f 3c
       0.29564142 0.021875188 0.13534208 0.013669161
000260 f5 7e fb 3e e3 81 11 3d dd 1c 83 3e 65 e6 5d 3d
       0.49120298 0.03552426 0.25607958 0.0541748
000270 ca 3a 81 bd b1 d4 b3 3e c5 fd 00 3e a9 03 20 bd
       -0.06310041 0.35123208 0.12596805 -0.03906599
000280 9a 8e ea bc b9 41 25 bd ef f7 08 3d 9b c5 d0 3d
       -0.02863245 -0.04034588 0.033439573 0.1019394
000290 5f fe c1 3c 72 df d3 bb c3 4e 70 3e bd 03 44 3e
       0.023680864 -0.0064658457 0.23467545 0.19142051
0002a0 2b 61 98 3e 81 ad 03 3f 1f 18 8c bd b9 dd d5 3e
       0.29761633 0.5143662 -0.06840538 0.41770723
0002b0 86 a5 04 bb d2 15 ad 3e 91 49 45 3f e2 75 8b 3d
       -0.0020240261 0.3380571 0.7706538 0.06809594
0002c0 cb 0e a5 3d af 00 b5 bc 5c e1 3e bd 08 64 6e 3d
       0.08059462 -0.022095053 -0.04660164 0.058200866
0002d0 0d f5 64 3e b4 11 5f 3d 52 63 0b bb 3f 69 da 3e
       0.22359104 0.054460242 -0.0021268916 0.4265842
0002e0 e5 31 6b 3d b6 85 fc 3d e3 7a fa 3e 8e a1 36 bd
       0.05742063 0.12330191 0.4892188 -0.044587664
0002f0 48 4a 03 3c 44 d6 a6 bd 68 5c 1a bd 11 5b 2b 3f
       0.0080133155 -0.08146337 -0.03768578 0.6693583
000300 c5 94 9d 3e 7d d2 9a 3e 69 85 97 3c 8e 16 b0 3c
       0.30777565 0.30238715 0.018496232 0.02149513
000310 aa 20 5b 3d 69 b3 12 3f 95 39 8e bd e3 b1 9b 3e
       0.053497948 0.5730501 -0.06944577 0.30409154
000320 f7 6b f0 3d 1b 52 a6 3d 88 74 19 3f 85 19 a4 bc
       0.11739343 0.08121129 0.5994344 -0.0200317
000330 45 8c 8e 3b b5 31 f8 3e c3 ce a4 3e ca 5b 97 3d
       0.0043502175 0.48475423 0.32188997 0.07390554
000340 41 46 e2 3e 3c 13 24 3e d3 20 f8 bc 62 7e 8b 3e
       0.44194224 0.16022962 -0.03028909 0.2724486
000350 b1 c5 fb 3e ef c6 a2 bd c1 81 da bc a4 a8 7c bc
       0.49174264 -0.079481 -0.0266732 -0.015421066
000360 ee 97 9e 3e 51 02 93 bc 92 d8 7f bc f6 18 82 3b
       0.30975288 -0.01794544 -0.015615599 0.0039702607
000370 96 d2 85 3d a8 61 88 3e e9 ad c9 bc 5a e6 f4 3b
       0.06534307 0.26637006 -0.02461906 0.007473749
000380 13 ba 2d 3e 32 be 80 3d 78 df 57 3d 61 49 1e 3e
       0.16965513 0.06286277 0.05270335 0.1545768
000390 17 ea 8d 3e 10 50 29 3f 68 9f 05 3f db bd 58 3e
       0.2771766 0.6613779 0.5219636 0.21166174
0003a0 4d ba 96 bd 46 4d ac 3e 80 c1 c6 bc dd 0f 26 3d
       -0.07359753 0.33652705 -0.02426219 0.040542472
0003b0 6a 19 31 bc c3 4a 87 3d 73 b9 b5 bb 34 80 6d 3f
       -0.010809282 0.066060565 -0.005545789 0.9277375
0003c0 ad e9 e4 3c 58 b9 37 3a a1 68 a5 3d 85 cc 76 3d
       0.027943457 0.00070085144 0.08076597 0.06025364
0003d0 96 2a c4 3e 25 59 cc 3e 03 15 df 3d 6d 7f 95 bc
       0.3831374 0.39911762 0.108926795 -0.018249238
0003e0 bc 40 b9 3e f4 c8 d4 bc 54 21 09 bd bc 6c b8 3e
       0.361822 -0.025974728 -0.03347905 0.36020458
0003f0 21 e9 10 3f 90 b0 2e 3d c8 08 82 bd 5a 51 64 bd
       0.56605726 0.042648852 -0.06349331 -0.055741645

bias f4 [6]
000000 70 80 9c be f7 b0 f7 be 16 47 59 be 25 bf ef be
       -0.3056674 -0.483772 -0.21218523 -0.4682552
000010 c7 1a bb be 5e 0e 3a be
       -0.36543867 -0.18169543

weight f4 [256, 32]
000000 86 a8 10 40 50 2a 56 bc 11 91 32 bf 35 0e 67 bf
       2.2602859 -0.0130716115 -0.69752604 -0.90256053
000010 a0 de 8a bb 20 8e ec 3d 76 06 09 be c7 3d 1d c0
       -0.0042379647 0.11550546 -0.13381371 -2.4568956
000020 f3 63 19 bf 05 8b 3b be b8 c2 81 bf 31 53 70 3f
       -0.59918135 -0.1831475 -1.0137548 0.9387694
000030 83 d9 91 bf b0 aa 73 be 8a de 4e be 41 62 e2 3f
       -1.1394504 -0.23795581 -0.2020208 1.7686235
000040 e2 7b f2 be ab 5b 39 3f 37 7e db 3d aa f7 bc bd
       -0.4736014 0.724055 0.10717433 -0.09226926
000050 aa 4f c4 3e 46 62 c8 3d 30 e1 30 3c 12 92 ee bd
       0.3834203 0.09784369 0.010795876 -0.116489545
000060 16 05 b7 3d a2 69 97 3d fd 72 d1 bd 59 55 92 3f
       0.08936517 0.07393195 -0.102270104 1.1432296
000070 c7 19 c1 be ef a2 f3 3d c9 fa bf 3c d5 48 d8 3d
       -0.3771498 0.118963115 0.023435013 0.105607666
000080 88 a1 43 40 10 42 35 bd f1 7e 31 bf aa 4d 2a be
       3.056734 -0.044252455 -0.6933432 -0.16631189
000090 b8 43 c1 bd cf 9c ed be 77 3c 2a be a2 9a 40 3f
       -0.094367445 -0.46408698 -0.16624628 0.7523595
0000a0 77 de f7 bf 1b 07 d0 bf 44 4e 3e be e9 f4 81 bf
       -1.9364766 -1.6252168 -0.18584543 -1.0152866
0000b0 82 d7 25 bf 38 af 9b bc a2 36 7c 3f 56 14 82 bf
       -0.64781964 -0.01900445 0.98520863 -1.0162456
0000c0 42 05 46 bf 1e 78 49 bf d4 f0 16 bf ea 8e 8e 3e
       -0.7735177 -0.7869891 -0.58961225 0.2784341
0000d0 32 bd 80 bf 48 14 cc 3c e6 67 b0 3d 5d 16 9a bf
       -1.0057738 0.024912015 0.08613567 -1.2038075
0000e0 cb 4e e6 bd 58 fc bc bc f4 08 e2 bd d9 a4 23 bf
       -0.11245497 -0.023069546 -0.11036864 -0.6392341
0000f0 cf 1a 82 bf af 7f 99 be 52 5d 02 bf 04 b1 9b 3e
       -1.0164431 -0.29980227 -0.50923645 0.3040849
000100 b9 31 49 3f be f5 a9 3d 01 cf 00 bf 00 e7 2c bf
       0.78591496 0.08298825 -0.5031586 -0.6753998
000110 97 cf 09 3e eb b9 84 bf 6f fb 09 3e b6 1c be 3e
       0.13458095 -1.0369238 0.1347482 0.3713128
000120 ae 05 97 bf 80 73 27 bf b7 0d 41 c0 0e 3b 68 3f
       -1.1798608 -0.65410614 -3.016462 0.9071511
000130 36 68 f7 be 58 48 fa be 71 96 f1 bf 69 41 40 bf
       -0.48321694 -0.4888332 -1.8874036 -0.7509981
000140 4c b9 23 bf 11 aa c9 3e 87 fd 51 3e 14 ea 11 3f
       -0.63954616 0.39387563 0.2050687 0.569978
000150 54 0e 4b bf aa bd b4 3d 1c c4 3b bd e5 f4 1f bf
       -0.7931874 0.08825238 -0.04584132 -0.62483054
000160 a0 19 87 bb e0 84 0b be 3e 22 d4 bf 19 96 97 3f
       -0.004122928 -0.13624907 -1.657295 1.1842681
000170 43 e5 80 be ce 49 0b 3f 03 5f 8b bf 3a 83 35 bf
       -0.25174913 0.5440949 -1.088837 -0.7090336
000180 eb 9e d8 3f c4 a7 0d be 5a 59 90 3f d9 3f 59 3f
       1.6923498 -0.13833529 1.1277268 0.8486305
000190 ef b7 a0 bd c7 9c 2a bf e8 03 d2 bc fc 52 04 c0
       -0.078475825 -0.66645473 -0.025636628 -2.067565
0001a0 c0 48 e7 be 68 e3 0e bf 86 47 d1 be a9 27 85 3e
       -0.4517269 -0.55815744 -0.4087488 0.2600682
0001b0 f3 23 f7 bd 4e 71 ea 3a 19 26 3a 3f df e1 0e bf
       -0.12067404 0.0017886551 0.7271438 -0.558134
0001c0 76 98 35 3e d2 12 f3 3d c6 84 22 bd 8b 31 d7 3c
       0.1773394 0.11868824 -0.039677404 0.026268741
0001d0 9a cb 71 3e 44 5d 26 be 4d eb 29 be 82 d7 f3 bc
       0.23612824 -0.16246516 -0.16593666 -0.029765848
0001e0 9c 88 49 3d e1 7f aa bd fd 8c ab 3e b9 76 d2 3e
       0.049202546 -0.08325172 0.33506003 0.41106203
0001f0 da ec ae bd 3a 24 10 3e 89 ca 5e 3e 7d 74 83 3e
       -0.085412696 0.1407632 0.21756949 0.2567481
000200 e1 a0 46 c0 56 ce b1 3d 46 9d d3 be 71 8e 99 40
       -3.1035693 0.086819336 -0.41330928 4.798638
000210 00 5c b4 b9 0b c8 d5 bf ac c4 0e be f8 71 11 41
       -0.0003440082 -1.6701673 -0.13942212 9.090324
000220 d3 49 ce bc 30 7f 18 bf fa 29 53 3f fc ed 29 bd
       -0.025181687 -0.5956907 0.82485926 -0.041486725
000230 e5 3c a0 3e ec c5 f3 3e 76 a0 c7 3f 60 8d 84 3f
       0.3129646 0.4761194 1.5595844 1.0355644
000240 6e 67 f5 3e f4 30 3e 3f ab ca 8b bf bc ab da 3d
       0.47930473 0.74293447 -1.0921224 0.10677287
000250 d5 76 92 bd b8 1e b0 bc a0 5d 08 3c 59 d2 91 bd
       -0.07151572 -0.021499023 0.008323103 -0.07120199
000260 ba 06 f3 3d 1e 90 30 be 77 d9 8e bc c4 49 44 bd
       0.11866517 -0.17242476 -0.01743768 -0.04792191
000270 10 22 a8 be bc 65 aa 3d c7 53 20 3f ce e8 73 3e
       -0.32838488 0.083201855 0.62627834 0.23819277
000280 55 53 2b bf f8 71 7f 3d 5b b7 b1 bd 9b c7 1c bf
       -0.6692403 0.06236455 -0.086775504 -0.61242074
000290 d8 19 93 3d 5e 31 0f 40 c5 1a 0c be 42 e6 8c 3f
       0.07182664 2.2373881 -0.13682087 1.1007769
0002a0 61 0d 2b bf e8 5e 53 be 2b f6 96 3f 67 64 16 3f
       -0.6681729 -0.20641673 1.1793875 0.5874695
0002b0 3a 39 0a 3f 25 05 e8 3b 97 43 b1 3c 66 3f ec 3e
       0.5399357 0.0070806914 0.021638675 0.4614212
0002c0 57 cc 17 3e 0f 26 85 3e 73 fe f6 bd f6 f6 e8 3d
       0.14824043 0.260056 -0.12060251 0.11375229
0002d0 55 3b 61 bf ce b2 9e 3d c0 85 e0 bc 6b ec 38 b9
       -0.8798116 0.07748948 -0.027407527 -0.0001763568
0002e0 bd f0 a4 bd 30 f6 6b bd d6 c3 c0 3e 45 32 9d 3f
       -0.0805373 -0.05760783 0.3764941 1.2280966
0002f0 2d fe 34 bf 44 3e 38 3f 82 d9 a2 3f a3 c1 3c 3e
       -0.7070034 0.7197001 1.2722628 0.18433242
000300 a9 c8 c1 bf a6 e0 e1 3d c8 3b 56 bf b1 82 85 be
       -1.5139362 0.110291764 -0.8368497 -0.26076272
000310 50 82 78 3d 02 a8 46 c0 c4 b6 0f be d0 fa f8 3f
       0.06067115 -3.1040044 -0.14034563 1.9451542
000320 1b a4 cb 3e 40 2f 12 3f 99 c6 1a 3f 81 ee 7f bf
       0.3977364 0.5710335 0.60459286 -0.99973303
000330 f0 c3 05 bf 42 e5 9f 3f 55 a4 27 bf ac 1c 7c 3e
       -0.522521 1.2491839 -0.65485126 0.24620312
000340 48 09 82 3e 60 6b 5a 3f a6 d7 71 be 48 c0 8f 3f
       0.25397706 0.8532009 -0.2361742 1.1230555
000350 77 be d9 3e 98 73 30 3d 68 10 b1 bc 75 a6 ed 3e
       0.42528126 0.04307899 -0.021614268 0.4641606
000360 0b 96 06 be c0 af 0c 3b 1a 85 ba 3c 94 e9 a1 bf
       -0.13143174 0.002146706 0.022768546 -1.2649407
000370 2f f4 9f 3f 96 1f 4d 3d ed ef f7 3d c9 d6 fc 3d
       1.2496394 0.05007895 0.12106309 0.123456545
000380 7a 9a 89 40 74 71 a1 bd 84 d8 e1 bd 6f 07 0c bf
       4.300107 -0.078829676 -0.11027625 -0.5469884
000390 e0 b8 2d 3c dd 8f 34 bc ff cd 0d 3e d4 3a 88 bf
       0.01060316 -0.011020628 0.13848113 -1.0642953
0003a0 99 b0 aa bf 9c f1 4f 3e 7f 52 b9 3d a2 39 8c bf
       -1.3335143 0.2030701 0.09048938 -1.0955088
0003b0 1a 45 0f bf 94 81 51 3e 58 12 ab bf bd d2 07 40
       -0.55964816 0.20459586 -1.3364973 2.1222374
0003c0 66 3c d2 bf c7 6b 9a 3e 8d 04 c7 3e 30 b4 05 bf
       -1.6424682 0.30160353 0.3887066 -0.5222807
0003d0 60 55 1f 3f 22 f3 99 3d 0e 55 d0 bd 8b e0 ae bf
       0.62239647 0.07517077 -0.10172473 -1.3662275
0003e0 a8 29 72 3d 1e 40 fa bd 5d 8d 59 3f 04 2a 40 3e
       0.059121758 -0.12219261 0.8498133 0.18766028
0003f0 df 1a e2 3d 59 38 19 3f 3d 15 ca 3e 09 8b 01 bf
       0.110402815 0.59851605 0.3946933 -0.50602776
