data/cmd_sac_pytorch_use/cmd_sac_pytorch_use_s10/pyt_save/model.pt (torch_old, 920366 bytes, 18 tensors)

weight f4 [256, 28]
00000000: 1249 963d c13e 25bc 0406 42be c03b 8d3a
00000010: bce1 21bd 6e66 913d 5884 c93c 94ac eb3d
00000020: 79ed 1b3d 1bc7 01bc 2fe8 923d c2c5 44bd
00000030: e3e1 9c3d 0f54 733d 801f 56bd bd15 8e3e
00000040: 30e1 7fbc a321 d3bb 2896 8cbd 7f02 943d
00000050: f3bb 4d3c 8f12 ecbd 69b6 2ebd d642 0cbe
00000060: cfe1 5dbe b7ef 3bbe 0c21 33be 2c73 37be
00000070: 9a21 0cbd 52f0 7fbe 4e42 433d 6afc e23e
00000080: 1319 3e3e 2141 853e 0467 f03e 0c48 263e
00000090: e085 fa3e b3f3 903d 2aa5 e23e ed5e 7ebe
000000a0: b331 d73e 0b7c 8f3e 06f1 16bf 32ea 6b3e
000000b0: d221 7b3d 8bd7 d7bd cd6d e0be 8913 723e
000000c0: 904f 003f 029a 32bf f5f4 30bd 8b36 12be
000000d0: ea17 f9be bb13 3fbe e68e e63d 4db5 9c3d
000000e0: b4f0 a0bd 4b21 0dbf 9b89 c63d ca02 3e3f
000000f0: 7c1d 55bf 096d 8cbe 992a e63e 4c96 15ba
00000100: 54b0 fb3e 9f5f eebe 8615 043f 1071 9fbf
00000110: f97d 35bf aed3 5cbd ea99 d0bc 4c53 4c3e
00000120: df8a 0bbf e19f 92bd f94d d3bd 1ca6 363d
00000130: ec5b 6f3e c7c5 86be 942d 38ba 34b1 05bf
00000140: a1db 38be 8737 4bbe bfa3 5b3e e683 363d
00000150: 4d6e 963e 6064 babf 3ed0 ffbe af20 e0be
00000160: cdc9 283e 82b9 983d 6cb0 76be 6857 f5be
00000170: 78c0 c9be 6d49 acbe fb06 b3bd 0a97 223f
00000180: d38d 143f a53d 523e 9318 dabe 75dc 11bf
00000190: ea60 bb3d 3f18 99bc ca93 bc3d 6f3a 8b3f
000001a0: e382 eb3d 808e 0c3e a0d8 e23e 3c59 6c3e
000001b0: 4dd2 adbc 54fd d03c a183 c13e 8b63 733e
000001c0: 0d42 a53e a5f6 f13e a9d4 3ebe 282b 84bf
000001d0: a87c 00be 1e35 343e 138f c73d da3e 7e3e
000001e0: 5604 fc3e 6560 16be a590 053e 4c81 d03e
000001f0: 70f6 b63d 51ae d6bd 4599 4cbe 139d fd3e
00000200: ec35 14bf 1fe4 a33d 8dc5 1d3e b0cf fc3e
00000210: b54a 7abe e3f3 a53e 2a46 153d cccc 4ebe
00000220: 8d60 bcbd f334 d33e 1a07 cdbe 92f5 73be
00000230: 8421 d73d 1624 843f 8484 43bd 5a72 51bf
00000240: c84a e23e f3aa ec3e 8f5c 0c3f 4538 6cbe
00000250: 28bc f13e d29f fabd f0f3 bfbd 3edc 4bbe
00000260: 2da9 623e 2964 d8be 894e d3bd 3c00 b5be
00000270: e7c4 833e ae37 943e bcab 103e 780f 10bc
00000280: fdf0 b63d 628e c2be 5038 b13e 2476 f5be
00000290: c243 9ebe edf9 82bc 4ea6 46be 83d7 10bf
000002a0: 4858 21bf 3d9a 9dbd 9f85 4a3e 688f 93bd
000002b0: f278 afbe 4182 afbe 449e 543e a2fa 22bf
000002c0: 2118 b4bd 6402 b53d b621 0f3e aad2 0fbd
000002d0: 5280 29bf d89c 72bc 6a1a 143e 4e19 acbe
000002e0: ba79 c6be 6609 d6be 0079 663e 7dac 9cbd
000002f0: 5f4b 533e e7de f23d 5a72 203e 7272 a0be
00000300: c737 7b3d 922e 54bf e045 473e 79ab 00bd
00000310: 3dc5 8a3e be0a 9d3e a9e5 64be d805 debe
00000320: 907a 4e3d d68a ab3e ec51 81bc 9f80 57bf
00000330: 8e67 12bf f003 e3be ccfb 9c3e 5039 423e
00000340: dcf6 13bf a322 8abe b21e d03e c2b8 08bc
00000350: a740 68be 02a9 d03e c82c 3ebd cfb5 033e
00000360: 005f d0be 19d5 223f 40e9 dcbd bfc4 12be
00000370: 9bd6 a7be 5666 82be 2226 8fbe 42e0 bcbe
00000380: 2fa2 413e c8d9 e2be e345 333d 76d1 393e
00000390: e133 af3e 6fbe 9bbe 3515 8ebe 3c6d 8fbf
000003a0: 583c cabe a36f 8d3e 7193 db3e 9a1d 3b3f
000003b0: 198e 05bf 312b 8dbe 3ce5 44bd 9575 00be
000003c0: 9989 043e 9b29 8cbe 1397 53bd dbb4 d13e
000003d0: 5140 0ebf 120f 2cbf 5c58 d43e 1045 5dbf
000003e0: 7117 1ebe c8f9 833e 4fbb bf3d 76be c4be
000003f0: a2ae 493e 20ee 213f c4ae 50be 9bdd 0a3f
0.07338156 -0.0100857625 -0.18947607 0.0010775253 -0.039521918 0.07099615 0.02459924 0.11507526
0.03806827 -0.007921006 0.07173192 -0.04804016 0.07660272 0.059406336 -0.052276134 0.2775096
-0.015617654 -0.006443219 -0.068645775 0.072270386 0.012557018 -0.11526977 -0.04265443 -0.13697371
-0.2166817 -0.18353163 -0.17493075 -0.17915028 -0.034211732 -0.24994019 0.047670655 0.44333202
0.18564253 0.26026252 0.46953595 0.16238421 0.48930264 0.07077732 0.44266635 -0.24840899
0.42030105 0.28024325 -0.5896152 0.23038557 0.06131155 -0.105391584 -0.4383377 0.23640265
0.501214 -0.6976625 -0.04320236 -0.14278619 -0.48651057 -0.1865987 0.112577245 0.07651768
-0.078584105 -0.55128926 0.09694215 0.74223006 -0.83248115 -0.27426937 0.44954374 -0.0005706295
0.49157965 -0.46557328 0.5159534 -1.2456379 -0.70895344 -0.05391281 -0.025464017 0.1995365
-0.54508775 -0.07159401 -0.103176065 0.044592008 0.23374909 -0.26322767 -0.00070258346 -0.52223516
-0.18052532 -0.19845401 0.21449183 0.044559382 0.29381028 -1.4561882 -0.49963564 -0.43774936
0.16483231 0.07457258 -0.24090737 -0.47918248 -0.39404655 -0.3364977 -0.08741566 0.6351172
0.58028907 0.20531328 -0.42596874 -0.56977016 0.09149344 -0.01868832 0.09207876 1.0877208
0.11499574 0.13726234 0.44305897 0.23080915 -0.021218443 0.025511421 0.37795737 0.23768441
0.32276955 0.47258487 -0.18635811 -1.032567 -0.12547553 0.17598388 0.09744086 0.24828663
0.49222058 -0.14685209 0.13043459 0.40723646 0.08933723 -0.10482467 -0.19980343 0.495339
-0.5789478 0.08002495 0.15407391 0.49377203 -0.24442561 0.32412633 0.036443867 -0.20195311
-0.09198103 0.41251335 -0.4004448 -0.23824146 0.105044395 1.0323513 -0.0477338 -0.8181511
0.4419768 0.46224174 0.54828733 -0.2306834 0.47213864 -0.122375146 -0.09372699 -0.19908234
0.22134848 -0.42263916 -0.10317714 -0.3535174 0.25736162 0.2894873 0.14128011 -0.008792751
0.089326836 -0.37999254 0.34613276 -0.47941697 -0.3091107 -0.015988315 -0.19399378 -0.56578845
-0.6302533 -0.07695434 0.19777535 -0.07205087 -0.3427196 -0.34279063 0.20763499 -0.63663685
-0.08793665 0.088383466 0.13977703 -0.035113014 -0.66211426 -0.014807902 0.14463201 -0.33613056
-0.38764745 -0.41804045 0.22507095 -0.07650087 0.2063422 0.118589215 0.15668622 -0.31337315
0.06133249 -0.8288356 0.19460249 -0.03141353 0.27103606 0.30672258 -0.22353233 -0.43363833
0.050409853 0.3350436 -0.015786134 -0.84180635 -0.5718926 -0.44338942 0.30660856 0.18967175
-0.5779855 -0.2697955 0.4064842 -0.008344831 -0.22680913 0.40753943 -0.046429425 0.12862323
-0.4069748 0.6360641 -0.107866764 -0.14332865 -0.32780918 -0.254687 -0.2795878 -0.36889845
0.18909524 -0.4430678 0.04376782 0.1814631 0.34219268 -0.30418727 -0.27750555 -1.1205211
-0.39499164 0.27624235 0.42885926 0.73092043 -0.5216995 -0.27572015 -0.048070177 -0.12544854
0.12943114 -0.27375492 -0.051657747 0.40958294 -0.5556689 -0.67210495 0.41473663 -0.86433506
-0.1543863 0.25776505 0.09361898 -0.3842656 0.19695523 0.63253975 -0.20379168 0.54244393

bias f4 [256]
00000000: 0159 0fbe 3a53 6fbe 8774 a13d 3b0b f5bd
00000010: b401 c2be e603 5fbe 23e8 89bc 0683 94be
00000020: e317 f13d 9cd4 2bbe 9a23 80be 80ef 41bd
00000030: 2316 41be b543 163e 982c debd 464d b23d
00000040: d5e2 cf3a 6f83 72be 4cc5 f03c 077c a1be
00000050: a780 f7be 9c1b 3fbe 5b6c 0c3d e82b fabd
00000060: a595 023c 3c8c 873e 82a7 8abe 9280 97be
00000070: 3c5a e2be 34bb d7bd 5c8a 2dbd 18dc 84be
00000080: bf19 b1be 8335 65be d584 36be 282a febd
00000090: 4d10 0e3d 6261 cdbd 9f35 2abe 595b d4bc
000000a0: 4216 edbc ff3b 7a3e 2829 a8be 6342 91be
000000b0: 2184 b6be f5b1 5abe c41b 73be 827a 82bd
000000c0: 64a1 c13d a683 babe 7b3d 43be 9662 9dbd
000000d0: 800e a0bd 155c 273e 6c7f 9fbe cf6d 98bd
000000e0: 3bdb d13c a773 c1be 0d50 28be 4d8d cbbd
000000f0: 364d 3fbe 724b d0bd 9579 adbe 0641 92bd
00000100: 2af8 89be 0a39 b5be 1eb8 443d 674f 7fbd
00000110: e640 b53c bbd0 0c3e ddcd 95be 7fe8 25bd
00000120: 58be 84bd dc05 83be bf37 863d b627 1abe
00000130: 1b5d 45bd 0724 4ebd 4606 e5bd 1bb2 a1be
00000140: 74e2 623e db01 bebe e532 44be 975c f33d
00000150: 5380 ffbd 6711 223e 4cef 14bd 05b0 0bbd
00000160: 2d9e a23d efcb 58be 513f 843e 790a 02bf
00000170: 9ebd 20be e5f6 a4be 808f 95be 4e87 95be
00000180: c503 1abe 3c92 b93d f356 853d 5431 02be
00000190: dc40 1ebe cfba 083e 336e 07be f9d7 d3be
000001a0: 5dc2 df3d c83d a0be e2c4 82bc 327a bbbe
000001b0: d1a6 74be 3ba7 c73d 50f2 cdbe 9d4f acbd
000001c0: 4851 8abe 885b 383d 4446 cabe ada5 64be
000001d0: 0157 e2be 025c 9cbe 78e7 13be 7a06 abbe
000001e0: 3c27 a8be d9ef ebbd 3aa1 74be df36 bfbe
000001f0: 3483 aa3e 9ed0 f63d 9b0b 52be 6a59 a1be
00000200: 9c7d 3bbe 97ac b0be eec4 c4bd 6385 8abe
00000210: d5f5 22be 6bc4 efbd d0be 4cbe 2c90 93bd
00000220: e448 0fbf 4233 2bbe dba4 13bf aaf1 d1bc
00000230: dabd 50be 4ee4 a9bd 63c0 9fbe fb24 aabd
00000240: cc4b 94bd 5370 91bd 6c7f 9f3d 95f1 d53d
00000250: e00a 06bf 2a0b 0c3e dd18 6cbd 913f 96be
00000260: e438 b2be d5aa 5fbe ccb8 d73b 2f15 87bc
00000270: ad75 90bb f9fd ecbc 6e36 68be 4b61 d43d
00000280: 8134 da3c 39c1 68be 0b56 9abd ccb7 ccbe
00000290: 4df3 81be fe8f debd acaa 80be 9890 a3be
000002a0: 16d9 903b 4a6f 84be 59a1 123d 8d04 f83d
000002b0: 5cff e3be a064 803e d890 62bc ded9 30bd
000002c0: 0b15 22be ee43 42be cc6f 73bd 2cea 7ebd
000002d0: f477 d0be 209a c7bd 8043 803c 938a b0bd
000002e0: 0f64 5abd 4c22 4a3d c83b 80be 30b2 02be
000002f0: c914 73be 4ad9 133d 2438 a43d 6ae7 9bbe
00000300: c946 18be 3c6b a4bc 32df 89be 6f1c b1bd
00000310: fc35 063e c102 763d 60e6 a0bd 55e2 e7bd
00000320: 9b62 943d 0189 aabd 28ec a5bd d4ee c93d
00000330: 3fa1 8ebe 2719 13bd eeaa bebe a7a5 523e
00000340: 0a21 87be 23c6 043d a000 29be 8b77 a1bd
00000350: 7649 9bbd 9103 e5bd 55eb 05bf 3162 88be
00000360: dd44 eabd 1a59 55be 1c60 e5bd 7915 64be
00000370: 6e8b 163e 9b74 cdbd ff12 9bbd 0f66 28be
00000380: a651 a8bd cb6d f63c 070d 15be f34a dfbe
00000390: 2231 d83b e661 433c 8109 e03d 6da9 bbbd
000003a0: 89c5 5ebd ff21 2cbd a189 8cbd 9d3d 04bd
000003b0: cd6c 7ebe 22b9 8fbe 4f71 72be 9176 d0be
000003c0: 919e 9abe 8e18 0bbe aaa4 48be 1837 0fbf
000003d0: 30f7 80be 3524 123e a0bf 3fbd 5708 9ebe
000003e0: 6b1b 36bd 9cb7 4cbe adfb bfbd b860 5abe
000003f0: d370 ecbd 2d74 81be 332f 12be 8293 2dbe
-0.13998796 -0.23371592 0.07883554 -0.11965033 -0.37891924 -0.21778831 -0.016834324 -0.29006213
0.11772134 -0.16780323 -0.25027162 -0.047347546 -0.188561 0.14674266 -0.10848349 0.08706145
0.0015860448 -0.2368295 0.029390953 -0.31539938 -0.4834034 -0.18662876 0.034283023 -0.12215406
0.007970248 0.26474178 -0.27080923 -0.2959028 -0.44209468 -0.10533753 -0.042368278 -0.25949168
-0.34589955 -0.22383694 -0.17824109 -0.124103844 0.034683514 -0.1002834 -0.16622017 -0.025922464
-0.028941277 0.24436949 -0.328439 -0.28370962 -0.3564768 -0.21356948 -0.2374106 -0.06371023
0.09454611 -0.36428565 -0.19066422 -0.076848194 -0.07815266 0.1634372 -0.31151903 -0.07442819
0.025617233 -0.37783548 -0.16436787 -0.0993906 -0.18681797 -0.1017064 -0.33881822 -0.071413085
-0.26947147 -0.3539508 0.04802715 -0.062331583 0.022125673 0.137515 -0.29258624 -0.04050493
-0.06481618 -0.25590408 0.065536015 -0.15054211 -0.048184495 -0.050327327 -0.11182837 -0.31581196
0.22156698 -0.3711079 -0.1916004 0.118828945 -0.12475648 0.15826951 -0.036361024 -0.034103412
0.07940326 -0.21171544 0.25829557 -0.5079723 -0.15697333 -0.32219616 -0.29211044 -0.29204792
-0.150405 0.09061095 0.06510725 -0.1271413 -0.1545443 0.13352512 -0.13225631 -0.41375712
0.10925744 -0.31297135 -0.015963022 -0.36616665 -0.2389176 0.097486936 -0.40223932 -0.084136225
-0.27015138 0.045009166 -0.39506733 -0.22328825 -0.44207004 -0.30538946 -0.14443767 -0.3340338
-0.32842433 -0.11520357 -0.23889628 -0.3734655 0.33303225 0.12051509 -0.2051224 -0.3151353
-0.18309635 -0.34506676 -0.09607874 -0.2705489 -0.1591409 -0.11707386 -0.19994664 -0.07205233
-0.559706 -0.16718772 -0.57673424 -0.02562793 -0.20384923 -0.08295499 -0.31201467 -0.08307835
-0.072410196 -0.07101502 0.07787976 0.10446469 -0.52360344 0.13676134 -0.0576409 -0.29345372
-0.3480903 -0.21842511 0.006583309 -0.016489593 -0.0044085593 -0.028929697 -0.22677013 0.1037012
0.026636364 -0.22729959 -0.07535943 -0.39983976 -0.25380936 -0.10867308 -0.25130212 -0.31946254
0.00442041 -0.25866157 0.035798404 0.12110243 -0.4453076 0.2507677 -0.013828479 -0.043176524
-0.1582834 -0.18971226 -0.05943279 -0.062235042 -0.40716517 -0.09746194 0.015657187 -0.08620181
-0.05331808 0.049349114 -0.2504561 -0.12763286 -0.23738398 0.036095895 0.080185205 -0.30449992
-0.14870752 -0.020070665 -0.26928097 -0.086480014 0.13106531 0.06006122 -0.078564405 -0.11322466
0.0724537 -0.08326913 -0.08101684 0.09860006 -0.27857396 -0.03591266 -0.37239784 0.20571004
-0.26392394 0.03241552 -0.16504145 -0.07884129 -0.07582371 -0.11182321 -0.52312213 -0.26637414
-0.11438916 -0.20834771 -0.11199972 -0.22273816 0.14701626 -0.10032006 -0.075719826 -0.16445182
-0.08218698 0.03008165 -0.14555751 -0.4361187 0.006597654 0.011925196 0.10939313 -0.09163175
-0.054387603 -0.04202461 -0.06862188 -0.03228532 -0.24846192 -0.28070933 -0.23676036 -0.4071546
-0.30199102 -0.13583586 -0.19594064 -0.5594344 -0.2518859 0.14271624 -0.046813607 -0.30865738
-0.04445974 -0.19991916 -0.09374175 -0.21325958 -0.11544957 -0.25283948 -0.14275818 -0.16950801

weight f4 [256, 256]
00000000: 9df2 8e3c bb27 1abd 3dde 90be b6dd a5be
00000010: 5bda c3bf df98 86be 0b4f 5dbe bef3 99bb
00000020: 278a 1a3f a0e8 0fbf 6b6c 1abd 400a 473e
00000030: b2ea 01bf c591 24bf 8925 89be d1e2 32be
00000040: 350d 4cbf b992 60bd 1b57 403d e030 70be
00000050: e567 1dbf 6ab4 76be 158c 813d d5be c2be
00000060: 3e43 96be 2130 0ebe 354c 41bf f613 dfbe
00000070: 1a26 34be 98c2 c2be e237 303e a64f ba3e
00000080: 0b04 733e 41ba c3be 3596 44bd 4d26 8abd
00000090: 8139 d8bd 264d 1fbf 97f0 95be d5be c4be
000000a0: 92c5 0ebf d2e2 2bbe 34b0 77be 3c0a 4bbe
000000b0: cb98 403e 0bd6 31be ecb9 3b3d 6405 ccbe
000000c0: e0ea 60be f875 84bf 1285 6abe 2640 75bf
000000d0: 9240 d4bd 24ae a7be c359 2d3e 150a 5dbe
000000e0: 5aa0 bcbe aec3 303b acfc 5b3e cec5 7abe
000000f0: 59d8 4d3c 7569 0dbf 1d76 8cbe fbb2 38bf
00000100: 4c5d 813d 98a6 14be 2731 9cbe da3c 94bd
00000110: 7e76 303f b920 9cbe 99ad 9c3e 6405 0abf
00000120: 1173 b03d faf3 04bd c177 c33e 84b4 383d
00000130: 2a8a e1bd 5031 b4be 6826 06bf 5c54 2bbe
00000140: 4e81 ca3d 395a f33e 1a3f 92be 0e1b 92be
00000150: 84b0 cc3c a9f4 41bf 5c9d 60bf 32fa d6bd
00000160: 0246 003e ddbd 133d a993 3dbc ed06 c03e
00000170: f432 863d 6865 bdbe 675a 5c3e e563 1bbe
00000180: 15bb b2be 2026 243e e714 03bf 1d67 99be
00000190: b874 0abe 3875 cfbd 54bb bcbe a3db 033f
000001a0: 8fca fd3e 00e4 15bf 979f 1bbe 81cb 873d
000001b0: 3a68 013e c855 0cbf cfe6 133e 7b6b ce3e
000001c0: 4e90 8cbe 6a57 1abf d3fa c6be 428f 57bf
000001d0: eecf 813d c125 66be edbc 02bf a557 0cbe
000001e0: fe91 19be 818a 21bf 3ceb 013d a72a efbe
000001f0: fbe2 b1be 02e5 8cbd 2632 64bd 0acb 573e
00000200: fa5d 243d cd2f 20bf 9a47 03bf 8608 6f3e
00000210: 3f7e aabc 3893 abbb f8d4 d5be 0aa7 c13e
00000220: b5b7 37bd e7ef 193c 0447 25be fb5e 60be
00000230: f3ab d23d f4c8 8bbe 3c72 16bf b962 073e
00000240: 292f 35be b5cb 81bf 1597 8bbf 49bf 843b
00000250: 329e 383e f8e8 dfbd ad1f a13d 5cf3 53bd
00000260: 64ff b3be e6a0 913e 8c2a acbd 486c 683d
00000270: 84b1 1b3f d4b0 82be 37bd c0be ec99 603e
00000280: 11b8 0cbf 3fa8 78be 334e 293e db32 e6be
00000290: c4e6 963e 9692 0a3c d420 18bf 0ece 21bf
000002a0: 58b5 8cbe 289a 85be f054 a2be 9448 2dbf
000002b0: cb65 a43d 059e 093d 9627 59be 8bf5 c8be
000002c0: eda9 fb3d f5f7 97be 87ce df3d 3a29 a03e
000002d0: 6127 2bbe 04f9 ca3d 8b53 a73e 2216 b7be
000002e0: 8001 a0bd d770 7f3e 026a cebe c5ad 8b3e
000002f0: 79c0 5d3c b937 04b9 b64e 1b3e 898b 80be
00000300: c101 bbbd 1d68 04bf c71d 15be 89c0 7fbf
00000310: ef98 67be 5b66 6bbe 3c5c c5bd 24e3 fd3c
00000320: d1fe a03d e58d ee3e 8295 853e eafa d9be
00000330: bc58 4dbe 14d4 7abd d043 52be 0cdc 0a3e
00000340: 3937 c2be 0874 d33e e22e 70be de50 aebd
00000350: 592d 31bf cc3b 47be ea12 cb3d 2b2b 39be
00000360: 2159 5c3e 9f1e 7abe 0987 d6be 0e36 40bd
00000370: aed0 c8ba 767f 0a3e 41d2 123c 010d 19be
00000380: f90b 8e3d 69ae edbd 78a7 ed3c 0274 3c3e
00000390: 3fea a2bd 1bb5 4cbf 08ed 37bd d039 5ebf
000003a0: 6da9 f3bc de44 e9be 3a32 7dbf 2147 1dbf
000003b0: cbb7 8abe b5ab b2bd 4091 9fba 00a6 99be
000003c0: 507e 2dbe 30c2 193f 0f88 ebbe 20e5 383e
000003d0: 7fc4 9c3e 1e85 57bf f0b0 85bf 9027 07be
000003e0: 0387 3bbe b660 a1be 8df0 18be 553b 0abf
000003f0: 2faf 4f3d 1385 793e e07c 23bf cda7 6a3d
0.017449671 -0.037635546 -0.28294554 -0.32395715 -1.5301012 -0.26288506 -0.21612184 -0.004698246
0.60367054 -0.5621433 -0.03770105 0.19437504 -0.5074874 -0.64284927 -0.2678645 -0.17469336
-0.7970765 -0.054827426 0.04695807 -0.23456144 -0.61486655 -0.2409226 0.06325547 -0.38036218
-0.29348177 -0.13885547 -0.7550691 -0.43569916 -0.1759266 -0.38039088 0.17208818 0.36388892
0.23732011 -0.38228038 -0.04799481 -0.067455865 -0.10557843 -0.62227094 -0.29285118 -0.38426843
-0.5577022 -0.16785744 -0.2418831 -0.19828123 0.18808286 -0.17366807 0.045831606 -0.39847863
-0.21964598 -1.0348501 -0.22902325 -0.9580101 -0.10363878 -0.32750046 0.16928773 -0.21585877
-0.3684109 0.0026972103 0.21483105 -0.24489519 0.012563788 -0.5523904 -0.27433863 -0.721481
0.06316623 -0.14516675 -0.3050625 -0.07238169 0.68930805 -0.30493715 0.30601195 -0.53914475
0.08615697 -0.032459237 0.38177302 0.045094028 -0.11012681 -0.35193872 -0.52402353 -0.167314
0.09887944 0.47529772 -0.28563768 -0.28536266 0.024986513 -0.75763947 -0.8774011 -0.1049694
0.12526706 0.03606974 -0.011570849 0.37505284 0.06552687 -0.3699143 0.21518861 -0.15174825
-0.34908357 0.16030169 -0.5120377 -0.29961482 -0.13521087 -0.101297796 -0.3686167 0.51507014
0.49568602 -0.58551025 -0.15197597 0.06630612 0.12637416 -0.5481839 0.14443515 0.40316376
-0.27453846 -0.60289633 -0.3886324 -0.8420297 0.063384876 -0.2247534 -0.5106953 -0.13705309
-0.14997098 -0.63101965 0.031718478 -0.4671223 -0.34743485 -0.06879617 -0.055711888 0.21073547
0.040128686 -0.6257294 -0.5128113 0.23343095 -0.020812152 -0.0052360557 -0.41764045 0.37822753
-0.04485293 0.009395576 -0.16140372 -0.21911232 0.10286703 -0.27301753 -0.5876806 0.13221253
-0.17693771 -1.0140291 -1.0905482 0.0040511233 0.18029097 -0.10933107 0.0786737 -0.051745757
-0.35155785 0.28443068 -0.08406553 0.05674389 0.6081774 -0.25525534 -0.3764436 0.21933717
-0.54968363 -0.24282931 0.16533737 -0.44960675 0.29472935 0.0084578 -0.5942509 -0.6320504
-0.27482104 -0.26094174 -0.31705427 -0.6768887 0.08027228 0.033597965 -0.21206507 -0.39249834
0.1228827 -0.29681364 0.10928064 0.31281453 -0.1671424 0.09910777 0.32680926 -0.35759073
-0.07812786 0.24945389 -0.40315253 0.27281013 0.013534659 -0.0001260926 0.15166745 -0.25106457
-0.09131194 -0.51721364 -0.1456214 -0.9990316 -0.22616933 -0.22988264 -0.09636733 0.030992098
0.07861102 0.46592632 0.26090628 -0.42574245 -0.2005338 -0.06123741 -0.20533681 0.13560504
-0.37932757 0.41299462 -0.23455384 -0.08511518 -0.6920982 -0.19456404 0.09915717 -0.18082874
0.21518375 -0.24425744 -0.418999 -0.04692655 -0.001532098 0.13525185 0.008961261 -0.14946367
0.06935877 -0.11605532 0.02901052 0.18403628 -0.07954835 -0.79963845 -0.044903785 -0.86806965
-0.029743874 -0.45560354 -0.98904765 -0.6143666 -0.27093348 -0.08724157 -0.0012174025 -0.3000946
-0.16942716 0.6006193 -0.46002242 0.18056154 0.30618665 -0.84187496 -1.0444622 -0.13198686
-0.18313222 -0.31519097 -0.14935513 -0.53996783 0.050704177 0.2436717 -0.6386242 0.057288934

bias f4 [256]
00000000: 2227 9c3c 8829 bbbd 9978 cc3d c2a7 08be
00000010: 8aee d3bd a5f1 c9bd a62d ae3c d5bc b2be
00000020: 8a73 eabd 5587 543d 2b6d e23d 9c90 5f3e
00000030: 6733 f0bd 5095 053e 3ff4 a2bd a1ca a1bd
00000040: 0c32 b2be f174 103b 2723 01be 0c07 a9bd
00000050: 4597 60bd c4fc c73d 32b7 01be 70e1 df3e
00000060: eefe edbd 0443 81bd 955f 18be a173 d7bd
00000070: bb5c 90be 8b1f e53d b00d f23d 903a 8fbe
00000080: 4861 40be 2729 e8bd 02d1 01be b605 05be
00000090: 906e 74bd c54c 943d ba77 03be 240a f3bd
000000a0: 1169 2a3c cdbf 443e e5a9 623c 75d6 6cbe
000000b0: 12af 963e a85f 8cbe ff36 a3bd 6a57 0cbe
000000c0: 3ad8 1b3d 56fb acbd 83b6 bcbd a2bd 88bd
000000d0: 8010 b53d a2b7 dbbd 1ab0 013e 2bf0 f1bd
000000e0: 9902 38be e789 07be c7bb d5bd b7e6 eb3e
000000f0: 12e7 f73e 5bbe 94bc 3406 b6bd 1a45 c43e
00000100: 9a03 db3d 70aa 02bd dac3 f6be 005f 00be
00000110: a157 d3bd b859 1abe 3dcb cb3c 6b3e dbbd
00000120: f6a4 24be 460c 363c ca0b af3b d3d2 4a3e
00000130: c73d 86bc 7ccd 97be 84f5 5e3e 23d2 5a3e
00000140: 8676 d23e 69df 6b3e 3044 02bd a69a 233e
00000150: b9f3 77be 44ff 80be de0a c63c a649 973e
00000160: 84f4 323e 30ed d5bd 6043 013f 2b4a 1fbe
00000170: 39d2 40bd 2ea5 8ebd 51e7 d13d f7d2 8bbe
00000180: 73fe be3e 1162 553e 441e 2c3e 9d21 85be
00000190: 4cd5 debd 1c19 b13e ca07 2abe fb9c 443e
000001a0: 806e 2abe a182 ef3e 42a2 f93d 4e81 0cbe
000001b0: db42 dfbd f8d7 683e 4808 5f3e aef1 eebc
000001c0: 44c5 09be a7c6 d2bc 3fda 9a3e 0d01 45be
000001d0: bb77 babd ac07 4bbd 4e0d 42be 0e12 003e
000001e0: 864f 15be 50ab 06be 5082 b6bd 681e 923e
000001f0: 43e1 69be af89 29be bddb 69bd 854e 1fbe
00000200: 2ae9 fdbd 279b a13d cc7c e4bd 2cbe 943d
00000210: ab8f e6bd 63e6 c1bd 0d0a cdbe 04c6 023f
00000220: 5b63 c6bd 4c02 2b3e 2dae c23d 3e18 533e
00000230: e744 c3bd d7d6 033e 97d7 853e 61f7 4f3e
00000240: 053e 18be 9ab5 0c3c 6e82 753e 737f 25be
00000250: 8ef2 fcbd 62b7 543e ff6d b03e 9233 0a3f
00000260: 8cfd a0bd 09de 77bd bca5 81bc f90b 5abd
00000270: b76a 5dbe 3fc1 79be 2f9e 9fbe 7881 813e
00000280: d69a e3bc 4edc 8fbd 4253 0fbe 70c0 f03c
00000290: b397 8fbe 4cf9 9f3e af4c 09be aa1f 133e
000002a0: 74de 44be 60a7 c93d 3905 17be a216 e5bd
000002b0: 79fb bfbd ec38 d93e 74ec dfbd 2387 e3bd
000002c0: 27a3 a2bd b7fb fdbd cd1d 64be fa07 323e
000002d0: 745e c2bd 89f9 a93d 62c0 813d f237 083e
000002e0: bff8 65be 6fac 03be af7c a0bd 8e83 f2bd
000002f0: 78a8 813e 0606 5a3e 9a65 7abe 204d e6bd
00000300: 8fe2 273d ef59 d3bd 5195 38be a46c ae3e
00000310: 311b 333e 4822 6fbd 9d53 f0bd 916a dd3e
00000320: 117a 29be 874c 03be 76f2 fdbd 04c0 8fbe
00000330: ffe0 9abd abe3 fcbd 7092 24be dd44 26be
00000340: eec8 ab3e a47b fe3d 3de7 22bc c7f7 f8bd
00000350: 70c9 b93e 2bd8 8abe 0437 81bd a467 e63d
00000360: b495 773d 3a40 febd dd57 1dbe 5df5 1cbe
00000370: efc8 843e 03bb f83e 2a05 edbe fe8c df3e
00000380: da7b 133e d611 c9bd b63c 47be b088 8fbe
00000390: 2ce7 23be 4e27 0cbe 92cb 6e3c 5196 60bd
000003a0: 1f88 e7bd 9c60 dfbd 4036 c8bd ce15 583d
000003b0: 16c2 453d 3e93 0abe 0bd3 98be 0e60 813d
000003c0: b2fd 943d 64a6 803e 3620 cbbd a1d4 793d
000003d0: 5e99 883d 33b6 17bd c7f1 9ebd 0aa5 ffbd
000003e0: d87e 4fbd 9113 6cbe 70c6 683e f79e 92bd
000003f0: fafb 233e eedd cf3d b091 903e 374f c1bc
0.019061629 -0.09138781 0.0998394 -0.13345245 -0.10348232 -0.09860543 0.021262001 -0.34909692
-0.114478186 0.051886875 0.110559784 0.21832508 -0.11728554 0.1304524 -0.079567425 -0.078999765
-0.34803808 0.0022042359 -0.12611066 -0.08253297 -0.054831762 0.09765008 -0.1266754 0.43726683
-0.116208896 -0.0631161 -0.14880212 -0.10520101 -0.28195748 0.11187657 0.11819017 -0.27974367
-0.1878711 -0.11335974 -0.12677386 -0.1299046 -0.059675753 0.07241205 -0.12838641 -0.118671685
0.010401026 0.19213791 0.013834451 -0.23128684 0.29430443 -0.2741673 -0.07969474 -0.13705221
0.038048007 -0.08446376 -0.09214499 -0.066767946 0.08841038 -0.107283846 0.12664834 -0.118133865
-0.17969741 -0.132362 -0.10436206 0.4607446 0.4841848 -0.018157175 -0.08887902 0.3833397
0.10694046 -0.031900823 -0.48196298 -0.1253624 -0.10319448 -0.15073287 0.024877185 -0.10705265
-0.16078553 0.011111325 0.0053419815 0.19806986 -0.01638688 -0.2964896 0.21773344 0.21369223
0.4110605 0.23034443 -0.03180331 0.15976962 -0.24214067 -0.25194752 0.024175104 0.29548377
0.17476088 -0.104456306 0.5049343 -0.15555637 -0.047075484 -0.06965099 0.10249198 -0.2730939
0.37303504 0.2083819 0.1680842 -0.26002207 -0.10880527 0.3458947 -0.16604534 0.19200508
-0.16643715 0.4677935 0.12189151 -0.13721201 -0.109014235 0.22738636 0.21780503 -0.029167976
-0.13454157 -0.02572949 0.30244634 -0.19238682 -0.09104868 -0.049567863 -0.18950388 0.12506887
-0.14581117 -0.13151288 -0.08911574 0.28538823 -0.22839837 -0.16556428 -0.057094324 -0.15557297
-0.12397988 0.07890921 -0.111566156 0.07262835 -0.11257871 -0.09467771 -0.4004673 0.510834
-0.09686919 0.16700095 0.09505878 0.20614716 -0.095346265 0.12874924 0.26141044 0.20309211
-0.14867409 0.008588219 0.23975536 -0.161619 -0.12350951 0.2077308 0.3445892 0.5398494
-0.0786086 -0.060514484 -0.015826099 -0.053234074 -0.2162274 -0.24390124 -0.31175372 0.2529409
-0.027783792 -0.07024442 -0.13996604 0.029388636 -0.28045425 0.31244886 -0.13408159 0.14367548
-0.19225484 0.098463774 -0.14748086 -0.111859575 -0.093741365 0.4242624 -0.10933772 -0.1110976
-0.07941275 -0.124015264 -0.22276993 0.17385855 -0.09490672 0.08299548 0.06335522 0.13302591
-0.2245817 -0.12858747 -0.078362815 -0.11841498 0.25323844 0.2129136 -0.2445282 -0.11245179
0.040987547 -0.10319888 -0.1802571 0.3406726 0.17490841 -0.058382303 -0.11734698 0.43245366
-0.16550471 -0.12822162 -0.123997614 -0.28076184 -0.07562446 -0.12348112 -0.16071486 -0.16237207
0.33551735 0.12425926 -0.009942827 -0.12156635 0.36286497 -0.27118048 -0.063093215 0.11250237
0.060445502 -0.12414594 -0.15365548 -0.15327974 0.2593455 0.4858018 -0.46293002 0.43662256
0.14402714 -0.09817855 -0.19456753 -0.28033972 -0.16006154 -0.13686869 0.014574902 -0.054830853
-0.1130526 -0.10907099 -0.09775972 0.05275517 0.048280798 -0.13532731 -0.29848513 0.06317149
0.07274951 0.25126946 -0.09918253 0.060993794 0.066698775 -0.037038993 -0.07760959 -0.124826506
-0.050658077 -0.23054339 0.22731948 -0.071592264 0.1601409 0.101497516 0.2823615 -0.023597343

weight f4 [8, 256]
00000000: cc33 0fb9 d752 a33d d681 093e db2b 4cbc
00000010: 3877 a2bc 155c ecbc 1ae0 1cbe 68de ff3d
00000020: a1fc 22bc fe58 d6bc 7ecf 883d b940 f9b9
00000030: 126c be3c c34e 95be 308b 36bd e033 abbe
00000040: 299e 563d b2d0 b73e c7c3 c3bc 84ef acbd
00000050: 50d9 6e3c be54 a6bc 0440 e83c b2a7 72be
00000060: 2ac8 e1bd 9fc4 f2be a47a 50bd 462a 313d
00000070: 66c7 07bf ac5e e6be 48c4 95be d417 43be
00000080: 023a a2be 5aa7 64bd a703 e23d 9acd 913d
00000090: b971 ea3e f112 fabd 4104 df3d 1f59 bfbc
000000a0: dce3 0ebd 15ca c83d caaa f93b 3931 763e
000000b0: 038d 4abd 46b3 fdbb 0fa8 fe3c 97d7 843d
000000c0: 5fd4 0dbf 07fd f73e c88d 953c 0d23 1c3d
000000d0: 0145 86be e021 34be 1fd1 2bbf 7b7c d7bd
000000e0: e592 cebe cef6 6e3b 493e 42bd 1273 723f
000000f0: 031d 013e 35d1 c0bc a54b f23d ba7d 7dbd
00000100: f4ca 01bf bf80 e0be ec58 4ebe 5447 b3bb
00000110: 1efe 3fbc 2f86 153c c100 a8bd 5de3 20bb
00000120: 1bef febd c7ea 59bd 9431 5bbe bf40 0c3e
00000130: 42a8 20bf 2112 00be c0bf 84bd 6c87 dc3e
00000140: e8b3 6fbe afa4 233f b3bf f8be b446 40bb
00000150: d733 7a3d 7fbc b1bd 41ab 1c3e 9f91 b03e
00000160: 7fa4 403d 1ca4 62bd ad2e bcbe 1602 ccbb
00000170: 6cbb e639 ba89 0d3c 653a 0d3e 904d 3a3e
00000180: 372a 403f 141c 82be 4001 033f b6df 79bd
00000190: 6f9e 973b b5b4 043f 30a4 753e 4fa1 fcbe
000001a0: 09dd 503c d1cb 3cbf 03e8 f8bb a6e6 b23d
000001b0: e001 1b3c a28d 4fbc 857a 323f bb43 da3d
000001c0: 94b8 f8bb baa9 8c3e d9ef 1bbe 4f7d b33d
000001d0: 4cee 463d 9fce d9bd 3a7d 383c 2097 4dbe
000001e0: 77c6 a3bc 26cc 793d 0160 b7bc c79f 363e
000001f0: 0d85 9fbe 5868 cebc 2ca4 113d 974a 123e
00000200: 8985 02bd f5ac 84be a5ba 0c3d ae4d 7ebd
00000210: 808a fabc 49b9 423e 5b5b 99bd 0460 07be
00000220: 89ee 823e ab20 42bf 2afa c33d 1e2b c5bb
00000230: 8f74 063e 2298 f63e f7c2 7abd 4d2e eebe
00000240: 6984 e1be 3cd2 513e 161a 9fbe 5b2a d13c
00000250: db4a e93b 8a69 61be d209 d13e 918b 283f
00000260: 7350 54bb 7519 00bf 6c74 093e d3a7 3f3e
00000270: 87e8 733d 7628 773b ed88 23bd f25e 33bf
00000280: 532e 593c b5bd 40bb 57d5 09bd 063f 523e
00000290: 86a3 2cbd 5352 8e3e 82ed 22bf 04bf 083f
000002a0: 7944 89bd 175b 96bd b934 19be e147 03bd
000002b0: 5031 b8b9 8b94 49bf d72c 033f 92de f43c
000002c0: a294 6b3c 0c16 abbc 7af5 ec3d f877 973e
000002d0: 656a 693d ac5e 0dbf b14c 0c3b cf5d 53bd
000002e0: f38c 013d 00c4 64bd c9b3 963d 2444 22bd
000002f0: f35e 71be f7ee a13c e35c 3ebd e704 05bc
00000300: 0e74 cbbe a0c0 963d 2869 e1bc 7539 aabe
00000310: a9db 773e 2fd6 bb3c c3fa 29bd da8e 06bf
00000320: 0a35 aa3c 1b12 813c 9a2d 83bb 3c33 c5be
00000330: b085 6d3d 8211 c0bc 643e 4bbd f67c 943d
00000340: 8230 883e ecda e03e 93da 52be 2ce1 a43c
00000350: 132e dc3d 879e bbbe 8f91 e73c 3ee9 dabd
00000360: 0571 d63e 50fe 23bb f676 c9bc 7791 b1bd
00000370: 0390 5dbe 6c77 ed3e 1357 d63d d251 b73e
00000380: c8f2 a13b 540d bbbd dbed 4fbe e4a1 c63e
00000390: 1ab7 4f3c 6d6f 22be 7f7a 3c3d c49b 84bd
000003a0: be05 d83c 3638 0d3e a02b 59bc 4ed9 e3bd
000003b0: 9328 3d3b 02e6 b83d 3627 1cbe 156c c6bd
000003c0: 24ac 433e 038e 3a3f add4 a33d 3de2 7abe
000003d0: 1e8f 7cbe df0c c03e eafa 733d ba9a 893d
000003e0: 9867 09bc bb1b 97be f1a7 c9be 4099 583b
000003f0: 5bf9 e83e f77d 8cbd fa1b e43e e462 26bf
-0.00013656839 0.07974785 0.13428435 -0.012461628 -0.019832239 -0.028852502 -0.15319863 0.124935925
-0.009947927 -0.026165482 0.06680201 -0.00047541203 0.023244891 -0.29161653 -0.044566333 -0.33438015
0.052396927 0.3590141 -0.023897065 -0.084441215 0.0145781785 -0.02030408 0.028350838 -0.23696783
-0.110245064 -0.47415635 -0.05089821 0.043253206 -0.5303863 -0.44994104 -0.29251313 -0.19052058
-0.3168488 -0.05582366 0.11035853 0.071192935 0.45789889 -0.12210644 0.10889483 -0.023357926
-0.034885272 0.09804169 0.0076192366 0.24042214 -0.049450886 -0.0077423183 0.031085996 0.06486433
-0.5540218 0.48435232 0.018256083 0.038119365 -0.2622452 -0.17591047 -0.6711597 -0.1052179
-0.40346447 0.0036463025 -0.04742268 0.94706833 0.12608723 -0.023537258 0.11830834 -0.06188748
-0.50700307 -0.43848225 -0.20151109 -0.0054711495 -0.011718301 0.00912623 -0.08203269 -0.0024549582
-0.124479495 -0.053202417 -0.21405631 0.13696574 -0.6275674 -0.12506916 -0.06481886 0.4307207
-0.23408473 0.6392316 -0.48583755 -0.0029339017 0.061084595 -0.08678531 0.15299703 0.344861
0.047031876 -0.05533229 -0.3675436 -0.0062258346 0.0004400866 0.008638794 0.13791807 0.1819365
0.75064415 -0.25412047 0.5117378 -0.061004363 0.004627041 0.5183824 0.23988414 -0.4934182
0.012748011 -0.737485 -0.0075960173 0.08735399 0.009460896 -0.012668045 0.697182 0.1065745
-0.007590363 0.2747324 -0.15228213 0.08764135 0.0485671 -0.10635113 0.011260325 -0.20077181
-0.019992096 0.060985707 -0.022384645 0.17834388 -0.31156197 -0.02519624 0.035556957 0.14286266
-0.03186563 -0.25913206 0.034357686 -0.0620858 -0.03058362 0.19015993 -0.07488128 -0.13220221
0.25572613 -0.758311 0.095691994 -0.006017103 0.13130401 0.48162943 -0.06122109 -0.465197
-0.44046333 0.20490354 -0.3107459 0.025532892 0.007119519 -0.22012916 0.40827805 0.6583796
-0.0032396584 -0.50038844 0.13423318 0.18716364 0.059547927 0.0037713326 -0.039925504 -0.7006675
0.013255673 -0.002940995 -0.033650722 0.20531854 -0.042148136 0.27797183 -0.6364366 0.53416467
-0.06702513 -0.07341593 -0.14961518 -0.03205097 -0.00035131956 -0.78742284 0.51240295 0.029891286
0.014378699 -0.020884536 0.115702584 0.29583716 0.05698623 -0.5522258 0.0021408016 -0.051603135
0.03162856 -0.055850983 0.0735851 -0.039615765 -0.23571377 0.019767268 -0.046475302 -0.008118845
-0.3973698 0.07360959 -0.027515963 -0.3324696 0.24204887 0.02292928 -0.04149891 -0.52561724
0.020777244 0.015755704 -0.004003239 -0.3851565 0.057988822 -0.023445848 -0.049620047 0.07250397
0.2659951 0.43917024 -0.20591192 0.020126902 0.107509755 -0.36644384 0.02826765 -0.10689019
0.41883102 -0.0025023408 -0.024592858 -0.08670323 -0.21636967 0.46380174 0.10465827 0.3580461
0.004942272 -0.091334015 -0.20305578 0.38795388 0.012677932 -0.15862818 0.04601526 -0.064750224
0.026369926 0.13790974 -0.01325503 -0.11125432 0.0028863295 0.090282455 -0.15249333 -0.09688584
0.19108635 0.7287294 0.07999549 -0.24500366 -0.2466397 0.3750982 0.059565462 0.06718965
-0.008386515 -0.29513344 -0.39385942 0.0033050328 0.45502743 -0.068599634 0.44552594 -0.64994645

bias f4 [8]
00000000: 377a 9c3e 6738 263e 1df7 a93e def2 cabe
00000010: e78c a53e 296a afbd f250 5b3e a5ca 0dbe
0.30561993 0.16232453 0.33196345 -0.39638418 0.32334062 -0.0856517 0.21417597 -0.13846834

weight f4 [8, 256]
00000000: b621 0c3d ee89 0bbd 4e7e 573d 9e45 813d
00000010: 3d69 91bc de7f c5bd 3420 70bd 783c b1bd
00000020: e966 9b3d a375 a93c 154d a3bd 5e8c bd3d
00000030: 6fc4 d23c 8631 acbd b9b1 db3c 7ce4 483e
00000040: 4bd7 a0bc 22a9 fd3d 60c3 14bd 1a51 5f3d
00000050: 4bfe 2f3d fdaa 903d c54a 74bd 81f3 a63e
00000060: b604 e3bd a314 fb3d 8ac6 383c 3930 efbb
00000070: 83b9 3cbd 2db8 e33d a8dc 80bd 720c ebbb
00000080: c220 2b3e 0880 6b3e b033 da3c 0016 c8bc
00000090: aaac 263e 1557 1abc d562 2c3d f75e 993d
000000a0: f521 143c 2e35 5e3c 91ea 9d3d d0ae 0fbd
000000b0: d7dc 9a3d c82d 0d3d 00d4 303c 3547 363d
000000c0: 1c76 4ebd 238f dc3d 7a84 123d 4da9 8bbc
000000d0: 3417 a83c b468 753d 2908 873d e028 3f3d
000000e0: 4079 0d3e 7610 293c ab43 ec3d 654d 8abd
000000f0: b193 d13d 604f a93d 40ed db3d 4429 603e
00000100: 8426 043e d844 9639 8ad7 5a3d bdff 74bd
00000110: 62f4 a23d 1707 633d 1e34 b83d 1c10 d3bb
00000120: a57e 21be e557 b43c d903 993c ab24 c13c
00000130: 0f47 19bd 3118 f93d 375f 24be c62c 0abd
00000140: 5e16 bcbd 9878 3b3e 37fd ddbd 5f26 7a3d
00000150: e997 61bd b7dd 0f3d b11e d93d 7fc6 84bd
00000160: 93ca ae3d 588c cd3c 26d8 2abc ad24 0cbd
00000170: 3f51 a33d e60b 183e 3da4 f43c 6188 2e3b
00000180: 2798 933e aadb 34bb c758 293e ea05 90bd
00000190: 2d13 993b 8e66 c13d eeb9 1dbd a985 b43c
000001a0: 1616 1a3e 8359 513e 1fbb a3bd f506 953d
000001b0: 9947 22bc 36f8 74bd 1359 8c3d 7b3a 6cbd
000001c0: 8fe2 ef3a 0f96 2e3d fa7d 823e 5d3a 503d
000001d0: f278 b33d db90 323e a88b 573d 5a30 b9bd
000001e0: 162f 8e3d d28c bd3d b64f e93c fb25 093d
000001f0: e849 893e e9a7 9c3c eb48 f13d 8829 9f3d
00000200: 415d b53d 5bd8 783d 4a27 6bbc 008a 5e3d
00000210: d36d 17bd 9b12 2abc 0114 05be c9a3 f73d
00000220: e51e 4e3d 81b3 2ebb 7cf3 4f3d 9358 1bbd
00000230: 80df 82bd 0373 903e db64 4b3d 8cee 22be
00000240: fe36 db3d e37d 123e 4cd9 3c3d fec0 dcbc
00000250: 616b 313d f675 f0bd f1e8 bd3c 25f2 503e
00000260: 177e 153e 8e65 dd3d b528 323e 7fd8 fd39
00000270: bdd7 96ba b0d0 d53d 6f0f da3d fd8b 023e
00000280: 71db 853d fb38 90bd 9bca 023d e9ba 0f3e
00000290: 2a27 0b3c b7d1 323e 7197 e73d bebc 943d
000002a0: 311c 84bd adc5 2ebe 5620 9dbd 72bc cf3c
000002b0: 65b7 523d 0505 ab3d 95d9 f43d 741c d93d
000002c0: 3e35 7abd 7966 c83d 42e5 b6bb 3ac0 35bb
000002d0: 030a 96bd 5e3b 333e 6e8c bfbd ac0d d9bc
000002e0: 03f6 923d 4f0c 93bd 224f 323d 7615 3b3d
000002f0: 0339 7e3d a816 603d 1561 3e3e d089 1cbd
00000300: c491 85bd f673 6e3d 1399 31bc 3a1e 77bd
00000310: 2c7c 863d 19da d23d 7168 a93c 0216 d83c
00000320: dba5 193d fef3 b6bc 8dd8 ddbd 4193 a53c
00000330: 7099 293d 7e01 3bbc 426f 243d b4b4 7c3e
00000340: c4f3 1d3e 6fee 713d 77d3 cebc 125e a5bd
00000350: 0752 253e c9cf 463e 3710 203d f101 dabd
00000360: 2386 42bc 859b f73b b66f 9e3d 1e6b 25bd
00000370: 06e6 623d effd 443e d3bc f73d 8e47 da3d
00000380: 2a45 0b3d 5375 de3c 288b 263d 13ba 583e
00000390: 3383 1a3d d307 953d 351f b1bd 5b9c 1abd
000003a0: a8aa d13b 0317 ca3d f381 61bd f686 133e
000003b0: 76d9 8c3d dc61 32bd c8ba 9b3d e1be a93c
000003c0: 94b2 4b3d 61d2 f63c d72d e43c e3ee 503e
000003d0: 784a 373e 2b37 0c3e a669 a13c dcea d23c
000003e0: 690e 273d d02d 0d3e 4b09 bd3d 9875 89bc
000003f0: 5fe6 493e da78 22bc 333e 4d3e 9b09 9d3d
0.034211837 -0.034067087 0.052610688 0.063121065 -0.017750377 -0.09643529 -0.05862446 -0.086541116
0.07587988 0.020685976 -0.079736866 0.092552885 0.025728432 -0.08407883 0.026818143 0.1961841
-0.01963391 0.12385775 -0.036319137 0.054520704 0.042967122 0.070638634 -0.05964162 0.32607654
-0.11084883 0.122597955 0.011277804 -0.0072994498 -0.046075355 0.11119113 -0.06292087 -0.0071731145
0.16711715 0.22998059 0.026635975 -0.024424553 0.16276804 -0.009420176 0.04208644 0.07488816
0.009041299 0.013562484 0.077107556 -0.035078824 0.07561653 0.03446749 0.010792732 0.044501502
-0.050405607 0.10769489 0.03577087 -0.017048502 0.020518877 0.059914306 0.06593353 0.04666984
0.13815784 0.010318866 0.11536344 -0.06753043 0.10233248 0.08267093 0.10738611 0.21890742
0.12905318 0.00028661522 0.05342821 -0.059814204 0.079567686 0.055426683 0.089943156 -0.0064411294
-0.15770967 0.022014568 0.018678593 0.023577055 -0.037421282 0.12162817 -0.16051947 -0.033734106
-0.09183954 0.18307722 -0.108393125 0.06107175 -0.055076513 0.035123553 0.10601557 -0.064831726
0.08534732 0.025091335 -0.01042751 -0.034214664 0.07974481 0.14848289 0.029863471 0.002663158
0.2882702 -0.002759675 0.16537772 -0.07032378 0.0046714754 0.09443389 -0.038507394 0.02203639
0.15047488 0.20444302 -0.07994675 0.072767176 -0.0099047655 -0.059807025 0.06852927 -0.05767296
0.0018301773 0.042623576 0.25486737 0.05083691 0.08763303 0.1743807 0.05262342 -0.090424255
0.06942575 0.09255375 0.028480392 0.033483487 0.26814198 0.019123035 0.11781486 0.07771593
0.088556774 0.060753208 -0.014352629 0.054330826 -0.03696997 -0.010380412 -0.12995912 0.120917864
0.050322432 -0.0026657286 0.050769314 -0.037926268 -0.063902855 0.28212747 0.04965673 -0.15911311
0.10703848 0.14305834 0.046105668 -0.026947495 0.043315295 -0.11741249 0.023182364 0.20404871
0.1459888 0.10810386 0.17398341 0.00048417223 -0.0011508387 0.104401946 0.10647475 0.12748714
0.06535996 -0.07042118 0.0319315 0.14036144 0.008493224 0.17462812 0.11308182 0.07262562
-0.064506896 -0.17067595 -0.07672183 0.025358412 0.05144443 0.08350567 0.11955563 0.1060113
-0.061085932 0.0978517 -0.005581529 -0.0027732984 -0.07326128 0.17503116 -0.09352957 -0.026495777
0.07175829 -0.07180082 0.0435325 0.045674764 0.06206609 0.054709107 0.18591721 -0.038217366
-0.06521943 0.058216058 -0.010839718 -0.06033156 0.06566653 0.10295505 0.020679684 0.026377682
0.037511688 -0.022333141 -0.108323194 0.020211818 0.041406095 -0.01141393 0.040145166 0.24678308
0.1542502 0.05906528 -0.025247319 -0.08074583 0.16144572 0.19415201 0.039077964 -0.106449015
-0.011872801 0.007556381 0.07736151 -0.040385358 0.05539515 0.19237493 0.12096562 0.10658179
0.034001507 0.027155554 0.040660053 0.21164732 0.037722778 0.07276883 -0.086485304 -0.03774677
0.0063985176 0.098676704 -0.05505557 0.14406952 0.06877415 -0.043550357 0.07603985 0.020720901
0.049730852 0.030129613 0.02785389 0.20403628 0.17899501 0.1369292 0.019703697 0.025746755
0.040785227 0.13787007 0.09230288 -0.016779706 0.19716786 -0.009916509 0.20043258 0.07667848

bias f4 [8]
00000000: 76c5 98bf 4565 aabf 4b49 98bf 82e0 83bf
00000010: 3323 86bf 6775 99bf b202 70bf 65c4 adbf
-1.193526 -1.3312155 -1.1897367 -1.0302889 -1.0479492 -1.1988953 -0.9375411 -1.357556

weight f4 [256, 36]
00000000: 891b 173f 8353 b3bf c2ca 163f 01f8 c23d
00000010: d7e9 143e 58bb 0c3f 4489 c0be e643 8fbd
00000020: a843 aebe 0b13 a23d 8a06 00bf e1a3 e0bd
00000030: b0a8 15bf ed8a 47be 7b81 843f 0b97 573e
00000040: 60c5 7abf 1651 1dbe 71fe 4b3f 1bd0 3f3f
00000050: 7357 4cbe 0205 573f 52f8 69bf 615b 083d
00000060: 11cb a1bd 6193 e03c 34dd 5fbc 4056 663e
00000070: c403 65be 9833 263e 0390 c7be e741 6d3e
00000080: 4f9a 7cbe b955 5f3e 4b7e a53e cc98 debc
00000090: 253e 043f 8305 19bf d1f3 ffbe 2fa2 72bd
000000a0: fd92 22bf d1ec dd3f 7d38 143f 9433 f8bd
000000b0: d90e 893d e827 2abe 86e6 7b3e 6f19 9cbd
000000c0: 09ce 0abf 188f 9fbe 3c2b d0be 6e55 063e
000000d0: 9303 f63d 9a91 c2bd 833d e0bd 2ca4 133e
000000e0: 7fd2 eabd 529a 06bf ae22 873e cc7f 14bf
000000f0: 1e5e 763e 9075 1e3e 78c0 c83e 49c0 3abc
00000100: 3b54 db3e 8765 543d 5d06 4d3e cc79 34bd
00000110: 4b58 913d a36a 233c c8a6 4e3d cab4 303e
00000120: 48a1 553f f749 913f 8eae 973e 0fd7 433f
00000130: 60a9 973e 26ff 183f 2788 66bf b78a 143f
00000140: 46bf 653f 2d2d c9be d580 9fbe 041d 433e
00000150: f605 233f 3969 e3be a557 163e 290d d2be
00000160: 14cf d8be b52a e4be 5b72 d8be 9e64 8d3f
00000170: 33ee c83e 3608 18bf dfbe 16bf c53c 88bf
00000180: 89ec 873e d900 9d3d 1859 953e 3270 073f
00000190: d3e5 acbd 65d1 06bf e686 aebd 7f98 753d
000001a0: 5025 87bc b418 68bc b6e2 d33d 6703 8a3d
000001b0: c5ac c9bf 4a6e cdbc b8d6 2e3e f11a 463f
000001c0: e423 b43f bade 24bf 6cc3 82be 07b8 01bd
000001d0: 1b2b 253f 6ca7 853d a924 ed3e 1a93 75bd
000001e0: 2d9f d8be c04a 023f ebd9 10bf a347 73bf
000001f0: 90da 64bf 48b0 123f 8534 43bf d159 e8ba
00000200: ec88 9cbe 59f9 53bf e555 d93f 8589 b8be
00000210: 1125 acbe a2ec e4be acd5 a9be 2398 34bf
00000220: e0ed 44bd 05b2 543e 67f0 22bd 2804 17be
00000230: e2ef 7b3d c53b 693d f2e3 213d f050 823d
00000240: a1a2 18bf 1265 4a3e ee5f b33d 7439 6f3e
00000250: 2aa7 e1be 6e2f 843d 3ed0 72be da1e d0bf
00000260: 2078 cb3e e98e 913e 30dd 1b3e c1f4 60bf
00000270: d612 ea3d 5df2 81be 4b00 84be 16a5 163f
00000280: 17b5 5bbe f826 87be 3751 04be 8478 13be
00000290: 6b2b 263e 6075 8d3c 68d0 343f 5732 b53e
000002a0: 31d8 b43e 87f3 743e 10b7 7abd 135d 813d
000002b0: 3286 723d cd0c 533e 4a14 8c3d 44dd bdbe
000002c0: a96b 03bc 9587 1ebd 43df 56bd f492 8a3e
000002d0: 0f17 16bf a2c9 c93e 45a6 593f fd80 713f
000002e0: 4ccf 013f 396a 71c0 7742 513f 9d98 993d
000002f0: a0fb cbbc b9fc ddbc 008b 7f3e 4983 95bf
00000300: d987 bb3e a4ff 8b3d feff 49bd 856f 49bf
00000310: b9c8 203f 5be3 01be 0bd1 653e de7d 173e
00000320: e6b5 153e 23b0 47bf 87b6 363e 99e3 70bf
00000330: 4e20 5abd 490e 3c3f 8755 683d f5ea 4a3e
00000340: 1a6b 89be 1e71 0cbf 0c9c 3dbd 812d 683c
00000350: 5c29 48bc 16f4 3dbc 0f10 9cbe b2a8 f7be
00000360: 9d6b d23e b137 c1be 2af6 e73e 2201 163e
00000370: 03c6 eabe 2a52 7cbf a0f3 7dbe 0fd5 e6be
00000380: 0ce0 1abd 9df5 95bc 9249 ecbe f775 ce3e
00000390: 9567 f0be 7bcf 4cbe 28db e93e 818b 92be
000003a0: d699 43bf fd9f 19be 2020 4b3f 207a d93e
000003b0: 0df5 9cbe 7e78 e03d 6563 11bf 99ec 913e
000003c0: e662 a83d a0bd 58bd 7d8c 1c3e 753d ba3d
000003d0: 11ad ccbd 2296 2abe da6f 9ebe e97a 633e
000003e0: 12fb d3bc 1c9c b23e e59f 48be 4e8a 6cbe
000003f0: af32 d33e b8d1 883e 8877 f8be 20b4 41bf
0.5902639 -1.4009861 0.58903134 0.09519959 0.14542328 0.54973364 -0.37604725 -0.069953725
-0.34035993 0.079137884 -0.5000998 -0.109687574 -0.5846052 -0.1948659 1.0352014 0.21053712
-0.9795742 -0.15362963 0.7968512 0.7492692 -0.19955234 0.83992016 -0.9139453 0.03329027
-0.0790006 0.027414026 -0.013663579 0.2249384 -0.22364718 0.16230619 -0.3897706 0.23169671
-0.24668239 0.21810044 0.32322916 -0.027172469 0.51657325 -0.59774035 -0.49990705 -0.0592367
-0.63505536 1.7337896 0.57898694 -0.12119213 0.06692285 -0.16616786 0.24599656 -0.076220386
-0.54220635 -0.3116386 -0.40657985 0.13118526 0.120124005 -0.095004275 -0.109492324 0.14418095
-0.1146593 -0.52579224 0.26393646 -0.580075 0.2405934 0.15474534 0.39209342 -0.011398383
0.428377 0.051854637 0.20021959 -0.044061467 0.07096919 0.009974155 0.050452024 0.17256466
0.8344922 1.1350697 0.29625362 0.7650003 0.2962141 0.59764326 -0.900515 0.5802416
0.89744985 -0.3929228 -0.3115298 0.19054037 0.6368097 -0.44416216 0.14681871 -0.41025665
-0.42345488 -0.44563833 -0.42274746 1.1046331 0.39244232 -0.5938753 -0.58884996 -1.0643545
0.2654765 0.07666177 0.29169536 0.5290557 -0.08442273 -0.5266326 -0.085218236 0.059959885
-0.016497284 -0.014166046 0.10345976 0.0673893 -1.575585 -0.025077004 0.17074096 0.7738486
1.4073453 -0.64402354 -0.2553972 -0.031669643 0.645189 0.06526074 0.46317032 -0.05995474
-0.4230894 0.5089531 -0.56582516 -0.95031184 -0.89396 0.57300234 -0.76252013 -0.0017726963
-0.30573213 -0.8280235 1.6979338 -0.3604242 -0.3362203 -0.44711787 -0.3317083 -0.7054464
-0.048078418 0.20771034 -0.039780047 -0.14747679 0.061508067 0.056941766 0.039524026 0.06363094
-0.5962315 0.19765118 0.087585315 0.2336176 -0.4407285 0.06454359 -0.2371225 -1.6259415
0.39740086 0.28429344 0.15221095 -0.87873465 0.11429374 -0.2538022 -0.25781474 0.5884565
-0.21455799 -0.26396918 -0.12921606 -0.14401442 0.162275 0.017267883 0.706305 0.3538997
0.3532119 0.23921023 -0.06120974 0.063165806 0.05921001 0.20610352 0.06839807 -0.37082875
-0.008021274 -0.03870352 -0.052459013 0.2706524 -0.58628935 0.39411646 0.8501933 0.94337445
0.50706935 -3.7721083 0.8174204 0.07499812 -0.024900258 -0.027098047 0.24955368 -1.168069
0.3662708 0.06835869 -0.0493164 -0.7868579 0.6280628 -0.12684385 0.22443025 0.14794108
0.1462017 -0.7800314 0.17843066 -0.94097286 -0.053253464 0.734593 0.05672219 0.19816191
-0.26839525 -0.54860103 -0.046291396 0.014171005 -0.012216892 -0.011593839 -0.30481002 -0.48370892
0.41097727 -0.37737802 0.45304996 0.1464887 -0.45854196 -0.9856287 -0.24799967 -0.45084426
-0.037811324 -0.018305594 -0.4614988 0.40324375 -0.46954027 -0.20001023 0.45675015 -0.28622058
-0.7640661 -0.15002437 0.79345894 0.42475986 -0.3065571 0.10960482 -0.5679229 0.28500822
0.082219884 -0.052915215 0.15287967 0.09093753 -0.09993947 -0.16658834 -0.3094471 0.22214855
-0.025876556 0.34884727 -0.19592245 -0.23099634 0.41249606 0.26722503 -0.48528695 -0.75665474

bias f4 [256]
00000000: 6997 393f d24b 42bf b03a 043f 9e91 9cbd
00000010: 90b8 0dbd 7a42 483f 0649 ac3e 3bec e0be
00000020: 9a4d a93d 296a 483f 9e65 013e 63aa e43d
00000030: 3705 503f bf7c a33f 2246 2d3f 547d cf3c
00000040: a887 1a3f 19d1 313f 802d 3abb e74d 133f
00000050: d400 093f 132e cb3e 43d7 293e d82f fbbe
00000060: 1ba4 453f 0c6d c0be 0df4 02bf f642 523f
00000070: b7f0 0ebf 7581 533f 9a1e 02bf 0dfc f9be
00000080: 5903 af3f b186 08bf 970a 203f f514 81be
00000090: 091b f6be aa40 d53e 9dca 103f 52ae 95be
000000a0: 0e4a 373f 60c6 cbbe f8ef b63e e2ea 09bf
000000b0: 5b51 ce3e d2ef b73e 4d1f 41bf 64d2 13bf
000000c0: 3987 e8be b86b eb3e 1651 bdbe faa4 a83c
000000d0: 0dee babe dd55 063f f342 28be 7aa2 c4be
000000e0: 061f 393f 0616 32bf 8eb7 7ebe 36d1 77bf
000000f0: 3737 62be b8e6 d53e 6cbd e23e 9a36 553f
00000100: f009 ca3e 77d8 a63e 1cd1 993d 9196 673f
00000110: 03e9 36be 0e79 31bf ef23 ab3e 5391 623f
00000120: 3ee3 ffbe 7b6f 76be f030 bf3e 2a7c d93e
00000130: 1384 61bd 771b 073f f73f 2ebe b81d f3be
00000140: a466 0fbf 3cc5 533e 2647 6abf 1c4e f1be
00000150: 9078 94bf 70ea c2be c570 bc3d 02bb 6e3f
00000160: a9aa f33e 9ce5 afbe 23bc f53d 08bf 833e
00000170: a873 2cbe dc6d c13e 7c08 65bd c354 a1be
00000180: 40b1 3a3f 88e6 403e 9e29 a1be b48a bfbc
00000190: ff34 1d3f 87a8 0b3f d4c3 0e3f 3979 2abf
000001a0: 4a15 27be 0a0c 833d 92c2 1b3f 7b8b 583f
000001b0: a424 20bf 44b1 25bf b399 053f 261b 373f
000001c0: d853 ec3e ce69 c43e c2bf 0a3f 8a08 2cbe
000001d0: 5a7e 463f 055d c5be 837e 983f 17d7 a3be
000001e0: 9c2b 2abf 0dce 213f e6cd a5bc a25d 493f
000001f0: 3c3d c33e c617 43bf 2adc a4bf bfb8 c4be
00000200: fefa ad3e 8d9c 04bf aad8 40bf 893b dc3e
00000210: f740 8ebe 368b 573f 7624 cfbe d0f2 473f
00000220: da86 063f b88f 483f 9e0c c53e 82b2 d1be
00000230: 4417 6fbe 5e38 80bf 6ae4 8c3e 2254 a6be
00000240: c53f 943f 3063 d3be c17f bfbe 89f9 7ebe
00000250: 65da 463f dc66 e2be 6394 23bf 3c44 33bd
00000260: 3967 b43f f3f8 48be 216f 0dbf b5e2 093e
00000270: 03cd 183f c5ad 97be 6176 1e3f b57f c1be
00000280: a2b4 aa3f e56e 7c3f 7ce0 e23e 1680 303f
00000290: ff1f ccbe 5969 01bf a51f aa3e a8de b2be
000002a0: cb69 96be e0ba 543f 5b59 debe 5bfd 49be
000002b0: 88e0 6ebe 8c11 b5be be2a 7ebe d936 833e
000002c0: faa0 eabe be58 9dbe b45c 63be feed 643e
000002d0: 49b0 75be 54bd 943f 14e1 b2be 9658 60be
000002e0: 4275 f93e d253 2b3f 22b2 823e 6157 09bf
000002f0: f97a db3e 3ff8 ecbe c5b4 233f d3aa d4be
00000300: b99a 213f 620f abbe 1c02 d4be aa6f 833e
00000310: 84dc b0bf b8c5 7ebe 6ced 113f fcde e9be
00000320: 3331 1bbf 66d8 bdbe 1a5d ea3e 04de 8abe
00000330: b357 3fbe af3a 9a3e 8ce7 c2be 176a c13d
00000340: 4949 b3be 1ace 05bf d35f 543f ed0f a1be
00000350: f442 93be b4cc 29be 96bf d6be 78ef e43e
00000360: e324 173f 5f6d d6be 2620 043f 7700 943e
00000370: f941 40be 89a3 3ebf a7d4 e0be 18cd b9be
00000380: 8a1a 11bf 3bfd 10be 8b3f 04bf 24cf 3c3f
00000390: 5756 45bf 9465 4cbe b842 86be 29ea 2fbd
000003a0: 0941 f3be 0436 a53f 43f3 c23e 4acc 223f
000003b0: fe25 76be d679 2b3f b6cd 3abf e9c8 533f
000003c0: 344e 363f 1691 81be f019 823f e63d 9d3f
000003d0: 5b94 7e3f 89b9 183f ecf2 f9be 5b07 473f
000003e0: 0ea4 c1be e1a1 24bf 09a0 08bf 82e8 8a3e
000003f0: adf3 d3be cf07 c1be 3e28 753f a568 473f
0.7249666 -0.7589694 0.5165205 -0.07644962 -0.03459984 0.78226435 0.33649462 -0.4393023
0.082667544 0.7828699 0.1263642 0.11165311 0.8125796 1.2772444 0.6768514 0.025328316
0.60363245 0.6945968 -0.0028408468 0.57540745 0.5351689 0.3968359 0.16586022 -0.4905994
0.7720353 -0.37583196 -0.5115364 0.82133424 -0.5583605 0.8261941 -0.50827944 -0.48825112
1.3672897 -0.5333052 0.6251616 -0.252113 -0.480675 0.41650897 0.56559163 -0.29234558
0.71597373 -0.39799786 0.35729957 -0.5387403 0.40296444 0.35925156 -0.75438386 -0.57742906
-0.45415667 0.4598062 -0.36975926 0.02058648 -0.36509743 0.52474767 -0.16431789 -0.3840521
0.72312963 -0.69564855 -0.24874708 -0.96803606 -0.22091375 0.41777587 0.44285142 0.8328644
0.39460707 0.32587025 0.075105876 0.9046412 -0.17862324 -0.6932534 0.33425853 0.88503
-0.4997806 -0.24065964 0.37342024 0.42477542 -0.055057596 0.52776283 -0.17016588 -0.4748361
-0.5601599 0.20680708 -0.91514814 -0.47129905 -1.1599293 -0.38069487 0.092011966 0.932541
0.4759114 -0.34354866 0.11998775 0.25731683 -0.16840994 0.3777913 -0.055916294 -0.3150998
0.7292671 0.1883794 -0.31477064 -0.023381568 0.6140899 0.5455403 0.5576756 -0.6659122
-0.16316715 0.06398781 0.60843766 0.8458783 -0.6255591 -0.6472361 0.5218765 0.715258
0.46157718 0.38361973 0.5419885 -0.16800132 0.7753655 -0.3854753 1.1913608 -0.32000038
-0.6647279 0.63205034 -0.020239782 0.786585 0.38132656 -0.7620815 -1.2879689 -0.384222
0.33980554 -0.5180138 -0.75330603 0.43014172 -0.2778394 0.84196794 -0.40457505 0.7810488
0.5254952 0.783443 0.3848619 -0.40956503 -0.23348719 -1.0017202 0.27518016 -0.32486063
1.1581961 -0.41286612 -0.37402156 -0.24899878 0.77676994 -0.442191 -0.63898295 -0.043766245
1.4094001 -0.19626217 -0.55247694 0.13465388 0.59687823 -0.29624763 0.6189938 -0.37792745
1.3336375 0.9860671 0.44311893 0.68945444 -0.3986816 -0.5055137 0.33227268 -0.34935498
-0.2937759 0.8309765 -0.43427548 -0.19725554 -0.2332784 -0.3536495 -0.24820992 0.25627783
-0.4582594 -0.30731767 -0.22203332 0.22356412 -0.23993029 1.1620278 -0.34937346 -0.21908793
0.48722273 0.66924775 0.2552653 -0.53648955 0.42867258 -0.46283147 0.6394771 -0.4153658
0.63126713 -0.33410174 -0.4140786 0.2567113 -1.3817296 -0.24880111 0.570029 -0.45677936
-0.6062195 -0.3707916 0.45774156 -0.2712251 -0.18685798 0.30122897 -0.3806728 0.09444063
-0.3501685 -0.5226761 0.82958716 -0.31457463 -0.2876202 -0.16581994 -0.41943043 0.4471395
0.5904066 -0.4188032 0.51611555 0.28906605 -0.18775167 -0.74468285 -0.4391224 -0.36289287
-0.5668112 -0.141591 -0.5165946 0.7375357 -0.7708487 -0.19960624 -0.26222777 -0.042947922
-0.47510555 1.2907109 0.3807622 0.6359297 -0.2403793 0.6698278 -0.7297014 0.8272844
0.7121308 -0.25306004 1.0164165 1.2284515 0.9944512 0.59658104 -0.48818147 0.777456
-0.37820476 -0.6430951 -0.53369194 0.27130514 -0.41396847 -0.3770127 0.9576453 0.7789405
